result/ver5/best.pt (torch, 234936 bytes, 59 tensors)

Encoder.encoder_lstm.weight_ih_l0 f4 [128, 6]
000000 e5 51 d8 bc 18 2f 69 be 7c 6f 72 bd f5 2e d9 3e
       -0.026406238 -0.22771871 -0.05918835 0.42418638
000010 67 9e e1 3e 94 03 01 be 6b a7 48 bf 37 c7 64 bf
       0.44066164 -0.12599021 -0.7838046 -0.8936648
000020 34 6d 11 bf 59 d6 59 be a9 1c 88 3e 52 1b 91 be
       -0.56807256 -0.21273173 0.26584366 -0.28341156
000030 e0 33 b2 be 74 5e a7 be 62 d0 36 bd f7 af 07 3f
       -0.34805202 -0.3268925 -0.044632323 0.53002876
000040 57 d0 30 3f 88 c4 0d be 55 bf 04 be 87 0c e0 3d
       0.690679 -0.13844502 -0.12963612 0.109398894
000050 3b b7 94 be ee d4 a6 be 43 00 0a bf f0 76 48 3e
       -0.29046044 -0.32584327 -0.5390665 0.19576621
000060 be 42 3a 3f da ec 20 3f 7e a3 be 3e a6 c9 24 3e
       0.7275809 0.62861407 0.3723411 0.16092548
000070 e9 43 34 3d 4a ef ec 3e e7 fc 78 3d c0 12 02 be
       0.044010077 0.46276313 0.06078806 -0.12702465
000080 28 9a 01 bf f4 5e c5 3e 45 bd 82 3d cb fb cc be
       -0.5062585 0.38549006 0.063837565 -0.40035853
000090 74 db 82 be ba 32 78 be 54 68 98 be 0f 31 44 3e
       -0.25558054 -0.242381 -0.29767096 0.1915934
0000a0 72 25 ce bc 05 37 e0 bd 0f aa 59 be 0f 18 20 be
       -0.02516434 -0.10947994 -0.21256278 -0.15634178
0000b0 3d d2 a0 be 8e 96 b9 3e a1 f0 70 3c 48 45 03 be
       -0.314104 0.36247677 0.014705808 -0.12819397
0000c0 9c 87 85 bd 98 e2 48 3e e4 3e 3a 3e 7e af dd 3e
       -0.06520006 0.19617689 0.18188053 0.43297952
0000d0 68 d8 0c be 02 c3 a6 3d 2a 2c 3c be f0 4d db be
       -0.13754427 0.081426635 -0.18376222 -0.428329
0000e0 47 a6 4c be 6e b7 56 3e 39 97 83 bc fe e1 ac be
       -0.19985305 0.2096841 -0.01606332 -0.33766168
0000f0 f2 00 ba 3e da df 9b 3e 90 9d 84 3e fb fe b4 3d
       0.36328846 0.30444223 0.2590146 0.08837696
000100 9a 8f 18 3e 08 62 7b 3d d4 43 d7 be 4a d7 4d 3d
       0.1489853 0.061372787 -0.42043936 0.050254144
000110 0b 32 94 bd f4 7e e8 bd c0 10 ec be 95 95 51 3e
       -0.072361074 -0.113523394 -0.4610653 0.20467217
000120 c2 33 36 3e 8c 58 99 3d 31 a1 0e bc 13 fa e6 3e
       0.17793182 0.07487592 -0.008705423 0.45112666
000130 59 8a 8f 3e 30 ad 0a 3d 69 b1 81 be 94 f4 c7 be
       0.28035238 0.03385657 -0.25330666 -0.39053786
000140 e6 9a e2 be 65 00 54 3e a3 d1 05 bd e4 6a e2 bd
       -0.44258803 0.20703276 -0.03267063 -0.11055544
000150 8a 8f 71 be 37 7a ab be 7d 66 3b be a9 65 ca 3e
       -0.23589912 -0.3349168 -0.18300815 0.39530686
000160 62 da 41 bc 1d 8e e9 3d 76 34 00 bf 34 83 a4 be
       -0.011831852 0.11404059 -0.5008005 -0.3213135
000170 de 4e 45 be d3 55 9c bf 10 67 55 bf f5 9b 75 be
       -0.19268367 -1.2213691 -0.83360386 -0.23985274
000180 39 47 58 be 15 23 93 be f2 d6 cd be 68 16 82 3e
       -0.2112092 -0.28737703 -0.40203053 0.2540772
000190 a6 94 34 3e 83 5e 16 3c 42 b6 00 be d9 13 ae bd
       0.1763483 0.009177807 -0.12569526 -0.084998794
0001a0 ae 3d 08 bf 15 df 8a 3e 74 e0 b2 bd 50 9f 9b be
       -0.53219116 0.27123323 -0.08734217 -0.30394983
0001b0 b2 67 0e bf 9d 15 83 bd e7 c2 0b be 75 e2 68 bf
       -0.55626976 -0.06400607 -0.13648568 -0.90970546
0001c0 c9 b9 73 bf c8 8b 6f be 66 77 44 bf eb a7 bf be
       -0.9520536 -0.23393166 -0.7674469 -0.374328
0001d0 3d d9 f5 be a6 53 39 be ec 33 94 be 33 65 9b be
       -0.48017302 -0.18098316 -0.28945863 -0.30350646
0001e0 0f fa 11 bf 9d 8b fd be 97 07 c8 be b1 15 8a 3e
       -0.57022184 -0.4952058 -0.3906829 0.26969674
0001f0 d2 fa 04 3f c0 7d f5 bc 11 0e 2a 3f d1 e5 af 3e
       0.5194522 -0.029967189 0.66427714 0.34355024
000200 44 3d 89 3e 53 14 96 3d 35 33 78 be be 64 c9 3e
       0.26804554 0.07328095 -0.24238284 0.39334673
000210 c2 af 05 3f 0e 85 2a be 9b dc 94 3c 95 8e b4 3e
       0.5222131 -0.16652319 0.0181716 0.3526503
000220 00 3c f9 3e d3 8a cb be d4 5c 39 3e bd f9 18 bd
       0.4867859 -0.39754352 0.18101817 -0.037347544
000230 f0 8e 4c be 21 d6 85 3e bd 15 26 3b 29 27 34 3e
       -0.19976401 0.2613993 0.0025342547 0.17593063
000240 a2 29 2a 3e 6b 07 0d 3e 55 e7 b5 3d 66 29 67 bd
       0.16617444 0.13772361 0.08882014 -0.056435965
000250 2d d6 54 be 32 2e 07 bd d2 32 86 be 87 f4 30 3e
       -0.20784827 -0.03300304 -0.26210648 0.1728078
000260 ce 41 9d be 09 7d 81 3e 97 28 c0 bd a7 e0 b2 be
       -0.30714267 0.25290707 -0.09382742 -0.3493702
000270 6e c2 12 be ac 86 f6 be 17 7b a0 be c5 2a 25 3c
       -0.14331982 -0.4814962 -0.3134391 0.010080998
000280 1a 39 1f be 70 21 a5 be 04 c0 b8 be 9e 22 b3 bd
       -0.15549126 -0.32252073 -0.36083996 -0.08746837
000290 d2 9c 19 3e d3 95 83 be d4 3c 8f be 08 b7 39 3d
       0.15001228 -0.25700244 -0.27976096 0.045340568
0002a0 27 24 db bd 57 78 83 be 56 4f 21 be 46 42 ed 3e
       -0.10700255 -0.2567775 -0.1575292 0.46339625
0002b0 be ea 8f 3e ba ca 7e be 3b c6 bd be 9d 33 dd be
       0.28108782 -0.24882022 -0.370653 -0.4320344
0002c0 c5 31 c4 be 05 5e 43 3f 57 49 3f 3f f1 43 9e bd
       -0.3831922 0.7631534 0.7472128 -0.077278025
0002d0 33 89 dc be 33 9d 07 3c 5e 21 6e be df 68 f0 3d
       -0.43073425 0.008277225 -0.23254916 0.117387526
0002e0 9a 7a 6f be 47 c0 22 3d b3 5e 00 bd d4 6b 0f bf
       -0.23386613 0.03973415 -0.031340312 -0.5602391
0002f0 d0 e8 9e be 05 e9 32 3e 40 60 6a 3e 3a 43 92 be
       -0.31036997 0.17471702 0.22888279 -0.28566915
000300 9f fe 84 bd 2f c9 40 be 4a 21 ad bd e4 e1 a5 be
       -0.064938776 -0.18826745 -0.08453615 -0.32398903
000310 76 70 25 be 75 f1 e4 be f0 65 3d bf de 7b 77 bf
       -0.16156182 -0.44715467 -0.7398367 -0.9667338
000320 71 c3 f0 be 07 4f 05 be 33 47 ce 3e a8 fd 01 bf
       -0.4702411 -0.13018428 0.40288696 -0.50777674
000330 ec 9b a8 be 64 3a 08 bf 3d 54 43 3d 00 64 5a 3d
       -0.3293146 -0.532141 0.047687758 0.053318024
000340 54 97 7b 3e 49 99 6d bd 60 4f a6 be c0 1a b6 be
       0.24569446 -0.058007512 -0.32482433 -0.35567284
000350 c1 61 91 be d1 96 ab be 5a 01 de be 91 b9 8a 3d
       -0.28394893 -0.335135 -0.43360406 0.06773675
000360 91 a3 fb 3e a2 ae 42 be 21 f3 57 bd b3 83 bd bd
       0.4914823 -0.1901193 -0.0527221 -0.09253635
000370 3f 76 0b bf 8f c7 08 bf 51 a7 ad be f3 b2 9d be
       -0.54477304 -0.534295 -0.33916715 -0.3080059
000380 59 e1 e1 be c6 24 47 3e 19 29 45 bc dd 20 14 be
       -0.4411724 0.19447622 -0.012033724 -0.14465661
000390 e3 45 7e 3d 0b e3 08 bf 74 5e 49 3e f0 c3 52 3a
       0.062078368 -0.5347144 0.19664937 0.0008040061
0003a0 a7 6f 90 3b dd 25 14 3b 5e 35 79 be fd 43 20 3e
       0.0044078412 0.0022605576 -0.24336764 0.15650935
0003b0 14 e5 8d 3d 11 0a f6 3e 27 99 e0 3e d0 18 38 3e
       0.06928459 0.48054555 0.43866846 0.17978215
0003c0 aa 71 8a be b9 e2 8c be d0 78 10 3e 1d d9 6b be
       -0.27039844 -0.27516726 0.14108586 -0.23032041
0003d0 f2 04 7a be 1c 0e 59 3e c8 8f 1c be ed 1e b9 be
       -0.24415949 0.21196789 -0.15289223 -0.36156407
0003e0 a1 e4 00 3e d2 40 f5 3e f8 fe bc 3e 90 77 3a bd
       0.12587215 0.47901016 0.36913276 -0.04552418
0003f0 42 c0 fc bd 57 1a 8b be 37 cd 2a 3e c8 93 90 be
       -0.12341358 -0.27168533 0.16679846 -0.28237748

Encoder.encoder_lstm.weight_hh_l0 f4 [128, 32]
000000 60 9e c4 be 0e 0c 2c 3f ed 9a d3 3d bb 59 5a 3d
       -0.3840208 0.67205894 0.10332284 0.05330823
000010 5f 75 41 be da 95 82 be dc fd d2 3c 8d cd 01 3e
       -0.1889243 -0.25504953 0.025755815 0.12676068
000020 8c 26 b4 3e b8 2a 7e 3e 0b 07 d1 3d b5 76 14 3e
       0.3518566 0.24820983 0.102064215 0.14498408
000030 46 26 1f 3f 70 26 9c bd 9c 3f 26 3d c5 6e f0 3e
       0.62167776 -0.07624519 0.040588006 0.4695951
000040 49 30 22 3e 5c b5 0e be 87 2b 16 bf e5 57 bd 3e
       0.15838732 -0.1393637 -0.5866017 0.3698112
000050 5a c7 2b be 20 bd ee be d6 60 c4 3e b4 3b 01 3e
       -0.16775265 -0.46628666 0.3835513 0.12620431
000060 63 5d 10 be f7 74 c4 be a3 86 27 bd 5c 7b 06 be
       -0.14098124 -0.38370487 -0.040899884 -0.13132995
000070 ed 87 04 bf a4 3d 32 bf 60 00 b6 3e 30 b8 c3 3d
       -0.51769906 -0.69625306 0.3554716 0.09556615
000080 a0 8b d9 3e ce ad a7 3d f0 ef be be 57 76 76 be
       0.42489338 0.081874475 -0.37292433 -0.2406858
000090 12 b1 16 bf ad 33 31 3e a3 c1 d0 bd a8 c6 d3 3d
       -0.5886394 0.17304869 -0.10193183 0.10340625
0000a0 52 b6 85 bd cf 17 7f 3d c1 8d 01 be 91 fb 1b 3e
       -0.065289155 0.062278565 -0.12651731 0.15232684
0000b0 df 58 12 be 6b ef 78 be 65 67 b4 3d 2a fb 35 be
       -0.14291714 -0.2431008 0.088087834 -0.17771593
0000c0 62 6e 9e 3e 74 22 d2 be 30 ce 7d 3d 0e 05 69 3e
       0.3094359 -0.4104191 0.061964214 0.22755834
0000d0 8f 9c 13 3d 48 3b 0d bf d0 47 3f 3e a1 5a 0b 3f
       0.036037978 -0.5516858 0.18679738 0.54435164
0000e0 7a 39 27 3d cf 9b 22 3d d8 9d 90 3e eb 70 66 be
       0.0408263 0.039699372 0.28245425 -0.22504012
0000f0 15 ec 84 bd f6 3b 62 bd 22 fe d4 3e f2 ae 5f be
       -0.064903416 -0.055232964 0.41600138 -0.2184408
000100 91 9c 49 3f 0c 14 71 be 97 7c f0 bd 52 bb 10 bd
       0.78754526 -0.23542804 -0.117425136 -0.035334893
000110 38 58 3a bf 47 66 b7 3d 7b 39 5a 3d 62 b1 46 be
       -0.7279086 0.08955055 0.053277474 -0.19403604
000120 50 60 cb be 20 34 85 bd 37 ee 05 bf f7 91 7c 3e
       -0.39721918 -0.06504083 -0.5231661 0.24665056
000130 8e 08 ba be 01 a5 7c bd da 3c 19 bd bd b5 b8 be
       -0.36334652 -0.061680797 -0.03741155 -0.36076155
000140 f3 0f d2 bd 96 87 82 be a3 dc 76 3e 83 22 93 be
       -0.10256948 -0.2549407 0.24107604 -0.28737268
000150 94 c6 a9 3e dd 5d c0 be 40 7c 3a bc 81 84 48 3f
       0.33159316 -0.37571612 -0.011382163 0.78327185
000160 e1 3e 91 bd 62 5f 77 3e 6e e4 11 3e 05 83 85 3d
       -0.07092071 0.2415748 0.14247295 0.065191306
000170 64 e0 74 3e 47 0e b8 3e 4d 10 a8 3e a3 66 e6 3d
       0.23913723 0.35948393 0.32824937 0.11250045
000180 62 cf 64 3d de 41 20 3f 2e 92 9a be 52 9f cb bc
       0.05586184 0.62600505 -0.3018965 -0.024856243
000190 de d1 20 3d 19 fc 9b 3e 56 00 89 bd 04 52 03 3f
       0.039262645 0.30465773 -0.06689517 0.5129702
0001a0 05 68 01 3e 6a 55 e1 bd a0 7b b6 3d 24 73 09 3e
       0.12637337 -0.110026196 0.08910298 0.13422829
0001b0 e9 c6 9c 3e f9 12 c3 bc df ed a0 3e 97 97 83 3f
       0.30620506 -0.023812758 0.3143148 1.0280637
0001c0 15 4a 93 be b1 9c 75 3e cb c6 16 bf 76 03 4a 3e
       -0.28767458 0.23985554 -0.58897084 0.19727883
0001d0 61 6e 23 bf 49 f3 83 bd 6a 83 b9 3e 79 26 11 bf
       -0.638403 -0.06442887 0.36233073 -0.5669933
0001e0 37 c8 7a 3e c8 a6 37 be d0 74 1d 3e 02 3a 8c be
       0.24490438 -0.17934716 0.15376592 -0.27388006
0001f0 af 05 1c bf 50 8d ae be d9 fb 83 ba 88 f1 a6 3d
       -0.6094617 -0.34092188 -0.0010069563 0.08151537
000200 3e bf f9 be a2 4e d5 3e 75 98 60 3e 98 b4 09 be
       -0.4877872 0.41661555 0.21933158 -0.13447797
000210 b1 6b 0a 3f f1 63 23 bf 27 6e 6a bc 79 ff 2b 3c
       0.54070574 -0.63824373 -0.014308489 0.010497921
000220 ca ba bd 3e 25 04 f7 ba 94 d6 87 3e e8 8b 4a 3d
       0.3705657 -0.001884584 0.26530898 0.04944983
000230 e3 4e b6 3e cb 8e 2c 3d b0 66 a2 3e 44 07 24 3f
       0.3560706 0.042128365 0.3171897 0.64073586
000240 b9 2a 80 be c8 3a 17 3e 93 3a 2b bf 42 b0 30 be
       -0.25032595 0.14768517 -0.6688625 -0.17254737
000250 a0 56 b8 be 77 d4 8c 3e 1f ea 62 be a4 e2 55 be
       -0.3600359 0.27505848 -0.22159623 -0.20887238
000260 27 c5 33 bd 1f 00 57 be ac f9 73 bd 24 a4 50 be
       -0.04388919 -0.2099614 -0.059564278 -0.20375115
000270 10 d0 90 be 6e cd 12 bf ee 3b d6 3b 61 96 55 3c
       -0.2828374 -0.5734471 0.006537906 0.013036341
000280 4b e0 50 bd fd 56 e6 3c ec af b2 3d 19 3d 6a bd
       -0.050995152 0.028117651 0.08724961 -0.057187174
000290 41 5d 82 3e b6 6a 28 3e d4 0b 88 bd 09 52 09 3e
       0.25461772 0.16446957 -0.06642881 0.134102
0002a0 c5 03 44 3e 56 01 7b be 49 dd 5c 3e bc b2 b5 3d
       0.19142063 -0.24512228 0.21568789 0.088719815
0002b0 2d 10 1e bd f4 39 8b 3e 84 c7 ac bc da df 98 3e
       -0.038589645 0.27192652 -0.02109123 0.29858285
0002c0 c6 64 a5 be a5 e5 b8 3c dc af 9e be b1 02 3c 3e
       -0.32303447 0.02257044 -0.30993545 0.18360402
0002d0 07 8a f6 bd e2 d2 81 3c dc 6f 11 bd 0f bf f5 bd
       -0.120380454 0.015847627 -0.035507068 -0.11999332
0002e0 65 2b 6e 3e 4b e3 52 3e b8 6a 4d 3e 1d 8c a4 3d
       0.23258741 0.20594518 0.20060241 0.08034537
0002f0 02 ed 91 be a9 7d 25 3d cc 9d a5 be cf 7e aa 3d
       -0.28501135 0.040403042 -0.32346952 0.08324968
000300 06 66 12 3d 21 8c a1 3d 19 c5 08 3e 36 51 e6 bd
       0.03574183 0.078880556 0.13356437 -0.112459585
000310 6d 7b 46 3e 2b 46 9a be 0b 99 73 bd b8 5a ca 3d
       0.1938302 -0.3013166 -0.059472125 0.098805845
000320 61 c9 5f 3e 0b 6a 0d bd c6 f8 7f 3e e0 65 0d be
       0.21854164 -0.03452496 0.24997243 -0.13808393
000330 c7 bf 08 3d 26 bc 90 be bf a0 6b be 8b 8d cd bb
       0.033386018 -0.28268546 -0.23010539 -0.0062729768
000340 78 f6 e8 3c 37 43 77 3e 27 c1 19 be 6b 49 12 3d
       0.028437838 0.24146734 -0.15015088 0.035714548
000350 8e a0 95 3e 22 9a 61 3e bb 21 08 3e fb 06 02 bd
       0.29224056 0.22031453 0.13294117 -0.03174494
000360 59 21 4d be 97 64 a6 bd 6e 0c 66 3e 51 1b 93 3e
       -0.20032252 -0.08124655 0.22465679 0.28731778
000370 e1 64 54 be 95 08 db bd da 0b 64 bd 80 18 5d be
       -0.20741607 -0.10694996 -0.055675365 -0.21591377
000380 9e 0a d6 be 89 8c ec 3d e2 15 72 3e f8 07 bd be
       -0.41804975 0.115502425 0.2364116 -0.36920142
000390 dc 73 c9 bd 19 93 16 3e e4 68 d0 3e 39 7f 85 be
       -0.098365515 0.14704551 0.40705025 -0.26073626
0003a0 79 e1 1d be 65 a5 89 3e 00 50 fe bd 4f 80 93 bc
       -0.15418042 0.26884 -0.124176025 -0.018005518
0003b0 56 d9 12 3f 1d b7 87 be ed 36 2d be 39 b8 35 3e
       0.5736288 -0.26506892 -0.16915484 0.17746057
0003c0 60 be e7 3e a0 4e 39 be 83 97 88 3d 78 1d 1c 3e
       0.45262432 -0.180964 0.066695236 0.15245616
0003d0 8f 9c c8 bd bb f0 99 be fa 77 ba 3e 47 30 39 3d
       -0.09795486 -0.30066475 0.3641966 0.045212056
0003e0 61 94 b2 3b 60 b5 b8 be 68 1b bc be 2c 43 8c be
       0.005449817 -0.36075878 -0.3673966 -0.27394998
0003f0 9c b6 a2 be d9 24 a6 be c9 bb 17 3e 9c 48 8b 3e
       -0.31779945 -0.32449988 0.14817728 0.27203834

Encoder.encoder_lstm.bias_ih_l0 f4 [128]
000000 55 99 c6 be 72 d1 5b be 99 6c ce be 21 03 f0 be
       -0.38788858 -0.21466616 -0.40317228 -0.46877387
000010 85 ee 42 be bb 6e 05 be 14 76 d6 bd 01 2a 75 be
       -0.190363 -0.13030522 -0.1047174 -0.23941804
000020 90 65 80 be 41 49 ff 3c 51 9b 40 bc e5 35 c7 be
       -0.25077486 0.03116286 -0.01175578 -0.38908306
000030 19 a8 68 be 5c 00 85 be f8 92 58 be 8f d7 18 be
       -0.22720374 -0.25976837 -0.21149814 -0.14925979
000040 04 a6 30 bc 88 3c 1f bf 15 d5 15 be cf f3 51 be
       -0.010781769 -0.6220174 -0.14632066 -0.20503162
000050 2b 00 9c be 9d 2c d3 be fa 43 08 bf 00 94 b1 be
       -0.30468878 -0.41244975 -0.53228724 -0.34683228
000060 ea d8 dd be b6 43 7e be 01 19 02 3d db 65 d4 3d
       -0.43329555 -0.24830517 0.031762127 0.1037099
000070 e0 24 b5 be f4 26 96 bd bd 88 a3 be 80 82 e0 bc
       -0.35379696 -0.073316485 -0.3194026 -0.027405977
000080 fc fb 49 bf 2e 78 ce bd d2 e7 7c be 76 95 13 bf
       -0.7890012 -0.10081516 -0.24697807 -0.57649934
000090 2b 3f 0f bf 0c 7c 86 be 4d 7a f9 bd 77 ba 2d be
       -0.5595576 -0.26266515 -0.1218153 -0.16965662
0000a0 68 59 80 be f1 64 90 be ad 03 08 bf 78 18 ff bc
       -0.25068212 -0.28202012 -0.5313061 -0.031139597
0000b0 e4 1d 0e bf a0 60 9a be bb 3b 2b be 24 08 ef 3e
       -0.5551436 -0.30151844 -0.16722004 0.46685898
0000c0 43 09 6a bd 1e 6d e6 be 8c 04 40 3e 39 bc 71 be
       -0.05713774 -0.45005125 0.18751734 -0.23606957
0000d0 cb d4 3e be d6 b9 f8 be 96 95 14 bf f0 06 46 be
       -0.18635862 -0.48579282 -0.5804075 -0.19338584
0000e0 c6 af f2 be d2 66 0a bf ec e8 79 be 1e ab d8 3e
       -0.4739973 -0.5406314 -0.24405259 0.42318052
0000f0 ee 7d 77 be cb 31 de be 16 97 ad be 51 b5 54 be
       -0.24169132 -0.43397364 -0.33904332 -0.20772292
000100 85 68 13 3d 90 e7 52 be ff 05 d8 3d e8 cf 1d 3e
       0.03598835 -0.20596147 0.10548019 0.15411341
000110 60 bd 47 3c b7 d0 82 3d 61 f6 4f bd a0 45 0a be
       0.012191147 0.063874654 -0.050772075 -0.13503122
000120 cc a8 3c be 7e 11 95 bd da 0f 0b bd 9c a1 1d be
       -0.18423766 -0.07278727 -0.033950664 -0.1539368
000130 b9 bc 99 bd 98 dd b4 3d 66 76 ef 3d a0 e8 20 be
       -0.07506699 0.08831328 0.116925046 -0.1571374
000140 4c c3 4e be d5 4d ba 3d 28 d8 a3 3c fc 80 eb 3d
       -0.20191687 0.090968765 0.020000532 0.11499211
000150 99 e9 d2 3d b3 e4 d4 bd a0 9a a1 bd 2c fd e4 3d
       0.102984615 -0.103951834 -0.078908205 0.11181101
000160 78 83 1e 3e 1a ed 27 bd 0a f2 02 3e 41 d8 68 3e
       0.15479839 -0.040997602 0.12787643 0.22738744
000170 b2 d2 45 3e e4 10 8a 3d 33 5c 1b be 13 8f 28 be
       0.19318655 0.06741503 -0.1517189 -0.16460828
000180 ed d3 f6 be 53 da 17 be 08 64 b7 bd 9c 5d 24 bf
       -0.48208562 -0.14829378 -0.08954626 -0.64205337
000190 0d a5 13 be 17 b0 42 be 67 db 01 3e 74 8b a1 be
       -0.1441843 -0.19012485 0.12681352 -0.31551707
0001a0 37 94 ad be 03 ce 38 3e 1d 9f c4 be 43 1b fd be
       -0.3390214 0.18047337 -0.38402644 -0.49434862
0001b0 2f 73 89 be 35 8d 86 be 19 c9 29 3d f4 af 56 be
       -0.2684569 -0.26279607 0.041451547 -0.20965558
0001c0 c1 b2 63 3e a8 fb 35 bf 21 e2 d1 39 32 9e 83 be
       0.22236158 -0.7108712 0.00040032066 -0.2570663
0001d0 f1 c6 fe be b9 e8 f5 be 7e 76 05 bf a5 29 b9 be
       -0.49761155 -0.48029116 -0.5213393 -0.36164585
0001e0 b2 6d 98 be 02 30 c6 be 4b bc 4e be 8d 33 3e bd
       -0.2977119 -0.38708502 -0.20189016 -0.04643588
0001f0 47 06 02 bf 55 ce 84 bd b5 e6 d0 be ef 10 aa bc
       -0.5079083 -0.06484667 -0.40801015 -0.020760028

Encoder.encoder_lstm.bias_hh_l0 f4 [128]
000000 e4 7c 7f be 76 9d 58 3a 68 88 36 be 32 c3 04 bf
       -0.24949986 0.00082632096 -0.17825472 -0.51860344
000010 9a c8 51 3d 04 1e 8d be ee cc 94 ba 5e 8b 16 be
       0.0512167 -0.27561963 -0.0011352578 -0.14701602
000020 4a 19 18 bd 32 03 5e 3e 1e 10 48 be 8c e3 84 be
       -0.037133493 0.21680906 -0.19537398 -0.25954854
000030 0c 48 20 be 93 fa 83 be fe 85 09 bd b8 36 ca 3d
       -0.15652484 -0.2577711 -0.03357505 0.09873718
000040 da 50 52 3e 05 c7 28 bf cf 5f a4 3d b3 3d 91 be
       0.20538655 -0.6592868 0.080260865 -0.28367385
000050 61 64 d2 be 14 83 03 be e2 68 f0 be d8 39 f4 be
       -0.41092208 -0.12842971 -0.4695502 -0.4770038
000060 83 37 6d be 1d aa 01 be bc be 89 3d 30 6a 1d 3d
       -0.23165707 -0.1266255 0.06725833 0.038431346
000070 ea be fe bd 66 35 00 be b6 f4 a3 be ff d6 8f 3c
       -0.12438758 -0.1252037 -0.32022637 0.017558573
000080 15 47 0b bf 6c f8 5f be 21 6c 91 be 80 c3 ff be
       -0.5440534 -0.21872109 -0.28402808 -0.49953842
000090 29 ff f0 be e7 df d5 be 6d f6 32 be e0 1d 9e 3c
       -0.47069672 -0.41772386 -0.17476816 0.019301355
0000a0 bd f3 14 be b3 ba 93 be 57 c9 c4 be 2b 9d 6a be
       -0.14546104 -0.28853378 -0.3843486 -0.22911517
0000b0 41 b8 ee be 38 7b ae be 48 d3 7b be d2 15 52 3e
       -0.4662495 -0.34078383 -0.24592316 0.20516136
0000c0 82 f9 13 3e 97 e4 cc be 62 56 65 3e 76 01 e3 be
       0.14450648 -0.4001815 0.22396234 -0.44337052
0000d0 c6 45 b6 be 18 f8 d1 be 91 8f b5 be 66 8f a9 be
       -0.35600108 -0.41009593 -0.35461095 -0.33117217
0000e0 5b af 08 bf 08 e7 07 bf c6 e6 b6 bb 6d 62 b6 3e
       -0.5339257 -0.530869 -0.0055817096 0.35621968
0000f0 c5 10 4a bd 87 da cc be 58 04 c9 be 2a 6a 6c bd
       -0.0493324 -0.40010473 -0.39261127 -0.057718433
000100 17 ec ed bc 76 94 09 be 25 86 2b be ac c4 e1 3d
       -0.02904324 -0.1343554 -0.16750391 0.1102384
000110 9a fe 78 3d d8 de 7d 3d 88 61 45 be 34 a3 db 3d
       0.060789682 0.0619801 -0.19275486 0.10724488
000120 f6 de 0b 3c 30 80 65 be 5e ca 74 bd ad 2b 5f 3c
       0.008537045 -0.22412181 -0.059763305 0.013621253
000130 b5 0a 40 be 38 b7 9c 3d 7f c2 f8 3d 7f 68 2e bd
       -0.18754084 0.07652134 0.12146472 -0.042580124
000140 35 4e 0d bd 3f 8e b0 bd 7f 51 d5 3d 14 52 b6 bc
       -0.034498412 -0.08620881 0.10415935 -0.022255935
000150 b5 08 04 3e f1 a6 2b 3e 83 a5 02 be a4 d6 b2 3d
       0.12893946 0.16762902 -0.1275845 0.08732346
000160 88 8f 31 bd 56 64 34 3e f2 f4 00 bd 24 0d 63 3d
       -0.043349773 0.176164 -0.031483598 0.055432454
000170 77 2d a8 3d 51 94 26 3e 6e aa a3 bd b4 b8 c9 bd
       0.08211797 0.16267516 -0.07991491 -0.098496825
000180 47 d6 02 bf 8f dd ea be f8 23 00 be 57 3c 35 bf
       -0.5110821 -0.4587216 -0.12513721 -0.70795196
000190 10 a4 96 be 91 a6 69 be 0b 82 f4 bd e9 bd af be
       -0.29422045 -0.22817446 -0.11938866 -0.34324577
0001a0 97 c5 92 bd 0a aa 37 bc cb 7a 7a be 3c 6f c2 be
       -0.071665935 -0.011209974 -0.24460904 -0.3797549
0001b0 8f 72 1d be d4 6e d2 be b9 89 21 be 73 71 0e 3d
       -0.15375732 -0.4110018 -0.15775193 0.034776162
0001c0 4d fe 28 3e 38 0f 38 bf 01 a3 45 be 31 93 7f be
       0.16503258 -0.7189822 -0.19300462 -0.24958493
0001d0 be e6 2f bf 89 f5 d3 be b3 ce 26 bf 1a b2 12 bf
       -0.6871146 -0.41398266 -0.6515915 -0.5730301
0001e0 a4 36 b6 be 0f 17 85 be 1c 8d 8f bc 1b 8d ee bd
       -0.35588562 -0.25994155 -0.01752334 -0.116480075
0001f0 89 42 d0 be d0 31 60 be 8b c6 e5 be 09 0f 77 be
       -0.40675762 -0.21894002 -0.4487804 -0.24126829

Encoder.encoder_attn.0.weight f4 [20, 84]
000000 f2 4b cf be c8 bb d3 3e 94 51 77 3e 08 f2 a3 be
       -0.4048763 0.41354203 0.24152213 -0.32020593
000010 dc 3c 26 be 1d 13 00 bf 4e e2 f0 3e d8 98 58 3e
       -0.16234154 -0.50029165 0.47047657 0.21152055
000020 ff b0 00 3f 94 d0 52 3f fc 5b dd 3e 3d 01 6f 3d
       0.50270075 0.82349515 0.4323424 0.05835079
000030 59 9c 79 3f 32 f9 07 bf b1 96 c1 be fd 3e 4e 3e
       0.9750419 -0.53114617 -0.3781028 0.20141216
000040 bd 1a 20 3f 60 6c 1d be e7 61 b3 bd 79 91 46 be
       0.625408 -0.15373373 -0.08758908 -0.19391431
000050 be 78 47 3a be c5 53 be 9e ee f4 3e f1 08 9b be
       0.00076092395 -0.20680901 0.478383 -0.3028026
000060 b1 d9 e7 be 2e dd c7 be 7d 4a b9 be b2 49 8c bd
       -0.45283273 -0.39035934 -0.36189643 -0.06849994
000070 c3 f8 01 bf 30 80 05 bf d6 a3 c2 3e c0 6f dc 3e
       -0.50770205 -0.52148724 0.38015622 0.43054008
000080 d1 10 cc be 58 c1 cf 3e 60 63 80 3e e5 fc dd be
       -0.3985658 0.40577197 0.25075817 -0.43357006
000090 65 81 8f be c9 16 b9 be f2 90 ea 3e 8a 82 63 3e
       -0.28028408 -0.36150196 0.4581371 0.22217765
0000a0 bc 9c 0d 3f f9 35 3d 3f e4 9d d1 3e 6d f7 b3 3c
       0.5531728 0.7391048 0.40940773 0.021968568
0000b0 5e 76 64 3f 4f 01 02 bf c9 13 df be 8e 84 58 3e
       0.89243114 -0.50783247 -0.43569782 0.21144316
0000c0 a2 59 33 3f 40 cb 0b bd 4e 7e d4 bd 04 d7 74 be
       0.70058644 -0.03412938 -0.10375653 -0.23910147
0000d0 a8 f7 34 be 8f 2c 87 be 11 35 00 3f 83 23 3d be
       -0.17672598 -0.26401183 0.5008097 -0.18470578
0000e0 e1 89 c2 be 2c a8 e6 be 68 48 a4 be 71 be 21 be
       -0.37995818 -0.4505018 -0.32086492 -0.15795304
0000f0 89 ee ff be 02 dd ed be b9 db cc 3e 41 d6 e5 3e
       -0.49986675 -0.46457678 0.40011385 0.44890025
000100 e8 22 ac 3d 08 cf b2 be dd 0d 2c be c8 8b 91 3e
       0.08405095 -0.34923577 -0.16802163 0.28426957
000110 56 1d 43 bc cd da c8 3e fd d8 30 bb fe 8e 21 3b
       -0.01190885 0.39229432 -0.0026984804 0.002465188
000120 5e 5f 76 be 0a 2f e3 bd d5 5b 1e bf 57 c3 97 be
       -0.24059817 -0.11092956 -0.61858875 -0.2964122
000130 d6 8f e7 bd 0f f7 6b be b9 f1 2a 3e 2b b0 cc be
       -0.113067314 -0.23043464 0.16693772 -0.39978155
000140 3f ff 96 3d 3b 63 a1 3e c0 f6 08 3e 1a ec 9e 3e
       0.07372903 0.3152102 0.13375378 0.31039506
000150 d9 8e 82 be 09 d8 f7 3d 80 3c 15 bd ee 63 dd 3e
       -0.2549961 0.12101752 -0.03643465 0.43240303
000160 68 28 54 bd c6 2b 50 be bf a2 52 be 53 de 3f 3e
       -0.051796347 -0.20329198 -0.20569895 0.18737154
000170 d9 1d 84 3e a0 4d ee be ef 7d ae 3e 81 aa e4 be
       0.25804022 -0.46543598 0.34080455 -0.44661334
000180 d4 4f 0a 3d 76 50 81 3d 6d 70 91 3d 76 19 a1 3e
       0.033767536 0.06314175 0.07101522 0.31464738
000190 7f ea ac be 6b f8 aa 3e 80 6e f5 be d5 c3 c7 3d
       -0.33772656 0.33392653 -0.47935867 0.09754149
0001a0 46 28 59 3e ae 20 f3 bd 89 56 14 3e a8 16 07 be
       0.2120677 -0.118714675 0.14486136 -0.13192236
0001b0 29 b6 2f 3e c1 c5 d9 3d c1 e8 af 3e ff f4 bd 3e
       0.17159332 0.10633422 0.34357265 0.3710098
0001c0 34 dd 30 be 7d 17 2d be bf d3 01 bf d6 bb a8 be
       -0.17271882 -0.16903491 -0.50713724 -0.32955807
0001d0 8a 7d d4 bd 98 9b 24 3e da 9b 93 bd be 33 a0 3e
       -0.10375507 0.1607498 -0.07207461 0.31289476
0001e0 c2 c8 26 bc 19 22 6a be 86 3d 17 be 47 0c a2 3e
       -0.0101797 -0.2286457 -0.14769563 0.31649992
0001f0 cb ae f3 3e a3 54 f5 be b6 9d 98 3e 6c dc 1c bf
       0.47594294 -0.47916135 0.29807824 -0.6127384
000200 9c c8 88 3e 59 9a 28 3e 79 98 66 3d c6 f8 bd 3e
       0.26715553 0.16465129 0.056297753 0.37103862
000210 00 77 b6 be 3a c3 ad 3e d9 71 c9 be 0f 83 89 3e
       -0.35637665 0.3393801 -0.3934467 0.26857802
000220 32 20 10 3d 7f 7e 05 be 60 53 4a 3d 5b bc 0b be
       0.035186954 -0.13036536 0.04939592 -0.1364607
000230 84 80 81 3e 1d 87 d4 3c 38 8b b8 3e 7f 3f be 3e
       0.25293362 0.025943333 0.36043715 0.3715782
000240 ba 26 97 be cc af 73 be de 4a bb be 03 a6 61 be
       -0.29521734 -0.2379753 -0.36580557 -0.22035985
000250 73 cf 2f b7 80 3e 82 bc 9a 88 57 bd 74 ee a1 bd
       -1.0479113e-05 -0.015898943 -0.052620508 -0.079068094
000260 ca ef 97 be 86 c5 1a 3e 46 7a c4 be 1b 83 60 be
       -0.29675132 0.15114412 -0.38374537 -0.21925013
000270 bf 47 44 3e 8f bc 71 3e 91 ed 4b bd 52 cc 73 bd
       0.19167994 0.23607086 -0.049787108 -0.059521027
000280 68 02 b3 3e 7b d0 10 3e d8 1f f7 be 56 7f 01 bf
       0.34962773 0.14142029 -0.48266482 -0.50584924
000290 f3 4d 89 3e 59 0f 00 3e 25 ca b3 3d 0a 28 07 3e
       0.26817283 0.12505855 0.087787904 0.13198867
0002a0 77 99 32 3d 11 40 f4 3e bc b6 92 3b 84 ee 18 bd
       0.043603387 0.4770513 0.00447735 -0.03733684
0002b0 72 9b d6 be a6 a7 87 be 98 c5 17 3f db ef 65 bd
       -0.4191547 -0.26495093 0.5928588 -0.056136947
0002c0 8f 64 3f 3d dd bc 2b 3f 1c ab 9e 3d 09 9c 67 bd
       0.04672676 0.6708506 0.0774748 -0.05654529
0002d0 3f fd e6 3e ee a1 6b be 40 e4 85 be 91 ab 11 3f
       0.45115086 -0.2301099 -0.26150703 0.56902415
0002e0 15 4a ec 3e 79 59 ea bc 83 71 34 bf 39 65 ee 3d
       0.4615027 -0.028607117 -0.70485705 0.116404004
0002f0 24 14 88 be 94 5b 53 be 76 07 26 3e 99 b4 80 3c
       -0.26577866 -0.20640403 0.16213784 0.015711116
000300 9b cc 0b be fa 7e 16 bf c9 55 30 be 81 1d ab 3d
       -0.1365227 -0.587875 -0.17220224 0.08355237
000310 f7 33 2c bf 07 6f 41 bf f7 17 76 3e b3 c3 10 3f
       -0.6726679 -0.7556004 0.2403258 0.56548613
000320 0a 92 0c bd 2b fb c4 3e 33 b5 ff 3d d5 7e 9f be
       -0.03431896 0.38472876 0.12485733 -0.31151453
000330 3a 75 a3 be a8 77 72 be 54 20 00 3f e3 10 f4 3d
       -0.31925374 -0.23678458 0.5004933 0.119172834
000340 25 2b 80 3e fd 3d 1c 3f c2 d7 21 3e 65 73 1d be
       0.25032917 0.61032087 0.15804961 -0.15376051
000350 c1 8f 09 3f 46 8f 3e be 1c 64 59 be 47 d3 23 3f
       0.53734976 -0.18609342 -0.21229595 0.6399426
000360 17 ea 04 3f 6e 81 ae bd 7b 26 49 bf 35 98 8d 3e
       0.5191969 -0.085207805 -0.7857434 0.27655187
000370 df 3f 91 be 56 92 41 be e3 51 5c 3e ad fb a2 bd
       -0.28369042 -0.18903479 0.21515612 -0.079581596
000380 c1 09 6b be b5 23 19 bf 76 cb 9c be 1e 62 84 3a
       -0.2295294 -0.5982011 -0.30623978 0.0010100042
000390 2c 36 3d bf d5 e9 31 bf 4e 68 bd 3e ff 19 05 3f
       -0.73910785 -0.69497424 0.3699364 0.5199279
0003a0 f7 4c ed bd a2 e4 03 3e 50 13 05 3d f4 8f 2f be
       -0.115869455 0.12880185 0.03248912 -0.17144758
0003b0 52 7d 8e bd b2 7f c9 be 23 17 e2 be dc a6 8c be
       -0.06957497 -0.39355236 -0.44158277 -0.27471054
0003c0 93 ba 3b bd 65 d6 ed bd 3a 62 05 be 8f 86 86 bd
       -0.045832228 -0.11613158 -0.13025752 -0.06568634
0003d0 fc ac e7 3d 01 2c 24 3d 9f b6 b6 3d 75 bf 90 bd
       0.11312291 0.040081028 0.08921551 -0.070677675
0003e0 2a 48 81 be 1e 39 7d 3e e5 a6 0b 3f ab 4b 30 3f
       -0.2525037 0.2472882 0.54551536 0.6886546
0003f0 77 6f b7 3e 8b 72 e7 3e f4 24 b9 bd 07 24 50 3e
       0.35827228 0.45204577 -0.090402514 0.20326243

Encoder.encoder_attn.0.bias f4 [20]
000000 43 b4 39 be 80 5d d0 3d 8b 27 0d bf 4d da 40 bf
       -0.1813517 0.10174084 -0.5513846 -0.753331
000010 ea 3e 13 3f 41 2c b1 3e 1e cc 28 bf 59 d4 ca be
       0.57517874 0.34604076 -0.6593646 -0.39615133
000020 b2 2d d9 3e e4 69 15 bf 36 3b d4 3e fb 8a 2b bf
       0.42417675 -0.583647 0.41451424 -0.6700894
000030 ff 92 46 3f fc fa 40 bd 34 60 22 bf 23 3f c9 3e
       0.7756805 -0.047114357 -0.63428044 0.39305982
000040 ef e9 09 3e d2 4d a4 bc a6 c4 d3 be bb 64 2a be
       0.13468145 -0.020056639 -0.41360968 -0.16639988

Encoder.encoder_attn.2.weight f4 [1, 20]
000000 fd 52 cf be f8 2b 90 be dc b2 cb be 53 d8 25 bf
       -0.40493003 -0.28158545 -0.39784896 -0.6478321
000010 95 07 0b 3f 18 78 33 3e 56 c6 a7 be 38 5e 14 bf
       0.54308444 0.17526281 -0.32768506 -0.57956266
000020 de f2 02 3f f8 bc 73 be bf e7 45 3e 9e 69 e7 be
       0.51151836 -0.23802555 0.19326685 -0.45197767
000030 49 e5 4b 3f e5 1c f7 3d 9f f2 06 bf ae cd f9 3e
       0.79646736 0.12066058 -0.5271396 0.48789734
000040 27 27 5e 3e 1e e6 6d be a3 39 73 be 25 8b d4 3d
       0.21694623 -0.23232314 -0.23752455 0.10378102

Decoder.attn_layer.0.weight f4 [32, 96]
000000 a2 85 07 bd a3 98 1e be f4 48 23 3e 4b 1e da bd
       -0.033086427 -0.15487914 0.15945798 -0.10650309
000010 6a e5 3b be 76 ae 21 be 75 f9 34 be 17 e5 01 3e
       -0.18349233 -0.15789208 -0.17673285 0.12685047
000020 2b 15 6f 3e f9 b6 15 bd 44 c2 e0 3d c8 0a 75 3e
       0.23347919 -0.03655145 0.10974553 0.23929894
000030 7e c6 e9 bc 84 79 01 be 78 90 85 3e f7 96 0c bd
       -0.028537031 -0.12644011 0.26086783 -0.03432366
000040 37 73 c5 bd 5c 6b da 3d 11 36 b6 bd 09 51 df bd
       -0.09641116 0.106650084 -0.08897031 -0.10904128
000050 35 3f 55 3d da 4d 7b 3e 84 89 7a 3e 1f 6c 16 3e
       0.052062232 0.24541417 0.2446652 0.14689682
000060 0d 06 ac bc aa e6 45 bc 60 37 dc 3d 73 6e 41 3d
       -0.020998979 -0.01207892 0.107527494 0.047224473
000070 d0 b8 7b be 83 fa 6c 3e 38 e3 2e 3e d0 14 d1 3e
       -0.24582219 0.23142438 0.17078865 0.4083619
000080 d9 63 2f 3d ba 80 9e bd bb f3 c9 3d 07 fa 13 be
       0.04281983 -0.077393964 0.09860941 -0.14450847
000090 e3 c3 2c be 8e c4 72 be fc 07 45 be 94 0c ae 3d
       -0.168716 -0.23707792 -0.19241327 0.08498493
0000a0 dd 9e 0f 3e 9b a2 77 bd c1 93 51 3c 9e 63 67 3e
       0.14025445 -0.060457807 0.012791575 0.22596595
0000b0 33 3e c1 3d 91 9f 74 be 33 2b a6 3e b8 a8 db bd
       0.09435692 -0.23888995 0.32454833 -0.1072554
0000c0 4a 1c c7 bd 14 d2 0d 3d cc 5e cf bd ea 5f 85 bd
       -0.097221926 0.034624174 -0.10125503 -0.06512435
0000d0 b1 85 c7 3d fc b5 0b 3e 8c 22 51 bd 3e 7e 80 bd
       0.097422965 0.1364364 -0.051058337 -0.06274079
0000e0 a1 58 c3 bd b1 1b c0 bb bf 38 0d 3e cf 90 e5 3d
       -0.09538389 -0.005862676 0.13791178 0.11209261
0000f0 69 c6 5d be 18 88 9c 3e d5 48 03 3e 3d de 88 3e
       -0.21657719 0.3057258 0.12820752 0.26732054
000100 48 10 b0 be ad 6b 84 3e 00 11 27 3e 4b 57 f5 bd
       -0.34387422 0.258634 0.16315079 -0.119795404
000110 c4 05 22 3c 8d 89 0c be 23 be 1e 3e bb 5a 94 be
       0.00988907 -0.13724346 0.15502219 -0.28975472
000120 42 75 02 3e 9d 6c cc 3e f2 f7 43 3e fb 61 a4 bd
       0.12740043 0.39926615 0.19137552 -0.08026501
000130 e8 15 6c 3e 81 a9 22 be e6 33 1d be e5 bf 3d 3e
       0.23055232 -0.15884973 -0.15351829 0.18530233
000140 eb f2 2a 3f ad 4b 08 3d ff 83 a3 bd b5 69 02 3e
       0.66776913 0.033275295 -0.07984161 0.12735637
000150 8e e5 70 be d1 3d 81 3e 31 d1 ad bd cb 5c a8 3d
       -0.23525068 0.25242475 -0.08487166 0.08220824
000160 6d 58 fa bd 41 00 0a be bf 48 84 be a5 66 45 be
       -0.12223897 -0.1347666 -0.2583675 -0.19277437
000170 41 24 ef bd b0 e9 8e be 18 06 17 3e 84 dd 8f 3e
       -0.11676837 -0.27912664 0.14748418 0.2809869
000180 14 cf 8a bd 84 72 ae bd b5 3a b4 be 29 b3 ba be
       -0.06777778 -0.08517936 -0.3520104 -0.36464813
000190 f4 0f 29 3d e5 34 23 3c bb 6c cc bd 1f 94 88 be
       0.04127498 0.0099613415 -0.09981676 -0.26675507
0001a0 46 23 43 be 7a cc 1d 3d 31 f3 1a be 12 95 a7 bc
       -0.19056424 0.038525082 -0.15131833 -0.020456824
0001b0 39 6d c5 bc 6a 32 a5 be da 32 bc bd d7 3a 6e bc
       -0.024099933 -0.32265025 -0.09189387 -0.014540396
0001c0 07 d6 53 3e 71 55 19 be 61 04 d5 bd f3 7e 1c 3d
       0.20687114 -0.14974 -0.10401226 0.038207006
0001d0 9b 92 25 be 6e fb 8a be a9 b6 18 be 8e 34 b3 be
       -0.16169207 -0.2714495 -0.1491343 -0.35001034
0001e0 5e 5f 9b 3d 34 a4 40 3e 00 f0 0c 3e 7f 61 e6 3e
       0.07586549 0.18812639 0.13763428 0.4499626
0001f0 83 6d 06 3d 5c cc 8f 3e 10 38 26 3d 6a 8d e1 be
       0.032819282 0.280856 0.04058081 -0.44053203
000200 09 a3 4f bd 0b bf 8b 3d 3a b2 33 be 01 06 51 be
       -0.05069259 0.06823548 -0.17548457 -0.20412447
000210 0f 24 dc 3d 97 c3 e4 bc 7e 6b 99 bd 6c a8 ee bd
       0.10749065 -0.027925296 -0.07491206 -0.11653218
000220 8e 54 0c be dc c7 c7 3d af e4 86 bd 71 92 66 bc
       -0.1370413 0.09754917 -0.06586587 -0.014073
000230 77 2c 42 be 5f b8 df be 4f 85 57 be 4f 5d dd bc
       -0.18962274 -0.4369535 -0.21046947 -0.027022032
000240 21 de 47 3e 6a 28 3e 3c ec dd d8 bd 81 13 03 3e
       0.19518329 0.011606315 -0.10589203 0.12800409
000250 01 d0 5c be d9 04 82 be 5e 8a 06 be 02 19 83 be
       -0.21563722 -0.25394323 -0.1313872 -0.25605017
000260 b7 3d 20 3e 9a 98 e0 3d 66 cd 8b 3d a3 9f 08 3f
       0.15648542 0.109666064 0.06826286 0.53368586
000270 ff 85 d2 3d ee 98 4c 3e e7 78 1a 3e 08 ba 07 be
       0.10279464 0.19980213 0.15085183 -0.13254559
000280 99 4b ec bd 0f de bf 3e 1a ca ef 3e e7 2f c8 bd
       -0.115378566 0.37474105 0.4683388 -0.09774762
000290 dc b1 81 3e 5a a4 ff bd 32 4a a2 3e c6 2e 7e 3e
       0.25331008 -0.124825194 0.31697232 0.2482253
0002a0 18 85 ab 3e d8 63 0e 3c 94 8f c5 3d 40 2e 14 3e
       0.3349998 0.008690797 0.09646526 0.14470768
0002b0 67 6d 4c be 4a 3a 97 be 17 c3 98 be de 3a 4d 3e
       -0.19963609 -0.2953666 -0.29836342 0.20041987
0002c0 16 72 50 be 12 31 89 3e d4 de 60 be 75 7d 12 bf
       -0.2035602 0.2679525 -0.21960002 -0.5722268
0002d0 73 2f c4 3c fa cb 83 3e d8 61 22 be dc 68 a1 be
       0.023948407 0.2574156 -0.15857637 -0.31525314
0002e0 a9 4a f5 bd 4a 53 2c be 13 09 cc be fe ed 14 be
       -0.11977131 -0.16828647 -0.39850673 -0.14543912
0002f0 a1 80 84 be 5d 08 41 be e5 d0 41 3e 2b f0 40 3e
       -0.25879386 -0.18850847 0.18927343 0.18841617
000300 61 0c d2 bd cb a9 cb 3e 85 11 cf 3b 35 05 ac bc
       -0.10256267 0.3977798 0.006319227 -0.020998577
000310 30 ed 70 bc a1 e4 4d 3d 69 6a 99 3e a4 02 83 be
       -0.014704987 0.050266866 0.29963997 -0.25587952
000320 df 84 ff bd f5 e7 c3 3d 5f f5 11 be be db 68 be
       -0.12476515 0.09565727 -0.14253758 -0.22740075
000330 51 19 a2 bd e5 c4 ab 3e f7 b1 4e be d5 b6 ab be
       -0.07914985 0.33548656 -0.20185076 -0.33537927
000340 8e 56 ca 3b e1 a9 df bd 3b 6d 6f 3e 9e 5f ac 3e
       0.006174869 -0.10921074 0.23381512 0.336667
000350 f2 b7 a1 3d 51 95 3f be db 6f 69 3d 17 7d e4 bc
       0.07896413 -0.18709303 0.05699144 -0.027891679
000360 ed 0b 84 3e 48 af 97 3e 4d ac 87 3d 68 8c 98 be
       0.2579035 0.29625916 0.06624661 -0.2979462
000370 7d b1 04 3e 62 e1 80 be 35 4c c9 be 3f 90 24 bf
       0.12958331 -0.25171953 -0.39315954 -0.642826
000380 71 d2 dc bd 8b 0e cf 3e 35 7f e6 b9 1c 00 1a bd
       -0.10782326 0.40440783 -0.00043963795 -0.03759776
000390 25 0b f1 3d dc ab d9 3d 43 f1 88 3e a8 16 e5 bd
       0.11769704 0.10628483 0.26746568 -0.11185962
0003a0 65 67 ea bd 71 85 77 bd 1e 1b 6f bd 99 87 27 be
       -0.11445502 -0.060429994 -0.05837547 -0.1636032
0003b0 bb 04 86 3b 4b 20 66 3e e9 c0 4a be 72 d6 85 be
       0.0040899194 0.22473256 -0.19800152 -0.2614017
0003c0 ee 31 09 be 12 1a 78 be 75 e4 70 3e 38 48 a0 3e
       -0.13397953 -0.24228695 0.2352465 0.313051
0003d0 32 d7 b5 bd f4 3e e0 bd 4b b6 28 3e f2 15 3d 3c
       -0.08878936 -0.10949507 0.16475789 0.011540877
0003e0 e8 39 1a 3e be 71 69 3e 1b 4a db 3d 8b dd ce be
       0.15061152 0.22797295 0.10707494 -0.404034
0003f0 1d 15 67 3d fe ce 6e be 5e 28 e1 be 43 49 05 bf
       0.05641662 -0.23321149 -0.4397611 -0.52064914

Decoder.attn_layer.0.bias f4 [32]
000000 a5 6e 5f be f6 0d b7 3e bc ba 32 3e 82 c8 ae bd
       -0.21819551 0.3575284 0.17454046 -0.085343376
000010 61 4b 97 3d 71 d3 cf 3d e4 cf 37 3e 15 5b bf be
       0.07387424 0.10147751 0.17950398 -0.37374178
000020 d5 15 00 bf 02 91 a7 3d 27 f2 b2 3d 6c 64 96 3e
       -0.50033313 0.08181955 0.08737593 0.2937349
000030 06 59 b1 3d 4e 12 12 3e c6 f6 f6 3d 71 f3 e1 be
       0.08659558 0.14264795 0.12058787 -0.44131044
000040 b1 33 a7 3e c9 00 7f 3d 74 1e b5 3e 38 a4 a6 bd
       0.32656625 0.06225661 0.35374796 -0.08136791
000050 04 23 a3 3d 8e 4f a6 3d 47 9a 9a 3e 71 df bb bd
       0.07965663 0.081206426 0.3019583 -0.091734774
000060 b9 18 3f be 8d 7a dd 3e be 71 7f be e5 f2 2e 3e
       -0.18661775 0.4325756 -0.24945733 0.17084844
000070 44 58 24 3c f2 f3 95 be 45 f0 29 3e 24 07 ba be
       0.01003081 -0.29287678 0.16595562 -0.36333573

Decoder.attn_layer.2.weight f4 [1, 32]
000000 2a 52 cf 3d 2e 3c 4d 3e ff f2 88 be 70 91 cd 3e
       0.101230934 0.20042488 -0.2674789 0.40150023
000010 b6 eb 8a be f3 aa 9a be 84 b8 15 be 6a ee c0 bd
       -0.27132958 -0.3020855 -0.14621168 -0.09420474
000020 6c cf dd 3d e4 8b b2 3c a6 69 72 be 7a 9a c0 3d
       0.10830578 0.02179522 -0.23673114 0.09404464
000030 41 1f b3 be 3e ed e2 bb c5 43 88 be 45 3b 3e be
       -0.34984782 -0.006925254 -0.26614204 -0.18577297
000040 7d 94 79 3c dd e9 12 3f ce 74 d9 3c 43 b0 8b 3e
       0.015233156 0.573881 0.026544955 0.27282915
000050 18 87 c0 3e e3 5b 8d be 27 14 96 be 6d 6f 84 3e
       0.37603068 -0.27609167 -0.2931225 0.2586626
000060 39 3f a3 3e 8c bc b0 3e 7e 49 78 be e7 3b bd bd
       0.31884173 0.3451885 -0.24246785 -0.09239941
000070 fa 26 9e 3e a4 d6 4d 3e 12 87 1a 3e 8a d2 6f 3e
       0.30889112 0.2010141 0.15090588 0.23420158

Decoder.lstm_layer.weight_ih_l0 f4 [128, 1]
000000 37 34 01 3d 45 e2 cc 3d bc 10 a6 be 44 82 d0 be
       0.031543937 0.10004095 -0.32434642 -0.40724385
000010 5c 93 9c bd 55 69 a9 bd 6e ea c2 be 6d 4f c0 3d
       -0.07645294 -0.082720436 -0.3806948 0.09390149
000020 1d 76 7c bd 7b 20 b9 3e a7 70 09 3f c5 c9 f1 bd
       -0.06163608 0.36157593 0.5368752 -0.118060626
000030 dd e8 9b 3e 8e 4f da bd 8b 2f 6c be 18 cf 8a ba
       0.30451098 -0.10659705 -0.23065011 -0.0010590283
000040 fe 06 94 be fd 7c 97 bd ec 4d 2e bc 68 84 97 be
       -0.28911585 -0.073968865 -0.010638695 -0.29593205
000050 f4 16 84 3e 5c e4 6b 3f 40 37 0a bf 83 7f 0d bf
       0.25798762 0.92145324 -0.53990555 -0.5527269
000060 81 7a b2 be c8 ce 3a 3d e7 a5 4f 3e e7 fc 3f 3e
       -0.34859088 0.04560736 0.2027813 0.18748818
000070 75 a6 8c 3d 55 9e 52 be 11 42 60 3e 68 35 85 bf
       0.06867687 -0.20568211 0.21900202 -1.0406923
000080 e8 17 f0 3c 58 ac 42 3f a1 bd 73 be 5d c9 c8 3c
       0.029308274 0.76044226 -0.23802806 0.02451008
000090 03 a8 74 3e 7c c3 ec bb bd 60 10 be 4b 67 a2 bd
       0.23892216 -0.007225452 -0.14099403 -0.07929858
0000a0 ef e7 2b be 3f 5b 70 bc 53 59 25 3d 77 9b 45 3e
       -0.16787694 -0.014670192 0.04036839 0.19297586
0000b0 da c7 9c 3e f3 44 55 bb 89 ba 9b be 69 8e 7b be
       0.30621225 -0.0032542318 -0.30415753 -0.24566044
0000c0 71 1c a6 bd 97 85 71 3e d9 51 e0 3d 17 45 40 be
       -0.081108935 0.23586117 0.10953111 -0.18776356
0000d0 10 e9 0a be b6 8b 49 3e 84 9b 8c 3e 1f 31 d1 3d
       -0.13565469 0.19682202 0.274624 0.10214447
0000e0 19 42 d8 be 80 9f aa 3e 95 be 96 3e 74 96 80 3e
       -0.42237929 0.33324814 0.29442278 0.25114787
0000f0 ef f8 68 be 1f 8b 06 bf b6 1e 31 be 1d a1 f1 3d
       -0.2275121 -0.5255603 -0.17296872 0.11798308
000100 9f 48 41 bc fb f5 d1 be 96 90 96 3e 82 ed 35 be
       -0.011797099 -0.4100798 0.29407185 -0.17766383
000110 49 5a 0a be 15 ac 8a be 08 31 a1 be f9 f2 c5 3e
       -0.13511004 -0.27084413 -0.3148272 0.38661936
000120 d3 e4 9f 3e ba 73 99 be 80 cf 9f 3f 47 1f 6c 3d
       0.31229267 -0.29971105 1.2485199 0.057647016
000130 a8 d3 82 3d 22 90 e4 bd 8b f6 c0 3e c1 f1 08 3f
       0.063880265 -0.11160304 0.37688097 0.5349389
000140 8c d8 c9 be cd 28 2a 3e 61 51 f9 3d 14 55 00 bf
       -0.39423025 0.16617127 0.12173725 -0.5012982
000150 9b 68 0b 3e c9 df 35 bf 49 df 86 3e 33 f8 32 3f
       0.13614123 -0.71044594 0.26342228 0.6990997
000160 76 be f7 be 03 57 d5 be d9 af 7f bf 9d d2 c2 be
       -0.48387498 -0.41667947 -0.998777 -0.3805131
000170 51 25 a4 be 45 8c 82 3e 1b 76 19 be 99 97 96 3f
       -0.3205972 0.25497642 -0.1498646 1.1765014
000180 e1 2c b1 bd d9 b1 b3 3e 7e 6a 6d be af d6 cf bc
       -0.08651138 0.35096624 -0.23185155 -0.025370924
000190 38 a4 17 bf cb 3a 54 bd 95 e5 d8 be 4b 2d 26 3e
       -0.5923495 -0.05181388 -0.42362657 0.16228215
0001a0 82 14 75 bd d3 9d 69 3c c6 f5 7d 3e 5b 39 02 3e
       -0.05983401 0.01425882 0.24800786 0.12717192
0001b0 ac a0 0d 3e f3 a3 4c 3d 80 61 f9 bd 06 51 6a bd
       0.13830823 0.04996104 -0.121768 -0.057206176
0001c0 0c 74 3f be 04 2b 4a be a7 25 8f be 75 ae 0d be
       -0.18696612 -0.19742972 -0.27958414 -0.13836081
0001d0 76 f4 a5 3e b9 83 67 3f 22 d1 ae be df 54 c5 be
       0.3241307 0.9043537 -0.3414393 -0.38541314
0001e0 51 93 00 bf 43 a1 9d 3e 8c 06 16 3f 77 9d b2 bd
       -0.50224787 0.30787095 0.5860374 -0.0872144
0001f0 92 c8 66 3e 8d 6b 50 be 1b 64 01 bd 8c 72 16 bf
       0.22537449 -0.20353527 -0.03158961 -0.58768535

Decoder.lstm_layer.weight_hh_l0 f4 [128, 32]
000000 5c 61 e9 bd 7e 90 96 bb fa 6c e3 3d 37 19 82 3e
       -0.11395523 -0.0045948615 0.1110477 0.25409862
000010 53 8e 18 3e 3c 42 67 3e 76 35 1f be 37 14 57 be
       0.14898042 0.2258386 -0.15547737 -0.21003805
000020 66 c0 c7 3c 9c 95 da 3c c2 e8 b9 be ca b8 d9 3d
       0.024383735 0.026682667 -0.36310393 0.10630949
000030 86 38 03 be 02 89 13 3e 4e 22 6d 3e 78 3b a3 be
       -0.1281453 0.14407733 0.23157617 -0.3188131
000040 a1 e5 0e 3e 54 1b df be f1 54 d2 3e ec bb ec 3d
       0.13954784 -0.43575537 0.4108043 0.11559281
000050 81 02 76 3e dc d2 0e 3e 41 a1 bc 3d 20 8b 6a 3c
       0.24024393 0.13947624 0.09210444 0.014315397
000060 35 57 c3 bd fa eb 97 3d 53 56 30 3e df df 81 3d
       -0.09538118 0.07418056 0.1722043 0.06341528
000070 93 c7 2e be e3 39 35 3e 00 68 8a be da b5 c2 3d
       -0.17068319 0.17697863 -0.2703247 0.09507342
000080 97 f1 90 3e b7 c6 7b be f4 35 a1 bd e7 6c 0a 3e
       0.28309318 -0.24587522 -0.07871619 0.13518105
000090 2a b9 42 be c8 65 8b be d5 cb 89 3d 79 ba c3 3e
       -0.19015947 -0.2722609 0.06728331 0.38228205
0000a0 e8 e7 ab bd 1d 40 a5 bd e4 44 80 3e da 74 33 3e
       -0.08393842 -0.08068869 0.2505256 0.17525044
0000b0 e5 2a 91 be 0c 1a 22 be 04 59 54 3e 7e 83 4a bc
       -0.28353038 -0.15830249 0.20737082 -0.012360452
0000c0 81 f7 65 3c 82 56 c3 3e 93 49 a1 be 6c e1 0e be
       0.01403606 0.38151938 -0.31501445 -0.13953179
0000d0 ab 17 89 3d 12 10 16 be ac f0 24 be c8 65 10 3e
       0.066939674 -0.14654568 -0.16107434 0.14101326
0000e0 68 ff a4 3c a6 05 f8 3d 97 43 1e be ae 85 b5 bd
       0.020141318 0.12110452 -0.15455471 -0.08863388
0000f0 70 08 bd bd a5 da 8c 3e 79 06 f8 bc f1 e1 90 bd
       -0.09230125 0.27510563 -0.030276524 -0.07074345
000100 d1 b1 2c be 26 a2 97 be d2 d7 a5 be 03 10 04 bd
       -0.16864707 -0.29615897 -0.3239122 -0.032241832
000110 3b 88 36 3d 84 22 29 bf d0 35 7a 3c 94 5a 1b 3e
       0.044563513 -0.6606829 0.015271619 0.15171272
000120 ad d8 a1 3e a9 42 35 be 10 29 f4 3e e0 45 40 3e
       0.31610623 -0.1770121 0.47687578 0.18776655
000130 19 b3 0b 3e f3 bc 23 3d 8a 15 26 3e 25 65 0e 3f
       0.13642539 0.039975118 0.16219154 0.55623084
000140 8b fc 42 be 45 c3 2c 3e 75 05 d8 bd d4 6f bd be
       -0.1904165 0.16871364 -0.10547916 -0.3699938
000150 48 fc 12 3d c4 f1 19 bf 4c 34 af 3e f2 69 b3 3e
       0.035885125 -0.6013453 0.34219587 0.35041767
000160 bc 45 b1 be 78 2f fd bd b8 b0 0d bf 20 e2 56 be
       -0.34623516 -0.123625696 -0.55347776 -0.20984697
000170 9c ab 9e be fc 9a cf 3d 87 54 34 bd 71 55 86 3e
       -0.30990303 0.10136983 -0.044025924 0.26237062
000180 2a e5 9f be f1 b4 ea bd ef ea af bd 44 02 96 3d
       -0.31229526 -0.11460293 -0.08589732 0.07324651
000190 30 90 c4 be fd 42 52 3e fa 21 3e be c5 81 a1 be
       -0.38391256 0.20533367 -0.18567649 -0.3154432
0001a0 7d 7a dc 3d c4 7d 55 be 04 70 c4 be 65 68 6b 3d
       0.1076555 -0.20848757 -0.3836671 0.057472605
0001b0 b2 76 00 be d7 fd 32 be 82 b2 aa 3d 7a e0 9c be
       -0.12545279 -0.17479645 0.08334829 -0.30640012
0001c0 df 03 f6 3c 77 53 91 be 64 e3 07 3f 5c 03 89 bd
       0.030031143 -0.2838399 0.53081346 -0.06690094
0001d0 30 a3 6a be ca 84 0d 3f 36 82 9c 3d b7 06 28 be
       -0.22913814 0.55280745 0.07642023 -0.16408812
0001e0 3c 62 60 3e 7c e9 9b 3e 00 9a 94 3e 3d f8 36 be
       0.21912473 0.30451572 0.29023743 -0.17868133
0001f0 2f bf a4 be ac 60 e4 3e 79 dc 7e 3e c1 eb a7 bc
       -0.32177112 0.44605005 0.24888791 -0.020498158
000200 97 aa 15 bf f6 8c a2 3d 8c ff 36 bf ff 7a cf 3e
       -0.58463424 0.079370424 -0.71483684 0.40523526
000210 82 8b c8 3e 6e 52 fe be 2d 75 8b 3d 3f ff 1a bf
       0.39168936 -0.49672264 0.06809459 -0.60545725
000220 1c 3f 92 bd 89 09 92 3e e8 79 c0 be d4 03 fb 3e
       -0.071409434 0.285229 -0.37593007 0.49026358
000230 ed d3 f5 3d b8 50 35 3e c9 b0 a9 3e 98 5f 34 bf
       0.12003312 0.17706573 0.3314269 -0.70458364
000240 30 5f 60 bd 93 b9 1a 3d cd c3 23 be db 0d ae 3e
       -0.054778278 0.037774634 -0.15992661 0.33994946
000250 dc 2e 52 3f f2 49 e2 3e bd 99 8c be 42 1e 41 bf
       0.8210275 0.4419704 -0.27461043 -0.75436795
000260 6a 82 08 be ce 8c d0 3e 5a 5b 15 3f 78 cd 7d 3e
       -0.13330999 0.40732425 0.58342516 0.24785411
000270 83 e4 de 3c c2 f4 94 be 91 8f 89 3e a6 0f 33 bf
       0.027208572 -0.29092985 0.26867345 -0.6994575
000280 f5 fd be bd a5 4e 57 3e be 6c 16 be bd b2 92 bd
       -0.09325782 0.21026094 -0.1468992 -0.07162998
000290 11 2f 6c 3e 9a 0c 9d be 9d e7 44 be 0f 4a 9c bd
       0.2306483 -0.30673677 -0.19228978 -0.07631313
0002a0 3d a8 6d be d4 d2 ba 3e b1 a9 b2 be b6 02 1c 3e
       -0.23208709 0.36488974 -0.3489509 0.15235409
0002b0 8b 83 8e bd fd 5f 06 3e f5 64 21 3f d0 a2 71 bd
       -0.069586836 0.13122554 0.63044673 -0.05899316
0002c0 78 71 84 be 63 7d c2 3d 4a 14 30 be 8e 0a 7d 3e
       -0.2586782 0.09496572 -0.1719524 0.24711058
0002d0 ed 5e 6c bc 80 c9 a6 3e 3f 8f d3 bd 5b d5 f1 bd
       -0.014426929 0.32575607 -0.103300564 -0.118082725
0002e0 41 95 37 bd 7a d2 af be d0 47 81 3e b6 f3 95 3e
       -0.044820074 -0.34340268 0.252501 0.292875
0002f0 1c d5 8b bd ec 57 2e 3d 0c ee 8c 3e c3 e2 78 bc
       -0.06827757 0.042564318 0.27525365 -0.015190783
000300 f9 50 ff 3d 00 69 e4 3e 91 46 07 be 58 ff 58 3e
       0.12466616 0.4461136 -0.13210513 0.21191156
000310 ff 66 87 3d 5f 92 92 bb 71 32 e5 bc 90 4b e3 bd
       0.06611442 -0.004473015 -0.027978154 -0.11098397
000320 00 7a 03 be 43 f4 74 3e 3a 07 52 be af 13 b5 3e
       -0.12839508 0.23921303 -0.20510569 0.3536658
000330 b6 6b 41 3e b3 7f 0e 3f 89 3b ee 3e ca e2 c5 3c
       0.18888745 0.55663604 0.46529797 0.024155993
000340 ed 42 32 3e 41 79 b1 be be 9b 80 be ed 39 5a 3e
       0.17408343 -0.34662822 -0.25118822 0.2131116
000350 b9 c5 94 bc 3b 7f 48 be 53 a8 6e be 1a 8b 00 bf
       -0.018160688 -0.19579785 -0.23306398 -0.5021225
000360 0c b3 d8 bd 1d 77 5c be 47 5b 78 3e 55 44 c3 3e
       -0.105810255 -0.21529813 0.2425357 0.3813807
000370 96 fb 17 3f 11 0e ea be b2 43 11 3c e3 6f 0a bf
       0.59368265 -0.45713857 0.0088662375 -0.54076976
000380 68 a8 e7 3d 4d 98 03 3e fd 13 bf bd 7d 72 a7 3e
       0.11311418 0.12851067 -0.09329984 0.32704535
000390 08 93 1c 3c 86 eb 88 be ed 5c 73 3e b6 e7 2f 3e
       0.009556539 -0.2674219 0.23765917 0.17178234
0003a0 84 91 bc bd cd a8 e3 3d d9 13 1d 3e 57 67 d3 be
       -0.092074424 0.111161806 0.15339603 -0.4128978
0003b0 56 ae 93 bb 45 36 8b 3e 4c b2 5f bd d9 19 b6 3e
       -0.0045068664 0.27189842 -0.054613397 0.35566595
0003c0 e6 8d da bd 6d b8 2c 3e 4e f1 5e 3d dd b8 ba bd
       -0.10671596 0.16867228 0.054429345 -0.09117291
0003d0 ef 5b a3 3a e2 a7 85 bd 5c 95 a8 3e 86 77 97 3e
       0.0012463311 -0.06526162 0.32926452 0.29583377
0003e0 7f 31 98 3e e6 34 35 3e 9e 04 22 bf bc ea fa bd
       0.29725263 0.1769596 -0.63288295 -0.12251803
0003f0 d0 85 1e 3b c3 f0 ba bd 07 0b 07 bf 7f 15 b2 3d
       0.0024188645 -0.09127953 -0.527512 0.08695506
