result/ver5/best.pt (torch, 194005 bytes, 48 tensors)

Encoder.encoder_lstm.weight_ih_l0 f4 [128, 6]
-0.43719935 -0.8149236 -0.2946341 -0.29165787 0.9998898 0.57562506 -0.26833558 0.3125478
0.40318555 2.3310702 2.0773385 -0.35177195 1.186576 0.20740582 1.2094953 -0.5728053
-0.6990921 2.1107988 0.2702983 -1.7249848 -1.0848893 -0.5539675 0.018994227 0.43481675
0.5425994 -0.29037976 -1.143974 0.6386128 0.071546115 -1.4824072 -0.13672112 -1.0848932
-0.17054358 0.2601852 1.391454 -0.010650963 -1.3704334 1.3648791 1.0524509 1.2014778
0.4281211 1.6103563 -1.4838715 -1.0368202 -1.2288935 -0.6945067 0.64301836 0.55235547
-0.20039918 -2.42508 -0.26410037 -0.5843248 0.2652519 -0.79680073 -0.10161342 0.56220293
1.694472 0.235225 0.13593042 -0.90457076 1.7350391 0.6459997 0.8216674 0.016631126
-1.3318452 0.54068375 0.7197477 0.11777353 0.4714286 -0.27376023 -0.42604962 0.444272
-2.5384219 0.31516445 -1.0744468 2.4980054 1.6967535 -1.1198102 -1.8436593 -0.48142213
2.044395 0.91593736 -0.3503817 -0.7348909 -1.3927013 -0.7597014 -0.69798404 -0.4771818
-0.70651555 -0.14471795 -1.9410465 0.46289438 -0.5142125 0.20798682 -2.8574307 -1.3660586
0.4259151 0.54609025 0.7258924 0.6280798 0.38230973 -0.017116044 0.8032174 -0.3576807
-1.5109422 1.8195224 1.7253993 -0.05087065 -0.2534617 -0.73518264 -0.43403974 -2.0650737
-1.6698236 -0.55019826 -0.25096434 -1.948581 0.92778313 1.1550511 -0.86048484 -0.6964028
-1.5955003 0.3051386 0.4545854 1.6808609 -0.5940052 0.5877052 0.1046172 -0.33034885
1.4045953 1.2111263 0.44179428 0.48165736 -1.2005635 -0.36581728 -2.108238 0.28676072
-0.337226 0.62333596 0.860107 0.07955379 -1.7768732 0.626451 -0.00215766 -0.24716128
2.0559747 0.07376683 1.2232693 -0.10206015 -0.5039586 0.83259004 -1.2923863 4.202877
-0.17786115 1.3680269 0.7464161 0.17719944 -1.3078331 0.32950515 0.35690755 1.4758209
-0.6683235 0.32709593 0.17185226 -0.8674665 -0.35482022 -1.8445264 -0.8225024 -0.07839131
-0.7762235 -3.3329172 -2.0627682 0.67809784 1.9254711 -0.24072893 0.033745777 0.9291656
0.49776396 -0.56233627 1.2439206 0.48754054 0.5496403 0.40964213 -1.3632149 -0.9709083
-0.37883285 -0.3184382 0.03573719 -1.0812604 0.43983954 0.719919 -0.93271697 0.55347294
-0.13494231 0.9913912 0.051256888 0.2755496 0.07617308 0.5200159 1.2236111 0.12918122
-2.041288 -0.46614185 -0.45731074 0.9225947 -0.8951638 -0.95850104 -0.14498633 0.70754665
0.89284027 0.617297 -1.401487 -1.2796586 -2.7857287 -0.92634195 1.1239187 -0.5237948
-1.8349526 -1.6588346 -0.27809763 -0.4929687 -1.4428983 -1.1922157 -0.22833985 0.5839617
-0.62015575 0.87354153 1.9118268 -0.1007024 -1.2696047 1.6821471 0.06729327 0.6118437
-2.0594008 0.65749556 -0.69184124 -2.9281466 -0.15490146 -1.3998187 -1.6616024 1.3273753
-2.4693027 -1.7142762 -1.2757932 -0.1959903 -0.7713854 -1.6608028 1.3090566 1.1334696
0.79163045 -0.057421464 -0.09526024 2.0563798 1.8057723 0.5751706 -0.33950585 1.6074426
00000000: 98d8 dfbe d59e 50bf 48da 96be 2e54 95be
00000010: c7f8 7f3f 2a5c 133f 4863 89be 4406 a03e
00000020: 566e ce3e 4130 1540 1df3 0440 741b b4be
00000030: b9e1 973f 3162 543e bed0 9a3f 5ea3 12bf
00000040: b3f7 32bf 5417 0740 8a64 8a3e 4dcc dcbf
00000050: a7dd 8abf d0d0 0dbf c899 9b3c 4da0 de3e
00000060: cbe7 0a3f a8ac 94be bd6d 92bf 217c 233f
00000070: c586 923d 85bf bdbf 9f00 0cbe c8dd 8abf
00000080: faa2 2ebe ff36 853e 2a1b b23f 6081 2ebc
00000090: 5d6a afbf 5cb4 ae3f b6b6 863f 06ca 993f
000000a0: b032 db3e 2820 ce3f 80ef bdbf 86b6 84bf
000000b0: 624c 9dbf 31cb 31bf da9c 243f 2b67 0d3f
000000c0: 7135 4dbe 8334 1bc0 2a38 87be 4f96 15bf
000000d0: 19cf 873e 22fb 4bbf b21a d0bd 88ec 0f3f
000000e0: 75e4 d83f d3de 703e 5831 0b3e f391 67bf
000000f0: c315 de3f 3d60 253f cb58 523f 003e 883c
00000100: e779 aabf 406a 0a3f 6341 383f 4033 f13d
00000110: 175f f13e 4d2a 8cbe 2d23 dabe 9f77 e33e
00000120: 8175 22c0 3c5d a13e 7987 89bf 52df 1f40
00000130: 382f d93f f155 8fbf 07fd ebbf f67c f6be
00000140: 5ed7 0240 df7a 6a3f 3b65 b3be cf21 3cbf
00000150: 0944 b2bf ca7b 42bf 15af 32bf 2c51 f4be
00000160: 34de 34bf f130 14be 3674 f8bf 7e00 ed3e
00000170: 6ea3 03bf 7ffa 543e 25e0 36c0 02db aebf
00000180: 8b11 da3e 92cc 0b3f 16d4 393f d6c9 203f
00000190: 1abe c33e f236 8cbc a89f 4d3f ed21 b7be
000001a0: 8e66 c1bf 1ce6 e83f e2d9 dc3f be5d 50bd
000001b0: bbc5 81be ee34 3cbf 753a debe 2b2a 04c0
000001c0: c8bc d5bf cbd9 0cbf 667e 80be 1a6b f9bf
000001d0: 3283 6d3f b7d8 933f bc48 5cbf 7447 32bf
000001e0: 5b39 ccbf 203b 9c3e 6bbf e83e 7326 d73f
000001f0: ba10 18bf d973 163f 8b41 d63d 7c23 a9be
00000200: c7c9 b33f 3006 9b3f dc32 e23e cb9b f63e
00000210: 11ac 99bf 674c bbbe 5fed 06c0 4dd2 923e
00000220: e3a8 acbe f292 1f3f f92f 5c3f 19ed a23d
00000230: 9570 e3bf 185f 203f 8767 0dbb d917 7dbe
00000240: 1795 0340 1013 973d 1794 9c3f e904 d1bd
00000250: 6e03 01bf 9f24 553f ea6c a5bf f87d 8640
00000260: 3c21 36be 811b af3f 2015 3f3f c573 353e
00000270: 1367 a7bf e6b4 a83e 96bc b63e b3e7 bc3f
00000280: 4017 2bbf 1e79 a73e 0afa 2f3e 4912 5ebf
00000290: ffaa b5be 7119 ecbf 848f 52bf a08b a0bd
000002a0: 95b6 46bf 844e 55c0 6504 04c0 d297 2d3f
000002b0: d675 f63f a581 76be 0339 0a3d ccdd 6d3f
000002c0: ebda fe3e 45f5 0fbf ca38 9f3f ea9e f93e
000002d0: 3ab5 0c3f 9dbc d13e d37d aebf 728d 78bf
000002e0: 61f6 c1be 550a a3be 2961 123d be66 8abf
000002f0: a632 e13e 9d4c 383f 8ac6 6ebf 67b0 0d3f
00000300: 512e 0abe d0cb 7d3f bef2 513d d614 8d3e
00000310: a200 9c3d c31f 053f 4a9f 9c3f 1548 043e
00000320: 76a4 02c0 25aa eebe a224 eabe 2b2f 6c3f
00000330: 7429 65bf 5360 75bf 4c77 14be c721 353f
00000340: 2e91 643f 2d07 1e3f ed63 b3bf dacb a3bf
00000350: 6149 32c0 bf24 6dbf 91dc 8f3f 6a17 06bf
00000360: badf eabf b154 d4bf d062 8ebe 6566 fcbe
00000370: e4b0 b8bf 869a 98bf ecd1 69be 847e 153f
00000380: 87c2 1ebf 6ba0 5f3f beb6 f43f 0f3d cebd
00000390: 6882 a2bf 9950 d73f 0ed1 893d caa1 1c3f
000003a0: 39cd 03c0 a151 283f 821c 31bf c166 3bc0
000003b0: 7d9e 1ebe 422d b3bf 63af d4bf 6fe7 a93f
000003c0: 0e09 1ec0 676d dbbf 314d a3bf aeb1 48be
000003d0: 8379 45bf 3095 d4bf 2b8f a73f 8815 913f
000003e0: 4ba8 4a3f c532 6bbd cd17 c3bd ba9b 0340
000003f0: 8c23 e73f 613e 133f b6d3 adbe aec0 cd3f

Encoder.encoder_lstm.weight_hh_l0 f4 [128, 32]
0.10419538 1.0840322 0.59518033 1.1312354 0.13360901 0.5278074 -1.280025 0.75091577
-0.3093557 -0.6867169 0.45882347 0.4999903 -0.87425584 1.1024826 0.83057165 0.39870778
-1.7468762 0.36938447 -0.061118197 -0.49920055 0.48860776 -0.5467598 0.3322742 -0.06215384
-0.5655965 1.4194745 0.35960582 -0.31525367 -0.4166517 -0.3158799 -0.025323354 -0.95885783
2.0732532 0.4648468 -1.319783 0.78957623 -0.36022776 -0.03753047 -0.24882732 2.4038155
-1.9238249 -0.085696995 -1.1311707 -0.226405 -0.9944679 -1.5321394 1.8563181 -0.79076743
-0.58029366 2.6433337 0.31267938 -0.69114864 -2.5591168 2.9414182 -1.1476488 -0.5818137
1.5376924 -1.312956 0.88498807 1.1644994 0.19078726 0.51753604 0.77404124 1.930987
-0.2914573 -0.39887193 -1.079714 0.0011530719 0.48371395 0.6124968 -0.022497905 1.5350062
-0.69637346 -1.2091869 -0.24202922 -1.1061941 -0.9339151 1.2384542 0.35110357 -0.033861417
-1.4021533 1.235708 0.6037561 1.4666061 0.0731875 2.384818 1.014986 -0.5522495
0.3119284 -1.2247066 0.31242764 -0.73996466 -0.43664175 -0.5533637 -0.13206372 0.1338282
-0.5600408 0.19461301 2.0961797 0.64996994 -2.4486659 -1.3896822 -2.3185766 -0.71504253
-1.6206733 -1.2535156 -1.6306151 -0.44138414 -1.0828624 0.484151 1.0848595 0.6936029
-1.5481112 0.32126573 -0.06616007 1.0437689 1.1235695 1.5669881 -1.0144732 -0.6776465
-1.2205598 -1.0451943 0.9550512 0.8323644 -1.0176048 0.12978451 0.8309253 0.2294839
1.5589863 0.9611713 -0.35709813 -0.6905409 0.6598999 0.20382641 -0.09450667 1.388842
-0.48807636 1.2639682 0.227682 0.15281324 2.0783274 -0.23254693 -1.0708936 -1.7165701
1.1819301 -0.22574326 0.13637315 -2.040761 -0.95178664 -0.5234211 -1.2977552 0.69397
1.1161284 0.10242537 0.3467064 -1.0804822 1.2185035 -0.7449243 -0.12696375 -0.6898932
-1.0604761 0.655071 0.6560487 -0.6613057 -0.6971479 0.519864 0.5960627 2.4068727
-1.1751341 -0.45060873 1.7168303 -0.65694803 -0.12034516 -1.0128778 -0.6583602 -1.3898581
-0.57615405 0.8747681 1.7010471 -1.6208525 -0.83058697 0.57036644 -1.2324998 0.45555332
0.41052833 -1.2002344 1.3612113 -0.9588627 0.60080403 -0.5930717 0.16633165 0.37889564
-0.45766607 -0.7388159 -1.0492774 0.37914404 0.25781515 -0.005327691 -0.13753258 -0.9955188
0.99282545 3.0077965 1.1549819 -1.1274331 0.2651878 -1.0993118 -0.8398212 -0.6419314
1.1237261 -1.1192666 -1.7602122 0.26554865 0.8910662 -0.5217891 1.6347243 -1.0860199
1.4897825 -0.6489901 -1.2880514 0.029390896 1.2502801 -0.53910506 -0.6704549 -1.0496625
-1.4585574 -0.105101645 1.40263 -1.5042644 -1.6759872 -0.7030857 -1.050639 0.36430722
-0.7643598 -0.5924793 1.4152714 -1.7892237 0.23261438 1.6172054 -0.3030236 -0.93812424
-0.9395258 -1.386661 0.22310165 0.07500295 2.3032982 0.56697565 -0.3810742 -2.555768
-1.1990169 0.8082735 0.0017391575 -1.4805331 -1.070577 -1.5284964 -0.80134887 0.35610393
00000000: 6364 d53d 91c1 8a3f bd5d 183f 52cc 903f
00000010: cdd0 083e 631e 073f dcd7 a3bf 043c 403f
00000020: df63 9ebe aecc 2fbf e9ea ea3e bbfe ff3e
00000030: 3bcf 5fbf 261e 8d3f 58a0 543f 6d23 cc3e
00000040: a499 dfbf f61f bd3e 1357 7abd 3797 ffbe
00000050: cc2a fa3e 73f8 0bbf d81f aa3e 0695 7ebd
00000060: efca 10bf 57b1 b53f 411e b83e ee68 a1be
00000070: 5f53 d5be 03bb a1be ec72 cfbc b577 75bf
00000080: 2eb0 0440 6600 ee3e a6ee a8bf ab21 4a3f
00000090: c66f b8be 8db9 19bd 97cc 7ebe 1dd8 1940
000000a0: e53f f6bf e881 afbd 34ca 90bf b6d6 67be
000000b0: 7395 7ebf 251d c4bf d59b ed3f bc6f 4abf
000000c0: 208e 14bf 612c 2940 8317 a03e 1eef 30bf
000000d0: 92c8 23c0 3240 3c40 28e6 92bf bef1 14bf
000000e0: 1bd3 c43f f10e a8bf 948e 623f 510e 953f
000000f0: bc5d 433e 3e7d 043f 9127 463f 952a f73f
00000100: e439 95be f138 ccbe 1134 8abf ac22 973a
00000110: 5ba9 f73e 97cc 1c3f 874d b8bc 157b c43f
00000120: 8845 32bf a3c6 9abf 82d6 77be c597 8dbf
00000130: 0f15 6fbf ab85 9e3f d9c3 b33e 45b2 0abd
00000140: c279 b3bf ae2b 9e3f c38f 1a3f c0b9 bb3f
00000150: 54e3 953d dca0 1840 10eb 813f 3960 0dbf
00000160: 14b5 9f3e 30c3 9cbf 84f6 9f3e 536e 3dbf
00000170: 828f dfbe 3ea9 0dbf b63b 07be 420a 093e
00000180: d55e 0fbf a248 473e cf27 0640 6e64 263f
00000190: f1b6 1cc0 1be1 b1bf 8f63 14c0 070d 37bf
000001a0: 3972 cfbf 3373 a0bf ffb7 d0bf 1afd e1be
000001b0: 3c9b 8abf a4e2 f73e addc 8a3f f68f 313f
000001c0: 8228 c6bf f17c a43e ee7e 87bd 389a 853f
000001d0: 20d1 8f3f 1193 c83f 42da 81bf 3e7a 2dbf
000001e0: 4e3b 9cbf edc8 85bf 3c7e 743f d515 553f
000001f0: e040 82bf 3be6 043e 85b7 543f d4fd 6a3e
00000200: dd8c c73f 530f 763f 91d5 b6be 4ac7 30bf
00000210: 33ef 283f dfb7 503e b78c c1bd 93c5 b13f
00000220: 25e5 f9be b6c9 a13f 7825 693e 137b 1c3e
00000230: 5103 0540 c820 6ebe 0b13 89bf 92b8 dbbf
00000240: 7c49 973f 3e29 67be 67a5 0b3e d49b 02c0
00000250: 4aa8 73bf edfe 05bf d81c a6bf 05a8 313f
00000260: 4cdd 8e3f 64c4 d13d 8083 b13e 3e4d 8abf
00000270: ecf7 9b3f 5cb3 3ebf c902 02be d79c 30bf
00000280: aebd 87bf bcb2 273f cff2 273f 554b 29bf
00000290: 4978 32bf cf15 053f 9197 183f 340a 1a40
000002a0: cb6a 96bf 30b6 e6be 18c1 db3f bf2d 28bf
000002b0: 8677 f6bd fba5 81bf 4b8a 28bf dfe6 b1bf
000002c0: d57e 13bf cdf0 5f3f e9bb d93f 1878 cfbf
000002d0: 59a1 54bf 8903 123f 8ec2 9dbf 493e e93e
000002e0: c530 d23e 48a1 99bf 2c3c ae3f 0778 75bf
000002f0: 4bce 193f 8cd3 17bf d852 2a3e 9cfe c13e
00000300: 3553 eabe 0a23 3dbf b94e 86bf 2b1f c23e
00000310: 5900 843e e993 aebb 57d5 0cbe 52da 7ebf
00000320: cf29 7e3f bd7f 4040 72d6 933f ba4f 90bf
00000330: b2c6 873e 40b6 8cbf 86fe 56bf 9e55 24bf
00000340: 42d6 8f3f 2144 8fbf a24e e1bf fef5 873e
00000350: ea1c 643f f893 05bf a53e d13f b302 8bbf
00000360: 31b1 be3f 3724 26bf dede a4bf 2dc5 f03c
00000370: 2e09 a03f ca02 0abf efa2 2bbf 575b 86bf
00000380: 02b2 babf 883f d7bd 6189 b33f bc8b c0bf
00000390: c086 d6bf 6dfd 33bf 577b 86bf 7a86 ba3e
000003a0: 15ad 43bf b9ac 17bf 9d27 b53f 4805 e5bf
000003b0: 7732 6e3e 9600 cf3f e925 9bbe e928 70bf
000003c0: c384 70bf 1c7e b1bf c274 643e 269b 993d
000003d0: 3d69 1340 5125 113f 281c c3be b491 23c0
000003e0: 6379 99bf 03eb 4e3f 71f4 e33a 1c82 bdbf
000003f0: ab08 89bf c5a5 c3bf 3325 4dbf 4153 b63e

Encoder.encoder_lstm.bias_ih_l0 f4 [128]
-0.8258346 -1.1495389 -0.41438603 -0.8620173 -0.6463656 -0.43809217 -0.7316484 -0.86721
-0.5253337 -0.62183464 -0.5642374 -1.0508565 -0.1266641 -0.92957085 -1.0923456 -1.1513389
-0.70695716 -0.51218355 -0.8237337 -0.6589209 -0.40476313 0.15127775 -0.5483452 -0.9904401
-0.2717435 -0.7038115 -0.46114954 -0.35382023 -1.0958798 -0.75275177 -0.83396965 -0.7837397
0.9828338 -0.7056497 -0.45766482 -0.8353015 -0.28555602 -0.277655 0.062031068 -0.25162113
-0.60708565 0.18015872 -0.6428536 0.6203601 -0.50179386 -0.29800904 0.8254981 0.047197137
1.0096561 -0.025497038 0.33712614 -0.8922307 -0.3413717 -0.6270081 0.039561953 0.062852256
-0.6481861 0.17782849 -0.044382956 -0.7767168 -0.10805076 0.27465338 -0.4886649 -0.7719135
-0.011010189 0.45537177 -0.048774745 -0.1548007 -0.1061431 0.1605474 -0.33741772 -0.06899328
-0.46668646 0.29694554 -0.09386712 0.35307258 0.15633112 -0.010429472 -0.048101578 0.07409992
0.041924365 0.02088006 -0.036416177 0.06075886 -0.021059787 -0.40634194 0.13076551 0.41349095
0.109119594 0.2366382 0.29215598 -0.20680644 0.12436679 0.28421783 0.2013675 -0.2738554
-0.18772441 -0.6758817 0.19362852 -0.65755 0.0894466 0.38843772 -0.7109381 -0.59766585
-0.66986096 -0.10855469 -0.7741338 -0.1946737 -0.41949055 -1.0102149 -0.20746651 -0.527313
-0.17833222 -0.8803986 -0.962022 -0.3358028 -0.2244814 -0.5541082 -0.3591107 -0.8107709
-0.18821342 -0.49501374 -0.29162458 -0.2419727 -0.69910634 -0.11953083 -0.15904085 -1.0189968
00000000: e569 53bf 1724 93bf 682a d4be 2aad 5cbf
00000010: 3778 25bf 9e4d e0be 4f4d 3bbf 7901 5ebf
00000020: 457c 06bf 8e30 1fbf dd71 10bf 7782 86bf
00000030: 3cb4 01be 5bf8 6dbf fbd1 8bbf 135f 93bf
00000040: 25fb 34bf 761e 03bf 36e0 52bf 0aaf 28bf
00000050: 1d3d cfbe 8ee8 1a3e 5a60 0cbf 7b8d 7dbf
00000060: f721 8bbe fe2c 34bf cb1b ecbe ed27 b5be
00000070: ca45 8cbf 57b4 40bf 097f 55bf 2aa3 48bf
00000080: ff9a 7b3f 75a5 34bf 0b53 eabe 52d6 55bf
00000090: 6634 92be cc28 8ebe 4a14 7e3d 7cd4 80be
000000a0: f769 1bbf 877b 383e 0e92 24bf ebcf 1e3f
000000b0: 9075 00bf a494 98be d853 533f c951 413d
000000c0: 693c 813f 2adf d0bc cc9b ac3e 3b69 64bf
000000d0: 45c8 aebe 9a83 20bf b70b 223d afb8 803d
000000e0: 86ef 25bf ac18 363e e7ca 35bd ead6 46bf
000000f0: b849 ddbd 5e9f 8c3e 4932 fabe 209c 45bf
00000100: 1464 34bc 7d26 e93e 07c8 47bd 1384 1ebe
00000110: 8e61 d9bd 8a66 243e 04c2 acbe 594c 8dbd
00000120: 87f1 eebe 3f09 983e 683d c0bd eec5 b43e
00000130: 4415 203e 60e0 2abc 2906 45bd b3c1 973d
00000140: e2b8 2b3d a90c ab3c 2129 15bd 48de 783d
00000150: 9385 acbc 0d0c d0be 65e7 053e 16b5 d33e
00000160: 187a df3d 4951 723e 7895 953e 11c5 53be
00000170: 04b4 fe3d 0085 913e 4833 4e3e c636 8cbe
00000180: d43a 40be 9506 2dbf 8e46 463e 3255 28bf
00000190: c72f b73d 4fe1 c63e 0a00 36bf a100 19bf
000001a0: 027c 2bbf ec51 debd a22d 46bf 8b58 47be
000001b0: 77c7 d6be b94e 81bf 1a72 54be fcfd 06bf
000001c0: b99c 36be cd61 61bf 1347 76bf 58ee abbe
000001d0: 74de 65be 09da 0dbf 5cdd b7be af8e 4fbf
000001e0: 05bb 40be 7172 fdbe d14f 95be b1c7 77be
000001f0: a2f8 32bf 94cc f4bd 9bdb 22be 7d6e 82bf

Encoder.encoder_lstm.bias_hh_l0 f4 [128]
-0.911974 -1.1199919 -0.48058686 -0.8798469 -0.4663243 -0.33884323 -0.6447857 -1.0831764
-0.5870541 -0.5170319 -0.46342072 -0.95249504 0.086937524 -0.96433586 -0.9895757 -1.0154688
-0.9753379 -0.54231715 -0.87607837 -0.6651399 -0.34538594 0.07161864 -0.5376268 -0.8231562
-0.4559673 -0.770935 -0.64178735 -0.49015427 -1.1403211 -0.97780377 -0.79972225 -0.807117
1.0595751 -0.3874689 -0.43757808 -0.7975084 -0.2795238 -0.3327195 0.21562976 -0.008751051
-0.53474844 0.17074583 -0.83365077 0.73635024 -0.30246308 -0.24345782 0.6461053 -0.014396968
0.9402102 -0.023031397 0.40964058 -1.1756413 -0.29260972 -0.6653693 0.18920772 -0.1351739
-0.56580734 0.24689625 -0.08036932 -0.78434825 -0.12528467 0.37810278 -0.21594432 -0.85040194
0.16876705 0.27894437 -0.06606559 -0.1662727 0.08345593 0.23370054 -0.23823538 -0.046854086
-0.4540839 0.23929234 -0.18919985 0.47009265 0.10199345 0.23341766 -0.1480917 0.3459949
-0.024755022 -0.059854794 -0.08891816 0.08539717 -0.061914206 -0.23819134 0.1949986 0.36385497
-0.04934583 0.27654493 0.29622132 -0.13589963 0.2020364 0.07306218 0.22653909 -0.511919
0.08000728 -0.53385967 0.09523426 -0.61631864 0.1015694 0.16286124 -0.8048777 -0.5371797
-0.49349695 -0.021826405 -0.5085449 -0.49069467 -0.40523443 -0.85476786 -0.24628499 -0.48561755
-0.065400206 -0.7556116 -0.85265213 -0.60399693 -0.35858235 -0.5671011 -0.5034026 -0.6717296
-0.0061428063 -0.33438376 0.025802262 -0.5355691 -0.39320076 -0.14768484 -0.44234437 -1.0975788
00000000: 2177 69bf e55b 8fbf 7b0f f6be a53d 61bf
00000010: 0fc2 eebe dc7c adbe ad10 25bf 86a5 8abf
00000020: 2d49 16bf 345c 04bf 7b45 edbe b7d6 73bf
00000030: 4d0c b23d b7de 76bf d554 7dbf e2fa 81bf
00000040: bfaf 79bf 4cd5 0abf ac46 60bf 9c46 2abf
00000050: 6dd6 b0be cbac 923d e9a1 09bf 5dba 52bf
00000060: 8c74 e9be ff5b 45bf 2d4c 24bf 80f5 fabe
00000070: 0bf6 91bf 5951 7abf 99ba 4cbf 389f 4ebf
00000080: 28a0 873f 5362 c6be 3c0a e0be 8329 4cbf
00000090: be1d 8fbe 365a aabe 0cce 5c3e 9160 0fbc
000000a0: 46e5 08bf ffd7 2e3e 236a 55bf 7381 3c3f
000000b0: 71dc 9abe 024d 79be 2867 253f 43e1 6bbc
000000c0: 9eb1 703f 57ac bcbc 69bc d13e 6a7b 96bf
000000d0: f1d0 95be a455 2abf abbf 413e 076b 0abe
000000e0: c0d8 10bf 5fd2 7c3e ac98 a4bd 0ccb 48bf
000000f0: a04a 00be b096 c13e 8220 5dbe f1b3 59bf
00000100: 45d1 2c3e ccd1 8e3e 654d 87bd 6443 2abe
00000110: f1ea aa3d 324f 6f3e faf3 73be 12ea 3fbd
00000120: af7d e8be 0d09 753e 9bbd 41be fcaf f03e
00000130: f1e1 d03d 0a05 6f3e 5aa5 17be 3e26 b13e
00000140: 0bcb cabc 4d2a 75bd b91a b6bd b6e4 ae3d
00000150: c099 7dbd 6ee8 73be b7ad 473e 334b ba3e
00000160: da1e 4abd 4c97 8d3e 52aa 973e 4629 0bbe
00000170: a1e2 4e3e a0a1 953d ddf9 673e 200d 03bf
00000180: dbda a33d 07ab 08bf 2e0a c33d 0fc7 1dbf
00000190: 9e03 d03d 19c5 263e 770c 4ebf 9c84 09bf
000001a0: a2ab fcbe 4acd b2bc 0030 02bf 553c fbbe
000001b0: e37a cfbe 11d2 5abf 2232 7cbe dda2 f8be
000001c0: 8bf0 85bd c36f 41bf 6947 5abf 8b9f 1abf
000001d0: 1b98 b7be 8a2d 11bf fede 00bf 79f6 2bbf
000001e0: 9849 c9bb 5934 abbe 445f d33c 0e1b 09bf
000001f0: 9c51 c9be b23a 17be f67a e2be 767d 8cbf

Encoder.encoder_attn.0.weight f4 [20, 84]
-0.33445194 0.035877585 -0.056095254 0.50396746 -1.1383399 0.08902825 0.62911606 2.0594704
-0.5235795 -0.3376153 1.1836283 -0.8807124 -0.9285742 1.455228 0.3682543 -0.7260256
0.42321077 -1.2956015 -0.4926521 -0.2680301 -0.6125789 -0.2905956 -1.3074126 -1.669426
-1.0385735 0.7280195 -1.5467826 -0.26677 -0.24502908 -0.337476 -1.0093669 -0.18938155
-1.1420007 0.043677557 0.82786983 -0.049665812 -0.6752248 -0.08938433 0.47705698 0.984865
0.22475936 -0.45223078 1.416543 -0.69614005 0.22062384 1.9038758 0.3901377 -0.46998844
0.2862931 0.81606627 0.06629945 -0.43948874 0.97853327 0.15059924 -0.9552201 -0.6143296
-2.119893 0.40085158 -0.726401 -0.6365697 1.2910479 -1.2705742 -1.3734334 -1.6239197
0.35037783 0.30403775 0.48553184 -0.4191723 -0.6014686 0.9831181 -0.54392594 1.3671508
-0.9060514 -1.9182179 -1.0255544 0.24177869 0.2872984 0.50441146 -2.6444132 0.0006609655
0.46604416 0.8629324 0.21599275 1.199328 1.0793892 0.081955634 0.54854524 -0.105988845
0.38431594 -0.783467 1.1617788 0.8417184 -1.105657 0.4609224 0.7210566 -1.363692
-0.89207435 -1.5700601 0.9384054 0.8272006 -0.07521855 -0.94325787 0.41257963 0.21663551
-0.2490013 -1.5325197 1.7915195 -0.58674747 -0.22900803 -1.5960883 -0.7176588 -0.302661
-1.0543612 0.3641382 -0.540291 -1.7731988 0.61834025 -0.50191236 0.16476434 0.44458094
0.30586588 -0.6106813 1.204446 -1.3943269 0.04148347 0.25057456 -0.46591395 0.12838382
-0.72965926 0.19408606 0.81147623 -0.06564869 0.08233115 0.5657292 0.47667164 1.6850516
-0.29107437 0.59106714 1.346153 -0.2051436 0.26183072 -1.4490569 0.10890971 0.767117
-0.49752656 0.020289546 0.74205345 0.29574582 0.0058764946 0.21702135 -0.35876325 0.14396313
0.010191295 1.0544021 0.36492178 0.8121662 -0.019515902 -0.4007686 0.29545006 0.73845136
0.12092911 1.0989422 -0.41508943 -2.1485736 -0.10728309 -1.1321232 0.24829954 -1.1652677
-0.27218485 1.3437206 0.20130418 1.2456375 -0.21261908 0.5408678 0.31459615 -0.81461155
1.0468286 -0.14360777 -1.0994438 -0.29670244 0.1494468 -0.15740637 2.0321617 -0.25991055
-0.30553022 0.3042061 -0.18806806 -0.23871535 -1.0561092 1.9571515 -0.5596856 0.50960326
0.79237586 -0.9113729 0.16348767 0.71065617 -0.24235009 -0.13080107 0.29089522 -0.47609037
0.12999417 0.14992608 0.08054416 0.46252456 0.9400459 0.29189643 1.0263345 0.12584747
1.420842 -0.7134529 0.14021099 -0.11811562 -0.41965157 -0.36585903 0.76253116 -0.67527
-0.27687544 -0.1628519 0.5635188 -0.35782018 -1.6124352 1.0301458 -1.0176042 0.034421477
0.47853154 -0.76807994 -0.35112962 0.6521982 -0.6111945 -0.26012945 -0.19480185 0.9522323
0.2767563 -0.7299452 -1.5731052 1.0639391 0.8709722 0.9362971 -0.047136642 0.61775535
-0.37969297 -1.1195102 0.4882891 0.28918982 0.49483538 -0.19736002 -0.8260331 1.0903327
0.70454156 -0.30424 -1.3577093 0.38335374 0.3147607 0.23013115 0.5662665 -0.47905764
00000000: 493d abbe 60f4 123d 23c4 65bd 0304 013f
00000010: 1fb5 91bf 7154 b63d c00d 213f 5dce 0340
00000020: 4e09 06bf eadb acbe 2281 973f 5e76 61bf
00000030: 0ab7 6dbf e944 ba3f d48b bc3e d0dc 39bf
00000040: 15af d83e 45d6 a5bf e53c fcbe 3e3b 89be
00000050: f9d1 1cbf f2c8 94be 4c59 a7bf c0af d5bf
00000060: faef 84bf 7c5f 3a3f f9fc c5bf 1496 88be
00000070: e7e8 7abe a7c9 acbe ef32 81bf 3ded 41be
00000080: 142d 92bf 3de7 323d 47ef 533f 616e 4bbd
00000090: 88db 2cbf 220f b7bd d040 f43e 1d20 7c3f
000000a0: 5127 663e cb8a e7be 4851 b53f 3c36 32bf
000000b0: 37eb 613e 34b2 f33f 21c0 c73e 53a2 f0be
000000c0: 0295 923e b8e9 503f 02c8 873d ab04 e1be
000000d0: 2881 7a3f b036 1a3e 4e89 74bf b444 1dbf
000000e0: 54ac 07c0 6b3c cd3e 6af5 39bf 3bf6 22bf
000000f0: 0f41 a53f 2da2 a2bf aacc afbf 9adc cfbf
00000100: b964 b33e d6aa 9b3e a197 f83e c09d d6be
00000110: d9f9 19bf a1ad 7b3f bb3e 0bbf ccfe ae3f
00000120: fcf2 67bf 2a88 f5bf 5e45 83bf d594 773e
00000130: c718 933e 1c21 013f 113e 29c0 a544 2d3a
00000140: 579d ee3e 23e9 5c3f 342d 5d3e 9483 993f
00000150: 6d29 8a3f 5bd8 a73d 766d 0c3f ae10 d9bd
00000160: 0fc5 c43e 4b91 48bf 2bb5 943f db7a 573f
00000170: 2b86 8dbf 05fe eb3e 2a97 383f 768d aebf
00000180: fc5e 64bf bbf7 c8bf 563b 703f 6bc3 533f
00000190: 2f0c 9abd 5979 71bf a33d d33e b3d5 5d3e
000001a0: 32fa 7ebe 9b29 c4bf 8350 e53f 1535 16bf
000001b0: 1581 6abe 9f4c ccbf 7db8 37bf 62f6 9abe
000001c0: 4ff5 86bf 5270 ba3e 8350 0abf 2ef8 e2bf
000001d0: 8c4b 1e3f 547d 00bf fcb7 283e 1da0 e33e
000001e0: 749a 9c3e 9c55 1cbf 492b 9a3f 4e79 b2bf
000001f0: 92ea 293d 4f4b 803e 468c eebe 0c77 033e
00000200: f3ca 3abf 7fbe 463e e8bc 4f3f d272 86bd
00000210: 3c9d a83d a1d3 103f 4e0e f43e c5af d73f
00000220: b307 95be 2d50 173f be4e ac3f 2a11 52be
00000230: ad0e 863e b27a b9bf 0e0c df3d c861 443f
00000240: cdbb febe 4336 a63c 37f7 3d3f ff6b 973e
00000250: 9c8f c03b d83a 5e3e d1af b7be 126b 133e
00000260: 64f9 263c a6f6 863f 07d7 ba3e 20ea 4f3f
00000270: d0df 9fbc 8b31 cdbe 3b45 973e 260b 3d3f
00000280: aea9 f73d 23aa 8c3f 9a86 d4be 3b82 09c0
00000290: 3db7 dbbd 6ae9 90bf 3c42 7e3e 7e27 95bf
000002a0: d05b 8bbe 09ff ab3f af22 4e3e 0d71 9f3f
000002b0: d1b8 59be 5076 0a3f bf12 a13e 628a 50bf
000002c0: 7bfe 853f ea0d 13be 93ba 8cbf 62e9 97be
000002d0: 9508 193e 232f 21be f00e 0240 ff12 85be
000002e0: 756e 9cbe e7c0 9b3e ea94 40be cc71 74be
000002f0: 962e 87bf f183 fa3f 8e47 0fbf 5c75 023f
00000300: 25d9 4a3f bc4f 69bf 5069 273e 90ed 353f
00000310: 9f2a 78be b7f0 05be 38f0 943e 1ec2 f3be
00000320: 311d 053e 3986 193e 56f4 a43d 05d0 ec3e
00000330: d9a6 703f 7373 953e ee5e 833f 29de 003e
00000340: 27de b53f d9a4 36bf 7893 0f3e 9ae6 f1bd
00000350: 92dc d6be e051 bbbe 3e35 433f 7fde 2cbf
00000360: 9ec2 8dbe a6c2 26be c542 103f 3534 b7be
00000370: 4764 cebf d1db 833f db40 82bf 89fd 0c3d
00000380: 1602 f53e e3a0 44bf 43c7 b3be 76f6 263f
00000390: 3e77 1cbf b02f 85be 237a 47be 7fc5 733f
000003a0: 00b3 8d3e b0dd 3abf 835b c9bf 282f 883f
000003b0: 09f8 5e3f 2bb1 6f3f 5a12 41bd 3725 1e3f
000003c0: 1e67 c2be 1c4c 8fbf 0701 fa3e b010 943e
000003d0: 105b fd3e bf18 4abe e876 53bf 0690 8b3f
000003e0: d65c 343f 58c5 9bbe 6bc9 adbf f146 c43e
000003f0: 5128 a13e 80a7 6b3e d7f6 103f 0b47 f5be

Encoder.encoder_attn.0.bias f4 [20]
0.1544552 -0.55704993 -1.0801418 -0.41244057 1.1029739 0.8252811 0.60120755 0.95461094
0.74210966 1.2903218 1.003152 0.7743181 -0.72834766 0.90425813 -0.09863071 -2.2793097
1.7813278 0.7938532 1.3730369 0.6557831
00000000: 8129 1e3e d39a 0ebf 1642 8abf 692b d3be
00000010: 402e 8d3f 9f45 533f bde8 193f 6261 743f
00000020: e6fa 3d3f 4429 a53f 4967 803f b639 463f
00000030: fe74 3abf 767d 673f e6fe c9bd 36e0 11c0
00000040: 8d02 e43f f739 4b3f acbf af3f 67e1 273f

Encoder.encoder_attn.2.weight f4 [1, 20]
0.4729108 -0.6759978 1.0203454 0.6741494 0.6580655 0.8421452 -0.51194197 0.74950993
0.6521434 0.648722 0.38104808 -0.76018536 -0.5160751 -0.6018892 -0.5401927 -0.9652663
-0.7946738 -0.6826815 0.6655728 0.72261596
00000000: 5d21 f23e 310e 2dbf ae9a 823f 0e95 2c3f
00000010: fb76 283f d496 573f a10e 03bf e2df 3f3f
00000020: dff2 263f a512 263f bc18 c33e 829b 42bf
00000030: 7f1d 04bf 6915 1abf 124a 0abf b11b 77bf
00000040: be6f 4bbf 37c4 2ebf fb62 2a3f 5cfd 383f

Decoder.attn_layer.0.weight f4 [32, 96]
0.88074666 1.1599426 0.09261443 1.1954092 0.05335609 -0.30391678 0.62162966 -0.9146798
0.29592663 0.7021676 -0.70134974 1.0056251 1.114902 0.7628946 -0.3196853 0.08394145
0.6791323 -2.504312 0.06301983 -0.33860862 -0.15319487 0.37352493 0.3647943 -1.3241255
0.8699657 -0.22319874 -1.8471984 1.111957 0.67265683 -0.0004258589 1.3507441 -0.8195438
0.060568243 0.9045746 -1.1445279 -0.5319788 0.3744386 0.2900546 0.5812648 1.2857516
1.7623043 2.1327133 -1.340071 -0.40812096 -0.70830774 0.20930924 0.5467127 -0.9610277
0.29979822 -0.1372239 -0.4199821 -0.9831673 -0.7742712 0.44507813 -0.1476766 -0.51223946
-0.35687703 0.94435227 -0.31404734 0.33092862 0.02995265 0.44634742 0.16618255 0.53551394
-1.1643219 0.046708506 -0.9588861 -2.977557 -0.13711469 -0.88286674 2.1739962 1.5629541
-3.4164433 -0.025515078 -0.22824438 -1.3951025 -0.12203585 2.050801 -1.1186335 -0.07182025
-0.7893007 -0.26468828 -1.1327039 -0.22821121 0.086966194 -1.0193745 -0.9307121 -1.4206635
-1.7081985 0.15557773 0.64033306 0.25049675 2.3434818 -0.75189936 -1.8586632 0.7505313
0.8358929 0.0036098731 -3.259161 -1.7198513 1.377829 -0.8531455 -1.4304019 -0.34802336
-1.1483302 -0.35333356 0.692484 -0.76194483 -0.354997 0.8978854 -2.974316 -1.8609182
-1.1927526 -1.1445595 0.47795856 -1.1519028 1.1290013 -0.5018356 0.16908596 -2.279424
-1.2565792 2.456315 1.6946295 1.0278611 -1.110249 0.2189938 -0.8122802 -0.91791546
-0.24856307 -1.007031 0.17394747 -1.0558145 0.96286166 0.1484691 -0.82395864 0.09679498
0.63166106 -1.023288 0.69128317 -0.18421146 -0.224379 1.1609633 -0.14002939 -1.4441162
0.2733716 -0.8389223 1.0873137 -0.7004066 0.06759848 0.7424749 -0.43262827 -0.78667283
-0.7392328 -0.32604206 0.21190354 0.8873039 -0.39811444 -0.8984782 2.0068772 0.45824665
0.9732409 0.4317139 -0.2064238 -1.3223562 -0.66178906 1.3012943 -0.29780743 -1.4881563
-0.9649391 -1.7035471 -0.7430412 -0.65581083 1.1430104 0.9123771 -0.31289485 2.236882
0.94339025 0.11930289 -0.6572743 0.15488307 1.5639111 1.2394563 0.81337726 -0.41299745
-0.7159725 0.89427114 0.47104976 -0.75939655 0.9044263 0.22392029 -0.8099673 -1.4836762
0.5242997 -1.933871 1.4227588 -1.1711234 -0.9603458 -1.7276655 -0.093246356 1.1039283
-0.6416323 2.542735 0.30645224 -0.1903436 -0.31816554 0.6265312 1.4680338 -0.008388529
0.013463535 0.96468985 -0.08230253 0.27909246 -0.23773205 -1.3470564 -1.1845465 -0.64143944
-0.0064951973 -1.9720508 0.7083501 -0.81375045 0.5393216 -0.36012545 -1.1513555 -1.4408141
0.35110188 -0.806721 -1.3609334 1.9301592 0.22574686 -0.1337948 -0.533678 0.5036073
0.16609052 1.6768253 0.53879225 -0.92696434 0.399767 -0.46271545 0.8245202 1.438033
-1.3797891 -0.0304166 -0.5487628 0.4037041 -1.1776863 0.67742026 -0.84408534 0.13742113
0.072243944 0.8594593 0.49117056 0.16493411 0.19965674 -1.0090659 -0.8999963 1.5241673
00000000: 9d78 613f 0079 943f a2ac bd3d 2b03 993f
00000010: ea8b 5a3d fb9a 9bbe 1f23 1f3f 7528 6abf
00000020: b283 973e 41c1 333f a88b 33bf 53b8 803f
00000030: 1cb5 8e3f 0f4d 433f cbad a3be 7fe9 ab3d
00000040: 9ddb 2d3f a646 20c0 8a10 813d 1c5e adbe
00000050: 1edf 1cbe a93e bf3e 52c6 ba3e f27c a9bf
00000060: 12b6 5e3f 368e 64be ff70 ecbf 9b54 8e3f
00000070: 3d33 2c3f d045 dfb9 2fe5 ac3f 9fcd 51bf
00000080: 6816 783d 3392 673f e47f 92bf c32f 08bf
00000090: 6bb6 bf3e 0982 943e c5cd 143f 8293 a43f
000000a0: 3093 e13f 607e 0840 7287 abbf 3bf5 d0be
000000b0: a853 35bf 2955 563e 5df5 0b3f e905 76bf
000000c0: 277f 993e 6c84 0cbe e507 d7be dab0 7bbf
000000d0: a336 46bf 48e1 e33e 8938 17be 2022 03bf
000000e0: 96b8 b6be 12c1 713f d0ca a0be 7a6f a93e
000000f0: 435f f53c a687 e43e c22b 2a3e 7117 093f
00000100: 8008 95bf 6b51 3f3d 8f79 75bf 4b90 3ec0
00000110: cb67 0cbe 8e03 62bf c122 0b40 e10e c83f
00000120: 02a7 5ac0 ff04 d1bc e5b8 69be b892 b2bf
00000130: efed f9bd 5340 0340 622f 8fbf 7f16 93bd
00000140: 9c0f 4abf 3985 87be 71fc 90bf 33b0 69be
00000150: 551b b23d dd7a 82bf 2643 6ebf 4dd8 b5bf
00000160: 40a6 dabf c54f 1f3e deec 233f 1c41 803e
00000170: 9bfb 1540 7a7c 40bf ade8 edbf d222 403f
00000180: 14fd 553f 9f93 6c3b 1896 50c0 1624 dcbf
00000190: b35c b03f be67 5abf 6917 b7bf 1e30 b2be
000001a0: 7cfc 92bf 23e8 b4be a246 313f d10e 43bf
000001b0: 2bc2 b5be d1db 653f 315b 3ec0 9132 eebf
000001c0: 1eac 98bf ed80 92bf fcb6 f43e 8d71 93bf
000001d0: 1d83 903f 4c78 00bf df24 2d3e 15e2 11c0
000001e0: 96d7 a0bf 4434 1d40 9fe9 d83f f490 833f
000001f0: a41c 8ebf e93f 603e 98f1 4fbf 82fc 6abf
00000200: 5187 7ebe 64e6 80bf 491f 323e ee24 87bf
00000210: 1a7e 763f 4908 183e f4ee 52bf 723c c63d
00000220: 8ab4 213f 1afb 82bf eff7 303f eea1 3cbe
00000230: 9cc3 65be 729a 943f dd63 0fbe cdd8 b8bf
00000240: 5df7 8b3e 9dc3 56bf 182d 8b3f d94d 33bf
00000250: 1271 8a3d d612 3e3f 7481 ddbe 6463 49bf
00000260: 5c3e 3dbf fcee a6be 3efd 583e 5926 633f
00000270: a8d5 cbbe ab02 66bf ad70 0040 4e9f ea3e
00000280: 5126 793f 9b09 dd3e c360 53be f842 a9bf
00000290: 026b 29bf d090 a63f 377a 98be e87b bebf
000002a0: 4006 77bf d50d dabf f337 3ebf 38e3 27bf
000002b0: 2a4e 923f 8c91 693f c133 a0be 1329 0f40
000002c0: 0682 713f 1355 f43d 2143 28bf ab99 1e3e
000002d0: 3d2e c83f 81a6 9e3f 7e39 503f 6774 d3be
000002e0: f949 37bf f4ee 643f 6f2d f13e d067 42bf
000002f0: 7b88 673f 5c4b 653e 045a 4fbf 1ae9 bdbf
00000300: 8138 063f 1689 f7bf f61c b63f 5fe7 95bf
00000310: 39d9 75bf 2524 ddbf f2f7 bebd 864d 8d3f
00000320: 0442 24bf 2cbc 2240 4fe7 9c3e 6fe9 42be
00000330: 98e6 a2be 5964 203f 88e8 bb3f 0a70 09bc
00000340: 2996 5c3c eaf5 763f 3b8e a8bd 35e5 8e3e
00000350: 0870 73be 586c acbf 389f 97bf 6035 24bf
00000360: aad5 d4bb 296c fcbf 6f56 353f f351 50bf
00000370: fb10 0a3f 5d62 b8be 9e5f 93bf 996c b8bf
00000380: a0c3 b33e 4485 4ebf 1133 aebf 750f f73f
00000390: 2f2a 673e 8101 09be 1f9f 08bf 68ec 003f
000003a0: a213 2a3e 36a2 d63f 4aee 093f 894d 6dbf
000003b0: 43ae cc3e 0ae9 ecbe c113 533f 7711 b83f
000003c0: ee9c b0bf 3c2c f9bc b87b 0cbf 4eb2 ce3e
000003d0: 6dbe 96bf 6a6b 2d3f fa15 58bf 20b8 0c3e
000003e0: a2f4 933d 8605 5c3f b57a fb3e 7de4 283e
000003f0: d172 4c3e 1229 81bf 2866 66bf ea17 c33f

Decoder.attn_layer.0.bias f4 [32]
0.77444655 0.4704954 1.5090424 -0.12670967 1.5369753 0.62539345 0.82214344 -0.64322156
1.3600088 1.4228534 -1.6395297 0.4124671 0.8935076 -1.5730857 0.20236023 -1.1783025
-0.35523894 0.7066242 1.0510548 -0.08459263 1.280166 2.074661 -0.26981786 -1.0592463
-1.1587542 0.13287768 0.83362424 0.11723293 -1.9123294 -1.6949036 1.1840211 2.0134003
00000000: 2142 463f c6e4 f03e 4d28 c13f 2ec0 01be
00000010: 9bbb c43f c919 203f fe77 523f 2baa 24bf
00000020: c514 ae3f 0f20 b63f 1cdc d1bf e32e d33e
00000030: eabc 643f df5a c9bf 8537 4f3e 9ed2 96bf
00000040: e1e1 b5be 53e5 343f f788 863f e73e adbd
00000050: 7bdc a33f 3fc7 0440 9125 8abe 6295 87bf
00000060: 0f52 94bf 1611 083e 6668 553f d217 f03d
00000070: 36c7 f4bf 9af2 d8bf 018e 973f 8ddb 0040

Decoder.attn_layer.2.weight f4 [1, 32]
0.47246367 0.56798 -0.5436878 -0.44772872 0.49824125 0.3641426 -0.5162436 -0.52011436
0.51314926 0.38099924 0.59704584 0.4247086 0.41898704 0.44238606 0.5182443 0.56670296
-0.77512425 0.6313441 0.57924175 0.46957517 0.42010823 0.8065039 -0.49151504 -0.58256227
-0.5893446 -0.62413675 0.5875107 0.4340037 0.7095932 -0.5688781 -0.5854876 0.47464383
00000000: c2e6 f13e 2367 113f 202f 0bbf b33c e5be
00000010: 7a19 ff3e e670 ba3e 8a28 04bf 3726 05bf
00000020: c05d 033f 5512 c33e ffd7 183f 6873 d93e
00000030: 7885 d63e 6d80 e23e a9ab 043f 7213 113f
00000040: 8b6e 46bf c49f 213f 3049 143f 286c f03e
00000050: 6d18 d73e 0a77 4e3f dca7 fbbe cd22 15bf
00000060: 4adf 16bf 6dc7 1fbf 1a67 163f bc35 de3e
00000070: e6a7 353f ffa1 11bf 84e2 15bf 8404 f33e

Decoder.lstm_layer.weight_ih_l0 f4 [128, 1]
-0.8859843 0.24542864 0.24159138 0.9168703 -0.5467828 -0.17255042 -0.5677025 1.0719268
1.108317 0.8608768 0.7651719 -1.5022165 -0.3957449 -0.3825668 0.24714787 -0.8120833
-1.4638445 -0.76685643 -0.051163085 0.1957246 -0.709741 0.522561 2.1025796 0.7352743
-1.4792649 -0.30097905 0.059847053 -0.049064647 -0.7524971 0.7821835 1.4006609 -1.384815
-0.92054546 0.7119753 0.30817935 0.12800384 0.050447714 0.13033211 0.60438174 0.6837468
0.38027865 0.672379 1.4058346 2.4711313 0.95361966 -0.76953316 -0.17545687 -2.4725564
1.3700594 0.2601846 0.6455779 1.3099631 -1.8630645 1.721953 0.6382543 -0.8038693
0.6383565 0.26295012 0.14804558 -0.109604105 0.25288844 -1.3380872 -0.95767593 1.4251174
-0.5247502 1.1710302 -0.6903076 0.78481656 0.6818683 1.2099863 0.4293552 0.5433982
1.911022 0.988313 -0.9772286 2.4852197 -0.99992704 1.1529127 -0.71633154 -1.1942242
1.9379369 -1.8889897 -0.6058721 0.11194195 -0.4230643 -0.32604712 0.98529774 -1.1476104
-0.2711217 0.9547854 -1.3216573 0.40856582 -0.11373155 1.0188658 0.83308727 -1.7082202
0.5293759 0.32681146 1.710959 0.85161847 -0.7088467 0.2938923 -1.5526676 0.28666753
1.0668262 1.497921 1.2728683 0.04109033 -0.002246097 0.60520726 0.46934912 -0.2890859
-0.13955697 -0.39890978 0.8088216 -0.4300935 -0.5109663 -0.3321048 0.77621084 -0.56589895
-0.948095 0.6647164 -0.8313135 0.6849266 0.96607906 1.7536438 2.8559916 0.4286536
00000000: decf 62bf a551 7b3e bb63 773e 03b8 6a3f
00000010: f5f9 0bbf 0fb1 30be f354 11bf e634 893f
00000020: 55dd 8d3f 6c62 5c3f 4ee2 433f a148 c0bf
00000030: 139f cabe ccdf c3be 5514 7d3e b1e4 4fbf
00000040: 425f bbbf b450 44bf 6290 51bd 086c 483e
00000050: 96b1 35bf 8fc6 053f aa90 0640 f03a 3c3f
00000060: 8d58 bdbf ed19 9abe 2f22 753d 03f8 48bd
00000070: a6a3 40bf 2e3d 483f db48 b33f 9e41 b1bf
00000080: dea8 6bbf 0344 363f afc9 9d3e 7013 033e
00000090: 43a2 4e3d c875 053e c3b8 1a3f 080a 2f3f
000000a0: e2b3 c23e 0821 2c3f 63f2 b33f 0427 1e40
000000b0: 6b20 743f 2000 45bf f7aa 33be 5d3e 1ec0
000000c0: 1b5e af3f ea36 853e 9844 253f dfac a73f
000000d0: e678 eebf f568 dc3f a264 233f 61ca 4dbf
000000e0: 556b 233f 66a1 863e 4399 173e 1e78 e0bd
000000f0: 987a 813e 7146 abbf 402a 75bf 3f6a b63f
00000100: 0756 06bf 51e4 953f 00b8 30bf bde9 483f
00000110: ec8e 2e3f d5e0 9a3f 72d4 db3e 251c 0b3f
00000120: 5e9c f43f 1502 7d3f a72b 7abf d70d 1f40
00000130: 38fb 7fbf a592 933f 8161 37bf 57dc 98bf
00000140: 510e f83f 6aca f1bf 6f1a 1bbf d241 e53d
00000150: e29b d8be a6ef a6be 793c 7c3f e6e4 92bf
00000160: 77d0 8abe d16c 743f 112c a9bf 8a2f d13e
00000170: 16ec e8bd 326a 823f 3545 553f f6a6 dabf
00000180: 2e85 073f d553 a73e b400 db3f ab03 5a3f
00000190: fa76 35bf 0d79 963e d0bd c6bf 16c6 923e
000001a0: c38d 883f e0bb bf3f 59ed a23f 554e 283d
000001b0: 4133 13bb ddee 1a3f 874e f03e 1103 94be
000001c0: 06e8 0ebe e73d ccbe ef0e 4f3f 3735 dcbe
000001d0: b0ce 02bf a409 aabe c1b5 463f c1de 10bf
000001e0: 5bb6 72bf db2a 2a3f f6d0 54bf 5a57 2f3f
000001f0: f550 773f 6677 e03f 91c8 3640 7c78 db3e

Decoder.lstm_layer.weight_hh_l0 f4 [128, 32]
0.74340343 0.012975908 0.41728494 -1.4684517 1.5197945 0.39929417 -2.5236616 -1.3119632
-0.06593738 0.24605593 -1.4898345 0.5305123 -0.45199826 0.016254304 -0.93630713 0.9267001
-0.5011927 0.9704094 -0.4589236 0.18322681 -0.27800012 -0.13501133 -0.07371701 -0.19565564
0.43074036 0.62256587 -0.52389836 -0.5142092 0.15736909 1.3605367 -2.1725523 -0.18942711
0.13400227 -0.25493333 0.95247686 0.013779056 0.44742697 -0.092762254 0.2554495 -1.255865
-0.17203465 -0.55620265 1.4445705 -0.51080465 0.86605054 0.1749028 -0.10230464 -1.0405391
0.42300186 2.1071172 -1.0321857 1.5425009 0.9982571 -1.486378 0.76388335 0.7534276
0.53189164 0.25117028 -1.1551567 -1.5154809 0.85615134 1.2366316 -1.3893065 -0.428217
0.44298446 0.12960698 -0.15014336 -1.2833885 -0.4331388 0.5103198 -2.2279341 -0.021118132
-1.0640877 -0.43586215 0.0121873235 -0.3774715 2.3721905 -0.8788719 -1.6030438 0.69353867
1.9410766 1.5448816 -0.8149609 0.9489921 0.729917 -2.8508956 0.15674938 0.07103079
1.014692 -0.3666587 -0.6715912 -0.7502334 -0.24465047 0.42709738 0.1991047 -1.0264376
1.0610164 -0.56952685 -1.762023 0.68722177 1.5577514 -0.23650256 -0.020845884 -1.8575053
-0.13486943 -0.1962955 -1.1607043 -2.3668184 0.9907729 -0.2573425 -0.060998455 0.72700226
0.13936129 1.2465417 -0.7150161 0.17745581 -0.4628251 -0.89537054 1.4147 2.3166313
-0.14898741 0.69736946 -0.5165244 -1.3009108 0.45574772 0.8882982 -0.48727462 1.5703746
-0.8693223 0.52393013 -0.80261207 0.31492454 -0.07263837 -0.4139856 0.5728751 1.3565769
0.773696 1.6235985 0.43060115 -0.55497706 0.012328468 0.24928406 -0.8247232 -0.09862247
-0.9399829 0.6690716 -0.38823968 0.73251784 -0.49886754 0.99248594 1.3443679 0.83171964
0.6343996 0.3308048 -0.59582454 1.076381 1.3803102 -1.3945159 0.46533635 0.70578885
-1.0118563 1.0053647 2.2428071 0.29311034 -0.023429543 0.10465649 -2.8334188 1.0259371
0.46443564 -1.498213 -1.3334213 0.6677883 -0.22545056 0.87030065 0.085653305 0.4880533
1.1633749 0.8361613 -0.16105941 -1.308583 -0.026797494 -1.4561582 -0.9950561 -0.46316552
-0.0028916963 0.38970584 0.6770467 -0.120679356 2.2630668 -0.045143858 -0.42824334 -0.62427473
-1.2032899 0.39994228 -0.90316105 -1.7478517 -0.82473516 0.3580879 -0.5903051 -0.1372985
0.38537493 -2.19995 -0.1644369 0.9787775 0.33052737 1.849855 -1.0880233 -1.6751031
0.57716197 -1.3409832 -2.595933 -1.0557052 0.48315322 0.8507747 0.8768818 -0.63181096
0.8549487 -0.8544128 -0.43076456 -0.599055 0.12212288 0.44386283 -0.97349095 -2.8661685
0.38763663 -1.1509548 1.9945697 0.2898236 0.3858499 -0.86456805 0.1958193 0.06940142
-1.192328 0.09176332 -0.28632984 0.7681264 0.46084172 0.13184823 0.6881997 -0.20735696
0.25707543 -1.3121341 1.7194695 -0.06525391 -0.6049273 -1.0811062 0.2131754 0.37719122
0.11845074 0.7738684 -0.72229207 -1.0671196 1.0157934 -0.17317113 -1.2458222 1.0034065
00000000: b04f 3e3f e798 543c 5fa6 d53e 3af6 bbbf
00000010: a088 c23f 4970 cc3e ac83 21c0 69ee a7bf
00000020: 2d0a 87bd 16f6 7b3e e6b2 bebf a7cf 073f
00000030: 516c e7be bf27 853c d3b1 6fbf 383c 6d3f
00000040: 2a4e 00bf c06c 783f 09f8 eabe cf9f 3b3e
00000050: 0856 8ebe 6940 0abe f2f8 96bd f459 48be
00000060: 008a dc3e 7a60 1f3f 341e 06bf 37a3 03bf
00000070: 5d25 213e 1126 ae3f 190b 0bc0 2ef9 41be
00000080: e437 093e 9f86 82be 86d5 733f 8dc1 613c
00000090: 2615 e53e 23fa bdbd 47ca 823e 2fc0 a0bf
000000a0: da29 30be 4c63 0ebf b0e7 b83f 18c4 02bf
000000b0: 7db5 5d3f b819 333e 1885 d1bd 6330 85bf
000000c0: b393 d83e 02db 0640 a91e 84bf ab70 c53f
000000d0: c78d 7f3f a241 bebf dc8d 433f a2e0 403f
000000e0: 0d2a 083f 6499 803e 2ddc 93bf 47fb c1bf
000000f0: bc2c 5b3f f249 9e3f ccd4 b1bf 423f dbbe
00000100: dcce e23e b1b7 043e 2ebf 19be 1346 a4bf
00000110: 5ec4 ddbe 52a4 023f 7996 0ec0 efff acbc
00000120: 0734 88bf 5329 dfbe 57ad 473c f243 c1be
00000130: f8d1 1740 c0fd 60bf 8a30 cdbf c08b 313f
00000140: 3375 f83f aebe c53f 47a1 50bf 25f1 723f
00000150: d7db 3a3f 1375 36c0 e982 203e 9778 913d
00000160: 6de1 813f b0ba bbbe 67ed 2bbf 4c0f 40bf
00000170: a785 7abe 82ac da3e 1ae2 4b3e 4f62 83bf
00000180: 63cf 873f 83cc 11bf f889 e1bf c4ed 2f3f
00000190: 6664 c73f ba2d 72be fdc4 aabc bcc2 edbf
000001a0: 361b 0abe b001 49be f591 94bf f479 17c0
000001b0: 4ba3 7d3f 65c2 83be 84d9 79bd d21c 3a3f
000001c0: bab4 0e3e ae8e 9f3f 4c0b 37bf fab6 353e
000001d0: 69f7 ecbe 0137 65bf e414 b53f b043 1440
000001e0: 2890 18be ce86 323f f13a 04bf 3f84 a6bf
000001f0: c457 e93e 8367 633f 0f7c f9be 0902 c93f
00000200: e88b 5ebf 4920 063f fc77 4dbf ca3d a13e
00000210: 6dc3 94bd ecf5 d3be f1a7 123f 50a4 ad3f
00000220: f110 463f 13d2 cf3f c177 dc3e fa12 0ebf
00000230: 58fd 493c 5244 7f3e 0f21 53bf 94fa c9bd
00000240: b8a2 70bf 4748 2b3f 5ac7 c6be 4a86 3b3f
00000250: 916b ffbe 8f13 7e3f 3f14 ac3f 94eb 543f
00000260: 0368 223f 3f5f a93e f587 18bf dac6 893f
00000270: 01ae b03f 7f7f b2bf 9140 ee3e 94ae 343f
00000280: 8284 81bf caaf 803f 278a 0f40 8f12 963e
00000290: 50ef bfbc 2456 d63d bc56 35c0 e851 833f
000002a0: 82ca ed3e 72c5 bfbf 8dad aabf 2df4 2a3f
000002b0: 83dc 66be 06cc 5e3f 006b af3d 1fe2 f93e
000002c0: 78e9 943f ab0e 563f c2ec 24be a67f a7bf
000002d0: 6b86 dbbc 6463 babf ffbb 7ebf 0824 edbe
000002e0: 9d82 3dbb 8687 c73e ef52 2d3f bd26 f7bd
000002f0: 16d6 1040 c4e8 38bd b642 dbbe 78d0 1fbf
00000300: 6705 9abf 3cc5 cc3e 9035 67bf 9bb9 dfbf
00000310: d821 53bf 4c57 b73e 3c1e 17bf fa97 0cbe
00000320: dd4f c53e fbcb 0cc0 2662 28be 2a91 7a3f
00000330: e23a a93e 0cc8 ec3f 5944 8bbf c769 d6bf
00000340: e3c0 133f 56a5 abbf c423 26c0 5921 87bf
00000350: dc5f f73e 5fcc 593f 537b 603f 5dbe 21bf
00000360: ebdd 5a3f ccba 5abf 2c8d dcbe ab5b 19bf
00000370: 8f1b fa3d fd41 e33e b436 79bf 4e6f 37c0
00000380: 4f78 c63e 7d52 93bf 0f4e ff3f c263 943e
00000390: 1e8e c53e 5554 5dbf db84 483e 5522 8e3d
000003a0: 349e 98bf 68ee bb3d d399 92be efa3 443f
000003b0: 72f3 eb3e 3903 073e db2d 303f 6255 54be
000003c0: 649f 833e 03f4 a7bf 9417 dc3f d8a3 85bd
000003d0: 84dc 1abf b061 8abf a74a 5a3e 351f c13e
000003e0: 4d96 f23d 3d1c 463f 22e8 38bf 6097 88bf
000003f0: 8505 823f c653 31be 1a77 9fbf a06f 803f

Decoder.lstm_layer.bias_ih_l0 f4 [128]
-0.71976995 -0.60901845 -0.6129227 -0.75877386 -0.16454877 -0.029898748 -0.9947254 -0.3291973
-0.35075834 -0.2593108 0.10186425 -0.59203035 -0.25809717 -0.26519135 -0.44420895 -0.6317316
-0.39104939 -0.058194205 -0.10674678 -0.4580857 0.015480921 -0.61481225 -0.10094272 -0.3340452
-0.68415004 0.03187756 -0.18676427 -0.87653774 -0.48228002 0.3388084 -1.057159 -1.037698
0.7176805 0.6649717 -0.32104787 0.10761564 0.30916554 0.16106987 0.7005504 0.49430573
-0.6829195 -0.8474223 -0.9648935 -0.1475347 -0.31281704 -0.27430528 1.0896466 -0.02093781
0.05296636 -0.7333971 -0.89863163 0.34829172 0.008031629 0.33948755 -0.30981505 0.45671314
-1.1632012 0.27608797 0.28771532 0.7619017 0.60122377 -0.91346896 0.21574727 0.45794293
0.28238618 -0.43906388 0.1846524 -0.31218997 0.32846957 -0.015372899 -0.1279632 -0.2524773
-0.22207655 -0.21826686 -0.056474615 -0.20971702 -0.19963606 -0.22176279 0.23134492 -0.35239348
0.3667245 0.21875705 0.14305486 -0.06515453 0.13189384 0.13549367 -0.0470365 0.011787571
-0.047907483 -0.48738885 -0.14677383 0.11377534 -0.4574314 -0.22662534 -0.013649931 0.24872735
-0.010528187 0.011705625 -1.0148652 0.23070133 -0.4172245 0.11565084 -0.40521768 -0.6463517
-0.101792425 -0.06920794 0.17758259 0.10308208 -0.31157768 0.21147306 0.04094697 -0.16962132
-0.04839802 0.60658 0.10302199 -0.2856253 0.34059715 -0.16482489 -0.06427973 -0.036487497
-0.17746758 -0.43635908 -0.20795332 -0.42615876 -0.46868408 0.84974164 -0.46253324 0.39358777
00000000: d842 38bf a2e8 1bbf 81e8 1cbf 013f 42bf
00000010: 797f 28be 38ee f4bc 53a6 7ebf 8c8c a8be
00000020: 9996 b3be 63c4 84be 349e d03d 4d8f 17bf
00000030: 5025 84be 29c7 87be 5b6f e3be 2ab9 21bf
00000040: a037 c8be 0c5d 6ebd 0e9e dabd 358a eabe
00000050: b0a3 7d3c 5664 1dbf 0fbb cebd f907 abbe
00000060: 7524 2fbf 0b92 023d 223f 3fbe c764 60bf
00000070: 68ed f6be 4b78 ad3e fc50 87bf 4ad3 84bf
00000080: e9b9 373f 963b 2a3f 6360 a4be 9765 dc3d
00000090: f24a 9e3e 80ef 243e 4557 333f a415 fd3e
000000a0: d0d3 2ebf abf0 58bf 4303 77bf 5613 17be
000000b0: 8e29 a0be be71 8cbe 8a79 8b3f c585 abbc
000000c0: 41f3 583d eabf 3bbf b90c 66bf 4b53 b23e
000000d0: 1897 033c 50d1 ad3e 14a0 9ebe 4ed6 e93e
000000e0: c7e3 94bf 675b 8d3e 6c4f 933e fd0b 433f
000000f0: cde9 193f 1ad9 69bf daec 5c3e 7f77 ea3e
00000100: ec94 903e fbcc e0be 8515 3d3e 5dd7 9fbe
00000110: 2a2d a83e 9dde 7bbc c908 03be b444 81be
00000120: 0968 63be 5981 5fbe ed51 67bd 0fc0 56be
00000130: 656d 4cbe c915 63be afe5 6c3e eb6c b4be
00000140: 50c3 bb3e d901 603e f97c 123e bd6f 85bd
00000150: 2e0f 073e dabe 0a3e 58a9 40bd a820 413c
00000160: a33a 44bd 088b f9be e14b 16be 0c03 e93d
00000170: 7334 eabe 7910 68be f6a3 5fbc 62b2 7e3e
00000180: 6b7e 2cbc f3c8 3f3c 1ae7 81bf f83c 6c3e
00000190: 739e d5be 59da ec3d b178 cfbe 4e77 25bf
000001a0: 8c78 d0bd e4bc 8dbd 36d8 353e b31c d33d
000001b0: 1c87 9fbe 658c 583e 03b8 273d 36b1 2dbe
000001c0: 013d 46bd d448 1b3f 31fd d23d 7b3d 92be
000001d0: c062 ae3e dbc7 28be 17a5 83bd ea73 15bd
000001e0: 10ba 35be 756a dfbe b7f1 54be 7b31 dabe
000001f0: 5cf7 efbe ab88 593f 28d1 ecbe 5684 c93e

Decoder.lstm_layer.bias_hh_l0 f4 [128]
-0.579537 -0.71303964 -0.52945644 -0.6840187 -0.18314043 0.058137685 -0.8053 -0.3395742
-0.3666134 -0.41231337 0.2736979 -0.25763744 -0.41504508 -0.2736024 -0.38936907 -0.6067804
-0.2454764 0.20650394 0.017307982 -0.7414624 -0.06416742 -0.4644718 -0.27978387 -0.39659378
-0.8223475 0.020473186 -0.08508469 -0.76246977 -0.36542484 0.55439943 -1.1312897 -1.1190981
0.68918836 0.62415135 -0.44465852 0.27942073 0.37945902 -0.06890475 0.5697817 0.5265263
-0.802254 -0.82478786 -0.9147502 -0.2484016 -0.465542 -0.14494206 0.9969167 0.004471084
-0.02081124 -0.9184381 -0.74015707 0.65594053 -0.004074055 0.22079915 -0.2561923 0.4408049
-1.0444571 0.33065623 0.035231158 0.99227923 0.7258939 -1.0714889 0.2715691 0.4084549
0.37323725 -0.5190078 0.19732323 -0.2740599 0.36944214 0.111503825 -0.21549088 -0.18352701
-0.19095773 -0.2259401 0.1243838 0.0076480764 -0.021268615 -0.06354915 0.2568114 -0.026539138
0.53875583 -0.08371199 0.07154682 -0.12514095 0.17335214 0.27150044 -0.31001988 -0.050739862
-0.118789315 -0.5841214 -0.06259664 0.16969337 -0.55371714 -0.14156564 -0.26710603 0.13087624
0.059380215 0.12526836 -0.8597775 0.075745806 -0.21480732 0.42054683 -0.46004766 -0.45142853
-0.21424203 -0.12792645 0.33776546 -0.05029908 -0.12820235 0.11457274 0.08218615 -0.39082378
0.119746685 0.76549184 0.032596827 -0.004153004 0.4469724 0.0036490997 0.030404244 -0.17853618
-0.18795429 -0.31879455 -0.26096365 -0.39090607 -0.698915 0.8294076 -0.43313494 0.61171263
00000000: 895c 14bf c489 36bf 758a 07bf d91b 2fbf
00000010: 2a89 3bbe c821 6e3d 2428 4ebf abdc adbe
00000020: c0b4 bbbe bd1a d3be 2222 8c3e 0ee9 83be
00000030: ca80 d4be 9d15 8cbe 625b c7be f655 1bbf
00000040: 2a5e 7bbe c575 533e 78c9 8d3c 7bd0 3dbf
00000050: 356a 83bd 3fcf edbe d53f 8fbe 570e cbbe
00000060: 5e85 52bf 62b7 a73c e240 aebd 3831 43bf
00000070: f718 bbbe 1fed 0d3f 1ace 90bf 9b3e 8fbf
00000080: a66e 303f 62c8 1f3f 48aa e3be 3c10 8f3e
00000090: 7448 c23e ef1d 8dbd 37dd 113f 6dca 063f
000000a0: 8560 4dbf 4c25 53bf 122d 6abf fd5c 7ebe
000000b0: 855b eebe b16b 14be ef35 7f3f 2c82 923b
000000c0: 557c aabc c21e 6bbf ef7a 3dbf b8eb 273f
000000d0: a67f 85bb 2c19 623e a32b 83be 2eb1 e13e
000000e0: c5b0 85bf c64b a93e 8c4e 103d 0306 7e3f
000000f0: 2fd4 393f 8c26 89bf 1b0b 8b3e 0021 d13e
00000100: f418 bf3e b2dd 04bf 1a0f 4a3e 9451 8cbe
00000110: 8527 bd3e 1e5c e43d a4a9 5cbe 81ee 3bbe
00000120: 6c8a 43be d75c 67be efbc fe3d b79c fa3b
00000130: 853b aebc 0f26 82bd c97c 833e 9b68 d9bc
00000140: e7eb 093f 3171 abbd 2487 923d f324 00be
00000150: 3983 313e 1b02 8b3e edba 9ebe 9ad4 4fbd
00000160: d047 f3bd fb88 15bf ab32 80bd 19c4 2d3e
00000170: 68c0 0dbf 95f6 10be 1fc2 88be 6c04 063e
00000180: ab38 733d 5946 003e 611a 5cbf 9e20 9b3d
00000190: 73f6 5bbe ea51 d73e 5e8b ebbe a421 e7be
000001a0: 4362 5bbe 27ff 02be 98ef ac3e 6806 4ebd
000001b0: 7a47 03be 1da5 ea3d 3651 a83d 0e1a c8be
000001c0: c03d f53d 46f7 433f 4084 053d ec15 88bb
000001d0: 91d9 e43e bc25 6f3b 5212 f93c 30d2 36be
000001e0: 1777 40be 0a39 a3be 079d 85be d724 c8be
000001f0: 18ec 32bf 0e54 543f ddc3 ddbe 3399 1c3f

Decoder.fc.weight f4 [1, 33]
-0.5218006 0.14802091 0.47260055 0.2200829 -0.9639758 -0.44248188 0.4911503 -0.31417686
0.4056188 -0.6616809 -0.71707606 -0.52887046 0.19449507 0.7645565 -0.1653988 0.26742473
-0.65781707 0.0065414873 0.04826197 0.49810266 -0.18571909 0.6585144 0.034408987 -0.7041607
-0.7935881 -0.78566456 0.7333389 0.7788399 -0.32985622 0.6976228 -0.40030745 0.05167631
1.3446298
00000000: b994 05bf cb92 173e b3f8 f13e 695d 613e
00000010: 1ec7 76bf fc8c e2be 0d78 fb3e cadb a0be
00000020: 44ad cf3e eb63 29bf 4c92 37bf 0e64 07bf
00000030: b729 473e fab9 433f 4e5e 29be e5eb 883e
00000040: b366 28bf f959 d63b 58ae 453d 5007 ff3e
00000050: 252d 3ebe 6694 283f 70f0 0c3d e043 34bf
00000060: 9728 4bbf 5021 49bf 19bc 3b3f 0d62 473f
00000070: eae2 a8be 6897 323f 19f5 ccbe 8aaa 533d
00000080: d41c ac3f

Decoder.fc_final.weight f4 [1, 64]
0.2610692 -0.05037224 -0.31739473 -0.15462112 -0.15873823 0.059077427 0.4869531 -0.0898033
0.5583856 0.40023366 0.4142908 -0.6994492 -0.019486478 0.26554534 0.2548869 -0.7158136
-0.07052754 0.5184076 -0.21393034 -0.018647889 -0.4159983 -0.21320331 -0.58628833 0.33514506
-0.2909955 0.017286876 0.57623565 0.21202944 0.077019945 0.16136608 -0.28323537 0.31059197
-0.41652042 0.3530978 -0.6689858 -0.46713212 0.5348934 -0.07940109 1.3588189 -0.70318925
1.1811615 -0.65194124 -0.67204964 0.6879353 -0.6113183 -0.69073576 -0.6688281 -0.3876663
-0.16713782 0.5113592 1.181941 -2.5013244 -0.4892775 -2.0695102 -0.633422 -0.6484834
1.6683682 -0.6245617 -1.9172553 -1.1413764 -1.7215309 -0.50491905 -0.6199839 -0.4264781
00000000: ddaa 853e 1f53 4ebd 9081 a2be 0055 1ebe
00000010: 468c 22be 2cfb 713d eb51 f93e cbea b7bd
00000020: 5cf2 0e3f 6deb cc3e ec1d d43e 1a0f 33bf
00000030: 1ba2 9fbc 8ff5 873e 8980 823e 8f3f 37bf
00000040: be70 90bd 5cb6 043f 8e10 5bbe 75c3 98bc
00000050: bbfd d4be f851 5abe fe16 16bf 2298 ab3e
00000060: 5dfd 94be 359d 8d3c 2e84 133f 3f1e 593e
00000070: a2bc 9d3d 263d 253e 3a04 91be e905 9f3e
00000080: 2a42 d5be 3cc9 b43e a742 2bbf f12b efbe
00000090: c6ee 083f 0a9d a2bd c7ed ad3f 3604 34bf
000000a0: 4d30 973f 9fe5 26bf 720b 2cbf 871c 303f
000000b0: 5b7f 1cbf 0fd4 30bf 5238 2bbf 337c c6be
000000c0: 2d26 2bbe 70e8 023f d849 973f b315 20c0
000000d0: 9582 fabe db72 04c0 f227 22bf 0203 26bf
000000e0: 178d d53f 47e3 1fbf 9f68 f5bf 9f18 92bf
000000f0: 205b dcbf 6042 01bf 44b7 1ebf 565b dabe
