result/ver5/last.pt (torch, 194005 bytes, 48 tensors)

Encoder.encoder_lstm.weight_ih_l0 f4 [128, 6]
0	0xbfa1657f	-1.2609099
1	0xbe9af011	-0.3026128
2	0xbd8d40cf	-0.06897127
3	0xbf10b3ba	-0.5652424
4	0xbf8e3d93	-1.1112541
5	0x3e2636c0	0.16231823
6	0x3f45d1b2	0.77273095
7	0xbee2d9a1	-0.44306663
8	0x3f1706d2	0.5899478
9	0x3f0eb535	0.5574525
10	0xbead57f4	-0.33856165
11	0x3fa69211	1.3013326
12	0xbf6982f6	-0.91215456
13	0xbf0a7b56	-0.54094446
14	0xbf82130e	-1.0162065
15	0xbf00f41c	-0.5037248
16	0xbdf2051f	-0.11817383
17	0x3d617427	0.055042412
18	0x3fdd92c7	1.7310418
19	0xc0077f02	-2.117127
20	0x3f9bb9b3	1.2166046
21	0xbf9f17fa	-1.2429192
22	0x3e9748f9	0.2954786
23	0xbf5560b0	-0.8335066
24	0xbf866b12	-1.0501425
25	0x3e3a3d26	0.18187389
26	0xc0551adc	-3.3297644
27	0x3daeab42	0.085287586
28	0xbe0cf28d	-0.13764401
29	0xbf1e31ce	-0.61794746
30	0x3ed1f052	0.41003662
31	0xbef5b515	-0.47989717
32	0x3f1011e5	0.56277305
33	0xbfdc2d11	-1.7201253
34	0x3f20c25b	0.6279656
35	0xbf93c58a	-1.1544659
36	0x400aa78b	2.166476
37	0x3f420ddf	0.75802416
38	0xbf897fdf	-1.0742148
39	0xbe41c6f1	-0.18923546
40	0xbf646beb	-0.8922717
41	0xbf4ad4d7	-0.7923102
42	0xbf3c674f	-0.73595136
43	0xc04e00b8	-3.2187939
44	0xbf8c9f85	-1.0986181
45	0xbfbb1230	-1.4614925
46	0x3ed4ad55	0.41538492
47	0xbe858cc9	-0.26083973
48	0x3f74c5b1	0.95614153
49	0x3f216c85	0.6305621
50	0xc01c3a0d	-2.4410431
51	0xbf667a48	-0.90030336
52	0xbf304517	-0.6885542
53	0x3ed8ec9b	0.42368016
54	0xbdfe0292	-0.12402834
55	0xbf0687bc	-0.52550864
56	0xc020cf02	-2.5126348
57	0x3eafe636	0.34355325
58	0xbe94bee6	-0.29051894
59	0xbf86b759	-1.0524703
60	0x3e93856a	0.28812724
61	0xbf0a3cf6	-0.5399927
62	0x3fbc59ff	1.4714965
63	0xbfac96e4	-1.3483548
64	0x3e0ff7f9	0.14059438
65	0xbeb4847d	-0.3525733
66	0x3f3cd8c3	0.7376825
67	0xbfbdf16c	-1.4839301
68	0xbfc9dfff	-1.5771483
69	0xbee9b7fd	-0.45648184
70	0x3ec1ed5f	0.37876412
71	0xbf124b49	-0.57146126
72	0x3eb210de	0.34778494
73	0xbfcf49bb	-1.6194376
74	0xbf7c1e4d	-0.98483735
75	0xc009ec41	-2.1550448
76	0xbfc2463a	-1.5177681
77	0xbff9778a	-1.9489605
78	0xbe85d8ed	-0.26142064
79	0xbe419814	-0.1890567
80	0xbfe6506f	-1.7993296
81	0xbe27b6c3	-0.16378312
82	0xbf0f2af6	-0.5592493
83	0xc00c8d17	-2.1961114
84	0x3f159849	0.58435494
85	0xbf83881d	-1.0275913
86	0xbf376db9	-0.716518
87	0xbf406190	-0.7514887
88	0xbff56094	-1.9170098
89	0xbfb2ceda	-1.3969376
90	0xbf760f7c	-0.9611738
91	0x3edf8393	0.4365507
92	0xbd4e6126	-0.050385617
93	0xbeec38ad	-0.4613699
94	0x3fd10d2e	1.6332147
95	0x3fb352be	1.4009626
96	0xbe1e1557	-0.15437828
97	0x3fe04c6b	1.7523321
98	0xbfa654d9	-1.2994643
99	0x3eb57864	0.35443413
100	0x3d96cff5	0.073638834
101	0x3e254ec3	0.16143326
102	0x3f84595e	1.0339773
103	0xbf453be6	-0.7704452
104	0xbe8f9642	-0.28044325
105	0xbf72323c	-0.946079
106	0x3f5b4c63	0.8566343
107	0xbf7d1281	-0.9885636
108	0xbf27a603	-0.6548769
109	0x3ff8b24e	1.9429414
110	0xbf2cd55f	-0.6751308
111	0x3e201609	0.15633406
112	0x3ea13ae6	0.31490248
113	0x3fd93e24	1.6972089
114	0x3f213ef5	0.6298669
115	0xbf9aaa9d	-1.2083317
116	0x3f15632d	0.58354455
117	0x3f921d73	1.1415237
118	0x40074b7c	2.1139822
119	0x3e801a2b	0.25019965
120	0xbf31af31	-0.69407946
121	0xbf985df0	-1.1903667
122	0xbf67f2ec	-0.90605044
123	0x3db1f209	0.08688743
124	0x3e1f9e60	0.15587759
125	0xbf8c6b6e	-1.0970285
126	0x3ec1e139	0.37867144
127	0x3f3defa6	0.741938
128	0xbf91bf84	-1.1386571
129	0x3f9ece35	1.2406679
130	0x3ef75aad	0.48311368
131	0xbf94ae8f	-1.1615771
132	0xbec36b51	-0.38167813
133	0xbd84e327	-0.06488638
134	0xbf06d475	-0.52667934
135	0x4020904b	2.508807
136	0x3f460621	0.773531
137	0x3fc1f652	1.5153296
138	0x3f33ea40	0.7027931
139	0xbf3941b5	-0.72365886
140	0xbf282e4a	-0.6569563
141	0xbc8352d3	-0.016030705
142	0xbfae848f	-1.3634204
143	0x3f63680b	0.8883063
144	0x3f5d9a8c	0.86563945
145	0x4001af3a	2.02632
146	0x3fef498e	1.8694322
147	0xbf682acd	-0.9069031
148	0xc012eea6	-2.295816
149	0x3e1b5bcf	0.15171741
150	0x3e6f6cd9	0.23381366
151	0xbf6dd889	-0.9290853
152	0x3f3bea78	0.73404646
153	0xbf0ac65f	-0.5420894
154	0xbfadd29f	-1.3579901
155	0xbea05cbc	-0.3132075
156	0x3f06dfb7	0.5268511
157	0x4043854e	3.0550113
158	0xbe8ae8d9	-0.27130774
159	0x401ccaaa	2.4498696
160	0xbf3fef0f	-0.7497415
161	0x3faa41af	1.3301295
162	0xbdba16fd	-0.09086416
163	0x3f639df6	0.88912904
164	0x3feb7094	1.8393731
165	0x3f76831f	0.96293825
166	0xbc173b65	-0.009230469
167	0xbe927fe5	-0.286132
168	0x3f8ae91a	1.0852387
169	0xbeda1a4a	-0.42598182
170	0x3ff7dcd4	1.9364266
171	0x3ec78733	0.38970336
172	0x3f860e5e	1.0473135
173	0xbe9524cb	-0.29129633
174	0xc0019418	-2.024664
175	0xbfaafff3	-1.335936
176	0xbf9695da	-1.1764481
177	0x3e73e100	0.238163
178	0x3fa80954	1.3127847
179	0xbe1c3679	-0.15255155
180	0xbf0a1a41	-0.5394631
181	0x40118879	2.2739546
182	0xbfc8b387	-1.5679787
183	0xbf85b11d	-1.0444676
184	0xbff4d269	-1.9126712
185	0xbeeaf63b	-0.45890984
186	0x3f0c7099	0.5485931
187	0xbec8ffe6	-0.39257735
188	0xbf8d6ba4	-1.1048474
189	0xbd656270	-0.05600208
190	0x3e86f660	0.26359844
191	0xbf36dd15	-0.71431094
192	0x3ffa7bae	1.9568994
193	0x3f7aa7da	0.9791237
194	0x3fe4b7bd	1.7868572
195	0xbf9410a7	-1.1567582
196	0xbc1951a4	-0.009357844
197	0xc00e592f	-2.2241933
198	0x3fd7bcb4	1.6854463
199	0xbf1f686e	-0.6226872
200	0x3faa7ddf	1.3319663
201	0xbd9b0a3b	-0.07570311
202	0x3fc23f39	1.5175544
203	0xbe865569	-0.26237038
204	0x3fa8dc98	1.319232
205	0xbfa14d67	-1.2601746
206	0x40012be2	2.0183034
207	0xc0241d8a	-2.564303
208	0x3c7a3710	0.015271917
209	0xbf9af96d	-1.2107369
210	0xbe9b9188	-0.3038447
211	0x3fb2d69a	1.3971741
212	0xbf9cf290	-1.2261524
213	0x3facc968	1.3498964
214	0x3fc8a225	1.5674483
215	0x3f73fb6f	0.9530553
216	0xbf134fcb	-0.5754363
217	0xbf4cf053	-0.80054206
218	0xc03d906d	-2.96194
219	0x3f28ceea	0.65940726
220	0x3e80806a	0.25097972
221	0x3e658671	0.22414567
222	0x3f1c05aa	0.6094614
223	0x3ead1770	0.33806944
224	0x3fb912ae	1.4458826
225	0x3f179a62	0.59219944
226	0xbed70638	-0.41996932
227	0xbf762ddc	-0.96163726
228	0x3e3f8e79	0.18706693
229	0xbdf02a6f	-0.117268436
230	0xbf5db49e	-0.86603725
231	0xbe60159a	-0.2188324
232	0x3f9212c8	1.1411982
233	0xbf9de15b	-1.2334398
234	0x3edc8f3a	0.43078023
235	0x4006d2a5	2.1066067
236	0x3f9ca83b	1.223884
237	0x406103ed	3.5158646
238	0x3fea6284	1.8311315
239	0x3fe9fd0f	1.8280352
240	0xbe789710	-0.24276376
241	0xbc1b01f0	-0.009460911
242	0xbfe8348e	-1.8141038
243	0x3fc6473a	1.5490487
244	0x3f823f10	1.0175495
245	0x3fa15d05	1.2606512
246	0x40667644	3.6009684
247	0x40314d57	2.7703454
248	0x3ff57de1	1.917904
249	0x3f9765b5	1.1827914
250	0x3fcf3d8a	1.6190655
251	0x400a441b	2.1604068
252	0xbe9cf2c9	-0.3065398
253	0x3e8dfb60	0.27730846
254	0x3faad0d4	1.3344979
255	0xbfb6d40d	-1.4283463

Encoder.encoder_lstm.weight_hh_l0 f4 [128, 32]
0	0x3fb8c83d	1.4436108
1	0xbfd6e077	-1.6787251
2	0xbff805cc	-1.9376769
3	0xbf3de17d	-0.7417219
4	0xbf0f8e8b	-0.5607688
5	0x4003b149	2.0576956
6	0xbff6b679	-1.9274436
7	0xbd3c185b	-0.045921665
8	0xbf6534a1	-0.8953343
9	0x3ee86b40	0.45394325
10	0xbf36830f	-0.7129373
11	0xbeb28661	-0.34868148
12	0xbfdbbc19	-1.7166778
13	0x4009f7fb	2.1557605
14	0x3f24b353	0.6433613
15	0xbd14f512	-0.03636653
16	0xbf74fe52	-0.9570056
17	0xc009d301	-2.1535037
18	0x3fc0d21e	1.5064123
19	0x3e119dae	0.14220306
20	0x3f85c603	1.0451053
21	0xbf690424	-0.91021943
22	0xc030e4cb	-2.7639644
23	0xbecc8c61	-0.3995085
24	0x3f1a9013	0.6037609
25	0x401c5bdd	2.443107
26	0x3e1ce849	0.15322985
27	0xc01f2b2f	-2.4870107
28	0x3eca7807	0.395447
29	0x3e7f48ec	0.24930161
30	0x3f3a1db1	0.72701555
31	0xbeb2ce27	-0.34922907
32	0x3fc58f36	1.543433
33	0xbe574e75	-0.21026023
34	0xbf366b91	-0.71257883
35	0x3e088079	0.13330258
36	0x3f46d2d8	0.7766547
37	0xbf9bfade	-1.2185934
38	0xbc6e2b98	-0.014536761
39	0x3efad83c	0.489931
40	0x3ed47d33	0.4150177
41	0x3f3d6d54	0.73994946
42	0xbde82836	-0.11335795
43	0xbf7f831e	-0.99809444
44	0xbf7dfd32	-0.9921447
45	0x3eaaeea1	0.33385184
46	0xbeda3203	-0.4261628
47	0x3fb61992	1.4226553
48	0xbf2d9e31	-0.67819506
49	0x3f0c0af5	0.5470422
50	0x3f2659db	0.6498086
51	0xbfe97823	-1.8239788
52	0xbeb6531e	-0.35610288
53	0xbeae0e3b	-0.33995232
54	0x3fc5c42a	1.545049
55	0xbad58985	-0.0016291594
56	0x3c5cf47c	0.013486024
57	0xbe8d4dbd	-0.27598372
58	0xbf1a11bd	-0.60183316
59	0xbdac4980	-0.084124565
60	0x3f5fe037	0.874515
61	0x40007e55	2.0077107
62	0xbdd17e61	-0.10229183
63	0x3e09a424	0.13441521
64	0x3f3bcf70	0.733634
65	0xbf88551b	-1.0650972
66	0x3e136497	0.1439384
67	0xc00eedc3	-2.2332618
68	0x3d7ac996	0.061227404
69	0x3fa2527b	1.2681421
70	0xbf1ae54a	-0.6050612
71	0xbf4f27a6	-0.80919874
72	0x3f0f0a77	0.55875343
73	0x3f758fbe	0.9592246
74	0xc0024f36	-2.0360847
75	0x3fae13a1	1.359974
76	0x3d98475a	0.07435484
77	0xbf431d90	-0.76216984
78	0x3f393cde	0.723585
79	0x3e374829	0.1789862
80	0xbf202f11	-0.6257182
81	0x3f753029	0.9577661
82	0xbf8dbbb3	-1.1072906
83	0xbfba52da	-1.4556534
84	0x3f24726b	0.6423709
85	0x3d7acddd	0.061231483
86	0x3cfbf2a5	0.03075535
87	0x3f29ea0b	0.66372746
88	0x3f483ffb	0.78222626
89	0xbf0c2638	-0.5474582
90	0x3f3716e4	0.71519303
91	0xc050c324	-3.2619104
92	0xbf74ed18	-0.95674276
93	0x3f94ba09	1.1619273
94	0xbb90c1c2	-0.004417629
95	0x3ff30672	1.8986342
96	0xbf41a911	-0.756486
97	0xbec90eab	-0.39269003
98	0x3fb8d25a	1.4439194
99	0x3e1cc099	0.15307845
100	0xc00592d9	-2.0870879
101	0x3eafa9fa	0.3430937
102	0x3f897330	1.0738277
103	0x3e1420c4	0.14465624
104	0x3d462a99	0.048380468
105	0xbf11d265	-0.5696166
106	0xbf893a8e	-1.0720994
107	0x3f540947	0.82826656
108	0x3fc6e6e5	1.5539213
109	0xbfa2856a	-1.2696965
110	0xbf1e336f	-0.6179723
111	0xbec2de27	-0.38060114
112	0x3d2e2e29	0.04252449
113	0x3eadc145	0.33936515
114	0x3f5d60ea	0.86476004
115	0x3f348d49	0.70528084
116	0xbd09a5fd	-0.033605564
117	0x3f2297ce	0.63512886
118	0x3f44b060	0.76831627
119	0x3f838fcf	1.0278262
120	0x40032558	2.0491543
121	0x3f48fcc8	0.78510714
122	0x3fdeea73	1.7415298
123	0xbf2a2d5c	-0.6647546
124	0x3f4dfdeb	0.80465573
125	0x3f1a922b	0.60379285
126	0x3f7349ee	0.9503468
127	0x3f49b6ee	0.78794754
128	0x40072814	2.1118212
129	0xbf1e97a7	-0.61950153
130	0xbca81b52	-0.02052084
131	0xbc2bd81e	-0.010488538
132	0x3efceeee	0.4940104
133	0xbefcdc45	-0.49386802
134	0xbf8d98f5	-1.1062304
135	0xc000c055	-2.011739
136	0x3fe1119d	1.75835
137	0x40452d1b	3.080878
138	0x3f9ef197	1.2417477
139	0x3db90eb4	0.090360075
140	0xbfa56f2c	-1.2924552
141	0x3deb31e2	0.11484124
142	0x3eb00156	0.3437602
143	0xbf8ffdb9	-1.1249305
144	0xbee0519f	-0.43812272
145	0x3fb10d21	1.3832132
146	0xbee2b2bc	-0.44276989
147	0x3fa2ee4f	1.2728976
148	0xbfc99ef2	-1.5751631
149	0x3fa3c3ab	1.2794088
150	0xbf1d58d9	-0.61463696
151	0xbf2e4ebf	-0.68088907
152	0x3e26df27	0.16296063
153	0xbe1d3a1f	-0.15354203
154	0xbf3f4ba0	-0.7472477
155	0xc01c9d00	-2.4470825
156	0x3f8930fd	1.0718075
157	0xbf842c06	-1.0325935
158	0x3d706a11	0.058694903
159	0xbf11c986	-0.56948125
160	0x3f9f3bc1	1.244011
161	0x3c24634e	0.010033442
162	0x3f954b15	1.1663538
163	0x400156bf	2.0209196
164	0xbef4588b	-0.47723803
165	0x3f9095e3	1.1295742
166	0x3e93ca37	0.28865215
167	0xbf8da011	-1.1064473
168	0xbf3b0cfd	-0.73066694
169	0x3f9e75ff	1.237976
170	0x3f5d5781	0.86461645
171	0x3fab88bb	1.3401102
172	0x3f638487	0.88874096
173	0x3f96287b	1.1731104
174	0xbf5746ae	-0.84092224
175	0x3e3afc57	0.18260323
176	0xbefa70c2	-0.48914152
177	0xbf493b10	-0.7860575
178	0xbec7b16a	-0.39002544
179	0x3b70bfc5	0.0036735397
180	0x3f042c76	0.5163034
181	0xbfbeb518	-1.4899015
182	0xbf8db3f6	-1.1070545
183	0xbf123155	-0.57106525
184	0x3fa0c4a9	1.2560016
185	0x3fe28f31	1.7699949
186	0x3f85ceb7	1.0453709
187	0xbf77c094	-0.96778226
188	0xbe29915d	-0.16559358
189	0xbe1a9aa9	-0.1509806
190	0x3e30062a	0.17189851
191	0xbf848c27	-1.0355271
192	0x3ec98050	0.39355707
193	0x3fad5a60	1.3543205
194	0xbe7d1ed5	-0.24718793
195	0xbf4aa6a7	-0.7916054
196	0x3c63fef9	0.013915771
197	0xbf6491a2	-0.8928472
198	0x3db24cb8	0.08706039
199	0xbfafd655	-1.3737284
200	0xbe0fdd58	-0.1404928
201	0x3f5b1b7f	0.8558883
202	0x3ea0089a	0.31256562
203	0x3e6e2c6e	0.23259136
204	0xbeba107a	-0.36340696
205	0xbdb509d1	-0.08839763
206	0xbdac8edd	-0.084256865
207	0xbe74db37	-0.23911749
208	0x3eebf293	0.46083507
209	0x3f8f8856	1.1213481
210	0xbf95f889	-1.1716472
211	0x3f202bae	0.6256665
212	0x3da6d35c	0.08145782
213	0x3f0fe0b1	0.56202227
214	0xbd40fc40	-0.047115564
215	0xbf131d0c	-0.57466197
216	0xbf390599	-0.72274166
217	0x3e9ade1c	0.3024758
218	0xbf6be0ce	-0.921399
219	0xbf1b542f	-0.6067533
220	0xbd88d527	-0.066812806
221	0x3eb0a480	0.34500504
222	0xbfc6a01e	-1.5517614
223	0x3f5adfd2	0.8549777
224	0xbcbd9f40	-0.023147225
225	0xbd0cd787	-0.03438523
226	0xbffe6ce8	-1.9876986
227	0x3fb22a65	1.3919188
228	0x3f7c1dcd	0.9848297
229	0xbe62fbd7	-0.22166382
230	0xbf271fe2	-0.65283024
231	0xbf802480	-1.0011139
232	0xbea57b08	-0.32320428
233	0x3fd13dde	1.6347005
234	0xbf874d6e	-1.0570505
235	0xbf1d885a	-0.6153618
236	0x3ed3521d	0.41273585
237	0x3fd63b89	1.6736919
238	0x3f68ef95	0.90990573
239	0x3f0cd07f	0.5500564
240	0xbd874877	-0.066056184
241	0x3f7f9cfa	0.998489
242	0xbfea5c31	-1.8309385
243	0xbf9372c1	-1.1519395
244	0xbf2437a5	-0.64147407
245	0xbec2a6b9	-0.38017824
246	0x3f572d95	0.8405393
247	0x3f779c65	0.96723014
248	0x3eb40d26	0.3516628
249	0x3f57708e	0.8415612
250	0x3f135813	0.57556266
251	0x3ddc9dd6	0.10772292
252	0x3da6bb92	0.08141245
253	0x3ead81fd	0.33888236
254	0xbf0e5c87	-0.55609936
255	0x3f1026ef	0.5630941

Encoder.encoder_lstm.bias_ih_l0 f4 [128]
0	0xbe368c09	-0.17826857
1	0xbf2db5fc	-0.6785581
2	0xbecf3a3a	-0.4047411
3	0xbf37545b	-0.7161309
4	0xbee87ec0	-0.45409203
5	0x3eab1a86	0.33418673
6	0xbd12c190	-0.035829127
7	0xbf531a95	-0.82462436
8	0xbee367e5	-0.44415203
9	0xbf04a611	-0.518159
10	0xbe3b37a6	-0.18282947
11	0xbef2b136	-0.47400826
12	0xbf10ea18	-0.566072
13	0xbe8bc65b	-0.2729977
14	0xbf0025db	-0.5005776
15	0xbe9a8d02	-0.30185705
16	0xbed4cebb	-0.41563973
17	0xbf35b7c2	-0.7098352
18	0xbfbd5e7d	-1.479446
19	0xbf466844	-0.77502847
20	0x3eb35eda	0.35033303
21	0xbf0ba316	-0.54545724
22	0xbe264eec	-0.16241044
23	0x3ea03826	0.31292838
24	0xbfadd24d	-1.3579804
25	0xbd8ee7a8	-0.06977779
26	0xbf047c4c	-0.5175216
27	0xbebf5d03	-0.3737565
28	0xbf330fdf	-0.6994609
29	0x3e2f8679	0.17141141
30	0xbf2803a0	-0.6563053
31	0xbf2c26d8	-0.6724677
32	0xbf647e66	-0.8925537
33	0x3f1a9828	0.6038842
34	0xbfb02e02	-1.376404
35	0xbf843f56	-1.0331829
36	0xbe12c1fe	-0.14331815
37	0xbeb9045d	-0.3613614
38	0xbeba33dd	-0.36367694
39	0x3e77f6bf	0.2421522
40	0x3c6a7ef3	0.014312494
41	0xbfbadc0e	-1.4598405
42	0x3e92990e	0.28632396
43	0xbf8043cf	-1.0020694
44	0xbe6b0fc5	-0.22955234
45	0xbfb22958	-1.3918867
46	0x3ea52b5b	0.3225964
47	0xbf6adf3d	-0.91746885
48	0xbdc6511b	-0.096834384
49	0xbf98e450	-1.1944675
50	0xbf110bdb	-0.56658715
51	0xbf1b1027	-0.6057152
52	0xbc6a0d5c	-0.014285412
53	0xbef8d168	-0.48597264
54	0xbfe16dcc	-1.7611632
55	0xbf4d638e	-0.80230033
56	0xbe4ac32b	-0.19801013
57	0xbe6a6059	-0.22888316
58	0xbd4d5ec6	-0.05013921
59	0x3e44119c	0.19147342
60	0xbf730047	-0.949223
61	0xbfc05ae3	-1.5027736
62	0xbb603d4d	-0.0034216226
63	0xbe1693b4	-0.14704782
64	0xbe21809f	-0.15771721
65	0x3ed36750	0.4128976
66	0x3ebb7adc	0.36617172
67	0x3f1246c2	0.5713922
68	0x3e14fb74	0.14549047
69	0xbd970fbd	-0.07376049
70	0x3ea887b5	0.32916036
71	0x3ed57289	0.41688946
72	0xbe05c0f3	-0.13061886
73	0xbd16fbc7	-0.036861207
74	0x3e7d967a	0.24764434
75	0xbe8d10e6	-0.27551955
76	0x3ee257df	0.44207665
77	0xbf2f4064	-0.6845763
78	0xbecda263	-0.40162954
79	0x3ecb9bbb	0.3976725
80	0x3e2d4fb5	0.16924937
81	0xbe816203	-0.2527009
82	0x3de72e64	0.11288145
83	0x3ed56ca3	0.41684446
84	0xbcdc3b81	-0.026883842
85	0x3d28cdbd	0.041211832
86	0x3e130615	0.14357789
87	0xbe9eb6c0	-0.30998802
88	0xbd33b046	-0.04386928
89	0x3d248afe	0.040171616
90	0x3e5c0bca	0.21488872
91	0x3edf4fe6	0.43615645
92	0xbe5acde8	-0.2136761
93	0x39b89e0f	0.00035212978
94	0xbe9d424b	-0.3071464
95	0xbdb90209	-0.09033591
96	0xbe246b80	-0.16056633
97	0xbeee2ab6	-0.4651696
98	0xbeb80d0f	-0.35947463
99	0xbe23a122	-0.15979436
100	0xbf78a6a3	-0.9712927
101	0xbedf682f	-0.43634173
102	0xbd10800f	-0.035278376
103	0xbda12e63	-0.07870176
104	0xbf01eec2	-0.5075494
105	0x3d8adf10	0.06780827
106	0xbd43f2be	-0.04783892
107	0xbecff085	-0.4061319
108	0xbdf20faa	-0.11819394
109	0xbdd0a85f	-0.10188364
110	0x3dbcaae3	0.092122816
111	0xbf01c00d	-0.5068367
112	0xbf40f2e7	-0.7537064
113	0xbf437526	-0.7635063
114	0xbfab8b9e	-1.3401983
115	0xbfd7443f	-1.6817702
116	0xbf0298a4	-0.5101416
117	0xbf0fed71	-0.5622168
118	0xbf6f07a2	-0.9337102
119	0x3ee1d45e	0.44107336
120	0xbe4d4abd	-0.20048042
121	0xbde8f819	-0.11375446
122	0xbf1d777b	-0.6151044
123	0xbf3b42ef	-0.7314901
124	0x3e7aa466	0.24476776
125	0xbd5eb2ba	-0.054369666
126	0xbecd36d8	-0.40080905
127	0xbeb84100	-0.3598709

Encoder.encoder_lstm.bias_hh_l0 f4 [128]
0	0xbe91c1d7	-0.284682
1	0xbf456755	-0.771108
2	0xbf2a501a	-0.66528475
3	0xbf06964f	-0.525731
4	0xbe85ac37	-0.26107952
5	0x3d86cd95	0.065821804
6	0xbe0d6e6d	-0.13811655
7	0xbf711870	-0.94177914
8	0xbedab886	-0.42718905
9	0xbedfab36	-0.4368531
10	0xbb975bf2	-0.004619115
11	0xbf1a110f	-0.6018228
12	0xbec043a8	-0.37551618
13	0xbcd38644	-0.025820859
14	0xbefbb332	-0.49160153
15	0xbe7b52b7	-0.24543272
16	0xbf038e2d	-0.5138882
17	0xbf1fb05e	-0.6237849
18	0xbfa1e897	-1.2649106
19	0xbf46863d	-0.7754858
20	0x3dcad457	0.09903782
21	0xbf2323dd	-0.637266
22	0x3bfb68dd	0.007672413
23	0x3e2b00c1	0.16699506
24	0xbf8e22ee	-1.110441
25	0xbd08088a	-0.03321127
26	0xbeb92e20	-0.36168003
27	0xbe6562c4	-0.22400957
28	0xbedb364f	-0.42814872
29	0x3e7c4cdb	0.24638693
30	0xbf2bc007	-0.67089885
31	0xbf03bf12	-0.51463425
32	0xbf26daa3	-0.65177363
33	0x3f43502c	0.7629421
34	0xbfaed969	-1.3660098
35	0xbf89b687	-1.0758828
36	0x3d5f030a	0.054446258
37	0xbe552c73	-0.20817737
38	0xbf04583e	-0.51697147
39	0x3da642b5	0.08118192
40	0xbe651779	-0.22372235
41	0xbfb397b5	-1.4030672
42	0x3ecb4834	0.39703524
43	0xbf953f35	-1.1659914
44	0xbee1b9a5	-0.44086948
45	0xbf99a87d	-1.2004544
46	0x3e06da5a	0.13169232
47	0xbf2a5962	-0.6654264
48	0x3e1fcf5d	0.15606447
49	0xbfa16ec5	-1.2611929
50	0xbf0e9e98	-0.55710745
51	0xbf1489e4	-0.58022904
52	0x3e24458e	0.16042158
53	0xbf3954f8	-0.7239528
54	0xbfebd30b	-1.842378
55	0xbf313e43	-0.6923563
56	0xbd7cd1e7	-0.061723616
57	0xbe4b7178	-0.19867504
58	0xbe82ac5f	-0.25522134
59	0x3deab3a2	0.114600435
60	0xbf4dba78	-0.80362654
61	0xbfccef05	-1.6010443
62	0x3c891b14	0.016736545
63	0xbcbf837f	-0.023378132
64	0xbd672f8a	-0.05644182
65	0x3e859a93	0.26094493
66	0x3f11868e	0.5684594
67	0x3f028e8c	0.5099876
68	0x3e4dbc33	0.20091324
69	0xbe4c5752	-0.19955185
70	0x3e587abc	0.2114057
71	0x3e837c54	0.25680792
72	0xbcd13c9b	-0.025541594
73	0xbe96a574	-0.29423106
74	0x3e66118f	0.22467636
75	0xbe0fac12	-0.14030483
76	0x3e99be1c	0.30027854
77	0xbec52264	-0.385028
78	0xbe68b9b6	-0.22727093
79	0x3e1ac1bd	0.15112968
80	0x3dd48bf9	0.1037826
81	0xbe5ac1cc	-0.2136299
82	0xbe4d324a	-0.20038715
83	0x3edb75bd	0.42863265
84	0xbc14dcc3	-0.009085837
85	0x3dfc7f6b	0.123289905
86	0x3b6a44dc	0.003574661
87	0xbefaf82c	-0.49017465
88	0xbca14606	-0.01968671
89	0xbc9cfa88	-0.019162431
90	0x3e946233	0.2898117
91	0x3ef8f0b4	0.48621142
92	0xbdb4e81b	-0.08833333
93	0x3d87d76c	0.06632885
94	0xbe8e645c	-0.27810943
95	0xbe207213	-0.15668516
96	0xbe1e2b84	-0.15446287
97	0xbe7d927b	-0.24762909
98	0xbec0ae39	-0.3763292
99	0xbd881349	-0.06644303
100	0xbf82ce09	-1.0219127
101	0xbe465e99	-0.19372024
102	0xbe94fc4b	-0.29098734
103	0xbea27faa	-0.31738025
104	0xbeed2009	-0.46313503
105	0x3e1eb889	0.15500082
106	0x3e02d36c	0.12775964
107	0xbed16ada	-0.40901834
108	0x3e4f018b	0.20215432
109	0xbe28f0bb	-0.16498081
110	0x3d42e325	0.047579903
111	0xbf1d1553	-0.61360663
112	0xbeea3e61	-0.45750716
113	0xbf2956d7	-0.6614813
114	0xbfaf9f1b	-1.372043
115	0xbfc0699e	-1.5032232
116	0xbea13463	-0.3148528
117	0xbef62617	-0.48075935
118	0xbf71ed6e	-0.94502914
119	0x3ea57cf0	0.32321882
120	0xbe0dbedb	-0.13842337
121	0xbede5180	-0.43421555
122	0xbeb41c46	-0.3517782
123	0xbf31e748	-0.6949353
124	0x3e295b79	0.165388
125	0x3e5d4139	0.21606912
126	0xbebf8123	-0.3740321
127	0xbe9d3d91	-0.30711034

Encoder.encoder_attn.0.weight f4 [20, 84]
0	0x3e87feae	0.26561493
1	0xbf5affe3	-0.855467
2	0x3f2d2300	0.6763153
3	0xbe79a1e3	-0.24378161
4	0x3e8775f5	0.26457182
5	0xbedcd206	-0.43128985
6	0x3ef60268	0.4804871
7	0xbed20698	-0.41020656
8	0xbf1eb54c	-0.6199539
9	0x3f218931	0.6309996
10	0x3ddf0b47	0.10890823
11	0x3f2a0777	0.6641764
12	0xbf70714e	-0.9392289
13	0xbe8e7b95	-0.2782866
14	0x3e4f62f1	0.20252587
15	0x3f48102e	0.7814969
16	0x3eabcf3a	0.3355654
17	0xbf9a7f0e	-1.2070024
18	0xbed33e35	-0.41258398
19	0xbf6fe37f	-0.93706506
20	0xbf01213f	-0.50441355
21	0xbf23b8b0	-0.63953686
22	0x3ee970d9	0.45593908
23	0x3ef64ad6	0.4810397
24	0xba2cd0f2	-0.00065924146
25	0x3e743618	0.2384876
26	0x3edd091b	0.4317101
27	0x3fa9d4cb	1.3268064
28	0x3f928c87	1.1449136
29	0xbf38637b	-0.72026795
30	0x3ec641c0	0.38722038
31	0x3ec8898a	0.39167434
32	0xbf3bcea7	-0.733622
33	0xbe8691af	-0.26283023
34	0x3e9dc8c0	0.30817223
35	0x3c9def68	0.019279197
36	0x3f409f07	0.75242656
37	0xbedf4f3c	-0.4361514
38	0x3f1cce4a	0.6125227
39	0x3d06df6b	0.03292791
40	0xbf3e127b	-0.7424695
41	0x3f5b8cfb	0.85761994
42	0x3f1ddaf7	0.6166224
43	0x3f295318	0.66142416
44	0xbf3a700d	-0.72827226
45	0xbe01b5f9	-0.12667073
46	0x3e33259b	0.17494814
47	0x3f2a222e	0.66458404
48	0x3f87e1b8	1.0615759
49	0xbf9971f5	-1.1987902
50	0xbd42e86a	-0.04758493
51	0xbfc0b432	-1.5054991
52	0xbf5157b6	-0.8177446
53	0xbea65a29	-0.32490662
54	0xbed74f78	-0.42052817
55	0x3eaab349	0.3333991
56	0xbe8b03f0	-0.27151442
57	0xbf19970f	-0.5999612
58	0x3e3e614f	0.18591808
59	0x3fbe46cc	1.4865355
60	0x3f8a08ef	1.0783976
61	0xbf909bf6	-1.1297596
62	0x3c5babfc	0.0134077035
63	0x3d12046e	0.035648756
64	0x3fa77736	1.3083255
65	0x3f4d666d	0.80234414
66	0xbf8c2bc8	-1.0950861
67	0x3e08a12a	0.13342729
68	0x3fc23d4b	1.5174955
69	0xbee03121	-0.43787482
70	0xbec5eae0	-0.38655758
71	0xbf0d1c57	-0.5512137
72	0x3f9ae321	1.2100564
73	0x3e094a7a	0.13407317
74	0x3e4da17e	0.20081136
75	0x3e4ec66c	0.2019288
76	0x3f826855	1.018809
77	0xbf22e0cd	-0.6362427
78	0x3f3f5ea9	0.74753815
79	0xbf1e4ea6	-0.6183876
80	0x3d9eb039	0.077484556
81	0xbf41a5a1	-0.75643355
82	0xbe7f3963	-0.24924235
83	0xbf8f218d	-1.1182114
84	0x3ca6c4c0	0.02035749
85	0xbe967fdd	-0.29394427
86	0xbe35492b	-0.17703693
87	0xbd4cb478	-0.049976796
88	0xbfca0a6e	-1.5784433
89	0x3f140c3b	0.5783116
90	0x3e501e0d	0.20323963
91	0x3f41ca35	0.7569917
92	0xbed2e7cc	-0.41192472
93	0xbfa7f12e	-1.3120477
94	0xbf143b9e	-0.5790347
95	0x3f0b12cc	0.54325557
96	0x3ef7356b	0.48282942
97	0xbf112fd5	-0.5671361
98	0x3f78cf6f	0.9719152
99	0xbf230514	-0.63679624
100	0x3e16e9a8	0.1473757
101	0x3ed9be25	0.4252788
102	0xbf830b23	-1.0237774
103	0x3e112b71	0.14176728
104	0xbec60013	-0.38671932
105	0x3efb6915	0.4910361
106	0xbff6bfa8	-1.9277239
107	0x3ea51941	0.3224583
108	0x3f05a6da	0.5220772
109	0xbf24f343	-0.6443369
110	0x3f9ae599	1.2101318
111	0x3ea786a0	0.32719898
112	0xbf14b388	-0.5808644
113	0x3f9bfbb2	1.2186186
114	0x3e9edf67	0.31029817
115	0xbd972b2a	-0.0738128
116	0x3e902bdd	0.28158465
117	0xbcbc11e6	-0.022957753
118	0xbd325b97	-0.043544378
119	0xbd80a231	-0.062809356
120	0xbf728115	-0.94728214
121	0x3e280576	0.16408333
122	0x3e9950c5	0.29944435
123	0x3ec05e04	0.37571728
124	0xbf3ebb85	-0.7450488
125	0xbfda2231	-1.7041684
126	0xbd912476	-0.070870325
127	0x3f5c8137	0.86134666
128	0xbd4435a2	-0.04790271
129	0xbf8445c8	-1.0333796
130	0x3f9cdfca	1.2255795
131	0xbfb0935f	-1.3794974
132	0x3ca840fc	0.0205388
133	0x3e50c7a0	0.20388651
134	0xbdcd21f7	-0.10016244
135	0x3dfbd545	0.12296537
136	0x3da0bfdf	0.078490965
137	0x3f355e26	0.70846784
138	0xbf477dd2	-0.7792636
139	0x3e9e9fc2	0.3098126
140	0x3f596ef6	0.8493494
141	0xbe4d91a0	-0.20075083
142	0x3f456202	0.77102673
143	0xbed27c69	-0.41110542
144	0xbf5116bb	-0.8167531
145	0x3f1a52b5	0.6028245
146	0x3fbe6474	1.4874406
147	0x3dd5992d	0.104296066
148	0xbe2c1b63	-0.16807322
149	0x3efce36e	0.49392265
150	0x3e368c55	0.1782697
151	0xbeb5f678	-0.35539603
152	0x3fa63e0b	1.2987684
153	0x3d893e48	0.06701332
154	0x3e777bcf	0.24168323
155	0x3f51aefa	0.8190762
156	0x3f0410b7	0.51588005
157	0x3f0e5b99	0.55608517
158	0xbf281536	-0.65657365
159	0x3f7faf37	0.9987673
160	0x3ee3279f	0.44366166
161	0xbf625ebb	-0.884258
162	0xbed2c007	-0.4116213
163	0xbee20dc7	-0.44151136
164	0xbeaa3422	-0.332429
165	0x3e8c7d88	0.27439523
166	0xbf1c7255	-0.61111957
167	0xc005e5dd	-2.0921547
168	0x3e659527	0.22420178
169	0xbf949e0f	-1.1610736
170	0xbe9bc5bb	-0.30424294
171	0xbea4370a	-0.3207324
172	0xbe1385df	-0.14406537
173	0xbefdbb05	-0.49556747
174	0xbf094a7b	-0.53629273
175	0xbf562f39	-0.83665806
176	0xbe379c86	-0.17930803
177	0x3f8e5a00	1.1121216
178	0xbf6e2867	-0.930304
179	0xbe09ceb6	-0.1345776
180	0xbf93fdcc	-1.1561828
181	0x3f8c38a7	1.0954789
182	0x3e3f84d3	0.18703012
183	0x3fcf1f94	1.6181512
184	0x3ef0c59c	0.47025764
185	0x3f1514e8	0.58235025
186	0xbeb73d7f	-0.35789105
187	0x3ec93e9c	0.3930558
188	0xbf9b9c48	-1.2157068
189	0xbe8ed012	-0.2789312
190	0x3f79289e	0.973276
191	0x3ed9ddf2	0.42552143
192	0xbea326bf	-0.31865498
193	0xbf49852e	-0.7871884
194	0x3e5f6e02	0.21819308
195	0x3f0af288	0.54276323
196	0xbf57c9f7	-0.8429255
197	0xbd7c67d7	-0.061622467
198	0x3b7464d5	0.0037291546
199	0x3f0749c5	0.5284694
200	0x3e50d310	0.20393014
201	0xbf195973	-0.59902114
202	0x3d07b7df	0.033134338
203	0xbf29abfb	-0.66278046
204	0xbd8e4592	-0.06946863
205	0xbf1e97b0	-0.61950207
206	0xbf9bedde	-1.2181966
207	0xbf3ca4c9	-0.7368894
208	0x3de334bf	0.11094045
209	0x3f57876f	0.8419103
210	0xbef2c390	-0.47414827
211	0xbeca55b5	-0.39518514
212	0xbed9993d	-0.42499724
213	0x3f2938cf	0.6610231
214	0x3e56730c	0.20942324
215	0x3f2cd69a	0.67514956
216	0xbf16d9b9	-0.5892597
217	0x3eb07938	0.34467483
218	0x3e3a8a16	0.18216738
219	0x3f5688d8	0.83802557
220	0xbf3e594d	-0.7435501
221	0xbf5bcdcc	-0.85860896
222	0x3f76f728	0.9647088
223	0x3dbcc9e3	0.09218194
224	0xbf2af8b6	-0.6678575
225	0xbf3240a9	-0.69629914
226	0xbc8c56eb	-0.01713129
227	0xbe30f5fc	-0.17281336
228	0xbf8419f8	-1.0320425
229	0x3cf9d0a6	0.030495
230	0x3f5883f4	0.84576344
231	0x3e7a680d	0.24453755
232	0x3de07ba9	0.10961086
233	0x3eb767a2	0.35821253
234	0xbd4d1c3f	-0.050075766
235	0xbeeb9e62	-0.46019274
236	0x3ee6d1b4	0.45081866
237	0x3e667ea9	0.22509255
238	0xbf578e40	-0.8420143
239	0xbd0f55f5	-0.034994084
240	0x3f29455e	0.6612147
241	0xbe9e11af	-0.30872867
242	0xbf87ea98	-1.0618467
243	0x3e7671b2	0.24066809
244	0xbf130236	-0.5742525
245	0xbf2c42cf	-0.6728944
246	0xbfa9d56c	-1.3268256
247	0xbed8a619	-0.42314222
248	0x3e9fe88c	0.31232107
249	0x3ff504cd	1.914209
250	0x3f99ecc4	1.202538
251	0x3f9447a6	1.1584365
252	0x3f1acbd5	0.60467273
253	0x3da85eb6	0.0822119
254	0xbe2abe04	-0.16674048
255	0xbf56e288	-0.8393941

Encoder.encoder_attn.0.bias f4 [20]
0	0x3f4affe9	0.7929674
1	0xbf4a1f9b	-0.78954476
2	0x3fdf3baf	1.7440089
3	0xbf21996d	-0.63124734
4	0x3f56caee	0.83903396
5	0x3ee64f54	0.44982398
6	0xbfbbaf17	-1.4662808
7	0xbfc5bf86	-1.5449073
8	0x3efd7b2f	0.49508044
9	0x3fc9d625	1.5768477
10	0x3cb81bcf	0.022474198
11	0xbf49e7a4	-0.7886908
12	0xbfa395ee	-1.278013
13	0x3f572d4b	0.84053487
14	0xbf6e49d1	-0.93081385
15	0xbf1dc7f4	-0.6163323
16	0xbf23a5d2	-0.63924897
17	0x3f2bfde9	0.6718431
18	0xbe59923b	-0.21247189
19	0x3fa80bfb	1.3128656

Encoder.encoder_attn.2.weight f4 [1, 20]
0	0x3eaeaf41	0.34118083
1	0xbf50d496	-0.8157438
2	0x3f88130f	1.0630816
3	0x3f55b7fd	0.8348387
4	0xbf26aa6a	-0.6510378
5	0x3f5148a5	0.8175147
6	0x3f94d9b2	1.1628935
7	0x3f0ea189	0.55715233
8	0xbf3b6550	-0.73201466
9	0x3fcec39c	1.6153445
10	0x3f169d29	0.5883356
11	0x3fa91eb6	1.3212497
12	0xbfb203ad	-1.3907372
13	0x3f581b92	0.8441707
14	0xbf404d50	-0.7511797
15	0xbf131877	-0.57459205
16	0x3ffa2d81	1.9545137
17	0xbf2730a5	-0.653086
18	0x3f00d5b1	0.5032607
19	0xbf2acc54	-0.6671803

Decoder.attn_layer.0.weight f4 [32, 96]
0	0x3ea8790d	0.32904854
1	0x3ec2885a	0.37994653
2	0x3ecd099d	0.40046397
3	0x3f95ab0a	1.1692822
4	0xbf1afc9b	-0.60541695
5	0xbe985619	-0.29753187
6	0xbe8909a0	-0.26765156
7	0xbe4146f9	-0.1887473
8	0x3f986ff9	1.1909171
9	0xc0305fa5	-2.7558377
10	0xbf6ade78	-0.9174571
11	0x3f5aceaf	0.85471624
12	0x3f388dde	0.7209147
13	0xbf1bd600	-0.60873413
14	0x3e0e23a5	0.13880785
15	0xbe8c34fc	-0.27384174
16	0x3f5552c8	0.8332944
17	0x3fbc39cd	1.4705139
18	0x3f98dbc9	1.1942073
19	0xbf645788	-0.8919606
20	0x3eb9b47b	0.36270508
21	0xbfcf9a23	-1.6218914
22	0xbdbe6576	-0.09296696
23	0xbe9408f1	-0.28913072
24	0xbb4c8280	-0.0031205714
25	0x3fde2100	1.7353821
26	0x3eb06a74	0.34456217
27	0xbe9286e2	-0.28618532
28	0x3ce25b92	0.027631555
29	0x3e4c0e4d	0.1992733
30	0xbffb746a	-1.9644902
31	0x3e98e421	0.2986155
32	0xbc73094c	-0.0148337595
33	0x3f07acbd	0.5299795
34	0xbf38f3f6	-0.72247255
35	0xbec1236b	-0.37722334
36	0xbf2b7ac1	-0.6698418
37	0xbf1a00a0	-0.60157204
38	0xbddd8d20	-0.10817933
39	0x3e9d9642	0.307787
40	0x3fdcfbbf	1.7264327
41	0xbf7dee3f	-0.9919166
42	0xbf24472a	-0.6417109
43	0xbe8f2a87	-0.27962133
44	0xbe84a018	-0.25903392
45	0x3e6eea37	0.23331533
46	0x3f96d09f	1.1782416
47	0xbfc8ca42	-1.5686724
48	0x3f6ab49b	0.9168183
49	0x3e2c3bbd	0.16819663
50	0x401764b9	2.3655226
51	0x3f5f98ef	0.87342733
52	0xbf048986	-0.51772344
53	0xbfb48640	-1.410347
54	0x3f4f8d82	0.810753
55	0xbf10c5c9	-0.56551796
56	0xbc14669c	-0.009057667
57	0x3e682022	0.22668508
58	0xbf5d33ac	-0.8640697
59	0xbe5103c8	-0.20411599
60	0xbf786026	-0.9702171
61	0x3d3c9042	0.046036012
62	0xbf91b802	-1.138428
63	0x3e906e93	0.2820936
64	0xbf4a231a	-0.7895981
65	0xbd1a9d6b	-0.03774778
66	0xbda954c7	-0.08268123
67	0xbe8b365f	-0.2718992
68	0xbf63a405	-0.8892215
69	0x3e4d9500	0.2007637
70	0xbcb11071	-0.021614285
71	0x401b1a2d	2.4234726
72	0x3c9645c7	0.01834382
73	0xbd8e4024	-0.069458276
74	0xbe2bc89c	-0.16775745
75	0xbfdeaf17	-1.7397183
76	0x3f158b48	0.5841565
77	0x3efe366f	0.49650905
78	0xbea72834	-0.3264786
79	0xbf5fad46	-0.8737377
80	0x3e7025b7	0.23451887
81	0xbf78a15d	-0.9712122
82	0xbe9b119a	-0.30286866
83	0x3ecdc3cd	0.40188447
84	0xbdd669ee	-0.10469423
85	0xbf05f7c0	-0.5233116
86	0xbe89790c	-0.26850164
87	0x3e5999b3	0.21250038
88	0xbf50e13e	-0.8159369
89	0x3f35a6df	0.7095775
90	0x3eac65cb	0.33671412
91	0xbea6ebab	-0.32601675
92	0xbf8d4f10	-1.1039753
93	0x3fa8e364	1.3194394
94	0x3fa4df26	1.28806
95	0x3cf3a310	0.02974084
96	0xbf80baa0	-1.0056953
97	0x3f8dbbcb	1.1072935
98	0xbfb3e7f4	-1.4055161
99	0x3f9a7394	1.2066522
100	0xbf591af1	-0.84806734
101	0x3ff4da0d	1.9129044
102	0x3fcb5edd	1.5888325
103	0x3e5ec351	0.21754195
104	0x3e9da4f1	0.30789903
105	0xbf09f805	-0.5389407
106	0x3fbaf5d5	1.4606272
107	0x3ff847bd	1.9396893
108	0xbf2f78f7	-0.6854395
109	0x3dcb5111	0.099275716
110	0x3f5871a3	0.84548396
111	0xbf77b765	-0.9676421
112	0xbea197b3	-0.3156105
113	0x40166bba	2.350325
114	0x3f9d2661	1.2277337
115	0xbd750dab	-0.059827488
116	0xbfbb646f	-1.4640025
117	0xbf355d4c	-0.70845485
118	0xbe7d2c65	-0.24723966
119	0x3e43a0ea	0.19104353
120	0xbfa751ea	-1.3071873
121	0xbe6b6042	-0.22985938
122	0xbf874e5c	-1.0570788
123	0xbefaf80f	-0.4901738
124	0xbdc11a43	-0.09428837
125	0x3e2713f9	0.16316213
126	0x400a5440	2.1613922
127	0xbfb538f1	-1.4158002
128	0xbefc2328	-0.49245572
129	0x3fb087aa	1.3791401
130	0xbeae148a	-0.34000045
131	0x3dc2679f	0.094924204
132	0xbc481f5f	-0.012214511
133	0xbee0e93e	-0.4392795
134	0x3fa696c9	1.3014766
135	0xbc42c96a	-0.011888841
136	0x3fabddd5	1.3427073
137	0xbfa50f6b	-1.289533
138	0x3f5f46b7	0.8721728
139	0x3f922615	1.1417872
140	0xbf19b0cf	-0.60035414
141	0xbecb4827	-0.39703485
142	0x3f028f1e	0.5099963
143	0xbfcb5118	-1.5884123
144	0xbf10bc48	-0.56537294
145	0xbf384689	-0.7198263
146	0x3f0c49f2	0.5480033
147	0x3f955754	1.1667275
148	0xbebba6d7	-0.36650726
149	0xbf161650	-0.58627796
150	0xbda68c08	-0.081321776
151	0xbf495b7f	-0.78655237
152	0xc008bcad	-2.1365159
153	0xbfaf8236	-1.3711612
154	0xbdc249d8	-0.09486741
155	0xbe9ee265	-0.310321
156	0xbec31be0	-0.38107204
157	0x3eb327fd	0.34991446
158	0x3f6c7d80	0.92379
159	0x3fa144fa	1.2599175
160	0x3fece3d4	1.8507028
161	0x3fceee59	1.6166488
162	0xbf495460	-0.7864437
163	0xbf7b8744	-0.98253274
164	0xbf3d44d3	-0.7393314
165	0xbf244a30	-0.641757
166	0xc00df0e2	-2.2178273
167	0x3ee8d27f	0.45473096
168	0x3f8a4ca3	1.0804638
169	0x3ea4b18a	0.32166702
170	0xbe90cdc8	-0.28282
171	0xbf638df3	-0.8888847
172	0xbef11eae	-0.4709372
173	0x3f410c15	0.7540906
174	0xbec94136	-0.39307564
175	0x3f2f5bca	0.68499434
176	0x3e431f76	0.1905497
177	0xbffdadb0	-1.981863
178	0xbf65a526	-0.8970512
179	0xbf640622	-0.8907186
180	0x3ed829c1	0.42219356
181	0x3f375332	0.7161132
182	0xbe12479c	-0.1428513
183	0x3f394e77	0.7238535
184	0xbef46279	-0.4773138
185	0xbe28087a	-0.16409484
186	0xbf4fa779	-0.8111492
187	0xbf8deba2	-1.1087534
188	0xbf36d49a	-0.71418154
189	0x3e073e8e	0.13207456
190	0xbf12fa6d	-0.5741337
191	0xc0272ea5	-2.612222
192	0xbed17bec	-0.40914857
193	0xbfc37c01	-1.5272218
194	0x3f3b6aba	0.73209727
195	0x400577a3	2.085427
196	0xbee199eb	-0.44062743
197	0xc03a921f	-2.9151685
198	0x3f5fc2b5	0.87406474
199	0xbef0c76d	-0.4702715
200	0xc000270d	-2.0023835
201	0x3f4e1237	0.80496544
202	0x3ea58daf	0.32334659
203	0xbe4e7333	-0.20161133
204	0x3fa2012c	1.2656608
205	0xbedc3c4d	-0.43014756
206	0xbeaca54b	-0.3371986
207	0x3f93beda	1.1542618
208	0x4023602e	2.5527453
209	0xbf8a3720	-1.0798073
210	0xbec4fb11	-0.38472798
211	0xbf7cf472	-0.98810494
212	0x3f7f4dd6	0.99728143
213	0xbefaad6d	-0.48960438
214	0xbf01bac6	-0.5067562
215	0x3fb3c50e	1.4044511
216	0xbe927fbf	-0.28613088
217	0xbf76bacf	-0.963788
218	0xbe809591	-0.2511411
219	0x3f0d6ad7	0.5524115
220	0x4007349b	2.1125858
221	0x3ee96ebf	0.45592305
222	0xbf24abc8	-0.6432462
223	0xc01fd228	-2.497202
224	0xbf7ab23f	-0.9792823
225	0xbf8f4f87	-1.1196145
226	0x3f06c772	0.5264808
227	0x3f33ebc5	0.7028163
228	0xbe8356d6	-0.25652188
229	0xbf9a6cbe	-1.2064435
230	0xbe8fcf6a	-0.28087932
231	0xbf01283b	-0.5045201
232	0xbda95170	-0.08267486
233	0x3f31a1ae	0.6938733
234	0x3d3248b5	0.04352637
235	0xbf2b1b32	-0.6683837
236	0x3f70685f	0.9390926
237	0x3f1c4052	0.61035645
238	0x3eea03eb	0.45706114
239	0x3f379fcc	0.71728206
240	0x3e4a4d93	0.19756155
241	0xbfbd7cfb	-1.4803766
242	0x3f06ef7f	0.5270919
243	0xbf015ade	-0.5052928
244	0x3f19cccf	0.6007814
245	0x3e9bb52b	0.30411658
246	0xbf428880	-0.7598953
247	0x404fa15b	3.2442234
248	0x3fd2b0b1	1.6460172
249	0xbbc6ee35	-0.006070877
250	0x3ea2823e	0.31739992
251	0x3ed7937f	0.42104718
252	0x3d724ac3	0.05915333
253	0x3ed03554	0.40665686
254	0xbe18fa0e	-0.14939138
255	0xbec4b0e7	-0.38416216

Decoder.attn_layer.0.bias f4 [32]
0	0xbe004c0d	-0.12529011
1	0xbf6fd65f	-0.9368648
2	0x3f69fbe8	0.91400003
3	0x3f96188e	1.1726243
4	0x3f7bc9ef	0.98355
5	0xbcdaa87e	-0.026691671
6	0xbed7e0ca	-0.42163688
7	0x3f187a88	0.5956197
8	0xbf9884b8	-1.1915503
9	0xbfa41b9f	-1.2820929
10	0xbd44b902	-0.048028
11	0x3f050f33	0.5197632
12	0xbe94d078	-0.290653
13	0xbf83e4ec	-1.0304236
14	0x3dfe3fcb	0.12414511
15	0xbf3022e9	-0.6880327
16	0xbf26c190	-0.651391
17	0xbf390e5f	-0.72287554
18	0xbf4974e7	-0.78694004
19	0xbfb6db84	-1.4285741
20	0xbf060257	-0.5234732
21	0x3fa24841	1.26783
22	0xbe69f1d0	-0.2284615
23	0xbf5b5d30	-0.8568907
24	0xbf3a4d93	-0.7277462
25	0xbdfc9b75	-0.123343386
26	0x3e87e10f	0.26538894
27	0x3f584a03	0.8448793
28	0xbfcde2e4	-1.6084867
29	0x3f3924ac	0.7232158
30	0x3c9ddc17	0.019269986
31	0xbff3396c	-1.9001899

Decoder.attn_layer.2.weight f4 [1, 32]
0	0x3f0c5adb	0.54826134
1	0x3f65b67f	0.8973159
2	0xbf83b436	-1.0289371
3	0x3f3e0e5c	0.7424066
4	0x3fdea053	1.7392677
5	0x3f15efab	0.5856883
6	0x3fc98ea4	1.5746655
7	0xbf4e5e02	-0.80612195
8	0x4062b7ef	3.5424764
9	0xc0021db1	-2.0330622
10	0x3f2b5b38	0.66936064
11	0x40113e25	2.269418
12	0xbfeb03f4	-1.8360581
13	0x3f63d3fe	0.8899535
14	0xc005b8a1	-2.0893939
15	0x4003ea0d	2.0611603
16	0x3fb3d085	1.404801
17	0x3fe62e5e	1.79829
18	0xbf366636	-0.7124971
19	0xbeeafb94	-0.45895064
20	0xbfc79f27	-1.5595444
21	0xbf356024	-0.70849824
22	0xbfdc1770	-1.7194653
23	0x3f1e0594	0.6172726
24	0x3fe87123	1.8159527
25	0xc03a3ca0	-2.9099503
26	0xbf6107bd	-0.8790243
27	0xc012292c	-2.283763
28	0x3fda16d6	1.7038219
29	0xbfa3de40	-1.28022
30	0xbf3450f6	-0.70436037
31	0x4023980c	2.5561552

Decoder.lstm_layer.weight_ih_l0 f4 [128, 1]
0	0x3f5994d7	0.84992737
1	0xbf9e3478	-1.2359762
2	0x3f2636b4	0.6492722
3	0xbeada7bb	-0.3391703
4	0x400470d4	2.0693865
5	0x3f5bcdc6	0.8586086
6	0x3f0f65a7	0.56014484
7	0x3ebd15a6	0.3693058
8	0xbdadc9dd	-0.08485768
9	0xbd2efc16	-0.042720877
10	0x3f149024	0.5803244
11	0x3f9930ab	1.1967977
12	0xbef86f12	-0.4852224
13	0xbef8ec79	-0.48617914
14	0x3e8668e6	0.26251906
15	0xbf49ed7f	-0.78878015
16	0x3fd0b3e5	1.63049
17	0xbf07b95f	-0.5301723
18	0xbf843294	-1.0327935
19	0x3e9b430a	0.30324584
20	0x3e968f84	0.2940637
21	0xbf5db77b	-0.86608094
22	0xbfc449d7	-1.5335034
23	0x3e010e52	0.12603119
24	0x3d94207d	0.07232759
25	0x3f141d6b	0.5785739
26	0xbf9de43d	-1.2335278
27	0xbf0bfd22	-0.54683125
28	0xbd95a318	-0.07306498
29	0xbf546c89	-0.8297811
30	0xbd632a5e	-0.055460326
31	0x3efb2d1c	0.49057853
32	0xbe4deeca	-0.20110622
33	0x3e3fa75c	0.18716186
34	0xbf8a50b7	-1.0805882
35	0xbf975653	-1.1823219
36	0xbfa4fec6	-1.2890251
37	0x3f6d0230	0.9258146
38	0x3f0d007d	0.5507887
39	0x3c03d0b0	0.00804536
40	0x3eb64440	0.35598946
41	0xbe892ade	-0.26790518
42	0x3ece1841	0.4025288
43	0xbfc008ab	-1.5002645
44	0xbfc77e49	-1.5585414
45	0x3fc8eace	1.5696657
46	0xbf850c2f	-1.0394343
47	0x3f29cce4	0.66328263
48	0xc031c081	-2.7773745
49	0xbf25c34e	-0.64751136
50	0xbf896e4d	-1.0736786
51	0x3ed4e053	0.41577396
52	0xbf9a58cb	-1.2058347
53	0xbfa4c7be	-1.2873456
54	0xbe6c175b	-0.23055784
55	0x3e2cd67f	0.16878699
56	0xbf89c2d5	-1.0762583
57	0x3dcd8706	0.10035519
58	0xbe47ea60	-0.19523
59	0xbdec2ca0	-0.11531949
60	0xc00cfded	-2.2029984
61	0xbefd046c	-0.49417436
62	0x3fdcd5e8	1.7252779
63	0x3ee889e1	0.45417693
64	0xbf376050	-0.71631336
65	0xbf43f428	-0.7654443
66	0x3f4a3577	0.7898783
67	0x3e6e868a	0.2329351
68	0xbfb2375c	-1.3923144
69	0x3f38215d	0.7192591
70	0xbf039707	-0.51402324
71	0xbf0f39f0	-0.5594778
72	0xbf237894	-0.6385586
73	0x3f8cd856	1.100352
74	0xbdb578f2	-0.08860959
75	0xbef7a2d1	-0.48366407
76	0x3d0d9387	0.03456452
77	0xbedcb9a9	-0.43110397
78	0xbf3374b1	-0.7009993
79	0x3fdbaae4	1.7161527
80	0xbd95e422	-0.073189035
81	0x3e93a2e3	0.2883521
82	0xbe9a75be	-0.30167955
83	0xbfb35926	-1.4011581
84	0x3f561953	0.8363239
85	0x3f9e8d52	1.2386878
86	0xbf292252	-0.66067994
87	0x3fa7ab79	1.3099204
88	0x3ea8af3a	0.32946187
89	0xbf5a6395	-0.853082
90	0xbee9794d	-0.45600358
91	0xbf2cf98f	-0.67568296
92	0x3e8a8979	0.27058008
93	0xbe7c0689	-0.24611868
94	0xbf6484d2	-0.8926517
95	0xbfb28d9e	-1.3949468
96	0x3fcca9cd	1.5989319
97	0xbf97934a	-1.1841824
98	0xbd29a31c	-0.04141532
99	0xbfbb453e	-1.4630506
100	0x3fafbef7	1.3730153
101	0xbea14f0f	-0.3150563
102	0x3f49694f	0.78676313
103	0x3f29ca66	0.6632446
104	0x3e9c1a7c	0.30488956
105	0xbe843601	-0.25822452
106	0x3ede660c	0.4343723
107	0x3f31ccf1	0.6945334
108	0xbf0c3be8	-0.5477891
109	0xbf600598	-0.87508535
110	0xbf7fd417	-0.99933
111	0x3e81e074	0.25366557
112	0x3dc5d8e3	0.096605085
113	0x3fd4aa6b	1.6614507
114	0xbea766a1	-0.32695487
115	0xbefaa8ca	-0.489569
116	0x3f7b6565	0.9820159
117	0xbeb33ded	-0.35008183
118	0x3df1238c	0.11774358
119	0xbfc6c5dc	-1.5529132
120	0xbfacf173	-1.3511184
121	0x3e7c9bd9	0.24668826
122	0xbf28c867	-0.6593079
123	0xbf87c2f2	-1.0606368
124	0x3ed002ea	0.40627223
125	0x3eab9097	0.3350875
126	0x3ee2cef8	0.4429853
127	0x3fa504c5	1.289208

Decoder.lstm_layer.weight_hh_l0 f4 [128, 32]
0	0x3fa8abab	1.3177389
1	0xbfa6aded	-1.3021828
2	0xbe150cfa	-0.14555731
3	0x401d66aa	2.459391
4	0x3f9aeb6b	1.2103094
5	0x40082a6f	2.12759
6	0x4009b50b	2.151675
7	0x401378ad	2.3042405
8	0x400eac8a	2.229281
9	0xbf38a2c1	-0.7212334
10	0x3f3e4804	0.7432864
11	0x4030d786	2.7631545
12	0xbf5caea3	-0.86203974
13	0xbe222457	-0.15834175
14	0xbfc7f67e	-1.5622098
15	0x3f2ec084	0.68262506
16	0x3fd236c0	1.6422958
17	0x3feaa5b1	1.8331815
18	0xbfc4cea7	-1.5375565
19	0xbebc2c43	-0.3675252
20	0xbf7d8f36	-0.9904665
21	0x3e933d53	0.28757724
22	0xbfd02e10	-1.6264057
23	0xbede221c	-0.43385398
24	0xbf60e979	-0.8785625
25	0x3fdf54fc	1.744781
26	0xbf94e210	-1.1631489
27	0xbcd05641	-0.025431754
28	0xbdcfc453	-0.10144868
29	0x3f2077f6	0.62683046
30	0x3f91e918	1.139926
31	0xbf355082	-0.7082597
32	0x3fa1ba5e	1.2635
33	0xbfec2b78	-1.8450766
34	0x3ff0e142	1.8818743
35	0xc015fda1	-2.3436053
36	0x3e0a4dbe	0.13506219
37	0x3fdfd503	1.7486881
38	0xc0008364	-2.0080194
39	0xbfcf5bb3	-1.6199859
40	0xbfdb5f2a	-1.7138417
41	0x3fab31f3	1.3374618
42	0x3f975f78	1.182601
43	0x3e854b72	0.26034123
44	0x3edfa44e	0.43680042
45	0x3ecab5aa	0.39591724
46	0xbef38901	-0.47565463
47	0xbe7c4dff	-0.24639128
48	0xbf8154f0	-1.0104046
49	0x3f5036f7	0.8133387
50	0xbee6d5b1	-0.4508491
51	0x3f92ea20	1.1477699
52	0xbf3411a4	-0.7033942
53	0x3f7b6ecd	0.98215944
54	0xbf27648a	-0.65387785
55	0x3f7f79bd	0.9979513
56	0xbfb9d7fa	-1.4519036
57	0xbf152e35	-0.5827363
58	0xbfbbd42f	-1.4674128
59	0xbfb03da0	-1.3768806
60	0xbe84216a	-0.25806743
61	0x3f8350a4	1.0258985
62	0xbfd383b7	-1.6524571
63	0xbfa3aec2	-1.2787707
64	0x3ed30bcc	0.41219938
65	0x3f78fc8d	0.9726036
66	0xbff70e05	-1.9301153
67	0x3de3d054	0.1112372
68	0xbec8fb4f	-0.39254233
69	0xc099c53a	-4.8053255
70	0x3f11996a	0.56874716
71	0x3fb80677	1.4376973
72	0x400181e3	2.0235527
73	0xbf1f4a66	-0.622229
74	0xbe960d84	-0.29307187
75	0xbd9eda79	-0.07756514
76	0x3f263769	0.649283
77	0xbfcd33d2	-1.6031439
78	0x402730f9	2.612364
79	0xbf6d6a41	-0.92740256
80	0x3fc8baec	1.5682044
81	0xc00e0176	-2.2188392
82	0x3fdbfde6	1.7186859
83	0x3f069a9a	0.52579653
84	0x3f4403ea	0.7656847
85	0xbfde65be	-1.7374799
86	0x3e376ad6	0.17911848
87	0xbf203109	-0.6257482
88	0xbf83c00b	-1.0292982
89	0x3f033d36	0.51265275
90	0xbfc7d491	-1.5611745
91	0xbf6081bb	-0.87697953
92	0xbf919d71	-1.1376172
93	0x3f52a15b	0.8227746
94	0x4015d9d1	2.3414195
95	0xbe344ad3	-0.17606668
96	0x407d588a	3.958529
97	0xc0593a03	-3.3941658
98	0xbe76478a	-0.24050727
99	0x3f0515c6	0.5198635
100	0xbfb1bdd3	-1.3886055
101	0xbf4cc354	-0.7998555
102	0x3fca8ca2	1.5824168
103	0x3ebeaeab	0.37242636
104	0x3f13cb0a	0.5773169
105	0xbf877fd7	-1.0585889
106	0x3f58fb39	0.84758335
107	0x3fb48f8d	1.4106308
108	0xbeb757c5	-0.3580915
109	0x3e575d3d	0.21031661
110	0x3ba07259	0.004896444
111	0x3f0cfe7e	0.55075824
112	0xbfea615e	-1.8310964
113	0x3f4dfe95	0.80466586
114	0xbfb9c331	-1.4512693
115	0x3eb536ca	0.35393363
116	0x3e5c3265	0.21503599
117	0x3fed8398	1.8555784
118	0x3f4db630	0.8035612
119	0x3f426e17	0.75949234
120	0xc009ce34	-2.1532106
121	0xbf8ca3d2	-1.0987494
122	0xbeaf643b	-0.34256157
123	0xbf8c4a85	-1.0960242
124	0xbffdbb7c	-1.9822841
125	0x3f8c96b5	1.0983492
126	0x3f2045c6	0.62606466
127	0x3f9d7769	1.2302066
128	0x3fa8392c	1.3142447
129	0x3e7ce620	0.2469716
130	0x3f2c320b	0.6726386
131	0x400ec647	2.230852
132	0x3eca2d3b	0.39487633
133	0x3eea873a	0.45806295
134	0x4046ca2d	3.1060898
135	0x3fa7296e	1.3059518
136	0x3fbf3783	1.4938816
137	0x3dbb8aff	0.09157371
138	0x3f01ee7d	0.5075453
139	0xbff54ae9	-1.9163486
140	0x3f89424c	1.0723357
141	0x3f31c56d	0.6944187
142	0xbfb74e92	-1.4320853
143	0x3fcdde78	1.6083517
144	0xbf63ede2	-0.89034855
145	0xc0027ce3	-2.0388725
146	0x3dc25f13	0.0949079
147	0x40011d07	2.0173967
148	0xbf7fc2b1	-0.9990645
149	0x3e4dde52	0.2010434
150	0xbf3b0ed0	-0.7306948
151	0x402428ba	2.5649858
152	0xbf5ea677	-0.86972755
153	0x3ec1eb1b	0.37874684
154	0xbbe3c0c7	-0.006950471
155	0x3fc7a060	1.5595818
156	0xbfe1b109	-1.7632152
157	0x3fbdf84f	1.4841403
158	0x3fa8e589	1.3195049
159	0xbec1c2df	-0.37843987
160	0xbfe4b8c6	-1.7868888
161	0xc00e695f	-2.2251813
162	0xc06e0422	-3.7190022
163	0xc04d2186	-3.205171
164	0x3ddeffe7	0.10888653
165	0x3faeff4c	1.367166
166	0x3e9bb164	0.30408776
167	0xbf56f114	-0.83961606
168	0xbd992ef1	-0.074796565
169	0x3f98b883	1.1931309
170	0x3ea8a869	0.32940987
171	0xbe4da1ca	-0.20081249
172	0xbfa9ca9f	-1.326496
173	0xbff39df3	-1.9032577
174	0x3f0ccc1b	0.5499894
175	0x3f0614ab	0.52375287
176	0xbfed114d	-1.8520905
177	0x402ff22c	2.749156
178	0x3e7a4e8e	0.24444029
179	0x3ed692d6	0.41908902
180	0x3f1c78ae	0.6112164
181	0xbf0a2ee9	-0.5397783
182	0xc014f037	-2.3271616
183	0x3ffbf135	1.9682986
184	0x3f07b1ed	0.5300587
185	0x3fb434ff	1.4078673
186	0xbff7ed63	-1.936932
187	0x3cda767a	0.026667822
188	0x3e3c6027	0.18396054
189	0xbf1d2ee9	-0.61399704
190	0x3e602682	0.2188969
191	0x3fa1d00a	1.2641613
192	0xbe25da33	-0.16196518
193	0x3f53b71f	0.82701296
194	0xbf6c6973	-0.923484
195	0xc0147ceb	-2.3201244
196	0x3f381d96	0.71920145
197	0x3f70ce32	0.9406463
198	0x3fb5ee20	1.4213295
199	0xbf114165	-0.5674041
200	0x3f438d4e	0.7638749
201	0xc0001ec3	-2.0018775
202	0x3f81cd6a	1.0140812
203	0x3f87db1e	1.0613744
204	0xbfc287c1	-1.5197679
205	0xbf18ed0c	-0.59736705
206	0x3ee8712f	0.45398852
207	0xbfa6f8ef	-1.3044719
208	0xbfdca3eb	-1.7237524
209	0x3d13bae9	0.036066923
210	0x3f4cbd21	0.7997609
211	0x3fa3191d	1.2742039
212	0xbf885d1d	-1.0653416
213	0xbe82e889	-0.25568035
214	0x3eaa2ac8	0.33235765
215	0x3ff80411	1.9376241
216	0x3ef2b6e5	0.47405162
217	0xbf4fc5a2	-0.8116094
218	0xc0051651	-2.079487
219	0x3e4a9341	0.19782735
220	0x4002fd3e	2.0467067
221	0xbef24448	-0.4731772
222	0x3fc01a93	1.500811
223	0x3f041890	0.5159998
224	0xbd5ca0b1	-0.053864185
225	0xbfb948fa	-1.4475396
226	0xbfb5def3	-1.4208664
227	0x3f07ee78	0.5309825
228	0x3ea47481	0.32120135
229	0xc06cc567	-3.6995485
230	0xbf01231f	-0.50444216
231	0xbf6660bc	-0.89991355
232	0x3fc5d8fc	1.5456843
233	0xbeb2f76c	-0.34954393
234	0x3fb5cbf0	1.4202862
235	0x3f6f00b0	0.93360424
236	0x3f4e50c6	0.80592
237	0xbde9d132	-0.11416854
238	0x3f99b118	1.200717
239	0xbf101b5e	-0.5629176
240	0x3ece9a25	0.40351978
241	0xbf82725e	-1.0191152
242	0xbf90b944	-1.1306539
243	0x3f5e1ae3	0.86759776
244	0xbfdc4a4c	-1.7210174
245	0xbf52cb75	-0.823417
246	0x3f4d530c	0.80204844
247	0xc015d4d5	-2.3411152
248	0xbf93a621	-1.1535074
249	0xbcf0013e	-0.029297467
250	0xbf5242db	-0.82133263
251	0x3ded6052	0.11590637
252	0x3faac50d	1.3341385
253	0xbce18396	-0.027528565
254	0x3fcf328e	1.6187303
255	0x3f920941	1.1409074

Decoder.lstm_layer.bias_ih_l0 f4 [128]
0	0xbf24e709	-0.6441503
1	0xbf18e2a4	-0.59720826
2	0xbee2e65f	-0.44316384
3	0xbf2d014f	-0.6758012
4	0xbdfa31b3	-0.122165106
5	0x3d803355	0.06259791
6	0xbe37c5f8	-0.17946613
7	0xbe7214ab	-0.23640697
8	0xbebdafe1	-0.37048247
9	0x3e2df4b0	0.16987872
10	0xbf70e04b	-0.94092244
11	0x3eb3bee1	0.35106567
12	0xbf43fd0d	-0.76558
13	0x3f261afd	0.6488493
14	0x3ec3c231	0.38234094
15	0xbed2138a	-0.41030532
16	0x3eb57b6b	0.35445723
17	0xbdabc4c3	-0.08387139
18	0xbeb30edf	-0.34972283
19	0x3f1686bc	0.5879934
20	0x3ed3407c	0.41260135
21	0xbd40b26b	-0.047045153
22	0x3d441e2c	0.047880337
23	0xbecb7af8	-0.39742255
24	0xbecd9ddb	-0.40159497
25	0xbf028039	-0.509769
26	0x3e0fa444	0.14027506
27	0xbf4d3fb3	-0.8017532
28	0xbc3332ac	-0.010937374
29	0xba96cf32	-0.0011505841
30	0xbfa2bc41	-1.27137
31	0xbebd8b8a	-0.37020522
32	0xbdd6845f	-0.104744665
33	0xbe2f0fae	-0.17095825
34	0x3f267dcf	0.6503572
35	0xbe3779a5	-0.17917497
36	0x3deebbb8	0.11656898
37	0xbf8c0fc6	-1.0942314
38	0xbeceb0c2	-0.4036923
39	0xbc06a8d4	-0.008218963
40	0xbeeda740	-0.46416664
41	0x3c534f29	0.012897291
42	0x3f58523a	0.8450047
43	0xbf86618a	-1.0498517
44	0xbf4c2a20	-0.7975178
45	0x3f1f4d49	0.622273
46	0xbf2c6045	-0.67334396
47	0xbdd9031c	-0.10596296
48	0x3e25b2ae	0.16181442
49	0xbf4a50ef	-0.79029745
50	0xbf9cf32b	-1.2261709
51	0xbfa0a45c	-1.2550159
52	0xbfcf0073	-1.6172012
53	0xbfb7110a	-1.4302075
54	0xbfecbc8f	-1.8495044
55	0x3f00555a	0.50130236
56	0xbe541eb4	-0.20714837
57	0xbdb36d6d	-0.08761106
58	0xbebb2ad8	-0.36556125
59	0xbf0f1985	-0.55898315
60	0xbf80be77	-1.0058125
61	0x3f31d258	0.69461584
62	0x3c4fe9be	0.012690006
63	0x3e584c94	0.21122962
64	0x3e7845d0	0.24245381
65	0xbe608d84	-0.21928984
66	0xbf09174d	-0.5355118
67	0x3dfcb925	0.12340001
68	0xbeba99b5	-0.36445394
69	0x3d2c0dbf	0.042005297
70	0x3edf986a	0.4367097
71	0xbeb10274	-0.34572184
72	0x3d168ac8	0.036753446
73	0x3ee33901	0.44379428
74	0xbf71ef91	-0.94506174
75	0xbe75d3b5	-0.24006541
76	0x3eb28299	0.34865263
77	0x3f673222	0.9031087
78	0xbe1108fb	-0.14163582
79	0x3e791a5f	0.24326466
80	0x3ede0a77	0.4336736
81	0xbe91b1ec	-0.28456056
82	0xbf51a462	-0.81891453
83	0xbf267849	-0.6502729
84	0x3f7e6698	0.99375296
85	0x3f0160e8	0.5053849
86	0xbf01512a	-0.5051447
87	0x3f4311b0	0.76198864
88	0x3ebe54a2	0.37173945
89	0xbed44903	-0.41461954
90	0xbe1bb844	-0.1520701
91	0xbc9cf93c	-0.019161813
92	0xbf134689	-0.57529503
93	0x3c8752cb	0.016518971
94	0xbdb69d3c	-0.08916709
95	0xbd155322	-0.036456235
96	0x3e6cbc6e	0.23118755
97	0xbe89b0fc	-0.2689284
98	0x3dfb9f07	0.122861914
99	0xbf2e7ea6	-0.68162
100	0x3eb478dc	0.35248458
101	0xbeebe045	-0.46069542
102	0x3f9b745a	1.2144883
103	0x3ed5d186	0.41761416
104	0xbea9ec7f	-0.33188245
105	0xbe8cbb54	-0.2748667
106	0xbf125473	-0.5716011
107	0xbf8ea52b	-1.1144155
108	0xbe20099d	-0.15628667
109	0x3d5b95a6	0.053609513
110	0xbde3a75f	-0.11115908
111	0x3e8a8e0a	0.27061492
112	0xbea4376f	-0.32073542
113	0x3ecc5359	0.3990734
114	0xbdb8d4bb	-0.0902495
115	0x3e11bd65	0.14232405
116	0xbe4dd24d	-0.20099755
117	0x3f02ac39	0.5104404
118	0x3f1402a2	0.5781652
119	0x3f0e06f6	0.5547937
120	0xbf31a8e6	-0.69398344
121	0xbf7fd4c7	-0.9993405
122	0xbe54ce26	-0.20781764
123	0xbc2fd238	-0.010731272
124	0xbeb84f75	-0.3599812
125	0x3f0a308a	0.53980315
126	0x3c05c8bc	0.008165535
127	0xbe501174	-0.20319158
