result/ver5/last.pt (torch, 194005 bytes, 48 tensors)

Encoder.encoder_lstm.weight_ih_l0 f4 [128, 6]
000000 8e 8f a6 bf 0e 7e 90 3e 36 1e 34 be 39 a9 ec be
       -1.301256 0.28221172 -0.1758965 -0.46222857
000010 48 58 95 bf 48 fb a5 be fe f4 10 3f 27 44 b4 be
       -1.1667566 -0.32418275 0.5662383 -0.35208246
000020 e6 5b 36 3f e8 23 47 3f d0 d7 ae be 20 07 39 3f
       0.71233976 0.77789164 -0.34149027 0.72276497
000030 cd 5b 55 bf 6c be 36 bf 7e 53 18 bf 35 7b 1b bf
       -0.833432 -0.7138431 -0.595024 -0.60734874
000040 77 ae c5 be 38 04 73 bd 48 18 84 3f c9 44 0c c0
       -0.3860967 -0.059330195 1.031991 -2.1916983
000050 e5 14 8b 3f 30 47 3a bf f8 b4 3b 3e cb 06 3d bf
       1.0865752 -0.72764874 0.18330753 -0.7383849
000060 4d fe 5b bf d7 3d 7a 3e 27 11 32 c0 c1 d5 58 be
       -0.8593491 0.24437653 -2.782297 -0.2117529
000070 91 8d 0e 3e 6c fd 5b bf 90 4a 0e 3f 8b 6f cf be
       0.13921191 -0.85933566 0.55582523 -0.40514788
000080 da e6 2e 3f 17 2a c2 bf fc 51 05 3f 2b 52 85 bf
       0.68321 -1.5169095 0.52078223 -1.0415701
000090 94 a9 d3 3f 9d 41 16 3f 61 5e 95 bf c4 a1 bf be
       1.6536126 0.5869387 -1.1669427 -0.37428105
0000a0 f5 3a 80 bf 43 fa 16 bf 5a a0 4c bf 89 8a 47 c0
       -1.0017992 -0.5897562 -0.7993218 -3.1178305
0000b0 17 a3 b4 bf 7b 8d a0 bf 1f c1 80 3e b2 fe 10 bf
       -1.4112271 -1.2543176 0.2514734 -0.56638634
0000c0 e3 6b 1e 3f e3 04 18 3f f4 64 10 c0 3b d5 4a bf
       0.6188337 0.59382457 -2.2561617 -0.79231614
0000d0 91 40 e2 be b6 4f 2c 3f 1b bc 1c be 9a a3 1e bf
       -0.44189885 0.6730913 -0.15306132 -0.61968386
0000e0 fb 50 40 c0 76 50 b9 3d bc 5d 2a be b3 94 57 bf
       -3.0049427 0.0904855 -0.1663732 -0.8421127
0000f0 36 55 22 3e 0e 18 07 bf 57 d1 fd 3f ec 2a a7 bf
       0.15852818 -0.5277108 1.982951 -1.3059974
000100 6a cd e1 3d 77 30 94 3d 44 f9 80 3f d0 bb ae bf
       0.11025508 0.072358064 1.007607 -1.3651066
000110 16 6f c6 bf a0 7b 0c bf bc f7 80 3e 8a 25 2e bf
       -1.5502651 -0.54876137 0.25189006 -0.6802603
000120 ae d8 a3 3d cd 7b e9 bf f8 d9 a5 bf 5b ac a9 bf
       0.08000313 -1.8240906 -1.2957144 -1.3255724
000130 e1 36 ab bf 30 73 f2 bf 0f 6d 3b be b1 3c 28 bf
       -1.3376123 -1.8941402 -0.18303321 -0.6571761
000140 94 c1 a9 bf 11 e4 1e be c4 b9 e5 be f0 e3 d2 bf
       -1.32622 -0.15516688 -0.4486829 -1.6475811
000150 8c 1c 23 3f 8b 25 98 bf 7b c0 b9 be 7c 8a 5b bf
       0.63715434 -1.1886457 -0.36279663 -0.85758185
000160 d4 0b e6 bf 44 35 7c bf bf 8a 52 bf a8 51 0c 3f
       -1.797236 -0.98518777 -0.8224296 0.548121
000170 f1 38 e1 3d f6 eb 78 be f0 b3 88 3f 3e 08 b9 3f
       0.10997189 -0.24308762 1.0679913 1.445564
000180 b8 dc 7f bd e9 3d bb 3f 82 3c 9f bf fa 69 12 3f
       -0.062466353 1.4628268 -1.244034 0.5719296
000190 e9 78 4b 3e 7a d9 ba 3c 5a c0 bb 3f 82 8c 43 bf
       0.19870342 0.022808779 1.4668076 -0.7638627
0001a0 25 d8 ff be 3f f9 89 bf 9a de 59 3f 7a f8 8b bf
       -0.49969593 -1.0779189 0.8510529 -1.0935204
0001b0 30 74 44 bf 40 e3 c2 3f c3 f2 90 bf d1 ee 70 3e
       -0.7673979 1.5225601 -1.1324085 0.23528601
0001c0 59 a2 9e 3e 80 9d d9 3f b6 93 50 3e 89 ab ae be
       0.30983236 1.700119 0.20368847 -0.34115246
0001d0 3c 94 b3 3d 90 d2 5f 3f d9 6f f0 3f d1 10 2d 3e
       0.08768508 0.8743067 1.8784133 0.16900946
0001e0 44 7e aa be 90 58 42 bf 38 cd 07 bf 68 4a 61 3e
       -0.33299458 -0.75916386 -0.53047514 0.2200104
0001f0 09 60 af 3e 23 9e 87 bf df 7e 8b 3e db 5b 82 3f
       0.34252957 -1.0595134 0.27245232 1.0184282
000200 0d 9f 80 bf cf f3 9d 3f 90 01 4e 3f df 61 81 bf
       -1.0048538 1.234003 0.80471134 -1.0107993
000210 80 9d 86 bd 31 2e 4e 3e 11 af 00 bf 83 70 16 40
       -0.065730095 0.20134808 -0.5026713 2.3506172
000220 7a 60 90 3f d4 2e 70 3f 67 91 07 3f 1d ad 04 bf
       1.1279442 0.93821454 0.5295624 -0.5182665
000230 3c f2 25 bf dc 7f 9f bd 77 56 a1 bf c8 af 86 3f
       -0.64822745 -0.07788059 -1.2604512 1.0522394
000240 8c 34 00 3f 5c 7c 02 40 e2 2f d2 3f 7f 9b 84 bf
       0.5008018 2.0388403 1.6420863 -1.0359954
000250 55 ef 0d c0 97 87 3d 3e f2 1c 3d 3e dc 3c 53 bf
       -2.2177327 0.18508755 0.18468073 -0.8251474
000260 d3 04 37 3f a7 ed 58 bf f3 4b ca bf f4 ce 28 3d
       0.71491736 -0.8473763 -1.5804428 0.04121299
000270 77 d6 82 3f 99 6e 39 40 89 fd 8b be 8a ce 1e 40
       1.02217 2.8973753 -0.2734187 2.4813561
000280 26 91 23 bf b9 60 67 3f 1b 97 cf 3d 90 40 64 3f
       -0.63893354 0.9038196 0.10136243 0.89161015
000290 18 81 d5 3f 23 6e 86 3f c9 6a 3a be b5 18 0e 3d
       1.6680021 1.0502361 -0.18204798 0.03469153
0002a0 8d 9e 64 3f a2 23 15 be 01 e8 00 40 4e 11 22 3f
       0.8930443 -0.14564374 2.0141604 0.63307655
0002b0 ac 96 94 3f 98 6a 94 be 40 0f fa bf 0b 36 9e bf
       1.1608481 -0.28987575 -1.9535904 -1.2360243
0002c0 d3 2c b4 bf fc 40 a1 3e 7d 9c 98 3f c1 9a aa be
       -1.4076179 0.31494892 1.1922756 -0.33321193
0002d0 4b b2 44 bf 65 63 e2 3f ab fc 9a bf ef 4e 9e bf
       -0.76834553 1.7686583 -1.2108358 -1.2367839
0002e0 87 0a e1 bf 2b a0 00 bf 33 d4 f2 3e 44 ad cf be
       -1.7581338 -0.50244397 0.4742752 -0.4056188
0002f0 39 14 81 bf a5 a5 ba be 81 2b 2d 3e 63 6d 41 bf
       -1.0084296 -0.36454502 0.16911127 -0.75557536
000300 7f ce 88 3f 09 52 75 3f 83 ec d5 3f 92 44 1e bf
       1.0688018 0.958283 1.6712803 -0.6182338
000310 82 87 b5 be 6c bd c1 bf 2c d8 8a 3f cd f2 e6 be
       -0.35454947 -1.5135932 1.084722 -0.45107117
000320 a2 48 9c 3f 72 6d 32 be 92 1e 8f 3f 44 56 c6 bd
       1.2209666 -0.17424563 1.1181204 -0.096844226
000330 c3 5f d7 3f 72 11 48 3e 96 27 06 40 ca f1 06 c0
       1.6826099 0.19537905 2.0961661 -2.1085076
000340 74 a1 8e 3d 7b 91 e6 3d 7f 67 94 be 21 c0 8c 3f
       0.069643885 0.11258217 -0.2898521 1.0996133
000350 95 8b 26 bf 9b 2f 8a 3f 49 7f 90 3f f8 de 1a 3f
       -0.65056735 1.0795778 1.1288844 0.60496473
000360 d4 58 c4 bd 2e 44 5e be 65 a2 40 c0 2f 25 67 3f
       -0.09587255 -0.21705696 -3.0099118 0.9029111
000370 b9 23 b5 3e 74 95 07 be c8 6a c4 3e bd 7d 14 be
       0.35378817 -0.13240606 0.38362718 -0.1450109
000380 a9 89 f3 3f fa 78 e5 3e 92 4f c0 be 73 45 2b bf
       1.9026386 0.4481886 -0.37560707 -0.66902846
000390 52 c0 c3 bd eb 9e 3b 3e 0c 8e 52 bf be 76 99 be
       -0.095581666 0.18322341 -0.82247996 -0.29973406
0003a0 67 01 9b 3f 18 0d bc be 85 93 9e 3e fa 56 19 3f
       1.2109803 -0.3672874 0.30971923 0.5989834
0003b0 79 d3 8d 3f c5 ae 19 40 74 a6 ba 3f 7a a4 a4 3f
       1.1080161 2.401292 1.4582047 1.2862694
0003c0 da 90 cb 3c ab fe ff 3e 67 0c e0 bf f2 ca 11 3e
       0.024849344 0.49998984 -1.7503785 0.14237574
0003d0 df f2 f8 3e 26 39 c7 3f 80 2e 1e 40 87 d5 08 40
       0.48622796 1.5564315 2.4715881 2.1380327
0003e0 ed 92 7d 3f 35 87 99 3f a3 d6 73 3f 64 39 a4 3f
       0.99052316 1.1994387 0.95249385 1.2830014
0003f0 bc 18 00 bf e4 3d 1e bf 5c 48 b1 3f 88 d1 b7 bf
       -0.5003774 -0.6181319 1.3850207 -1.4360819

Encoder.encoder_lstm.weight_hh_l0 f4 [128, 32]
000000 fa 01 d3 3f 0a 88 c1 bf 0c 1f f4 bf 50 4d 05 bf
       1.6484978 -1.5119641 -1.9071975 -0.52071095
000010 c1 8b b8 be d7 a4 c2 3f 3e d6 c1 bf 22 25 34 bf
       -0.36044124 1.5206555 -1.5143507 -0.7036916
000020 1e 1b 79 bf 90 58 f2 3e fb ac 10 bf 29 30 82 be
       -0.97307 0.47333193 -0.5651395 -0.25427368
000030 3d 22 db bf 65 cb e4 3f a4 9d 6c 3f d9 aa af 3c
       -1.7119824 1.7874571 0.9242804 0.021443771
000040 f3 0a 96 bf 7c d0 c8 bf a6 e6 85 3f 53 e4 4a be
       -1.1722091 -1.5688624 1.0461013 -0.19813661
000050 18 47 34 3f 0f dc ab bf a7 e7 03 c0 9e 39 eb be
       0.7042098 -1.3426532 -2.061014 -0.45942396
000060 97 bc 38 3d bd 5f ad 3f c7 da 4d 3e fc 99 09 c0
       0.04510173 1.3544842 0.20102988 -2.1500235
000070 9b d9 b2 3e 53 02 0d 3e 13 33 50 3e d4 84 1e bf
       0.34931645 0.13770418 0.20331983 -0.6192143
000080 4a 97 c5 3f be 95 93 3d c0 d5 b9 be 29 aa c7 3e
       1.5436795 0.072062954 -0.3629589 0.3899701
000090 71 c2 3b 3f 97 a2 55 bf 15 ec ce be db fd cf bd
       0.7334357 -0.8345122 -0.4041449 -0.10155841
0000a0 da 2d 18 3f 30 2c 90 3f b9 6a 2c 3e 09 58 a2 bf
       0.59444964 1.1263485 0.16837586 -1.2683116
0000b0 8e 1a 10 bf 79 49 91 3c 9a 0c cb be 9f 6e 55 3f
       -0.5629052 0.01773523 -0.39658052 0.8337192
0000c0 52 c9 f2 be c6 6f 3b 3f 89 93 58 be 11 92 9c bf
       -0.4741922 0.7321743 -0.2115003 -1.2232076
0000d0 f3 94 17 be ab 8a c5 be ca dc c8 3f 98 b6 2a be
       -0.14802913 -0.38582358 1.569238 -0.16671216
0000e0 73 46 8b be 55 72 27 be 1a e7 62 be ac 54 3f be
       -0.27202186 -0.16352208 -0.22158471 -0.18684644
0000f0 65 df 0e 3f d8 be df 3f 11 fe f8 bd e2 4f 4a bd
       0.55809623 1.7480116 -0.12157834 -0.04939259
000100 9a 80 11 3f 97 4a 88 bf 66 86 11 be 70 c1 cf bf
       0.56836855 -1.0647763 -0.14211425 -1.6230907
000110 63 5d d6 3d 89 ba 99 3f 27 9d 2a bf d4 64 4e bf
       0.10467031 1.2010051 -0.66646045 -0.806226
000120 44 09 77 bd 5d e8 65 3f d4 49 01 c0 96 50 92 3f
       -0.06031157 0.89807683 -2.020131 1.1430843
000130 74 96 36 3d a6 2b d3 bd 63 36 d9 3e 12 1d 3e be
       0.044577077 -0.1031106 0.42424306 -0.18565777
000140 eb 4f 53 bf 4c 78 73 3f c7 0f 57 bf cc 58 b0 bf
       -0.8254382 0.95105433 -0.8400845 -1.3777099
000150 62 98 83 bc f8 28 a7 be 23 ee 8a 3e 78 98 f2 3e
       -0.016063873 -0.32648444 0.2713481 0.4738195
000160 20 1c 55 3f c3 b4 0f bf b4 a8 c6 3e 20 4a 25 c0
       0.8324604 -0.56135195 0.38800585 -2.5826492
000170 99 81 92 bf 2e 05 84 3f 2c 7a 26 be 45 11 c3 3f
       -1.14458 1.0314081 -0.16257542 1.5239645
000180 59 11 36 bf a5 63 05 bf 82 c4 81 3f be fe 1e 3f
       -0.7112022 -0.5210517 1.0138094 0.62107456
000190 11 00 f8 bf 63 69 cb 3e 91 95 ad 3f 13 75 f2 3e
       -1.937502 0.3972884 1.3561269 0.47354946
0001a0 58 cd 12 bf 7c 3c b9 be d3 34 50 bf 89 e1 95 3f
       -0.5734458 -0.36178958 -0.81330603 1.1709453
0001b0 1d 98 a4 3f da 6e c7 bf 05 c6 ae be 87 5c 98 ba
       1.2858921 -1.5580704 -0.34135452 -0.0011624255
0001c0 44 9d fd bd 94 c7 d5 3e 88 7d 64 3f 77 b3 9a 3f
       -0.12383512 0.4175383 0.89254045 1.2086018
0001d0 f4 3a 19 3e 00 4a 4e 3f 5b 93 4a 3f ba ad 8a 3f
       0.14963895 0.80581665 0.79131097 1.0834267
0001e0 d7 ad 01 40 d0 40 c5 3e 4c bc 90 3f 2e af 58 be
       2.0262353 0.3852601 1.1307464 -0.21160576
0001f0 da d6 54 3f 1b 3f 45 3f 01 ed 95 3f 3b 66 5d 3f
       0.8314034 0.77049416 1.1712953 0.86484116
000200 f6 56 d0 3f 15 08 26 bf 05 d0 71 be 95 55 cd be
       1.6276538 -0.6485608 -0.2361451 -0.40104356
000210 e2 a4 57 3f 5a b5 35 be 1f 5f 91 be 70 1b dc bf
       0.84235966 -0.17744961 -0.28392884 -1.7195873
000220 f6 9a d1 3f 4c d2 1c 40 27 57 8f 3f 2f 75 8f 3e
       1.6375415 2.4503355 1.1198472 0.2801909
000230 5f 03 ef bf a7 bc b0 3d a5 70 1d 3f af ed 12 bf
       -1.8672904 0.086297326 0.61500007 -0.57393926
000240 03 b7 ad 3e 35 5c 58 3f 04 a1 8c be 4c 34 cb 3f
       0.3392869 0.84515697 -0.27466595 1.5875335
000250 5e 67 d3 bf 4d 35 b1 3f 03 1b e9 bd ce 21 d8 be
       -1.651592 1.3844391 -0.11382105 -0.4221329
000260 af fb a9 bd db 04 40 bf 00 c4 fc be f7 40 15 c0
       -0.08299958 -0.7500741 -0.49368286 -2.3320901
000270 35 11 f2 3e 82 ed 15 bf 54 ae af be 2c df 5f be
       0.47278753 -0.58565533 -0.3431269 -0.21862477
000280 66 eb 2d 3f 0f 90 01 bd 01 69 96 3f b0 a9 a4 3f
       0.67937315 -0.031631526 1.1750795 1.2864285
000290 88 65 0c 3e d1 46 92 3f 03 68 e1 3d 15 04 41 bf
       0.13710606 1.1427861 0.11006167 -0.75396854
0002a0 7f f4 2f bf f5 e0 8c 3f d1 64 4f 3f 1e 90 a2 3f
       -0.68732446 1.1006151 0.8101321 1.2700231
0002b0 d7 9d 6c 3f b1 7d 73 3f 8c ad 6b bf 22 fb 5b bd
       0.92428344 0.95113665 -0.92061687 -0.053706296
0002c0 18 5b 8b bf e0 8c d1 be 54 8f f9 3c 39 83 8d 3e
       -1.0887175 -0.40927792 0.030463852 0.27639177
0002d0 53 ec 68 3f 33 c8 ed bf ca 2b 57 bf 45 d3 47 bf
       0.909856 -1.8576721 -0.8405119 -0.78056747
0002e0 c2 d3 97 3f 6f ce fb 3f ef 1b 80 3f 23 1a 77 bf
       1.1861498 1.9672374 1.0008525 -0.96524256
0002f0 98 42 13 bd 0e 2f e6 be af ad 81 3e 99 6e 8b bf
       -0.03595218 -0.44957775 0.25327823 -1.0893127
000300 ae d9 a1 be 3c d6 24 3f de 4e 79 be e8 04 85 bf
       -0.3161139 0.64389396 -0.24346492 -1.0392122
000310 3e cb a2 be f7 f5 2b bf 09 a2 ad 3e 98 96 b3 bf
       -0.31795686 -0.6717219 0.33912686 -1.4030333
000320 be c4 da be 1b b6 98 3f 15 01 d1 bd 9b b3 1b bc
       -0.42728227 1.1930574 -0.102052845 -0.0095032705
000330 d5 f3 b2 be 8f 32 1d bd aa d5 11 3e c8 d2 a3 bd
       -0.34951654 -0.038378295 0.14241663 -0.07999188
000340 aa bc 38 3e 1a cf 2a 3f 7d 57 37 be f5 66 9c 3e
       0.1804072 0.6672226 -0.17904468 0.305473
000350 6d 09 ae 3e fe ef 96 3e da a9 83 3e ef 23 06 bf
       0.33991566 0.29479975 0.25715524 -0.5239858
000360 20 97 d8 be 4b 0f 09 3e a5 3e 38 bf d4 d4 ec be
       -0.423028 0.1338474 -0.7197059 -0.46256125
000370 36 af 76 be d5 2e 67 3e 58 de 45 bf 77 90 0b 3f
       -0.24090275 0.22576459 -0.77292395 0.5451731
000380 36 76 fc 3e aa d3 0a be b9 6a 94 bf ee 57 ac 3f
       0.49308938 -0.13557306 -1.1595069 1.3464334
000390 e6 d5 47 3f 0b 87 f3 3c d9 85 40 bf d2 e9 8f bf
       0.7806076 0.02972748 -0.75204235 -1.1243231
0003a0 00 4f 9a 3e 47 3d c5 3f f6 aa 50 bf 05 d4 80 bf
       0.30138397 1.5409325 -0.81510866 -1.0064703
0003b0 51 d7 24 3f ef 78 d5 3f 1c a9 63 3f 52 f8 20 3f
       0.64391047 1.6677531 0.88929915 0.62878907
0003c0 0d ba 0b bf f6 78 a2 3f 6a 09 c1 bf 15 76 bc be
       -0.54580766 1.2693164 -1.5080998 -0.3680884
0003d0 b3 ae 66 bf e9 25 9d be 18 07 04 3f ce 0f 58 3f
       -0.9011032 -0.30692986 0.51573324 0.84399116
0003e0 e5 f4 af 3e 8b fd 3a 3f 72 d0 5a 3e f8 33 3e be
       0.34366527 0.73043126 0.21368578 -0.18574512
0003f0 27 95 39 be 5e 7b cf 3d 42 27 b3 3c 26 82 d1 3e
       -0.18123303 0.10130952 0.021869306 0.40919608

Encoder.encoder_lstm.bias_ih_l0 f4 [128]
000000 c4 ff b0 bd 7d 25 1b bf f9 ab f3 be 96 c6 28 bf
       -0.086425334 -0.6060408 -0.47592142 -0.6592802
000010 25 20 bc be 4d 93 88 3e 02 b5 c2 3c e1 2a 30 bf
       -0.36743274 0.26674882 0.023767952 -0.6881543
000020 64 bb 9f be 44 a7 da be 6c 74 3f be f8 ce ab be
       -0.31197655 -0.4270574 -0.18696755 -0.33556342
000030 8c 58 0e bf ea b7 cd bd 58 87 f6 be 48 d2 81 be
       -0.5560386 -0.100448444 -0.48150134 -0.25355744
000040 ae de a2 be 27 2f 2f bf 1f 44 ab bf ef fc 59 bf
       -0.31810516 -0.68431324 -1.3380164 -0.8515157
000050 c9 f8 bd 3d c1 d1 03 bf 28 a5 9c be 37 b7 b5 3e
       0.09275968 -0.51491934 -0.30594754 0.35491344
000060 45 07 97 bf d8 50 98 bd fd 42 1d bf 12 7e 46 be
       -1.1799093 -0.07437295 -0.6143034 -0.1938403
000070 eb f5 1a bf ec bb c1 3e ec ec ca be 70 e7 10 bf
       -0.6053149 0.37838686 -0.39633882 -0.56603146
000080 21 f5 60 bf 23 19 e7 3e 3a c7 d7 bf 67 6c 98 bf
       -0.8787404 0.45136365 -1.6857674 -1.1908082
000090 1e 3b 38 be 92 92 5f be 97 c4 aa be 1b 74 c5 3d
       -0.17991301 -0.21833256 -0.3335311 0.09641286
0000a0 16 09 67 bd f2 36 9e bf e4 2f a0 3e 0e a5 7d bf
       -0.05640515 -1.2360518 0.31286538 -0.9907998
0000b0 d5 6d eb be 8a 16 8d bf 34 a2 be 3e 75 44 8d bf
       -0.45982233 -1.1022503 0.37233126 -1.1036516
0000c0 fc 7e 0f 3c 5f 5e 8d bf 36 09 97 bf 3a e2 1c bf
       0.008758303 -1.1044425 -1.1799686 -0.61282694
0000d0 39 30 8d bd 62 3f 9b be 65 fa c8 bf fe 9f 26 bf
       -0.06893963 -0.30321795 -1.5701414 -0.6508788
0000e0 d9 b5 86 be fd 47 06 be 56 83 6c bd e4 df 39 3e
       -0.26310614 -0.13113399 -0.05774244 0.18151814
0000f0 c1 43 3d bf cc 1e c2 bf ff 59 fd bd 84 8a 4a be
       -0.7393151 -1.5165648 -0.12370681 -0.19779402
000100 8b 7a b6 bd 51 20 ed 3e 75 58 6e 3e f7 1c 19 3f
       -0.08910092 0.46313718 0.23275931 0.5980982
000110 86 51 f1 3d 4f 10 82 bd 0b 3b 9b 3e be 73 00 3f
       0.117831275 -0.06350767 0.30318484 0.5017661
000120 18 d3 f2 bd fe 19 02 be 3f 62 85 3e 79 da 51 be
       -0.11856669 -0.12705228 0.26051518 -0.20493497
000130 e9 05 d5 3e 83 5f 26 bf df 68 e0 be a9 b8 86 3e
       0.41606072 -0.6498949 -0.4383001 0.2631276
000140 69 7c e0 3c 93 c4 85 be ac 09 25 3e ef 0e d4 3e
       0.027403073 -0.26126537 0.16116971 0.41417643
000150 5f a4 4f bd b6 bb 55 bd b8 6a 23 3e 15 30 a5 be
       -0.050693866 -0.05218097 0.15958679 -0.32263246
000160 5e f6 37 bc 90 ec bc 3c 72 86 70 3e c2 61 ce 3e
       -0.011228172 0.02306202 0.23488787 0.40308958
000170 0a 48 65 be 5c bb ed bc 5b fc 6b be ce 0f b4 bd
       -0.22390762 -0.029020004 -0.23045485 -0.08792077
000180 97 d0 bf bc 41 c8 f2 be cc ad d6 be be 1e 80 bd
       -0.023414893 -0.47418407 -0.41929471 -0.062558636
000190 bf 50 54 bf 80 84 e0 be ac 0c c4 3d 5d 82 95 bd
       -0.8293571 -0.4385109 0.095727295 -0.073002554
0001a0 55 2b 03 bf 12 e7 16 3e eb ac a8 3b 84 ee cb be
       -0.51237994 0.14736584 0.0051475666 -0.3983041
0001b0 20 26 75 bd 74 7a 26 be 1f 3e 39 3e 3a 2b 05 bf
       -0.059850812 -0.1625765 0.18090104 -0.52019083
0001c0 3c fe 36 bf d6 4d 41 bf 81 8d a5 bf 32 24 be bf
       -0.7148168 -0.75509393 -1.2933809 -1.4854796
0001d0 b9 b2 fb be a8 9f 1e bf 7d 9b 3f bf f3 8b 99 3e
       -0.49159792 -0.61962366 -0.7484663 0.29989585
0001e0 c4 d1 94 be 0e c9 cf bd bb 5d 08 bf 1c b3 36 bf
       -0.29066288 -0.1014577 -0.5326802 -0.7136705
0001f0 d3 48 0b 3e 8b ac a1 3c a8 d1 15 bf 41 34 e2 be
       0.13601999 0.019735595 -0.58523035 -0.44180492

Encoder.encoder_lstm.bias_hh_l0 f4 [128]
000000 bc 78 45 be d6 d6 32 bf ab 88 3c bf 96 11 f0 be
       -0.19284338 -0.69859064 -0.7364604 -0.46888417
000010 91 9c 32 be 6f 2b d4 ba 25 ce a0 bd bc 28 4e bf
       -0.17442538 -0.0016187261 -0.07851819 -0.80530906
000020 0f 0c 97 be e2 05 b1 be 33 70 0f bc 71 3d ed be
       -0.29501387 -0.345748 -0.008754778 -0.4633594
000030 44 21 bb be a7 3f 16 3e ac ee f1 be eb dc 49 be
       -0.36548817 0.14672719 -0.47252405 -0.1971318
000040 5d 2a d5 be d4 27 19 bf 39 ce 8f bf e8 1a 5a bf
       -0.41633883 -0.598264 -1.1234809 -0.85197306
000050 99 58 22 be ac 52 1b bf 44 20 0b be ed fc 55 3e
       -0.1585411 -0.6067302 -0.13586527 0.20897265
000060 c7 ae 6e bf da d9 1a bd e0 b9 ea be 95 a4 34 bd
       -0.9323544 -0.037805416 -0.45844936 -0.04410227
000070 62 01 ab be f2 1e e8 3e 8b 65 d2 be 15 fd d0 be
       -0.33399493 0.4533611 -0.41093096 -0.40818086
000080 d0 50 23 bf 3c 45 1c 3f a1 72 d6 bf 98 e3 9d bf
       -0.63795185 0.61043143 -1.6753732 -1.2335081
000090 98 39 92 3c f9 6b 85 bd 43 40 f9 be 08 36 84 bd
       0.017849728 -0.06514735 -0.4868184 -0.06455618
0000a0 11 c0 96 be 99 f2 96 bf 1f df d8 3e 48 cf 93 bf
       -0.2944341 -1.1792785 0.42357728 -1.1547632
0000b0 bb cf 2b bf d3 28 69 bf 6e c9 39 3e 13 04 5a bf
       -0.67113847 -0.9107792 0.18143246 -0.85162467
0000c0 91 f8 85 3e cc e8 95 bf 93 d2 95 bf d8 5b 16 bf
       0.26166204 -1.1711669 -1.1704887 -0.5873389
0000d0 42 9c d8 3d 19 8d 0a bf a4 5f d3 bf 7c 7a 0a bf
       0.10576679 -0.5412155 -1.6513562 -0.54093146
0000e0 7f dc 01 be c1 b2 ce bd fb 90 86 be 73 4e d6 3d
       -0.12681769 -0.10092688 -0.26282486 0.10464182
0000f0 21 fe 17 bf ee b2 ce bf 3b 10 d4 bd e3 ce 97 bd
       -0.59372145 -1.6148355 -0.10354658 -0.074125074
000100 ff 6c 47 3c 7f 53 9f 3e 2d bf de 3e 4f 64 09 3f
       0.012171983 0.3111839 0.4350523 0.53668684
000110 d2 6a 31 3e 41 d6 41 be 95 e2 3d 3e 1c f1 ae 3e
       0.17325905 -0.18929388 0.18543465 0.34168327
000120 a7 fd 5c bc f4 d2 c4 be c0 40 73 3e c1 c5 8e bd
       -0.01348821 -0.38442194 0.23755169 -0.06971312
000130 07 6e 8c 3e c3 62 b3 be 86 24 87 be 2f ea 87 3c
       0.27427694 -0.35036287 -0.26395053 0.01659116
000140 6d e8 1b bd cb 86 63 be 66 be 1b be 16 18 da 3e
       -0.038063455 -0.22219388 -0.1520935 0.425965
000150 4a be 06 bd a1 de f4 3c 47 78 a0 3c f3 b8 00 bf
       -0.032896318 0.029891314 0.019588603 -0.5028221
000160 1e 3c 54 3c 7d 8f 14 bd 04 9f 9e 3e 5c 03 e8 3e
       0.012953786 -0.036269654 0.30980694 0.45315063
000170 21 d8 c9 bd 4b 60 17 3d 56 40 4e be 61 f9 1d be
       -0.098556764 0.036957067 -0.2014173 -0.15427162
000180 73 d0 8d bc 15 66 83 be f6 4e df be 80 3e fc 3c
       -0.01731131 -0.2566382 -0.4361493 0.030791521
000190 39 45 61 bf 5b 96 48 be 34 d1 23 be 92 94 9f be
       -0.8799625 -0.19588606 -0.15997773 -0.31168038
0001a0 87 99 ef be 07 2f 70 3e 4c 15 39 3e d9 68 cd be
       -0.4679682 0.2345544 0.1807453 -0.40119055
0001b0 a8 5f 85 3e 53 16 67 be 06 a1 0b 3e 9e 80 20 bf
       0.26049542 -0.2256711 0.13635644 -0.62696254
0001c0 63 54 d6 be 7c 2f 27 bf fe a0 a9 bf 91 49 a7 bf
       -0.41861257 -0.6530683 -1.3252256 -1.3069326
0001d0 31 b9 97 be 75 c5 09 bf 48 81 42 bf 95 65 3a 3e
       -0.29633477 -0.5381692 -0.7597852 0.18202813
0001e0 2a 18 6a be e5 06 d8 be 97 e9 89 be 75 57 2d bf
       -0.2286078 -0.4219276 -0.26936027 -0.67711574
0001f0 47 fc 67 3d e4 92 94 3e f3 f6 0e bf d2 30 c7 be
       0.056637075 0.2901832 -0.55845565 -0.38904434

Encoder.encoder_attn.0.weight f4 [20, 84]
000000 68 50 12 be 71 f3 c2 be 7c 33 d5 3e 05 65 21 3e
       -0.14288485 -0.38076356 0.41640842 0.15761192
000010 9b 1b 2e 3f ec 42 2e bf 1b 53 63 3e f5 d3 cc bb
       0.6801087 -0.68070865 0.22199671 -0.006250853
000020 fe 8b 75 bf a2 96 e1 3e 12 bf 06 3f 75 a2 84 3f
       -0.95916736 0.44060236 0.526353 1.0362078
000030 86 e4 05 bf fa 38 7f 3e 09 6c c4 3d 5d 46 1a 3f
       -0.52301824 0.24924079 0.095909186 0.60263616
000040 84 5b 17 3e 32 ef 72 bf 1e 5a f6 3c 43 27 27 bf
       0.14781004 -0.94896233 0.030072268 -0.65294284
000050 cc 72 8a be 4d 4a 3a bf f3 f0 92 3e 4d d4 e7 3e
       -0.27040708 -0.72769624 0.28699455 0.4527916
000060 6a 08 03 3e 6f e6 0a 3f bf f2 45 bd 2f ce 72 3f
       0.12796178 0.54257864 -0.048327204 0.9484586
000070 6f 70 94 3f a1 25 28 bf 7f 82 cf 3e f7 23 ba 3e
       1.1596812 -0.6568242 0.40529248 0.36355564
000080 55 25 55 bf dc 7b 19 3e e0 6e e4 3c c4 c8 79 3e
       -0.8326009 0.14988655 0.0278849 0.24392992
000090 8e 67 87 3f 07 c0 11 bf 01 c1 b9 3e d6 28 a6 3e
       1.0578477 -0.56933635 0.36280063 0.3245303
0000a0 b3 1e 56 bf 52 b7 00 3f ca 21 4b 3f e3 ff 2f 3f
       -0.83640593 0.50279725 0.79348433 0.6874983
0000b0 07 bd e3 be 2f 65 e3 3e 2b 25 a7 3d de 95 1a 3f
       -0.44480154 0.44413134 0.08161386 0.6038493
0000c0 2c 94 81 3f ed 6b 82 bf 48 96 84 3e e0 d7 bf bf
       1.0123343 -1.0189186 0.25895905 -1.4987755
0000d0 a3 cd 13 bf 14 27 9e be 2f ea c5 be 06 c9 82 3e
       -0.5773565 -0.3088919 -0.3865523 0.25543994
0000e0 fe 3c 84 be 54 e5 fa 3d 9c 57 80 be f4 92 b4 3f
       -0.25827783 0.12250772 -0.2506684 1.4107347
0000f0 f0 89 83 3f f4 8d 34 bf d0 57 77 be 37 aa a6 3d
       1.027647 -0.70529103 -0.24154592 0.08137935
000100 33 5e a0 3f 8a f9 38 3f 54 e7 63 bf a4 97 d7 bb
       1.2528747 0.72255766 -0.89024854 -0.0065793563
000110 c5 68 ab 3f f1 18 a2 be cb 97 fe be c0 4a 4c bf
       1.3391348 -0.31659654 -0.49725184 -0.7980156
000120 d3 12 79 3f 76 c5 25 3c c3 be b2 3e f8 6d 69 3d
       0.9729435 0.010117879 0.34911165 0.05698964
000130 2c d0 87 3f 9a c0 38 bf 91 17 24 3f aa d0 24 bf
       1.0610404 -0.72168887 0.6409846 -0.64380896
000140 f5 f3 42 be e6 13 3c bf 60 63 9b be e1 82 9c bf
       -0.19038375 -0.7346786 -0.30349255 -1.2227441
000150 18 eb fd be da 3e 5a bd a3 46 81 3e 7d 87 05 3e
       -0.49593425 -0.053282596 0.25249204 0.13039966
000160 0d 6e c9 bf ad 4d 82 3e 4a 01 38 3e b7 22 68 3f
       -1.573671 0.25449887 0.17969242 0.9067797
000170 e1 ab aa be b6 d3 9a bf 7e 82 ab be 7f a0 c9 3e
       -0.33334258 -1.2095859 -0.33497995 0.3938026
000180 ea 82 dd 3e 55 0a b7 be 6a 00 7b 3f ab ef 2f bf
       0.43263942 -0.3575007 0.98047507 -0.6872508
000190 c3 66 a4 bd 0f 0e 2d 3f 3f 24 a1 bf 42 d4 04 3f
       -0.08027413 0.67599577 -1.2589186 0.5188638
0001a0 b6 fd 3a bc 79 4c 2d 3f 95 c3 e0 bf 4e 75 6f 3e
       -0.011413028 0.67694813 -1.7559687 0.23384592
0001b0 f2 06 5b 3f a8 c4 19 bf 20 66 67 3f 1c ca b4 be
       0.8555747 -0.600657 0.90390205 -0.35310447
0001c0 f2 2e 69 bf c2 3a 55 3f e5 1f bb 3e 57 32 a6 bd
       -0.9108726 0.8329278 0.3654777 -0.0811507
0001d0 6e 60 d5 bd 2f 54 30 bd 66 bb 5d 3e 54 6d 84 3c
       -0.10418783 -0.043049034 0.21653518 0.016165413
0001e0 2a c6 8b bf 53 7d 8b bd 22 a1 40 3e ca 6b 10 3f
       -1.091985 -0.06811013 0.18811467 0.56414473
0001f0 ca b7 16 bf 15 a2 d6 bf 8e 4c 0d be ee b6 29 3f
       -0.5887419 -1.6768214 -0.13798735 0.66294754
000200 2a 73 85 3e 43 4f 2e bf 28 7a 99 3f 4f 96 b2 bf
       0.26064426 -0.68089694 1.1990404 -1.395212
000210 6f 2a 56 be e4 e8 d3 3e 4b 28 d8 be 20 dc e0 3e
       -0.20914625 0.4138862 -0.4221824 0.43917942
000220 ef 0a 80 3e 83 16 18 3f 74 ff 87 bf d4 29 24 3e
       0.25008342 0.5940935 -1.0624833 0.16031581
000230 1b 6c 98 3f 77 6d 69 be b9 47 4d 3f a5 0e 1d bf
       1.1907991 -0.22795664 0.80187565 -0.6135047
000240 44 f3 7f bf 4d 2a 35 3f e2 6f 9c 3f 99 ff 5d 3e
       -0.9998057 0.7076767 1.2221644 0.21679534
000250 1f 84 15 be 2f bf 00 3f bb 52 53 3e a5 a8 ac be
       -0.14601181 0.50291723 0.20637028 -0.33722416
000260 c3 12 a0 3f 55 4e 41 3e 95 4f 71 3e c1 1d 3c 3f
       1.2505726 0.18877538 0.23565514 0.734829
000270 a3 d9 06 3f 47 fb ff 3e 2b 45 2b bf db 65 6a 3f
       0.5267584 0.49996397 -0.66902417 0.9156167
000280 c0 46 d2 3e c3 cc 64 bf 60 65 c7 be e6 a7 07 bf
       0.41069603 -0.8937494 -0.3894453 -0.5299057
000290 e2 fe a2 be 54 a2 cd 3e 7c 50 e7 be 71 ba fc bf
       -0.31835085 0.4016291 -0.45178592 -1.9744397
0002a0 5e 4f 34 bd 5f 42 92 bf 9d 14 c9 be 31 8a 94 3d
       -0.044021003 -1.1426505 -0.3927354 0.072529204
0002b0 bd 2a 52 be 01 67 c8 be 5c dc 42 bf a0 97 65 bf
       -0.20524116 -0.39141086 -0.7611749 -0.89684486
0002c0 b8 6a 86 be d5 97 6f 3f b6 12 8c bf 84 a6 6c be
       -0.26253295 0.9359105 -1.094321 -0.23110396
0002d0 72 0c 93 bf c7 57 28 3f 74 bb f1 3e 16 ca 5a 3f
       -1.1488173 0.6575894 0.47213328 0.8546461
0002e0 38 e8 10 3f a6 4f ed 3e de 82 d9 3c 30 50 c3 3c
       0.5660434 0.4634983 0.02655166 0.023841947
0002f0 e7 ae 79 bf a5 e7 32 bf ea 57 34 3f db 62 b2 3e
       -0.97532505 -0.6988471 0.70446646 0.34841046
000300 f1 35 0c 3e 9f 1d 6f bf 7a bb 40 3d 7d be 05 3f
       0.13692452 -0.93404573 0.04705379 0.5224379
000310 e0 dd 75 bf ae 0d f8 3d 39 4a 15 bd 3f 43 97 3e
       -0.9604168 0.12111984 -0.036447737 0.29543492
000320 6b 81 10 3e c6 76 1e bf 70 31 7e be 6d e0 b3 be
       0.14111869 -0.61899984 -0.24823546 -0.3513216
000330 5e c7 b0 bd 39 eb fa be 76 24 94 bf 36 12 2e bf
       -0.08631776 -0.49007586 -1.1573627 -0.6799654
000340 c6 1a 55 3e 61 5a 52 3f 65 5d 17 bf 57 b4 99 be
       0.20810995 0.8216916 -0.59126884 -0.300204
000350 cb a9 3a bf 71 c2 e9 3e 68 ac d9 3e 57 52 87 3e
       -0.72915334 0.4565616 0.42514348 0.26430008
000360 b9 7d e5 be 07 ae 80 3e 26 43 2d 3f 91 55 8c 3e
       -0.4482248 0.25132772 0.67680585 0.27409032
000370 1f 9a 6c bf 4b ae 8e bf ea 12 57 3f dc 0a 36 3d
       -0.9242267 -1.114694 0.84013236 0.04444395
000380 70 72 a8 be 90 b5 7b bf d3 c9 80 3e 33 56 c9 3d
       -0.3289981 -0.9832392 0.2515398 0.09830894
000390 0f 4e b8 bf 56 1e e8 38 c2 42 3a 3f 1b b3 c6 3c
       -1.4398822 0.000110682726 0.72758114 0.024255326
0003a0 eb 62 86 3d 50 db 95 3e 87 9e 79 3c e2 65 a5 be
       0.06561836 0.29268885 0.01523555 -0.32304293
0003b0 82 c9 e6 3e a0 81 39 3e 04 01 5c bf ff ed f8 bd
       0.45075613 0.18115854 -0.8593905 -0.12154769
0003c0 d7 63 f6 3e fa bd 08 bf 3f f1 80 bf c0 db 2a 3e
       0.48123047 -0.5341488 -1.0073622 0.1668539
0003d0 28 fd 38 bf a2 b8 0f bf df 2d a4 bf 48 0a c9 be
       -0.72261286 -0.561411 -1.2826499 -0.39265656
0003e0 29 46 a0 3e ea dc ea 3f cf 96 91 3f 28 98 82 3f
       0.31303528 1.8348668 1.1374148 1.0202684
0003f0 5d 6c 11 3f b5 0d 03 3e 36 61 0b bf 42 3e 8b bf
       0.56805974 0.12798198 -0.5444521 -1.0878375

Encoder.encoder_attn.0.bias f4 [20]
000000 43 dd 03 3f 58 be 7f bf a0 85 d3 3f c5 94 42 bf
       0.51509494 -0.99899817 1.6525154 -0.76008254
000010 58 70 0c 3f 06 ca b6 3e e0 a5 b0 bf 12 8b c4 bf
       0.5485892 0.35701007 -1.3800621 -1.5354941
000020 00 7a 3a 3f 1b 2c b2 3f 4c 5c 6c bd 70 9d 2d bf
       0.7284241 1.391971 -0.05770521 -0.67818356
000030 c5 03 a0 bf 11 13 6d 3f f0 ea 75 bf da 59 12 bf
       -1.250115 0.9260722 -0.9606161 -0.5716835
000040 06 6d 3a bf 65 40 1f 3f 39 34 26 3e 4e 41 a8 3f
       -0.72822607 0.62207633 0.16230859 1.314493

Encoder.encoder_attn.2.weight f4 [1, 20]
000000 97 5c ee 3e 71 68 6f bf 70 89 93 3f 1b 30 6a 3f
       0.46555015 -0.9351874 1.1526318 0.91479653
000010 27 24 25 bf ba 5f 53 3f 27 1a a6 3f 29 2f 2d 3f
       -0.6450829 0.8256794 1.2976731 0.67650086
000020 b9 c9 60 bf cc 1f d4 3f db 7b 45 3f 0a cb b5 3f
       -0.87807804 1.6572204 0.77142113 1.4202588
000030 4b bf c3 bf cc c0 61 3f 45 3b 5b bf 18 9c 0d bf
       -1.5292753 0.8818481 -0.85637313 -0.55316305
000040 b2 1a 0a 40 a5 c6 35 bf 02 2a 36 3f 7d 61 38 bf
       2.1578794 -0.7100623 0.7115785 -0.72023755

Decoder.attn_layer.0.weight f4 [32, 96]
000000 80 c3 07 3f 7d f0 0c 3f be 58 9b be 46 52 41 3f
       0.53032684 0.55054456 -0.30341142 0.75516164
000010 c3 09 08 bf 9c 58 00 bf 10 03 15 bd a6 65 9a bd
       -0.53139895 -0.5013521 -0.036379874 -0.07538919
000020 6b c6 96 3f 6b 60 f7 bf 75 f7 10 bf 08 ff cf 3e
       1.1779302 -1.93263 -0.5662759 0.4062426
000030 a0 11 ba 3e 77 93 0b bf 48 7a 22 3f e5 03 6b bf
       0.36341572 -0.5452189 0.63467836 -0.9180282
000040 35 5f 10 3f c0 2f ae 3f a4 0d cb 3f 6b 12 2f be
       0.56395274 1.3608322 1.5863538 -0.1709687
000050 2c ff c2 3e 66 d0 bb bf 21 5d 89 be 49 5a ad 3d
       0.38085306 -1.4672973 -0.26828864 0.08464486
000060 35 72 a2 3e cb 9b 88 3f b5 5c 51 3d b1 92 4a 3d
       0.31727758 1.0672544 0.051113803 0.049456302
000070 cb 4a a6 be 06 08 c8 3d 96 7a c6 bf fb 09 66 3d
       -0.32478938 0.09767155 -1.550616 0.056161862
000080 c8 dc e0 3d da f1 74 3e b8 2c 1c bf f4 40 03 bf
       0.10979611 0.23920384 -0.61005735 -0.51270986
000090 1b f7 4e bf 4f 45 0a bf 7c a4 2e be 95 0e 11 3e
       -0.80845803 -0.54012007 -0.17054933 0.14165719
0000a0 e1 87 a4 3f 7b 49 83 bf 3a 2f 26 bf 10 9c f9 be
       1.2853967 -1.02568 -0.6491581 -0.4875188
0000b0 5d bb d3 be 10 59 44 3e 82 f2 4e 3f 88 83 a6 bf
       -0.41353884 0.191746 0.8083879 -1.300889
0000c0 a9 fe 9a 3f cb 89 a7 3d 9b fb ec 3f 72 2b 40 3f
       1.2108966 0.08180579 1.8514284 0.7506629
0000d0 6c 6b aa be 1e 82 9f bf 72 32 2c 3f 40 9a c8 be
       -0.3328508 -1.2461584 0.67264473 -0.39180183
0000e0 5f 35 c2 bd a0 a7 24 3f cb 89 92 bf 1a 13 33 3e
       -0.09482836 0.64318275 -1.1448301 0.17487755
0000f0 15 76 09 bf 8d 28 bd 3d a9 d8 8f bf b1 e4 8c 3e
       -0.53695804 0.0923625 -1.1237994 0.27518228
000100 a1 eb a6 be 86 5f 09 bf 4b be 6d be 28 72 7e be
       -0.32601646 -0.5366138 -0.23217122 -0.24848235
000110 b2 fd 40 bf 11 8a 9a 3e b2 97 91 bd 30 c6 25 40
       -0.7538711 0.3018346 -0.07109012 2.5902214
000120 c2 47 57 bf c3 dd fa 3d 21 55 8d be a2 6a aa bf
       -0.8409387 0.12249329 -0.2760401 -1.3313792
000130 9c 34 8f 3f ba 8d 10 3f 49 59 d8 be d9 8d 06 bf
       1.118793 0.5646626 -0.4225562 -0.5256019
000140 bd c7 23 bf 37 84 7f bf 7a d7 92 be 94 19 16 3f
       -0.6397665 -0.9981112 -0.2868002 0.5863278
000150 86 46 9d 3c 07 73 c4 be 52 ec c2 be 31 b5 95 bd
       0.019198667 -0.3836901 -0.38070923 -0.0730995
000160 f3 bf 4e bf 72 e2 a8 3e 46 2d af 3e aa 62 73 be
       -0.8076164 0.32985264 0.34214228 -0.23768106
000170 c3 d2 67 bf 0e c3 a9 3f 0d 74 ab 3f 6e a4 00 3e
       -0.9055597 1.3262651 1.3394791 0.12562725
000180 21 c0 b4 bf 16 cc 49 3f 64 44 6c bf 7b c0 32 3f
       -1.4121133 0.78827035 -0.92291856 0.6982495
000190 12 11 7c bf 06 30 ae 3f 5b 6e bc 3f 56 9e 77 3b
       -0.9846355 1.3608406 1.4721178 0.0037783585
0001a0 8b 06 62 3e ef c6 45 bf 15 51 91 3f 6e 3b 08 40
       0.22072808 -0.77256674 1.1352869 2.1286273
0001b0 1c 13 02 bf 41 25 1a be ff 51 26 3f b6 0f 9b bf
       -0.5081041 -0.15053274 0.64968866 -1.211417
0001c0 1c ce b1 be ef 5b d6 3f 79 14 9b 3f 73 0b 0e 3e
       -0.3472756 1.6746806 1.2115623 0.13871555
0001d0 52 8c ab bf df dd 37 bf 30 14 ab be c7 f2 fb bc
       -1.3402197 -0.71822923 -0.3341384 -0.030755414
0001e0 d3 47 c1 bf c6 69 4a be c9 a5 24 bf 9e 9e 21 bd
       -1.5100044 -0.19766912 -0.6431547 -0.03945791
0001f0 d7 b2 3d be 6a 2e 9c 3d d3 29 d8 3f 01 28 84 be
       -0.18525253 0.0762604 1.6887764 -0.2581177
000200 6d dc 52 bf 12 08 9d 3f 8b d0 b3 be 1f 72 8b be
       -0.82367593 1.2268088 -0.35120043 -0.27235505
000210 41 e1 0c be 4b 14 8d be 3c 4a 81 3f 89 f7 3d bc
       -0.13757803 -0.27554545 1.010078 -0.0115946615
000220 e1 88 85 3f d8 15 a1 bf 27 02 7d 3f f1 bd 92 3f
       1.0432397 -1.2584791 0.9883141 1.1464216
000230 d5 b1 eb be 88 80 a6 be d0 b5 9f 3e 8f c1 c0 bf
       -0.46034113 -0.32519937 0.311934 -1.5059069
000240 d9 7d 06 bf 56 de 09 be a9 33 9b 3e 86 87 56 3f
       -0.5253578 -0.1346372 0.3031285 0.8380054
000250 03 9f 7d be ef e1 40 bf c3 0f 46 bc 9e be f0 be
       -0.2476769 -0.7534475 -0.012088719 -0.4702043
000260 29 52 e5 bf a9 11 9f bf 04 9f a2 be bf 05 92 be
       -1.7915698 -1.2427264 -0.31761944 -0.2852001
000270 4e 6f 01 bf 9b d3 b7 3e ce ac 7b 3f 69 48 8e 3f
       -0.5056046 0.3590363 0.98310554 1.1115848
000280 82 68 b8 3f 97 71 a9 3f 45 9b 15 be d5 88 2d bf
       1.4406893 1.323779 -0.14610012 -0.67786914
000290 71 08 fd be a7 a3 9c be 2f 8a e5 bf b6 80 50 3d
       -0.49420503 -0.30593607 -1.7932795 0.050904
0002a0 07 0c 2a 3f a6 8f 07 3e 09 90 0a bd c6 4b 8e bf
       0.664246 0.13238391 -0.03382877 -1.1116874
0002b0 2f 6e 09 be 4f 16 81 3e 94 30 de be 15 01 12 3f
       -0.13420938 0.25212333 -0.43396437 0.570329
0002c0 cb 3f 12 be 54 ae ba bf 9b 76 48 bf 1a 04 40 bf
       -0.14282148 -1.4584451 -0.7830598 -0.7500626
0002d0 82 d1 b6 3e 00 bd 87 3f a3 c0 1d bf 1a 3b 2d 3f
       0.35706717 1.0604553 -0.61622065 0.67668307
0002e0 fd a3 3a bf 84 f9 3c be 85 2a 33 bf de fd 22 bf
       -0.72906476 -0.18454558 -0.69986755 -0.6366862
0002f0 9e 83 64 bf 77 7a f9 bd 76 8f e2 be 3a 47 2c c0
       -0.8926333 -0.121815614 -0.44250077 -2.6918473
000300 57 f6 b8 bf 79 02 af bf e0 9f 4f 3f 0c 3c 87 3f
       -1.4450177 -1.367263 0.81103325 1.05652
000310 e7 99 7d be 97 35 1d c0 95 fd 1c 3f 95 05 0f bf
       -0.2476574 -2.4563959 0.61324435 -0.5586789
000320 de e1 ed bf 76 4f 19 3f 83 02 cc 3d 62 d5 7e bf
       -1.8584554 0.5988687 0.099614166 -0.99544346
000330 cb 9a 97 3f eb 71 11 bf 74 4b 02 be da bf 92 3f
       1.1844114 -0.5681445 -0.12724096 1.1464798
000340 4e 83 f6 3f a0 17 4a bf 12 bc 89 be d2 02 52 bf
       1.9258821 -0.789423 -0.269013 -0.82035553
000350 b9 17 83 3e df 5a 8c be 7e e3 72 bf ae b4 e4 3f
       0.25604036 -0.2741308 -0.94878376 1.7867639
000360 f5 a1 7e be 49 54 e6 be ea cc 9b 3c 9e cf f8 3e
       -0.24866469 -0.4498618 0.01901861 0.485959
000370 61 b8 93 3f b7 9e a5 3e ca 48 96 bf ce 15 f0 bf
       1.1540643 0.32347652 -1.1740963 -1.8756654
000380 04 55 55 bf c1 73 9a bf 3d 0c 2f 3f f1 f2 94 3f
       -0.8333285 -1.2066575 0.6837805 1.163664
000390 b3 b2 96 3d 1b 3a 0f bf 4f 90 68 bd 38 4d 4b be
       0.07358303 -0.55948037 -0.05677825 -0.19853675
0003a0 f8 11 15 be 17 c8 d5 3e bf d5 20 be ff b4 1f bf
       -0.14557636 0.4175422 -0.15706538 -0.62385553
0003b0 bb 4e 39 3f f8 9a 0c 3f 65 2e 51 3e 7a ba 70 3f
       0.7238576 0.54923964 0.20427854 0.9403454
0003c0 c7 19 f8 3e a2 2b 97 bf 5f 1e 9d 3e 34 ce 98 be
       0.48457167 -1.1810191 0.30687234 -0.2984482
0003d0 c1 0f 48 3f a2 bc b4 3e d8 7e 25 bf e4 4c 31 40
       0.7814904 0.35300165 -0.64646673 2.770318
0003e0 75 6b c8 3f 5d 62 91 be c8 3c 89 3e 99 cd 0d 3f
       1.5657793 -0.28395358 0.26804185 0.5539184
0003f0 54 37 3f 3e c4 8e 8a 3e 1f 25 12 be 90 92 ba be
       0.1867345 0.27062047 -0.14271973 -0.36439943

Decoder.attn_layer.0.bias f4 [32]
000000 81 eb ae 3d d1 8f 46 bf 80 de 66 3f d6 54 95 3f
       0.085410126 -0.77563196 0.9018326 1.1666515
000010 1e 09 58 3f f7 47 d4 be a3 91 9a be 5f bf 13 3f
       0.8438891 -0.41461155 -0.30189237 0.57713884
000020 b4 e6 98 bf 02 f7 73 bf 02 e2 22 3e 04 7b ea 3e
       -1.1945405 -0.9529878 0.15906528 0.45796978
000030 44 ee 4a be b3 c0 7d bf ce f3 53 3e 4d 4a 59 bf
       -0.19817454 -0.9912216 0.20698473 -0.84879
000040 9d 5e 0c bf d0 7a 50 be 91 70 4d bf cf 18 94 bf
       -0.5483187 -0.20359349 -0.8024989 -1.1570071
000050 14 60 06 bf 98 de 8e 3f bb 84 73 3e e9 dd 7a bf
       -0.52490354 1.116168 0.23781101 -0.9799486
000060 eb 8e 81 bf 38 8c 5b bd 55 4b 69 3e a8 28 20 3f
       -1.012174 -0.05360052 0.22782643 0.62562037
000070 e2 8f b3 bf 5d 65 c0 3e 35 b8 d7 bb 79 a9 d0 bf
       -1.4028285 0.37577334 -0.0065832385 -1.6301719

Decoder.attn_layer.2.weight f4 [1, 32]
000000 e7 6f f8 3e 85 d0 72 3f 16 7b 71 bf 83 a5 3b 3f
       0.48522875 0.94849426 -0.9432844 0.73299426
000010 1e 22 ec 3f f1 7d 19 3f 38 ba a7 3f f9 2f 4e bf
       1.8447912 0.59957796 1.3103704 -0.8054195
000020 a8 23 46 40 b7 6e d7 bf ce b1 1f 3f d7 f9 0a 40
       3.0959263 -1.6830662 0.62380683 2.171499
000030 d5 30 f1 bf a9 82 67 3f 7a fb b3 bf e5 9c db 3f
       -1.8843027 0.90433747 -1.406112 1.7157255
000040 eb b7 87 3f ab c6 c6 3f a4 e2 1e bf 12 4a fe be
       1.0603002 1.5529379 -0.62064576 -0.49665886
000050 47 43 a9 bf 24 4c 1c bf 8f 09 c0 bf 32 06 15 3f
       -1.3223656 -0.6105368 -1.5002917 0.5821258
000060 85 d7 dd 3f 83 57 23 c0 f0 0d 6a bf e5 a2 0d c0
       1.7331396 -2.5522163 -0.91427517 -2.2130673
000070 bb cd b3 3f c7 ce 8f bf 74 85 29 bf 3e 12 2f 40
       1.4047159 -1.1234978 -0.6621926 2.7354884

Decoder.lstm_layer.weight_ih_l0 f4 [128, 1]
000000 c4 54 56 3f ab ec 90 bf a9 12 18 3f a8 62 9d be
       0.8372309 -1.1322225 0.59403473 -0.3073933
000010 99 d9 f3 3f a9 36 61 3f 00 77 06 3f 39 43 bb 3e
       1.905078 0.8797403 0.5252533 0.36574724
000020 54 85 08 bc 95 37 f7 bc 7e 0e 0a 3f b6 de 90 3f
       -0.008332569 -0.03017787 0.53928363 1.1317966
000030 51 c0 03 bf 2a 36 b4 be 53 db 8f 3e f2 22 3a bf
       -0.51465327 -0.35197574 0.2809702 -0.7270957
000040 ae ee b6 3f 85 ac f6 be 3b a1 56 bf 9f b5 bb 3e
       1.4291589 -0.48178497 -0.8383977 0.36662003
000050 c9 81 8d 3e 55 46 5a bf a9 cd d1 bf 00 30 f3 3d
       0.2763808 -0.8526357 -1.6390887 0.1187439
000060 44 65 66 bc 10 59 f9 3e 1e f6 a2 bf 03 0a 06 bf
       -0.01406223 0.48700762 -1.2731359 -0.52359027
000070 3e 5a 18 bd c2 31 4f bf a8 08 8b bd 5c 7d d7 3e
       -0.037195437 -0.809353 -0.067887604 0.4208783
000080 84 bc 2e be ea ea 86 3d f0 85 91 bf 4f 79 3e bf
       -0.170641 0.06587775 -1.1369 -0.7440385
000090 05 47 9a bf ff 0e 3a 3f b2 7b 0c 3f 50 c4 32 bc
       -1.2052923 0.7267913 0.54876244 -0.010911062
0000a0 59 a3 bb 3e c5 75 97 be 0e 2e e3 3e e6 73 98 bf
       0.36648062 -0.2958204 0.44371074 -1.1910369
0000b0 b2 8f ae bf 4b 8b be 3f ee d6 7b bf 95 84 ee 3e
       -1.3637602 1.4886259 -0.9837483 0.46585527
0000c0 49 7b 2f c0 b2 00 12 bf 65 7d 53 bf 1c 5d e9 3e
       -2.7418997 -0.5703231 -0.8261321 0.4557885
0000d0 bc ac 51 bf 78 16 a3 bf c2 15 50 be 81 0e b4 3d
       -0.81904197 -1.2741232 -0.203208 0.08791829
0000e0 74 06 8c bf 6a 5c 57 3d 3c 93 8a be ac 4a d0 bd
       -1.0939469 0.052578367 -0.27065456 -0.101704925
0000f0 71 ec f1 bf d1 84 c2 be 03 38 ca 3f a2 6a ee 3e
       -1.8900281 -0.37991956 1.5798343 0.4656573
000100 b2 8c 1c bf 63 b0 3f bf 49 03 4e 3f 7d 7f 64 3e
       -0.61152184 -0.7487852 0.8047376 0.22314258
000110 e8 19 b1 bf 01 cd 24 3f 30 be f2 be 8c 6a 08 bf
       -1.3836031 0.6437531 -0.47410727 -0.5328758
000120 f6 cd 17 bf a8 6f 80 3f e3 e3 ef bd 07 5e e1 be
       -0.59298646 1.0034075 -0.11713388 -0.4401705
000130 ec cc 63 3b a0 99 a7 be 8c b1 31 bf 5d 6d c4 3f
       0.0034759594 -0.32734394 -0.6941154 1.5345875
000140 e3 79 56 bd be f1 82 3e 41 a4 9c be 44 0d aa bf
       -0.052362334 0.2557506 -0.30594066 -1.3285298
000150 df 85 5e 3f be f4 9d 3f 99 51 26 bf 28 d0 a1 3f
       0.8692302 1.2340314 -0.6496826 1.2641649
000160 4d f4 9a 3e c0 87 3e bf e5 a2 d2 be 08 f5 19 bf
       0.30264512 -0.7442589 -0.41139904 -0.60139513
000170 c4 b6 8c 3e 8e 0d 7c be 4a 23 4b bf 86 84 a5 bf
       0.2748319 -0.24614546 -0.7935072 -1.2931068
000180 28 94 ae 3f 61 e9 93 bf a8 2e 43 3d 46 e8 b7 bf
       1.3638964 -1.1555597 0.047651917 -1.4367759
000190 5f c8 a8 3f 7b 1b 9d be 5f bd 45 3f 27 5f 1e 3f
       1.3186148 -0.30685028 0.7724208 0.6186394
0001a0 db e9 80 3e fb b3 88 be bb 07 ce 3e a6 99 4c 3f
       0.25178418 -0.26699814 0.40240273 0.7992195
0001b0 98 bb d8 be 96 16 4c bf d4 c5 6d bf 48 25 6f 3e
       -0.42330623 -0.79721963 -0.92879987 0.23354065
0001c0 ff e6 c7 3d ba 13 b5 3f 8f 88 a7 be 0b 15 f4 be
       0.09760856 1.4146645 -0.32721373 -0.47672305
0001d0 32 10 69 3f 9d f9 a9 be c4 79 37 3e 49 53 ad bf
       0.9104034 -0.33198252 0.17917544 -1.3541042
0001e0 d3 e9 a4 bf 7b 2b 9e 3e ad 0f 1e bf 24 78 80 bf
       -1.2883857 0.30892548 -0.6174267 -1.0036664
0001f0 86 fc ba 3e 57 a7 ac 3e 50 7a e1 3e eb 16 a0 3f
       0.36520785 0.3372142 0.4403863 1.2506994

Decoder.lstm_layer.weight_hh_l0 f4 [128, 32]
000000 1b 78 c3 3f 9a 2b b4 bf d4 76 f5 bd 3c 66 c3 3f
       1.5271028 -1.4075806 -0.11985555 1.5265574
000010 60 21 9a 3f fc b3 eb 3f 04 28 0b 40 9f c1 10 40
       1.2041435 1.8414302 2.1743174 2.2618177
000020 70 d2 07 40 b0 a6 85 be 46 57 d4 3e cf d5 1e 40
       2.122219 -0.26103735 0.41472834 2.4817998
000030 1a ee 88 bf 0a 29 78 be 47 44 b3 bf 5d 03 76 3f
       -1.0697663 -0.24234405 -1.4005212 0.9609888
000040 30 fb 01 40 aa 47 ce 3f c6 fd 8c bf 8a 7b 6a 3c
       2.0309563 1.611562 -1.1014946 0.014311681
000050 16 18 92 bf f3 41 7a 3e 1a f3 a4 bf 2e 6f 9c be
       -1.14136 0.2443922 -1.2886689 -0.30553573
000060 2d 6c 36 bf 97 8f dd 3f e1 85 99 bf b6 39 77 be
       -0.71258813 1.7309445 -1.1993982 -0.24143109
000070 2b 13 a7 be 5d 8c ea 3e 8f 6b 88 3f bf c3 3b bf
       -0.32631811 0.45810214 1.0657824 -0.7334556
000080 42 a6 a1 3f 22 c0 b7 bf e6 33 b5 3f 3e 28 b8 bf
       1.2628863 -1.4355509 1.4156463 -1.4387281
000090 89 ba e3 bc e8 7f e8 3f 51 9f 03 c0 4f 4f c4 bf
       -0.027798908 1.8164034 -2.056599 -1.5336703
0000a0 9d d0 ba bf 78 9a aa 3f ce 1e 27 3f 3e 57 4c 3f
       -1.4594914 1.332839 0.6528138 0.7982062
0000b0 59 ce 90 3e a7 f3 90 3e 81 b0 20 bf 33 b7 74 be
       0.2828243 0.28310892 -0.62769324 -0.2389801
0000c0 44 8d 7e bf e8 65 21 3f 2b 62 05 bf 1e ac 8f 3f
       -0.99434304 0.6304612 -0.5210292 1.1224401
0000d0 70 ad b3 be 64 39 5b 3f b7 4c 46 bf 8c 44 35 3f
       -0.3509326 0.85634446 -0.7746081 0.7080772
0000e0 d9 9d a1 bf 93 63 2b bf 96 c0 d1 bf b1 7f 90 bf
       -1.2626296 -0.66948813 -1.6386898 -1.1288968
0000f0 e3 38 fd be fa 77 88 3f 68 ae d0 bf e0 15 9d bf
       -0.49457464 1.0661614 -1.6303225 -1.2272301
000100 1f a4 8a 3e 81 34 37 3f 79 1a 9a bf 25 36 19 3e
       0.2707834 0.7156449 -1.2039329 0.14962061
000110 c6 25 81 be b6 18 63 c0 a9 e2 b9 3e a6 b3 c1 3f
       -0.2522413 -3.5483832 0.3630574 1.5132949
000120 54 5f ce 3f f8 2e e3 be 08 3d c5 be 8e 5a 55 3e
       1.6122842 -0.44371772 -0.38523126 0.20835325
000130 75 1d 7b 3f 57 4c bf bf b8 9c 29 40 66 74 99 bf
       0.9809182 -1.4945172 2.6501904 -1.1988647
000140 4f e0 d5 3f 79 ad 03 c0 f7 d3 b1 3f e5 81 9d 3e
       1.6709079 -2.057463 1.3892812 0.30763164
000150 84 4d b6 3d 9b 6a d6 bf e8 d8 b7 3b e4 d5 dc be
       0.08901504 -1.6751283 0.005610574 -0.43131936
000160 49 e9 92 bf f1 8a 82 3d 2a 8d aa bf d9 77 84 bf
       -1.1477443 0.06374157 -1.332433 -1.0349075
000170 2e dd 5c bf b0 65 62 3f 3d 04 03 40 1a 00 a6 be
       -0.86274993 0.8843641 2.0471337 -0.32421952
000180 ad fe 3b 40 97 a4 6b c0 38 d4 b6 be ec bd 6d be
       2.9374192 -3.6819208 -0.35708785 -0.2321698
000190 ff 8c 48 bf ab a2 53 be ef e6 b8 3f 18 79 56 3e
       -0.7834014 -0.20667522 1.4445475 0.20944631
0001a0 45 4b b2 3e b3 17 0b bf 80 9e 4d 3f 72 18 51 3f
       0.3482305 -0.5433304 0.80319977 0.81677926
0001b0 1a e7 5a 3e fe 65 66 3b 89 37 14 3e a5 9c 83 be
       0.21377221 0.0035156007 0.1447431 -0.25705448
0001c0 98 a4 e4 bf 69 c0 85 3f b9 e8 97 bf d6 0b 05 3f
       -1.786273 1.0449344 -1.1867896 0.51971185
0001d0 d8 ef 86 be 37 5f ea 3f 80 29 74 3f 98 82 54 3f
       -0.2635486 1.8310307 0.95375824 0.8301177
0001e0 20 15 12 c0 97 25 33 bf 19 22 b3 3e 81 03 4b bf
       -2.2825394 -0.6997923 0.34986952 -0.7930222
0001f0 ce 73 10 c0 97 0f af 3f bd ee 00 3f 41 ed 64 3f
       -2.2570682 1.3676633 0.50364286 0.8942452
000200 35 1e 94 3f 58 a5 90 3e 6c 61 5f 3f 12 39 ff 3f
       1.1571718 0.28251147 0.8725803 1.9939291
000210 26 9f 20 3f a4 b3 dd 3e 36 5e 2a 40 1a e3 a6 3f
       0.6274284 0.43301117 2.6620002 1.3038056
000220 62 15 a4 3f b7 71 96 bd cb 62 0b 3f d6 d5 4f bf
       1.2819026 -0.07345908 0.5444762 -0.8118566
000230 26 bf 8c 3f 60 4a ea 3e cf 4e ba bf bd e4 d4 3f
       1.0995834 0.4575987 -1.45553 1.6632305
000240 a2 0e c3 bc ce 6a e7 bf d7 38 51 3d 9f 4a a9 3f
       -0.023810688 -1.8079469 0.051079597 1.3225898
000250 91 70 b3 be b8 43 49 be a9 fe e9 bd a7 47 f5 3f
       -0.3504682 -0.19654739 -0.11425526 1.9162492
000260 65 54 58 bf c1 82 ac 3e da 45 14 bf 7d 74 aa 3f
       -0.84503776 0.33693507 -0.57919085 1.3316799
000270 ec ce a9 bf 7c 05 94 3f 50 cc a1 3f 30 2e b1 be
       -1.3266273 1.1564174 1.2640476 -0.3460555
000280 4b 41 07 c0 69 63 24 c0 5a c6 75 c0 5b 4e 37 c0
       -2.1133602 -2.5685675 -3.8402314 -2.8641574
000290 13 86 bc 3e 93 3a 8c 3f 0c 21 69 3f 34 46 ef be
       0.3682104 1.0955375 0.9106605 -0.46733248
0002a0 ed e6 de 3e c5 ce 35 3f cf 0a d5 3e 9b dc fb 3d
       0.43535557 0.7101863 0.4160981 0.122979365
0002b0 b2 4a a9 bf 5a c9 0b c0 bf 91 5f 3f ec d8 d2 3e
       -1.322592 -2.1841645 0.87331766 0.41181123
0002c0 c5 aa c5 bf c8 aa 3d 40 58 22 10 3d d9 3e b6 3d
       -1.544274 2.9635487 0.035189003 0.08898706
0002d0 4c 36 28 3f bd d1 87 be 57 7a 0d c0 e2 8f ce 3f
       0.6570785 -0.26527205 -2.210592 1.613766
0002e0 ce f6 c3 3e 62 6c a0 3f 4a 8c ca bf 25 f7 e4 3c
       0.38274235 1.2533076 -1.5824063 0.027949879
0002f0 20 6f 0f 3f a8 72 3a bf f0 5b fb 3d 10 2d 25 3f
       0.5602894 -0.728312 0.12273395 0.64521885
000300 1d 09 d6 bd d0 2c 07 3f 7a b7 80 bf 19 43 f4 bf
       -0.10450957 0.52802753 -1.0055993 -1.9082977
000310 92 22 53 3f 84 99 af 3f 3f 97 ab 3f 4a e7 34 bf
       0.82474625 1.3718724 1.3405532 -0.7066542
000320 c6 28 31 3f bf 9e 05 c0 0d 89 aa 3f 61 0c 86 3f
       0.6920284 -2.087814 1.3323075 1.0472528
000330 01 42 ea bf f1 f0 40 bf 54 6a ba 3e 86 c8 95 bf
       -1.8301393 -0.7536765 0.36409247 -1.170182
000340 e3 17 c1 bf 07 e5 85 3e f7 a4 50 3f 5b 60 8c 3f
       -1.5085415 0.26151296 0.81501716 1.0966905
000350 61 99 8c bf 20 ff 04 bf c1 f9 1f 3e 5c 16 c2 3f
       -1.0984308 -0.5195179 0.15622617 1.5163074
000360 2c 11 b4 3e 7e a9 7f bf 99 33 dc bf 1e e6 ab 3e
       0.3516935 -0.99868 -1.7203246 0.33574003
000370 5c d5 f3 3f bd 07 01 bf e5 c9 b6 3f d4 84 fd 3e
       1.9049487 -0.5040243 1.4280363 0.49515402
000380 1e 5d 92 be cc f6 9f bf 8c 40 9c bf 25 72 fd 3e
       -0.28586668 -1.2497191 -1.2207198 0.49501148
000390 2a 3e cf 3e f4 20 54 c0 39 43 ef be 69 34 21 bf
       0.40477115 -3.3145113 -0.46730974 -0.62970597
0003a0 4d 92 b4 3f b8 23 88 be 69 e3 a8 3f 8b 67 81 3f
       1.4107147 -0.2658975 1.31944 1.0109724
0003b0 f8 b3 2f 3f 06 54 bf bd 8b 04 9b 3f e5 0a 09 bf
       0.68633986 -0.09342198 1.2110761 -0.5353225
0003c0 98 6a 2b 3e 30 73 9e bf fb 7d a0 bf c3 ad 8e 3f
       0.16739881 -1.2378902 -1.2538446 1.1146778
0003d0 51 9a d9 bf 0d 97 84 bf e9 cf 48 3f 92 5a f0 bf
       -1.7000219 -1.0358597 0.78442246 -1.877764
0003e0 f2 41 96 bf 83 01 87 bd e5 68 5a bf 49 f9 78 3e
       -1.1738875 -0.06592085 -0.85316306 0.24313845
0003f0 ad 02 99 3f fa 5f c8 bc 7d b0 be 3f 92 71 8c 3f
       1.1953942 -0.024459828 1.489761 1.0972159
