result/ver5/ver5.pth (torch, 82778 bytes, 21 tensors)

weight_ih_l0 f4 [128, 6]
-0.765859 0.3936263 0.6957267 0.18200634 -0.5351798 0.38479468 1.0689884 -0.7741042
0.86880636 0.18661019 -0.39082062 -1.1864667 -0.43283904 -0.65613025 -0.9332937 -0.9282664
0.64117914 -1.6827937 -0.34883314 0.24223182 0.32723257 -0.69823045 0.76414645 0.4124587
-1.2842164 0.39958853 -0.30988455 1.330825 0.47436714 -0.13154103 0.50208807 -0.770593
-1.0448407 -0.1278892 0.07587207 -1.7295794 -0.8053237 -0.0988144 0.25903046 0.12817608
-0.9423346 0.013616503 0.29870564 2.1529567 1.2900757 -0.6476401 0.6378975 2.208486
1.3199495 -1.5693833 1.1956235 -0.03923961 0.9944719 -0.8794529 -0.6788084 0.13986018
-0.0371925 0.7075995 -0.16260284 -0.058776688 -1.0231996 -0.121943556 -0.26503208 0.18614472
1.3170865 0.08894347 -0.7497347 -0.8479637 -0.6180965 0.16414773 -0.5616674 -1.631188
0.17629226 1.4445848 0.88394386 -1.6319032 -2.9780421 2.387598 1.0218323 -0.027197257
0.9449824 -0.3099188 0.16338982 0.6233292 -0.7578552 -0.08730192 -0.61830217 -0.33203015
-0.6078633 -0.6953889 -0.31655884 0.64975595 -0.7727717 0.11023439 -0.8029571 0.86072147
0.7225698 1.266455 0.68287104 0.59816486 0.06402852 0.936963 0.2207202 0.24937664
0.3786982 0.4626 -0.3104519 0.6645383 -0.72381824 0.016980497 -0.03177449 0.71658033
0.975795 -0.79736567 1.9108057 0.44394338 0.49867213 -1.2169957 -0.98096293 -1.314559
-0.4196723 0.4231778 -0.7497854 0.22460422 -1.0125824 0.0946392 -0.82553977 -0.2700175
0.4666561 0.81656325 0.92868775 0.34753674 -0.85879433 -0.20845425 -0.43951553 0.37318465
-0.8887306 1.005451 0.17283183 1.0284624 0.8053048 -0.14262043 -1.3886945 0.41473117
0.11478691 1.1492236 0.9515346 1.1739315 0.07309574 2.2626655 0.592906 -2.1340353
0.23223428 -0.9474009 -0.54929215 -1.7847971 -1.5771848 -0.33645356 -0.7020515 -0.077795416
0.27210903 -0.3425444 -0.40817606 -0.40451002 0.38347873 -0.97646546 -2.1676972 0.44129416
0.16901991 1.2417332 1.3317164 -0.1018283 0.9586037 0.34803194 -0.9533301 0.8130402
0.22305244 -0.7695448 0.87528926 0.65417653 -0.5731962 -0.37677285 -2.3583186 -1.3063291
-0.43744373 -1.1718847 -0.6882184 0.5603386 -1.0105405 0.2870348 -0.41352156 -0.4946751
-1.2341942 -0.2907959 -1.7389947 1.2616898 0.6757916 -1.2559915 0.98009646 0.77716005
0.5962985 0.23545663 0.20859428 -0.1685171 1.0763441 0.1998784 -0.45976868 -0.5095236
-0.6260114 -0.87499225 0.97319186 0.26878327 1.4058424 0.5396786 0.31412026 0.1523978
0.9537168 0.87560225 1.122111 1.8182062 1.3474519 0.04804784 1.1406317 0.7652112
0.14221759 0.0117391255 0.0769257 -1.0034175 1.2886229 0.16579495 0.62768495 1.8516961
0.0565891 -0.11690283 1.4945409 1.115342 1.3543422 -0.80591697 0.36820593 0.38727006
1.0079175 -2.257046 0.87216383 0.36889088 0.620176 -0.98879355 0.91851574 -0.43668282
0.98041195 0.15491447 0.90926635 0.14260395 -0.057947107 0.41450575 1.4203053 2.0032783
00000000: 560f 44bf 6389 c93e 251b 323f df5f 3a3e
00000010: 8b01 09bf cf03 c53e 9dd4 883f b12b 46bf
00000020: 186a 5e3f be16 3f3e a419 c8be 24de 97bf
00000030: 149d ddbe 27f8 27bf 56ec 6ebf dea2 6dbf
00000040: 5124 243f c965 d7bf 429a b2be 9e0b 783e
00000050: 078b a73e 3bbf 32bf 1a9f 433f c92d d33e
00000060: 3461 a4bf de96 cc3e 30a9 9ebe 7958 aa3f
00000070: 40e0 f23e b1b2 06be d888 003f 9545 45bf
00000080: 57bd 85bf 63f5 02be d162 9b3d dc62 ddbf
00000090: b229 4ebf 345f cabd a49f 843e 9740 033e
000000a0: d73c 71bf c117 5f3c f2ef 983e 0bca 0940
000000b0: 3321 a53f becb 25bf 404d 233f d657 0d40
000000c0: 1bf4 a83f 8de1 c8bf 310a 993f b7b9 20bd
000000d0: b695 7e3f d323 61bf 63c6 2dbf 8237 0f3e
000000e0: 2a57 18bd 3e25 353f 5c81 26be d3bf 70bd
000000f0: 34f8 82bf 8bbd f9bd 49b2 87be b99c 3e3e
00000100: 4a96 a83f fe27 b63d 9dee 3fbf 2614 59bf
00000110: 923b 1ebf 5816 283e 6fc9 0fbf c5ca d0bf
00000120: f585 343e 28e8 b83f 254a 623f 34e2 d0bf
00000130: 3e98 3ec0 68ce 1840 67cb 823f c8cc debc
00000140: 5eea 713f adad 9ebe a94f 273e 8192 1f3f
00000150: cc02 42bf 59cb b2bd 0d49 1ebf dbff a9be
00000160: ee9c 1bbf 0205 32bf 0014 a2be 6856 263f
00000170: 5ed4 45bf 91c2 e13d 998e 4dbf 3e58 5c3f
00000180: 56fa 383f 331b a23f a3d0 2e3f 5521 193f
00000190: 6221 833d cfdc 6f3f 7a04 623e 975c 7f3e
000001a0: bbe4 c13e e8d9 ec3e 8df3 9ebe 2f1f 2a3f
000001b0: 274c 39bf af1a 8b3c f825 02bd cf71 373f
000001c0: b3cd 793f 2820 4cbf 4895 f43f 8c4c e33e
000001d0: f451 ff3e 84c6 9bbf 6320 7bbf 7843 a8bf
000001e0: 4adf d6be c3aa d83e f0f1 3fbf a6fe 653e
000001f0: 4d9c 81bf 32d2 c13d 9356 53bf bc3f 8abe
00000200: 8ced ee3e 4a0a 513f 7bbe 6d3f 56f0 b13e
00000210: f2d9 5bbf 0875 55be 2e08 e1be 0f12 bf3e
00000220: d983 63bf 9eb2 803f d4fa 303e a8a4 833f
00000230: 7528 4e3f 170b 12be bec0 b1bf a557 d43e
00000240: 6615 eb3d c219 933f c697 733f 6343 963f
00000250: 38b3 953d 83cf 1040 b0c8 173f 0994 08c0
00000260: d3ce 6d3e de88 72bf 699e 0cbf 3b74 e4bf
00000270: 31e1 c9bf a443 acbe a6b9 33bf 3453 9fbd
00000280: e051 8b3e fb61 afbe 74fc d0be f01b cfbe
00000290: 5357 c43e a4f9 79bf 8dbb 0ac0 4ff1 e13e
000002a0: 8e13 2d3e 1df1 9e3f af75 aa3f 5b8b d0bd
000002b0: 0d67 753f 3e31 b23e 710d 74bf 6723 503f
000002c0: dc67 643e e300 45bf f512 603f 1d78 273f
000002d0: fcbc 12bf 5fe8 c0be b1ee 16c0 cb35 a7bf
000002e0: a0f8 dfbe 5100 96bf 152f 30bf 5a72 0f3f
000002f0: 6459 81bf 3af6 923e 19b9 d3be 0e46 fdbe
00000300: 13fa 9dbf 33e3 94be 6197 debf 0d7f a13f
00000310: ae00 2d3f 54c4 a0bf 9ae7 7a3f f6f3 463f
00000320: 05a7 183f 8b1b 713e bd99 553e bf8f 2cbe
00000330: a5c5 893f ecac 4c3e cd66 ebbe 2370 02bf
00000340: 4842 20bf 7eff 5fbf 1a23 793f f69d 893e
00000350: a5f2 b33f 6028 0a3f 5fd4 a03e 2b0e 1c3e
00000360: c926 743f 7827 603f 55a1 8f3f fbba e83f
00000370: 4e79 ac3f d0cd 443d 3800 923f e2e4 433f
00000380: 7da1 113e 7655 403c 398b 9d3d fc6f 80bf
00000390: 98f1 a43f 27c6 293e f6af 203f 6104 ed3f
000003a0: f9c9 673d c06a efbd 1e4d bf3f 87c3 8e3f
000003b0: 165b ad3f 9350 4ebf 7d85 bc3e 4348 c63e
000003c0: 7103 813f 7173 10c0 2146 5f3f 44df bc3e
000003d0: dbc3 1e3f 9321 7dbf d923 6b3f e494 dfbe
000003e0: 47fc 7a3f e6a1 1e3e aec5 683f c506 123e
000003f0: f259 6dbd 193a d43e 90cc b53f b635 0040

weight_hh_l0 f4 [128, 32]
2.1044893 -0.57582134 0.9362694 -0.41407022 0.55480725 -1.8033715 0.37358487 -0.6975569
2.277893 0.32705963 0.3821911 -0.79685485 -1.5426848 1.0314171 0.8390317 0.3310637
0.77499545 -0.5482775 -1.1025703 1.6665437 0.3902243 1.4646537 -0.18684946 -0.17634419
0.4246324 0.5427434 -0.25193584 1.1267669 -0.024897898 -0.58328193 0.5673794 0.17512366
0.6402603 -0.25601223 0.5245725 -0.91195136 1.2169632 -0.24221492 -0.10054791 -1.0114844
-0.5082439 1.1333828 -1.07334 -1.7997584 0.09458022 0.25431773 -0.4307661 1.9400629
1.2558212 0.12635396 1.2838966 2.0780451 -1.3769661 0.95184696 -0.7912308 0.14761253
-0.6326946 0.7971795 -0.0025860488 0.61124456 0.51705116 0.119738 0.66091466 0.3897895
0.18582906 0.1832163 -0.58392936 0.088925146 -0.57013035 0.14160842 -0.43359014 -1.2284919
-0.6602612 -1.0267143 0.11372817 0.7460617 0.75465614 -1.0865703 -1.0938044 -2.1285508
-0.03606099 1.4476696 -0.3458242 0.34925976 1.8038714 -0.17427124 1.3587089 0.9509291
-0.47023806 -0.5912194 0.6467918 0.22291328 -0.6909142 0.3626248 -0.5473391 0.08175788
0.94812495 -0.17592508 -0.19223097 0.53007877 0.64099324 0.9110823 -0.03896753 0.4709996
-0.13768482 -0.15367843 0.14668834 0.7089329 -1.6660876 1.267084 -0.33360004 0.15149212
-0.10849573 -0.049487356 -0.69054645 -0.57312125 0.8687014 1.1047012 0.5761108 0.112629615
-0.27339762 -0.9583735 -1.4182373 0.7121038 0.4152021 0.8193695 -1.9595164 0.48459333
0.5821201 -0.86434484 -0.35533404 0.81325686 -2.3788855 -0.035619322 -0.08569319 -0.29115978
-0.6407317 -1.1380421 -0.37047687 0.04569759 -0.013399856 -0.6220639 0.5402495 -1.035357
-0.21788631 1.1799678 -0.5726278 0.5621261 0.3413659 -0.10301579 -0.19472092 1.070355
-0.41473565 -1.0683872 0.24020942 -0.55573845 -0.20304444 -0.46066058 -1.2755305 0.1272189
-0.17650959 -0.44383246 0.07778922 0.7668615 -0.21287455 0.5954078 1.2425961 0.0027483935
0.5654824 0.1372789 -0.5141737 -0.34959808 -0.16921002 1.5498881 -0.5780019 -0.9122548
-0.77869517 -1.2421446 -0.2733267 0.22490248 -0.16287738 0.5414198 0.04449308 -1.1833495
1.3642533 0.28776625 -2.1524258 -0.7122261 0.12647225 -1.808766 0.4905983 -0.36937538
-1.1538954 0.352336 -1.3001313 -0.13845934 -1.0084653 -0.48672742 0.88069487 -0.8377311
0.59901106 -0.006351461 -0.23054075 1.5123259 -0.41605604 -0.6114805 -0.17617114 0.037937477
0.7527537 0.5503835 0.75623786 0.43835008 0.11002594 -0.92826974 -0.6785405 -0.12277731
-1.2431474 -0.41553655 -0.6817598 -0.15081123 0.565537 0.5796513 -1.233599 -0.586994
0.3208528 -0.50933427 0.48692122 0.10728199 -0.121678755 -0.15484546 -1.1681463 0.20616756
1.2007856 -0.11376862 0.88164014 -0.5167277 -0.22642842 1.0158254 2.616657 -0.309348
0.027916433 -0.030036628 -0.46925977 0.9992388 0.7179383 1.2581987 0.1903017 0.33976284
-0.1845407 -0.45699963 0.03249682 1.9515413 0.6089695 0.33240387 -1.7373749 1.1967597
00000000: f4af 0640 0769 13bf 5aaf 6f3f 0301 d4be
00000010: d907 0e3f e1d4 e6bf 8446 bf3e 1793 32bf
00000020: 00c9 1140 5c74 a73e 8dae c33e aefe 4bbf
00000030: b276 c5bf 7a05 843f c8ca 563f 2e81 a93e
00000040: 1a66 463f ea5b 0cbf 0621 8dbf 4e51 d53f
00000050: 7bcb c73e c679 bb3f 7755 3fbe 9293 34be
00000060: 6b69 d93e 3bf1 0a3f bcfd 80be e639 903f
00000070: adf6 cbbc f751 15bf c73f 113f 9e53 333e
00000080: 19e8 233f 0914 83be 624a 063f a575 69bf
00000090: 73c5 9b3f 3007 78be 10ec cdbd 5278 81bf
000000a0: 461c 02bf b012 913f 3563 89bf 7c5e e6bf
000000b0: 46b3 c13d ef35 823e 608d dcbe fb53 f83f
000000c0: c0be a03f ef62 013e b956 a43f b1fe 0440
000000d0: 6d40 b0bf 3eac 733f 1a8e 4abf bd27 173e
000000e0: 46f8 21bf f513 4c3f b37a 29bb 867a 1c3f
000000f0: 775d 043f 3239 f53d b431 293f 7d92 c73e
00000100: f949 3e3e 0e9d 3b3e 657c 15bf 631e b63d
00000110: 10f4 11bf cc01 113e 87ff ddbe 393f 9dbf
00000120: e106 29bf 606b 83bf 51ea e83d e6fd 3e3f
00000130: 2531 413f bc14 8bbf c801 8cbf 2d3a 08c0
00000140: b0b4 13bd 3d4d b93f df0f b1be 2dd2 b23e
00000150: 42e5 e63f 2974 32be 2cea ad3f 1770 733f
00000160: 0bc3 f0be 285a 17bf 2694 253f 6143 643e
00000170: c1df 30bf f5a9 b93e 6a1e 0cbf ad70 a73d
00000180: 51b8 723f b425 34be 32d8 44be 3eb3 073f
00000190: 2218 243f b13c 693f 6b9c 1fbd dc26 f13e
000001a0: 40fd 0cbe e15d 1dbe 7835 163e a07c 353f
000001b0: 5c42 d5bf cf2f a23f a0cd aabe c020 1b3e
000001c0: 0233 debd 41b3 4abd a7c7 30bf 13b8 12bf
000001d0: 3763 5e3f d966 8d3f ff7b 133f 5baa e63d
000001e0: c6fa 8bbe f757 75bf cd88 b5bf 6f4c 363f
000001f0: 5f95 d43e 33c2 513f 6fd1 fabf 9e1c f83e
00000200: d305 153f b445 5dbf 58ee b5be 9a31 503f
00000210: a93f 18c0 91e5 11bd e97f afbd e512 95be
00000220: fe06 24bf 5dab 91bf 25af bdbe 652d 3b3d
00000230: 128b 5bbc 943f 1fbf cb4d 0a3f 9486 84bf
00000240: 971d 5fbe 2f09 973f bc97 12bf 7fe7 0f3f
00000250: 83c7 ae3e f1f9 d2bd ec64 47be 6501 893f
00000260: 3b58 d4be e9c0 88bf 75f9 753e e044 0ebf
00000270: e2ea 4fbe b4db ebbe 9544 a3bf ac45 023e
00000280: eebe 34be 023e e3be f44f 9f3d 0951 443f
00000290: c9fb 59be a56c 183f 640d 9f3f 641e 343b
000002a0: 74c3 103f d792 0c3e e3a0 03bf 85fe b2be
000002b0: 6445 2dbe bc62 c63f eff7 13bf 8889 69bf
000002c0: 9158 47bf 98fe 9ebf 7af1 8bbe d64c 663e
000002d0: 54c9 26be 7d9a 0a3f 603e 363d ff77 97bf
000002e0: da9f ae3f 1956 933e 58c1 09c0 7354 36bf
000002f0: f181 013e a585 e7bf b32f fb3e c51e bdbe
00000300: d8b2 93bf 6265 b43e b46a a6bf 49c8 0dbe
00000310: 6415 81bf 5634 f9be 3875 613f 8c75 56bf
00000320: ca58 193f eb1f d0bb e012 6cbe e593 c13f
00000330: 4c05 d5be fc89 1cbf 3566 34be 5464 1b3d
00000340: 77b4 403f efe5 0c3f ce98 413f 6c6f e03e
00000350: 4855 e13d 16a3 6dbf d5b4 2dbf ac72 fbbd
00000360: 741f 9fbf 35c1 d4be cf87 2ebf 426e 1abe
00000370: 08c7 103f 0764 143f 92e6 9dbf 3d45 16bf
00000380: d146 a43e bb63 02bf bd4d f93e a9b6 db3d
00000390: b632 f9bd cf8f 1ebe d185 95bf 971d 533e
000003a0: 58b3 993f 86ff e8bd 2bb3 613f 4448 04bf
000003b0: dadc 67be 9106 823f 4f77 2740 dc62 9ebe
000003c0: 01b1 e43c 600f f6bc d142 f0be 1dce 7f3f
000003d0: ceca 373f a80c a13f 73de 423e 65f5 ad3e
000003e0: 3df8 3cbe dbfb e9be 631b 053d 1bcc f93f
000003f0: 6de5 1b3f d730 aa3e 4d62 debf 6c2f 993f

bias_ih_l0 f4 [128]
-0.2462617 -0.24832405 0.33548337 -0.75141776 -0.48267245 0.45609275 -0.1740978 -0.71343356
-0.06378888 -0.051351286 -0.83824617 -0.86115265 -0.46020377 -0.35123387 0.17629503 -0.64067364
-0.56784356 -0.43057415 0.042265803 -0.03084453 -0.6105358 -0.046377864 -0.013339639 0.22806805
-0.7593643 -0.4800073 -0.5220908 -0.43316206 -0.55789244 -0.85019225 -0.1878046 -0.36794043
-0.5751143 0.022625431 -0.73753643 1.0074344 0.13845386 -0.9098538 -0.067859314 -0.67628664
-0.32244185 0.44625056 0.7901314 -0.33127153 -0.20224896 -0.36676654 -1.195976 0.7323934
0.274255 0.32694584 -0.41581845 -0.023868507 0.61426944 0.004182316 0.7267603 -0.31833267
-0.4131339 -0.80282843 0.96756274 -0.9835302 -0.66493416 0.24653919 -0.49504247 -0.7447523
0.13524902 0.020419639 0.22844034 -0.020427767 -0.14633033 -0.31600818 0.6829187 0.07010697
-0.04974188 -0.20927641 -0.25926298 -0.49072272 0.07638251 -0.3257907 0.10184575 0.13878036
-0.20527638 -0.5130847 -0.072926335 0.143989 -0.163944 0.056579635 -0.10228262 -0.25968337
0.057729 0.2768576 -0.23323086 -0.19438414 -0.12620561 0.13644302 0.27232257 0.25850382
-0.55746984 -0.45679337 -0.32496813 -0.50835735 -0.020151282 -0.5025459 -0.75855106 -0.7819323
0.057588506 -0.026556797 -0.59269017 -0.24945897 -0.4592332 0.00010708643 0.15599644 -0.48246625
-0.48209295 -0.8155535 0.2944392 -0.27853775 -0.2941219 -0.66415274 -0.12366738 -0.37451443
-0.65845317 -0.47883362 -0.62960076 -0.3371316 -0.5033015 -0.54082394 -0.79136884 -0.69997346
00000000: 072c 7cbe a948 7ebe 7ac4 ab3e ea5c 40bf
00000010: d820 f7be fd84 e93e b246 32be 95a3 36bf
00000020: bfa3 82bd ba55 52bd 4d97 56bf 8074 5cbf
00000030: d49f ebbe edd4 b3be af86 343e 3003 24bf
00000040: 325e 11bf 3774 dcbe e81e 2d3d abad fcbc
00000050: 134c 1cbf b7f6 3dbd 808e 5abc ac8a 693e
00000060: b365 42bf 84c3 f5be bea7 05bf 6bc7 ddbe
00000070: 0ad2 0ebf 33a6 59bf d94f 40be b062 bcbe
00000080: b13a 13bf f858 b93c 30cf 3cbf 9cf3 803f
00000090: d9c6 0d3e 2eec 68bf d3f9 8abd 1f21 2dbf
000000a0: 1917 a5be f47a e43e 0d46 4a3f 6c9c a9be
000000b0: 5a1a 4fbe d3c8 bbbe be15 99bf 227e 3b3f
000000c0: 276b 8c3e 7265 a73e 28e6 d4be e387 c3bc
000000d0: c340 1d3f cf0b 893b f70c 3a3f 80fc a2be
000000e0: 4986 d3be 2a86 4dbf 31b2 773f a3c8 7bbf
000000f0: 2039 2abf c574 7c3e 3576 fdbe 16a8 3ebf
00000100: b87e 0a3e 1647 a73c 44ec 693e 2258 a7bc
00000110: 9ed7 15be d3cb a1be c3d3 2e3f 3e94 8f3d
00000120: 24be 4bbd 8e4c 56be 1ebe 84be 0240 fbbe
00000130: 6f6e 9c3d 0ace a6be 8194 d03d 701c 0e3e
00000140: f933 52be 8559 03bf 675a 95bd da71 133e
00000150: f0e0 27be 0cc0 673d 8d79 d1bd 38f5 84be
00000160: 3e75 6c3d 48c0 8d3e 12d4 6ebe a30c 47be
00000170: 0b3c 01be b8b7 0b3e dd6d 8b3e 9d5a 843e
00000180: 58b6 0ebf d2e0 e9be 3962 a6be b523 02bf
00000190: 4d14 a5bc d9a6 00bf 6730 42bf b72c 48bf
000001a0: ede1 6b3d a48d d9bc 8bba 17bf 2c72 7fbe
000001b0: 9d20 ebbe 9793 e038 88bd 1f3e d105 f7be
000001c0: e3d4 f6be 1dc8 50bf bcc0 963e 809c 8ebe
000001d0: 2597 96be ea05 2abf 5345 fdbd 5bc0 bfbe
000001e0: 6390 28bf ae29 f5be 842d 21bf 839c acbe
000001f0: 5ed8 00bf 7073 0abf 2697 4abf 7631 33bf

bias_hh_l0 f4 [128]
-0.261048 -0.08433834 0.55743784 -0.5492775 -0.3211404 0.47138485 -0.19926922 -0.89760894
-0.21935143 -0.38005298 -0.8288121 -0.7984263 -0.5332292 -0.247144 0.34494993 -0.87709033
-0.34528634 -0.29110402 -0.091444276 -0.05138999 -0.7220501 0.26978236 -0.05314451 0.25472817
-0.6736536 -0.26213202 -0.6177389 -0.4604893 -0.33776784 -1.0073625 -0.07675258 -0.1524025
-0.27450988 -0.057611857 -0.76983505 0.9885695 0.17092833 -1.0236257 -0.0003905137 -0.9156234
-0.58795065 0.7163659 0.76738155 -0.23448114 -0.48731613 -0.20799007 -1.4437245 0.5022517
0.2693187 0.20011072 -0.3999478 -0.28574914 0.4059379 -0.32733607 0.9531268 -0.28468466
-0.43755904 -0.84216404 1.0075258 -0.77513194 -0.6451356 0.44075465 -0.37132862 -0.68574184
0.15198272 0.024346 0.26521325 -0.20326331 -0.08383523 -0.16469517 0.6465892 -0.09887239
-0.23795678 -0.3927289 -0.07104266 -0.3168469 0.20355877 -0.3927319 0.321084 0.36686918
0.016757116 -0.25833046 -0.32507724 0.19258541 -0.3144996 0.09576842 0.10092721 -0.15434249
-0.25460815 0.05011533 -0.27084982 -0.306977 -0.15341786 0.15796185 0.42471462 0.15216553
-0.41844833 -0.3059496 -0.2289447 -0.699236 0.01894237 -0.18559642 -0.73338145 -0.6053819
-0.13945106 -0.026580416 -0.86620134 -0.31666383 -0.5749039 -0.15571952 0.13491772 -0.46479833
-0.5053509 -0.89616543 0.3054512 -0.04794628 -0.40476048 -0.80947715 -0.36589205 -0.54752946
-0.9141504 -0.55810183 -0.6006535 -0.4500912 -0.54089236 -0.40419424 -0.8806404 -0.46880066
00000000: 15a8 85be 94b9 acbd 3fb4 0e3f 739d 0cbf
00000010: 846c a4be 5b59 f13e 3b0d 4cbe b3c9 65bf
00000020: a99d 60be 4e96 c2be 082d 54bf aa65 4cbf
00000030: b581 08bf 5113 7dbe 479d b03e fe88 60bf
00000040: 5fc9 b0be 960b 95be 2347 bbbd 4f7e 52bd
00000050: 46d8 38bf ea20 8a3e 0fae 59bd bb6b 823e
00000060: 9074 2cbf 2b36 86be 2324 1ebf 41c5 ebbe
00000070: e8ef acbe 41f1 80bf 7530 9dbd 670f 1cbe
00000080: 8f8c 8cbe 69fa 6bbd e913 45bf e412 7d3f
00000090: d607 2f3e 2b06 83bf ddbd ccb9 4c66 6abf
000000a0: ef83 16bf c163 373f 1e73 443f d31b 70be
000000b0: 8081 f9be 59fb 54be f7cb b8bf 9193 003f
000000c0: 24e4 893e d3e9 4c3e f5c5 ccbe b64d 92be
000000d0: 18d7 cf3e 9898 a7be 1e00 743f 30c2 91be
000000e0: bd07 e0be 1098 57bf 9bf6 803f 0c6f 46bf
000000f0: 9b27 25bf 98aa e13e c91e bebe c78c 2fbf
00000100: 5ca1 1b3e 4371 c73c 08ca 873e 4224 50be
00000110: ceb1 abbd daa5 28be df86 253f 9c7d cabd
00000120: f1aa 73be c313 c9be d07e 91bd c239 a2be
00000130: b671 503e 2814 c9be 1f65 a43e 47d6 bb3e
00000140: 3846 893c e443 84be 8670 a6be 1c35 453e
00000150: 1706 a1be 3c22 c43d edb2 ce3d f50b 1ebe
00000160: 005c 82be bb45 4d3d d4ac 8abe 172c 9dbe
00000170: 9219 1dbe c0c0 213e 3274 d93e 48d1 1b3e
00000180: dc3e d6be 6da5 9cbe 7b70 6abe 2101 33bf
00000190: 072d 9b3c fd0c 3ebe e3be 3bbf 4ffa 1abf
000001a0: 42cc 0ebe 2cbf d9bc 5fbf 5dbf c321 a2be
000001b0: e72c 13bf f074 1fbe df27 0a3e 0cfa edbe
000001c0: ad5e 01bf 196b 65bf 1a64 9c3e 5263 44bd
000001d0: c43c cfbe e539 4fbf 3456 bbbe e42a 0cbf
000001e0: c305 6abf c3df 0ebf 6ec4 19bf 5b72 e6be
000001f0: ec77 0abf 8cf2 cebe a671 61bf a406 f0be

weight f4 [20, 84]
0.16091119 0.4799358 0.679167 -1.027206 0.7941475 -0.4268744 1.9675741 0.62964004
-0.22645946 0.52938706 0.19941059 0.08148074 0.4270349 -0.29180482 1.1332589 0.7717421
0.21769747 -0.64268595 -0.67183304 -0.093069755 -0.52699506 -1.2928919 -1.300911 -0.8020551
-0.21225871 -0.09980407 0.47641626 -1.607985 0.32261056 0.47918352 0.7224688 -0.03753461
0.27075112 0.4226411 0.63801163 -0.9178108 0.20257704 -0.572084 1.5151362 0.4912409
-0.13196056 0.37364683 -0.01779639 0.0529817 0.9763758 -0.51402617 1.3969932 0.5134566
0.12514487 -0.46125317 -0.87807953 0.46282458 -0.7084921 -0.7896951 -1.4770329 -0.45234817
-0.37690988 0.11607518 0.4846939 -1.2373619 0.22812596 0.79262495 1.2843226 0.5783677
0.989618 0.48235303 -0.9938948 -0.041442968 0.5119082 -0.22489986 0.23363075 -0.62379795
-0.6991534 -0.842739 0.03022302 -0.42555565 -0.37455267 -0.3102325 -0.32549867 0.22917408
0.41158372 0.61604494 0.80162 0.7229902 0.19659859 1.2060869 1.6205977 -1.395281
0.30650142 -0.9126794 2.150507 0.8772465 -0.04417212 0.5945208 -0.062343422 -0.84163547
-1.1949391 -0.4391459 0.22463587 1.0951421 0.14195952 0.34340864 -0.11764942 -0.6495467
-1.0947375 -0.24442595 -1.2693502 -0.36364433 -0.68272465 0.30970317 -0.1157657 -1.4985421
0.22627313 2.0583646 1.1731826 0.69071186 0.48971826 1.123512 1.6190088 -1.4376627
0.8361709 -0.9598282 2.6015682 0.6588719 -0.13918267 0.36934438 -0.36700347 -0.9506841
-1.0867473 -0.4218443 0.51009506 1.0008967 -0.13027146 -0.6871366 -0.2318818 -0.30611938
-1.6576608 -0.032480042 -1.1744008 -1.099381 -0.28623244 0.40637 -0.10242428 -2.01616
0.055592407 1.8590391 1.368612 0.37944254 0.16526054 -0.63968796 0.0048583397 -0.44478428
-0.95844746 0.27036697 0.77811384 0.55145496 -0.5559886 -0.71966994 0.4298117 -0.74628425
-0.071748234 0.42099735 0.34214357 1.0564052 -0.0058965907 -0.26395714 -0.29996446 0.9650755
1.4823352 0.437599 1.2609597 0.7732209 0.084074415 -0.58837605 -0.16263656 0.25316167
0.75482476 0.8124738 -0.8260512 -0.10766619 -0.6499248 -0.19411097 1.2519728 0.48856625
-1.1343721 -0.4335791 -0.058889046 0.27365032 -0.9131183 0.8493464 -0.4162279 -1.3118832
-0.37071842 1.5540783 0.22475807 0.046904806 0.27717677 -0.23055103 0.5843168 -1.2404991
0.9742041 0.43510067 1.4318122 -0.081983626 0.5733365 -1.2708056 0.10605779 -0.051012564
0.9118248 0.8346612 0.12037251 -0.24537717 -0.17238288 -0.19751272 1.1667539 0.74410427
-1.205208 -0.99245054 -0.3354665 -0.09731061 -1.3244079 0.73668164 -0.5319347 -1.0623094
-0.35636687 1.079948 -0.18893474 -0.47416142 -0.06313853 0.38804245 0.68632203 -1.1607093
0.7738885 1.7638191 0.69831717 0.30137062 -0.2886699 -0.21160796 -0.76186 -1.3535541
-0.21362348 0.25420895 0.40531155 0.5678204 0.008229741 -0.05980704 -0.22986534 -0.7269269
-0.11534861 -0.56442374 -0.14523399 -0.10462294 -0.7778153 -0.36062214 0.88192344 -0.74113226
00000000: e7c5 243e 25ba f53e e3dd 2d3f 7c7b 83bf
00000010: 404d 4b3f 488f dabe 78d9 fb3f 1730 213f
00000020: fde4 67be e985 073f 4a32 4c3e 60df a63d
00000030: 52a4 da3e 7167 95be a10e 913f e490 453f
00000040: 16ec 5e3e 1187 24bf 40fd 2bbf 5b9b bebd
00000050: 26e9 06bf 7b7d a5bf 4084 a6bf 7c53 4dbf
00000060: 595a 59be 1466 ccbd d5ec f33e 74d2 cdbf
00000070: 362d a53e 8b57 f53e b7f3 383f e4bd 19bd
00000080: e49f 8a3e 6a64 d83e bb54 233f a6f5 6abf
00000090: 5b70 4f3e 1974 12bf fcef c13f ed83 fb3e
000000a0: ab20 07be a34e bf3e bcc9 91bc 5703 593d
000000b0: c4f3 793f 3897 03bf acd0 b23f e471 033f
000000c0: fa25 003e 6029 ecbe d2c9 60bf 58f7 ec3e
000000d0: bd5f 35bf 7529 4abf 6a0f bdbf 2e9a e7be
000000e0: 55fa c0be d3b8 ed3d cd29 f83e e061 9ebf
000000f0: da99 693e 78e9 4a3f af64 a43f e80f 143f
00000100: 9b57 7d3f faf6 f63e e46f 7ebf 1ac0 29bd
00000110: 6a0c 033f 264c 66be e63c 6f3e 39b1 1fbf
00000120: b8fb 32bf bebd 57bf 4496 f73c 6ee2 d9be
00000130: 5ec5 bfbe cbd6 9ebe c3a7 a6be 9cac 6a3e
00000140: 1abb d23e 1fb5 1d3f f836 4d3f e315 393f
00000150: 2451 493e 0e61 9a3f bf6f cf3f 9198 b2bf
00000160: c1ed 9c3e 5ba5 69bf e8a1 0940 3a93 603f
00000170: d3ed 34bd 8432 183f d15b 7fbd 6c75 57bf
00000180: c4f3 98bf bbd7 e0be f206 663e 9e2d 8c3f
00000190: d65d 113e 42d3 af3e 2ef2 f0bd b148 26bf
000001a0: 5c20 8cbf cc4a 7abe 117a a2bf 972f babe
000001b0: 0bc7 2ebf 6a91 9e3e 9116 edbd 3ad0 bfbf
000001c0: 25b4 673e 3fbc 0340 d92a 963f 7ed2 303f
000001d0: 5abc fa3e 3ecf 8f3f ae3b cf3f 5505 b8bf
000001e0: 4c0f 563f 4db7 75bf 1880 2640 d4ab 283f
000001f0: e785 0ebe b51a bd3e e1e7 bbbe 0860 73bf
00000200: 891a 8bbf fafb d7be 9795 023f 621d 803f
00000210: e265 05be 2fe8 2fbf 6c72 6dbe aebb 9cbe
00000220: 3b2e d4bf cb09 05bd c452 96bf 84b8 8cbf
00000230: 0f8d 92be bb0f d03e d2c3 d1bd c408 01c0
00000240: ddb4 633d fef4 ed3f ae2e af3f 4b46 c23e
00000250: 0f3a 293e 97c2 23bf b532 9f3b c4ba e3be
00000260: d05c 75bf 8a6d 8a3e 7832 473f 272c 0d3f
00000270: 4555 0ebf 4a3c 38bf 4710 dc3e 7c0c 3fbf
00000280: bdf0 92bd f78c d73e 712d af3e 4938 873f
00000290: 3038 c1bb 6425 87be f194 99be 300f 773f
000002a0: 29bd bd3f fa0c e03e 2167 a13f cef1 453f
000002b0: 352f ac3d d09f 16bf 338a 26be 689e 813e
000002c0: 323c 413f 48fe 4f3f 1778 53bf 1780 dcbd
000002d0: 7961 26bf 07c5 46be a540 a03f 5b25 fa3e
000002e0: 1b33 91bf 14fe ddbe a435 71bd e51b 8c3e
000002f0: 1fc2 69bf c46e 593f d31b d5be caeb a7bf
00000300: cece bdbe 0aec c63f fb26 663e 411f 403d
00000310: 1dea 8d3e 9215 6cbe c995 153f adc8 9ebf
00000320: 7165 793f 84c5 de3e 9f45 b73f 08e7 a7bd
00000330: 2ec6 123f c2a9 a2bf d434 d93d 8df2 50bd
00000340: 5a6d 693f 5bac 553f dd85 f63d 2744 7bbe
00000350: 2385 30be c640 4abe 3158 953f 9e7d 3e3f
00000360: 4144 9abf 3d11 7ebf 44c2 abbe c94a c7bd
00000370: 3386 a9bf 2b97 3c3f df2c 08bf c1f9 87bf
00000380: b875 b6be bc3b 8a3f 1c78 41be 49c5 f2be
00000390: c64e 81bd 80ad c63e cdb2 2f3f 1f92 94bf
000003a0: 8f1d 463f d3c4 e13f eac4 323f 404d 9a3e
000003b0: 8bcc 93be c2af 58be 4209 43bf 4341 adbf
000003c0: 1dc0 5abe ad27 823e ff84 cf3e ae5c 113f
000003d0: 09d6 063c 3af8 74bd d261 6bbe e217 3abf
000003e0: e43b ecbd 137e 10bf 38b8 14be 8d44 d6bd
000003f0: e71e 47bf 77a3 b8be bcc5 613f d8ba 3dbf

bias f4 [20]
1.2023826 -0.011974013 0.03058426 -0.3165973 0.37001878 -0.42154676 -0.17166983 0.5284363
1.4055345 -1.8044728 -0.13444166 -0.32267615 -0.48711127 -0.28531525 0.97701544 -0.994499
0.32511038 -0.35090035 0.12027527 -0.052649904
00000000: ace7 993f a72e 44bc d88b fa3c 0b19 a2be
00000010: 1a73 bd3e fad4 d7be 37ca 2fbe 9a47 073f
00000020: 8ee8 b33f f7f8 e6bf 13ab 09be cf35 a5be
00000030: a666 f9be d714 92be af1d 7a3f 7d97 7ebf
00000040: de74 a63e 36a9 b3be e152 f63d 6da7 57bd

weight f4 [1, 20]
-0.18237029 0.31901735 0.30984053 0.45511347 -0.17627695 0.2938325 0.26793852 0.3474091
0.6527546 -0.273981 -0.26114082 -0.39778438 0.2934278 0.28780985 -0.33372706 0.5017627
0.15931718 0.29300046 0.38605747 0.2993274
00000000: 47bf 3abe 3e56 a33e 6ba3 9e3e a204 e93e
00000010: f281 34be 3771 963e 3d2f 893e 9bdf b13e
00000020: ed1a 273f 3d47 8cbe 40b4 85be 65aa cbbe
00000030: 2b3c 963e d05b 933e 46de aabe 8573 003f
00000040: 0b24 233e 2804 963e 53a9 c53e 7141 993e

weight f4 [32, 96]
-0.41031823 -0.06491185 0.65205246 0.31336367 -1.3262522 -0.48692968 0.1386621 0.48951602
0.28085056 -0.4097259 -0.23924966 0.567898 -0.374872 0.16039245 -0.16757226 -0.6824573
-0.7674153 0.86149615 -0.5682002 -0.047731753 0.839028 -1.1496108 -0.061905388 -0.20160873
0.9646673 1.2170388 -0.06903252 -0.79155767 -1.452299 0.09513621 0.22160119 0.52010983
-0.36854175 -0.19565058 0.87350684 -0.17079574 -1.1247478 -0.102446385 -0.024154698 0.24940914
-0.55382144 -0.96569467 -0.64408153 -0.013438395 -0.09845136 0.23268536 0.32628196 -0.21147318
-0.08588985 0.3514955 -0.76328486 -0.32809216 0.04907564 -0.9269605 0.5228684 -0.52962387
0.5767195 1.0455472 -0.2618562 0.13031761 -1.4107463 0.014448329 0.640129 0.3425557
0.88631487 0.36955562 -0.005058484 0.32058674 0.3256961 0.2606021 -0.5086325 -0.6010101
0.6306903 0.19490197 0.8695981 0.2699606 -0.7975633 0.29023817 0.21172981 -0.7683565
-0.25664645 0.47840264 -0.5449918 -0.5888715 0.1485814 1.5409132 0.5206974 1.5456212
0.3155322 0.45332867 -0.93033457 0.12412516 -0.95971847 -0.6694861 0.30394766 0.32779312
-0.327391 0.2988464 1.0224166 -0.022554994 0.1789432 1.1436425 -0.49581507 -1.0127904
0.1946057 0.53210956 1.1721649 0.12954335 1.2781456 0.15016809 -0.7534972 -0.09788694
-0.06358211 -0.1435474 -0.62808484 0.6472397 0.8336285 -1.5016651 -0.34226057 1.6076592
-1.1130421 0.06372367 0.7091084 1.2871627 -0.5762334 0.9138355 0.8216564 -1.1918149
-0.15493271 -0.067523055 1.2420187 -0.34512168 0.11021735 0.8400611 -0.6209873 -0.7828037
0.25424546 0.25078177 0.7232485 0.282067 1.0945995 0.3190782 0.0162087 -0.28526098
-0.16734475 0.5449736 -0.7231935 0.12834546 0.58245754 -0.5432046 -0.539362 1.3338708
-0.7447296 -0.23339516 0.8109613 1.1177087 -0.52561283 0.85438186 0.69890136 -0.48643515
-1.0181944 0.2593172 0.2512773 -0.4724437 0.18997225 -0.07254695 -0.66913706 0.2175753
-0.09145099 -0.04932019 0.07696018 1.1060133 -0.9914842 0.85468733 0.22348191 -0.13018985
0.40417218 -0.8753906 0.2372943 -0.27754587 -0.29275936 -0.004238569 -0.18038945 -0.33249483
-0.2700289 0.26741177 0.6183528 -0.9031441 -0.18751936 0.28012994 -1.0484755 -0.934204
-0.22778013 0.06639071 0.77070445 0.99600554 0.40457872 0.050753314 0.87004 0.8472359
0.44697818 1.0527498 -0.49976912 -0.07024864 -0.4314089 -0.1792131 -0.620027 0.149374
-0.32148233 0.44162413 0.034143616 -0.48608735 0.5933663 -0.17860469 1.1003183 -0.38361952
-0.58521837 1.0370722 0.044986125 0.041328896 -1.5276731 -0.15251546 -0.91712964 -0.121971875
0.1643625 -0.09882519 1.0446659 0.595716 0.41443005 0.25353307 1.5694975 0.14703363
-0.1317822 0.43258566 -0.48970133 -0.12151997 0.3404136 -0.14372511 -0.48698223 0.31966764
-0.7943726 0.80638176 0.4928379 -0.28396025 1.1356922 -0.047399458 0.5707009 -0.02555204
0.44137478 0.019856442 0.15590419 -0.31132546 -1.4949226 -0.041940175 -0.75158525 -0.31093487
00000000: 3b15 d2be 81f0 84bd e9ec 263f 3471 a03e
00000010: a2c2 a9bf d94e f9be 70fd 0d3e d8a1 fa3e
00000020: a5cb 8f3e 98c7 d1be ddfd 74be c361 113f
00000030: 39ef bfbe eb3d 243e 1098 2bbe 86b5 2ebf
00000040: 5475 44bf 038b 5c3f 9175 11bf 5f82 43bd
00000050: 8aca 563f 7226 93bf 8190 7dbd 8572 4ebe
00000060: 70f4 763f edc7 9b3f ec60 8dbd 86a3 4abf
00000070: efe4 b9bf c6d6 c23d 6ceb 623e eb25 053f
00000080: 81b1 bcbe a058 48be 259e 5f3f 14e5 2ebe
00000090: bcf7 8fbf 69cf d1bd 13e0 c5bc 1c65 7f3e
000000a0: 3ec7 0dbf c437 77bf 87e2 24bf b72c 5cbc
000000b0: dea0 c9bd 1245 6e3e 6e0e a73e 6d8c 58be
000000c0: 05e7 afbd 38f7 b33e a366 43bf b2fb a7be
000000d0: 8a03 493d 494d 6dbf b4da 053f 6e95 07bf
000000e0: e4a3 133f 7ed4 853f 0412 86be fb71 053e
000000f0: 5693 b4bf afb8 6c3c 7fdf 233f 7663 af3e
00000100: 88e5 623f 6536 bd3e a4c1 a5bb f223 a43e
00000110: a4c1 a63e a36d 853e bd35 02bf ccdb 19bf
00000120: eb74 213f 6294 473e fb9d 5e3f 4738 8a3e
00000130: 1c2d 4cbf 199a 943e b3cf 583e 03b3 44bf
00000140: 2a67 83be 31f1 f43e 9584 0bbf 48c0 16bf
00000150: b925 183e a53c c53f 6d4c 053f ead6 c53f
00000160: 708d a13e b21a e83e 682a 6ebf 5535 fe3d
00000170: 1cb0 75bf 7163 2bbf 079f 9b3e 80d4 a73e
00000180: cb9f a7be 6502 993e 8cde 823f 40c5 b8bc
00000190: e33c 373e e162 923f 79db fdbe 1ea3 81bf
000001a0: b746 473e 5538 083f 8009 963f 03a7 043e
000001b0: 469a a33f aac5 193e 31e5 40bf f378 c8bd
000001c0: 5637 82bd 17fe 12be 2bca 20bf 80b1 253f
000001d0: ad68 553f 9036 c0bf c73c afbe c7c7 cd3f
000001e0: 2a78 8ebf 8e81 823d 2188 353f bfc1 a43f
000001f0: 0884 13bf 20f1 693f 1358 523f 648d 98bf
00000200: aea6 1ebe 8749 8abd 78fa 9e3f cab3 b0be
00000210: a2b9 e13d 3f0e 573f 06f9 1ebf d365 48bf
00000220: 762c 823e 7866 803e d026 393f 166b 903e
00000230: d61b 8c3f 385e a33e 1cc8 843c ba0d 92be
00000240: 6c5c 2bbe 6483 0b3f 3623 39bf fe6c 033e
00000250: f01b 153f 750f 0bbf a113 0abf 47bc aa3f
00000260: 99a6 3ebf 24ff 6ebe 299b 4f3f 1411 8f3f
00000270: 908e 06bf c5b8 5a3f 33eb 323f 070e f9be
00000280: 3254 82bf 39c5 843e 6ba7 803e 24e4 f1be
00000290: 1688 423e 7f93 94bd 914c 2bbf 0fcc 5e3e
000002a0: a84a bbbd f803 4abd 4d9d 9d3d d891 8d3f
000002b0: e9d1 7dbf cacc 5a3f 71d8 643e 7d50 05be
000002c0: a8ef ce3e 9919 60bf 47fd 723e 7e1a 8ebe
000002d0: 8ee4 95be b2e3 8abb 03b8 38be c33c aabe
000002e0: 3a41 8abe 32ea 883e 5e4c 1e3f 7434 67bf
000002f0: 1305 40be 316d 8f3e 7234 86bf fe27 6fbf
00000300: 323f 69be daf7 873d e34c 453f 38fa 7e3f
00000310: f124 cf3e b5e2 4f3d f1ba 5e3f 74e4 583f
00000320: 53da e43e 81c0 863f bde1 ffbe 85de 8fbd
00000330: a1e1 dcbe a483 37be 17ba 1ebf 7ff5 183e
00000340: 5599 a4be 8f1c e23e 2dda 0b3d 71e0 f8be
00000350: dbe6 173f 26e4 36be 3bd7 8c3f c769 c4be
00000360: dfd0 15bf c8be 843f 5f43 383d 7d48 293d
00000370: cb8a c3bf 032d 1cbe 02c9 6abf 64cc f9bd
00000380: a54e 283e dc64 cabd 9db7 853f d880 183f
00000390: 2d30 d43e 16cf 813e 4be5 c83f fc8f 163e
000003a0: eaf1 06be de7b dd3e 22ba fabe 76df f8bd
000003b0: b14a ae3e ad2c 13be bc55 f9be 7aab a33e
000003c0: 015c 4bbf 096f 4e3f 4055 fc3e 3d63 91be
000003d0: 5d5e 913f ef25 42bd 7419 123f 8352 d1bc
000003e0: e0fb e13e faa9 a23c 59a5 1f3e 0d66 9fbe
000003f0: a059 bfbf 76c9 2bbd e467 40bf db32 9fbe

bias f4 [32]
-0.30033424 0.22599217 -0.58030325 -1.0777798 -0.3712203 0.16666728 -0.21806291 -0.43475294
0.09765033 -0.3109257 0.2888507 0.23163508 0.83977956 -0.093170695 0.4423755 0.6961799
-0.40733668 -0.2326045 0.5544176 -0.46287113 0.34658122 -0.36329103 -0.33913416 -1.1261181
-0.63492453 -0.1528078 0.5984466 0.42722973 0.25265667 -0.47712687 0.33844873 0.2894682
00000000: 69c5 99be 7e6a 673e c18e 14bf b0f4 89bf
00000010: 9610 bebe d4aa 2a3e e24b 5fbe f097 debe
00000020: e5fc c73d a731 9fbe 3de4 933e bf31 6d3e
00000030: cbfb 563f 47d0 bebd 0b7f e23e d938 323f
00000040: 6f8e d0be e02f 6ebe 50ee 0d3f 72fd ecbe
00000050: 1873 b13e 4801 babe fea2 adbe a324 90bf
00000060: 6a8a 22bf a679 1cbe cc33 193f dbbd da3e
00000070: 375c 813e f949 f4be 2749 ad3e 2d35 943e

weight f4 [1, 32]
0.13180128 -0.08306672 0.10739017 -0.058161616 0.10862818 -0.14484441 0.13532893 0.10134398
0.14274688 -0.13842748 0.14145347 0.115959525 0.11093951 -0.18774065 0.12658198 -0.17162634
-0.13050173 -0.13005993 0.0788319 -0.13747156 0.10086536 -0.1455779 0.16370209 -0.12986958
0.19533871 -0.119337775 0.13426657 0.15787055 -0.15759403 0.14039296 0.17234851 0.10500851
00000000: eaf6 063e e21e aabd 61ef db3d e03a 6ebd
00000010: 7478 de3d 1852 14be ab93 0a3e 6f8d cf3d
00000020: 3d2c 123e efbf 0dbe 2ed9 103e 307c ed3d
00000030: 4134 e33d 163f 40be b59e 013e d1be 2fbe
00000040: 3fa2 05be 6e2e 05be 9f72 a13d 58c5 0cbe
00000050: 7f92 ce3d 5f12 15be 85a1 273e 88fc 04be
00000060: df06 483e 5d67 f4bd 2d7d 093e d1a8 213e
00000070: 5460 21be 2cc3 0f3e 217c 303e b40e d73d

weight_ih_l0 f4 [128, 1]
0.03111968 -0.12183828 0.36888587 0.47835594 -0.046794355 -0.16292109 0.05010208 0.027375545
0.072745115 -0.7853358 0.023035174 -0.10816529 -0.17608547 0.2205795 0.19119763 -0.13302532
0.07802676 0.2238462 0.015330435 0.20216459 0.0923948 -0.04371704 -0.00074117543 -0.059961595
1.349192 -1.5777067 0.19582407 -0.25468612 0.39824402 -0.19141594 0.1675123 0.27346984
-0.1569996 0.02493583 0.399738 -1.0849506 -0.1213436 0.13816336 -0.12162394 -0.4613491
-0.04751341 -0.6711441 -0.04843321 -0.11173214 -0.14504686 -0.17052646 0.01161535 -0.10806058
0.3298676 -0.03893773 -0.3299274 0.03482765 0.2976001 -0.39240605 -0.33580002 -1.2964138
0.10032554 0.37364054 0.20928712 -0.16051343 0.837308 -0.054229017 0.26895326 -0.069495015
0.08570353 -0.04016487 -0.9434094 -0.5783428 0.6964602 0.007714478 0.08970397 0.31200933
-0.041738205 0.535776 0.002441242 -0.03089447 0.011741356 0.31181335 -0.24640399 0.034979682
0.6137374 -0.2409548 0.66748905 -0.16508964 -0.1386274 0.2592975 0.014360067 -0.37946156
1.8966238 1.1539391 0.6648381 -0.031771675 0.49406835 -0.04520239 -3.0345562 -0.053688742
0.0017931614 0.12950794 0.256267 0.16239627 -0.23381643 0.06813619 -0.06688998 0.339377
0.16937442 -0.25152922 -0.38253802 0.13350706 0.24465416 0.21868636 0.4272007 0.20600486
0.3910945 -0.20834464 0.18621784 0.24235716 -0.2645753 -0.42938396 -0.03951114 -0.08359788
1.3908806 -1.4381188 0.34480646 -0.03263543 0.33544523 0.23014395 -0.30439872 -0.30848247
00000000: b3ee fe3c 5986 f9bd 9cde bc3e 12eb f43e
00000010: 70ab 3fbd c9d4 26be d737 4d3d ae42 e03c
00000020: 64fb 943d c40b 49bf 43b4 bc3c c385 ddbd
00000030: c04f 34be 98df 613e 50c9 433e ca37 08be
00000040: 7ecc 9f3d f037 653e 812c 7b3c 3c04 4f3e
00000050: 7c39 bd3d a410 33bd 714b 42ba 4a9a 75bd
00000060: 53b2 ac3f 4bf2 c9bf 1b86 483e 3866 82be
00000070: a4e6 cb3e 8a02 44be 5888 2b3e 3d04 8c3e
00000080: 81c4 20be 3a46 cc3c 76aa cc3e a9df 8abf
00000090: fe82 f8bd b27a 0d3e f915 f9bd f335 ecbe
000000a0: 6c9d 42bd 1ad0 2bbf e761 46bd d2d3 e4bd
000000b0: 2a87 14be 7d9e 2ebe 4f4e 3e3c de4e ddbd
000000c0: 68e4 a83e 2b7d 1fbd 3fec a8be 70a7 0e3d
000000d0: 0a5f 983e 72e9 c8be fbed abbe e3f0 a5bf
000000e0: 7a77 cd3d d04d bf3e 5d4f 563e a25d 24be
000000f0: d159 563f 3f1f 5ebd 3eb4 893e 6753 8ebd
00000100: 5585 af3d eb83 24bd 4783 71bf 460e 14bf
00000110: 374b 323f bbc9 fc3b b7b6 b73d b0bf 9f3e
00000120: aef5 2abd 9e28 093f 3ffd 1f3b 6616 fdbc
00000130: d15e 403c 00a6 9f3e 5451 7cbe db46 0f3d
00000140: e51d 1d3f dbbc 76be 90e0 2a3f 420d 29be
00000150: 57f4 0dbe a4c2 843e 7d46 6b3c c948 c2be
00000160: 92c4 f23f 47b4 933f d432 2a3f 0423 02bd
00000170: 87f6 fc3e 2426 39bd 2b36 42c0 bae8 5bbd
00000180: 8308 eb3a bb9d 043e 6e35 833e 354b 263e
00000190: 936d 6fbe fd8a 8b3d 9dfd 88bd d2c2 ad3e
000001a0: 7d70 2d3e 70c8 80be 06dc c3be 13b6 083e
000001b0: 9f86 7a3e 51ef 5f3e 0dba da3e f0f2 523e
000001c0: 8a3d c83e 4c58 55be e4af 3e3e 7a2c 783e
000001d0: 6a76 87be 37d8 dbbe 6fd6 21bd 5e35 abbd
000001e0: 6008 b23f 4714 b8bf 798a b03e bbac 05bd
000001f0: 7abf ab3e dbaa 6b3e 26da 9bbe 6af1 9dbe

weight_hh_l0 f4 [128, 32]
0.39973783 -0.077355355 0.18192904 -0.53880936 -0.81188446 -0.16886282 0.21748988 0.0258489
-0.23233584 -1.1016542 -0.99630004 0.6150617 0.9257228 -0.45938644 -0.9084342 1.4189118
-0.0021536143 0.027369477 -0.41498166 -1.3178412 0.6645805 -0.85422873 0.25199848 1.7564166
0.8095931 0.71380585 0.404077 -0.0373252 0.23158091 -0.25754577 -0.543476 0.03253402
-0.9115237 0.37338927 -1.3172469 0.035671126 0.33890536 -0.26209602 -0.58472496 0.18734063
-0.09302002 -0.080652796 -0.6572004 0.13714805 -0.27030206 0.34343046 0.015787821 -0.3185054
0.13875097 0.43310124 0.7346343 0.15580527 -0.87149715 0.34618548 -0.05771894 -0.6508446
0.070831984 0.3429569 0.32296368 0.30288774 0.026726453 -1.0693982 -0.01010512 0.20197862
0.081621155 0.6888524 0.633618 0.44219315 -0.74145484 0.093650475 -0.30221 -0.975634
0.4503453 0.8883411 -0.9392614 -0.09713618 -0.20498842 0.25908053 0.47393817 -0.38206503
-0.26499358 -0.18864161 0.8485956 -0.35966596 -0.3104369 1.2295685 -0.31464255 -0.836064
-0.007638665 -0.47275755 0.27353418 -0.45201635 -0.063957274 0.19661461 0.15654509 -0.35756478
-0.02198614 -0.20865582 0.47154266 -0.66684806 -0.55411476 -0.33251148 -0.15589581 -0.056971096
-0.015114941 -0.6331497 -0.18554468 0.055272482 0.07416083 -0.66805124 -0.0008864637 0.22766185
-0.19593796 -0.281044 -0.41700143 -0.14806405 0.3754973 -0.4314788 -0.13442175 -0.13081713
0.015046256 -0.504601 -0.39303157 0.09203365 0.37280637 0.08798387 0.18462025 0.29350364
0.041096937 -0.32039395 -0.4080719 -0.046073284 0.7353699 0.52725565 0.14966077 0.4500395
-0.03753695 0.8240098 0.15801738 -0.0034776977 0.22904362 0.59506863 -0.7209628 -0.31936598
0.51781267 0.22436564 0.5685883 0.24903813 -0.6954195 0.46938965 -0.8862385 0.77527386
1.0318602 -0.4555026 -0.1188831 0.16073912 -0.39961737 -0.04744145 -0.2748282 0.33138424
0.033212483 0.2929047 0.36193997 -0.18884756 -0.54058856 0.8250265 -0.8204328 0.28818008
0.8044102 -0.3103389 0.3313727 1.206813 -0.03150076 -0.91959625 -0.13232313 -0.51746434
-0.117755845 0.20982464 -2.0297852 0.4507598 0.35062286 -0.65581185 0.36809766 -1.0590572
0.01359392 -0.07617025 -0.9022337 0.4803259 -0.033994928 -0.35608837 -0.18905169 0.078675374
0.29227704 -0.63116455 0.008707446 -0.047421694 -0.16812868 -0.65230095 -0.41956678 1.3285394
0.15664825 -0.43552068 -0.10155188 -1.1857675 -0.17245147 -0.08091405 0.639352 0.028553914
-0.19123733 -0.17800526 -0.0031109997 0.44742617 0.051068507 1.1359448 0.68384314 -0.29952812
-0.30984488 0.08353449 0.7208961 0.5529066 0.1257911 0.0818863 -0.12953584 0.56503296
0.83509016 0.46437684 0.027985165 0.7968147 0.27239725 0.27575904 0.3453 0.8004378
0.22163887 -0.7527546 -0.9760748 0.6614576 -0.9567927 -0.5795554 1.071396 0.17494307
-0.71170473 -0.34930512 0.6992968 -0.075658746 0.09326909 0.36107925 -0.7285739 0.5945439
1.3251725 -0.7903746 -0.63355076 -0.08956822 -0.43274412 -0.03980625 0.26353276 0.6027252
00000000: 70aa cc3e 7c6c 9ebd 9b4b 3a3e 69ef 09bf
00000010: a9d7 4fbf 60ea 2cbe abb5 5e3e 13c1 d33c
00000020: 72e9 6dbe 0103 8dbf 850d 7fbf af74 1d3f
00000030: 2bfc 6c3f b334 ebbe 258f 68bf e79e b53f
00000040: a723 0dbb f435 e03c 7a78 d4be 05af a8bf
00000050: f321 2a3f bcae 5abf f205 813e 42d2 e03f
00000060: 7e41 4f3f fbbb 363f 2ee3 ce3e 4fe2 18bd
00000070: 8c23 6d3e 0add 83be 3e21 0bbf 6442 053d
00000080: 9e59 69bf e12c bf3e 8c9b a8bf e31b 123d
00000090: 0185 ad3e 7331 86be 89b0 15bf 39d6 3f3e
000000a0: 4881 bebd 4b2d a5bd 493e 28bf 8a70 0c3e
000000b0: 0865 8abe 1ed6 af3e 7655 813c 2413 a3be
000000c0: bc14 0e3e 72bf dd3e fe10 3c3f 6b8b 1f3e
000000d0: 701a 5fbf 393f b13e b26a 6cbd c09d 26bf
000000e0: 5c10 913d 0c98 af3e 7f5b a53e 1a14 9b3e
000000f0: 6ff1 da3c 0ae2 88bf f28f 25bc 7cd3 4e3e
00000100: fe28 a73d a258 303f ca34 223f 2467 e23e
00000110: fccf 3dbf d2cb bf3d 45bb 9abe 26c3 79bf
00000120: a993 e63e 536a 633f 6f73 70bf 55ef c6bd
00000130: 7ce8 51be 34a6 843e 06a8 f23e 079e c3be
00000140: 3dad 87be 442b 41be 903d 593f 2326 b8be
00000150: 96f1 9ebe 8062 9d3f d418 a1be 4a08 56bf
00000160: c44d fabb 470d f2be ac0c 8c3e b06e e7be
00000170: 08fc 82bd 5755 493e 5b4d 203e bb12 b7be
00000180: 471c b4bc dfa9 55be 0a6e f13e 8eb6 2abf
00000190: 77da 0dbf f23e aabe 27a3 1fbe 865a 69bd
000001a0: a8a4 77bc 1916 22bf 6dff 3dbe 6665 623d
000001b0: a2e1 973d 6805 2bbf 9261 68ba 3020 693e
000001c0: f6a3 48be 00e5 8fbe 3681 d5be 1a9e 17be
000001d0: 2f41 c03e caea dcbe dba5 09be edf4 05be
000001e0: 9284 763c 882d 01bf 6f3b c9be 237c bc3d
000001f0: 7ae0 be3e e330 b43d 170d 3d3e 1c46 963e
00000200: 4355 283d ad0a a4be cdee d0be 57b7 3cbd
00000210: 3441 3c3f 3afa 063f ac40 193e 946b e63e
00000220: 58c0 19bd 4ef2 523f 4fcf 213e 16ea 63bb
00000230: 698a 6a3e 6b56 183f 0591 38bf f083 a3be
00000240: 5f8f 043f 1bc0 653e 018f 113f da03 7f3e
00000250: 0307 32bf d753 f03e 87e0 62bf 5978 463f
00000260: ff13 843f a337 e9be fc78 f3bd cc98 243e
00000270: a69a ccbe f751 42bd 48b6 8cbe 32ab a93e
00000280: d009 083d 9bf7 953e 3250 b93e 4161 41be
00000290: 0364 0abf f034 533f e207 52bf 578c 933e
000002a0: d4ed 4d3f bee4 9ebe afa9 a93e d978 9a3f
000002b0: f106 01bd a96a 6bbf b77f 07be 8b78 04bf
000002c0: fa29 f1bd 45dc 563e 00e8 01c0 fdc9 e63e
000002d0: d784 b33e 49e3 27bf 4c77 bc3e 308f 87bf
000002e0: 08b9 5e3c 26ff 9bbd caf8 66bf 47ed f53e
000002f0: 443e 0bbd 3751 b6be c496 41be 8e20 a13d
00000300: 56a5 953e 0094 21bf ada9 0e3c 403d 42bd
00000310: ed29 2cbe 32fd 26bf 75d1 d6be 940d aa3f
00000320: 6668 203e 91fc debe 6ffa cfbd 3bc7 97bf
00000330: 1e97 30be 44b6 a5bd 93ac 233f e6e9 e93c
00000340: b8d3 43be 0347 36be eae1 4bbb 0b15 e53e
00000350: 362d 513d a466 913f 5810 2f3f c05b 99be
00000360: fda3 9ebe 2114 ab3d a68c 383f 498b 0d3f
00000370: 62cf 003e 01b4 a73d 0ba5 04be 00a6 103f
00000380: 78c8 553f cdc2 ed3e 2541 e53c 0cfc 4b3f
00000390: a777 8b3e 4a30 8d3e 29cb b03e 7ee9 4c3f
000003a0: 4df5 623e 87b4 40bf 0ae0 79bf 4955 293f
000003b0: 5ef0 74bf be5d 14bf 8123 893f 4724 333e
000003c0: 4832 36bf 1fd8 b2be 1d05 333f f9f2 9abd
000003d0: dd03 bf3d 61df b83e d283 3abf 0734 183f
000003e0: 419f a93f fd55 4abf 6230 22bf 8b6f b7bd
000003f0: a390 ddbe e10b 23bd c4ed 863e 334c 1a3f

bias_ih_l0 f4 [128]
0.30222774 0.029179517 -0.055504758 -0.3149367 0.09950369 0.17580481 0.39091685 -0.4979943
0.14713372 -0.5137069 0.7870266 0.25854176 0.499466 -0.65204513 -0.5364028 0.24043024
0.26444787 0.053788837 0.5428755 -0.09994296 0.109333396 0.080953054 0.24006368 -0.23462571
0.097709805 -1.1447204 0.04795396 0.74440086 -0.19292621 -0.010191451 1.278904 -0.26089424
-1.1604383 0.34200415 -0.20801683 0.00887398 -0.42134842 -0.38508308 0.34117985 0.019777393
-0.82968783 -0.5365333 -1.7047642 -0.008146984 -1.3602692 0.5329832 0.6963292 -0.08041806
0.068304695 -0.5974597 -1.1845015 0.32243836 0.05200551 -0.25759658 -0.79823595 -0.78649765
-0.9850977 0.28876036 -0.80127794 -1.8491619 -1.0207797 -0.71255255 -1.0002544 -0.3255514
-0.16287825 0.017415252 -0.11480575 0.2701715 0.012472429 0.036897123 -0.1778734 0.038422875
0.006761389 0.02218024 0.019284692 -0.098984405 0.06599715 0.061519682 -0.056466952 -0.024133466
0.6488575 0.09209176 0.006760649 0.5216075 0.3407077 0.20389757 -0.09745312 -0.3022332
-0.002712639 -0.28278387 0.050076865 0.034417264 -0.110376775 -0.010184774 0.22337781 -0.25679478
0.2942959 0.3393346 0.2814618 0.48048294 0.70388883 -0.0032482343 0.7001569 0.24484463
0.7472347 0.252127 1.1751561 0.90621036 0.8285936 0.7804406 0.75293434 0.76845604
0.31138697 -0.18508665 0.84875757 0.49426568 0.039195985 -0.21478781 -0.078981996 0.22073686
-0.18942906 -0.046940804 0.5310152 0.50239885 0.70829946 0.25008205 0.35658962 0.0356639
00000000: 98bd 9a3e e209 ef3c f558 63bd 623f a1be
00000010: 97c8 cb3d 2d06 343e 4126 c83e 1cf9 febe
00000020: 39aa 163e 4c82 03bf 937a 493f 965f 843e
00000030: 02ba ff3e 6eec 26bf b251 09bf 5833 763e
00000040: b665 873e af51 5c3d e4f9 0a3f e5ae ccbd
00000050: 30ea df3d b7ca a53d 41d3 753e b941 70be
00000060: 141c c83d 3386 92bf 5f6b 443d 0e91 3e3f
00000070: 738e 45be 0bfa 26bc 20b3 a33f ee93 85be
00000080: 3e89 94bf 2b1b af3e 5d02 55be 2b64 113c
00000090: fbba d7be 9c29 c5be 20af ae3e 3304 a23c
000000a0: 6c66 54bf 3f5a 09bf b735 dabf ed7a 05bc
000000b0: 4d1d aebf 9671 083f a142 323f 39b2 a4bd
000000c0: 55e3 8b3d 1ef3 18bf bf9d 97bf a416 a53e
000000d0: bb03 553d b3e3 83be 3159 4cbf e957 49bf
000000e0: 5d2f 7cbf 66d8 933e 8d20 4dbf 56b1 ecbf
000000f0: e9a8 82bf d869 36bf 5608 80bf acae a6be
00000100: 8ec9 26be 6eaa 8e3c 471f ebbd eb53 8a3e
00000110: 2959 4c3c 7021 173d 7224 36be 4e61 1d3d
00000120: a48e dd3b 56b3 b53c eefa 9d3c 56b8 cabd
00000130: 8429 873d 10fc 7b3d e449 67bd 8cb3 c5bc
00000140: 861b 263f 9b9a bc3d 6f88 dd3b 1288 053f
00000150: 3d71 ae3e 86ca 503e 8095 c7bd 4fbe 9abe
00000160: 88c6 31bb 0cc9 90be 661d 4d3d 1ef9 0c3d
00000170: 380d e2bd 0ade 26bc 27bd 643e 9b7a 83be
00000180: f4ad 963e 44bd ad3e c31b 903e dc01 f63e
00000190: 0f32 343f 54e0 54bb 7c3d 333f 8db8 7a3e
000001a0: c64a 3f3f ca16 813e 846b 963f 67fd 673f
000001b0: b61e 543f f5ca 473f 4ec0 403f 89b9 443f
000001c0: 1d6e 9f3e 5b87 3dbe 2d48 593f 6410 fd3e
000001d0: f88b 203d 56f1 5bbe 50c1 a1bd d808 623e
000001e0: b1f9 41be 0045 40bd 9df0 073f 369d 003f
000001f0: 1d53 353f c10a 803e ea92 b63e 4f14 123d

bias_hh_l0 f4 [128]
0.5643999 -0.16987473 -0.1380702 -0.27767646 0.022825839 0.058048133 0.086157314 -0.16225994
0.16964151 -0.30766425 0.7825271 0.05055074 0.43877652 -0.61828566 -0.70255274 0.27162564
0.008165597 0.026498286 0.3552061 -0.33495554 0.24257497 -0.11127015 0.004057065 -0.049242094
-0.05735057 -0.85018426 -0.12712616 0.5300915 -0.11290227 0.057799295 1.2283027 -0.15843706
-1.1814021 0.63629806 -0.06260594 0.19769706 -0.4504707 -0.14974402 0.47020322 0.2086334
-0.98622787 -0.5324097 -1.4791831 0.04995516 -1.2202982 0.5845158 0.70453423 0.023048365
-0.03641965 -0.68143165 -1.1197773 0.057138536 0.1519432 -0.32861623 -0.95507854 -0.6123034
-0.99792844 0.1459065 -0.6562696 -1.9378974 -0.8361783 -0.6786335 -0.8272299 -0.42458007
-0.14442399 0.00079236476 -0.34631246 0.2688042 0.03117531 0.023931123 -0.061745346 -0.19660759
0.031046236 -0.049574025 -0.013095185 0.13474028 -0.048984516 0.00768423 -0.20836993 -0.10525846
0.6693991 0.25515187 0.16862068 0.29386455 0.19031863 0.08547436 -0.020819757 -0.10697291
-0.20261945 -0.35826904 -0.27670407 -0.008568943 -0.007935325 -0.08181971 0.023177132 -0.36552888
0.5013141 0.44828683 0.26144716 0.76516354 0.58390886 -0.025478633 0.7243851 0.3497541
0.4841891 0.39453995 1.3684793 0.85928446 0.72025025 0.88520503 0.76077163 0.7365132
0.2913712 -0.08234665 1.0565413 0.7819894 0.29837418 -0.21528019 0.21479325 0.43443397
-0.23446813 0.07811018 0.39705715 0.6900545 0.55175763 0.44609264 0.587617 0.22105125
00000000: 837c 103f a4f3 2dbe 4662 0dbe 9c2b 8ebe
00000010: 41fd ba3c e1c3 6d3d 3f73 b03d 7827 26be
00000020: 81b6 2d3e 2b86 9dbe b253 483f 4b0e 4f3d
00000030: 51a7 e03e f847 1ebf 7fda 33bf 8412 8b3e
00000040: ffc8 053c ef12 d93c 93dd b53e 4b7f abbe
00000050: 9365 783e 9be1 e3bd 21f1 843b 14b2 49bd
00000060: 6ee8 6abd ada5 59bf 5c2d 02be 14b4 073f
00000070: 4e39 e7bd f4be 6c3d 0639 9d3f 533d 22be
00000080: 2f38 97bf 6ee4 223f 8b37 80bd 1971 4a3e
00000090: 18a4 e6be 7f56 19be 7abe f03e fea3 553e
000000a0: 6e79 7cbf 014c 08bf df55 bdbf c89d 4c3d
000000b0: bb32 9cbf d4a2 153f 5b5c 343f edcf bc3c
000000c0: c52c 15bd 4e72 2ebf dd54 8fbf 190a 6a3d
000000d0: 0097 1b3e 6340 a8be 0780 74bf eabf 1cbf
000000e0: 3d78 7fbf 8368 153e 4901 28bf 060d f8bf
000000f0: c80f 56bf edba 2dbf 57c5 53bf 8f62 d9be
00000100: e2e3 13be b3b6 4f3a de4f b1be b4a0 893e
00000110: 5d63 ff3c 340b c43c b0e8 7cbd 8053 49be
00000120: ad54 fe3c 220e 4bbd 308d 56bc 5bf9 093e
00000130: fda3 48bd fecb fb3b ed5e 55be bf91 d7bd
00000140: bd5d 2b3f 44a3 823e e6aa 2c3e 6a75 963e
00000150: e3e2 423e 2e0d af3d 328e aabc 9d14 dbbd
00000160: 797b 4fbe 0a6f b7be 28ac 8dbe c064 0cbc
00000170: 2a03 02bc 1891 a7bd f8dd bd3c 9a26 bbbe
00000180: 1f56 003f da85 e53e 67dc 853e c2e1 433f
00000190: 0d7b 153f 91b8 d0bc 4d71 393f f812 b33e
000001a0: a2e7 f73e 2401 ca3e 542a af3f 11fa 5b3f
000001b0: 5262 383f cc9c 623f eec1 423f 218c 3c3f
000001c0: 9b2e 953e 5ca5 a8bd bf3c 873f 7530 483f
000001d0: 80c4 983e 6972 5cbe c3f2 5b3e 216e de3e
000001e0: 6a18 70be 3bf8 9f3d 134b cb3e 69a7 303f
000001f0: fd3f 0d3f 4166 e43e 116e 163f 425b 623e

weight f4 [1, 33]
-0.6475188 0.7648618 -0.9626865 -1.552446 -0.34488192 1.2839468 -0.19306031 1.2547334
-1.6995 -0.2591549 -0.32253736 0.77626854 -0.41996178 -1.063826 0.12239733 0.9818561
0.44728717 0.011879838 0.6028618 -0.6519165 0.2587938 -0.31453755 -1.5107267 -1.0510235
-0.31732917 -1.1934836 0.101385325 -1.1270747 0.17304915 0.87379146 -1.226687 -0.35701263
1.1888268
00000000: cbc3 25bf fccd 433f 9f72 76bf 8db6 c6bf
00000010: 5d94 b0be 5e58 a43f 9ab1 45be 1b9b a03f
00000020: 3789 d9bf f3af 84be 9e23 a5be 89b9 463f
00000030: 3b05 d7be 732b 88bf 74ab fa3d ec5a 7b3f
00000040: d302 e53e a7a3 423c 2755 1a3f 00e4 26bf
00000050: 9f80 843e 110b a1be 7e5f c1bf f087 86bf
00000060: f878 a2be 12c4 98bf 1ca3 cf3d fc43 90bf
00000070: cc33 313e ccb0 5f3f 1404 9dbf 5cca b6be
00000080: 7a2b 983f
