result/ver7/last.pt (torch, 290888 bytes, 75 tensors)

Encoder.encoder_lstm.weight_ih_l0 f4 [128, 6]
00000000: 4d36 f13d afbe 3cbd 6364 913e 6793 0ebe
00000010: 3fd5 313d 53e8 333d 7888 5abe 2fcf 46be
00000020: 2587 08be 03e4 6fbe 9a21 92be 898e 46be
00000030: 45bd 1d3e 3766 e83e 41d0 f43d 0f2f 34bf
00000040: bd11 19bf 6d83 9a3e 04d9 0dbe 23b0 1f3d
00000050: 21de 67be d6ea e1bc e7a2 d73e 2615 55bd
00000060: c7b7 093b 0794 b53d a309 a7be c569 d53e
00000070: 7392 783e b8c4 f9bd 4ccc 553d dbf0 4b3d
00000080: b6bf e63b 95e4 eabe ee83 14bf f605 e93d
00000090: 4d3c 9bbd 0906 c5bd a35b 8f3d c5fc 1a3e
000000a0: 0450 99bd 2af8 8b3d 90a5 4cbe a846 16be
000000b0: 5c6c 14be e56a a43d e2b6 cf3d a62e 4fbe
000000c0: 64bc 78bc 3e92 2cbe efa3 203e 5262 153e
000000d0: da82 813d 34b9 38bd 43ed bbbd 73e7 943d
000000e0: bd60 b2bd ab87 8d3e fb6d 353e 63a1 163e
000000f0: 93a1 b43c ed6f d2bc 421a 183d 739a 8cbe
00000100: 7612 f8be fa29 41be 6317 13be d4ed acbe
00000110: 61eb acbe 477d 30bf a874 e8be 6bfa f6be
00000120: 0b83 dbbe 9775 e5be 8018 c2be 6d19 1abf
00000130: c8a6 c9be 7c9e c7be e41e 6dbe a0b9 813d
00000140: b4c6 95bd 08bc 90bd 027b a0be 8abe bc3c
00000150: aef4 80be 1705 69be e763 febe bf58 873c
00000160: ef61 c2bd 4231 50be c503 c6be 7ddc 9dbe
00000170: 742a d0be df83 423d 7073 92be f62f 94be
00000180: 14e5 303d 8b7b 083e 9eba 00be 66d0 463d
00000190: da7e b03d f8f2 6a3d 1c7e e13d 7e51 1cbd
000001a0: 1ad0 a5bd 0dce 67be c01d 7a3e e421 16be
000001b0: 0ada 80be 838d 183c 53ae 9fbe d75c cdbe
000001c0: 7503 c0be d79e 89be 2b55 08be 8b10 583c
000001d0: ebff 93be 7a1f 50bf 0f74 35bf e0c2 77be
000001e0: 4ca6 f6bd 1135 073e 600e bfbe 98d1 2dbf
000001f0: a802 47bf f9c4 99bc 57ee 4cbe dc16 0d3e
00000200: d70b 493c fd38 5ebe ecd6 9ebc 465b b9bc
00000210: dc98 62bd 9631 1d3e a8b1 a53d 19ef 763e
00000220: 84b9 333d 8571 e33d 3999 3ebd f1fa 6b3d
00000230: 77a8 34be b021 34bf 4e0b 3fbf 4ab6 92bc
00000240: 18c5 303d 5cb9 273d 4930 aabd 4394 04be
00000250: f7d2 1cbe 7bff 33be 40a8 53be 02cd 88be
00000260: d0f0 87bd c37a 14be 65c2 82be 2842 a2be
00000270: c994 b1be 02ba 63be c8b0 bbbe dcf3 13bf
00000280: b66b ccbe ca25 edbe a2ef 17be 6289 95be
00000290: 0273 b4bd e736 3fbf 6fac 01bf 2ed4 b7be
000002a0: 5e3f f03d 39c4 4fbd 8359 46bd c395 d53e
000002b0: bd85 073e 7e9e ed3c 30be a1be 8e0f 9ebe
000002c0: da83 5fbe a941 edbe e68b 0ebf cb2b b7be
000002d0: 5802 63bd 48a7 293e b347 5a3b e5ad cb3d
000002e0: 605a 893e 95ba 513e 05a1 a3bd 2822 abbd
000002f0: 75ee ecbd 5f69 d8be 921f c8be e5d8 4fbe
00000300: 47aa 763d 3c6b c03d 9912 0d3e e2c7 21be
00000310: 762b c33d ed0a 6f3e 22a8 dcbe 16ba 97be
00000320: 6a40 e6be a6c7 16bf a1c5 e8be d208 bbbe
00000330: 9a91 fb3e 51b1 0d3f 5207 a63e 3de2 40bf
00000340: 69cd 33bf 610e db3e 2a31 e3bd 0cf7 c0bd
00000350: c854 02be d99b 8ebe 358f f23d a7f9 6bbe
00000360: f0c9 46be 31ba 29be 77a5 8cbe 7083 1dbe
00000370: d5b3 0dbd 63c4 f0bd eeda b3be 1276 5cbd
00000380: 439b a0be e142 37bf 0370 acbe 7207 59be
00000390: d2c2 edbd abe0 3fbd 5388 97be 0135 9cbe
000003a0: 1ebf 74be 77a5 9cbd 404a 723c a398 27bd
000003b0: 23a5 f7bd 4dae c5be f003 30bd 5294 d9bc
000003c0: 2b05 703e ca0d cf3d fe17 a83d a694 b3be
000003d0: 3b48 97bd 5641 843e eff3 debd 33a2 5abd
000003e0: a57d dd3d bdd7 f0bd d5c0 2dbe 597f e0bd
000003f0: 0e89 60be 2827 61be 4c80 9fbe cc5c 17bf
0.11777935 -0.046080288 0.283969 -0.13923417 0.043416258 0.043922734 -0.21341121 -0.19414972
-0.13332804 -0.23426823 -0.2854126 -0.1939031 0.15404232 0.45390484 0.11953784 -0.70384306
-0.5979269 0.30178395 -0.13852316 0.038986336 -0.22643329 -0.027577799 0.42116472 -0.05202212
0.002101408 0.088661246 -0.3262454 0.41682258 0.24274616 -0.12195724 0.052196786 0.049790245
0.0070418967 -0.4587752 -0.5801381 0.1137809 -0.07579861 -0.09620292 0.069999 0.15135486
-0.07485965 0.06834443 -0.19985032 -0.1467539 -0.14494461 0.08028201 0.10142304 -0.20232639
-0.015181635 -0.16852662 0.15687536 0.14588287 0.06323786 -0.0450985 -0.091761135 0.07270708
-0.087098576 0.2764257 0.17717735 0.14710002 0.0220497 -0.025688136 0.037134416 -0.27461585
-0.48451585 -0.18863669 -0.1436439 -0.33775198 -0.3377333 -0.6894116 -0.45401502 -0.4823793
-0.42873415 -0.44816276 -0.37909317 -0.60195047 -0.39385056 -0.389881 -0.23156315 0.06334233
-0.0731329 -0.07067114 -0.31343848 0.023040075 -0.25186676 -0.22755848 -0.49685594 0.01652181
-0.094913356 -0.2033129 -0.3867475 -0.30832282 -0.4065739 0.047489043 -0.28603697 -0.2894284
0.043187216 0.13328378 -0.12571189 0.048538588 0.08617945 0.05736062 0.110103816 -0.038163655
-0.08096333 -0.22637196 0.24425411 -0.14661366 -0.2516635 0.009311083 -0.31187686 -0.40109894
-0.37502638 -0.26878998 -0.13313739 0.013187538 -0.28906187 -0.8129803 -0.70880216 -0.24195433
-0.12043437 0.13203837 -0.37315655 -0.6789794 -0.7773843 -0.018770682 -0.20012794 0.13778251
0.012270889 -0.21701427 -0.019389592 -0.02262653 -0.05532156 0.15350947 0.08090526 0.24114646
0.043878093 0.111056365 -0.046532843 0.057612363 -0.17642389 -0.70363903 -0.74626625 -0.017909188
0.043156713 0.040948257 -0.08309991 -0.12947182 -0.15314852 -0.17577927 -0.20669651 -0.2671891
-0.06637728 -0.14499955 -0.25538936 -0.31691098 -0.34683827 -0.22238925 -0.3665831 -0.57793975
-0.39925927 -0.46317893 -0.14837506 -0.29206377 -0.088109985 -0.7469315 -0.5065374 -0.35904068
0.11730836 -0.050724242 -0.04842521 0.41715822 0.13234611 0.029006239 -0.31590414 -0.30871242
-0.21827641 -0.46339157 -0.5568222 -0.357756 -0.055422157 0.16567719 0.0033306896 0.09945277
0.26826763 0.20481332 -0.079896964 -0.08356124 -0.115689196 -0.42267892 -0.39086586 -0.20297582
0.060220983 0.09395453 0.13776626 -0.15798905 0.09529774 0.23344012 -0.43097025 -0.2963416
-0.4497102 -0.5889839 -0.4546328 -0.36530167 0.49134523 0.5534869 0.3242746 -0.7534521
-0.70235306 0.42784408 -0.11093362 -0.094221205 -0.12727654 -0.27853277 0.11843721 -0.23044454
-0.1941297 -0.16574933 -0.2746999 -0.1538217 -0.03459533 -0.11756208 -0.35127968 -0.053823538
-0.31368455 -0.71586424 -0.33679208 -0.21194246 -0.11609425 -0.04684512 -0.29596195 -0.3050919
-0.2390103 -0.076487474 0.01478821 -0.04091705 -0.12092044 -0.38609543 -0.042972505 -0.026559982
0.23439471 0.10110052 0.08207701 -0.35074347 -0.07386824 0.25831097 -0.108863704 -0.05337734
0.108149804 -0.11759899 -0.16968091 -0.1096179 -0.21927282 -0.21987593 -0.3115257 -0.5912597

Encoder.encoder_lstm.weight_hh_l0 f4 [128, 32]
00000000: e7b9 a5be 1d18 f7bc d4af e73e 9bd5 afbe
00000010: e133 bebd 8eef 42be f361 8f3d cf07 ebbe
00000020: fd5f 17be 57ba 45be 96f6 6c3e f8ca e63d
00000030: 6cdc e63e 55db 70be 7c82 83be 67a1 5cbd
00000040: 8a27 733e 768b 98be 7f16 2d3e c007 f4be
00000050: dffc c23e 5b80 a4bc e9d1 9b3e 8570 873d
00000060: 1741 0e3e f3c7 3abd c7fd a03e a022 5ebe
00000070: 321f febc 4e1c 453e da1e 513d 8215 87be
00000080: 271a acbe 6f96 90bd afe9 b83e 8e79 d9be
00000090: 4701 b5be e113 97ba e0b4 e63e 75b9 d9be
000000a0: 942c 98be a474 fbbc 1ef9 a13d 7474 de3d
000000b0: f102 403e 3402 0a3d 68b7 fc3d 9d5b 0dbe
000000c0: c0d2 413e d99b 28be 1b24 a1bc 9c57 44bd
000000d0: c8f2 9d3d 3f18 243d 3364 ab3e 092c 58be
000000e0: 6417 013e 3b55 84bd 21db 713e 2dc4 e6bd
000000f0: 6e59 543d b8ed 0fbc ceac 323e a869 a3be
00000100: a7ee a1be 0f30 7ebe 9590 a7be 1d7c 11bf
00000110: 7481 17bf 2d0e 16bf 3451 bb3e 9797 1ebf
00000120: dbc0 8cbe f5b1 f5be c858 5dbe c27b 26bf
00000130: a21d 0bbe c370 073e 3c03 843e 92e5 c3be
00000140: 622f 403e 6644 2ebf fa26 4dbe 1d95 c83e
00000150: 69c4 02be e59d 8f3d 2f0b 0b3f 2eb6 1bbf
00000160: 08bc 133f ab70 46be eaf5 7bbe 1fe7 a43e
00000170: fe00 18be 5099 e8bd 7a1d d73e 6a48 4c3e
00000180: 4e13 233e 40fc 5b3e bb60 1c3e f64d ed3d
00000190: 161d 1ebc 44e3 8d3d a18b fabc 9082 4a3e
000001a0: ba76 e43d 85dc 5a3e bcf0 9e3e 4e56 243e
000001b0: b5cd cf3e 20b3 ef3d df74 36be 6196 643e
000001c0: b022 4bbe bfb0 8d3e 822a c53e 889c c2be
000001d0: bbe5 883e f5d7 9a3d f3d7 49be 8a0d 0e3e
000001e0: 340a 5bbe ab70 ffbb cd55 883e 0a6a aebe
000001f0: 9d9c 553e 705c 7f3e 6d37 8dbd 80a9 b2be
00000200: 4a1e f0bd 6cf5 52be 2b33 0d3d fc58 40be
00000210: 0619 b1bd 2491 46bd 353d 493e a6f1 5fbd
00000220: 7cff d4bc 810d fbbd eae5 07be a9b9 61be
00000230: 4968 99bc 70bf 783e dd2d b5bd adec bf3d
00000240: be98 883e 208c 273e decd 43bd 79cb 2f3d
00000250: dd49 3abe 3fe5 723c 0ae3 5d3c f2fb ecbe
00000260: 4449 acbd 14fe 4abd 2cd2 37be 2de4 473e
00000270: 53c1 3cbd 5a6d 8fbd 3679 3b3d 8372 a4bd
00000280: d41a 3ebe c1df 743d e4e3 ef3d 0e82 6abe
00000290: 85cb 27bf 66af 743e 735e d53e 37fb bebe
000002a0: 34c4 50be 7537 8bbe ff93 233e 7ce1 823e
000002b0: 27e4 b23e 497e 9f3d b50f 21be 174c 383e
000002c0: b442 0e3e 03c0 2dbe 008e b4bc 0c9d d5bd
000002d0: 9492 7e3e 2f5d 9abd a62b e53e e3b4 cfbd
000002e0: d0b0 213e 708c 2dbe 99ad b7bc bffc 3cbe
000002f0: bea1 023e ff13 b93b 1648 b73e 9c67 a1be
00000300: bb23 82be 5dc2 3f3d a0f4 ce3e f809 a0be
00000310: 6c7a d9bc fdeb 12bc bf53 613e 6dfd dabe
00000320: 7cf6 99bd 1374 3d3e 68cf 7d3e 2a64 fa3c
00000330: 46ee c93e d613 ff3d 6dee b1bd 0f91 e6bd
00000340: 6d03 343e 4d4b 02be 5e39 d1bd 5455 85be
00000350: 064e 7a3c 7c38 54be e5e2 853e 1743 7ebd
00000360: ca99 c23e 5d3c 28be e90a b03d a5e9 d8bd
00000370: f867 97bc fd2e 283e 7cd9 553e dead babe
00000380: 5f41 aabe 7b6e f3bd 5b7e 3e3e f68e cb3d
00000390: 5da8 af3d 5ead 52bb 0998 d43e 569b 7e3c
000003a0: 2f97 68be 67a2 c03e aba3 5f3e 57c2 8d3d
000003b0: 7d24 3e3e 4c81 dabd e19c 21be e43b 2abe
000003c0: 9ccc bebd b29c 93be 779b d9bb 9d62 abbd
000003d0: 2bdf 533e e51e 27bd b387 403e c27f 49bd
000003e0: dbe9 be3e 0970 21bd 6e2b 883c b87e f53d
000003f0: 7cd9 6e3e b9ce aa3e 3302 d23e c979 03be
-0.32368395 -0.030162865 0.45251334 -0.34342656 -0.09287239 -0.19036695 0.07001104 -0.45904395
-0.1478271 -0.19309364 0.2314094 0.11269182 0.45090044 -0.23521169 -0.2568549 -0.053864863
0.23745552 -0.297939 0.16903113 -0.47662163 0.3808355 -0.020080736 0.30433586 0.06613258
0.13892017 -0.045600843 0.31443617 -0.21692896 -0.031020734 0.19249079 0.051054813 -0.26383597
-0.33613703 -0.07059943 0.36115786 -0.4247555 -0.35352537 -0.001152631 0.45059872 -0.42524305
-0.2972151 -0.030695267 0.079088435 0.108620554 0.18751122 0.033693507 0.123396695 -0.13804479
0.18928051 -0.16465701 -0.019670537 -0.047935113 0.077123225 0.040062185 0.33474883 -0.21110548
0.12606579 -0.06461569 0.23618747 -0.11267886 0.0518431 -0.008784704 0.17448732 -0.31916547
-0.3162739 -0.2482302 -0.32727495 -0.56830007 -0.59181905 -0.5861538 0.3658539 -0.6195006
-0.27490887 -0.47987333 -0.21615899 -0.6503259 -0.13585523 0.13226609 0.25783718 -0.38261086
0.18768075 -0.6807312 -0.200344 0.39176264 -0.12770237 0.07012538 0.5431394 -0.6082486
0.5770879 -0.19378917 -0.24605528 0.3220758 -0.14844128 -0.11357367 0.42014676 0.19949499
0.15925333 0.21482944 0.15271275 0.115871355 -0.009650489 0.06928113 -0.030584158 0.19776368
0.11155458 0.21373184 0.3104304 0.16048548 0.4058663 0.11704087 -0.1781802 0.2232299
-0.19837451 0.2767391 0.38508993 -0.3801005 0.2673777 0.07560722 -0.19711284 0.13872352
-0.21390611 -0.0077954135 0.2662796 -0.34065276 0.20860524 0.24937606 -0.06895337 -0.34894943
-0.11724527 -0.20601434 0.034472626 -0.18783945 -0.08647351 -0.04847826 0.19652255 -0.054673813
-0.02600073 -0.12258435 -0.13271299 -0.2204348 -0.018726485 0.24291778 -0.08846638 0.09371314
0.26679033 0.16362047 -0.047803752 0.042918656 -0.18192239 0.014825164 0.0135429 -0.4628597
-0.08412412 -0.049558714 -0.17951268 0.19520636 -0.046082806 -0.07003279 0.045769893 -0.08029654
-0.18564922 0.0597837 0.117133886 -0.22901174 -0.6554492 0.23895034 0.41673622 -0.37301037
-0.20387346 -0.27190748 0.15974425 0.25562656 0.3493969 0.07787759 -0.15728648 0.17997776
0.13892633 -0.16967778 -0.022040367 -0.10430345 0.24860603 -0.075373046 0.44759864 -0.10141923
0.15790105 -0.16948104 -0.022421645 -0.1845579 0.12757012 0.0056481357 0.35797185 -0.3152436
-0.25417885 0.04681622 0.4042101 -0.31257606 -0.026547633 -0.008967397 0.22004603 -0.42771474
-0.07517716 0.1850131 0.2478615 0.03056534 0.394396 0.12454955 -0.08688054 -0.112581365
0.17579432 -0.12724037 -0.1021602 -0.26041663 0.015277391 -0.20724672 0.2614967 -0.0620757
0.38007957 -0.16429277 0.08595831 -0.10591439 -0.018482193 0.16424175 0.20883745 -0.36460775
-0.33253 -0.11886307 0.18602888 0.09939377 0.085770346 -0.0032146792 0.41522244 0.015539965
-0.22713922 0.37623903 0.21839778 0.06921833 0.18568607 -0.10669193 -0.15782501 -0.16624409
-0.0931637 -0.28830487 -0.0066408473 -0.08368418 0.206906 -0.040800948 0.18801765 -0.049194105
0.37287793 -0.039413486 0.016622271 0.1198706 0.23325151 0.33360842 0.41017303 -0.12839426

Encoder.encoder_lstm.bias_ih_l0 f4 [128]
00000000: 31aa 97bf b8ba 53bf 362b 51bf 4c39 3cbe
00000010: eae7 89be 9a2b a1bf dde9 55bf 4af9 c6bd
00000020: ea16 49bf ebb0 09be 651d 07bf 5d29 59bf
00000030: dbfb 40bf f493 c2bf 2050 91bf 0c1b 89bf
00000040: 93c8 a9bf 85cd 5dbe 99ad 95bf 1b7f 4abf
00000050: a9d6 5ebf 06a6 21c0 ffbd d3be 8d95 13bf
00000060: 1ece 92bf f244 9abf 5e3e 7bbf 8451 50bf
00000070: 5445 09bd dc66 3cbf 1a71 24bf 1fd2 4fbf
00000080: 9ee8 8ebf 6d39 98bf 3cfa d7be 08ba 19bf
00000090: 1e05 82bd 8463 80bf 00cd b8bf 4664 29bf
000000a0: 69b3 51bf 4121 3ebe 3cc2 30bf f624 61bf
000000b0: a983 8fbf 3106 e7bf 8fc1 9abf 7531 8cbf
000000c0: 08c4 acbf c1c8 61bf 7bd9 c9bf fa6d 4bbf
000000d0: fd7e 48bf 8b0a cfbf f811 7bbf b768 00bf
000000e0: 56c9 92bf ba98 a9bf 43f5 8ebf 3996 6fbf
000000f0: 924f c6be 820b 45bf a00b 72bf 7479 67bf
00000100: ecd7 e2bd 035d cb3d 8017 1bbe 9ab3 67bd
00000110: cd25 b23c 60cb da3c 64fc 9c3d 6601 203e
00000120: 85ce 67bd 5ea7 1abb 8778 33be 8292 3ebd
00000130: 1e5b 26be debc e93b 6540 0fbc 485b cbbd
00000140: 73c8 b5bd 8996 613c c94b c3bd 77e2 343d
00000150: 80ae 81bc 69c2 0a3d c346 0cbe 0bf0 963d
00000160: 62a4 4b3d 6d5d 043d 7125 2dbe 0691 883c
00000170: 0806 a43d 029b 07be 845a f6bc 8255 953d
00000180: e8f6 73bf 5f2d d0bf 7581 fdbf 4f6f d2be
00000190: 010f b6be f7b9 bfbf e173 87bf a15a 93be
000001a0: a888 5cbf f18a 103d ca4c 28c0 5dc0 debf
000001b0: 719c 00c0 37d4 1cc0 1118 29c0 5e80 a9bf
000001c0: acc8 d2bf 0c33 e0be 46c5 eabf b370 f3bf
000001d0: 2b6a babf 96a6 25c0 a468 00bf cfd3 c9bf
000001e0: 4b72 82bf 2351 e3bf b1f7 e7bf c281 d5bf
000001f0: e10c b3be 383a 11c0 ab80 5abf 6770 f5bf
-1.1848813 -0.82706785 -0.8170656 -0.18381232 -0.2693475 -1.2591431 -0.8355997 -0.09715517
-0.7855059 -0.13446395 -0.5277923 -0.8482874 -0.753843 -1.5201402 -1.1352577 -1.0711379
-1.3264335 -0.2166043 -1.1693603 -0.791002 -0.87046295 -2.5257583 -0.41355893 -0.5765007
-1.1469152 -1.205229 -0.9814204 -0.8137438 -0.033513382 -0.7359445 -0.6423508 -0.81179994
-1.1164739 -1.1892525 -0.421831 -0.60049486 -0.06348632 -1.003037 -1.4437561 -0.6616863
-0.81914383 -0.18567373 -0.6904638 -0.8794702 -1.1212054 -1.8048764 -1.2090319 -1.0952593
-1.3497324 -0.8819695 -1.5769495 -0.79464686 -0.7831877 -1.6175092 -0.98074293 -0.5015978
-1.1467693 -1.3249733 -1.1168598 -0.93588597 -0.38732582 -0.76970685 -0.9454899 -0.904197
-0.1107634 0.0992985 -0.15145683 -0.056567766 0.02174654 0.026708305 0.07665327 0.15625533
-0.056593437 -0.0023598294 -0.17526446 -0.04652644 -0.16245696 0.0071331104 -0.00874338 -0.0992952
-0.08876123 0.0137688005 -0.09535939 0.044161286 -0.015830278 0.03387681 -0.13698868 0.07370003
0.049717315 0.03231566 -0.16908814 0.016670715 0.08008963 -0.13242725 -0.030072458 0.072917
-0.95298624 -1.6263846 -1.9805132 -0.41100547 -0.35558322 -1.4978627 -1.0582238 -0.28780082
-0.8614602 0.035288755 -2.6296868 -1.7402455 -2.0095484 -2.4504526 -2.642094 -1.32423
-1.646749 -0.43788946 -1.8341453 -1.9018768 -1.456365 -2.5882926 -0.5015967 -1.5767764
-1.019113 -1.7759136 -1.8122464 -1.6680224 -0.34970763 -2.2691784 -0.8535258 -1.9174927

Encoder.encoder_lstm.bias_hh_l0 f4 [128]
00000000: d357 88bf dcfb 4ebf 36da 5ebf 43f5 fdbe
00000010: ed1e 07be 2091 9fbf 9a1d 80bf 2cf4 62be
00000020: 565b 2ebf 35b0 41bd e8bd cdbe a75b 5fbf
00000030: 3abe 14bf 681c dfbf 7b08 9dbf 6717 70bf
00000040: 88bb bdbf e59a 8ebe ec01 a6bf a84c 46bf
00000050: 1602 5ebf 43b1 1dc0 02c8 29bf 7726 30bf
00000060: 17a5 62bf ad25 84bf f6e4 45bf 55e1 4fbf
00000070: 3665 49bd e2a3 34bf 04a6 1ebf 1a70 3fbf
00000080: f5ed 8bbf cc7c 83bf 4b33 12bf d05c 23bf
00000090: 4364 72be 13f9 99bf 981a 92bf 4e5a 29bf
000000a0: afca 73bf fe22 13be 0a65 04bf 43cf 68bf
000000b0: 5541 9cbf fb04 f2bf b849 87bf 3bf4 a7bf
000000c0: 0019 a0bf 7771 3bbf df5b a5bf a460 29bf
000000d0: 1597 3cbf e06a d8bf bf5a 6cbf 08dc 0ebf
000000e0: 48b1 82bf 85e1 99bf f73c 95bf ac94 85bf
000000f0: 458f b3be 786d 24bf 8c0a 8dbf 3663 43bf
00000100: 5a87 143e 189e 0cbe e75f 14be b332 363d
00000110: f30d 323e ba16 5f3c 7eaa 72bd 04e5 0bbe
00000120: 649f aa3c cc00 5b3e 1662 efbd 688f 323d
00000130: 171b d53d 4b53 05bd e35f 123d 7f9a b23d
00000140: eaa4 ed3d c34d a73a 7273 073e 8876 fd3d
00000150: 2eeb 88bd f19a c0bc 12b1 0d3e 7ec3 c3bd
00000160: fa11 44bc 1939 68bd b7f6 133e 81fb 963c
00000170: bb35 5e3d 5f4b 383c 3c0f 883d 0cd9 803d
00000180: cd3a 9abf ed50 c6bf 8f01 0cc0 1d95 08bf
00000190: f5a6 4abe f6e2 bcbf 5f26 93bf a655 53be
000001a0: eb09 5ebf 0893 3dbd f0d1 34c0 d893 c5bf
000001b0: 1d50 f1bf ccee 17c0 fe49 2bc0 b481 b6bf
000001c0: 3819 debf a1cd 01bf 328c fabf eb45 f7bf
000001d0: 5f12 d2bf 7d75 1bc0 c1aa 09bf 5e64 bfbf
000001e0: 27ba 76bf c2fc d5bf f1a7 d7bf a7ac cebf
000001f0: 2d04 76be b51a 12c0 8e09 8bbf e124 f9bf
-1.0651802 -0.80853057 -0.87051713 -0.49601182 -0.13195391 -1.2466164 -1.0009034 -0.22163457
-0.6810812 -0.047287185 -0.4018395 -0.87249225 -0.5810276 -1.7430544 -1.2268213 -0.9378571
-1.4822855 -0.2785255 -1.2969337 -0.7746072 -0.8672193 -2.4639442 -0.6632081 -0.6880869
-0.8853316 -1.0323998 -0.7730249 -0.81203204 -0.049168788 -0.70562565 -0.6197207 -0.7478043
-1.0931994 -1.027246 -0.57109517 -0.63813496 -0.2367106 -1.2029136 -1.1414366 -0.6615342
-0.95231146 -0.14368817 -0.51716673 -0.90941256 -1.2207438 -1.890777 -1.0569372 -1.3121408
-1.2507629 -0.7322001 -1.2918662 -0.66163087 -0.7366803 -1.6907616 -0.9232597 -0.5580449
-1.0210352 -1.2021948 -1.165923 -1.0435996 -0.35070243 -0.64229536 -1.1018844 -0.7632326
0.14504758 -0.13732183 -0.14489709 0.044481944 0.17388134 0.013616258 -0.059244625 -0.13661581
0.020827956 0.21387023 -0.1168863 0.043593794 0.104055576 -0.032550137 0.035735976 0.08720874
0.116037205 0.0012764264 0.13227633 0.12376124 -0.06685482 -0.023511382 0.13837078 -0.095587716
-0.011967177 -0.056695078 0.14449583 0.018430473 0.05425046 0.011248439 0.06643531 0.062913984
-1.2049195 -1.5493447 -2.1875951 -0.5335253 -0.19790252 -1.4756763 -1.1496085 -0.20638141
-0.86733884 -0.046282798 -2.8253136 -1.5435743 -1.8852574 -2.37395 -2.6763911 -1.4258332
-1.7351446 -0.5070439 -1.9574034 -1.9318212 -1.6411856 -2.429046 -0.53776175 -1.4952505
-0.96377796 -1.671776 -1.6848127 -1.6146439 -0.2402503 -2.28288 -1.0862291 -1.946438

Encoder.encoder_attn.0.weight f4 [20, 84]
00000000: e1c7 8c3f c3b8 d63d 397c b8b9 9984 a63b
00000010: e99e 07be f4a7 ad3e f9bd 87bf e4dc e73e
00000020: 5b65 5c3f 96b7 32be d7d4 c4be 9430 14be
00000030: d1c1 7ebe 1cd7 233f fffd 243e c381 a53e
00000040: a588 b6be d309 483f 3df0 6c3d 558d 103e
00000050: 8dd4 d2be 0729 6d3e 45a4 80bf 09a9 0abe
00000060: 80dd 6dbf d478 b3bd c7d4 5bbe 9cf3 1f3e
00000070: b997 0dbe d312 a0be cf96 8bbf c0ca 1b3e
00000080: 2888 923f 4126 e4bd 435a fbbc a1dd 033e
00000090: 6bfd 1abe ffdf ac3e c9ba 94bf efd5 133f
000000a0: 6e13 773f ecc0 6fbe b8c7 cbbe a5f0 76be
000000b0: efac 11bf b540 803f c6a3 7f3e 96c5 293e
000000c0: b582 b8be b956 513f b225 9a3c 96b7 803e
000000d0: 45e2 33be 5d32 4b3e eb65 a4bf 5395 62bc
000000e0: 7996 4ebf 73ae 81be 792b 87be 1754 7e3e
000000f0: 3a4a 51be 3c0c a7be 1aba 93bf 0409 943e
00000100: c7c6 053d f5d5 713e cf09 b73c 4c29 913e
00000110: c27f bb3e 95dd bb3d 7dfc 4b3e 642f acbd
00000120: 53b1 173d 155c e13e 092a 303d f90f b73e
00000130: 2cdb e93d 742b b03e 4a85 a2bd f114 1e3f
00000140: e5d6 123e 84a8 073d 83f5 ce3d ffcf 013f
00000150: 94b4 e73e d137 4b3f daf8 823f 5689 003f
00000160: 9e2c b13e e0f3 793f 1330 0dbf 9eca 1a3f
00000170: d84d 3d3f ed4c dc3e e770 483f c0f2 7c3f
00000180: 5f65 4d3f ec5a 74be 4b1e 1cbf bb39 813f
00000190: c60a e9be 7f2a 753f 7b19 fc3e 9266 68bf
000001a0: 8659 853f 329b 3d3e b949 1dbf 740b a43f
000001b0: 7025 6bbf b91d 343f 793a 6c3f 3ff0 82bf
000001c0: 2441 133f 6b1b 433f 89a0 21bf 0a02 69bf
000001d0: 9ea1 fc3e 72bd 7d3f a6b5 a33f 9ae8 0a3f
000001e0: ebbc e03e aff5 9b3f b470 08bf d6ee 153f
000001f0: 3868 383f b2bc 0e3f 9776 923f 6f5c 903f
00000200: b5e0 8f3f d2a6 ccbe 66f9 3fbf 5108 8e3f
00000210: 510f 45bf 8f0f 5c3f e009 263f d3db a8bf
00000220: edbe aa3f dfd3 673e e7ca 19bf 124a b33f
00000230: a830 7abf 868f 393f eb24 8c3f 40f6 9fbf
00000240: 8a25 273f f0e8 9e3f d255 4abf 3914 8abf
00000250: b24d 643d 8aaa 99be 6e96 c13e 836c bcbd
00000260: b7a1 5cbd 191a 6b3d c420 d7bd 774c 1dbd
00000270: 4f22 adbc 68e5 7fbd 7696 773c a808 9e3d
00000280: 62d9 0c3e b29b d23c 8d18 79bd 0de3 1d3e
00000290: 4532 773e 6e87 273e b3c1 c6bc c44e bfbd
000002a0: bdd1 7ebe 7fd4 9cbe 384c c8be b8f2 b3bd
000002b0: a80b 5bbe 5958 c1be ad5f 3f3e 0e14 82bd
000002c0: 243e a5be fbfa 64be 7462 c3be 8d44 f1bd
000002d0: 1585 afbe 152b 333e 4004 8a3e b510 9bbe
000002e0: 2e12 df3e b3b9 a7bd a858 34be be66 de3e
000002f0: e7e6 66be d4e0 963d 0ca4 963e 9a34 64be
00000300: a79e 0e3f 79c0 47be 522d c2bd 132d 313e
00000310: 9b8b 90be b4d7 d2be e2e4 7a3e 9e39 6d3e
00000320: 0988 9dbe 2d65 c4be 3d36 03bf d180 8abe
00000330: 0ee0 29be b88f 04bf 4ece 813e 9f29 f6bd
00000340: c06a 92be 5059 a0be 984b e4be bd92 eebd
00000350: 2212 38be 9200 bb3e 5675 dc3e 4410 3dbe
00000360: d238 f13e 3e51 aebd 3362 3cbe c1e2 0d3f
00000370: 0ffc e9be 652a d93c 2c31 c43e ca5c 92be
00000380: ddab eb3e 079b a2be 4492 8cbd 4079 833e
00000390: d791 4ebe 550b f0be 4fee 993e 137b 0d3f
000003a0: 893e de3e 0683 083f 84a7 bfbd 085d 063f
000003b0: cff1 343e acbc ec3e 0b88 993c b149 31bd
000003c0: 656f ac3e ccfb 48be 9398 17be 85df 093e
000003d0: a6b4 a0bd 9896 8bbe dc3a be3e cbe2 a63d
000003e0: 3d14 0b3f a580 693d 6158 973d db4e f33e
000003f0: 1ec3 36bd 354f 21be b692 48be 1937 acbe
1.0998498 0.10484459 -0.00035187768 0.005081725 -0.13244213 0.339172 -1.060485 0.45285714
0.86092156 -0.17452845 -0.38443634 -0.14471656 -0.24878623 0.64000106 0.16112517 0.32325563
-0.35651127 0.7813999 0.057846297 0.14116414 -0.41177788 0.23160182 -1.0050131 -0.13541044
-0.9291611 -0.087632805 -0.21467887 0.15620273 -0.13827409 -0.31264362 -1.0905398 0.15214062
1.1447802 -0.11140109 -0.030682689 0.12877513 -0.15135734 0.33764645 -1.1619502 0.5774831
0.9651402 -0.23413438 -0.3980081 -0.24115236 -0.569045 1.0019747 0.24964818 0.1657928
-0.36037222 0.81772953 0.018816803 0.25140065 -0.17566784 0.19843431 -1.2843603 -0.013829547
-0.80698353 -0.25328407 -0.26400355 0.24836765 -0.20438471 -0.32626522 -1.1541169 0.28913128
0.032660272 0.23616774 0.022343544 0.2835182 0.3662091 0.09173123 0.19920535 -0.084074765
0.037034344 0.44015566 0.043008838 0.35754374 0.11418757 0.34408152 -0.07935579 0.61750704
0.14339788 0.033119693 0.101054214 0.50708 0.45254958 0.79382044 1.0232193 0.5020956
0.34604353 0.9763775 -0.5515148 0.6046542 0.73946905 0.4302744 0.78297275 0.9880791
0.80232805 -0.23862809 -0.60983723 1.0095743 -0.45516032 0.9576797 0.4923819 -0.9078151
1.0417945 0.18516234 -0.61440617 1.2815995 -0.91854 0.70357853 0.9227672 -1.0229567
0.5752127 0.7621371 -0.6313558 -0.91018736 0.49342054 0.99117196 1.278981 0.5426117
0.43894133 1.2184352 -0.5329697 0.5856756 0.72034025 0.55756676 1.1442441 1.1278208
1.124045 -0.39971024 -0.74989927 1.1096288 -0.76976496 0.8596124 0.6485882 -1.3192085
1.3339516 0.22639416 -0.6007523 1.400698 -0.97730494 0.72484624 1.0948766 -1.2497025
0.65291655 1.2414837 -0.790372 -1.0787421 0.05573816 -0.30012923 0.3781008 -0.092003845
-0.05386516 0.057397936 -0.105042964 -0.038403 -0.021134524 -0.06247464 0.015111556 0.07716495
0.137548 0.025709007 -0.06081443 0.15418644 0.2414027 0.16360256 -0.024262285 -0.09341195
-0.24884696 -0.30630872 -0.3912065 -0.08786529 -0.21391165 -0.37762716 0.18688841 -0.063514814
-0.32273972 -0.22361366 -0.3816105 -0.11780653 -0.3428122 0.17496903 0.26956367 -0.30286184
0.43568558 -0.08189716 -0.17611945 0.4343776 -0.2254902 0.07367101 0.29422033 -0.22285691
0.55710834 -0.19507016 -0.094813004 0.1730235 -0.2823151 -0.41180193 0.24501374 0.2316651
-0.3076785 -0.3835844 -0.51254636 -0.27051404 -0.16589376 -0.517818 0.2535271 -0.12019657
-0.2859707 -0.3131814 -0.44588923 -0.11649082 -0.17975667 0.36523873 0.4305827 -0.18463236
0.47113663 -0.085115895 -0.18396835 0.55424124 -0.45700118 0.026509473 0.38318765 -0.28586417
0.4602956 -0.317589 -0.068638355 0.25678444 -0.20172821 -0.46883646 0.30064628 0.5526592
0.43407086 0.53324926 -0.09358123 0.52485704 0.17670368 0.46237695 0.018741628 -0.04328317
0.33678737 -0.19627303 -0.14804296 0.13464172 -0.07846956 -0.2726333 0.3715428 0.08148726
0.54327756 0.05700745 0.07389904 0.475211 -0.044619672 -0.15752871 -0.19587216 -0.33635786

Encoder.encoder_attn.0.bias f4 [20]
00000000: 3c6b 76be 8f1f 55bf 9f65 3c3e 034d aa3e
00000010: 22f1 c5be 86a0 87bf 99bb 36bf 85d2 5cbe
00000020: a4b3 76be 5a7c 75be 6773 9c3f 202d 3fbe
00000030: 5ce6 993c 66af 523f cbf5 7ebf bf1a 263e
00000040: e0a0 573f 1f9e 913e f516 503f 3103 92bd
-0.24064344 -0.8325128 0.1839814 0.3326188 -0.38660532 -1.0595863 -0.7138 -0.21564682
-0.24091965 -0.23973218 1.2222718 -0.18669558 0.018786602 0.82298887 -0.995938 0.1622114
0.8422985 0.2844095 0.8128503 -0.07129515

Encoder.encoder_attn.2.weight f4 [1, 20]
00000000: c96b bc3c 67da 513c 569b 873c 0b27 acbd
00000010: 5b5f 7d3d c23a 42be 2675 273b b31a dbbc
00000020: 3096 3b3d a4b8 22bd a19c 59bd 87bf 20bd
00000030: e815 543d 247c 97bd 77f7 643d 09cc db3d
00000040: 68e2 13be c5aa cdbd 7e58 d9bd 3795 3c3c
0.023000615 0.012808419 0.016553562 -0.08405884 0.061858516 -0.18967727 0.0025552004 -0.02674613
0.045797527 -0.03972687 -0.05312789 -0.039245155 0.051778704 -0.07396725 0.055900063 0.10732276
-0.14441836 -0.10042337 -0.10612582 0.011510185

Encoder.wq.weight f4 [20, 20]
00000000: a1f3 95be fe1f ae3d 486f 613c 3416 f53c
00000010: c056 073f 938f 413d 0a58 5e3e a0fa 87be
00000020: afcd 90be 0915 bb3d bfe0 003e 5d45 0ebe
00000030: 9f88 a43d fc81 babd 0e85 023f 3bb1 a63e
00000040: b712 0cbe ac82 dabe 01ec 9e3d 18c0 98be
00000050: 4866 ea3d d7e8 ee3e dabd 0d3e e28f 823e
00000060: ae91 d43d 6d60 493e a2bc bbbd f589 653d
00000070: 4ae6 0cbd bde9 f63d ce01 c93e cada 15bd
00000080: a23b 4ebc 1f75 053f df75 6abe f620 953e
00000090: 1a59 fd3e 327d 003e 8991 00bf 52b4 42bf
000000a0: 3398 e13c 0608 983e f448 8abd 343c 2cbe
000000b0: 7f81 0d3f b8ec 98bc fe2e 04be 6ed8 1a3e
000000c0: c650 5f3c 7860 8e3d fb33 6dbe abac bfbe
000000d0: 0cab 8f3d 9ef0 edbe e1a5 88be 652c c23e
000000e0: fd7c c63e ab11 f63e 6418 ecbe 29be 87be
000000f0: ecff 923e 790b ccbe 43ea e5bd c998 6bbe
00000100: b721 35be 9a9d ecbe f13d ab3e a066 f3bd
00000110: 1418 883d a20d 693d efbd 283e bf19 1e3f
00000120: b3de 773e 6869 b5be 060d 87bd 069d a0be
00000130: 447f a83e 1e0f 11bf 9b9a 173f bb7c b6be
00000140: 4a10 293e 155b 96be 110c ddbe b260 e83e
00000150: 7370 c6bd b8e4 283f a6e8 b1be c4b8 343e
00000160: aae4 2a3f 2aab 013e 0b01 6abe 043b 603e
00000170: 63e3 913e d5bf c73d ce68 8dbd 7a3f 8ebe
00000180: fa4d a2be 2dd5 96be 37e5 cbbe f125 c43e
00000190: 703b a13e 5996 2c3e 5f39 0bbf bcf4 5b3c
000001a0: 8402 16be 7dd1 05be d094 1e3f 724f a83e
000001b0: fa4f 43bf a2c4 a5be 9e2f 00bf 0ee8 f43d
000001c0: 3c0b 9b3e 3160 f53d f07e e53e 0d12 8e3e
000001d0: eed0 463e 0c44 84be b52a b2be 5ec5 f4bd
000001e0: 72cc 763c dba5 b53d fa53 1b3c 8c8d 1bbe
000001f0: a83f 513e 732e 053c 00de 273d 89a0 e3be
00000200: 57b5 f7bd 0ab6 e9bd 9f77 603e 756c 2b3f
00000210: 965e f33e 6ede 0ebe 267b 673e 097e 603e
00000220: 03cd 163f 9819 0c3e 884a 0f3e 984f 42bf
00000230: a3d0 90bd 78b1 5fbe 011b 54be 993c db3b
00000240: 1032 b93e 4149 06be 7b3c 1d3f d330 f2be
00000250: 4e13 0a3d 7b38 50be 2491 48be 0fc9 443e
00000260: 031d 923e 8c77 01bf d446 da3d 8d62 103e
00000270: ca72 a2be 59bf 36bf 766a 433f 0ee6 c63e
00000280: fdd2 f23e 8540 91bc c2e9 67be bde9 93bd
00000290: a649 cabe e20f 273e 33c1 d4be 3e1b 063f
000002a0: 6819 403e 64c2 3e3e e502 40bd 777e 973e
000002b0: fdca bebc 7244 80be b5f7 08bf 709d bfbe
000002c0: 3ce9 dcbe 5a00 a23d 2748 9fbe 3a49 c23e
000002d0: dcb8 aebd 410f 02bf 4c8e 943e 70c7 133e
000002e0: 33ef c4be 2565 bd3e 94c9 f73d 6c8b 243e
000002f0: 5fa4 473e e611 053f d9fe bb3e 6c34 4ab9
00000300: e2a2 5f3d 2874 243d 7903 913e 1b8f 323e
00000310: 2db6 b0bb 5359 71bf 808f 1e3e 2706 d9be
00000320: 8538 b7be f1fb 69be e3c1 8d3e 0a6b 533e
00000330: c195 0cbd 628d 753e 289b be3e e670 193e
00000340: 9efc e63d 786c b13e 5347 723e cc52 6bbe
00000350: 2826 cabe fac1 323f f3aa 0b3d 1642 e6be
00000360: aafd 9b3d 6585 86bd fa60 e83e 2588 4dbf
00000370: b121 aa3e 68e1 8fbe 27c5 1b3d 3c3a 00bf
00000380: 87a8 15be 8342 63be 0e84 bebd 125c c73a
00000390: 43a1 4b3e f109 d83e 9bea bebc 5c51 10be
000003a0: bd57 583e d10d b83e 43c2 dc3c b2a8 293e
000003b0: e8ca a23e cc59 113e 2b31 68bd a959 40bc
000003c0: 9fde f0bd 58b9 a33d dbe0 d73d 665a e03e
000003d0: 4529 4bbe 4503 783e bfda a83d 3532 103f
000003e0: a962 b9bd 277e 6abe 8126 08bc 86f5 a0be
000003f0: b2f9 81be c3b9 c3bc f6bd bb3e be30 d23d
-0.29287437 0.08502196 0.013759442 0.029917814 0.52866745 0.047256064 0.21713272 -0.265584
-0.28281924 0.091348715 0.12585734 -0.13893647 0.08033871 -0.09106824 0.50984275 0.3255709
-0.13679014 -0.4267782 0.07759858 -0.29834056 0.1144529 0.46662018 0.13841954 0.255004
0.10379349 0.1966569 -0.09166838 0.05603977 -0.03439931 0.12056301 0.3925919 -0.036585607
-0.01258746 0.5213184 -0.22896527 0.2912671 0.49482042 0.12547758 -0.5022207 -0.76056397
0.027538395 0.2969362 -0.06752196 -0.1681984 0.5527572 -0.018667564 -0.12908551 0.15121624
0.013630098 0.06951994 -0.2316436 -0.37436423 0.070150465 -0.4647264 -0.26689056 0.37924495
0.38767233 0.48060355 -0.4611236 -0.26512268 0.28710878 -0.39852503 -0.112263225 -0.23007502
-0.17688642 -0.4621399 0.33445695 -0.118848085 0.066452175 0.056897767 0.16478704 0.61758035
0.24206047 -0.3543198 -0.06594281 -0.313698 0.32909596 -0.5666369 0.59220284 -0.35642037
0.1651012 -0.29366365 -0.43173268 0.45386273 -0.09689417 0.65974 -0.3474781 0.17648607
0.66755164 0.1266295 -0.2285196 0.21897513 0.28493795 0.09753386 -0.069047555 -0.27782804
-0.31700116 -0.29459515 -0.39823315 0.38310197 0.3149066 0.16854228 -0.54384416 0.013425048
-0.14649397 -0.13068195 0.6194582 0.32873112 -0.7629391 -0.3237658 -0.5007266 0.119583234
0.3028201 0.11981238 0.44823408 0.27748147 0.19415638 -0.25833166 -0.34798208 -0.11951707
0.015063392 0.08869525 0.009480471 -0.15190715 0.20434439 0.00812875 0.0409832 -0.44458416
-0.12095135 -0.11411674 0.21920632 0.6696237 0.475331 -0.13952038 0.22605571 0.21923079
0.58906573 0.13681638 0.13993275 -0.759027 -0.07071044 -0.21845043 -0.20713426 0.0066905734
0.36171007 -0.13113882 0.6142041 -0.47302875 0.033709817 -0.20334046 -0.19586617 0.19217323
0.2853776 -0.5057304 0.10658041 0.14100094 -0.31728202 -0.71385723 0.7633432 0.38847393
0.47426596 -0.01773096 -0.22647765 -0.072223164 -0.39509314 0.16314653 -0.4155365 0.5238532
0.18759692 0.18628842 -0.04687776 0.29588673 -0.023290152 -0.2505222 -0.5350297 -0.37424803
-0.43146694 0.07910223 -0.31109735 0.37946492 -0.08531353 -0.50804526 0.29014814 0.14431548
-0.38463745 0.3699123 0.12098995 0.1606881 0.19496296 0.51980436 0.3671787 -0.0001928375
0.054598697 0.040149838 0.28322962 0.17437403 -0.005392811 -0.9427692 0.15484428 -0.42387506
-0.35785308 -0.22850014 0.27686986 0.20646301 -0.034322504 0.23979715 0.3722775 0.14984474
0.11278652 0.34653068 0.2366002 -0.22980803 -0.39482236 0.69827235 0.034098577 -0.44972295
0.07616742 -0.06568412 0.45386487 -0.80285865 0.3322883 -0.2810166 0.038029816 -0.5008886
-0.1461507 -0.22193341 -0.09302531 0.0015209934 0.19885735 0.42195085 -0.023305228 -0.14093536
0.2112722 0.3594804 0.0269481 0.16568258 0.3179543 0.14194411 -0.056687515 -0.011740127
-0.117612116 0.07994336 0.10540935 0.4381897 -0.19839962 0.24219997 0.082448475 0.5632661
-0.09052021 -0.22899686 -0.008309961 -0.3143732 -0.25385815 -0.023892289 0.36668366 0.10263203

Encoder.wk.weight f4 [20, 20]
00000000: 812e c6be 0d77 1f3a 0419 643d 10a6 033f
00000010: a76c 413e a4b3 833d 238d 17be 3914 66be
00000020: 759e afbd c94b 03bd 1128 23be 8c2f d9be
00000030: e7c9 6c3d b52e 3c3e efb8 f33e 0f30 103e
00000040: 913b 84be 8c28 e5be 561c 31bd 4ece a83b
00000050: 6747 073e 8922 2f3f ca86 b13e a6c5 053e
00000060: ff3c 65be 02ad e13d 3c32 26be 4a06 08be
00000070: a5ba 42be 9205 d63d a483 65be 3d04 093d
00000080: 0a9b e1bd c452 6bbe 84e2 9a3e a001 c03e
00000090: ccc0 753e c9a6 88be bb11 43bf 9a9c 77be
000000a0: 33fe 9a3e 2d6f d33b 4865 d23d 1e47 603d
000000b0: ab57 533e a89f e13d ea28 053f 5403 443e
000000c0: 5233 89be cb1c c7be be13 d7be 912a f63d
000000d0: 524a 73be dd2e 3a3c b159 e83d 32c4 1a3f
000000e0: b0c1 fb3e d48f 9abe 712c 3ebe 0542 e53e
000000f0: 10f5 8cbe cb69 94be 040d 27bf 2e94 59be
00000100: 968c aabe b283 99be f278 df3e d981 0fbe
00000110: 4dba b93d 3c63 e43e 96b4 093f 4a0f 003f
00000120: c53b 383f 7db6 8d3e 16c3 1c3c 6516 b23d
00000130: 1e5d 99be 2e38 8fba eef3 8abe 3979 9e3d
00000140: d77f 063e e547 cebe a74c c53d ed87 e1be
00000150: 7ff3 d73e 23a0 b73e 7b44 403d 63a3 ee3e
00000160: fa68 4a3f 2383 78be 59f2 d33e 4922 cd3d
00000170: 694d b5bc f130 0abe 88f1 fcbe e451 3bbe
00000180: 9b1e 08be 8840 aabd 2fec c8bc e8fa 0ebf
00000190: e4c4 9f3e 4950 31be f225 a1bd 9208 fb3e
000001a0: 7b55 a53c a4a0 103f 3be0 873e 31f4 52bf
000001b0: 9be1 2cbf 2385 c8bd 8604 1fbe 201e 8ebe
000001c0: e737 223f c86d dbbd 8bc6 08be 7ae0 743c
000001d0: e34e c53c 572c c1bd 86f0 743d df85 16bf
000001e0: ddbd adbe 760f 08bd 3b15 313e e527 243e
000001f0: dc5d 09be 333a c8be f3f0 6dbd f06e 673d
00000200: d813 b0be ee91 4a3e bc67 9a3e 45b6 f93d
00000210: b444 1e3f 6966 fe3e 59ac 173d 2e0d 6b3f
00000220: 2d37 a43e a548 b1be 5668 cfbe 50f4 283e
00000230: 58df 23bf 618a d4be 5d6b 10bf 4247 0b3f
00000240: 7dc7 a93e 41c1 e33d 5884 843e a216 d8be
00000250: b799 843e d6c7 bdbd 45f8 3f3e 9bb1 203e
00000260: 8ce0 6d3e e15b b43d a654 61bd d9ed c0be
00000270: 4a4b aebe c3e8 20bf fa2a f83e 55f0 8b3e
00000280: dd48 353f b14b 493e f6c4 ecbe 532e 09bf
00000290: 38a2 c43d 6435 2d3e ddf7 473e ba2c 923e
000002a0: e0b2 be3e d172 3e3e 6526 833e 67a2 35bd
000002b0: 0745 aa3c 0683 eebe d146 0abf b6ca 35be
000002c0: a133 a4bd 4ed9 f43d 8111 673d 48b7 d7bd
000002d0: c828 d9be fd9f 76bc efa0 28be 3a45 9cbe
000002e0: dc3d 423e c6bb a73e eed9 1a3e 460c 3f3e
000002f0: 07e0 d13e 11c8 033f a5d6 623e 739a e53d
00000300: c032 463d b6f7 243f d37b 493f 0fe3 95be
00000310: fe2a 8abe b3d5 1cbe 8311 b0be 5cd9 03bf
00000320: e81a 38bf c36f a7bc 6a51 a93e 5356 4d3e
00000330: fa69 c13c ce9a 33be 699b 7d3e 3e53 3a3e
00000340: e8c5 1f3e 84c2 af3e 20eb 06bd 0000 4bbe
00000350: 6f64 21bd 8ae1 283e 743a 1e3f 83f3 b3be
00000360: f876 193c f78b 093f d28b 2ebf 293a 2cbd
00000370: c0df f3bc fc09 a0be cc62 1cbe e825 31bf
00000380: ada6 d3be 1441 633e 5198 3fbe 3438 61bd
00000390: 1b2e b3bd f017 1cbe 690a 84bd 8864 f8bd
000003a0: 0315 3c3e 52d1 633e e5a8 1f3e 3514 ba3e
000003b0: 9d97 5a3e 0024 9b3e 120f 0ebe 3214 fcbd
000003c0: 755b d73e 0f83 a63d 8cfa f63e 88f0 433e
000003d0: ca4e 873e e71f 003f 1da8 973e 1522 193e
000003e0: 14a9 d1be 7731 37bd 47e3 90be 4f15 44be
000003f0: 75f0 debe 8d6b 4c3e aa67 2e3e 5db8 03bf
-0.38707355 0.00060831086 0.05568792 0.51425266 0.18889104 0.06430748 -0.14799933 -0.22468652
-0.08575145 -0.032054696 -0.15933253 -0.42419088 0.057809737 0.18377192 0.4760203 0.14080833
-0.25826696 -0.44757497 -0.043239914 0.0051515466 0.13210832 0.6841207 0.34673148 0.13063678
-0.2238655 0.11019327 -0.162301 -0.13283649 -0.19016512 0.10450281 -0.22413498 0.033451308
-0.110158995 -0.22980791 0.30250943 0.3750124 0.23999327 -0.26689747 -0.7619893 -0.24180833
0.30272064 0.006452462 0.10273224 0.054755323 0.20638911 0.1101678 0.52015555 0.19141895
-0.26796967 -0.38889155 -0.4200725 0.12019838 -0.2375882 0.011363712 0.11345232 0.6045562
0.4917121 -0.30187857 -0.1857164 0.4477693 -0.27530718 -0.28986964 -0.65254235 -0.21247932
-0.33310384 -0.29983288 0.4364696 -0.14014377 0.09068737 0.4460696 0.5379118 0.5002333
0.719662 0.2767829 0.0095679965 0.08695678 -0.29953855 -0.0010926777 -0.2713923 0.07737965
0.13134705 -0.40289226 0.09633761 -0.44049016 0.4217796 0.35864362 0.046940308 0.4660903
0.7906643 -0.24268775 0.41395834 0.10016305 -0.022131639 -0.13495232 -0.49403024 -0.18292958
-0.13292925 -0.083130896 -0.024526684 -0.558516 0.31204903 -0.17315783 -0.078685656 0.49029976
0.020182362 0.5649512 0.26538262 -0.82403857 -0.67531747 -0.09791019 -0.1552907 -0.2775736
0.6336655 -0.107142985 -0.13356988 0.0149460975 0.024085468 -0.09432285 0.059799694 -0.5879802
-0.33933917 -0.03321787 0.17293255 0.16030844 -0.13414711 -0.39106902 -0.058091115 0.056502283
-0.3439014 0.1978223 0.30157268 0.12192968 0.6182358 0.49687508 0.037029598 0.91816986
0.32073346 -0.34625736 -0.4050929 0.16499448 -0.6401267 -0.41511825 -0.56413823 0.54405606
0.3316001 0.11120845 0.2588222 -0.42204767 0.25898525 -0.09266631 0.18747051 0.15692751
0.23230189 0.08806587 -0.055012368 -0.37681463 -0.34041816 -0.62855166 0.4847029 0.27331796
0.70814306 0.1965778 -0.4624402 -0.5358631 0.09601253 0.16914898 0.19528146 0.2854975
0.37245846 0.18598486 0.2561523 -0.044344332 0.020784868 -0.46584338 -0.5401431 -0.1775311
-0.0801766 0.1195551 0.056413177 -0.10533005 -0.42413926 -0.015052793 -0.16467641 -0.30521566
0.1896891 0.32760447 0.15122196 0.18657026 0.40991232 0.5147715 0.22152193 0.112110995
0.048388243 0.64440477 0.78704566 -0.29274794 -0.26985925 -0.15315895 -0.3438836 -0.5150354
-0.71916056 -0.020439034 0.33069927 0.20052461 0.023610104 -0.17539522 0.24766316 0.18195817
0.15602839 0.3432809 -0.032939076 -0.19824219 -0.03940242 0.16492286 0.6180794 -0.35146722
0.009366743 0.53729194 -0.681821 -0.042047653 -0.029769778 -0.31257617 -0.15272063 -0.69198465
-0.413381 0.22192794 -0.18710448 -0.05498524 -0.08749028 -0.15243506 -0.06447298 -0.1212855
0.1836739 0.22247818 0.15591772 0.36343542 0.21346898 0.30300903 -0.13872936 -0.123085395
0.42061964 0.08130466 0.48238027 0.19134724 0.264273 0.5004868 0.29620448 0.14954408
-0.4094931 -0.044724908 -0.282984 -0.19148754 -0.4354283 0.19962902 0.17031732 -0.5145319

Encoder.wv.weight f4 [20, 20]
00000000: 9810 84bd 4d91 d1be c6b3 35be f700 8cbe
00000010: c9ad 78be 5f77 90bd fcd4 0abe d13e 6a3d
00000020: ed95 f43d cb52 02bc 34fe 47be cda0 3a3d
00000030: 1377 afbd da06 d23d 7027 65be 0243 3abe
00000040: db63 cfbd f739 12bd 1064 403f f9df fb3e
00000050: 98c2 8a3e dc08 b0bd 105a 4bbe fdc7 373e
00000060: a37f d53d fccf 7e3e b96f 77be 383c 7ebe
00000070: 1964 d03d 596c 67be f0d7 d3be a4e0 73be
00000080: 814f ddbe c2d5 16bf df25 a3be 33ac afbd
00000090: f8f9 86be 01f8 453e 62b5 223f 62e0 543f
000000a0: 6e34 f93d c36a 58bd 0e4d b7be 5978 61be
000000b0: 8b64 0cbf db0a 353d 4e4d bf3c edb6 ec3c
000000c0: afc7 e4bc d8e8 12be 9006 43be 978f 883e
000000d0: 9210 7e3d 03d6 43be 40ef 94be 5309 7abe
000000e0: bd33 32be 67d2 7a3e 104a 413f db7b e73e
000000f0: df4b 433d 915f ce3d 6ec3 05be cf38 06be
00000100: 0e2d a2bc 4750 133e 2327 a5be 3f4b 96be
00000110: 1ac2 60bd d8f9 39be 4d14 56be fc71 9ebe
00000120: 5b4c a6be 4c71 b43d bca9 773d 8d07 c0be
00000130: f38e 553d e962 543d b335 2c3f 2d37 ff3d
00000140: 1ffd 593e 1081 bdbc a2eb 283e d11d 3fbd
00000150: 365d d0bd e049 9cbc f8a8 05bb 5624 3ebe
00000160: 60a1 20b9 ae92 b5be d348 413d 1db4 63be
00000170: 11f5 0ebf b046 e7be 7f2f babe 3732 9ebe
00000180: 28ac 82be 0ceb 3d3e 14a7 683f 4853 f63e
00000190: e28a b93b ef6e 04bf 82e8 dabe 4334 21be
000001a0: cd1c a9bd 5fd5 84bd 8daa bbbc 39e1 d23b
000001b0: 9978 f43d ac37 35bb 0646 b4bd fc62 213c
000001c0: bd45 163e 937c abbe bc38 00be f622 3b3d
000001d0: 9bb7 79b9 ac87 343d 5126 2f3f 63a8 5c3f
000001e0: 1ae6 17be 33b2 333d 72fe 2d3c b5f6 93be
000001f0: d551 fdbe d5bf 03be e9ff f9be 7952 1bbe
00000200: 1dd6 5cbe 4078 1abd a2b7 9cbe e7e2 9e3d
00000210: f688 223e 4e84 9f3d dbfa 5e3d 5f99 083d
00000220: a7e5 893e d974 e23d fc2e 6b3f b592 ce3e
00000230: 12ad d1be 20bb 9f3d 7405 ce3d b32b 19bd
00000240: 4e3b 283e 5fc7 933d 1ac7 acbe 3dc5 87be
00000250: 488c dbbe e366 0bbf bf4a 9cbe 4c0b 2abb
00000260: 07e7 273e ab03 803e f6b7 373e b1e5 873e
00000270: ed27 233e b94b e43e 0c03 4f3f 8c83 3a3e
00000280: 58b2 093c f236 9cbe c642 d7bd ceee 41be
00000290: 6ba3 fcbe a3f3 05be 1bb1 1dbe d166 a83d
000002a0: 1168 283e b810 a93d a00b cf3d dddc 803e
000002b0: 5866 9abe d60b a53d 59f2 4fbb 9e84 113b
000002c0: 6536 38bc 2d1c 9b3e 2273 0f3f 73d6 ae3e
000002d0: 69bf fabe c5f5 b5be 75e3 4cbe 8e3d 553d
000002e0: 7c25 d03d b0f8 193e dc10 913e 3220 adbe
000002f0: cf5d cbbd 29a9 afbe 5bef 743e 98cd aa3b
00000300: ffdc 23bc d958 bdbe f80b 0ebc 51b6 3cbe
00000310: 1537 323d 45d2 95bd 8931 613f 3069 113f
00000320: 2d54 f1bd f3ec f9bc a669 d6bd 166b d2bc
00000330: a97f 2fbf d11b e3be 8efd 01be fc99 f0bd
00000340: 3c58 0739 f819 f33d b857 933d 33fd 0a3d
00000350: a3ab 043e 2b62 813d 19f8 1abd a986 b6be
00000360: 9353 8f3c 7ac7 7d3e 9ba8 6d3f 8539 023e
00000370: 537d 083e 8047 a43e fa34 2b3e 5f9a b73e
00000380: 98e1 033e 38ad d23c 2b60 853c 96fb f13d
00000390: a285 d9bd fa03 bc3d 868f 41be 626c b33d
000003a0: 485b 8fbe f66b edbe 20c7 b6be 6224 b4be
000003b0: 2e64 98be 03ef cabe 07cf c33e 9c56 1b3f
000003c0: 56bb a4be 6547 bebe fe1c fdbe 45a5 3ebe
000003d0: 9e86 bc3d a87e 1fbe c251 d2bd 0b2e 84bc
000003e0: ab1a b9be f7ab 91be 251a 9cbe 3957 88bd
000003f0: 8058 183e 13c0 09be de39 353c ffa4 98be
-0.064484775 -0.40931168 -0.1774436 -0.27344486 -0.24285044 -0.07054018 -0.1355781 0.057188813
0.119426586 -0.00795431 -0.19530565 0.045563508 -0.085676335 0.10255213 -0.22378325 -0.18189624
-0.10126468 -0.03569981 0.75152683 0.49194315 0.27101588 -0.0859544 -0.19858575 0.17947383
0.104247354 0.24884027 -0.24163713 -0.24827659 0.10175342 -0.22599925 -0.41375685 -0.23816162
-0.4322472 -0.5891992 -0.3186483 -0.08577766 -0.26362586 0.19332887 0.6355802 0.8315488
0.12168203 -0.05283619 -0.35800976 -0.22018565 -0.54840916 0.044199806 0.023352291 0.02889582
-0.027927248 -0.14346635 -0.19045472 0.2667205 0.06202752 -0.19124608 -0.29088783 -0.2441762
-0.17402549 0.24494325 0.75503635 0.45211682 0.04767978 0.100768216 -0.13062832 -0.13107608
-0.019796874 0.14386092 -0.3225642 -0.29354283 -0.05487261 -0.18161714 -0.20906182 -0.30946338
-0.3248013 0.08810672 0.060464606 -0.3750576 0.05213828 0.05185214 0.6726944 0.12461696
0.21287964 -0.02313283 0.16496137 -0.046659295 -0.101740286 -0.019078195 -0.0020394903 -0.18568549
-0.00015318906 -0.3546347 0.04718859 -0.22236677 -0.5584269 -0.45171118 -0.36364362 -0.30897686
-0.2552197 0.18546695 0.9087994 0.48110414 0.005662308 -0.5173177 -0.42755514 -0.15742593
-0.082574464 -0.0648601 -0.022908473 0.00643554 0.11937065 -0.0027651591 -0.088024184 0.00985026
0.1467504 -0.3349348 -0.12521642 0.04568764 -0.00023814889 0.0440747 0.6841784 0.8619444
-0.1483387 0.043871116 0.0106197465 -0.2889916 -0.49476495 -0.12866147 -0.48828056 -0.1516818
-0.21566053 -0.037712336 -0.3060885 0.07758122 0.15872559 0.07788907 0.054438453 0.03334939
0.26933023 0.11057443 0.9186857 0.40346304 -0.40952355 0.07799363 0.10059634 -0.03739519
0.16428873 0.072157614 -0.33745652 -0.26517668 -0.42880464 -0.5445387 -0.30525777 -0.0025946675
0.16396724 0.25002798 0.1794127 0.26542428 0.15933199 0.44589022 0.80864024 0.18214244
0.008404337 -0.3051067 -0.10510783 -0.18938753 -0.49343428 -0.13081221 -0.15399592 0.08222736
0.16445948 0.08255142 0.10109639 0.25168505 -0.30156207 0.08058898 -0.0031730144 0.002220429
-0.011243437 0.30294934 0.56035054 0.34147987 -0.4897416 -0.3553907 -0.20008643 0.052060656
0.101633996 0.15036273 0.28333175 -0.33813626 -0.09930002 -0.34308746 0.23919432 0.005212497
-0.01000142 -0.36981848 -0.008669846 -0.18428923 0.04350956 -0.07315496 0.8796621 0.5680113
-0.117836334 -0.030508494 -0.104693696 -0.025685828 -0.6855417 -0.4435716 -0.1269438 -0.1174812
0.00012907473 0.118701875 0.071944654 0.033932876 0.12956099 0.06317552 -0.03783426 -0.35649613
0.017495906 0.24783126 0.92835397 0.12717254 0.13329057 0.320858 0.16719428 0.35859963
0.12879026 0.025717363 0.016281208 0.11815564 -0.106211916 0.09180446 -0.18902406 0.08760907
-0.2799933 -0.4637143 -0.35698795 -0.35184008 -0.2976393 -0.39635476 0.38243887 0.6067903
-0.32174176 -0.37163845 -0.49436182 -0.18617733 0.09205364 -0.1557566 -0.102695 -0.016135236
-0.3615316 -0.2845151 -0.30488697 -0.066572614 0.1487751 -0.13452177 0.01106116 -0.29813382

Decoder.attn_layer.0.weight f4 [32, 96]
00000000: dcad a83d cb2b 96bd 28d3 0dbe d755 8a3e
00000010: 3d5a a8be 8004 5a3e 17a7 cf3c 3d33 e3bd
00000020: b76a 853e ceb1 5dbe 1126 d5be 8af5 d8bc
00000030: 6f84 603e 4f8e 25be 9405 01be b4db f5bd
00000040: 8bd0 bbbd e9f2 29be 9211 5bbd 5912 09be
00000050: 5612 8abd 0daa bbbd cc7d 66be 21e0 223e
00000060: b4a0 9ebe 6ab5 e23e 9b60 d23e 067b dbbe
00000070: 54be 5a3d 14d1 313a aa6a 70be b0bd 32bd
00000080: a434 973d 01ca 4c3d 7ae7 0dbc 6467 a13e
00000090: 10af bfbe 5b8e 983e c6b0 263e 8c93 103c
000000a0: f408 b33e 32a8 fdbd 6741 b6be 7d81 d93d
000000b0: f1a7 ad3e 6cf5 9ebe d84e 57be 3e17 7ebe
000000c0: f062 d8bd 790c 19be ce7f b13d 5673 83be
000000d0: 1102 b13d 772f 3cbe 072e c9bd 402c 1e3e
000000e0: 7edd a3be 177c 203f 17eb bb3e 34a0 b3be
000000f0: 5d20 393d 246f 913d 3cac 0cbd 11e6 d13d
00000100: c84b 2c3d f6a7 e1bd b66d 5fbc 7be1 203e
00000110: 8062 d3bd 1020 97bc b1eb 083d ed53 533d
00000120: c6b1 c53d 386d 1f3d f496 293b 505d e63d
00000130: 867e 27bc d529 73bd 7dd5 1dbe 3e31 7fbd
00000140: aa8d 4f3c eeaf 183c 2ac8 7b3e b2dc 4bbd
00000150: a006 b23c 22c9 1f3d 4e5d 113d 7c18 8bbc
00000160: 7120 243d d63b 163e aa28 c73d a0d7 9b3d
00000170: b7e9 fabd 2fec bbbd 3b72 ab3c 6462 2e3c
00000180: 6c95 093f 10f4 6b3e 3350 293e ce26 b53e
00000190: 1653 03bf b064 a73e 0f9f 673e a795 2ebe
000001a0: 3498 57bd b9e4 08be 4b2f b7be 2ebc 75bd
000001b0: 6efb 303e 1004 f8be 9495 713c c319 ae3e
000001c0: c169 ebbd 729b 93bd 2b33 9f3e 40da fa3d
000001d0: 0997 e33e f3bb 383e e3e7 37be d8b4 32bd
000001e0: daac 87be 72bd 2e3e 1bfb 5c3f 012d fabd
000001f0: f754 103e 5c91 51be c4c2 133e 4b3e d43d
00000200: 291b db3e 1b05 853e 9e7b aa3d 42ae c33e
00000210: 9272 d4be b0b9 ab3e 9d69 903e b563 02be
00000220: 6846 b23c 7c59 b2bc 0100 a5be ed87 7c3d
00000230: a855 a73e 0294 28bf 7ddb 9cbd 3aa9 783e
00000240: 383a e3bd 1fa1 5bbc 0809 ed3e 9f92 b63b
00000250: 73e8 b63e 1815 7a3e e00f 30be 9057 263d
00000260: bfb1 acbe 278a 523e 1b1e 273f 0155 16be
00000270: dfc4 4f3e d19d 21be 8ce6 303e 982d 623e
00000280: 6a34 983e f524 a8bd 5d5a 69be c3c6 debd
00000290: 750a 12be f7b8 34bd 0277 a23e 7735 efbd
000002a0: 8c53 fb3d 32e2 463e 2ce2 503e 8758 7c3e
000002b0: 3844 acbe 6984 5abe 82f0 573d c409 47bd
000002c0: 4f33 37be fcbd 6cbe 6815 67be 1cf9 5b3e
000002d0: e424 aabe 9dcb 163e 1b0b 263e b6d6 093c
000002e0: 2705 933e 0247 763e af0f 0e3e 685c a9be
000002f0: d7ba 01be 48e1 5ebe b684 953e ae61 febd
00000300: c1df a63e dc76 61be cd65 d63e 3116 5b3d
00000310: 3ade d93d e565 bc3e 93e4 5f3e c40f f1bc
00000320: d813 d43d 7941 923e 0b66 6abf 602d c13e
00000330: f99d 65be 1fd2 713d 509a 59bf 571e 99be
00000340: 4d01 16be 506d 72be c932 2cbe a47d 3abe
00000350: eebb 0abf 5ba8 1cbe 05ed 9e3d 8b81 633e
00000360: 2568 c8bd 5638 c23d 42f4 0f3f 30d1 343e
00000370: 2465 a5be d60b bc3e d7d3 26bd 363e 85be
00000380: bf64 1e3e f7e2 a0be 292c a03e c3f7 243e
00000390: d615 a33d 3b88 963e f2d5 4f3e 133e 023e
000003a0: e7d5 d23d 6543 1e3e 9969 63bf 96e1 653e
000003b0: 3666 89be 71e7 8b3c 182d 2cbf ddde 29be
000003c0: 8f82 97be 65e1 1abe 85a1 89be 9788 23be
000003d0: e6ae f3be d372 b7bd e0e3 533e a29e 463e
000003e0: 6e0f 81be 724d 5f3d 40d4 f93e cf71 873c
000003f0: f00a cdbe f962 9a3e 8416 f0bd a4ac debe
0.08236286 -0.073325716 -0.13850081 0.27018616 -0.32881346 0.21290779 0.02534823 -0.11093757
0.2605798 -0.21649858 -0.41630605 -0.02648427 0.2192552 -0.16167568 -0.12599784 -0.12004796
-0.09170636 -0.16596569 -0.053483553 -0.13385905 -0.067417786 -0.09163294 -0.22508925 0.15905811
-0.30981982 0.44279033 0.4108933 -0.42867297 0.053404167 0.0006783169 -0.23478189 -0.04363793
0.07383087 0.049997333 -0.008661145 0.31524193 -0.3743825 0.2979611 0.16278371 0.00882424
0.34967768 -0.12385596 -0.35596773 0.10620401 0.33917192 -0.31046617 -0.2102617 -0.24813554
-0.10565746 -0.14946164 0.08666955 -0.25673932 0.08642972 -0.18377481 -0.09823232 0.15446568
-0.32004923 0.62689346 0.36702797 -0.35083163 0.04519688 0.071012765 -0.034343943 0.1024896
0.042064458 -0.11018364 -0.013636997 0.15711014 -0.10321522 -0.018447906 0.033427898 0.05159371
0.09653048 0.03892252 0.0025877329 0.11248267 -0.010223037 -0.059366066 -0.1541347 -0.06230282
0.012668053 0.009319289 0.24588075 -0.04977102 0.021731675 0.039010175 0.035489373 -0.016979448
0.04007 0.14671263 0.09724553 0.076094866 -0.12251609 -0.09175908 0.020928493 0.010643575
0.53743625 0.23042321 0.165345 0.35381168 -0.51298654 0.32694006 0.2261927 -0.17049275
-0.052635387 -0.13368501 -0.3577827 -0.059993915 0.17283413 -0.484406 0.014745135 0.3400403
-0.1149478 -0.07207383 0.31093726 0.12248659 0.44451168 0.18040447 -0.17959552 -0.043629497
-0.26499063 0.17064455 0.86320657 -0.12215615 0.14094912 -0.20465606 0.14429766 0.10363444
0.4279416 0.25980458 0.08324359 0.38218886 -0.4149366 0.33540106 0.28205577 -0.12733348
0.021762088 -0.021771185 -0.32226565 0.061653066 0.32682538 -0.6585084 -0.076590516 0.24283305
-0.11095089 -0.0134051135 0.46295953 0.005571678 0.3572422 0.24422109 -0.17193556 0.04061085
-0.3372936 0.20560513 0.6528031 -0.14680864 0.20289944 -0.15782858 0.17275447 0.22087705
0.2972749 -0.08210174 -0.22788377 -0.108777545 -0.14261802 -0.04412171 0.3173142 -0.116801195
0.12271795 0.19422224 0.20398778 0.24643146 -0.33645797 -0.21339573 0.0527196 -0.048593298
-0.17890666 -0.23119348 -0.2256676 0.21481746 -0.3323127 0.1472611 0.16215174 0.0084130075
0.28714868 0.24050525 0.1387317 -0.33078313 -0.1266893 -0.21765625 0.29202813 -0.12420975
0.32592586 -0.22017998 0.41874543 0.05348796 0.106380895 0.3679649 0.21864538 -0.029426463
0.103553474 0.28565577 -0.91561955 0.3772993 -0.22423543 0.059038278 -0.8500109 -0.2990596
-0.14648934 -0.23674512 -0.16816248 -0.1821199 -0.5419301 -0.15298598 0.07760052 0.22217385
-0.09785489 0.094834015 0.5623208 0.17657924 -0.32303727 0.3672778 -0.04072937 -0.26024026
0.15468119 -0.3142316 0.31283692 0.16110139 0.07963149 0.2940081 0.20296457 0.12718992
0.10294705 0.15455396 -0.88833004 0.22449335 -0.26835793 0.017078133 -0.6725631 -0.16588922
-0.29591796 -0.15125044 -0.26881042 -0.15970074 -0.47594374 -0.08957448 0.20692396 0.19396451
-0.25207084 0.054517217 0.48794746 0.01653376 -0.40047407 0.30153635 -0.117230445 -0.4349109
