result/ver7_2_1/last.pt (torch, 307828 bytes, 81 tensors)

Encoder.encoder_lstm.weight_ih_l0 f4 [128, 6]
0.49184588 0.29240048 0.24443941 -1.1722724 -1.0368801 0.65450126 -1.318434 -1.0842122
-0.8345048 0.55506605 -0.17821573 -0.423311 1.6661729 1.7594311 1.6769658 0.045494318
0.27660954 1.1217601 -0.094629176 -0.630017 0.17665772 0.27679992 0.47695214 -0.6102065
-0.73456097 -0.24523129 -0.25432485 -0.570738 -0.45131442 -0.102660984 -0.66111636 -0.0046723
-0.59343773 1.6879644 1.5322096 0.007292051 0.48307952 0.38137424 0.4739965 -0.7624575
-0.5169523 0.9307959 0.6097736 0.8118054 1.2541796 0.95509833 0.06991475 0.9650419
-0.26937243 -0.08481415 -0.6192218 1.6636828 1.4762092 -0.28318796 0.4168674 0.68594736
0.56790227 1.1780124 0.38075468 1.1058242 0.7029425 0.7953488 1.243223 1.7306933
0.51508164 1.3320456 0.48290905 0.36148876 0.34331134 -1.185803 -1.5628233 0.73231345
0.30758715 0.52172756 0.70613426 -0.33048162 -0.29551023 0.7638136 0.24988347 0.5265539
0.64881825 -0.53829455 -0.870412 0.45632076 -0.27474174 -0.7426634 -0.4420227 0.6564523
-0.13727349 -0.7894393 1.088735 1.8751298 0.89126337 -1.0723548 -0.82034105 1.6518782
0.9892327 1.1610951 0.97495973 0.07549199 -0.38119915 0.7900553 -0.52934736 -0.3581795
-0.29648054 0.73952323 -0.21217997 -0.12453109 2.036125 2.6600323 2.2853925 1.42782
1.2315735 2.7751727 -2.086323 -2.0026603 -2.0519385 -0.1728198 -0.8027635 -2.0759096
0.75497234 0.8289167 1.5333946 -0.0059494562 0.2655743 1.0469762 0.11061606 0.5904308
0.13809474 1.6322168 1.5396067 0.54176784 -0.1564096 -0.7890971 -0.54729 -1.0574555
-0.93781894 -0.88068837 -1.2092162 -1.3506683 -0.31397423 -3.0319092 -3.4528995 -0.5194119
-1.2367206 -1.2763773 -0.89824134 -0.20752062 -0.29299676 -1.4022439 0.9843416 0.66706944
2.2831023 2.6024606 2.7358031 0.7817207 -0.92275107 -0.7186204 -1.5451256 -0.4840773
-0.34176642 -0.95271426 -0.44258448 -0.40430564 -0.5804164 0.5386597 0.5610815 -0.8363236
0.06034042 0.18794991 0.71686745 -0.27844104 -0.287914 0.7251795 2.2140195 1.9059471
2.7281144 -0.8241376 -0.19595776 3.0060847 -1.3408408 -0.6716106 -1.858225 1.2645533
0.6582738 -1.0774267 1.3626608 0.44825342 1.9443176 0.08849132 -0.17722438 0.6373484
-0.27559736 -0.042219903 -0.17540169 0.0697536 0.6820089 -0.07799705 0.38483053 0.38310823
0.35160244 -1.5704532 -1.6792483 0.17087352 -0.5448555 -0.45868242 -0.23767604 -1.0612881
-1.0508864 -0.4609853 0.3857952 -0.04317704 0.8344492 -0.49022126 0.05420718 -0.16840807
0.8719333 0.60190403 0.5575615 1.0109957 1.023487 0.7288139 -1.3859242 -0.60677534
-1.1158829 2.8650277 2.8792834 -0.8002644 0.06838675 -0.15492 0.48043433 0.24450365
-0.2783684 0.25556952 -0.6416797 -0.22698852 -0.9464393 -0.26403484 -0.56368667 -0.60583466
0.7185964 0.8742022 0.36991072 0.5242378 0.39812568 0.51676464 -1.3404515 -1.1744133
-1.5552837 -0.9693379 0.74222666 -1.32452 -1.2928449 -0.5427444 -1.1622806 1.3763533
00000000: 39d3 fb3e 84b5 953e 534e 7a3e 060d 96bf
00000010: 7db8 84bf 658d 273f 72c2 a8bf 77c7 8abf
00000020: 1ba2 55bf cf18 0e3f 2f7e 36be 38bc d8be
00000030: 2745 d53f 0a35 e13f d1a6 d63f 4058 3a3d
00000040: c49f 8d3e d695 8f3f f1cc c1bd cb48 21bf
00000050: c3e5 343e b8b8 8d3e 1233 f43e 7e36 1cbf
00000060: 300c 3cbf e91d 7bbe de36 82be e31b 12bf
00000070: af12 e7be ec3f d2bd ec3e 29bf 181a 99bb
00000080: 89eb 17bf 380f d83f 721f c43f 28f2 ee3b
00000090: 3356 f73e 7c43 c33e abaf f23e 6a30 43bf
000000a0: fc56 04bf a448 6e3f 1f1a 1c3f 7bd2 4f3f
000000b0: f588 a03f 5381 743f 772f 8f3d fc0c 773f
000000c0: 2feb 89be 0bb3 adbd 5285 1ebf 8ff3 d43f
000000d0: 6cf4 bc3f 03fe 90be a56f d53e 3f9a 2f3f
000000e0: 0b62 113f 1cc9 963f 47f2 c23e a68b 8d3f
000000f0: 0af4 333f fb9b 4b3f ee21 9f3f 5c87 dd3f
00000100: 64dc 033f 7880 aa3f db3f f73e 0e15 b93e
00000110: 81c6 af3e 65c8 97bf 980a c8bf e578 3b3f
00000120: 107c 9d3e f08f 053f 37c5 343f e334 a9be
00000130: 1e4d 97be 4a89 433f 74e1 7f3e 3dcc 063f
00000140: f418 263f accd 09bf 52d3 5ebf e0a2 e93e
00000150: f3aa 8cbe 301f 3ebf cd50 e2be 420d 283f
00000160: 6c91 0cbe b218 4abf ab5b 8b3f 4104 f03f
00000170: d629 643f ec42 89bf df01 52bf bf70 d33f
00000180: 5b3e 7d3f c49e 943f f696 793f 8b9b 9a3d
00000190: 892c c3be 1041 4a3f 4f83 07bf 4e63 b7be
000001a0: 4ccc 97be 6551 3d3f b545 59be 280a ffbd
000001b0: df4f 0240 f83d 2a40 df43 1240 cec2 b63f
000001c0: 33a4 9d3f 6e9c 3140 5186 05c0 962b 00c0
000001d0: f652 03c0 acf7 30be e981 4dbf b4db 04c0
000001e0: de45 413f e333 543f 4646 c43f a8f3 c2bb
000001f0: 5bf9 873e 5103 863f ac8a e23d 7926 173f
00000200: b568 0d3e 7bec d03f d511 c53f 4cb1 0a3f
00000210: d729 20be 4402 4abf 331b 0cbf b45a 87bf
00000220: e714 70bf cb74 61bf 99c7 9abf b3e2 acbf
00000230: 3bc1 a0be cd0a 42c0 4efc 5cc0 2ef8 04bf
00000240: dc4c 9ebf 5560 a3bf 25f3 65bf 4980 54be
00000250: ac03 96be ba7c b3bf d0fd 7b3f 10c5 2a3f
00000260: 591e 1240 b78e 2640 6617 2f40 d91e 483f
00000270: 6a39 6cbf 82f7 37bf adc6 c5bf fbd8 f7be
00000280: 02fc aebe 15e5 73bf 6f9a e2be 2601 cfbe
00000290: 2b96 14bf 9ae5 093f 0aa3 0f3f 4e19 56bf
000002a0: 8427 773d f175 403e a084 373f d38f 8ebe
000002b0: 7769 93be 5da5 393f 7fb2 0d40 13f6 f33f
000002c0: 6d99 2e40 affa 52bf 27a9 48be b163 4040
000002d0: aca0 abbf acee 2bbf 51da edbf e2dc a13f
000002e0: a284 283f 1ee9 89bf ab6b ae3f 7981 e53e
000002f0: 66df f83f f03a b53d 4f7a 35be 4429 233f
00000300: 191b 8dbe c7ee 2cbd 809c 33be fada 8e3d
00000310: 2398 2e3f ebbc 9fbd 8208 c53e c326 c43e
00000320: 3c05 b43e 9c04 c9bf 9cf1 d6bf 78f9 2e3e
00000330: a67b 0bbf 6cd8 eabe 5961 73be 4ad8 87bf
00000340: 7283 86bf 4406 ecbe f386 c53e 68da 30bd
00000350: 769e 553f 48fe fabe 5908 5e3d 2a73 2cbe
00000360: 0537 5f3f 6216 1a3f 5abc 0e3f 4f68 813f
00000370: 9f01 833f 8c93 3a3f f765 b1bf a155 1bbf
00000380: 40d5 8ebf 9d5c 3740 2e46 3840 21de 4cbf
00000390: 5a0e 8c3d 59a3 1ebe 7dfb f53e 2a5f 7a3e
000003a0: 4e86 8ebe 02da 823e 1f45 24bf ae6f 68be
000003b0: d949 72bf 932f 87be c54d 10bf fb17 1bbf
000003c0: eff5 373f b7cb 5f3f f064 bd3e 7334 063f
000003d0: 21d7 cb3e b04a 043f ea93 abbf 2d53 96bf
000003e0: 8913 c7bf 8726 78bf 9102 3e3f df89 a9bf
000003f0: f17b a5bf 4cf1 0abf 9cc5 94bf 582c b03f

Encoder.encoder_lstm.weight_hh_l0 f4 [128, 32]
-1.1819422 1.682576 0.17412892 1.1157997 0.25821704 1.5095824 -0.34662864 -0.6772536
0.36770138 -1.2241724 2.07741 0.76246744 -0.5084482 -1.5838919 -1.2786667 0.15575264
0.21746825 -1.5815324 -0.47434875 -0.05557324 -0.0886068 -0.5461952 -2.769043 2.5291362
0.6084326 0.5250728 -1.3329711 -1.3279713 0.009537184 -0.320131 0.38646877 -0.5505303
1.1684543 -0.42727667 0.4780362 -0.006766376 0.46009755 0.6406061 0.4038765 -0.5609023
0.8935695 -0.7545109 -0.7463732 -0.20867132 0.3634287 1.5006789 -0.5847108 0.6288777
-0.005028155 1.1410767 -0.2774409 1.4225712 -0.81930643 -0.20201723 -0.056337934 1.1050837
-0.6648454 -0.24171835 -0.45802572 1.6075542 -0.31381363 -0.3562586 0.20752211 0.9152087
0.3643582 0.023264002 -0.11904819 1.8628427 -0.8200309 1.3009646 0.34877226 -1.2520945
-0.38835755 0.16380727 0.33617795 0.92462647 0.26406243 0.80033344 0.77393425 -0.5662565
-0.36526185 0.78943187 -1.5485474 1.0402606 0.72415835 0.42126977 -0.47666222 0.67064905
0.05656282 1.2377726 -0.7768171 -0.11798649 -0.10482188 -0.24877027 0.38280067 1.1711535
2.5194924 -0.16336085 0.4574121 0.061049405 -0.54902905 1.1523635 -0.72003347 -2.4273076
-0.20862077 -0.76620215 2.4539418 0.47678927 1.9308327 1.0342652 -1.3590565 0.0792327
-0.7308751 -0.50766337 -2.663888 0.34551334 -0.016932454 -0.78214455 -2.5976157 1.8894205
-1.1703203 0.8288599 -0.9889033 1.4048938 0.39811867 1.0371805 0.35253733 0.92238325
0.49024692 -2.7534847 -0.47228834 0.26839626 0.14764073 2.060255 -0.12065801 -1.2956171
-0.7642338 0.06506017 -0.8126449 0.13077785 -0.743821 -1.2353915 0.8671574 1.1474786
-1.725091 2.2233675 -0.88438416 -1.9724948 -1.8296176 1.8135555 0.6698285 2.8587976
-2.278487 -0.8415778 -0.12353015 -0.34107527 -0.48349637 0.9129786 0.076252505 -1.9652418
-0.4968415 -1.0425578 3.3678577 -0.5276195 -0.13775088 2.3589735 -3.7326934 -1.3777037
0.6783757 1.5046915 0.09665108 1.1999567 -2.1445906 -2.0042279 0.253607 -1.2526209
3.9861991 0.98815465 -2.1546454 0.022500277 -0.838918 -1.7825778 -0.17562716 0.2693029
0.8431994 -0.6653316 -2.7709997 1.036222 0.52048254 -0.6329854 -1.6238298 1.5743837
-0.36707154 -0.8767474 -2.0017579 -2.6360247 -0.83241326 1.4650604 2.998743 0.9774084
0.09849268 -1.9752295 2.1125817 -2.2853029 0.2165724 -0.8708621 -1.8311222 1.0321589
-1.2939829 -2.8267543 0.119995534 2.5835629 0.30195063 2.932773 2.1908586 -1.4434532
-1.2016382 1.6352761 2.7299776 -1.5441862 1.0797241 -0.9515014 0.11758571 -0.95385903
-0.92746484 -0.28240496 1.4603858 1.4638736 0.31854427 0.3722887 -1.6039331 -2.1808536
0.11830078 -2.3854816 -1.5172353 1.0097315 -0.8054544 -2.0727344 -2.0506713 0.7537178
1.171106 -1.8571923 -0.38054562 -1.295528 -0.16002388 -0.24908581 -3.0564985 1.3612595
-1.388068 -2.872395 -2.4295185 0.19043624 0.020372959 -0.82427853 -0.7944394 -0.12664883
00000000: e249 97bf a65e d73f da4e 323e 86d2 8e3f
00000010: 0635 843e ff39 c13f 4f79 b1be 7e60 2dbf
00000020: 5b43 bc3e aeb1 9cbf 49f4 0440 1131 433f
00000030: a929 02bf f8bc cabf 5aab a3bf 9f7d 1f3e
00000040: ffaf 5e3e a76f cabf d7dd f2be c4a0 63bd
00000050: 7b77 b5bd 73d3 0bbf 0038 31c0 5edd 2140
00000060: 3dc2 1b3f 2c6b 063f cc9e aabf f7fa a9bf
00000070: d941 1c3c 36e8 a3be 3cdf c53e 8eef 0cbf
00000080: e98f 953f 02c4 dabe 29c1 f43e 7ab8 ddbb
00000090: e891 eb3e c3fe 233f e7c8 ce3e 4b97 0fbf
000000a0: f9c0 643f a027 41bf 5012 3fbf efad 55be
000000b0: 5413 ba3e 3f16 c03f 9baf 15bf 21fe 203f
000000c0: 39c3 a4bb cd0e 923f bc0c 8ebe d016 b63f
000000d0: 11be 51bf 9bdd 4ebe 9bc2 66bd 6273 8d3f
000000e0: 4f33 2abf 0485 77be 5982 eabe 56c4 cd3f
000000f0: 2eac a0be 8767 b6be ad80 543e 1e4b 6a3f
00000100: 288d ba3e 2694 be3c 8acf f3bd a171 ee3f
00000110: 8ced 51bf 0286 a63f 4792 b23e a244 a0bf
00000120: cdd6 c6be 18bd 273e 841f ac3e 52b4 6c3f
00000130: 3133 873e a7e2 4c3f 8e20 463f 30f6 10bf
00000140: 9a03 bbbe 3518 4a3f cd36 c6bf 4227 853f
00000150: 7162 393f acb0 d73e 120d f4be a8af 2b3f
00000160: 6aae 673d 556f 9e3f 7cdd 46bf e7a2 f1bd
00000170: dbac d6bd a2bd 7ebe 73fe c33e 5ce8 953f
00000180: 5d3f 2140 1148 27be eb31 ea3e f10e 7a3d
00000190: 2b8d 0cbf a680 933f 1d54 38bf 0259 1bc0
000001a0: afa0 55be d325 44bf 620d 1d40 b91d f43e
000001b0: 8725 f73f cd62 843f 90f5 adbf c144 a23d
000001c0: a11a 3bbf 3af6 01bf 247d 2ac0 20e7 b03e
000001d0: eeb5 8abc a03a 48bf 563f 26c0 88d8 f13f
000001e0: 0ecd 95bf 2a30 543f c428 7dbf 8fd3 b33f
000001f0: 36d6 cb3e 55c2 843f c67f b43e 4f21 6c3f
00000200: a501 fb3e 1839 30c0 c7cf f1be 3c6b 893e
00000210: 222f 173e 38db 0340 8c1b f7bd c8d6 a5bf
00000220: d4a4 43bf 443e 853d 7f09 50bf a1ea 053e
00000230: 0e6b 3ebf 4f21 9ebf 07fe 5d3f 94e0 923f
00000240: c8cf dcbf a74b 0e40 0067 62bf b67a fcbf
00000250: e930 eabf 9622 e83f e179 2b3f 8af6 3640
00000260: bbd2 11c0 a571 57bf 60fd fcbd 6ba1 aebe
00000270: d68c f7be f7b8 693f 462a 9c3d 0b8d fbbf
00000280: 0262 febe 8972 85bf fb8a 5740 1212 07bf
00000290: 910e 0dbe 6cf9 1640 73e4 6ec0 9858 b0bf
000002a0: 08aa 2d3f bb99 c03f 00f1 c53d 2e98 993f
000002b0: f940 09c0 4545 00c0 c7d8 813e e255 a0bf
000002c0: e31d 7f40 b4f7 7c3f b6e5 09c0 8052 b83c
000002d0: 54c3 56bf 822b e4bf 9bd7 33be 12e2 893e
000002e0: eadb 573f 2c53 2abf 0f58 31c0 eca2 843f
000002f0: 583e 053f 550b 22bf a8d9 cfbf 6885 c93f
00000300: cdf0 bbbe 8572 60bf cd1c 00c0 a1b4 28c0
00000310: 0919 55bf 1987 bb3f 68eb 3f40 7037 7a3f
00000320: 88b6 c93d 52d4 fcbf 8a34 0740 6742 12c0
00000330: 28c5 5d3e d2f0 5ebf 3662 eabf c81d 843f
00000340: 3ba1 a5bf 8be9 34c0 38c0 f53d 1859 2540
00000350: 4699 9a3e 8eb2 3b40 0737 0c40 13c3 b8bf
00000360: 48cf 99bf ba50 d13f f4b7 2e40 e5a7 c5bf
00000370: 6634 8a3f 9995 73bf c7d0 f03d 1b30 74bf
00000380: 566e 6dbf 6297 90be eced ba3f 3660 bb3f
00000390: 3c18 a33e a09c be3e ae4d cdbf 1b93 0bc0
000003a0: ae47 f23d bbab 18c0 c434 c2bf e23e 813f
000003b0: 4232 4ebf aea7 04c0 333e 03c0 a6f3 403f
000003c0: cde6 953f 7ab8 edbf e0d6 c2be ddd3 a5bf
000003d0: 4ddd 23be 5a10 7fbe ac9d 43c0 c03d ae3f
000003e0: 36ac b1bf 52d5 37c0 3b7d 1bc0 b801 433e
000003f0: 31e5 a63c eb03 53bf 6160 4bbf 3bb0 01be

Encoder.encoder_lstm.bias_ih_l0 f4 [128]
-1.1719575 0.98783237 -0.015842382 -0.096057795 0.48546192 -1.1469657 -0.8157793 -0.8181049
-0.12998496 -0.46472177 -0.81755954 -1.7484968 -1.0033683 0.04976658 0.7345767 -0.30017266
-0.5049219 0.35758346 0.5142797 -0.92800367 0.48177025 1.1569405 -0.6450513 -1.061707
0.05658731 0.3792876 0.520084 -0.85753036 -1.8609353 -0.05045409 0.047850627 -1.0992264
-1.6423632 -2.1842635 -1.813841 -2.8984103 -1.2633866 -1.0020831 -2.0072937 -1.4996943
-2.824665 -1.1606749 -1.3520912 -1.2139812 -1.156909 -1.401363 -0.22563796 -2.235578
-2.0310225 0.96912277 -1.5923755 -2.335009 -1.6394262 -0.37940624 -3.1375556 -1.3946885
-1.2216862 0.83746713 -0.8142201 -1.0572382 -2.328107 -3.5009232 -1.4731257 -1.1163957
0.25850773 -0.4956818 -0.6015302 0.35179925 -0.65545195 0.49070638 -0.2668385 0.9392941
-1.029622 -0.33052212 -0.19202656 -0.11209721 1.1040311 -0.5570279 -0.3405233 -0.7199263
-0.8518884 0.5059464 0.7616327 0.5252612 1.1351055 1.2133577 -0.5009712 -0.3092362
-0.06836863 0.3387602 0.85723877 -0.6832023 -0.42552623 1.4253477 0.47303048 0.0005018953
-1.492195 -1.4089118 -2.0474093 -1.407105 -2.949319 -1.6250919 -1.495739 -2.969354
-6.3665586 -0.94893086 -0.9362871 -1.9747888 -1.4799539 -1.2041401 -0.5231167 -2.116148
-3.3445973 -0.8209348 -2.9006584 -1.3941497 -4.3356185 -4.1794477 -3.6078415 -1.2870853
-1.7884014 -1.8726069 -2.2069807 -2.8176713 -2.7417505 -3.5752158 -5.820544 -1.2950686
00000000: b402 96bf 95e2 7c3f e2c7 81bc f3b9 c4bd
00000010: 778e f83e c6cf 92bf ead6 50bf 536f 51bf
00000020: c71a 05be 03f0 edbe 954b 51bf bece dfbf
00000030: 5f6e 80bf 0bd8 4b3d 380d 3c3f 3bb0 99be
00000040: 9042 01bf 2e15 b73e d6a7 033f a691 6dbf
00000050: 97aa f63e a016 943f 1522 25bf 04e6 87bf
00000060: 18c8 673d fc31 c23e 3a24 053f 1c87 5bbf
00000070: 2133 eebf f3a8 4ebd 05ff 433d 73b3 8cbf
00000080: f538 d2bf f9ca 0bc0 f12b e8bf 8e7f 39c0
00000090: a7b6 a1bf 4244 80bf 8077 00c0 fcf5 bfbf
000000a0: 50c7 34c0 ff90 94bf 5311 adbf bc63 9bbf
000000b0: 9815 94bf dd5f b3bf a30d 67be b613 0fc0
000000c0: 46fc 01c0 6e18 783f f6d2 cbbf ca70 15c0
000000d0: b8d8 d1bf 8941 c2be b6cd 48c0 2785 b2bf
000000e0: 3760 9cbf 3f64 563f ba70 50bf 9553 87bf
000000f0: b5ff 14c0 200f 60c0 628f bcbf 0ee6 8ebf
00000100: 205b 843e 01ca fdbe e2fd 19bf 081f b43e
00000110: b3cb 27bf de3d fb3e 0e9f 88be 9475 703f
00000120: a7ca 83bf 323a a9be 9ca2 44be 3993 e5bd
00000130: e450 8d3f 6199 0ebf 1259 aebe 174d 38bf
00000140: 5c15 5abf b485 013f 5cfa 423f 8577 063f
00000150: 234b 913f 4e4f 9b3f a63f 00bf 3554 9ebe
00000160: da04 8cbd fa71 ad3e 0074 5b3f 59e6 2ebf
00000170: 93de d9be cb71 b63f 0d31 f23e a091 033a
00000180: 3f00 bfbf 3957 b4bf c108 03c0 041c b4bf
00000190: a4c1 3cc0 0303 d0bf 6074 bfbf e509 3ec0
000001a0: d9ba cbc0 22ed 72bf 83b0 6fbf e1c5 fcbf
000001b0: 216f bdbf 4321 9abf faea 05bf f86e 07c0
000001c0: e20d 56c0 c828 52bf 63a4 39c0 7f73 b2bf
000001d0: 63bd 8ac0 09be 85c0 e0e6 66c0 36bf a4bf
000001e0: 56ea e4bf 95b1 efbf 2c3f 0dc0 ba54 34c0
000001f0: d778 2fc0 56d0 64c0 e541 bac0 cfc4 a5bf

Encoder.encoder_lstm.bias_hh_l0 f4 [128]
-1.1594298 0.8739755 0.002018541 -0.17621411 0.43499407 -0.91899985 -0.9365786 -1.0044806
-0.14208396 -0.3720977 -0.97117335 -1.732894 -1.1084708 0.2723121 0.7332723 -0.32182577
-0.39261565 0.43267405 0.473522 -1.0515406 0.5379215 1.297604 -0.6250958 -0.9260722
-0.0131375445 0.15670334 0.5649121 -1.0733415 -1.6243103 -0.06064508 0.13264367 -1.0659605
-1.6018171 -2.1224296 -1.9559838 -2.858644 -1.4770644 -0.95518064 -1.8807808 -1.5240947
-2.5044584 -1.1101696 -1.5236536 -1.4789882 -1.0622241 -1.2302086 0.018149476 -1.9668211
-1.9889997 1.0746701 -1.4016042 -2.5248692 -1.5975552 -0.4307254 -3.194497 -1.0489918
-1.0261595 0.5520481 -0.8503081 -1.2322952 -2.3965795 -3.4254766 -1.6711391 -1.137084
0.055476774 -0.49248508 -0.7373793 0.068694614 -0.80956817 0.48617536 -0.23529148 1.1474869
-1.2309287 -0.5609332 0.13405961 -0.30387676 0.8478765 -0.72870004 -0.27620184 -0.78325254
-0.6956225 0.36466733 0.89171594 0.3030867 0.9914033 1.1023093 -0.58147824 -0.21926366
-0.13629377 0.2935894 0.6429396 -0.7377799 -0.6023969 1.3395267 0.5072933 -0.0034432895
-1.635041 -1.393388 -2.026079 -1.2512976 -2.943591 -1.7161312 -1.4198722 -2.9404716
-6.4338264 -1.019936 -0.846616 -2.072514 -1.3180435 -1.1930742 -0.69964874 -2.3577042
-3.543977 -0.7284488 -3.0087903 -1.5643778 -4.1760774 -4.2963295 -3.6155438 -1.2800766
-1.8876902 -1.8917146 -2.1208472 -2.8794706 -2.9835322 -3.5590146 -5.8244653 -1.4260253
00000000: 3268 94bf dcbc 5f3f 8049 043b 7971 34be
00000010: 8bb7 de3e 9343 6bbf 9dc3 6fbf d292 80bf
00000020: 757e 11be 9783 bebe d19e 78bf 78cf ddbf
00000030: 5fe2 8dbf 7e6c 8b3e bcb7 3b3f 59c6 a4be
00000040: eb04 c9be 7487 dd3e 7a71 f23e e298 86bf
00000050: 39b5 093f e317 a63f 4706 20bf 1113 6dbf
00000060: db3e 57bc d776 203e 149e 103f 4163 89bf
00000070: 66e9 cfbf fa66 78bd bed3 073e 6571 88bf
00000080: 5808 cdbf e3d5 07c0 ad5d fabf 06f4 36c0
00000090: 7210 bdbf b886 74bf 6dbd f0bf 8915 c3bf
000000a0: 0c49 20c0 0a1a 8ebf 1507 c3bf 7c4f bdbf
000000b0: f6f6 87bf 7a77 9dbf 36ae 943c cbc0 fbbf
000000c0: 8b97 febf ca8e 893f c467 b3bf 7597 21c0
000000d0: b07c ccbf 0a88 dcbe a472 4cc0 5d45 86bf
000000e0: 3259 83bf 0653 0d3f cbad 59bf d9bb 9dbf
000000f0: 8f61 19c0 023b 5bc0 e3e7 d5bf f88b 91bf
00000100: 9d3b 633d 0127 fcbe e4c4 3cbf c3af 8c3d
00000110: dc3f 4fbf faeb f83e 40f0 70be dae0 923f
00000120: 128f 9dbf 5199 0fbf ec46 093e bc95 9bbe
00000130: 6f0e 593f 168c 3abf 546a 8dbe 3d83 48bf
00000140: 5114 32bf adb5 ba3e 7f47 643f 2e2e 9b3e
00000150: 9bcc 7d3f 7918 8d3f c2db 14bf a786 60be
00000160: 9890 0bbe 5a51 963e b197 243f 25df 3cbf
00000170: af36 1abf 9c75 ab3f f9dd 013f d0a8 61bb
00000180: 0649 d1bf 8a5a b2bf 47ab 01c0 852a a0bf
00000190: cc63 3cc0 30aa dbbf 5fbe b5bf b030 3cc0
000001a0: e8e1 cdc0 438d 82bf d4bb 58bf 12a4 04c0
000001b0: a6b5 a8bf a8b6 98bf 2e1c 33bf a0e4 16c0
000001c0: 85d0 62c0 9f7b 3abf 0590 40c0 883d c8bf
000001d0: 6da2 85c0 887b 89c0 1265 67c0 8dd9 a3bf
000001e0: d59f f1bf b423 f2bf f6bb 07c0 3f49 38c0
000001f0: 31f2 3ec0 e5c6 63c0 0562 bac0 ff87 b6bf

Encoder.encoder_attn.0.weight f4 [20, 84]
-0.0774311 0.5243139 -1.650567 -1.7124587 -0.8168832 0.4565647 1.7961752 0.9065861
-0.41712886 -0.37422344 -0.118357465 -2.503045 -0.19445214 1.1347677 0.058608804 -0.08180646
-1.2502035 1.2641447 1.7857918 1.5425612 1.6496164 1.8493601 0.10962208 -0.64804596
0.58401245 -0.3699863 1.1108083 -2.5806441 0.6806301 -0.056859303 0.19220632 0.08574701
0.78509736 0.39785904 -1.1366874 -1.463198 -2.6929083 1.494357 1.4013152 0.6000091
-1.7170628 -0.083967194 -1.246027 -2.011151 0.98315585 0.8222119 0.08173348 0.28404784
-0.91333735 0.88678354 2.1758277 1.2070419 1.689552 1.7592578 0.85463506 0.5583389
-0.29251224 1.718132 0.78763616 -0.5211584 0.77864337 0.5288017 1.5222735 -1.0563482
0.5932282 0.72445977 -0.7245136 1.0734693 0.77097654 -1.2471792 -0.2409719 0.35519096
-0.4160408 0.0282194 -0.37886286 0.18202733 1.7367073 1.2992718 -0.57986206 0.121289484
-0.22034128 -0.25990608 -0.7379881 -0.43420357 0.0041043824 -0.014941452 0.8892222 1.9779682
1.106133 -1.1373615 -1.1427796 0.10221151 0.24679655 -1.3508421 -1.6758915 1.2089167
0.025277348 -1.1666632 -1.47048 1.8781435 1.0606333 -1.2172656 -1.41112 -1.5309027
-0.39703265 -0.15029791 -1.0980532 1.9210885 0.1419503 1.3023663 -1.2199348 -0.33440447
-0.6805469 -0.8718252 -0.70426285 -0.90486693 0.8199912 0.55024505 0.28328696 0.84686476
-0.07005747 -0.7761444 -0.9175396 -0.36519045 0.25198895 -1.3308097 0.7756938 1.6138093
0.62554 -1.186709 -1.1734662 2.1722958 0.6324236 -1.1019251 0.043661825 -1.2199118
0.46244714 0.129111 -0.30218294 1.0197349 -0.5413686 1.506665 0.0037028408 -0.41735443
0.19423391 0.5468341 -0.003348752 -0.3466276 -0.637904 -0.7199995 -0.45685035 -1.8693663
-0.05121797 -0.6275378 -1.2601643 0.18667752 -0.5640895 0.7468972 -0.9937403 -0.122682884
0.21298862 -0.92021334 -1.8500763 1.5182817 -0.6874174 -0.43859175 -0.1547983 -1.089516
-1.4268496 -1.5851175 -0.38957244 -0.34396514 -0.4014305 -0.6733492 -1.4911088 0.67534053
-0.03986252 1.7903433 -0.84742814 1.9701189 -2.485434 0.028984826 -0.6552622 0.52435154
-0.3181744 -2.1912172 0.97813183 -1.5945344 -0.25024512 -0.45199767 0.16915853 1.0024986
-0.8722392 -0.0386581 -0.46716738 -1.9814904 0.87763023 -0.009599939 0.08750992 -1.7876712
-0.97144943 -1.4950047 1.9545482 1.2664921 1.1464002 0.3814272 -1.2169126 0.44352636
0.029504482 1.2895505 1.5343 1.7915779 -1.1890124 -0.36487016 0.027633414 -0.80612653
0.10517507 -2.2380736 0.5401472 -0.59717214 -1.2717246 -1.1946269 0.50200164 0.16492553
-0.75006664 -0.74482805 -2.524063 1.7154571 1.2966639 1.4473748 -0.70049 1.6556644
1.3607074 0.643524 0.6064223 1.1847585 0.2538182 1.1797159 -0.1270628 -0.31101057
1.3390036 0.9057129 0.8379268 0.75922865 1.0007404 0.113180205 1.1122177 0.4408138
0.16693646 0.30839443 1.9342822 0.37822405 -3.147012 0.7957287 0.97398204 0.80294853
00000000: 3294 9ebd 7039 063f c845 d3bf d931 dbbf
00000010: 421f 51bf d9c2 e93e 12e9 e53f 0716 683f
00000020: ea91 d5be 379a bfbe 6665 f2bd e431 20c0
00000030: 761e 47be 1140 913f c90f 703d 258a a7bd
00000040: ab06 a0bf 7ecf a13f d394 e43f a572 c53f
00000050: a126 d33f d5b7 ec3f 8b81 e03d 57e6 25bf
00000060: d781 153f d86e bdbe f72e 8e3f 4629 25c0
00000070: c63d 2e3f 4de5 68bd bcd1 443e 219c af3d
00000080: 24fc 483f 2eb4 cb3e f97e 91bf 124a bbbf
00000090: 9c58 2cc0 1747 bf3f 4c5e b33f 329a 193f
000000a0: b7c8 dbbf fef6 abbd d07d 9fbf b3b6 00c0
000000b0: 1ab0 7b3f 7b7c 523f e263 a73d b86e 913e
000000c0: 7ad0 69bf 3f04 633f c340 0b40 5980 9a3f
000000d0: 3d43 d83f 5c2f e13f 5dc9 5a3f 4cef 0e3f
000000e0: 2ac4 95be c0eb db3f 86a2 493f a36a 05bf
000000f0: 2c55 473f 8c5f 073f dcd9 c23f 6b36 87bf
00000100: cedd 173f 3276 393f b979 39bf 7167 893f
00000110: b85e 453f 91a3 9fbf 56c1 76be 97db b53e
00000120: 4d03 d5be 5f2c e73c 50fa c1be 5f65 3a3e
00000130: 6d4c de3f 8a4e a63f d771 14bf 9f66 f83d
00000140: 25a1 61be 6912 85be caec 3cbf ee4f debe
00000150: 0e7e 863b fecc 74bc 11a4 633f 102e fd3f
00000160: c495 8d3f 1095 91bf 9a46 92bf 4554 d13d
00000170: 3cb8 7c3e 65e8 acbf 9d83 d6bf c8bd 9a3f
00000180: 7112 cf3c 3855 95bf b038 bcbf 0267 f03f
00000190: d5c2 873f 5ccf 9bbf 959f b4bf 9ff4 c3bf
000001a0: dd47 cbbe b2e7 19be 028d 8cbf 3ae6 f53f
000001b0: 6b5b 113e f0b3 a63f d326 9cbf 1037 abbe
000001c0: 5238 2ebf f02f 5fbf 924a 34bf 5ca5 67bf
000001d0: f1ea 513f dcdc 0c3f fd0a 913e 21cc 583f
000001e0: 4a7a 8fbd 66b1 46bf e0e3 6abf 3efa babe
000001f0: b204 813e f957 aabf de93 463f 4e91 ce3f
00000200: 6423 203f 15e6 97bf 2434 96bf e506 0b40
00000210: 83e6 213f e20b 8dbf bed6 323d 1226 9cbf
00000220: dfc5 ec3e ad35 043e b9b7 9abe ac86 823f
00000230: 2297 0abf 66da c03f 5cab 723b 7baf d5be
00000240: 41e5 463e 52fd 0b3f bc76 5bbb 2c79 b1be
00000250: ad4d 23bf e351 38bf 4ae8 e9be 6547 efbf
00000260: efc9 51bd 51a6 20bf 104d a1bf 6428 3f3e
00000270: 2b68 10bf a834 3f3f c465 7ebf 2a41 fbbd
00000280: b019 5a3e 1a93 6bbf 4dcf ecbf 0e57 c23f
00000290: 96fa 2fbf 198f e0be 7283 1ebe 4375 8bbf
000002a0: 02a3 b6bf 21e5 cabf 0a76 c7be 331c b0be
000002b0: 4c88 cdbe 9d60 2cbf a7dc bebf 1ee3 2c3f
000002c0: e246 23bd f829 e53f 0df1 58bf db2c fc3f
000002d0: 5a11 1fc0 9671 ed3c 43bf 27bf e73b 063f
000002e0: c1e7 a2be e73c 0cc0 d966 7a3f b419 ccbf
000002f0: 2120 80be 3d6c e7be e537 2d3e e051 803f
00000300: 114b 5fbf f557 1ebd 9030 efbe 7aa1 fdbf
00000310: 60ac 603f 1049 1dbc 6738 b33d 69d2 e4bf
00000320: e9b0 78bf 505c bfbf a32e fa3f 6a1c a23f
00000330: 3ebd 923f 6d4a c33e cbc3 9bbf e315 e33e
00000340: 62b3 f13c fe0f a53f f163 c43f 6d52 e53f
00000350: 8f31 98bf 43d0 babe 785f e23c 4f5e 4ebf
00000360: 0766 d73d 993c 0fc0 1647 0a3f 46e0 18bf
00000370: dfc7 a2bf 89e9 98bf 2e83 003f 3de2 283e
00000380: 5e04 40bf 0dad 3ebf 408a 21c0 1994 db3f
00000390: 15f9 a53f 9443 b93f 5053 33bf d0ec d33f
000003a0: a92b ae3f fdbd 243f 7e3e 1b3f 2ba6 973f
000003b0: 76f4 813e ee00 973f c01c 02be c73c 9fbe
000003c0: 7864 ab3f cddc 673f 5f82 563f cf5c 423f
000003d0: 4318 803f 06cb e73d 265d 8e3f 59b2 e13e
000003e0: 64f1 2a3e e0e5 9d3e 8f96 f73f 95a6 c13e
000003f0: a568 49c0 e0b4 4b3f e356 793f 098e 4d3f

Encoder.encoder_attn.0.bias f4 [20]
2.6637266 0.90349466 1.1660635 0.63516086 0.3175578 -0.16178909 0.6505398 1.9792502
-0.41524374 0.10192703 0.5910464 1.3686174 0.5113231 -1.4449016 -0.9912095 -1.0427859
1.0449901 0.36453807 -1.14453 -0.56167144
00000000: 7f7a 2a40 6d4b 673f 9241 953f e799 223f
00000010: f096 a23e 0aac 25be c789 263f 1258 fd3f
00000020: d49a d4be 1ebf d03d d14e 173f db2e af3f
00000030: 12e6 023f 89f2 b8bf e8bf 7dbf 027a 85bf
00000040: 3cc2 853f bca4 ba3e f67f 92bf b3c9 0fbf

Encoder.encoder_attn.2.weight f4 [1, 20]
-0.48757577 -0.027351335 0.3590222 -0.05261774 -0.5419908 0.40066463 0.29395258 -0.0005068395
0.9518041 0.47975013 -0.13753876 -0.106874295 0.46832454 -0.3222699 -0.21045135 0.38344783
0.5301773 -0.16726501 -0.123184115 0.38050842
00000000: 88a3 f9be e80f e0bc c2d1 b73e b385 57bd
00000010: e9bf 0abf ea23 cd3e f480 963e 6cdd 04ba
00000020: 6fa9 733f cfa1 f53e f6d6 0cbe e9e0 dabd
00000030: 3cc8 ef3e 8f00 a5be 8f80 57be 4653 c43e
00000040: b3b9 073f 8547 2bbe f447 fcbd 00d2 c23e

Encoder.SelfAttention.wq.weight f4 [20, 20]
-0.30865228 1.7550967 0.25234511 0.5949192 -1.8371154 -0.6928324 -0.0038403464 -0.15712553
-0.75294447 -0.019737286 0.8576 -1.4924619 0.10693162 0.020580983 1.3491309 -0.42527768
-0.1884958 1.273008 1.2781888 -0.53134996 0.33190295 -0.6980277 -0.636867 -0.012753128
0.8671505 -0.56979394 -0.052015156 0.094953544 -0.21138538 -1.3505152 -0.95186496 1.5188401
0.6393227 -0.7166793 0.27704808 -1.2801428 -0.4845793 0.330437 0.3762765 0.7759273
0.5375298 -1.0845792 -0.2275906 0.0636919 -0.21746697 -0.44705123 -0.25603426 -0.29891363
-0.034801606 -0.34773362 1.5999569 -0.1360855 0.6239173 0.6119446 -0.5477472 1.2619011
-0.38755497 -1.7119869 -0.25769764 1.4381826 1.075314 1.1670519 -0.31046656 0.16351481
-0.4792818 0.1712541 0.80892617 0.62589276 -0.9549757 -0.6542155 -1.6393315 0.42481887
-0.95337474 -0.41308117 0.23062919 0.19782558 -0.5730664 -0.62785316 -0.42451993 1.488762
-0.5629532 -0.06675837 -0.6960697 -2.211239 -0.6932893 0.22732292 1.8467194 0.96364796
1.606298 0.70879614 1.5889034 -0.34735316 1.0310322 0.83505183 -0.9165349 -1.5790313
0.38475525 -0.042867724 -1.5848377 0.58538866 0.08805144 -0.6626203 -1.467273 -1.1486421
-0.32203296 -2.0428011 0.4427301 -0.24319583 0.0546566 -0.6864816 1.5469486 0.13127458
0.73354965 1.5311136 1.0325501 -1.1957573 0.5659372 -0.25324938 -0.027011542 -0.07381944
0.58207935 -2.5995896 -0.6447802 -0.783639 -0.37524363 0.5966371 0.31537035 0.34514403
0.62437415 1.4624969 -0.40976587 1.1206185 -0.73199123 -0.5894151 0.40695468 0.96912116
-0.40621185 -0.08579967 0.68494606 0.18192585 0.48447356 1.2176569 -0.62499124 1.3068569
1.8733648 -0.9187892 -0.068178035 -0.8375898 -0.04176133 -1.4604319 0.24677593 -0.6261117
-0.6340405 0.6428121 1.207932 -0.7764561 0.14381614 -0.39181998 0.1802492 -0.9786902
-0.014369693 -0.24744876 -1.8736403 0.95757025 0.60173374 -0.3277067 0.391943 -1.0539154
-0.28430805 -0.030034477 0.944754 0.11466125 0.8539699 0.6180516 0.13347557 -0.13946152
0.30239162 -0.2608209 1.313988 -1.1611828 1.6297863 -0.12705512 -1.1975756 -1.1414266
0.9899344 -0.41524944 -0.5747327 0.5063352 0.4526377 -0.13863817 -0.3707268 0.48009726
-0.5288326 -0.03840524 -0.773881 0.46506342 0.8045946 -0.14924003 -0.022434603 -1.7410977
-0.07841952 -1.4870789 0.141398 0.0707803 0.35859326 0.30934766 0.81444 -1.6942526
0.28811237 -0.47193348 1.0737534 0.4012666 1.5391362 0.1421107 0.088133365 -1.3178158
-0.21002243 1.3036289 -1.2570194 -0.18705446 -0.6150561 -0.67315066 0.028940016 -0.7574481
-1.4231384 -0.5622951 1.1883686 1.2310257 0.15640831 -0.08796007 0.25112274 1.4221585
0.2422157 0.7703495 -0.7943513 -0.0762476 0.78128743 -0.7098752 -0.7096629 -0.39296
-0.040040664 -0.25103834 -0.66405946 0.30368903 0.21822517 0.39815268 0.6177493 0.5446466
0.14225098 1.1182939 -0.49367443 0.58714783 -0.099217124 0.73411816 1.4506916 -0.3890714
00000000: ac07 9ebe 02a7 e03f 6133 813e a04c 183f
00000010: 9926 ebbf 775d 31bf 52ae 7bbb 84e5 20be
00000020: f8c0 40bf 17b0 a1bc ac8b 5b3f fe08 bfbf
00000030: f7fe da3d 7399 a83c 52b0 ac3f ffbd d9be
00000040: 0b05 41be edf1 a23f b19b a33f 8d06 08bf
00000050: 2fef a93e f1b1 32bf b709 23bf 7ff2 50bc
00000060: 93fd 5d3f 04de 11bf d80d 55bd 0177 c23d
00000070: 6975 58be afdd acbf 6cad 73bf 5a69 c23f
00000080: a7aa 233f 4b78 37bf 3fd9 8d3e b8db a3bf
00000090: c71a f8be 0a2f a93e 50a7 c03e 2ca3 463f
000000a0: 8e9b 093f 7ed3 8abf 830d 69be e670 823d
000000b0: a9af 5ebe e6e3 e4be ec16 83be 350b 99be
000000c0: 218c 0ebd 240a b2be 63cb cc3f ff59 0bbe
000000d0: 0bb9 1f3f 67a8 1c3f 2939 0cbf fa85 a13f
000000e0: 9b6d c6be 6322 dbbf f2f0 83be 5e16 b83f
000000f0: e4a3 893f f561 953f 79f5 9ebe 6d70 273e
00000100: 6d64 f5be 3c5d 2f3e c915 4f3f 823a 203f
00000110: 4a79 74bf ab7a 27bf 9dd5 d1bf dc81 d93e
00000120: 5e10 74bf 607f d3be 0f2a 6c3e ca92 4a3e
00000130: 7bb4 12bf fcba 20bf ad5a d9be c18f be3f
00000140: b31d 10bf 9db8 88bd a031 32bf f184 0dc0
00000150: 687b 31bf 57c7 683e 4d61 ec3f a2b1 763f
00000160: 2c9b cd3f aa73 353f 3061 cb3f 46d8 b1be
00000170: ddf8 833f f5c5 553f 08a2 6abf b31d cabf
00000180: a4fe c43e 1196 2fbd f6db cabf 08dc 153f
00000190: 5054 b43d 7ca1 29bf 9acf bbbf b406 93bf
000001a0: 81e1 a4be 41bd 02c0 85ad e23e 5408 79be
000001b0: 99df 5f3d 42bd 2fbf 6902 c63f d86c 063e
000001c0: e9c9 3b3f 88fb c33f 9a2a 843f 930e 99bf
000001d0: 43e1 103f e7a9 81be 4f47 ddbc a62e 97bd
000001e0: 2703 153f ad5f 26c0 5110 25bf 919c 48bf
000001f0: ef1f c0be 36bd 183f 3978 a13e b8b6 b03e
00000200: fcd6 1f3f 1933 bb3f d5cc d1be 6d70 8f3f
00000210: c763 3bbf e8e3 16bf 5d5c d03e 5318 783f
00000220: 00fb cfbe bdb7 afbd a058 2f3f c54a 3a3e
00000230: eb0c f83e 2edc 9b3f 6dff 1fbf 1647 a73f
00000240: 6bca ef3f c535 6bbf eda0 8bbd 496c 56bf
00000250: ee0d 2bbd 6fef babf d4b2 7c3e db48 20bf
00000260: 7a50 22bf 558f 243f 849d 9a3f d4c5 46bf
00000270: 8a44 133e a19c c8be 3f93 383e 718b 7abf
00000280: dc6e 6bbc 3563 7dbe 72d3 efbf 5323 753f
00000290: 390b 1a3f 2cc9 a7be c1ac c83e b3e6 86bf
000002a0: d390 91be dd0a f6bc 66db 713f 84d3 ea3d
000002b0: c59d 5a3f a138 1e3f d2ad 083e 00cf 0ebe
000002c0: 13d3 9a3e 518a 85be c230 a83f a3a1 94bf
000002d0: d69c d03f bd1a 02be 284a 99bf 441a 92bf
000002e0: 576c 7d3f 939b d4be af21 13bf 2f9f 013f
000002f0: 21c0 e73e 2af7 0dbe e7cf bdbe 4fcf f53e
00000300: 9361 07bf d04e 1dbd 111d 46bf cb1c ee3e
00000310: e9f9 4d3f 61d2 18be c6c8 b7bc 4adc debf
00000320: 6a9a a0bd 9a58 bebf a3ca 103e 43f5 903d
00000330: 8999 b73e d162 9e3e 247f 503f 45dd d8bf
00000340: 7783 933e 44a1 f1be c070 893f d172 cd3e
00000350: 6a02 c53f 7885 113e 447f b43d 30ae a8bf
00000360: 1f10 57be 50dd a63f 03e6 a0bf 348b 3fbe
00000370: 5174 1dbf 9a53 2cbf 9d13 ed3c 1ee8 41bf
00000380: 6629 b6bf 92f2 0fbf 761c 983f 4092 9d3f
00000390: 8029 203e 6924 b4bd 2993 803e 4a09 b63f
000003a0: 6407 783e a035 453f 9b5a 4bbf b427 9cbd
000003b0: 7402 483f 62ba 35bf 78ac 35bf 0e32 c9be
000003c0: ae01 24bd 1988 80be cdff 29bf 217d 9b3e
000003d0: 6b76 5f3e abda cb3e d124 1e3f f66d 0b3f
000003e0: 3eaa 113e 4124 8f3f e5c2 fcbe 524f 163f
000003f0: 5932 cbbd 2bef 3b3f 43b0 b93f 5e34 c7be

Encoder.SelfAttention.wk.weight f4 [20, 20]
0.33962077 -0.13443798 -0.11633486 0.83449996 -2.2308717 0.9835631 -1.1579057 0.20116356
-0.0064522545 0.22273289 0.11434351 -0.5778215 0.75345623 -0.28158155 0.8588329 -0.56639934
0.4357383 1.760975 -0.325628 0.44144917 0.015831301 -0.7238444 -0.24333183 0.29618078
0.54601884 -0.61745584 0.76444054 -1.1165988 -0.32120848 -0.23996022 1.5551332 2.4238586
0.87512755 -0.6389431 -0.9159108 -0.8742063 -0.15424001 -0.6804219 -0.24778672 0.33312458
-0.85383517 0.7587306 -0.52716243 -1.7240338 0.6956902 -0.3165395 -1.3444736 -0.6568245
-0.043579478 1.3457253 0.30862784 0.5944473 0.3952261 1.2974085 0.8863704 0.7415372
-0.21492568 -0.43669406 0.37988514 -0.70308715 1.1033875 -0.8154539 -0.41036266 -0.094974846
-0.87763005 1.2895392 -0.05327736 0.5596451 -0.7185531 -0.676535 -0.72765994 0.9307009
0.8336185 0.20871438 0.49557796 0.5888398 -0.18911086 -0.8695901 1.0710897 0.7040174
-0.5210793 0.609772 -0.5279108 -0.48822713 0.7091614 0.26895344 -0.10192049 1.0336118
2.0064561 0.90713257 -0.09805029 -0.74790037 -0.28778386 0.12896223 -2.139768 -1.3262388
0.8414591 -1.8509834 0.43520704 0.71599525 -0.38789704 0.7333609 -0.29870766 -0.6535044
-0.6772806 0.4847456 -0.2999248 -0.7395874 0.63282144 2.089444 1.0870256 0.56959456
0.5329241 1.5511541 -1.0612297 -1.3443321 0.6071968 -1.0414723 -0.2946454 0.6031267
-1.7526655 -1.3857675 -0.5380197 -0.16383933 1.1483885 0.3755942 0.39996317 0.90246916
1.3471012 -0.8342371 1.3070345 0.45257926 -1.0307299 0.41821644 0.5610633 -0.28412816
-0.70399845 0.16326956 0.27206364 -0.55204135 1.23789 1.2104651 0.29516044 1.3422115
-0.5002461 -0.6984884 0.64354116 -2.1854491 -2.0553741 1.3547488 0.07758885 -1.219892
0.0029754294 0.41844782 0.7614092 0.41997653 -0.9665627 -1.1629653 -0.80874115 1.0144173
-0.8318353 -0.41252282 -0.3880786 0.54411256 0.2761595 -1.188943 0.092543274 -1.9958081
0.052749317 1.0361528 1.2100321 -1.2529862 1.3468783 0.67604804 0.4957433 0.041744065
0.5192166 0.43238452 -1.1619183 0.08380636 1.4167086 -0.50242937 -0.6732109 -0.71622586
0.09731119 1.240846 2.1267765 0.5235531 0.6204318 0.06689064 0.91677886 -1.3268412
-1.6855624 1.7132072 -0.57428366 0.87758875 0.45053124 -0.38183856 -0.49615872 -0.22282687
-0.5950749 1.5134879 -1.1104747 0.2469752 0.889322 -0.094583355 0.705138 -1.7050623
1.1214865 0.31078163 0.28926507 0.25816262 -0.413285 -1.2454408 0.097095914 -1.4355642
0.14870305 -0.25631788 -0.7823854 0.10340773 -0.88165337 -0.08434237 -1.292455 -0.551535
-0.2432326 0.90963715 1.1281984 1.322803 1.581821 1.4556859 -1.3656092 0.85119474
0.4373857 0.28243262 -0.9541498 -0.47437406 0.23761944 -0.37285736 -0.21738993 -0.94788736
-0.75624025 -0.26437822 0.21131904 0.8817957 1.1001552 1.2636923 1.1480113 0.11555627
0.008537793 0.53754425 0.37539744 -0.8661797 -0.32929847 1.2566185 0.2432341 -0.9658044
00000000: c6e2 ad3e 1caa 09be f940 eebd caa1 553f
00000010: 9ac6 0ec0 cbca 7b3f 4136 94bf d2fd 4d3e
00000020: 6f6d d3bb 1714 643e ee2c ea3d 1cec 13bf
00000030: 82e2 403f 752b 90be 79dc 5b3f 8cff 10bf
00000040: 1719 df3e a167 e13f b7b8 a6be a005 e23e
00000050: a5b0 813c de4d 39bf fb2b 79be 02a5 973e
00000060: e4c7 0b3f 9611 1ebf 60b2 433f b6ec 8ebf
00000070: 7075 a4be 22b8 75be 9b0e c73f 8020 1b40
00000080: 5c08 603f c691 23bf 2179 6abf fccb 5fbf
00000090: 18f1 1dbe 2130 2ebf cdbb 7dbe 4e8f aa3e
000000a0: f194 5abf 2b3c 423f 1ef4 06bf 24ad dcbf
000000b0: c118 323f 7711 a2be b617 acbf a725 28bf
000000c0: 6580 32bd ba40 ac3f 7804 9e3e b32d 183f
000000d0: 135b ca3e 7b11 a63f 2ce9 623f 62d5 3d3f
000000e0: 7a15 5cbe 5d96 dfbe 4e80 c23e 85fd 33bf
000000f0: cd3b 8d3f 96c1 50bf 0e1b d2be 2c82 c2bd
00000100: 5dac 60bf 9f0f a53f 5c39 5abd e744 0f3f
00000110: 19f3 37bf 6631 2dbf ec47 3abf 6a42 6e3f
00000120: 0668 553f 39b9 553e 65bc fd3e 35be 163f
00000130: 47a6 41be 759d 5ebf 7819 893f 7c3a 343f
00000140: 7465 05bf 051a 1c3f 2a25 07bf e8f8 f9be
00000150: 9a8b 353f 44b4 893e b1bb d0bd 644d 843f
00000160: c769 0040 d739 683f 97ce c8bd 6676 3fbf
00000170: 6858 93be ad0e 043e f5f1 08c0 31c2 a9bf
00000180: dd69 573f 06ed ecbf 75d3 de3e 774b 373f
00000190: 719a c6be 8abd 3b3f 36f0 98be 104c 27bf
000001a0: 4362 2dbf 9330 f83e be8f 99be 9a55 3dbf
000001b0: 9600 223f 73b9 0540 a823 8b3f f3d0 113f
000001c0: b76d 083f 388c c63f 60d6 87bf 1313 acbf
000001d0: 4071 1b3f f74e 85bf c3db 96be 8366 1a3f
000001e0: 5857 e0bf d460 b1bf a9bb 09bf 7fc5 27be
000001f0: 65fe 923f e24d c03e f9c7 cc3e 3808 673f
00000200: d06d ac3f 9090 55bf e84c a73f 78b8 e73e
00000210: f5ee 83bf 7720 d63e d8a1 0f3f 3f79 91be
00000220: 3e39 34bf 2330 273e ed4b 8b3e 9552 0dbf
00000230: 2e73 9e3f 85f0 9a3f 451f 973e 96cd ab3f
00000240: 2110 00bf 23d0 32bf 1dbf 243f 66de 0bc0
00000250: 408b 03c0 6968 ad3f e7e6 9e3d 6c25 9cbf
00000260: 6cff 423b cb3e d63e b7eb 423f 2a07 d73e
00000270: a770 77bf 0cdc 94bf a909 4fbf 6dd8 813f
00000280: 29f3 54bf 3136 d3be 3db2 c6be f64a 0b3f
00000290: c764 8d3e 492f 98bf 5487 bd3d a476 ffbf
000002a0: ab0f 583d a8a0 843f 55e2 9a3f da61 a0bf
000002b0: 8266 ac3f 7c11 2d3f 11d2 fd3e d3fb 2a3d
000002c0: 61eb 043f 8161 dd3e bdb9 94bf aba2 ab3d
000002d0: b556 b53f 369f 00bf 8d57 2cbf 945a 37bf
000002e0: 174b c73d 0bd4 9e3f 1b1d 0840 9307 063f
000002f0: 9ed4 1e3f f6fd 883d 05b2 6a3f efd5 a9bf
00000300: 82c0 d7bf 604a db3f 4104 13bf a8a9 603f
00000310: 08ac e63e 5880 c3be 8408 febe ba2c 64be
00000320: d456 18bf f9b9 c13f 0924 8ebf 11e7 7c3e
00000330: 9baa 633f ebb4 c1bd ed83 343f 7b3f dabf
00000340: df8c 8f3f c51e 9f3e 8d1a 943e e42d 843e
00000350: 179a d3be 9b6a 9fbf 39da c63d 91c0 b7bf
00000360: 9d45 183e 193c 83be 694a 48bf 6fc7 d33d
00000370: 09b4 61bf b1bb acbd 2a6f a5bf 6631 0dbf
00000380: f711 79be fbdd 683f ce68 903f 9c51 a93f
00000390: 1c79 ca3f ea53 ba3f 48cc aebf e6e7 593f
000003a0: 05f1 df3e 029b 903e 2943 74bf 28e1 f2be
000003b0: 8352 733e 29e7 bebe 779b 5ebe bfa8 72bf
000003c0: f698 41bf 955c 87be 0564 583e 5dbd 613f
000003d0: e3d1 8c3f abc0 a13f 09f2 923f c4a8 ec3d
000003e0: 19e2 0b3c 809c 093f 1834 c03e f4bd 5dbf
000003f0: cf99 a8be e0d8 a03f 5c12 793e f53e 77bf

Encoder.SelfAttention.wv.weight f4 [20, 20]
0.9355485 -0.24336475 -0.5758748 -0.4455864 -0.02663766 0.26134732 0.4206321 -0.443991
0.4278796 -0.31198302 -0.16136432 -0.40676114 -0.18369876 -0.20644176 -0.3492714 -0.6766568
-1.2758292 -0.35960567 0.912302 0.32907152 -1.0429695 -0.9375578 -0.45551065 -0.23449455
0.59649175 0.03577207 0.29641593 0.77848697 -0.113277465 0.2674912 -0.45667732 -0.043795105
0.20788373 -1.5889748 -0.28571627 0.30995214 -0.6424495 0.097604014 -0.036019914 -0.28316894
0.72080773 0.07924352 0.42059773 0.3384317 -0.060643923 -0.73673165 0.3289731 -0.38393047
-0.6220229 -0.26712763 -0.0008193173 -0.32447633 -0.82587934 -0.3254611 0.024379496 -0.32152408
0.2681889 -0.54363245 1.8791668 1.6153218 -2.1305003 -0.40846205 -0.18703766 -1.1001064
-2.1246293 0.5504711 -0.11990465 1.3780639 -0.4749684 0.14111002 0.083272025 -0.48491666
-0.5470082 -0.2688931 -0.8775727 0.9233699 0.43889287 1.6658359 1.9346292 -0.11125243
0.61812645 0.7980316 0.61467886 0.9483722 0.99622864 -0.060228225 1.6119399 -0.029038975
-0.72285104 -0.12658672 -1.2454933 -0.09011634 -0.17834258 -1.5853285 -0.33196017 -0.34894204
-0.19948022 -0.5513327 0.27211955 -0.12058063 -0.46956635 -0.88499504 -0.25929347 0.4759957
0.16894592 1.3651295 -0.5552827 -1.5267851 -0.05229454 -0.22961132 -0.14049384 -0.7274838
0.06629753 1.7215246 0.4975335 0.59200764 0.17042008 0.06282005 0.29750717 -0.9238223
-0.32705754 -0.91739154 -0.18873115 -0.6084466 -0.095407814 -1.1571009 -0.7008925 0.2975208
0.08005689 -1.3259077 -1.1876947 0.45202175 0.41635394 -0.33797693 0.8113234 0.06638357
0.79645926 1.5533369 2.6869946 -0.101293705 0.8482267 0.18706378 0.19469345 0.34650046
0.54203594 -0.37035 0.70249224 0.42554405 0.59037113 0.67208296 1.5294968 0.56487703
-0.87339336 0.583281 -0.68774164 -1.9462727 0.004424474 -1.2050731 1.3607247 -1.9965602
-0.33431906 0.035655458 1.539014 0.40584305 -1.7534401 -1.4782941 0.7657195 -0.031586997
-1.1616493 0.24883915 -0.08404053 -0.021571958 0.08190937 0.33834076 0.28034467 -0.5597111
-0.13319394 -0.24226755 0.089890525 1.6121687 -0.504657 -1.2908049 -0.6610794 1.3807548
-0.5637506 0.18612728 -0.36854362 0.26060414 -0.5135754 -0.64536786 0.6043166 -1.0568525
-1.0712804 0.43152094 0.66408336 -0.4328317 -0.12254461 0.12075202 0.3686162 1.0633281
-0.27819228 -1.0081856 -0.7959446 0.5109456 -0.8682382 -0.11283404 0.6246935 0.61619097
0.781014 0.5698865 -0.35072485 0.28242737 -0.17071682 -1.3427397 -1.2343779 -0.7482406
-0.47878963 0.90676796 0.59312385 0.80554 -0.47541338 0.6336237 -0.11976794 0.28639388
0.8398481 0.51663357 -0.151703 0.4643091 1.3964212 0.83184445 -0.9093572 -0.6129784
-0.6870449 0.2328873 -0.13222161 -0.86266834 -0.44301027 -1.0828509 0.0791617 2.2351007
-1.6122757 -0.52479774 -0.6615037 -1.0552142 -0.38858598 1.4354655 1.2789611 1.4839299
0.6777131 0.3834521 -0.6084448 0.3813843 -0.81081545 0.2620768 0.007969424 -0.37128806
00000000: 1b80 6f3f 9c34 79be 886c 13bf e723 e4be
00000010: 3937 dabc 51cf 853e 175d d73e ca52 e3be
00000020: 0913 db3e 3dbc 9fbe b03c 25be ff42 d0be
00000030: 871b 3cbe 7865 53be b3d3 b2be 6139 2dbf
00000040: 5f4e a3bf 3c1e b8be a08c 693f 107c a83e
00000050: 0680 85bf ca03 70bf b138 e9be 571f 70be
00000060: afb3 183f bc85 123d d4c3 973e ec4a 473f
00000070: 04fe e7bd 9bf4 883e 9cd1 e9be 7f62 33bd
00000080: 79df 543e 8763 cbbf 6749 92be 0cb2 9e3e
00000090: 9277 24bf 9de4 c73d 9e89 13bd 85fb 90be
000000a0: db86 383f 6d4a a23d 9658 d73e eb46 ad3e
000000b0: c365 78bd 729a 3cbf 2a6f a83e 8992 c4be
000000c0: e53c 1fbf f4c4 88be 74c7 56ba c321 a6be
000000d0: d46c 53bf d6a2 a6be 82b7 c73c ce9e a4be
000000e0: 0e50 893e 7f2b 0bbf 8a88 f03f ddc2 ce3f
000000f0: 1e5a 08c0 f021 d1be cd86 3fbe 49d0 8cbf
00000100: edf9 07c0 adeb 0c3f 9290 f5bd 6664 b03f
00000110: 0f2f f3be 257f 103e 868a aa3d ff46 f8be
00000120: bb08 0cbf 5bac 89be 9ba8 60bf f861 6c3f
00000130: 91b6 e03e 1c3a d53f eea1 f73f 50d8 e3bd
00000140: 893d 1e3f cd4b 4c3f 985b 1d3f 85c8 723f
00000150: d708 7f3f dfb1 76bd 0c54 ce3f 25e3 edbc
00000160: c40c 39bf f39f 01be 536c 9fbf ea8e b8bd
00000170: 709f 36be 0bec cabf aff6 a9be 88a8 b2be
00000180: 8b44 4cbe 2424 0dbf 4153 8b3e faf2 f6bd
00000190: 006b f0be 098f 62bf 1dc2 84be b5b5 f33e
000001a0: 2900 2d3e 90bc ae3f 0227 0ebf b26d c3bf
000001b0: cd32 56bd 3b1f 6bbe 9edd 0fbe 613c 3abf
000001c0: 00c7 873d eb5a dc3f b6bc fe3e d08d 173f
000001d0: 9a82 2e3e cca7 803d dc52 983e 9e7f 6cbf
000001e0: 1674 a7be 2cda 6abf bd42 41be 28c3 1bbf
000001f0: 2c65 c3bd e21b 94bf b16d 33bf a554 983e
00000200: def4 a33d 58b7 a9bf 6106 98bf 656f e73e
00000210: 582c d53e 500b adbe e4b2 4f3f 1cf4 873d
00000220: c1e4 4b3f bed3 c63f b8f7 2b40 1373 cfbd
00000230: 6325 593f a68d 3f3e b85d 473e 8268 b13e
00000240: dec2 0a3f 849e bdbe 88d6 333f e9e0 d93e
00000250: 9022 173f a10d 2c3f 8dc6 c33f c89b 103f
00000260: b596 5fbf e751 153f d60f 30bf 771f f9bf
00000270: 2efb 903b d63f 9abf 3a2c ae3f 498f ffbf
00000280: de2b abbe 750b 123d 69fe c43f a9ca cf3e
00000290: ba70 e0bf be38 bdbf 3106 443f 5e61 01bd
000002a0: edb0 94bf b1cf 7e3e 711d acbd adb7 b0bc
000002b0: 1ac0 a73d 003b ad3e 5689 8f3e 3a49 0fbf
000002c0: fe63 08be fc14 78be 8618 b83d 8b5b ce3f
000002d0: 3331 01bf 1839 a5bf 803c 29bf 93bc b03f
000002e0: f651 10bf 2698 3e3e c0b1 bcbe e86d 853e
000002f0: ad79 03bf d436 25bf 7eb4 1a3f f146 87bf
00000300: b71f 89bf 50f0 dc3e 5e01 2a3f 1e9c ddbe
00000310: abf8 fabd d64c f73d 43bb bc3e 231b 883f
00000320: 386f 8ebe 3a0c 81bf 06c3 4bbf 55cd 023f
00000330: dc44 5ebf 8815 e7bd eaeb 1f3f b1be 1d3f
00000340: 89f0 473f 15e4 113f 3592 b3be 529a 903e
00000350: 64d0 2ebe e5de abbf 1800 9ebf b28c 3fbf
00000360: ea23 f5be f221 683f f7d6 173f df37 4e3f
00000370: 6269 f3be 2a35 223f e548 f5bd 38a2 923e
00000380: 4900 573f 1942 043f 0858 1bbe ecb9 ed3e
00000390: eebd b23f c2f3 543f a2cb 68bf 27ec 1cbf
000003a0: 2de2 2fbf 027a 6e3e 1a65 07be d5d7 5cbf
000003b0: 3ed2 e2be dc9a 8abf 881f a23d e40b 0f40
000003c0: 0d5f cebf 2559 06bf 4e58 29bf 4211 87bf
000003d0: bef4 c6be 55bd b73f ffb4 a33f 6af1 bd3f
000003e0: 9b7e 2d3f d553 c43e 0ac3 1bbf ce44 c33e
000003f0: 9a91 4fbf ee2e 863e 3092 023c 7819 bebe

Decoder.attn_layer.0.weight f4 [32, 96]
-0.37728834 -1.7666115 0.10466951 -0.9932806 -0.68645734 0.0032006404 0.7532751 0.5283132
0.20476453 -0.243902 -0.35165954 0.24112463 -0.899776 -2.282957 -1.0349973 0.29558137
1.022028 -0.7556192 -1.078546 2.065507 -0.26783553 0.36993194 -2.3365695 0.2668569
-0.75759387 1.4216338 0.0005668714 1.1894408 0.42322052 0.8897606 -0.56031024 -0.104133174
-0.12481065 -1.8451937 0.4622989 -0.20634355 -0.5760541 -0.18111116 0.114170864 -0.29464826
-0.44688147 -0.05257974 -0.643142 -0.56383336 -0.6210075 -0.36527097 -1.6332785 -0.16968589
1.4586619 -0.2830142 0.036589876 1.6288543 0.4779053 0.2086959 -1.4613854 0.5467576
-0.4569296 1.3027005 0.5513049 1.4050711 1.4685162 2.144338 0.8827992 -0.17451505
-0.89259416 0.6855323 -0.21138129 -0.18165931 -0.3767155 -0.15375136 -0.1398206 -0.3631976
-0.06436356 -0.26582655 0.59857476 -0.13732925 -0.8254408 -0.31811973 0.8894258 0.75882953
-0.7065036 0.20298898 1.1063317 -0.7941399 0.20210457 -0.8141016 0.0354113 0.49912444
-0.18699628 0.5230617 -0.42982274 -0.64574194 0.3571198 0.22939083 0.24946904 0.083698794
0.071688525 -1.7564986 0.6565741 1.0396167 0.94278324 -0.2354757 2.1367233 0.23185316
2.420655 1.3931135 0.23705064 0.51050764 -1.7226921 0.120812364 -3.188579 0.030158244
0.6728284 1.3809441 -0.17306912 0.82043844 1.0153352 0.32538444 -0.16308999 -1.8204564
-0.5381661 1.9750701 -0.5444528 0.62593263 0.55253136 -0.80209047 0.64900017 -2.1351304
-0.22020067 -2.033528 0.70126677 1.7627318 0.66694844 0.00031592167 2.0087912 0.07017005
1.9870639 2.1951904 0.38939437 -0.22347055 -0.55243886 0.28802535 -2.9969158 -0.17726327
0.63098115 1.9252967 -0.07834026 1.3809346 -0.032416195 -0.32768255 -0.74672145 -1.7937852
-0.35119158 1.2599987 -0.54667985 1.015671 0.8852306 -0.26661715 0.10642728 -2.1141126
1.3468373 -0.24452119 0.567822 -0.53301483 -0.14782125 1.0081176 -0.2549242 1.3927643
-0.68543696 -0.23567998 0.120202005 -0.52025133 0.54545754 -0.15268056 -0.5698437 0.34057432
0.12978573 -0.8957321 -0.50635827 -0.05261408 0.09849054 0.7953713 -0.12207625 -0.15899122
0.32101062 -0.4080474 0.2464707 0.3287724 -0.8808545 0.28316188 -0.10621419 0.34966633
2.4297607 1.8942271 0.50408036 -1.3964533 -0.49147603 1.8704665 -1.7439009 -0.023715682
1.244745 -1.2310619 0.19892035 1.811754 0.6793861 -0.38039196 0.6014674 0.2313811
1.3220227 0.9253275 1.003085 0.19398841 -1.3360621 0.1296827 0.08794832 -0.34241128
-1.5866073 -0.86549044 -0.37601107 0.098555095 1.0167418 -0.8232258 0.055052586 1.5695795
2.3084188 1.9631944 0.1301144 -1.2968518 -0.05506769 1.9384532 -1.8798614 -0.10862281
-0.126495 -1.2657063 0.28415897 0.9610332 0.4066289 -0.9659662 1.0065321 0.092330165
1.5777099 0.60471964 1.2293371 0.7765934 -1.234892 0.26970872 0.4663517 -0.84374684
-1.4026318 -0.24691874 -0.25084183 -0.10339971 0.9214557 0.43357 -0.9540481 1.5980674
00000000: f02b c1be 5320 e2bf f85c d63d a347 7ebf
00000010: abbb 2fbf d6c1 513b a3d6 403f 893f 073f
00000020: cbad 513e 72c1 79be b80c b4be 60e9 763e
00000030: b857 66bf f81b 12c0 cb7a 84bf 7156 973e
00000040: d0d1 823f 4370 41bf cc0d 8abf 4431 0440
00000050: bd21 89be b867 bd3e 5b8a 15c0 78a1 883e
00000060: acf1 41bf 19f8 b53f 189a 143a 993f 983f
00000070: 5cb0 d83e 5ac7 633f 7e70 0fbf c643 d5bd
00000080: ba9c ffbd 4f2f ecbf 71b2 ec3e b94b 53be
00000090: 4878 13bf 3475 39be 6ad2 e93d 23dc 96be
000000a0: a6cd e4be da5d 57bd f4a4 24bf 6257 10bf
000000b0: 59fa 1ebf cc04 bbbe 450f d1bf 23c2 2dbe
000000c0: 6fb5 ba3f 3de7 90be 44df 153d 4c7e d03f
000000d0: 01b0 f43e 61b4 553e ad0e bbbf 4ef8 0b3f
000000e0: adf2 e9be e4be a63f 5122 0d3f 5fd9 b33f
000000f0: 57f8 bb3f d53c 0940 21ff 613f 13b4 32be
00000100: 0d81 64bf 0b7f 2f3f 5674 58be e604 3abe
00000110: dbe0 c0be ff70 1dbe 222d 0fbe 09f5 b9be
00000120: 0bd1 83bd 6b1a 88be 323c 193f 0aa0 0cbe
00000130: 1750 53bf 97e0 a2be 69b1 633f a742 423f
00000140: 6cdd 34bf 58dc 4f3e 479c 8d3f c14c 4bbf
00000150: 80f4 4e3e f668 50bf 700b 113d 3d8d ff3e
00000160: f47b 3fbe 5fe7 053f ba11 dcbe 584f 25bf
00000170: 68d8 b63e 6ee5 6a3e d074 7f3e 466a ab3d
00000180: 6fd1 923d f2d4 e0bf 3d15 283f 2912 853f
00000190: 3e5a 713f 8b20 71be 13c0 0840 ea6a 6d3e
000001a0: 03ec 1a40 8b51 b23f 67bd 723e a1b0 023f
000001b0: 2d81 dcbf 796c f73d ae11 4cc0 6c0e f73c
000001c0: 7b3e 2c3f c7c2 b03f 0839 31be 4108 523f
000001d0: 81f6 813f ca98 a63e 1001 27be b704 e9bf
000001e0: 41c5 09bf 19cf fc3f 4261 0bbf 1f3d 203f
000001f0: b272 0d3f cd55 4dbf e024 263f faa5 08c0
00000200: 497c 61be 5325 02c0 3886 333f 32a1 e13f
00000210: 22bd 2a3f 4aa2 a539 0990 0040 51b5 8f3d
00000220: 1c58 fe3f 007e 0c40 b35e c73e 77d5 64be
00000230: a26c 0dbf 0f78 933e 78cd 3fc0 8184 35be
00000240: fb87 213f 1f70 f63f dc70 a0bd 77c2 b03f
00000250: d8c6 04bd 02c6 a7be 2329 3fbf c19a e5bf
00000260: 62cf b3be a347 a13f 36f3 0bbf 8201 823f
00000270: 799e 623f 0b82 88be 8cf6 d93d 9f4d 07c0
00000280: 2a65 ac3f c363 7abe c85c 113f a973 08bf
00000290: 745e 17be ff09 813f 6d85 82be 1a46 b23f
000002a0: cc78 2fbf 1856 71be 782c f63d 312f 05bf
000002b0: 1ba3 0b3f 4b58 1cbe 47e1 11bf c25f ae3e
000002c0: 8de6 043e b34e 65bf b2a0 01bf dd81 57bd
000002d0: 69b5 c93d 749d 4b3f 1d03 fabd 98ce 22be
000002e0: 815b a43e 97eb d0be d162 7c3e db54 a83e
000002f0: ae7f 61bf 98fa 903e d386 d9bd 7707 b33e
00000300: 3381 1b40 0976 f23f 690b 013f fbbe b2bf
00000310: bfa2 fbbe 726b ef3f 2538 dfbf 6447 c2bc
00000320: ce53 9f3f 7093 9dbf c7b1 4b3e 8ee7 e73f
00000330: 3fec 2d3f bcc2 c2be c4f9 193f 2bef 6c3e
00000340: 0a38 a93f 43e2 6c3f 1765 803f e6a4 463e
00000350: 1504 abbf 8bcb 043e 401e b43d 8850 afbe
00000360: f315 cbbf c890 5dbf 8684 c0be 41d7 c93d
00000370: 9824 823f edbe 52bf d27e 613d fbe7 c83f
00000380: 22bd 1340 f449 fb3f b63c 053e 3dff a5bf
00000390: a88e 61bd 3c1f f83f 4c9f f0bf a375 debd
000003a0: e887 01be aa02 a2bf 497d 913e 4606 763f
000003b0: aa31 d03e 9049 77bf 0bd6 803f 9917 bd3d
000003c0: 66f2 c93f e8ce 1a3f eb5a 9d3f d3ce 463f
000003d0: f110 9ebf 4317 8a3e a6c5 ee3e cbff 57bf
000003e0: 7089 b3bf 44d8 7cbe 576e 80be 3ac3 d3bd
000003f0: 85e4 6b3f e3fc dd3e 7f3c 74bf 798d cc3f

Decoder.attn_layer.0.bias f4 [32]
0.1331537 -0.7427799 -1.074155 -0.3885602 -0.4116956 -0.13751176 1.1937283 -0.48850536
-0.21540993 -0.32090735 0.39504555 0.11734866 0.68377185 -0.6229968 -0.39610562 1.1723026
-0.4843611 1.15053 -0.09599623 -0.7811714 0.71547806 0.48982617 -0.1486683 -0.50617695
-0.073100336 0.21964149 0.26450652 -0.022197548 -1.0052136 -1.1613768 0.18129392 0.44262105
00000000: 7259 083e d326 3ebf e97d 89bf 5df1 c6be
00000010: c4c9 d2be e2cf 0cbe 17cc 983f 601d fabe
00000020: 6c94 5cbe f84d a4be 6943 ca3e 7f54 f03d
00000030: ac0b 2f3f b87c 1fbf 5bce cabe 030e 963f
00000040: 2efe f7be 9144 933f ac99 c4bd d9fa 47bf
00000050: 9229 373f 7fca fa3e 813c 18be d094 01bf
00000060: a1b5 95bd b3e9 603e 666d 873e a2d7 b5bc
00000070: d7aa 80bf ffa7 94bf 1da5 393e 3a9f e23e
