result/ver7_1/last.pt (torch, 305982 bytes, 81 tensors)

Encoder.encoder_lstm.weight_ih_l0 f4 [128, 6]
00000000: 9f9f 01bd 36c8 4ebe 1540 163d 6ae4 a1bd
00000010: 1ad7 43be a0f4 743c e414 8c3f 28f2 933f
00000020: 0bd0 993f 22e1 323f 8621 9a3e bdb9 de3f
00000030: 8d79 d4be 1668 8cbe e511 45bc 7f64 b0bd
00000040: 7415 613f 8972 bbbe 72b0 c3bf d770 19c0
00000050: d4d3 c6bf d319 5b3e ea81 973f 15c6 d6bf
00000060: 1707 05bf 0df5 88be d614 b73d f18b c7be
00000070: 3272 fb3e d337 6fbe 24c1 083f 7096 6f3e
00000080: 1527 4d3e b098 4d3f 6d2a 973f c66f 8d3f
00000090: c4d2 47bd 6fec 2cbb de1b 733d 6db3 99bf
000000a0: 284c 4abf 5d41 413e 95d7 ca3b 91cc 803e
000000b0: 4fef 863e e984 7540 9bd1 6940 9fbc 0e3f
000000c0: 1d0b 213e 8711 583e 8f9f 9b3c 561b a2bf
000000d0: dbbb 9abf ecf8 7a3e 2539 343f 7285 a53f
000000e0: ebb1 503f 3a5c c6be 3719 ccbe d20e b73f
000000f0: 7c0b 8cbe dc83 1bbf 5346 7f3e fd0f 5ac0
00000100: f28a 84bf 3126 813e 5782 53bf 4b5d 24bf
00000110: 04ac 88bf adf6 f5be ed53 97bf 92ef 83bf
00000120: 5242 ae3f e2ce d4be fe2a c43f c3a4 04bf
00000130: 8ef0 e4be fae3 823f 892f 21bf 34b6 03bf
00000140: ad57 b6be c906 b43f 9084 f73f 2efc 36bf
00000150: b9d9 bb3e a07b 26be 0734 e23e caa4 d5be
00000160: cf9e 963e c7f3 b53e 26ff 90bd 3e8f 003d
00000170: 4048 f3bd 3bbf 1a3c a227 613e fce0 94be
00000180: 25ec 41bf df87 1abf 18e9 2abf 34a3 81bd
00000190: d72c 473f 07c8 98be bb12 0dbf 66a8 8ebe
000001a0: 7c93 a6be 5184 8d3e 5bee e53f 7506 07bf
000001b0: edba 02be a533 43bf 99f5 533d 1a42 f3bf
000001c0: fde4 aebf 00d4 f2be 0d8a 0e3f ce8a 193f
000001d0: 0255 553f 830e a73f 1adb c63f 7301 483f
000001e0: a8b1 28be 1c81 d03d 67d8 2f3e e082 16bf
000001f0: 2fed 4abe f83a 9f3e 19e9 c43d 5794 88be
00000200: 5223 1abc d345 873d e1e1 02bf d097 9fbd
00000210: 3bc3 08be 556b c43e ba55 af3e 886e cb3f
00000220: 01be 0240 619d c33d ede5 ccbe fdfa eabe
00000230: e5fd bcbe 435c 4c3f 7657 e03f b45a 9a3e
00000240: 7696 083f 7604 e13e b729 a13f 443e 03be
00000250: 07c5 493e ef4e 603f 5d1d d83f 18bb f63f
00000260: 04c8 ce3f 7d39 d63f 6687 1340 24da 4f40
00000270: 776f 503f d94a e03e 681f 043f c70f 8cbf
00000280: 9143 2fbf 4e87 383f 4296 9c3e d93e a0bc
00000290: 8c38 ef3e 82fd 453f 27b7 c93f 5ce4 253f
000002a0: a55a f13e 2a31 523e 071f b6bd 3847 f5bd
000002b0: 3997 02bf 99f2 15bd dfa9 ff3c 8b8b d73e
000002c0: c09d e2bd ab1c 92bf 398b c5bf f912 493d
000002d0: 2179 233f 29a0 123f 4db5 b43e 1b84 a03f
000002e0: 269d 1f3f 533f c33f 1204 8dbd 2588 d0be
000002f0: 1ed3 bdbe 9fc5 32bf f8a6 1ebf 433b 85be
00000300: db12 26bf ff7a 1bbf 7971 8dbf 137d a83f
00000310: 282f ad3d a135 2abf 0115 01be 40fd 383e
00000320: 9faa bcbe bb93 b83e 0fe1 c7bd 8589 5c3e
00000330: e489 05c0 c89f fcbf f26c 0fc0 a534 3140
00000340: 77df ee3f 2007 19c0 565c 1ac0 590a fbbf
00000350: d28f ffbf 26d0 4b3f e983 1540 6d68 d2bf
00000360: f45a 81bf 8f67 2dbd ac86 00bf 9f7a 253e
00000370: 911d 763f d564 bcbe aeb3 d13d abe4 613f
00000380: 4f42 e43e 5859 1cc0 a138 fdbf 4682 2f3f
00000390: c925 783f b19c 743f 332a 713f 9f83 c9bf
000003a0: ce48 d9bf 9ab5 313f 563f 64bf f477 50bf
000003b0: d50e 72bf 4cd8 0ac0 b7da 1bc0 bd61 b2bf
000003c0: ba43 963f fcb7 853f 103f 353f 6101 95bf
000003d0: 8717 8ebf a39f b03f e81c 063f c0a4 f03e
000003e0: e2e7 e93e 78a6 5d3d ea2e f8be d38b 083f
000003f0: d7f5 c4be 3316 26bf 26df 243e fedd aa3f
-0.031646367 -0.20193562 0.036682207 -0.07904895 -0.19125023 0.014950901 1.0943875 1.1558275
1.2016615 0.69874775 0.301037 1.7400433 -0.41498986 -0.2742316 -0.012028192 -0.08612918
0.8792336 -0.3661082 -1.5288222 -2.3975122 -1.5533395 0.2139657 1.1836522 -1.67792
-0.51963943 -0.2674946 0.08939521 -0.38973954 0.49110562 -0.23361139 0.5341971 0.23397231
0.2003444 0.8031111 1.1809822 1.1049736 -0.048784986 -0.0026386043 0.059352748 -1.2007881
-0.79022455 0.1887259 0.00619025 0.25156072 0.26354453 3.8362372 3.6534183 0.5575656
0.15726896 0.21100436 0.018996982 -1.2664592 -1.2088579 0.24509019 0.70399696 1.2931349
0.8152148 -0.38742238 -0.39862987 1.4301398 -0.27352512 -0.60748076 0.2492917 -3.4072258
-1.0354903 0.2522445 -0.8262076 -0.64204854 -1.0677495 -0.4803976 -1.1822487 -1.0307486
1.3613989 -0.4156409 1.532562 -0.51813906 -0.4471478 1.0225823 -0.6296316 -0.51449895
-0.35613766 1.4064571 1.933733 -0.71478546 0.36689547 -0.16258097 0.4418032 -0.41727287
0.29418036 0.3553755 -0.07079916 0.031386606 -0.11879015 0.009445007 0.21987775 -0.290779
-0.7575095 -0.6036357 -0.6676192 -0.06329957 0.77802795 -0.2984011 -0.55106705 -0.27862853
-0.32534397 0.27640012 1.7963365 -0.5274423 -0.12766619 -0.7625068 0.051747892 -1.9004548
-1.3663632 -0.47427368 0.556794 0.59977424 0.83332837 1.3051304 1.5535614 0.7812721
-0.1647402 0.10180876 0.17172395 -0.5879345 -0.19817041 0.31099677 0.09614772 -0.26675674
-0.009407835 0.06605115 -0.51125914 -0.07792628 -0.13355725 0.38363138 0.34245092 1.5893106
2.042847 0.09551502 -0.4001917 -0.45894614 -0.36912456 0.7982828 1.7526691 0.30147326
0.53354585 0.43948716 1.2590855 -0.12816721 0.19704066 0.87620443 1.6883961 1.9275846
1.615479 1.6736294 2.305139 3.2476892 0.8142008 0.43807104 0.5161042 -1.0942315
-0.68462473 0.7208146 0.30583388 -0.019561218 0.4672283 0.7733995 1.5759019 0.64801574
0.4713947 0.20526567 -0.08892637 -0.119764745 -0.51012 -0.036608312 0.03120893 0.4209865
-0.11065245 -1.1414999 -1.5433112 0.04909036 0.63856703 0.57275635 0.35294572 1.2540315
0.62349164 1.52537 -0.06885542 -0.4072887 -0.37075132 -0.69832796 -0.61973524 -0.26021776
-0.6487252 -0.6073455 -1.1050254 1.316317 0.0845626 -0.6648808 -0.12605669 0.18065357
-0.36848924 0.3605021 -0.097597234 0.21536835 -2.0865412 -1.9736261 -2.2410245 2.7688382
1.8661946 -2.3910599 -2.4118857 -1.9612533 -1.9965765 0.79614484 2.3361762 -1.6438118
-1.0105882 -0.04233509 -0.5020549 0.16160057 0.96138865 -0.3679568 0.10239349 0.88239545
0.4458184 -2.442953 -1.9782907 0.68558156 0.96932656 0.9555159 0.94205016 -1.5743293
-1.6975343 0.69417727 -0.8915914 -0.81433034 -0.9455388 -2.1694517 -2.4352243 -1.3936077
1.1739419 1.0446773 0.7079935 -1.1641046 -1.110093 1.3798717 0.5238786 0.47000694
0.45684725 0.054113835 -0.48473293 0.53338355 -0.3846881 -0.64877623 0.1610075 1.3348997

Encoder.encoder_lstm.weight_hh_l0 f4 [128, 32]
00000000: 9726 2840 9064 2540 190b c7bf 0905 5cbf
00000010: f075 03c0 cc51 8abf 4cf8 e1bf fa4d b4bb
00000020: 3855 b140 b069 8fbf 4ccd c93f 1b07 4e3f
00000030: 40ce aabf 8102 1abd c36c 1840 7843 fe3f
00000040: 8f06 e53f f116 13bf de97 9b3f a5df 823f
00000050: d9cf ee3f 8bab 53bf 2b89 c23e 0b9f 3ec0
00000060: 25ed 003f d2ec 7340 4620 3e40 f2b6 c63f
00000070: e430 b23f 0dc4 1c3f 7901 d0bd def4 f7be
00000080: 85af 793e e576 a43f fb42 a940 0680 2e40
00000090: ec7d b43f c13f d2bf ac30 9d3f 42e6 26bf
000000a0: 323c 24c0 b31a 2640 ebcc c63f 4127 9440
000000b0: d836 6fbf 8a5a bc3f 7859 28c0 f6b1 15be
000000c0: adde be3e 2dc0 58bf a6f8 67be 20dc 353e
000000d0: 257d 7ec0 224f 0740 7ea0 debe 1e48 9d3e
000000e0: 7712 bdbe 0932 463f 94f3 2fbf b3a8 023e
000000f0: 936d babf 7573 a9bf 49c7 42bf 75ff 993f
00000100: 46bc e73f 7928 b6c0 cc70 8a3c 5f3a eebf
00000110: 0bd5 c4bf a622 0740 671e e03f 823c 09bc
00000120: 5c9e ce3e 8872 983f c617 0abf 1f98 d3bf
00000130: a5d9 55c0 01ac 493e 03c8 69c0 ac57 0d3f
00000140: 78a9 2740 2293 86bf 6a80 5bc0 2fa8 ba3f
00000150: 457b 1040 134a c23f c765 083d 9d5a c2be
00000160: 720d 21c0 571a 693f 8a7f 7fbe f0a6 adbe
00000170: 6f93 d1bf f70c c63d 142b 3d3f 5e73 f53f
00000180: a8ff 613d 9f2c 5b3f e396 ec3f f791 b63f
00000190: 87ba 88bf ff34 28bd 2275 3e3f 41df 41bd
000001a0: 56a6 4bbf 2957 543e 6cee 9a3f 9050 f6bf
000001b0: 9b9c b53f 532b 95bf 2019 50bf cc0a f2be
000001c0: 6ebf f0bf a68d a53f ecee ae3e 2744 983d
000001d0: 7263 6d40 b020 04be adbb c93f 4422 2ebf
000001e0: 4581 9fbf 2e42 e63f 4cce 6abf e46b 333f
000001f0: 9a05 b33e e537 80bf abc8 58bf da3d 43be
00000200: 5471 38bf 0c70 34bf 3590 4abf bacf 1b3e
00000210: 7c53 3e3d 923c 1c40 9322 7ebf 467e 3a40
00000220: d93d 04c0 5bc2 c03f 9ebd 863e e676 8abf
00000230: 6c6d aec0 b896 d3bf 8ffd 283f 70fd fbbf
00000240: 6ae5 82be 8a2d 0040 39c0 fb3f 806b afbf
00000250: 67c2 3a40 d6f2 48bd 19c3 8abf 97bf 263f
00000260: 98ce cabf b841 d2bf a23b 253f 0ec0 183f
00000270: cea6 a53f 88ba 0dc0 2c7c c03f 3f29 26c0
00000280: 140e 5abf a98e 21c0 f4a7 0640 81ea 6abf
00000290: e7ff 3e40 94c4 713f 3d89 ae3f 8518 22bf
000002a0: 101f 2dc0 cc04 4b40 eed1 83c0 9010 aa3e
000002b0: 377c 5cc0 5c93 0240 b11e d9bf c929 52bf
000002c0: 0648 3640 2d0e cabf bba4 7fbf a6a0 c2bf
000002d0: 36f3 4ac0 e98f ea3f a2b2 d6bf 0c7a db3f
000002e0: 2697 8bbb 95dc 5ec0 b065 913f 5d22 43c0
000002f0: a9a7 71c0 43f0 943f fabf e13f 1add 7c40
00000300: f248 523e 93d4 d63e b7c8 1c40 142f c4be
00000310: 8116 7fbe 5cf7 5f40 db1e a03f e562 1540
00000320: c4a2 76bf d448 bc3e e5a7 52bf 2a00 a5be
00000330: a209 37bf 1d8f f2bf 1e4b e83d f44d 50be
00000340: b9e1 e33f d014 45c0 6a23 d3be c2ed afbe
00000350: a90f 463f c0a4 32bf 2399 29c0 6056 043f
00000360: 8299 fb3e e43f 813f 916e 283f 1462 433f
00000370: e3cc d03e b812 06c0 cb6d 0f40 abac c13e
00000380: 3510 ce3d d695 9dc0 9985 213f e35c 86bf
00000390: 3553 33bf d8a3 8040 8183 b23f dc71 2540
000003a0: e4ca 33bf 4b44 c73e 0e1f 33c0 180a 9a3f
000003b0: 9204 29c0 d40c 07be 9506 5abf c9d7 d7bf
000003c0: 4797 8f3f 6022 813f c134 91bf 7abe 38bf
000003d0: 9502 aa3f 7e1b c63e 20a7 a1c0 6442 103f
000003e0: d6e6 633f e9b5 87c0 4678 273f 06bf 98bf
000003f0: 892d 84be ecb1 493f 6432 4a40 68a8 8e3f
2.6273553 2.5842628 -1.5550262 -0.85945183 -2.0540733 -1.0806212 -1.7653899 -0.0055024596
5.5416527 -1.1204128 1.5765777 0.8047959 -1.3344193 -0.037600044 2.3816383 1.986434
1.7892627 -0.5745688 1.2155721 1.0224501 1.865718 -0.8268363 0.37995276 -2.9784572
0.50361854 3.8113294 2.9707198 1.552458 1.392117 0.6123665 -0.10156531 -0.48429006
0.24383362 1.2848784 5.2894263 2.726564 1.4100928 -1.6425706 1.2280478 -0.65195096
-2.566174 2.5953796 1.5531286 4.6297917 -0.9344306 1.471513 -2.6304607 -0.14618668
0.37279263 -0.84668237 -0.22653446 0.17759752 -3.9763882 2.114205 -0.4348182 0.30719084
-0.3692815 0.774201 -0.68731046 0.12759666 -1.4564689 -1.323836 -0.76085335 1.2031084
1.8104331 -5.6924405 0.016899489 -1.8611563 -1.5377516 2.1114898 1.7509278 -0.008376243
0.40355194 1.1909952 -0.53942525 -1.6530799 -3.341409 0.1969452 -3.6528327 0.552119
2.6197186 -1.0513651 -3.4297128 1.4582576 2.2575238 1.5178856 0.033300187 -0.37959757
-2.5164456 0.91055816 -0.24950996 -0.33916426 -1.6373118 0.096704416 0.73893857 1.9175832
0.055175453 0.8561496 1.8483547 1.4263295 -1.0681924 -0.041066166 0.7439748 -0.047332052
-0.79550683 0.20736374 1.210401 -1.9243336 1.4188417 -1.1653847 -0.8128834 -0.47273862
-1.880842 1.2933853 0.34166658 0.07434874 3.7091947 -0.12903094 1.5760399 -0.68021035
-1.2461325 1.7988946 -0.91721034 0.70086503 0.3496521 -1.0017058 -0.84681195 -0.19066563
-0.72047925 -0.7048347 -0.7912629 0.1521596 0.046466336 2.441197 -0.99271506 2.913957
-2.066275 1.5059313 0.2631654 -1.0817535 -5.450857 -1.6530371 0.660119 -1.9686718
-0.25565654 2.0027795 1.9668037 -1.3704681 2.9181154 -0.04905971 -1.0840789 0.6513609
-1.5844297 -1.6426306 0.6454412 0.5966805 1.294153 -2.21451 1.5037894 -2.5962675
-0.8517773 -2.5243323 2.104001 -0.91764075 2.984369 0.9444058 1.3635632 -0.63318664
-2.705021 3.1721678 -4.119376 0.3321576 -3.4450815 2.040244 -1.6962491 -0.8209501
2.848146 -1.5785576 -0.99860734 -1.5205276 -3.1710944 1.8325168 -1.6773264 1.7146621
-0.0042599617 -3.4822133 1.1359158 -3.0489724 -3.7758582 1.1635822 1.7636712 3.950995
0.20535639 0.41959056 2.4497507 -0.38317168 -0.24910928 3.4994726 1.2509416 2.334161
-0.9634211 0.36774313 -0.82287437 -0.32226688 -0.71499074 -1.8949925 0.113424525 -0.20342237
1.780326 -3.0793953 -0.41237956 -0.34361082 0.77367646 -0.6978264 -2.6499717 0.516943
0.49140555 1.0097623 0.6579371 0.7632153 0.40781316 -2.0948925 2.2410762 0.37827048
0.10061685 -4.9245405 0.6309448 -1.0497097 -0.7004884 4.0200005 1.3946382 2.5850744
-0.7023146 0.3891929 -2.7987704 1.203433 -2.640904 -0.13188487 -0.85166293 -1.6862727
1.1218041 1.0088615 -1.1344224 -0.72165644 1.3282038 0.3869285 -5.051651 0.56351304
0.890241 -4.240956 0.654179 -1.1933296 -0.2581599 0.7878711 3.1593256 1.1145144

Encoder.encoder_lstm.bias_ih_l0 f4 [128]
00000000: 7f2d f9be b2c1 723f e7da 0fbf 4425 39be
00000010: 2ae4 943e c9e9 843e ca60 90bf aeca 38bf
00000020: b1b0 18c0 651d 80bf 6534 6ebe 01c0 54bf
00000030: d03a ccbe 9584 cabf 0e6f c5bf 1b10 b8bf
00000040: 9aec a03e 2d4f 8fbf d3d9 723f 3b34 82bf
00000050: d56f 41be dc5f 5bbf f73a 7ebf 821e f9be
00000060: 31a9 0fbf fa4d 3a3f eba0 42bf 0486 efbe
00000070: 13f7 e7be 03e8 3abf 6854 333e f34d f9be
00000080: a1fe b5bf 7f0c f7bf 938d 52bf f70a f1bc
00000090: 33f1 923e 647c febf 46d3 ccbf f74b 4fc0
000000a0: ea74 88bf ddf9 dbbf 7f82 8abf 18d1 23bf
000000b0: 50f4 50bf 9ae0 95c0 a689 f2bf a26b 63bf
000000c0: 1046 f0bd 5635 a93e 188f 34bf 10d2 b2be
000000d0: bc49 62bf 6260 27c0 0175 dbbf 7257 10bf
000000e0: 0c52 d4bd 6862 e6bf 0acc b4bf 065c 54be
000000f0: 7878 c4be f835 243f b10e e0be 4077 933e
00000100: 351a 273d 6a97 653e 4a48 0d3f dc38 c6bd
00000110: 836a c73e 964f 0fbe ca7b eebe 30cf 13bc
00000120: 2b46 7b3e 459a e3be c1be 16bf f335 da3d
00000130: 8932 693e bf9b cdbd 318a c4bc 6184 cd3e
00000140: 4f6c 37bf afb6 1abf 0725 2b3e 2291 813f
00000150: ecc5 cfbe 58b1 1ebf 5402 09bf 3599 e73e
00000160: f3a4 03bf e7d4 bfbe cb82 71bf c203 58bc
00000170: 566c 673e 8353 8f3d 3cd8 1c3e 3c92 663f
00000180: 93c7 1dbf 31c9 6bbf 6057 ccbf f3be c6bf
00000190: a671 4dbf 2790 a1bf 0249 f0bf 8be7 c2bf
000001a0: 05eb e9bf 3452 03c0 6d88 fabf bfdf acbf
000001b0: 721c 87bf 62d1 0fc0 eb85 f6bf 2879 b5bf
000001c0: ac96 28c0 2dbe ddbf 82db b8bf bd99 28c0
000001d0: a503 acbf 8a32 a7bf 9342 03c0 7302 89bf
000001e0: 23d9 06c0 f7b3 ffbf 46f0 57c0 3b62 c7bd
000001f0: b2bc 46bf fa20 34bf e3b5 b8bf eeb7 98bf
-0.48667523 0.94826806 -0.56193393 -0.18080622 0.29080325 0.25959614 -1.1279538 -0.72184265
-2.3857844 -1.000897 -0.23262174 -0.83105475 -0.3988862 -1.5821711 -1.5424516 -1.4379915
0.31430513 -1.1196038 0.94863623 -1.017219 -0.18890317 -0.85693145 -0.99308723 -0.48656088
-0.5611754 0.7277523 -0.7602679 -0.46781933 -0.4530569 -0.7301027 0.17512667 -0.48692283
-1.4218332 -1.9300689 -0.82247275 -0.029424174 0.28699645 -1.9881711 -1.6001976 -3.2390115
-1.0660679 -1.7185627 -1.0821074 -0.63990927 -0.8162279 -4.683667 -1.8948257 -0.8883611
-0.11732113 0.33048505 -0.70530844 -0.3492589 -0.8839376 -2.6152577 -1.7145082 -0.5638343
-0.10367212 -1.7998781 -1.4124768 -0.20738229 -0.3837316 0.6414485 -0.4376121 0.28801918
0.040796477 0.22421041 0.5518843 -0.09678814 0.3894845 -0.13995203 -0.4657882 -0.009021565
0.24538486 -0.44453636 -0.5888482 0.10654821 0.22773184 -0.10039472 -0.023991676 0.4014006
-0.7164964 -0.60435003 0.16713344 1.0122416 -0.4058069 -0.61989355 -0.5351918 0.45234075
-0.5142357 -0.3746712 -0.943402 -0.01318449 0.2259992 0.069983505 0.15316862 0.90066886
-0.6163265 -0.9210387 -1.5964165 -1.5527023 -0.8025154 -1.2622117 -1.877228 -1.5226911
-1.8274847 -2.0518923 -1.9572884 -1.3505782 -1.0555556 -2.2471547 -1.9259619 -1.4177599
-2.6341963 -1.7323662 -1.4441988 -2.6343834 -1.3438612 -1.3062298 -2.0509384 -1.0703872
-2.107003 -1.9976796 -3.3740401 -0.09735533 -0.77631676 -0.7036282 -1.4430507 -1.1931131

Encoder.encoder_lstm.bias_hh_l0 f4 [128]
00000000: 65da 1bbf 12ce 5d3f cbaa 30bf b6ea 33be
00000010: c2d5 3f3e 7b31 e93e 6c66 9dbf 2ba9 59bf
00000020: 500b 16c0 eed7 8ebf ce15 00bd ee20 38bf
00000030: eb2a 0dbe e343 c5bf 5d74 bfbf fb1b 9abf
00000040: ceb3 d63e 2884 adbf a0b0 563f 7b7f 87bf
00000050: 16f3 9cbe 6b46 61bf 1714 51bf c46a 04bf
00000060: 4896 f9be ef25 473f a9f2 50bf f409 06bf
00000070: 5d01 26bf e110 51bf d9ec fb3d 8af3 2abf
00000080: bef9 92bf 318a e7bf 2141 2cbf 1bd2 1c3e
00000090: 50f0 193e d3b6 00c0 0b48 e4bf 5416 5cc0
000000a0: 84cb 76bf b9a8 ccbf cd91 9abf 83ac 43bf
000000b0: a6fe 6cbf 7b85 98c0 e7bd ebbf b6d9 53bf
000000c0: e52f ce3d ce4f f53e 9def fdbe 620f b1be
000000d0: d8e9 4dbf 30c3 2cc0 3c58 c3bf abfc 09bf
000000e0: 1c9a 9ebd 4f0f ecbf 343f babf 6308 9cbe
000000f0: 430c 47be 9c35 e53e 1dc8 e5be 1860 a43e
00000100: d707 823e 7bd1 ae3c 0999 023f 398e 62be
00000110: 4417 7b3e 4b5e 2ebc 8224 a5be b709 c5bd
00000120: 5d73 15bd 1535 17be e234 1abf c128 d83e
00000130: 9c44 bf3d 0eab 41be 2ac2 8bbe 1304 c63e
00000140: ef7b 69bf 9df8 0ebf e8fd a2bd 386d 8c3f
00000150: aea6 b6be c97a dabe bc54 f4be 5363 6f3e
00000160: db5b 2dbe 4fe7 febe 5af9 3cbf 3722 5cbe
00000170: 1fa6 863e 5f7d e23d e0ad 053e 82e8 1d3f
00000180: a0fd 08bf aee5 42bf ac9f b0bf 3b3a b6bf
00000190: 191e 55bf 707b bcbf e20c debf 11fd c5bf
000001a0: 6820 dcbf f23b 05c0 bed9 febf 36fe 9abf
000001b0: e5d6 85bf d47d 12c0 0fed dcbf de87 a8bf
000001c0: 3485 18c0 612c ccbf 128a d7bf 6bb3 1ec0
000001d0: 14ac aebf 5edf 9bbf 090c f0bf e883 8bbf
000001e0: d382 0fc0 9620 edbf 6917 4ac0 4d9e a2be
000001f0: 59ff 7dbf ce46 23bf 13dc abbf 484e 95bf
-0.6088012 0.86642563 -0.6901061 -0.17570004 0.18733886 0.45545563 -1.2296882 -0.85023755
-2.3444405 -1.1159647 -0.031270795 -0.71925247 -0.13785903 -1.5411342 -1.4957386 -1.2039789
0.41934055 -1.3555956 0.8386326 -1.0585779 -0.3065421 -0.87998074 -0.8167128 -0.5172541
-0.48747468 0.7779226 -0.8162027 -0.5235894 -0.6484583 -0.8166638 0.123010345 -0.6677786
-1.1482465 -1.8089048 -0.6728688 0.15314524 0.15033078 -2.0111587 -1.7834486 -3.4388628
-0.9640429 -1.598899 -1.2075745 -0.76435107 -0.9257606 -4.766294 -1.8417329 -0.82754076
0.10067729 0.4791245 -0.49596873 -0.3458205 -0.8043494 -2.6994133 -1.5261302 -0.53901166
-0.07744238 -1.8442172 -1.4550538 -0.3047515 -0.19438271 0.44767463 -0.44879237 0.32104564
0.25396606 0.021340122 0.51014763 -0.22124566 0.24520594 -0.010642598 -0.32254416 -0.096209936
-0.036486972 -0.14766343 -0.6023694 0.42218593 0.09339258 -0.18912908 -0.27296573 0.38674983
-0.9120473 -0.55848104 -0.07958585 1.0970831 -0.35674042 -0.42671803 -0.47720897 0.23377733
-0.16929571 -0.4978585 -0.7381798 -0.21497427 0.26298615 0.11059069 0.1305461 0.61682904
-0.53512 -0.76131713 -1.3798728 -1.423652 -0.8324905 -1.472517 -1.7347682 -1.5467855
-1.719739 -2.0817838 -1.99102 -1.2108829 -1.0456206 -2.28893 -1.7259845 -1.3166463
-2.38313 -1.5951043 -1.6839011 -2.4797008 -1.3646264 -1.2177541 -1.8753673 -1.089963
-2.2423599 -1.852557 -3.1576788 -0.317614 -0.99217755 -0.63779914 -1.3426536 -1.1664515

Encoder.encoder_attn.0.weight f4 [20, 84]
00000000: ee01 01c0 0613 4ac0 9369 b63f 9d33 bdbf
00000010: 0888 2540 a969 1540 0a35 bb3e ec2d 1b40
00000020: 7b9e 90be 86fd f3be 858c 41c0 3288 a03f
00000030: 46bc 8fbf 65e8 2c3f 926e fa3e 7c0a 42bf
00000040: f676 35bf d715 94bf 003a 89bf cc1c 22c0
00000050: a062 c6bf 9fea adbe fc8d 06c0 7ef1 0c40
00000060: c7ce 4640 5322 89bf 44b9 0440 2d0d cabf
00000070: 50dd b0bf 5139 0140 d700 2740 e6fa 703f
00000080: c1c3 d1bf a4b8 33c0 d542 b93f cb17 45c0
00000090: cbbe 2740 c02c 5240 2a06 f23f 1409 8740
000000a0: e852 86bf c742 ad3e 5e56 3fc0 abf1 283f
000000b0: 2e46 06c0 ac8c 9dbe 60cd 36be 1e9c 5fbf
000000c0: e8e9 c53f 6055 18c0 2fed fabf 86cf 3ec0
000000d0: 54be b0bf 8451 903f 5e0c 3ac0 c22d 1140
000000e0: fb9b 0c40 681c 5dc0 842d 0d40 c37b b8bf
000000f0: c128 27c0 236f 1540 4776 e53f 4cff cb3f
00000100: 27dc 153f b659 46be 7453 f23c 5a8a 34be
00000110: 3b3e 823d cf8b 953e df76 023f 970d bd3c
00000120: 57b7 62be 8a26 54be 96c8 b0be 2d82 3bbf
00000130: e08c d53e 4ad1 a5bd 47cc a1be 38a5 333f
00000140: 2abf 0e3e 7fbc 173f 09db 083f 6108 823f
00000150: 561a 003f 2c99 db3f e362 8fbf af5f a5bf
00000160: a715 703f 9f8f 7cbf fd89 3740 33e2 0a40
00000170: 96ad 33bf b5d2 083f 8513 05bf eb5f 1c3e
00000180: 6a37 52be c6c8 ad3f c668 44c0 2e04 07be
00000190: 5736 2340 587e 853f 8ce3 36c0 0417 6fbf
000001a0: 6f9b 893f 08be 5e3f 8d83 25c0 0420 1740
000001b0: a5f9 cd3f 643b 453f 6970 e13f cc17 28c0
000001c0: 7062 81be ea6d 1540 7e97 4c3f bdf4 85bf
000001d0: e39d cf3f 849f 8f3f e9a7 9bbd dc72 d1bd
000001e0: e15b 803f 2e99 a1bf 5e1c bdbe a21f 8a3f
000001f0: a85e 49bf 562c 8f3f 97ff 0d3f bd5a 0d3f
00000200: 7cdb 08c0 1400 813d 52ca 3ac0 aec8 35bf
00000210: 41ab 2d3f aa1a 8bbf 126c 0dc0 9caa 1bc0
00000220: 991c 963f bbe0 0e3d d555 60c0 e837 4a40
00000230: 7edc 993f d588 0c3e 25de d7be 85a9 31c0
00000240: 4197 883f 94fa 41bf fa4e df3f 0e93 24c0
00000250: b747 37be c267 7fbf ac29 1abf c015 b1bd
00000260: 32e1 90be 7575 42bf 7d42 cabf f725 233e
00000270: a80a a1bf 6457 82bf 2ad2 e9be 0c33 05bf
00000280: 39f8 ac3d 4589 2fbe f024 fbbe e834 953f
00000290: f8db 71bf f6e0 eb3e b810 083e 7b47 b0be
000002a0: 503c e3bf 22a0 0cc0 7dcc 803f f412 a4bf
000002b0: a806 fb3f 4d44 6d3f 0ef9 1740 234e 9d3f
000002c0: 5ea1 9cbf 2e11 dc3f 6b96 14c0 da6a 09c0
000002d0: 601c eabf 530e 86be e93f a8bf e398 c5be
000002e0: 23d5 cb3f 5065 61bf 4deb 3dc0 cc0d bdbe
000002f0: 3783 91be 5ecf c83e 4c42 e8bf 5768 0440
00000300: ce8c e33e ba5b 69bf a664 4abf 0c45 1cc0
00000310: 7d63 4dc0 adc7 3840 8130 cb3f e23a 103f
00000320: 40fe 0ac0 a9d3 1bc0 fa9e 443f d595 23c0
00000330: f3d8 1840 4b89 133f 92d2 af3f fddd 4d3f
00000340: b24d e5bf 24d0 3540 d8ec dabf ccce 19bf
00000350: c4ed cdbf 8b38 c33e 0e84 ccbf fcf0 a1be
00000360: 7152 2440 26bc 1fc0 b215 1fc0 5301 44c0
00000370: 8e21 38bf 0712 1140 7590 fcbf 767e 1940
00000380: e924 1940 d2fd efbf 93bf 533f dc95 28c0
00000390: 63b9 51c0 a1df 3840 1dd2 0740 ed59 f83f
000003a0: 422e 35bf 0ee4 16bf 2c88 b83f 0fc9 503b
000003b0: dc5f ecbc 6c3d 77bd 3f2c 19bf 6ef3 ee3d
000003c0: 2f92 b33f 58ce 173e 4d4b 403f aa72 e83f
000003d0: 09ec d0ba a34c 943f 4ffb 60bd 9848 85be
000003e0: b2ac 713f 12af ad3e 9fee 283f ea94 a83e
000003f0: 7670 5bc0 00af fcbe bc34 aebf 78b7 24bf
-2.0157428 -3.157411 1.4250969 -1.4781376 2.5864277 2.334574 0.36563903 2.4246778
-0.2824591 -0.4765436 -3.0242016 1.2541564 -1.1229331 0.67542106 0.48912483 -0.7579725
-0.70884645 -1.1569165 -1.0720825 -2.5330076 -1.5498848 -0.33968064 -2.102416 2.2022395
3.1063707 -1.07136 2.0738077 -1.5785271 -1.3817539 2.0191233 2.6094263 0.9413284
-1.6387864 -2.8081446 1.447352 -3.0795772 2.62102 3.2839813 1.8908131 4.219858
-1.0494051 0.3384001 -2.9896464 0.65993756 -2.0980334 -0.30771387 -0.17851782 -0.8734759
1.5462008 -2.3802109 -1.9603633 -2.9814162 -1.3808084 1.1274877 -2.9070048 2.2684178
2.1970203 -3.4548588 2.205903 -1.4412769 -2.6118624 2.3349082 1.792672 1.5937285
0.5853905 -0.1937016 0.02958081 -0.17630902 0.06359526 0.29208228 0.5096263 0.02307777
-0.22140251 -0.20717826 -0.34528035 -0.7324551 0.41709042 -0.08096559 -0.31601164 0.7017398
0.13940111 0.59272 0.5345922 1.0158807 0.50040185 1.7156119 -1.1202053 -1.2919825
0.9378304 -0.9865665 2.8677971 2.170056 -0.70186746 0.53446513 -0.5198291 0.15270965
-0.20528951 1.3576896 -3.0688949 -0.13185188 2.5501916 1.0429182 -2.8576384 -0.93394494
1.075056 0.87008715 -2.5861542 2.361329 1.609181 0.7704375 1.761243 -2.6264524
-0.25270414 2.3348336 0.7991866 -1.0465313 1.6220058 1.1220555 -0.07600386 -0.10226986
1.0028039 -1.2624872 -0.36935705 1.0790904 -0.7866006 1.1185405 0.55468124 0.5521658
-2.1383963 0.06298843 -2.9185987 -0.7100934 0.6783944 -1.0867512 -2.209721 -2.4322882
1.1727477 0.03488229 -3.5052388 3.1596622 1.2020414 0.13724072 -0.4216167 -2.7759717
1.0671159 -0.75772977 1.7445977 -2.5714755 -0.17898451 -0.99767697 -0.60219836 -0.086467266
-0.2829681 -0.75960475 -1.5801541 0.15932451 -1.2581377 -1.018292 -0.45668155 -0.52031016
0.08445782 -0.17142208 -0.4905162 1.1656771 -0.9447627 0.4607007 0.13287628 -0.34429535
-1.7752781 -2.1972737 1.0062405 -1.2818284 1.9611406 0.92682344 2.374576 1.228947
-1.2236745 1.7192743 -2.3216808 -2.1471467 -1.8289909 -0.26182804 -1.3144504 -0.38593206
1.5924419 -0.88045216 -2.9674866 -0.3692459 -0.2842042 0.3922071 -1.8145232 2.0688684
0.44443363 -0.9115559 -0.7905983 -2.4417143 -3.2091973 2.8871872 1.5874177 0.5633985
-2.1717682 -2.4347937 0.7680508 -2.55602 2.3882415 0.5763137 1.3736136 0.8041685
-1.7914336 2.840829 -1.7103529 -0.6008117 -1.6088185 0.38129076 -1.59778 -0.3162917
2.5675318 -2.4958587 -2.4856992 -3.0625808 -0.719262 2.2667253 -1.9731585 2.3983436
2.3928778 -1.8749335 0.82714194 -2.6341467 -3.27694 2.8886492 2.1221993 1.9402443
-0.7077371 -0.58941734 1.4416556 0.0031858122 -0.028854303 -0.06036131 -0.5983314 0.11667524
1.4028987 0.14824808 0.751149 1.8159993 -0.0015939485 1.1585888 -0.054927167 -0.26031947
0.9440414 0.3392263 0.65989107 0.32926112 -3.428739 -0.49352264 -1.3609843 -0.6434245

Encoder.encoder_attn.0.bias f4 [20]
00000000: 82ac 31c0 566e 0ac0 f9fd bfbf 8d4f 9a3e
00000010: da9d ffbe 65d1 2940 8f33 fdbf e577 57c0
00000020: 6888 55c0 e297 cfbf bdb9 83c0 050b f3bf
00000030: 0a3d 573f 6a8c 06bd 5aa3 02c0 053a 6c40
00000040: 25a4 743e 0159 8540 23fc 413e adad 0bbf
-2.776154 -2.1629844 -1.4999381 0.30138817 -0.4992512 2.6534054 -1.978136 -3.3666928
-3.3364506 -1.6218226 -4.116423 -1.8987738 0.84077513 -0.032848753 -2.0412202 3.6910412
0.23890741 4.1671147 0.18943839 -0.54561883

Encoder.encoder_attn.2.weight f4 [1, 20]
00000000: fa8e f1bc a0f8 bebd e03a 343e 46fe 92bd
00000010: 19b1 d3bd 55fc 61bd f757 5bbd 5a4b e03d
00000020: 7227 5f3e c965 0dbe 3a43 07bc 4dc2 003e
00000030: 3a8e f6bd 32bf b8bd 4439 3f3e d8e7 a0bd
00000040: 8803 0a3e a3ac 11bd 8847 dd3d a8df 23be
-0.029487122 -0.09324765 0.17600584 -0.07177405 -0.10336513 -0.055172283 -0.053550687 0.10951872
0.21792391 -0.13808359 -0.008255774 0.1257412 -0.12038846 -0.090208426 0.18674189 -0.07856721
0.1347791 -0.03556503 0.10804659 -0.16003287

Encoder.SelfAttention.wq.weight f4 [20, 20]
00000000: ce58 8f3e b93f 9fbf 96d9 6a3f 1698 4a3f
00000010: 6b3a 8d3e 8b63 26bf 91fe 2ebf 7200 41be
00000020: ac2c 0b3f 39d0 a23f 6821 013f 0d2d d23f
00000030: cdd6 f8bf 15a5 9c3f a986 b5be c36d ccbf
00000040: eb99 94bf 38dc 34be f218 993e 26c2 0e3e
00000050: 942c 9d3f 0fa5 753f ce9a 89bf 63d4 afbd
00000060: 441b abbe 8b89 373e 5757 59bf 18fc 53be
00000070: 8bf2 1840 6fb8 f1be dc5e 383f 575e 1fbf
00000080: b245 ef3d 7410 bfbe 8554 60bf 79ed f9bd
00000090: abec 0c3f 0ed2 d83f a938 6a3f 1da3 b6bf
000000a0: e066 9d3e 31cb a9be 4d2d 3cbf 5d7d 18c0
000000b0: 45e5 323e 76d2 9c3f b9cb b23d 175d e43f
000000c0: 50b4 bc3f b507 923f fa5b a6be 8a6b a2be
000000d0: d8f4 933e b93a f3be 9888 94bf 468d 4fbf
000000e0: 95f2 8f3f f4d7 083f 4a77 61bf 4863 3b3e
000000f0: cb86 d3be b4b5 d9be 62fb fb3e 4e58 71bf
00000100: 86b6 8c3f 51d2 7bbf f0a4 4fbf c2e6 16bf
00000110: 8ba8 81bf 6f58 1b3f 7aec 24bf a22a e53f
00000120: 159f 15be 2396 ad3f b2c7 c6be efd7 a5be
00000130: df97 983f 4f36 b1be 0caa a2bf c61a 6c3d
00000140: 6e75 70be 63de a63e 5661 183f a2e0 a8be
00000150: 1095 2abf b913 c6bf 60fa 15bf e216 76bf
00000160: 3a80 ffbe 2e25 62bf 59c9 40bf 71ad 03bf
00000170: 22fe 603e efce ecbe 8604 05bf 1378 133e
00000180: fb49 993f 9f30 af3f 797d 9d3f 0f53 5f3f
00000190: 4bea 143f cfdf ff3e 94d3 c8bf 6c6a f93f
000001a0: 7aa0 44bf dd4c acbe d5f8 f4be 5970 5ebf
000001b0: 4bae f33f 32f5 36bf 0d45 013f 8e23 a73f
000001c0: 796b 073f 8949 f3bf 21f4 fe3e f8b8 233f
000001d0: 3dfc 5fbf 105b a83f 0c48 cc3e 395e 58bf
000001e0: b49a 8ebc 1afa 6fbf 64fb 97bf 0e76 ab3e
000001f0: 5a66 a6bf 87ae 903e cc9d e0be 1445 b2bd
00000200: 88f3 6e3f 3dec 363f 2253 05c0 8aa3 853c
00000210: 424b 593e a0ff a3bd 3beb 223f 5701 94be
00000220: 80c0 353e 5155 88bf 90fb 993f b9e3 0c3e
00000230: 71c9 57bf 60b6 8ebe 0436 34bf f57d 523e
00000240: ba59 4e3f 541a 153e 8676 1940 67e8 163f
00000250: 65ae 563e 68e4 cdbe e64c 303e e6da 113f
00000260: cbd3 143f 039f 00bf 36a7 723f e468 3a3f
00000270: 95cd ebbe add3 c5be fd8a e03d d8eb 5abf
00000280: e5a8 86bf d9df 89be cb3f 76bf 9e37 21be
00000290: 6a93 0240 d4d9 693f a494 af3e c9d3 cfbf
000002a0: 5ffe ca3f 5da6 00bf fdbf 6ebf 75f9 88bf
000002b0: b003 1b3f 28e6 a9bf f981 b93d 8758 6f3f
000002c0: 9c9b 9bbf 3b55 4dbe f1cd 743f a55b 293f
000002d0: d394 813f c394 c1bc 64dd e2bf 7285 c23f
000002e0: b942 8dbf 5970 ca3c cdb2 523f ebce 313f
000002f0: b2fd a33f ded2 c3bf 267b 263f 43ac acbf
00000300: 4636 6d3f 2bb7 f4be 6704 473e 397e eb3f
00000310: 28d3 60bf 1d28 2cbf 2c63 c53f cde1 8cbf
00000320: b5a2 373e 2610 423f b598 323f 218c 2fbf
00000330: 9fca 133f 2ecc d7bf ca2a 4d3f e389 a73e
00000340: 694f 973f cc60 183f be02 04bf 0e73 343d
00000350: fcd3 3fc0 ea51 8fbe 2e41 5d3f df42 a13e
00000360: 8658 af3f 1a2f 8c3f 6410 ccbe 8c73 43bf
00000370: 73e9 b33e 0b5a 013f b169 2a3f 4775 d3bf
00000380: c9b6 b53f f886 d1bf 56a5 bbbf 758c fe3d
00000390: 2e3d 513d 41fb ca3e ccc9 b8be 2c48 36bf
000003a0: f61e 633e 3acf 0fbe f9dc 3cbc 66db 5cbf
000003b0: 34f8 09bf fe53 ae3e a89a 65be 7c01 823f
000003c0: d80e 82bf dfa9 13bf 8a79 3bbf 1d69 f0bf
000003d0: 1f42 9bbf 0fae 81be cc6a fcbc e40f cd3f
000003e0: 4765 6c3e 0112 543e ed2d 463d 4732 1a3f
000003f0: b9ce da3e fa51 27bf 620d 123f 389d ce3e
0.2799744 -1.2441322 0.9173826 0.79138315 0.27583632 -0.6499564 -0.6835719 -0.18847826
0.5436504 1.2719795 0.504416 1.6419998 -1.9440552 1.2237879 -0.354543 -1.5970997
-1.1609472 -0.17662132 0.29901844 0.13941249 1.2279229 0.95954984 -1.0750368 -0.085854314
-0.3341924 0.17923562 -0.84898895 -0.20701635 2.3898036 -0.47211024 0.72019744 -0.62253326
0.11683215 -0.3731724 -0.87628967 -0.122034974 0.55048627 1.6939104 0.91492707 -1.4268528
0.3074255 -0.33162835 -0.73506624 -2.3826516 0.17470272 1.2251728 0.08730263 1.7840909
1.4742527 1.1408602 -0.32492048 -0.3172267 0.28897738 -0.4750574 -1.1604185 -0.8107494
1.1245905 0.5345452 -0.88072646 0.18299592 -0.41313776 -0.4252144 0.49215227 -0.9427537
1.0993202 -0.9836779 -0.8111105 -0.5894586 -1.012956 0.60681814 -0.64423335 1.7903636
-0.14611466 1.3561443 -0.3882423 -0.32391307 1.1921347 -0.34611747 -1.2708144 0.05764272
-0.23482296 0.32591543 0.5952352 -0.3298388 -0.666337 -1.5474769 -0.58585167 -0.96128666
-0.49902517 -0.8833798 -0.7530723 -0.51436526 0.21971944 -0.46251628 -0.5196003 0.14401273
1.1975702 1.3686713 1.2303916 0.8723611 0.5817 0.4997544 -1.5689569 1.9485602
-0.7680737 -0.33652392 -0.47846094 -0.8689018 1.9037565 -0.7146789 0.5049599 1.3057725
0.52898365 -1.9006816 0.4979563 0.63954115 -0.8749426 1.315279 0.39898717 -0.8451877
-0.017407753 -0.93741 -1.1873593 0.33488506 -1.2999985 0.28258154 -0.4387039 -0.08704582
0.9334035 0.7145422 -2.083199 0.016313333 0.21220115 -0.08007741 0.63640183 -0.28907272
0.17749214 -1.0651037 1.2029896 0.13758744 -0.8429175 -0.27873516 -0.7039492 0.20555861
0.8060566 0.14560825 2.397859 0.5894837 0.20964964 -0.40213323 0.17216834 0.5697464
0.5813567 -0.5024263 0.94786394 0.728163 -0.46055284 -0.38638058 0.1096401 -0.8551612
-1.0520293 -0.26928595 -0.9619109 -0.15743873 2.0402474 0.91348004 0.3429309 -1.6236507
1.5858878 -0.5025385 -0.932617 -1.0701128 0.605525 -1.3273363 0.090579934 0.93494457
-1.2156863 -0.20052044 0.9562674 0.66155463 1.0123543 -0.023630505 -1.7723813 1.5196974
-1.1035987 0.024711775 0.8230408 0.69456357 1.2811797 -1.5298727 0.6503166 -1.349007
0.9266094 -0.47795996 0.19435273 1.8397895 -0.878222 -0.6724871 1.542089 -1.1006409
0.17933162 0.7580589 0.6976426 -0.68573195 0.5773105 -1.6859186 0.80143416 0.32722387
1.1821109 0.595227 -0.51566684 0.044055037 -2.9973135 -0.27992183 0.8642758 0.3149633
1.369889 1.0951874 -0.39856255 -0.76348186 0.35139045 0.5052802 0.6656752 -1.6520165
1.4196407 -1.6369314 -1.4659832 0.12429134 0.051083736 0.39644817 -0.3609146 -0.71203876
0.2217978 -0.14043894 -0.011527293 -0.86272275 -0.5389435 0.34048456 -0.22422278 1.0156703
-1.016078 -0.5768108 -0.7323233 -1.8782078 -1.2129554 -0.2532811 -0.030812643 1.6020474
0.23085509 0.20709993 0.048383642 0.6023297 0.42735842 -0.6535946 0.5705167 0.40354323

Encoder.SelfAttention.wk.weight f4 [20, 20]
00000000: 58ed cabe 9dda 063f dd55 9c3f 0bdb 10bf
00000010: d720 5f3f 4067 0fc0 7768 fa3e a841 9a3f
00000020: c32f 473f d310 9cbc 7c8a a43e 1cca a43f
00000030: 7205 20bd 7bd3 5e3e 7718 5ebf 4bea fcbf
00000040: d46d 94bf 34a3 143f 97ef 34bd 3a6d acbe
00000050: 886f 953f 598c f8be 5549 88bf 0aaa 293f
00000060: c263 d4bf 1fe3 d5be 642d 08bf bf06 793f
00000070: a8ff 543f b6c9 2f3f 3f43 1f3f a4b3 62bf
00000080: f79e 983d 446b 76bf 7533 aabf 47a9 853e
00000090: de79 cc3f c0fb 853f 33b4 89bf 284d c0bb
000000a0: 0496 e0bf 04f3 9ebf 93ce 93bf 7dea 51bf
000000b0: b437 bbbc ad1e 8d3f c3fb 643e f618 863f
000000c0: 7266 d33f bbfd 2c3f 6b68 773f f977 353e
000000d0: 37ee ebbd 8f0e 9abe ee76 d1bf d73e 85bd
000000e0: dc5c dd3f ce28 39bf a600 b53e d7fb df3e
000000f0: 6d26 2dbf 63cc 1b3e dd5a 4c3f 8e45 d2be
00000100: d78e 343f 6ee4 9abf df58 71bf 69a8 69bf
00000110: 1cbe 5f3e 8d4c a6bf a393 133f 81de 0340
00000120: 07d9 433f e4b1 663f d488 18be ac34 233f
00000130: 2982 023f 151d 5bbf cde4 293f 5600 0abe
00000140: e6ee a2be 022f f73e 21b4 513e 3973 3abe
00000150: 128e 52bf dbc1 9cbf b481 63bf 0f8f 0ec0
00000160: 3bca 47bf 8e22 64be e8d1 3dbf 46ee 9bbe
00000170: 2b20 05bf 474f 37bf c80e 933e 674d 193f
00000180: 8e33 bc3f 3ddc d43f e736 343f 7eac 233f
00000190: a859 da3e ccbc 643e 3d18 c53d 4887 533f
000001a0: b960 3ac0 298c f83e ef17 c6be 8e65 c73f
000001b0: 4800 1e3f db41 9cbe cd5c 0d3f bc98 54bc
000001c0: f5fb ccbe b592 ddbe d846 983f 8e91 c23e
000001d0: 4c31 21be f1ea fb3f 349c cdbf 7902 65bf
000001e0: 5272 27bf 413e 1bc0 7a24 1e3f d1f1 a2bd
000001f0: d00b 7abf 0c2d 06bf 4d01 3f3f 03d7 473f
00000200: 037a 463f 82f5 6c3e a5a0 aabf 557b c1be
00000210: ade8 a3be a03c aa3e d0c8 c63f 09a0 1cbf
00000220: 5f1d 89be 5d82 473e f96e 263e 5ac9 b13c
00000230: 2640 cbbc c840 16bf f598 b1bf 306b 473f
00000240: f40d 723f f1a5 ce3f e3e8 073f 64b9 933e
00000250: 98ae cb3e 22c7 ec3d 08be d33d f943 683e
00000260: ba11 69bf 0dc7 a73e 899a e83f e5f9 4c3f
00000270: 6102 42bf 36a8 3cbf 2e1e 74bf 8161 c2be
00000280: c389 3fbf 8c9b 22bf ee31 78bf 560d 0440
00000290: df45 253f 7256 5c3f fa1d 90bf 7a3f 4c3f
000002a0: 8076 a23f db06 69bf 4b93 b4bf 7526 8abf
000002b0: 71a3 27bc 25f7 5dbf ac5e 373f 8739 7c3f
000002c0: c716 e8bf 9152 bd3f 06cc f73e 17d0 90be
000002d0: 3406 0740 4e70 b6bf f651 bbbf 0785 883f
000002e0: d20c b9bf c632 453f 9098 cc3f 0317 c03f
000002f0: 0399 8cbe 34d3 f7bc f967 023f 282b f2bf
00000300: be46 43bf b7a8 753e a85b 8f3f 05dd 8c3f
00000310: 5392 ccbf b661 533f a022 8ebf 8a6a 193e
00000320: 7d01 0e3f f305 d03f 823b dabe caf4 8dbf
00000330: 15ec 533f bd90 77bf e73c b8bd 775f 243f
00000340: 5df4 a43f 587d 023f 6e5a 8cbf 6643 a33e
00000350: 3554 d1bf adcf 33be fafa 98be 6cc0 7e3f
00000360: af27 0340 e7d5 c5be b474 89bf 6763 d5bd
00000370: e931 2cbf 578c c13f e8c7 55bf e825 1f3f
00000380: 9fe6 88be 4add a7bf 963f 60bf 43fa 6dbe
00000390: 8e0a 693d 6f30 18bd 30f1 fbbe 9787 473f
000003a0: 2791 25be ffb9 df3e 6be4 dbbf 29d1 a7be
000003b0: 8805 a33e 76bf 873e f768 af3f 7bbb 9c3e
000003c0: 4ac1 dfbf d712 98bf 3023 b2bf d155 fbbf
000003d0: 9248 02be 0bc6 463f fd0f 063f ae1b cd3e
000003e0: dda9 0dbf afb9 533f d7da 473f b542 e93e
000003f0: 897d 0ebf 72b4 693f 3ed9 273f e5de f63e
-0.39634204 0.5267733 1.2213703 -0.56584233 0.87159485 -2.2406769 0.48907825 1.2051287
0.77807254 -0.019050991 0.32136905 1.2874179 -0.039067693 0.21760361 -0.8675608 -1.9759
-1.1596017 0.5806153 -0.044173803 -0.33677083 1.1674662 -0.48544577 -1.0647379 0.66275084
-1.6592944 -0.41774842 -0.5319426 0.9727592 0.832026 0.6866716 0.62211984 -0.8855536
0.07452195 -0.96257424 -1.3296953 0.2610571 1.5974691 1.0467453 -1.0758117 -0.0058685727
-1.7545781 -1.2417912 -1.1547416 -0.81998426 -0.02285371 1.1024987 0.22361664 1.0476367
1.6515639 0.6757466 0.96643704 0.17721547 -0.11520045 -0.30089232 -1.636442 -0.065061264
1.7293963 -0.7232789 0.35352057 0.43746826 -0.6763676 0.15214686 0.79826146 -0.4106869
0.70530456 -1.2100961 -0.9427623 -0.912726 0.21849865 -1.2992111 0.5764715 2.0604556
0.7650303 0.9011519 -0.14895946 0.63752246 0.5097986 -0.8559125 0.6636475 -0.1347669
-0.3182289 0.48278052 0.2047887 -0.18208016 -0.8224803 -1.224666 -0.88869786 -2.2274816
-0.78042954 -0.22278807 -0.74148417 -0.30455226 -0.5200221 -0.7160534 0.28722215 0.5988373
1.4703233 1.6629711 0.70396274 0.6393508 0.42646527 0.22337645 0.09623764 0.826283
-2.9121535 0.48544434 -0.38690135 1.5577867 0.6171918 -0.30518994 0.5521973 -0.012975868
-0.40035978 -0.4327599 1.189662 0.38001674 -0.15741462 1.9681073 -1.6063294 -0.894569
-0.65408814 -2.4256747 0.6177441 -0.07956279 -0.97674274 -0.52412486 0.7461136 0.78062457
0.77529925 0.23140529 -1.3330275 -0.37789407 -0.32013455 0.33249378 1.5530033 -0.61181694
-0.2678022 0.19483323 0.1625327 0.021702457 -0.024810862 -0.586926 -1.3874804 0.7789793
0.9455254 1.6144391 0.5308973 0.2885238 0.39781642 0.11561419 0.1033898 0.2268218
-0.91042674 0.3276905 1.817216 0.8006881 -0.7578488 -0.7369417 -0.9535855 -0.37965015
-0.7481958 -0.63518596 -0.96951187 2.063314 0.6455974 0.86069405 -1.1259148 0.7978436
1.2692413 -0.91026086 -1.410745 -1.0792986 -0.010231839 -0.8670524 0.7162883 0.9852528
-1.8131951 1.4790822 0.48397845 -0.2828376 2.1097536 -1.4253023 -1.4634387 1.0665597
-1.4457037 0.770306 1.5984058 1.5007023 -0.2746049 -0.030252077 0.509399 -1.891942
-0.7627982 0.23990141 1.1199846 1.100495 -1.5982155 0.8257097 -1.1104317 0.14982048
0.5547102 1.6251816 -0.42623526 -1.1090329 0.8278211 -0.9670523 -0.08995991 0.6420817
1.2887074 0.5097251 -1.0965097 0.31887358 -1.6353823 -0.17559691 -0.2987898 0.9951236
2.049297 -0.38639757 -1.073874 -0.1041935 -0.67263657 1.5120953 -0.8350816 0.62167215
-0.2673845 -1.3114407 -0.87597024 -0.23239999 0.05689483 -0.037155565 -0.4920745 0.7794127
-0.16168652 0.4369659 -1.7179083 -0.32776764 0.31840158 0.2651326 1.3703908 0.30611786
-1.7480862 -1.188075 -1.3916988 -1.9635564 -0.12722996 0.7764594 0.52368146 0.4006018
-0.55337316 0.82705206 0.780683 0.45558706 -0.556603 0.9129096 0.6556586 0.4821693

Encoder.SelfAttention.wv.weight f4 [20, 20]
00000000: 00b5 963f 0e66 d63c adcf 62bf 6801 29bf
00000010: 22e5 99be 8476 4f3f 6bc8 99bf d812 fdbe
00000020: 14e9 e0bf bf3a e3bf 6d68 b1bf d7c7 0ebe
00000030: c060 83be 5bd1 02be 3f3e 533f ea03 8d3d
00000040: 35ee f83d e38a b73f 417a 373f 2a9a 1a3f
00000050: 8929 2abf 80ef bcbc c7d0 a93e 8b85 0c3f
00000060: 1a96 663f 2fa3 48bf 19fd 7ebf 95c2 54bf
00000070: 1658 9ebe 3035 f9be bddb 45bf eac7 adbe
00000080: 59b5 4abf 457e 9cbe ed9e 6dbe 90de 653f
00000090: e9c6 403d 0f10 e33e 6a7e 5d3f ad56 543f
000000a0: 2d4a babe fdce 2dbe cf7d cdbd a200 2a3d
000000b0: a388 49bf 762f b7bf 42d0 f5bc fb59 cfbe
000000c0: 1b91 d93e 3a1a bc3e 49bf df3e 4475 6e3d
000000d0: f061 76bf 77a7 e5be 4d7b 2d3e f63f f83a
000000e0: bac3 16be 7994 453e c207 c23f 3708 213e
000000f0: 7647 053f 28d7 2b3f 2326 42be e2b6 7b3d
00000100: d008 89be 5585 5cbe 12ad ed3e fb21 31be
00000110: 153e 363d d65d d43b 0592 cabe 9e97 c8be
00000120: ecac 22bf 0805 97be 4b74 a7be 1eb7 91be
00000130: 1d86 fd3d 433c 96be f85d 353f 7feb c63f
00000140: c656 8e3f 1d33 a63f 52b6 e43e 183b cfbd
00000150: c1f2 37be 41a0 153e ff47 10bf ee58 a0be
00000160: e48a 67bf c5c0 8cbf ef27 a2be 5a9a 103f
00000170: 6e26 88be 7797 3e3f f042 6bbe 829a 09bf
00000180: e61a 5ebf 4b9c 15bc 5018 2d3f a1ee cebe
00000190: fb9f d8be def6 d2be 671d 403f c572 643f
000001a0: 5939 93be 3d95 27bf 0226 183f db9e dcbe
000001b0: a769 82bd 429d 38be 7c15 3b3f aa34 54bf
000001c0: 157f 3b3f e3c4 a8be 5539 5b3d c4f0 23bd
000001d0: 8179 24be 7356 303e 7398 3b3f ceb9 183f
000001e0: a79d eebe 054e b7be 8bbf 7abf a1b0 9a3e
000001f0: 0c36 883f 8919 a73f 2b1d d2be 2b61 86be
00000200: 5f85 2dbf 16c8 cabc d619 873e 5755 4a3f
00000210: 2a5f 73bf 3b13 8abe b679 a33e 7baa 6fbf
00000220: 561f 6c3e fa9a f33e 062b 5a3e 074e a63f
00000230: b55e 20bd 6699 07bf 7c2d e23e dcf7 043f
00000240: 1145 08bf fa74 a7be 0473 343f de95 7b3e
00000250: 328c ac3e f346 303b cc58 85be 2430 fbbe
00000260: d4a1 853e 2f11 da3c 5dbf 2bbf e28d 1f3d
00000270: 7d82 09be 3e21 163f 4816 913f bb86 253f
00000280: 61c3 4f3f 3d9b 11bf 4d97 3b3e 7f6e b13d
00000290: f7c7 113f a25c 47bf adba d8bf 4d9b 043d
000002a0: 59d1 adbe 8ce2 6d3f 0b2b 433f f2d1 81be
000002b0: 8bfb 65bf 34a8 a1be 6c71 443e ec31 c5be
000002c0: 282d a63e 2399 e3be a4a4 d33d fa5a e43f
000002d0: 71f5 263d 69c1 3b3f b6bd 153f 2095 9fbf
000002e0: 0c09 a6be 7fe5 c73d 1bff 4c3f 379a fa3e
000002f0: 707f 853e c614 c6be 49a2 2f3c 10fe 76be
00000300: 4ab5 c03e 1e66 e33c 4601 39be b472 0c3f
00000310: 679e dc3e b035 85b9 7259 623f 71ac 14be
00000320: 9c10 193e 2c7f 503f e361 0fbf ace5 4abf
00000330: 1e3b 3e3f a5a0 b83e 6153 b83d fc6f 4a3f
00000340: 2865 b2be 4973 f93e e36d eebe 7fc2 0cbf
00000350: ff2c 05bf fab6 6dbd 2f44 f3bd ad8d 09be
00000360: 9fbb 99be b474 fc3c c3d6 163f 196b 1340
00000370: ef0b 8dbe 9693 8e3e 976e 31bf 9d9f 6b3d
00000380: 5aa2 cf3e 8251 b33e 2243 9ebe 2ed7 bcbd
00000390: f6eb 07bd 19f6 82be 3b60 e2be bcbd 8b3f
000003a0: 02e5 583f 8681 19bf fff5 93be f7c1 993e
000003b0: c30e 14bf 85ca 0c3f fa64 df3f ef33 1bbf
000003c0: 25a0 01bf 636d 2c3e 3a8d a43e 319f a23f
000003d0: 1d6b a6bf c0ae b73e dfa2 77bb 2224 c9be
000003e0: b635 113d 6cc3 d13e 5c9a a7bd 97aa f0bd
000003f0: 37a9 bcbe e9cb c53e b2d7 93be 0f47 b8be
1.1773987 0.02617171 -0.8859814 -0.6601777 -0.30057627 0.81040215 -1.2014288 -0.4942844
-1.757113 -1.7752303 -1.3859993 -0.1394342 -0.25659752 -0.12775175 0.82516855 0.06885512
0.121548094 1.433926 0.7167092 0.60391486 -0.6646963 -0.023063421 0.33167097 0.5489127
0.90072787 -0.78374 -0.99604946 -0.8310941 -0.3092658 -0.4867339 -0.7728842 -0.33941585
-0.79182965 -0.30565086 -0.23205157 0.8979273 0.047064696 0.4434819 0.8652102 0.82944757
-0.36384717 -0.16973491 -0.10033762 0.04150451 -0.78724116 -1.4311359 -0.030006532 -0.40498337
0.4249352 0.3673876 0.43700626 0.058217302 -0.9624319 -0.44854328 0.16941567 0.001893996
-0.14723101 0.19294919 1.5158617 0.1572579 0.52062166 0.6712518 -0.1895986 0.061453708
-0.26764536 -0.21535237 0.46421105 -0.17298119 0.0444928 0.0064809127 -0.3956453 -0.39178175
-0.6354511 -0.29496026 -0.32705912 -0.2846002 0.12379096 -0.2934285 0.7084651 1.5540618
1.1120231 1.2984349 0.4467035 -0.10118693 -0.17963697 0.14611913 -0.5635986 -0.31317848
-0.90446305 -1.0996329 -0.31671092 0.5648552 -0.2659182 0.74449867 -0.22974753 -0.53751385
-0.86759794 -0.009131501 0.6761522 -0.40416434 -0.42309555 -0.4120397 0.75044864 0.89237624
-0.2875469 -0.65462095 0.59432995 -0.43089947 -0.06367808 -0.18028739 0.7307966 -0.8289286
0.73240787 -0.32962713 0.053521473 -0.040024534 -0.16061975 0.17220478 0.73279494 0.59658515
-0.46604654 -0.35801712 -0.9794852 0.30212882 1.0641494 1.3054668 -0.41037878 -0.26246008
-0.67781633 -0.024753612 0.263869 0.7903647 -0.95067084 -0.26967797 0.31928796 -0.9361951
0.23058829 0.47579175 0.21305475 1.2992562 -0.03915282 -0.5296844 0.44175327 0.51940703
-0.53230387 -0.32706434 0.70488 0.24568889 0.3370071 0.0026897758 -0.2604431 -0.49060166
0.26100028 0.026619522 -0.6708887 0.03895367 -0.13428684 0.58644474 1.1334925 0.6465871
0.811575 -0.568775 0.18319435 0.086636536 0.5694575 -0.7787572 -1.6931969 0.03237467
-0.33948782 0.9292381 0.76237553 -0.25355488 -0.8983695 -0.3157364 0.19183892 -0.3851465
0.32456326 -0.44452772 0.10334137 1.7840264 0.040761415 0.73341995 0.584926 -1.2467384
-0.32428777 0.0976057 0.8007676 0.48945782 0.2607379 -0.38687724 0.010719844 -0.24120355
0.37638313 0.027758654 -0.18066892 0.54862523 0.430896 -0.00025407737 0.8841773 -0.14518906
0.14947742 0.8144405 -0.5600874 -0.792567 0.74308956 0.36060062 0.09000278 0.79077125
-0.348428 0.48720768 -0.46568212 -0.5498428 -0.52021784 -0.05803583 -0.11878239 -0.13432951
-0.30025956 0.030817367 0.5892145 2.3034117 -0.27548167 0.27846974 -0.6930937 0.057525266
0.40553552 0.35023123 -0.30910593 -0.0922073 -0.033184014 -0.25578383 -0.44214043 1.0917277
0.8472444 -0.5996326 -0.28898618 0.30030796 -0.57835025 0.5499652 1.7452691 -0.6062612
-0.50634986 0.16838603 0.32138997 1.2704831 -1.3001438 0.3587551 -0.0037786288 -0.3928538
0.035451613 0.40969408 -0.081837386 -0.117512874 -0.3684785 0.38632134 -0.288755 -0.35991713

Decoder.attn_layer.0.weight f4 [32, 96]
00000000: e58e 343d cd8f 143f b864 a0bf 3cb1 1b3f
00000010: 2f40 223e 5e0a 5dbf 1f4b 8e3f 67b4 b03e
00000020: a009 18bf 83e9 22bf d2fd 993f 4fb5 6bbf
00000030: 9614 cb3e 1c58 2bbf 3e7c 65be 0690 573e
00000040: 042c 0abf 2dce 61bf f015 29bf 15b6 a53f
00000050: 219f 19bf 3257 7d3e ee57 943e b2bf bd3d
00000060: af74 0a3f 7855 ddbe 1d2b 97bf ef45 92bf
00000070: 4233 23be 31cd 903e 46c4 753d df1b 913e
00000080: 16de c6be 4785 073f 3b07 3cbe b578 0cbf
00000090: 2984 d0be b473 f3bd 62e1 003e a334 1fbf
000000a0: 57fc 59bf f139 15bf fc81 0e3e 8187 b6be
000000b0: 885f af3e 6e24 1abd 6f05 f8bd f0fe 9c3e
000000c0: f0d7 9dbe 5a1d 0a3d 760f 5fbf f59f 003e
000000d0: faba 11be e010 fabd 2cea 24be 5407 f83e
000000e0: 7fdd ec3e 6c92 24be 86cf c63e c4b1 8cbd
000000f0: e67c 303f c4fd debc 52c5 bdbe 1b9d 54be
00000100: ffc4 12bf 55ae 3ebf 8903 7d3e 12f0 0f3f
00000110: fd2e 293e 620a ac3e bee4 0a3e 14a2 633c
00000120: 9710 ee3e 196b 313f 6431 323f 0ce7 953e
00000130: 2c6f 41be 872c 063f cddd 3fbe e30b 0f3e
00000140: 07fd 183f ebde bfbe 7186 8ebf 526b 0fbf
00000150: d475 8bbd f8b7 a5be 4965 dd3e ea46 393e
00000160: 600a c73d 6987 013f c9f5 26bf 04bb 3b3f
00000170: 87d0 c73e c0b4 98bd 5209 c43d f53d 483e
00000180: bd0c 32bb 486f 3c3d 0db9 ea3e af75 c93f
00000190: 6916 113f 71e8 c1bd 9ec7 b4bf dad7 d63e
000001a0: 505e 90bf 3873 5b3f c515 173e 4385 97bf
000001b0: cdc8 82be a537 0abf bcfb aebe 203a 08be
000001c0: f130 5a3f 5d88 00bf 6838 65bf c125 9c3f
000001d0: abe9 823e 592d 0b3f efef e63e a1f1 9bbd
000001e0: e691 77bf 635a 02be 19c4 14bf 6910 e13e
000001f0: cbab 853f b5e4 7dbe 7121 aabf 9c77 073f
00000200: 9d82 a43e 52ac febe d0a6 8b3f da64 cebe
00000210: 488c 573d d7db a9be bf36 2fbf a9ce a8be
00000220: 675b a4bf be1a f23e 9d41 73be dc07 41bf
00000230: 1069 a6be c5b1 1c3f dac5 af3d c662 353d
00000240: 7231 cebc 7ad7 323f 15de 21be 38e1 543f
00000250: 189b c53e 555d e0be d612 71be 7749 87be
00000260: a01e 9cbe d066 debd 9b6c 56be 4c63 2d3f
00000270: 7d05 603f e796 ba3d 3761 49bf 02d6 5c3e
00000280: 811f 42bf 0eaf 21bf d6de bf3d 23cb ab3f
00000290: c14a 23be d6ba b0be f7d5 50be 4e75 9bbd
000002a0: 79c0 863e d07b cb3e 4361 a53e ee9a 913f
000002b0: f620 1b3e ab0e a0be cb02 a23e 9325 b63c
000002c0: bd39 e93e 840c d63d 1360 86bf f632 403f
000002d0: 1fd2 2dbe a4ab 3f3f 699f 2abf 8d8e 35bf
000002e0: 2f2c ccbe a281 91be 28b6 60be 9c5a 393f
000002f0: 3cb8 2bbe 2cf0 0d3f 26e7 be3e e3fd 693e
00000300: ead8 09c0 cd94 ebbf 35b6 d0bf 5e87 a6bf
00000310: 4071 123e 2c4f 2fbe 0ea6 bdbf c105 a23f
00000320: e5cf a6be 2331 ebbd a129 da3e e5b4 3d40
00000330: 07ab aebf 96d4 babf 03a9 e2bf 3463 69be
00000340: 2bd6 9bbf 6bcb 5bbf c7bc 0ebe f4d8 2fbf
00000350: a3e6 2a3f 1d7a 61be c563 513f 2fc1 efbf
00000360: c082 9b3f 9223 89bf 1bc3 5e3d 6a92 28bf
00000370: 3d2b 3fbf aac2 793f 4e31 4ebd 2624 423e
00000380: 3ef6 8abf 8bf0 d2be 6f3b 5bbe 2192 c2bf
00000390: a6aa 393f 96d8 873e 76e6 0fbf f910 f23e
000003a0: c7d4 fbbe 8f02 03bf 0ea4 733d 8071 3b40
000003b0: e6a5 48bf cd54 74bf 9d88 9cbf b516 0abf
000003c0: 1ecf 92bf 0ad3 d2be ac69 533d 3846 94be
000003d0: 4402 07bf 5710 d8bd bcc1 263f fe71 febf
000003e0: 1a13 d63f 1df2 96bf 9a19 913d 5ba2 10be
000003f0: dc79 c9be ca75 943f ea7b 10bf 1428 293f
0.044081587 0.5803192 -1.2530737 0.60817313 0.15844797 -0.86343944 1.1116675 0.34512636
-0.59389687 -0.6363756 1.2030585 -0.9207353 0.39664143 -0.6693132 -0.22410676 0.21051034
-0.5397341 -0.88205224 -0.660491 1.2946192 -0.60008436 0.24740294 0.28973335 0.092650786
0.54084295 -0.4322927 -1.1810032 -1.1427592 -0.15937522 0.2828155 0.060001634 0.28341576
-0.38841313 0.5293774 -0.18362133 -0.54871684 -0.4072583 -0.11887303 0.12585977 -0.6218969
-0.85150665 -0.58291537 0.13916773 -0.35650256 0.34252572 -0.0376324 -0.121104114 0.30663252
-0.3082881 0.033719398 -0.87132967 0.12561019 -0.14231482 -0.1221025 -0.16104954 0.4844309
0.46262738 -0.1607148 0.38830203 -0.068698436 0.6894058 -0.027220614 -0.37064606 -0.20763056
-0.5733184 -0.7448476 0.2470838 0.56225693 0.16521831 0.3360167 0.1356382 0.013893623
0.46497032 0.69304043 0.69606614 0.29277837 -0.18890065 0.52411693 -0.18736954 0.13969378
0.5976109 -0.3747476 -1.1134778 -0.5602313 -0.06809583 -0.3236692 0.43241337 0.18093458
0.09718776 0.50597245 -0.6521879 0.7333224 0.3902628 -0.0745635 0.0957209 0.19554885
-0.0027168237 0.046004564 0.45844308 1.5739039 0.5667482 -0.09468163 -1.4123418 0.41961557
-1.1278782 0.85722685 0.14754398 -1.1837543 -0.25543824 -0.53991157 -0.34176433 -0.13303423
0.8523093 -0.50208074 -0.89539194 1.2199022 0.255689 0.5436607 0.4510493 -0.076144464
-0.96707 -0.12729792 -0.5811172 0.43957832 1.0443052 -0.24794276 -1.3291456 0.52916884
0.321309 -0.49740845 1.0910282 -0.4031132 0.052624017 -0.33175537 -0.6844291 -0.3297017
-1.2840394 0.47286028 -0.23755498 -0.7540262 -0.3250203 0.61208755 0.08582659 0.04428365
-0.025170062 0.6986004 -0.15807374 0.83156157 0.3859489 -0.43821207 -0.23542342 -0.26423237
-0.30492115 -0.10859454 -0.20939867 0.6772964 0.87508374 0.091108136 -0.78663963 0.21566013
-0.7582932 -0.6315774 0.093686745 1.3421367 -0.15946485 -0.34517545 -0.20394121 -0.075907335
0.2631872 0.397429 0.32300767 1.1375406 0.15149292 -0.3126119 0.31642756 0.022234714
0.45551863 0.10451606 -1.049807 0.7507776 -0.16974686 0.7487128 -0.6664949 -0.7092064
-0.3987746 -0.28419214 -0.21944487 0.72403884 -0.16769499 0.554446 0.37285727 0.22850756
-2.1538644 -1.8404785 -1.6305605 -1.3010061 0.14301014 -0.17120045 -1.4816301 1.2658006
-0.32580486 -0.114839815 0.42609885 2.964166 -1.3645943 -1.4596126 -1.7707828 -0.22791749
-1.2174734 -0.85857266 -0.139392 -0.6869042 0.66758174 -0.22019239 0.8179286 -1.873083
1.2149277 -1.071398 0.054385286 -0.6584841 -0.7467535 0.9756266 -0.05033999 0.18959102
-1.0856397 -0.41199145 -0.21409391 -1.5200845 0.72526014 0.2653243 -0.5621103 0.47278574
-0.49185774 -0.5117578 0.059482627 2.9288025 -0.7837814 -0.95441896 -1.2229191 -0.539409
-1.1469457 -0.41176635 0.05161445 -0.28959823 -0.5273783 -0.105499916 0.65139365 -1.9878538
1.6724579 -1.1792637 0.07084961 -0.14124434 -0.39350784 1.1598446 -0.5643908 0.6607678

Decoder.attn_layer.0.bias f4 [32]
00000000: 49be 8dbe d7af 533e 3878 a53d 26e4 ce3e
00000010: f85e 89bd 49fe 5ebf 07ce 5bbe a6a7 70bf
00000020: af3f 49be 4f5b a9bf b90b b2be d122 583f
00000030: 9ded 18bf 6fc3 4a3e 2e5a ee3e 6c5c 153e
00000040: b7c5 e0bd 1541 d63e d02d 643f 8a4d c8bb
00000050: f941 39bf ce9c c5be b8a0 613f 3a91 5cbf
00000060: 80a3 7c3f 9eab 4b3f 2915 6dbf fce0 1d3f
00000070: 20f4 663e 2b78 043e 9c09 3d3d f30e 833f
-0.2768424 0.20672546 0.080795705 0.40408438 -0.06707567 -0.8710676 -0.21465312 -0.9400581
-0.196532 -1.323099 -0.3477457 0.84428126 -0.5973757 0.19801114 0.46553177 0.14586037
-0.10975211 0.4184653 0.89132404 -0.006112759 -0.7236629 -0.38596195 0.8813586 -0.861591
0.9868698 0.7955874 -0.9261041 0.61671424 0.22554064 0.12936465 0.046151742 1.0238937
