result/ver7_1/last.pt (torch, 305854 bytes, 81 tensors)

Encoder.encoder_lstm.weight_ih_l0 f4 [128, 6]
000000 1c d6 a9 3d b9 54 6b 3e ed 9d 97 3c 36 2a b2 bd
       0.08292791 0.22981538 0.018507922 -0.08699457
000010 2c f1 88 bd 4c fa de 3c 07 f0 2a 3b b7 09 24 be
       -0.06686625 0.02721896 0.002608301 -0.16019331
000020 27 30 15 be 23 a0 b2 bd 2b 51 e5 bd 9a 05 bd bd
       -0.1456915 -0.0872195 -0.11197122 -0.09229584
000030 73 d2 4d 3b b9 31 62 3d 93 9a 4a 3e fb 1f 9d 3c
       0.0031405955 0.0552232 0.19785528 0.019180289
000040 5b 50 1f 3e ea ca d3 3d 2d 24 b5 3d 06 25 c0 bc
       0.15557997 0.10341437 0.088447906 -0.023455154
000050 ac cd 12 bb 4f d9 94 bd 97 08 1f 3c 28 9e e7 bd
       -0.0022400422 -0.07268011 0.009706638 -0.11309463
000060 cd 05 00 be f3 99 ac 3c 4c 61 83 be 10 c8 2b be
       -0.12502213 0.021069502 -0.2566017 -0.16775537
000070 40 d5 53 be d9 93 00 be ce b6 f4 bd 21 2f f8 bd
       -0.20686817 -0.125564 -0.1194893 -0.12118364
000080 d6 ed c3 bd fc 78 8d bc 3f d8 77 bd 9a e1 22 bd
       -0.09566848 -0.017269604 -0.060508963 -0.03976593
000090 fe 7e 44 bd dc a0 0e be 91 59 0e be e2 c4 8f bc
       -0.04797267 -0.1392855 -0.13901354 -0.017549936
0000a0 cd f7 6a be c1 0e 5c be 1b 5e 78 3e 0c 53 d1 3d
       -0.22946091 -0.21490003 0.24254648 0.10220918
0000b0 fe 96 6d 3e e1 0c 09 3e 01 c9 2a 3e ef 9e 68 3d
       0.2320213 0.13383819 0.1667824 0.056792196
0000c0 9a 8f e9 3c 7c 4f 4e 3d a3 5b ba bc 93 54 1d bd
       0.028510857 0.05036877 -0.022748774 -0.038410734
0000d0 9f c3 23 be 69 eb f8 bd db 63 0f 3e 11 b7 d1 3d
       -0.15992592 -0.12154276 0.14002936 0.10239995
0000e0 a0 6c d0 3d 07 23 aa bd 54 82 bc bd 0d 9a 0e bc
       0.101769686 -0.08307462 -0.092045456 -0.008703721
0000f0 b4 64 fc 3c e1 fe ec 3c 0c 03 83 be 1b 27 a0 be
       0.030809738 0.02893013 -0.25588262 -0.31279835
000100 3b c9 73 be a3 3f 18 be 5c 5e 95 bd 97 9b f8 bd
       -0.23807232 -0.14868025 -0.07293388 -0.121390514
000110 e9 6b 2a ba 89 2b 41 be 1e e8 ce bd 77 8f 4c bd
       -0.0006501065 -0.18864264 -0.101028666 -0.049941506
000120 15 f3 bc 3b fc 29 23 be e2 4e d2 bb 31 43 16 3d
       0.0057662823 -0.15933985 -0.006418095 0.036685172
000130 bb 79 65 3d 72 bf fa 3c 03 d4 2b 3e ae c5 6b bd
       0.056024294 0.030608866 0.16780095 -0.05756157
000140 98 a3 34 3d a8 a4 d3 bc 8b 8f db bb 2e 17 43 3e
       0.044101328 -0.02583535 -0.0067004613 0.19051811
000150 48 c4 ab bc 80 8a 16 3e 94 67 73 3e ba cf c0 3d
       -0.020967618 0.14701271 0.2376998 0.09414621
000160 ce 8d 31 3e 2d 93 35 3e 60 af 2a 3d 17 67 21 bd
       0.1733925 0.17731924 0.041671157 -0.039404955
000170 5b ef 54 be 05 b2 ef bb a5 03 76 be 10 03 96 3c
       -0.20794432 -0.0073149228 -0.24024828 0.018312007
000180 32 fa 42 3d 61 84 da bd 19 4c 9f bd 1e 33 5a bd
       0.047601886 -0.106697805 -0.07778186 -0.053271405
000190 3d c0 28 be 7a 2e c4 3d fe b0 0d bd d6 5a ae bd
       -0.16479583 0.09579177 -0.03459262 -0.08513419
0001a0 60 8a 9d 3d 3a c2 34 be 66 56 97 3d 6b f4 9e 3d
       0.076924086 -0.17652217 0.07389526 0.07761463
0001b0 10 0b 85 bd 32 4f 1a 3e 6d 6e 6e 3e bd 58 b6 3c
       -0.06496251 0.15069273 0.23284312 0.02225911
0001c0 15 90 a1 3d 5b f4 37 3e 54 af 27 3e 9a 1d 65 3e
       0.078888096 0.17964308 0.16375476 0.22374573
0001d0 84 1c 6d 3e 90 1d 7a 3e db d1 83 3e af bb a0 3d
       0.23155409 0.2442534 0.25746045 0.07848298
0001e0 3a a9 a3 3d 78 ff 9e 3e a5 5d 82 3e e5 c1 d1 3d
       0.07991262 0.31054282 0.2546207 0.102420606
0001f0 cb b8 d9 3d 73 80 ab 3e ef c3 0f be 8f 1f a3 bd
       0.106309496 0.33496436 -0.14039586 -0.07965004
000200 a3 46 a5 bd fa d3 f2 bd f9 70 f9 bd 29 7b 49 3c
       -0.080701135 -0.118568376 -0.12179751 0.01229743
000210 16 88 62 3d 11 42 7d 3d 97 27 6c 3e 7c 8e b1 bc
       0.055305563 0.061830584 0.23061977 -0.021674387
000220 1a 37 74 bd 01 75 dd bc 37 fa f1 3c 17 c4 2e be
       -0.05962286 -0.02703333 0.029538257 -0.1706699
000230 a2 ce de bd 6d b8 a1 3d 69 b4 ee bd 1d a5 fb 3c
       -0.10879256 0.078965046 -0.11655504 0.03071838
000240 7f af e3 3d 90 33 c5 3c ac 9c 9c bc 9e 37 02 be
       0.111174576 0.024072438 -0.019117676 -0.12716529
000250 4f 19 e7 3d 5f 96 84 bd 10 a7 8f bd b1 94 ad 3d
       0.11284124 -0.064739935 -0.070142865 0.08475626
000260 c8 64 0d bd cf 6b 44 3e 08 8b e3 3d ac 64 e7 3d
       -0.03451994 0.1918175 0.111105025 0.112984985
000270 71 21 00 3e 0f 98 62 bd a2 23 69 bc f2 89 9a 3d
       0.12512757 -0.055320796 -0.014229687 0.07545842
000280 99 44 d1 bc c3 9b 0c be 2b 41 e8 3d b9 15 24 bd
       -0.025545405 -0.13731293 0.11340555 -0.04005978
000290 62 39 ee bc f1 e8 51 be 6b d6 17 be 94 05 05 3e
       -0.029080097 -0.20499016 -0.14827888 0.12990409
0002a0 1f c0 7c 3e 0e 56 1f 3e 39 db 25 3e c4 e8 8d 3e
       0.24682663 0.15560171 0.16196908 0.2771665
0002b0 14 02 57 3d eb 16 32 3e da 09 b9 3d 26 b7 56 bd
       0.052492216 0.17391555 0.09035082 -0.052420758
0002c0 5b 65 fd 3d bd 86 39 bc fe 38 2e be fd 10 a8 bc
       0.12372848 -0.011323628 -0.17013928 -0.020515913
0002d0 59 84 e4 3d a3 94 32 bd 03 02 fb bd 8c 4c aa bd
       0.11158056 -0.043598782 -0.12256243 -0.083153814
0002e0 1f b7 a8 bd 1f 4d 2f be 9d ba 7f 3d 78 31 19 be
       -0.082380526 -0.17119263 0.062433828 -0.14960277
0002f0 93 68 b5 bd 7d d6 16 3c 49 fa 75 bd 41 91 14 be
       -0.088578366 0.009206411 -0.060053144 -0.14508535
000300 33 9e 64 3d ed 43 52 3d b4 44 0e 3e 19 c3 37 3a
       0.055814933 0.05133431 0.13893396 0.0007009968
000310 4b 36 10 be 5c 14 2b 3d 79 a5 fa bd ed 50 26 be
       -0.14083211 0.041767463 -0.12238593 -0.16241808
000320 46 bb 37 3d 33 b4 81 3d e7 d0 0c be 85 ee 20 3e
       0.044856332 0.063331984 -0.13751565 0.15715988
000330 a3 b9 23 3e 72 4b b1 3d d0 27 a6 3d a8 a1 4c bd
       0.15988784 0.08656968 0.081130624 -0.049958855
000340 82 0b 00 be 4a 9c c9 bd 09 cf 56 3d 1a c2 f3 bc
       -0.1250439 -0.09844263 0.052443538 -0.02975564
000350 52 2d 18 be 33 af 41 be 6f 1d 1e be 74 8f 2a bb
       -0.14861038 -0.1891449 -0.15440916 -0.0026025446
000360 e5 99 2b be 99 df da bb 86 7a 8e 3d 86 27 3f 3d
       -0.16757925 -0.006679487 0.06956963 0.04666855
000370 18 96 1f bd 51 9e 92 bd eb 93 e6 bd b2 51 95 bd
       -0.0389615 -0.07159103 -0.11258682 -0.07290973
000380 b2 38 2f 3e 2f a2 35 bd 55 c4 3e be 29 f9 1a 3e
       0.17111471 -0.044344123 -0.18629582 0.1513411
000390 73 f0 63 3d b2 ad 5f bd 16 7e 9c bd 72 79 61 be
       0.055649232 -0.054609008 -0.076412365 -0.22018984
0003a0 29 ca 5b 3d 7b 52 e4 3c 89 4c 72 3d 1a d8 ab 3d
       0.05365959 0.027871361 0.05915502 0.083908275
0003b0 26 46 97 bd af 1e 18 3e 09 81 67 3e 10 6a 2c 3e
       -0.07386427 0.14855455 0.22607817 0.16837335
0003c0 28 4e cf 3d b6 2e 29 3e 84 e2 83 bd 4b 1a a1 bd
       0.10122329 0.16521725 -0.06439689 -0.07866343
0003d0 7c bc 8c 3b 70 02 db 3d 16 a5 19 3d 0a 9a 30 3e
       0.00429493 0.10693824 0.037510954 0.17246261
0003e0 28 1d 11 3e 5a 40 f7 bc 33 a0 0f 3e 9f d9 6a 3e
       0.14171278 -0.030182052 0.14025955 0.22934578
0003f0 ae 66 b1 bd e2 5b b5 bd 0c 10 77 3d 54 26 fa bd
       -0.08662163 -0.08855416 0.060318038 -0.12214342

Encoder.encoder_lstm.weight_hh_l0 f4 [128, 32]
000000 40 a6 4c 3c e9 7b dd bd 05 14 44 bc 42 07 e0 bd
       0.012490809 -0.108146496 -0.011967664 -0.10938884
000010 ee c6 a0 bd c9 24 58 3d a5 eb ed 3d 7b f8 f3 3c
       -0.07850443 0.052769456 0.11617211 0.02978157
000020 42 39 cd bd b3 42 0a be 0b 7e e8 3d 03 6b 0a be
       -0.10020687 -0.13502006 0.11352166 -0.13517384
000030 34 8e 1f 3e 6d ad e8 bd 2e 46 eb bc 64 af d9 bd
       0.1558159 -0.11361203 -0.028719988 -0.10629156
000040 45 98 d4 3c 37 04 f0 bc cb 7b cc 3b 76 97 39 3d
       0.025951514 -0.029298885 0.006240343 0.04531046
000050 f7 e0 3e 3a fc 45 c0 3d b2 67 b5 bd ad 42 e7 bd
       0.0007281447 0.093883485 -0.08857669 -0.11292014
000060 36 1e 08 be ac d8 13 3e e4 77 1f be 24 c4 48 be
       -0.13292775 0.14438123 -0.15573078 -0.19606072
000070 07 bd ed bc 9e be b9 3d d9 ec ef bd 78 e1 0b be
       -0.0290208 0.090695605 -0.11715097 -0.13660228
000080 a9 d4 4c be 99 36 5d 3e 99 72 2b 3d 3e f6 37 3e
       -0.20002998 0.21602859 0.041857336 0.17965028
000090 11 f6 03 be f4 42 da 3c d3 2b 5b bd 9d 0d 9e 3e
       -0.12886836 0.026643254 -0.05350859 0.3086976
0000a0 1f 88 d9 3d 66 b8 42 bd 6d 8b 85 bd 88 fa a2 3d
       0.10621666 -0.047539137 -0.06520734 0.07957941
0000b0 b3 fd 23 3e 5c 18 08 be 98 17 33 3d 45 f8 3e 3e
       0.16014747 -0.13290542 0.043723673 0.18649395
0000c0 eb 35 6c be 71 17 2a bd be 11 7b be 55 42 7f be
       -0.23067443 -0.04152626 -0.24518487 -0.24927647
0000d0 b3 f3 70 3d 8c 75 fe 38 6e c6 77 bd 1c 2b ff 3c
       0.05882616 0.000121335586 -0.06049197 0.031148486
0000e0 7d eb ab 3d 80 a6 d9 bd 16 ac b9 bd e7 1e ae 3d
       0.08394525 -0.106274605 -0.09066026 0.08501988
0000f0 9d 07 2d be 1f 96 2e be 14 f8 97 be 0b bb 12 3e
       -0.16897435 -0.17049454 -0.29681456 0.14329164
000100 c9 5e 0c be a6 5d 23 3e 50 cc 30 3e ef 8c 4a 3d
       -0.13708033 0.15953693 0.17265439 0.04945081
000110 2a 83 6f bd 24 a8 09 3e 33 be c3 bd 12 aa ce bc
       -0.058474697 0.13443047 -0.09557762 -0.02522758
000120 f5 b3 2c 3d ae f5 f0 3d 7f 90 05 bd 36 c1 d8 3d
       0.042163808 0.1176561 -0.032608505 0.10583727
000130 79 0b 2f bd b8 63 87 3d 63 67 a3 3c e3 bd 01 3e
       -0.04273555 0.06610817 0.01994676 0.12670092
000140 4f e4 39 be 98 66 04 3e 49 46 0d bd 3c f2 24 bd
       -0.18153499 0.12929761 -0.034490857 -0.040270075
000150 a3 90 a6 3d 6c 2e 57 3d 7c 05 06 3e 2c 59 97 3d
       0.08133056 0.052534506 0.1308803 0.07390055
000160 1d 78 16 be 29 86 64 be fc 3f ba 3b 29 6a ea bc
       -0.14694257 -0.22316803 0.005683897 -0.028615074
000170 f7 b7 93 3d 35 0c 0e 3e 06 14 49 3d 61 bf 99 bb
       0.07212823 0.13871844 0.04909136 -0.0046920036
000180 c9 49 26 bc 53 3c 8b 3d 68 97 c3 3c 96 f6 6d 3d
       -0.010149428 0.06798615 0.023875907 0.05809649
000190 64 99 85 3c a7 41 e3 3c ee 24 27 be ef 63 11 3e
       0.016308494 0.027741266 -0.16322681 0.14198278
0001a0 fe bd 8c bd 72 e2 0b 3e 18 d1 a2 bd 06 9c ab 39
       -0.06872176 0.13660601 -0.07950038 0.00032731908
0001b0 83 97 45 3b d0 03 86 bd f2 78 66 3e 35 a5 84 3d
       0.0030150122 -0.06543696 0.22507074 0.06476823
0001c0 7b 07 14 bd 58 80 40 bd a5 ad b5 bd 60 d8 1e 3e
       -0.036139946 -0.0469974 -0.08871011 0.15512228
0001d0 cc 70 8a bd 4e e3 9a bd 9d 1c 5d 3c f8 85 9c 3d
       -0.067597955 -0.07562886 0.0134955915 0.0764274
0001e0 9a 93 1a bd 93 8c 82 3d 30 bc 52 be 8a 11 6b 3d
       -0.03773842 0.06374469 -0.205796 0.057389773
0001f0 c4 9e d0 bd eb 64 0c 3c d5 6d b4 3d 29 bb eb 3d
       -0.10186532 0.008568983 0.08810011 0.11510307
000200 25 a5 64 be 74 8e d3 3d 6c fc fe ba 22 f4 76 3e
       -0.22328623 0.10329905 -0.001945389 0.24116567
000210 d3 9a 22 be 17 85 fe 3d 80 16 44 3d 71 c0 42 3e
       -0.15879373 0.124277286 0.04787302 0.19018723
000220 58 d3 ef 3c 4e f0 08 be e6 06 41 3d ff 8a 1f be
       0.029275581 -0.13372919 0.04712572 -0.15580367
000230 44 c3 2c bc 95 f5 8b 3d c0 71 bb 3d 42 0f 6a 3d
       -0.010544602 0.068339504 0.091525555 0.057143457
000240 4a d8 28 3a 05 fc 75 bc 58 22 67 3d 8d 07 5a be
       0.0006440921 -0.015013699 0.056429237 -0.21291943
000250 00 11 fd 3d 2d 0c 21 3e b9 b3 fd bd 79 1d a1 bd
       0.12356758 0.15727301 -0.12387795 -0.078669496
000260 6f 41 ff bd a0 7b a2 bc cb d6 44 be e8 41 e7 bd
       -0.12463652 -0.01983434 -0.19222562 -0.112918675
000270 a1 35 15 be ac 9c 01 3e b5 ac 34 bd 10 a4 4b bd
       -0.14571239 0.12657422 -0.04411002 -0.04971701
000280 9f 39 88 be d1 44 2a 3c 85 f0 ba 3d 21 81 15 3e
       -0.2660646 0.010392384 0.09127907 0.1460004
000290 ff 4c d1 bd f0 85 59 bd 3f 29 1f be 8d 0d 30 3e
       -0.10219764 -0.05310625 -0.15543078 0.17192669
0002a0 ee bf 60 bd 67 f7 37 be e9 12 ed 3c 56 77 b8 bd
       -0.05487054 -0.1796547 0.028939681 -0.090071365
0002b0 40 49 be bc 4e 02 97 be be c6 4e 3e 59 db 29 be
       -0.023228288 -0.29493946 0.20193002 -0.1658758
0002c0 22 79 66 bd 6b a6 01 3c 83 02 88 3a 68 e3 22 be
       -0.056267865 0.007913212 0.0010376725 -0.15907061
0002d0 85 81 a4 3e be a5 5f bd 59 aa bd 3d 01 ac b5 bd
       0.32130066 -0.054601423 0.09261007 -0.08870698
0002e0 65 77 df bd 6d 50 63 be bc 3a e2 bd d6 cf 11 3e
       -0.109114446 -0.22198649 -0.11046359 0.1423944
0002f0 a9 43 f9 3c fa 89 83 ba 8b 38 40 be a5 d0 a5 3c
       0.03042777 -0.0010035627 -0.1877157 0.020241091
000300 29 2e 20 bd 0a 87 49 3e e8 a8 a2 3e e9 b4 03 3d
       -0.03910652 0.1968042 0.3176949 0.03215495
000310 d7 cc 36 be 73 e8 93 bd ed 55 9e 3d a8 1b 38 3e
       -0.17851578 -0.072220705 0.07731233 0.179793
000320 f7 0f 62 bc 8c aa 23 be 79 77 a0 3d cb 7a 00 3e
       -0.013797752 -0.15983027 0.078352876 0.12546842
000330 cd ab c8 bd aa 7c b7 bd a1 b4 f0 3d 11 0d b2 bc
       -0.097983934 -0.08959325 0.11753202 -0.021734746
000340 48 d8 8e 3d 6d dc cf 3c 97 01 a1 be ab 2e 65 be
       0.06974846 0.025373662 -0.31446525 -0.22381084
000350 c0 16 c0 3e 0d cf 36 be c3 f9 09 be 56 58 27 be
       0.37517357 -0.17852421 -0.13474183 -0.16342291
000360 fd 7c 29 be 04 a2 bf 3c 77 30 a0 be 67 45 c9 3d
       -0.16551585 0.023392685 -0.31286976 0.098276906
000370 0c 9d 3c be 09 ff 2f be 51 05 40 be 63 1d 38 be
       -0.18419284 -0.17187132 -0.18752028 -0.1797996
000380 c1 57 82 3d b3 12 36 3e 6c a2 18 ba ff 02 b9 bd
       0.06364394 0.1778057 -0.00058225426 -0.090337746
000390 b5 fd 2f be 62 fe 18 be 8f 8f ae bc 36 a2 f1 3d
       -0.17186625 -0.1494079 -0.021308688 0.117985174
0003a0 1b ef 27 be cc 06 18 be 12 c3 e8 3d fa ad 9f bc
       -0.16399805 -0.14846343 0.11365332 -0.019492138
0003b0 49 07 22 bd 08 bf 8e 3d 26 f8 f7 bb 64 91 8e bc
       -0.03955773 0.0697003 -0.0075674234 -0.017403312
0003c0 a6 a9 65 3c 36 0d 08 3e 62 90 2e be e5 79 e4 bd
       0.014017498 0.1328629 -0.17047265 -0.11156062
0003d0 e0 15 0a 3e e4 74 8b 3d c0 a1 8f bc 05 9e ab 3c
       0.13484907 0.068094045 -0.017533183 0.020949373
0003e0 7b 84 0e 3e c8 b3 37 be 24 c3 66 be bf dc 0d 3e
       0.13917725 -0.17939675 -0.22535378 0.13853739
0003f0 71 75 3c 3d 3c c6 e7 bd e0 48 4e bd f4 39 35 3d
       0.04601044 -0.11317107 -0.050362468 0.04424472

Encoder.encoder_lstm.bias_ih_l0 f4 [128]
000000 ec 4c 5c bd 40 6f d6 be a2 96 f8 bc d4 48 62 bd
       -0.053784296 -0.41881752 -0.030345265 -0.055245236
000010 70 c1 bc be ad 59 6c be ba d4 38 be b1 ca 7a be
       -0.3686633 -0.23081084 -0.18049899 -0.24491383
000020 bb a8 81 be 74 8c a5 bd 11 d9 50 be ff 2f 61 be
       -0.25324044 -0.0808343 -0.20395304 -0.21990965
000030 36 76 a1 be 30 fa e4 bd 97 a5 71 bc 81 00 d6 bd
       -0.315355 -0.11180532 -0.014748952 -0.10449315
000040 ee 00 ae be b1 ce 36 bd 7c 01 03 be 3e ba 55 be
       -0.33985084 -0.04463071 -0.12793535 -0.20871827
000050 44 bf 82 bc ff 8b 6c 3c fa 7e ba be 9c 53 3a be
       -0.015960343 0.014437675 -0.36425 -0.18195957
000060 fa c7 a1 be 26 d3 26 be a4 e1 8f be 1e 71 8a be
       -0.31597883 -0.16291484 -0.28101838 -0.27039427
000070 a2 5c e7 bd e6 80 a2 be 8d 01 f1 be 98 c8 20 be
       -0.11296965 -0.31738967 -0.47071496 -0.1570152
000080 3b 0f 83 bd c4 bb 74 be f1 c7 17 bd 71 e9 df bd
       -0.06399389 -0.23899752 -0.037055913 -0.10933197
000090 40 e0 63 be a6 66 8f be 0a 7a 87 be 14 39 7b bd
       -0.22253513 -0.28008002 -0.26460296 -0.06133373
0000a0 87 15 10 be 3b 6a 04 be 88 66 c7 be 9c dc 79 be
       -0.14070712 -0.12931149 -0.38945413 -0.24400562
0000b0 e4 da 65 be 72 70 24 be b7 50 f8 bd 91 07 c2 be
       -0.22446781 -0.1605852 -0.1212477 -0.37896398
0000c0 23 61 f7 bd 6a 5b 74 be d6 cc 03 be ae 5f d8 bd
       -0.12079074 -0.23862997 -0.12871107 -0.105651245
0000d0 f5 c2 07 be 7f be a9 be cf ee 68 be d2 db 61 be
       -0.13257964 -0.3315315 -0.22747348 -0.22056511
0000e0 42 ff 91 be 88 b0 0b be 88 4d 31 bd dc 75 dd be
       -0.2851506 -0.1364156 -0.04328683 -0.43253982
0000f0 4a 60 b0 3d 41 87 32 bd 49 0b a3 be 4f 2e 43 be
       0.08612116 -0.04358602 -0.31844547 -0.19060634
000100 d9 78 ec bc 80 d5 20 3c f8 46 8d 3d f4 22 3f bc
       -0.028866218 0.009816527 0.06898302 -0.011666048
000110 37 31 8e bd 9b b1 29 3d 1d 34 be bd 0b 97 36 3c
       -0.06942981 0.041429143 -0.092872836 0.01114441
000120 41 99 ad 3d 44 4d 2c bc fa b8 62 bd ef de c3 bd
       0.084764965 -0.010516468 -0.05535219 -0.095640056
000130 80 30 38 3d 5b 93 6b bd f8 9b f6 3d d9 8b a1 bd
       0.04496813 -0.057513576 0.120414674 -0.07888002
000140 38 a4 1d 3d 29 0d 1e 3b 4a da 63 3d 70 4a b0 bd
       0.03848669 0.002411673 0.0556281 -0.08607948
000150 87 0e 9e 3c 46 84 9a bd d6 60 06 3e 0e da 6b 3a
       0.019294037 -0.075447604 0.13122877 0.0008997031
000160 98 80 ee 3d 48 d8 9a bd 5d 08 b9 3c 77 f0 2b 3d
       0.11645621 -0.075607836 0.022586996 0.041977372
000170 5a 0c df bd 04 14 c8 3d 0c 13 1a be aa ce 53 3c
       -0.10891028 0.09769443 -0.15046328 0.0129276905
000180 1b 22 a3 bd 10 31 df be b7 46 62 be 06 3a 8d 3d
       -0.079654895 -0.4359212 -0.22097288 0.06895833
000190 23 e6 0d be cb b2 0a be 5b 27 7a be 90 4a 8e be
       -0.13857321 -0.13544767 -0.24429075 -0.27791262
0001a0 28 f8 f3 bd 45 5d ea bd a9 a2 a5 be 72 aa ad be
       -0.119125664 -0.11443571 -0.32350662 -0.33919102
0001b0 b4 9d d5 bd a9 eb b7 be b4 5d 95 be c6 5a a2 be
       -0.1043047 -0.35921982 -0.29173052 -0.3170988
0001c0 22 44 c0 be 22 10 8b be 28 ee c0 bb 10 31 a2 be
       -0.3755198 -0.27160746 -0.0058877654 -0.31678057
0001d0 3a ef ae 3d 1a d1 55 be 1e b4 9b be 3f 91 f9 bd
       0.085417226 -0.20880547 -0.30410856 -0.121859066
0001e0 8f 16 06 be 76 4e 7f be 53 0e 48 be f8 61 af be
       -0.13094543 -0.24932274 -0.19536714 -0.34254432
0001f0 18 d3 d2 3d a6 65 ed bd 09 b2 2f be e0 c7 1d be
       0.10294169 -0.115916535 -0.17157759 -0.15408278

Encoder.encoder_lstm.bias_hh_l0 f4 [128]
000000 f1 30 05 3e f8 45 a5 be 52 68 2c be 60 c5 12 be
       0.13006951 -0.32279944 -0.1683667 -0.14333105
000010 58 1b 76 be 26 17 17 be 21 6e 43 be a2 32 e5 bc
       -0.24033868 -0.14754924 -0.1908498 -0.027978245
000020 61 d0 c5 bd 76 76 1b 3a b6 1b 91 be bb 93 bb be
       -0.09658886 0.0005930433 -0.28341454 -0.36636147
000030 42 7c 92 be c2 51 70 be f1 6f a9 3b 23 6e ed bd
       -0.28610426 -0.23468688 0.005170815 -0.115932725
000040 df 77 ed bd ca 85 b3 be 95 c9 91 be 28 a6 c9 bb
       -0.11595129 -0.3506301 -0.28474107 -0.0061538406
000050 34 ed 53 be 65 43 c5 bd 0b 10 22 be 9c 44 bd be
       -0.20695955 -0.09631995 -0.15826432 -0.36966407
000060 1e c8 3e be e4 02 bb be d8 60 69 be b8 d8 cd be
       -0.18631026 -0.36525643 -0.22790849 -0.40204406
000070 07 b8 b6 3d 3e 85 56 be c3 3d 2a be 72 98 be bd
       0.08921819 -0.20949265 -0.16625123 -0.093064204
000080 69 56 28 be 4a 21 2d be 70 c1 ec bd 90 f8 3a be
       -0.16439213 -0.1690723 -0.11560333 -0.18258882
000090 43 f1 ac bd 01 05 19 be 55 67 9e be cd a3 b6 bc
       -0.084444545 -0.14943315 -0.3093821 -0.022294903
0000a0 30 4b 1c be 61 58 20 be 23 14 2f be a7 73 c8 be
       -0.15263057 -0.15658714 -0.17097525 -0.39150736
0000b0 b3 71 3f bd 75 37 a4 be e0 8b bd bd df 5d 99 be
       -0.04673929 -0.3207356 -0.09255195 -0.2995443
0000c0 41 d1 b7 bd 45 d8 fa bd 7d e8 62 be b4 d3 66 be
       -0.08975459 -0.122482814 -0.22159 -0.22541696
0000d0 cc 4b e7 3d 9e 96 14 be d3 60 aa be 13 2b b9 be
       0.11293754 -0.14510581 -0.33276996 -0.36165676
0000e0 4c 2d c0 be 98 6d ae bd 9b fd 0f be 28 d5 c5 be
       -0.3753456 -0.08516997 -0.14061587 -0.38639188
0000f0 ac 41 13 be a2 4a 0c be 6a 22 91 be 8b 9a 21 be
       -0.1438052 -0.13700345 -0.28346568 -0.1578161
000100 64 0c bc 3c 4a 56 0c 3d 6f 64 72 bd 04 70 79 bd
       0.022955127 0.03426198 -0.059177812 -0.060897842
000110 4e 59 66 3d 87 ca 0b bd fa 0b b8 3d be 3d a5 3a
       0.05623751 -0.034128692 0.08986659 0.0012606902
000120 30 6f 1e bc 2f 9d a0 bb 93 2f 12 3d 8e 0b ce 3d
       -0.009670064 -0.0049015502 0.0356899 0.10060798
000130 8d 43 3d bd f7 3f 57 3d 92 e8 de bd 02 2b 73 3d
       -0.046207 0.052551236 -0.10884203 0.059367187
000140 45 5c 1e bd c6 f1 16 bd 5a f6 75 bd 66 a9 94 3d
       -0.038662214 -0.036851667 -0.060049392 0.07258873
000150 bd f0 3a bd 84 e4 a1 3d 06 46 0e be f7 1a c6 3b
       -0.045639742 0.07904914 -0.138939 0.006045695
000160 86 3d d4 bd 87 81 35 3d 44 15 74 bb 01 5c 90 bd
       -0.10363297 0.04431298 -0.003724412 -0.07048798
000170 9c 56 c4 3d bf 8d e4 bc e9 7b 2d 3e f4 43 72 bc
       0.09586832 -0.027899621 0.16941799 -0.014786709
000180 e3 6a ba 3d 46 2b 9d be 66 24 a9 bd c5 5a 81 3d
       0.09102418 -0.30697078 -0.082588956 0.06316141
000190 f4 6e 4c be 64 71 ba be 20 f2 84 be 6f a8 b7 be
       -0.199642 -0.36414635 -0.25965977 -0.35870692
0001a0 3f 11 82 be fe d3 ee bd 4b e5 ba be 51 33 d4 bd
       -0.25403783 -0.11661528 -0.36503062 -0.1036135
0001b0 38 53 59 be e8 81 7d be 4a 1b 32 be 21 1f 7c be
       -0.21223152 -0.24756587 -0.17393222 -0.2462125
0001c0 cb 86 52 be 8e 92 f3 bd c3 24 89 be d0 71 b7 be
       -0.20559232 -0.118931875 -0.2678586 -0.3582902
0001d0 02 1d 83 3d 8e 8c 20 be 91 e6 a7 be 29 aa be bd
       0.06402017 -0.15678617 -0.32793096 -0.09309799
0001e0 93 76 a3 bd 05 99 bc be 5c 0b 76 bd 39 ed df be
       -0.079816006 -0.36835495 -0.060069427 -0.43735674
0001f0 31 95 10 be bf d8 9f be b1 91 d8 be 2a 08 c5 be
       -0.14119412 -0.31220052 -0.42298654 -0.3848279

Encoder.encoder_attn.0.weight f4 [20, 84]
000000 81 46 81 3e 81 07 37 bd d8 0e 08 be 17 d8 8f 3d
       0.25249103 -0.04468489 -0.13286912 0.07023638
000010 a3 5b 28 3e ac 40 05 bd d9 6d 73 be 8e 85 4a be
       0.16441207 -0.03253238 -0.23772372 -0.1977751
000020 1e 71 ce bc 9f f9 6d 3d e2 65 86 bd b6 ea 99 bd
       -0.025200423 0.058099385 -0.06562401 -0.07515471
000030 a6 83 09 3e 3b dc 27 3e c2 3a be bd 31 a6 0f 3e
       0.13429126 0.16392605 -0.09288551 0.1402824
000040 b8 b4 3f 3e b4 a3 00 3e 8e 58 a7 3d a4 77 68 3e
       0.18721282 0.12562448 0.08171187 0.2270189
000050 da e4 24 be e9 63 66 3e be 48 2c 3e be b0 3f 3e
       -0.16102925 0.2249905 0.16824624 0.18719766
000060 81 bf 48 3e cc 77 93 3d 61 44 48 3e 76 e7 8e bc
       0.19604303 0.07200584 0.19557334 -0.017444354
000070 7b 4c 5e 3e f4 14 1a 3e fc 33 6d 3d f5 0e 15 bc
       0.21708862 0.15047055 0.057910904 -0.009097804
000080 16 9f 5f 3e 26 25 98 bd 82 6f 14 3d 76 cd 5a 3d
       0.2183803 -0.074289605 0.036239155 0.0534186
000090 78 fb 34 3e 6e 9c 00 3d 60 d7 b0 be 70 03 3f be
       0.17674053 0.031399183 -0.34539318 -0.18653655
0000a0 8f ba 1a be 3a aa 50 3e 76 bf a7 3d 55 9f 59 be
       -0.15110229 0.20377436 0.08190815 -0.21252187
0000b0 bf 51 21 3e ef e1 c6 3e 15 02 89 be f7 64 72 3e
       0.1575384 0.3884425 -0.267594 0.23671328
0000c0 6f ba 2f 3e 5c 64 1e bd 2d 4b 66 3e f5 48 c9 3d
       0.17160963 -0.03866993 0.22489615 0.098283686
0000d0 e2 d6 44 be d5 90 a9 3e 77 e4 00 3d 22 e7 53 3e
       -0.19222596 0.3311831 0.03146788 0.20693639
0000e0 c3 24 5a 3e a1 7e c2 3c ec 96 ca 3d 17 80 9a bb
       0.21303086 0.023742022 0.09892067 -0.0047149765
0000f0 ff 89 2b 3e 3c 18 03 3e ef 3d 38 3d bf 1f 4d 3e
       0.1675186 0.12802213 0.04498094 0.20031641
000100 6e 92 16 3e d4 3e a8 bd 42 b3 a6 3c 44 90 c5 3d
       0.14704296 -0.082151085 0.020349149 0.09646657
000110 14 c5 a9 bd 1c 0b c0 3b 97 58 4f bd 65 3e 3a 3d
       -0.08289543 0.0058606993 -0.050621595 0.04546966
000120 15 12 74 be 43 67 be bd 2f 7b 0a 3e 4f 7c fe bd
       -0.23835023 -0.09297039 0.13523553 -0.12426054
000130 b8 c6 8c 3d 97 0a 86 3d ec f4 7d 3b ff 6e 11 3e
       0.0687384 0.065449886 0.003875072 0.14202498
000140 74 75 0e be ec b7 13 3e 66 f0 43 be bc 95 51 3d
       -0.13911992 0.1442563 -0.19134673 0.05116819
000150 7f a7 5c 3e 4e 2d 8a 3b 64 5c f9 3b 4e 01 5c 3e
       0.2154827 0.0042168265 0.007609891 0.21484873
000160 97 39 a3 3d 82 6f 42 bc d7 fc 65 bd 97 b0 e1 bd
       0.07969969 -0.011867406 -0.05614933 -0.1102001
000170 48 a2 bf 3d 29 2b c2 3d 90 5f 27 be d9 21 5d 3c
       0.093571246 0.094808884 -0.16345048 0.013496839
000180 73 2a 28 3e 0c 7c 03 3e 42 e6 8e bc 00 c5 92 3d
       0.16422443 0.12840289 -0.01744378 0.07166481
000190 ea 55 00 3d 9b d9 9d 3e b7 36 ea 3d fb 2f 37 3e
       0.031331934 0.30830082 0.11436217 0.17889397
0001a0 86 62 8c bd 71 e4 21 3e 27 a7 98 3d 97 ff 99 3d
       -0.06854729 0.158098 0.07453757 0.07519453
0001b0 4c 6f fb 3c 9f 77 18 3d 9f d8 92 3c 1e 66 3e bd
       0.030692719 0.037223455 0.017925559 -0.046484105
0001c0 cb bc 5a 3e 6c 4d 78 bd 66 1e d9 3d f6 0e 13 be
       0.21361081 -0.06062071 0.10601501 -0.14361176
0001d0 94 b3 63 3e a8 3d 58 3d 91 dc e2 bd a7 59 ae 3e
       0.22236472 0.052793175 -0.11077226 0.34052774
0001e0 d4 22 9e bb 28 5b 38 bc 72 29 b0 bd e0 44 2d be
       -0.004825929 -0.011252202 -0.08601655 -0.16920805
0001f0 ba c6 55 bc 1a a3 ee 3d db c2 4c be d3 58 b7 3d
       -0.013047868 0.11652203 -0.19996206 0.08952489
000200 89 9e a0 3d 78 e8 29 3e 7f 59 28 be c0 61 a3 3d
       0.07842738 0.16592586 -0.1644039 0.07977629
000210 55 79 e3 3c eb 36 27 3e 40 55 bd bb 5b 2f 0a 3e
       0.027767817 0.16329543 -0.005777985 0.13494627
000220 e7 c9 32 be b7 be 51 3e 85 d5 e4 3c 1e 93 dd 3d
       -0.17459832 0.20482908 0.027933845 0.10819076
000230 8a e0 44 3e b3 b5 77 3c cb 4a 42 3d 2c ae 1f 3d
       0.1922628 0.015119004 0.04743461 0.038984463
000240 63 32 98 3c b1 1f 1d be 7a 3c d3 bb 45 ef cc bd
       0.018578714 -0.1534412 -0.0064464184 -0.100065745
000250 10 f1 aa 3d e8 60 e2 bc c9 cc f9 bd 6d e8 04 3e
       0.0834676 -0.0276341 -0.12197263 0.12979288
000260 53 0f 7e 3c 08 5f d8 bd bb 57 bc 3d 2a 6e 4d 3d
       0.015506583 -0.10565001 0.09196421 0.05015389
000270 f9 56 83 bd 89 c6 67 3c 91 dc 7a 3e 28 6b d8 bd
       -0.06413073 0.014146456 0.24498202 -0.105673134
000280 0b 72 9f 3d 7c 43 40 3e 9b eb 12 be e2 c0 88 3c
       0.07785424 0.18775743 -0.14347689 0.016693536
000290 c7 1c 1f bb 0f 8a c1 3d 32 b9 81 bd b9 18 e2 3d
       -0.0024278627 0.09450161 -0.06334151 0.11039872
0002a0 0b 8a 7d be be f2 69 bc 2b 76 4c 3e 2f 4b 94 be
       -0.2475969 -0.014279066 0.19966953 -0.2896361
0002b0 7d e1 86 bd 51 cf 50 be 0b 4c e0 3d 62 00 53 3e
       -0.06585977 -0.20391585 0.10952004 0.20605615
0002c0 70 56 d5 bc 02 fd 16 be b5 4f 59 3d 0c 14 2e 3c
       -0.026042193 -0.14744952 0.05305453 0.010624897
0002d0 b4 be 1e be 1c a7 84 be 60 fd 94 3e 00 77 86 be
       -0.15502435 -0.25908744 0.2909956 -0.26262665
0002e0 f7 0b 93 be 6b ce 55 be 9f 38 37 be 1c c8 e0 bd
       -0.28720066 -0.20879523 -0.17892693 -0.10975668
0002f0 87 3e 72 3e 8d b7 4f be 9e 67 5d be 6e 2e fa bd
       0.23656665 -0.20284863 -0.21621558 -0.12215887
000300 20 13 9d be 3a 5d 10 be 5d 1a 3d be 08 1a a7 bb
       -0.30678654 -0.14098063 -0.18467088 -0.0050995387
000310 8c ac 89 be 50 7e 13 be f8 66 8a be 4d a7 a2 3d
       -0.26889455 -0.14403653 -0.27031684 0.07942066
000320 44 a5 88 be 3a fb c0 3d e2 05 d4 3d 2b d7 1d be
       -0.26688588 0.09422918 0.103526846 -0.15414111
000330 46 e3 18 3d 54 93 a9 bd 22 c5 94 3e 93 f2 38 3e
       0.03732612 -0.08280054 0.2905665 0.18061285
000340 ac 1b ac bd eb d9 81 be 3e d3 1c 3e bc cf 74 3d
       -0.084037155 -0.2536157 0.15314957 0.059768423
000350 c4 a2 b6 bd a6 6f 10 be 5a b0 82 3e 22 61 50 be
       -0.08917764 -0.1410509 0.2552517 -0.20349553
000360 32 4f 6d be 59 2b 79 bd 22 cc 21 be 63 03 84 be
       -0.23174742 -0.060832355 -0.15800527 -0.25783834
000370 66 ca 71 3e 97 3c ac be 4a 13 b7 bd f2 80 8a be
       0.23612365 -0.33639976 -0.08939226 -0.27051502
000380 93 d8 63 be 1b db dc bd e1 1c 7b be 2b 38 cf bc
       -0.22250585 -0.107839786 -0.24522735 -0.025295338
000390 fa fa 85 be 73 37 40 be 79 0d 6d be 34 0c f8 3d
       -0.26168042 -0.18771152 -0.2314967 0.121117026
0003a0 01 6c 22 be 87 1e f6 3d 76 59 9a 3d 7b 64 18 be
       -0.15861513 0.120175414 0.075365946 -0.1488208
0003b0 e9 e8 1c 3e de 41 09 bb 8e 70 9b bd 0a 69 de bd
       0.15323223 -0.00209438 -0.075898275 -0.10859878
0003c0 51 56 3f 3e a7 7a 8a bd c1 1a c3 bd 2f 98 93 bb
       0.18685271 -0.06761675 -0.09526587 -0.0045042257
0003d0 c6 0a 0c be a1 93 13 3d b7 b1 13 bd 1f 4e e0 3c
       -0.13675985 0.03602946 -0.036058154 0.027381001
0003e0 28 2e 4e bd 1f 79 de bd 36 cc 2d 3e db ac b6 bd
       -0.050336987 -0.10862946 0.16972432 -0.08919688
0003f0 13 be 9f be f9 71 21 be 2f 53 05 bd 17 b5 03 be
       -0.31199703 -0.15766133 -0.032550033 -0.12862049

Encoder.encoder_attn.0.bias f4 [20]
000000 ad ba ea 3d 3a c9 87 be 18 46 b9 bd 8a 89 9f bc
       0.11461387 -0.2652071 -0.090465724 -0.019474763
000010 91 c1 49 3e 79 94 a3 b9 39 73 8e be 2b 11 12 3e
       0.19702746 -0.00031200403 -0.27822283 0.14264362
000020 5d b4 4a be e4 37 2d 3d 26 a6 5e bd ca 39 c5 3d
       -0.19795366 0.04228963 -0.05435767 0.09630163
000030 cd 6c 52 be 67 a6 05 bf 0b 6f 0e 3e 72 47 99 3e
       -0.20549317 -0.52207035 0.13909547 0.2993732
000040 14 64 ab 3e 28 9f ed bd 3c bf 85 3e 48 d6 15 be
       0.3347479 -0.11602622 0.26122463 -0.14632523

Encoder.encoder_attn.2.weight f4 [1, 20]
000000 7c ca 5c 3c 51 7a 14 3d 53 e3 23 bc f3 1e d8 bc
       0.01347601 0.036249463 -0.010002929 -0.026381945
000010 89 45 56 bc 61 9f 51 3d ea af b0 ba 64 50 05 3d
       -0.013078102 0.051177386 -0.0013480161 0.03254737
000020 34 c0 55 3d 6d 29 4b bb da a5 c5 3b 55 cd 0e bd
       0.052185252 -0.0031000033 0.006031734 -0.03486379
000030 9e 3f 06 3d 03 aa c3 3b 75 f7 75 3d 98 a2 af 3c
       0.032775514 0.0059711947 0.060050447 0.021439835
000040 7a c7 a8 bb 50 af 94 bc 85 f4 cc bd f9 49 fe bc
       -0.0051507326 -0.018150002 -0.10007576 -0.031041132

Encoder.SelfAttention.wq.weight f4 [20, 20]
000000 79 c4 32 3e f6 98 08 3e 8b 06 0e 3e e6 2d 03 3e
       0.17457761 0.133396 0.13869683 0.12810478
000010 41 5f e4 3d 88 92 86 be 91 63 91 be b8 e4 ac be
       0.11150981 -0.2628367 -0.28396276 -0.3376825
000020 d0 63 85 bc bd 06 e2 bd 4b 1a 1f bc 6a e0 10 bd
       -0.016282946 -0.110364415 -0.009710859 -0.035370268
000030 00 dc fb 3c c7 d5 74 be f5 39 87 bd 5a 21 46 3e
       0.030744553 -0.23909675 -0.06602851 0.1934866
000040 f0 b0 d9 3c 43 52 50 be 20 44 64 bd fa 71 56 be
       0.026573628 -0.2034388 -0.05572903 -0.20941916
000050 61 c0 73 3c fc 8d 02 be ab 6c 4b 3d 71 f6 94 3e
       0.01487741 -0.12749475 0.04966418 0.2909427
000060 64 7f 1f 3e 93 c6 81 3d 10 57 d3 3e 10 e3 68 bd
       0.1557594 0.06336703 0.4127736 -0.05685717
000070 4d fb 24 be a6 6f 52 bd d1 c2 5e be 51 65 02 bd
       -0.16111489 -0.051376007 -0.21754004 -0.031834904
000080 94 f5 50 be af f2 0a 3d d9 c9 a7 3d 6b b3 43 be
       -0.2040618 0.033922847 0.08192796 -0.19111411
000090 eb e4 d6 be 91 6b b8 be b4 26 10 be 82 b3 b0 3e
       -0.41971526 -0.36019567 -0.14077264 0.34511954
0000a0 79 59 98 3d 4f f6 b6 bb d9 41 c9 bb 90 7f 86 3e
       0.074389406 -0.0055835615 -0.006141883 0.26269197
0000b0 04 20 05 be 0a 45 5e bd 48 a3 0a be 83 43 34 3e
       -0.13000494 -0.05426506 -0.1353885 0.17603879
0000c0 67 35 c9 bd 93 e7 91 3e 74 cd f6 bc 32 46 c3 be
       -0.09824639 0.2849699 -0.030127265 -0.38139492
0000d0 0d fb 43 be 59 0a 9d 3e 6c cb d6 3c da bd 6f bc
       -0.19138737 0.30671957 0.026220046 -0.0146326665
0000e0 8a bc 72 be ca 07 07 be f8 19 7b 3e 24 a3 9d 3d
       -0.23704734 -0.13186565 0.24521625 0.07697132
0000f0 f8 8b d4 be a3 92 3e be d8 99 08 bd e5 e7 0d 3e
       -0.41513038 -0.18610625 -0.03334984 0.13857992
000100 3e e9 21 be 26 46 e0 bd 5e 02 3c 3c 7f fc 54 3e
       -0.15811631 -0.1095088 0.011475174 0.20799445
000110 1a 9c c2 3d a4 21 8a 3d d3 54 b2 bd 18 6c 9c 3d
       0.0950243 0.06744698 -0.08707585 0.07637805
000120 99 85 08 be ea fd 52 3e de 3f 26 be db 57 0a 3d
       -0.13332213 0.20604673 -0.16235301 0.03377519
000130 3c b6 38 3e 7a 3f f9 3d 7c da 23 be 41 c7 19 be
       0.18038267 0.1217031 -0.16001314 -0.15017416
000140 8b 59 f1 3d 2b bb e4 bd 92 7a 9b 3d c4 45 f0 bd
       0.11784657 -0.11168512 0.07591738 -0.11732057
000150 2b 5c 80 be 06 b4 0c be c3 d8 52 3e 4b 96 02 ba
       -0.2507032 -0.13740548 0.205905 -0.0004981502
000160 04 14 53 be b0 0b 11 bd 2a b8 84 3e d0 b2 ba bd
       -0.20613104 -0.035411537 0.25921756 -0.09116137
000170 38 bb ca bd 83 3e 5c 3e 05 b9 85 bd 9a c5 60 be
       -0.098989904 0.21508221 -0.0652943 -0.21950379
000180 05 25 3e be f5 2b 20 3e 53 4c 9c 3e cc 82 95 3e
       -0.1856881 0.15641768 0.3052698 0.29201353
000190 81 b9 35 bd d6 e6 83 3e 3c 07 28 3e c4 c3 23 bd
       -0.044366363 0.2576205 0.1640901 -0.03998162
0001a0 ca 37 13 3d f5 c8 a7 3d e9 a2 0e 3e 73 cb 12 be
       0.035941876 0.081926264 0.13929333 -0.14335422
0001b0 1f 05 14 bd 8e e6 9a be 40 a5 05 3d 92 4a 7b 3e
       -0.036137696 -0.30254024 0.032628298 0.24540165
0001c0 04 e8 f8 3d 82 7b 66 3e 14 24 cd bc 17 bb bf 3e
       0.121536285 0.22508052 -0.025041617 0.37447426
0001d0 3d 5b cf 3d 9b 27 38 bd c9 8f 58 3e d3 d7 70 be
       0.10124824 -0.044959646 0.211486 -0.2351983
0001e0 2d b1 3b bd c9 3a 86 bd 14 1d 8f bb 1d 92 84 3e
       -0.045823265 -0.06554181 -0.00436748 0.25892726
0001f0 ea 12 ae bd 85 06 6b be 84 eb f3 3d d0 98 ec 36
       -0.08499701 -0.22951706 0.119101554 7.051138e-06
000200 c9 9f 01 be 3b 15 48 be e9 b1 05 bd 25 b1 9d 3d
       -0.1265861 -0.19539349 -0.03264037 0.07699803
000210 c3 30 ed 3d ac e3 44 3e 36 b3 3d 3d 74 b9 0d bd
       0.11581566 0.19227475 0.046313487 -0.03460069
000220 17 90 32 bd 14 bc 8b be 63 43 ed 3e 04 30 86 3c
       -0.043594446 -0.2729193 0.46340474 0.016380318
000230 be 66 e2 bd 13 62 af be 5a e5 a0 be de aa ad bc
       -0.11054753 -0.34254512 -0.3142498 -0.02119964
000240 e4 31 3f 3d d2 ea 64 3e c7 e5 23 3e 8c d5 05 3d
       0.04667844 0.22355202 0.16005622 0.032674357
000250 10 7e c5 3d 11 09 2b 3e 99 76 c2 3a 69 c9 1e 3d
       0.09643185 0.16702677 0.001483637 0.0387663
000260 4a 9b 3e 3e f2 5e cc be f2 dd 1c be 8d d9 16 3e
       0.18613926 -0.39916188 -0.1531904 0.14731427
000270 ea 6c 96 3d dc dc a9 3d d6 09 11 3d 46 ba ec 3d
       0.073449925 0.08294079 0.03540977 0.11558966
000280 c9 4f e7 3d 6c 27 1c 3e 96 25 e6 bd 02 8f 0a bc
       0.11294515 0.15249413 -0.11237638 -0.008456947
000290 4f 23 c1 be d4 67 07 bd 7c 48 b4 bd 5a c7 43 bc
       -0.3772225 -0.033058003 -0.08802888 -0.011949385
0002a0 7b c9 85 bd 60 f0 48 bd 7e 55 aa 3e 89 11 3d 3e
       -0.0653257 -0.049057364 0.3326835 0.1846372
0002b0 84 49 01 bd 71 d2 ae 3e 8f 5d c2 3c e3 14 c5 be
       -0.03156425 0.3414493 0.023726253 -0.38492498
0002c0 86 46 75 bd 58 e1 d9 bc ca 10 5e 3e a9 73 ad 3d
       -0.05988171 -0.02659671 0.21686092 0.08469326
0002d0 79 54 9e bd 12 40 b4 bc d5 be ed bc f5 c3 c3 be
       -0.07730956 -0.022003207 -0.02902166 -0.3823544
0002e0 d1 c2 21 3e ff 4c c2 3d 59 84 72 be bd ad df be
       0.15796973 0.09487342 -0.23683299 -0.4368724
0002f0 2a 7e c5 bc 8c 5b c6 3d 12 3b a5 3e 2a 28 91 be
       -0.024108011 0.0968543 0.3227163 -0.28350955
000300 8d 4c 80 bd 3b bb ce be b2 8d 1f be 7b a3 cb bd
       -0.06264601 -0.4037722 -0.15581396 -0.09943291
000310 4c 30 8a be 6e d9 d2 3d cb 33 63 3e 0b af 7c bd
       -0.26989973 0.10295378 0.22187726 -0.06169037
000320 43 79 9b bc b7 9e 28 bd bd 45 0c 3c 58 44 24 be
       -0.01897872 -0.041166987 0.008561549 -0.16041696
000330 c5 b6 17 be 8b 95 d5 be 71 82 af be 99 bc 03 3e
       -0.14815815 -0.41715655 -0.34279206 0.12864913
000340 1d 9b 00 be 29 ec 34 3e ca 3a 08 3e cd 7c a0 bd
       -0.12559171 0.17668213 0.13303676 -0.07836304
000350 0d 6f b9 3d ce ba 19 3e bb 7f 41 be 50 fe 83 bd
       0.090543844 0.15012667 -0.18896382 -0.06444991
000360 0f d9 09 3e 91 8b fd bd 9f c0 13 3e db a4 dc be
       0.13461708 -0.12380136 0.14428948 -0.43094525
000370 c8 aa b7 3d e5 b4 50 3e 0f 27 8c 3d ca 7b 43 bd
       0.08968121 0.20381506 0.06843387 -0.047725476
000380 8f 3d 7a bd 6e 02 7a be 1d aa 0a be 60 f7 81 be
       -0.061093863 -0.2441499 -0.13541456 -0.25384045
000390 1e 66 f7 3d 54 24 a8 be 40 0c 4a bb 60 ec 60 bd
       0.12080024 -0.32840216 -0.0030830055 -0.054912925
0003a0 43 ac 9d 3d 81 02 ab be 5b d7 38 3e 11 6a 59 3e
       0.07698872 -0.33400348 0.18050902 0.21231867
0003b0 73 91 59 be 1e 6a b7 bd 17 c6 c0 3e 38 dd a4 bd
       -0.2124689 -0.08955787 0.3765113 -0.08050007
0003c0 0d a6 44 3e 98 af cc bd 5f 3b 59 bd f7 a0 b1 3d
       0.19203968 -0.09994429 -0.053035136 0.0867328
0003d0 51 ae f4 3d cc 83 3f 3e 3d 48 9f 3c 6f cd 96 be
       0.11947311 0.1870262 0.019443626 -0.29453608
0003e0 85 b0 93 bd 1a 90 9e be e3 c3 64 3e e7 0c a1 be
       -0.07211403 -0.30969316 0.2234035 -0.31455156
0003f0 81 db b1 3d 6f 91 8b 3e db cb cc 3d d1 21 36 3d
       0.08684445 0.27259395 0.0999982 0.044465844

Encoder.SelfAttention.wk.weight f4 [20, 20]
000000 4d 61 2e 3d 91 24 51 bc 6b e4 cc bd 84 7e df 3e
       0.042573262 -0.012765066 -0.10004505 0.4365121
000010 50 6a a0 bd 33 4a dd 3e 96 a3 f2 3d 48 42 5c bc
       -0.078327775 0.43220672 0.11847608 -0.013443537
000020 19 d4 5e be 5f 90 ca bc 09 bb 49 3d 26 f6 92 3e
       -0.21760596 -0.024727045 0.049250636 0.2870342
000030 c7 a8 d3 be 6f ab 0d be c8 48 69 be a4 8d 04 3d
       -0.41339704 -0.13834928 -0.2278167 0.03236164
000040 af b4 0e be 68 58 75 bd 49 ef ea 3d 66 d5 11 3e
       -0.13936113 -0.059898764 0.11471421 0.14241561
000050 31 84 60 3d 02 66 b7 bc 65 8a a3 be 8e 7f 82 be
       0.054813568 -0.022387508 -0.31941524 -0.25487942
000060 f0 58 8a be 5a 81 a2 3b 96 27 4f bd 25 e0 5c be
       -0.2702098 0.0049592676 -0.05057486 -0.2156988
000070 b0 dd 74 3e 1e b2 81 3d 87 fb b3 ba f0 82 13 3f
       0.23912692 0.06332801 -0.0013731577 0.5762167
000080 5b 8c 8f bd 22 48 2d bd 0c a5 ba bc 63 bd 9e be
       -0.070091926 -0.04230512 -0.022783779 -0.31003866
000090 8c 0e d4 bb 91 27 b7 bd fc b2 5e be d6 a4 a9 3e
       -0.0064714607 -0.089430936 -0.21747965 0.33133572
0000a0 ee 29 a6 be 3d 0c 09 3d e1 83 bf 3d e7 9c b6 bd
       -0.32453865 0.033458937 0.09351326 -0.089166455
0000b0 f9 43 0a 3e 88 83 b0 3e e9 4f 65 bc a2 ef 61 bd
       0.13502492 0.3447535 -0.013996103 -0.055160172
0000c0 82 be f3 3b 81 6b ca 3e 84 c3 3f be de be 09 3d
       0.007438482 0.39535144 -0.18726927 0.03362929
0000d0 99 91 04 bd e6 c9 6f bd 94 1e 1d bd 16 f9 1a be
       -0.032365415 -0.058542155 -0.03835924 -0.15134081
0000e0 23 fe 8d bd 73 6a 37 be 2d e9 5b ba 1c 10 f3 3d
       -0.06933238 -0.17911701 -0.0008388933 0.11868307
0000f0 63 0a ca bc b2 b8 1f 3e 27 be e3 bc 43 06 13 be
       -0.024663156 0.155978 -0.027800633 -0.14357857
000100 e7 ee 93 3e 87 fd ac 3c ca 83 7e 3d 21 4b 50 be
       0.28893206 0.021116985 0.062137403 -0.2034116
000110 6e 0e 0e be 94 11 60 3e af 31 16 be 24 7d 30 be
       -0.13872692 0.21881706 -0.1466739 -0.17235237
000120 c9 c7 ae 3e d9 99 b9 3d 6e 93 8f 3d 6c 6a 1d be
       0.341368 0.09062547 0.07010542 -0.15372628
000130 e2 ac 89 3e f7 1d f9 3d 7c 6e 1d be 0f 77 fc be
       0.26889712 0.121639185 -0.15374178 -0.49309584
000140 17 01 b2 be b6 c5 f7 bd 72 8b 36 be e5 ab b8 be
       -0.34766456 -0.12098257 -0.17826632 -0.36068645
000150 cf 02 b0 3d 11 25 2b 3d 5e c2 1f 3e 77 40 af 3d
       0.08594286 0.041783396 0.15601489 0.085572176
000160 b0 42 86 bc 33 3d f5 bc 57 11 bb bc 4e fd 42 be
       -0.016389221 -0.029936409 -0.022835417 -0.1904194
000170 2b 79 ae be da e5 bf 3c 0a 9c d0 bd 46 dd fa 3c
       -0.3407682 0.023425031 -0.10186012 0.03062309
000180 3e 10 a7 bc ee 9f 95 bd 18 c7 db 3d b6 ae 03 be
       -0.020393487 -0.07305895 0.107313335 -0.12859616
000190 d6 56 d4 3c 0c 7d 65 be fa 6d 8a 3e 24 d7 ed 3d
       0.025920313 -0.22410983 0.2703703 0.116133004
0001a0 52 e1 20 bc 46 de 6b be 4c 45 1c bd c2 64 d9 bc
       -0.009819346 -0.2303401 -0.038152024 -0.026537303
0001b0 16 22 49 bd 10 ea 05 be 2c 0b 7b 3b 75 10 2e 3e
       -0.049104773 -0.13077569 0.003830622 0.16998465
0001c0 06 31 3c 3d 76 98 0f be 2f ee ed 3d 46 66 57 3d
       0.04594519 -0.14023003 0.116176955 0.05258777
0001d0 a8 c7 03 bd e0 3c a0 3b 5d 57 87 3e 3f fb 5d be
       -0.03217283 0.0048900694 0.2643384 -0.21677874
0001e0 3b 69 2f be 3d 46 50 3c dc 51 15 3e 76 f6 74 bd
       -0.17129986 0.012712059 0.14582008 -0.059805356
0001f0 c8 f1 81 3e 61 8d 95 3b 50 22 fb bd da 1b 04 bd
       0.25379777 0.004563973 -0.12262404 -0.032253124
000200 7c b5 97 3d 13 1b ab bc 83 57 9b 3e bc b6 69 3e
       0.07407662 -0.020886933 0.30340204 0.22823614
000210 ca df 9d be 92 f4 37 be c3 84 b3 be 45 dd 48 3d
       -0.308348 -0.1796439 -0.35062227 0.049039144
000220 ff d0 75 3e 71 9c a8 3d 44 21 58 bb 4c c3 46 3c
       0.24005507 0.08232964 -0.0032978812 0.012131523
000230 60 ba 6e 3e 6d 6e 75 3e 84 99 f3 3c 20 cf 70 bd
       0.23313284 0.23967905 0.029736288 -0.05879128
000240 d8 24 93 3e 7c 5b 06 be a4 42 8b be 9a 75 0b 3e
       0.28739047 -0.13120836 -0.2719928 0.1361908
000250 62 d7 13 3d 54 05 37 bc a4 fe 29 bd ba d7 9e bd
       0.036094077 -0.011170704 -0.04150261 -0.0775599
000260 85 f7 3e ba 46 45 8f 3a cb 2e 82 3e 82 68 62 3e
       -0.0007284808 0.0010930679 0.25426325 0.22110179
000270 fc 29 08 3d e0 5f 99 3e da b4 8b be 59 9a 95 bd
       0.033243164 0.2995596 -0.27286416 -0.0730483
000280 cc 9a dd be f4 43 63 be 45 47 53 3d 45 33 b9 be
       -0.43282163 -0.22193891 0.05158164 -0.36171928
000290 3e 7c b5 3d 3d 25 2e 3e 05 06 dc 3d ab 5d 86 3e
       0.08861588 0.17006393 0.10743336 0.26243338
0002a0 46 36 b2 3d 9b a9 03 3e 11 f6 fe bd 0d 30 34 3d
       0.08701758 0.12857668 -0.12449277 0.043991137
0002b0 e9 86 93 bc 0c 58 40 be c4 dc ed be d7 e5 13 3e
       -0.018008666 -0.18783587 -0.46457493 0.14443146
0002c0 3c 79 53 3e 15 02 00 3e f6 a0 65 3e d2 b5 d2 bd
       0.20651716 0.12500794 0.22424683 -0.10288586
0002d0 4d 64 1e 3d 01 f8 9c 3d 35 bc 66 be ac 68 16 3e
       0.038669873 0.076644905 -0.22532733 0.14688367
0002e0 8e 9a 85 3d 09 42 4d 3a be be 6b 3e 28 73 09 3f
       0.065236196 0.00078299694 0.23021981 0.5369134
0002f0 b3 26 16 be 0d 5a c1 be 0c 58 76 be 34 bc 9c be
       -0.146632 -0.37764016 -0.24057025 -0.30612338
000300 c6 44 4d be df fc 54 3e 49 e2 22 bd 84 75 62 3e
       -0.20045766 0.20799588 -0.039766584 0.22115141
000310 fb e8 2c bd f7 d3 bb bd 28 d0 c3 3d 11 1f 8f bc
       -0.042214375 -0.091712885 0.09561187 -0.017470868
000320 91 46 5e be a9 72 93 be b2 11 0f 3d 6c 48 84 3d
       -0.21706606 -0.28798416 0.034928985 0.06459126
000330 a3 7d 55 3e 1c b0 6e 3e c9 72 67 3e 48 5f bc bd
       0.20848708 0.23309368 0.22602381 -0.09197861
000340 9a b8 0b bd 3e 6a 7f 3b 9f dd a0 3d 47 ee 48 be
       -0.034111597 0.0038973237 0.07854771 -0.19622146
000350 57 08 4f be d6 18 79 be 8e 8a 32 bd f1 2f 83 3e
       -0.20218025 -0.2432588 -0.043589167 0.25622514
000360 2e 6b 9a 3e f0 d7 0c bc ad 05 c3 3d d5 f5 ba be
       0.30159897 -0.008596405 0.09522567 -0.3651568
000370 c8 06 61 3e e2 21 45 bd 95 f9 03 3e a1 3e 37 3e
       0.21975243 -0.048128016 0.12888177 0.17894985
000380 21 b6 92 bd 7b 3f 13 3e 97 a7 8a 3e 06 5d 24 3e
       -0.071636446 0.14379685 0.27080986 0.1605111
000390 88 82 8d be 7a 99 cc bd 93 ba fb 3b 47 b4 4c 3e
       -0.2763865 -0.09990211 0.0076821535 0.19990645
0003a0 70 20 a2 be 95 49 2b be 5b fc 6e be 70 e6 81 3e
       -0.31665373 -0.16727288 -0.23338453 0.25371122
0003b0 85 88 eb 3d 8a b8 8d bc f2 50 1f 3e 62 00 22 3e
       0.115006484 -0.01729991 0.15558222 0.15820459
0003c0 e2 bf 8a bd 95 c9 11 3e 55 98 9d 3d 0c a6 01 bd
       -0.0677488 0.14237054 0.07695071 -0.031652495
0003d0 18 f8 62 3e 32 98 a1 3d c2 25 74 be ec 8b a2 3e
       0.22164953 0.07890357 -0.23842528 0.31747377
0003e0 df 1c 1c bd 96 90 9c 3d e2 30 0f 3e 2c 40 99 bd
       -0.03811347 0.07644765 0.13983491 -0.07482943
0003f0 3e ec 95 bd 7f e1 6b 3d 17 81 d3 3d 2f 62 85 be
       -0.0732045 0.057588097 0.10327356 -0.2605147

Encoder.SelfAttention.wv.weight f4 [20, 20]
000000 46 df 65 3e 8f 7f 28 3e 96 0f b3 3d f0 59 88 3a
       0.22448453 0.1645491 0.08743207 0.001040278
000010 6c 99 62 3e 8e 7e 28 3e 10 fd 29 bc 97 3a 26 be
       0.22128838 0.16454527 -0.010375276 -0.16233288
000020 27 7c 92 3d 3a 54 a7 3d f7 63 17 3e 00 fe 97 3e
       0.071525864 0.08170362 0.14784227 0.29685974
000030 3e 83 3d bd d1 27 e5 bb 77 30 20 3e c2 15 10 3e
       -0.04626774 -0.006993272 0.15643488 0.140708
000040 b8 c1 b0 3c 94 d9 82 be fd cf 10 bf 42 fa 05 be
       0.021576747 -0.25556624 -0.56567365 -0.13083747
000050 30 04 63 bc 74 90 c3 3c 97 89 82 3e 6c 40 04 3e
       -0.013855979 0.023872592 0.25495598 0.129152
000060 2f 71 2e 3e b7 6b 8d 3b 19 8e 83 3e 41 74 fe bd
       0.17035364 0.004315819 0.2569435 -0.124245174
000070 a6 14 0f 3e 92 eb b3 bd 88 84 fe 3d 0e 77 10 3e
       0.1397272 -0.08785166 0.12427622 0.14107916
000080 27 a2 df 3d 99 da 90 3e 89 06 92 be 63 ba 5d 3d
       0.109196 0.28291777 -0.2852061 0.05413283
000090 79 9f 39 3e 84 02 5d bd c9 6d ec be 48 da 3f be
       0.1812724 -0.053957477 -0.4617751 -0.18735611
0000a0 97 81 1c be 22 20 e0 bc 05 77 a8 3e 93 58 09 3e
       -0.1528381 -0.027359072 0.32903305 0.13412695
0000b0 7b db 15 3e ca d7 44 3e 81 cf 5e bd fb c3 f9 3d
       0.14634506 0.19222942 -0.05439711 0.121955834
0000c0 6a e0 df b9 4f 9f 3c be 73 72 6c 3e dd 31 9f 3e
       -0.00042701076 -0.18420146 0.23090534 0.3109273
0000d0 c1 13 ee bb 0c 78 67 3e da c2 43 bc 00 c2 65 3e
       -0.0072655384 0.22604388 -0.011948312 0.22437286
0000e0 81 32 9c 3e f4 a7 1e be 46 88 5b be 76 40 84 be
       0.3050728 -0.15493757 -0.21438703 -0.2583043
0000f0 32 0d 8a 3b b2 de fc bd 1b 39 13 3e da 05 8b be
       0.004212999 -0.12347163 0.14377253 -0.27152902
000100 93 dc 78 3e 79 52 11 3b 07 e9 75 bd 72 c5 18 3e
       0.24302892 0.0022174402 -0.060036685 0.1491907
000110 d6 a2 01 3e 91 cf 45 3e 84 4a 81 bd 45 1c 3e 3e
       0.12659773 0.19317462 -0.06313041 0.18565471
000120 ee fe 6b 3e fc 33 56 3e 87 31 2d be b7 93 85 3e
       0.23046467 0.20918268 -0.16913424 0.2608926
000130 64 97 88 3e 49 48 ab bd 6d 95 e6 be c9 e8 38 be
       0.26678002 -0.08363397 -0.45035878 -0.1805755
000140 e4 9a d7 bd 29 96 99 3d 70 ac 3b 3e 29 2e c9 bd
       -0.1052759 0.07499344 0.18327498 -0.098232575
000150 f4 7e 34 3e 59 ef a6 bd 1f 9a 9f 3c 66 c5 0a 3e
       0.17626554 -0.08151121 0.01948267 0.13551864
000160 4a 2d 0f 3c 32 2b 37 be 7e a3 31 3c 7f d3 8e 3e
       0.008738825 -0.17887571 0.010842202 0.27895734
000170 e7 f3 e8 bd ac 77 56 3e d0 78 3c be 3b 00 31 3e
       -0.11374646 0.20944089 -0.18405461 0.17285244
000180 8e 75 33 bc 8e d6 f1 bd c1 71 e6 be d0 09 7e be
       -0.01095332 -0.11808501 -0.45008662 -0.2480843
000190 b4 4c 7f bd ed 6b 00 3e 9f 28 b4 3e d1 51 27 3e
       -0.06232901 0.1254117 0.3518724 0.16339804
0001a0 78 d6 01 3e c6 54 20 be 18 07 5c 3e d8 48 51 3e
       0.1267947 -0.15657339 0.21487081 0.20437944
0001b0 9a 8d 82 3e 4d bb 13 3e ce bc b9 3d f5 25 9f 3e
       0.25498658 0.14426918 0.09069215 0.31083646
0001c0 f7 86 f0 bd ea 33 8c 3e e0 25 93 3c 21 e2 f5 3b
       -0.117444925 0.27383357 0.017962396 0.0075037633
0001d0 c5 a6 f4 bd c3 4a a3 bd 04 ba d1 be a2 c9 d2 be
       -0.11945871 -0.07973244 -0.4096223 -0.4116946
0001e0 c1 cc 22 3e 70 87 11 be a1 ef a7 3c 2b 3c df 3d
       0.1589842 -0.14211822 0.020500006 0.10900148
0001f0 00 ac 1a 3e 0a b8 5b be 76 e2 ab bc 8b a4 2f be
       0.15104675 -0.21456924 -0.020982008 -0.17152612
000200 6b ca a0 3d f3 92 e0 3d b3 b2 6b 3e f5 72 71 3e
       0.07851108 0.10965528 0.23017387 0.23579009
000210 37 60 de bc b5 18 18 3e bf 1d b7 bd 33 b9 d5 3d
       -0.027145488 0.14853175 -0.089412205 0.104357146
000220 37 c9 90 bd b5 ba 86 3d c3 7c 14 bf 8e 61 bb be
       -0.07069629 0.0657858 -0.5800287 -0.36597866
000230 ff 55 1c 3e 20 30 56 be 41 be 35 3e d4 1b 56 be
       0.1526718 -0.20916796 0.17748357 -0.20909053
000240 28 08 40 3e 08 d2 26 be 25 4e 4f 3d 4f 52 d6 bc
       0.18753111 -0.16291058 0.050611634 -0.026162295
000250 96 d1 69 3d 5e 38 07 be f7 58 77 3e 29 c4 74 3d
       0.057084642 -0.13205096 0.24155031 0.059757385
000260 bc 3d 07 3e d5 1d b2 3d b6 1b 80 be cf d9 c4 3e
       0.13207144 0.08697096 -0.25021142 0.38447425
000270 81 9a 6c 3d 29 7c a0 3d d9 16 07 bf 17 67 83 be
       0.057764534 0.07836182 -0.5276924 -0.2566459
000280 ba 02 9d bc d6 98 94 3d 78 31 ae 3e 7f b3 1a 3d
       -0.01916634 0.07255714 0.34022117 0.037768837
000290 4f 82 49 bd 40 ce 2c be eb 54 e0 3d c3 c7 07 3e
       -0.049196538 -0.16875553 0.10953697 0.13259797
0002a0 50 78 2b be 13 cb d5 3d 9c b3 1b 3e 16 1b 66 3e
       -0.16745114 0.10439124 0.15205234 0.2247127
0002b0 da 54 e0 bd 47 11 be 3b e4 25 ec 3d 95 16 e8 3d
       -0.10953684 0.0058003995 0.115306646 0.11332432
0002c0 bd 75 2e bd 56 71 2f bd 09 e8 b2 be ec 25 93 be
       -0.042592753 -0.042832695 -0.34942654 -0.2873987
0002d0 2e cf bd 3d e5 e5 f1 3c 8c 59 a0 3c 82 f7 27 bd
       0.09268032 0.029528568 0.01957395 -0.041007526
0002e0 c7 15 5b 3d 15 2d 3e be 78 93 0f 3d 64 44 7f 3e
       0.053487565 -0.18571885 0.035052747 0.24928433
0002f0 d5 14 87 3e ab 58 fe 3c 1a ba 4f 3e ac d3 8b 3d
       0.2638308 0.03104814 0.20285836 0.068274826
000300 96 90 bd 3d a2 fe e1 bd f2 f0 28 be 7a cd 01 3d
       0.09256093 -0.110348955 -0.16498163 0.0316901
000310 ba d9 73 3e e4 cc b5 bd 88 80 10 bf f9 40 e3 be
       0.23813525 -0.088769704 -0.56446123 -0.44385508
000320 96 41 c4 3b 46 7a 18 be fe 57 88 3e 72 e4 7f be
       0.0059892638 -0.14890394 0.26629633 -0.24989489
000330 4b 7b 8e 3e f0 66 e1 bd 1b 9f b4 3e e6 d4 7b bd
       0.2782844 -0.11005962 0.35277638 -0.061482333
000340 ba 1e d7 bc 11 08 9d bd 4b c6 4d 3e 7f ac b9 3d
       -0.026259769 -0.07667554 0.20095174 0.09066104
000350 2c 10 8a 3e 1c f3 77 3e a7 8f 6b 3d 9b ea f3 3d
       0.26965463 0.24213833 0.057510044 0.11909982
000360 20 1e 36 bb 07 36 5d be 90 e7 18 bf 83 c5 1c be
       -0.0027788952 -0.21602641 -0.59728336 -0.1530972
000370 14 be 80 3e 65 62 2a bd 7e 15 f9 3d 09 eb d0 bd
       0.25145018 -0.041597743 0.121623024 -0.102010794
000380 09 f3 98 3d d7 91 57 3e 84 3d 39 bd 2b 4d 25 be
       0.0746823 0.21051727 -0.04522468 -0.16142718
000390 eb 51 91 bd fb 56 ee bd 64 8b 3c ba 30 d3 cf 3c
       -0.07095703 -0.11637684 -0.00071924017 0.025369257
0003a0 32 88 a1 3d 8f 7f f2 3d c0 1e 1e be 9a 48 4d 3e
       0.07887305 0.11840736 -0.15441418 0.20047227
0003b0 1c a5 50 3e 15 42 09 be 03 a1 df be 7d 99 e8 be
       0.20375484 -0.13404115 -0.4367753 -0.45429602
0003c0 1e 24 14 3c 69 6e 48 3e e0 8e d1 3b 2d 15 17 be
       0.009041814 0.19573368 0.006395206 -0.14754172
0003d0 7a a2 f5 3d f9 bd 2d bc e4 da a0 3e 8c d3 79 bd
       0.119938806 -0.010604375 0.31417 -0.060992762
0003e0 37 3c 30 3c a0 8f 15 bb 4a 2b 4f 3e c4 14 e1 3e
       0.010756544 -0.0022821203 0.20231357 0.43961155
0003f0 60 a9 1f 3e 5d c6 01 3e 3e 2a f7 bd 8c bd 9e 3d
       0.15591955 0.12673326 -0.12068604 0.07750997
