result/ver7_4/last.pt (torch, 308751 bytes, 81 tensors)

Encoder.encoder_lstm.weight_ih_l0 f4 [128, 6]
0	0xbe8d94d6	-0.27652615
1	0x3f43a0f2	0.7641746
2	0xbf6f9baf	-0.9359693
3	0xbf60cfd4	-0.8781712
4	0xbfb054b4	-1.3775849
5	0x3f9e779f	1.2380255
6	0xbfbfb8e0	-1.4978294
7	0xc0166502	-2.349915
8	0x3fa4a9a6	1.2864273
9	0x3dc08326	0.094000146
10	0x3fce84de	1.6134298
11	0x3f6015fb	0.8753354
12	0x3ea72e6d	0.32652608
13	0x3e58720f	0.2113726
14	0x3e07b75d	0.13253541
15	0x3ed8579a	0.42254335
16	0x3f9cc816	1.2248561
17	0x3f6b6db5	0.91964275
18	0x3f455d07	0.77095073
19	0x3ed33af9	0.4125593
20	0x3f922ee2	1.1420557
21	0xc0147c16	-2.3200736
22	0xbffeaa07	-1.9895638
23	0xbe954381	-0.29153064
24	0xbfb25164	-1.3931088
25	0x3fa07ff7	1.2539052
26	0xbf0f4311	-0.5596171
27	0xbf30d797	-0.69078964
28	0xbee26e1e	-0.44224638
29	0xbe40fdac	-0.18846768
30	0xbd05a91b	-0.032631975
31	0x3ff8b23c	1.9429393
32	0x3fc90f37	1.5707768
33	0x3fd11575	1.6334673
34	0x401ffd10	2.4998207
35	0x3fa364d0	1.276514
36	0x3e0584a9	0.13038887
37	0x3f8610fb	1.0473932
38	0x3fc0b7c2	1.5056078
39	0x3f9b5522	1.2135355
40	0x3fbd0838	1.4768133
41	0xbe47a308	-0.19495785
42	0xbed124c3	-0.4084836
43	0x3ed5020c	0.41603124
44	0xbf052a29	-0.52017456
45	0x4084fa8e	4.1555853
46	0x4066dc92	3.6072125
47	0x401d8675	2.4613316
48	0x3f1208a7	0.5704445
49	0x3ffd957c	1.9811244
50	0x3f6e9f73	0.9321205
51	0x3f79f3d4	0.9763768
52	0x3fd63caf	1.6737269
53	0x40733dd4	3.8006487
54	0xbe332521	-0.17494632
55	0x3f19b587	0.60042614
56	0x3edf9aae	0.436727
57	0x3f21e52e	0.63240325
58	0x3f144837	0.5792269
59	0x3f0a9943	0.5414011
60	0xc0478a8b	-3.117831
61	0xc001a5f7	-2.0257547
62	0xbfb935c1	-1.4469529
63	0xc0213717	-2.5189874
64	0xc0084235	-2.129041
65	0xbdf46ba0	-0.1193459
66	0xbec34b85	-0.38143554
67	0x3e3512f8	0.17683017
68	0x3f9ba4e5	1.2159697
69	0xbe9126f7	-0.2835004
70	0xbfed324c	-1.8530974
71	0x3ee58252	0.4482599
72	0x404ddb0b	3.2164943
73	0x3fb9c043	1.4511799
74	0x3f1f8a6c	0.6232059
75	0x408274a9	4.0767407
76	0x3fdcd3b5	1.7252108
77	0xbfd4a744	-1.6613545
78	0xc008c910	-2.137272
79	0xc00e663e	-2.2249904
80	0xbf421f22	-0.75828755
81	0xbf2b3b78	-0.6688762
82	0xbd92ce59	-0.07168264
83	0xbffc696f	-1.9719676
84	0xbd8aec67	-0.067833714
85	0x3e4d8e24	0.20073754
86	0x3ea8a710	0.3293996
87	0x3f8921aa	1.0713398
88	0x3eb09fc7	0.344969
89	0xc002b940	-2.0425568
90	0x3f890421	1.0704385
91	0xbed1d82a	-0.40985233
92	0x3f37d8f3	0.71815413
93	0xbf98133b	-1.1880869
94	0xbf505014	-0.8137219
95	0xbf68fbee	-0.91009414
96	0xbfbca0b0	-1.4736538
97	0xbef5611f	-0.4792566
98	0x3f054413	0.52057
99	0x3fe7f3c0	1.8121262
100	0x3f6858c5	0.9076045
101	0x3fad86e1	1.3556787
102	0x3f8ef5ca	1.1168759
103	0x3f852e00	1.0404663
104	0x3efbe49c	0.49197853
105	0xbf53e761	-0.8277493
106	0x3eac00e0	0.33594418
107	0x3fc432e9	1.5328037
108	0xbfa867fc	-1.3156734
109	0xc0388617	-2.8831842
110	0xbf9715e9	-1.1803561
111	0xbe63255c	-0.2218222
112	0x3f0a28a5	0.5396827
113	0xc025e290	-2.5919533
114	0x3f0ced36	0.55049455
115	0x3f94666c	1.1593757
116	0x3eaa68ff	0.3328323
117	0x3fb12ec3	1.3842396
118	0x3ff18e3b	1.887153
119	0x3f2cb8f2	0.67469704
120	0x3fb7d5ee	1.4362161
121	0xbf6b25c2	-0.9185449
122	0xbf350857	-0.7071585
123	0xc08aef10	-4.3416824
124	0xc08e5da4	-4.4489307
125	0xbf00ca25	-0.5030845
126	0xbf8dc955	-1.1077067
127	0x3fbabac1	1.4588243
128	0x3eddd0ca	0.43323356
129	0x3f827863	1.0192989
130	0x3f3c979b	0.7366883
131	0x3e39ed4d	0.1815693
132	0x3ee88da0	0.4542055
133	0xbf079ef1	-0.529769
134	0x3fac5e37	1.3466252
135	0xbe14006d	-0.14453287
136	0xbf4e72d1	-0.80643946
137	0x3fc4e042	1.5380938
138	0xbf3a7715	-0.72837955
139	0x3f689631	0.90854174
140	0xbebfb2dd	-0.3744115
141	0x3f89b0a4	1.0757031
142	0x3f0c595e	0.54823864
143	0x4018a7d8	2.3852444
144	0xbf8b471e	-1.0881078
145	0xbe6b4749	-0.22976412
146	0xbeb169a5	-0.34650913
147	0x3f6dbb28	0.928637
148	0x3fb7d558	1.4361982
149	0x3f618245	0.880894
150	0xbf6c51b9	-0.923122
151	0xbfc67eb2	-1.5507414
152	0x3f1098b2	0.56482995
153	0xbe8087da	-0.25103647
154	0x3fa5cca4	1.2953076
155	0xbf8c6c0b	-1.0970472
156	0x3f3549dc	0.70815825
157	0x3fde4425	1.7364546
158	0xbda7b415	-0.08188645
159	0xbee56689	-0.4480479
160	0x3e788114	0.2426799
161	0x3d35fc89	0.04443029
162	0xbff4b135	-1.9116579
163	0xc0227426	-2.5383391
164	0xbfa730b8	-1.3061743
165	0xc01d42e4	-2.4572077
166	0xbfee846f	-1.8634166
167	0x3f9e3575	1.2360064
168	0x3fae0b95	1.3597285
169	0xbf19fc07	-0.6015019
170	0x403765dd	2.8655922
171	0x3f8c6402	1.096802
172	0x4017f8b4	2.3745546
173	0x3e945dee	0.28977913
174	0x3e31955e	0.17342135
175	0x400c3b5b	2.1911228
176	0xbeb86219	-0.36012343
177	0x3ebc638e	0.36794704
178	0xbd4b8536	-0.049687587
179	0x3e05fd92	0.1308501
180	0xbfde8db1	-1.7386991
181	0xbe4d0e87	-0.20025073
182	0xbf9e3283	-1.2359165
183	0x3fae3b0f	1.3611773
184	0x3fe91cd6	1.8211925
185	0x3f3c7732	0.7361938
186	0x3f8f1ffc	1.1181636
187	0xbf00e858	-0.5035453
188	0xbf47638f	-0.7788629
189	0x3e8b011f	0.27149293
190	0xbf431fdf	-0.76220506
191	0xbfab752f	-1.3395137
192	0x402937c6	2.6440291
193	0x3f5330d7	0.824964
194	0x400df4cc	2.2180662
195	0x3fb1aab4	1.388022
196	0xbe4148f9	-0.18875493
197	0xbd81011f	-0.06299042
198	0xbfab0e41	-1.3363725
199	0xbf918959	-1.137004
200	0x3f823d6e	1.0174997
201	0x4050de01	3.26355
202	0x40262991	2.596287
203	0x3fb357ce	1.4011171
204	0xbf5635eb	-0.8367602
205	0x3f4b73c5	0.79473525
206	0xbf343b6d	-0.70403177
207	0x3e5d179f	0.21591042
208	0xbf3d6369	-0.7397981
209	0x3f1842e3	0.5947706
210	0x3f3b2f55	0.731191
211	0x3e9919ab	0.29902396
212	0x3f69e920	0.91371346
213	0x3ff93956	1.9470623
214	0x4009783c	2.1479635
215	0xbf180228	-0.5937829
216	0x3e9861c4	0.2976209
217	0xbdeb60fc	-0.11493108
218	0x3f1a45ad	0.60262567
219	0xbf8a0237	-1.0781926
220	0xbd7d9dfc	-0.061918244
221	0x3d60226e	0.054720335
222	0xbf3dd96e	-0.74159896
223	0xc019cebb	-2.4032428
224	0x3c04e0f4	0.008110274
225	0xc0504d75	-3.2547276
226	0xc014829a	-2.3204713
227	0x3e64b07a	0.22332945
228	0xbf7f8189	-0.9980703
229	0xbea95ec3	-0.3308011
230	0xbfbdcaaf	-1.4827479
231	0x3ec4262f	0.38310382
232	0x3f464f94	0.77465177
233	0xbfe802f1	-1.8125898
234	0xbf669c13	-0.900819
235	0xbebcae48	-0.36851716
236	0x3fc9ce1c	1.5766025
237	0x3e152393	0.14564352
238	0xbfa08a85	-1.2542273
239	0x3ee17603	0.44035348
240	0xbf2f4c58	-0.68475866
241	0xbfbe22e5	-1.4854399
242	0x3f40aa80	0.7526016
243	0x401d2f17	2.4559991
244	0x3f3508d9	0.70716625
245	0x3ef8e276	0.48610276
246	0xbfaa692d	-1.3313347
247	0xbfe86495	-1.8155695
248	0xbfb14ad7	-1.3850964
249	0x3e560c5c	0.20903152
250	0x3f1d353a	0.6140934
251	0xbf2e9ff8	-0.6821284
252	0xbfa9651b	-1.323398
253	0x3e2feb5d	0.17179628
254	0xbf73f7a5	-0.9529975
255	0x4098eb5c	4.7787304

Encoder.encoder_lstm.weight_hh_l0 f4 [128, 32]
0	0xbf19f9be	-0.601467
1	0xc00e87fc	-2.2270498
2	0xbfe39b35	-1.778174
3	0x400d73ca	2.2101922
4	0xbce4dde7	-0.027937843
5	0xbfa771f3	-1.308165
6	0x3fe5e06d	1.7959114
7	0xbf9f3dc9	-1.244073
8	0xbef24ad4	-0.47322714
9	0x3f98dc34	1.1942201
10	0x4011de4b	2.2791927
11	0x40499ec9	3.1503165
12	0x3f3d02ba	0.73832285
13	0xbf64c84e	-0.8936814
14	0x40310155	2.7657063
15	0xc04879f5	-3.1324437
16	0xbfa80152	-1.3125403
17	0xbf8fae59	-1.1225082
18	0x3f282588	0.6568227
19	0xc004cb00	-2.0748901
20	0x404f66a4	3.2406397
21	0x3f9b786e	1.2146127
22	0xbe82e877	-0.25567982
23	0x3f96325a	1.1734116
24	0xbe263687	-0.16231738
25	0xbd69edf9	-0.057111714
26	0xbfacaa21	-1.3489419
27	0x3ed10e7b	0.4083136
28	0xc017e523	-2.3733604
29	0xbe883f36	-0.26610726
30	0xbf2b7a14	-0.6698315
31	0x3fc0c775	1.506087
32	0xbf1499ce	-0.5804719
33	0xbf371e2f	-0.7153043
34	0x3f80b5d8	1.0055494
35	0x3e887a74	0.26655924
36	0xbe12c869	-0.14334263
37	0xbe1d6b53	-0.15372972
38	0x3e8f6d03	0.28012857
39	0x3e06f6c4	0.13180071
40	0x403fffb7	2.9999826
41	0xbba88bb9	-0.0051436094
42	0xc0193e3e	-2.394424
43	0x3f6af43c	0.9177892
44	0xbfaf3510	-1.3688068
45	0xc00d60ad	-2.2090256
46	0xc01c971c	-2.446723
47	0x3f62d358	0.88603735
48	0x3f3df83e	0.7420691
49	0x3ea827b3	0.32842788
50	0x3f72da0c	0.94863963
51	0xbf493f95	-0.78612643
52	0xbfc34e43	-1.5258259
53	0x3f83e8e6	1.030545
54	0xbdec0dd7	-0.11526077
55	0x3f366695	0.7125028
56	0x3f005989	0.5013662
57	0xbf161ab3	-0.5863449
58	0xbf302def	-0.6882009
59	0x3d1bbdbd	0.038022745
60	0xbfd4bc2d	-1.6619927
61	0xbf5abee7	-0.85447544
62	0x3f94f18a	1.1636212
63	0xbfeeccd0	-1.8656254
64	0xbf118f46	-0.5685924
65	0xbec148b9	-0.37750795
66	0xbf87007c	-1.0547023
67	0xbc2f2c78	-0.0106917545
68	0xbdcbaa5c	-0.09944603
69	0x3f3fd63b	0.74936265
70	0x3e693638	0.22774589
71	0xbe9280d1	-0.28613904
72	0xbe3fbb9a	-0.18723908
73	0x3f4fa900	0.8111725
74	0xbf26f484	-0.6521685
75	0xbfb1b1e9	-1.3882419
76	0x3f1ab096	0.604257
77	0x3b23f7de	0.0025019567
78	0x3ff1dc63	1.8895382
79	0x3d6a85a6	0.057256363
80	0x3f759bcd	0.9594086
81	0x3f8fc8f6	1.1233203
82	0x3fbc9b4f	1.4734896
83	0x3f1c8045	0.61133224
84	0xbf8a2bcd	-1.0794617
85	0x3fa888f4	1.3166795
86	0xbf40bc9b	-0.7528779
87	0x3f8a0e17	1.078555
88	0xbf8c157f	-1.094406
89	0xbe2c7cfa	-0.1684455
90	0x3fcf8b73	1.6214432
91	0xbfc555c3	-1.5416797
92	0xbf0413f1	-0.5159293
93	0xbfa695f6	-1.3014514
94	0xbf5703a6	-0.8398994
95	0xbfa4fbf1	-1.2889386
96	0xb9ba5ce2	-0.00035545888
97	0xbf9f9237	-1.2466496
98	0xbf923d57	-1.142497
99	0x3d921a4b	0.07133921
100	0x3fb56c1b	1.4173616
101	0xbd0a6351	-0.03378612
102	0xbfa33867	-1.2751588
103	0xbf6b347d	-0.91876966
104	0x3ed3dfc4	0.41381657
105	0xbfa95572	-1.3229201
106	0xbeed9369	-0.46401528
107	0x3f933c9f	1.1502875
108	0xc0252860	-2.5805893
109	0x3f7cb31c	0.987108
110	0xbfc237f7	-1.5173329
111	0xbfa91ad1	-1.3211309
112	0xbf69d416	-0.9133924
113	0xbf69dc27	-0.9135155
114	0x3f47d8bc	0.78065085
115	0xc034d61e	-2.8255687
116	0x403e1a38	2.9703503
117	0xbf0cf512	-0.5506145
118	0xbff4001f	-1.9062537
119	0xbee585b9	-0.44828585
120	0xbf2f619b	-0.6850831
121	0xbfb8842d	-1.4415337
122	0x3f864a2e	1.0491388
123	0xbea5b5a8	-0.32365155
124	0xbf8050bc	-1.0024638
125	0x401b80f7	2.4297464
126	0xbe406b5f	-0.18790959
127	0x3eb375ec	0.35050905
128	0xbfd73b5d	-1.6814991
129	0x3f0e298c	0.55532146
130	0xbf49bca8	-0.7880349
131	0xbf011f3d	-0.5043829
132	0x3f5abc82	0.8544389
133	0x402e4303	2.72284
134	0x3f98562b	1.1901296
135	0x3faabced	1.3338906
136	0xbfdc3ada	-1.720546
137	0x3f69cd88	0.9132924
138	0xbe5550b5	-0.20831569
139	0x3faf771c	1.3708224
140	0xbf97e8f3	-1.1867965
141	0x3fe4e5af	1.7882594
142	0x3fd8345e	1.6890981
143	0xbf26b437	-0.65118736
144	0x3f5e1940	0.8675728
145	0xbe65a1a3	-0.22424941
146	0x3fa34681	1.2755891
147	0xbdcf4344	-0.10120252
148	0xbf571e23	-0.8403036
149	0x3f7f55bf	0.99740213
150	0x3e879b3a	0.26485616
151	0x3f9abed3	1.2089485
152	0xbfa44277	-1.2832783
153	0xbff8b57c	-1.9430385
154	0xbe117437	-0.14204489
155	0x3fa7a639	1.3097602
156	0xbc47a6e9	-0.012185791
157	0xbf839622	-1.0280192
158	0x3f4d957a	0.8030621
159	0x3f10e488	0.5659871
160	0x3f668c08	0.9005742
161	0x3f9eb701	1.2399598
162	0x3fca46df	1.5802878
163	0x3f5596a1	0.83432966
164	0x3fc8e0e6	1.5693634
165	0xbf35272f	-0.70762914
166	0xbf61992a	-0.88124335
167	0xbf6c8fff	-0.9240722
168	0xbeaeca1b	-0.3413857
169	0x3b630557	0.0034640634
170	0xbe584e45	-0.21123607
171	0x3fad6207	1.354554
172	0xbfb7a506	-1.4347236
173	0x3ff9b324	1.9507794
174	0xbf53724a	-0.82596266
175	0xbfba61ec	-1.4561133
176	0xc03b4edd	-2.9266884
177	0x40103364	2.2531366
178	0x3e788358	0.24268854
179	0xbe5caaf3	-0.21549587
180	0x3f3a2055	0.72705585
181	0x3fc4dfe9	1.5380832
182	0xc02058c8	-2.5054188
183	0x402b8df0	2.6805382
184	0xbf9dabbf	-1.2318038
185	0xbf115f6d	-0.56786233
186	0x3feccdda	1.8500321
187	0xbe5739d7	-0.21018158
188	0xbfc8c880	-1.5686188
189	0x3f9f5a44	1.2449422
190	0xbf6e4cc4	-0.93085885
191	0x3ef35041	0.47522166
192	0xbf35d0a8	-0.7102151
193	0xbe70fc89	-0.23533835
194	0x3e8179a4	0.25288117
195	0xbf876885	-1.0578772
196	0x3f6f160c	0.93393016
197	0x3e5a551e	0.21321532
198	0x3eef4f32	0.4674011
199	0x3e072b13	0.13200025
200	0x3f2654af	0.64972967
201	0xbf1ab091	-0.6042567
202	0xbf83b795	-1.02904
203	0xbf4bbbdd	-0.7958353
204	0xbf6f0e69	-0.93381363
205	0x3fb42064	1.4072385
206	0x3fa11a6d	1.258619
207	0x3f24d9d4	0.6439488
208	0xbeb00f84	-0.34386837
209	0x3f0d6e53	0.55246466
210	0x3fe53521	1.7906839
211	0xbfd47e80	-1.6601105
212	0xbfcad026	-1.5844772
213	0x3fd1e0cd	1.6396729
214	0x3dce6ea0	0.10079694
215	0x3fd31cff	1.6493224
216	0xbe0c82bd	-0.13721748
217	0x3fadee56	1.3588359
218	0x3faba7ab	1.3410543
219	0xc00fcf34	-2.2470217
220	0xbf8ffc9f	-1.1248969
221	0x3f233826	0.6375755
222	0xbfe424d2	-1.7823737
223	0x3d3f470f	0.046698626
224	0xc00ad370	-2.1691551
225	0x3fd13a5c	1.6345935
226	0x3f0fdfe5	0.5620101
227	0xbf1c5785	-0.61071044
228	0x3ea72bb6	0.32650536
229	0x3fcf5938	1.6199102
230	0x3fd8a64a	1.6925747
231	0xbfd1eb23	-1.6399883
232	0x3f7079ec	0.9393604
233	0xbedea668	-0.43486333
234	0x3f0b02ab	0.54300946
235	0xbff8376d	-1.9391915
236	0x3f9816b2	1.1881926
237	0xbf9cdb7c	-1.2254481
238	0xc0468be4	-3.1022882
239	0xbe65f32d	-0.22456045
240	0x3d225a8d	0.039637137
241	0x3ea8261f	0.32841584
242	0x3fb508b9	1.4143287
243	0xbf232d35	-0.63740855
244	0xbedff9f7	-0.43745396
245	0xbdbf7b90	-0.093497396
246	0xbf4e30ef	-0.80543417
247	0xbf3ee582	-0.7456895
248	0xbf11d8e9	-0.56971604
249	0xc03bd7fa	-2.9350572
250	0x3f1be939	0.60902745
251	0xbf1613f9	-0.58624226
252	0x3cc40ead	0.02393278
253	0xbde600c2	-0.11230613
254	0x3edb4c20	0.42831516
255	0x3e813f12	0.2524343

Encoder.encoder_lstm.bias_ih_l0 f4 [128]
0	0xbf3c4f2b	-0.735583
1	0xbf26b1a5	-0.65114814
2	0x3e3e9489	0.18611349
3	0xbf354831	-0.7081328
4	0xbe7bce9b	-0.24590532
5	0xbf453c38	-0.7704501
6	0xbfa56855	-1.2922465
7	0xbeef32cd	-0.46718445
8	0xbf88f8aa	-1.0700886
9	0xbf5d117b	-0.863548
10	0xbf9a13c9	-1.2037288
11	0xbf535ee6	-0.8256668
12	0xbea45e3c	-0.32103145
13	0xbf2bb3c1	-0.6707116
14	0xbe966a07	-0.29377767
15	0xbeff654e	-0.49881977
16	0xbff976e5	-1.9489409
17	0xbfb32476	-1.3995502
18	0xbf1ae238	-0.6050143
19	0xbf30937a	-0.6897503
20	0xbf26da18	-0.65176535
21	0xbe020a25	-0.12699182
22	0xbe80a90c	-0.25128973
23	0xbfa0b7c7	-1.2556084
24	0xbeb8c2d0	-0.3608613
25	0xbf60b672	-0.8777839
26	0xbe8edb4f	-0.27901694
27	0xbf461ff0	-0.7739248
28	0xbf059be8	-0.5219102
29	0x3f4f25da	0.8091713
30	0xbf02834d	-0.509816
31	0xbf2369c4	-0.6383326
32	0xbda9862e	-0.08277546
33	0xbe387f5e	-0.18017337
34	0xbf897f33	-1.0741943
35	0x3e6287aa	0.22122064
36	0x3e04b4c3	0.1295958
37	0x3dac124b	0.084019266
38	0x3e06c232	0.13160017
39	0xbf736d64	-0.9508879
40	0x3eb29f86	0.34887332
41	0xbd1d1031	-0.03834552
42	0xbf3fef00	-0.7497406
43	0x3f908132	1.1289427
44	0xbe0c537d	-0.13703723
45	0x3f1d913f	0.6154975
46	0x3e21bde2	0.15795091
47	0x3ed7f982	0.42182547
48	0xbf6d06a3	-0.9258825
49	0x3d09a590	0.03360516
50	0xbf229637	-0.6351046
51	0x3dd2e573	0.1029767
52	0xbf581404	-0.8440554
53	0x3f1b8266	0.6074585
54	0xbecddcc7	-0.40207502
55	0xbec447ca	-0.3833602
56	0x3dfa0d29	0.12209541
57	0x3e2dfc6c	0.16990823
58	0xbe488ec1	-0.19585706
59	0xbfb68b34	-1.4261231
60	0xbe042ef4	-0.12908536
61	0xbf34ef0d	-0.7067726
62	0xbf676289	-0.9038473
63	0xbe8e41cd	-0.27784577
64	0xbe992802	-0.29913336
65	0x3df4ae07	0.119472556
66	0x3e202eb4	0.15642816
67	0xbcb7b7b4	-0.022426464
68	0xbe81de08	-0.2536471
69	0xbe702c03	-0.23454289
70	0x3e9b3703	0.30315408
71	0x3d8a0b9c	0.067404956
72	0xbe3a0669	-0.18166508
73	0xbd20288a	-0.03910116
74	0xbecb9475	-0.397617
75	0xbdf4a35e	-0.11945222
76	0x3d8e3c3b	0.06945082
77	0x3eab7f2d	0.33495465
78	0xbdc0f65d	-0.0942199
79	0x3d856f49	0.065153666
80	0xbea65840	-0.32489204
81	0x3dd720d1	0.10504306
82	0xbd91e91f	-0.071245424
83	0xbe909997	-0.2824218
84	0xbe3d4f0a	-0.18487182
85	0xbe201c2c	-0.15635747
86	0xbcc3fcd2	-0.023924265
87	0xbf12ee85	-0.573952
88	0x3e8505d8	0.2598102
89	0xbf2c43a9	-0.6729074
90	0x3e4d2b66	0.20036086
91	0xbec67af1	-0.38765672
92	0x3e1f2dca	0.15544811
93	0xbd24773b	-0.04015277
94	0x3e7db728	0.247769
95	0xbebb5540	-0.36588478
96	0xc00c288e	-2.1899753
97	0xbf72ade2	-0.94796574
98	0x3e48a748	0.19595063
99	0xbe8121df	-0.25221154
100	0xbe32fc0c	-0.17478961
101	0xbecc7c42	-0.3993855
102	0xbc6a7a86	-0.014311438
103	0xbf1586df	-0.5840892
104	0xbf575940	-0.8412056
105	0xbf8205d3	-1.0158027
106	0xc014e5b0	-2.326519
107	0xbfcb08a7	-1.5862015
108	0xbe011cd4	-0.12608653
109	0xbf84dcdf	-1.0379905
110	0xbf627a2a	-0.8846766
111	0x3c34305a	0.010997856
112	0xbfe90d92	-1.8207266
113	0xbe860632	-0.26176602
114	0xbf9016e4	-1.1256986
115	0xbf7b57a8	-0.9818063
116	0xbf1a6523	-0.6031057
117	0xbf48c5dd	-0.78426915
118	0xbf3edaec	-0.745528
119	0xbf5387a5	-0.8262885
120	0xbf0912ef	-0.53544515
121	0xc07d4b3f	-3.9577177
122	0xbf25f780	-0.6483078
123	0x3e115be2	0.14195207
124	0xbf85a2d4	-1.0440316
125	0xbf7873a9	-0.97051483
126	0xc00691e9	-2.1026556
127	0x3db5ad66	0.08870964

Encoder.encoder_lstm.bias_hh_l0 f4 [128]
0	0xbf5c308a	-0.86011565
1	0xbf3e7961	-0.7440396
2	0x3e64577b	0.22298996
3	0xbf05c5ae	-0.5225476
4	0xbe92531d	-0.28579035
5	0xbf7271ea	-0.9470507
6	0xbfa1bc66	-1.263562
7	0xbf226646	-0.63437307
8	0xbf4f7e00	-0.81051636
9	0xbf1c19b1	-0.609767
10	0xbf808b60	-1.0042534
11	0xbf2c53cf	-0.6731538
12	0xbe538db1	-0.2065952
13	0xbf2f3167	-0.68434757
14	0xbeca4f97	-0.39513847
15	0xbf13be11	-0.57711893
16	0xbff93659	-1.946971
17	0xbfaa439a	-1.330188
18	0xbef95ea7	-0.48705027
19	0xbf4a7efb	-0.79100007
20	0xbf187c4c	-0.5956466
21	0xbd6d9cc8	-0.058010846
22	0xbeb806fc	-0.3594283
23	0xbfb3462a	-1.4005787
24	0xbee38d09	-0.4444354
25	0xbf6b9ae1	-0.920332
26	0xbd7fa2a5	-0.06241097
27	0xbf323cfd	-0.6962431
28	0xbf481519	-0.7815719
29	0x3f3a6e1f	0.7282428
30	0xbe5afdd7	-0.21385895
31	0xbf1dca9f	-0.616373
32	0x3cddf54f	0.027094511
33	0xbe808379	-0.25100306
34	0xbf87cadb	-1.0608782
35	0x3e96c923	0.2945033
36	0x3ebeb905	0.37250534
37	0x3d9c5da8	0.07635051
38	0x3eb9acf9	0.3626478
39	0xbf439234	-0.76394963
40	0x3e816aeb	0.25276884
41	0x3def81b9	0.116946645
42	0xbf01eb5f	-0.5074977
43	0x3fb3a177	1.403365
44	0xbec6a2e0	-0.3879614
45	0x3f2acf0b	0.6672217
46	0x3e1dddcd	0.15416642
47	0x3e7a6b99	0.24455108
48	0xbf780ddd	-0.96896154
49	0xbd1ddc4b	-0.038540166
50	0xbf3182cd	-0.6934021
51	0xbe528309	-0.20557798
52	0xbf3d0f55	-0.7385152
53	0x3f272ee4	0.65305924
54	0xbf095ba1	-0.5365544
55	0xbf085e42	-0.53268826
56	0x3d5ff5cf	0.05467778
57	0xbcef8435	-0.029237846
58	0xbea21308	-0.31655145
59	0xbfac12dc	-1.3443255
60	0xbe31c1d9	-0.17359103
61	0xbf37efa0	-0.71850014
62	0xbf259f64	-0.64696336
63	0xbec5d3b2	-0.38638073
64	0xbecc4fa0	-0.399045
65	0x3e2fbe1c	0.17162365
66	0xbbed2351	-0.007236876
67	0x3e3ae206	0.18250284
68	0xbe45bcf3	-0.1931036
69	0x3dc6c2ed	0.09705148
70	0x3e073a49	0.13205828
71	0xbd7d99f1	-0.061914388
72	0xbdc56678	-0.09638685
73	0xbe525025	-0.20538385
74	0xbe492289	-0.1964208
75	0xbdffdd60	-0.12493396
76	0x3e56b46f	0.20967267
77	0x3d88fdca	0.066890314
78	0xbd3c0972	-0.045907445
79	0x3dd5cffe	0.10440062
80	0xbec72c7b	-0.38901123
81	0xbe484f81	-0.19561578
82	0xbe1253d8	-0.14289796
83	0xbd892d59	-0.066981025
84	0xbe8a90ef	-0.270637
85	0x3e2afd9c	0.16698307
86	0xbe1d66a8	-0.15371192
87	0xbf0af110	-0.5427408
88	0xbd7afa16	-0.061273657
89	0xbf504288	-0.8135152
90	0x3db46524	0.088083535
91	0xbec16911	-0.37775472
92	0x3e39c082	0.18139842
93	0xbe13f6a1	-0.1444955
94	0x3e786c5b	0.24260084
95	0xbe9aaaa8	-0.30208325
96	0xc0120ce1	-2.282036
97	0xbf2ad3c3	-0.6672937
98	0x3e233197	0.15936886
99	0xbd34e4f3	-0.044163655
100	0xbdeb8b6d	-0.11501203
101	0xbefaa4d9	-0.48953894
102	0x3d55abcc	0.05216579
103	0xbf3fa7ab	-0.74865216
104	0xbf73d05f	-0.95239824
105	0xbf56e802	-0.83947766
106	0xc01a8abe	-2.4147182
107	0xbfa1604b	-1.2607511
108	0xbd0c2fd9	-0.03422532
109	0xbfa1d98f	-1.2644519
110	0xbf89719c	-1.0737796
111	0xbb7ed556	-0.0038884482
112	0xbfcad8af	-1.5847377
113	0xbea46bc1	-0.3211346
114	0xbf8fd219	-1.1235992
115	0xbfa61d54	-1.29777
116	0xbf1b811f	-0.607439
117	0xbf44393e	-0.76649845
118	0xbf69e4ad	-0.91364557
119	0xbf608f02	-0.8771821
120	0xbf127f89	-0.57225853
121	0xc0752bec	-3.8308058
122	0xbf2db3c7	-0.67852443
123	0x3e46e6e9	0.19424023
124	0xbf860eeb	-1.0473303
125	0xbf84d9c0	-1.0378952
126	0xc0003945	-2.0034955
127	0x3da2d8a8	0.0795148

Encoder.encoder_attn.0.weight f4 [20, 84]
0	0x40427f21	3.0390093
1	0x3e103698	0.14083326
2	0xbf50fade	-0.8163279
3	0x3f082166	0.5317596
4	0x3fb13541	1.3844377
5	0xbf7c1a0d	-0.9847725
6	0x3fa74b62	1.306988
7	0x3fe287ac	1.7697654
8	0xbeeb18bb	-0.45917305
9	0x4008e7d2	2.1391492
10	0x3d7e3a0f	0.062067088
11	0x3f8debb7	1.108756
12	0x3f18cf58	0.5969138
13	0x407df54e	3.9680972
14	0xbd2de507	-0.042454746
15	0xbd75a894	-0.05997522
16	0x4022d1ea	2.5440621
17	0x3f4955e7	0.786467
18	0x3fc28c0d	1.519899
19	0xbd962cb8	-0.07332748
20	0x3d2575bd	0.040395487
21	0x3f0d9c19	0.5531631
22	0xc043af1c	-3.0575628
23	0x3ee9ef3e	0.4569034
24	0x3f706e90	0.93918705
25	0x3fa1d918	1.2644377
26	0x3f623824	0.88366914
27	0x3f27d8c6	0.65565145
28	0x3f16885e	0.5880183
29	0xbf31752a	-0.69319403
30	0xbfad270d	-1.3527542
31	0x3e43402b	0.19067447
32	0x3e8ab656	0.27092236
33	0x3f58952f	0.84602636
34	0xbeb35ddd	-0.3503255
35	0xbf81a299	-1.0127746
36	0x3f3ca649	0.7369123
37	0x3dfc0fc1	0.12307692
38	0x3f03970c	0.51402354
39	0x3fb65cce	1.4247072
40	0x3eff5725	0.49871174
41	0x401b5e2f	2.4276235
42	0xbf40a191	-0.7524653
43	0x3f45761b	0.7713334
44	0xbf2654a9	-0.6497293
45	0x3ddf80ec	0.10913262
46	0xbe00e193	-0.1258605
47	0xbe365fa3	-0.1780992
48	0x3f18f6d3	0.59751624
49	0x3e8e144b	0.27749857
50	0xbe980d31	-0.29697564
51	0xbd3d574b	-0.046225827
52	0xbd5ea6b3	-0.054358196
53	0xbeeb46be	-0.4595241
54	0xbfb4edb4	-1.4135041
55	0x3f30a80f	0.6900644
56	0xbe778a9e	-0.24173972
57	0x3f642060	0.891119
58	0x3fd99b4b	1.7000517
59	0x3fe0c962	1.7561457
60	0x3f71259a	0.94198
61	0x3e0841a6	0.13306293
62	0x3f87cb98	1.0609007
63	0xbf30e53a	-0.6909977
64	0xbebb45fc	-0.3657683
65	0x39f1f8fb	0.00046152607
66	0x3e953cf3	0.29148063
67	0xc02e37c1	-2.722153
68	0xbe4f2970	-0.20230651
69	0x3e77571a	0.2415432
70	0xbf981e7a	-1.1884301
71	0xbf73e586	-0.952721
72	0x3dd76487	0.10517221
73	0xbf4e2a3c	-0.80533195
74	0xbf009329	-0.5022455
75	0x3f60bfc6	0.87792623
76	0xbf5705d1	-0.8399325
77	0x3e925274	0.28578532
78	0xbff8b6f4	-1.9430833
79	0x3f6249ee	0.8839406
80	0x3eeedf83	0.466549
81	0xbde6afe8	-0.1126402
82	0xbf312022	-0.69189656
83	0x40121d9a	2.2830567
84	0xc00a5cd8	-2.1619167
85	0x3ff15613	1.8854393
86	0x3ff718e5	1.9304472
87	0xbf9f86b6	-1.2462986
88	0xbffc89e4	-1.9729581
89	0xbe345395	-0.17610009
90	0xbf7fb48f	-0.99884886
91	0x3ff9644a	1.9483731
92	0x3f7e2b87	0.9928517
93	0x3d2cf9c5	0.042230386
94	0x3eae2db5	0.34019247
95	0x3f2d20e5	0.6762832
96	0x3fb1a498	1.3878355
97	0x3f613270	0.87967587
98	0xc0968f96	-4.7050276
99	0x3f7ca124	0.9868338
100	0xbf97dca2	-1.1864207
101	0x3f53dfd6	0.8276342
102	0x3eda0547	0.4258215
103	0x407b9797	3.9311273
104	0x3f46e8eb	0.77699155
105	0xc002e7ae	-2.0453906
106	0xbf134af7	-0.5753626
107	0xbfb0f1c5	-1.3823782
108	0x4026e243	2.60756
109	0xbfe3ae86	-1.7787635
110	0xbefa1696	-0.48845357
111	0xbf62071f	-0.88292116
112	0x3ff74fa3	1.9321178
113	0xbfd4f552	-1.6637366
114	0xbf0a7c8f	-0.5409631
115	0x3f3c439c	0.73540664
116	0xbee761b2	-0.45191723
117	0x3f19934c	0.5999038
118	0x3fa8be91	1.3183156
119	0xbf4b4289	-0.793984
120	0xbff9f214	-1.9527001
121	0x3f08cb7a	0.5343548
122	0xbdf92d91	-0.12166894
123	0x3f352e1d	0.7077349
124	0x3f9f6372	1.2452223
125	0xbf17284f	-0.5904588
126	0xbf526cba	-0.82197154
127	0x3f6de491	0.9292689
128	0x3faf0293	1.367266
129	0x3f382912	0.7193767
130	0xbf9c7caa	-1.2225544
131	0x3f43c54d	0.7647293
132	0xbff5902d	-1.9184624
133	0x3f66954a	0.9007155
134	0x3e917c5c	0.2841519
135	0x3fd5a221	1.6690103
136	0x3e937e05	0.28807083
137	0xbfbc7ab1	-1.4724942
138	0x3f33711d	0.7009447
139	0xbed8bc02	-0.4233094
140	0x3fdb7c10	1.7147236
141	0x3d09f2f0	0.03367895
142	0xbf013456	-0.50470483
143	0xbe746ce0	-0.23869658
144	0x3fc9afd3	1.5756782
145	0x3f053222	0.5202962
146	0xbe47eb05	-0.19523247
147	0x3f2fec7f	0.6872024
148	0xbf13f6d8	-0.5779853
149	0xbf149a05	-0.58047515
150	0xbf7b5444	-0.98175454
151	0x3f0dfabc	0.55460715
152	0xbe3af328	-0.18256819
153	0x3e879f08	0.2648852
154	0xbe5ad46f	-0.213701
155	0xbedaacd0	-0.4270997
156	0xbef8027a	-0.4843939
157	0x3edcf476	0.4315526
158	0xbe707478	-0.2348193
159	0xbdb59257	-0.08865803
160	0x3ec607f3	0.3867794
161	0xbf748494	-0.955148
162	0xbe8d8147	-0.27637693
163	0xbf832c53	-1.0247902
164	0x3df0e19b	0.11761781
165	0xbe428260	-0.18995047
166	0x3eed2a86	0.46321505
167	0x402552d0	2.5831795
168	0xc02893cd	-2.634021
169	0x3f04307b	0.51636475
170	0xbfedfdca	-1.8593075
171	0xbef08519	-0.46976545
172	0x3f775eb6	0.9662889
173	0x3feaf8ad	1.835714
174	0xbf53e729	-0.827746
175	0xbf7a64c8	-0.9781003
176	0xc01ee74e	-2.4828677
177	0xc016d6f9	-2.356871
178	0xc0015736	-2.020948
179	0xbe7013b3	-0.23445015
180	0x3d1d5ec1	0.038420442
181	0xbf154e82	-0.5832292
182	0xbfe42433	-1.7823547
183	0x401087ab	2.2582805
184	0xbf12cdf5	-0.57345515
185	0xbf83278a	-1.0246441
186	0xbf0ff7be	-0.562374
187	0x3e832d9b	0.25620732
188	0x3f7ced4d	0.9879959
189	0x3dfa54a4	0.12223175
190	0x3f1d7c0d	0.6151741
191	0x3e064ec9	0.13115992
192	0x3ef70831	0.48248437
193	0xc0270e70	-2.6102562
194	0x3dbba273	0.09161844
195	0xbf48ca44	-0.7843363
196	0x3fca9801	1.5827638
197	0x3fb32021	1.399418
198	0x3f9ce0b0	1.2256069
199	0xbdad9976	-0.08476536
200	0xbf19dd2c	-0.60103106
201	0x3f29d0bc	0.6633413
202	0xbfea246b	-1.8292364
203	0xbf2afc1c	-0.6679094
204	0xbd80cbe2	-0.062888876
205	0x40401d4f	3.0017889
206	0xbf99d6b0	-1.2018642
207	0xbe3ee7d4	-0.18643123
208	0xbfe0f8eb	-1.7575964
209	0xbffa99c6	-1.9578178
210	0xbf467859	-0.77527386
211	0xbf31704c	-0.69311976
212	0xbf382fad	-0.7194775
213	0xbea7fa9d	-0.3280839
214	0x3f2c8c9a	0.6740204
215	0x3f8de7eb	1.1086401
216	0xbff64eeb	-1.9242834
217	0xbf80139b	-1.0005983
218	0xbf8d012f	-1.1015986
219	0xbf275eb8	-0.65378904
220	0x3edb26d3	0.42803058
221	0xbe136b4c	-0.143964
222	0x3f7a17e7	0.9769272
223	0xbdd78da2	-0.10525061
224	0xbe10f676	-0.14156517
225	0xc003f960	-2.0620956
226	0x3d0c1e2d	0.034208465
227	0xbf72f091	-0.94898325
228	0x3fd244fd	1.6427304
229	0x3f0ec1e9	0.55764633
230	0x3f4e3dc2	0.80562985
231	0xbe960713	-0.29302272
232	0x3df2b676	0.11851208
233	0xbee3e205	-0.44508377
234	0xbdf9bcf1	-0.12194241
235	0xbe2cbea7	-0.16869603
236	0x3ebbaae1	0.36653808
237	0xbd6c9853	-0.057762455
238	0x3ec6cefb	0.3882979
239	0x3f652401	0.8950806
240	0xbdc6f3db	-0.097144805
241	0x3dae66ef	0.08515727
242	0xbf52f37e	-0.8240279
243	0x3f0cf738	0.55064726
244	0xbeeee411	-0.46658376
245	0xbcc97ce9	-0.024595695
246	0x3f8133db	1.009395
247	0x3f16ee62	0.58957493
248	0x3e7c0b50	0.2461369
249	0xbe9ff7ea	-0.3124383
250	0xc0618a32	-3.5240598
251	0xbf37c811	-0.7178965
252	0xbf6e4372	-0.93071663
253	0xbfd2d1e5	-1.6470305
254	0x3edc2d29	0.43003204
255	0x3f1faf12	0.6237651

Encoder.encoder_attn.0.bias f4 [20]
0	0x3fe5d44b	1.7955412
1	0x3fa9ac0a	1.3255627
2	0x40004ce2	2.0046926
3	0x40092d34	2.143384
4	0xbeba8ee1	-0.36437133
5	0x3f8ef4e2	1.1168482
6	0xbe07615f	-0.13220738
7	0x3fb8f65c	1.4450183
8	0xbdbff98b	-0.093737684
9	0xc004d398	-2.0754147
10	0xbe6b1657	-0.2295774
11	0xbd9b82fd	-0.075933434
12	0xbe9ce27b	-0.3064154
13	0x3e453b78	0.19260967
14	0xc01504df	-2.3284223
15	0xbf4f916a	-0.8108126
16	0xbcf02bfc	-0.029317848
17	0x3f38fccc	0.7226074
18	0xbe9fe79c	-0.3123139
19	0x3fbac47e	1.4591215

Encoder.encoder_attn.2.weight f4 [1, 20]
0	0xbe68d63b	-0.22737972
1	0xbe50a209	-0.20374312
2	0x3e2c6a71	0.16837479
3	0xbe2cc104	-0.16870505
4	0xbe610394	-0.21974021
5	0xbe2cf363	-0.1688972
6	0xbe3e77d6	-0.18600401
7	0xbe561e72	-0.20910051
8	0x3e9a1442	0.3009358
9	0xbe327874	-0.17428762
10	0xbe1c770f	-0.15279792
11	0x3e7d739f	0.24751137
12	0x3e879859	0.2648342
13	0xbe0da0e1	-0.13830902
14	0xbe9d5420	-0.30728245
15	0xbe498166	-0.19678268
16	0xbe36b0c4	-0.17840868
17	0xbe39f32f	-0.18159173
18	0xbe3df5bb	-0.1855077
19	0x3de46e65	0.111538686

Encoder.SelfAttention.wq.weight f4 [20, 20]
0	0x3e9d190c	0.30683172
1	0xbfc9995b	-1.5749925
2	0x3f8fe593	1.1241935
3	0xbef01a4a	-0.46895057
4	0x3eaaf72f	0.3339171
5	0x3e533e4d	0.20629235
6	0xbfe42dd2	-1.7826483
7	0x3dcf8520	0.101328135
8	0x3ebaeb98	0.3650787
9	0x3d1e5a2e	0.03866022
10	0xbf52d891	-0.82361704
11	0x3f9d7f1f	1.2304419
12	0xbea2cc95	-0.3179671
13	0x3e69ff25	0.22851236
14	0xbec5df0d	-0.38646737
15	0xbf00f003	-0.5036623
16	0xbf4c9791	-0.7991877
17	0x3faf6d1a	1.370517
18	0x3d15c4fd	0.036564816
19	0xbf1114fb	-0.5667264
20	0xbd56aac9	-0.052408967
21	0x3f93d5a2	1.154957
22	0xbf1b8aaa	-0.6075846
23	0xbfcb348f	-1.5875415
24	0x3e6a1164	0.22858196
25	0xbf62f687	-0.8865742
26	0xbf479d2c	-0.779742
27	0xbf0c84d2	-0.5489017
28	0xbe6c874f	-0.23098491
29	0x3ff370a1	1.9018747
30	0x3fc0276e	1.5012033
31	0xbf2bdf25	-0.67137367
32	0xbf421326	-0.7581047
33	0x3ed0065d	0.40629855
34	0x3f334ce9	0.7003923
35	0x3f09ae78	0.53781843
36	0xbc93751a	-0.018000174
37	0xbf29bc02	-0.663025
38	0x3e9de5ca	0.30839378
39	0x3e78baba	0.2428998
40	0xbe85bff9	-0.26123026
41	0xbefe2d0d	-0.49643746
42	0x3f332d3f	0.69990915
43	0x3e8f205d	0.2795438
44	0xbf51c52e	-0.819415
45	0x3f8e05f3	1.1095566
46	0xbf80a6a6	-1.0050857
47	0x3f33dc48	0.70258
48	0x3fc4c708	1.537324
49	0xbeff936b	-0.49917158
50	0xbecd04fb	-0.40042862
51	0x3f88306c	1.0639777
52	0xbfc85fcb	-1.5654234
53	0x3d3f7dd4	0.04675086
54	0x3fe968c7	1.82351
55	0xbf817213	-1.0112938
56	0xbe339101	-0.17535783
57	0x3f6dba77	0.9286265
58	0xbf40dcdc	-0.75337005
59	0xbf6c0a0a	-0.9220282
60	0xbe98f2cc	-0.2987274
61	0x3ed13655	0.40861765
62	0xbf07f312	-0.5310527
63	0x3c622939	0.013803774
64	0xbdcea90e	-0.100908384
65	0x3f10bc1a	0.5653702
66	0x3d73f1df	0.059556838
67	0xbf34ac55	-0.7057546
68	0x3ec259a1	0.37959006
69	0x3eb3104a	0.34973365
70	0x3f90ab9e	1.1302373
71	0xbfc996b6	-1.5749118
72	0xbf8414b6	-1.031882
73	0x3f302355	0.6880391
74	0x3f56ecf7	0.8395533
75	0x3fb99908	1.4499826
76	0xbf80dcfd	-1.006744
77	0x3f6250e5	0.88404685
78	0xbf817523	-1.0113872
79	0x3f31c35d	0.69438726
80	0x3f149f88	0.58055925
81	0xbf8d387e	-1.1032865
82	0xbe274ed3	-0.16338663
83	0xbeb74221	-0.3579264
84	0x3f18b98c	0.5965812
85	0x3e8dc0eb	0.27686247
86	0x3ed96de6	0.42466658
87	0x3f37d1e7	0.7180466
88	0xbf80dfa2	-1.0068247
89	0x3f5239f7	0.821197
90	0xc01536bb	-2.3314655
91	0x3f4fd678	0.8118663
92	0x3e179c6f	0.14805768
93	0xbca943d0	-0.020662218
94	0x3e12bafd	0.14329143
95	0xbf5bb098	-0.85816336
96	0xbf0887b8	-0.5333209
97	0x3fcb24ba	1.5870583
98	0xbee726fe	-0.45146936
99	0x3e531bb1	0.20616032
100	0x3e9eae2d	0.3099226
101	0xbd8e90f4	-0.06961241
102	0x3e2ab7f5	0.16671737
103	0x3f3d6183	0.73976916
104	0x3ec84712	0.39116722
105	0xbf14637e	-0.57964313
106	0x3fdb9e8d	1.7157761
107	0x3f20bd7a	0.6278912
108	0x3c94e516	0.018175643
109	0x3f2882c7	0.6582455
110	0x3d6f6dfe	0.058454506
111	0x3fa1ffb2	1.2656157
112	0x3f938bd4	1.1527047
113	0x3f106b67	0.5641388
114	0xc0037290	-2.0538673
115	0x3e1e063b	0.15432064
116	0xbdc96a4b	-0.09834727
117	0xbf53b14f	-0.82692426
118	0xbfb19409	-1.3873302
119	0xbfc52d14	-1.5404382
120	0x3e844a0f	0.25837752
121	0x3f8c9933	1.0984253
122	0x3f25d1eb	0.64773434
123	0xbfc11409	-1.5084239
124	0xbf424213	-0.7588207
125	0xbbccd678	-0.0062511526
126	0xbe864afa	-0.26229078
127	0xbdd12780	-0.10212612
128	0x3f749a42	0.9554788
129	0x3e0da035	0.13830645
130	0xbf385370	-0.72002316
131	0x3fbcf02d	1.4760796
132	0xbfc848f0	-1.5647259
133	0x3e611737	0.21981512
134	0xbe87f286	-0.26552218
135	0x3fcb40a5	1.5879103
136	0xbeca0157	-0.39454147
137	0x3e4b38b8	0.19845855
138	0xbe0b12d1	-0.13581397
139	0xbfaef405	-1.3668219
140	0xbf5d45a3	-0.8643438
141	0x3f82f933	1.02323
142	0xbeaa230a	-0.33229858
143	0xbeba192a	-0.36347324
144	0x3fc90378	1.5704184
145	0xbfa5ab83	-1.2942966
146	0xbeb97e48	-0.36229157
147	0xbf124331	-0.57133776
148	0x3f8b8fab	1.0903219
149	0x3f391606	0.7229923
150	0xbf4456d7	-0.7669501
151	0x3e72d70b	0.23714845
152	0xbf6fa7db	-0.936155
153	0x3fc0d677	1.506545
154	0xbe1c8469	-0.15284885
155	0x3ea02b33	0.31282958
156	0xbf264357	-0.649465
157	0xbe4b9608	-0.19881451
158	0xbceebeef	-0.029143779
159	0xbe4e1f40	-0.20129108
160	0xbf5a555b	-0.8528649
161	0xbf3d2b44	-0.73894143
162	0x3e0e0b44	0.13871485
163	0xbf8ac3cf	-1.0841006
164	0xbf18884b	-0.59582967
165	0x3f7968d7	0.974256
166	0xbb05f6d8	-0.002044132
167	0x3bed3bc4	0.0072397906
168	0x3fd5cbf8	1.6702871
169	0x3e14ac86	0.14518937
170	0xbfe188dc	-1.7619891
171	0x3fdc17f6	1.7194812
172	0xbe945a7a	-0.28975278
173	0xbf4e6171	-0.80617434
174	0x3ef68adb	0.48152813
175	0xbe403c66	-0.1877304
176	0x3e80d8ec	0.25165498
177	0xbf21fa18	-0.6327224
178	0x3fd20278	1.6407003
179	0x3e6e8a03	0.23294835
180	0xbf1d0274	-0.6133187
181	0x3f591da0	0.8481083
182	0xbf438550	-0.76375294
183	0x3e853a0a	0.26020843
184	0x3f258897	0.64661545
185	0xbe2104c7	-0.15724479
186	0xbfcddea3	-1.6083568
187	0x3f90df4f	1.1318148
188	0xbf964596	-1.1739986
189	0x3f95bdae	1.1698511
190	0xbf2396bc	-0.6390188
191	0xbe80393c	-0.25043666
192	0xbf94ca2f	-1.1624202
193	0xbde46547	-0.111521296
194	0x3eee5c07	0.46554586
195	0xbf7c0225	-0.9844077
196	0xbf3e6137	-0.7436709
197	0x3fdaee1b	1.7103914
198	0x3fdefb02	1.7420352
199	0xbfe5b8c5	-1.7947012
200	0x3ec2a3ab	0.38015494
201	0x3e9f01ed	0.31056157
202	0x3f1e2bed	0.61785775
203	0xbf03876c	-0.5137851
204	0xbe3a2a41	-0.18180181
205	0x3d48d0d8	0.049027294
206	0xbe019bfb	-0.12657158
207	0xbdf4adb6	-0.11947195
208	0xbf3fc68e	-0.74912345
209	0xbf8a92b2	-1.0826018
210	0x3f2aad03	0.66670245
211	0xbede0896	-0.43365926
212	0x3f141849	0.57849556
213	0x3fa3ba8d	1.2791306
214	0xbfdfdecd	-1.7489868
215	0xbdaf873b	-0.08570715
216	0xbfa68bf3	-1.3011459
217	0xbf8c308e	-1.0952318
218	0x401b7b93	2.4294174
219	0xbf275b90	-0.6537409
220	0xbddd1aec	-0.107961506
221	0xbee9bff7	-0.4565427
222	0x3e840e6a	0.25792247
223	0x3ba9ad7b	0.005178151
224	0x3fd2f2ce	1.6480348
225	0xbf13189d	-0.5745943
226	0x3e968b5f	0.29403207
227	0xbf8db35d	-1.1070362
228	0x3f549ed9	0.8305488
229	0xbe4d0a10	-0.2002337
230	0xbf424ac7	-0.7589535
231	0x3f874500	1.0567932
232	0xbf5d268d	-0.8638695
233	0x3f7d7c53	0.9901783
234	0xbe8a01b1	-0.26954415
235	0xbf7c84a1	-0.98639876
236	0xbe31071a	-0.17287865
237	0xbf619197	-0.8811278
238	0x3fb44866	1.4084594
239	0x3ea0f503	0.3143693
240	0x3f1b4590	0.6065302
241	0xbe94def9	-0.29076365
242	0x3ed474e8	0.41495442
243	0x3e918446	0.2842123
244	0xbe09c0bc	-0.13452429
245	0xbf0cd0aa	-0.55005896
246	0xbe8863ed	-0.26638737
247	0xbde45c55	-0.111504234
248	0x3f36e178	0.7143779
249	0xbf8c29a9	-1.0950214
250	0xbfd63437	-1.6734685
251	0xbe80aaf1	-0.25130418
252	0xbf6e0262	-0.92972386
253	0xbee11b95	-0.43966356
254	0x3f9b0ff8	1.2114248
255	0xbf13f44a	-0.5779463

Encoder.SelfAttention.wk.weight f4 [20, 20]
0	0xb98ad629	-0.00026480973
1	0x3f3c73a4	0.73613954
2	0xbde86d1a	-0.113489345
3	0x3f3ee3f9	0.7456661
4	0x3deffd51	0.11718238
5	0xbfe14831	-1.7600156
6	0x3e53decd	0.2069046
7	0x3e7e9436	0.24861225
8	0xbc80c024	-0.01571662
9	0x3e4a322b	0.197457
10	0xbe0ed160	-0.13947058
11	0x3d986eb2	0.074429885
12	0x3e90060b	0.2812961
13	0xbeb1e09d	-0.3474168
14	0x3f871f1d	1.055637
15	0xbfb53983	-1.4158176
16	0x3f9a985b	1.2077745
17	0x3f66971a	0.9007431
18	0xbe700fd3	-0.23443536
19	0xbea31f2c	-0.3185972
20	0x3e3bbb54	0.18333179
21	0xbf7c2cbc	-0.9850576
22	0x3f4f3804	0.8094485
23	0xbf3e02f8	-0.7422328
24	0xbfcc8268	-1.5977297
25	0xbe07c66e	-0.13259289
26	0xbdc88df5	-0.09792701
27	0xbeeda833	-0.46417388
28	0x3eb16c29	0.34652832
29	0x3f88039c	1.0626101
30	0x3f8b10df	1.0864524
31	0x3ed29e25	0.4113628
32	0x3f56f3fc	0.8396604
33	0xbf0936cb	-0.5359923
34	0xbf1e7641	-0.6189919
35	0x3f93d80a	1.1550305
36	0xbfcdc739	-1.6076423
37	0x3f1e89ad	0.61928827
38	0xbe84d87c	-0.25946414
39	0x3ea2493d	0.316965
40	0xbf549353	-0.830373
41	0x3e8444c1	0.25833705
42	0x3de416c6	0.11137156
43	0xbeedafc2	-0.46423155
44	0x3f32ef1a	0.6989609
45	0xbeec71e2	-0.46180636
46	0x3e73b836	0.2380074
47	0x3faa1b60	1.3289604
48	0xbf91350e	-1.1344316
49	0x3fa05cb2	1.2528288
50	0x3e53a17a	0.20667067
51	0xbfd01075	-1.6255022
52	0xbf5ce805	-0.86291534
53	0x3f4bae99	0.7956329
54	0x3fa72ec7	1.306115
55	0xbf8fa7a9	-1.1223041
56	0x3f8546b7	1.0412205
57	0x3f89be79	1.0761253
58	0xbf2ece13	-0.68283194
59	0xbd36a091	-0.04458672
60	0xbf5d12e5	-0.86356956
61	0xbe9e9970	-0.3097644
62	0x3f6ffecb	0.9374816
63	0xbef24f62	-0.4732619
64	0xbe7fe4b0	-0.24989581
65	0x3ee8f093	0.45496044
66	0xbf34c72a	-0.706164
67	0xbe9af8f8	-0.30268073
68	0x3ef2ae90	0.47398806
69	0xbf563041	-0.8366738
70	0x3f28a370	0.65874386
71	0xbf270b9b	-0.65252084
72	0xbf94be7b	-1.162063
73	0x3e19e456	0.1502851
74	0x3f8593d1	1.0435735
75	0xbe1e6711	-0.15469004
76	0xbf5ae217	-0.85501236
77	0x3e9eec28	0.31039548
78	0xbf307f03	-0.68943805
79	0x3fcab296	1.583575
80	0xbf155b0d	-0.5834206
81	0xbd15ba1b	-0.036554437
82	0xbf694e8f	-0.91135496
83	0x3f5e1cbb	0.8676259
84	0x3fad03c2	1.3516772
85	0xbf831c53	-1.0243019
86	0x3fc5154d	1.5397125
87	0xbf1a4479	-0.6026073
88	0xbcd88184	-0.026428945
89	0xbf8db469	-1.1070682
90	0x3e14772c	0.14498585
91	0xbef3a9ac	-0.47590387
92	0xbf59a406	-0.85015905
93	0xbeea81c7	-0.45802137
94	0x3debd705	0.11515621
95	0xbf6ac768	-0.9171052
96	0x3f8d723b	1.1050485
97	0x3e6b4f5f	0.22979496
98	0x3dab2eb3	0.083585165
99	0x3e755c25	0.23960932
100	0x3e05f82e	0.13082954
101	0xbd9c8ad5	-0.076436676
102	0xbf0d3ce9	-0.55171067
103	0x3f5390f8	0.8264308
104	0x3fba1684	1.4538121
105	0x3fb14114	1.3847985
106	0x3f8d0fb6	1.102042
107	0xbf4d1433	-0.80108947
108	0x3f7e9b05	0.9945529
109	0x3ed1db22	0.40987498
110	0x3ee7c712	0.45269066
111	0x3f57e0f1	0.8432761
112	0x3e849316	0.25893468
113	0x3d9b0205	0.075687446
114	0xbe862f2d	-0.26207867
115	0xbf02bbed	-0.51068
116	0x3e4d4cf7	0.20048891
117	0xbf7a6962	-0.9781705
118	0xbf485f2c	-0.7827022
119	0xbfc9b4b3	-1.575827
120	0x3f94d785	1.1628271
121	0xbeadd2d7	-0.3394992
122	0xbe572fce	-0.2101433
123	0xbf562c4d	-0.8366135
124	0xbf80a6b6	-1.0050876
125	0xbfa4db2e	-1.2879388
126	0x3f9214f6	1.1412647
127	0x3f6b0257	0.91800445
128	0xbcbc115d	-0.022957498
129	0x3f59effd	0.8513182
130	0x3f51e76d	0.8199375
131	0xbe500541	-0.20314504
132	0xbf156f3e	-0.5837287
133	0xbe433b05	-0.19065483
134	0x3ffbafec	1.9663062
135	0x3f4bb7d8	0.795774
136	0xbe6bfb96	-0.23045191
137	0x3f08ac04	0.53387475
138	0xbf8cffd4	-1.1015573
139	0xbe93ca44	-0.28865254
140	0xbef5811c	-0.47950065
141	0xbf8b9377	-1.0904378
142	0x3fbe2779	1.4855796
143	0xbe205d95	-0.15660699
144	0x3c7fb4e9	0.015607097
145	0xbe242275	-0.1602877
146	0xbec569c7	-0.38557264
147	0x3f5b1dd7	0.85592407
148	0xbe62bbda	-0.22141972
149	0xbeadc6c8	-0.3394072
150	0x3f11ee22	0.57003987
151	0x3feb89b4	1.8401399
152	0xbee858e9	-0.45380333
153	0xbf880f0a	-1.062959
154	0x3e259419	0.16169776
155	0xbe529d7d	-0.2056789
156	0xbf42dc2c	-0.76117206
157	0x3f6f77b5	0.93542033
158	0xbf07256d	-0.5279148
159	0xbef6b62e	-0.48185867
160	0xbf5072b5	-0.8142503
161	0xbf19c3a8	-0.6006417
162	0xbfb8c9d0	-1.4436588
163	0xbf313b5c	-0.692312
164	0x3e2c2aa1	0.16813137
165	0xbf94decc	-1.1630492
166	0xbe181677	-0.1485232
167	0x40052ae0	2.080742
168	0xbe917424	-0.2840892
169	0x3f18c0df	0.596693
170	0xbe94b3df	-0.2904348
171	0xbe44b0ef	-0.1920812
172	0xbed14818	-0.40875316
173	0xbf1ea2a9	-0.6196695
174	0x3fa8591e	1.3152196
175	0x3d935e78	0.07195753
176	0x3f305df1	0.68893343
177	0x3dfdc3e0	0.12390876
178	0x3f85aa54	1.0442605
179	0xbed4989b	-0.4152268
180	0x3fe69e31	1.8017026
181	0xbfbc5d9b	-1.4716066
182	0x3d86fa61	0.06590725
183	0x3eea9d94	0.45823348
184	0x3f3e8211	0.74417216
185	0xbfb8f1a2	-1.444874
186	0xbf2ef2d8	-0.683393
187	0xbec1e537	-0.3787019
188	0xbf64c7ac	-0.89367175
189	0x3f3d4988	0.73940325
190	0xbe765133	-0.24054413
191	0xbeab3d4f	-0.33445212
192	0x3e78ece2	0.24309114
193	0xbff48847	-1.9104089
194	0xbf92de95	-1.1474177
195	0xbf4ac576	-0.7920755
196	0x3f71ed68	0.9450288
197	0x401e2690	2.4711037
198	0xbf3f5074	-0.74732137
199	0x3f4f11dc	0.80886626
200	0x400b98db	2.1812046
201	0x3e4cc154	0.19995624
202	0xbf30ef33	-0.6911499
203	0x3f072253	0.5278675
204	0xbf07b053	-0.53003424
205	0xbe4921fb	-0.19641869
206	0xbedf4739	-0.43609026
207	0x3f77d7c0	0.96813583
208	0x3eb0f28d	0.34560052
209	0xbf99ed04	-1.2025456
210	0xbeb12eb7	-0.34605953
211	0x3f060927	0.52357715
212	0x40018508	2.0237446
213	0xbe09d7b8	-0.13461196
214	0xbf36ff26	-0.71483076
215	0xbf4050a7	-0.75123066
216	0xbfa43127	-1.28275
217	0x3f031487	0.512032
218	0x3f24b339	0.6433597
219	0xbf170e9d	-0.59006673
220	0xbec8bc77	-0.39206287
221	0xbf3dfad4	-0.7421086
222	0x3f86aad5	1.0520884
223	0x3f836832	1.0266173
224	0x3e9b139b	0.30288395
225	0xbf5fdea2	-0.87449086
226	0xbebcfdfd	-0.36912528
227	0x3fd2bfc2	1.646477
228	0xbf8c3a9e	-1.0955389
229	0xbf1c1dae	-0.6098279
230	0xbf745f21	-0.95457655
231	0x3f2c75c5	0.673672
232	0x3f48f282	0.7849504
233	0xbfae655a	-1.362468
234	0xbddfb75b	-0.10923644
235	0xbf5bfcd3	-0.85932654
236	0xbf59f321	-0.8513661
237	0xbeb351a7	-0.35023233
238	0x3f30ab29	0.6901117
239	0xbe8c427c	-0.27394474
240	0x3eb63157	0.35584518
241	0x3e1fbc39	0.15599145
242	0x3ecdfe89	0.40233257
243	0xbeb97d14	-0.3622824
244	0x3e482e2e	0.19548866
245	0xbfb4e1ba	-1.4131386
246	0x3e86ecee	0.26352638
247	0x3f8b9643	1.0905231
248	0xbf9dfe10	-1.2343159
249	0xbf9a7c3f	-1.2069167
250	0xbfddf27b	-1.7339624
251	0xbeba387b	-0.36371216
252	0xbee2037c	-0.44143283
253	0xbf0fe7a9	-0.5621286
254	0x3e57983b	0.21054165
255	0x3f1c0a3c	0.60953116

Encoder.SelfAttention.wv.weight f4 [20, 20]
0	0xbe32e8d3	-0.17471628
1	0xbf0215f2	-0.50814736
2	0x3ef51a8f	0.47871825
3	0x3e93d68e	0.2887463
4	0x3dcca76c	0.09992871
5	0xbf1a90a9	-0.60376984
6	0x3e5a06d3	0.21291666
7	0x3f77f4be	0.9685782
8	0x3f2e0882	0.6798173
9	0x3f676341	0.90385824
10	0x3f0977dc	0.53698516
11	0xbf83ce90	-1.0297413
12	0x3f024493	0.50885886
13	0x3e3e9f15	0.18615372
14	0x3ff15841	1.8855058
15	0x3d98c48f	0.074593656
16	0x3e8f0c00	0.27938843
17	0xbfcbc896	-1.5920589
18	0xbf716af9	-0.9430385
19	0xbed75cb2	-0.42062908
20	0x3e52387e	0.20529363
21	0x3d168596	0.03674849
22	0x3daaa55d	0.08332322
23	0xbe74dc84	-0.23912245
24	0xbf1c2284	-0.60990167
25	0xbe820802	-0.25396734
26	0x3fe4ffa4	1.7890515
27	0xbeba09d0	-0.3633561
28	0x3ebf7c85	0.37399688
29	0xbd9a6539	-0.07538838
30	0xbd3d0377	-0.046145882
31	0x3f37e6f3	0.71836776
32	0x3fb58f01	1.4184266
33	0xbfae2858	-1.3606062
34	0xbf50acb7	-0.8151354
35	0xbf271579	-0.6526714
36	0x3eb613fe	0.35562128
37	0xbfbc5c80	-1.4715729
38	0xbfa0bf98	-1.255847
39	0xbf066d1b	-0.5251023
40	0xbf4a87bd	-0.7911337
41	0xbc32da85	-0.010916357
42	0x3fa95c85	1.323136
43	0x3eb7e372	0.35915715
44	0x3f2f908f	0.68579954
45	0x3cb271d9	0.021782802
46	0xbf85d5e8	-1.0455904
47	0x3f454e2c	0.77072406
48	0x3eb982b2	0.36232525
49	0x3fb66ee6	1.4252594
50	0xbd685744	-0.056723848
51	0xbf7787b0	-0.9669142
52	0xbfa3a089	-1.2783366
53	0x3e89323c	0.26796138
54	0x3f1e02c3	0.61722964
55	0x3edf077d	0.435604
56	0x3e9ebdc4	0.31004155
57	0xbe6bfcc6	-0.23045644
58	0xbf79bfd6	-0.97558343
59	0xbf0fc40e	-0.5615853
60	0x3ee584d3	0.448279
61	0x3ff6a5d5	1.9269358
62	0xbf37eafc	-0.7184293
63	0x3ea992fe	0.3311996
64	0x3e31afba	0.1735219
65	0x3f0acdc9	0.54220253
66	0xbf80e715	-1.0070521
67	0xbf1ac031	-0.6044951
68	0x3dc296eb	0.095014416
69	0xbeba5737	-0.36394665
70	0x3fbb9d8a	1.4657452
71	0xbbd032c1	-0.0063537066
72	0xbf4dd326	-0.8040031
73	0x4017f233	2.3741577
74	0x3e668622	0.22512105
75	0xbf8f6c6f	-1.1204966
76	0x3f926e04	1.1439824
77	0xbed39da5	-0.4133121
78	0xbfcdbf28	-1.6073961
79	0xbf922ea6	-1.1420486
80	0x3f569982	0.83827984
81	0xbf035a09	-0.5130926
82	0xbc5e332e	-0.013562007
83	0xbfab3ed5	-1.337855
84	0x40062611	2.0960734
85	0x3f73e36f	0.9526891
86	0x3f32b153	0.69801825
87	0xbfa7d8ba	-1.3113015
88	0xbe12d6f6	-0.14339814
89	0x3f56f56c	0.83968234
90	0xbf94b6e8	-1.1618319
91	0x3f3e8dd2	0.7443515
92	0x3f89e7b9	1.0773841
93	0x3eeb9ae4	0.4601661
94	0x3d0b9f67	0.034087565
95	0xbb7c4708	-0.0038494486
96	0xbf02ee0f	-0.511445
97	0x3e0b2903	0.13589863
98	0xbfc80cc1	-1.5628892
99	0x3e177137	0.14789282
100	0x3da7ed3e	0.08199547
101	0xbe3fb1b5	-0.18720134
102	0x3ecc1f02	0.39867407
103	0xbed74dff	-0.42051694
104	0xbe860af6	-0.26180238
105	0x3fec86df	1.8478659
106	0xbe874380	-0.26418686
107	0xbe3a478d	-0.18191357
108	0x402e2818	2.7211971
109	0x3ec4ea9c	0.38460243
110	0xbd050bf2	-0.032482095
111	0xbdbf153f	-0.09330224
112	0x3eb8c7e9	0.3609002
113	0x3f5f3eca	0.87205184
114	0xbdd74ffc	-0.10513303
115	0x3edcac5b	0.43100247
116	0xbf4cd70c	-0.80015635
117	0x3ebd3379	0.36953333
118	0xc046829d	-3.101722
119	0xbe4ecbec	-0.20194978
120	0x3e363afa	0.17795935
121	0x3f2d6689	0.6773458
122	0xbedcfc54	-0.4316126
123	0x3eb3543c	0.35025203
124	0x3fdd2d40	1.7279434
125	0xbf93ae2e	-1.153753
126	0x3f619a1e	0.8812579
127	0x3f2a766e	0.6658696
128	0xbf8226ea	-1.0168126
129	0xbee39fa1	-0.44457725
130	0x3f0fc8ed	0.56165963
131	0xbeed6ee3	-0.46373662
132	0x3e04211c	0.12903255
133	0x3ef8b419	0.48574904
134	0xbe8984f6	-0.26859254
135	0x3eba63da	0.36404306
136	0x3fdc885e	1.7229116
137	0xbf724f1c	-0.9465196
138	0xbebb4cff	-0.3658218
139	0xbfab34bb	-1.3375467
140	0x3c33b0a9	0.010967412
141	0xbf4b89a9	-0.7950693
142	0xbfe5dc3b	-1.7957834
143	0x3f2998db	0.66248864
144	0x401080f1	2.25787
145	0x3f132eef	0.5749349
146	0xbf315bf0	-0.6928091
147	0x3eeab97a	0.45844632
148	0x3fef373d	1.8688732
149	0x3e5b00ba	0.21386996
150	0x3e851ffb	0.26000962
151	0x3ee38d5c	0.44443786
152	0x3f7a6e7e	0.9782485
153	0x3f499423	0.78741664
154	0xbe956c7e	-0.29184335
155	0x3f275f00	0.65379333
156	0x3f8f5d19	1.1200286
157	0xbf6918ca	-0.9105345
158	0xc043208b	-3.0488613
159	0xbfe88cf6	-1.8168018
160	0x3e59147c	0.2119922
161	0x3f0be8b9	0.5465198
162	0xbd433431	-0.047657195
163	0x3f641716	0.89097726
164	0xbe27adb8	-0.16374862
165	0xbeb99247	-0.36244413
166	0xbf13490e	-0.5753335
167	0x3ee3e913	0.4451376
168	0x3f185a9c	0.5951326
169	0xbf4ba691	-0.79551035
170	0xbf36eebd	-0.71458036
171	0x3f045de3	0.5170576
172	0xbc183719	-0.00929048
173	0xbf038b10	-0.5138407
174	0xbe35a062	-0.17736962
175	0x3e945a53	0.28975162
176	0xbdb3ac9d	-0.08773158
177	0x3e1589a6	0.1460329
178	0x3e6beb46	0.23038968
179	0xbf514c40	-0.81756973
180	0x3f255933	0.6458923
181	0x3f8b2f5f	1.0873832
182	0xbf4636ef	-0.7742757
183	0x3e90b9bc	0.28266704
184	0xbf285019	-0.6574722
185	0xbe2a568f	-0.16634582
186	0x3fbb21a0	1.4619637
187	0xbf3aaf44	-0.72923684
188	0x3dbbb450	0.09165251
189	0x40099376	2.1496253
190	0xbe90d9fd	-0.28291312
191	0x3f4cf9a6	0.80068433
192	0xbfa17fc2	-1.2617114
193	0xbf4bf815	-0.7967542
194	0xbf5bba65	-0.8583129
195	0x3e2fa8b7	0.17154203
196	0x3f89a3c6	1.0753105
197	0x3f2a984a	0.66638625
198	0xbefc5716	-0.4928519
199	0xc008f53e	-2.1399684
200	0x3fab5624	1.3385663
201	0x3f602afa	0.8756558
202	0x3ebc6052	0.36792237
203	0x3ec29685	0.38005462
204	0xbe3586f1	-0.17727257
205	0xbd2d631c	-0.042330846
206	0x3f42b7a6	0.76061475
207	0x3f75630b	0.9585425
208	0xbeae4eed	-0.3404459
209	0x3f313e08	0.6923528
210	0x3eaea8df	0.34113213
211	0xbf403748	-0.7508435
212	0xbf0527d1	-0.5201388
213	0xbf7fba59	-0.9989372
214	0x3f6fb28e	0.9363183
215	0xbe2c2d2d	-0.16814108
216	0xbf68f130	-0.9099302
217	0x3f367fd6	0.7128881
218	0xbf5865d6	-0.8453039
219	0xbfb1119b	-1.3833498
220	0xbf7aa3da	-0.9790627
221	0x3e12ce54	0.1433652
222	0x3fceacb0	1.614645
223	0x3f5285bb	0.82235307
224	0x3fbb2c6e	1.4622934
225	0x3e45080d	0.19241352
226	0x3fae6ec6	1.3627555
227	0xbf924381	-1.142685
228	0xbf1ff324	-0.6248038
229	0xbd20c9d3	-0.039254975
230	0x3f9e7bea	1.2381566
231	0xbcca9bc3	-0.024732476
232	0x3d10bb21	0.03533471
233	0x3f8effb3	1.1171783
234	0x3f71a7d9	0.9439674
235	0xbfa0db1a	-1.2566864
236	0xbf67a946	-0.90492666
237	0xbea6084c	-0.32428205
238	0xbf162e5d	-0.58664495
239	0xbf3a719a	-0.7282959
240	0x3f2f0256	0.6836294
241	0x3f182a73	0.5943977
242	0xbf95d004	-1.1704106
243	0xbf654cf4	-0.89570546
244	0x3f313a81	0.69229895
245	0xbe90d076	-0.28284043
246	0x3ed39856	0.4132716
247	0x3f226ee8	0.6345048
248	0xbe605408	-0.21907055
249	0x3f19f289	0.60135704
250	0x3fa2f9f8	1.2732534
251	0xbf271821	-0.6527119
252	0x40694687	3.6449296
253	0xbf47a594	-0.7798703
254	0xc001ee29	-2.0301611
255	0x3f75a8e8	0.95960855
