result/ver7_4/last.pt (torch, 308751 bytes, 81 tensors)

Encoder.encoder_lstm.weight_ih_l0 f4 [128, 6]
000000 2b cb d2 be 06 52 53 3f 60 7f 80 bf 79 1b ce be
       -0.4117063 0.8254703 -1.0038872 -0.40255335
000010 00 a6 83 bf 24 32 9e 3f 40 2f 98 bf 51 4f 0d c0
       -1.0285034 1.2359052 -1.188942 -2.207966
000020 c5 d1 a2 3f 77 61 66 3e c7 6a c7 3f aa 72 83 3f
       1.2720267 0.22498117 1.5579461 1.0269368
000030 b4 d5 50 3e 33 35 9f 3d b8 e4 3b be 82 10 fd 3e
       0.20394021 0.07773819 -0.18348968 0.49426657
000040 59 15 95 3f 8b 2f 89 3f ce 4b 05 3f 53 00 17 3f
       1.164714 1.0717634 0.52068794 0.5898487
000050 ce 80 73 3f b7 7b 03 c0 f5 15 dd bf 09 9b 23 bd
       0.95118415 -2.054426 -1.7272326 -0.039942775
000060 bb 1b 9a bf 5e 54 a3 3f 30 aa 12 bf 7b 9b 1e bf
       -1.2039713 1.2760122 -0.57290936 -0.61955994
000070 ae 77 d9 be c1 1d 9f 3c 6a 83 e7 3d b1 90 da 3f
       -0.4247412 0.019423367 0.11304362 1.7075406
000080 c2 8b c2 3f 92 cd be 3f 64 ed 1a 40 95 d5 cd 3f
       1.5198901 1.4906485 2.4207392 1.6080805
000090 a9 ed a1 3e b8 d0 50 3f 98 bb d2 3f 33 12 8b 3f
       0.31626633 0.8156848 1.6463499 1.0864929
0000a0 c8 b0 b4 3f c3 e5 14 be aa fd 36 bf 0e 2a 89 3e
       1.4116449 -0.14540772 -0.7148081 0.26789898
0000b0 fb 2e 23 bf b3 74 81 40 01 8b 63 40 2d ff ff 3f
       -0.6374356 4.0454955 3.5553591 1.9999748
0000c0 c2 a2 de 3e 43 ae b1 3f bd f5 51 3f 6a aa 54 3f
       0.4348355 1.3881305 0.8201559 0.8307253
0000d0 06 9a cc 3f 65 05 51 40 60 cb d6 be 41 8c 26 3f
       1.5984504 3.2659543 -0.41952038 0.6505776
0000e0 38 78 ea 3e 8c 19 33 3f 26 da 28 3f a8 52 d9 3e
       0.45794845 0.69960856 0.6595787 0.42445874
0000f0 2a e4 29 c0 c0 b2 ea bf 66 a8 a9 bf 26 8f 12 c0
       -2.654551 -1.83358 -1.3254516 -2.289987
000100 f6 72 e7 bf 6f 75 85 3d 2a 37 45 bf 73 45 17 be
       -1.8081958 0.06516539 -0.770373 -0.14772587
000110 1f 63 70 3f d5 66 d0 be a5 24 d0 bf fc ba ee 3e
       0.93901247 -0.40703455 -1.6261183 0.46627033
000120 b2 31 4b 40 d4 de d3 3f fe 1d 1c 3f 72 c6 63 40
       3.1749082 1.6552377 0.60983264 3.5589871
000130 ca 69 bd 3f 9e cd e9 bf 40 92 08 c0 37 e7 03 c0
       1.4797909 -1.8265874 -2.1339264 -2.0609872
000140 61 44 42 bf 2b cc 31 bf 91 d7 eb bd 0b 3f 09 c0
       -0.7588559 -0.6945216 -0.115157254 -2.1444728
000150 bf 8c bb ba 76 f3 bd 3c 7a 05 e6 3e 49 33 8b 3f
       -0.0014308913 0.02318738 0.44926053 1.0875026
000160 db 94 f0 3e 3c 69 0d c0 28 30 8d 3f 85 41 34 be
       0.46988568 -2.209548 1.1030321 -0.17603119
000170 0b 79 36 3f 89 79 a9 bf 22 72 45 bf 24 b4 52 bf
       0.71278447 -1.3240215 -0.7712728 -0.8230612
000180 3a e3 9a bf 3f 4b bf be 46 08 9b 3e d5 64 f3 3f
       -1.2100594 -0.37362096 0.3027975 1.9015146
000190 66 95 83 3f e3 2e 6a 3f 50 f0 9d 3f 63 fe 81 3f
       1.0279968 0.91477793 1.2338963 1.0155758
0001a0 56 7a 61 3e 3c 10 69 bf 81 59 aa 3e 96 71 b8 3f
       0.22019324 -0.91040397 0.3327141 1.4409664
0001b0 fa 75 a2 bf 6a a3 37 c0 70 05 9e bf 5f 0c 8a be
       -1.2692254 -2.869349 -1.2345409 -0.26962563
0001c0 27 f6 de 3e 87 bf 19 c0 ec d9 c5 3e 7b 04 7d 3f
       0.43547174 -2.402315 0.38642824 0.9883496
0001d0 87 58 81 3d 81 17 a4 3f 23 38 e0 3f b4 4b d5 3e
       0.063157134 1.2819673 1.7517132 0.4165932
0001e0 2f f0 aa 3f d0 4d 84 bf 9c 51 39 bf ce 70 84 c0
       1.3354548 -1.0336246 -0.7239015 -4.13877
0001f0 0f 39 8a c0 e1 97 4b bf 0f 36 68 bf 81 47 ba 3f
       -4.319465 -0.79528624 -0.90707487 1.4553071
000200 7e 21 a7 3e 80 88 58 3f bf 50 1d 3f 32 20 78 3e
       0.3264274 0.8458328 0.61451334 0.24231032
000210 ae 3b e2 3e be 06 77 be e8 c1 c2 3f 6f 73 88 3c
       0.44186157 -0.24123666 1.5215425 0.016656606
000220 ba f9 23 bf 78 8f c7 3f 8d c2 e0 be 2c c6 61 3f
       -0.6405293 1.5590658 -0.4389843 0.8819301
000230 09 b9 d7 be aa f1 9b 3f cd 22 32 3f c2 0e 15 40
       -0.42133358 1.2183125 0.6958435 2.3290257
000240 df 9f 93 bf 58 50 b5 be 58 d0 03 bf a2 0e 85 3f
       -1.1533164 -0.3541286 -0.5148978 1.039509
000250 42 27 a8 3f af 40 25 3f 15 e1 49 bf 04 34 81 bf
       1.313698 0.64551824 -0.7885907 -1.0093999
000260 05 d5 1b 3f 56 9d e3 be 35 8e 99 3f 9f 76 8e bf
       0.60871917 -0.44455975 1.1996523 -1.112995
000270 a1 3d 3c 3f 84 b2 ba 3f 5a 81 59 3e 94 2e e7 be
       0.7353154 1.4585729 0.2124075 -0.45152724
000280 63 9f 1c 3e 05 23 ee bb e0 b8 02 c0 fb e5 1c c0
       0.15295176 -0.0072673582 -2.0425339 -2.451537
000290 60 83 8a bf a1 ea 2c c0 d0 54 04 c0 04 02 cc 3f
       -1.0821342 -2.7018206 -2.0676765 1.5938115
0002a0 23 00 a5 3f 90 91 3e bf a0 bb 2f 40 ad c0 6d 3f
       1.2890667 -0.7444086 2.7458267 0.92872125
0002b0 c7 e5 08 40 d2 63 38 3e 45 dc 33 be e4 1c 11 40
       2.1390245 0.18006828 -0.17564495 2.2673883
0002c0 dd 56 f6 be 3f 4a c1 3e a1 98 63 bb fd bf d5 3d
       -0.48113146 0.37751958 -0.0034728425 0.104370095
0002d0 a5 e4 b6 bf 30 bb 77 be 25 4e 83 bf 8f 91 a8 3f
       -1.4288527 -0.241925 -1.0258223 1.3169421
0002e0 aa f2 d4 3f d8 62 16 3f 23 cf 97 3f bb b0 bb be
       1.6636555 0.58744574 1.1860088 -0.36658272
0002f0 47 0d f6 be b8 0d 69 3e 37 53 4a bf 3c 14 bd bf
       -0.48057005 0.2275914 -0.79033226 -1.47718
000300 e5 5e 1e 40 22 b9 83 3f b9 7e 02 40 f1 f6 a3 3f
       2.474542 1.0290873 2.0389845 1.2809736
000310 11 49 f7 bd 59 82 5d be b2 14 ac bf 08 97 b7 bf
       -0.12074483 -0.21631755 -1.3443816 -1.4342966
000320 7c 07 8c 3f d7 81 25 40 a1 54 fd 3f 44 45 82 3f
       1.0939784 2.5860498 1.9791452 1.0177388
000330 4b e1 67 bf a1 a6 9b 3f 1f 20 f7 be 7d f6 31 3e
       -0.90578145 1.2160226 -0.48266694 0.17379184
000340 14 73 32 bf 23 49 90 3f 18 09 fc 3e 86 42 20 3d
       -0.69706845 1.127232 0.49225688 0.03912594
000350 12 f7 34 3f 48 e5 f8 3f 9d f7 0a 40 9e 30 91 bf
       0.706895 1.9444971 2.171363 -1.1342962
000360 c8 09 83 3e d1 86 58 be 6f d0 24 3f 32 8d 8a bf
       0.255934 -0.21145178 0.64380544 -1.0824339
000370 f1 52 32 be ae 62 4a be 90 3a 8d bf 74 e2 17 c0
       -0.17414452 -0.19764206 -1.1033497 -2.3731966
000380 df c6 e7 bd 2c 4f 53 c0 90 a8 24 c0 5a b6 52 bc
       -0.113172285 -3.3017073 -2.5727882 -0.012860859
000390 3a 3b 77 bf 1a 66 19 bf 29 cf 8b bf 7a 28 00 3f
       -0.9657475 -0.5992142 -1.0922595 0.5006176
0003a0 31 87 81 3f 87 f6 04 c0 fc a1 87 bf 4b e0 b7 be
       1.0119382 -2.0775468 -1.0596309 -0.3591331
0003b0 00 18 01 40 f6 8a 97 3e 21 c5 6e bf 8a d2 21 3f
       2.0170898 0.29598206 -0.93269545 0.6321188
0003c0 5e 78 2b bf da f5 d3 bf 47 56 2f 3f ea fd 0d 40
       -0.6698054 -1.6559403 0.68491024 2.2186227
0003d0 bd 0c 36 3f 13 58 0c 3f e0 cf ae bf 08 08 a6 bf
       0.7111319 0.5482189 -1.3657188 -1.2971201
0003e0 e1 1d 89 bf 73 1c db 3d 4c 70 0a 3f 19 e6 41 bf
       -1.0712243 0.10698786 0.540776 -0.75741726
0003f0 f7 a8 78 bf 73 5e 95 3e df b4 23 bf ab d8 86 40
       -0.9713282 0.29173622 -0.6394786 4.2139487

Encoder.encoder_lstm.weight_hh_l0 f4 [128, 32]
000000 f7 6d b6 be a0 eb fc bf e9 1f 10 c0 82 d1 06 40
       -0.35630772 -1.9759407 -2.2519476 2.1065373
000010 5d 28 c4 be 57 72 92 bf d2 2d 05 40 73 8c 60 bf
       -0.38312045 -1.1441144 2.0809216 -0.8771431
000020 fa d4 be be b2 ae 8c 3f b2 8d 18 40 bf 1c 5e 40
       -0.37271863 1.0990813 2.3836484 3.4705045
000030 72 37 ab 3f f2 1d 4b bf 73 60 22 40 c2 29 25 c0
       1.3376296 -0.7934257 2.5371368 -2.5806737
000040 08 47 60 bf fd 94 9a bf 51 4d 3d 3f 25 c9 e7 bf
       -0.87608385 -1.2076718 0.739461 -1.810826
000050 91 3b 59 40 c5 82 99 3f a1 e5 5f be 0f 26 af 3f
       3.3942606 1.1993033 -0.2186494 1.368349
000060 07 fd 81 bf 1a 97 30 bf a8 fa 9e bf 50 39 0b 3f
       -1.0155343 -0.6898056 -1.2420244 0.54384327
000070 43 ae 0e c0 dc d2 6b 3d 4c 6e fb be 6c 89 8d 3f
       -2.229386 0.057574138 -0.49107587 1.1057563
000080 ad 8c 08 bf 11 3a 64 bf d4 0e a8 3f 07 3d 0c be
       -0.53339654 -0.891511 1.3129525 -0.13695155
000090 eb b0 47 be d6 57 e1 be 7b ac b6 3e e5 81 b5 be
       -0.19501083 -0.44012326 0.35678467 -0.35450664
0000a0 a6 f7 2c 40 91 ee 3c be de 05 1e c0 00 8d 87 3f
       2.7026153 -0.18450381 -2.469108 1.0589905
0000b0 5c 78 89 bf 7c 18 12 c0 e5 d0 f8 bf 27 44 8c 3f
       -1.0739856 -2.2827444 -1.943875 1.0958298
0000c0 25 9d b0 3f 96 60 14 3f 05 5f 3e 3f 3b 34 7d bf
       1.3797957 0.5795988 0.7436374 -0.9890782
0000d0 4c 8b f6 bf 87 6e f4 3e f0 ad f4 3b ab f3 ba 3e
       -1.926126 0.47740576 0.007467024 0.3651403
0000e0 37 a5 62 3f df 26 48 bf bc fd ba be 80 ed 4c bd
       0.8853335 -0.7818431 -0.3652171 -0.050031185
0000f0 16 50 aa bf fc ff 58 bf 6a a1 a7 3f 6b 0e 08 c0
       -1.330569 -0.847656 1.3096135 -2.12588
000100 ae a9 e9 be d8 4e 94 bd 89 7c 7f bf a1 6c f3 3d
       -0.45637268 -0.07241601 -0.997994 0.11885954
000110 28 b4 78 3e 07 dd 85 3f 7e f4 25 be 68 e6 c4 be
       0.24287474 1.0458077 -0.16206548 -0.38457036
000120 4a e7 7b be d1 b9 40 3f 6a 99 04 bf 47 5c 92 bf
       -0.24599949 0.75283533 -0.5179659 -1.1434411
000130 38 74 43 3f 71 1f 92 3c 48 b5 08 40 a4 3f 18 be
       0.7634921 0.017837258 2.1360645 -0.14868027
000140 2b a1 72 3f e0 75 84 3f 74 16 98 3f f1 f2 52 3f
       0.9477717 1.0348473 1.1881852 0.8240195
000150 4b dc 4b bf 5f f3 87 3f ac 42 3d bf ca 53 77 3f
       -0.79633015 1.0621146 -0.7392986 0.96612227
000160 5c a9 9c bf 37 ec 25 bd 55 f2 ac 3f 0a 19 a8 bf
       -1.2239184 -0.040508475 1.3511454 -1.3132641
000170 2b 53 b5 be a6 c8 95 bf f0 79 9e bf 78 71 68 bf
       -0.35415015 -1.1701858 -1.2380962 -0.9079814
000180 c2 a8 a3 be 46 46 77 bf de b9 8f bf 84 eb 42 3e
       -0.3196469 -0.96591604 -1.1228597 0.19035155
000190 3a 9a b9 3f b0 66 0d be d2 56 a0 bf 93 53 83 bf
       1.4500191 -0.13808703 -1.2526495 -1.025988
0001a0 c1 18 c2 3e cb 9b 96 bf 73 c3 eb be 3f 21 c9 3f
       0.3790951 -1.1766294 -0.46047553 1.5713271
0001b0 b7 75 18 c0 5e fd 6a 3f 82 90 a0 bf ec 48 9d bf
       -2.3821847 0.9179286 -1.25441 -1.2287879
0001c0 d2 6d 9f bf 07 a0 62 bf 5a db 2f 3f b3 aa 14 c0
       -1.245539 -0.8852543 0.6869408 -2.3229187
0001d0 82 2b 3f 40 80 65 04 bf f2 aa de bf 9c 66 a8 be
       2.9870305 -0.51717377 -1.7395918 -0.32890785
0001e0 0b e3 86 bf 4f 9c bb bf 5f 6e 7c 3f 29 e8 ba be
       -1.0538038 -1.4657077 0.9860591 -0.3650525
0001f0 6f 4e 85 bf 63 a8 23 40 3e e0 24 bf c2 fb 3e bd
       -1.0414561 2.5571525 -0.64404666 -0.046626814
000200 a3 54 01 c0 a0 10 b8 3e 09 01 14 bf 5d 87 13 bf
       -2.0207908 0.35950184 -0.5781408 -0.5762842
000210 23 9c 85 3f f3 e2 19 40 bc 2a 89 3f cf f0 78 3f
       1.0438274 2.404477 1.0716166 0.97242445
000220 33 b9 fe bf ff 5c 31 3f 21 a6 ae bd 64 60 9d 3f
       -1.9900268 0.69282526 -0.0852778 1.2295041
000230 fd f9 3e bf 14 28 ef 3f 97 28 eb 3f 2e 3a 2a bf
       -0.746002 1.8684106 1.8371762 -0.66495025
000240 cf bc 04 3f 4e ce 4b bd 57 79 c4 3f 59 b2 06 be
       0.518506 -0.049757294 1.534953 -0.13153972
000250 a6 e7 84 bf f3 d1 5a 3f 34 4f ca 3e d4 b0 c5 3f
       -1.0383193 0.8547661 0.39513552 1.5444589
000260 7b ce 8d bf 52 43 17 c0 79 c4 8b be fe 9e b0 3f
       -1.1078638 -2.363484 -0.27298334 1.379852
000270 3a 23 41 be cd 82 7f bf a6 53 52 3f aa bf f2 3e
       -0.18861094 -0.9980896 0.8215889 0.47411853
000280 f0 3d 76 3f 4b 32 45 3f 30 f8 b0 3f 48 16 31 3e
       0.9618826 0.77029866 1.3825741 0.17293656
000290 d5 92 ce 3f bd c4 40 bf 54 96 0f bf 73 7c 4d bf
       1.613856 -0.753002 -0.5608876 -0.8026802
0002a0 50 bc ea be 84 2a 8e be 20 cd 31 be 70 09 54 3f
       -0.45846796 -0.27766812 -0.17363405 0.828269
0002b0 eb f4 81 bf f3 a7 d5 3f 45 1d b1 bf f4 e5 a9 bf
       -1.0152868 1.6691879 -1.3837057 -1.3273301
0002c0 60 d1 3e c0 80 8d 10 40 ac 38 0b 3f b1 ce d2 be
       -2.9815292 2.2586365 0.5438335 -0.41173318
0002d0 e1 50 8f 3f 07 f5 c1 3f 2c e9 19 c0 69 cb 20 40
       1.1196557 1.5152901 -2.4048567 2.5124152
0002e0 1d 34 46 bf 4c 7c ae be 82 77 03 40 09 14 ef be
       -0.7742327 -0.34079206 2.0541692 -0.46694973
0002f0 18 43 ec bf 78 67 b9 3f 75 42 42 bf b1 5f 71 3e
       -1.8457975 1.4484701 -0.75882655 0.2357166
000300 9a f8 0e bf 1a fb 3f 3d ed 0a 07 3f bd 1f 97 bf
       -0.55848086 0.04687033 0.52751046 -1.1806561
000310 c0 64 35 3f c0 5b d5 3e 5e c2 0c 3e 2c b1 f1 bd
       0.7085686 0.41671562 0.1374602 -0.11801371
000320 2f 41 c3 3e 3e 9a d5 be 58 32 72 bf bf cc 8f bf
       0.3813567 -0.4171924 -0.9460807 -1.1234359
000330 ce 64 81 bf 36 75 8c 3f 64 cb 78 3f b9 90 99 3e
       -1.0108888 1.097327 0.9718535 0.29993227
000340 7b e4 3c be d0 e1 78 3e 0f 66 b5 3f 83 12 ac bf
       -0.18446533 0.2430489 1.4171771 -1.3443149
000350 c7 fe db bf 8c e6 e9 3f 7d 87 45 3e 4b 30 dc 3f
       -1.7187127 1.8273482 0.19289966 1.7202238
000360 9e 83 4f 3d 44 db a7 3f 53 95 af 3f 5a 41 1b c0
       0.05066263 1.311379 1.3717445 -2.4258637
000370 4d 98 60 bf 95 f9 f0 3e 7c c2 b1 bf a1 8c b2 3e
       -0.8773239 0.47065416 -1.3887477 0.34872916
000380 69 09 da bf 70 86 c1 3f cb 6a a1 3e e2 53 0b bf
       -1.7034122 1.5119152 0.3152679 -0.5442487
000390 42 be a9 3e 15 b8 ce 3f d4 c2 b2 3f b7 00 ba bf
       0.33152968 1.6149927 1.3965707 -1.4531468
0003a0 a4 ab 61 3f 36 e8 c7 be 15 a7 fa 3e 2c 6b dd bf
       0.8815253 -0.3904435 0.48955598 -1.7298331
0003b0 f5 04 2d 3f a8 d4 96 bf 8e e2 14 c0 d0 d6 64 be
       0.6758569 -1.1783648 -2.3263278 -0.2234757
0003c0 15 5e d0 bc d7 7e a5 bc dc a8 9e 3f 7f 9e 20 bf
       -0.025435487 -0.020202084 1.2395282 -0.62741846
0003d0 9d 7c ef bd d9 8b 25 3d ba 5f 42 bf 98 66 86 be
       -0.1169369 0.040416572 -0.7592732 -0.26250148
0003e0 43 b1 df be 32 be 38 c0 67 19 20 3f a3 7c 1a bf
       -0.43689927 -2.8866086 0.6253876 -0.6034643
0003f0 4f a7 7b bc 28 e5 6b be fb 94 4a 3e 4c 4c 2b 3f
       -0.015359714 -0.23036635 0.19783394 0.66913295

Encoder.encoder_lstm.bias_ih_l0 f4 [128]
000000 a5 85 3b bf 8a 55 21 bf 3d 90 43 3e e4 c2 21 bf
       -0.732508 -0.6302115 0.19097991 -0.63188004
000010 d0 ed 89 be 27 5e 59 bf 4f 70 a2 bf 5e cd f1 be
       -0.2693925 -0.8490929 -1.2690524 -0.47226995
000020 83 b3 7e bf c6 3d 73 bf b2 9e 9d bf 95 15 60 bf
       -0.99492663 -0.95016134 -1.2314055 -0.8753293
000030 49 5b 8c be e5 cb 36 bf 9c 14 84 be a2 7c 05 bf
       -0.27413395 -0.7140487 -0.25796974 -0.521433
000040 d2 76 02 c0 97 70 a1 bf 9e 23 4b bf 68 77 23 bf
       -2.0385022 -1.2612485 -0.7935122 -0.63854074
000050 d5 28 1f bf 25 b4 40 bd a5 49 a2 be c2 90 98 bf
       -0.6217168 -0.0470468 -0.3169681 -1.1919177
000060 4b 35 90 be 20 18 54 bf f8 c8 8b be 3a 18 3c bf
       -0.2816566 -0.8284931 -0.27301764 -0.73474467
000070 2d 36 ea be 01 7b 61 3f 6c ce d7 be 85 7d 12 bf
       -0.45744458 0.88078314 -0.42149675 -0.5722278
000080 48 20 0c be 4c 64 31 be 25 be 9a bf 6b 57 b0 3d
       -0.1368419 -0.17323416 -1.2089278 0.08610424
000090 97 7f d3 3d 63 7d 7a 3d d8 b3 eb 3d d7 60 56 bf
       0.1032707 0.061154734 0.11508912 -0.83741516
0000a0 9b 14 b7 3e 12 4f 1e 3d cb 92 41 bf 5c 3a 4f 3f
       0.35757908 0.038649626 -0.75614613 0.80948424
0000b0 6e 07 1b be 9f 05 1f 3f c9 01 37 3e 39 59 d9 3e
       -0.15139553 0.6211795 0.17871775 0.42450884
0000c0 93 d7 7c bf 76 d5 88 bc 98 17 08 bf f4 16 04 3e
       -0.9876644 -0.016703349 -0.53161 0.12899381
0000d0 a6 39 4a bf 4f 80 fc 3e f7 ee f6 be 87 90 15 bf
       -0.78994215 0.49316642 -0.4822919 -0.58423656
0000e0 66 16 44 3e c2 e0 40 3e 6d 3a 96 be 3b aa 9a bf
       0.1914917 0.18835738 -0.2934145 -1.20832
0000f0 21 54 5b bd 07 5c 04 bf 0b 6c 40 bf 2e eb 62 be
       -0.05354703 -0.5170292 -0.7516486 -0.22160026
000100 33 9b 96 be 4f 55 95 3d 85 de 07 3e 6f f1 a2 bd
       -0.29415283 0.07291662 0.13268478 -0.07956206
000110 be cc 81 be 8b 9b 7d be 24 0b 93 3e ed a4 92 3d
       -0.25351518 -0.24766366 0.28719437 0.07160363
000120 51 3d 5f be fd f9 aa bc 53 17 c2 be f7 2a 88 bd
       -0.21800734 -0.020871157 -0.3790842 -0.0664882
000130 51 27 e1 3d 25 12 9d 3e 0d ec 6f bd 85 1a ea 3d
       0.10993827 0.30677906 -0.058574725 0.114308394
000140 65 63 82 be 1b 3e e8 3d 73 1c 29 be ba b9 64 be
       -0.25466457 0.11339971 -0.16514759 -0.22336474
000150 f1 89 61 be 81 25 24 be 4f 2a 12 3d 89 07 fe be
       -0.22025277 -0.16029932 0.03568488 -0.49615124
000160 c3 42 a0 3e bf 66 3b bf db d8 0c 3e c2 be bb be
       0.31300935 -0.73203653 0.13754599 -0.36668974
000170 0f 0f 13 3d 60 ff be bc 97 6b 3c 3e f1 1f b5 be
       0.035903033 -0.023315132 0.18400417 -0.35375932
000180 f6 3e 06 c0 a9 0d 66 bf e8 24 9d 3e a4 75 88 be
       -2.0975928 -0.89864594 0.3069222 -0.26652253
000190 8d d8 00 be 52 dd cd be 06 42 f1 bd 63 0a 15 bf
       -0.12582608 -0.40207916 -0.11780171 -0.58218974
0001a0 e0 4c 59 bf ba ec 89 bf cd 6f 0c c0 9b 43 c5 bf
       -0.84882927 -1.0775368 -2.1943238 -1.5411257
0001b0 d2 25 93 bd 6e 5f 83 bf 46 55 58 bf 59 3e b4 37
       -0.07184948 -1.0263498 -0.84505117 2.1486705e-05
0001c0 3d d9 f6 bf 55 24 8d be e5 09 8f bf ec d8 7c bf
       -1.9285046 -0.27566782 -1.1174895 -0.98768497
0001d0 7b 0f 25 bf 6e 79 33 bf 4d 33 2d bf b9 c9 09 bf
       -0.64476746 -0.7010716 -0.67656404 -0.5382343
0001e0 17 76 13 bf ac 49 7d c0 9e 9a 1a bf e7 ef f9 3d
       -0.57602066 -3.9576216 -0.6039218 0.12203961
0001f0 32 66 82 bf 7d 05 76 bf e8 de 01 c0 fe 39 26 3e
       -1.0187438 -0.96102124 -2.02923 0.1623306

Encoder.encoder_lstm.bias_hh_l0 f4 [128]
000000 04 67 5b bf 46 1d 39 bf 10 53 69 3e 04 81 e4 be
       -0.85704064 -0.7231029 0.22785592 -0.4462968
000010 c2 59 9e be 36 4a 83 bf 60 c4 9e bf 30 b4 23 bf
       -0.30927855 -1.0257022 -1.2403679 -0.6394682
000020 ea 41 3c bf 23 46 32 bf 1d 17 84 bf 7e 0a 39 bf
       -0.73538077 -0.6963827 -1.0319554 -0.72281635
000030 99 88 23 be 8b 49 3a bf 28 fa b7 be ba 87 19 bf
       -0.15970077 -0.7276847 -0.35933042 -0.5997273
000040 91 56 02 c0 bb 8f 98 bf d3 f0 2c bf e9 62 3d bf
       -2.0365336 -1.1918863 -0.6755497 -0.7397905
000050 09 cb 10 bf 12 b0 b3 3c 8e a7 d9 be 25 1f ab bf
       -0.5655981 0.021934543 -0.42510647 -1.336888
000060 80 ff ba be b8 fc 5e bf 84 11 67 bd 47 35 28 bf
       -0.36523056 -0.8710437 -0.05641319 -0.65706295
000070 c1 93 37 bf 52 c3 4c 3f 97 8e 00 be 60 de 0c bf
       -0.7170983 0.79985535 -0.12554394 -0.5502682
000080 a8 f4 dc bc 79 ec 79 be c5 09 99 bf 6a 36 23 3e
       -0.02697213 -0.24406613 -1.1956106 0.15938726
000090 5b 3e b1 3e 6d 14 5b 3d ba 37 b1 3e 50 85 26 bf
       0.34617886 0.053486276 0.34612828 -0.6504717
0000a0 0a e0 85 3e 10 98 46 3e 43 8f 03 bf 07 be 8a 3f
       0.2614749 0.19393945 -0.51390475 1.0839242
0000b0 3d fd cd be 64 43 2c 3f e3 21 33 3e 88 29 7d 3e
       -0.40232268 0.6729033 0.17493396 0.24722874
0000c0 f2 ef 83 bf 0a f5 b5 bd 52 04 17 bf 0c df 37 be
       -1.03076 -0.08884628 -0.5899097 -0.1795618
0000d0 21 35 2f bf ac ec 09 3f 65 e5 1d bf 23 cb 3b bf
       -0.68440443 0.5387676 -0.61678153 -0.7335684
0000e0 ed 1c fe 3d 42 c6 30 bc 11 05 d4 be e3 31 90 bf
       0.12407861 -0.010789456 -0.41410115 -1.1265224
0000f0 f4 ce c8 bd 8b 5c 07 bf 9f 51 fd be 91 06 a9 be
       -0.09805098 -0.52875584 -0.49476334 -0.33012822
000100 df c2 c9 be 1b 12 00 3e 14 cb fd bc 9e 5f 00 3e
       -0.39406487 0.12506907 -0.030980624 0.12536475
000110 b5 9a 45 be 20 e5 ab 3d e1 c2 ed 3d 56 67 6c bd
       -0.19297297 0.083933115 0.11609436 -0.057715736
000120 44 ea 07 be b2 a5 3f be 8f 28 36 be 05 65 93 bd
       -0.13272959 -0.18715551 -0.1778891 -0.07197002
000130 04 15 80 3e a4 96 1e 3d b1 22 28 bc cd 3c 1d 3e
       0.25016034 0.03871788 -0.010262177 0.15355225
000140 a1 37 a3 be 2d c1 3f be 59 7b 72 be 45 d5 01 bc
       -0.3187838 -0.18726034 -0.23679866 -0.007924383
000150 ce ad 9c be 4b f4 26 3e fd b7 c0 bd e5 0c ee be
       -0.30601352 0.16304128 -0.09410093 -0.46494213
000160 2f 49 04 bc 9e 65 5f bf 73 fd ce 3c e2 ac b6 be
       -0.008074089 -0.8726443 0.025267338 -0.35678774
000170 c6 57 7d 3d 91 b8 02 be f8 20 37 3e 3f 75 94 be
       0.061851285 -0.12765719 0.1788367 -0.28995702
000180 49 23 0c c0 75 33 1e bf c1 69 8a 3e dd 81 6f bd
       -2.1896536 -0.6179727 0.2703381 -0.058473457
000190 5f 43 87 bd d9 06 fc be f9 37 52 bd 2c 2b 3f bf
       -0.06604647 -0.49223974 -0.05132291 -0.7467525
0001a0 fc c3 75 bf 99 b7 66 bf db 14 12 c0 3f 9b 9b bf
       -0.96002173 -0.901239 -2.282523 -1.2156752
0001b0 c3 ef a3 3c 3a 5c a0 bf ac 5e 84 bf 76 89 73 bc
       0.020011788 -1.2528145 -1.0341392 -0.014864316
0001c0 5a a4 d8 bf cf 89 ab be 15 c5 8e bf 1d de a6 bf
       -1.6925156 -0.33503577 -1.1153895 -1.3036534
0001d0 77 2b 26 bf cf ec 2e bf 0e 3d 58 bf 16 d1 16 bf
       -0.6491007 -0.6833009 -0.8446816 -0.5891279
0001e0 95 e2 1c bf b3 2a 75 c0 e5 56 22 bf cd 82 32 3e
       -0.61283237 -3.8307312 -0.6341384 0.17432709
0001f0 38 d2 82 bf f3 a2 83 bf 1b 0d f7 bf bd cf 1c 3e
       -1.0220404 -1.0284103 -1.9300874 0.15313621

Encoder.encoder_attn.0.weight f4 [20, 84]
000000 37 93 22 40 8f 26 a9 be c5 2e 69 bf 36 68 ad 3e
       2.5402353 -0.3303723 -0.9108699 0.3386857
000010 a1 aa 96 3f 39 6a 75 bf 7d b0 a6 3f bf 69 dd 3f
       1.1770822 -0.9586521 1.302261 1.7297896
000020 76 b7 58 bf 6c fb fa 3f cf 07 92 3e f6 cc 4e 3f
       -0.8465494 1.9607978 0.28521582 0.80781496
000030 70 75 19 3f ab 9b 59 40 b2 ea 62 3e 79 ae 34 3d
       0.5994482 3.4001262 0.22159842 0.044111703
000040 1a fb b4 3f c5 f5 58 3f ef 91 a4 3f 3c f6 46 be
       1.413913 0.84750015 1.2857035 -0.19429868
000050 92 5a e8 bd 80 5e 0c 3f 74 56 31 c0 0f 0f fd 3d
       -0.113454 0.54831696 -2.7709017 0.12356388
000060 e9 a2 8d 3f bb f1 90 3f 7e 30 76 3f 67 6a 27 3f
       1.1065341 1.132377 0.96167743 0.6539673
000070 37 a4 25 3f 67 bb 85 bf e9 d3 93 bf ac 87 e1 bd
       0.64703697 -1.0447816 -1.1549045 -0.110122055
000080 ae 60 d1 3e 9c a5 3a 3f 39 5f ad be 19 6e 83 bf
       0.40894073 0.7290895 -0.33861712 -1.0267974
000090 78 76 19 3f c7 35 a1 3c 54 aa f8 3e be 78 a4 3f
       0.59946394 0.019678963 0.4856745 1.2849348
0000a0 62 54 19 3f 1e e7 17 40 3b a6 4d bf 26 13 35 3f
       0.5989438 2.3734813 -0.8033177 0.70732343
0000b0 4a 32 0e bf 69 99 94 3d 7f 6d 3c 3e ce f5 db bd
       -0.55545485 0.07255823 0.18401144 -0.10740243
0000c0 3f 59 9a 3e 81 72 2f 3e cd 7e f5 be 07 5c 51 bd
       0.30146214 0.17133524 -0.47948304 -0.051113155
0000d0 84 99 73 be 8f 64 eb be aa 5a ba bf 19 6a 85 3e
       -0.2378903 -0.45975158 -1.4558918 0.2605751
0000e0 e4 3a ec be a9 a6 89 3f 60 27 c5 3f 2a 7c ee 3f
       -0.4613868 1.0753986 1.5402641 1.8631642
0000f0 73 d3 4f 3f 28 9e 17 be bc c5 59 3f cb 14 5f bf
       0.8118202 -0.14806426 0.85067344 -0.871411
000100 3f 2d ef be 31 bf e4 3c 1d f8 9b 3e 13 11 27 c0
       -0.46714208 0.027923198 0.30462733 -2.6104171
000110 d1 37 98 bd 15 97 02 3e ea a2 86 bf 19 6a 80 bf
       -0.07432521 0.12752946 -1.0518467 -1.0032378
000120 f5 45 cd bd 71 3b 35 bf 76 84 e0 be e7 e7 37 3f
       -0.10023109 -0.70793825 -0.4385106 0.7183823
000130 32 f9 63 bf 05 97 af 3e 7f ba dc bf f8 bc 92 3f
       -0.89052117 0.34294906 -1.7244414 1.1463919
000140 6f 6c a4 3e e5 72 81 bd 1d a5 17 bf 6b fa e6 3f
       0.32113978 -0.063207425 -0.5923632 1.8045171
000150 32 8b ed bf 8c 8a c7 3f ea f9 09 40 aa db 89 bf
       -1.8558104 1.5589156 2.1558785 -1.0770161
000160 1f d1 06 c0 27 c3 f6 bd a9 d8 64 bf ea 44 da 3f
       -2.1065137 -0.12048941 -0.893931 1.7052281
000170 22 90 98 3f 24 ca 48 bc 83 6f f1 3e e8 63 c7 3e
       1.1918986 -0.012255225 0.4715539 0.3894341
000180 5d d1 99 3f fd 7a 8f 3f 6f c6 90 c0 cc 74 8d 3f
       1.2017018 1.1209408 -4.524223 1.1051269
000190 24 e6 f3 bf 76 13 07 3f e8 a9 0a 3f a3 ad 5c 40
       -1.9054608 0.5276407 0.54165506 3.448098
0001a0 dc 0b 6f 3f 57 f0 e8 bf 41 6f 44 bf 8a 16 10 bf
       0.9337747 -1.8198346 -0.7673226 -0.5628439
0001b0 b1 ec 22 40 7a 63 a0 bf 9f 33 d3 be b1 05 8a bf
       2.5456965 -1.2530358 -0.4125032 -1.0782987
0001c0 80 95 d3 3f 1a 79 aa bf 39 f5 a0 be 97 96 59 3f
       1.6529999 -1.3318207 -0.3143709 0.84995407
0001d0 21 c7 91 be 21 87 55 3f b3 d6 c2 3f aa f2 fc be
       -0.28472236 0.83409315 1.5221771 -0.49403888
0001e0 f3 e8 02 c0 e6 dd 05 3f 65 da c3 be 3c 35 47 3f
       -2.045468 0.52291715 -0.3825256 0.77815604
0001f0 30 a7 82 3f 64 12 40 bf 9b 8d 44 bf 2d ba 9b 3f
       1.0207272 -0.7502806 -0.7677857 1.2166191
000200 c0 03 a5 3f 97 92 6a 3f 12 88 c2 bf 24 72 6f 3f
       1.289177 0.9162993 -1.5197775 0.9353354
000210 0a 31 12 c0 26 36 50 3f a0 74 c2 bc fd 5b bb 3f
       -2.284243 0.81332624 -0.023737252 1.4637448
000220 c2 33 24 3f fd cd a5 bf 33 e3 17 3f ff 7f 49 bd
       0.64141476 -1.2953488 0.59331053 -0.049194332
000230 87 2f 00 40 f4 25 ec bd 7b c5 f7 be 65 43 9f be
       2.0029008 -0.115306765 -0.48392853 -0.31106105
000240 30 74 cf 3f 88 f3 ac 3e be 20 f5 bd 5c 7c 56 3f
       1.6207333 0.3377955 -0.11969136 0.8378351
000250 82 9f 0a bf 19 83 0e bf 4e 80 45 bf 7d 71 dd 3e
       -0.5414964 -0.5566879 -0.771489 0.43250647
000260 90 95 8a be f5 e6 76 3e 1f ce 9f be 2e 96 03 bf
       -0.27067232 0.2411154 -0.31211945 -0.5140103
000270 7f b9 d9 be a4 9c fb 3e 8f b5 5f be 59 d5 0c be
       -0.42524335 0.49142945 -0.21846603 -0.1375326
000280 ca f6 89 3e 16 97 89 bf fe 10 45 be 4c a7 93 bf
       0.26946098 -1.0749233 -0.19244763 -1.153543
000290 90 3e 3f bd ca aa 30 3d a4 ed e6 3e 74 c7 1e 40
       -0.046690524 0.043131627 0.4510318 2.4809237
0002a0 19 c0 00 c0 18 9e 25 3f fb de db bf 4a 3a 3d bf
       -2.0117247 0.64694357 -1.7177423 -0.7391707
0002b0 86 c5 ab 3f f9 b3 ce 3f 9e 57 88 bf c6 3e d4 bf
       1.3419654 1.6148673 -1.0651739 -1.6581657
0002c0 77 86 30 c0 2f d5 be bf b7 e8 c5 bf 36 6a 57 3e
       -2.758207 -1.4908808 -1.5461644 0.2103661
0002d0 c6 d3 b8 3d 39 37 29 bf 34 2c ad bf c0 80 19 40
       0.090247676 -0.6609989 -1.3529115 2.3984833
0002e0 f9 04 e7 be c5 36 8c bf 52 7f 6c be c4 af bc 3e
       -0.4512098 -1.0954214 -0.23095444 0.3685285
0002f0 7f cc a9 3f c3 a2 45 3e c2 0c 1f 3f f8 a2 2e 3e
       1.3265532 0.1930037 0.6212884 0.17054355
000300 26 ac cf 3e e6 5d c2 bf e4 04 91 be 16 14 8a bf
       0.40561026 -1.5184906 -0.28324044 -1.078738
000310 a1 e1 cc 3f 4a e3 e0 3f a0 a8 51 3f 71 7c 38 3c
       1.6006356 1.7569363 0.81897926 0.011260138
000320 f6 fb 25 bf a1 d4 07 3f 2b 1e d4 bf b1 a3 82 bf
       -0.64837587 0.5305882 -1.6571707 -1.0206205
000330 18 64 29 3e d6 18 2d 40 f8 c4 b1 bf da 97 20 bf
       0.16542089 2.7046409 -1.3888235 -0.6273171
000340 3e b2 df bf d4 ad ed bf c9 b0 f2 be 3a 41 d3 be
       -1.747627 -1.8568673 -0.474005 -0.412607
000350 1b 0d 29 bf e8 9c 9e be 3f ca 10 3f 0b 1d a8 3f
       -0.6603562 -0.30979085 0.56558603 1.3133863
000360 c8 d8 ce bf 31 f1 81 bf 95 d5 32 bf 83 0d 4c be
       -1.6159906 -1.0151731 -0.6985715 -0.1992703
000370 a7 5b 43 3f e8 a8 5d be e3 2a 30 3f db 2a 30 bd
       0.76311725 -0.21646464 0.6881544 -0.04300962
000380 62 1a 30 be f0 c5 f9 bf c5 81 2b be 07 e7 61 bf
       -0.17197564 -1.9513531 -0.16748722 -0.88243145
000390 17 f9 db 3f 21 ad 4f 3f 4c 05 81 3f db 9c 44 be
       1.7185391 0.8112355 1.0079741 -0.1920046
0003a0 10 03 06 3e ca a4 bc be 6e fb d7 3c 91 ae e6 be
       0.13087106 -0.36844474 0.026365008 -0.4505506
0003b0 ea 26 2f 3e 78 5b ac bd 50 fc b8 3e be 8c 76 3f
       0.17104688 -0.08415884 0.3613 0.96308506
0003c0 60 e8 8e be f7 82 27 3d 2d 3b 26 bf 21 2a 18 3f
       -0.27911663 0.040896382 -0.64934045 0.59439284
0003d0 28 28 a5 be 70 f2 95 be fe 37 59 3f b6 c8 6a 3f
       -0.322572 -0.29286528 0.8485106 0.9171251
0003e0 3a fb 81 3e 6c 8e c3 be 85 42 47 c0 8f e5 65 bf
       0.25386983 -0.38194597 -3.113435 -0.89803404
0003f0 c8 e6 34 bf a3 30 04 c0 1a be ff 3e 24 f8 0a 3f
       -0.70664644 -2.0654685 0.49949723 0.5428488

Encoder.encoder_attn.0.bias f4 [20]
000000 2f 22 d7 3f 5e ee 9c 3f 1d a3 ed 3f 35 c2 0d 40
       1.6807307 1.2260244 1.8565403 2.2149785
000010 5c f1 b6 be e1 ed 8d 3f d8 14 1d be b8 8b cf 3f
       -0.35731018 1.108822 -0.15339983 1.6214514
000020 7d f2 10 3d 63 b5 e5 bf 22 be 57 be 50 81 7e be
       0.035387505 -1.794598 -0.21068624 -0.24854016
000030 d1 77 fd bd 2d 3e ca 3e 8b 7b 15 c0 3e 17 46 bf
       -0.12376369 0.3950056 -2.3356655 -0.77379215
000040 59 91 eb bb 36 b7 29 3f 51 d9 01 bf 2f 7b b3 3f
       -0.0071889577 0.6629518 -0.50722224 1.4021968

Encoder.encoder_attn.2.weight f4 [1, 20]
000000 2e 1a 4f be 64 fd 73 be e2 4b 3b 3e da 17 3c be
       -0.2022483 -0.2382713 0.18290666 -0.18368474
000010 f6 0f 82 be be dd 74 be a5 04 1e be e7 c8 53 be
       -0.25402802 -0.23912713 -0.15431459 -0.20682107
000020 b0 d3 82 3e d2 71 24 be 62 41 2f be fb eb 73 3e
       0.2555213 -0.16059044 -0.17114785 0.23820488
000030 24 71 8d 3e 15 6c 1a be d3 02 9e be 83 8d 71 be
       0.27625382 -0.15080293 -0.3086153 -0.23589139
000040 5e f8 14 be dc 3e 44 be b0 d1 43 be a9 2f 08 3e
       -0.1454787 -0.19164604 -0.19122958 0.13299431

Encoder.SelfAttention.wq.weight f4 [20, 20]
000000 bf 61 9f 3e 97 ad b5 bf 96 36 84 3f fb 76 30 bf
       0.31129262 -1.41936 1.0329158 -0.6893155
000010 5a ba f7 3e 39 52 dc 3e 0a 01 c7 bf 8e d3 e1 bd
       0.48384362 0.4303148 -1.5547192 -0.11026679
000020 72 e5 af 3e 21 a9 69 3e 91 b9 3a bf e1 dd 92 3f
       0.3435474 0.22818424 -0.729394 1.1473962
000030 e3 61 8a be bd 90 f1 3e 1c e0 ec be 9e d3 f1 be
       -0.27027807 0.4718074 -0.46264732 -0.47231764
000040 da 56 1d bf 79 66 ad 3f 19 3a b0 bd 96 a5 3d bf
       -0.6146065 1.3546897 -0.08604831 -0.7408079
000050 34 8d 4f 3d 5c cd 77 3f 41 ef 30 bf 71 d1 d0 bf
       0.05067177 0.9679773 -0.6911507 -1.6313916
000060 b9 5d 7a 3e a0 4c 4f bf 95 ca 4e bf 9e 54 a9 be
       0.24449815 -0.80976295 -0.80777866 -0.3307237
000070 a1 f1 00 be 00 5a e4 3f 4d 63 ac 3f 98 df 0c bf
       -0.12592174 1.7839966 1.3467804 -0.55028677
000080 f6 4a 24 bf 53 44 f5 3e 5a a0 47 3f be 1e ad 3e
       -0.6417688 0.4790369 0.7797905 0.33812517
000090 74 2c 3e 3e 0e 20 14 bf 39 eb 3e 3e d4 1a 12 3d
       0.18571645 -0.5786141 0.18644418 0.035670117
0000a0 9e e4 8b be 97 6e a6 be 95 ed 5c 3f 3d 1e 20 3e
       -0.2732286 -0.32506248 0.8630002 0.15636535
0000b0 be 4c 29 bf d6 9d 95 3f ff 6d 24 bf 48 d2 04 3f
       -0.66132724 1.1688793 -0.6423034 0.51883364
0000c0 58 19 ae 3f 24 a0 2e bf f8 a0 d1 be 0c 7c 51 3f
       1.3601484 -0.68213105 -0.40943122 0.81829906
0000d0 93 bc bc bf 86 f2 34 3e f3 0c c4 3f 92 52 81 bf
       -1.4745048 0.1767064 1.5316452 -1.0103323
0000e0 ea d2 31 bd e2 2f 57 3f 29 5a 2d bf 13 1b 52 bf
       -0.043414034 0.8405744 -0.677157 -0.8207256
0000f0 b9 0b 49 be e9 37 8c 3e b7 9e 1e bf d5 36 c8 3e
       -0.19633378 0.27386406 -0.6196093 0.39104334
000100 65 70 c8 bd f9 70 10 3f c8 ee bc 3e d8 ad 94 be
       -0.097870626 0.5642238 0.36900926 -0.29038882
000110 24 80 3c 3e 44 cc 18 3e 60 35 40 3f d6 73 ae bf
       0.18408257 0.14921671 0.75081444 -1.36291
000120 53 05 91 bf ed 17 0e 3f 13 35 1b 3f 7e f6 b2 3f
       -1.132975 0.5550526 0.6062786 1.3981473
000130 df 92 83 bf f3 be 4e 3f b3 fc 5f bf 7b 13 53 3f
       -1.0279197 0.80760115 -0.87494963 0.824516
000140 e4 19 04 3f b4 bb 77 bf 55 bf 53 be 62 ad c0 be
       0.51602006 -0.9677079 -0.20678456 -0.3763228
000150 65 77 ff 3e a7 1e e1 3e 58 e4 f5 3e a6 7c 10 3f
       0.49895778 0.43968698 0.48025775 0.564402
000160 64 56 38 bf c0 b8 a3 3f 6d e9 02 c0 6e f0 2a 3f
       -0.7200682 1.2790756 -2.0454972 0.66773117
000170 cc ab f6 bd 3b 94 cd bd 73 9a 98 bc 3f 35 91 bf
       -0.120444864 -0.10038038 -0.018628335 -1.1344374
000180 3f 4b 01 bf 5d 38 b9 3f b1 46 73 be 39 38 87 3c
       -0.5050544 1.4470326 -0.23757435 0.016506301
000190 55 17 a5 3e 1b 1a 08 bd 7c 1d 05 3e 13 8e 62 3f
       0.32244363 -0.03322802 0.12999529 0.8849804
0001a0 f0 2b cd 3e 01 31 d2 be 40 e1 bf 3f ba 2b f2 3e
       0.40072584 -0.41053012 1.4990616 0.47298986
0001b0 d3 d8 01 bd 50 3d 1a 3f bb 53 a4 bd 28 97 a8 3f
       -0.03170092 0.60249805 -0.08023783 1.3171129
0001c0 05 f1 81 3f b2 2d 16 3f 67 de fb bf 23 1a 18 3e
       1.0151678 0.58663476 -1.9677247 0.1485372
0001d0 56 0e e0 bc 95 b7 2f bf 4e d1 a4 bf 65 7b a4 bf
       -0.027350586 -0.686395 -1.2876375 -1.2850157
0001e0 4a 15 61 3e 94 a7 89 3f 5f 26 06 3f 79 cb c1 bf
       0.21980777 1.0754266 0.524023 -1.514022
0001f0 52 d9 29 bf bc 88 c4 3c b1 1e a9 bc da 17 02 3b
       -0.6634723 0.023990981 -0.020644518 0.0019850642
000200 ce 29 51 3f 66 3e aa bd 97 0f 42 bf a3 e7 a3 3f
       0.81704414 -0.08312683 -0.7580504 1.2805065
000210 34 35 b2 bf be 27 8f 3e 2e cb db be 08 c7 be 3f
       -1.3922486 0.27960008 -0.4292845 1.490449
000220 41 2c 19 bd cc e6 7c 3e 32 48 ae bd 78 28 ae bf
       -0.03739572 0.24697417 -0.08509864 -1.36061
000230 8e 43 32 bf 70 7d 6a 3f 04 a3 f8 be fc 98 c0 be
       -0.6963433 0.9159765 -0.4856187 -0.37616718
000240 dd 1b b1 3f bc 8b 8d bf eb fb cf be 13 cd c8 be
       1.3836628 -1.1058269 -0.40621886 -0.3921896
000250 c8 90 8e 3f e3 eb 2a 3f 8c 89 41 bf 0e 75 53 3e
       1.1137934 0.66766185 -0.75600505 0.20650122
000260 6b 1b 60 bf 01 e6 b8 3f 58 76 88 be 8f 0c 90 3e
       -0.87541837 1.4445192 -0.2665279 0.2813458
000270 f1 38 1c bf a6 e9 86 be 38 cf 61 bd 6a fc a8 be
       -0.61024386 -0.26350135 -0.05512926 -0.33005077
000280 66 c6 33 bf e1 f1 2f bf 1b 4f 59 3d 37 be 87 bf
       -0.70224607 -0.6872845 0.053053956 -1.0604924
000290 9a 71 00 bf f9 d7 56 3f 48 b7 93 bd 5c 26 8a bd
       -0.5017334 0.839233 -0.072126925 -0.06745598
0002a0 41 fa c8 3f c8 d8 66 3e 41 10 b4 bf a1 bb c9 3f
       1.5701371 0.22543633 -1.406746 1.5760385
0002b0 c9 47 76 be 44 52 28 bf 15 21 de 3e 62 82 02 be
       -0.24050821 -0.6575053 0.43384615 -0.1274505
0002c0 42 11 1c 3e e6 bd da be 23 4d d5 3f 07 98 da bc
       0.15240958 -0.42723006 1.6664165 -0.02668382
0002d0 01 e9 03 bf 13 2f 5a 3f 80 93 4b bf 1d 8c 54 3e
       -0.5152741 0.8522808 -0.7952194 0.20756574
0002e0 d1 04 14 3f 3a c4 a7 3d 3d bf d0 bf 8e 0c 90 3f
       0.5781985 0.08191724 -1.6308361 1.1253831
0002f0 f4 d4 63 bf 53 1a b8 3f 4c 63 45 bf a5 63 b1 be
       -0.88996816 1.4383034 -0.7710464 -0.34646335
000300 68 28 72 bf c1 59 71 bd e2 29 c4 3e 7d 92 4c bf
       -0.94592905 -0.058923487 0.38313204 -0.79911023
000310 00 92 f8 be a8 46 bc 3f 41 f7 d1 3f a2 88 ef bf
       -0.4854889 1.4709063 1.6403581 -1.8713572
000320 39 67 07 3f aa 17 ef 3e c1 27 f1 3e e4 45 ba be
       0.5289188 0.46697742 0.47100642 -0.36381447
000330 a9 06 c6 be f3 2b b9 bc fc 02 83 be ff e0 80 be
       -0.38676956 -0.022603964 -0.25588214 -0.25171658
000340 d0 bb 21 bf 8d e1 8e bf 85 c9 27 3f a2 5a 80 be
       -0.63177204 -1.1162583 0.6554187 -0.25069147
000350 77 fe 59 3f 0e 63 96 3f 58 c6 de bf 2e 28 92 bd
       0.8515391 1.1748979 -1.740428 -0.0713657
000360 7a c3 80 bf 82 3b 70 bf 5f 6a 13 40 e5 97 20 bf
       -1.0059655 -0.938408 2.3033674 -0.6273177
000370 1c 88 aa bc 4e 35 f0 be a8 0d 5f 3e 44 9b fb 3c
       -0.020816855 -0.46915668 0.21782553 0.030713685
000380 8a da c2 3f 99 47 01 bf ea ab ae 3e 28 52 8a bf
       1.5222943 -0.50499874 0.34115535 -1.0806322
000390 9a 67 68 3f c4 bf 72 be e9 e0 a0 be de 39 67 3f
       0.90783083 -0.23705965 -0.31421593 0.90322673
0003a0 ff 7a 44 bf 8b 4c 83 3f 0f 5f 72 be 21 b0 8c bf
       -0.7675018 1.0257734 -0.23669074 -1.099125
0003b0 df 6e 8f be 36 fd 62 bf b4 68 ac 3f a5 54 38 3d
       -0.28014275 -0.8866762 1.3469453 0.0450026
0003c0 19 de 2a 3f a2 8e 8e be ab 97 75 3e 76 c5 c1 3d
       0.66745144 -0.27843195 0.23983638 0.09461491
0003d0 12 b0 8c be 92 17 f6 be e5 45 52 be 5e 72 04 bd
       -0.2747808 -0.48064858 -0.20534475 -0.03233563
0003e0 f9 ab 6b 3f c3 1c 80 bf 2b 9d 99 bf 78 a1 ea be
       0.92059284 -1.0008777 -1.2001089 -0.45826316
0003f0 30 df 2b bf 1e fd 9e be 02 94 91 3f e4 f4 17 bf
       -0.6713743 -0.31052488 1.1373293 -0.5935805

Encoder.SelfAttention.wk.weight f4 [20, 20]
000000 b0 42 76 3d 04 f5 18 3f 1c 59 a0 3d 5c 9f 6f 3f
       0.060122192 0.59748864 0.07829496 0.9360254
000010 d3 e2 e0 3d c5 55 da bf d9 f0 71 3e 0e 15 fc 3d
       0.10980763 -1.7057425 0.23627032 0.12308703
000020 09 e1 32 3e 6c 70 93 3e 7c 4c a9 be 9e be 0c 3e
       0.17468657 0.2879671 -0.33066165 0.1374459
000030 40 5f ae 3e 0f 77 28 be 44 94 72 3f 98 76 98 bf
       0.34057045 -0.16451667 0.94757485 -1.1911192
000040 d7 c0 83 3f 41 0d 42 3f 72 31 4f be 5e 32 08 bf
       1.0293225 0.75801474 -0.20233706 -0.53201854
000050 af 7c 7e bd 7c 2c 77 bf 17 53 66 3f fb e9 19 bf
       -0.062130626 -0.9655225 0.89970535 -0.6012265
000060 6d 82 b4 bf 31 f5 16 bf f0 81 8c 3d b3 91 c7 be
       -1.4102303 -0.5896788 0.06860721 -0.38978347
000070 8e c6 6e 3e ba 5f 92 3f a2 e6 4e 3f 77 c2 0e 3f
       0.2331793 1.1435463 0.8082067 0.5576548
000080 2e e9 36 3f 77 9c c4 be 4c 2d 5d bf cd 81 8c 3f
       0.71449554 -0.38400623 -0.8639724 1.0977112
000090 a3 41 bc bf ce ee 0b 3f 11 47 25 be 08 0c 9c 3e
       -1.4707531 0.5466126 -0.16140391 0.3047793
0000a0 e2 54 2e bf 02 f1 48 3e d7 d6 3d 3e a0 96 b6 be
       -0.6809827 0.19623187 0.18538986 -0.35661793
0000b0 01 2a 4b 3f 4c f0 26 bf 9d 84 a3 3e 01 90 82 3f
       0.7936097 -0.65210414 0.31937113 1.0200197
0000c0 49 a0 90 bf 72 dc 8e 3f 89 68 38 3e 1b 28 bc bf
       -1.1298915 1.1161025 0.18008627 -1.4699739
0000d0 1d 84 50 bf 7b 71 8a 3f 62 54 6b 3f e9 3c 81 bf
       -0.8145159 1.0815881 0.9192563 -1.0096713
0000e0 eb db 53 3f 1f dd 83 3f 83 42 3b bf 89 8e 18 be
       0.82757443 1.0301856 -0.73148364 -0.14898123
0000f0 37 8f 5e bf 22 7a c0 bd 63 10 4d 3f 17 7f a8 be
       -0.8693728 -0.09398295 0.8010313 -0.32909462
000100 19 97 ee bd 8f 0f 06 3f 8e 49 71 bf 02 a2 40 bd
       -0.11649913 0.5236749 -0.9425286 -0.047029503
000110 b8 74 c6 3e 11 24 33 bf 4e c8 f7 3e 20 c8 8a be
       0.38760924 -0.6997691 0.48395008 -0.27105808
000120 db 45 8b bf ed 73 56 3e 9f 54 5d 3f 53 2a 04 be
       -1.0880693 0.2094266 0.86457247 -0.1290677
000130 a7 3e 00 bf 29 b3 fb bc 31 04 41 bf 18 82 c3 3f
       -0.500956 -0.030725079 -0.7539702 1.5274076
000140 db af 14 bf 32 df f8 be 06 94 23 bf d0 b7 83 3f
       -0.58080834 -0.48607785 -0.6389774 1.029047
000150 ee d5 75 3f e1 d1 54 bf ee 7e a6 3f d6 c4 55 bf
       0.96029556 -0.8313275 1.3007486 -0.8350347
000160 9b f9 87 3e 8a 8c 90 bf 58 3c 22 3e d7 19 00 bf
       0.2655762 -1.1292889 0.15843332 -0.5003943
000170 23 76 16 bf 76 12 22 bf 45 a1 c2 3e ca f6 47 bf
       -0.5877401 -0.6330942 0.38013664 -0.78110945
000180 df 79 87 3f 9f b5 98 3e 7e 76 18 3e e8 40 4a 3e
       1.0584067 0.29826066 0.14888951 0.19751322
000190 9d a4 00 3e 85 46 e9 bd d9 f2 c2 be a2 d8 29 3f
       0.12562795 -0.11390404 -0.38075903 0.6634618
0001a0 5a a1 a1 3f 11 7c a4 3f 1a 2f 92 3f 7f d2 31 bf
       1.2627366 1.2850362 1.1420624 -0.69461817
0001b0 46 09 64 3f 88 f4 6a 3e 52 eb ea 3e 45 10 30 3f
       0.8907665 0.22944844 0.4588266 0.68774825
0001c0 86 01 3a 3e f1 dd 2a bd 22 2e 1b be 81 f9 fa be
       0.18164644 -0.041715566 -0.15154317 -0.4901848
0001d0 83 f4 70 3e 3b 82 4f bf d1 22 3f bf 2b 6f b1 bf
       0.23530774 -0.8105809 -0.746625 -1.3862051
0001e0 f6 6d 7c 3f 9e 2e 92 be 9e 1b 04 be e5 90 63 bf
       0.9860529 -0.2855119 -0.1290116 -0.88892967
0001f0 e1 1d 3f bf f6 b9 a6 bf 79 da 83 3f 70 cd 54 3f
       -0.74654967 -1.3025501 1.0301048 0.8312597
000200 2e 4b 1f be 7a 2d 29 3f fc 0e 90 3f 96 ab c4 be
       -0.15556023 0.66085017 1.1254573 -0.3841216
000210 69 17 1e bf f6 8a 2c be 0c 1f b3 3f 55 b5 0a 3f
       -0.6175447 -0.16849884 1.399385 0.5418294
000220 80 ac 14 be d6 d2 ef 3e 46 ac 93 bf d5 1c 32 be
       -0.14518929 0.46840543 -1.1536949 -0.17393811
000230 f2 bf 09 bf 1b b8 98 bf 98 ce b9 3f 44 50 54 be
       -0.5380851 -1.1931185 1.4516172 -0.20733744
000240 94 6a 25 3e c8 3b d1 be a1 93 94 be 35 03 43 3f
       0.16153938 -0.40865922 -0.29018882 0.7617677
000250 f8 d9 a8 bd d0 12 5c be 18 33 f1 3e d1 b3 c8 3f
       -0.08244699 -0.21491551 0.47109294 1.5679876
000260 02 78 ce be 62 7d 80 bf d4 3e 15 bd f4 fd 88 be
       -0.40325934 -1.0038264 -0.03643687 -0.2675625
000270 5a 74 03 bf cc 46 3c 3f 93 c7 f1 be a0 8b 0f bf
       -0.51349413 0.7354553 -0.47222576 -0.56072426
000280 59 c4 67 bf 6b 00 1b bf d0 61 b9 bf 1e 2c 1c bf
       -0.9053398 -0.6054751 -1.4482975 -0.6100482
000290 df ff 9f 3e b8 d2 a5 bf ee 5a 75 bd 78 6b e0 3f
       0.31249902 -1.2954931 -0.05990117 1.7532797
0002a0 7f 4f 9a bd 1d 64 cf 3e c4 65 27 be b5 77 88 be
       -0.07534694 0.40506068 -0.16347414 -0.2665383
0002b0 79 cf 55 be ca 91 fe be d3 52 83 3f 44 5c b2 3d
       -0.20879926 -0.49720603 1.0259651 0.087090045
0002c0 e3 67 14 3f 40 dd 88 3e 6a 13 82 3f 8b 89 8b be
       0.5797102 0.267313 1.0162175 -0.27253374
0002d0 4c 00 c9 3f 10 27 d2 bf 10 a7 dd be 12 7e 16 3f
       1.5703216 -1.6418171 -0.4329152 0.5878612
0002e0 6f cf 70 3f 4b 47 c7 bf db cb 09 bf e6 d4 c9 be
       0.9406652 -1.5568632 -0.53826684 -0.3942024
0002f0 66 6c 37 bf f8 34 17 3f 13 65 2d 3e 5e 35 58 be
       -0.7164978 0.590652 0.16933088 -0.21114108
000300 e0 0e 63 3e cc 77 cb bf a2 43 9a bf dc 57 30 bf
       0.22173643 -1.5895934 -1.205189 -0.6888406
000310 d5 50 49 3f 6f 72 18 40 07 d4 65 bf a8 66 50 3f
       0.78638965 2.3819845 -0.89776653 0.8140664
000320 a1 9f fe 3f c6 4a eb 3e 15 c0 5a bf d6 c4 17 3f
       1.9892465 0.45955485 -0.85449344 0.5928472
000330 9d 84 f1 be 44 3a 97 be e2 a9 be be ed bb 88 3f
       -0.47171488 -0.2953664 -0.37238985 1.068235
000340 a5 f7 d1 3d 67 8d 8c bf 12 f5 7f be 8e 46 15 3f
       0.102523126 -1.0980653 -0.2499583 0.5831078
000350 19 e5 dc 3f ed 72 1e be 85 b1 0e bf 1e b5 26 bf
       1.7257415 -0.15473528 -0.55739623 -0.6512011
000360 d5 d8 ac bf 4b c7 18 3f 47 45 15 3f 30 de 53 bf
       -1.3503672 0.59679097 0.58308834 -0.82760906
000370 09 97 16 bf 38 27 23 bf 5d 3a 4e 3f 9e 6c ac 3f
       -0.5882421 -0.6373172 0.80557805 1.3470647
000380 52 79 cb 3e c6 4c 67 bf 8a 13 8f be 39 21 be 3f
       0.39740998 -0.9035152 -0.27944595 1.4853889
000390 88 3a 84 bf dd 6f df be 03 bb 41 bf 09 d4 14 3f
       -1.0330362 -0.43640032 -0.7567598 0.5813604
0003a0 e3 ac 5e 3f b5 27 88 bf 0c ff 57 bd e6 6b 7c bf
       0.86982554 -1.0637118 -0.052733466 -0.9860214
0003b0 9a 48 5c bf 3c 43 95 be 8e 3e 6d 3f 78 a5 cf be
       -0.8604828 -0.29152858 0.92673576 -0.4055593
0003c0 fd 99 cc 3e 33 58 99 3d fb 20 82 3e 0b 43 4e be
       0.39961234 0.07487526 0.25415787 -0.20142762
0003d0 1c b8 81 3e 3a ab 90 bf 34 3e 1c 3e c3 d1 6e 3f
       0.25335777 -1.1302254 0.15258104 0.9328882
0003e0 74 70 8a bf 67 6c 8b bf d8 fc b7 bf 1a be 02 bf
       -1.0815568 -1.0892457 -1.4374037 -0.5107132
0003f0 e8 7f 0e bf c2 09 01 bf ba 62 38 3e 8e 16 0b 3f
       -0.5566392 -0.50405514 0.18006411 0.5433129

Encoder.SelfAttention.wv.weight f4 [20, 20]
000000 5e 50 c5 be 65 80 cc be a8 78 08 3f c7 6f 79 3e
       -0.38537878 -0.39941707 0.53309107 0.24359046
000010 95 97 bd bc 82 d3 52 bf ca 18 42 3e 56 3c 41 3f
       -0.023143569 -0.82353985 0.18954769 0.7548269
000020 82 a7 2f 3f 78 65 87 3f 00 53 3b 3f 2e f3 6e bf
       0.6861497 1.0577841 0.7317352 -0.9333981
000030 f2 3c b1 3e b8 eb 42 3e 5a 25 e4 3f 47 e1 ba 3c
       0.3461681 0.19035232 1.7823899 0.022812499
000040 e2 08 8e 3e da af ba bf f9 a2 79 bf cd 33 18 bf
       0.27741152 -1.4584916 -0.975143 -0.5945404
000050 38 44 81 3e 2a 0a c7 3d ed 8b 81 3e 95 66 82 be
       0.2524736 0.097187355 0.25302067 -0.2546889
000060 c3 4e 23 bf 4e b9 89 be b2 d9 d8 3f a2 a3 b4 be
       -0.63792056 -0.2689919 1.6941435 -0.35281092
000070 f1 29 91 3e 8f 15 f1 bc e7 b6 e1 bd 24 89 5e 3f
       0.2835231 -0.029429225 -0.11021214 0.8692801
000080 49 6d 94 3f b6 60 a5 bf 0c 08 d4 be d5 2b 18 bf
       1.1595851 -1.2920139 -0.4141239 -0.5944188
000090 86 95 19 3f 7c d1 b6 bf 51 a0 9e bf 75 5f 2b bf
       0.5999378 -1.428268 -1.2392675 -0.6694253
0000a0 b0 53 3d bf 48 0a 4e 3d 1d e0 8f 3f 02 55 1b 3f
       -0.7395582 0.050302774 1.1240269 0.60676587
0000b0 61 83 37 3f 55 d6 11 bd 3d eb 83 bf 64 07 65 3f
       0.71684843 -0.035604794 -1.0306164 0.894644
0000c0 cf 1c b4 3e c1 56 c2 3f 79 a1 cf bd e4 77 48 bf
       0.3517823 1.5182725 -0.1013822 -0.7830794
0000d0 0d da a1 bf c0 c2 c8 3d ef 0b 2c 3f 9b c4 93 3e
       -1.2644669 0.098027706 0.6720571 0.28860936
0000e0 98 16 97 3d dc b6 20 be 91 57 46 bf d9 96 e0 be
       0.07377356 -0.15694755 -0.77477366 -0.43865088
0000f0 09 a6 5b 3e 5a a4 f7 3f e7 7d 12 bf 77 8f d7 3e
       0.21450056 1.9347031 -0.5722336 0.42101642
000100 e6 27 17 3e 9e e8 bf 3e d7 a8 45 bf e4 51 01 bf
       0.14761314 0.3748216 -0.77210754 -0.5051558
000110 8a 92 85 3d 32 8a aa be 52 3a 82 3f 1e 6e 5e be
       0.06522091 -0.3330856 1.0174048 -0.21721694
000120 27 b9 3f bf 37 07 0c 40 83 6c 6e 3e 48 a6 86 bf
       -0.74891895 2.1879404 0.23283581 -1.0519495
000130 e2 b1 a8 3f 4a 6d 9f be cb c8 c8 bf d8 04 a0 bf
       1.3179286 -0.31138068 -1.5686277 -1.2501478
000140 ea e9 67 3f 11 a9 c7 be 9e 9a 90 bd 64 42 a5 bf
       0.905913 -0.38996175 -0.07060741 -1.2910886
000150 4c 8b 0a 40 c2 8e 82 3f fd db 25 3f 69 c9 8c bf
       2.164752 1.0199816 0.647888 -1.0998966
000160 e4 78 d3 3b 14 bd 2f 3f c8 a0 8c bf 81 5b 29 3f
       0.0064536203 0.68647885 -1.0986567 0.6615525
000170 2a 35 14 3f e3 68 cb 3e 21 0a 95 3e 16 88 f5 bc
       0.5789362 0.3972846 0.2910929 -0.029972117
000180 6e ad 04 bf c9 1a 0c 3e 4e 0a c9 bf db 60 69 3e
       -0.5182713 0.13682093 -1.570627 0.22790854
000190 e1 eb 2a 3e b6 ad 86 be c7 08 d5 bd 20 a5 3f be
       0.16691543 -0.26304406 -0.10402065 -0.18715334
0001a0 a0 61 ff bb fd 8e fb 3f 31 73 d2 be c3 d8 22 be
       -0.00779362 1.9653012 -0.4110351 -0.15903
0001b0 57 a4 32 40 14 ee fd 3e 88 9b 14 3e 8b c2 db be
       2.7912805 0.49595702 0.14512455 -0.42921862
0001c0 7c 4f e0 3e 3e c7 73 3f ec 2c 13 be 02 16 55 3e
       0.43810642 0.95225894 -0.14372605 0.20809177
0001d0 c3 c6 12 bf 8a d5 af 3e 0a 87 3a c0 8d ae b7 be
       -0.57334536 0.34342605 -2.9144921 -0.3587536
0001e0 0d bc 81 3e c4 38 32 3f 1c 87 e3 be ea 60 be 3e
       0.25338784 0.6961787 -0.44439018 0.37183315
0001f0 39 59 cb 3f 07 cd 74 bf aa 0b 0b 3f 3d 7d d5 3e
       1.5886604 -0.95625347 0.5431467 0.41697112
000200 9c cd 7e bf 67 ee 05 bf 50 66 b3 3e 36 b5 a3 be
       -0.99532485 -0.523169 0.35038996 -0.3197419
000210 9f d5 8a 3d b4 53 15 3f 9c f1 6a be 7b 3c d5 3e
       0.06779026 0.58330846 -0.22943729 0.41647705
000220 ca f7 c3 3f ca 66 3c bf 7e 78 bb be 78 99 a7 bf
       1.5309994 -0.73594344 -0.36615366 -1.309371
000230 66 fc 31 3e d9 3d 7f bf af b8 e3 bf 4f 66 2b 3f
       0.17381439 -0.9970375 -1.7790736 0.66952986
000240 f2 84 0c 40 02 3b de 3e 75 02 00 bf 21 15 f0 3e
       2.1956143 0.43404394 -0.5000375 0.4689112
000250 52 52 eb 3f 4c 40 9d 3e 86 ee 5a 3e a5 87 1a 3f
       1.8384497 0.30713117 0.21380052 0.6036323
000260 52 17 30 3f 40 3e 59 3f 93 87 90 be 37 a6 40 3f
       0.68785584 0.8486061 -0.28228435 0.75253624
000270 fe 47 80 3f 73 b9 6b bf a1 2d 3d c0 85 c6 e6 bf
       1.002197 -0.9207985 -2.95591 -1.8029333
000280 65 b3 98 3e 5e 1d cb 3e 9c b4 c9 bd 69 fa 69 3f
       0.29824367 0.39670843 -0.09848902 0.9139772
000290 ab 40 30 be 05 82 ca be 4c 10 a5 be aa 46 07 3f
       -0.17212169 -0.39552322 -0.32238996 0.528422
0002a0 a9 9f f5 3e d8 b0 5f bf e9 e4 28 bf a7 c2 b8 3e
       0.47973374 -0.8737922 -0.6597429 0.36086008
0002b0 fa 46 b7 3d af 03 1b bf f8 9b 62 be 06 9b 2a 3e
       0.089490846 -0.60552496 -0.2212981 0.16660699
0002c0 11 86 38 be 1e c6 16 3e 95 b9 8d 3d 25 e6 3f bf
       -0.18019892 0.14724013 0.069201626 -0.7496055
0002d0 2f 06 1a 3f d9 ec 8d 3f 61 16 3a bf 7b 5e e6 3e
       0.60165685 1.1087905 -0.726904 0.44993958
0002e0 63 1f 1d bf 44 5e 6b bd 6c 8e c8 3f 60 6d f3 be
       -0.6137602 -0.057462946 1.5668464 -0.47544384
0002f0 42 f9 ff bd e6 6d e8 3f 24 f9 06 be dc cb 36 3f
       -0.12498714 1.8158538 -0.13180977 0.71404815
000300 d6 f1 a9 bf fe 91 33 bf 58 43 5b bf 5b 4a 29 3e
       -1.3276927 -0.7014464 -0.85649633 0.1653227
000310 75 2d 7f 3f a9 32 09 3f 9c 13 b2 be 2c 89 fe bf
       0.99678737 0.53592926 -0.34780586 -1.9885612
000320 c9 f2 82 3f b1 2f 2a 3f d7 ee 5c 3e 7e 1e a8 3e
       1.0230342 0.6647902 0.21575485 0.32835764
000330 70 94 84 be 04 b4 04 3e be 14 2c 3f 1f f1 68 3f
       -0.258945 0.12959296 0.6721915 0.9099292
000340 93 d2 1c be 71 bd 62 3f b8 c4 4a 3e 4f 4a 26 bf
       -0.15314703 0.88570315 0.19801605 -0.64957136
000350 3e d2 b0 be f1 84 87 bf 42 2f 63 3f f9 ad 01 be
       -0.34535402 -1.0587445 0.88743985 -0.12664022
000360 10 57 41 bf a4 2b 5c 3f 6d 96 97 bf da 22 a4 bf
       -0.7552347 0.8600409 -1.1842781 -1.2823136
000370 00 e6 5b bf 81 09 03 3e 3f a0 94 3f 24 42 66 3f
       -0.8589783 0.12796594 1.1611403 0.8994467
000380 a8 91 b6 3f f3 8c 81 3d 62 85 c7 3f 9c 23 55 bf
       1.4263201 0.06325712 1.558758 -0.8325746
000390 c9 be cd be 33 e7 39 be ce 78 a7 3f ca fa 76 bd
       -0.4018462 -0.18154602 1.3083742 -0.060297765
0003a0 9f d9 aa 3e 96 2f 8d 3f 53 6f 5c 3f 36 84 8d bf
       0.33369157 1.1030147 0.8610737 -1.1055973
0003b0 17 32 50 bf 17 b2 02 be fc 7a 6e bf 97 e5 3c bf
       -0.8132643 -0.12763248 -0.9315641 -0.73787826
0003c0 6f 15 03 3f 6b 3d 1e 3f 38 23 72 bf 4f 20 57 bf
       0.5120458 0.61812466 -0.9458499 -0.84033674
0003d0 f0 69 22 3f 4f 63 26 be 76 46 e8 3e 88 1c 2e 3f
       0.634429 -0.1624882 0.45366257 0.68012285
0003e0 2b 00 69 be a2 b7 12 3f 90 37 7d 3f 57 03 1d bf
       -0.2275397 0.5731145 0.98912907 -0.6133322
0003f0 0e 76 69 40 21 c4 ce be f4 5e ff bf 78 ad 54 3f
       3.6478305 -0.4038401 -1.9950852 0.8307719
