result/ver7_3/best.pt (torch, 306841 bytes, 81 tensors)

Encoder.encoder_lstm.weight_ih_l0 f4 [128, 6]
0	0x3f5a0351	0.8516131
1	0x3f5362fe	0.82572925
2	0x3f62dbd7	0.886167
3	0x3e8cadd0	0.27476358
4	0x3e597b44	0.21238428
5	0x3ef33a8a	0.475056
6	0x3f8884e2	1.0665553
7	0x3f8b60f1	1.0888959
8	0x3f7782b8	0.96683836
9	0x3e7af278	0.24506557
10	0x3e095480	0.1341114
11	0x3faf64df	1.3702658
12	0x3e39a77d	0.18130298
13	0xbd74dbae	-0.059779815
14	0x3f1b4b8b	0.60662144
15	0x3fa858f9	1.3152152
16	0x3f85df8b	1.0458845
17	0x3e9eece5	0.3104011
18	0xbf9ae410	-1.2100849
19	0xbf8a3e9f	-1.080036
20	0xbf4f6514	-0.8101361
21	0xbee10f28	-0.43956876
22	0xbebbc409	-0.36673
23	0xbf556e48	-0.833714
24	0xbf14e65e	-0.5816401
25	0xbe72af16	-0.23699602
26	0xbef1ab1b	-0.47200856
27	0x3f558ec4	0.8342097
28	0x3f9597f9	1.1687003
29	0x3e047812	0.12936428
30	0x3f063987	0.5243153
31	0x3f0a2934	0.5396912
32	0x3f654e9b	0.8957307
33	0x3fa52b80	1.29039
34	0x3f994201	1.1973268
35	0x3fb2d23a	1.3970406
36	0x3f75c638	0.9600558
37	0x3f9fc10a	1.2480786
38	0x3f715684	0.9427264
39	0x3fc97694	1.5739312
40	0x3fa4d821	1.2878457
41	0x3f7286d4	0.9473698
42	0x3d7aa4aa	0.061192192
43	0x3d85a4a5	0.06525544
44	0x3db43532	0.08799209
45	0xbeb9a3c6	-0.36257762
46	0xbea7256c	-0.32645738
47	0x3e1c2ac6	0.15250692
48	0xbed6344c	-0.41836774
49	0xbe7dceb1	-0.24785878
50	0xbf13837b	-0.576225
51	0x3fb9f4bf	1.4527816
52	0x3fa4a8d5	1.2864023
53	0xbf008edd	-0.5021799
54	0x3ebdf7b0	0.37103033
55	0x3ec6c9a0	0.38825703
56	0x3ed8a3ea	0.42312557
57	0xbfc0b6d0	-1.505579
58	0xbf81d8de	-1.0144308
59	0x3e939419	0.28823927
60	0x3ec46e86	0.38365573
61	0x3ead3015	0.33825746
62	0x3f122e2d	0.5710171
63	0x3f4bb62f	0.79574865
64	0x3f5d40ea	0.86427176
65	0x3ebb7e01	0.3661957
66	0x3df208d0	0.11818087
67	0xbd9dcfab	-0.07705625
68	0xbca96c5f	-0.020681558
69	0x40060037	2.093763
70	0x4007000a	2.1093774
71	0xbe0030c4	-0.12518603
72	0x3fa1b4ff	1.2633361
73	0x3f05ea23	0.5231039
74	0x3fb3f224	1.405827
75	0xbe8583db	-0.2607716
76	0xbe465ee7	-0.1937214
77	0x3f89aaa5	1.0755202
78	0x3fa4d2c6	1.2876823
79	0x3f502231	0.8130217
80	0x3f939bf1	1.1531965
81	0x3ddfaded	0.109218456
82	0x3e77856d	0.24171992
83	0x3f31b4d5	0.6941655
84	0x3e126abd	0.1429853
85	0x3edb7ae6	0.42867202
86	0x3e89ec95	0.2693831
87	0x3f6039c9	0.87588173
88	0x3fa0b7fd	1.2556149
89	0xbe2b77ff	-0.16744994
90	0xbf3d49a7	-0.7394051
91	0xbf3e610c	-0.7436683
92	0xbf063e80	-0.5243912
93	0x3f4d1c2f	0.8012113
94	0x3f738c81	0.95136267
95	0xbebab19b	-0.36463627
96	0x3f49c08a	0.78809416
97	0x3f83462e	1.0255792
98	0x3f117a9a	0.568277
99	0xbe4992fe	-0.1968498
100	0xbee3f734	-0.4452454
101	0x3f6823d1	0.9067965
102	0x3f07335a	0.5281273
103	0x3edda3ac	0.43288934
104	0x3dacac6e	0.08431326
105	0x3fde0d99	1.73479
106	0x3fd2d8a2	1.6472361
107	0x3e44462f	0.19167398
108	0x3f0f2fbb	0.55932206
109	0x3ef5273a	0.4788149
110	0x3ebb5d58	0.36594653
111	0xbf5b6b7d	-0.8571089
112	0xbefd0f99	-0.49425963
113	0x3f378425	0.7168601
114	0xbf75f9e9	-0.9608446
115	0xbf2d1eb5	-0.6762498
116	0xbf685df7	-0.9076838
117	0xbfcbc39d	-1.5919071
118	0xbfbd290e	-1.4778154
119	0xbebc778b	-0.36809954
120	0xbf3b3921	-0.73134047
121	0xbf482d89	-0.7819448
122	0xbf67237c	-0.9028852
123	0xbed4da9e	-0.41573042
124	0xbd1268bf	-0.035744425
125	0xbf065260	-0.52469444
126	0xbc88b296	-0.016686719
127	0x3c905a29	0.017621117
128	0x3ecb3eb4	0.39696276
129	0xbe815c60	-0.2526579
130	0xbe2facd3	-0.17155771
131	0x3cc80666	0.024417114
132	0x3ea9e7a3	0.33184537
133	0xbe167243	-0.14692025
134	0x3ebff9e4	0.3749534
135	0x3fc0fcec	1.5077186
136	0x3f9fbafb	1.2478937
137	0x3d90dda2	0.07073523
138	0x3efbf637	0.49211285
139	0x3e97552d	0.2955717
140	0x3e7e6594	0.24843436
141	0xbed3289b	-0.41241917
142	0xbcca22c3	-0.024674779
143	0x3f06c2f1	0.52641207
144	0xbfa2f475	-1.2730852
145	0xbfb8c3ea	-1.4434788
146	0xbf87f539	-1.0621711
147	0xbf354d34	-0.7082093
148	0xbecea262	-0.40358263
149	0xbfb89bf3	-1.4422592
150	0xbecbd57b	-0.3981131
151	0x3e2b0a94	0.16703254
152	0xbcb52128	-0.022110537
153	0x3f6f9ed8	0.9360175
154	0x3f28d171	0.6594458
155	0xbe6768f3	-0.22598629
156	0x3f1954a2	0.59894764
157	0x3ebd58ee	0.3698191
158	0x3f83e62b	1.0304617
159	0xbe259eec	-0.16173905
160	0x3e87d61c	0.2653054
161	0x3f9927eb	1.1965307
162	0x3fa68c01	1.3011476
163	0x3f820dc6	1.0160453
164	0x3f643f60	0.891592
165	0x3f96f525	1.1793562
166	0x3f545a33	0.82950133
167	0x3f962254	1.1729226
168	0xbdf0d3c6	-0.117591426
169	0xbe53348e	-0.20625517
170	0x3e94b159	0.29041556
171	0xbeef7b5e	-0.4677381
172	0xbf79e811	-0.9761973
173	0x3eb5538c	0.35415304
174	0x3f671592	0.9026729
175	0x3f338b01	0.7013398
176	0x3f8aa5f1	1.0831891
177	0xbe4d8218	-0.20069158
178	0xbe1aa306	-0.15101251
179	0x3f93b1db	1.1538652
180	0xbf81926b	-1.0122808
181	0xbf744a31	-0.9542571
182	0xbfa35650	-1.2760715
183	0xbe6d6354	-0.23182422
184	0xbea18424	-0.31546128
185	0xbf25de1d	-0.6479204
186	0x3f6cf641	0.92563254
187	0x3ea9a85b	0.33136258
188	0x3f219844	0.63122964
189	0x3ea849c6	0.32868785
190	0x3e4a4788	0.1975385
191	0x3ecd3507	0.4007952
192	0xbfbe7160	-1.4878349
193	0xbf95d1f2	-1.1704695
194	0xbf9a5634	-1.2057557
195	0x3e48d594	0.19612724
196	0x3e8fbb69	0.2807267
197	0xbf9a85f8	-1.2072134
198	0x3f07df61	0.53075224
199	0x3f0ba874	0.54553914
200	0x3f0adc7b	0.54242676
201	0x40057d6a	2.0857797
202	0x3fb3fc99	1.4061462
203	0x3f843348	1.032815
204	0xbf273540	-0.6531563
205	0xbe63821d	-0.22217603
206	0x3d816d91	0.06319726
207	0x3f85855e	1.0431325
208	0x3f615fba	0.8803669
209	0xbef8d61a	-0.48600847
210	0x3f15c15e	0.5849818
211	0x3fcce219	1.60065
212	0x3f2f67cf	0.68517774
213	0x3d0c5711	0.03426272
214	0xbeaf1153	-0.34192905
215	0x3fc436ed	1.5329262
216	0x3f7e807c	0.994148
217	0x3f4d1154	0.80104566
218	0x3f5e9815	0.8695081
219	0xbe57ef4c	-0.21087378
220	0xba286073	-0.00064230635
221	0x3f147be8	0.58001566
222	0x3dfe074f	0.12403738
223	0xbe4a512d	-0.19757529
224	0x3eae1232	0.33998257
225	0xbeaad3bb	-0.33364663
226	0xbe2f8aad	-0.17142744
227	0xbd16f726	-0.036856793
228	0x3f91044a	1.1329434
229	0x3f8d16eb	1.1022619
230	0x3fabae66	1.3412597
231	0x400b5959	2.1773283
232	0x3f959051	1.1684667
233	0x3f92cd3f	1.1468886
234	0x3d89e153	0.0673243
235	0x3dc096e7	0.09403782
236	0xbe9db0c9	-0.3079894
237	0xbdfa9edc	-0.12237331
238	0xbe201b0e	-0.1563532
239	0xbe0d6e5f	-0.13811634
240	0x3f32e431	0.6987944
241	0x3f0ffd09	0.56245476
242	0x3f5a3ece	0.8525208
243	0xbf160dae	-0.58614624
244	0xbf44a687	-0.768166
245	0x3f14a9fb	0.5807187
246	0xbe793830	-0.2433784
247	0xbf05aac7	-0.5221371
248	0xbec1983f	-0.37811467
249	0xbf0e995f	-0.55702776
250	0xbe5ac414	-0.2136386
251	0xbe9063fe	-0.28201288
252	0x3e08f5aa	0.13374963
253	0xbe5c08e3	-0.21487765
254	0xbed40928	-0.41413236
255	0xbf8b1bd3	-1.0867866

Encoder.encoder_lstm.weight_hh_l0 f4 [128, 32]
0	0x3f51dabb	0.8197438
1	0xbd03def5	-0.03219505
2	0xbef843d2	-0.48489243
3	0xbfbedf6a	-1.491193
4	0x3dbb5bbd	0.09148357
5	0xbcde2135	-0.027115444
6	0x3e830d86	0.25596255
7	0xbeaa111a	-0.33216172
8	0x3fe0df8e	1.7568223
9	0x3ee2d02c	0.44299448
10	0xbebb96dd	-0.36638537
11	0xbd92b6e0	-0.07163787
12	0x3e0781af	0.13233064
13	0x3e9f82b6	0.31154412
14	0x3cf55da1	0.029951872
15	0x3e0c4c97	0.13701092
16	0xc02df482	-2.7180486
17	0xbf3d6f42	-0.7399789
18	0xbe85c1da	-0.2612446
19	0x3dfd639e	0.12372516
20	0x3c177045	0.009243076
21	0x3e08c311	0.13355662
22	0x3f76470a	0.96202147
23	0xbf1747e9	-0.590941
24	0x3f0e9ec5	0.55711013
25	0x3e2afd6e	0.16698238
26	0xbec11022	-0.3770762
27	0xbf46cfe5	-0.7766097
28	0x3e23e179	0.1600398
29	0xbf13c92c	-0.5772884
30	0xbf66179b	-0.8987977
31	0xbd6b3aef	-0.05742925
32	0xbf3bd298	-0.73368216
33	0xbd89e0d2	-0.06732334
34	0xbf1b8d5b	-0.60762566
35	0xbf0ca8fc	-0.5494535
36	0xbe89d4d2	-0.26920182
37	0x3d8302bc	0.06397006
38	0xbdae8857	-0.085220985
39	0x3f8ea4b4	1.1144013
40	0xbe1a8377	-0.15089212
41	0x3fa6682f	1.3000544
42	0x3fc24e23	1.5180095
43	0xbf9ff82a	-1.2497609
44	0xbef1e19b	-0.47242436
45	0xbf8afba0	-1.085804
46	0xbf3eff62	-0.74608433
47	0x3f3358be	0.70057285
48	0x3f57d491	0.84308726
49	0xbcd44fcb	-0.025916955
50	0xbf7159b0	-0.9427748
51	0x3ecb5bb8	0.39718413
52	0x3f6d7fa3	0.92772883
53	0xbd41efbd	-0.047347773
54	0x3e3dd56d	0.18538447
55	0x3d5ab872	0.053398557
56	0xbf0d2de6	-0.5514816
57	0x3eb76eed	0.35826817
58	0xbebdeccf	-0.37094733
59	0xbd9b0166	-0.07568626
60	0xbe8d401e	-0.2758798
61	0xbf6a3ccc	-0.9149902
62	0xbfcd551b	-1.6041597
63	0xbf186195	-0.595239
64	0x3e90a52a	0.2825101
65	0xbd9a2966	-0.075274274
66	0x3e8d2b1f	0.2757196
67	0xbea361d9	-0.3191059
68	0xbebb4e15	-0.3658301
69	0xbe803797	-0.25042412
70	0xbe3cf9b7	-0.18454634
71	0x3d1c97fd	0.038230885
72	0x3e388bd6	0.18022093
73	0x3f374192	0.7158443
74	0xbeeb80d4	-0.45996726
75	0xbfd70612	-1.6798728
76	0xbe918440	-0.2842121
77	0x3efcf630	0.49406576
78	0x3f3fb3fe	0.7488402
79	0x3f916d75	1.1361529
80	0xbf9c086b	-1.2190069
81	0x3e4a4c7b	0.19755737
82	0x3ea3e261	0.3200865
83	0x3e270769	0.1631142
84	0xbf01aa1b	-0.50650185
85	0x3edc74de	0.43057913
86	0xbf87039b	-1.0547975
87	0xbe1b93e5	-0.15193136
88	0x3eecaa95	0.46223894
89	0x3f271e70	0.6528082
90	0xbe6e39b6	-0.23264202
91	0xbedc0fa3	-0.4298068
92	0x3e9b1e85	0.30296722
93	0xbf2fd190	-0.6867914
94	0xc00246cc	-2.035571
95	0xbf35d466	-0.7102722
96	0xbdeeff14	-0.11669746
97	0xbdb198ab	-0.08671697
98	0x3fc313d2	1.5240424
99	0xbf827cfe	-1.0194395
100	0xbf003eb1	-0.5009566
101	0x3f35cbdb	0.71014184
102	0x3ef7189b	0.4826096
103	0x3f15ef65	0.5856841
104	0xbee07833	-0.43841705
105	0xbffc4794	-1.9709344
106	0xbf77b14e	-0.9675492
107	0x3f09042f	0.5352201
108	0x405d0cc6	3.4539046
109	0xbe625402	-0.22102359
110	0x3d0b0fe6	0.03395071
111	0x3f3bb1bf	0.73318094
112	0xbff0da5b	-1.8816637
113	0xbed15f5c	-0.40893066
114	0x3fe01929	1.7507678
115	0xbfb66dc1	-1.4252244
116	0x3d65042a	0.055912174
117	0xc042a8c6	-3.041551
118	0xc034872f	-2.820751
119	0xbed66180	-0.41871262
120	0xc007ea68	-2.123682
121	0xbf68b20f	-0.90896696
122	0x3fcccfad	1.6000878
123	0x3e7bf733	0.24606018
124	0x4077ded0	3.8729744
125	0x40090046	2.1406417
126	0x3ef7a349	0.48366764
127	0xbf78f8a2	-0.97254384
128	0x3ed90985	0.42390075
129	0xbedd863c	-0.43266475
130	0x3f8d7f57	1.1054486
131	0xbfaedbef	-1.3660868
132	0xbf882670	-1.063673
133	0xbfeae19f	-1.8350104
134	0x3d46f2ab	0.04857127
135	0x3da7bdc6	0.08190493
136	0xbfe2b630	-1.7711849
137	0xbe8228ed	-0.2542185
138	0x3dd51b7e	0.10405634
139	0xbfe281cb	-1.769586
140	0xbe2c0ed0	-0.16802526
141	0x3fe85a8c	1.8152633
142	0x3f4243d0	0.75884724
143	0x3f9ee4da	1.241359
144	0x3e6e45dc	0.23268837
145	0x3f5631c2	0.83669674
146	0xbe1a7191	-0.15082385
147	0x3ee3c0fb	0.4448317
148	0xbf06b5a2	-0.526209
149	0xbe5fbad9	-0.2184862
150	0xbf5e99d0	-0.8695345
151	0x3ed29e00	0.4113617
152	0xbd997e46	-0.07494788
153	0x3f5e0dd1	0.8673983
154	0x3fe0322e	1.7515314
155	0xbec4de44	-0.38450825
156	0xbf072205	-0.52786285
157	0x3f4dd7db	0.80407494
158	0xbf78ee1c	-0.97238326
159	0x3ef006f5	0.46880308
160	0xbda2703e	-0.07931565
161	0xbddec8ea	-0.10878165
162	0x3e224cbc	0.15849584
163	0x3f7b3d58	0.9814048
164	0x3de026bc	0.10944888
165	0x3f7b8ee2	0.98264897
166	0xbd0a1e84	-0.03372051
167	0x3ee3d271	0.44496492
168	0x3f18fcbc	0.5976064
169	0x3f114342	0.5674325
170	0x3ed8b855	0.42328134
171	0x3ed0f4f4	0.40811884
172	0x3da0697d	0.0783262
173	0xbe967115	-0.2938315
174	0xbe230b27	-0.15922223
175	0x4006a2ef	2.1036947
176	0x3e73f926	0.23825511
177	0x3f9c4116	1.2207363
178	0xbad09899	-0.0015914618
179	0xbec86fd0	-0.39147806
180	0x3de14b52	0.11000694
181	0x3ea78576	0.3271901
182	0xbed62b0e	-0.41829723
183	0xbf5c5a2e	-0.86075103
184	0xbd937f6c	-0.07202038
185	0xbfdca6f9	-1.7238456
186	0xbec985fd	-0.39360037
187	0x3df4246f	0.11921012
188	0xbde33f5f	-0.110960715
189	0xbe638128	-0.22217238
190	0xbf8efd14	-1.1170983
191	0xbeef8f02	-0.46788794
192	0xbf0ccf5e	-0.5500392
193	0x3d93ad24	0.07210758
194	0xbf55e0fa	-0.8354641
195	0xbf6669f9	-0.9000545
196	0xbedaa79e	-0.42706007
197	0x3c7844de	0.015153138
198	0x3f3fe698	0.74961233
199	0x3e34b1b2	0.1764591
200	0xbcde906f	-0.02716848
201	0x3f271aaf	0.6527509
202	0xbf696c92	-0.9118129
203	0xbf960197	-1.1719235
204	0x3944ea58	0.00018779316
205	0xbf4a8f74	-0.7912514
206	0x3ec56a75	0.38557783
207	0xbfd8af2d	-1.692846
208	0xbf253ac7	-0.6454281
209	0xbfd28d45	-1.6449362
210	0xbef7c5a0	-0.48392963
211	0x3dbf4616	0.0933954
212	0x3ea88e5b	0.3292111
213	0x3f011a68	0.5043092
214	0x3e1d8e74	0.15386373
215	0x3f32a44b	0.6978194
216	0xbf7741c9	-0.96584755
217	0x3f8135b9	1.009452
218	0xbef1fc08	-0.47262597
219	0xbf3cbf55	-0.7372945
220	0xbefb8dd9	-0.4913166
221	0xbf340e98	-0.7033477
222	0xbdeaf892	-0.11473192
223	0xbf0e2aa5	-0.5553382
224	0xbf1638b0	-0.5868025
225	0xbcefb7e4	-0.02926249
226	0x3f3dbf44	0.74119973
227	0x402a43e2	2.6603932
228	0xbfe5140d	-1.7896744
229	0x3fbcff8d	1.4765488
230	0xbf50edf0	-0.81613064
231	0x3f45be68	0.7724366
232	0x3f3186c1	0.69346243
233	0xbe6aa572	-0.22914675
234	0x3fa1d902	1.264435
235	0xbe1c5fda	-0.1527094
236	0xbe49154f	-0.19637035
237	0xbe500fbf	-0.20318507
238	0xbfec9d4a	-1.8485501
239	0x400e4f67	2.2235963
240	0xbf062e73	-0.52414626
241	0x3f820d70	1.0160351
242	0x3f3d20fb	0.7387845
243	0xbe8baab2	-0.27278668
244	0x3f310ef9	0.6916347
245	0x3f1fb1c1	0.62380606
246	0xbeae8129	-0.34082916
247	0xbf9ec3b6	-1.2403476
248	0xbf1c085c	-0.60950255
249	0xc015ac72	-2.3386502
250	0x3fa4099b	1.2815431
251	0x3f09c4c9	0.53815895
252	0xbdf55562	-0.11979176
253	0x3ccaadcd	0.024741078
254	0xbf8caa63	-1.0989498
255	0xbf823eef	-1.0175456

Encoder.encoder_lstm.bias_ih_l0 f4 [128]
0	0xbfcc59fc	-1.5964961
1	0xbf9b1e73	-1.2118667
2	0xbfe2fa73	-1.7732681
3	0xbfaafe28	-1.3358812
4	0xbfa3f262	-1.2808344
5	0xbda433ef	-0.08017718
6	0xbf8297cf	-1.0202578
7	0x3ea710e6	0.3263008
8	0xbf22ac97	-0.635446
9	0xbf7dba53	-0.99112433
10	0xbee0fa39	-0.43940905
11	0xbf6b42b9	-0.91898686
12	0xbe40de87	-0.18834887
13	0xbf958383	-1.1680759
14	0xbfaaaa12	-1.3333151
15	0xbf1eb599	-0.61995846
16	0xbfb91388	-1.4459085
17	0xbf9907bf	-1.1955489
18	0xbfe8ec97	-1.8197201
19	0xbfbc5aac	-1.4715171
20	0xbf091c18	-0.5355849
21	0xbe46137f	-0.19343375
22	0xbe9f134f	-0.3106942
23	0xbf83df59	-1.0302535
24	0xbfb7e9e5	-1.4368254
25	0xbf8f7094	-1.1206231
26	0xc0016b12	-2.02216
27	0xbfc0e99d	-1.5071293
28	0xbeeecc0f	-0.4664006
29	0xbffee1a7	-1.9912614
30	0xbf02569b	-0.509134
31	0xbfb2db9c	-1.397327
32	0xc00813a3	-2.1261985
33	0xbf983dff	-1.189392
34	0xc010fa78	-2.2652874
35	0xbe3b28f1	-0.18277337
36	0xbfea7dac	-1.8319602
37	0xbfd2adad	-1.6459252
38	0xbf383cb7	-0.71967643
39	0x3da7869e	0.08179973
40	0xbf112d9e	-0.5671023
41	0xbfb6ca6d	-1.4280525
42	0xbf105b42	-0.5638925
43	0xbfc4d354	-1.5376992
44	0xbfb5d595	-1.4205805
45	0xc00973a7	-2.1476839
46	0xbf4632e9	-0.7742143
47	0x3f1781c8	0.59182405
48	0xc044fc87	-3.077913
49	0xbf635504	-0.888016
50	0xc0121ee7	-2.2831361
51	0xbfdca255	-1.723704
52	0xbf04ff38	-0.5195193
53	0xbf4c02a2	-0.7969152
54	0xc0027e6b	-2.038966
55	0xc01003c0	-2.250229
56	0xbf8c5b15	-1.0965296
57	0xbfe10b50	-1.7581577
58	0xc053c3be	-3.3088222
59	0xbfd52bde	-1.6654012
60	0xbf0e58ec	-0.55604434
61	0xc00b9307	-2.1808488
62	0xbf7ed5af	-0.99544805
63	0xbfd1228a	-1.6338665
64	0x3e411c2a	0.188584
65	0x3c0ce22e	0.008598847
66	0xbeec5d32	-0.46164852
67	0x3eecd506	0.46256274
68	0x3cbdcfd4	0.02317039
69	0xbf3986f7	-0.72471565
70	0xbe566572	-0.20937136
71	0xba836a4b	-0.0010026185
72	0x3f27a655	0.6548818
73	0xbe79ec5a	-0.24406567
74	0xbe83054b	-0.25589976
75	0x3d04c1f4	0.03241153
76	0x3d0fcd2f	0.035107788
77	0x3ec49385	0.38393798
78	0x3e804c06	0.25058
79	0x3dbd8204	0.09253314
80	0xbef76fef	-0.48327586
81	0x3e1a3dec	0.15062684
82	0xbe806ac7	-0.25081465
83	0xbf4ebd8b	-0.8075797
84	0x3e25956f	0.16170286
85	0xbd874726	-0.06605367
86	0xbdb980a8	-0.09057742
87	0x3ed67295	0.41884294
88	0x3ec6a303	0.38796243
89	0xbdb4f3e5	-0.08835582
90	0xbe1237c5	-0.14279087
91	0xbe0bd4b1	-0.13655354
92	0x3e0ec8af	0.13943742
93	0xbe7db06b	-0.2477433
94	0xbe889a54	-0.26680243
95	0x3da709a4	0.08156136
96	0xc02d463a	-2.7074113
97	0xc0b70aad	-5.720053
98	0xc04e5f06	-3.2245498
99	0xbf4c6c06	-0.7985233
100	0xbfff6c3f	-1.9954909
101	0xc034fc8a	-2.8279138
102	0xc084e433	-4.1528563
103	0xbe1c758a	-0.15279213
104	0xc037cb75	-2.871793
105	0xbf9e1dca	-1.2352841
106	0xbeb960fc	-0.36206806
107	0xc0004a97	-2.0045526
108	0xbf3cf21a	-0.7380692
109	0xc002ffa2	-2.0468526
110	0xbfcd4392	-1.6036246
111	0xbf8483aa	-1.0352681
112	0xbfd2d1f9	-1.6470329
113	0xc02c3c5f	-2.6911848
114	0xc005a1f9	-2.088011
115	0xc06bc46d	-3.6838639
116	0xbf824e42	-1.0180132
117	0xbf1e0265	-0.61722404
118	0xbf9821a5	-1.1885267
119	0xc018cdc0	-2.387558
120	0xc02c22b4	-2.689618
121	0xbfa4c4a3	-1.2872509
122	0xbfe09a59	-1.7547103
123	0xc04b5a72	-3.1773953
124	0xbef3efa9	-0.47643784
125	0xc0286c7d	-2.6316216
126	0xbf5e3e41	-0.8681374
127	0xc01b015a	-2.4219575

Encoder.encoder_lstm.bias_hh_l0 f4 [128]
0	0xbfda115a	-1.7036545
1	0xbfa8e0a8	-1.319356
2	0xc001c726	-2.02778
3	0xbf837eff	-1.0273131
4	0xbf86446f	-1.0489634
5	0x3d6c81d8	0.057741016
6	0xbf7d1f98	-0.98876333
7	0x3e53a03c	0.20666593
8	0xbf40c13c	-0.7529485
9	0xbf67a6e1	-0.9048901
10	0xbf0f9ae8	-0.56095743
11	0xbf403a00	-0.750885
12	0xbe6ce427	-0.23133908
13	0xbf6c4da6	-0.9230598
14	0xbfa78356	-1.3086956
15	0xbf39bea8	-0.72556543
16	0xbf94e5dd	-1.1632649
17	0xbf8512e1	-1.0396386
18	0xbfcc3c1a	-1.5955842
19	0xbfcef796	-1.6169307
20	0xbedb1b4d	-0.42794266
21	0xbeb26940	-0.34845924
22	0xbea9ffb1	-0.3320289
23	0xbf8cdcf4	-1.100493
24	0xbf99251c	-1.196445
25	0xbf8966ee	-1.0734537
26	0xc0084437	-2.1291635
27	0xbfade102	-1.3584292
28	0xbf002375	-0.50054103
29	0xc00f1b07	-2.2360246
30	0xbecd513f	-0.40101048
31	0xbfa935e5	-1.3219572
32	0xbfef6edb	-1.8705705
33	0xbf771047	-0.9650921
34	0xc01cf4cc	-2.4524412
35	0x3d888b8d	0.06667242
36	0xbfc61e96	-1.5478084
37	0xbfbf1342	-1.4927752
38	0xbf10bccd	-0.5653809
39	0xbe6e984e	-0.23300287
40	0xbf3da6ea	-0.74082816
41	0xbfd010b2	-1.6255095
42	0xbf4d3324	-0.8015616
43	0xbfee76d3	-1.8630012
44	0xbfa1c1e5	-1.2637297
45	0xc00b8730	-2.1801262
46	0xbf4e11cd	-0.8049591
47	0x3f2aa46f	0.66657156
48	0xc0467e7a	-3.1014695
49	0xbf68ed52	-0.9098712
50	0xc012573c	-2.2865744
51	0xbfe69037	-1.8012761
52	0xbf0ca146	-0.54933584
53	0xbf75e906	-0.9605869
54	0xc0038b4e	-2.0553775
55	0xc018b4c2	-2.3860326
56	0xbf873d1a	-1.0565522
57	0xbfed4f9a	-1.8539917
58	0xc056789b	-3.3511112
59	0xbfdbde1d	-1.7177159
60	0xbf1f65d7	-0.6226477
61	0xc00a0951	-2.1568186
62	0xbf849743	-1.0358661
63	0xbfbda4ad	-1.481588
64	0x3e3c3c10	0.18382287
65	0x3e19858e	0.14992353
66	0xbee50868	-0.44732976
67	0x3ea12a5e	0.31477636
68	0xbe819a8b	-0.2531322
69	0xbf18b4a2	-0.59650624
70	0xbda78e02	-0.08181383
71	0x3dd345ca	0.103160456
72	0x3f0aed7f	0.5426864
73	0xbe8756b7	-0.26433346
74	0xbe2fcca1	-0.17167903
75	0xbe518112	-0.20459393
76	0x3eae17c1	0.34002498
77	0x3e92f047	0.28698942
78	0xbcd0cb20	-0.025487483
79	0x3e91bdf1	0.28465226
80	0xbef4df93	-0.47826824
81	0xbd265bb4	-0.0406148
82	0xbe07a064	-0.13244778
83	0xbf4e0393	-0.80474204
84	0x3e07ee50	0.13274503
85	0xbd2ffe46	-0.042967103
86	0x3c85b7a0	0.01632291
87	0x3f3e3aa1	0.7430821
88	0x3ee94320	0.45559025
89	0xbea4284d	-0.32061997
90	0x3d3483fb	0.04407118
91	0xbea9ad23	-0.33139905
92	0x3ec1f454	0.3788172
93	0xbe25562a	-0.1614615
94	0xbea784fc	-0.32718647
95	0x3e90e370	0.2829852
96	0xc03671b1	-2.8506892
97	0xc0b7e379	-5.7465177
98	0xc04728c8	-3.111864
99	0xbf3cb643	-0.7371561
100	0xc0012b34	-2.018262
101	0xc03752ca	-2.864428
102	0xc0880600	-4.2507324
103	0xbe9a060c	-0.30082738
104	0xc02fad33	-2.7449462
105	0xbf9dcc1b	-1.2327913
106	0xbedf14a3	-0.43570432
107	0xc0003e0d	-2.0037873
108	0xbf30ac3c	-0.6901281
109	0xbffa14d3	-1.9537605
110	0xbfcdca9f	-1.607746
111	0xbf882e42	-1.0639117
112	0xbfd21a97	-1.6414365
113	0xc021a5bc	-2.5257406
114	0xc005bbe0	-2.089592
115	0xc0743864	-3.8159418
116	0xbf4ad9b0	-0.79238415
117	0xbf1c6e81	-0.61106116
118	0xbfa3ab30	-1.2786617
119	0xc022df2e	-2.5448718
120	0xc03e29c8	-2.9713001
121	0xbfb845d6	-1.4396312
122	0xc00049cf	-2.004505
123	0xc04f357b	-3.2376392
124	0xbf15a30a	-0.584519
125	0xc0231508	-2.5481586
126	0xbf746f54	-0.95482373
127	0xc01b933b	-2.4308612

Encoder.encoder_attn.0.weight f4 [20, 84]
0	0xbdde1058	-0.10842961
1	0x3ea75a27	0.32685968
2	0xbf1b7a9c	-0.6073396
3	0x3e23a70d	0.15981694
4	0x3fa80b7b	1.3128504
5	0xbf368d1f	-0.71309084
6	0x3f245406	0.6419071
7	0xbf0a318b	-0.53981847
8	0x3e37221b	0.17884104
9	0x3e10aac5	0.14127643
10	0x3fd3bf47	1.6542748
11	0x3e639677	0.22225367
12	0xbf063d95	-0.52437717
13	0xbeecf1dc	-0.46278274
14	0xbff2b990	-1.8962879
15	0xbfbe53e6	-1.4869354
16	0x3fb75f7e	1.4326017
17	0xbf1ccb4c	-0.61247706
18	0xbd85f853	-0.06541505
19	0x3eda570d	0.4264454
20	0x3fd3e609	1.6554576
21	0x3f77db1c	0.9681871
22	0x3ecc5384	0.39907467
23	0x3f2abbd9	0.6669288
24	0xbf155352	-0.5833026
25	0xbf44a578	-0.76814985
26	0xbf97f470	-1.1871471
27	0x3ed0e528	0.40799832
28	0xbf888c01	-1.0667726
29	0x3f5caa64	0.86197495
30	0x3fe0b9fb	1.7556757
31	0x3d448ea7	0.047987606
32	0xbe3cd35c	-0.18440002
33	0xbf61345a	-0.8797051
34	0xbf72215e	-0.94582164
35	0xbf591039	-0.8479038
36	0x3fd6b755	1.6774698
37	0xbd9630b5	-0.07333509
38	0x3fc37295	1.5269343
39	0xbf313bc7	-0.6923184
40	0x3cc6104a	0.02417769
41	0xbeaaf934	-0.33393252
42	0x3fe06591	1.7530996
43	0x3f46f99d	0.7772463
44	0xbf702567	-0.9380707
45	0x3e9a47b7	0.3013284
46	0xc00ce87c	-2.2016897
47	0xbfd22be0	-1.641964
48	0x3f98d256	1.193919
49	0xbf8a2fdd	-1.0795857
50	0xbe1c739c	-0.15278476
51	0xbdbaaa38	-0.09114498
52	0x3f0c159e	0.54720485
53	0x3f689fa2	0.9086858
54	0x3f69ee9a	0.913797
55	0xbec4e2ec	-0.38454378
56	0xbf32e001	-0.6987305
57	0xbf3ec783	-0.7452318
58	0xbe9ba434	-0.30398715
59	0xbf80b2c3	-1.0054554
60	0xbf39e211	-0.72610575
61	0x3f3e15af	0.74251837
62	0x3fbf7035	1.4956118
63	0xbf44194e	-0.7660111
64	0xbde8c5a4	-0.11365822
65	0xbf2f7c37	-0.6854891
66	0x3e85ec86	0.26157016
67	0xbf81b817	-1.0134305
68	0xbf1faa56	-0.62369287
69	0x3f94d18a	1.1626446
70	0xbedc1b72	-0.4298969
71	0x3ed70358	0.4199474
72	0xbec1d495	-0.378575
73	0xbf10a718	-0.56504965
74	0xbf485216	-0.78250253
75	0xbf08d7f4	-0.5345452
76	0x3f25f13b	0.64821213
77	0xbe590f5d	-0.21197267
78	0xbe064e74	-0.13115865
79	0xbe8605b2	-0.2617622
80	0xbd9300d7	-0.071778946
81	0xbf2075b3	-0.62679595
82	0xbef1cd0f	-0.4722676
83	0xbf4599be	-0.77187717
84	0xbeca6325	-0.39528766
85	0xbf00c276	-0.50296724
86	0x3cfe73c8	0.031061068
87	0xbfa6d58f	-1.3033923
88	0xbe37845d	-0.17921586
89	0xbf0ffe3e	-0.5624732
90	0x3f1b6dca	0.607144
91	0xbf54a5e0	-0.83065605
92	0x3f2b3773	0.66881484
93	0xbd966c23	-0.07344844
94	0xbdfcceaf	-0.12344109
95	0xbf53098e	-0.82436454
96	0xbea25331	-0.31704095
97	0x3f2d5355	0.6770528
98	0x3f61a9c9	0.88149697
99	0xbfaf21b1	-1.3682157
100	0x3f387d69	0.7206636
101	0xbfde685f	-1.7375602
102	0xba89365a	-0.0010468469
103	0xbd34ad0f	-0.044110354
104	0xbfbe9fbf	-1.4892501
105	0x3fcc59c5	1.5964895
106	0xbe5db92d	-0.2165267
107	0x3e7e6366	0.24842605
108	0xbf3658ed	-0.7122944
109	0x3e5bb93c	0.2145738
110	0xbe27c5ee	-0.16384098
111	0x3f9c8e55	1.2230936
112	0xbfeefb16	-1.8670375
113	0x3ecb8cf0	0.39755964
114	0x3ee71403	0.45132455
115	0x3fb1fd2e	1.3905389
116	0xbbe0b9c9	-0.006858085
117	0xbf3bed00	-0.7340851
118	0x3e438367	0.19093095
119	0xbed58beb	-0.4170831
120	0xbf37cc3d	-0.7179602
121	0x3e7c47c1	0.24636747
122	0x3fbe089f	1.4846381
123	0xbf06c7ab	-0.5264842
124	0xbfa28629	-1.2697192
125	0x3f4518f8	0.76991224
126	0x3e3f2023	0.18664603
127	0xbfbea334	-1.4893556
128	0xbf394012	-0.7236339
129	0x3f37fafd	0.7186735
130	0x3eb3772a	0.35051852
131	0xbf28772a	-0.6580683
132	0x3ea5a004	0.32348645
133	0xbfd85ec4	-1.690392
134	0x3eec4bba	0.46151525
135	0x3e3378e2	0.17526582
136	0xbf1c669d	-0.61094075
137	0x3fded32b	1.7408193
138	0xbf5f0c32	-0.87127984
139	0xbf401e65	-0.7504638
140	0xbf44f876	-0.7694162
141	0x3e474a46	0.19461927
142	0xbe91fe82	-0.28514487
143	0xbeb31598	-0.34977412
144	0xbfbaea5b	-1.460277
145	0x3ea3140d	0.31851235
146	0xbdcad1f8	-0.099033296
147	0xbef5caf6	-0.4800641
148	0x3d9e77bd	0.07737682
149	0xbf113e37	-0.5673556
150	0xbea12cc3	-0.31479463
151	0x3edc0882	0.4297524
152	0x3f4a6fcb	0.7907683
153	0xbe85e697	-0.2615249
154	0x402354b0	2.552044
155	0x3ee40c1e	0.44540495
156	0x3f710856	0.94153345
157	0x3ea85c46	0.328829
158	0xbe895007	-0.2681887
159	0xbeaf60f3	-0.34253654
160	0x3e465b7c	0.19370836
161	0x3ec50b22	0.38485056
162	0x3f0c6497	0.5484099
163	0x3e100b83	0.14066891
164	0xbd287ddc	-0.041135654
165	0x3f6501e4	0.8945601
166	0xbe4eaa90	-0.20182252
167	0xbe9f5840	-0.31122017
168	0xbeb1c630	-0.34721518
169	0xbeb1fb77	-0.34762165
170	0x3ed89928	0.4230435
171	0x3f12c610	0.5733347
172	0xbeecbe93	-0.46239147
173	0xbd564aae	-0.052317314
174	0x3d774255	0.060365994
175	0xbe508145	-0.20361812
176	0xbf96b168	-1.177289
177	0xc00dc697	-2.215246
178	0xbf91f5d5	-1.1403147
179	0x3dee76d8	0.116437614
180	0x3fbfb1a5	1.4976088
181	0xbf857b4f	-1.0428256
182	0x3f2318db	0.637098
183	0xbfd9e737	-1.7023686
184	0xbf874a31	-1.0569516
185	0xbf3644b7	-0.711986
186	0x3feb7e43	1.8397907
187	0xbe84e158	-0.25953174
188	0xbfb5a170	-1.4189892
189	0xbf831bb3	-1.0242828
190	0x3f19d18b	0.6008536
191	0xbee85b1c	-0.4538201
192	0x3f383470	0.71955013
193	0x3f8d0df1	1.101988
194	0xbf250dfc	-0.64474463
195	0x3eed62d4	0.46364462
196	0x3f17f618	0.59359884
197	0xbef327b6	-0.47491235
198	0x3fa78f24	1.3090558
199	0xbeeebaf2	-0.46627003
200	0xbd1ea94d	-0.038735677
201	0xbeb0c47d	-0.3452491
202	0x3e63f260	0.22260427
203	0x3e3cf605	0.18453224
204	0x3ed7cc55	0.4214808
205	0xbf6cfb8f	-0.9257135
206	0xbed93840	-0.42425728
207	0xbcb885ed	-0.022524798
208	0xbefcb99c	-0.4936036
209	0xbfbe9147	-1.4888085
210	0xbf6cb1c4	-0.9245875
211	0x3f371c78	0.71527815
212	0x3fb709c5	1.4299856
213	0xbf6f4268	-0.934607
214	0x3f75084b	0.9571578
215	0xbfb48c09	-1.4105235
216	0xbfda4578	-1.705245
217	0xbf489ecf	-0.7836732
218	0x4014e32d	2.3263657
219	0x3e21ee1c	0.15813488
220	0xbfa596aa	-1.2936604
221	0xbf8d5a81	-1.1043245
222	0x3e11a194	0.14221793
223	0x3f5793f5	0.8421014
224	0xbe9026ae	-0.2815451
225	0x3f367da2	0.7128545
226	0xbf348848	-0.7052045
227	0x3e41fdf6	0.18944535
228	0x3e39b3b9	0.18134965
229	0xbf9d6e8c	-1.2299361
230	0x3fba89a4	1.4573255
231	0x3fb20c83	1.3910068
232	0xbd96c1ce	-0.07361184
233	0xbf7718d3	-0.96522254
234	0xbefd27f2	-0.49444538
235	0xbe9ebc4e	-0.3100304
236	0xbf4bfb0c	-0.7967994
237	0x3f32c2f1	0.69828707
238	0x3d84890c	0.06471452
239	0x3d2a6cc1	0.041607622
240	0xbeebea86	-0.46077365
241	0x3d9194cd	0.071084596
242	0xbef1f2d4	-0.47255576
243	0x3f1a5100	0.60279846
244	0x3fa550d2	1.2915289
245	0xbef76add	-0.48323718
246	0xbf079c46	-0.5297283
247	0xbf3e6d14	-0.7438519
248	0xbf8cdc05	-1.1004645
249	0x3e9de43b	0.3083819
250	0xbe8c6af8	-0.2742536
251	0xbf8d11ff	-1.1021117
252	0xbed724f9	-0.42020395
253	0xbe9daf1a	-0.30797654
254	0x3f16b8e6	0.5887588
255	0xbf296e70	-0.6618414

Encoder.encoder_attn.0.bias f4 [20]
0	0xbf281cb6	-0.6566881
1	0xbee859a3	-0.45380887
2	0xbe5f945d	-0.2183394
3	0x3f7e4446	0.99322927
4	0x3f876c2f	1.057989
5	0x3f9b1860	1.2116814
6	0xc01c3457	-2.4406946
7	0xbfb6abe2	-1.4271204
8	0xbed9e76e	-0.4255938
9	0xbfaabc37	-1.3338689
10	0x4056b827	3.3549898
11	0xbd578f12	-0.052626677
12	0xbea11274	-0.3145939
13	0x3fcd4b64	1.6038632
14	0x3fd92d51	1.6966954
15	0xbf37a7e9	-0.71740586
16	0x4019f03c	2.4052877
17	0x3fd5675d	1.6672169
18	0x3ff4a9ef	1.911436
19	0xbef99658	-0.48747516

Encoder.encoder_attn.2.weight f4 [1, 20]
0	0x3dc3db64	0.0956333
1	0x3ed706ab	0.41997275
2	0x3ea49289	0.32143047
3	0xbe02c05b	-0.1276869
4	0xbe78e33d	-0.24305435
5	0xbed799ee	-0.42109627
6	0x3ede7ded	0.4345545
7	0x3d2fbe30	0.042905986
8	0xbe2cf706	-0.16891107
9	0x3e6070ab	0.2191798
10	0x3e179daa	0.14806238
11	0x3f178a6a	0.5919558
12	0x3db6d312	0.08926977
13	0xbe5a1b9b	-0.21299593
14	0xbe5c9b81	-0.21543695
15	0xbe591b3e	-0.21201798
16	0xbdcd332c	-0.10019526
17	0x3dd67d0e	0.10473071
18	0xbed83a2d	-0.42231885
19	0xbe914634	-0.28373873

Encoder.SelfAttention.wq.weight f4 [20, 20]
0	0x3efeddce	0.497786
1	0xbd9f441c	-0.07776663
2	0xbf275fa6	-0.6538032
3	0xbe0439e4	-0.12912709
4	0xbf8c3ef2	-1.0956709
5	0x3d8f8d9a	0.0700943
6	0xbe048b9d	-0.12943883
7	0x3dcff906	0.10154919
8	0x3f4c23cd	0.7974213
9	0xbe1b4a21	-0.15164997
10	0xbf212373	-0.62944716
11	0x3ee38d3c	0.4444369
12	0xbf58e20b	-0.84719914
13	0xbc26f52d	-0.01019029
14	0xbeda8634	-0.42680514
15	0x3f9bed7e	1.2181852
16	0xbf1e6293	-0.6186916
17	0x3e4712dd	0.1944079
18	0xbf172a69	-0.5904909
19	0x3f98a4ca	1.192529
20	0xbf315525	-0.69270545
21	0xbf969128	-1.1763048
22	0x3ed0d919	0.40790632
23	0xbe8f233b	-0.27956566
24	0x3f26bab7	0.65128654
25	0x3e803d3c	0.25046718
26	0xbf8abced	-1.0838906
27	0x3e3b2564	0.18275982
28	0x3f313f0b	0.6923682
29	0xbf433681	-0.7625504
30	0xbe501db6	-0.20323834
31	0xbef7e213	-0.48414668
32	0x3ec0018f	0.3750119
33	0xbe5d9193	-0.21637563
34	0x3ecfab5d	0.40560427
35	0xbef18d12	-0.4717794
36	0xbe74eb6e	-0.23917934
37	0xbec5ac7a	-0.38608152
38	0x3ff95168	1.9477968
39	0x3f47ff05	0.78123504
40	0xbe38296a	-0.17984548
41	0xbf09e879	-0.5387035
42	0xbea32750	-0.3186593
43	0x3e3b74ac	0.18306226
44	0xbeedf08d	-0.46472588
45	0x3f1b2e85	0.6061786
46	0xbe512d41	-0.20427419
47	0xbe8f54d3	-0.27994403
48	0xba579a90	-0.0008224631
49	0x3f881fc1	1.063469
50	0x3f1130dd	0.56715184
51	0xbf2ec4a3	-0.68268794
52	0xbed25dd0	-0.41087198
53	0xbe055a8a	-0.13022819
54	0xbeb62d48	-0.35581422
55	0x3e6fc823	0.2341619
56	0x3e280fb6	0.16412243
57	0xbd7a9d5e	-0.061185233
58	0xbf2805fb	-0.65634125
59	0x3fc00aa9	1.5003253
60	0xb7eb39e1	-2.8041135e-05
61	0x3e0eeb15	0.13956864
62	0xbfab5bed	-1.3387429
63	0xbe988387	-0.29787847
64	0x3fc29114	1.5200524
65	0x3fb4e66f	1.4132823
66	0x3e7b2d28	0.24528944
67	0xbf5d4413	-0.86432
68	0xbf4005c3	-0.7500879
69	0x3ecc0450	0.3984704
70	0xbea7c8c5	-0.32770362
71	0x3f20f94a	0.62880385
72	0x3f017644	0.50571084
73	0x3ebcec2a	0.3689893
74	0x3ea5bbbc	0.32369792
75	0x3d6fd830	0.05855578
76	0xbf4a1aaf	-0.78946966
77	0xbf827e97	-1.0194882
78	0xbed0b3fa	-0.4076231
79	0x3ef54daa	0.47910815
80	0xbec7deff	-0.3903732
81	0xbf52e55b	-0.8238122
82	0xbf1c2fb9	-0.6101032
83	0xb9ebfd6a	-0.000450115
84	0xbecb5886	-0.39715976
85	0xbee168ff	-0.44025418
86	0x3e2fcc82	0.17167857
87	0x3f988883	1.191666
88	0x3f8b75b2	1.0895293
89	0x3e38de47	0.18053542
90	0xbf05f942	-0.5233346
91	0x3e275265	0.16340025
92	0x3f78c06c	0.9716861
93	0x3ea45eb8	0.32103515
94	0x3dff19c8	0.12456089
95	0xbe68c99c	-0.22733158
96	0x3f44b0ec	0.7683246
97	0x3f300fd1	0.68774134
98	0xbf14cf2f	-0.5812864
99	0xbd4f491e	-0.05060684
100	0xbf3b47ee	-0.7315663
101	0x3eb28413	0.3486639
102	0x3f1666fb	0.58750886
103	0xbeaf3dcc	-0.34226835
104	0x3f49f28f	0.7888574
105	0xbf66ef92	-0.90209305
106	0xbec2f726	-0.38079184
107	0xbea27e45	-0.3173696
108	0xbe0aec96	-0.13566813
109	0xbf303b12	-0.68840134
110	0x3f037957	0.51357025
111	0x3e94f423	0.29092512
112	0x3effed2f	0.49985644
113	0xbe24c953	-0.16092424
114	0x3f11e9ea	0.5699755
115	0xbf18f32a	-0.5974604
116	0x3f454be3	0.7706892
117	0xbf7700ba	-0.96485484
118	0x3f07c186	0.5302967
119	0xbe292aa2	-0.1652017
120	0x3ca93874	0.020656802
121	0xbda24152	-0.07922615
122	0xbdd3cb28	-0.10341483
123	0x3e7bc343	0.24586205
124	0xbfc2a9db	-1.5208086
125	0xbf971e4b	-1.180612
126	0xbee39f48	-0.4445746
127	0xbee3265b	-0.443652
128	0x3f4ea870	0.80725765
129	0x3e437d0a	0.19090667
130	0xbef4ea1a	-0.47834855
131	0x3e3db3d4	0.1852563
132	0x3f6ff29c	0.9372957
133	0x3f9b0796	1.211169
134	0x3ef4aa7c	0.4778632
135	0x3f340137	0.70314354
136	0xbf9d0e1b	-1.226993
137	0xbf131859	-0.57459027
138	0xbe1d4a50	-0.15360379
139	0x3f1acbac	0.6046703
140	0x3ecfb0f2	0.40564686
141	0x3e81d833	0.2536026
142	0x3e9df3bc	0.30850017
143	0x3db43be6	0.08800487
144	0x3f778984	0.9669421
145	0x3f4fc479	0.8115917
146	0xbe856933	-0.26056823
147	0x3e6df2d6	0.23237166
148	0x3f2d8890	0.677865
149	0xbd254dac	-0.040357277
150	0x3f00ddae	0.50338256
151	0xbeb74227	-0.35792658
152	0xbe808b4c	-0.25106275
153	0x3ec8b3b1	0.39199594
154	0xbd760dad	-0.060071636
155	0xbf70d45c	-0.94074035
156	0xbf68b23d	-0.9089697
157	0xbf8e8319	-1.1133758
158	0xbea25016	-0.31701726
159	0xbeb635c9	-0.3558791
160	0x3ef49e53	0.47777042
161	0x3e0009e1	0.12503769
162	0xbef54399	-0.47903135
163	0xbfae6831	-1.3625547
164	0x3f925cf5	1.1434618
165	0x3d6a1830	0.057151973
166	0x3f4d1e96	0.80124795
167	0x3e1ff8b8	0.15622222
168	0xbe3bb6ec	-0.18331498
169	0xbda5b9eb	-0.08092102
170	0xbb3d9bf2	-0.0028932062
171	0x3f57308c	0.8405845
172	0xbe58cb88	-0.21171391
173	0x3b6d1fb0	0.0036182217
174	0xbe921133	-0.28528747
175	0xbf49fd77	-0.7890238
176	0x3fad48bc	1.3537822
177	0xbe6d7da7	-0.23192464
178	0xbf83b9c9	-1.0291072
179	0x3e9a23e9	0.30105522
180	0xbec1b137	-0.37830517
181	0xbe9c3d5f	-0.30515572
182	0xbe81fbea	-0.25387508
183	0xbf182639	-0.59433323
184	0x3cabbde8	0.020964578
185	0x3f7cc93f	0.9874458
186	0x3f184247	0.5947613
187	0x3e439ddd	0.19103189
188	0x3f83e1b0	1.0303249
189	0xbe137cc0	-0.14403057
190	0xbf24c89c	-0.64368606
191	0xbf347a28	-0.70498896
192	0x3e1925cd	0.14955826
193	0xbecfeaeb	-0.40608916
194	0xbe07bd04	-0.13255697
195	0x3f7c8020	0.98633003
196	0xbf893b71	-1.0721265
197	0xbf26a6e0	-0.6509838
198	0x3eba81ed	0.3642725
199	0x3f084602	0.53231823
200	0xbf1f1122	-0.6213552
201	0x3ee0d89d	0.43915263
202	0x3ef1651d	0.47147456
203	0x3d9cabe8	0.07649976
204	0x3d81e6aa	0.06342824
205	0x3f122053	0.5708057
206	0xbe591d9b	-0.212027
207	0xbdf4fabd	-0.11961887
208	0x3eebd502	0.4606095
209	0x3f6b13f9	0.9182735
210	0xbedc8834	-0.43072665
211	0x3ec40d95	0.38291612
212	0xbdaecafb	-0.08534809
213	0xbf371434	-0.715152
214	0xbe063232	-0.13105085
215	0xbdd4398f	-0.10362541
216	0x3e8dd4a3	0.2770129
217	0x3e4869cd	0.1957161
218	0xbfbb3dfb	-1.462829
219	0x3d5101d1	0.051027123
220	0x3f4c4580	0.7979355
221	0x3efe128f	0.49623534
222	0xbca126d4	-0.019671835
223	0xbf371a61	-0.71524626
224	0x3eed02f7	0.46291324
225	0x3eaf9163	0.3429061
226	0x3f9c2d66	1.2201355
227	0x3e9bf762	0.30462176
228	0xbeab9173	-0.33509406
229	0xbf74448f	-0.9541711
230	0xbf8c73a5	-1.0972792
231	0x3e0e08f5	0.13870604
232	0x3ed275b8	0.41105437
233	0x3d6e2c31	0.058147613
234	0x3c9a5d40	0.018843293
235	0x3f2cc9da	0.674955
236	0xbf054266	-0.5205444
237	0x3e88572d	0.2662901
238	0x3e825b05	0.25460067
239	0xbfbf955b	-1.4967455
240	0x3dfabcd6	0.12243049
241	0xbeccdd02	-0.40012366
242	0xbf314f3b	-0.6926152
243	0xbf47697e	-0.77895343
244	0x3f5cb6c7	0.86216396
245	0x3f5885c8	0.84579134
246	0xbe70a798	-0.23501432
247	0xbf33f1b9	-0.70290715
248	0x3ed8879a	0.42290956
249	0xbf30cca7	-0.69062275
250	0xbf205ff7	-0.6264643
251	0xbee0d654	-0.4391352
252	0x3f2ffee2	0.68748295
253	0xbf26515e	-0.64967906
254	0x3e929478	0.28628898
255	0x3f9960e7	1.1982697

Encoder.SelfAttention.wk.weight f4 [20, 20]
0	0x3e7b4284	0.24537092
1	0x3f0a2318	0.539598
2	0xbf25bd39	-0.64741856
3	0xbf1f3743	-0.621937
4	0xbefbe761	-0.49199966
5	0x3efd9132	0.49524838
6	0xbf6edcf9	-0.9330593
7	0x3f85dbb9	1.0457679
8	0x3e02566b	0.12728278
9	0x3e97740b	0.2958072
10	0xbf030d2e	-0.51191986
11	0x3e480ce5	0.19536169
12	0xbeee8221	-0.46583655
13	0xbf0cfcd2	-0.55073273
14	0x3eea9315	0.4581534
15	0x3f973962	1.1814387
16	0xbf081439	-0.5315586
17	0xbef99c85	-0.48752227
18	0x3f9f9158	1.246623
19	0xbeb0c042	-0.3452168
20	0xbf855739	-1.0417243
21	0xbf80bf10	-1.0058308
22	0xbf379ab2	-0.7172042
23	0x3f11481e	0.5675067
24	0x3f912e77	1.1342305
25	0xbf24a8b0	-0.64319897
26	0xbc8c7e15	-0.017149964
27	0x3c95abc4	0.01827038
28	0x3e06fc52	0.1318219
29	0xbf973220	-1.1812172
30	0xbf51cdd3	-0.8195469
31	0x3f1ea0aa	0.61963904
32	0x3f3b83c2	0.7324792
33	0x3f0a8134	0.541034
34	0xbdfc8428	-0.12329894
35	0xbf3236d5	-0.6961492
36	0x3e9378d0	0.2880311
37	0x3f395cd0	0.72407246
38	0x3f807b65	1.0037657
39	0x3e597f18	0.21239889
40	0xbf2ebb47	-0.6825451
41	0xbea54aa6	-0.32283515
42	0xbe5f5fd1	-0.21813895
43	0xbd33d16b	-0.04390089
44	0x3de0700b	0.109588705
45	0x3fa882c6	1.3164909
46	0xbf572989	-0.8404775
47	0xbe48b3df	-0.19599865
48	0x3ef18fb3	0.47179946
49	0x3e833eab	0.2563375
50	0x3e147266	0.14496765
51	0xbf8771a7	-1.0581559
52	0xbeca4780	-0.39507675
53	0x3b1ca581	0.002390236
54	0xbf4d613f	-0.8022651
55	0x3ea41006	0.32043475
56	0xbe94d5d9	-0.29069403
57	0xbf51baae	-0.81925476
58	0x3f725ff0	0.9467764
59	0x3e1877be	0.14889428
60	0xbea864f5	-0.32889524
61	0xbf28fdbf	-0.66012186
62	0xbe92a396	-0.2864043
63	0x3f115df8	0.5678401
64	0x3f012d42	0.5045968
65	0x3f56a9d8	0.8385291
66	0xbe00ba6a	-0.12571111
67	0xbf8e271c	-1.1105685
68	0xbf00f12e	-0.5036801
69	0x3efa8a00	0.4893341
70	0x3cf31bb3	0.029676294
71	0x3f95b5a9	1.1696063
72	0x3ed4322f	0.41444537
73	0x3ec3cdf1	0.38243058
74	0xbe314ff8	-0.17315662
75	0x3ef122c7	0.47096846
76	0xbfb20dba	-1.3910439
77	0xbf48aed6	-0.7839178
78	0x3efce00a	0.49389678
79	0x3b9cb489	0.0047822637
80	0xbf5c122e	-0.8596524
81	0xbec8e486	-0.3923685
82	0xbf7367d9	-0.95080334
83	0xbf80ab7c	-1.0052333
84	0xbde5de3d	-0.11224029
85	0x3f029d2c	0.51021075
86	0x3eb1e867	0.3474762
87	0x3f246fa2	0.6423284
88	0x3e1b42b1	0.1516216
89	0xbe23dcc0	-0.16002178
90	0x3f84b3cd	1.0367371
91	0xbdbc9c16	-0.092094585
92	0x3e1c4c70	0.15263534
93	0x3ec5c781	0.38628772
94	0xbe9f4bbc	-0.31112468
95	0x3f076ed5	0.5290349
96	0x3f98dedd	1.1943012
97	0x3ee7dd01	0.452858
98	0xbe474830	-0.19461131
99	0xbf057188	-0.5212636
100	0xbe26cbf9	-0.16288747
101	0xbeada9cc	-0.33918607
102	0x3e7fdadf	0.24985836
103	0xbe514dce	-0.20439836
104	0xbe0f0079	-0.13965024
105	0xbf8e040f	-1.1094989
106	0x3f081ff3	0.5317375
107	0xbf89b344	-1.0757833
108	0xbe6cbf07	-0.23119746
109	0xbe517618	-0.20455205
110	0x3f21fb56	0.63274133
111	0xbd9d657c	-0.07685372
112	0x3eb8c333	0.36086425
113	0x3ed31be0	0.41232204
114	0x3f3e474c	0.7432754
115	0xbfa9e3c7	-1.3272637
116	0x3f05f12b	0.5232112
117	0x3d63485b	0.055488925
118	0x3e8428d2	0.25812393
119	0x3d8e9896	0.06962697
120	0xbe704ce7	-0.23466836
121	0x3f089b8d	0.5336235
122	0xbeaedcf3	-0.34152946
123	0xbfe0d02f	-1.7563533
124	0xbf3c0de0	-0.7345867
125	0xbecb3a8a	-0.396931
126	0xbf82ebe6	-1.022824
127	0x3e36d4ac	0.17854565
128	0x3e04650a	0.12929168
129	0xbde25787	-0.11051851
130	0x3f7a936f	0.97881216
131	0x3efc33c6	0.4925825
132	0x3f6950ac	0.9113872
133	0x3ef8730e	0.4852528
134	0x3f33cad2	0.70231354
135	0xbe81f51c	-0.25382316
136	0xbfa207b9	-1.2658607
137	0x3e4c75f7	0.19966875
138	0x3f55df49	0.8354383
139	0xbf1752fc	-0.59111
140	0x3ed6540e	0.41861004
141	0x3e96f3bf	0.2948284
142	0x3f68c721	0.90928847
143	0x3f8d40d2	1.1035407
144	0x3f405aac	0.75138354
145	0x3edf0416	0.43557805
146	0x3e2a98e9	0.16659893
147	0x3efe664c	0.4968742
148	0x3eed267a	0.46318418
149	0x3e8b189c	0.27167213
150	0xbf1c1f38	-0.60985136
151	0x3e8d7de5	0.27635112
152	0x3f009bba	0.5023762
153	0x3f15934d	0.5842789
154	0xbf5c00d8	-0.8593879
155	0xbfbb2e3b	-1.4623483
156	0xbf3639be	-0.7118186
157	0xbe58d54f	-0.21175121
158	0xbe9486d2	-0.2900911
159	0xbf114c22	-0.56756794
160	0x3f17ccb3	0.5929672
161	0xbec905f1	-0.39262345
162	0xbec0e80a	-0.37677032
163	0xbdeab263	-0.11459806
164	0x3ea5d797	0.32391044
165	0xbcdf2bb4	-0.027242519
166	0x3f1d2044	0.6137736
167	0xbf0c7466	-0.5486511
168	0x3d0c8e47	0.034315374
169	0x3f865644	1.0495076
170	0x3edea09a	0.43481904
171	0x3ededc91	0.43527654
172	0xbdd0520c	-0.10171899
173	0xbed98176	-0.42481583
174	0xbe2ed710	-0.17074227
175	0x3df8db10	0.12151158
176	0x3fa72f31	1.3061277
177	0xbfb74081	-1.431656
178	0xbe4bf0c7	-0.19916068
179	0x3d879c5b	0.06621619
180	0xbf5203ab	-0.82036847
181	0xbe4ddd60	-0.20103979
182	0xbf2b718d	-0.6697014
183	0xbe2bc82b	-0.16775577
184	0x3e0ca559	0.1373495
185	0x3f6f0a1a	0.9337479
186	0x3f586d89	0.8454214
187	0x3f3e0665	0.7422851
188	0x3f12b015	0.5729993
189	0x3d3dc605	0.046331424
190	0xbf8287ce	-1.0197694
191	0xbccb80c2	-0.02484167
192	0xbd889c2d	-0.06670413
193	0x3e10db04	0.14146048
194	0x3d8633aa	0.06552823
195	0x3e0f4048	0.13989365
196	0xbf584016	-0.8447279
197	0xba4da12f	-0.00078441476
198	0x3eff3580	0.49845505
199	0xbe1338cd	-0.14377137
200	0xbdaef8a8	-0.08543521
201	0xbd83a320	-0.06427598
202	0x3f41b44f	0.75665754
203	0x3e9855b8	0.29752898
204	0x3e46a37f	0.19398306
205	0x3ef02bec	0.4690851
206	0x3e094b50	0.13407636
207	0x3ea9f836	0.33197182
208	0x3df3c5a8	0.11902934
209	0xbf2a1008	-0.6643071
210	0x3f3e9617	0.7444777
211	0xbf0989ee	-0.5372609
212	0xbf96ac5f	-1.1771353
213	0xbf296db3	-0.6618301
214	0xbd5cbc60	-0.053890586
215	0xbe15a568	-0.14613879
216	0x3e4deb91	0.20109393
217	0xbf21d9cf	-0.63222975
218	0x3e4fd76d	0.20297022
219	0xbe6df639	-0.23238458
220	0x3f71b266	0.9441284
221	0x3f00c0f5	0.5029443
222	0xbeb1c496	-0.34720296
223	0xbd88488e	-0.06654464
224	0xbbc32b60	-0.0059560984
225	0x3de07182	0.1095915
226	0x3fac978b	1.3483747
227	0x3e9665d4	0.29374564
228	0xbf11a1b8	-0.5688739
229	0x3da54f8d	0.08071814
230	0xbf45e1b6	-0.7729753
231	0x3f9b9582	1.2155001
232	0xbc58dad4	-0.013235766
233	0xbdb3aee8	-0.08773595
234	0x3f52622a	0.82181036
235	0x3e84756e	0.25870842
236	0xbf01073c	-0.50401664
237	0x3d1b7fb4	0.037963584
238	0xbfb0853d	-1.3790661
239	0xbe502bcb	-0.20329206
240	0xbddcf0be	-0.107881054
241	0xbec3ce28	-0.38243222
242	0xbf316b97	-0.69304794
243	0xbe1ed042	-0.15509132
244	0x3e9071d8	0.28211856
245	0x3fb17994	1.3865228
246	0x3d4db1f0	0.050218523
247	0xbedadad1	-0.4274507
248	0xbf27deef	-0.65574545
249	0xbeb86b50	-0.36019373
250	0xbed1cced	-0.40976658
251	0x3f2ed90b	0.6829993
252	0xbe987449	-0.2977622
253	0x3f201c21	0.6254292
254	0x3f85ab4a	1.0442898
255	0x3edc4e3c	0.43028438

Encoder.SelfAttention.wv.weight f4 [20, 20]
0	0x3e5049d6	0.20340666
1	0xbf365121	-0.7121754
2	0x3e1e591d	0.15463682
3	0xbd9da702	-0.0769787
4	0xbdec90df	-0.115510695
5	0x3daf5b52	0.0856234
6	0xbe0dbd94	-0.1384185
7	0xbe71890c	-0.23587435
8	0xbde0f554	-0.109842926
9	0x3d61f851	0.055168454
10	0x3eebe3b3	0.46072158
11	0xbe5ffdfe	-0.21874234
12	0x3e4a4f92	0.19756916
13	0xbe634fdd	-0.22198434
14	0x3dacf7f3	0.0844573
15	0x3e85a3ff	0.26101682
16	0x3f1eb5be	0.61996067
17	0xbe1f308a	-0.1554586
18	0xbf2cc2c5	-0.67484695
19	0x3e3a3f54	0.1818822
20	0x3e847bd7	0.25875732
21	0x3f0d35d6	0.5516027
22	0xbf053bea	-0.52044547
23	0x3f021ecb	0.50828236
24	0xbeb08fe2	-0.34484774
25	0xbc7dca66	-0.01549015
26	0x3e723c9b	0.23655932
27	0xbe9740f1	-0.29541734
28	0x3ed67079	0.41882685
29	0x3f14fdce	0.58199775
30	0x3e358816	0.17727694
31	0xbf6744d4	-0.903394
32	0xbe3e6f4b	-0.18597142
33	0x3eb8e0f7	0.36109135
34	0xbacf28c6	-0.0015804998
35	0x3cc477a0	0.023982823
36	0xbe58a8dc	-0.21158165
37	0x3eea8aa5	0.45808902
38	0xbf950423	-1.1641887
39	0x3da31a63	0.07964017
40	0x3f1f671c	0.6226671
41	0x3df8d428	0.121498406
42	0xbd9709fe	-0.07374953
43	0xbeaf2e68	-0.34215093
44	0x3ec95bd3	0.3932787
45	0x3b43a44b	0.0029852565
46	0x3e5499e0	0.20761824
47	0x3f91cdc0	1.1390915
48	0x3e412792	0.18862751
49	0xbf0ef8d1	-0.55848414
50	0xbed3e8ae	-0.41388458
51	0x3ef3fe69	0.47655037
52	0x3e99ccc0	0.30039024
53	0x3c1a57ae	0.0094203185
54	0xbeae060a	-0.33988982
55	0x3e52ef5a	0.20599118
56	0x3e820801	0.25396731
57	0xbcbe7b81	-0.02325225
58	0xbf770acf	-0.9650087
59	0xbed735d4	-0.42033255
60	0x3ef4ca2a	0.4781049
61	0x3f4ac191	0.7920161
62	0x3f04e192	0.51906693
63	0x3f8afa37	1.085761
64	0x3faef070	1.3667126
65	0x3f729226	0.94754255
66	0xbead4f06	-0.33849353
67	0xbf53b7cb	-0.8270232
68	0x3dbcc5fa	0.092174485
69	0x3e031fe0	0.12805128
70	0x3e9d0b61	0.30672744
71	0x3ecaf83e	0.3964252
72	0x3fa47d79	1.2850791
73	0xbe5a2284	-0.21302229
74	0xbfbdfb45	-1.4842306
75	0xbf89903c	-1.0747142
76	0xbf718e53	-0.94357795
77	0xbee0fe3e	-0.4394397
78	0xbf749071	-0.955329
79	0xbed58058	-0.4169948
80	0xbef2c3e2	-0.47415072
81	0x3d865887	0.06559854
82	0x3f010218	0.5039382
83	0x3ec30c90	0.38095522
84	0x3c8a6e2a	0.016898233
85	0xbf01e7ae	-0.5074414
86	0x3e9cb3b7	0.30605862
87	0xbe24a7da	-0.16079655
88	0xbe8dd962	-0.27704912
89	0x3f39e79b	0.72619027
90	0x3f032e46	0.5124248
91	0x3f2d5103	0.6770174
92	0xbf0c5da1	-0.54830366
93	0xbe8078fe	-0.2509231
94	0x3eda3aa2	0.42622858
95	0x3c0a2f2e	0.0084341
96	0x3ece4529	0.4028714
97	0x3eaa6d89	0.33286694
98	0xbf5e6d1d	-0.86885244
99	0xbf3c4293	-0.73539084
100	0x3ecc1a15	0.3986365
101	0x3e69c88b	0.22830407
102	0xbf582fc8	-0.8444791
103	0xbde1d4a8	-0.11026889
104	0xbe23bd41	-0.15990163
105	0xbe6a48b7	-0.22879301
106	0x3ee81a9e	0.45332807
107	0xbe8347f7	-0.25640842
108	0x3e0c2351	0.13685347
109	0x3ea44ac1	0.32088283
110	0xbd810801	-0.06300355
111	0x3f609e63	0.8774168
112	0x3f76d50a	0.9641882
113	0x3f35f564	0.7107756
114	0x3ea6a617	0.32548591
115	0xbe25147c	-0.16121095
116	0x3ed42617	0.4143531
117	0xbec8071f	-0.39067933
118	0xbf460d9d	-0.7736452
119	0xbf0545a4	-0.5205939
120	0x3f02390f	0.50868315
121	0xbe8e94f8	-0.2784803
122	0x3f26c130	0.6513853
123	0x3ddb1c18	0.10698718
124	0x3f631c34	0.8871491
125	0x3e6253ae	0.22102234
126	0x3f263849	0.64929634
127	0xbeb56b33	-0.3543335
128	0xbf65d01f	-0.8977069
129	0xbddfbe2e	-0.10924946
130	0x3fac452b	1.3458608
131	0x3f09b01c	0.53784347
132	0xbe15e51d	-0.14638181
133	0x3ebeef12	0.3729177
134	0xbe5922ab	-0.21204631
135	0x3d534f58	0.05158934
136	0xbfd7628c	-1.6826949
137	0xbf842d21	-1.0326272
138	0x3e23c42c	0.15992802
139	0xbfb3d5a8	-1.4049578
140	0xbebbf1dd	-0.36707965
141	0x3ef7a0f0	0.48364973
142	0x3f06e21e	0.5268878
143	0x3e8143ac	0.25246942
144	0xbe6774b3	-0.22603111
145	0xbec25e4d	-0.3796257
146	0xbeea082d	-0.45709363
147	0x3e25f7ba	0.16207781
148	0x3fbf53c9	1.4947444
149	0x3e98f317	0.29872963
150	0xbf769670	-0.963233
151	0xbeb33243	-0.34999284
152	0x3f39d020	0.725832
153	0xbdf3a226	-0.11896162
154	0x3d97fbfc	0.07421109
155	0xbc155330	-0.009114072
156	0xbd3c09db	-0.045907836
157	0x3d96d567	0.07364922
158	0x3d6198f4	0.055077508
159	0xbf9e0bb1	-1.2347318
160	0x3eaf688f	0.3425946
161	0x3e2e8cc2	0.17045882
162	0x3e17da0f	0.14829277
163	0xbdd3af34	-0.10336152
164	0x3eb1cf1b	0.3472832
165	0x3f3cf068	0.7380433
166	0x3d3df10a	0.04637245
167	0x3daa6f0b	0.08321961
168	0xbe960918	-0.29303813
169	0x3f168db9	0.5881
170	0x3de9ce74	0.11416331
171	0x3ed30367	0.41213533
172	0xbf3104fd	-0.69148237
173	0xbf4a6d79	-0.7907329
174	0x3e6262d9	0.2210802
175	0xbdc53a07	-0.096302085
176	0x3a0a8243	0.0005283693
177	0x3e67f903	0.22653584
178	0x3e8b7b01	0.27242282
179	0xbfa62430	-1.2979794
180	0xbe43a3c6	-0.19105443
181	0x3ec7f3b5	0.3905312
182	0x3f645529	0.89192444
183	0x3f0de16b	0.55422086
184	0x3f02b402	0.5105592
185	0x3ee55120	0.44788456
186	0x3ee49ec1	0.4465237
187	0x3ecb6fff	0.39733884
188	0x3d36ef47	0.044661786
189	0x3dc8be6a	0.098019436
190	0xbe847eee	-0.2587809
191	0xbf2e46d0	-0.680768
192	0xbb03a4b7	-0.0020087191
193	0x3f464b16	0.7745832
194	0xbc2a07c0	-0.010377824
195	0x3bcd6a11	0.0062687476
196	0xbefa30da	-0.48865396
197	0xbf54ac8c	-0.83075786
198	0xbfc85a97	-1.5652646
199	0xbfaeda53	-1.3660377
200	0xbf3f4e5d	-0.7472895
201	0xbea70032	-0.32617337
202	0x3ebba40d	0.36648598
203	0x3f218b6f	0.63103384
204	0xbe274fd0	-0.1633904
205	0x3f2905b4	0.6602433
206	0x3ef0d6b7	0.47038814
207	0x3f168a5a	0.5880486
208	0x3efbc962	0.4917708
209	0x3f27e021	0.6557637
210	0x3e496d81	0.19670679
211	0xbf0f0ff4	-0.5588372
212	0xbe008834	-0.12551957
213	0x3e0181d5	0.12647183
214	0xbf0d0d69	-0.5509859
215	0xbe4c8c0b	-0.19975297
216	0xbf02064e	-0.5079087
217	0x3f49c211	0.78811747
218	0xbc9fd769	-0.019511895
219	0xbf665d32	-0.89985955
220	0xbd8e2f60	-0.0694263
221	0x3f679e68	0.90476084
222	0x3e60fd47	0.21971618
223	0xbe982f5c	-0.29723632
224	0x3d9fd999	0.07805175
225	0x3ee33d19	0.4438255
226	0x3f5f1225	0.8713706
227	0x3e9cf4cf	0.30655524
228	0xbf061072	-0.52368844
229	0xbf84b3db	-1.0367388
230	0xbd987809	-0.0744477
231	0xbdf6473f	-0.12025308
232	0xbd69d26a	-0.057085432
233	0x3ef4b225	0.47792163
234	0x3e45c23f	0.1931238
235	0x3ea13a56	0.3148982
236	0x3eb7f826	0.3593151
237	0x3ec8fddc	0.3925618
238	0xbf1d07c3	-0.6133997
239	0xbe72bf47	-0.23705779
240	0x3e944830	0.28961325
241	0x3e2b61ec	0.16736573
242	0x3d594dd6	0.053052746
243	0x3f96855d	1.1759449
244	0x3f307b6e	0.6893834
245	0xbefecd5d	-0.49766055
246	0xbf227e5c	-0.6347406
247	0xbf4061bf	-0.7514915
248	0xbe372e78	-0.1788882
249	0xbeb3998e	-0.3507809
250	0x3c539a0f	0.012915148
251	0x3eb5b0d4	0.35486472
252	0x3ea7773f	0.32708165
253	0x3e85e358	0.26150012
254	0x3eab5aee	0.3346781
255	0x3ea13191	0.3148313
