result/ver7_3/last.pt (torch, 306841 bytes, 81 tensors)

Encoder.encoder_lstm.weight_ih_l0 f4 [128, 6]
0	0x3f4b34da	0.7937752
1	0x3f44ebca	0.76922286
2	0x3f39af71	0.7253333
3	0x3f885f15	1.0654017
4	0x3fa81c09	1.3133556
5	0x3ed26a3e	0.4109668
6	0x3e17d913	0.14828901
7	0x3f123f01	0.57127386
8	0x3f72d2f2	0.94853127
9	0xbebd86e5	-0.3701698
10	0xbf043298	-0.516397
11	0x3eb770ec	0.3582834
12	0x3e576605	0.21035011
13	0xbeddaa62	-0.43294054
14	0x3f33a77f	0.70177454
15	0x3ffa39ab	1.9548849
16	0x4014695f	2.3189313
17	0xbe389eac	-0.18029279
18	0xbf88beae	-1.0683191
19	0xbecd7afa	-0.40132886
20	0xbeed9ffb	-0.46411118
21	0xbf15ea0a	-0.5856024
22	0xbed39d96	-0.41331166
23	0xbf3cfe97	-0.73825973
24	0xbe88ac72	-0.26694065
25	0xbe5c5daa	-0.21520105
26	0xbf290166	-0.6601776
27	0x3fcc5394	1.5963006
28	0x3febda28	1.8425951
29	0xbe084dbd	-0.13310905
30	0x3e7d09dd	0.24710794
31	0x3f3feec7	0.7497372
32	0x3f2df6a5	0.67954475
33	0x3f860550	1.0470371
34	0x3f5ac086	0.8545002
35	0x3fbc14d1	1.4693853
36	0x3fac0081	1.3437654
37	0x3fccb00f	1.5991229
38	0x3fa20fc4	1.2661061
39	0x3f688c2c	0.90838885
40	0x3f480f6b	0.78148526
41	0x3f970c78	1.180068
42	0x3e32a47b	0.17445557
43	0x3d5b6ae6	0.053568743
44	0x3e3d3cbc	0.184802
45	0xbef3a049	-0.47583225
46	0xbec334c5	-0.38126197
47	0x3e04065d	0.12893052
48	0xbf934545	-1.1505514
49	0xbf07fcb6	-0.5311998
50	0xbfaf04a6	-1.3673294
51	0x3f8f9375	1.1216875
52	0x3f96ff0d	1.1796585
53	0xbf7cd218	-0.9875808
54	0x3e9621fd	0.29322806
55	0x3d8959bc	0.067065686
56	0x3d46bc4f	0.04851943
57	0xbfc07e7a	-1.5038598
58	0xbfade660	-1.358593
59	0x3da9c814	0.08290115
60	0x3e84c045	0.2592794
61	0x3efaefcd	0.49011078
62	0x3e959a33	0.29219207
63	0x3fa81d5c	1.313396
64	0x3fa8f8b7	1.3200902
65	0x3e738c9a	0.23784104
66	0x3efc4429	0.49270752
67	0xbe98b232	-0.29823452
68	0x3edb7808	0.42865014
69	0x402b7b25	2.6793911
70	0x407f73b3	3.9914367
71	0x3e0250a1	0.1272607
72	0x3f756e33	0.95871276
73	0x3efb5aa8	0.49092603
74	0x3fbdad46	1.4818504
75	0xbc514259	-0.012772166
76	0xbe1e5b7d	-0.15464588
77	0x3facb474	1.349257
78	0x3fe39204	1.7778935
79	0x3fb62cb0	1.4232388
80	0x3f931c9b	1.1493105
81	0xbc7cee26	-0.015437638
82	0x3e2cf727	0.16891156
83	0x3f5ffdee	0.8749684
84	0xbcea3177	-0.02858804
85	0x3f1b6b8f	0.60710996
86	0x3eb05b5b	0.344447
87	0x3fd46ae7	1.6595124
88	0x400f1efc	2.2362661
89	0x3f0791b2	0.5295669
90	0xbfcbf0cf	-1.5932864
91	0xbf229994	-0.6351559
92	0xbf5f30e3	-0.8718397
93	0x3ef1a589	0.47196606
94	0x3ec9a3c6	0.39382762
95	0xbf57fb8b	-0.843682
96	0x3f3e1e79	0.7426525
97	0x3f285f96	0.6577085
98	0x3f8dbe0b	1.1073622
99	0xbd814a7b	-0.06313034
100	0xbefe00a8	-0.49609876
101	0x3f368258	0.7129264
102	0x3e1e7e23	0.15477805
103	0x3ef5d278	0.48012137
104	0x3c8a7e19	0.016905831
105	0x4024547e	2.567657
106	0x40358679	2.8363326
107	0x3e8b310f	0.27185866
108	0xbda58766	-0.08082466
109	0xbd451c8d	-0.04812293
110	0xbe5ca09a	-0.2154564
111	0xbf01faa1	-0.50773054
112	0xbed70147	-0.41993162
113	0x3ddc3969	0.107531376
114	0xbf82a0bf	-1.0205306
115	0xbf04043d	-0.5156897
116	0xbf1cf5f1	-0.61312777
117	0xc0055b38	-2.0836926
118	0xbfcde095	-1.6084162
119	0xbe105c92	-0.14097813
120	0xbf969783	-1.1764988
121	0xbf802c0b	-1.0013441
122	0xbf96584a	-1.1745694
123	0xbe476243	-0.19471078
124	0xbe2cf352	-0.16889694
125	0xbf201c85	-0.6254352
126	0x3d88b3bf	0.06674909
127	0xbd9eed5b	-0.07760116
128	0x3e6dbab6	0.23215756
129	0xbf68424e	-0.9072617
130	0xbf884630	-1.064642
131	0xbe126bb9	-0.14298905
132	0x3ecdfa01	0.402298
133	0x3f192d21	0.59834486
134	0x3e8fc78e	0.28081936
135	0x4004b84b	2.0737484
136	0x3faee79c	1.3664432
137	0x3e1b1017	0.15142857
138	0x3ea208bb	0.31647286
139	0x3f9faf4d	1.2475373
140	0x3cfe5a37	0.031048877
141	0xbe784ad4	-0.24247295
142	0x3eab20ec	0.33423555
143	0x3f8a0c88	1.0785074
144	0xbe7d4585	-0.24733551
145	0xbdf42f2b	-0.11923059
146	0xbe034d9b	-0.12822573
147	0xbf49f441	-0.78888327
148	0x3dda862b	0.10670122
149	0xbec96474	-0.39334452
150	0x3e1cca21	0.15311481
151	0x3f2499e9	0.6429735
152	0x3efef2ea	0.49794704
153	0x3fb47d49	1.4100734
154	0x3fa01be6	1.2508514
155	0x3d084492	0.03326852
156	0x3f8579af	1.042776
157	0x3e325dd3	0.17418604
158	0x3f252837	0.6451449
159	0x3df9f8bd	0.12205646
160	0x3e86bcc0	0.2631588
161	0x3ef2a337	0.47390148
162	0x3fc848d3	1.5647224
163	0x3fae0ab2	1.3597014
164	0x3f9a2135	1.2041384
165	0x3f758e93	0.95920676
166	0x3f3269da	0.69692767
167	0x3fe6f9d6	1.8044994
168	0xbc88d4a6	-0.016702961
169	0xbc45d420	-0.0120745
170	0xbe14b66e	-0.14522716
171	0xbee53a79	-0.44771174
172	0xbf346e8d	-0.7048119
173	0xbe002a14	-0.12516052
174	0x3f1e34a1	0.61799055
175	0x3f42dcd9	0.76118237
176	0x3f05671e	0.5211047
177	0xbf01a7aa	-0.5064646
178	0xbf560998	-0.8360839
179	0x3f84569c	1.0338931
180	0xbf178fd2	-0.5920383
181	0xbe72e482	-0.23719981
182	0xc0011848	-2.017107
183	0xbf09d144	-0.5383494
184	0xbeebe427	-0.46072504
185	0xbfbadbe1	-1.4598352
186	0x3fc80ca5	1.5628859
187	0x3e567eae	0.20946762
188	0x3f1cddb3	0.61275786
189	0xbd298023	-0.041381966
190	0xbd1bd805	-0.03804781
191	0x3f355d06	0.7084507
192	0xbfe6f893	-1.8044609
193	0xbf55c500	-0.83503723
194	0xbfad7da2	-1.3553965
195	0x3f3de718	0.74180746
196	0x3dc429f5	0.09578315
197	0xbfa0d6e3	-1.2565578
198	0xbe92a2e3	-0.28639898
199	0x3e9d47c8	0.30718827
200	0x3de95ba6	0.11394434
201	0x3fa1573d	1.2604748
202	0x3f1f15d0	0.6214266
203	0x3f01c050	0.5068407
204	0xbeb9ff7c	-0.36327732
205	0xbd660a7d	-0.056162346
206	0x3f0651f2	0.5246879
207	0x3f7a76f1	0.9783774
208	0x3f1bc5f7	0.60848945
209	0x3ece3504	0.40274823
210	0xbf0f2c7c	-0.5592725
211	0x3f23f8c5	0.6405147
212	0x3f5d1f35	0.86375743
213	0xbe3b320e	-0.18280813
214	0xbe71cac6	-0.23612508
215	0x3f556e44	0.83371377
216	0x3ffca741	1.9738542
217	0x3f332c25	0.69989234
218	0x3fc8e28e	1.5694139
219	0xbd182881	-0.037148003
220	0xbdf21dbc	-0.11822078
221	0x3da13ad3	0.07872548
222	0xbe4ff5c7	-0.203086
223	0xbf8bcf9f	-1.0922736
224	0xbea8af2d	-0.3294615
225	0xbf77c2b9	-0.967815
226	0xbf7ff7e2	-0.99987614
227	0xbf97e5ff	-1.1867064
228	0x400044ee	2.0042071
229	0x3f9e681a	1.2375519
230	0x4025163f	2.5794828
231	0x3f16b3a1	0.5886784
232	0x3e58448e	0.21119902
233	0x3fe34295	1.7754694
234	0x3ec6f8ff	0.38861844
235	0xbdc42a65	-0.095783986
236	0xbde6996d	-0.112597324
237	0xbe7b4a34	-0.24540025
238	0xbe96ce90	-0.2945447
239	0xbe24c5f0	-0.16091132
240	0xbebf2d75	-0.37339368
241	0xbea96249	-0.33082798
242	0x3e60a412	0.21937588
243	0xbfe90e24	-1.820744
244	0xbfcffca7	-1.6248978
245	0x3eb3d2bb	0.35121712
246	0xbf3a4366	-0.7275909
247	0xbf2325b4	-0.63729405
248	0xbf6effc2	-0.93359005
249	0xbeeda969	-0.46418312
250	0xbe8e758b	-0.27824053
251	0xbf2bbd53	-0.6708576
252	0x3edcf905	0.43158737
253	0xbf54f1e2	-0.83181584
254	0xbe4b6a0a	-0.1986467
255	0xbfb7a0db	-1.4345964

Encoder.encoder_lstm.weight_hh_l0 f4 [128, 32]
0	0x400aca24	2.1685877
1	0x3e0c7a75	0.13718589
2	0x3d8c7a07	0.06859212
3	0xc01b1680	-2.4232483
4	0xbedb0402	-0.42776495
5	0xbf4baca2	-0.7956029
6	0xbe007679	-0.12545194
7	0x3faab636	1.3336856
8	0x3ffda72f	1.9816645
9	0x3e6ae515	0.2293895
10	0xbeb8b31c	-0.3607415
11	0xbe04d642	-0.12972358
12	0x3eb55e97	0.3542373
13	0x3e965ce1	0.29367736
14	0xbfacf710	-1.3512897
15	0x3fe0b2f8	1.7554617
16	0xc083da71	-4.120415
17	0xbf8a74b0	-1.081686
18	0xbf4a81e2	-0.79104435
19	0xbeb7e63d	-0.35917845
20	0xbe8659f7	-0.26240513
21	0xbeade60f	-0.33964583
22	0x3f32ce8a	0.69846404
23	0xbecad2f3	-0.39614066
24	0x3edab6c8	0.42717576
25	0x3e9c733f	0.30556676
26	0x3e51ea5f	0.20499562
27	0x3deaaf20	0.11459184
28	0x3ff4c38d	1.9122177
29	0xbec0c50e	-0.3765034
30	0xbf9e93c3	-1.2388843
31	0x3eb2112d	0.3477873
32	0xbfc5d6b4	-1.5456147
33	0xbe5a56cd	-0.21322174
34	0x3e325ec8	0.17418969
35	0xbd85281a	-0.065017894
36	0xbf73e199	-0.9526611
37	0xbba81255	-0.0051291385
38	0xbf25b7ed	-0.64733773
39	0x403aab5e	2.9167094
40	0xbfc9f2a3	-1.5777172
41	0x3f45febe	0.7734183
42	0x402c201e	2.6894603
43	0xbf34f82b	-0.70691174
44	0x3e15bac8	0.14622033
45	0xc011ef2e	-2.2802234
46	0xc01752a8	-2.36442
47	0x3fcc4aa6	1.5960281
48	0x3f57a7bd	0.84240323
49	0x3fa435a5	1.2828871
50	0xc005471f	-2.082466
51	0x3f264bcd	0.6495941
52	0x3f2acf4a	0.6672255
53	0xbf5ac3b0	-0.85454845
54	0xbdd1972d	-0.102339126
55	0x3d48d8dd	0.049034942
56	0xbfebbca0	-1.8416939
57	0xbd692545	-0.05692031
58	0xbf50ac49	-0.81512886
59	0x3f8da710	1.1066608
60	0x3e396c5b	0.1810774
61	0xbf83c147	-1.0293359
62	0xbfb26eb2	-1.3940032
63	0xbf60a1c6	-0.87746847
64	0x3ea77099	0.32703093
65	0xbe09f458	-0.13472116
66	0x3f85097f	1.0393523
67	0xbe554e57	-0.20830666
68	0xc0055237	-2.083143
69	0xbeadf380	-0.33974838
70	0xbde67f52	-0.11254753
71	0x3f8b1d0e	1.0868242
72	0x3ef71fa1	0.48266318
73	0x3f88d8f2	1.0691206
74	0xbf085c56	-0.53265893
75	0xbfc81087	-1.5630044
76	0x3f1f7121	0.62281996
77	0x3f831cf0	1.0243206
78	0x3dae4915	0.08510033
79	0x403d3355	2.956258
80	0xbf843811	-1.032961
81	0xbd2c6458	-0.042087883
82	0xbea8d9bd	-0.3297862
83	0x3f10be6e	0.5654057
84	0xbfb49acc	-1.410974
85	0xbeea641d	-0.45779505
86	0xc0460843	-3.0942543
87	0xbea73e02	-0.32664496
88	0xbed76ad8	-0.42073703
89	0x3fb2184d	1.3913666
90	0x3ff327d6	1.8996532
91	0xbad40e88	-0.0016178647
92	0xbe3a67f9	-0.18203725
93	0xbdd26f05	-0.102750815
94	0xc05db861	-3.4643786
95	0xbf49dbb7	-0.78850883
96	0xc0121b45	-2.2829144
97	0xbf2f8c0c	-0.6857307
98	0x3fcb327f	1.5874785
99	0xc0583801	-3.3784182
100	0xc0431fdd	-3.0488198
101	0xbe557af7	-0.20847689
102	0x400ebe5b	2.2303684
103	0x3f2c9854	0.67419934
104	0xbea0fe57	-0.31444046
105	0xbff9356a	-1.9469426
106	0xbef674f5	-0.48136106
107	0xbf9090ac	-1.129415
108	0x4035420e	2.8321567
109	0xc06014ae	-3.5012622
110	0x3f373f6f	0.71581167
111	0x3ec74a0d	0.38923684
112	0xbe89ad16	-0.26889867
113	0xbf3ef5d2	-0.7459384
114	0x4044826c	3.0704603
115	0xbf53e5cf	-0.82772535
116	0x3f6f8f2d	0.93577844
117	0xc02547bf	-2.582504
118	0xc0311908	-2.7671528
119	0xbf89e8d4	-1.0774179
120	0xc041d481	-3.0285952
121	0x3d58f8bf	0.052971598
122	0x3f8c7f8a	1.0976422
123	0x3e9f0410	0.31057787
124	0x4096fa7f	4.718078
125	0x3d9c4630	0.07630575
126	0x3f5e9f33	0.8696167
127	0xbfab4a7b	-1.3382105
128	0x3fd48b92	1.6605093
129	0x3eb37e7f	0.35057446
130	0x3f6c6800	0.9234619
131	0xc04115de	-3.0169597
132	0xbf5d4b66	-0.86443174
133	0xc0248487	-2.5705888
134	0xbf7991f8	-0.97488356
135	0x3f74600b	0.9545905
136	0xc00e610a	-2.2246728
137	0xbf1c8af3	-0.6114952
138	0xbf750a95	-0.9571927
139	0xbf321c78	-0.6957469
140	0xbe591e38	-0.21202934
141	0x404cb15c	3.1983252
142	0x3fa1ed7e	1.2650602
143	0x4032487c	2.785674
144	0xbf28792f	-0.6580991
145	0xbee19a48	-0.4406302
146	0xbee86c88	-0.45395303
147	0xbf9656d4	-1.1745248
148	0xbfc379c0	-1.527153
149	0x3f4b245a	0.79352343
150	0xbd94e64e	-0.0727049
151	0x3eba2a5c	0.36360443
152	0xbf68cf14	-0.90940976
153	0x3fd47505	1.6598212
154	0x400a6160	2.1621933
155	0xbfa45062	-1.2837031
156	0x3f1cbf88	0.61229753
157	0x3fd01805	1.625733
158	0xbf75d069	-0.96021134
159	0x3fb995e9	1.4498874
160	0x4008a2ff	2.1349485
161	0xbd02551a	-0.03181944
162	0x3fa7aa8d	1.3098923
163	0x3fbc2345	1.4698263
164	0x3f1476a7	0.5799355
165	0x40584613	3.379277
166	0x3fe9d739	1.8268806
167	0x3fcb40ff	1.587921
168	0xbfaa8b67	-1.3323792
169	0x3ef5696e	0.47932
170	0x3d458696	0.048224054
171	0xbf3d60ed	-0.7397602
172	0x3d1b9d8a	0.037992038
173	0x3f9a315d	1.2046314
174	0x3ee59882	0.44842917
175	0x400603ff	2.093994
176	0xbfef66f2	-1.8703291
177	0x3f1ac216	0.604524
178	0xbf77c99d	-0.9679201
179	0xbe367eef	-0.17821859
180	0xbe9c7e1a	-0.30564958
181	0x3e2983e0	0.16554213
182	0xc008436b	-2.1291149
183	0xbff843d4	-1.93957
184	0x3f3748ec	0.71595645
185	0xbf4bb7aa	-0.79577124
186	0xbe7480ac	-0.2387721
187	0xbf50b74e	-0.815297
188	0xbbf36d7f	-0.0074288244
189	0xbe1e447e	-0.15455815
190	0xc01fffbb	-2.4999835
191	0xbf4fce03	-0.81173724
192	0xbe6238d3	-0.22091989
193	0x3e9a2341	0.30105022
194	0xbf954b4c	-1.1663604
195	0xbfa848d7	-1.3147229
196	0xbfc6d2ce	-1.5533082
197	0xbf38f980	-0.72255707
198	0x3faee1fd	1.3662716
199	0xbfc2e0d9	-1.5224868
200	0x3d231511	0.039815012
201	0x3f2c47ba	0.67296946
202	0xbfc7cb6e	-1.5608957
203	0xbff1ea23	-1.8899578
204	0x3f2b522e	0.6692227
205	0xbf8fa5b4	-1.1222444
206	0x400ac041	2.1679842
207	0xc0029872	-2.0405545
208	0xbf37373b	-0.7156865
209	0xc06172b1	-3.5226252
210	0xbe1d296d	-0.15347834
211	0x3ef127fa	0.47100812
212	0xbf248311	-0.6426249
213	0x3f6cb52d	0.9246395
214	0xbf5bcd6e	-0.85860336
215	0x3f6fabae	0.9362134
216	0xbff12ad7	-1.8841199
217	0x401487dc	2.3207922
218	0xbf4f4765	-0.80968314
219	0xbf83a13f	-1.0283583
220	0x3db52b79	0.088461824
221	0xbed4b8a2	-0.41547114
222	0x3f75ccf1	0.9601584
223	0xbf6f193f	-0.933979
224	0xbf59bfdb	-0.85058373
225	0x3f0c3856	0.5477346
226	0x3d9a4687	0.07532983
227	0x4061d854	3.5288286
228	0xbf9cf442	-1.2262042
229	0x4004d20f	2.075321
230	0xbf8710d9	-1.0552016
231	0x3fe59c5a	1.793834
232	0x3f618c99	0.8810516
233	0x3fe8b558	1.8180342
234	0x3fc71f72	1.5556471
235	0x3f010e4e	0.5041245
236	0x3f962b98	1.1732054
237	0xc011e4e3	-2.2795951
238	0xc00d81e9	-2.211054
239	0x40450bbf	3.078842
240	0xbf91e065	-1.1396605
241	0x401dbdee	2.4647174
242	0xbebe1b66	-0.37130278
243	0x3faf2c53	1.3685402
244	0x3e4872e1	0.19575073
245	0xbba713e6	-0.0050988076
246	0xbfaf013d	-1.3672253
247	0xc03a8061	-2.9140856
248	0xbf796ae5	-0.97428733
249	0xc035f021	-2.8427813
250	0x406f70b0	3.741253
251	0xc006ef1e	-2.1083446
252	0x3fcb3253	1.5874733
253	0x3ed13b89	0.40865734
254	0xbfbd95a6	-1.4811294
255	0xbfc730f9	-1.556182

Encoder.encoder_lstm.bias_ih_l0 f4 [128]
0	0xbf607c5f	-0.87689775
1	0xbfb444c5	-1.4083487
2	0xbfac1659	-1.344432
3	0xc007d9bf	-2.1226652
4	0xbf5159ed	-0.8177784
5	0x3d29e514	0.04147823
6	0xbe9254f3	-0.28580436
7	0x3e989c5b	0.2980679
8	0xbf42279c	-0.7584169
9	0xbfb4778d	-1.4098984
10	0xbf2032e9	-0.6257768
11	0xbf193e5c	-0.5986078
12	0x3d1ccf78	0.038283795
13	0xbf412fef	-0.75463766
14	0xbf8e943d	-1.1138989
15	0xbeabe9dc	-0.33576858
16	0xbfd0cb38	-1.6312017
17	0xbfbf3df3	-1.494078
18	0xbfe69c7b	-1.8016504
19	0xbfc9af28	-1.5756578
20	0xbeb0c63d	-0.34526244
21	0x3d466961	0.04844034
22	0xbe16da2e	-0.14731666
23	0xbf7e1131	-0.9924498
24	0xc0061907	-2.0952775
25	0xbf52b95c	-0.82314086
26	0xc000e83d	-2.0141747
27	0xbf9b5a1c	-1.2136874
28	0xbeddf909	-0.4335406
29	0xbff65d09	-1.9247142
30	0xbe998549	-0.299845
31	0xbfb3ec40	-1.4056473
32	0xbfe7c704	-1.810761
33	0xc0204d0d	-2.5047028
34	0xc0160bfc	-2.3444815
35	0x3de46b3d	0.111532666
36	0xc0161e34	-2.3455935
37	0xbfad2459	-1.3526717
38	0x3e7029f6	0.23453507
39	0x3e3dc260	0.1853118
40	0xbf1ae0f3	-0.60499495
41	0xbfad32ff	-1.3531188
42	0xbc4a2bd7	-0.012339554
43	0xbf98160e	-1.188173
44	0xbffa4b5f	-1.9554251
45	0xbff67c38	-1.9256659
46	0xbf961319	-1.1724578
47	0x3ee68733	0.45025024
48	0xc05129a4	-3.2681665
49	0xbf1f88c9	-0.6231809
50	0xc03abe62	-2.91787
51	0xbfb180f7	-1.3867482
52	0xbe683800	-0.22677612
53	0xbfa9400d	-1.3222672
54	0xc0223a91	-2.5348246
55	0xbfd8fccc	-1.6952147
56	0xbfaca6cc	-1.3488402
57	0xc02bbd62	-2.683434
58	0xc03ce592	-2.9515119
59	0xbfa190ef	-1.2622355
60	0xbd432566	-0.047643088
61	0xbff055aa	-1.8776143
62	0xbf3d1e6d	-0.7387455
63	0xbfe3ec95	-1.7806574
64	0x3eb0c825	0.34527698
65	0x3e13cac8	0.14432824
66	0xbfa28ab7	-1.2698582
67	0x3edd6bf3	0.4324642
68	0xbdea0a7d	-0.11427782
69	0xbf3db331	-0.7410155
70	0xbe954fd2	-0.2916246
71	0xbdc52c53	-0.09627595
72	0x3f076cef	0.52900594
73	0xbf075a65	-0.52872306
74	0xbe5ae3ad	-0.21375914
75	0x3e5ad610	0.21370721
76	0x3e89c5b2	0.26908642
77	0x3f2e4718	0.6807723
78	0x3eafa22f	0.34303424
79	0xbe0263e9	-0.12733425
80	0xbf2046df	-0.6260814
81	0x3deefdbe	0.11669491
82	0xbeca1dfc	-0.39476
83	0xbf4e45b3	-0.805751
84	0x3ea17a61	0.3153868
85	0x3e0b6f70	0.13616729
86	0x3e984beb	0.2974542
87	0x3e088c63	0.13334803
88	0x3e6cee92	0.23137882
89	0x3dd08e47	0.10183387
90	0xbe08edc6	-0.13371953
91	0x3c426626	0.011865174
92	0x3e2bdbe9	0.16783108
93	0xbe8ec6b9	-0.27885988
94	0xbd95678d	-0.07295141
95	0x3e851de8	0.2599938
96	0xc03212a5	-2.782388
97	0xc0b08c33	-5.517114
98	0xc0233255	-2.549947
99	0xbf7500b8	-0.9570422
100	0xbfb596f8	-1.4186697
101	0xc03eda2a	-2.9820657
102	0xc07c7ac9	-3.9449942
103	0xbdc6df16	-0.09710519
104	0xc025f59a	-2.5931153
105	0xbfffb644	-1.9977498
106	0x3debd2bb	0.11514803
107	0xbff7e315	-1.9366175
108	0xbf053756	-0.5203756
109	0xc00e8696	-2.2269645
110	0xbfedad4f	-1.8568515
111	0xbfa774de	-1.308254
112	0xbfd151bc	-1.6353068
113	0xc027ac3d	-2.6198876
114	0xc001af7a	-2.0263352
115	0xc04369c4	-3.0533304
116	0xbfa5dcf2	-1.2958052
117	0xbf026929	-0.5094171
118	0xbf4dbf99	-0.8037048
119	0xc02c652b	-2.6936748
120	0xc01e14f3	-2.4700286
121	0xbfb74453	-1.4317726
122	0xbfd52760	-1.6652641
123	0xc03e5ae8	-2.9742985
124	0xbe421208	-0.18952191
125	0xc024a6c7	-2.5726793
126	0xbf78f0ee	-0.9724263
127	0xc00b6880	-2.1782532

Encoder.encoder_lstm.bias_hh_l0 f4 [128]
0	0xbf7bead5	-0.984052
1	0xbfc206fa	-1.5158379
2	0xbfccaa27	-1.5989426
3	0xbfe83569	-1.81413
4	0xbf160092	-0.5859462
5	0x3e37b318	0.17939413
6	0xbe823621	-0.25431922
7	0x3e36b6a1	0.17843105
8	0xbf603af3	-0.8758995
9	0xbfa96e46	-1.3236778
10	0xbf3f519c	-0.747339
11	0xbedc6a76	-0.43049973
12	0xbb9a31e4	-0.0047056545
13	0xbf027734	-0.5096314
14	0xbf8b6d92	-1.0892813
15	0xbee1fc91	-0.44138005
16	0xbfac9d8d	-1.3485581
17	0xbfab491a	-1.3381684
18	0xbfc9ebaf	-1.577505
19	0xbfdc4c12	-1.7210715
20	0xbe7351d2	-0.2376168
21	0xbdda4692	-0.106579915
22	0xbe2cb380	-0.16865349
23	0xbf88059f	-1.0626715
24	0xbfed6ccc	-1.8548827
25	0xbf46a5e2	-0.7759687
26	0xc007c1d0	-2.1212044
27	0xbf8851b0	-1.0649929
28	0xbeef72c7	-0.46767256
29	0xc00ad7c5	-2.1694195
30	0xbe4451cf	-0.19171833
31	0xbfaa4688	-1.3302774
32	0xbfc70c80	-1.555069
33	0xc011f249	-2.280413
34	0xc02205df	-2.5316083
35	0x3eb8d207	0.36097738
36	0xc003eee0	-2.0614548
37	0xbf9989ee	-1.1995218
38	0x3ec71583	0.388836
39	0xbe0499d3	-0.12949304
40	0xbf4759de	-0.778715
41	0xbfc678e0	-1.5505638
42	0xbe800150	-0.25001
43	0xbfc1b982	-1.5134737
44	0xbfe63743	-1.7985615
45	0xbffaa3f1	-1.9581281
46	0xbf9a02c5	-1.2032095
47	0x3f0665a0	0.5249882
48	0xc052ab97	-3.291723
49	0xbf25212e	-0.64503753
50	0xc03af6b7	-2.9213083
51	0xbfbb6eed	-1.4643227
52	0xbe835fe7	-0.25659105
53	0xbfbe3384	-1.4859471
54	0xc023476f	-2.551235
55	0xbfea5ece	-1.8310182
56	0xbfa788d1	-1.3088628
57	0xc031df6d	-2.7792618
58	0xc03f9a6f	-2.9938009
59	0xbfa843a9	-1.3145648
60	0xbde9f926	-0.114244744
61	0xbfed424f	-1.8535861
62	0xbf4777b3	-0.7791702
63	0xbfd06eb8	-1.6283789
64	0x3eae57f4	0.34051478
65	0x3e924133	0.28565368
66	0xbfa0b590	-1.2555408
67	0x3e91c15c	0.28467834
68	0xbec7f9c3	-0.3905774
69	0xbf1ce0d9	-0.6128059
70	0xbe27fb87	-0.16404544
71	0x3c013fba	0.007888729
72	0x3ed569df	0.41682336
73	0xbf0c8ab3	-0.5489914
74	0xbe04a67f	-0.12954138
75	0xbcbedfa4	-0.0233
76	0x3f12f2de	0.57401836
77	0x3f157603	0.58383197
78	0x3d891d90	0.06695092
79	0x3d84ab76	0.06478016
80	0xbf1efe9f	-0.6210727
81	0xbd98aff8	-0.074554384
82	0xbe8d8256	-0.276385
83	0xbf4d8baa	-0.80291235
84	0x3e92a668	0.28642583
85	0x3e2313e0	0.1592555
86	0x3ecf0715	0.4043509
87	0x3eea48c4	0.4575864
88	0x3e9917e3	0.29901037
89	0xbe058e8f	-0.13042663
90	0x3d59a561	0.053136233
91	0xbe3b5d05	-0.18297203
92	0x3ed07d49	0.40720585
93	0xbe453557	-0.19258629
94	0xbe08897f	-0.133337
95	0x3eec3be2	0.46139437
96	0xc03b3e1c	-2.9256659
97	0xc0b164ff	-5.5435786
98	0xc01bfc17	-2.4372613
99	0xbf654ace	-0.8956727
100	0xbfb8812c	-1.441442
101	0xc041306a	-3.01858
102	0xc0815f55	-4.042887
103	0xbe7b074f	-0.24514507
104	0xc01dd758	-2.4662685
105	0xbfff6489	-1.9952556
106	0x3d2a07db	0.041511398
107	0xbff7c9ef	-1.93585
108	0xbef1e329	-0.47243622
109	0xc0089162	-2.1338735
110	0xbfee346b	-1.8609747
111	0xbfab1fee	-1.3369119
112	0xbfd09a5a	-1.6297104
113	0xc01d159a	-2.4544435
114	0xc001c957	-2.0279138
115	0xc04bddbb	-3.1854084
116	0xbf88fb7e	-1.0701749
117	0xbf00d500	-0.5032501
118	0xbf64d241	-0.8938332
119	0xc03676a1	-2.8509905
120	0xc0301c07	-2.7517107
121	0xbfcac586	-1.5841529
122	0xbff520aa	-1.9150593
123	0xc04235f1	-3.0345423
124	0xbe985e88	-0.29759622
125	0xc01f4f52	-2.4892163
126	0xbf879228	-1.0591478
127	0xc00bfa61	-2.187157

Encoder.encoder_attn.0.weight f4 [20, 84]
0	0x3f23c3b1	0.63970476
1	0x3ef9f847	0.48822233
2	0xbed12a9c	-0.4085282
3	0xbed5b29f	-0.4173784
4	0x3fc6681b	1.550052
5	0xbf5a0c31	-0.8517485
6	0x3f23fe45	0.6405986
7	0xbf628f95	-0.8850034
8	0xbef341a1	-0.47511008
9	0x3f4fdee7	0.81199497
10	0x400e2705	2.2211316
11	0xbeb6ed49	-0.3572791
12	0xbeca5bba	-0.39523107
13	0xbee59ae5	-0.44844738
14	0xc0118e0e	-2.2742953
15	0xbffca2d2	-1.9737189
16	0x3fd27aaf	1.644369
17	0xbf1807a8	-0.5938668
18	0x3ef189d5	0.4717547
19	0x3ef480b6	0.4775445
20	0x3f9135c2	1.134453
21	0x3eba7d2c	0.36423624
22	0x3e32e12a	0.17468706
23	0x3ee74f2d	0.45177594
24	0xbfb9ea20	-1.4524574
25	0xbf8edf0b	-1.1161817
26	0xbfc1cc05	-1.5140387
27	0xbd48e609	-0.049047504
28	0xbfa3c123	-1.2793316
29	0x3f2e7069	0.68140274
30	0x3f2ebc61	0.68256193
31	0xbe93a782	-0.28838736
32	0x3f2c09af	0.67202276
33	0xbf1ea50e	-0.61970603
34	0xbf80c6b4	-1.0060639
35	0xbf87b9ee	-1.0603616
36	0x3fd3a167	1.6533631
37	0x3f8e6df4	1.1127305
38	0x3f83b622	1.0289958
39	0xbf8309ed	-1.0237404
40	0xbf6e1e79	-0.9301525
41	0x3f326e8b	0.69699925
42	0x402c90ac	2.69633
43	0x3e4707da	0.19436589
44	0xbf84a151	-1.036173
45	0x3e8706cd	0.26372376
46	0xc01b4918	-2.4263363
47	0xbfc231cf	-1.517145
48	0x3fd88948	1.6916895
49	0xbfefc3a3	-1.8731579
50	0x3e2df317	0.16987263
51	0xbf3fd024	-0.7492697
52	0xbce26c5f	-0.027639566
53	0x3f22e38f	0.63628477
54	0x3e00b5ac	0.12569302
55	0xbf691ae8	-0.9105668
56	0xbfa548f2	-1.2912886
57	0xbf23e63e	-0.64023197
58	0xbd1e1cbf	-0.038601633
59	0xbfadc27f	-1.357498
60	0xbf2bf972	-0.671775
61	0x3f19af35	0.6003297
62	0x3fbcf2cb	1.4761595
63	0xbf79d914	-0.9759686
64	0xbec1a869	-0.378238
65	0xbf14b3d2	-0.58086884
66	0x3e7ca4a2	0.24672177
67	0xbfd0f2e5	-1.6324126
68	0xbeb0a3ad	-0.34499875
69	0x3f9a93d7	1.2076367
70	0xbf2ee82b	-0.6832301
71	0x3f0de2cc	0.5542419
72	0x3cebd08e	0.02878597
73	0xbf67b245	-0.9050639
74	0xbfe140ce	-1.7597902
75	0xbe03c7d8	-0.12869203
76	0x3f0bdb81	0.5463181
77	0xbe16058d	-0.14650555
78	0xbd1d4820	-0.038398862
79	0xbf1cb176	-0.61208284
80	0x3f141528	0.5784478
81	0xbf8c4ae8	-1.096036
82	0xbf219043	-0.6311075
83	0xbe61f207	-0.22064982
84	0xbf7c81e9	-0.9863573
85	0xbe9a0141	-0.30079082
86	0xbe5f47dc	-0.21804756
87	0xbfb5252f	-1.4151973
88	0x3f8bdcb5	1.092673
89	0x3e8d16a1	0.27556327
90	0xbd8e76d6	-0.0695626
91	0xc01814bb	-2.3762653
92	0x3d1efe25	0.03881659
93	0xbe4a9f97	-0.19787441
94	0xbdec6860	-0.115433455
95	0xbf4e165f	-0.80502886
96	0xbf0143f5	-0.5049432
97	0x3f2b89ad	0.6700695
98	0x3fdd3629	1.7282153
99	0xc0313ed5	-2.76946
100	0x3f447cfe	0.7675322
101	0xc01f4443	-2.4885414
102	0x3f9b3343	1.2125019
103	0x3d4ea9ac	0.05045478
104	0xbfe280db	-1.7695574
105	0x3fef2eb8	1.8686132
106	0x400ff524	2.2493372
107	0x3eaaca1c	0.33357322
108	0xbf23b0a0	-0.63941383
109	0xbf4af71d	-0.79283315
110	0xbe96a548	-0.29422975
111	0x3fce9b62	1.6141169
112	0xc00f9914	-2.2437181
113	0x40017017	2.0224664
114	0x3fcf96d3	1.6217903
115	0x3f9e66d1	1.2375127
116	0x3eff053b	0.49808678
117	0xbdb476d8	-0.0881173
118	0xbd9ed25a	-0.07754965
119	0xbe96de53	-0.29466495
120	0x3f27f262	0.6560422
121	0x3cf57873	0.029964661
122	0x3f672d9a	0.9030396
123	0xc001e458	-2.029562
124	0x3e8b84f1	0.27249864
125	0x3f5b5e01	0.85690314
126	0xbe49815a	-0.1967825
127	0xbf9538bd	-1.165794
128	0xbf38ef58	-0.7224021
129	0x3f9ceb58	1.2259321
130	0x3eb731f8	0.3578031
131	0xbfe4627f	-1.7842559
132	0x3ee797bd	0.45232955
133	0xbf170033	-0.5898468
134	0x3fc8c5d9	1.5685378
135	0x3eeb9b97	0.46017143
136	0xbe9a8766	-0.30181426
137	0x40170c80	2.360138
138	0x3e6c8614	0.23098022
139	0xbf36d0e4	-0.7141249
140	0xbeea50b4	-0.45764697
141	0xbe11d060	-0.14239645
142	0x3aa63dc1	0.0012683199
143	0xbecbe38e	-0.39822048
144	0xc0072893	-2.1118515
145	0x3fba21c5	1.4541556
146	0x3e283f41	0.1643038
147	0x3e5f4dcc	0.21807021
148	0xbe904a6d	-0.28181782
149	0xbf7dcdae	-0.9914197
150	0xbf1a1364	-0.6018584
151	0xbdc464dc	-0.0958955
152	0x3f5f9094	0.87329984
153	0xbeaf2177	-0.3420522
154	0x4025162d	2.5794785
155	0x3f92050a	1.1407788
156	0x3f49991c	0.7874925
157	0x3e6f81d7	0.23389374
158	0xbca50ead	-0.0201486
159	0xbed05d37	-0.40696117
160	0xbf033a56	-0.5126089
161	0xbb5a08eb	-0.0033269476
162	0x3f35ca5c	0.710119
163	0x3e360e17	0.17778812
164	0x3e4418fc	0.19150156
165	0x3fb0223d	1.3760449
166	0xbfa0da06	-1.2566535
167	0xbfac5917	-1.3464688
168	0xbf6faeba	-0.93625987
169	0xbe1bdd5c	-0.1522116
170	0x3f78aa7d	0.97135144
171	0xbd5a894d	-0.053353596
172	0xbf6b056f	-0.91805166
173	0xbe8b2dd0	-0.2718339
174	0xbe4ee599	-0.20204772
175	0x3f198f2b	0.5998408
176	0xbfdbe1b8	-1.7178259
177	0xc0037346	-2.0539107
178	0xbfad2d92	-1.3529532
179	0xbe15a152	-0.1461232
180	0x3fe6cad7	1.8030652
181	0xbf7f65e7	-0.99764866
182	0x3fc354a9	1.5260211
183	0xbf445db0	-0.76705456
184	0xbfc78c58	-1.5589705
185	0xbf39179d	-0.72301656
186	0x3fd57456	1.6676128
187	0xbe9eb924	-0.31000626
188	0xbf976168	-1.1826601
189	0xbf86ceb9	-1.0531837
190	0x3fc291d8	1.5200758
191	0xbf8487a6	-1.0353897
192	0x3f2e21c1	0.68020254
193	0x3f86fa34	1.0545106
194	0xbf4c4f42	-0.7980844
195	0xbf6dce8f	-0.9289331
196	0x3f825a87	1.0183877
197	0xbf8ef486	-1.1168373
198	0x3fc7d4bc	1.5611796
199	0xbebf9203	-0.37416086
200	0xbdde573e	-0.10856484
201	0xbe53be15	-0.2067798
202	0x3e972aa3	0.29524717
203	0xbeebb5f1	-0.46037248
204	0x3e236741	0.15957357
205	0xbfb4f757	-1.4137982
206	0xbfab546c	-1.3385139
207	0x3f4bbd64	0.7958586
208	0xbdf426e9	-0.11921484
209	0xbf8e9f97	-1.1142453
210	0xbfc79564	-1.5592465
211	0x3f15fa7f	0.5858535
212	0x400cfb76	2.202848
213	0xbf1a2d61	-0.6022549
214	0x3f739f99	0.951654
215	0xbf9b2956	-1.212199
216	0xc0239ce4	-2.5564508
217	0xbecdd863	-0.40204152
218	0x3fbc1b68	1.4695864
219	0xbe877ece	-0.26463932
220	0xbf9255a7	-1.1432389
221	0xbf412392	-0.754449
222	0x3ef6bb12	0.48189598
223	0x3ef48932	0.47760922
224	0xbeb10f43	-0.34581956
225	0x3e5943ed	0.21217318
226	0xbf0d505d	-0.5520075
227	0x3f455f3c	0.7709844
228	0x3f128f53	0.57249945
229	0xbf9dd94d	-1.233194
230	0x3f8470db	1.0346941
231	0x40023f8f	2.0351293
232	0xbef58a02	-0.47956854
233	0xbf55b5e8	-0.8348069
234	0xbf8b21c4	-1.086968
235	0x3deaa6bb	0.114575826
236	0xbfba1893	-1.453875
237	0x3f02f1e2	0.51150334
238	0x3f566ec4	0.83762765
239	0x3e943290	0.28944826
240	0x3de93be2	0.11388375
241	0x3e340fab	0.17584102
242	0xbf81b0a8	-1.0132036
243	0x3ecb8d18	0.39756083
244	0x3fed14fc	1.8522029
245	0xbf02170f	-0.50816435
246	0xbe6d08ba	-0.2314786
247	0xbfd0f640	-1.632515
248	0xbf71a159	-0.9438682
249	0x3e7c3294	0.24628669
250	0xbe960fda	-0.2930897
251	0xbf92be97	-1.1464413
252	0xbf405e14	-0.7514355
253	0xbe95bbd7	-0.29244873
254	0x3fb62c02	1.423218
255	0xbfdf8ea8	-1.746541

Encoder.encoder_attn.0.bias f4 [20]
0	0xbf9db0df	-1.2319602
1	0xbe852643	-0.26005754
2	0x3f16e2f9	0.5894008
3	0x3fb07a2c	1.3787284
4	0x4007700b	2.1162136
5	0x3faaa62e	1.3331964
6	0xc04978be	-3.1479945
7	0xbfa4de57	-1.2880353
8	0x3f6266e7	0.88438267
9	0xc0152383	-2.3302925
10	0x40478de9	3.1180365
11	0xbdcf0269	-0.101078816
12	0xbf0f9306	-0.56083715
13	0x3fc195b6	1.5123813
14	0x3ff1d506	1.8893135
15	0xbe687213	-0.22699766
16	0x401e1e35	2.4705937
17	0x3fd351ad	1.65093
18	0x40359753	2.837361
19	0xbe9dd700	-0.30828094

Encoder.encoder_attn.2.weight f4 [1, 20]
0	0x3ebf3116	0.37342137
1	0x3dae1357	0.084997825
2	0x3dc5d24c	0.096592516
3	0xbe9215a7	-0.28532144
4	0xbecbe10b	-0.39820132
5	0xbe8da93f	-0.27668187
6	0x3e3ff246	0.18744764
7	0xbe28852d	-0.16457053
8	0xbd8c2141	-0.0684228
9	0x3e0ad518	0.13557851
10	0x3e198935	0.14993747
11	0x3ea7d8dd	0.3278264
12	0x3e8271fa	0.25477582
13	0xbe295f85	-0.16540344
14	0xbe344c1b	-0.17607157
15	0xbe988fcf	-0.29797217
16	0xbe025d85	-0.12730987
17	0x3e02ace1	0.1276126
18	0xbed770b2	-0.42078167
19	0xbe97cdb6	-0.29649132

Encoder.SelfAttention.wq.weight f4 [20, 20]
0	0x3f527a36	0.8221773
1	0x3e5e9851	0.21737792
2	0xbf6a1202	-0.9143373
3	0x3ed45f0d	0.41478768
4	0xbfd05d4d	-1.6278473
5	0x3edf7a7b	0.43648133
6	0xbeff39ca	-0.49848777
7	0x3f02409b	0.5087983
8	0x3f5f729c	0.87284255
9	0xbe0ddc8f	-0.13853668
10	0xbf1d5145	-0.6145213
11	0x3fadb22b	1.3569998
12	0xbf8a9f12	-1.0829794
13	0x3db8238a	0.089911535
14	0xbf274c15	-0.65350467
15	0x3ff798eb	1.9343542
16	0xbf91847a	-1.1368554
17	0xbd82dd61	-0.06389881
18	0xbf2ada45	-0.667393
19	0x3f9ffef8	1.2499685
20	0xbf490a2f	-0.78531164
21	0xbfeaedf6	-1.835387
22	0xbd7966d3	-0.060889076
23	0xbf0759a4	-0.52871156
24	0x3f8d1a99	1.1023742
25	0x3ecf64e5	0.40506664
26	0xbf76855d	-0.96297246
27	0x3ea0e280	0.31422806
28	0x3dbfad9c	0.09359285
29	0x3ed36ad8	0.41292453
30	0xbf827ab6	-1.0193698
31	0xbed520f5	-0.41626707
32	0x3ea2811e	0.31739134
33	0xbea2f33b	-0.31826195
34	0x3f07866b	0.5293948
35	0xbf424ce2	-0.75898564
36	0xbd97818f	-0.07397758
37	0xbf58d098	-0.8469329
38	0x40104e3d	2.2547753
39	0x3f8b161a	1.086612
40	0xbe4c20b6	-0.19934353
41	0x3cf78542	0.03021491
42	0xbdfcff75	-0.12353412
43	0x3e9424ab	0.28934225
44	0xbe9f3197	-0.31092522
45	0x3f82ec0a	1.0228283
46	0xbe802efe	-0.25035852
47	0xbe190020	-0.14941454
48	0x3e21d1b4	0.15802652
49	0x3f954ba4	1.1663709
50	0x3f5968ce	0.84925544
51	0xbf630ae1	-0.88688475
52	0xbf560240	-0.83597183
53	0x3b0f8ad8	0.0021902826
54	0xbf738617	-0.9512648
55	0x3f4e7259	0.8064323
56	0xbd63f4b6	-0.055653296
57	0x3d6cc8c4	0.057808653
58	0xbf68d7fd	-0.9095457
59	0x3fa708bc	1.304954
60	0xbd78a910	-0.060708106
61	0x3ea54845	0.322817
62	0xbff12eba	-1.8842385
63	0x3c83b00d	0.016075158
64	0x3fe51990	1.7898426
65	0x3fe0bb80	1.755722
66	0xbf87a4ac	-1.0597129
67	0xbfc6e2d1	-1.5537969
68	0xbf2819bc	-0.6566427
69	0x3ee75b43	0.45186815
70	0xbf45429c	-0.7705476
71	0x3f605036	0.8762239
72	0x3f14eefb	0.58177155
73	0x3e946633	0.28984222
74	0xbea937e6	-0.3305046
75	0x3f059987	0.5218739
76	0xbc8c9a98	-0.01716356
77	0xbf1317dd	-0.5745829
78	0xbf0ab3a8	-0.54180384
79	0x3f8477c0	1.0349045
80	0xbee2cbc7	-0.44296095
81	0xbfdd1ff4	-1.7275376
82	0xbe808411	-0.2510076
83	0x3c9e487a	0.019321669
84	0x3d9921a0	0.074771166
85	0xbef724aa	-0.4827016
86	0x3e988e48	0.29796052
87	0x3f8ec56f	1.1154002
88	0x3ffd4f4b	1.9789823
89	0x3e59ca95	0.21268685
90	0xbf1207ec	-0.5704334
91	0xbed7237c	-0.4201926
92	0x3fdb6a5e	1.7141836
93	0x3f114290	0.5674219
94	0x3c73d5ac	0.014882486
95	0xbf15b965	-0.58486015
96	0x3f9c563f	1.221382
97	0x3edd7da8	0.4325993
98	0xbf0018a3	-0.5003759
99	0xbe8a5635	-0.27018896
100	0xbf4285f3	-0.7598564
101	0xbee3021f	-0.44337556
102	0x3f8fe920	1.1243019
103	0xbf202e79	-0.6257091
104	0x3fe828e8	1.8137484
105	0xbfa92473	-1.3214248
106	0xbee7de59	-0.45286825
107	0x3e621d80	0.22081566
108	0xbeb208a1	-0.34772208
109	0xbe4e75aa	-0.20162073
110	0xbe865ff2	-0.26245075
111	0x3ee4b2e9	0.44667748
112	0x3ee294f2	0.4425426
113	0xbebd4f5b	-0.36974606
114	0x3f9f4943	1.2444233
115	0xbf95ed90	-1.1713123
116	0x3fa90a6b	1.3206304
117	0xbf5170db	-0.8181283
118	0x3d540038	0.05175802
119	0xbeca4b01	-0.39510348
120	0xbe186f7f	-0.14886282
121	0xbe02f332	-0.12788084
122	0x3e027a2b	0.12741916
123	0xbe8aed52	-0.27134186
124	0xc00d664d	-2.209369
125	0xbecaafd2	-0.39587265
126	0xbf389c1a	-0.7211319
127	0xbb7028e2	-0.0036645462
128	0x3f224834	0.63391423
129	0x3ecf0bb7	0.40438625
130	0xbebd823c	-0.37013423
131	0xbd996558	-0.07490033
132	0x3f836140	1.0264053
133	0x3fcb8661	1.5900384
134	0x3f24bae5	0.6434768
135	0x3f989b93	1.1922477
136	0xc00d2edb	-2.2059848
137	0xbf753a65	-0.9579223
138	0x3e0c76ab	0.13717143
139	0x3ecdbe46	0.4018423
140	0x3f48cbe6	0.78436124
141	0x3f4f8d52	0.8107501
142	0x3eb735d5	0.35783258
143	0x3d61f9d5	0.0551699
144	0x3f5b3a9c	0.85636306
145	0x3fd2b364	1.6460996
146	0xbe0c4f7e	-0.13702199
147	0x3ddc6327	0.10761099
148	0x3f439f1b	0.7641465
149	0xbf02cdec	-0.5109546
150	0x3eb4da4f	0.35322806
151	0xbed25359	-0.41079214
152	0xbf21afef	-0.6315908
153	0x3f0ee947	0.558247
154	0xbe143975	-0.14475043
155	0xbfb00f5f	-1.3754691
156	0xbf5db228	-0.8659997
157	0xbf9b080d	-1.2111832
158	0xbe9052ca	-0.28188163
159	0xbef8bfbf	-0.4858379
160	0x3f82da16	1.0222805
161	0xbe6f942e	-0.2339637
162	0xbef6e28e	-0.48219723
163	0xbf2edc7e	-0.68305194
164	0x4027a23f	2.6192777
165	0xbf680027	-0.9062523
166	0x3f8bfe2d	1.0936943
167	0xbdf370ec	-0.118867725
168	0x3dca150d	0.09867296
169	0x3eaea314	0.34108794
170	0xbf21ae49	-0.63156563
171	0x3f85bbbe	1.0447919
172	0x3e6fe97b	0.2342891
173	0xbebad356	-0.36489362
174	0xbf142ff3	-0.57885665
175	0xbf9dc169	-1.2324649
176	0x400ee9e9	2.2330267
177	0xbee38e56	-0.4444453
178	0xbfeebc73	-1.865126
179	0x3f07fd8f	0.53121275
180	0xbe853034	-0.2601334
181	0xbf394f86	-0.7238697
182	0xbf824e58	-1.0180159
183	0xbf7170cb	-0.94312733
184	0xbdb0c4dc	-0.08631298
185	0x3fdd2b29	1.7278796
186	0x3fbd622a	1.4795582
187	0x3dc4d1e7	0.09610348
188	0x3fb3f075	1.4057757
189	0xbea424cc	-0.32059324
190	0xbf80e30a	-1.0069287
191	0xbeec5fac	-0.46166742
192	0xbdd60161	-0.10449482
193	0x3f0eefc0	0.5583458
194	0x3d69c093	0.05706842
195	0x3faf7086	1.3706214
196	0xbf32013f	-0.6953315
197	0xbf1788d0	-0.59193134
198	0x3f269eb5	0.6508592
199	0x3f21b3f8	0.63165236
200	0xbfb396bf	-1.4030379
201	0x3f0bbf88	0.5458913
202	0x3f1ad9b1	0.6048842
203	0xbdea36db	-0.11436244
204	0x3cb61c60	0.022230327
205	0x3fa6c31a	1.302829
206	0x3ee03224	0.43788254
207	0xbea65199	-0.3248413
208	0x3f9c59cc	1.2214904
209	0x3e234566	0.15944442
210	0xbf16996a	-0.5882784
211	0x3ecfdfdd	0.40600482
212	0xbecb3a30	-0.3969283
213	0xbeb6785f	-0.3563871
214	0x3d092312	0.03348071
215	0x3ee1dd0d	0.4411396
216	0x3f551d79	0.83248097
217	0x3e0e8373	0.13917331
218	0xbfa6b841	-1.302498
219	0xbd6ba652	-0.057531662
220	0x3f9cf8a2	1.2263377
221	0x3eb0174c	0.34392774
222	0xbe5174c8	-0.20454705
223	0xbe4ac342	-0.19801047
224	0x3ef8c505	0.48587814
225	0x3ed2bf17	0.41161415
226	0x3fd302f1	1.6485273
227	0x3da68710	0.0813123
228	0x3e501ffc	0.20324701
229	0xbfac7283	-1.3472446
230	0xbfc5cebb	-1.5453714
231	0x3ec84956	0.3911845
232	0x3f189a7a	0.5961071
233	0x3d3d97e9	0.04628745
234	0x3e16195a	0.14658108
235	0x3e62e9a5	0.22159441
236	0xbf8337e6	-1.0251434
237	0x3eb35d24	0.35031998
238	0x3e9bce98	0.30431056
239	0xbfb786ba	-1.433799
240	0x3e233fa2	0.15942243
241	0xbf448328	-0.7676263
242	0xbf8045a7	-1.0021256
243	0xbe815d22	-0.25266367
244	0x3fc461c6	1.5342338
245	0x3f474e4d	0.7785385
246	0xbf116f25	-0.5681022
247	0xbf8b1b0f	-1.0867633
248	0x3f6838a6	0.9071144
249	0xbed59ed6	-0.41722745
250	0xbfd4374f	-1.6579379
251	0xbdbccf74	-0.09219256
252	0x3f262b28	0.649096
253	0xbe8db7c5	-0.27679268
254	0xbe2d65d0	-0.1693337
255	0x3fdf36f7	1.7438649

Encoder.SelfAttention.wk.weight f4 [20, 20]
0	0x3f5011c1	0.8127709
1	0x3eeb1a52	0.45918518
2	0xbef84ece	-0.48497623
3	0xbc419371	-0.011814938
4	0xbf05e97b	-0.5230939
5	0x3f7d9414	0.99054074
6	0xbf9e137d	-1.2349697
7	0x3fd36244	1.6514363
8	0x3b275d94	0.0025537955
9	0x3f35a1fa	0.7095028
10	0xbf2ae4e0	-0.66755486
11	0x3f6e542e	0.930972
12	0xbfd7aeb5	-1.6850191
13	0xbf05ace4	-0.52216935
14	0x3f2cac6c	0.67450595
15	0x3fa112db	1.2583879
16	0xbf786166	-0.9702362
17	0xbf2ba76f	-0.6705236
18	0x3fa492af	1.2857264
19	0xbf0eabc5	-0.5573085
20	0xbfd2af13	-1.6459678
21	0xbfc9be4c	-1.5761199
22	0xbf32c844	-0.6983683
23	0x3f41f45a	0.75763476
24	0x3f8df908	1.1091623
25	0xbf961926	-1.1726425
26	0xbf140767	-0.57823795
27	0xbdf06ef6	-0.11739914
28	0x3eb9a67c	0.3625983
29	0xbf9c2a51	-1.2200414
30	0xbf594fbd	-0.84887296
31	0x3f2d792b	0.6776301
32	0x3f2d425d	0.6767939
33	0x3f228975	0.6349099
34	0x3f1ed4c6	0.62043417
35	0xbf80f871	-1.0075818
36	0x3e446531	0.19179226
37	0x3fa1fae9	1.2654697
38	0x3f984efc	1.1899104
39	0x3efc4bdf	0.49276635
40	0xbf3d95b7	-0.7405657
41	0xbf2de846	-0.67932546
42	0xbe618b0d	-0.220257
43	0x3dfefedc	0.12450954
44	0x3f18509b	0.59497994
45	0x3f5ce051	0.8627978
46	0xbf001840	-0.50037
47	0x3e2d3f81	0.16918756
48	0x3f2413ae	0.6409253
49	0x3df53d6d	0.11974607
50	0x3eaedb28	0.34151578
51	0xbfa01491	-1.2506276
52	0xbe15fa3d	-0.1464624
53	0xbeb86b09	-0.3601916
54	0xbf3d97e4	-0.7405989
55	0x3f55a468	0.8345399
56	0xbf6ef2f2	-0.93339455
57	0xbfeb9e5d	-1.8407704
58	0x3f5190dd	0.8186167
59	0x3f4372f1	0.7634726
60	0xbe20fe2e	-0.15721962
61	0xbfc884d9	-1.5665542
62	0xbe94f591	-0.29093602
63	0x3f494e80	0.78635406
64	0x3fb1b984	1.388474
65	0x3e96c151	0.29444364
66	0xbe316e7f	-0.17327307
67	0xbf25ccf3	-0.6476585
68	0xbf955608	-1.166688
69	0xbc7f4641	-0.015580715
70	0xbf372587	-0.7154164
71	0x3fcc11f6	1.5942981
72	0x3f459ab8	0.7718921
73	0xbc26fd10	-0.010192171
74	0xbe7d37d3	-0.24728326
75	0x3ed4025e	0.41408056
76	0xbfbf966d	-1.4967781
77	0xbf695d7d	-0.91158277
78	0x3f242ec7	0.64133877
79	0x3ed9e67d	0.4255866
80	0xbfe7ae9a	-1.8100159
81	0x3eb16f72	0.3465534
82	0xbf6ccd56	-0.9250082
83	0xbf861c0b	-1.0477308
84	0xbdc7026b	-0.09717258
85	0x3eef4fa4	0.46740448
86	0x3f8cedb9	1.1010047
87	0x3ee2bdea	0.44285518
88	0x3d95032c	0.072759956
89	0xbeb1951b	-0.3468407
90	0x3f9a4d1f	1.2054785
91	0x3e98b361	0.29824355
92	0x3f059d78	0.52193403
93	0x3ee29cd0	0.44260263
94	0xbf5009fa	-0.81265223
95	0x3f310517	0.6914839
96	0x40003054	2.0029497
97	0x3d33ff35	0.043944556
98	0xbe03495e	-0.12820956
99	0xbf71896a	-0.943503
100	0xbd80e899	-0.062943645
101	0x3e22c895	0.15896828
102	0x3e2d8b8f	0.16947769
103	0x3e22119b	0.15827028
104	0x3f1eb8e4	0.6200087
105	0xc0152cca	-2.3308587
106	0x3f548e79	0.83029896
107	0xbfbf5089	-1.4946452
108	0xbf82ad79	-1.020919
109	0x3cda4412	0.026643787
110	0x3f1e4939	0.6183048
111	0xbe9b1aef	-0.30293986
112	0x3fa63fd8	1.2988234
113	0x3e47d781	0.19515802
114	0x3e1b50eb	0.15167587
115	0xbf766110	-0.96241856
116	0x3f9cda74	1.2254167
117	0x3e575327	0.21027814
118	0xbe412e82	-0.18865398
119	0xbee52c9d	-0.447606
120	0x3e8c8d55	0.27451578
121	0x3ee5f88a	0.44916183
122	0x3d40fac5	0.047114152
123	0xc0167094	-2.3506212
124	0xbfc033d0	-1.5015812
125	0xbd636e4e	-0.055525117
126	0xbfefdf38	-1.8739996
127	0x3ed779c8	0.420851
128	0x3ef179f2	0.4716335
129	0xbedb093d	-0.42780486
130	0x3fa68135	1.3008181
131	0x3f3bd168	0.73366404
132	0x3f64946d	0.8928898
133	0x3f03f6a8	0.5154824
134	0x3fb6978e	1.4265001
135	0x3e7ccc27	0.24687253
136	0xbf4f8485	-0.81061584
137	0x3d9aaa2b	0.07551988
138	0x3f11275c	0.5670068
139	0xbe56e392	-0.20985249
140	0x3f1665c9	0.5874906
141	0x3e68af04	0.22723013
142	0x3f910f58	1.1332808
143	0x3f4e17eb	0.80505246
144	0x3fb1aaac	1.388021
145	0x3f9301b8	1.14849
146	0x3ef94a03	0.4868928
147	0x3f99d519	1.2018157
148	0x3f366670	0.7125006
149	0x3f24f604	0.6443789
150	0xbf17ba1e	-0.5926837
151	0xbd3e1b0a	-0.046412505
152	0x3ea7eb30	0.3279662
153	0x3f2436df	0.64146227
154	0xbf51624b	-0.8179061
155	0xbffec06a	-1.990247
156	0xbf868791	-1.0510122
157	0xbf3758c3	-0.71619815
158	0xbf3eb820	-0.744997
159	0xbf89a4c6	-1.075341
160	0x3e8ea2d2	0.27858597
161	0xbe00b1ae	-0.1256778
162	0xbf760a7f	-0.96109766
163	0x3e114920	0.14188051
164	0x3f8002fc	1.0000911
165	0xbf268e87	-0.6506123
166	0x4028c728	2.6371555
167	0xbf5b0906	-0.85560644
168	0xbf4d7d1b	-0.8026902
169	0x3fae88ce	1.36355
170	0xbf623caf	-0.88373846
171	0x3f4e8045	0.80664474
172	0x3e7ade47	0.24498855
173	0xbef2db45	-0.47432914
174	0xbf909317	-1.1294888
175	0x3d2ae9c2	0.041726835
176	0x3ff3cf97	1.9047726
177	0xbfd1cbe1	-1.6390344
178	0x3ec1dc87	0.37863562
179	0xbe5051e0	-0.20343733
180	0xbf8fc034	-1.1230531
181	0xbf2f3485	-0.68439513
182	0xbe021ca5	-0.1270624
183	0xbf17f0c2	-0.5935174
184	0x3ed588ae	0.4170584
185	0x3f42843a	0.7598301
186	0x3ee61385	0.44936767
187	0x3fbe4fc8	1.4868097
188	0x3f9f2f7c	1.2436366
189	0xbfcad785	-1.5847021
190	0xbf660707	-0.8985447
191	0x3da6f34b	0.08151873
192	0xbf14c7b3	-0.58117217
193	0x3eaa5196	0.3326537
194	0x3efb2cf0	0.49057722
195	0x3eb92bdc	0.36166275
196	0xbf7a559b	-0.97786874
197	0xbe0bef27	-0.13665448
198	0x3f276af4	0.6539757
199	0xbeb8a07d	-0.36059943
200	0xbeba71ae	-0.36414856
201	0x3e768e88	0.24077809
202	0xbdb74434	-0.089485556
203	0x3f10373a	0.5633427
204	0x3f8521ff	1.0401
205	0x3ec48ca6	0.38388556
206	0x3f12aa0f	0.5729074
207	0xbd7d2f56	-0.06181272
208	0xbd2a098d	-0.041513015
209	0xbf91a902	-1.1379702
210	0x3fa8656d	1.3155953
211	0xbf313e26	-0.69235456
212	0xbebef028	-0.372926
213	0xbf065fa7	-0.52489704
214	0xbe84a511	-0.25907186
215	0x3f29b058	0.66284704
216	0x3dee080c	0.116226286
217	0xbfad569b	-1.3542055
218	0x3e045e84	0.1292668
219	0xbf42371f	-0.7586536
220	0x3f9c4cd3	1.2210945
221	0x3f71ee41	0.9450417
222	0xbebf306f	-0.3734164
223	0xbf31a6c5	-0.69395095
224	0xbd02032d	-0.03174131
225	0x3f610f66	0.8791412
226	0x3fa6a69b	1.3019594
227	0x3ec0d4d5	0.37662378
228	0x3d13fc22	0.036129124
229	0xbef23290	-0.473042
230	0xbfafee5a	-1.3744614
231	0x3fb8a4da	1.4425309
232	0xbf168320	-0.5879383
233	0x3c40d987	0.011770613
234	0x3f8a34fd	1.0797421
235	0xbf487b32	-0.7831298
236	0x3db875e0	0.09006858
237	0x3f1b21d4	0.6059849
238	0xbf8a9712	-1.0827353
239	0xbf8e33ee	-1.1109598
240	0xbf01243a	-0.504459
241	0xbe174f1f	-0.14776276
242	0xbf814925	-1.0100447
243	0xbe8b7ff4	-0.27246058
244	0x3f04882a	0.5177027
245	0x3f9bef7a	1.2182457
246	0x3f3d98b9	0.7406116
247	0xbf8f6192	-1.1201651
248	0xbf9042bb	-1.1270365
249	0xbf07525f	-0.52860063
250	0xbf61306e	-0.8796452
251	0x3fb69ab1	1.4265958
252	0x3d2f295c	0.042764053
253	0x3eadd003	0.33947763
254	0x3ef567bc	0.47930706
255	0x3fa9eb8c	1.3275008

Encoder.SelfAttention.wv.weight f4 [20, 20]
0	0x3f0afb3c	0.54289603
1	0xbf5f771a	-0.8729111
2	0x3ed7de0d	0.421616
3	0xbe551bd8	-0.20811403
4	0x3f161501	0.586258
5	0xbdde4487	-0.10852914
6	0xbead1ab2	-0.3380943
7	0xbe7d77d1	-0.24752738
8	0x3ed77ac5	0.42085853
9	0xbd3b623c	-0.04574798
10	0x3f1b8d03	0.6076204
11	0xbe811500	-0.25211334
12	0x3ca231bf	0.019799111
13	0xbe1d3eac	-0.15355939
14	0xbd90af17	-0.07064646
15	0x3d6935d9	0.05693612
16	0x3f536aac	0.82584643
17	0x3e9eb98c	0.31000936
18	0xbebfde3e	-0.37474245
19	0xbedca5d3	-0.43095264
20	0x3e75968e	0.23983213
21	0x3f3da4d8	0.74079657
22	0xbdaf679d	-0.085646845
23	0x3f409443	0.7522623
24	0xbf7a7475	-0.9783395
25	0xbec17fce	-0.3779282
26	0x3f81e245	1.0147177
27	0xbe30ce2f	-0.17266153
28	0x3f31899a	0.6935059
29	0x3f1a7614	0.6033642
30	0x3e84728f	0.2586865
31	0xbeb6ccb5	-0.35703054
32	0xbc2c2b06	-0.010508304
33	0x3eb291a9	0.34876755
34	0xbe8e4786	-0.27788943
35	0xbcea9cb1	-0.02863917
36	0xbe15a8a1	-0.14615108
37	0x3f2785c4	0.65438485
38	0xbf37cfbb	-0.71801347
39	0xbde2c313	-0.11072364
40	0x3ec64e33	0.38731536
41	0x3cdd9fe0	0.027053773
42	0xbede1ead	-0.4338278
43	0xbf3c3214	-0.73513913
44	0x3f09fdb4	0.53902745
45	0x3f4978b0	0.7869978
46	0x3e5d6e55	0.2162412
47	0x3fa783a1	1.3087045
48	0xbeb606dd	-0.3555211
49	0xbe8d7141	-0.27625468
50	0x3e87ce80	0.26524734
51	0xbf01285d	-0.50452214
52	0x3f296d56	0.6618246
53	0xbd5a419c	-0.053285226
54	0xbe74e61a	-0.23915902
55	0x3e842455	0.2580897
56	0x3ea58e22	0.32335
57	0xbe7ed85d	-0.24887224
58	0xbf9943f6	-1.1973865
59	0xbe51914d	-0.20465584
60	0x3f81cac8	1.0140009
61	0x3f62b1c8	0.8855252
62	0x3f4a5caa	0.79047644
63	0x3fdec409	1.7403575
64	0x3f5f6aef	0.8727254
65	0x3fa68bc4	1.3011403
66	0x3e2a085d	0.16604753
67	0xbfb4be8b	-1.4120649
68	0x3efcc67f	0.4937019
69	0x3f04b9d3	0.51846045
70	0x3f8d8d65	1.1058775
71	0x3deb64d3	0.1149384
72	0x3fc38f1b	1.5278047
73	0xbf92dbb2	-1.1473296
74	0xbfd076b7	-1.6286229
75	0xbf959dbb	-1.168876
76	0xbf05f930	-0.52333355
77	0xbf736bde	-0.9508647
78	0xbf8c07e7	-1.0939912
79	0xbdb1342a	-0.08652528
80	0xbf24dd08	-0.64399767
81	0x3c3abe2d	0.0113978805
82	0x3ed4997a	0.41523343
83	0x3e6811df	0.22663067
84	0xbd0efefa	-0.034911133
85	0xbf10e603	-0.5660097
86	0x3f6b18f7	0.9183497
87	0xbeb31b1e	-0.34981626
88	0xbe8d505e	-0.27600378
89	0xbe8dba9e	-0.2768144
90	0x3ead6ded	0.3387293
91	0x3f4281a4	0.75979066
92	0xbcb2aac3	-0.021809941
93	0xbf309688	-0.6897969
94	0x3f02f520	0.5115528
95	0x3d73d22d	0.05952661
96	0x3ee10889	0.43951824
97	0x3f1a31dc	0.6023233
98	0xbf8da06f	-1.1064585
99	0xbf1611cc	-0.58620906
100	0x3e87ebb4	0.26547015
101	0x3eebcead	0.4605612
102	0xbf545ba4	-0.8295233
103	0xbd33eb43	-0.043925535
104	0x3d31a07d	0.043365944
105	0xbf32045c	-0.695379
106	0x3f4a5671	0.7903815
107	0xbe809055	-0.25110117
108	0x3ebf4c82	0.37363058
109	0xbea9329d	-0.33046427
110	0x3df025af	0.117259376
111	0x3f81961d	1.0123936
112	0x3f97e760	1.1867485
113	0x3e925d59	0.28586844
114	0x3f2ec6c1	0.68272024
115	0x3ea35b8e	0.31905788
116	0x3f2e297f	0.6803207
117	0xbe9849c9	-0.29743794
118	0xbf7fb39e	-0.9988345
119	0xbef73044	-0.4827901
120	0x3edd9b89	0.43282726
121	0xbe20bd63	-0.15697245
122	0x3e7803c4	0.24220186
123	0x3dafe3c5	0.085883655
124	0x3f8c8602	1.0978396
125	0xbe18089e	-0.14847037
126	0x3daf5e35	0.085628904
127	0xbf5c0763	-0.8594877
128	0xbf6d8169	-0.9277559
129	0x3fa5e3fc	1.29602
130	0x3fb11460	1.3834343
131	0x3f1082b2	0.56449425
132	0xbd5e3b41	-0.054255728
133	0x3f24ace2	0.643263
134	0xbf039878	-0.51404524
135	0x3dab84eb	0.083749615
136	0xc00a3af8	-2.1598492
137	0xbfaf1cbf	-1.3680648
138	0x3e98629d	0.29762736
139	0xbf9d1e3b	-1.2274851
140	0xbf35167e	-0.70737445
141	0x3f909dc4	1.1298146
142	0x3f0ca4a0	0.549387
143	0xbde0def7	-0.10980027
144	0xbeb9b2f8	-0.36269355
145	0xbd234b94	-0.039867
146	0xbf9122b3	-1.1338714
147	0x3f814a5b	1.0100816
148	0x3ff64a0f	1.9241351
149	0x3ddfafbc	0.109221905
150	0xbf8c37dd	-1.0954548
151	0x3e683af7	0.22678743
152	0x3f587fe6	0.8457016
153	0x3c8d43ff	0.017244337
154	0x3e13e60b	0.14443223
155	0x3e191884	0.14950758
156	0x3de11c5f	0.109917395
157	0xbef00c28	-0.46884274
158	0x3e9f75ac	0.31144464
159	0xbf9311ab	-1.1489767
160	0x3f1e1d10	0.61763096
161	0x3e4691f1	0.1939161
162	0x3e388cff	0.18022536
163	0xbea88bc0	-0.3291912
164	0x3eaa28a7	0.3323414
165	0x3f4aa6a0	0.791605
166	0x3e8c6690	0.27422
167	0xbe65171a	-0.22372094
168	0xbe91820c	-0.2841953
169	0x3eeac577	0.4585378
170	0x3e678ff1	0.22613503
171	0x3f1d033d	0.61333066
172	0xbfd6118d	-1.6724106
173	0x3e66f320	0.22553682
174	0x3ed519f6	0.4162137
175	0xbe7184f9	-0.23585881
176	0xbe3a25ed	-0.1817853
177	0x3e4e8862	0.20169213
178	0x3d780c64	0.06055869
179	0xbf5b71f9	-0.85720783
180	0xbebe9f33	-0.37230834
181	0x3d7e6063	0.06210364
182	0x3f064aa9	0.5245767
183	0x3fa09465	1.2545286
184	0x3f0b0260	0.543005
185	0x3ef94c44	0.48691
186	0x3e5896f6	0.21151337
187	0x3de9f01a	0.11422749
188	0x3d1cdf62	0.038298972
189	0x3e563b59	0.20921077
190	0x3db9ccb5	0.09072248
191	0xbfd17937	-1.6365117
192	0x3f039e16	0.51413095
193	0x3fd611ae	1.6724145
194	0xbf5a6bc3	-0.8532068
195	0x3e0198ca	0.1265594
196	0xbf3a8624	-0.7286093
197	0xbf257f51	-0.64647394
198	0xc018ea3c	-2.3892965
199	0xbf18f248	-0.5974469
200	0xbf7414d8	-0.95344305
201	0xbf1bee51	-0.60910517
202	0x3f54288d	0.82874376
203	0x3f47ac50	0.77997303
204	0xbede7d31	-0.43454888
205	0x3f8c0f84	1.0942235
206	0x3f0a01c2	0.5390893
207	0x3f3ab262	0.7292844
208	0x3e67b7d7	0.22628723
209	0x3f915bf9	1.1356193
210	0xbd9a371e	-0.07530044
211	0xbefb739b	-0.49111637
212	0x3e90eba0	0.28304768
213	0x3e99fc2e	0.3007521
214	0xbf5d17c6	-0.863644
215	0x3e11fa03	0.14255528
216	0xbe95ba6a	-0.29243785
217	0x3f90c57d	1.1310269
218	0xbe0adbe8	-0.1356045
219	0xbf50377d	-0.8133467
220	0x3ed0c669	0.40776375
221	0x3f5b0961	0.85561186
222	0xbeaf90c4	-0.34290135
223	0xbd94cf39	-0.07266087
224	0x3f0be85a	0.54651415
225	0x3e4c1e86	0.19933519
226	0x3ee4b045	0.44665733
227	0x3c164fe4	0.009174321
228	0xbf0748fb	-0.52845734
229	0xbf9040f3	-1.1269821
230	0xbeac80f0	-0.33692122
231	0xbf31aefe	-0.6940764
232	0x3f105b59	0.56389385
233	0x3f20a1dd	0.62746984
234	0xbbf08ef7	-0.0073412615
235	0x3e88c19b	0.2671021
236	0x3f3c11fc	0.7346494
237	0xbcfdc412	-0.030977283
238	0xbf62f31a	-0.88652194
239	0xbdb65557	-0.08902996
240	0x3f7f46c9	0.99717385
241	0xbed6eb17	-0.41976234
242	0xbe4e0ad8	-0.20121324
243	0x3f803b25	1.001805
244	0x3f828b5d	1.019878
245	0xbf07f520	-0.53108406
246	0xbf6dff9a	-0.9296814
247	0xbf259fa3	-0.6469671
248	0x3e96ee33	0.29478607
249	0x3e8e48c4	0.2778989
250	0x3dd6f088	0.104950964
251	0x3e967eaf	0.29393527
252	0x3d9665d9	0.07343645
253	0x3db0dce4	0.086358815
254	0x3f5a81f0	0.8535452
255	0x3ea88c5f	0.32919595
