result/ver7_3/last.pt (torch, 306841 bytes, 81 tensors)

Encoder.encoder_lstm.weight_ih_l0 f4 [128, 6]
0	0x3f1f60a7	0.62256855
1	0x3ef68182	0.48145682
2	0xbe0b2ca5	-0.1359125
3	0x3fa9bda4	1.3260999
4	0x3fab1b7d	1.3367764
5	0xbf131244	-0.57449746
6	0xbee3a592	-0.44462258
7	0x3e1a50a8	0.1506983
8	0x3e8f6d71	0.28013185
9	0xbf2223a7	-0.6333565
10	0xbf4d8234	-0.802768
11	0x3d53c31c	0.051699743
12	0x3e94fae9	0.2909768
13	0xbf0ec87d	-0.5577467
14	0x3ebda184	0.3703729
15	0x3fed3d22	1.8534281
16	0x3fd160af	1.635763
17	0xbec4ba24	-0.38423264
18	0xbf0c8388	-0.548882
19	0xbdbe9aae	-0.093068466
20	0x3e8f0a01	0.2793732
21	0xbf246576	-0.6421732
22	0xbf214754	-0.62999463
23	0xbf3e6110	-0.74366856
24	0xbea1cb6c	-0.3160051
25	0xbe8b5ea1	-0.27220634
26	0xbf5704dd	-0.83991796
27	0x3fe40792	1.781481
28	0x40017308	2.022646
29	0xbf0d081e	-0.5509051
30	0x3dd2188d	0.10258589
31	0x3f63e0f8	0.8901515
32	0x3f2732ab	0.6531169
33	0x3fbd0612	1.4767478
34	0x3f9fdce0	1.2489281
35	0x3fb5a055	1.4189554
36	0x3fe9ffbf	1.8281173
37	0x3fd6c7bf	1.6779708
38	0x3fc6d0eb	1.5532507
39	0x3f8d82b1	1.1055509
40	0x3f68d5ec	0.9095142
41	0x3fc0e658	1.5070295
42	0xbe995983	-0.29951105
43	0xbe81063a	-0.25200063
44	0xbe52e3f3	-0.20594768
45	0xbe8a2a0b	-0.269852
46	0xbf0996d2	-0.5374576
47	0xbd9e3da8	-0.07726604
48	0xbf68ffbd	-0.91015226
49	0xbf03b92a	-0.5145441
50	0xbfc3d6b4	-1.5299897
51	0x3f95f86d	1.1716439
52	0x3f9b29e4	1.2122159
53	0xbf7c11b3	-0.98464507
54	0x3ec56917	0.3855674
55	0x3eb0df8e	0.3454556
56	0x3ec021fd	0.3752593
57	0xbfafac6a	-1.3724492
58	0xbfa42614	-1.282412
59	0x3eeb779f	0.459897
60	0x3e4f7db3	0.20262794
61	0x3ee3d3f4	0.44497645
62	0x3eb84b2c	0.35994852
63	0x3fada7a3	1.3566784
64	0x3f98201c	1.1884799
65	0x3df8e647	0.12153297
66	0x3f2046ac	0.62607837
67	0xbeb30113	-0.34961757
68	0x3eab5af8	0.3346784
69	0x4055e418	3.3420467
70	0x408b27bc	4.3486004
71	0xbd9523db	-0.072822295
72	0x3f100b13	0.562669
73	0x3ed07576	0.40714616
74	0x3f620814	0.88293576
75	0xbe15e2ca	-0.14637294
76	0xbe2b84b6	-0.16749844
77	0x3fc68b8c	1.5511336
78	0x3fd185f9	1.636901
79	0x3f3dbed0	0.7411928
80	0x3f8b1c23	1.0867962
81	0x3c2d124a	0.0105634425
82	0x3e4fd904	0.20297629
83	0x3f83a203	1.0283817
84	0x3df773b1	0.12082613
85	0x3eeb3fda	0.45947152
86	0x3ea8feca	0.3300689
87	0x400a2af0	2.1588707
88	0x40096c93	2.1472518
89	0x3f50f3de	0.8162211
90	0xbfba15cb	-1.4537901
91	0xbeb0c9c4	-0.34528935
92	0xbf9c7720	-1.2223854
93	0x3ef6e5fa	0.48222333
94	0x3eaa84ad	0.3330435
95	0xbf8cde9c	-1.1005435
96	0x3f8680c3	1.0508045
97	0x3f52dfff	0.8237304
98	0x3fb6a354	1.4268594
99	0x3e17c95b	0.14822905
100	0xbebf19ee	-0.3732447
101	0x3f6baff4	0.9206536
102	0xbe4550b3	-0.19269066
103	0x3e995e40	0.2995472
104	0xbeb4d95d	-0.35322085
105	0x404d7959	3.2105315
106	0x404a0c8f	3.1570165
107	0x3db089d4	0.08620039
108	0x3e468f39	0.19390573
109	0x3ec516e0	0.38494015
110	0xbe8202e8	-0.25392842
111	0xbdd42103	-0.10357859
112	0xbe68329c	-0.22675556
113	0x3e6b9541	0.23006155
114	0xbfb9dbfb	-1.4520258
115	0xbf8a4a06	-1.080384
116	0xbf679a18	-0.90469503
117	0xc00497a3	-2.0717552
118	0xbfe789e7	-1.808896
119	0xbf495eff	-0.7866058
120	0xbf652da9	-0.89522797
121	0xbf3c2ba1	-0.7350407
122	0xbfb309d5	-1.3987375
123	0xbebb4bae	-0.36581177
124	0xbe9e2470	-0.30887175
125	0xbf465e9a	-0.774881
126	0xbe2dd284	-0.16974837
127	0xbe8d5910	-0.27607012
128	0xbab1a951	-0.0013554489
129	0xbfd382e4	-1.652432
130	0xbfd87960	-1.6912041
131	0xbf0c2b30	-0.547534
132	0x3eb300b4	0.34961474
133	0x3f0fdca8	0.5619607
134	0xbdfa60e0	-0.12225509
135	0x3feb4cb5	1.8382784
136	0x3f89fc1d	1.0780064
137	0x3cce1d8d	0.025160575
138	0x3e32fefe	0.17480084
139	0x3f86bef9	1.052703
140	0xbdcd4f52	-0.10024895
141	0xbd923fde	-0.07141088
142	0x3edb78b0	0.42865515
143	0x3f82acc8	1.0208979
144	0xbe5a9213	-0.21344785
145	0x3e2265d0	0.15859151
146	0xbe71032d	-0.23536368
147	0xbe43a33f	-0.19105242
148	0x3ea3f511	0.32022908
149	0xbf175f0c	-0.59129405
150	0x3d8b7731	0.06809843
151	0x3e8ac53f	0.27103612
152	0x3ec5b8f8	0.38617682
153	0x3f986d7c	1.1908412
154	0x3f7167e5	0.94299155
155	0x3e6f01f1	0.23340584
156	0x3f881ad8	1.0633192
157	0x3dcad049	0.099030085
158	0x3f2931c8	0.66091585
159	0x3e9eede6	0.31040877
160	0x3f18d00a	0.5969244
161	0x3e97a2ea	0.2961648
162	0x3fdc3cb4	1.7206025
163	0x3fb87f76	1.4413898
164	0x3fc6e786	1.5539405
165	0x3f283679	0.6570812
166	0x3e840492	0.25784737
167	0x3fe7c1f4	1.8106065
168	0xbe21cbbc	-0.15800375
169	0x3ebdc4b4	0.37064135
170	0xbe3b582f	-0.18295358
171	0x3c2c1e14	0.010505218
172	0xbe926091	-0.285893
173	0x3e595243	0.21222787
174	0x3f4b83d9	0.7949806
175	0x3f228b31	0.6349364
176	0x3f314ff4	0.69262624
177	0xbf193923	-0.5985281
178	0xbf1df70c	-0.6170509
179	0x3f8562c8	1.0420771
180	0xbf1cfb54	-0.61320996
181	0xbee1d1d1	-0.4410539
182	0xc001be1c	-2.0272284
183	0xbeec2cdf	-0.46127984
184	0xbe8b30bd	-0.27185622
185	0xc00f4bbb	-2.2389972
186	0x3fe2c628	1.7716722
187	0x3e89955b	0.26871762
188	0x3f0c2d28	0.547564
189	0x3ea410b8	0.32044005
190	0x3ea68008	0.32519555
191	0x3f61a7bb	0.8814656
192	0xbfcb5b9f	-1.5887336
193	0xbf486a02	-0.78286755
194	0xbf8bbb9e	-1.0916631
195	0x3e994b42	0.2994023
196	0xbdcb30c1	-0.099214084
197	0xbf37e1cc	-0.71828914
198	0xbea32184	-0.31861508
199	0x3f0b393e	0.5438422
200	0x3eff38ee	0.4984812
201	0x3f81a7c9	1.0129329
202	0x3ea5cb49	0.32381657
203	0x3ed2b4e2	0.41153628
204	0x3ed365cc	0.41288602
205	0x3ec9ce2f	0.39415118
206	0x3fa84f34	1.3149171
207	0x3f7f6cc2	0.99775326
208	0x3ee6f935	0.45112005
209	0x3f291f40	0.6606331
210	0xbe76ae5b	-0.24089949
211	0x3f1b5c59	0.60687786
212	0x3f6f044e	0.93365943
213	0xbf391fcf	-0.7231416
214	0xbf0c895c	-0.54897094
215	0x3f44a8e9	0.76820236
216	0x40085669	2.130274
217	0x3f6d22d0	0.92631245
218	0x3fea5d61	1.8309747
219	0x3ee74e34	0.45176852
220	0x3f179f4a	0.5922743
221	0x3f7f83ec	0.9981067
222	0xbd0eba15	-0.03484543
223	0xbf4f818d	-0.81057054
224	0xbe4fa3ec	-0.20277375
225	0xbf9b3483	-1.21254
226	0xbf8e2270	-1.110426
227	0xbf37a04c	-0.7172897
228	0x400cfe9a	2.2030396
229	0x3faaa907	1.3332833
230	0x402da048	2.7129078
231	0x3f28d455	0.6594899
232	0x3eac2f33	0.3362976
233	0x3fa6f4ab	1.3043417
234	0x3f0d45a5	0.55184394
235	0x3e8897a8	0.26678205
236	0x3c389081	0.011264921
237	0xbe1ee6b1	-0.1551769
238	0xbea7c4b4	-0.3276726
239	0x3d7689e1	0.060190085
240	0xbdda3abc	-0.10655734
241	0xbe1412f7	-0.1446036
242	0x3e788985	0.2427121
243	0xbfd44517	-1.6583585
244	0xbfc63aee	-1.5486734
245	0x3e17f5f7	0.14839922
246	0xbee50917	-0.44733498
247	0xbf67cb12	-0.90544236
248	0xbf404076	-0.7509836
249	0xbf053d1b	-0.52046365
250	0xbe7ca930	-0.24673915
251	0xbf865980	-1.0496063
252	0x3f0a4c9e	0.5402316
253	0xbf3e51a7	-0.7434334
254	0x3e11937d	0.14216419
255	0xbf8739ca	-1.0564511

Encoder.encoder_lstm.weight_hh_l0 f4 [128, 32]
0	0x400114d8	2.0168972
1	0xbf188e96	-0.5959257
2	0x3fb0fd38	1.3827276
3	0xc036fa1b	-2.8590152
4	0xbf72fd78	-0.9491801
5	0xbfacbc50	-1.3494968
6	0x3f0df1b7	0.5544695
7	0x3f9da43f	1.2315749
8	0x40050612	2.0784955
9	0x3f423a90	0.7587061
10	0xbeb5036b	-0.3535417
11	0x3ef6e9ed	0.48225346
12	0x3f5f249e	0.8716525
13	0xbf024f37	-0.5090212
14	0xbf9c43b2	-1.2208159
15	0x3fbe6dab	1.4877218
16	0xc0404308	-3.0040913
17	0xbf81fa7c	-1.0154567
18	0xbf01c7f7	-0.5069575
19	0x3e05b055	0.13055547
20	0x3f2bb2cc	0.670697
21	0xbeae2cd9	-0.3401859
22	0x3f5c2467	0.85993046
23	0xbe287f3e	-0.16454789
24	0x3f2ba83e	0.6705359
25	0x3f1f77ef	0.6229238
26	0x3e20c333	0.15699463
27	0x3e519c80	0.20469856
28	0x3ffc3a1a	1.9705231
29	0xbf781d6f	-0.9691991
30	0xbfcedd71	-1.6161329
31	0x3f5c21cc	0.8598907
32	0xbf814802	-1.01001
33	0xbe8c2446	-0.27371424
34	0x3f673e02	0.9032899
35	0x3e508123	0.20361762
36	0xbf82f5d4	-1.0231271
37	0xbf366856	-0.71252954
38	0xbf0ae24d	-0.5425156
39	0x40793f22	3.8944783
40	0xbfa1f90c	-1.2654128
41	0x3f66c387	0.901421
42	0x400dc08d	2.2148774
43	0xbf3352f5	-0.7004846
44	0xbcec1e9e	-0.028823193
45	0xc02a7c64	-2.6638422
46	0xc023fa9a	-2.5621705
47	0x3fb44971	1.4084913
48	0x3e8057df	0.2506704
49	0x3fcee104	1.6162419
50	0xbfe8f081	-1.8198396
51	0x3ee10121	0.43946174
52	0x3f529228	0.82254267
53	0xbf8fedfa	-1.12445
54	0xbf4caab9	-0.79948
55	0x3f67a8d4	0.90491986
56	0xbffa0b79	-1.9534751
57	0xbecdd221	-0.40199378
58	0xbf8788d6	-1.0588634
59	0x3fd08139	1.6289436
60	0x3f12f193	0.57399863
61	0xbf980969	-1.1877872
62	0xbfdd8a1a	-1.730777
63	0xbf58d52e	-0.84700286
64	0xbd5c1630	-0.053732097
65	0x3f1e8f56	0.61937463
66	0x3fb41c0c	1.4071059
67	0x3e5a8c12	0.21342495
68	0xc008e7f6	-2.1391578
69	0xbf128cd0	-0.5724611
70	0xbef29cfa	-0.4738539
71	0x3ece1847	0.40252897
72	0x3fa9ff63	1.3281063
73	0x4011b289	2.276522
74	0xbd2085d4	-0.03919013
75	0xbf88def4	-1.069304
76	0xbe9cb0c4	-0.3060361
77	0x3f983fd1	1.1894475
78	0xbdbb0934	-0.09132615
79	0x40557b31	3.335644
80	0xbf042c4b	-0.51630086
81	0xbd95955d	-0.073038794
82	0xbf95788f	-1.1677417
83	0x3f37c485	0.7178424
84	0xbf949d0c	-1.1610427
85	0xbeb15ab2	-0.34639508
86	0xc04be372	-3.1857572
87	0x3d4c03aa	0.04980818
88	0xbefd2b09	-0.49446896
89	0x403ad2cd	2.9191163
90	0x402f07fb	2.734862
91	0xbe14ef91	-0.14544512
92	0xbfa1c87a	-1.2639306
93	0xbee9005d	-0.4550809
94	0xc06c926b	-3.6964366
95	0xbf6c20b4	-0.922374
96	0xc0268849	-2.6020682
97	0xbefc8d5f	-0.49326608
98	0x3fd163e8	1.6358614
99	0xc06cbf07	-3.6991594
100	0xc064ff4b	-3.5780818
101	0xbec2043f	-0.37893865
102	0x4029104a	2.6416192
103	0x3e89bee1	0.26903442
104	0x3f07ff6e	0.5312413
105	0xbfee7823	-1.8630413
106	0xbf049892	-0.51795304
107	0xbfdc0ae4	-1.7190824
108	0x402d77d3	2.7104385
109	0xc07e0e53	-3.9696243
110	0x3f964cd3	1.1742195
111	0x3e66271d	0.22475858
112	0xbf4b2dcb	-0.7936675
113	0xbf355706	-0.7083591
114	0x4087d8bb	4.2452064
115	0xbf8bd112	-1.0923178
116	0x3f9a0aa8	1.2034502
117	0xc0067997	-2.1011713
118	0xc010c533	-2.262036
119	0xbf812ffd	-1.009277
120	0xc03a4ffe	-2.9111323
121	0x3de2368e	0.11045562
122	0x3f9110c3	1.133324
123	0x3f81df4b	1.0146269
124	0x4095aebe	4.677581
125	0x3e082ae7	0.13297616
126	0x3f7ec20e	0.99514854
127	0xbfdaa035	-1.7080141
128	0x402fdc12	2.747807
129	0x3f59075c	0.84776855
130	0x401b0d6d	2.4226944
131	0xc0711a37	-3.767225
132	0xbf834b2d	-1.0257317
133	0xc04709e5	-3.109979
134	0xbf8473f7	-1.034789
135	0x3f383712	0.7195903
136	0xbfc32368	-1.524518
137	0x3f3d7c19	0.74017483
138	0xbfea3c34	-1.8299623
139	0xbf17162e	-0.5901822
140	0xbf5dc275	-0.8662484
141	0x40779c45	3.868913
142	0x3fe9cb1b	1.8265108
143	0x4013b8b6	2.3081489
144	0xbec6a2a4	-0.3879596
145	0xbf2d3346	-0.6765636
146	0x3e54f265	0.20795591
147	0xbffc5835	-1.9714419
148	0xbfc25c9e	-1.5184515
149	0x3fc8679f	1.5656623
150	0x3f229524	0.6350882
151	0x3ef22b35	0.4729859
152	0xbf58e0d3	-0.84718055
153	0x3ff15f6e	1.8857248
154	0x4034b0ac	2.8232832
155	0xbfc81bfa	-1.5633538
156	0x3e8c1100	0.2735672
157	0x40260085	2.5937817
158	0xbf4f43ca	-0.8096281
159	0x3fbf61ff	1.4951781
160	0x4000e861	2.0141833
161	0xbecafc8e	-0.3964581
162	0x3fb4781b	1.4099153
163	0x4015ce73	2.3407257
164	0x3fb93909	1.4470531
165	0x403b81d9	2.9298003
166	0x3f95ed82	1.1713107
167	0x3fa347be	1.2756269
168	0xc0025ae6	-2.036798
169	0x3fbdc4db	1.48257
170	0x3dca1272	0.098667994
171	0xc00a99a9	-2.1656287
172	0xbf0f4eed	-0.55979806
173	0x40037ef7	2.0546243
174	0x3fa5c340	1.295021
175	0x40015fdd	2.021476
176	0xc008c228	-2.1368504
177	0xbdd1ab8a	-0.102377966
178	0xbf809cb9	-1.0047828
179	0x3de70c51	0.11281646
180	0x3e40df4e	0.18835184
181	0x3f2ada1f	0.66739076
182	0xbfac9d16	-1.3485439
183	0xc0110a34	-2.2662477
184	0x3f6f174e	0.93394935
185	0xbed5ce17	-0.41758797
186	0xbee7cc07	-0.45272848
187	0x3d0c24e0	0.034214854
188	0xbd93026f	-0.071781985
189	0x3e3eb506	0.18623742
190	0xc02973b3	-2.6476867
191	0xbf2e39c3	-0.6805689
192	0x3e534af2	0.20634058
193	0xbe94a50f	-0.2903218
194	0xbfc0ec7b	-1.5072168
195	0xbf9642aa	-1.1739094
196	0xc0011186	-2.0166945
197	0xbf844d94	-1.0336175
198	0x3f752474	0.9575875
199	0xbfc40ddb	-1.5316728
200	0x3e17e496	0.14833292
201	0x3f3fdb8b	0.7494437
202	0xbf691c48	-0.9105878
203	0xc013e9e4	-2.3111506
204	0x3f68bf23	0.9091665
205	0xbfeb55e6	-1.8385589
206	0x400da5fe	2.2132564
207	0xc0183fa1	-2.3788836
208	0xbf41d05f	-0.75708574
209	0xc08dbacb	-4.429052
210	0xbe172622	-0.1476064
211	0x3ec36c65	0.38168636
212	0x3e51e21b	0.20496409
213	0x3e8259e8	0.25459218
214	0xbf069f9f	-0.5258731
215	0x3fb0313e	1.3765028
216	0xbfc50949	-1.5393459
217	0x3fa9e905	1.3274237
218	0xbf2fc70b	-0.6866309
219	0xbf312a05	-0.6920474
220	0x3f0a05c3	0.5391504
221	0x3e40be18	0.18822515
222	0x3ffaea40	1.9602737
223	0xbf8396df	-1.0280417
224	0xbfb24582	-1.3927462
225	0x3e8651e1	0.26234344
226	0xbe6f5333	-0.23371582
227	0x40818707	4.047733
228	0xbf108ed6	-0.5646795
229	0x400d6966	2.209558
230	0xbfe21bf7	-1.7664784
231	0x3fb6cc4f	1.42811
232	0x3f794f8c	0.97387004
233	0x400c3846	2.1909347
234	0x3ffd3ef8	1.9784842
235	0x3e9abd23	0.30222425
236	0x3fbe6e9c	1.4877505
237	0xc0636f2e	-3.5536609
238	0xc02642d1	-2.5978281
239	0x406858dd	3.6304238
240	0xbfa91050	-1.3208103
241	0x4010f494	2.2649279
242	0xbf90705a	-1.1284287
243	0x3fb854ce	1.440088
244	0x3d8416c0	0.06449652
245	0xbe53ac99	-0.2067131
246	0xc01f9c37	-2.4939096
247	0xc0849bad	-4.1440034
248	0xbf96ac65	-1.1771361
249	0xc0688520	-3.6331253
250	0x408a891f	4.3292384
251	0xc03b0492	-2.922154
252	0x400e1c03	2.2204597
253	0x3ebfd3fe	0.37466425
254	0xbef7baae	-0.48384613
255	0xbff0d6ba	-1.8815529

Encoder.encoder_lstm.bias_ih_l0 f4 [128]
0	0xbfb29437	-1.3951482
1	0xbf9f292b	-1.2434438
2	0xbfb3afbc	-1.4038005
3	0xc00cae42	-2.1981359
4	0xbec47e20	-0.38377476
5	0xbe394b17	-0.18095051
6	0x3c79ab9d	0.01523867
7	0x3f1236c7	0.57114834
8	0xbef9c98f	-0.4878659
9	0xbfa866d1	-1.3156377
10	0xbf6d9cd0	-0.928174
11	0xbf216676	-0.6304697
12	0x3d8ca770	0.06867874
13	0xbf3c1803	-0.7347414
14	0xbf0482fa	-0.51762354
15	0xbe8231de	-0.2542867
16	0xbfc04c9c	-1.5023379
17	0xbf6ad369	-0.91728836
18	0xc00b03b9	-2.1721022
19	0xbfb536b6	-1.4157321
20	0xbe742ddc	-0.23845619
21	0x3e7fb7be	0.24972436
22	0x3e982426	0.2971508
23	0xbf88d127	-1.0688828
24	0xc0272cc7	-2.612108
25	0xbf1e4bdd	-0.6183451
26	0xc00e3f94	-2.2226305
27	0xbf378594	-0.716882
28	0xbf37403b	-0.7158238
29	0xbff723db	-1.9307817
30	0xbf1beb7b	-0.6090619
31	0xbfcf6da4	-1.6205335
32	0xbfe01cf1	-1.7508832
33	0xc01f4f37	-2.48921
34	0xc00e2b0f	-2.221378
35	0xbd1df00a	-0.038558997
36	0xbff14e9e	-1.8852117
37	0xbff1cc04	-1.8890386
38	0x3ee8962b	0.4542707
39	0x3e9a9bb0	0.30196905
40	0xbf05d2a0	-0.52274513
41	0xbfad842e	-1.3555963
42	0xbf15dc0b	-0.58538884
43	0xbfa4066b	-1.2814459
44	0xbfc7cc81	-1.5609285
45	0xbff756e1	-1.9323388
46	0xbf630350	-0.8867693
47	0x3f32bb2c	0.6981685
48	0xc02166b0	-2.5218925
49	0xbdca0a8d	-0.09865294
50	0xc04e9996	-3.2281241
51	0xbf4c0a5e	-0.7970332
52	0xbe018fad	-0.12652464
53	0xbf81c039	-1.0136787
54	0xc007a8c6	-2.119676
55	0xbfbafc10	-1.4608173
56	0xbfbbc81d	-1.4670445
57	0xc02a4b43	-2.6608436
58	0xc0402b88	-3.002657
59	0xbf901dcc	-1.1259093
60	0x3e407b63	0.18797068
61	0xbfb13c18	-1.3846464
62	0xbf631dd4	-0.8871739
63	0xc0039a18	-2.0562801
64	0x3d10f31e	0.035388105
65	0xbc061ee2	-0.008186074
66	0xbfb250f1	-1.3930951
67	0x3f3380d4	0.7011845
68	0xbd0778fc	-0.033074364
69	0xbf5b153b	-0.8557927
70	0xbef7f4c0	-0.48428917
71	0x3e229784	0.15878111
72	0x3ed0091c	0.4063195
73	0xbf25144a	-0.64484084
74	0xbd619427	-0.05507293
75	0xbb213fe9	-0.0024604744
76	0x3f161de3	0.58639354
77	0x3f9aaacc	1.2083373
78	0xbd83fd8a	-0.06444843
79	0x3d496aa8	0.04917398
80	0xbf859b38	-1.0437994
81	0x3f05504c	0.5207565
82	0xbc1cb2fb	-0.009564157
83	0xbfa7c7a3	-1.3107799
84	0x3ed9c2b4	0.4253136
85	0xbd242922	-0.04007829
86	0x3ed16b5e	0.40902227
87	0x3d6d8995	0.057992537
88	0xbcc8bdcb	-0.024504563
89	0x3e2a3794	0.16622764
90	0xbeb71cc3	-0.3576413
91	0x3d214d87	0.039380576
92	0x3e93eab1	0.28889993
93	0xbe614098	-0.21997297
94	0xbe03a76a	-0.12856832
95	0x3e33dfcd	0.17565842
96	0xc0234744	-2.5512247
97	0xc0a352c2	-5.1038523
98	0xc0191ef8	-2.3925152
99	0xbf5e79a5	-0.86904365
100	0xbf9a19db	-1.203914
101	0xc0405f88	-3.0058308
102	0xc07fc1a4	-3.996194
103	0x3c96026d	0.018311704
104	0xc024d5a1	-2.5755389
105	0xc0063f57	-2.097616
106	0x3ddbb845	0.10728506
107	0xbfec5149	-1.8462306
108	0xbed55857	-0.4166896
109	0xc00ecce8	-2.2312565
110	0xbfd93f9d	-1.6972538
111	0xbfb9f39c	-1.4527469
112	0xbfb2c147	-1.3965234
113	0xbfefd2ad	-1.8736168
114	0xbfd9fd9b	-1.7030519
115	0xc04eda79	-3.2320845
116	0xbfaf5125	-1.3696638
117	0xbe99f0e7	-0.30066606
118	0xbece33a7	-0.40273783
119	0xc0209c20	-2.509529
120	0xc04ae148	-3.17
121	0xbf9854b0	-1.1900845
122	0xbfcd33c9	-1.6031429
123	0xc0263d28	-2.5974827
124	0xbf131944	-0.5746043
125	0xc01cb07a	-2.4482713
126	0xbf7d40be	-0.98926914
127	0xc012361d	-2.2845528

Encoder.encoder_lstm.bias_hh_l0 f4 [128]
0	0xbfc04b6e	-1.5023019
1	0xbfaceb60	-1.3509331
2	0xbfd4438a	-1.6583111
3	0xbff1dda2	-1.8895762
4	0xbe1b9541	-0.15193655
5	0xbd30446f	-0.043034013
6	0x3d3f5ffd	0.0467224
7	0x3ee72cb2	0.45151287
8	0xbf1af810	-0.60534763
9	0xbf9d5d8a	-1.2294171
10	0xbf865da2	-1.0497324
11	0xbeecb9f1	-0.46235612
12	0x3cd275f6	0.025691014
13	0xbefabe4b	-0.48973307
14	0xbefc6b7d	-0.49300757
15	0xbeb844cd	-0.3598999
16	0xbf9c1ef1	-1.2196943
17	0xbf42e962	-0.76137364
18	0xbff95676	-1.9479511
19	0xbfc7d3a0	-1.5611458
20	0xbe05f240	-0.13080692
21	0x3dc1f558	0.09470624
22	0x3e8d37bc	0.27581584
23	0xbf91ce39	-1.1391059
24	0xc017c9f5	-2.3717015
25	0xbf12382b	-0.57116956
26	0xc0151850	-2.329609
27	0xbf11746f	-0.5681829
28	0xbf3ffd5c	-0.7499597
29	0xc00b3bba	-2.1755204
30	0xbf003d64	-0.50093675
31	0xbfc5c7ec	-1.5451636
32	0xbfbf626d	-1.4951912
33	0xc010f473	-2.26492
34	0xc01a24f2	-2.408505
35	0x3e57f0ea	0.21087995
36	0xbfccefa5	-1.6010634
37	0xbfde3199	-1.7358886
38	0x3f1bcb29	0.6085687
39	0xbc5263b1	-0.012841151
40	0xbf324ba2	-0.69646657
41	0xbfc6ca0f	-1.5530413
42	0xbf52b3e6	-0.82305753
43	0xbfcda9df	-1.6067466
44	0xbfb3b865	-1.4040648
45	0xbffb7e07	-1.9647835
46	0xbf6ae2bc	-0.9175222
47	0x3f45dd32	0.7729064
48	0xc022e8a3	-2.545449
49	0xbdf6d152	-0.120516434
50	0xc04ed1eb	-3.2315624
51	0xbf5fe654	-0.8746083
52	0xbe2017c7	-0.1563407
53	0xbf96b3be	-1.1773603
54	0xc008b5a8	-2.1360874
55	0xbfcc5dd3	-1.5966133
56	0xbfb6aa22	-1.427067
57	0xc0306d4e	-2.7566714
58	0xc042e065	-3.044946
59	0xbf96d0f3	-1.1782516
60	0x3df88ef6	0.12136643
61	0xbfae28bd	-1.3606182
62	0xbf6d7698	-0.92759085
63	0xbff3b5d6	-1.9039867
64	0x3cfae319	0.030625867
65	0x3e085560	0.13313818
66	0xbfb07bca	-1.3787777
67	0x3f0dacf4	0.5534203
68	0xbe9e65a5	-0.30936924
69	0xbf3a42eb	-0.7275836
70	0xbeb6a2a8	-0.35670972
71	0x3e86a0d6	0.26294583
72	0x3e96987f	0.2941322
73	0xbf2a4493	-0.66510886
74	0x3ceec423	0.02914626
75	0xbe753740	-0.23946857
76	0x3f642d2d	0.8913143
77	0x3f8e420c	1.1113906
78	0xbeae5a70	-0.34053373
79	0x3e77137c	0.24128526
80	0xbf84f716	-1.0387905
81	0x3ea8b5d8	0.32951236
82	0x3dded963	0.10881307
83	0xbfa76a96	-1.3079402
84	0x3ecaeea5	0.39635196
85	0xbc8b2bac	-0.016988598
86	0x3f04139d	0.5159243
87	0x3ec3b3f0	0.3822322
88	0x3d30a64f	0.043127354
89	0xbd873d57	-0.066034965
90	0xbe2ee0c6	-0.17077932
91	0xbe1f2f5d	-0.15545411
92	0x3f073d0b	0.5282752
93	0xbe08e8fe	-0.1337013
94	0xbe417e02	-0.18895724
95	0x3ec10d1b	0.3770531
96	0xc02c72bb	-2.6945026
97	0xc0a42b8e	-5.1303167
98	0xc011e8ba	-2.2798295
99	0xbf4ec4ab	-0.8076884
100	0xbf9d040f	-1.2266864
101	0xc042b5c8	-3.042345
102	0xc08302d5	-4.0940957
103	0xbe04d6d7	-0.1297258
104	0xc01cb75f	-2.448692
105	0xc0061681	-2.0951235
106	0x3d09d460	0.033649802
107	0xbfec3819	-1.845462
108	0xbebccd58	-0.36875415
109	0xc008d7cd	-2.1381714
110	0xbfd9c6b9	-1.701377
111	0xbfbd9eac	-1.4814048
112	0xbfb209e5	-1.390927
113	0xbfdaa5e4	-1.7081876
114	0xbfda314f	-1.7046298
115	0xc0574e70	-3.3641624
116	0xbf926fe2	-1.1440394
117	0xbe96c8e4	-0.29450142
118	0xbefc5959	-0.49286917
119	0xc02aad96	-2.6668448
120	0xc05ce85c	-3.451682
121	0xbfabd5e3	-1.3424648
122	0xbfed2d0b	-1.8529371
123	0xc02a1831	-2.6577265
124	0xbf2ec469	-0.6826845
125	0xc0175905	-2.3648083
126	0xbf89ba45	-1.075997
127	0xc012c7fe	-2.2934566

Encoder.encoder_attn.0.weight f4 [20, 84]
0	0x3f2574dd	0.64631444
1	0x3d9a5546	0.07535796
2	0xbea27240	-0.3172779
3	0xbec5fdb7	-0.38670132
4	0x3fdc55ea	1.7213719
5	0xbf825537	-1.0182256
6	0x3f8d740f	1.1051043
7	0xbf6697b5	-0.90075237
8	0xbf2ffdbf	-0.6874656
9	0x3fb526d8	1.4152479
10	0x40466bdc	3.1003332
11	0xbe5c53da	-0.21516362
12	0xbf23a331	-0.63920885
13	0xbf3771f8	-0.7165828
14	0xbfcbf5d2	-1.5934393
15	0xbfdd83b8	-1.7305822
16	0x400d0da1	2.2039568
17	0x3d20d227	0.039262917
18	0x3f638dc9	0.8888822
19	0x3ee4d848	0.4469626
20	0x3f4b312e	0.7937192
21	0x3e24fec2	0.16112807
22	0x3d627a5b	0.05529247
23	0x3f3cc2b4	0.73734593
24	0xbfcb6ee6	-1.5893219
25	0xbfd05ef7	-1.6278981
26	0xbff36629	-1.9015552
27	0xbd60d279	-0.054888222
28	0xbf924d66	-1.142987
29	0x3f2a5efb	0.6655118
30	0x3f2bbdff	0.67086786
31	0xbf1a7b73	-0.6034462
32	0x3ed0e41d	0.40799037
33	0xbf4f63df	-0.81011766
34	0xbfaa7f56	-1.332011
35	0xbf426341	-0.759327
36	0x3fc87ba1	1.5662729
37	0x3fbd8d63	1.4808773
38	0x3fa26a51	1.2688695
39	0xbf992f83	-1.1967624
40	0xbef2d60d	-0.47428933
41	0x3f8ef522	1.1168559
42	0x405988e1	3.3989794
43	0x3e1d8e3b	0.15386288
44	0xbf95ce81	-1.1703645
45	0x3ece3980	0.40278244
46	0xc01923d4	-2.3928118
47	0xbffc4b72	-1.9710524
48	0x400f9e2c	2.244029
49	0xbfc0f77f	-1.507553
50	0x3e9b3db9	0.30320528
51	0xbe46525c	-0.19367355
52	0xbe0abd3b	-0.13548748
53	0x3f4e2719	0.8052841
54	0xbe2ea930	-0.17056727
55	0xbf75762d	-0.95883447
56	0xbf42e928	-0.7613702
57	0xbf8710be	-1.0551984
58	0xbdb09e2a	-0.086239174
59	0xbf9c20b6	-1.2197483
60	0xbf95cd55	-1.1703287
61	0x3f2dbb1e	0.67863643
62	0x3fce5c48	1.6121912
63	0xbfa33d7b	-1.2753137
64	0xbea19b44	-0.3156377
65	0xbef20c40	-0.4727497
66	0x3e86eb47	0.26351377
67	0xbfe2f9e9	-1.7732517
68	0xbe93a653	-0.28837833
69	0x3f9bb86e	1.2165658
70	0xbf3add21	-0.72993666
71	0x3f68d466	0.90949094
72	0x3eaeeb05	0.3416368
73	0xbf5ac1e7	-0.8545212
74	0xbf9d5d45	-1.2294089
75	0xbd2ee890	-0.042702258
76	0x3ecd0c4b	0.4004844
77	0x3b931486	0.0044885306
78	0x3e2ed90c	0.17074984
79	0xbefe769e	-0.49699873
80	0x3f78fcca	0.97260725
81	0xbfadee51	-1.3588353
82	0xbf421eee	-0.75828445
83	0x3cf7ddef	0.030257193
84	0xbf26a4e0	-0.6509533
85	0xbf3f15d0	-0.7464266
86	0xbe49841c	-0.19679302
87	0xbf917188	-1.1362772
88	0x3f897709	1.0739452
89	0x3df314ff	0.11869239
90	0xbeaaf33d	-0.333887
91	0xc0352dce	-2.8309207
92	0x3f6a3ad7	0.9149603
93	0x3dbba689	0.091626234
94	0x3c76cb73	0.0150631545
95	0xbe87d3aa	-0.26528674
96	0xbedb2284	-0.4279977
97	0x3f50bcaf	0.8153791
98	0x3f9f7fdb	1.2460893
99	0xc024f72d	-2.5775864
100	0x3f8826e4	1.0636868
101	0xc00a28c2	-2.1587377
102	0x3fdef5a8	1.7418718
103	0x3ec04f6c	0.37560594
104	0xbfa1c273	-1.2637466
105	0x4000c17b	2.011809
106	0x401db666	2.4642577
107	0x3e9c95d8	0.30583072
108	0xbf4c1bd1	-0.79729944
109	0xbf9c529b	-1.2212709
110	0xbd66e238	-0.056368083
111	0x3feaa2fe	1.8330991
112	0xc02ce2a9	-2.7013342
113	0x4002fd27	2.0467012
114	0x3fc46d99	1.5345947
115	0x3f4730c4	0.77808785
116	0x3fc058cd	1.50271
117	0x3cbf979f	0.023387728
118	0xbc8fb6e7	-0.01754327
119	0x3dae0440	0.084969044
120	0x3e4118bf	0.18857096
121	0x3ed716b6	0.42009515
122	0x3f669a0d	0.9007881
123	0xc01a8690	-2.414463
124	0x3efd4028	0.4946301
125	0x3fa240b6	1.2675998
126	0x3ce1f399	0.027581977
127	0xbf97a20f	-1.1846331
128	0xbf546b9b	-0.8297669
129	0x3fd3026a	1.6485112
130	0x3e732441	0.23744299
131	0xbfdc0919	-1.7190276
132	0x3f772ccd	0.96552736
133	0xbf178bf1	-0.5919791
134	0x4008dda1	2.1385272
135	0x3f831d58	1.024333
136	0xbe501da6	-0.2032381
137	0x40244cd9	2.5671904
138	0x3e049c5a	0.12950268
139	0xbf3f469f	-0.74717134
140	0xbea5e4ca	-0.32401115
141	0x3e6d84c5	0.23195179
142	0x3d9b114b	0.07571658
143	0xbf4e2a0d	-0.80532914
144	0xc0199992	-2.3999982
145	0x3fc4ff04	1.5390325
146	0xbe908c45	-0.28232017
147	0xbf0240a4	-0.50879884
148	0xbe7fe821	-0.24990894
149	0xbf826544	-1.0187154
150	0xbf144e44	-0.57931924
151	0xbeb2b597	-0.34904167
152	0x3f7302f1	0.94926363
153	0xbe4ff116	-0.2030681
154	0x3ff81617	1.9381741
155	0x4009cabe	2.1529994
156	0x3f27284a	0.6529585
157	0x3de36c42	0.11104633
158	0x3e237a9e	0.15964743
159	0xbe178d1d	-0.14799924
160	0xbf0b492a	-0.54408514
161	0x3eb563b9	0.35427645
162	0x3f8c5554	1.096354
163	0x3ea26a4a	0.31721717
164	0x3e9ca5e6	0.3059532
165	0x3f982fa3	1.1889538
166	0xbfacfb9c	-1.3514285
167	0xbfa2ff21	-1.2734109
168	0xbf137f47	-0.57616085
169	0xbd610e2a	-0.05494515
170	0x3fe7f84c	1.8122649
171	0xbd8f6a76	-0.07002728
172	0xbfc78b48	-1.558938
173	0xbee5d098	-0.44885707
174	0x3d3cd7c2	0.0461042
175	0x3ecf69f9	0.40510538
176	0xbff863a9	-1.9405414
177	0xc00cf6ad	-2.202556
178	0xbf75f461	-0.9607602
179	0xbebe4013	-0.3715826
180	0x3fcff758	1.6247358
181	0xbf4d0038	-0.8007846
182	0x4008662c	2.131236
183	0x3f052a78	0.5201793
184	0xbfbd316e	-1.478071
185	0xbfcc70b6	-1.5971897
186	0x3ff98ac7	1.9495476
187	0x3e68c7ed	0.22732516
188	0xbfe20679	-1.7658225
189	0xbf139ba1	-0.57659346
190	0x3fa60e0b	1.2973036
191	0xbf8f9765	-1.1218077
192	0x3f2c72c9	0.6736265
193	0x4003c7d9	2.0590727
194	0xbeb47a46	-0.35249537
195	0xbfbcea1b	-1.4758943
196	0x3f01a5bd	0.5064352
197	0xbf5bc6f4	-0.85850453
198	0x3f9d5087	1.22902
199	0xbeda347e	-0.42618173
200	0xbefed75a	-0.49773675
201	0xbf26fa3b	-0.6522557
202	0xbe7075ac	-0.23482388
203	0xbed7c1a1	-0.42139915
204	0xbf090a0c	-0.53530955
205	0xbfb57ef0	-1.4179363
206	0xc004dba5	-2.075906
207	0x3f418de5	0.7560714
208	0x3f2a0276	0.66410005
209	0xbf3528af	-0.70765203
210	0xbfc1695d	-1.5110279
211	0x3f6b8b5f	0.9200954
212	0x3fc5fb3d	1.5467297
213	0xbf2e0a65	-0.6798461
214	0x3eb787a9	0.35845688
215	0xbf54d531	-0.83137804
216	0xc00f2cce	-2.2371097
217	0xbfa2ab27	-1.2708482
218	0x3ff0fae6	1.8826568
219	0x3e3b103e	0.18267915
220	0xbf4a13fc	-0.78936744
221	0xbe5e834b	-0.21729772
222	0x3f28a532	0.6587707
223	0x3ef47a42	0.47749525
224	0x3e13a9e0	0.14420271
225	0x3de1283f	0.109940045
226	0x3e0bbcd0	0.13646245
227	0x3f500e39	0.812717
228	0x3f0b9841	0.54529196
229	0xbfaf927f	-1.3716582
230	0x3f85f687	1.0465859
231	0x3fd94ad8	1.6975965
232	0xbf062888	-0.52405596
233	0xbf7b6384	-0.98198724
234	0xbf0f550a	-0.55989134
235	0x3f07cd89	0.53047997
236	0xc0072d5c	-2.1121435
237	0x3f5635ce	0.8367585
238	0x3f954055	1.1660258
239	0x3f318a9a	0.69352114
240	0x3f8d11f7	1.1021107
241	0x3edd35f3	0.43205222
242	0xbf17d05f	-0.59302324
243	0x3f128591	0.57235056
244	0x3fda0f2d	1.7035881
245	0x3f267a42	0.650303
246	0x3de2beb2	0.110715285
247	0xbfc0b685	-1.50557
248	0xbf435749	-0.7630506
249	0x3f1d394a	0.6141554
250	0xbf34642c	-0.7046535
251	0xbfb0f10a	-1.3823559
252	0xbf4e38dc	-0.8055551
253	0xbeb79ffc	-0.35864246
254	0x3f3ee031	0.7456084
255	0xbfbd6219	-1.4795562

Encoder.encoder_attn.0.bias f4 [20]
0	0xbfb0c43f	-1.380989
1	0xbf2aa24f	-0.66653913
2	0x3f15d8a3	0.58533686
3	0x3fa39b57	1.2781781
4	0x400b595d	2.1773293
5	0x3fb21c52	1.3914893
6	0xc0658b67	-3.5866334
7	0xbf95c3ac	-1.1700339
8	0x3f36ca95	0.71402866
9	0xc00db70c	-2.2142973
10	0x40693123	3.643624
11	0x3bf3ddab	0.0074421964
12	0xbf4686de	-0.7754954
13	0x3fa784dc	1.308742
14	0x400284b9	2.0393507
15	0xbd8a076b	-0.06739696
16	0x401599da	2.3375154
17	0x400fa576	2.244474
18	0x402cc8b7	2.6997507
19	0x3e7b5039	0.24542321

Encoder.encoder_attn.2.weight f4 [1, 20]
0	0x3f292417	0.66070694
1	0xbead8bbc	-0.3389567
2	0xbe8a85ae	-0.27055115
3	0xbe79e150	-0.24402356
4	0xbe765d7c	-0.24059099
5	0xbdec7173	-0.11545076
6	0x3e5a69c1	0.21329404
7	0xbce11de4	-0.027480073
8	0xbf12cd84	-0.5734484
9	0x3e893428	0.26797605
10	0x3e363b86	0.17796144
11	0x3eaec192	0.34132057
12	0x3e76dbb4	0.24107248
13	0xbef9a9ae	-0.48762268
14	0xbe2afc40	-0.16697788
15	0xbe8bd582	-0.2731133
16	0xbe0d0af1	-0.13773705
17	0x3dcff432	0.101539984
18	0xbede5994	-0.43427718
19	0x3d2bb045	0.04191615

Encoder.SelfAttention.wq.weight f4 [20, 20]
0	0x3fb7804b	1.4336027
1	0x3ed2c600	0.41166687
2	0xbf38456e	-0.7198094
3	0x3f8f03ba	1.1173012
4	0xbfab2419	-1.3370391
5	0x3f28b6fb	0.65904206
6	0xbda5ca16	-0.080951855
7	0x3dd3e5db	0.10346576
8	0x3f97d69e	1.1862371
9	0x3e54edab	0.20793788
10	0xbf1f69e9	-0.6227098
11	0x3fdbf137	1.7182988
12	0xbfb4b8a9	-1.4118854
13	0x3d30bb40	0.043147326
14	0xbf864236	-1.0488956
15	0x3fcfb0e4	1.6225858
16	0xbfafb5f2	-1.37274
17	0xbe461dc0	-0.19347286
18	0xbf252260	-0.6450558
19	0x3f06841b	0.52545327
20	0xbf182a2e	-0.5943936
21	0xbfe4dc40	-1.7879715
22	0x3ddb7e59	0.10717458
23	0xbe4bacdf	-0.19890164
24	0x3f8c8af6	1.0979908
25	0x3e675e51	0.22594573
26	0xbf5da218	-0.8657546
27	0x3ecd09d6	0.40046567
28	0xbe1ea6c4	-0.15493304
29	0xbdc51d68	-0.096247494
30	0xbf512e16	-0.81710947
31	0xbe77f25d	-0.24213548
32	0x3ed4cfd8	0.41564822
33	0xbf17ec73	-0.5934517
34	0x3f0374f1	0.51350313
35	0xbf37fc2f	-0.71869177
36	0xbe818815	-0.25299135
37	0xbf5dcdbc	-0.8664205
38	0x400a752c	2.1634016
39	0x3fa58093	1.2929863
40	0xbed894af	-0.42300937
41	0xbc340d9d	-0.010989574
42	0xbf269436	-0.650699
43	0x3f1336e2	0.5750562
44	0xbac8671d	-0.0015289519
45	0x3fac1bff	1.3446044
46	0x3d2b9a0c	0.041894957
47	0xbe247877	-0.16061579
48	0xbe20babf	-0.15696238
49	0x3f826d27	1.0189561
50	0x3f88ab8c	1.0677352
51	0xbfabc94e	-1.3420808
52	0xbf79800c	-0.9746101
53	0xbe708764	-0.23489147
54	0xbf8a8ef3	-1.0824875
55	0x3f40634a	0.75151503
56	0xbecc1342	-0.39858443
57	0x3e43a4cc	0.19105834
58	0xbf0ab9c4	-0.54189706
59	0x3fcb0555	1.5861002
60	0xbe5ac236	-0.21363148
61	0x3ec811dc	0.39076126
62	0xc008ffa5	-2.1406033
63	0x3e583fbc	0.21118063
64	0x4002c7a6	2.0434356
65	0x4005e6a3	2.092202
66	0xbf23be5e	-0.6396235
67	0xbf84de68	-1.0380373
68	0xbf69157a	-0.91048396
69	0x3f06cc27	0.5265526
70	0xbf6d7cb3	-0.927684
71	0x3f2cf999	0.67568356
72	0x3d7280b0	0.059204757
73	0x3f117741	0.5682259
74	0xbda09d9f	-0.07842564
75	0x3f4dd1fd	0.8039854
76	0xbecaacd0	-0.3958497
77	0xbf4cdab1	-0.80021197
78	0xbf3d7519	-0.740068
79	0x3fb4ead0	1.4134159
80	0xbf2f118f	-0.6838617
81	0xbff19e4d	-1.8876435
82	0xbecaa4bf	-0.39578816
83	0x3ddc5cdf	0.10759901
84	0x3a7eabf0	0.0009714952
85	0xbe213889	-0.15744223
86	0xbe0b29e2	-0.13590196
87	0x3f2f406d	0.6845768
88	0x401055c5	2.255235
89	0x3e9cfb54	0.30660498
90	0xbf17ea8f	-0.59342283
91	0xbf078295	-0.5293363
92	0x3ff79df8	1.9345083
93	0x3ecd9d40	0.40159035
94	0xbe6e9332	-0.23298338
95	0xbf0dfcbb	-0.5546376
96	0x3fd92994	1.6965814
97	0x3f4c3c3e	0.7977942
98	0xbec2f8f9	-0.38080576
99	0xbf440367	-0.7656769
100	0xbf3b5e9b	-0.7319123
101	0xbe5755fe	-0.21028897
102	0x3fa01dfc	1.250915
103	0xbf8d4579	-1.1036826
104	0x3faa4914	1.3303552
105	0xbfee3a68	-1.8611574
106	0xbf7e82b7	-0.99418205
107	0x3e7ba534	0.24574739
108	0xbef16391	-0.47146276
109	0xbf671c44	-0.90277505
110	0xbe9b3f8d	-0.30321923
111	0x3f266be0	0.65008354
112	0x3f200776	0.62511384
113	0xbec12bee	-0.37728828
114	0x3fd7e24e	1.6865938
115	0xbf816406	-1.010865
116	0x3fb8fdfe	1.4452512
117	0xbf38913a	-0.720966
118	0xbdfb076b	-0.12257274
119	0x3e32713b	0.17426006
120	0xbe23edf5	-0.16008742
121	0xbd4829c0	-0.04886794
122	0xbd0c9abc	-0.034327254
123	0xbef0931e	-0.46987242
124	0xc038be53	-2.8866165
125	0xbed95e39	-0.424547
126	0xbfa5bc4d	-1.294809
127	0xbede47a1	-0.43414024
128	0x3f65c7de	0.897581
129	0x3f3acbca	0.7296721
130	0xbf23e2f8	-0.640182
131	0xbed43f53	-0.41454563
132	0x3f351389	0.70732933
133	0x3fce8daa	1.6136982
134	0x3f872323	1.0557598
135	0x3fddecf3	1.7337936
136	0xbfbc4450	-1.4708347
137	0xbf288340	-0.6582527
138	0x3da30d6d	0.07961545
139	0x3eddfaaa	0.43355304
140	0x3f47577c	0.77867866
141	0x3f5dc4df	0.86628526
142	0x3eb55eb1	0.35423806
143	0xbe15d639	-0.146325
144	0x3fa3b5a2	1.2789805
145	0x3fd07a8d	1.62874
146	0xbe3a4a64	-0.1819244
147	0x3e91ec40	0.28500557
148	0x3f863e8d	1.0487839
149	0xbe81469b	-0.2524918
150	0x3ea8b18f	0.32947966
151	0xbf272513	-0.65290946
152	0xbdef3f6f	-0.11682021
153	0x3f237039	0.63843113
154	0xbe7bc0a7	-0.2458521
155	0xbfdcb19d	-1.7241703
156	0xbf98cffc	-1.1938472
157	0xbf9bb901	-1.2165834
158	0xbdd5481c	-0.104141444
159	0xbef6ca60	-0.48201275
160	0x3f84daa4	1.0379224
161	0xbf078cef	-0.5294942
162	0xbf3eba29	-0.7450281
163	0xbf95220b	-1.1651014
164	0x403a1526	2.9075408
165	0xbf6535bb	-0.8953511
166	0x3f930129	1.1484729
167	0x3e07a0a6	0.13244876
168	0x3e2cc764	0.16872936
169	0x3e175a05	0.14780433
170	0xbeee6238	-0.4655931
171	0x3f730970	0.94936275
172	0x3eb2e990	0.3494382
173	0xbe414a2a	-0.18875948
174	0xbf11006c	-0.5664127
175	0xbfaf491a	-1.3694184
176	0x3fff8317	1.996188
177	0xbe9d307e	-0.3070106
178	0xc004b1fc	-2.0733633
179	0x3f25d8e0	0.6478405
180	0xbe1de519	-0.15419425
181	0xbf0cb7da	-0.54968035
182	0xbf80828e	-1.0039842
183	0xbf57054f	-0.83992475
184	0x3e15824b	0.14600484
185	0x3ff9cc66	1.9515502
186	0x3ffc19c2	1.9695361
187	0x3eed8d4c	0.46396863
188	0x3fe0d3ba	1.7564614
189	0xbe4906dd	-0.19631524
190	0xbf90b242	-1.13044
191	0xbef933ea	-0.4867242
192	0x3da9d1d7	0.08291977
193	0x3ea8d8ac	0.32977808
194	0xbf0d0eca	-0.5510069
195	0x3f98c035	1.1933657
196	0xbf4970a1	-0.78687483
197	0xbeeaabe9	-0.45834282
198	0x3f25ef31	0.648181
199	0x3ee6428a	0.4497264
200	0xbfd2d3bc	-1.6470866
201	0x3f4af518	0.79280233
202	0x3f6ae224	0.91751313
203	0x3e885297	0.2662551
204	0x3c46a6b6	0.012124708
205	0x3fc4ebc3	1.5384449
206	0x3ed30c5a	0.4122036
207	0xbe92786b	-0.28607497
208	0x3fd04f55	1.627421
209	0xbd50e908	-0.051003486
210	0xbeb544ac	-0.35403955
211	0x3e7da37f	0.247694
212	0xbd6929ed	-0.05692475
213	0xbf232b3f	-0.63737863
214	0xbecde760	-0.40215588
215	0x3e7289cf	0.23685382
216	0x3f2a0991	0.6642085
217	0xbeeec52d	-0.46634808
218	0xbf95b0a7	-1.1694535
219	0x3e88f684	0.26750576
220	0x3fac480a	1.3459485
221	0x3e62b5d6	0.22139677
222	0x3e6bf37b	0.23042099
223	0xbea97190	-0.33094454
224	0x3f426acf	0.75944227
225	0x3e88f039	0.26745775
226	0x3fa1f238	1.2652044
227	0xbdf1700e	-0.11788951
228	0x3f57e225	0.84329444
229	0xbf4559af	-0.7708997
230	0xbfe6c431	-1.8028623
231	0x3ece59ad	0.40302792
232	0x3f8aff38	1.0859137
233	0x3ec1c141	0.37842754
234	0xbe8c5293	-0.2740675
235	0xbed24acd	-0.41072693
236	0xbfa225d4	-1.2667794
237	0x3e8d81cd	0.27638093
238	0x3ec988e9	0.39362267
239	0xbff9a405	-1.950318
240	0x3e8586de	0.26079458
241	0xbf677e6c	-0.9042728
242	0xbf85d680	-1.0456085
243	0xbc0d1a1f	-0.008612185
244	0x3fcdc559	1.6075851
245	0x3f599299	0.84989315
246	0xbefe0f0f	-0.49620864
247	0xbf443c6f	-0.76654714
248	0x3f7a7635	0.9783662
249	0xbe99d321	-0.3004389
250	0xbfe10045	-1.7578207
251	0xbec500e5	-0.38477245
252	0x3ecd9b8c	0.40157735
253	0xbe1c6808	-0.1527406
254	0xbea24114	-0.31690276
255	0x3fd970a3	1.6987499

Encoder.SelfAttention.wk.weight f4 [20, 20]
0	0x3f31c2a8	0.69437647
1	0x3d9dc008	0.07702643
2	0xbed23c4d	-0.4106163
3	0x3e553785	0.2082196
4	0xbf667feb	-0.9003894
5	0x3e9ff3f9	0.31240824
6	0xbfa9f18c	-1.3276839
7	0x3fafe542	1.3741839
8	0xbcfdfcb7	-0.031004293
9	0x3f70d9d7	0.940824
10	0xbf0502b5	-0.51957256
11	0x3f82af76	1.0209796
12	0xbfe2aa23	-1.7708172
13	0xbe9e9ba4	-0.3097812
14	0x3f2102f0	0.6289511
15	0x3fdac913	1.7092613
16	0xbf30d326	-0.69072187
17	0xbf0cd3c4	-0.5501063
18	0x3fea21ec	1.8291602
19	0xbecac765	-0.3960525
20	0xbfda04a5	-1.7032667
21	0xbfceec79	-1.6165916
22	0xbeebefb4	-0.46081316
23	0x3f25cd2e	0.64766204
24	0x3f936020	1.151371
25	0xbf934696	-1.1505916
26	0xbf30b7c6	-0.69030416
27	0xbe1ba076	-0.1519793
28	0x3f3dac28	0.74090815
29	0xbf750dbf	-0.957241
30	0xbf45b067	-0.77222294
31	0x3ea3b6e1	0.31975463
32	0x3f7bfd1c	0.9843309
33	0x3f297199	0.6618896
34	0x3ebd5aa1	0.36983207
35	0xbfa057ae	-1.2526758
36	0x3d54896d	0.051888872
37	0x3f9437f0	1.1579571
38	0x3fb1f9c0	1.3904343
39	0x3f297a50	0.6620226
40	0xbf282507	-0.656815
41	0xbf5190b4	-0.81861424
42	0xbdbc4f66	-0.091948316
43	0x3e8f95fe	0.28044122
44	0x3f0e7f0e	0.5566262
45	0x3fc15013	1.5102562
46	0xbf314c58	-0.69257116
47	0xbefa1410	-0.4884343
48	0x3f57df72	0.84325325
49	0x3ee1f908	0.44135308
50	0x3f17b7c4	0.5926478
51	0xbf8b3fc6	-1.0878837
52	0x3df0d3ad	0.11759124
53	0xbec40ec3	-0.38292512
54	0xbf1dc8e3	-0.61634654
55	0x3f869e96	1.0517147
56	0xbf8e3e1f	-1.1112708
57	0xbff18230	-1.8867855
58	0x3f1cf7f0	0.6131582
59	0x3f06d025	0.52661353
60	0xbe4d5663	-0.20052485
61	0xbfa63e17	-1.2987698
62	0x3d7d5029	0.061844025
63	0x3f62dba8	0.8861642
64	0x3fbe3720	1.4860573
65	0x3e456d03	0.19279866
66	0xbf08a11f	-0.5337085
67	0xbf6fc555	-0.9366048
68	0xbf8cd05b	-1.1001085
69	0x3e7e3a9d	0.24827047
70	0xbee335c1	-0.44376948
71	0x3fe507e1	1.789303
72	0x3f4f2c0e	0.809266
73	0x3dfb318e	0.12265311
74	0xbf377a0d	-0.7167061
75	0x3ea73f52	0.32665497
76	0xbfc17e7b	-1.5116724
77	0xbfaa4864	-1.3303342
78	0x3f528d48	0.8224683
79	0x3f74edbe	0.95675266
80	0xbfd98605	-1.6994025
81	0x3f2a583e	0.66540897
82	0xbf63d758	-0.89000463
83	0xbf82ac1b	-1.0208772
84	0x3d95d9ff	0.0731697
85	0x3f5ed457	0.87042755
86	0x3f83a562	1.0284846
87	0x3f5af004	0.85522485
88	0x3e504c61	0.20341636
89	0xbf125426	-0.5715965
90	0x3f80b581	1.0055391
91	0x3ef838e3	0.484809
92	0x3f4d34bc	0.8015859
93	0x3f87c4e1	1.0606958
94	0xbed97e80	-0.42479324
95	0x3f2618b2	0.6488143
96	0x40014611	2.0199015
97	0xbe1daff5	-0.15399154
98	0xbf3beeee	-0.7341145
99	0xbfa8ce81	-1.318802
100	0x3d25a5ee	0.040441446
101	0x3e8035a6	0.2504093
102	0x3e536eb1	0.20647694
103	0x3e8b6338	0.27224135
104	0x3f46d0a3	0.77662104
105	0xc01d0b32	-2.4538083
106	0x3f666c9a	0.9000946
107	0xbfa3003f	-1.273445
108	0xbf908a9a	-1.1292298
109	0xbe6be5cd	-0.23036881
110	0x3f13b7c1	0.5770226
111	0xbe9c2df1	-0.305038
112	0x3f812a0c	1.0090957
113	0x3e9481de	0.2900533
114	0x3e939ac6	0.2882902
115	0xbfcbe781	-1.5930024
116	0x3fb31b69	1.399274
117	0x3e60b42d	0.21943732
118	0xbea2f603	-0.31828317
119	0xbee236cd	-0.44182435
120	0x3f8aa3f8	1.0831289
121	0x3ee1380f	0.43988082
122	0x3d492455	0.049106915
123	0xc00bb633	-2.1829956
124	0xbfa2df04	-1.2724309
125	0xbf281437	-0.65655845
126	0xbffaf1ee	-1.9605081
127	0x3ef991f8	0.48744178
128	0x3e9ad141	0.30237773
129	0xbf86212e	-1.0478876
130	0x3fbea7bd	1.489494
131	0x3f4f155d	0.8089197
132	0x3f890e87	1.0707558
133	0x3f4872d3	0.7830021
134	0x3f95a09b	1.1689638
135	0x3eaa6338	0.33278823
136	0xbfa07e28	-1.25385
137	0x3e378fe6	0.17925987
138	0x3eef7378	0.46767783
139	0xbed98195	-0.42481676
140	0x3e8e28cc	0.277655
141	0x3f32a8b9	0.697887
142	0x3f34592d	0.7044857
143	0x3f4744d4	0.778394
144	0x400bc9c8	2.1841908
145	0x3fb01eb0	1.3759365
146	0x3ea5e47e	0.32400888
147	0x3fbd666b	1.479688
148	0x3eb90d36	0.36142892
149	0x3eb15ebc	0.3464259
150	0xbf5f3e02	-0.8720399
151	0xbe207287	-0.15668689
152	0x3e5fae11	0.21843745
153	0x3eef50a3	0.46741208
154	0xbf720eb5	-0.9455369
155	0xc0004f62	-2.0048451
156	0xbf8b48e0	-1.0881615
157	0xbf27e349	-0.65581185
158	0xbf174100	-0.5908356
159	0xbf5fdb29	-0.87443787
160	0x3e144ca3	0.1448236
161	0xbda640bc	-0.08117816
162	0xbf49e3c9	-0.788632
163	0x3eb0bb16	0.34517735
164	0x3f50418b	0.8135001
165	0xbece313d	-0.4027194
166	0x402bf94d	2.687091
167	0xbf2d70ab	-0.6775004
168	0xbf63e24c	-0.89017177
169	0x3fdf0757	1.7424115
170	0xbf96f21f	-1.179264
171	0x3f832430	1.0245419
172	0x3e0480ab	0.12939708
173	0xbdd1dad8	-0.10246819
174	0xbee1c8f1	-0.4409862
175	0xbe6c2a03	-0.23062901
176	0x4010c788	2.2621784
177	0xbfe9dc69	-1.8270389
178	0x3dd676b1	0.10471857
179	0xbe99dc4c	-0.30050886
180	0xbf9f16e8	-1.2428865
181	0xbf838f2d	-1.0278069
182	0x3ea71492	0.3263288
183	0xbf43b69f	-0.7645053
184	0x3e37e2c2	0.17957595
185	0x3f2fb713	0.68638724
186	0x3f05b77b	0.52233094
187	0x3fdc3d88	1.7206278
188	0x3f778c5e	0.9669856
189	0xbfcd0b4c	-1.6019073
190	0xbf398cf9	-0.7248073
191	0x3e9e3d84	0.30906308
192	0xbeb6b0bc	-0.35681713
193	0x3f095aab	0.53653973
194	0x3c2bfe2d	0.010497612
195	0x3f144c8d	0.5792931
196	0xbfa0b24c	-1.2554412
197	0xbec32b98	-0.38119197
198	0x3f30213c	0.6880071
199	0xbd9f6c36	-0.077843115
200	0xbe68b401	-0.22724916
201	0x3f3a675c	0.72813964
202	0xbeae79ff	-0.3407745
203	0x3e21eb37	0.15812384
204	0x3f91ea8d	1.1399704
205	0x3ea7cc46	0.32773036
206	0x3ed46198	0.41480708
207	0x3d92868f	0.07154571
208	0xbf1e4e2f	-0.6183805
209	0xbffaaed7	-1.9584607
210	0x3fec10e8	1.8442659
211	0xbe983831	-0.2973037
212	0xbf4bedbf	-0.79659647
213	0xbebec624	-0.37260544
214	0xbd637074	-0.055527166
215	0x3f3ecc8a	0.7453085
216	0x3e1bbff1	0.15209939
217	0xbfcd0925	-1.6018416
218	0xbd15bead	-0.036558796
219	0xbec4e52e	-0.384561
220	0x3f6c7ec8	0.9238095
221	0x3f9bad18	1.2162199
222	0xbf409397	-0.75225204
223	0xbf431944	-0.7621043
224	0x3ee552ce	0.44789737
225	0x3f8568c9	1.0422603
226	0x3fcb984d	1.5905854
227	0x3f9739c7	1.1814507
228	0xbeb25cde	-0.34836477
229	0xbf41bd16	-0.7567915
230	0xbfe62120	-1.7978859
231	0x3f9ebbcf	1.2401065
232	0xbf96e378	-1.1788168
233	0xbec9ea51	-0.39436582
234	0x3f62018a	0.882836
235	0xbf7ca9c6	-0.98696554
236	0x3d623ee8	0.055235773
237	0x3f673cfe	0.9032744
238	0xbf42d9d8	-0.76113653
239	0xbf888f5b	-1.0668749
240	0xbec7f298	-0.39052272
241	0x3ce14a6e	0.027501311
242	0xbef1725c	-0.47157562
243	0xbec1fee9	-0.37889794
244	0x3f174c71	0.59101015
245	0x3f9078f3	1.1286911
246	0x3f167a79	0.5878063
247	0xbfb34126	-1.4004257
248	0xbfab20b9	-1.3369361
249	0xbecdac9e	-0.4017076
250	0xbf16a9a0	-0.5885258
251	0x3fc670e4	1.5503201
252	0x3d9bed25	0.07613591
253	0x3f534067	0.82520145
254	0x3f3a1f07	0.72703594
255	0x3f94e1a7	1.1631364

Encoder.SelfAttention.wv.weight f4 [20, 20]
0	0x3e3e9409	0.18611158
1	0xbf9a0fdf	-1.2036093
2	0x3dcf1b27	0.10112601
3	0xbf124250	-0.57132435
4	0x3ed59097	0.41711876
5	0xbf23f372	-0.64043343
6	0xbf3ad0b6	-0.7297472
7	0xbef1892b	-0.47174963
8	0x3e057d6c	0.13036126
9	0xbdbee4ce	-0.09320985
10	0x3f374bec	0.7160022
11	0x3dc4d542	0.09610988
12	0x3d8e6e33	0.069546126
13	0x3ec82470	0.390903
14	0x3e58d774	0.21175939
15	0x3d871793	0.06596293
16	0x3f950ae5	1.164395
17	0x3ef8c24f	0.48585746
18	0xbe9762be	-0.29567522
19	0xbea38ede	-0.31944937
20	0x3e5afcb0	0.21385455
21	0x3f62fca7	0.88666767
22	0xbdfda5f7	-0.12385171
23	0x3f8eff60	1.1171684
24	0xbfc7f256	-1.562083
25	0xbf3192c6	-0.69364583
26	0x3f90392f	1.1267451
27	0xbe161856	-0.14657721
28	0x3f1ebb6d	0.6200474
29	0x3eed4556	0.46341962
30	0x3e7afaf6	0.24509797
31	0xbecce6c7	-0.4001982
32	0xbea0ae60	-0.31383038
33	0x3eee0563	0.46488485
34	0xbe878ef1	-0.26476243
35	0x3e20635a	0.156629
36	0x3d34e575	0.04416414
37	0x3f78e1de	0.97219646
38	0xbf23bcd3	-0.6396
39	0xbe3a7cbb	-0.18211643
40	0x3ee5cc3b	0.44882378
41	0xbe6d82e7	-0.23194467
42	0xbeda450c	-0.42630804
43	0xbf3b1a16	-0.7308668
44	0x3f118391	0.5684138
45	0x3f1382a8	0.5762124
46	0x3dfc9f69	0.123350926
47	0x3fbd78f7	1.480254
48	0xbdc7d45c	-0.09757301
49	0xbeba0292	-0.36330086
50	0x3efbc9d1	0.4917741
51	0xbe35dca7	-0.17759953
52	0x3f86c8c0	1.0530014
53	0xbe505984	-0.20346648
54	0xbec17fa8	-0.37792706
55	0x3e1bbfef	0.15209936
56	0x3ebcb752	0.36858612
57	0xbdb4725e	-0.08810876
58	0xbf904714	-1.1271691
59	0xbd9e2cd8	-0.07723397
60	0x3f967b29	1.1756335
61	0x3f7fc309	0.99906975
62	0x3f5d869d	0.8653353
63	0x3fef8d8e	1.8715074
64	0x3f79d422	0.97589314
65	0x3f9b21b3	1.2119659
66	0x3eade6f1	0.33965257
67	0xbf717676	-0.9432138
68	0x3f534e57	0.8254141
69	0x3f1d26f6	0.61387575
70	0x3f649aba	0.89298594
71	0xbdcbab62	-0.09944798
72	0x3fd3c136	1.6543338
73	0xbfe3e283	-1.7803501
74	0xbfd81f06	-1.6884468
75	0xbf7eafbd	-0.99486905
76	0xbf1a60d5	-0.60304004
77	0xbf5ccfca	-0.8625456
78	0xbfa216fd	-1.2663265
79	0xbe97f9c8	-0.29682755
80	0xbf4fe165	-0.812033
81	0xbab594ac	-0.0013853512
82	0x3e9ee86c	0.310367
83	0x3cc4d289	0.024026172
84	0xbe1ba437	-0.15199362
85	0xbf05ce48	-0.52267885
86	0x3f5280fc	0.82228065
87	0xbf09e95d	-0.5387171
88	0xbed386c0	-0.41313744
89	0xbdd76264	-0.105168134
90	0x3f2570d5	0.64625293
91	0x3ec864ed	0.391395
92	0xbe38c49e	-0.18043754
93	0xbf74756e	-0.95491683
94	0x3f0f0f65	0.55882865
95	0x3e659429	0.224198
96	0x3e864b65	0.26229396
97	0x3f2a5623	0.66537684
98	0xbf91d066	-1.1391723
99	0x3db8e6b1	0.09028376
100	0x3ec7ff7b	0.39062104
101	0x3f365d9b	0.7123658
102	0xbf65a06d	-0.89697915
103	0xbef2ba19	-0.47407606
104	0xbeb5bbef	-0.35494944
105	0xbf392013	-0.72314566
106	0x3f2df7d8	0.67956305
107	0xbecd3a4f	-0.40083548
108	0x3e96f981	0.2948723
109	0xbe2266ce	-0.1585953
110	0x3ea7ab87	0.32748052
111	0x3f78dc20	0.97210884
112	0x3f8a090a	1.0784009
113	0x3eb34f55	0.35021463
114	0x3f7411e3	0.9533979
115	0x3f094f50	0.53636646
116	0x3f7a74aa	0.97834265
117	0xbe0360c0	-0.12829876
118	0xbf753d0a	-0.95796263
119	0xbf59c2d7	-0.85062927
120	0x3e9d424c	0.30714643
121	0xbde5f25e	-0.112278685
122	0x3d81cf1e	0.063383326
123	0x3da4c2ce	0.080449685
124	0x3f906bfe	1.1282957
125	0x3e05acc4	0.13054186
126	0x3da94e64	0.08266905
127	0xbf203dff	-0.625946
128	0xbf474578	-0.77840376
129	0x3fa426ea	1.2824376
130	0x3fa2d317	1.272067
131	0x3ea5a8cb	0.3235534
132	0xbd4bbdc4	-0.04974152
133	0x3f6cc869	0.924933
134	0xbf6558bc	-0.8958852
135	0xbdc1eece	-0.094693765
136	0xc02a5f40	-2.6620636
137	0xbfbaa083	-1.4580234
138	0x3eb92784	0.3616296
139	0xbfb7f5f9	-1.437194
140	0xbf111c82	-0.56684124
141	0x3fd8bd44	1.6932759
142	0x3f688f9d	0.90844136
143	0x3e99aa96	0.3001296
144	0xbda0e551	-0.07856239
145	0xbe7710ed	-0.2412755
146	0xbfa2c1f8	-1.2715445
147	0x3f8f617c	1.1201625
148	0x401c3840	2.4409332
149	0xbcd1ede0	-0.025626123
150	0xbfc17ad9	-1.5115615
151	0x3dcbe888	0.09956461
152	0x3f0c400c	0.5478523
153	0x3e7926b5	0.24331172
154	0x3d376813	0.044776987
155	0x3ec1fd61	0.37888625
156	0x3ea9fae5	0.3319923
157	0xbe9baa79	-0.30403498
158	0x3d887dc6	0.066646144
159	0xbfcaed17	-1.5853604
160	0x3f21bae9	0.6317583
161	0x3ed82333	0.42214355
162	0x3db37ca1	0.087640055
163	0xbebc3068	-0.3675568
164	0x3f2f55fc	0.68490577
165	0x3f9cb59c	1.2242923
166	0x3f0ae487	0.54254955
167	0xbebd2dee	-0.36949104
168	0xbe888f24	-0.26671708
169	0x3e980c1d	0.29696742
170	0xbe3521ed	-0.17688723
171	0x3f68f052	0.909917
172	0xbfac40a7	-1.345723
173	0x3d9e2f6a	0.07723887
174	0x3f73150b	0.94953984
175	0xbf2cf767	-0.67565006
176	0xbe2bf0c4	-0.16791064
177	0xbdd0f5a0	-0.10203099
178	0xbf041336	-0.51591814
179	0xbf8bb6ea	-1.0915196
180	0xbf239a18	-0.63907003
181	0x3c08f375	0.008358826
182	0x3f139754	0.57652783
183	0x3fb0c4dd	1.3810078
184	0x3f0f42b8	0.5596118
185	0x3edd21d8	0.43189883
186	0x3e712d30	0.23552394
187	0x3f34dad1	0.7064639
188	0x3e7ad30e	0.24494573
189	0x3f162e1d	0.58664113
190	0xbc61e7f4	-0.013788212
191	0xbfcaf740	-1.5856705
192	0x3eecde39	0.46263292
193	0x3fa0c696	1.2560604
194	0xbf9641ac	-1.1738791
195	0xbe734363	-0.23756175
196	0xbf794e01	-0.9738465
197	0xbf09d307	-0.5383763
198	0xc035b410	-2.8391151
199	0xbf27d6d7	-0.65562195
200	0xbf603cf9	-0.87593037
201	0xbf4d9752	-0.8030902
202	0x3f0ae4cf	0.54255384
203	0x3f4147db	0.7550027
204	0xbead22a0	-0.3381548
205	0x3f5f2fa0	0.87182045
206	0x3ed8d3fd	0.42349234
207	0x3f7e0cd0	0.992383
208	0xbea4906b	-0.32141432
209	0x3f5b0882	0.85559857
210	0xbeec7b58	-0.46187854
211	0xbf24f598	-0.64437246
212	0x3eb7f351	0.35927823
213	0x3e06b29e	0.13154075
214	0xbf02a4eb	-0.51032895
215	0x3f103d9b	0.56344
216	0xbcc25344	-0.023721345
217	0x3f6acf4c	0.9172256
218	0xbd3c49bd	-0.04596876
219	0xbf72b1bf	-0.9480247
220	0x3e18215b	0.14856474
221	0x3f58fc61	0.847601
222	0xbea696be	-0.32536882
223	0xbe14e684	-0.1454106
224	0x3f4e2264	0.80521226
225	0x3e968f72	0.29406315
226	0x3f3e90cd	0.744397
227	0xbe27224e	-0.1632168
228	0xbeb4d012	-0.35314995
229	0xbfa4cde1	-1.2875329
230	0xbe953d63	-0.29148397
231	0xbfaa3075	-1.3296038
232	0x3ec8b338	0.39199233
233	0x3e6d7ba8	0.23191702
234	0xbec4676b	-0.38360152
235	0xbd6568b2	-0.05600805
236	0x3f74134a	0.9534193
237	0x3d0d8747	0.03455284
238	0xbf3fccbf	-0.7492179
239	0x3ddff084	0.109345466
240	0x3f6397b5	0.8890336
241	0xbf1a2b05	-0.6022189
242	0x3ccd11d4	0.025032915
243	0x3f516cd6	0.81806695
244	0x3f8ac2de	1.0840719
245	0xbf44c9d4	-0.76870465
246	0xbf3b1db5	-0.73092204
247	0xbf2be988	-0.67153215
248	0x3eaf800e	0.34277385
249	0x3f1b80bb	0.607433
250	0x3e4b618f	0.19861434
251	0x3e502a5d	0.2032866
252	0x3d7cfae2	0.061762698
253	0xbdec1dba	-0.115291074
254	0x3eacbad9	0.33736303
255	0x3de676b5	0.1125311
