result/ver9_1/best.pt (torch, 825482 bytes, 177 tensors)

Encoder.encoder_lstm.weight_ih_l0 f4 [128, 6]
00000000: 2a2b e23e 1189 9c3e be4f e0be 6a0f 7cbe
00000010: 3ee2 04bd b395 3a3e 0feb fabd 76bf 22be
00000020: 8de4 e43e 7fc8 a63e 62e4 35be cb13 16bf
00000030: 60f6 54be d556 0bbe 7686 d33d bc52 473e
00000040: 204a da3e 2b94 603e 887b c5be dc33 323e
00000050: 7cae 3c3f 023a cf3e a42d e2be 66e2 90bd
00000060: ad29 9a3e 969c 3dbe be94 c8bd b6a6 65bd
00000070: e76b b53e 2699 033f c9f0 b1bd 2c78 49be
00000080: 236f 923e dee4 893e f653 e7bd 7e49 09bf
00000090: 2ef6 d3be 7edf 6abd 3179 303e 863b d63e
000000a0: 1234 453e 7d11 383c 1081 9fba 857b 813e
000000b0: 5815 e43e be17 193f 85ca 69bc 1507 85be
000000c0: d9dc edbd 1a2d 103e 9f1e ecbc 8816 b93d
000000d0: b762 38bf 60e7 74be 5a4d d73e fd5d f33d
000000e0: 1589 cabe ddad 95be db6d 3ebf 2b8a b4be
000000f0: 7c21 0bbe 65b7 5d3e b7be 763b 2e5b 3f3e
00000100: 6928 04bf 91ee cfbe 8543 04bf 157c f0be
00000110: b2c7 f2be c8a3 a83d ef1f ca3c cd7b 5cbd
00000120: 8973 14be a776 8dbe ee48 173e 34dd 0e3e
00000130: c88b c63d 5c1b 42be bd74 39bc db8d 583d
00000140: fc77 2c3e 8ade 053f c03f 643d 70b2 f2bb
00000150: 14d5 123e 3187 5e3e 8f3f 283f 35ec cb3e
00000160: 096a 2d3d 2b22 bc3d 650d 2bbf 3f89 d1be
00000170: d172 49be 7d21 883d 33aa 813e dbc0 753d
00000180: a611 06be 6da5 373e 8469 033f 1f9f c2be
00000190: 6f35 e3be 258b bdbe 22b9 9a3e 93b1 923d
000001a0: 3b23 19be 4012 c4be c47f 393e 88bb cc3e
000001b0: 73e1 ae3c 54cf 383e dc3f 053f 6856 e63d
000001c0: 307c ba3e 04ad c13d 644f a93e c8c9 16be
000001d0: 011e 983e b12e 133f 2ae8 01be b4e5 24bf
000001e0: a170 7abd d518 a7be ba8e b9be befa dd3d
000001f0: f140 f1be b839 f2be 6d76 923e 47c0 8c3d
00000200: 5683 15be 5b02 0abe 553c 9a3e 0790 1e3e
00000210: 20c1 993e ddbe 84bd 421d 96be 50a1 edbe
00000220: af61 8a3b 11a3 5abe a877 48be bd4e 09bf
00000230: a1ed 4ebe 9407 ffbe 18b4 b23e 5146 a13e
00000240: e6b1 5abd 96ba 803d bdd0 413d 44e8 2cbe
00000250: 34e9 4b3e 69e3 043f 03d6 623d f47d d4be
00000260: 8c2c e0bd 227b 813d 94f7 aa3e 5b87 363e
00000270: 813b 59be d823 f5be a727 723e cc76 6b3e
00000280: 94bf 00bf a553 89be 6328 cdbe 48ea 873d
00000290: dafd dd3e 8011 0ebe a34d 87be 7679 8fbe
000002a0: c481 72bc 160b 48bf 6eea bdbe cdd2 233f
000002b0: d46c cf3e 542b 2d3e f7a0 13be ba87 d9bc
000002c0: e3ea debe 43fd 5cbe 9d61 ddbe af12 24be
000002d0: 2581 53be 93d4 c6bd 87f3 db3d 7590 673e
000002e0: 1b31 2e3e 3989 be3e 7cf3 93be 3c4d c5be
000002f0: 92fb 03bf e4a4 a2be 1e24 4cbe 1ce4 94bd
00000300: df30 c73e cb2b c13e 4b2a c63c cd7f eebe
00000310: 714c 97be 8c3d bbbe 82ef 9cbd 6150 0e3c
00000320: da09 1ebf a75f a7be 18fa c8be 114b 69be
00000330: 3c19 553e c6ea a5be fd9f a7be deab 70bd
00000340: ed19 9fbe 67b8 78bf db8a 213e 76d8 243c
00000350: 2bee 773e dd17 e93c ce86 a8be 0b84 b7be
00000360: dc1a 61be 402c eabe 8144 c1bd 2818 9b3e
00000370: 3fc4 3c3e 8598 e5bd 5480 203e b479 6c3e
00000380: 1fa5 3d3d 7b0e 40ba 7dcd 5ebe 5fab 4fbe
00000390: 91d3 c0bd 7754 a1be bd9a 313f 0bcb fb3e
000003a0: 839e b53b 37ec 35be 9e71 423e 5225 f4bc
000003b0: 1034 a93c 4122 79be 1746 06be 9f94 c2be
000003c0: d81c dc3e c0bb 9c3d a4b2 2d3e 3aa0 c4be
000003d0: edd2 0cbe 6264 66be f7b2 d4be 6bb1 513e
000003e0: bc55 843e 0879 743b e481 adbd d1bf cebe
000003f0: 9992 d63e 40da 95bd e97d e1be ca0d ab3d
0.44173557 0.30573323 -0.43810838 -0.24615255 -0.032442324 0.18221168 -0.12251865 -0.15893349
0.4470562 0.3257484 -0.17762902 -0.5862395 -0.2079711 -0.13607343 0.10328381 0.19465154
0.42634678 0.21931522 -0.3857081 0.17402595 0.7370374 0.40473944 -0.44175446 -0.07074432
0.3010992 -0.18516764 -0.09793995 -0.05606719 0.35433885 0.5140556 -0.08688504 -0.19674748
0.28600416 0.26932424 -0.11295311 -0.53627765 -0.41398758 -0.057342045 0.17233731 0.41842288
0.19258144 0.011234638 -0.0012169201 0.2528955 0.44547534 0.5980185 -0.014269476 -0.25981966
-0.11614389 0.14079705 -0.028823195 0.090375006 -0.72025627 -0.23916388 0.42051202 0.11883161
-0.3955771 -0.2923421 -0.74386376 -0.35261664 -0.13586992 0.2165199 0.0037650296 0.18687126
-0.5162416 -0.406117 -0.51665527 -0.46969667 -0.4741798 0.08234364 0.02467343 -0.053829003
-0.14497198 -0.27629587 0.14773914 0.1395157 0.0969463 -0.1895575 -0.0113193365 0.05286966
0.16842645 0.5229269 0.05572486 -0.0074065253 0.14339095 0.21731259 0.6572198 0.3982865
0.04233745 0.091862045 -0.66817313 -0.40925023 -0.19672705 0.066470124 0.25325164 0.059998374
-0.1309267 0.17934199 0.5133288 -0.38012025 -0.44376704 -0.3702022 0.3021937 0.07162776
-0.14954846 -0.38295174 0.18115145 0.39986825 0.021347737 0.1804784 0.52050567 0.112469494
0.36422873 0.09456828 0.33068383 -0.14725411 0.2971039 0.5749312 -0.1268622 -0.64413
-0.061142568 -0.32636133 -0.36241704 0.10838841 -0.4711986 -0.4730966 0.28605977 0.068726115
-0.14600882 -0.13477461 0.30124155 0.1548463 0.30030155 -0.06481717 -0.29319197 -0.46412134
0.0042230706 -0.21351267 -0.19576895 -0.5363577 -0.20207836 -0.4981047 0.34903026 0.3149896
-0.053392313 0.062855884 0.04731821 -0.16885477 0.19913179 0.519095 0.05537988 -0.41502345
-0.10945997 0.06322314 0.33392012 0.17825072 -0.21214105 -0.4787891 0.23647939 0.22994536
-0.50292325 -0.26821628 -0.40069875 0.066364825 0.43357736 -0.13873863 -0.2642642 -0.28022355
-0.014801446 -0.78141916 -0.37092918 0.6399353 0.40512717 0.1691106 -0.14416872 -0.026553977
-0.4353858 -0.21580987 -0.43238536 -0.16022752 -0.20654733 -0.09708514 0.107398085 0.226137
0.1701092 0.37214068 -0.288967 -0.38535488 -0.5155574 -0.31766427 -0.19935653 -0.07270071
0.38904473 0.37728724 0.024190089 -0.4658188 -0.29550508 -0.36570394 -0.0766287 0.008686156
-0.6173378 -0.32690164 -0.39253306 -0.22782542 0.20810407 -0.3240568 -0.3273925 -0.058757655
-0.31074467 -0.97156376 0.15775625 0.010061374 0.24211948 0.028453762 -0.32915348 -0.35842928
-0.21982902 -0.45736885 -0.09436894 0.30291867 0.18434237 -0.112107314 0.15673953 0.23093301
0.04630005 -0.00073263765 -0.21758075 -0.20280217 -0.09415353 -0.31509754 0.69376737 0.49178347
0.0055425777 -0.1776589 0.18988654 -0.029802952 0.020654708 -0.24329473 -0.13112675 -0.38004014
0.42990756 0.07652998 0.16962677 -0.38403493 -0.13752337 -0.2249923 -0.4154279 0.20477836
0.2584666 0.0037303586 -0.0847204 -0.4038072 0.4190872 -0.073170185 -0.44041374 0.083522394

Encoder.encoder_lstm.weight_hh_l0 f4 [128, 32]
00000000: bc53 09be a002 733e 5e6e 67be c2c6 9d3d
00000010: d8f6 fbbc 24ea 823d 9448 e33d 2ce3 b1be
00000020: 8196 82be e725 6e3e ab5d ed3d 83a1 1cbc
00000030: 5880 51be 6845 3abd 200f fcbd 9779 95ba
00000040: 1793 40be b0ac 5a3e 081e 8dbe 3848 863d
00000050: 4b20 8bbe 3d6b 6b3d a235 e93c daa1 d63d
00000060: 8118 cbbd 8caf b73d cff3 8a3c 6c9f 17be
00000070: 5035 363c 6a4c 19be fcb5 54be 47e6 43bd
00000080: 38ed 36be e5e4 10be a502 563c de54 573e
00000090: e520 71be 934d 963d d196 c23c fc51 a13e
000000a0: f207 913c 8107 aa3d 3695 27bd aeb7 d03d
000000b0: 3c97 3dbd ce16 d2bb f644 a23e 2dc4 a33c
000000c0: 7078 e83d 134f d2bd dd78 123e 59fc 8f3e
000000d0: b670 1f3e e819 c03d 6a74 b23d 1b44 d03d
000000e0: 6f8b abbd 422d 163e e2de 52be a157 bb3d
000000f0: 675f fd3d 9506 54be 3b5b b13d cc76 e3bd
00000100: 96da 723e 58a2 6a3e 4db0 943d 26b5 63be
00000110: 2e2a 333e 0a2f d43e 8556 3ebd 43bd 853c
00000120: ed8c 7a3d 2c4f 25bd 60c8 023e ca1b 2a3e
00000130: 35dd 63be 1e31 683d 090e 89bd 7517 b8be
00000140: 765e 57bc c932 ebbc 5b10 2b3e 6563 79be
00000150: e36a 8c3e 5e02 c5bc f7ee 2b3d e14c 7a3e
00000160: 7c32 be3e b8d9 cabd 46d9 4bbd 983b adbd
00000170: 4f76 25bd 742e d13d b634 9b3d 4904 3abe
00000180: 52bf 2bbe 0053 0dbe 1f6e 133e 0d03 c53d
00000190: 0997 56bd 7d53 653e 3647 85bd a586 fd3c
000001a0: 5bca 4a3e dc94 9e3d f068 b43d 8dbe 2fbe
000001b0: eda3 99bd 069a 953e 10a8 133e 5f7a a1bd
000001c0: 5b71 ae3d 24f8 b63e 1b60 1e3e 04c5 a73e
000001d0: eb64 2e3e 0dc9 d53e 6e7c 4c3d cf9d 613e
000001e0: d755 c03e 9a24 20be 4452 28be 6d64 b03e
000001f0: 1659 16bd 451e df3d 7557 3fbe e77f 0e3e
00000200: 2b8e dcbc 13ef d6bc 43b7 343d 4c8f 20be
00000210: ec90 a83e 205e f33d 2d8d 153e 8133 c03d
00000220: d24d 0b3d 15d3 11bd fe1f d83d 3f0b 003c
00000230: f3c1 42bd 3bb0 4c3e 6900 6abc 6759 3fbe
00000240: b8ba 553e 195d 1cbe a2f5 743e f6a8 25be
00000250: 220d 0f3e 8fd9 2c3c 5c10 d8bc db70 133e
00000260: 600b 893d 88a9 0ebe f8a4 b63d 376e d1ba
00000270: 9acb 763e 888c 413d 8dc8 ae3e cbe3 c3bd
00000280: 3dd8 c9bd a9ad dabd d5e6 bcbe f30c 093e
00000290: 579b d6bd bdd7 063e c484 d53d 86bd a43d
000002a0: 2ef5 ddbd ea18 09bd d0d9 b2be 8ae5 c6bd
000002b0: 0502 71be d6f3 873d e539 d1bc 13e6 42be
000002c0: a25a a23d 3826 43be 0935 173d fcfb 1c3d
000002d0: cdad ebbd f17d 883e fcb0 c33e e028 afbc
000002e0: 803b bc3e 42eb 94bd c044 97be de43 3dbe
000002f0: 68ac 8dbc b794 c63d 101b 013f 17ed 5dbe
00000300: 790c 50be e9f6 d5bc 0142 46be 6aa4 c43e
00000310: 7703 663e bce9 efbc b41e 5e3e f814 543e
00000320: 674d a2bc 913b 8f3d a38f c33e 3758 35be
00000330: 6518 f03d 5f2e a63c 3dff 833b 550e c5be
00000340: 6f17 14bf 408b aa3d 38a6 0d3e 0f68 563e
00000350: c0a3 cdbd 06d1 02bd d6dc 063f 517b ad3d
00000360: 8b5b 143e ace1 9fbe 2aaf 8dbd 4f61 403e
00000370: 8b87 293e a453 0b3d 9a96 a3bd cacb 7d3d
00000380: fd0f b0bd 90a8 763d dd33 273e 703e 1abe
00000390: 61e5 0bbe f9cc 953e 4395 2e3e 9db2 dfbd
000003a0: cfbd da3d b1b2 8ebd b234 73be f14b a83e
000003b0: da78 f3bd 7d81 a53e 5c13 fb3d 96f8 973d
000003c0: bd54 5ebd 7f4f 38be 9ecf 10be 225c a4bd
000003d0: 0363 4e3e e30b c43d cccd c7bd 03ab 693d
000003e0: e825 05bd 77a3 563d 803a 68be af68 e53d
000003f0: 5a5d 5cbe 6102 07bd e686 3a3e d7f2 5abe
-0.13410848 0.2373147 -0.22600695 0.07703926 -0.030757353 0.06392315 0.110978276 -0.3474363
-0.2550545 0.23256646 0.11590131 -0.009559992 -0.20459116 -0.045476347 -0.12307572 -0.0011404034
-0.1880611 0.21354938 -0.27561975 0.065567434 -0.27173075 0.057475317 0.028467957 0.104800895
-0.09916783 0.0896903 0.01696196 -0.14806908 0.011121109 -0.14970556 -0.20772547 -0.04782703
-0.1786393 -0.14149816 0.013062154 0.21028468 -0.23547705 0.07339015 0.023753555 0.31507862
0.017703984 0.083022125 -0.040913783 0.10191284 -0.046286806 -0.00641141 0.31693238 0.019991005
0.11351097 -0.102689885 0.14303918 0.28122213 0.1557034 0.09379941 0.087136105 0.1016924
-0.08376204 0.14665702 -0.20592836 0.09147573 0.12371712 -0.20705636 0.08659979 -0.11106643
0.23716196 0.22913492 0.07260189 -0.22237071 0.17496559 0.41442138 -0.04646923 0.016325599
0.061169554 -0.040358707 0.1277175 0.16612163 -0.22252353 0.056687467 -0.0669213 -0.35955396
-0.01314508 -0.02871074 0.16705458 -0.24354322 0.27425298 -0.02404898 0.04197594 0.2444339
0.37147892 -0.09904808 -0.049767755 -0.08458632 -0.04039603 0.10213938 0.07578413 -0.18165697
-0.16772202 -0.13801193 0.14397477 0.096197225 -0.052390132 0.2239513 -0.06507723 0.030947993
0.19803755 0.077432364 0.08809078 -0.17162533 -0.075019695 0.29219073 0.1441958 -0.078846686
0.085177146 0.3573619 0.15466349 0.32767498 0.17030685 0.41754952 0.049923353 0.22032855
0.3756549 -0.15638962 -0.16437632 0.3445162 -0.036706053 0.10894445 -0.18685706 0.13915978
-0.02692326 -0.026237046 0.044120084 -0.15679663 0.32923067 0.11883187 0.14604636 0.093848236
0.034009762 -0.035601694 0.10552977 0.007815181 -0.047548246 0.19989102 -0.014282324 -0.18686448
0.20872009 -0.15269889 0.23921826 -0.16177735 0.13969854 0.010549917 -0.026374988 0.1439852
0.06691623 -0.13931859 0.08918184 -0.0015978281 0.24101105 0.04725316 0.34137383 -0.095649324
-0.09855697 -0.10677654 -0.3689486 0.13383846 -0.104788475 0.13168235 0.10425714 0.08043961
-0.1083778 -0.033471026 -0.34931803 -0.0971175 -0.23535927 0.06638305 -0.025540302 -0.19033079
0.07927443 -0.19057548 0.036915813 0.03832625 -0.11507759 0.26658586 0.38220966 -0.021381795
0.36764145 -0.07271434 -0.2954464 -0.1848292 -0.017294124 0.09696334 0.5043192 -0.21672474
-0.20317258 -0.026118712 -0.19361116 0.38406688 0.22462259 -0.029286258 0.216914 0.20711124
-0.019812299 0.06993783 0.38195524 -0.17709433 0.11723403 0.020285783 0.0040282295 -0.38487497
-0.57848257 0.08327341 0.13832939 0.20938133 -0.100409985 -0.03193762 0.5268072 0.08470786
0.14488046 -0.3122686 -0.069181755 0.1878712 0.16555612 0.034015313 -0.07987709 0.061961927
-0.085967995 0.060219347 0.16328378 -0.1506288 -0.1366172 0.29257944 0.17049126 -0.1092274
0.10680734 -0.069676764 -0.2375057 0.3287044 -0.11888285 0.32325354 0.12259552 0.07420461
-0.05428003 -0.17999075 -0.141417 -0.080253854 0.20154957 0.0957258 -0.097560495 0.057047855
-0.032506853 0.052401986 -0.22678566 0.112016074 -0.21519986 -0.032961253 0.18215522 -0.21381699

Encoder.encoder_lstm.bias_ih_l0 f4 [128]
00000000: febe 7c3d ae0f 663e 3a1d a63d e47f dfbd
00000010: db3c 893d 1ee2 efbc 9358 613e 8f2a debd
00000020: cd3c 313d 452b 48be a583 8c3e 11f5 97bc
00000030: b540 003e 8a29 0c3e 91d7 45bc 051f 1cbd
00000040: 82bf 6cbe 04c4 993d 30aa cb3d e9b9 c13e
00000050: ecc7 debd 8e52 493e 6eb0 e93d 21fd de3e
00000060: b268 3cbe 48fe 97be 1b71 873e e813 c33b
00000070: 143a a4be 8911 a3be 2ed6 b23d ed4d 1a3d
00000080: 9572 92be 641e 963e aa54 5ebe 937d 2cbc
00000090: cc9a 363e 2a85 96be a280 33be 357a 34be
000000a0: c971 8d3d 2cc4 c63e ba7e 90bd 722c a33c
000000b0: 6f62 db3d 73ba f93d ed88 913e ec73 8fbe
000000c0: 87a6 3e3d c22c f03d 003b 03bf 6d27 1b3e
000000d0: 865f 82be ba18 063d 48d9 60be 40e6 f83c
000000e0: 2c82 263d 3778 adbe 7ae4 4a3e 94f2 593e
000000f0: 5551 3a3e 7b2a 81bd 8cc1 923d 5080 fc3d
00000100: a02a 203e f4a7 1b3c ff32 dfbc 09cc dc3d
00000110: 8bbe 3b3e 36f6 7bbb 06f5 4d3e 10ef 95be
00000120: 5d51 22be f288 5bbe 5c5c 8b3d 2f13 de3c
00000130: 47b0 a03e d73f 70be a4af 81bd bbce 89be
00000140: c9af 033e 375f 7c3e 4501 23bd 3983 283e
00000150: 9cc4 3a3d 9d5d 80be a346 563e 639b 323b
00000160: a0be 823e f904 3fbe 932a 273d 6fde ce3d
00000170: 7729 1f3e 50f7 bf3c 5021 533e a4df 253e
00000180: baa6 013e b611 c0bc 5cd3 c6bd 43e8 543e
00000190: 17ee fa3d 648e 6cbe d102 51bc 0a7a 9dbe
000001a0: e7ee b63d 4732 d4bc 3506 043e e9a6 45be
000001b0: 4cb3 b7bd c04f 073e 65f9 34be dfaa 8dbd
000001c0: bb8a 1a3b d543 9b3e 23e3 3e3e c5e8 5e3e
000001d0: 3e41 f43d cbd5 553e 43a9 18be 1335 213e
000001e0: 0aac 893e 2767 29be b9af d8be d523 c23e
000001f0: 6c75 a8be 0236 bebe 13e4 04bf 5fc8 eebd
0.06170558 0.22466919 0.08111043 -0.10913065 0.067010604 -0.029282626 0.22006445 -0.10847961
0.043270875 -0.19547756 0.27444187 -0.018549474 0.12524684 0.13687721 -0.012075321 -0.03811552
-0.2311993 0.0750809 0.0994457 0.3783715 -0.10877976 0.19660398 0.114106044 0.43552497
-0.18399313 -0.2968619 0.2645348 0.0059533007 -0.3207556 -0.31849316 0.08732258 0.037671972
-0.28603044 0.2932006 -0.21711984 -0.010527986 0.17832488 -0.2939847 -0.17529538 -0.17624743
0.069064684 0.38821542 -0.07055421 0.019918654 0.10712134 0.121937655 0.2842478 -0.2801813
0.04654553 0.11727287 -0.512619 0.15151758 -0.25463504 0.032738425 -0.21957886 0.03038323
0.040651485 -0.3388078 0.1981372 0.21283942 0.18195088 -0.06306931 0.071658224 0.12329161
0.1564126 0.009500492 -0.027245997 0.10781104 0.18334405 -0.0038446314 0.20113 -0.29283953
-0.1585135 -0.21438959 0.068047255 0.027108757 0.3138449 -0.23461853 -0.06332329 -0.26915535
0.12860025 0.24645697 -0.039796133 0.16456307 0.045597658 -0.2507142 0.20925383 0.0027253262
0.2553606 -0.1865424 0.040812086 0.101010196 0.15543161 0.023433357 0.20618176 0.16198593
0.12661257 -0.023445945 -0.09708282 0.20791726 0.12252443 -0.23101193 -0.012757019 -0.3075717
0.08932286 -0.02590288 0.12892993 -0.19301952 -0.08969745 0.13214016 -0.17673261 -0.06917357
0.0023581225 0.3032519 0.18641333 0.21768482 0.119265065 0.20882337 -0.14908318 0.15742902
0.26889068 -0.16543256 -0.42321566 0.37917963 -0.32902086 -0.3715058 -0.51910514 -0.116593115

Encoder.encoder_lstm.bias_hh_l0 f4 [128]
00000000: c831 493e caad cf3d 31e3 df3d 98c7 76be
00000010: f38e 133e bbf6 49be b35b e53d a604 a4b8
00000020: 914a 22be 2dd5 05be eb4e c3bc 34c5 053e
00000030: 3262 e1bd 8992 ad3e af40 5d3e c985 bfbd
00000040: 8f13 86be e0e6 3f3e d986 64bd a0de bf3e
00000050: 12b4 0fbe 7ec2 943d 9259 9e3d f07f ea3e
00000060: 635e 8ebe 8082 45be 0aad e93e 1515 9b3c
00000070: 8f16 abbe 3612 49be d2f0 b3bd 62b2 2bbd
00000080: bcc3 b2be 4184 1a3d c932 34be 3656 fbbb
00000090: cf2c 693e 5468 93bc ed15 86be 4fcf b0bd
000000a0: f284 c5bd 72a3 993e 8884 1abd ed28 90bd
000000b0: baba 803e 2aec 76bd 9e89 a13d b4a3 f5bc
000000c0: f1e7 d0bd dec9 11bc ad45 e1be b000 ca3e
000000d0: ba92 06be c035 58bd d1bb 4ebe b1e8 7e3d
000000e0: 7eaf 593e ee1d 0fbf d1cc c73d dc2b be3d
000000f0: a6ef 10bd 641b 3b3e 66f4 f33c 14cf 003c
00000100: 6e1d a73c ee87 efbd cadf 13be e55a 0b3e
00000110: 5239 acbd 99c9 dbbd f7cf 03be a221 8abe
00000120: 5e31 f3bd 9199 933d b7d3 833e 1365 babc
00000130: 5539 b23d fcc7 f2bd c46b 0b3d 2634 c9be
00000140: e529 b2bd 084a 133d 08ed 423e 58d2 a23d
00000150: 3275 a4bd 9288 b9be fcd0 f03d 7113 563e
00000160: b95f 223e c448 16be 3287 febc cf46 19bd
00000170: f86b 5abd 434f 243e 0b63 e63d ad1c 9bbd
00000180: 2428 293d 1109 553d 3819 c6bd a19a 953e
00000190: c3a3 fa3c 08e4 c1be 13b8 dabd 9778 a6bc
000001a0: c557 0e3e 5a4a 48be a61d 613d 54fe a5be
000001b0: 4569 a8bc e296 39bd ba85 6abe e3c0 4abe
000001c0: 63a3 503d ee30 583c ff5f 5f3e 921d 663e
000001d0: 267e 053d f621 963d 1e21 97be 37b9 1cbe
000001e0: 3fba ce3e 9792 7dbe 6f46 a0be cce5 b13e
000001f0: 0765 2cbd 20d6 cfbe 702b bdbe 6c12 57be
0.19647896 0.101405695 0.10932005 -0.24099576 0.1441 -0.19723026 0.11199131 -7.820995e-05
-0.15848757 -0.13069601 -0.023841342 0.13063508 -0.110050574 0.3390086 0.21606706 -0.09351689
-0.26186797 0.18740416 -0.055792663 0.37474537 -0.14033535 0.07263659 0.07731928 0.45800734
-0.27806386 -0.19288063 0.4563983 0.018930951 -0.33415648 -0.19635853 -0.08786167 -0.041918166
-0.34914958 0.037723783 -0.17597498 -0.0076701893 0.22771 -0.017994083 -0.26188603 -0.08633291
-0.09644498 0.3000751 -0.037724048 -0.07039056 0.2514246 -0.060283817 0.078875765 -0.029985286
-0.10200489 -0.008898227 -0.4399847 0.3945365 -0.13141909 -0.052785635 -0.20188834 0.06223363
0.21258351 -0.55905044 0.097558625 0.09285709 -0.035384797 0.18272167 0.029779624 0.007861871
0.020399775 -0.116958484 -0.14440838 0.13608892 -0.084093705 -0.10731811 -0.12872301 -0.26978785
-0.118746504 0.07207025 0.25747463 -0.022753274 0.087023415 -0.1185455 0.03403832 -0.392976
-0.08699397 0.035959274 0.19035733 0.07950276 -0.08030166 -0.36237007 0.117586106 0.20905854
0.15856828 -0.14676195 -0.031070326 -0.037421044 -0.053325623 0.16045861 0.1124936 -0.07573829
0.041298047 0.0520106 -0.09672779 0.29219535 0.030595666 -0.37869287 -0.106796406 -0.020321174
0.13900669 -0.19559613 0.054959916 -0.324206 -0.020558009 -0.04530991 -0.22902575 -0.19800143
0.050937068 0.0131952595 0.21813963 0.22472218 0.032591008 0.07330696 -0.29517454 -0.15305029
0.4037647 -0.24762951 -0.31303737 0.34745634 -0.042088535 -0.40593052 -0.36947203 -0.21003121

Encoder.CA.CNN_sequential.0.weight f4 [32, 1, 9, 1]
00000000: 33b7 95bd 819f 7b3c f49b d5be aaba a2be
00000010: 34e8 04bf 8a1c 4dbf 4ce8 5fbf 0f59 cbbc
00000020: f425 773f 802d 99bd 342d e73e 8948 023f
00000030: 30a9 b03e 0bc3 523e f2e9 ca3e 656b ee3e
00000040: feb8 dc3e 03c2 0f3f 69fd 213f 1487 d93c
00000050: 3a10 993d 1c57 ecbe 164a 103d 6d40 19bf
00000060: 2ef0 4bbf 4690 30bf 58e9 b53d c319 8bbe
00000070: 7217 00bd 28bf 273f 2f3d 663e a46a d83e
00000080: de26 803f 1189 3b3f 3a81 a6bd 3f32 07be
00000090: bfc3 d93a 09d7 15bf cfbb 03be aac0 24bf
000000a0: a1bd 0fbf 4bb6 2fbf 6b9e 033e cb66 503f
000000b0: 54c3 883e a92f 8c3d ef55 1ebf 3296 ddbe
000000c0: bc9a 3bbf 9864 f8be 049b 0dbf 9056 4cbd
000000d0: b081 623f 2456 003d 44c0 903d bbfb 933e
000000e0: 2210 bdbe d00a ddbe 81f5 f0be beee 17bf
000000f0: 95b4 9cbe e235 2a3f 2686 e73e 7eb1 fc3d
00000100: 51f2 6abd 6fe6 663e 9299 8dbe 7bb5 03bf
00000110: dddc 03bf 3cf2 16bf 2c3e e7be ca77 8cbe
00000120: f4d3 603e ff3c 273e 76b8 99be 7624 9dbe
00000130: 5219 09bf 538b febe 5060 5abf 2a75 77be
00000140: ce88 38be da70 1bbd 0c86 ad3d 694b d03e
00000150: 4195 ee3e d282 cc3e e1bc 2c3d d2f2 393f
00000160: 739f a8bd d0ce 9fbf 8118 663e 86c4 e93e
00000170: dd06 ed3d 3372 c73e b64a ef3e 9085 163f
00000180: 1a5d 17bf f6dd 82bf 6d40 f5be 3f2c a83e
00000190: 7009 233f 711b 5bbd 3645 893e fe0b ec3e
000001a0: 731c e53e 728e 77bf eed8 75bf a523 96be
000001b0: 51f1 743d 1fca 10be 0d33 0f3f b3b2 a43e
000001c0: 8ebe f53e 6360 f03e bb7a 243f 2f37 33bf
000001d0: 00da 5abf 31f5 9b3e 6827 cf3d 35e9 1d3f
000001e0: f761 7ebe ad4c d93e 679f 58bf a166 59bf
000001f0: 619b 8dbc 7423 8f3f 15f5 8d3e 4cc0 65bd
00000200: 6259 323f f303 143e c1e3 623e d0a4 0c3f
00000210: 33c5 103f 7f1e 1b3c db87 f0be 690c 03be
00000220: c393 3abe c4c5 aebe 9063 e93e 7173 c3be
00000230: e208 693f a343 433f 28bf a93e 0c5b 6bbd
00000240: d802 463d 5ef7 8dbe 04a9 d2be a9d1 09bf
00000250: bb8e 2dbf 5284 1cbf 2f20 85bb 2d85 5a3f
00000260: 10ac 163f e9e6 d23d 520f 6a3e b007 e8be
00000270: bcee 713e 2969 abbe 2a9a 45bf db5f b0be
00000280: 6ffc 76be 7448 b1be b07a 8f3e 40fd f53e
00000290: ffc2 30bf d17a 1cbf 20a2 613e bcb6 2ebe
000002a0: 3695 fdbd 9825 573f 93f5 233f 83dd a53e
000002b0: 852a 963d 7d02 f3be 8ddf c7be 0d21 2ebf
000002c0: 0777 cdbe 19f6 44bf d179 bd3e c061 9f3f
000002d0: 0430 85bd f0d4 f83e 7a92 3d3e 3269 eb3e
000002e0: 2a61 013f f41f 513e 89c3 203e a6f6 3fbf
000002f0: 716d 44bf c88c aabe cbbe 68be f555 c4be
00000300: 814a f4be 2db3 82bd 0b3a c23e 4371 183f
00000310: 0f84 463f 51b2 533e 2845 993e d790 bf3e
00000320: 3d4b f03e d12d 903e 9cfb 7cbe 1413 133f
00000330: 10f2 59bf e556 a5bf b5cd c6bd 6a68 33bf
00000340: e4d6 90be fcf7 69be 6a5a 8e3e a3c0 493c
00000350: 471d 613f 7266 103f f214 093f e27d 213d
00000360: 10a2 98bd 9602 91ba c191 99be 260d c8be
00000370: 2bad 9bbe d2eb 48bf 7a64 d0be 07ba b1bd
00000380: 4502 b23e ec5c dcbd ff32 2fbf 34b2 cabd
00000390: b052 db3e 4b6d 8ebe 7def b1be a564 6a3f
000003a0: f7c6 5fbe 2494 8ebf 03cb b3be bb5f 1fbe
000003b0: 18d5 d3be 7731 7a3e e335 1a3d 4852 523f
000003c0: c2c2 503f 0203 d33e 4afa a33d bbb0 c43c
000003d0: 10f3 463e 373c c9be 6e4d 12bf 2780 efbe
000003e0: 1dbb 32bf 30fb fcbe 2052 c4be 507f 593e
000003f0: 0bf1 65bc f92c 4e3d 47a5 35bf 817e 01be
-0.07310333 0.015357853 -0.41720545 -0.31783038 -0.51916814 -0.8012167 -0.8746383 -0.02482274
0.96542287 -0.074793816 0.45151675 0.5089193 0.3450408 0.20582215 0.3963161 0.4656631
0.43109888 0.56155413 0.632773 0.026553668 0.07473798 -0.4616021 0.035226904 -0.5986393
-0.7966336 -0.68970144 0.088823974 -0.27168092 -0.03127236 0.65526056 0.22484277 0.4226886
1.0011861 0.7325602 -0.08130117 -0.13202761 0.0016614123 -0.5853124 -0.12864612 -0.6435648
-0.56148726 -0.6863753 0.128534 0.8140685 0.26711524 0.06845028 -0.61849874 -0.43278652
-0.7328298 -0.48514247 -0.5531466 -0.04988724 0.8847914 0.03133215 0.07067922 0.28902993
-0.3692637 -0.43172312 -0.47062305 -0.59348667 -0.30606523 0.6648847 0.45219535 0.123385414
-0.057359997 0.22548841 -0.27656227 -0.5144879 -0.51508886 -0.5896337 -0.4516462 -0.27435142
0.21955854 0.16331862 -0.30023545 -0.3069188 -0.5355426 -0.4971567 -0.8530321 -0.24165788
-0.18020937 -0.03794942 0.08472833 0.40682533 0.46598247 0.39943558 0.042172316 0.7263614
-0.082335375 -1.2484989 0.22470285 0.45657748 0.11573575 0.38954315 0.46736687 0.5879755
-0.59126437 -1.0223987 -0.47900715 0.32846257 0.63686275 -0.053492967 0.26810616 0.461029
0.44748268 -0.9670173 -0.96034133 -0.2932407 0.05980045 -0.14139603 0.5593727 0.32167587
0.47996944 0.46948537 0.6424977 -0.7000608 -0.8548889 0.30460504 0.10114938 0.6168397
-0.24842058 0.4244131 -0.8461823 -0.84922224 -0.017286004 1.1182694 0.27726045 -0.05609159
0.6966764 0.14454632 0.22157194 0.54938984 0.565509 0.00946772 -0.4697865 -0.12797703
-0.18220429 -0.34135258 0.45583773 -0.38174012 0.9102918 0.7627508 0.33153653 -0.057459876
0.048342556 -0.2772779 -0.41144574 -0.5383554 -0.67795914 -0.61139405 -0.0040626745 0.8535946
0.58856297 0.10297949 0.22857407 -0.45318365 0.23626226 -0.33478668 -0.7718836 -0.34448132
-0.24119733 -0.3462559 0.2802329 0.48044777 -0.6904754 -0.611249 0.22034502 -0.17061895
-0.12381975 0.8404174 0.6404659 0.32395563 0.07332329 -0.47462836 -0.39037743 -0.6801918
-0.40129873 -0.76938015 0.37007 1.2451706 -0.06503299 0.48599958 0.18512908 0.45978695
0.50538886 0.20422345 0.1569959 -0.7498573 -0.76729494 -0.33310533 -0.22729032 -0.3834683
-0.47713092 -0.06381831 0.37934908 0.59547824 0.77545255 0.20673491 0.29935575 0.37415192
0.46932402 0.28159955 -0.24705356 0.57450986 -0.85134983 -1.2917143 -0.09707204 -0.700812
-0.2828895 -0.22848505 0.27803355 0.012313995 0.879353 0.5640632 0.53547585 0.03942669
-0.07452786 -0.0011063393 -0.29994014 -0.3907253 -0.30405554 -0.78484833 -0.40701658 -0.0867806
0.34767357 -0.10759911 -0.6843719 -0.09897271 0.42836523 -0.2781776 -0.34753028 0.9155982
-0.21853243 -1.1138959 -0.35115823 -0.15563862 -0.41373515 0.24432932 0.037649047 0.821568
0.81547177 0.41213232 0.08006723 0.024010053 0.19428658 -0.39303753 -0.571494 -0.4677746
-0.6981676 -0.4941039 -0.38343906 0.21239972 -0.01403452 0.050335858 -0.7095532 -0.12645914

Encoder.CA.CNN_sequential.0.bias f4 [32]
00000000: 2c02 853e a410 a83e e6a1 a63e 8af7 1f3d
00000010: 9c1c 3c3b 2bd1 ee3d 48ca 4f3f 0f69 233e
00000020: cfb1 c2be 3d65 1b3e 7751 ad3d b642 a539
00000030: b348 383e 7bc3 963e ae8c da3e 5a5d 06be
00000040: 24b0 6e3d 08c8 303f 30f8 033d bd4f 3c3e
00000050: f74c 1ebe 8e7a c1bd df7a afbe 1137 1abf
00000060: 1dd2 203e 0b47 2abe d087 d5bc 8c34 af3e
00000070: 6a56 c73d a5af 803d 0351 9b3b fdd5 073d
0.2597822 0.32825196 0.32545394 0.03905443 0.0028703576 0.116609894 0.8116803 0.15958045
-0.38026282 0.15175338 0.08462804 0.00031520956 0.17996483 0.29446015 0.42685455 -0.13121548
0.05827345 0.69055223 0.032219112 0.18389793 -0.15459047 -0.094472036 -0.3427343 -0.60240275
0.15705152 -0.16628663 -0.026065737 0.34219778 0.09733279 0.062835015 0.004739882 0.03316306

Encoder.CA.CNN_sequential.1.weight f4 [64, 32, 5, 1]
00000000: bea7 edbd f250 b13e fe38 433f 060b c03e
00000010: 4ab7 4d3e 9b7a 953d 2b61 533e 8ce4 cfbe
00000020: 0cf9 a63e be1a 8b3e f1b7 20bd 6e40 2e3f
00000030: 6d5e c13e 25f9 2d3e 1e5c f5be d0e0 cfbe
00000040: 3118 a7be cd35 2cbf 1369 b3be a5c8 3b3e
00000050: be20 c5be 26a5 a7be af05 2d3e 5373 383f
00000060: b207 403e 2e9c a3be 7d1f b0be 9201 a33d
00000070: cbe2 323f bf21 9d3e 039b 1b3e 6cdc 493e
00000080: 13ae d73d 12a8 0a3f dc8f 8a3e a4b2 c63e
00000090: e919 cf3e 6259 3c3e 6275 813e fbda 033e
000000a0: 968a fabd 4ca3 86be 3507 e33e 0674 6f3e
000000b0: 355f e0be d012 e83e 3f43 933e 0cd7 32bf
000000c0: bdfa b5bd 6e88 aebe ff30 983e 8811 df3e
000000d0: e28d 49be 218c 3dbf 9715 71be 2a63 ec3e
000000e0: 7afe f53e 87a7 83bd 92e3 2ebf a613 43be
000000f0: 04ae 223f e5b3 713e e056 3cbf fb51 b63d
00000100: eca5 6b3e 1036 b73e 916e ef3e e31c 1b3f
00000110: 042f 80bd 294c 2bbe 89fa 233e 38d4 8e3e
00000120: ca8b 07bf f13d 283e ea84 1d3d e2a5 febe
00000130: 9e17 0cbf 606a b7be 50a3 82be 0455 493d
00000140: 3949 39be 5eb3 66be 0353 2e3f 2cb0 403f
00000150: 5a1d b23e d6be da3e 0de0 2a3f 9924 583d
00000160: ade5 a53e 1ef2 5f3d 11e5 67be 6bc3 25be
00000170: d43d fb3e b274 bb3e 8ced ce3e 3f1b e4be
00000180: 645c 8d3d e6b7 353f b7ee 8d3e c8e7 cf3e
00000190: bc92 c23e 05f9 ff3e 9e5e 44be 49ce 73bd
000001a0: eaeb 98be 9534 513d a129 28bf 4cf7 e7be
000001b0: 28b0 073f 2b11 173f c5bd 163f c7fc 013f
000001c0: 4535 0e3e cef2 32bf 6d94 97be 872c 583e
000001d0: 1d6c f6be 1715 bebe b52d cdbe 094d 953e
000001e0: 13f5 8fbc 7d4b 3abe 37eb 2d3e 6d18 293f
000001f0: df09 6f3e 1a8c 90be 119b b1be c689 c7be
00000200: 8e2c 0dbe aba3 5d3e 14a5 18bf 7669 fcbe
00000210: 630d 19bf 6a2f a5bd 3129 1c3f 1435 913c
00000220: f098 2a3f 62d3 4f3f c6fc ca3e 0988 c93e
00000230: a039 b0be cfc0 9bbe d2ad 5a3f 6969 1e3f
00000240: 6bc9 bc3d ecbf ffbe cc48 65be caca 1fbe
00000250: 5dc2 043e df1c 36be 3f22 1abf 1491 37bf
00000260: 77af c33e dce4 db3e d15f 13bd 2315 03bf
00000270: 522f d2be 4f16 cc3e 7c87 c93e 2d33 e3be
00000280: 3e99 7b3d 1a7c 42bf 1531 12bf 511e 92be
00000290: c816 1f3d 9b0c 54bd 069e acbe 4862 17be
000002a0: 5cec bbbe f3c0 b9be 5c02 c03d 8deb b0be
000002b0: 6d6f e3be 7951 f6bd 6cc7 9b3e ddf6 bb3e
000002c0: 7478 ec3d 027a ef3e f97e 7e3e dd6c 0dbf
000002d0: 9c8a 173e b361 163e 1f17 83be 3645 20bf
000002e0: 9ab1 46bd 5f64 fb3d 1647 843e c196 0fbf
000002f0: 8364 25bf 4bb0 c5be ae35 19be 4bf6 d9be
00000300: 4590 aabe 74fe febe 8d33 3dbe 95d4 9abe
00000310: 037f 99be 47f6 8bbe 06c5 61be 3d72 2bbe
00000320: a632 b63e 030a 0c3f c0a8 abbe 8edc 8cbe
00000330: 3148 183f 6e4d 84be 45fe 93bd 80fc 383f
00000340: f232 0cbe bfae db3e e329 94be 10d7 5fbe
00000350: c014 b83d 46be 1c3f 29cf 243e a7a9 9cbe
00000360: b246 a1be a614 adbd 89d9 2e3f 82dd c73d
00000370: cb7b 82be 355f 59be 0b47 463f a15b 22be
00000380: 5e3b 05bf 95ae 14be 173c a4be 1e9b adbe
00000390: ed0c 01bd 0c8e 553e b4fd 18bd 7d74 87be
000003a0: 1eea bf3e 5068 56be 101d 23bf c7b2 963e
000003b0: 99ce 993c ea63 7f3e b25e 2d3e c82e 62bd
000003c0: 4fe6 763e 3a3f eb3d f185 60bf 7d79 4cbf
000003d0: 0c56 32be ba71 a2be 0881 b6be edce e43d
000003e0: 47c5 c0be 3e6f 17bd 997e e5bd 8170 c13d
000003f0: ea26 04bf 3c11 b0be 92ef bfbe f3aa 893e
-0.1160426 0.3463207 0.7625884 0.3750841 0.2008945 0.07298776 0.20642535 -0.40604055
0.32611883 0.2716884 -0.03923792 0.6806706 0.37767354 0.16989572 -0.47921842 -0.40601206
-0.32635644 -0.67269593 -0.35041103 0.18338259 -0.38501543 -0.32743186 0.168967 0.7205097
0.18752936 -0.31955093 -0.34399024 0.07959284 0.6987731 0.3068981 0.15195851 0.1971299
0.10531249 0.54162705 0.2706288 0.38808167 0.40449455 0.18393472 0.25284868 0.12876503
-0.122334644 -0.2629646 0.44341436 0.23384103 -0.43822637 0.45326853 0.28762242 -0.69859385
-0.08885715 -0.34088463 0.2972488 0.43568063 -0.1968303 -0.74041945 -0.23543392 0.46169406
0.48045713 -0.06428438 -0.68315995 -0.19050464 0.63546777 0.2360378 -0.7357006 0.08902355
0.23012513 0.35783434 0.46764043 0.6059095 -0.062589675 -0.16728272 0.1601354 0.27896285
-0.52947676 0.16429879 0.038456835 -0.49735934 -0.54723537 -0.35823345 -0.25515223 0.049153343
-0.18094338 -0.2252936 0.68095416 0.75268817 0.34788018 0.4272372 0.66748124 0.052769277
0.3240179 0.05467426 -0.22645976 -0.16187827 0.4907061 0.3661247 0.4041561 -0.44552037
0.06902388 0.7098373 0.27721187 0.40606523 0.38002574 0.49994674 -0.19176719 -0.0595229
-0.29867488 0.051075537 -0.6568852 -0.4530586 0.5300317 0.5901057 0.58883315 0.5077633
0.13887508 -0.6990174 -0.29605427 0.21110736 -0.4812936 -0.37125465 -0.40073934 0.29160336
-0.017572915 -0.18192859 0.16984259 0.66052896 0.2334361 -0.2823189 -0.3468862 -0.389723
-0.13786528 0.21644466 -0.5962689 -0.4929921 -0.5978605 -0.08065684 0.61000353 0.017725505
0.66639614 0.8118192 0.39645976 0.393616 -0.34418964 -0.3042054 0.8542148 0.61879593
0.09218105 -0.49951112 -0.22391051 -0.15604702 0.12964769 -0.17784451 -0.60208505 -0.71705747
0.38219807 0.42948043 -0.03598005 -0.5120413 -0.41051728 0.3986077 0.3936118 -0.44374982
0.06142544 -0.75970614 -0.57106143 -0.28538755 0.038840085 -0.051769834 -0.33714312 -0.14783585
-0.36703765 -0.3628002 0.0937545 -0.3455471 -0.4442095 -0.120272584 0.30425584 0.3671178
0.11546412 0.46772772 0.24853124 -0.5524424 0.14798969 0.14685707 -0.25603577 -0.6260561
-0.048509218 0.12275004 0.25835484 -0.5608941 -0.64606494 -0.38611063 -0.14961883 -0.4257072
-0.33313194 -0.49803507 -0.18476696 -0.30240312 -0.29979715 -0.27336332 -0.22047815 -0.16742797
0.35585517 0.54702777 -0.33527184 -0.2751202 0.59485155 -0.25840324 -0.072262324 0.72260284
-0.13691309 0.42906758 -0.28938207 -0.21859384 0.08988333 0.61227834 0.1609465 -0.30598184
-0.3149925 -0.08451204 0.6830068 0.09759046 -0.25485072 -0.21227725 0.7745215 -0.15855266
-0.5204371 -0.14519723 -0.32077095 -0.33907408 -0.031506468 0.20854968 -0.037351325 -0.2645606
0.37483305 -0.2093823 -0.6371622 0.2943327 0.018775271 0.24940458 0.16930655 -0.055220395
0.24111293 0.11486669 -0.8770438 -0.79872876 -0.17415637 -0.3172739 -0.35645318 0.111722805
-0.3765051 -0.036971323 -0.11205787 0.094452865 -0.5162188 -0.3438815 -0.37487465 0.26888236

Encoder.CA.CNN_sequential.1.bias f4 [64]
00000000: 46ef fd3e 2cfc 00be dc45 08bc 1aa0 43be
00000010: 80d3 08bd caa4 c3be 4182 8fbe c51f a93e
00000020: fc40 ffbe 8de3 2dbe 4a9e 7ebe a42b 16be
00000030: 6665 dfbe 1f75 81be 6acf a6bd 4832 debd
00000040: 391c c03d e9cc ff3e 1398 f4bc bd64 103f
00000050: b8ca b63e 0c34 37bd 74ae 95be fa68 b9bb
00000060: 37f6 12bf 95e7 88be 5529 ecbe 8197 6c3d
00000070: bfd3 c6bd 637e 8fbe f367 ccbe 0bc0 5f3e
00000080: b52f 9c3e 0e4d 953e 7e95 303e ce3c 103d
00000090: c000 fabe 7925 4e3d a2a9 373e 6ce6 813e
000000a0: a36b 363e f9f6 943b 79b3 f2be 1dcb 0d3e
000000b0: 3335 76be d644 01be dfe7 95be 90c3 763b
000000c0: 85dc 413d 1d33 d7bd ed3c f23e b43c 83bd
000000d0: a2de fdbe ee95 82be 9e5c 02bf fffd 343d
000000e0: 87ea bfbd 876f b4be f73f 853d ab8a 2abe
000000f0: a5cf c43e e45c ddbc fc06 4cbe ff37 803d
0.49596614 -0.12596196 -0.008317437 -0.19104043 -0.033404827 -0.38211662 -0.28029063 0.3303205
-0.49854267 -0.16981335 -0.2486507 -0.14665085 -0.43632048 -0.2528467 -0.0814503 -0.10849434
0.09380383 0.49961022 -0.02985767 0.56403714 0.35701537 -0.04472737 -0.2923466 -0.005658266
-0.57406944 -0.26739183 -0.46125284 0.057761673 -0.09708356 -0.28026113 -0.39923057 0.21850602
0.30505148 0.2916035 0.17244527 0.035214238 -0.48828697 0.050328705 0.17935804 0.2537111
0.17814498 0.004546043 -0.47402552 0.13847013 -0.24043731 -0.12623915 -0.29278466 0.0037653185
0.047329444 -0.10507796 0.47312108 -0.064080626 -0.49583918 -0.25505012 -0.5092257 0.044187542
-0.093709044 -0.3524134 0.06506341 -0.1665446 0.3843967 -0.027021833 -0.1992454 0.062606804

Encoder.CA.CNN_sequential.2.weight f4 [32, 64, 3, 1]
00000000: c211 533e 3c27 0b3f 1618 873e f773 ec3c
00000010: b797 13bf f2ba 44be 3a25 e2be 3989 d2be
00000020: d2c0 bd3e e4ef d3be 6bd2 8cbe d596 1f3f
00000030: 1cbd f0bd 1929 f2bd 0f77 b83e 0d74 5e3e
00000040: f733 6dbc 19de 8bbe 8256 053e f7c5 27bf
00000050: 25f0 5fbe 7e88 c5be 6bbe c9be 7d47 713e
00000060: 5f7a f9be 92fa ad3d ad64 c23d c3d9 c63e
00000070: 04fd 273e d822 e3be b910 853e f24d 1abf
00000080: 97f0 c5be d53a bebe 8095 afbd 647a f93e
00000090: 9d0c d63d 5f6c a63c 6d5e f0be 22cd 403e
000000a0: b53a 103e 46b0 83be 8eee d1be c604 b4be
000000b0: 9bba b3be 3acb 11bf 9286 f8be b60d 6abe
000000c0: 46fd d7be 6021 1bbe 010e cf3e b4c4 a4be
000000d0: 8ec4 5dbe 5fc2 b23e 23b5 d8be 3669 6fbe
000000e0: 754b 3c3f 9744 91be 81d1 b6bd c165 b33e
000000f0: fc04 b3be 0a3e 143f d293 cc3e bc83 7abe
00000100: b043 eebe bb2b 92be 661d 5c3e ea89 07bf
00000110: 113c 07bf d12c 983e 3861 6fbe 199a 6cbe
00000120: dde3 e73e 3eb7 62be da92 d9be b62d 8c3e
00000130: ecda fa3d 5422 18bf ce2c 863d afd1 9fbd
00000140: 3dc3 c9be 5288 ba3e f520 a83e 9e8b 6ebd
00000150: 8324 d4bc 7dfb 0ebf 31f8 0a3e 5d7f 053e
00000160: 267c 00bf 1a8f c2be c272 733e fd42 47be
00000170: 48ac 90be d95c b5bd 32e8 073f ed7f b93e
00000180: 85f7 b03e 0198 253c 6e05 cabe a892 c5be
00000190: 1f89 0fbe c030 c03e 33c4 c83e 0c03 f4be
000001a0: 1dd0 edbe b3c9 b1be 66c4 0e3f 95a8 bf3e
000001b0: 95c3 cf3e 6fb0 3f3e 8965 d7be 2df8 0b3e
000001c0: a24c 26bf c063 c3be 5480 ae3b a1bd 1a3f
000001d0: 3cc4 273e 68d7 eb3e 5df0 e13e 07fd 973e
000001e0: 3cd3 adbd 8cf3 103e 66d7 293e a654 923e
000001f0: 5ff4 993e 5806 e3be 9966 113d 7432 8bbe
00000200: 3577 abbe b61e c33e 6c62 df3e d63b 813e
00000210: 05d5 123d 873a 29bf 7ccc acbe 8176 993d
00000220: 9c40 7c3e 0f98 3ebe b8b4 4fbd 46d7 09bf
00000230: 846d c3be 8771 523e 516d 013e 4c7a 4cbd
00000240: d885 d4be b8f4 73be 5542 1dbe 9eec dfbe
00000250: cf8f 0ebf 4168 67be ddcd c4bd 0f82 013e
00000260: aabe 953e 7b05 da3e 6fd2 f23e e348 b83e
00000270: f431 e53d 6f10 17be df02 9abe e1af 5a3e
00000280: 752f 15bf 3e18 5fbe fdaa 833c 1a3f 2abf
00000290: 2af4 03bf 0594 e4be cc81 6bbe 7f29 2f3f
000002a0: f57e a13e b0f6 973e 68fb 1ebf 8559 253e
000002b0: 1486 bfbe 4d63 84be b390 c4be ab73 51be
000002c0: f78c 453f 4bd0 af3e b56b f0bd 256e 17bf
000002d0: edac e5be a836 c1be 0e88 d93e abb0 873d
000002e0: 9879 c3be 72cf 13bd dd85 493d a3f3 cc3c
000002f0: 8ec1 08be cec3 ee3e 4566 ce3e 61f3 1b3d
00000300: ac7d ffbe 3b47 243f b93b 4d3e 7044 aa3d
00000310: 9759 09bf 862b 58be 50ee d1be d00f adbe
00000320: 175e 6a3e 2335 94be 295e 30be b485 c53e
00000330: 6472 8fbe e56e 8f3d d722 0e3f 71e5 1c3e
00000340: ec93 28bd 711b 82be fd1f 883e 21eb 29bf
00000350: f781 81be 49ee d2be 72bb a7be 3f70 503e
00000360: 5688 11bf 85e4 093f cc68 12bd 4a09 023f
00000370: 23b1 753e 71b9 b5be 87b2 953e ecfb 5dbf
00000380: a6b1 9abe 8587 07bf 3d36 6abe 9543 d63e
00000390: cddd 2b3e f2a0 0c3e 2fce d3be ead6 343e
000003a0: f77e 343d 9df7 4ebe 25dd b3bd 8f7e 4fbe
000003b0: d321 6cbe faf6 c2be 9eeb 14bf d6a7 65be
000003c0: e14e 0cbf 7e30 c6bd bd30 2b3f a33c 00bf
000003d0: a0a8 11be d9ec c33e bc7e 1dbf a848 1cbe
000003e0: 5e27 c43e 14c9 c8be 502a ebbd 4ade b53e
000003f0: 3aef 8abe b802 293f 5e5e 613e 8b98 5d3e
0.20612243 0.5435674 0.26385564 0.02886389 -0.57653373 -0.19211939 -0.44169027 -0.41120318
0.37061173 -0.4139396 -0.27504286 0.62339526 -0.1175482 -0.11824245 0.36028334 0.21723957
-0.014477721 -0.27317885 0.13021281 -0.65536445 -0.21868952 -0.38580698 -0.3940309 0.23562427
-0.48726174 0.08495058 0.09491859 0.38838014 0.16405112 -0.4436252 0.2598932 -0.60275185
-0.38660118 -0.3715426 -0.08573437 0.4872619 0.104516245 0.020315347 -0.4694704 0.18828252
0.14084895 -0.25720423 -0.41002315 -0.35159892 -0.35103306 -0.56950724 -0.4854017 -0.22856793
-0.4218542 -0.1514945 0.40440372 -0.32181323 -0.21657011 0.34913918 -0.42325696 -0.23379979
0.7355264 -0.28372642 -0.089266784 0.3503857 -0.3496474 0.57907164 0.39956528 -0.24464315
-0.46536016 -0.2854899 0.2149559 -0.52944815 -0.5282603 0.29721692 -0.2337693 -0.23105659
0.45291033 -0.22140214 -0.4249485 0.27378625 0.12248787 -0.5942738 0.065515146 -0.07803666
-0.39406767 0.3643213 0.32837644 -0.058238618 -0.025896316 -0.5585249 0.1357124 0.13036866
-0.50189435 -0.37999803 0.23774245 -0.19459148 -0.2825644 -0.088556 0.53088677 0.36230412
0.34563842 0.010107041 -0.39457268 -0.38588452 -0.14017151 0.37537193 0.39212188 -0.47658575
-0.4644784 -0.34724197 0.5576843 0.37433305 0.40578905 0.18719648 -0.42069653 0.1366889
-0.6496068 -0.3816204 0.0053253565 0.604456 0.16383451 0.4606278 0.44128695 0.29685232
-0.084875554 0.14155406 0.16586074 0.28580207 0.30069253 -0.44340777 0.035498235 -0.2718693
-0.33489385 0.38109368 0.43629777 0.25240964 0.035847683 -0.6610493 -0.3374976 0.07493306
0.24634022 -0.18612693 -0.050709456 -0.53844106 -0.3816949 0.2055112 0.12639357 -0.04992132
-0.41508365 -0.23823822 -0.15357335 -0.43735212 -0.55688184 -0.22598363 -0.09609578 0.1264727
0.29247028 0.42582306 0.47426173 0.35993108 0.111911684 -0.14752363 -0.30080315 0.21356155
-0.5827554 -0.21786591 0.016072745 -0.66502535 -0.5154444 -0.4464418 -0.22998732 0.68422693
0.31542173 0.29680395 -0.62102365 0.1614743 -0.3740698 -0.2585701 -0.38391647 -0.2045428
0.7716822 0.34338602 -0.117392935 -0.5915244 -0.44858494 -0.37737012 0.42486614 0.066254936
-0.38178706 -0.036086507 0.049199928 0.025018519 -0.13355085 0.46633762 0.403124 0.0380739
-0.49900568 0.6417119 0.20042314 0.08313835 -0.5365233 -0.21110353 -0.4100213 -0.33801126
0.22887455 -0.2894679 -0.17223419 0.3857857 -0.2801696 0.07003573 0.5552191 0.153219
-0.041156694 -0.2541156 0.26586905 -0.66374403 -0.25294468 -0.41197422 -0.32760197 0.20355318
-0.5684866 0.5386432 -0.035744473 0.50795424 0.23993354 -0.35493043 0.29237768 -0.8671253
-0.3021366 -0.5294116 -0.22872253 0.41848436 0.16783829 0.13733271 -0.41368243 0.17660108
0.044066396 -0.20211644 -0.08782414 -0.20263122 -0.23059778 -0.38079053 -0.58172023 -0.22427306
-0.5480786 -0.09677218 0.66871244 -0.50092524 -0.14224482 0.38266638 -0.61521506 -0.15262091
0.38311285 -0.3921591 -0.1148268 0.35521156 -0.2713564 0.66019773 0.22008654 0.21640222

Encoder.CA.CNN_sequential.2.bias f4 [32]
00000000: e3d7 ec3d 9644 5f3e ece1 05bd a5f2 d3bd
00000010: b47d 63bc 124b 9bbc 32f2 dd3d ebf8 893c
00000020: d955 3bbd 1331 e7bd da23 7fbe 9e06 e53d
00000030: 814c 31bc 220f 633c 00a9 613d 2d90 743c
00000040: f453 2f3e 2343 f0bd 9c4f f03d 6a07 55bd
00000050: 34ac dbbc 1ff8 3dbd 4f81 02bd e304 253e
00000060: 2d35 babb d437 66be 62ac 373d 7824 b83c
00000070: bba8 fdbd e450 313d 2830 b83d 5d7d 1c3e
0.115646146 0.21803507 -0.03268616 -0.10349015 -0.01388495 -0.018956695 0.10837211 0.016842326
-0.045736168 -0.11288657 -0.2491602 0.11182903 -0.010821463 0.013858588 0.05509281 0.014926952
0.1712187 -0.11731555 0.11733934 -0.052009024 -0.026815511 -0.046379205 -0.0318616 0.16115145
-0.0056826086 -0.22482234 0.04484213 0.022478327 -0.123856984 0.043290034 0.0899356 0.15282197

Encoder.CA.TA.Q_weights f4 [32, 32]
00000000: 9790 2b3f cd57 8dbf 8d46 3d3f 01e9 423f
00000010: 5bdb efbe 4e11 ad3e 8040 f4be 2a1f 893e
00000020: e916 923e 4484 7fbf b820 81bf 4b32 82be
00000030: 5b52 d33f 1f49 583f 8292 89bf dbe2 dc3f
00000040: e8b3 cbbf 8c8d 99bf cee9 a63d 609b ad3f
00000050: 7ac3 67bf 9681 083f b6ae 04c0 218a 043f
00000060: 7d35 9fbe c055 a53e 5733 60bf df0e 02bf
00000070: e33f d7bf 0d59 2a3d 18f9 163f f8d8 5ebf
00000080: 47b0 bdbe ca44 96be 8ecb a33f f88e b73f
00000090: 0d20 bfbf cd22 df3f 56b9 d33c 5552 26bf
000000a0: 2bee 2abf 42bf a9bf 2c79 a0bf 1abd 843f
000000b0: bbe9 8ebd fd28 73be bf37 00bf 07a8 973f
000000c0: 9f3a 233f 9d90 a73f 8af9 cb3e 1f19 4e3f
000000d0: ed2f 423d 58d3 613f 92b8 87bc 5636 273f
000000e0: 2f4a e3be 2129 12bf 1b99 b83f 8d5d 453f
000000f0: c848 bd3e c0d9 f3be 92ca 5c3f ff26 1abd
00000100: a8bb 87bf 6062 6cbf 9697 2d3f 6fc0 ad3f
00000110: e826 843f 164e 80be b502 4bbf 1f94 b23f
00000120: 9a79 a53f 92bd 5bbf 10ef 2ebf 7f97 4f3f
00000130: 14ee 4a3f 7e3b 05bf 606b a63e 4619 3ebe
00000140: 5dfb 35be d1fa 13be e3a2 8ebe 0544 aa3d
00000150: 97e4 70bf 6358 943d d951 5a3f 44b6 56bf
00000160: d689 89bf ced4 17c0 7333 ce3f 0307 4d3f
00000170: 00e7 9bbf 1b7d 07c0 3370 1dc0 bbb6 38bf
00000180: 5601 02bf 270a a6bf 7a93 513f 94d2 2ebe
00000190: 969d 1d3f 139e 3e3f 7c5e 18bf 1b6e 863f
000001a0: 7e73 bd3e a66a 353f 68a6 a6bd 5b89 bcbf
000001b0: bee1 3ebe 94b4 46be df5a 973f 02df 31bf
000001c0: 9bac 353e a8f8 dfbf 5378 7fbe 919d 0ec0
000001d0: dd03 cbbe a679 443f 732a 9bbc a502 81bf
000001e0: 1e76 0cbd e395 db3e 2218 f63e 0ac8 dc3f
000001f0: 2e72 ce3f 2a4c a03d 84ee e5be 4cbc 943f
00000200: b604 45bf 3bd7 fc3f b771 2a3f 0b0b 45bd
00000210: 8a59 a73f ee89 253f d00d a1bf db0f 4040
00000220: 0225 823f 43cb 6b3e 27e3 95be 8c6a 5d3d
00000230: 7184 f2be 3c3c e33e d5b6 57be 3c06 5abf
00000240: 2156 a8bf 09cd 873f bdbc ba3f 22b2 09c0
00000250: b594 0bc0 5b7b 17c0 0a99 e33e 59ea 4c3f
00000260: cb32 723f d6ad e3be dd73 8e3e 6298 0d3f
00000270: f534 e1be bd21 ffbe ad05 ce3f 78e4 9ebe
00000280: c5a0 9ebf 8292 373e ec80 3f3f 123f 8dbf
00000290: 6539 183f b29c f53c 546d aa3e 52d2 ab3f
000002a0: b4d0 1140 ae7f a33f 4ea2 99be 34b5 9abf
000002b0: 7754 88be aeb9 18bf 9d3e 33be 7db4 eebe
000002c0: d5e8 f4be f1ab 06bf 65f1 443e c0bf d13f
000002d0: 6cef 90bf f271 35bf 7556 7abe 3cc4 643e
000002e0: bd03 c53e 23ce 56be e4fa 5bbf b47b 16bf
000002f0: 04ac 56bf 13c0 0bbf 449a 0540 5d8c 0b3f
00000300: a967 803e 024c 1fbe 0a67 a6bc 6c92 d9bc
00000310: c1b2 dc3e bc10 ed3f a378 0f3f f2bd 3fbf
00000320: 42b7 ecbe 35d3 a4be 6e35 5cbf 7363 a33f
00000330: 95d1 cabf 3605 dd3f 2fba 823f bb0f 9abf
00000340: ac77 1240 cbf3 833f cfc8 12be 678d c0bf
00000350: ffc2 08be 5be2 2e3f 6d50 d2bf 2e66 ddbf
00000360: ddb9 1e3f 408d 4f3f 8642 51bf 31a0 853e
00000370: 969c 833f 3395 bd3e 9cea 46bf 6c25 0abf
00000380: 14dc 8d3f 3190 ac3f ab79 893e 55aa 783e
00000390: d7b0 93bf ec14 0cc0 c514 4d3e b332 94bf
000003a0: 365d 03c0 cab7 aebf e4c3 18bf 9fda d6bf
000003b0: 17f6 1ebf e729 59be c210 f9bf 9b58 45bf
000003c0: 4a87 873f 9418 2b3f dfd9 95bf 73f6 dfbf
000003d0: ae9a 1e3f 3aa9 413f 2630 103f bb3f cebf
000003e0: 9c27 afbf 29e4 ab3e 155c f43f 8986 bb3e
000003f0: cc56 9c3f b48a dcbe c682 a9bf d3d5 cc3f
0.670175 -1.104242 0.73935777 0.76136786 -0.46847042 0.33802265 -0.4770546 0.2678159
0.28533104 -0.99811196 -1.008811 -0.25428995 1.6509508 0.84486574 -1.0747836 1.7256731
-1.5914278 -1.1996322 0.081500635 1.3563042 -0.9053265 0.5332273 -2.0731635 0.5177327
-0.31095496 0.32291985 -0.8757834 -0.5080394 -1.6816372 0.04158883 0.58973837 -0.8704982
-0.3704855 -0.29349357 1.2796495 1.4340506 -1.4931656 1.7432495 0.025845211 -0.6496938
-0.66769665 -1.3261492 -1.2536979 1.0370209 -0.06978174 -0.23746105 -0.5008506 1.1848153
0.63761324 1.3091007 0.3983882 0.8050708 0.047408987 0.8821311 -0.016567502 0.65317285
-0.44392535 -0.5709401 1.4421724 0.7709587 0.3696959 -0.47627068 0.862466 -0.037634846
-1.0604143 -0.9233761 0.67809427 1.3574351 1.0324373 -0.25059575 -0.79301006 1.3951453
1.2927735 -0.85836136 -0.6833353 0.8109054 0.7926953 -0.520439 0.32503796 -0.18564329
-0.17771669 -0.14451148 -0.27858648 0.08313755 -0.940988 0.07243421 0.8528114 -0.83871865
-1.0745189 -2.3723636 1.6109451 0.80088824 -1.2179871 -2.1170108 -2.459973 -0.72153825
-0.5078329 -1.2971848 0.81865656 -0.17072517 0.6156858 0.7445995 -0.5951917 1.0502352
0.37002176 0.7086586 -0.08137208 -1.4729418 -0.18640801 -0.19404823 1.1824607 -0.6948091
0.17741625 -1.7497759 -0.24948244 -2.228367 -0.39651385 0.7674812 -0.01894114 -1.0078932
-0.034292333 0.42887792 0.48065287 1.7248547 1.6128595 0.07827027 -0.44908535 1.1619964
-0.76960313 1.9753183 0.66579765 -0.048106235 1.30742 0.6466359 -1.258234 3.0009677
1.0167544 0.23026757 -0.29274866 0.05405669 -0.4736667 0.44381893 -0.21065839 -0.8516576
-1.3151284 1.0609447 1.4588848 -2.1514974 -2.1809514 -2.366904 0.44452697 0.80045086
0.94608754 -0.44468564 0.27822772 0.5531064 -0.43985716 -0.49830428 1.6095482 -0.31033683
-1.2392813 0.17926982 0.74806094 -1.1034873 0.5946258 0.029981945 0.33286536 1.342356
2.2783632 1.277334 -0.3000664 -1.2086549 -0.26626942 -0.59658325 -0.17504354 -0.46622077
-0.47833887 -0.5260611 0.1923271 1.6386642 -1.1323066 -0.7087699 -0.24447043 0.22340482
0.38479415 -0.20977072 -0.85929704 -0.58782506 -0.83856225 -0.54589957 2.0875406 0.5451105
0.25079086 -0.15556338 -0.020312805 -0.026559077 0.43105128 1.8520732 0.5604345 -0.7489921
-0.46233565 -0.32192388 -0.8601903 1.2764724 -1.5845209 1.7267215 1.0213069 -1.203605
2.2885542 1.0308775 -0.14334415 -1.5043153 -0.13355635 0.6831414 -1.6430794 -1.7296808
0.62002355 0.81074905 -0.8174213 0.2609878 1.0282161 0.37027892 -0.77701735 -0.5396335
1.1082788 1.3481504 0.26850638 0.24283727 -1.1538342 -2.188777 0.20027454 -1.1577972
-2.0525641 -1.3649838 -0.59673905 -1.6785468 -0.62094253 -0.2120739 -1.9458239 -0.77088326
1.0588162 0.6683438 -1.1707114 -1.7497085 0.6195477 0.75648844 0.5632347 -1.6113199
-1.3683963 0.3357251 1.9090601 0.3662608 1.2213988 -0.43074572 -1.3243034 1.6002754
