result/ver7_2_4/best.pt (torch, 292259 bytes, 75 tensors)

Encoder.encoder_lstm.weight_ih_l0 f4 [128, 6]
000000 9a e7 51 3e e6 2a 2c bd 27 61 c5 3d 30 d3 11 bd
       0.20498505 -0.0420331 0.09637671 -0.035601795
000010 f4 31 6c be 11 5b b1 3e 1e 47 17 bf 1d 05 30 bf
       -0.2306593 0.3463979 -0.5909289 -0.687578
000020 c5 0d f9 be 61 89 68 bf 47 16 21 bf 04 aa 8c be
       -0.48643318 -0.90834624 -0.6292462 -0.27473462
000030 b4 e5 dc 3f 58 37 de 3f 73 e0 ec 3f 4d b3 27 3f
       1.72576 1.736064 1.8505996 0.65507966
000040 3f 55 04 3f d2 cb b6 3f 86 91 11 3f 35 5b 65 3d
       0.51692575 1.4280951 0.56862676 0.055995185
000050 9b 5b 71 3f 43 8f 8f 3f 75 5a bc 3f 3c ab 1f 3f
       0.94280404 1.1215595 1.4715105 0.6237066
000060 19 e4 b7 be ed 03 8f bf f0 5e 39 3e 9e ac 3b 3e
       -0.35916212 -1.1173073 0.18102622 0.18327567
000070 1d e2 e5 3e b3 55 44 bf c4 6c a7 bc c3 a5 04 bf
       0.44899073 -0.76693267 -0.020437606 -0.5181543
000080 68 18 ea 3e eb 47 c4 3e 38 b8 d3 3e f0 0a 0a 3f
       0.45721745 0.3833612 0.41351485 0.5392294
000090 91 7f 0c bf 9b 7d 68 bf bd d5 db be 4f 8b 10 3f
       -0.5488215 -0.9081666 -0.42936507 0.5646257
0000a0 97 69 10 3f 17 d1 07 bf b5 9c df bd 55 54 25 bf
       0.5641112 -0.5305342 -0.10918561 -0.64581805
0000b0 78 c3 d4 3e a7 09 a2 3f 37 a9 df 3f d7 4b 36 be
       0.4155538 1.2659196 1.7473515 -0.17802368
0000c0 cc 1f 4a bd 13 e1 9a be b6 a9 1a 3e 25 86 80 3f
       -0.04934673 -0.30249843 0.15103802 1.0040938
0000d0 6e af 5f 3f 29 e7 a5 bd 16 e5 6e bf b7 17 37 bf
       0.8737706 -0.08100731 -0.9331831 -0.7152056
0000e0 47 bd 95 bf 8a c1 8c 3f 54 39 86 3f 3a 6c 1e bf
       -1.1698388 1.0996563 1.0486245 -0.6188389
0000f0 90 b1 81 3f 83 23 a8 3e 5a 57 41 3f d8 e4 97 3d
       1.0132313 0.32839593 0.7552391 0.07416695
000100 fc 0a 16 bf 47 14 a2 3f 28 42 ac be 10 8d 54 bf
       -0.5861051 1.2662438 -0.33644223 -0.83027744
000110 c1 7a 33 bf a2 5b 15 bf 31 ad 0e bf f9 e5 a4 be
       -0.7010918 -0.58342946 -0.5573302 -0.32206705
000120 36 7b d5 bd c0 29 3c bf 08 ad b4 be a0 48 55 3f
       -0.10423891 -0.73501205 -0.35288262 0.8331394
000130 96 c3 84 3f f1 f2 b3 be c4 5f 2d 3f c1 fc 0f 3e
       1.0372188 -0.35146287 0.6772425 0.14061262
000140 76 c4 1b 3f 86 54 b4 be 57 23 fa 3c a7 af 4c 3f
       0.6084665 -0.35220736 0.03053443 0.79955524
000150 c2 79 e9 3e db ae 05 3d 5b 6e 21 3e 71 b6 68 3f
       0.45600706 0.03263746 0.15764754 0.90903383
000160 6f 16 a9 3f 53 74 3f 3e 06 59 2f 3f ef 6a 0d be
       1.3209971 0.18696718 0.68495214 -0.13810323
000170 c9 63 4d 3f 10 ec 01 bf 00 bf 12 bf 34 0c 13 3f
       0.80230385 -0.5075083 -0.5732269 0.57440495
000180 d9 95 1c 3f c9 76 b3 bd 37 34 bb 3e fd 11 d2 bf
       0.6116615 -0.08762891 0.36563274 -1.641174
000190 ee 57 c0 bf 14 e8 11 3f 94 ce 90 be 63 4d d8 be
       -1.5026834 0.5699475 -0.28282607 -0.4224654
0001a0 03 df d5 be 6a b2 22 bf e6 ac c4 be 12 f2 70 be
       -0.41771707 -0.6355349 -0.3841316 -0.23529842
0001b0 7f c1 12 be d6 e9 31 bf 1f 2c 88 be 7f bb 96 bf
       -0.14331625 -0.6949743 -0.26596162 -1.1775969
0001c0 99 bf 88 bf 00 5c 0b be ae 46 bd 3e 5b 92 86 be
       -1.0683471 -0.13609314 0.36967987 -0.26283535
0001d0 62 1a ad 3d 5c 36 34 bf 29 33 83 be d5 a4 09 3f
       0.08452298 -0.70395446 -0.2562497 0.5376714
0001e0 42 8a f7 3e 3c e1 9b be 03 c7 59 3e d0 68 83 3e
       0.4834767 -0.30445278 0.21267323 0.25665903
0001f0 f8 81 e5 bd ee 7c 11 3f a3 da 49 bf 57 d0 96 bf
       -0.1120643 0.5683125 -0.7884924 -1.178233
000200 02 ba 53 bf 13 79 7a bf c4 89 73 bf 7a a4 38 bf
       -0.827057 -0.97840995 -0.9513209 -0.7212597
000210 f6 4e b2 be e1 1c 11 bf 3b 4a 8b be 3a 86 81 bf
       -0.34825867 -0.5668469 -0.2720507 -1.0119088
000220 ff 43 54 bf 3d 76 b3 be a1 db 86 bf 3f fd 60 be
       -0.82916254 -0.35051146 -1.0535775 -0.21971606
000230 fb 42 31 bf 25 ff 3c 3f 71 68 8b 3f f4 69 1a be
       -0.6924283 0.7382682 1.0891248 -0.1507948
000240 bf 68 d5 3e e4 84 da bd 68 d0 06 3f ae 93 71 3f
       0.41681477 -0.10669878 0.5266175 0.94365966
000250 9f 35 42 3f 69 0a 83 3e d8 0e 14 3f 50 79 8d 3f
       0.7586307 0.2559388 0.5783515 1.1052647
000260 4d e8 d2 3e 30 95 bc 3f e8 ce f6 3f f8 ce 3b 3f
       0.41192856 1.4733028 1.9281893 0.73362684
000270 bb 8a 90 3e 65 df 07 3f 74 13 07 3f af eb 4a 3e
       0.28230843 0.5307525 0.5276406 0.19816469
000280 e4 42 40 bd 2d 5b 30 3f cd db af bf 12 3d 8c bf
       -0.046938792 0.68889123 -1.3738953 -1.0956137
000290 39 58 a7 bf 5c 69 4c 3f 67 bb 73 3f 1a c2 9b bf
       -1.3073798 0.79848266 0.9520783 -1.216861
0002a0 32 07 b2 bf 29 92 8a bf 99 91 a8 bf 06 f8 bf be
       -1.3908446 -1.0825855 -1.3169433 -0.37493914
0002b0 00 7d 3b bd 11 13 c2 bf 50 98 5f bf 4a ad 5d bf
       -0.045773506 -1.5162069 -0.87341785 -0.86592543
0002c0 f2 f8 4a bf d0 b0 53 bd c6 9d d8 3d 9e 2d 65 bf
       -0.7928611 -0.051682293 0.10576968 -0.8952273
0002d0 06 b4 14 3f e2 df 9e 3e 62 ab 1b 3f 7d a1 8f bc
       0.58087194 0.31030184 0.60808384 -0.017533058
0002e0 a3 1b cf 3e 55 97 28 3f 9d 0e 05 bf 7c 2e b4 be
       0.40450773 0.65855914 -0.51975423 -0.35191715
0002f0 86 35 0a bf 92 16 b4 bf cb 67 98 bf fa 97 8d be
       -0.5398792 -1.4069388 -1.1906675 -0.2765501
000300 36 0b 59 be a3 c7 ef 3e bb 8c bf be 1a b6 60 3e
       -0.21195683 0.46831998 -0.37412056 0.21944466
000310 64 7d f3 3d a5 db b3 bb 9b aa 75 bf f3 0a 62 bf
       0.11889151 -0.00548883 -0.9596345 -0.8829796
000320 44 47 54 bf 8e 03 4c bf 47 9c 1d bf f4 63 69 bf
       -0.8292124 -0.79692924 -0.61566585 -0.9116814
000330 a1 36 68 3e fd 8c 1d 3e fe dd bf 3d e6 eb 28 3f
       0.2267709 0.15385814 0.093685135 0.6598495
000340 ba 77 25 3f de 9f 1c be d6 f9 1c 3f 7f d9 3c 3f
       0.64635813 -0.1529536 0.6131872 0.7376937
000350 f9 dd 05 3f 1e fa 22 3f 9b 3c 31 3f c8 ef 1f 3f
       0.5229183 0.636629 0.692331 0.6247525
000360 9b a3 84 3f d5 df e5 3f d9 be 67 3f 7d cd 10 3f
       1.0362428 1.7958933 0.90525585 0.5656355
000370 88 b3 49 3e 81 6f 8d 3f 62 0a d8 3c 18 7d 0d 3f
       0.19697392 1.1049653 0.026372138 0.55269
000380 71 ac db 3d 53 5f d5 3e 80 c7 b8 3e 17 df 43 3e
       0.1072625 0.4167429 0.36089706 0.19128071
000390 df d9 03 3e c0 8c 69 3e 60 27 74 3e e6 0d 77 3e
       0.1287608 0.22807598 0.23843145 0.24126396
0003a0 0e cd 55 3d 4e f7 25 3e 42 b8 96 bf d0 b3 d2 be
       0.05219751 0.1620762 -1.1774981 -0.4115281
0003b0 54 83 8b bf 43 a8 a7 3f 74 05 84 3f 2b 49 d0 be
       -1.0899453 1.3098224 1.0314164 -0.40680823
0003c0 1d 7a f9 3d aa 85 0e 3e 7a 8c 88 3d a4 26 9a bf
       0.121814944 0.13918176 0.06667419 -1.2043042
0003d0 db 34 88 bf 12 30 a3 3c a8 63 5a bf dc ff 1a bf
       -1.064113 0.019920383 -0.85308313 -0.6054666
0003e0 18 a7 5e bf 1e df 0c 3f d5 35 1a 3f 35 1b d7 be
       -0.86973715 0.5502795 0.6023839 -0.42012945
0003f0 21 23 76 3d 0e fb a6 3d d9 a1 2b bd 6b 3c 6e 3e
       0.060092095 0.08153354 -0.041902397 0.23265235

Encoder.encoder_lstm.weight_hh_l0 f4 [128, 32]
000000 ab a5 17 3f 18 77 86 bd fa 46 c5 bf a4 5d 3f be
       0.59237164 -0.06565684 -1.5412285 -0.18688065
000010 30 23 e1 be bb f9 2d be 1d a6 f6 bd c3 9b 1d bf
       -0.43972158 -0.16989796 -0.12043402 -0.615658
000020 e2 3c 4f 3f 5f 54 9c 3e 89 fd 22 bf e7 87 4c 3e
       0.80952275 0.3053312 -0.63668114 0.19973718
000030 46 af 2a bf 28 86 4f 3f 05 3e fe be a0 3a f5 be
       -0.66673696 0.8106408 -0.49656692 -0.4789629
000040 49 fc 07 3c 85 26 44 3f 8b cf d5 3d ef b9 b3 3e
       0.008299896 0.76621276 0.10439976 0.35102794
000050 42 a7 e2 3e fe a5 3a 3e 86 35 be bf 1d 4f ed be
       0.44268233 0.18227383 -1.4860084 -0.4634942
000060 b4 35 bd 3f cf ca 6e 3f 4d d4 33 3e 8d 35 73 be
       1.4782014 0.9327821 0.17561455 -0.23750897
000070 b9 bc bf bc a4 b8 66 be a7 dd 4d be ca 98 00 be
       -0.02340542 -0.22531372 -0.20104085 -0.12558284
000080 d4 62 4f 3f a9 dd 77 be 26 6b 8e 3c 7f 0e cc 3e
       0.81010175 -0.2420565 0.017385077 0.3985481
000090 c9 2e 8d bf 3f 8c 9f 3d ff fc c0 3d 71 95 36 be
       -1.1029903 0.07790422 0.09423255 -0.17830445
0000a0 94 7a 72 be 65 f5 b3 3e 77 69 d7 be 3a 4a 25 bf
       -0.23679572 0.3514816 -0.4207265 -0.64566386
0000b0 87 ab 28 be 7b 9b 9b be 42 7b 85 bf 45 31 c7 3c
       -0.16471682 -0.3039206 -1.042824 0.024315486
0000c0 ee 92 74 3f f3 2c 91 3e e7 1a c1 3e bc 10 2b 3f
       0.95536697 0.28354606 0.37715837 0.6682241
0000d0 86 38 10 3d 9d a6 08 3e e0 69 6e 3f f1 d8 a3 be
       0.035210155 0.13344808 0.931303 -0.3200145
0000e0 51 8f 10 3f 48 b8 03 3f 9c e5 02 3e 69 69 9f be
       0.56468683 0.51453066 0.12782902 -0.3113511
0000f0 e4 b9 4e be 03 ea 33 3e 96 02 92 bf d6 da d3 be
       -0.20188099 0.17569737 -1.1407039 -0.41377896
000100 38 aa f2 bf 69 48 a0 bc ef 02 97 3f 86 c9 09 c0
       -1.8958197 -0.019565778 1.179777 -2.152925
000110 45 8e 43 40 cc 72 89 bf f9 8b ee 3f e4 85 6e bf
       3.0555584 -1.0738158 1.8636466 -0.9317305
000120 98 08 4c 40 d3 bd 37 bf 53 39 4f 3f bd 6e 40 3f
       3.1880245 -0.71774024 0.80946845 0.75168973
000130 77 e5 f0 bf db 1e c1 bf a7 fc 43 40 a8 05 b4 3f
       -1.8820027 -1.5087541 3.0622957 1.4064226
000140 d5 9d 59 bf 2a 4d 94 3d eb 68 b5 be 05 06 df be
       -0.8500646 0.072412804 -0.3543161 -0.4355928
000150 0a fb da be ff af 5e 3e bf c8 77 3f 2b 9c 20 c0
       -0.42769653 0.21746825 0.9679069 -2.5095317
000160 60 9b d1 3f 7d 4f e7 bf 34 43 e2 bc bf 7a 90 bf
       1.6375542 -1.8071133 -0.027619936 -1.1287459
000170 b2 7b 44 3e a1 a9 ff 3d 06 e9 0e 40 01 13 4c 3f
       0.19187811 0.12483526 2.2329726 0.797165
000180 d2 fe 32 3d 90 3b 59 3e 51 61 f2 bf 62 93 95 bf
       0.043700047 0.21214128 -1.8935949 -1.1685603
000190 1f 0d 4a be 74 b6 97 bf 11 35 9a 3f ef f6 6d bf
       -0.19731568 -1.1852555 1.2047445 -0.92954916
0001a0 94 f6 c4 3f 30 aa 46 3e ce a4 32 be ab ff 2e be
       1.538775 0.19400859 -0.1744568 -0.17089717
0001b0 6c f1 ee bf 2b 5c df be 60 d2 ca 3e 16 d2 a7 3f
       -1.8667426 -0.43625006 0.39613628 1.3110988
0001c0 6b 1e 3c bf eb e5 ba 3d 35 2f b9 bd f3 c9 85 bb
       -0.73483914 0.091258846 -0.09042207 -0.004082912
0001d0 37 0d 93 be 21 7f c7 bd dc 43 a9 3c 52 3a f5 be
       -0.2872102 -0.09741045 0.02066224 -0.47896057
0001e0 11 c6 c3 3f c4 da bc be 13 46 72 3e 20 c0 99 3e
       1.529482 -0.36885655 0.23659544 0.30029392
0001f0 7a be 7c be 7b bc 94 bc b7 66 1a 3e 10 0f fc bc
       -0.24682036 -0.01815628 0.15078245 -0.030768901
000200 a9 d7 be 3f 6d 02 02 bf 4f ec fa be 5f a4 6c 3f
       1.4909564 -0.5078495 -0.49008414 0.9243831
000210 c8 9e b9 bf f7 df 52 3f ea 1c 08 bf b2 07 09 3f
       -1.4501581 0.82372993 -0.5316912 0.5352737
000220 72 19 10 bf 5b 39 b4 be 62 3c cf bf bd 51 2f be
       -0.56288826 -0.3520001 -1.6190302 -0.17121024
000230 45 3f 50 3e b8 59 a8 3f dc 36 05 bf da 15 5f bf
       0.20336635 1.315238 -0.52036834 -0.8714272
000240 b2 cf b2 3f 97 65 12 3f 59 97 0c 3f 9a 7c d3 3e
       1.3969634 0.57186264 0.5491844 0.41306
000250 2a 74 d6 3f e6 d5 9f 3d e5 e2 ad bf d3 3f 03 c0
       1.67542 0.0780447 -1.3584868 -2.0507705
000260 1f 1a f9 bd 53 e3 9e 3f 29 62 c1 bd 31 73 e7 be
       -0.12163185 1.2413124 -0.09442551 -0.45205072
000270 aa 20 92 be ca be 0c 3f e3 60 ee 3e 31 87 d4 be
       -0.28540546 0.5497862 0.46558294 -0.41509393
000280 77 c3 50 b8 96 d0 d7 3d 15 63 ee be 0e ea e1 3e
       -4.9773105e-05 0.105378315 -0.4655997 0.44123882
000290 00 4e e3 be 77 0c a0 bd a2 2c d2 3e f0 39 34 3d
       -0.44395447 -0.078148775 0.41049677 0.044000566
0002a0 12 0d 25 be 0a 29 75 3e e3 d4 ea bd d2 cd d5 be
       -0.16118267 0.23941436 -0.11466386 -0.4175859
0002b0 a4 2e 7c be e1 68 60 3f 4a 8d e7 be b5 b3 9f be
       -0.24627167 0.8766003 -0.45224983 -0.31191793
0002c0 8a 23 9e be 07 83 8b 3e 36 9d 19 be c5 bb 63 3f
       -0.3088649 0.27248403 -0.15001377 0.8895839
0002d0 f7 8c 44 3e a9 e6 c8 bc a8 d3 3e 3f 81 dc 01 bf
       0.19194399 -0.02452405 0.7454171 -0.5072709
0002e0 80 2f 19 be 26 50 0f 3f f6 cb 48 3e 14 75 d9 be
       -0.14959526 0.5598167 0.19609055 -0.42472136
0002f0 94 77 49 be e9 99 04 3e 28 b3 ac bf 82 79 7d 3d
       -0.19674522 0.12949337 -1.3492174 0.061883457
000300 5e 38 9a bf 51 2b 0d 3f a9 c0 b8 bf e8 fd 57 bf
       -1.2048452 0.5514422 -1.4433795 -0.84371805
000310 1c cd bc be 6e 40 9b bf 2e b3 36 3f ba bf b0 be
       -0.36875236 -1.2129037 0.71367157 -0.34521276
000320 db 75 31 3f 29 f1 62 3e 32 fe 80 3f b8 7d d8 3e
       0.6932046 0.22162308 1.0077574 0.42283416
000330 3d 36 a0 bf d4 17 1d 3e e1 b6 06 3f af 06 b7 3f
       -1.2516552 0.15341121 0.526228 1.4298915
000340 50 27 8c bf 84 38 d3 be 77 56 d3 be a6 4e 15 be
       -1.0949497 -0.41254056 -0.41276905 -0.14580783
000350 ae 51 86 bf 83 ed 93 3d 75 0b c5 3e ad 94 40 bf
       -1.0493677 0.07223036 0.38485304 -0.7522686
000360 97 cc 6f 3f e8 62 83 3e 23 bd 0a 3f 91 a4 12 be
       0.93671554 0.25661397 0.5419485 -0.1432059
000370 28 cf a2 be c2 3d bd bd 09 a9 d9 be 0f 4d f8 3e
       -0.31798673 -0.09240295 -0.42511776 0.4849629
000380 c1 84 1b bf eb 5a 51 3f 2e 93 7b bf 1f fb 97 3e
       -0.6074944 0.81779355 -0.98271453 0.29683778
000390 06 cd 01 bf ef 09 66 bf 04 59 f5 3e d9 1f 12 3f
       -0.50703466 -0.8985891 0.47919476 0.57079846
0003a0 94 3c 84 bf 7f df 4d 3f f2 ad 3b 3f fe 93 d6 bd
       -1.0330987 0.8041915 0.73312294 -0.10477446
0003b0 96 6b af be 99 2a 5d bd 56 3d 28 3e e8 d4 75 3f
       -0.3426177 -0.053995702 0.16429648 0.96027994
0003c0 a7 56 46 bf ce 7c 33 3d 7c e2 2a bf 13 bd 35 be
       -0.7747597 0.043820195 -0.6675184 -0.17747907
0003d0 0c a5 a5 bf 29 d0 51 bc 3d 6f 87 3e 6e 12 09 3f
       -1.2940993 -0.012805977 0.26452056 0.53543746
0003e0 61 3c 27 be 84 7d a1 3e b0 84 c5 3e 2a 3b 95 3f
       -0.16331626 0.31541073 0.38577795 1.165868
0003f0 89 e5 d6 be fe 49 85 bd bc 43 23 3c 06 e0 81 3e
       -0.41971996 -0.065082535 0.00996488 0.2536623

Encoder.encoder_lstm.bias_ih_l0 f4 [128]
000000 ab a4 06 bd ac 26 69 bf 46 28 f2 be f0 9c 88 bf
       -0.032871883 -0.91074634 -0.4729635 -1.0672894
000010 96 cf 4e bf b1 0d b2 bf 8a 12 31 bf ed c1 92 bf
       -0.807855 -1.3910428 -0.69168913 -1.1465431
000020 47 5f b8 bf e9 3a 90 bf e1 45 04 be bc 1a f1 bf
       -1.4404076 -1.1267978 -0.12917282 -1.8836284
000030 8c 77 b1 bf d1 e3 46 bf 8a fd f4 bf 42 9d 27 bf
       -1.3864608 -0.7769137 -1.9139874 -0.6547433
000040 69 d2 46 be 79 32 d2 bf a5 8b a9 bf 3b ed ec bf
       -0.19416203 -1.6421653 -1.3245741 -1.8509897
000050 9d ca 00 bf 1b d8 cb bf 67 24 ea bf 7a 76 31 bf
       -0.50309163 -1.5925325 -1.8292359 -0.69321406
000060 06 10 81 bf 0a b2 8f bf b0 79 f0 bf 9b 0a 95 be
       -1.0083015 -1.1226208 -1.8787136 -0.29109654
000070 16 75 01 c0 57 a0 f3 bf a2 d4 ed bf 13 e1 eb bf
       -2.0227714 -1.9033307 -1.8580515 -1.8428062
000080 ad 2d 20 bf b2 7d c8 bf 05 39 d3 bd 95 5c 18 c0
       -0.62569696 -1.5663359 -0.1031361 -2.3806508
000090 e9 77 fe bf 72 05 a7 bf ea 12 4d bf 44 2a bf bf
       -1.9880344 -1.3048537 -0.80106986 -1.4934773
0000a0 97 d2 1b c0 b8 f2 8d bf 27 3c 2a 3f d3 16 d9 bf
       -2.4347284 -1.1089697 0.66498035 -1.696009
0000b0 e0 cc aa bf 19 82 29 bf 17 fa 9a bf b3 df 37 bf
       -1.3343773 -0.6621414 -1.2107571 -0.7182571
0000c0 77 a4 0a bf cb 99 d5 bf db 22 f5 bf a1 7e 21 c0
       -0.54157203 -1.6687559 -1.9151262 -2.5233538
0000d0 99 b9 1b bf 29 ef 07 c0 3e e0 e0 bf ed ee 56 bf
       -0.60830075 -2.1239722 -1.7568433 -0.8395832
0000e0 8e 68 1d c0 78 cd bf be 8c 7f 0c c0 83 35 10 bf
       -2.4595065 -0.37461448 -2.1952848 -0.5633165
0000f0 98 e3 23 3e 82 c6 aa bf 06 3f 12 c0 59 d5 0e c0
       0.16004789 -1.334183 -2.2850966 -2.2317717
000100 da 57 97 3e 9c 95 35 be d3 3d b5 be f0 2d a0 bc
       0.29559213 -0.17732853 -0.3539873 -0.019553155
000110 9a da 23 3e 93 b2 b8 3e bc 7f a9 be 2e b2 65 39
       0.16001359 0.3607374 -0.33105266 0.00021905519
000120 65 c2 21 be 65 f9 aa be 4c 4c 0c be d6 e9 fe be
       -0.15796812 -0.33393398 -0.1370098 -0.49787778
000130 b4 9d 85 3e e8 8f 59 be ea 74 e8 3d 7e 1c 74 bd
       0.2609688 -0.21246302 0.113504246 -0.059597485
000140 ca 55 0e 3e 90 5d 91 be 3b d0 a2 3d 71 ab 93 3e
       0.13899913 -0.28391695 0.07949873 0.28841737
000150 8a 4d 9d 3e 72 3f 85 be 53 a5 17 3f 9d d5 9e be
       0.3072322 -0.26024967 0.5923664 -0.3102235
000160 5d ad b9 be 4e ea d6 be 83 ae 88 3e b3 b9 da bd
       -0.36265078 -0.41975635 0.26695642 -0.106799506
000170 26 fe 31 be e9 2f e2 be e0 df d0 3e c3 66 b6 be
       -0.17382106 -0.44177178 0.40795803 -0.35625276
000180 fc ef 2f be 40 e5 83 c0 4b fa 4f c0 d0 f4 e4 bf
       -0.1718139 -4.1217346 -3.2496517 -1.7887211
000190 e1 a1 10 bf 07 a4 e4 bf 7f 16 ed bf 9c da c2 bf
       -0.5649701 -1.7862557 -1.852249 -1.5222964
0001a0 80 59 c3 bf 52 23 5d c0 e4 3c f3 be a4 6f 49 c0
       -1.5261688 -3.4552808 -0.47507393 -3.147439
0001b0 75 d1 07 c0 4f b4 19 bf b1 fd 04 c0 46 a6 3b bf
       -2.1221592 -0.60040754 -2.077984 -0.7330059
0001c0 ba 92 86 bf 2c e7 79 c0 7c eb 3d c0 bd 15 08 c0
       -1.0513527 -3.9047346 -2.9674978 -2.1263268
0001d0 da 5d 89 bf 20 6d 9a c0 50 41 57 c0 86 6c 0b c0
       -1.0731766 -4.825821 -3.3633614 -2.1784987
0001e0 ac 95 c2 bf e1 79 67 c0 67 6e 86 c0 85 f7 69 c0
       -1.5201926 -3.616814 -4.200977 -3.6557324
0001f0 7b f4 41 c0 71 a2 7a c0 25 b1 f2 bf 28 f9 6b c0
       -3.030547 -3.9161646 -1.896031 -3.6870823

Encoder.encoder_lstm.bias_hh_l0 f4 [128]
000000 2a 6c 86 3d e1 30 6d bf 0a c5 f8 be dd 1d 87 bf
       0.065635994 -0.9265271 -0.4858783 -1.0555989
000010 1a c2 fb be 79 e8 b9 bf 4f 92 1c bf d5 86 84 bf
       -0.49171525 -1.452407 -0.6116075 -1.0353647
000020 9f f3 a4 bf fe 18 8c bf 39 71 c1 be 9d d4 cc bf
       -1.2886847 -1.0945127 -0.37781695 -1.6002384
000030 5e b6 b1 bf 70 21 4c bf b0 e6 db bf dc 1b 25 bf
       -1.3883779 -0.7973852 -1.7179775 -0.64495635
000040 0d 15 c1 be b4 4c e8 bf d8 fb ae bf 3e b8 e2 bf
       -0.37711373 -1.8148408 -1.3670607 -1.7712476
000050 9e ac c3 be 4a b7 dd bf a5 28 f3 bf 22 f9 41 bf
       -0.38217634 -1.732156 -1.8996779 -0.7577077
000060 65 2b 79 bf 61 08 7d bf 60 9f f1 bf f9 fb f5 be
       -0.9733184 -0.9884091 -1.8876762 -0.48043802
000070 fd 4a 13 c0 94 0f e7 bf 1b 08 f9 bf 1d 7b ed bf
       -2.301452 -1.8051629 -1.9455599 -1.8553196
000080 b4 9e 3d bf 9f d2 e9 bf d9 a1 a7 3d 09 b1 1b c0
       -0.74070287 -1.8267401 0.08185167 -2.4326804
000090 bf 04 01 c0 20 98 8a bf 24 b4 2c bf 01 a5 a0 bf
       -2.0159147 -1.0827675 -0.6746237 -1.2550355
0000a0 e4 1a 20 c0 02 4c ab bf 9a 1b 1c 3f e4 19 e0 bf
       -2.5016413 -1.3382571 0.60979617 -1.7507901
0000b0 b9 4f 8b bf 55 06 d9 be 5c 59 95 bf ea 3f 43 bf
       -1.0883704 -0.42387643 -1.1667895 -0.762694
0000c0 e5 62 c5 be 6c 42 b1 bf ea c2 ff bf 1b e3 1e c0
       -0.38552013 -1.3848395 -1.9981358 -2.4826114
0000d0 4e 4d 1d bf f4 c9 06 c0 de 08 f9 bf e2 d8 47 bf
       -0.6144608 -2.1060762 -1.9455831 -0.7806531
0000e0 be 62 13 c0 d9 fb a1 be a1 a5 07 c0 3d ae 2f bf
       -2.3029017 -0.31637457 -2.1194842 -0.6862524
0000f0 41 ef a0 3d 5e b4 c3 bf 24 94 15 c0 b4 17 09 c0
       0.07858134 -1.5289419 -2.3371668 -2.1420717
000100 32 88 ab 3e 29 e6 f8 bd 20 df 18 bf d0 83 e8 bd
       0.33502346 -0.121532746 -0.5971546 -0.11353266
000110 a0 4b 48 3e 48 16 85 3e 17 20 87 be 30 5c ed 3d
       0.19560099 0.25993562 -0.2639167 0.11589849
000120 ac f0 f4 bd 87 77 b5 be 8c 19 57 bd 7e 9e f5 be
       -0.11959967 -0.35442755 -0.052514598 -0.47972482
000130 2e eb 3e 3e de ee e9 bd 33 6c 95 bd fe 24 08 3e
       0.18644401 -0.114225134 -0.07296028 0.13295361
000140 ae a5 f3 3d 93 10 8c be a5 1d 7d bb 47 fc 2f 3d
       0.11896835 -0.27356395 -0.0038622406 0.0429652
000150 a4 5b 9d 3e 2d ff 18 be d5 6e a8 3e 21 41 f8 be
       0.3073398 -0.14941092 0.32897058 -0.4848719
000160 a1 f5 64 be 83 39 b4 be 0c f8 1f 3e e6 af 04 bd
       -0.22359325 -0.35200128 0.15621966 -0.032394312
000170 77 ed c9 bd ff f5 05 bf 97 01 94 3e e2 bb 0e bf
       -0.09859746 -0.52328485 0.28907463 -0.55755436
000180 3c 0c d3 be 77 a5 84 c0 7c 5c 4a c0 cb cd f8 bf
       -0.41220272 -4.1451983 -3.1618948 -1.9437803
000190 ff 4d e8 be 58 d2 f3 bf cd 9e f8 bf e5 1f a8 bf
       -0.45372006 -1.9048567 -1.9423462 -1.3134733
0001a0 91 95 c6 bf 0e 18 5e c0 a9 06 05 bf 59 ad 51 c0
       -1.5514394 -3.4702182 -0.5196329 -3.2762053
0001b0 a8 53 09 c0 f5 4f 1f bf 1f 33 0d c0 26 18 47 bf
       -2.145731 -0.6223138 -2.2062452 -0.7777122
0001c0 2b 9e 6d bf 59 8a 75 c0 ad 31 47 c0 b5 66 0d c0
       -0.9281947 -3.836569 -3.112407 -2.2093937
0001d0 8a 73 8f bf 9e 2d 94 c0 67 08 55 c0 af a7 13 c0
       -1.1207135 -4.6305685 -3.3286378 -2.3071096
0001e0 fa 0c ca bf a8 7b 74 c0 40 2b 80 c0 b8 c8 6b c0
       -1.578521 -3.8200474 -4.0052795 -3.684126
0001f0 80 f0 33 c0 bf c0 83 c0 01 1e f1 bf 21 26 69 c0
       -2.811554 -4.1172786 -1.8837281 -3.6429522

Encoder.encoder_attn.0.weight f4 [20, 84]
000000 e4 26 32 c0 aa 06 a6 3e 30 28 6a 3e d7 79 a9 bf
       -2.7836237 0.3242696 0.22866893 -1.3240308
000010 8d 1d 39 3f 89 0d 41 c0 3a 24 30 40 45 35 fa bf
       0.72310716 -3.0164511 2.752211 -1.9547507
000020 25 fd 5a 3f 16 80 b1 3f 54 4a b6 3f b4 ef 19 3f
       0.8554252 1.3867214 1.4241433 0.6013138
000030 10 30 01 c0 48 51 d7 bc c9 7a a8 3e b0 31 ba 3f
       -2.0185585 -0.026283875 0.32906178 1.4546413
000040 4d a6 b4 bf dc e0 9c be 7f 7c 68 be d7 00 69 bf
       -1.4113251 -0.30640304 -0.22703741 -0.91016906
000050 c6 20 47 c0 4b 0c 01 be 46 8a 8b be 53 5f 41 3f
       -3.1113753 -0.12602346 -0.27253932 0.7553608
000060 12 8a e2 3f c9 83 bd 3e 63 aa 10 3f 8c 7d d4 3f
       1.7698386 0.37014607 0.5650999 1.6600814
000070 53 27 05 bf 39 67 c9 be a6 9a 4c be 87 08 93 3c
       -0.5201313 -0.39336565 -0.19980869 0.017948402
000080 3e 9f 38 c0 13 3c a5 3e 81 29 af be 39 56 aa bf
       -2.8847194 0.32272395 -0.34211352 -1.3307563
000090 da cb ad 3e 50 36 3d c0 67 e7 33 40 da 50 dc bf
       0.3394459 -2.95644 2.8109987 -1.7212174
0000a0 4a 48 3e 3f 9d ca ad 3f e6 21 bc 3f af bd ca 3d
       0.74329054 1.3577458 1.4697845 0.098994605
0000b0 db 85 14 c0 af 7a 0f bf 19 a7 69 3e fa fb b4 3f
       -2.32067 -0.56046575 0.22817649 1.4139397
0000c0 62 49 b1 bf 2f f7 27 be 5a fd 86 be 29 fb 37 bf
       -1.385052 -0.16402887 -0.26365167 -0.71867615
0000d0 79 1c 57 c0 5c b1 fa 3d d2 b0 bb bd 5d 71 9a 3f
       -3.3611128 0.1224086 -0.09164585 1.2065846
0000e0 26 7f ec 3f 8a d4 ee bc d1 47 9c 3f 7f 61 aa 3f
       1.8476303 -0.02915408 1.2209417 1.3311003
0000f0 e7 5a c3 be 85 c2 b6 3d ec cd dd be a4 85 9a 3e
       -0.3815529 0.089238204 -0.43321168 0.30180085
000100 6c 26 8c 3f ea 59 0e be 76 e3 5a 3e ea 34 b7 be
       1.0949225 -0.13901487 0.21375832 -0.35782558
000110 d9 6d 65 3f 95 5e 3d 3f fc bc 14 bf bd a9 08 be
       0.8962074 0.73972446 -0.5810087 -0.13346
000120 f7 18 28 bd 66 5f c8 3e a2 72 16 3f c4 ff 00 bd
       -0.041039433 0.39135283 0.58768666 -0.031493917
000130 5d 52 00 3f 5d 94 33 bf 92 e8 70 be 45 a7 1a be
       0.50125676 -0.7014826 -0.23526219 -0.15102871
000140 74 62 50 3e 6c bb 77 bf 61 f7 e2 be a8 c9 e9 bc
       0.20350057 -0.9677036 -0.4432936 -0.02853854
000150 7f 0d fe bf 08 c6 17 be 66 b2 f2 be 63 e4 16 3f
       -1.9847869 -0.14821637 -0.47401732 0.5894224
000160 d8 d5 a1 3f 71 30 7a bf 44 f5 a3 3f 8a 3f 8d bf
       1.2643385 -0.97730166 1.2809224 -1.1035016
000170 1a 51 2b 3f 04 e8 ae be 4f f8 36 40 cc 46 a3 bd
       0.66920626 -0.3416139 2.8589056 -0.07972488
000180 73 f5 30 bf 0a 18 55 3f 17 91 83 bf e6 87 1f 3f
       -0.69124526 0.83239806 -1.0278653 0.6231674
000190 f2 12 b7 bf 07 e2 59 bd f9 43 b7 bd e3 db eb 3e
       -1.4302657 -0.053194072 -0.08948512 0.46066198
0001a0 cc 64 cd bf fc 0a d9 3d e3 97 d3 bf 22 ec 17 40
       -1.6046386 0.10597798 -1.6530727 2.3737874
0001b0 57 5e a3 bd ab 2b a4 3d d2 9c ee be 92 15 a6 3e
       -0.07976978 0.080161415 -0.4660402 0.32438332
0001c0 9b b0 aa be d2 df be 3e 78 cb e8 bf ca ab 22 3f
       -0.33337864 0.37280136 -1.8187094 0.6354338
0001d0 27 fe d7 bf f5 e5 f3 3d 2b 4d df bf 62 d4 8e 3f
       -1.6874436 0.11909095 -1.7445425 1.1158564
0001e0 e5 7f 5f 3f 5c a7 77 bf 64 55 b7 3f 79 c6 13 bf
       0.87304527 -0.96739745 1.4322934 -0.5772472
0001f0 04 53 fd bd 7b 48 4e bf f6 b0 56 40 c4 ed c0 3e
       -0.123693496 -0.80579346 3.3545508 0.376814
000200 9f e4 19 bf fb 4b d0 3f ca da 95 bf ce ea 27 3e
       -0.60114473 1.6273187 -1.1707394 0.16398165
000210 1c f1 c1 bf 04 98 ae be 31 68 8f bf f9 99 a6 3e
       -1.5151706 -0.34100354 -1.1203672 0.32539347
000220 72 fa db bf 5b 44 4b bf 62 66 d8 be 87 31 89 3f
       -1.7185805 -0.7940118 -0.42265612 1.071824
000230 e3 19 b1 be 2f ed b9 be 33 77 90 3e 82 bf e7 3e
       -0.34590062 -0.3631377 0.28215942 0.45263296
000240 af 9f bd bf 06 12 24 bf 36 ea 0d c0 6f 09 d3 3f
       -1.4814357 -0.6409 -2.21742 1.6487254
000250 46 7a 50 3f a2 03 de be e8 e9 a2 3f c8 19 92 bf
       0.81436574 -0.43362147 1.2727633 -1.1414118
000260 43 9a c3 3e 0e 31 e0 bd 61 44 ae 3c 07 9a 37 3f
       0.3820363 -0.109468564 0.02127284 0.717194
000270 79 13 d9 3e 2d 12 68 3e da 21 26 3f ef 67 30 3f
       0.4239767 0.22663184 0.64895403 0.6890859
000280 e1 2b 84 3e 24 89 ea 3e 9a 5e a8 3e 10 59 1b 3e
       0.25814727 0.45807755 0.32884675 0.15170693
000290 5c b8 aa 3e f5 6a 28 bf cd f6 2f be ed 31 93 3e
       0.3334378 -0.65788203 -0.17183991 0.28749028
0002a0 c2 18 4e bf ef 1d bd 3e 8f b6 7a bf a1 d7 67 3d
       -0.8050653 0.369369 -0.9793481 0.056602124
0002b0 49 78 94 bf 10 d6 ec 3e 43 db 14 bf c8 ae ab 3e
       -1.1599208 0.46257067 -0.58147067 0.33531785
0002c0 6e 9c 88 bf 7f a9 9f be f2 d6 91 3f 38 24 bf bd
       -1.0672739 -0.31184003 1.1393721 -0.0933308
0002d0 e5 58 85 3e 73 eb c0 bf 66 f0 d0 3f e9 2a be 3e
       0.26044384 -1.5071853 1.6323364 0.37142113
0002e0 bd 33 43 bf 73 f0 fe bc a7 92 1d bf 15 86 1c bf
       -0.7625082 -0.031120514 -0.615519 -0.6114209
0002f0 95 e3 82 be 15 08 a0 bc 66 40 1b 3e 31 89 6a bf
       -0.25564256 -0.019535104 0.15161285 -0.9161559
000300 78 4a 3a bf e3 6b 06 be 2a aa e9 bd d5 c4 5c be
       -0.7276988 -0.13127093 -0.11409409 -0.2155946
000310 8a 61 d0 bd fb 3c c8 3e 9a 7e e0 3f 83 81 87 3e
       -0.10174854 0.39109024 1.7538636 0.26465997
000320 7d 4d 0d bf 1c 31 a1 3f 7e 09 73 bf 90 ed 96 bf
       -0.5519636 1.2593112 -0.9493636 -1.1791248
000330 8b 7c 1d bf 05 28 93 3d 54 77 26 be 75 84 03 3f
       -0.6151816 0.071853675 -0.16256458 0.5137399
000340 65 40 e2 bd cc c3 8a bf 94 fc 5d 3f d1 e7 0b 3e
       -0.110474385 -1.0841002 0.8671353 0.1366265
000350 28 0d b7 3e 70 79 95 bf 3d 97 74 3f 2c 75 24 3e
       0.35752225 -1.1677685 0.9554327 0.16060323
000360 77 7a 3d bf 93 75 d3 3d 0c b9 96 bf be e9 8b be
       -0.7401499 0.1032516 -1.1775222 -0.2732677
000370 e6 c3 e2 be b1 4e cc 3f f2 c9 be 3e c0 f6 a9 bf
       -0.44290084 1.5961515 0.37263447 -1.3278427
000380 78 8a b9 be 72 e1 94 bf 6b 0e 74 3f 0a b5 4e bf
       -0.36238456 -1.16313 0.953345 -0.80744994
000390 17 6d 04 bd 9c 5c 55 bc c9 52 83 3f c5 c7 ad 3f
       -0.0323306 -0.013022568 1.0259639 1.357659
0003a0 a0 21 6d 3e 81 c3 c6 3e ce 63 d8 bd ba 47 70 3f
       0.23157358 0.38821033 -0.10565911 0.93859446
0003b0 32 19 2d 3f 00 23 a5 be d9 bc 52 bf 18 33 fb 3e
       0.6761657 -0.32253265 -0.8231941 0.4906242
0003c0 69 8d bb 3e 11 39 95 3f e8 0b 7d 3f 4a 2e 4e 3e
       0.36631325 1.165804 0.9884629 0.20134845
0003d0 38 25 84 3e 33 bf cc bd 9c 90 c7 3e 37 5a 8f 3f
       0.25809646 -0.09997406 0.38977516 1.1199406
0003e0 58 a4 1e bf 48 c6 d4 be 03 30 4f 3f 75 cf 4b 3f
       -0.6196952 -0.41557527 0.80932635 0.7961343
0003f0 0e 2e 79 bd 60 3f 37 be e4 42 6f 3f 8c 07 2d be
       -0.060834937 -0.1789527 0.9346144 -0.1689741

Encoder.encoder_attn.0.bias f4 [20]
000000 b2 78 16 bf 20 4d a3 3e 2d d2 c4 3e 10 08 2d 3f
       -0.58777916 0.3189478 0.384416 0.6759043
000010 54 a6 2a 3f 49 ae 56 bf b4 44 20 bf c2 7a f6 be
       0.66660047 -0.8385969 -0.6260483 -0.48140532
000020 9b cd bf 3d 69 1f f5 be fe 3c 42 3c 74 67 e1 bf
       0.09365388 -0.47875527 0.011855362 -1.7609696
000030 f2 09 88 3f a9 d3 91 3d 1c 10 d8 3f 96 4c 84 be
       1.0628035 0.07120449 1.6879916 -0.2583968
000040 6e 7f 90 bf 89 a9 32 bf 84 83 0e 3e fd f3 3c 3f
       -1.1288888 -0.6978994 0.13917357 0.73809797

Encoder.encoder_attn.2.weight f4 [1, 20]
000000 62 ba 93 3e 6f 81 fc bd 7a 4a 4f 3e 17 e0 94 3e
       0.28853136 -0.12329375 0.20243254 0.29077217
000010 42 49 9e be 8d 19 04 be 14 26 6b be 0b ff 55 3e
       -0.30915266 -0.12900372 -0.22963744 0.20898072
000020 95 40 5c be a0 92 12 3e 49 4b 36 be 5a 34 1e be
       -0.21509011 0.14313745 -0.17802157 -0.15449658
000030 9a 74 8a 3e cf e8 1c be 3f 15 21 be 1b ba 7d 3e
       0.27042085 -0.15323184 -0.15730761 0.24778025
000040 fa 8e c4 bd 9c 35 80 be 0f 31 26 be d5 aa 22 3e
       -0.09597583 -0.250409 -0.16229652 0.1588548

Encoder.SelfAttention.wq.weight f4 [20, 20]
000000 87 0f 85 bf 90 b5 00 3f cc 89 f6 3d 41 f1 21 be
       -1.0395364 0.5027704 0.120380014 -0.15814687
000010 f7 1c f4 3e b8 2d d1 3e 79 2a 90 3d 8c 42 fb 3e
       0.47678348 0.40855193 0.07039351 0.4907421
000020 11 9b dd be 9b de 00 3f 53 e5 50 bf 1b 7b ae 3f
       -0.4328237 0.5033967 -0.8159992 1.3631319
000030 b6 52 92 bf f5 b1 45 3f c8 17 2b bf c0 2d 82 3e
       -1.1431491 0.77224666 -0.6683316 0.2542553
000040 b4 5d 5c be 75 f3 2a 3f d7 a7 9d bf ea e6 38 3f
       -0.2152012 0.66777736 -1.2316846 0.72227347
000050 ce c6 4d 3e ea 35 46 bd 2d 5f 0c bf 58 f4 06 3f
       0.20095369 -0.04839126 -0.54832727 0.5271659
000060 4c 16 39 bf c0 87 1e 3f a0 42 54 3f 4d 02 17 3f
       -0.7229965 0.6192589 0.8291416 0.58987886
000070 a6 f6 0a bf 6a b6 aa bd 95 58 38 3f d6 88 a9 be
       -0.54282606 -0.08335574 0.72010165 -0.3311221
000080 97 17 29 3f d2 b5 23 3f 13 8d ef be b2 df 4e bf
       0.6605162 0.6394931 -0.4678732 -0.8081008
000090 5c de 67 bf 69 be 45 3f 03 ca 37 bf df 58 b5 3f
       -0.9057367 0.7724367 -0.7179262 1.4167746
0000a0 62 04 a6 bf 3a 92 ac 3f 91 46 2b 3f e7 3a 9a be
       -1.2970088 1.3482125 0.6690455 -0.30123064
0000b0 0d b7 2f 3f e5 aa ad 3f ac fd 51 bf 5e 12 61 bf
       0.6863869 1.3567778 -0.820277 -0.8791865
0000c0 ef 91 71 3f 18 8c 08 3e ab 0c 50 3f d6 f5 42 bd
       0.943633 0.13334692 0.8126933 -0.04759773
0000d0 27 51 33 3e 61 dd 33 be 60 28 4f bf 22 16 46 bb
       0.17511426 -0.17564918 -0.8092098 -0.0030225595
0000e0 69 7c 20 bf 67 a6 f3 be d7 c7 84 3f 65 51 76 bf
       -0.62689835 -0.47587892 1.0373486 -0.9621795
0000f0 60 e0 b5 3d 77 fb f6 be f0 e9 b3 3e ec 04 4a 3f
       0.08880687 -0.48238727 0.35139418 0.7891376
000100 a8 83 4a 3f d0 83 ef 3c 18 f8 a4 be 80 9f cc bf
       0.7910714 0.029237658 -0.3222053 -1.5986176
000110 ff e2 86 bf 07 ef af bf 29 db 6c 3e 3b df 81 be
       -1.0538024 -1.374482 0.23130478 -0.25365624
000120 eb 4f 01 3f ce b9 3c bf 81 21 62 be d8 bd c1 be
       0.5051257 -0.73721015 -0.22083093 -0.37840152
000130 bb f6 10 3f 5a 81 73 3f 71 af cd 3e fd f1 53 3e
       0.5662648 0.9511925 0.40172914 0.2069778
000140 87 7f 8d bd 12 a2 71 3f 37 19 94 3e 38 b0 c7 be
       -0.069090895 0.94387925 0.28925487 -0.39001632
000150 0b bc 8e bc 3e f7 4a bf d4 21 57 3f 7c 9e 8c bf
       -0.01742365 -0.7928351 0.8403599 -1.0985866
000160 76 22 9d be 07 cf 6e 3f c7 61 a8 be 41 15 af be
       -0.30690354 0.9328465 -0.32887098 -0.34195903
000170 4f 39 f6 be 14 f1 7f 3d cf 39 91 bf c8 c4 7f 3e
       -0.48090598 0.06248577 -1.1345767 0.2497741
000180 f6 31 bb 3f 79 6c d7 3e 6c db 3e 3f 2e bb a3 bf
       1.4624622 0.42074946 0.7455356 -1.2791498
000190 29 a1 05 3e 78 ca a3 be b8 ba 48 bf 8f 2e 8b be
       0.13049759 -0.3199041 -0.7840991 -0.2718396
0001a0 bb 98 58 3f b3 ed b5 be b2 9d d0 3f c3 10 8a bf
       0.8460805 -0.35532913 1.6298125 -1.0786365
0001b0 b0 02 a2 bf 45 fd 19 3e dc 46 b0 3e 01 cf f4 3d
       -1.265707 0.15038021 0.3442906 0.11953545
0001c0 ca 2d 02 3f 27 63 26 3f 37 fd 05 bf a6 3a 93 bf
       0.5085112 0.64995044 -0.523395 -1.1502273
0001d0 6c 6d d7 be ce d1 09 3f 9d d1 e0 3e bb f9 53 3f
       -0.4207567 0.5383576 0.43909922 0.82802933
0001e0 38 4e a9 3e 2a 7d a8 3f 8e 24 ff be bc 8f 00 3f
       0.3306749 1.3163197 -0.49832577 0.5021932
0001f0 96 70 9f bf df c5 37 bd 58 b0 90 be 4c 61 86 3f
       -1.2456234 -0.04486644 -0.2825954 1.0498443
000200 45 df f3 be 34 f9 02 3f d0 23 67 be ef c3 ce bf
       -0.4763128 0.51161504 -0.22572255 -1.6153544
000210 3b 46 a0 3f 96 47 f8 3e f5 87 cb be 5e fb 2f be
       1.2521433 0.48492116 -0.39752164 -0.17185733
000220 93 c1 74 be f4 d7 56 3f 1f d8 45 bf a3 9d 7b 3e
       -0.23901968 0.8392327 -0.772829 0.24571852
000230 aa 85 f6 be 00 97 08 bd 5f 4a 9f 3e 50 b9 f1 3e
       -0.48148853 -0.03334713 0.31111428 0.47211695
000240 ca a3 90 be 2b 59 1b bf 45 c5 5b 3f 0d 7a d7 3e
       -0.2824996 -0.60682935 0.85847884 0.42085305
000250 80 23 41 bf 48 63 bb bf be b6 b9 3f ac 09 f9 3f
       -0.75444794 -1.4639673 1.4508893 1.9456077
000260 dd df 10 bf f0 ab e5 3e 25 df d4 be db 17 22 be
       -0.5659159 0.4485774 -0.41576496 -0.15829413
000270 b8 b0 ba 3d 1a dd 23 be b1 94 82 bf 7c 2c 20 3f
       0.09115738 -0.16002312 -1.0201627 0.6256788
000280 0d df 30 bf cd 5f 07 bd 67 9a 87 bf f2 e8 0d 3f
       -0.6909035 -0.033050347 -1.0593995 0.5543357
000290 95 11 d8 3e ad 34 a5 3f 3a b1 75 bf 52 ac 3a 3e
       0.42200914 1.29067 -0.9597355 0.18229797
0002a0 e5 ae 2f bd 79 f4 e6 3d 9a be 05 bf c0 76 01 c0
       -0.0428914 0.11277098 -0.5224396 -2.022873
0002b0 38 d0 1c 3d 95 96 29 3e c0 7c 22 3f 0d 7e 02 bf
       0.03828451 0.16561349 0.63471603 -0.5097359
0002c0 af 32 bf be 2a 14 ab 3f 20 9a 97 be 97 0e 9b 3e
       -0.37343356 1.3365529 -0.29609776 0.3028457
0002d0 f2 d6 b4 bf b8 57 1d 3f 56 be 78 3f c4 84 78 3e
       -1.4128096 0.61461973 0.9716543 0.24269396
0002e0 76 72 2f 3d e8 9b dd 3d 3d 1a 30 bf 81 58 be 3e
       0.042833768 0.108207524 -0.68790036 0.37176898
0002f0 f0 88 26 3e d6 6c 86 bf ab 03 de 3d 32 4a 37 3f
       0.16263175 -1.0501964 0.10840543 0.7159759
000300 3c 3d da be cd 4a 03 3e c7 81 c3 be 8e 7a 66 be
       -0.42624843 0.12821503 -0.3818495 -0.22507688
000310 f4 f9 5a 3e 0a a0 6d 3f 48 cb 0f bf bf 9a 66 bf
       0.21384412 0.92822325 -0.5616956 -0.90079874
000320 d5 90 2f be f1 f0 fa be 29 58 4f be a6 a9 cc 3e
       -0.17145093 -0.4901195 -0.20248474 0.3997318
000330 84 da aa bd f7 47 dd 3e f4 df d1 bc c0 65 63 3f
       -0.0834246 0.43218967 -0.025619484 0.88827133
000340 1e b0 23 3f 58 cd 48 be 2b bd 0e 3f 1b d6 b8 3e
       0.6394061 -0.19609582 0.557574 0.3610085
000350 b4 6e 8b bf 68 73 61 3e c8 da 95 bf 58 05 9e 3f
       -1.0893159 0.2201668 -1.1707392 1.2345381
000360 f4 bc f7 3e 50 7e 0f bf 9c 6b 4f be 40 86 ed be
       0.48386347 -0.5605211 -0.20255893 -0.46391487
000370 53 29 b4 bd 9f 67 44 3e 98 28 d2 3c dd 18 9b 3e
       -0.087969445 0.19180153 0.025654122 0.30292407
000380 01 2a b1 3e e3 fb a9 3e f1 2b f3 be c5 2b 66 3e
       0.3460236 0.33199987 -0.47494462 0.22477634
000390 24 9d 5a bf 6f 73 92 3e 1a 31 f5 be b0 ec 71 3e
       -0.8539603 0.28603694 -0.47889024 0.23625445
0003a0 13 bc cc 3d 06 18 f4 be 47 02 6e bf 6c 80 3a bf
       0.0999681 -0.47674578 -0.92972225 -0.72852206
0003b0 fb b9 35 bf ee e0 81 3f 0b 13 80 be b9 aa f3 3f
       -0.7098691 1.0146768 -0.2501453 1.9036475
0003c0 de a1 9d be 53 98 8b 3e 76 f6 10 3f 77 8a 06 bf
       -0.30787557 0.27264652 0.5662607 -0.5255503
0003d0 f3 b4 5e 3f bc e2 a6 3e 49 3d aa bf 63 86 00 be
       0.86994857 0.3259486 -1.3299953 -0.12551264
0003e0 bf 73 43 bd eb 8e 37 be 88 6c 02 3e 2b ef dc 3d
       -0.047717806 -0.17925613 0.12736714 0.10787805
0003f0 b0 19 ba be 91 c5 1b bf c0 ec a3 3f 79 53 17 be
       -0.36347723 -0.6084834 1.2806625 -0.14777936

Encoder.SelfAttention.wk.weight f4 [20, 20]
000000 db aa 51 bf c0 e1 89 3e 1d 4c 22 3f 18 ee 47 bf
       -0.8190133 0.26930046 0.6339739 -0.7809768
000010 25 9a 33 3f e8 92 12 3f 6e 41 ec 3d 64 49 27 3f
       0.7015708 0.5725541 0.11535917 0.6534636
000020 2a 68 6d 3e f3 be 0b 3f 5f 24 8d be a1 66 61 bd
       0.23184267 0.5458824 -0.2756681 -0.055029515
000030 26 35 28 3f 83 1b 07 3f f2 c3 98 be dc eb 7c be
       0.657061 0.52776355 -0.29836994 -0.24699348
000040 d3 7c 80 3e 38 f6 44 bf 09 d0 78 3f fd b1 e5 bf
       0.25095233 -0.769382 0.97192436 -1.7944943
000050 68 fb 7e be 59 df 76 be 6c 39 fe be 75 44 06 bf
       -0.24900591 -0.24108638 -0.49653184 -0.5244821
000060 ad b1 7e 3e df e0 4e 3f ce be 5f bd ab 47 88 3f
       0.24872465 0.80811876 -0.054625325 1.0646871
000070 c4 8b 43 3e b9 67 b0 3e 83 1d 67 bf ca 9a 96 3e
       0.19096285 0.34454134 -0.90279406 0.2941497
000080 be 5c 20 3f 59 db 01 bf ae 5f ba bf da f2 4f bf
       0.62641513 -0.5072532 -1.4560449 -0.8122994
000090 ce 2f 7b bd ba 1e d5 bf ac 7d 07 3f d6 08 7a 3f
       -0.061324887 -1.6650002 0.52926135 0.9766973
0000a0 d7 a1 04 3e 16 4f 35 3f 05 89 c1 3f 70 d6 26 3f
       0.12952362 0.708238 1.511994 0.65170956
0000b0 8e a3 67 3f 37 bf 7e 3f 46 a8 d1 bf b3 68 45 3f
       0.9048394 0.9951052 -1.6379478 0.77112883
0000c0 2f a2 8c bd 13 b1 6d be 0e 95 a3 3e 70 8f 1a 3e
       -0.068668716 -0.2321208 0.31949657 0.1509378
0000d0 2f f0 c0 bf 7a ac db be 66 dd 1e bf 68 5d f9 be
       -1.5073298 -0.42905027 -0.6205658 -0.48704076
0000e0 db 49 70 3e 7f 50 e9 3f cd 1b 42 bf 7c 20 bb be
       0.23465674 1.822769 -0.7582367 -0.3654822
0000f0 7a 10 8d 3f 71 c8 57 be ed 24 c8 3e 87 78 0b 3f
       1.1020653 -0.21072556 0.39090672 0.54480785
000100 3f 2a e9 3e 91 99 f5 3e 49 8d 8b 3e 12 46 a8 bf
       0.45540044 0.47968724 0.2725623 -1.3146384
000110 a7 fb d9 bf 88 60 41 be 59 a3 65 3e 06 ac 37 3e
       -1.7029923 -0.1888448 0.22425593 0.17936715
000120 65 b3 0a bf 24 79 b2 bf 08 c6 cb be d5 b6 87 3e
       -0.54179984 -1.3943219 -0.39799523 0.26506677
000130 c3 55 fd 3d 40 11 37 3f 7c 6a 21 3f 0e c2 e3 3e
       0.123698734 0.71510696 0.6305311 0.4448399
000140 ee 99 e8 bc 88 4d bd 3f f9 b9 28 3f 0a 31 b2 3c
       -0.028393712 1.4789286 0.6590877 0.0217519
000150 85 3f 97 bf bc f9 27 3e 44 fc ca 3e dc a8 c1 bf
       -1.181626 0.1640386 0.39645588 -1.5129657
000160 b8 de 40 3f ec c8 d0 3e ce bb 88 3e 96 e7 c1 3e
       0.7533984 0.4077829 0.26705784 0.37872
000170 92 da b7 bf 35 69 db be 71 02 2f be 86 5a 2a 3f
       -1.4363577 -0.42853704 -0.17090775 0.6654438
000180 45 56 e0 3e 20 31 ab 3f db 22 3b be b0 f4 1a bf
       0.43815818 1.3374367 -0.18275015 -0.60529613
000190 6f c9 bf be 9a 1e fb be 06 70 80 bf 2c e4 c7 3e
       -0.3745837 -0.49046785 -1.0034187 0.3904127
0001a0 72 8d 73 3e 5e cc 2e 3f 52 1f f3 be 9e 38 29 bf
       0.23784426 0.6828059 -0.47484833 -0.66102016
0001b0 76 82 b3 3e 5e 4b 20 3e 41 88 68 3d aa 3e 77 3f
       0.3506047 0.1565375 0.056770567 0.9657999
0001c0 cc 45 4f be 58 c6 58 bf 25 aa c8 bf 07 ff 55 bf
       -0.20241469 -0.8467765 -1.5676924 -0.83592266
0001d0 48 3c c8 bd 82 f7 09 3f a4 8a 50 3f b5 e2 ef 3e
       -0.09777123 0.5389329 0.8146155 0.4685265
0001e0 a5 0b ba 3d 8a 37 4c 3f 38 64 69 3f e5 e0 3d be
       0.09084252 0.79772246 0.91168547 -0.18542822
0001f0 74 5b 88 bf c5 4c 39 be 0a c9 32 bd 48 b6 5d be
       -1.0652909 -0.18095692 -0.043648757 -0.21651566
000200 45 30 43 3f fd 76 03 3f 3d 0c 59 bf 98 71 e5 be
       0.7624553 0.51353437 -0.847843 -0.44813228
000210 6b 26 46 3f 42 fe 41 3e c5 a2 8f bf e9 0d 7b bd
       0.7740237 0.18944648 -1.1221548 -0.061292563
000220 8d 5e 04 3f 82 38 ff bf f6 db d8 be 5f 4a 7c 3f
       0.51706773 -1.993912 -0.42355317 0.9855098
000230 7e a2 eb be 91 b4 57 3d b5 06 a0 be f8 a3 6a bf
       -0.4602241 0.052662436 -0.31255117 -0.91656446
000240 48 20 1f ba 76 f1 66 3f 8b f6 ab 3e 94 9d 65 3f
       -0.0006070179 0.9021219 0.33586535 0.8969357
000250 6c f9 d8 bf 8f 88 b0 3f b5 34 96 3f 3d 4d 3c bd
       -1.6951118 1.3791674 1.1734835 -0.045972098
000260 b7 21 96 3f 1e ff 50 bf 61 bc c7 bd 0c 9f 5e bf
       1.1729039 -0.8163928 -0.09752727 -0.86961436
000270 3c 3c 79 bf a0 7e 87 3c 74 78 02 3f ac bc b1 be
       -0.97357535 0.016539872 0.50965047 -0.34714258
000280 7c 83 58 be 2e 31 5c bf bf 2e a5 3e 8c 12 a2 3f
       -0.21143907 -0.8601254 0.32262227 1.266191
000290 61 bc c8 3e a5 28 6b 3f 15 c5 07 be c2 13 c3 be
       0.39206222 0.91858894 -0.13258775 -0.38101012
0002a0 05 90 e3 3e 71 e0 bb bf 00 e4 9a bf 23 40 8d bf
       0.44445816 -1.4677869 -1.210083 -1.1035198
0002b0 ae 8e 09 3f 97 36 33 3c dd 61 cd be ed af 8e 3c
       0.53733337 0.010938308 -0.40113726 0.017417872
0002c0 df 38 b1 3f e8 dd 61 bf b1 80 bb 3e b2 1c 20 3e
       1.3845481 -0.8822923 0.3662162 0.15635946
0002d0 1f 5f 44 bf 1b a5 97 3e 1c ef f2 3f bb b4 16 bd
       -0.76707643 0.29618153 1.897922 -0.03679345
0002e0 44 dd 8c be aa 17 5b 3f 31 89 4b 3f 37 9c 51 3e
       -0.27512562 0.85582983 0.7950621 0.20469747
0002f0 1c 65 92 bf dd 87 82 3d 70 5b 98 3f 01 08 72 bf
       -1.1437106 0.0637357 1.1902905 -0.94543463
000300 eb d1 e1 bd dc 2a bc be 93 fa 07 3e 88 e1 94 be
       -0.11026367 -0.3675145 0.1327918 -0.29078317
000310 4f a7 26 3e 50 96 4f bd da bd 03 be 1c 90 77 bf
       0.1627476 -0.05068046 -0.12865391 -0.9670427
000320 b8 87 c1 bb 41 f0 fe 3e 60 84 38 bf ea 39 21 be
       -0.0059060715 0.49792674 -0.7207699 -0.15744749
000330 35 93 80 3e eb c9 8d 3f 26 f9 f0 3e 08 b7 39 3f
       0.2511231 1.1077245 0.47065085 0.7254491
000340 e6 cd 26 bf 0e b4 f4 3e 77 e5 99 3e dd 78 02 bf
       -0.65157926 0.4779362 0.3005788 -0.5096567
000350 40 5e bc be 88 b3 97 3f a6 32 af 3e dc 76 8c 3f
       -0.36790657 1.1851664 0.3421833 1.0973773
000360 ba de 06 3f 1e 72 ae be 74 40 86 be aa 1f 0f bf
       0.52683604 -0.3407144 -0.2622105 -0.5590769
000370 15 25 42 3e 8d 9e 06 3e b3 2f c2 bd 3b 29 de be
       0.18959458 0.1314642 -0.09481754 -0.4339083
000380 04 56 5c 3f 32 11 50 be 72 35 17 bf 00 0d 9a 3f
       0.8606875 -0.2031906 -0.59065926 1.2035217
000390 bf 69 a6 be 3d 6d 1d be 28 0a 64 bf 6d e7 72 bd
       -0.32502553 -0.15373702 -0.89078 -0.059302736
0003a0 ef 98 87 be 58 30 77 bf d7 1c c8 bf 22 c4 a0 be
       -0.26483867 -0.9655814 -1.5633801 -0.31399637
0003b0 54 03 02 3e 98 ec c3 be d3 0f a6 3f 28 6f b9 bb
       0.12696582 -0.38266444 1.2973579 -0.005659003
0003c0 6c e6 00 3f 74 15 b6 be e8 9f 03 3f 71 6e ca 3e
       0.50351596 -0.35563242 0.5141587 0.39537385
0003d0 eb b9 69 3f 80 04 51 bf 65 70 24 bf 70 f1 33 3f
       0.91299313 -0.8164749 -0.64234 0.7029028
0003e0 3f f7 81 be 36 4e ed be 99 da 88 3c 83 33 0d bf
       -0.25383946 -0.46348733 0.016705798 -0.55156726
0003f0 75 56 54 be 36 bd e0 3d f8 b4 f0 3e ca 7b 0d bf
       -0.20736106 0.10973589 0.47013068 -0.5526701

Encoder.SelfAttention.wv.weight f4 [20, 20]
000000 70 06 21 be bd ac 17 3f 1c 8d b0 3e 54 d6 84 3e
       -0.15725112 0.5924795 0.34482658 0.2594477
000010 06 11 48 3e 73 08 04 3e 14 89 55 be 52 f3 41 be
       0.19537744 0.12893848 -0.20853072 -0.18940476
000020 d9 9f 61 3f 1c 92 a3 3f 7f a5 9f 3e 9d bb 29 be
       0.88134533 1.2778964 0.3118095 -0.16575475
000030 51 92 04 3f c1 b2 5f 3e d7 e0 4a 3e 1f ad 7e be
       0.5178576 0.21845533 0.19812332 -0.24870728
000040 6c c0 4b be d2 bf c0 3c 95 c0 10 bf 93 f9 99 bf
       -0.19897622 0.023528967 -0.56543857 -1.2029289
000050 b5 a8 8d be 3f 7d 2e 3e ee 9e 0e 3f 8f 6d aa 3e
       -0.27667776 0.17039965 0.5571126 0.33286712
000060 36 fd 8d 3f db e1 42 bf f1 be 12 bd 1f eb 2f 3f
       1.1092899 -0.7612588 -0.035826627 0.6871814
000070 64 e4 99 3e 5a 50 68 bf 05 b3 2c bf 0b 1b 4f 3e
       0.3005706 -0.90747607 -0.6746066 0.2022516
000080 eb 11 22 3e 14 dc 0b 3f 06 97 1e 3f d4 ff 4a 3f
       0.15827148 0.5463269 0.61949193 0.7929661
000090 26 6a 73 3e f8 89 18 3f 8a 75 b2 bf 92 af 74 bf
       0.23770961 0.59585524 -1.394212 -0.955804
0000a0 1d 88 3a 3e bd b5 d1 3e 0a ad 66 3f 98 b2 6d be
       0.18215986 0.40958968 0.90107787 -0.2321266
0000b0 a4 56 ea bf a6 85 80 3e 74 88 00 3f b2 98 98 3f
       -1.8307691 0.25101966 0.5020821 1.1921599
0000c0 63 95 c7 3d db 6d dd 3e 50 55 2a 3f 8a 2b 06 3f
       0.0974529 0.43247876 0.66536427 0.52410185
0000d0 c4 19 cb be c9 1a a9 3e ee 1e 8b 3f 84 bb 1a 3e
       -0.39668095 0.33028248 1.0868814 0.15110594
0000e0 10 eb 94 3e a8 6e 9b 3e 2a 47 9f bf f7 94 a0 bf
       0.29085588 0.30357862 -1.2443593 -1.254546
0000f0 00 b6 24 3f 70 12 3a be 62 49 1c 3d 01 04 aa be
       0.6434021 -0.18171096 0.03815592 -0.3320618
000100 e2 c1 56 3f b0 f9 8b be 10 22 19 3f fa 34 bd bd
       0.8388959 -0.27338934 0.598176 -0.0923862
000110 0d 99 e7 3e ec a6 a0 be 18 17 e3 be fa 22 41 bf
       0.45233956 -0.3137735 -0.44353557 -0.75443995
000120 b3 82 ab 3e f8 a6 d0 3c cb 38 dd bb 17 01 47 3f
       0.33498153 0.025470242 -0.006751155 0.7773604
000130 05 84 88 be d5 4d 34 3f 98 37 49 bf 5b d9 9c be
       -0.26663223 0.7043126 -0.78600454 -0.3063458
000140 d0 ba 9a bd f3 5c 91 3e 3a a6 4f bf 32 e4 e7 3e
       -0.07555163 0.28391227 -0.81113017 0.45291287
000150 39 b4 f5 bd 3d ab 97 3d d7 3d 15 bf 64 5e 96 3d
       -0.11997265 0.07405708 -0.58297485 0.07342222
000160 45 61 6b be c0 1d 78 be fd c0 ba 3f c1 47 91 3e
       -0.22986324 -0.24230099 1.4590145 0.28375056
000170 86 6e e4 3e a7 68 04 3e 3f 77 f8 39 a5 56 3b 3e
       0.44615573 0.12930547 0.0004739109 0.18294771
000180 0e 98 9f 3e da fe b8 3e de b0 50 bf fc 51 36 bf
       0.31170696 0.36131936 -0.8151988 -0.7121885
000190 80 16 0e be 4d 12 71 3e 3a 0d 92 3e 3e 43 9e be
       -0.1387577 0.23542137 0.28525716 -0.30910677
0001a0 37 15 1e be 5f 6b bd be 95 c0 88 3e 16 90 ac 3f
       -0.1543778 -0.3699598 0.26709428 1.3481472
0001b0 a6 71 2c 3f 29 a3 19 be 64 2c 6b bf db 53 aa bd
       0.67360914 -0.15003647 -0.9186461 -0.083167754
0001c0 5c 9f 4d 3f f9 60 df 3f 4c 84 ea 3e 55 17 3d bf
       0.8032129 1.7451469 0.4580406 -0.73863727
0001d0 40 05 4e bf 8b 0c d1 be b8 21 b6 bf 5c 8a 47 be
       -0.8047676 -0.40829882 -1.422904 -0.19486374
0001e0 e0 29 93 3e de 24 76 3f 2d c9 af 3e f2 d5 d9 3e
       0.28742886 0.96150005 0.34333172 0.4254604
0001f0 d8 a1 b1 3e ef e3 46 3f 51 a4 63 bf c2 99 29 bf
       0.3469379 0.7769155 -0.889226 -0.6625024
000200 0d f4 17 bf 2b b4 06 3f a6 08 5a 3e 8c 73 24 be
       -0.59356767 0.52618665 0.21292362 -0.16059703
000210 42 12 66 3e 19 28 82 3e 43 75 89 bd ca 3f e0 bd
       0.22467902 0.25421217 -0.06711819 -0.10949667
000220 b7 1a 81 be 56 0d f6 3d e7 da 8f bf b9 72 c5 be
       -0.25215694 0.120142624 -1.1238679 -0.3856409
000230 48 06 af be 73 42 81 3e 8f 9a 02 3e 30 28 c6 3e
       -0.3418448 0.2524601 0.12754272 0.38702536
000240 d7 29 9e 3e e2 33 27 3e fb 58 0b 3f 24 fc 28 3f
       0.30891296 0.16328385 0.5443265 0.66009736
000250 a0 69 6b 3f 2b 79 3a 3f 7f 4c 06 be 17 76 88 bf
       0.91958046 0.7284114 -0.13115118 -1.0661038
000260 d9 75 f1 3e 86 bc 8e bd cb 2d a9 bd a6 2f 7c be
       0.47160223 -0.06969552 -0.082606874 -0.24627551
000270 df 73 36 be b8 bf 36 bd 9e e4 67 bf c7 3d 73 bf
       -0.17817639 -0.04461643 -0.9058322 -0.9501614
000280 8c f9 4d 3e 2f ed 3c bd aa bc 14 3e 8b c1 b1 be
       0.20114726 -0.046124633 0.14525095 -0.34717974
000290 21 e8 5c 3f 45 19 98 3f 3e 50 a9 bf 51 ff 82 3d
       0.862917 1.1882712 -1.3227613 0.06396354
0002a0 44 3c 1b 3d 3c c6 26 3f 1d 85 19 3f ef 46 c8 3e
       0.03789927 0.6514623 0.5996874 0.39116618
0002b0 83 55 39 3d 0e 41 9a 3e c6 1b a4 3e 09 43 c6 3d
       0.045247566 0.30127758 0.3205244 0.09680755
0002c0 6d f8 43 be 0d fb ae be cd 64 66 bf 96 4e 80 bf
       -0.19137736 -0.34175912 -0.8999756 -1.0023983
0002d0 9a af 69 be 1d 50 16 3e 0b 71 ab be af 96 72 be
       -0.22820893 0.14678998 -0.33484682 -0.23690294
0002e0 37 6e 8e be f8 10 1f bf 94 95 e7 3e 84 d2 40 3e
       -0.27818462 -0.6213527 0.45231307 0.18830305
0002f0 41 bd 78 3f d4 b7 48 3f a1 fc 3a be cb a5 12 3f
       0.9716378 0.784055 -0.18260433 0.5728423
000300 4b 6e 6f bd c9 7b fc bd 90 66 cf 3e 89 97 ad 3d
       -0.058454793 -0.12328298 0.40507936 0.08476169
000310 81 ce 36 3e ef 91 0c 3f b9 f4 bd bf d8 fa 2d bf
       0.17852212 0.54910177 -1.4840308 -0.6796088
000320 9e df 79 bf 1b 8c 4f be 60 60 e7 3d 43 68 45 be
       -0.9760684 -0.2026829 0.11297679 -0.19278054
000330 87 53 3b 3e 54 c0 b9 3e 81 69 a7 3e e5 a5 87 3e
       0.18293582 0.36279547 0.3269768 0.26493755
000340 f5 eb 41 3e 2d 92 74 3d e6 24 b4 3e bd f1 1e 3e
       0.18937667 0.059709717 0.351844 0.15521903
000350 3c 49 d2 be a3 cb 1b 3d c5 c1 5b 3f 32 3a e3 3e
       -0.41071498 0.038036 0.85842544 0.44380337
000360 b9 06 02 3f 40 a0 6a 3f 80 a5 89 bf 11 ff 87 bf
       0.5079151 0.9165077 -1.0753632 -1.0624715
000370 95 bb ce bc 95 e8 51 3e e2 94 c8 bd 1c 79 ba 3e
       -0.02523593 0.20498879 -0.09794022 0.36420524
000380 9b be d3 bd 1e ab 78 3f a4 85 85 3e cc a6 31 3e
       -0.103390895 0.97136104 0.26078522 0.17348784
000390 72 c4 28 3f 41 d9 b9 ba 5e 6a bc 3e f2 53 92 bd
       0.6592475 -0.0014179127 0.36799902 -0.071449175
0003a0 b4 b9 9f 3e 04 75 00 bf bf a3 61 bf fd 0b 07 3e
       0.31196368 -0.5017855 -0.8814048 0.13188167
0003b0 4e cf b1 bc 62 24 c1 bb 3d 5d a8 bf a5 6e 57 be
       -0.021705296 -0.0058942297 -1.3153454 -0.21038301
0003c0 42 9c 2a 3e 68 73 e4 3d 96 26 7f be 3b ee a7 be
       0.1666117 0.111548245 -0.24917063 -0.32798943
0003d0 95 01 f7 bd af 5b 71 bd 9d 91 b0 bd fa 28 3f bf
       -0.120608486 -0.058925327 -0.086215235 -0.746719
0003e0 1d 2a e3 be 55 7d d0 3d 49 12 ba 3d 19 cd b5 3f
       -0.44368067 0.10180155 0.09085519 1.4203216
0003f0 a6 2f b7 3e 1b e5 40 3d b6 fd 2c bd bf 1a 68 bf
       0.3577854 0.047093492 -0.042234145 -0.9066581
