result/ver8/last.pt (torch, 238676 bytes, 60 tensors)

Encoder.encoder_lstm.weight_ih_l0 f4 [128, 6]
000000 ce db 90 3d 35 ca b0 3c a0 e8 a5 3e 09 45 e3 bd
       0.070731744 0.021580795 0.3240404 -0.11097152
000010 33 35 23 3e 43 fb ff 3e c8 c8 36 3d 01 87 3e 3e
       0.15938263 0.49996385 0.044625074 0.18606187
000020 6b 33 b8 3d 34 4b b8 bd 6a 76 e3 3d d0 f7 7c 3e
       0.08994182 -0.08998719 0.1110657 0.24703908
000030 60 81 fa 3e b6 72 14 3e 78 58 03 3d 12 29 ca be
       0.4892683 0.14496884 0.032066792 -0.3948446
000040 ac b9 95 be fc 3a 11 3f ea 3f 65 3e 0b c2 bb bd
       -0.2924322 0.5673063 0.22387663 -0.0916787
000050 23 68 21 3d e1 90 d2 bd 7e e4 90 be 56 d5 97 be
       0.039405953 -0.1028154 -0.28299326 -0.2965495
000060 d9 1c 0f bd ea 71 8c bd 9b 34 4c be 0f c2 48 3e
       -0.03493962 -0.06857665 -0.19941942 0.19605277
000070 dc ff 47 3d ab c4 87 3e ed 8b f4 3e e7 83 28 bf
       0.04882799 0.26517233 0.47763005 -0.65826267
000080 5e 0b 69 3e 7a 11 d2 3d f1 e6 eb 3c 1c 78 61 be
       0.22758242 0.1025724 0.028796645 -0.22018474
000090 3b ab 1b 3e 4a ef bc 3d d8 20 cc 3d 78 17 b2 bd
       0.15202038 0.09225328 0.09967202 -0.086958826
0000a0 85 d1 8b bd a9 e1 49 3e cd a7 db 3e 3b bf b6 be
       -0.06827072 0.19714989 0.4290146 -0.35692772
0000b0 ff d4 85 3e b5 ca 8b be ad 25 7b be 5f fc 97 3e
       0.26139066 -0.2730309 -0.24526091 0.2968473
0000c0 cb 11 a4 3e 64 57 46 3e 5a 0a 0f 3d 30 c2 32 3e
       0.32044825 0.19369274 0.03492198 0.17456889
0000d0 93 f9 f7 bd 09 2b 9a 3d 0e e7 7a 3d 61 38 76 3e
       -0.121081494 0.075277396 0.061255507 0.24044944
0000e0 6d 80 f4 bd c2 00 5a 3e 0c c2 83 3d 63 16 37 3e
       -0.11938558 0.21289352 0.06433496 0.17879634
0000f0 30 f1 65 bd 2c ed 3d be a8 90 34 3e 99 fa d1 be
       -0.056138217 -0.18547505 0.17633307 -0.41011503
000100 1e a9 59 3d 0c 50 14 3e 21 1b 21 3e 13 12 1c bb
       0.0531398 0.1448366 0.15733005 -0.0023814484
000110 1e 99 c7 3d 28 ff 33 be 76 f7 68 be 58 45 34 bc
       0.09746002 -0.17577803 -0.22750649 -0.011002861
000120 84 13 4a 3e 96 e7 18 3f 8b 1c 25 bf 05 df eb 3d
       0.19734007 0.5972837 -0.6449668 0.11517147
000130 c9 c7 ca 3e 6e 41 ba 3e 30 e4 b8 3e 70 d1 aa 3b
       0.3960555 0.36378044 0.36111593 0.005212955
000140 d1 9b 51 be 31 f7 27 be 20 5f a4 be b3 4a e5 be
       -0.20469595 -0.1640289 -0.32103825 -0.44783553
000150 c5 f3 05 3e 6a 8c 5e 3d 30 f8 10 3f 4c 77 9e 3e
       0.13081272 0.054333128 0.56628704 0.3095039
000160 c8 46 40 3f 94 57 b6 bc 9e 24 e8 3e 6e bf d9 3e
       0.75108004 -0.022258557 0.45340437 0.42528862
000170 8d 24 99 be ac ea 93 3e 9f 39 ef 3e 49 8c ab be
       -0.299107 0.28889978 0.4672365 -0.33505467
000180 75 33 7f 3b 01 72 76 3f ee 0a a7 be ae 5f 9b 3e
       0.0038940583 0.96267706 -0.32625526 0.30346435
000190 2f 0f b6 3e 3d b6 03 bf 31 de c4 3e 02 bc 3f bf
       0.3555846 -0.5144995 0.3845077 -0.7489625
0001a0 dc 44 fc 3d 9e be ae bc 9c 77 b9 3d dd 04 1f 3d
       0.123178214 -0.021331128 0.09056017 0.038822997
0001b0 25 49 6a 3f bc ae fc bd 3a c5 44 3d ac 2f c8 be
       0.9151786 -0.123380154 0.048039652 -0.3909887
0001c0 d9 2c d8 bd ae 85 3f 3e 26 98 cc bc e9 20 d2 3e
       -0.10555429 0.18703339 -0.024974894 0.41040733
0001d0 2a 7a 9c 3e e8 6c 36 bc c7 a9 2f bf 3d 37 b4 be
       0.30561954 -0.011134364 -0.68618435 -0.35198393
0001e0 91 0a db be 0d f8 0c 3f 61 3c b3 be 29 df 80 be
       -0.427815 0.55065995 -0.35007003 -0.25170258
0001f0 1f 82 69 bf df a6 44 3e 7a a0 10 be 07 de b1 3d
       -0.91214174 0.19204281 -0.14123717 0.086849265
000200 68 24 a3 3e ef 61 a4 bd de c2 0a be 87 fb f4 3d
       0.31863713 -0.08026492 -0.13550898 0.119620375
000210 06 c1 50 3e 52 67 82 3e 25 30 4b bf 23 b9 65 3e
       0.20386133 0.25469452 -0.7937034 0.22433905
000220 09 21 46 3f 2e f4 f0 3e 1f 8a 8b bd d0 20 5d bd
       0.7739416 0.47061294 -0.06813454 -0.05398637
000230 9f 0f 23 3e cd f0 e1 3d 5d bd a5 3e bf 83 8c be
       0.15923928 0.11032257 0.32371035 -0.27444264
000240 fe aa a9 3e af 84 b4 3e ef 2c c0 3e cc 9e 05 3e
       0.3313827 0.3525748 0.37534282 0.13048857
000250 ee 01 c7 3d 58 31 be be 14 49 c8 bd 24 10 c7 3e
       0.09717165 -0.3714702 -0.097795635 0.38879502
000260 05 85 52 be 1e d6 40 be 62 09 ad be 49 dc 86 3f
       -0.20558555 -0.18831679 -0.3379622 1.0535976
000270 1d 51 0b 3f 03 31 bc 3e f9 c2 24 be c0 37 ee 3e
       0.54420644 0.36756143 -0.16090001 0.4652691
000280 c3 19 83 be f1 9c 72 be 81 aa d5 be 13 18 8e bd
       -0.25605592 -0.23692681 -0.41731647 -0.069381855
000290 01 7e 4f 3e 9f c5 4c 3d bd bf f5 bc fa 54 a9 3d
       0.2026291 0.049993154 -0.029998654 0.08268161
0002a0 dc 67 0d bf 48 a7 3a bd 89 22 20 3e 6b 86 31 bf
       -0.552366 -0.045569688 0.15638174 -0.6934573
0002b0 58 64 ca be f4 39 7b be fb 86 45 be 7e 9b 01 3f
       -0.3952968 -0.24533826 -0.19289772 0.5062789
0002c0 bd 18 73 be 53 16 80 3e 34 fb 2f be 1a 48 c8 3d
       -0.23739906 0.25017032 -0.1718567 0.09779377
0002d0 93 88 30 3f e6 e1 2d bd da 0c 23 3f 3f e0 02 bf
       0.68958396 -0.04245176 0.63691485 -0.5112342
0002e0 e0 c5 53 be 05 07 24 ba 91 d9 ca 3e 8f 1a 10 ba
       -0.20680952 -0.00062571495 0.39619115 -0.00054971216
0002f0 ed b7 e1 be e3 33 29 3e 2e 14 b5 3e ef 40 bd be
       -0.44085637 0.165237 0.35366958 -0.36963603
000300 0b e9 ad be e4 c8 21 3f bc 54 84 bf 10 0a 95 3e
       -0.3396686 0.6319716 -1.0338359 0.2910924
000310 08 be d6 3d 91 fc 48 bf b8 88 73 be a0 08 52 bf
       0.10485464 -0.78510386 -0.23782623 -0.8204441
000320 c7 40 16 3e c6 cb 3b bf 40 cb a6 be 43 99 9b bf
       0.14673148 -0.7335781 -0.32576942 -1.2156147
000330 f2 27 c0 3e d6 1d 2e 3e ee 12 44 3f fb 39 db be
       0.37530476 0.17003569 0.76591384 -0.42817673
000340 3b 42 05 bf c3 67 a1 be 07 9f 36 3f 7e 99 b9 3f
       -0.52054185 -0.31524476 0.71336406 1.4499967
000350 55 d9 99 3f 0f 55 3d bc 2e 16 16 3e c2 cc 4a 3f
       1.201945 -0.011555924 0.14656898 0.79218686
000360 88 3e 84 3e 2d 1c 0b 3f b2 aa 25 3f 18 10 a0 3e
       0.25828958 0.5433987 0.64713585 0.3126228
000370 bf a3 a3 3d c9 8c 5f be 8b d2 e6 be 3d 2d 7b bb
       0.079902165 -0.21831049 -0.45082507 -0.0038326525
000380 fb 6b b7 3f 3f 0e ec 3d cc c5 91 be 96 06 00 be
       1.4329828 0.11526155 -0.2847122 -0.12502512
000390 4a 7c 40 3f 62 fb b1 3e 48 c3 42 3f d6 a5 29 3f
       0.7518965 0.34762102 0.76079226 0.6626867
0003a0 03 6c 5b 3f 8e 63 7f 3e 59 54 68 be 1b 13 32 bf
       0.8571169 0.24940321 -0.22688426 -0.695604
0003b0 1d bc 02 3f 1c 32 22 3f 5b 50 01 3f 77 18 ed 3d
       0.5106829 0.6335771 0.5051324 0.11576932
0003c0 1d b8 07 3f 5c 3b 4b 3f d2 cd e3 3f 67 80 0f 3d
       0.5301531 0.7938745 1.7797186 0.035034563
0003d0 c4 ae 71 3b 28 73 eb 3f 03 8e e3 3d e2 7e 1d 3f
       0.003687785 1.8394518 0.11111071 0.6152173
0003e0 c3 3f 95 be f8 2e 5d be 0d 72 e8 3e 08 6a c0 3e
       -0.2915021 -0.21599948 0.45399514 0.37580895
0003f0 e2 67 75 3e bd 2a 61 3e bc 53 1b 3f 51 85 8a 3e
       0.2396541 0.2198896 0.60674644 0.27054837

Encoder.encoder_lstm.weight_hh_l0 f4 [128, 32]
000000 79 62 71 bf e6 6c 51 bf 9b 72 b2 3e ba d2 9e 3e
       -0.9429088 -0.8180679 0.34853062 0.31020147
000010 81 f3 55 3f 8f 37 e1 3e ed dd 7b 3e 07 1d 94 3e
       0.8357468 0.439877 0.24596377 0.28928396
000020 af a4 75 3f 92 9d 31 3f f6 86 8d bf 41 b5 12 40
       0.9595441 0.6938106 -1.1056812 2.2923129
000030 61 6f 77 3f bd 4c 29 3f 7c 90 47 3f 0e 23 ce bf
       0.96654326 0.6613272 0.7795484 -1.6104448
000040 6b df 75 3f 48 96 d5 bf 9b 9a 3a 3f 6e eb 94 be
       0.96044034 -1.6686487 0.7289216 -0.2908587
000050 be b7 6c be a3 19 1b 3f 18 f9 e0 bf cb a9 69 3f
       -0.23116967 0.60585994 -1.7576017 0.9127471
000060 1d cd 83 3f 3e 7f 62 3f a3 39 f4 be 4b bb aa bf
       1.0296971 0.88475406 -0.47700223 -1.3338407
000070 b9 6b e7 bd fb 53 75 3f 4b ec 3d bf dd 00 f0 be
       -0.11299843 0.9583127 -0.7418868 -0.4687566
000080 b7 3f ca be 26 2a 50 3f be 89 70 3f bc b2 44 3f
       -0.39501736 0.81314313 0.9396018 0.76835227
000090 ef 4f f5 bd 07 e3 df 3d f3 59 8b 3f c8 6b c1 bf
       -0.11978137 0.10931974 1.0886825 -1.5111017
0000a0 46 76 93 3f 71 9b 88 3f e7 c9 44 3e 6c c5 1b 3f
       1.1520469 1.0672437 0.19217645 0.60848117
0000b0 7e dd e0 3e c7 59 b9 3e 1d b6 56 bf 76 77 1b 3f
       0.43918985 0.36201307 -0.8387163 0.6072916
0000c0 7e 3f 39 3d 0f 42 47 bf 5d 88 e0 3e 0d 3c a8 3f
       0.045226566 -0.7783517 0.43854037 1.3143326
0000d0 58 18 01 bf 59 d2 25 c0 a2 e8 cc 3d 46 d0 e6 be
       -0.5042777 -2.5909636 0.10005309 -0.45080775
0000e0 f6 57 0b bd bc 1a 32 c0 92 25 71 3f fd 42 37 3e
       -0.034019433 -2.7828817 0.9419795 0.17896648
0000f0 b9 4d 66 3f ef 36 b3 3f a9 ac 83 3f 9a 44 b0 3f
       0.89962345 1.4001139 1.0287067 1.3770936
000100 7c 67 f0 3e a0 be 50 3f 98 10 72 3f 10 0a cc be
       0.46953952 0.8154087 0.9455657 -0.39851427
000110 8d f1 d2 3f 26 f3 0d bf a9 09 59 bf d8 54 a8 bf
       1.6479965 -0.5544914 -0.84780365 -1.3150892
000120 f1 aa 97 bf 94 6f 1d bd 95 af 11 3f e2 ed 9d bf
       -1.1849042 -0.038436487 0.5690854 -1.2338221
000130 8c c7 31 bf ce 86 4b 3f 0b dc 87 3f a6 66 e6 3f
       -0.6944511 0.7950257 1.0614027 1.8000076
000140 56 a9 ce 3d 3f 1f 9a be 68 c4 1b 3f cf 6b 17 3f
       0.10090892 -0.30101964 0.6084657 0.5914888
000150 22 f4 f6 bf be d3 42 c0 86 8f b3 bf 19 df 94 3f
       -1.9293253 -3.0441737 -1.4028175 1.1630584
000160 98 35 dc 3f e9 c1 81 bf 99 70 e5 3f 61 0f e1 be
       1.7203856 -1.0137302 1.7924987 -0.43957046
000170 eb 76 8f bd d2 c6 17 bf 21 b6 5c 3f 73 39 f2 bf
       -0.07005104 -0.5928775 0.86215407 -1.8923782
000180 69 6c 9b 3f 1a f3 ab 3e b9 8b 5e 3e 22 9a df be
       1.2142459 0.3358391 0.21732987 -0.43672282
000190 59 fa 35 3e c9 b1 9f bd f1 c7 4c 3b 85 3a 57 bf
       0.17771281 -0.07797582 0.0031247104 -0.8407367
0001a0 f9 3e 6a 3f dd 68 3e bf 41 e0 5f bf 2c 54 d8 bf
       0.9150234 -0.7437876 -0.8745156 -1.6900687
0001b0 8d 50 2b 40 06 07 fc be a6 93 0f bf 16 21 d3 be
       2.6767914 -0.49224108 -0.5608467 -0.4123618
0001c0 c5 43 ed be 16 0d 51 3f c1 a2 53 3e 40 65 17 3f
       -0.46340767 0.8166059 0.20667554 0.5913887
0001d0 97 92 d4 be 2a 67 ca bf 33 ee 85 3f 2f 8e eb be
       -0.4151809 -1.5812733 1.0463318 -0.46006915
0001e0 87 17 25 3f 44 a3 48 3f 32 93 44 bf 43 4a 93 bf
       0.64489025 0.78374124 -0.767871 -1.1507038
0001f0 f2 07 7b 3f 69 44 31 3e 71 a1 fb 3d 6c 91 ef 3e
       0.98059 0.17311253 0.12286652 0.46790636
000200 78 a9 28 bf 02 da 65 3f 45 88 20 bf 96 1d d1 3f
       -0.6588359 0.8978578 -0.6270793 1.6337154
000210 59 66 f8 be 6f 81 27 3f 0a a9 34 bf be 9d 73 3f
       -0.48515585 0.65431875 -0.70570433 0.9516257
000220 15 d3 12 bf c8 e1 de bd 05 d1 a9 3d 13 2c 10 3f
       -0.57353336 -0.10882908 0.082918204 0.5631725
000230 9b d1 75 be 2b 14 b8 bf 70 9c 94 bf dd ee 80 3f
       -0.2400574 -1.4381155 -1.1610241 1.0072895
000240 f6 80 85 bf 7d 1f b9 3f af 37 b5 3f 91 3f 26 3f
       -1.0429981 1.4462734 1.4157618 0.64940745
000250 78 3a 13 3e 5d 9c 97 bf 98 07 95 3f 9f b6 99 bf
       0.14377773 -1.1844593 1.1642942 -1.2008857
000260 46 ff 78 3f 59 f9 73 3d d2 d7 1f 3f 52 d6 bd 3e
       0.97264516 0.05956397 0.6243869 0.37077576
000270 ed f7 18 40 76 03 a0 3f 7f 3c b3 3f a8 c3 fa bf
       2.3901322 1.2501056 1.4002837 -1.959096
000280 b4 97 08 bf 49 bf 34 3f 5d 16 af 3f f1 c1 98 3f
       -0.5335648 0.7060438 1.36787 1.1934186
000290 0c 9d dc 3c 28 e8 b7 3e 25 29 a3 be 62 e5 a0 3e
       0.026930355 0.3591931 -0.31867328 0.31425005
0002a0 03 ff fa bb dd cf 48 bf 2d 5e 87 3f 40 41 a2 bf
       -0.0076597943 -0.78442174 1.0575615 -1.2676163
0002b0 3a 33 e3 3e 25 ab 2c be c4 e4 fc be ff 0b 91 bd
       0.4437502 -0.16862161 -0.49393284 -0.07082366
0002c0 23 28 55 be 70 86 b8 be 92 33 88 3f a9 8d 18 3d
       -0.20816092 -0.36040068 1.0640738 0.037244473
0002d0 dd cd d0 be 46 66 b6 3e 5e 71 99 3e 4d 9e 4b 3f
       -0.4078206 0.35624903 0.29969305 0.7953842
0002e0 df ca 3d 3f aa 97 b8 be 64 7d e0 3d 24 a9 ae bf
       0.7413768 -0.3605321 0.10961416 -1.3645368
0002f0 6b 5b 08 c0 30 d8 98 3f 51 2f af 3f 0e 9c 9c bf
       -2.1305797 1.1940975 1.3686315 -1.2235124
000300 4b 2f d4 3e 31 0d 9b bf 77 ee 84 bf b4 3d 84 bd
       0.41442332 -1.2113401 -1.0385274 -0.064570814
000310 cd 9b 61 be ed dd 98 3e 99 aa bf 3e f0 ba ea bf
       -0.2203209 0.29856816 0.37434843 -1.8338299
000320 7c d9 86 3e fb 3a 2c bf 22 eb 30 bf 66 96 0b 3f
       0.26337802 -0.672775 -0.69108784 0.54526365
000330 b5 19 97 3d be ae db 3e 00 0d 16 bf 0a fa 0f bf
       0.0737795 0.42906755 -0.58613586 -0.56240904
000340 c4 79 1f c0 10 63 b9 be 16 46 44 3c 23 d6 8c bf
       -2.491807 -0.3620839 0.0119796 -1.1002849
000350 a1 b7 51 bf 05 7b 01 3f c7 1c 11 bf 40 b3 35 3f
       -0.8192082 0.5057834 -0.56684536 0.7097664
000360 b4 a9 a9 3f 58 58 92 be 9a 16 9e 3f 36 9b 03 3f
       1.3254914 -0.28583026 1.2350647 0.5140871
000370 07 31 ab be 31 35 e7 3f 0f d7 97 3f 88 04 3c 3e
       -0.33435842 1.8063108 1.1862506 0.18361104
000380 66 80 11 3e ac 60 67 3e aa ca 27 3f d3 4e c3 be
       0.14209136 0.22595471 0.65543616 -0.38146076
000390 06 a5 01 be bb a2 58 3f 58 b0 be 3d f2 69 8f 3f
       -0.12660608 0.84623307 0.09310979 1.1204207
0003a0 9e 16 3d 3e 4a 12 5f bf 2f ae e0 3d 83 24 3c bd
       0.18465659 -0.8713728 0.10970723 -0.045933258
0003b0 ef 35 bb be 71 7a 46 3e 26 3d d6 be 7a 5b 9b 3e
       -0.36564586 0.19382645 -0.41843528 0.3034323
0003c0 05 95 93 3f 69 d5 ae 3f ae 11 0a 40 aa a2 89 3f
       1.1529852 1.3658878 2.157329 1.0752766
0003d0 f0 48 b2 3c f4 f0 1d bf fd 97 1d 3f 0a 22 95 3f
       0.021763295 -0.6169579 0.6156004 1.1651013
0003e0 dd 97 ea 3d 5e ef 0b bf 66 35 46 3f f5 88 77 bf
       0.11454747 -0.5466212 0.7742523 -0.96693355
0003f0 44 5f 96 bf 89 f8 2e 3f dc 7b a2 3f 94 0b b7 be
       -1.1747823 0.68347985 1.2694049 -0.3575102

Encoder.encoder_lstm.bias_ih_l0 f4 [128]
000000 59 b5 f1 bd ba 0f 28 bf 8e 97 f0 be 32 d8 8e 3e
       -0.118021674 -0.65648997 -0.46990627 0.2789932
000010 a6 0f e1 bd fc e9 fc bd 63 43 05 bf 10 6a 1c be
       -0.10989313 -0.123493165 -0.5205595 -0.15274835
000020 da 6f d9 bd f7 c3 62 3e 98 0a 98 3f 6b 19 93 be
       -0.10617037 0.22145067 1.1878233 -0.2873033
000030 26 db 0b bf 7b d1 aa be 11 73 9f bf ca b4 a3 3e
       -0.5463127 -0.33362946 -1.245699 0.3197387
000040 7b 6c 02 bc 7c 19 09 bf ad 5a dc bd 03 eb 31 3d
       -0.007960434 -0.5355451 -0.107594825 0.043437015
000050 a1 2a 78 3c b9 f2 60 bf 6e a6 1d bf 7f 50 d0 3e
       0.015146882 -0.87870365 -0.61582077 0.40686414
000060 1b 89 a5 3e 28 f7 0b bf d9 54 bd bd a9 02 05 bf
       0.32331166 -0.54674006 -0.09244699 -0.51957184
000070 02 ea b7 bf 14 13 d2 3e 8d 4b f1 bf 87 52 b8 bf
       -1.4368289 0.4103018 -1.8851181 -1.4400185
000080 a2 da bc bd 25 ef aa be 7c cf a4 bf a0 93 52 3f
       -0.092213884 -0.33385578 -1.2875819 0.8225651
000090 19 df b6 be 66 ea 80 be f6 1b 1c bf b4 0e 1c be
       -0.35717085 -0.25178832 -0.60980165 -0.15239984
0000a0 13 88 5f be 3c f8 23 3f 59 fe 18 3e 34 32 0a bc
       -0.21829252 0.6405065 0.14940776 -0.008434821
0000b0 09 89 8e be 65 01 cd bf ac 4e 7c bf 68 12 f9 3b
       -0.27838925 -1.601605 -0.98557544 0.007601071
0000c0 be 45 1c 3e 7c f2 20 bf bb 4b 49 3e 43 fd 25 3e
       0.1526098 -0.6287 0.19657795 0.16209893
0000d0 81 e9 25 bf af 72 60 bf bc c4 5e 3e f8 00 10 3f
       -0.64809424 -0.87674993 0.21754736 0.5625148
0000e0 64 7d 35 be a7 14 8a bf 4c be 8b be 26 ee 8e bc
       -0.17723614 -1.0787553 -0.27293622 -0.017447542
0000f0 d5 3c 86 be e9 95 84 3d 19 b1 86 bf 42 14 0b bf
       -0.26218286 0.064739056 -1.0522796 -0.54327786
000100 1c b7 56 3e ef 0f dd 3e 46 cf b3 3d 4d f8 84 3b
       0.20968288 0.4317622 0.08779769 0.00405792
000110 5f 0d 98 3d e7 9e 9e 3e 80 a4 9d bd 5a 6f 94 3e
       0.07424425 0.30980608 -0.076973915 0.28991205
000120 40 c8 c4 3d a6 e2 c6 3c ec d1 01 be f4 ce b8 bd
       0.09608507 0.024277996 -0.12677735 -0.09023848
000130 66 61 33 3e a7 7c e2 be 3f 17 8c 3e 67 c8 42 ba
       0.17517623 -0.44235727 0.27361485 -0.0007430375
000140 eb 42 cf 3d a8 6f 0c bd 40 01 ca 3d 75 45 4b be
       0.101201855 -0.03428617 0.0986352 -0.19850715
000150 59 34 8e bd 9f 97 b4 bd 48 c0 4f 3e 77 f7 80 be
       -0.06943578 -0.08817982 0.20288193 -0.251888
000160 e9 b5 c7 3d e2 b5 81 3e ce cd e8 be 99 70 0d bf
       0.097514935 0.25334078 -0.45469517 -0.55249935
000170 26 74 fb be d3 86 40 3e 79 eb ef be 95 9d 92 3e
       -0.49112052 0.18801431 -0.4685934 0.2863585
000180 b1 dc dd be 98 24 bd 3e 3f b2 22 bf fb 6c ed be
       -0.43332437 0.3694198 -0.6355323 -0.46372208
000190 9b dc f4 be 0a cf 5d be 0a 5c 0e bf 96 19 c6 3c
       -0.4782456 -0.2166101 -0.5560919 0.024182122
0001a0 fd d7 a9 bd 06 04 85 3e d4 36 19 3f b0 1f a9 3e
       -0.082931496 0.25979632 0.59849286 0.33031988
0001b0 cc a0 df be 9f d5 2c 3e fa 17 b3 bf 95 c1 79 be
       -0.43677366 0.16878365 -1.3991692 -0.24390252
0001c0 98 c0 99 be c1 2a 79 bf d6 54 f0 be 53 bc 9b be
       -0.3002975 -0.9733086 -0.46939725 -0.30417117
0001d0 4f 8a 43 be 08 7b 69 bf e3 f3 54 bc 4a f4 8b be
       -0.1909573 -0.91203356 -0.0129976 -0.27334815
0001e0 25 a8 24 bf 69 7f d5 be 6c 98 92 be 4d 39 2f bf
       -0.6431907 -0.4169877 -0.28631914 -0.6844681
0001f0 38 9a bf bf 5f b8 65 bf 06 c6 d6 bf 39 ba 33 bf
       -1.4968939 -0.8973445 -1.6779182 -0.7020603

Encoder.encoder_lstm.bias_hh_l0 f4 [128]
000000 06 26 80 be 4b 70 20 bf 67 5a 1b bf fd 55 03 3e
       -0.2502901 -0.62671345 -0.6068482 0.1282577
000010 6a eb 8b be 20 2a 40 be 11 f8 25 bf d5 d4 f4 be
       -0.27328044 -0.1876607 -0.64831644 -0.47818628
000020 c2 6a 7a 3c c9 f2 01 3f 33 04 9b 3f 4a ef 6c be
       0.015284242 0.50761086 1.2110656 -0.23138157
000030 07 2d ff be 9b f4 10 bf dc e6 98 bf 44 56 4b 3e
       -0.4983904 -0.5662324 -1.1945453 0.19857126
000040 92 78 2c be f6 3c ad be 24 c1 44 3e 42 07 21 3e
       -0.16842869 -0.33835572 0.19214302 0.15725425
000050 85 a5 49 be 3d 7a 62 bf 48 0a 30 bf 95 4f 14 3e
       -0.19692047 -0.8846777 -0.6876569 0.14483483
000060 2b 95 5a 3e f3 6d ca be 26 98 8a be e8 7b c3 be
       0.21345966 -0.3953701 -0.27069205 -0.3818047
000070 39 26 d1 bf 09 be d2 3d 02 bb f7 bf 81 23 b2 bf
       -1.633979 0.102901526 -1.9353945 -1.3917085
000080 ab 43 c8 bd e3 2e d0 be 00 e1 a7 bf 26 8a 33 3f
       -0.09778532 -0.40660772 -1.311554 0.7013267
000090 9c fc fd be 05 03 3c be dd fe f1 be f0 d3 86 bd
       -0.49606788 -0.18360527 -0.47264758 -0.065833926
0000a0 3e 25 91 bd 3a ee 45 3f 88 c6 81 3e b3 3b a8 bc
       -0.070871815 0.7731663 0.2534678 -0.02053628
0000b0 90 27 7a be 70 b5 bc bf be 45 62 bf b2 76 55 3e
       -0.24429154 -1.474287 -0.8838767 0.2084606
0000c0 cd 9e 31 3e 29 5c 1b bf 80 52 bc 3d 45 9a df 3d
       0.17345734 -0.606875 0.09195423 0.109180965
0000d0 51 a1 c9 be 95 31 3d bf f1 d6 4e 3e 79 bf 01 3f
       -0.39380887 -0.7390378 0.20199181 0.5068279
0000e0 10 17 0e be 3b b9 75 bf 23 83 a8 be 65 ca 38 be
       -0.13875985 -0.95985764 -0.3291255 -0.18045957
0000f0 bd 58 f9 be 76 e5 68 bc 0c c7 a2 bf 0e 68 f0 be
       -0.48700514 -0.014214864 -1.2716994 -0.46954387
000100 6c b7 6c 3e 2a 70 0b 3f 81 b5 0b 3d 72 24 55 bd
       0.23116845 0.54468024 0.034108642 -0.05203671
000110 ec 73 03 bd 09 89 06 3f a4 c1 37 3d be 1a 07 3f
       -0.032092974 0.5255285 0.044862404 0.5277518
000120 d7 64 c2 bc 09 93 81 3e 27 e5 44 bd 9b bf 88 3d
       -0.023729725 0.2530749 -0.0480701 0.06677171
000130 7c ed a6 3e c8 ae f0 be f5 bf c5 3e 3d d4 38 be
       0.3260306 -0.47008348 0.38623014 -0.18049712
000140 b7 1f f0 bd 34 93 6d be 33 67 89 3e f2 06 1c be
       -0.11724799 -0.23200685 0.26836547 -0.15237024
000150 f7 e2 49 be 8c 1a a8 3c bc 6e 3f 3d 73 dc 15 be
       -0.19715486 0.020520471 0.046736464 -0.14634876
000160 9c ef 67 be cd b4 90 3e aa 41 09 bf 39 e0 13 bf
       -0.22649997 0.2826294 -0.5361582 -0.5776401
000170 31 f0 10 bf 7a fc 27 3e 73 05 03 bf 1f 72 9c 3e
       -0.56616503 0.16404906 -0.5118019 0.30555817
000180 a8 79 94 be 2a bc 4d 3e 3f e2 24 bf e7 6f ba be
       -0.28999066 0.2009131 -0.64407724 -0.364135
000190 8a 58 02 bf 38 09 c3 bd 8e fb f0 be 6b df 48 3b
       -0.5091635 -0.09523243 -0.4706692 0.0030650746
0001a0 3b 6d b0 bd 3b 6f a4 3e e8 03 f7 3e 18 29 fd 3d
       -0.08614584 0.32116112 0.48245168 0.12361354
0001b0 a2 19 d9 be 94 c4 cc 3e d6 93 ac bf 98 cd 2e 3c
       -0.4240237 0.39993727 -1.3482616 0.010669135
0001c0 37 2c 7f be dd 1f 8a bf b6 e4 f7 be c9 43 4e be
       -0.2491921 -1.0790974 -0.4841668 -0.20143045
0001d0 f5 7b d4 bd a8 ca 7c bf db 9b d5 bd 06 6b 0c be
       -0.103752054 -0.9874673 -0.10430118 -0.13712701
0001e0 a4 98 02 bf 61 3e 29 be 05 62 53 bc f2 51 61 bf
       -0.5101416 -0.16527702 -0.012901788 -0.88015664
0001f0 64 ac b2 bf 76 54 38 bf 01 58 db bf 13 c9 19 bf
       -1.395886 -0.7200388 -1.7136232 -0.6007244

Encoder.wq.weight f4 [20, 20]
000000 48 5b e3 be a9 1b 5f bf 79 a0 69 be d0 cf ba be
       -0.4440558 -0.8715158 -0.22815122 -0.36486673
000010 2c f5 56 bf c2 cb 8f 3d 1f 98 38 3e 87 2b 5f 3e
       -0.8396785 0.070212856 0.1802678 0.21793948
000020 80 70 8b be 9a e3 0a 3f 4e 4b eb 3d 06 9f 68 bf
       -0.27234268 0.5425354 0.114889726 -0.9086765
000030 1b b8 1c bf a2 e8 9d 3e 89 9f 1d 3b e8 f7 c8 3e
       -0.6121842 0.30841547 0.002405139 0.39251637
000040 92 af b2 3f 95 85 3e 3e 14 3f de 3e 05 c2 9b 3c
       1.395983 0.18605645 0.434075 0.019013414
000050 d1 0d a6 3e 25 a4 8a 3f 7e 16 be 3f 0b 51 b3 bf
       0.32432416 1.0831343 1.4850614 -1.4009107
000060 ef fb 22 be 6c 33 10 3f 1e d9 2b 3f b8 24 22 be
       -0.15916418 0.56328464 0.6712817 -0.1583432
000070 52 05 af bd 17 87 d8 be 4a 98 8b be 93 25 03 bf
       -0.08545937 -0.42290565 -0.27264625 -0.5122921
000080 0c 54 14 bf 7e 4c 53 bf 8a 05 b7 be b6 15 6a 3f
       -0.57940745 -0.8253859 -0.35746413 0.9143938
000090 65 d1 4d be 0f 5e 91 be 44 bc 80 be 28 87 c8 3e
       -0.20099409 -0.28392074 -0.25143635 0.39165616
0000a0 46 0b 8f 3e 2a aa 07 3f 22 38 e1 bc 56 52 d6 be
       0.27938288 0.52994025 -0.027492587 -0.41859692
0000b0 a3 dc 60 bf 76 36 7d bf 6a a8 a0 3e 8f a5 b6 bf
       -0.87836665 -0.98911226 0.3137849 -1.4269274
0000c0 ed ef 24 bf 6f b1 90 be a1 4e 89 3f cf 39 15 3e
       -0.644286 -0.2826037 1.0727121 0.14572833
0000d0 87 b1 5b be fe 73 08 bd 27 b3 94 3f a8 8d 3b 3d
       -0.2145444 -0.033313744 1.1617173 0.04578939
0000e0 29 5e 2b bf 21 77 bf 3f 11 ef f4 be 85 de 8a 3f
       -0.6694055 1.495823 -0.47838643 1.0849158
0000f0 61 96 84 3f b5 0f 84 3d 20 0d 0e bf 00 44 0f 3e
       1.0358392 0.064483084 -0.5548878 0.13990784
000100 4b b2 a1 bf 82 b0 c8 3f 2c 04 00 bf bc 31 5c bf
       -1.2632536 1.5678866 -0.50006366 -0.8601339
000110 dd 6e 5c bf 0e e0 03 3e 86 c3 b1 3f 77 c0 cf 3e
       -0.86106664 0.12878439 1.3887794 0.40576527
000120 23 71 6a 3f 75 ea ad 3f ea cd 8e 3e 58 4c 56 3e
       0.9157888 1.3587176 0.27891475 0.2092756
000130 e1 94 99 3f 0c 2a d9 bd 42 d2 d0 be 6a b7 a6 bf
       1.1998559 -0.10603723 -0.40785414 -1.3024724
000140 b8 60 dc 3e 3c 6d d2 be 45 9d 39 3e 8b ee 12 3f
       0.4304254 -0.41098964 0.181264 0.5739524
000150 cf 9a 0b be 00 f1 bb bf 97 01 17 3f 1a c6 4a 3f
       -0.13633274 -1.4682922 0.589868 0.7920853
000160 81 c8 60 bf 3b 6b 88 3f 13 60 de 3d 0d 42 83 be
       -0.87805945 1.0657724 0.108581685 -0.2563633
000170 81 a1 92 bf dc 74 cf bd d9 7d 31 bd c8 00 1e 3e
       -1.1455537 -0.10129711 -0.04333291 0.15429986
000180 fa 46 63 be 2e d1 e6 be 1a a6 1b 40 13 16 9b bf
       -0.22195044 -0.45081466 2.432013 -1.2116112
000190 4c 8f 59 bd 48 68 8a 3f c5 ce da be 16 24 85 3e
       -0.053115174 1.0813074 -0.42735878 0.26004094
0001a0 43 18 a9 bd 36 d9 32 bf 98 21 a0 bf 73 ec 47 3e
       -0.08256581 -0.6986269 -1.2510252 0.19523792
0001b0 90 b7 d5 3e 9e 18 ae 3e f7 e3 8f be 88 57 c6 3e
       0.4174161 0.34003156 -0.2810361 0.38738656
0001c0 94 53 d1 be ad b8 82 bf 08 1c e1 3f 6d 93 96 bb
       -0.40884078 -1.0212609 1.758668 -0.0045952112
0001d0 cf 71 39 3f 10 7b 74 3f 1e 0e 06 be 52 aa 3b bc
       0.72439283 0.9550028 -0.13091323 -0.011454182
0001e0 af 1f 30 3e 7b b4 2f bd bb fe cf bc 77 78 82 3f
       0.17199586 -0.04289673 -0.02539002 1.0193013
0001f0 f3 bd db be 16 d5 46 3f 8c 24 6f 3e 00 a2 0f c0
       -0.42918357 0.77668893 0.23353785 -2.2442627
000200 c6 a3 95 bf a9 57 11 40 df 72 22 3f 42 b4 71 be
       -1.1690605 2.2709754 0.6345653 -0.23603919
000210 3c c4 4b be 2c 0c d5 be 52 65 53 bf 50 ff 3d bf
       -0.19899076 -0.4161085 -0.8257648 -0.742177
000220 b1 c6 ec 3f 53 23 db bd e6 c2 f3 be 94 0c 56 3e
       1.8498136 -0.10700097 -0.47609633 0.20903236
000230 9d 8f 2b 3f 13 2d 38 bf 20 51 82 be 16 13 dc 3f
       0.6701601 -0.7194378 -0.25452518 1.7193325
000240 ab 46 3c 3f 46 ee ad 3f 0a 35 23 bf d7 ab 39 3f
       0.7354533 1.358834 -0.63752806 0.7252783
000250 42 72 81 bf a0 79 39 bf 59 d1 91 be 1c 08 4d bf
       -1.0112994 -0.7245121 -0.28480032 -0.800905
000260 eb a9 35 bf 2a 69 cb bc 40 11 18 bf 71 48 98 be
       -0.709624 -0.02483042 -0.5940132 -0.29742768
000270 43 c9 03 40 09 4e 06 bf e7 fa 92 bd 7b ca f1 3e
       2.059159 -0.5246282 -0.07176762 0.47224793
000280 b0 49 16 3f 2c 48 bb bf c9 6a a9 be e0 6f cb be
       0.5870619 -1.46314 -0.33089283 -0.3973379
000290 f8 2a 13 bf fb 57 e1 3f 71 62 30 3f 6f 5a ad bf
       -0.5748744 1.7604975 0.6890021 -1.3543223
0002a0 b7 db 45 3e 3a 10 0f 3f a7 f5 ca 3f c8 44 c8 be
       0.19322096 0.55884135 1.5856217 -0.39114976
0002b0 24 52 b0 be e6 1d 13 bf f4 be 6e 3f ec 88 92 3d
       -0.34437668 -0.57467496 0.9326012 0.07155022
0002c0 b6 a1 d9 be 5a d5 5e be 4e 82 ff 3e cf bd 2e bf
       -0.42506188 -0.21761075 0.49904102 -0.68258375
0002d0 eb 93 2d 3f 3e d0 34 bf 5d 83 8f bf c0 b8 65 3e
       0.6780383 -0.7063025 -1.1211964 0.22433758
0002e0 74 17 79 be 72 0b ca 3f a6 e9 2e 3e 86 fd 70 bf
       -0.24325353 1.5784743 0.17081317 -0.94136846
0002f0 57 b9 2f 3f e2 94 89 bf 52 fe 9a 3f 1a 2b 03 bf
       0.6864218 -1.074856 1.2108862 -0.5123764
000300 e6 a5 08 3f 3b 6d d5 3e 99 01 be bf 72 53 0f 3e
       0.5337814 0.416849 -1.4844238 0.13996676
000310 f2 03 04 bf 80 a8 47 3f 20 51 83 3f 28 92 26 bf
       -0.5156852 0.77991486 1.0259132 -0.65066767
000320 37 cf 3d be 27 ff 20 3f b6 78 80 3e 37 38 b1 3f
       -0.18536077 0.6288933 0.25092095 1.384528
000330 ef 07 83 3f f9 2c 76 bf e7 11 67 bd 6f 5b ae bf
       1.0236796 -0.9616237 -0.056413557 -1.3621653
000340 0c 6d 4d bf 42 8a 9e be c8 3a 01 3e dc 73 e1 3e
       -0.8024452 -0.30964857 0.1262008 0.44033706
000350 aa 4a 20 3e 6e 3e 3f 3f 49 07 0c be 26 f6 b2 be
       0.15653482 0.74704635 -0.13674654 -0.3495342
000360 9d e9 32 bf eb 13 12 3f 3e fd 8e be 1a e9 10 be
       -0.69887716 0.5706164 -0.27927583 -0.14151421
000370 cc 6c 16 3f 40 32 38 3f 7a 36 ca bd cb f5 2f 3b
       0.5875976 0.71951675 -0.09873672 0.0026849385
000380 4b 1f b1 bf b6 47 94 be 06 50 be 3f 4c f6 79 bf
       -1.3837675 -0.2896096 1.4868171 -0.97641444
000390 2b c4 d3 3f c8 5d a2 be 02 82 e6 3e c5 c5 4f bf
       1.6544241 -0.31712174 0.45021063 -0.8116115
0003a0 b8 c8 df 3e 2b 64 17 3e 27 eb c4 3e 8d 30 0c c0
       0.43707824 0.14784305 0.38460657 -2.1904633
0003b0 68 75 8c 3e 6e 33 70 3f 24 36 1c 3d be 5c 28 bf
       0.27433324 0.93828475 0.03813757 -0.65766513
0003c0 8c de 6b 3e 5d 36 8f 3e 0b 41 93 bf 83 00 bb be
       0.23034114 0.27971163 -1.1504225 -0.36523828
0003d0 7c f7 3d bf 5c 16 1e 3d ad fa 0a 3f 2a 21 26 3e
       -0.74205756 0.038595542 0.5428875 0.16223589
0003e0 17 19 6b 3f f0 df c1 bf 6d 91 e7 bd 1e 68 ef 3e
       0.9183516 -1.5146465 -0.11307035 0.46759123
0003f0 04 db cb 3f 5f d8 95 bd a8 54 bd bf de 84 17 bf
       1.5926213 -0.0731666 -1.479146 -0.59187114

Encoder.wk.weight f4 [20, 20]
000000 0e 62 59 bf 02 b4 93 bf 3b fa 8c bd f9 28 2e bf
       -0.84915245 -1.1539309 -0.06883665 -0.6803127
000010 7d 99 e5 be ab 95 9e bd 0b 93 39 be fb 8e f4 3e
       -0.44843665 -0.07743391 -0.18122499 0.47765335
000020 d3 f4 87 be 7e bd fa 3e 88 ed 80 be 08 fc 42 bf
       -0.26553974 0.48972696 -0.25181222 -0.7616582
000030 75 2d 3a bf d0 4e 09 3f 9a 2a 0f 3f 61 cd 90 3f
       -0.7272561 0.53635883 0.5592438 1.1312677
000040 9e 5a 70 3f c2 a4 16 3f f9 8c 0b 3f 10 b1 4a 3f
       0.9388827 0.5884515 0.5451198 0.79176426
000050 d2 d9 b7 3f 32 b3 dd 3f 1b 40 7c 3f 74 17 25 bf
       1.4363348 1.7320311 0.9853532 -0.6448891
000060 53 95 22 3f 74 9b fb 3e 32 2d 00 3e 01 e3 3e be
       0.635091 0.4914204 0.1251724 -0.18641283
000070 6a 94 71 be 88 58 f5 be 38 d8 62 3e 9d cd 7f bf
       -0.23591772 -0.47919106 0.22152793 -0.99923116
000080 e0 32 c2 be d2 0f 00 bf 38 50 fc 3d 17 88 bf 3e
       -0.3792944 -0.5002414 0.12319988 0.37408516
000090 64 1f 4a bf 23 a7 67 bd 6c f5 59 be 0f 03 0c bf
       -0.7895415 -0.05655588 -0.21285027 -0.5469217
0000a0 68 6b cf 3e 38 e8 7a bc c1 f2 31 be 19 b3 4c bf
       0.40511632 -0.015314154 -0.1737776 -0.7996078
0000b0 b9 2d 9c bf 0d aa c3 bf a4 77 48 be 87 7f b9 bf
       -1.2201453 -1.528627 -0.1957689 -1.4492043
0000c0 ce 13 bc be 22 7b a4 be f5 1a 4f 3f b7 d5 36 3e
       -0.3673386 -0.32125193 0.8090051 0.17854963
0000d0 60 22 10 3e d4 dc 22 3f c4 2c 88 3f 32 c9 91 3e
       0.14075613 0.63618207 1.0638661 0.28473812
0000e0 d0 03 ac 3e 79 7a b3 3f 5c c4 a6 bd 46 06 88 3f
       0.3359666 1.4021751 -0.08142921 1.0626915
0000f0 9e f1 ea 3e b2 f1 72 bf 77 1b 58 be f1 22 6f be
       0.45887464 -0.9490005 -0.21104227 -0.23353173
000100 c7 5e 90 bf 18 31 7f 3e bb 75 1e bf 17 7a 98 bd
       -1.1278924 0.24921072 -0.6189839 -0.07445162
000110 01 1a bf be 8e f8 04 3f da bb 90 3f f5 b9 23 3f
       -0.37324527 0.51941764 1.1307328 0.6395562
000120 ce aa c8 3f 82 51 b9 3f 75 b7 2a be f8 2f 30 bb
       1.5677125 1.4477999 -0.16671546 -0.002688406
000130 28 8a ca 3f 1f 21 cb be 63 f0 07 bf a1 fe 97 bf
       1.5823412 -0.39673707 -0.53101176 -1.1874582
000140 03 0c 9b 3d 16 32 37 bf 85 81 ec 3e 4e bd 6a 3f
       0.075706504 -0.715608 0.46192566 0.91695106
000150 b0 c7 33 3c da 3b eb bf ac e6 d8 3e 79 34 5e 3f
       0.010972902 -1.837764 0.4236349 0.86798817
000160 23 99 96 bf e8 0d b1 3f 9c 32 c0 be 5d b7 03 bf
       -1.1765484 1.3832369 -0.37538612 -0.51451665
000170 ae 90 b0 bf c1 c7 75 be 11 3f 20 bf d4 89 18 3f
       -1.3794153 -0.24001981 -0.6259623 0.5958531
000180 18 98 6b bf 9e d5 d3 3e 1e 20 18 40 55 fa 98 bf
       -0.9202895 0.41373914 2.3769603 -1.1951395
000190 3b 1c 02 bd 5c cf 31 3f 82 67 30 bf a1 3a 2b be
       -0.031765204 0.6945703 -0.6890794 -0.16721584
0001a0 38 18 81 bf 0a ad 9b bf 95 eb c0 bf d7 39 d9 3c
       -1.0085516 -1.2162182 -1.5071894 0.026516838
0001b0 b8 50 6d 3e be fe 8b bc c5 65 95 be 4b 37 57 be
       0.23175323 -0.017089244 -0.29179206 -0.21017186
0001c0 bf 3e d0 3d c9 e1 0e 3e 12 88 af 3f d0 0e 6b 3d
       0.10168218 0.13953318 1.37134 0.057387173
0001d0 e5 c7 42 3f 66 18 45 3f 40 bf ed 3e 74 af 09 3f
       0.76086265 0.76990354 0.46434975 0.53783345
0001e0 47 58 54 3f be 7f c3 3d 77 56 12 3f c0 ca be 3f
       0.829472 0.09545849 0.57163185 1.4905624
0001f0 fb 7e 02 bf a1 9c b0 3e f2 88 2c bf 2d 5a ba bf
       -0.50975007 0.34494498 -0.6739646 -1.455877
000200 32 0e 7a bf 82 25 d3 3f 7a d6 84 3f 77 1f 4f bf
       -0.9767791 1.6495821 1.0377953 -0.80907387
000210 76 10 8b bf 34 e6 b2 be ab 3f ef be 5d f7 61 3e
       -1.0864398 -0.34941256 -0.46728262 0.22067018
000220 2f 78 da 3f b1 55 26 bf d6 76 09 bf eb 77 04 3e
       1.7067927 -0.64974505 -0.53696954 0.1293637
000230 6e ce 66 3f 31 9d c9 be 08 f9 88 3e 26 5e a5 3f
       0.90158737 -0.3937774 0.26752496 1.2919357
000240 b7 f8 37 3f d4 f2 a9 3f 46 2a 0a bf 0e ef 18 3f
       0.71863884 1.327723 -0.53970754 0.5973977
000250 39 af d6 bf ff 71 94 bf 1e 63 87 bf 26 0f 5c bf
       -1.6772224 -1.1597289 -1.0577123 -0.85960615
000260 1e 07 40 bf f9 41 c4 be fd f2 93 bc 02 cd b5 bd
       -0.7501086 -0.38331583 -0.018060202 -0.08876993
000270 19 5f 65 3f f0 3a 8b be d1 8e 8f 3d 8f 1d d1 3e
       0.8959823 -0.27193403 0.07009662 0.40842864
000280 a7 41 2a 3d 16 80 04 c0 d9 c7 94 be 1e 7a 0e be
       0.041566517 -2.0703177 -0.29058722 -0.13913772
000290 1b 8d 80 be 76 00 90 3f 30 a4 a7 3e c0 19 84 be
       -0.25107655 1.1250141 0.32742453 -0.25800896
0002a0 67 bb 5f 3f a1 34 6d 3f a1 70 e4 3f b7 86 1b bd
       0.8739533 0.9265843 1.7846872 -0.03797027
0002b0 98 49 b4 be 9e a2 ca 3e 12 5a 51 3f ed 5c 07 3e
       -0.35212398 0.39577192 0.8177806 0.13219042
0002c0 bc a3 06 be 04 25 1d bf dc f4 ce bb 56 08 3d bf
       -0.13148397 -0.61384606 -0.0063158106 -0.73840845
0002d0 52 5f 90 3c f2 6f ea bf 62 be 90 bf 30 e0 5f 3e
       0.017623577 -1.8315413 -1.13081 0.21862864
0002e0 44 c1 e9 bc 5e 92 bf 3f 78 68 10 3f 1c 6d e5 be
       -0.028534539 1.4966543 0.56409407 -0.44809806
0002f0 65 99 d5 3d 3e f8 5c bf 85 0b a0 3f a6 ee 1d bd
       0.10429648 -0.8631629 1.2503515 -0.03855767
000300 22 18 45 3e 79 7a e1 be 5e 8e 83 bf 6b e5 2f 3f
       0.19247487 -0.44038752 -1.0277822 0.6870944
000310 88 a2 ef 3e a4 24 4c 3f 2b fb e7 3e dc b8 7c be
       0.4680369 0.7974341 0.45308813 -0.24679893
000320 bd d9 87 3e 88 5a 41 3f 3b 9e 4d 3e db d3 ce 3f
       0.2653331 0.75528765 0.20079891 1.6158403
000330 cb a6 3a 3f 79 0a 4e bf f7 cf 76 bc dc be e1 bf
       0.72910756 -0.8048473 -0.015064231 -1.7636371
000340 5e 67 4f bf 9c 84 d7 be c0 87 25 bd 21 5c 19 3f
       -0.810171 -0.4209336 -0.040412664 0.599062
000350 df 48 24 3f 99 a8 a4 3e 15 3e 1c 3c 61 62 14 bf
       0.6417369 0.3215988 0.009536286 -0.57962614
000360 3e ed 89 3e 2f 1e 99 3e b6 8a c7 be 94 0d c2 be
       0.26938814 0.2990584 -0.38973016 -0.37900984
000370 3d 89 2b 3f 64 33 fb 3e 6a 21 4c 3d cf cc d9 3e
       0.67006284 0.49062645 0.049836554 0.4253907
000380 4b 16 b5 bf 76 3f b3 be 82 ca d0 3f 29 24 aa 3e
       -1.4147428 -0.35009354 1.63118 0.33230713
000390 7f c9 df 3f 36 5a 7b be c7 33 4b 3f 88 bd f0 be
       1.7483367 -0.24546131 0.7937588 -0.470196
0003a0 3d a7 58 bf 7a 7b 1e bf ad d4 12 bf 98 59 6f bf
       -0.84630185 -0.6190716 -0.5735577 -0.93496084
0003b0 da e3 5f 3f 44 14 2d 3f ba ac fb be f3 fe 83 bf
       0.8745705 0.6760905 -0.49155217 -1.0312179
0003c0 16 d5 79 bd 51 ae 84 bc 61 57 2f bf 44 a0 ae bf
       -0.06099423 -0.016196402 -0.68492705 -1.3642659
0003d0 00 2c 91 bf 8e eb 87 3e 89 f1 5f 3f 96 84 47 3e
       -1.1341553 0.265469 0.8747793 0.19484171
0003e0 3d 32 9c 3e dc e0 de bf de 86 10 bb 1b ed 9f 3e
       0.3050708 -1.7412372 -0.0022053043 0.31235585
0003f0 fe c5 fd 3e 3c 76 5a bf 4f 6b a5 bf 6c a4 80 3e
       0.4956512 -0.8533666 -1.2923373 0.25125444

Encoder.wv.weight f4 [20, 20]
000000 2f 2a e6 bd 15 86 d3 bd 71 92 af 3e 26 6e bd 3e
       -0.11238515 -0.103283085 0.34291413 0.369981
000010 48 53 48 3c f8 68 04 bf 6e 25 33 be 31 3e b9 3e
       0.012226887 -0.5172267 -0.17494747 0.3618026
000020 f4 79 d1 bc 07 20 3a be e8 68 26 3e 8f a9 ef be
       -0.025570847 -0.1817628 0.16250956 -0.4680905
000030 10 25 aa 3b 56 cb 3e 3e 68 05 de be 4d 32 91 be
       0.0051924065 0.18632254 -0.433635 -0.2835869
000040 de 18 2a be 5a 21 f5 bc ae 03 b4 3f c4 d4 00 bf
       -0.16611049 -0.02992313 1.4063623 -0.50324655
000050 45 47 94 be e0 10 ca 3d b8 86 a4 3e ff 16 8a be
       -0.28960624 0.098665 0.32134032 -0.2697067
000060 14 0e 11 bf 30 19 05 3e 25 c9 e9 3e db 24 17 3f
       -0.56662107 0.1299789 0.45661274 0.5904061
000070 17 3a e8 be 39 ca ae be 0d 51 29 be 22 b4 46 bd
       -0.4535682 -0.3413866 -0.16534825 -0.04851163
000080 7d 29 46 bc 19 9f 54 be 55 b9 dd 3d d9 91 5e 3a
       -0.0120948525 -0.20763816 0.10826365 0.0008490361
000090 2c af 73 3d 34 d7 67 be 07 97 a0 3f 2e de db bf
       0.05949323 -0.22640687 1.254609 -1.7177179
0000a0 6e 87 a5 be 06 f7 b8 3e d6 b7 c6 3e 05 6c 82 be
       -0.32329887 0.36125964 0.3881213 -0.25473037
0000b0 bb 16 9b be 42 ac ac 3d 30 fc 94 be d6 61 ad be
       -0.3029078 0.08431293 -0.29098654 -0.33863705
0000c0 76 95 2a 3f 77 33 f3 3e 25 c8 34 3e c0 95 bd 3e
       0.6663431 0.47500202 0.17654474 0.37028313
0000d0 0a 92 b4 be 5f 1e 0c 3f 1a 95 57 be 43 b2 4a bf
       -0.3526767 0.5473384 -0.21052971 -0.79178256
0000e0 c3 f3 21 bf 36 32 82 bf 85 0a 71 3f eb 06 a7 be
       -0.63262576 -1.0171573 0.94156677 -0.32622465
0000f0 b3 89 04 bd 69 ad 06 3f f9 6e ae be ce fc d7 3d
       -0.032357883 0.5260835 -0.3406904 0.105462655
000100 67 1d b6 3e 52 7b d8 3e 22 89 f2 bd 8d fb 0b bf
       0.35569307 0.42281586 -0.11842562 -0.5468071
000110 8e 52 28 bd 03 2a 86 be 97 a9 41 be 5f dd 46 3d
       -0.041094355 -0.26203927 -0.1891235 0.04855096
000120 88 b0 b8 3e d2 60 48 be 78 7e 04 bf 76 5d 83 be
       0.36072183 -0.19568184 -0.51755476 -0.25657243
000130 1a bf 99 bc 5f 26 a0 be 24 4b 88 3f 3e 6d d8 be
       -0.018767882 -0.31279275 1.0647931 -0.42270845
000140 16 ed f7 3d 96 88 02 bf 89 4d 88 3e 8b c2 24 bf
       0.121057674 -0.50989664 0.26621655 -0.6435935
000150 74 d8 d5 be 30 24 3e 3f 38 a7 5f 3f 19 09 97 3e
       -0.41766703 0.7427397 0.8736453 0.29499128
000160 9f 63 7b bf dd bb 14 bd 36 f6 2a 3e 4b 84 67 3c
       -0.98198885 -0.036311973 0.16695485 0.014130662
000170 70 40 33 3f ee 6f 4b bf a9 de 31 3f 6e c4 cc bd
       0.700202 -0.79467666 0.6948038 -0.099984035
000180 6f 57 98 3e c5 1a 08 bf e8 e9 af 3f 8e 23 0b bf
       0.29754207 -0.5316585 1.3743258 -0.5435113
000190 33 94 51 3e bf c9 a1 be 27 0c 89 3e e3 ac 83 be
       0.2046669 -0.31599233 0.26767084 -0.2571784
0001a0 19 55 0d 3f f7 4d 52 bf 8e 24 52 be 65 ec 8f be
       0.55207974 -0.82150215 -0.20521757 -0.28110042
0001b0 8b 64 02 be 52 f3 b6 be c5 d7 ef be ee e9 aa 3e
       -0.12733667 -0.35732514 -0.46844307 0.333816
0001c0 91 ac 4a 3e 8a 7c 0d 3f e6 3f ce be 29 53 63 be
       0.19792391 0.55268157 -0.40283126 -0.22199692
0001d0 11 6e 83 3e aa ac 94 be 53 41 92 3f 6b c8 ad be
       0.25669912 -0.29037982 1.1426185 -0.3394197
0001e0 07 5a b1 3d 20 69 c3 3e 52 83 fc 3e c6 6c 04 be
       0.086597495 0.38166142 0.4931894 -0.12932119
0001f0 94 fb 6a bc 74 11 68 be 8e 57 17 bf 16 52 e6 3d
       -0.014342207 -0.22662908 -0.5911797 0.112461254
000200 2f e7 b4 3d 6b 53 cd 3d b5 f3 3f 3f 24 6e 39 bd
       0.08833157 0.10025676 0.7498124 -0.045271054
000210 81 95 f4 be 2e 02 70 3f 43 05 3b 3f b5 75 ca 3f
       -0.47770312 0.93753326 0.73054904 1.5817171
000220 f7 78 4c 3f e3 d6 a2 bf 7e 36 2a 3c 23 da e9 bf
       0.7987208 -1.2721828 0.0103889685 -1.8269695
000230 9e 51 8a 3e 7a 3a 84 be a8 bd a4 3e 3d 15 3e bf
       0.27015394 -0.25825864 0.32175946 -0.7425116
000240 a7 99 aa be e3 82 91 3e 0d fb 37 3e af 31 c3 be
       -0.33320352 0.2842017 0.17966862 -0.38123843
000250 5b 4b 80 3d e0 a0 cf 3e c5 0a 0f 3f d4 2b 34 3e
       0.06264373 0.40552425 0.5587581 0.17594844
000260 e0 df 8c bf aa 8a 18 3e c5 30 9f 3e 26 4e 0a be
       -1.1005821 0.14896646 0.31091896 -0.13506374
000270 30 44 5c 3e 00 64 6a 3d 8a 19 a8 3f 23 1f 8e bf
       0.21510386 0.057224274 1.3132794 -1.1103252
000280 74 bb 21 be 83 55 bd bd 40 c5 c2 3c a9 13 06 3e
       -0.15794164 -0.09244826 0.023775697 0.13093437
000290 8a fa ba 3d 44 d5 b5 3e 12 f6 1d 3f 53 c9 8d 3e
       0.09129818 0.3551427 0.617036 0.2769266
0002a0 fb 38 2e bf 74 5f 10 be 83 43 48 3e 2a fb f6 be
       -0.68055695 -0.14098912 0.19557004 -0.48238498
0002b0 02 1d 17 bf f1 21 fe 3e 1e b8 4e 3f ef e0 bd 3f
       -0.5902864 0.4963527 0.8074969 1.4834269
0002c0 20 15 35 3f 5a a8 c5 3e d8 81 18 3f 48 32 2c c0
       0.7073536 0.38605005 0.59573126 -2.690569
0002d0 65 ff 66 3e 8f a0 1a be f3 87 a3 3e d1 f1 4c 3f
       0.22558363 -0.1510031 0.3193966 0.8005648
0002e0 53 8b 29 bf cf a7 a8 3e cd 52 27 be 94 e0 88 3e
       -0.66228217 0.32940528 -0.1634018 0.2673384
0002f0 f1 87 17 bf 4c 4b a4 bc ce f4 50 bd e3 bb 54 3d
       -0.59191805 -0.020055436 -0.051014714 0.051936995
000300 3d db 3c be 72 77 ee 3e b5 50 23 be 6d c1 34 3e
       -0.18443008 0.46575505 -0.15948756 0.17651911
000310 aa a0 32 bf 4e 19 81 bf 62 57 a0 3f 30 a3 99 be
       -0.69776404 -1.0085847 1.2526667 -0.30007315
000320 3a ee 79 be c0 0c b1 3e 74 b3 8d be 41 13 4c bf
       -0.24407282 0.3458004 -0.27675974 -0.7971688
000330 8b 15 d3 39 92 6a ea 3e 13 71 3a 3e 13 e5 54 3e
       0.00040261107 0.45784432 0.18207197 0.2079051
000340 2b b8 64 3e 06 95 8f be f9 0a df 3e 34 13 af 3e
       0.2233588 -0.28043383 0.4356306 0.34194338
000350 fb 42 4f be c1 76 de 3e d1 4a 53 be af 84 97 be
       -0.20240395 0.43449977 -0.20634009 -0.29593417
000360 be fa 21 bf b5 34 24 be 8a 9b b9 3f 6f f2 b1 bf
       -0.6327323 -0.16035731 1.4500592 -1.390211
000370 f3 9e e0 bd 5f 36 7e be 67 64 8a be 25 4c ea bd
       -0.10967817 -0.24825428 -0.27029726 -0.11440305
000380 13 46 f7 3e a1 cd 6c 3e 46 e5 98 3e f9 42 3e be
       0.4829565 0.23125316 0.29862422 -0.18580236
000390 4f 12 69 be d2 3c 8b 3e 63 1b 79 3e 00 90 03 3f
       -0.2276089 0.2719484 0.24326853 0.513916
0003a0 ae 07 ac 3e e0 35 85 be 16 d2 9d bd d0 97 43 be
       0.3359961 -0.26017666 -0.07706086 -0.1910088
0003b0 db fa 5f bf 13 fc 89 3e aa f0 95 3f ff 2c 69 bf
       -0.8749215 0.2695013 1.171407 -0.91084284
0003c0 a7 a8 2b be fe 5c 76 be 67 e3 92 3d d6 9e a8 3d
       -0.16763555 -0.24058911 0.0717228 0.082334206
0003d0 9e 46 23 bf e4 30 2f bf 0d e1 6f 3f be 3a 0e bf
       -0.6377963 -0.68433976 0.93702775 -0.55558383
0003e0 6a 8d 80 3e 56 34 09 3f ce 9a 22 3e d4 43 89 be
       0.2510789 0.53595483 0.15879366 -0.2680956
0003f0 4f 57 14 bf 63 72 27 3e f0 41 cb 3e 29 e1 31 3e
       -0.5794572 0.16352229 0.39698744 0.17371048

Decoder.attn_layer.0.weight f4 [32, 96]
000000 b7 7a 9e 3d 75 97 ce bd 72 d5 ea bc d9 e5 3a 3d
       0.0773825 -0.10087482 -0.028666232 0.045629356
000010 b8 64 33 3c 23 de 72 bd 56 9e 82 bd 00 57 cc 3d
       0.010949306 -0.059293877 -0.063778564 0.099775314
000020 64 0a d0 3c c7 82 ce 3d ca 1a 77 3d fa e1 d0 bd
       0.02539558 0.100835375 0.060328282 -0.101993516
000030 b8 04 64 bd 2d 01 2d bc 03 88 5f 3c fc ff 9d bd
       -0.055668563 -0.010559362 0.013643268 -0.07714841
000040 d8 d7 eb bc 03 73 e0 bc 02 8c b5 bd db 64 b0 bc
       -0.028789446 -0.027398592 -0.08864595 -0.021532467
000050 88 e1 2e 3b a7 d6 ca bd 53 fd c7 3c 69 f0 c5 3d
       0.002668472 -0.09904223 0.024412787 0.09664995
000060 eb 6e b3 bd a3 f8 b2 bd b8 e3 3d bd 7b 14 50 3d
       -0.0876139 -0.0873883 -0.046359748 0.05080078
000070 9d c8 c7 3d 00 a3 34 bd d5 86 3c bd cd 32 17 bd
       0.09755061 -0.04410076 -0.046027023 -0.03691368
000080 db 65 ee 3a 89 1c bf bd b7 8d 6c bc a2 41 30 3d
       0.0018188314 -0.093316145 -0.014438084 0.043031342
000090 20 60 b6 3d e7 a0 c8 39 e8 61 91 bc d1 72 a6 bd
       0.08905053 0.00038266854 -0.01774688 -0.08127368
0000a0 cb 81 88 3d d0 14 9a bd 4d 81 52 3d 5c c7 a6 3d
       0.06665381 -0.07523501 0.051392842 0.081434935
0000b0 e3 6c a5 bd d0 48 a8 3a 47 9c b8 3d 46 ae 91 3c
       -0.08077409 0.0012839083 0.090141825 0.017783295
0000c0 03 0d ee bc ea d9 33 3d d7 d6 94 bd 47 bb b7 bd
       -0.029058939 0.04390899 -0.0726754 -0.08971267
0000d0 68 ca 95 3d c6 c5 9a 3c 11 81 bd bd 53 f6 95 bd
       0.073139966 0.018893134 -0.09253133 -0.07322373
0000e0 64 65 43 3d 3c c5 00 ba 6e f1 d1 bc 06 e4 03 bc
       0.047704116 -0.0004912203 -0.025627818 -0.0080499705
0000f0 2f a7 95 3d 5e 97 57 3d 24 5f de bc 4f 69 66 bd
       0.07307278 0.05263459 -0.027144976 -0.056252774
000100 1a 4d 67 bc de 4a 50 bd d2 12 93 bd f5 42 8c 3d
       -0.014117504 -0.05085265 -0.07181324 0.068487085
000110 6e 38 4d 3d 22 db 15 bd e1 1f 9c bd 74 c3 b5 bc
       0.050102644 -0.036585934 -0.07623268 -0.022187926
000120 29 17 02 bc d4 7f 38 bc a4 e6 2b 3d 0d 05 77 3d
       -0.007940092 -0.011260945 0.041968003 0.06030755
000130 74 68 a0 3d 40 7e c5 3d 5e ce c7 3d 01 c8 c9 bd
       0.07832423 0.09643221 0.09756158 -0.09852601
000140 8f 3b eb 3c ef 51 93 bd c2 3b c1 bd f0 f7 a8 bd
       0.028714923 -0.07193362 -0.09435226 -0.08250415
000150 5b 71 1f 3d da cd 67 3d e0 98 8e 3d e0 f2 9b 3d
       0.038926464 0.0565928 0.06962752 0.07614684
000160 a0 d2 b0 bd 23 d4 1b 3d de af c4 bd e0 91 b3 3d
       -0.086339235 0.038044106 -0.096038565 0.08768058
000170 ec c1 3a bd 74 60 62 3d 06 76 cd 3d 3a ef c7 3d
       -0.045595095 0.055267766 0.10032277 0.09762426
000180 3c 5e 75 bd e8 ca 50 3d 0e fe 78 bb 72 33 3e bd
       -0.059904322 0.050974756 -0.0037993225 -0.04643578
000190 99 e0 17 bc 4a ae bb 3d 0d f3 67 bc dc 17 a1 3d
       -0.009269857 0.091641024 -0.014157069 0.07865879
0001a0 d9 d9 93 bd 13 d6 f7 bc 3d f6 3f bd 80 fa 1f bc
       -0.072192855 -0.030253446 -0.04686569 -0.009764314
0001b0 81 85 c4 bd 13 1f 4a bc 6f 27 69 bd a6 a8 c8 3d
       -0.09595776 -0.01233651 -0.056922372 0.09797792
0001c0 15 48 76 bd b9 f8 97 bd 27 e2 98 3d ab a5 8a bc
       -0.060127337 -0.07420487 0.0746501 -0.0169247
0001d0 2c 7b 58 3d 7d 79 c6 3c ce 35 97 bd 84 17 9f 3c
       0.05285184 0.024227852 -0.07383309 0.019420393
0001e0 0e 1f b5 bc 57 62 fe bc 1c bd 72 bd 93 4f fa 3b
       -0.022109535 -0.031052751 -0.05926238 0.0076388805
0001f0 cf 01 88 3d b9 07 f9 bc 09 22 90 3d 3f 3b 40 3d
       0.0664097 -0.03039919 0.07037742 0.0469315
000200 5d 2b b0 3d 92 db ac bd 76 3b 45 bd 36 86 87 bd
       0.08602021 -0.08440317 -0.04815241 -0.066173956
000210 d1 6d 80 3c aa 36 61 3d 6f 19 81 3b 29 15 8a 3d
       0.015677365 0.054983772 0.0039397995 0.06742317
000220 dc f1 72 3d 37 67 8c 3d 6e 3b 91 bd 74 87 95 3c
       0.059312686 0.06855624 -0.070914134 0.018253066
000230 b3 d6 04 3d 26 84 b5 3c 04 0f c2 bd 02 66 13 3d
       0.032431316 0.02215774 -0.0947552 0.035985954
000240 2d 5f f5 bc de 1f 4e 3d 36 12 79 3d 50 58 c7 3c
       -0.02995261 0.05032336 0.060808383 0.024334103
000250 5d 2c 95 bd c0 2d 64 bd ea b6 66 3b be 72 49 3b
       -0.07283852 -0.055707693 0.003520424 0.0030738558
000260 6a fd af 3d 51 3b c9 3d 04 87 68 bd cc 8e 6d bd
       0.08593257 0.09825767 -0.056769386 -0.05799751
000270 ff e0 80 39 b0 d2 bd bc cd c3 8b bd 4c 59 d5 bb
       0.00024581698 -0.023171753 -0.068244554 -0.006510889
000280 40 69 2e 3d 15 b5 ce 3d 61 18 b5 bd 91 f9 6e 3d
       0.042580843 0.100931324 -0.088425405 0.058343474
000290 77 06 be bd 06 62 0b bc d5 7a a2 bd 49 c9 4b bc
       -0.09278577 -0.008507257 -0.079335846 -0.012438127
0002a0 99 67 23 3d 45 d1 7a bd a9 b6 bb 3d cf bf 06 3c
       0.03989372 -0.06123473 0.09165699 0.008224442
0002b0 2f 76 9c bc 44 4e 98 bc 6a b2 65 3d 72 49 a4 3d
       -0.019099323 -0.018592007 0.056078352 0.08021821
0002c0 8d 4f 62 3d 82 88 c0 3d cb 2d 39 3a 29 be 97 bd
       0.055251647 0.09401037 0.00070640136 -0.07409317
0002d0 2a 49 69 3c 8b d7 94 3d 1b 86 61 bd dc 89 d2 bc
       0.014238635 0.07267674 -0.055059534 -0.025700502
0002e0 ab f4 5b 3b 1f 8d 46 3d eb 44 ed 3c db 88 98 3d
       0.0033562582 0.048474427 0.028963527 0.07447978
0002f0 3e b3 26 3d e8 b5 d0 3d c4 07 8d 3d 93 d5 1d 3d
       0.040698282 0.10190946 0.06886247 0.03853376
000300 a6 b4 b4 3d ce 08 ed ba 3b 1d 43 3d 29 19 a3 3c
       0.088235185 -0.0018084289 0.0476353 0.019909458
000310 68 93 7f 3c af 8d aa 3d 03 0e 1a bc 21 d6 bc 3d
       0.015599109 0.08327805 -0.009402755 0.09220529
000320 cc 10 98 3c a3 14 81 3b 51 0a b4 bb c9 75 90 bc
       0.018562697 0.0039392277 -0.005494394 -0.01763429
000330 65 15 64 bd 4d ee 1c 3d 65 ab ab bd 83 19 c6 3d
       -0.055684466 0.0383132 -0.083823 0.09672835
000340 97 a4 1a bd a8 4e 9b bd ed 89 81 3d d0 60 61 3d
       -0.03775462 -0.07583362 0.063251354 0.05502397
000350 0d 18 35 bd 34 c9 68 3d e7 29 84 3d 9b f7 a3 bc
       -0.04421239 0.056832507 0.06453305 -0.020015528
000360 bb 46 3b 3d ac 4c a5 bc 8f d3 c6 3c 58 0d d0 3d
       0.04572175 -0.020178162 0.0242708 0.10158795
000370 be d6 3a 3d b9 17 47 3d df bd 8f b9 c0 14 79 3d
       0.04561495 0.048606608 -0.0002741655 0.060810804
000380 13 c6 a0 3d 7b 02 e2 bb d0 7e 80 3d 6a 5f b0 bd
       0.0785028 -0.0068972684 0.062741876 -0.08611949
000390 be 16 3d bd e0 e2 83 bc 82 a5 6d bd be a0 c2 3d
       -0.046164267 -0.016099393 -0.05801917 0.095033154
0003a0 a7 68 fb 3b 2e 9d a7 3d 4b 01 1e bd 87 df c0 3d
       0.0076723876 0.081842765 -0.03857545 0.094176345
0003b0 90 26 01 3d 02 ef 63 bd ee f1 8c bc c1 2e aa 3d
       0.031530917 -0.055647857 -0.017205205 0.08309699
0003c0 13 9d e4 3c 5b 42 a4 3d 80 d9 34 3d a8 79 d2 bc
       0.02790693 0.08020469 0.044152737 -0.025692776
0003d0 d7 6f 90 3c f4 12 af bc 85 28 a8 3d f2 68 af 3d
       0.017631454 -0.021371342 0.082108535 0.085649386
0003e0 64 ec 9b 3d 04 59 99 bd 99 3b 9d bd c8 b8 65 bb
       0.07613447 -0.074876815 -0.07677383 -0.0035052765
0003f0 11 f9 57 bd 24 0e ac bd 26 cc 20 bd 29 0b 0a 3d
       -0.052727763 -0.084011346 -0.03925719 0.03370205

Decoder.attn_layer.0.bias f4 [32]
000000 46 89 8e 3d ff dc bb 3d 13 28 a3 bd 26 11 7f bd
       0.069597766 0.09173011 -0.07966628 -0.062272213
000010 41 db bc 3d 59 3d c4 3d 8c e7 85 bd ae be c6 3d
       0.09221507 0.09582014 -0.06538305 0.09704338
000020 75 9d 90 bd 0b 7c 94 bd ad 6a 3c bd 16 d3 c1 bd
       -0.070612825 -0.07250222 -0.04600017 -0.094640896
000030 3d 89 7a 3d d8 55 61 3d 92 11 51 3d 6e ff b8 bd
       0.061166037 0.055013508 0.051042147 -0.09033094
000040 6b 5a ba 3c 22 d4 a6 3c 24 28 f4 3c fd 1c ad bc
       0.022748193 0.020364825 0.029804297 -0.021131987
000050 98 c0 ff 3c 93 1c d0 3d df 9d bb bd 1e a6 bb bd
       0.031219766 0.101617 -0.09160971 -0.09162544
000060 2f 4c 2f 3d ab b4 8b 3c 5c 00 08 3d 21 6d 84 3d
       0.042797264 0.017053923 0.033203468 0.06466127
000070 4f 5d c2 3d 56 4b b3 3d ae d2 81 37 52 64 26 bd
       0.094904535 0.087546036 1.5476104e-05 -0.040623017

Decoder.attn_layer.2.weight f4 [1, 32]
000000 ed be 62 bc 29 30 df bd 33 9b b7 bc f8 a0 32 bd
       -0.013839466 -0.10897858 -0.022412872 -0.043610543
000010 87 9e 2d 3e eb 4c 29 bd 09 83 4e 3d 74 0a b7 bd
       0.16955005 -0.04133312 0.050417934 -0.08937541
000020 eb 00 f6 3c 91 40 a2 3d 7e a8 d6 bd 98 0b 22 be
       0.030029735 0.07922471 -0.10481356 -0.15824735
000030 56 67 6e 3d 70 0a 81 bb 8d 7c 14 be 67 cc 8e bd
       0.058204018 -0.003938012 -0.14500637 -0.069725804
000040 8c fb c3 3d 94 24 16 3e 67 4e bb bd b7 8f f1 bc
       0.09569463 0.14662391 -0.091458134 -0.029487474
000050 bc 5e 0e 3e 46 5e 10 3e 88 df 1c 3d c7 d6 8c 3d
       0.13903326 0.14098462 0.038299114 0.06876903
000060 3f 8b aa bb 55 93 8b 3d f3 e0 02 be 78 71 a2 bd
       -0.0052045877 0.06815211 -0.12781124 -0.07931799
000070 46 6a b3 3d 32 e4 68 3d c1 78 0e be 71 06 6e bd
       0.087605044 0.05685825 -0.13913251 -0.05811161
