result/ver5_1/best.pt (torch, 633685 bytes, 48 tensors)

Encoder.encoder_lstm.weight_ih_l0 f4 [256, 6]
0	0xbdadf606	-0.08494191
1	0x3d8bd2ce	0.06827317
2	0x3f2416c5	0.64097244
3	0x3ee0bdfb	0.43894944
4	0x3f4d9cfa	0.8031765
5	0x3f5a8222	0.85354817
6	0xbe0d8cb3	-0.13823204
7	0xbf676e2f	-0.904025
8	0xbf865546	-1.0494773
9	0xbf80b9b8	-1.0056677
10	0xbec62eff	-0.3870773
11	0xbfa241ee	-1.267637
12	0xbf9b8349	-1.214944
13	0xbe06e0ca	-0.13171688
14	0xbed8d0c0	-0.42346764
15	0xbed07323	-0.40712842
16	0xbf4e2137	-0.8051943
17	0xbf84182d	-1.0319878
18	0xbe46f723	-0.19430213
19	0xbeb59118	-0.3546226
20	0xbe20690c	-0.15665072
21	0xbf847467	-1.0348023
22	0xbec9dfbe	-0.39428514
23	0xbfd3ba04	-1.6541142
24	0x3e43dab8	0.19126403
25	0xbf10857b	-0.56453675
26	0xbecf30b9	-0.4046686
27	0xbf996a84	-1.1985631
28	0xbf5cdac2	-0.862713
29	0xbf4181b0	-0.7558851
30	0xbf94e048	-1.1630945
31	0xbf4f0458	-0.80866003
32	0x3f4a925e	0.7912959
33	0x3eb8db58	0.36104846
34	0xbbab66f2	-0.005230778
35	0xbe59e548	-0.2127887
36	0xbe6ca77a	-0.23110762
37	0xbef10991	-0.4707761
38	0xbdb5f5ed	-0.08884797
39	0xbf0ba88a	-0.54554045
40	0x3eafb4dc	0.34317672
41	0xbf5d0e8e	-0.86350334
42	0x3f393970	0.7235327
43	0x3e9e1b8c	0.30880392
44	0x3f18f4bf	0.5974845
45	0xbe43067e	-0.19045445
46	0x3e13c2b0	0.14429736
47	0xbf514ab6	-0.81754625
48	0xbf8b519d	-1.0884281
49	0xbf602e2e	-0.87570465
50	0xbf087b5c	-0.5331323
51	0xbdde265f	-0.108471625
52	0xbe8fba0d	-0.28071633
53	0x3f02c33c	0.51079154
54	0xbf19ca47	-0.60074276
55	0xbf6ccb2f	-0.92497534
56	0xbdf032df	-0.11728453
57	0xbe0df7ee	-0.13864109
58	0xbe06e2e4	-0.1317249
59	0x3fa168a4	1.2610059
60	0xbea0ef03	-0.3143235
61	0xbf49ee60	-0.78879356
62	0xbf6116e7	-0.8792557
63	0xbf868f8e	-1.051256
64	0xbf425ce7	-0.7592301
65	0xbf82c045	-1.0214926
66	0x3f80d7f5	1.0065905
67	0xbf7e6ec3	-0.9938776
68	0x3e897dc1	0.26853755
69	0xbe815356	-0.25258893
70	0xbee77ced	-0.45212498
71	0xbf1f9e8e	-0.6235131
72	0x3e8d7ca4	0.27634156
73	0xbd8cfd05	-0.06884197
74	0x3f3de3a8	0.741755
75	0xbeae52fc	-0.34047687
76	0xbeb54d37	-0.35410473
77	0xbf2cd12e	-0.6750668
78	0x3ef58dbd	0.479597
79	0xbecaedeb	-0.39634642
80	0x3d4e0f7f	0.050307747
81	0x3fc47fb0	1.5351467
82	0x3f1ed01b	0.62036294
83	0x3dc2b14e	0.095064744
84	0xbfa9129c	-1.3208804
85	0xbe9d2e04	-0.3069917
86	0xbf52d793	-0.8236019
87	0x3ea8422f	0.32862994
88	0x3f6cfe36	0.92575395
89	0x3f447a80	0.7674942
90	0x3e00cca6	0.12578067
91	0xbd736082	-0.05941821
92	0x3eda15cd	0.42594758
93	0xbf4f8cad	-0.8107403
94	0xbf83c49c	-1.0294375
95	0x3c8f224b	0.017472407
96	0xbf4bdda5	-0.7963508
97	0xbf09c6fb	-0.53819245
98	0xbf356b33	-0.708667
99	0xbf4e61e3	-0.80618113
100	0x3e3ce4b3	0.18446617
101	0x3e9bf397	0.30459282
102	0xbf77823b	-0.9668309
103	0xbf02ce15	-0.51095706
104	0xbd9aa95f	-0.07551836
105	0x3ec3781b	0.3817757
106	0xbcdac2d6	-0.026704233
107	0x3f8a02f9	1.0782157
108	0xbe63032e	-0.22169182
109	0x3d5ee39e	0.05441629
110	0x3eb35b83	0.35030755
111	0xbdcef2c9	-0.10104901
112	0xbf214bf3	-0.63006514
113	0x3df19adb	0.117971145
114	0xbf6f4d94	-0.9347775
115	0xbf915205	-1.1353155
116	0xbf06de10	-0.5268259
117	0xbd04fc2b	-0.03246705
118	0xbdbf571e	-0.09342788
119	0x3d7b4dce	0.061353497
120	0x3caa06e9	0.020755248
121	0xbf370932	-0.71498406
122	0x3fc852c2	1.5650256
123	0x3cd4190b	0.025890848
124	0x3ef448bd	0.47711745
125	0x3f41f0d4	0.757581
126	0x3e66431a	0.22486535
127	0xbeeb2060	-0.45923138
128	0xbf3281b8	-0.69729185
129	0x3f1f13cb	0.62139577
130	0x3f1d9a14	0.6156323
131	0x3df33de9	0.11877043
132	0xbeff8e95	-0.4991347
133	0x3e9d2681	0.3069344
134	0xbf32fa37	-0.6991305
135	0xbeba1018	-0.36340404
136	0xbf15c7c9	-0.5850797
137	0x3f5ed798	0.8704772
138	0xbeab09ab	-0.33405814
139	0xbf89b91d	-1.0759617
140	0xbf354902	-0.70814526
141	0xbf64a280	-0.89310455
142	0xbf1270ed	-0.5720356
143	0xbfbc47db	-1.4709429
144	0x3f536968	0.8258271
145	0x3e9bce9a	0.30431062
146	0x3f599abf	0.8500175
147	0xbe660982	-0.22464564
148	0xbed696de	-0.41911978
149	0x3f07f6f0	0.5311117
150	0xbecefa5d	-0.40425387
151	0x3d313827	0.04326644
152	0x3e89d6e2	0.26921755
153	0x3ebde0c8	0.37085557
154	0x3e5bec71	0.21476914
155	0x3fe64145	1.7988669
156	0xbe52b7d3	-0.20577936
157	0x3d920713	0.071302556
158	0xbdb3d892	-0.08781542
159	0xbf00b8ec	-0.5028217
160	0xbcd768de	-0.026295122
161	0x3f8d1103	1.1020817
162	0xbdfad0a7	-0.122468285
163	0xbeba5d17	-0.36399147
164	0xbeff26e5	-0.49834362
165	0xbe3d610e	-0.18494055
166	0xbeed1209	-0.46302822
167	0xbd4f3081	-0.050583366
168	0x3f039d5b	0.5141198
169	0x3e88b8ed	0.26703587
170	0x3f47f7a9	0.78112274
171	0x3ed85902	0.42255408
172	0x3f5e5d28	0.86860895
173	0x3f00d78b	0.5032889
174	0xbe22d713	-0.15902357
175	0xbf751417	-0.9573378
176	0xbf189625	-0.596041
177	0x3ed31949	0.4123023
178	0x3f3ac6b8	0.7295947
179	0xbe699d24	-0.2281385
180	0xbf961d72	-1.1727736
181	0xbf11aadc	-0.56901336
182	0xbead8757	-0.3389232
183	0x3f589e00	0.8461609
184	0x3f441e0c	0.7660835
185	0x3f57c312	0.8428203
186	0xbf8628d2	-1.0481207
187	0xbf8c3d4f	-1.095621
188	0x3db62f00	0.08895683
189	0x3b9b864c	0.004746234
190	0x3c010237	0.007874063
191	0xbf2bd039	-0.671146
192	0x3f98abb4	1.19274
193	0x3fd1cc0e	1.6390398
194	0x3f716a76	0.9430307
195	0xbeae17e1	-0.34002593
196	0xbeb0da51	-0.34541562
197	0x3f7ad34d	0.9797867
198	0xbdc83c94	-0.09777179
199	0xbf3fec7e	-0.74970233
200	0xbe5b4f89	-0.21417059
201	0xbe38c3b5	-0.18043406
202	0xbeee1e39	-0.46507433
203	0xbdc81122	-0.09768893
204	0xbf61234e	-0.87944496
205	0xbf03c32d	-0.5146969
206	0xbf1e0a2a	-0.6173426
207	0xbf25bb16	-0.64738595
208	0xbe6421f0	-0.22278571
209	0xbf2e476f	-0.6807775
210	0xbdaaaccd	-0.083337404
211	0xbe9dc876	-0.30817002
212	0xbe07a56b	-0.13246696
213	0xbe046e93	-0.12932806
214	0x3edbc0f4	0.4292065
215	0x3ec62744	0.38701832
216	0x3f1d5a85	0.61466247
217	0x3f084610	0.53231907
218	0x3f1ff843	0.6248819
219	0xbe0ac413	-0.13551359
220	0x3f006961	0.50160795
221	0xbdc2f80d	-0.09519968
222	0xbefad9e7	-0.4899437
223	0xbf4fdbd4	-0.81194806
224	0x3eae21ba	0.34010106
225	0x3ec3d708	0.38249993
226	0x3f80bf84	1.0058446
227	0xc01faaf2	-2.4948087
228	0xbf04e867	-0.5191712
229	0xbf8fe0f3	-1.1240524
230	0x3e214eec	0.15752763
231	0xbd83fde4	-0.0644491
232	0x3e12abd0	0.14323354
233	0x3f900043	1.125008
234	0xbe177572	-0.14790896
235	0x3dfcb3f8	0.12339014
236	0x3e226c15	0.15861543
237	0xbdecf4e8	-0.1157015
238	0xbe3870d1	-0.18011786
239	0x3ccd27c7	0.025043381
240	0xbec66d90	-0.38755465
241	0xbeaec53a	-0.34134847
242	0xbf13a8fb	-0.5767972
243	0x3f8d4743	1.1037372
244	0x3f5cb538	0.8621402
245	0x3f202700	0.6255951
246	0x3c9a6767	0.018848134
247	0x3d85f5c4	0.06541017
248	0xbeee2fd2	-0.4652086
249	0xbf8306a8	-1.0236406
250	0xbf3ebd00	-0.7450714
251	0xbf40f736	-0.75377214
252	0xbef9f32e	-0.48818344
253	0xbe8eff18	-0.27928996
254	0x3e715e6c	0.23571175
255	0xbef9470c	-0.48687017

Encoder.encoder_lstm.weight_hh_l0 f4 [256, 64]
0	0xbe9e40ea	-0.309089
1	0x3e024012	0.12719753
2	0x3d3556e4	0.04427232
3	0xbe26cea8	-0.1628977
4	0xbe718fd7	-0.23590027
5	0xbedb98b5	-0.42889944
6	0x3eeb05c5	0.4590284
7	0x3ed3e838	0.41388106
8	0xbe9c14c4	-0.30484593
9	0x3e453419	0.19258155
10	0xbeeb5f8c	-0.45971334
11	0xbf1fe45a	-0.6245781
12	0xbe9a3df1	-0.30125383
13	0x3e052ac6	0.13004598
14	0xbeada3b2	-0.33913952
15	0xbe8158f3	-0.25263175
16	0x3f510ccb	0.81660146
17	0xbe6f37fb	-0.23361199
18	0x3e300cc6	0.17192373
19	0xbead4198	-0.33839107
20	0x3dae2943	0.08503964
21	0x3f1658d3	0.58729285
22	0x3ef97cb0	0.48727942
23	0x3ee36745	0.44414726
24	0xbeba81aa	-0.3642705
25	0xbe08ff52	-0.13378647
26	0xbf0e7fae	-0.55663574
27	0x3e78a7a2	0.24282697
28	0xbb362abb	-0.0027796465
29	0xbeb61ad5	-0.35567346
30	0xbebe20bc	-0.3713435
31	0xbe7caf5c	-0.2467627
32	0x3f14fcb9	0.58198124
33	0x3e994feb	0.29943785
34	0xbfc14413	-1.50989
35	0x3e8e2c07	0.27767965
36	0xbdc0cbb6	-0.09413855
37	0xbec345f2	-0.38139302
38	0xbe8ddac7	-0.27705976
39	0xbe4d6e1e	-0.20061538
40	0x3e827145	0.25477043
41	0xbeef60e0	-0.46753597
42	0xbe93b96f	-0.28852412
43	0x3e9115d9	0.2833698
44	0x3d921168	0.07132226
45	0x3e955ffb	0.2917479
46	0xbf198ea1	-0.5998326
47	0xbc9f464c	-0.0194427
48	0x3d53052b	0.0515186
49	0xbedf8f74	-0.43664134
50	0x3efcf562	0.49405962
51	0xbeb7cd93	-0.35899028
52	0xbedb539c	-0.42837226
53	0x3e180ab8	0.14847839
54	0xbd3e9ed3	-0.046538185
55	0xbdd0baf3	-0.10191908
56	0x3e5aa907	0.21353541
57	0xbec3d1e8	-0.38246083
58	0xbd4565b9	-0.048192713
59	0xbd88238b	-0.06647404
60	0x3dbf1e95	0.09332005
61	0xbe4859c5	-0.19565494
62	0x3e0b0678	0.13576686
63	0x3e9f7a4a	0.31147987
64	0x3ed53735	0.41643682
65	0xbd19b2d5	-0.037524063
66	0x3e34453b	0.17604534
67	0xbe26012a	-0.16211382
68	0x3dfefca8	0.12450534
69	0x3e02b967	0.12766038
70	0xbeb1c704	-0.3472215
71	0xbd273b7c	-0.040828213
72	0xbe19c436	-0.15016255
73	0x3f104b1b	0.563646
74	0x3e1d1ac5	0.15342243
75	0x3e81c37b	0.25344452
76	0xbdeb5324	-0.11490467
77	0x3df06f53	0.117399834
78	0x3e8dfa5a	0.27730066
79	0x3e7d7d89	0.24754919
80	0x3d973240	0.07382631
81	0xbe646126	-0.22302684
82	0xbdb6ac0a	-0.089195326
83	0xbd311765	-0.0432352
84	0x3e8b218f	0.2717404
85	0x3e243f71	0.16039826
86	0xbe0315be	-0.12801263
87	0x3e24c2a0	0.16089869
88	0xbe3d5dea	-0.18492857
89	0xbeabef05	-0.33580795
90	0x3dec7339	0.115454145
91	0x3e8fe88e	0.28107113
92	0x3e8944c3	0.26810274
93	0x3e140cdf	0.14458035
94	0xbe58add7	-0.21160065
95	0x3e3708cd	0.17874451
96	0xbe956862	-0.291812
97	0xbea333cb	-0.31875452
98	0xbd88f090	-0.06686509
99	0x3e8523a6	0.2600376
100	0x3e465aa6	0.19370517
101	0xbd3e01d9	-0.04638848
102	0xbd5e56c3	-0.05428196
103	0xbc4622a7	-0.012093223
104	0x3e33ed81	0.1757107
105	0x39c39485	0.00037303954
106	0xbd95890f	-0.073015325
107	0x3eb86d30	0.36020803
108	0xbe6cad0e	-0.2311289
109	0x3e53648c	0.20643824
110	0xbe926ebd	-0.28600112
111	0xbdb5f876	-0.08885281
112	0xbccb2bce	-0.024801161
113	0xbea628e0	-0.3245306
114	0xbeb8b9f8	-0.36079383
115	0x3eedbdd2	0.46433884
116	0x3ec1c482	0.37845236
117	0x3d9e183c	0.07719466
118	0x3bac699a	0.005261612
119	0x3d8898ca	0.06669767
120	0x3d2d6992	0.042337008
121	0xbd34e4f5	-0.044163663
122	0x3d9ef97b	0.077624284
123	0x3e5e2d9d	0.21697088
124	0x3e84b39b	0.25918278
125	0xbe736732	-0.23769835
126	0xbd81e4cd	-0.063424684
127	0x3e2c5523	0.16829352
128	0xbef0e7ee	-0.47051948
129	0xbeaa4bd3	-0.33260974
130	0x3e2d0627	0.16896878
131	0xbe2fcfc0	-0.17169094
132	0xbd4acc52	-0.04951126
133	0xbf4b7a3e	-0.794834
134	0x3f425798	0.7591491
135	0x3e283e89	0.16430105
136	0xbec078e9	-0.37592247
137	0xbf4c2010	-0.79736423
138	0x3ee78952	0.45221955
139	0x3e814422	0.25247294
140	0xbd9d3058	-0.076752365
141	0x3de7ae89	0.11312587
142	0xbf0b79d1	-0.5448275
143	0xbea13ea1	-0.31493095
144	0x3f2a0fe9	0.66430527
145	0x3e6a2f43	0.22869591
146	0x3ea01215	0.31263795
147	0xbe377096	-0.17914042
148	0x3baaec2e	0.005216143
149	0x3dbd7527	0.09250861
150	0x3f6b047e	0.9180373
151	0xbf071ed7	-0.5278143
152	0x3ebf53c4	0.37368596
153	0xbf17c658	-0.59287024
154	0xbe49fbd9	-0.19724979
155	0xbe855504	-0.26041424
156	0xbe76070c	-0.24026126
157	0x3e90d579	0.28287867
158	0x3e4981b1	0.1967838
159	0xbd8a0665	-0.06739501
160	0x3e723399	0.23652495
161	0x3d9cdc6b	0.07659229
162	0xbf1a7455	-0.6033376
163	0x3c6dee99	0.014522218
164	0xbdfb419d	-0.12268374
165	0x3e5ea845	0.21743877
166	0x3f127098	0.57203054
167	0x3e83b361	0.25722793
168	0x3f237897	0.6385588
169	0x3d964e3d	0.073391415
170	0x3ec9af7b	0.39391693
171	0xbec537f2	-0.38519245
172	0x3ec05ea3	0.37572202
173	0x3f422b40	0.75847244
174	0x3f2a9f6b	0.666495
175	0xbc8fac80	-0.01753831
176	0xbeec5314	-0.46157134
177	0xbe3e0928	-0.1855818
178	0xbdd891cf	-0.10574686
179	0xbf9c52a9	-1.2212726
180	0xbf722f66	-0.94603574
181	0xbe5f74c9	-0.21821894
182	0xbf068782	-0.5255052
183	0xbe1263ee	-0.14295933
184	0x3eb7c541	0.3589268
185	0x3edcb0e9	0.43103722
186	0xbdde8e1a	-0.108669475
187	0xbc95d938	-0.018292055
188	0xbe669264	-0.22516781
189	0x3e89b295	0.2689406
190	0xbc94180b	-0.01807787
191	0x3e44896c	0.19193047
192	0x3d93580f	0.0719453
193	0xbe4f602e	-0.20251533
194	0xbf0c756e	-0.54866683
195	0x3cff6eb6	0.03118072
196	0x3dd832ab	0.10556539
197	0x3de98d1e	0.11403869
198	0x3ecc335a	0.39882928
199	0xbebded5c	-0.37095153
200	0xbefb3ef9	-0.49071482
201	0xbc8d7826	-0.017269205
202	0x3d8671ed	0.06564698
203	0x3e063439	0.13105859
204	0x3e4dee1a	0.2011036
205	0xbdf35e57	-0.11883228
206	0xbde1b6d3	-0.11021199
207	0x3e087faa	0.1332995
208	0x3e6a4e8b	0.22881524
209	0xbe2f8565	-0.1714073
210	0xbeb534fa	-0.3539198
211	0xbe71cf74	-0.23614293
212	0x3ec28b5b	0.37996945
213	0xbb0721d9	-0.002061954
214	0x3e702201	0.23450471
215	0xbe9bce83	-0.30430993
216	0xbe409549	-0.18806948
217	0xbed47202	-0.4149323
218	0xbed0e526	-0.40799826
219	0xbf00fd7c	-0.50386786
220	0xbe3dea59	-0.18546428
221	0xbdb2df04	-0.08733943
222	0x3f1857e1	0.5950909
223	0x3e75e34b	0.24012487
224	0x3e0e0505	0.13869102
225	0x3c0b0710	0.008485571
226	0xbe847b8a	-0.25875503
227	0x3ec8b1dc	0.39198196
228	0xbd9c6a55	-0.07637469
229	0xbc13a80c	-0.0090122335
230	0x3e946d57	0.2898967
231	0x3e347f16	0.17626604
232	0x3f4fd1ca	0.8117949
233	0x3f019139	0.5061222
234	0x3e3b4b9d	0.18290563
235	0xbf203c6e	-0.6259221
236	0x3ebfb84f	0.37445304
237	0x3daed5dd	0.08536885
238	0x3f24b1ef	0.64334005
239	0xbe085466	-0.13313445
240	0xbf03d15b	-0.51491326
241	0xbf2e6a5f	-0.6813106
242	0xbe74b3b6	-0.2389668
243	0xbea9ff2f	-0.33202502
244	0xbe3598cb	-0.17734067
245	0xbe144717	-0.14480244
246	0x3d7bc639	0.061468337
247	0x3ec19a59	0.3781307
248	0x3eefd6cc	0.46843565
249	0xbe0c714f	-0.13715099
250	0xbec7f3fb	-0.3905333
251	0x3c0bdb2e	0.008536143
252	0xbe9febd9	-0.31234625
253	0xbda99eb9	-0.08282227
254	0x3e396626	0.18105373
255	0xbe1d1095	-0.15338357

Encoder.encoder_lstm.bias_ih_l0 f4 [256]
0	0xbed5f5b0	-0.41789007
1	0xbe8addd5	-0.2712237
2	0xbec382cc	-0.38185728
3	0xbf221007	-0.63305706
4	0xbf502e61	-0.8132077
5	0xbeea4c47	-0.4576132
6	0xbed98ad8	-0.42488742
7	0xbee4c3cd	-0.44680634
8	0xbf0a8ee4	-0.54124284
9	0xbf5e94dc	-0.8694589
10	0xbeb21e1d	-0.347886
11	0xbf2762b4	-0.65384984
12	0xbf01f21e	-0.50760067
13	0xbed019a5	-0.40644565
14	0xbe593882	-0.21212962
15	0xbeda7855	-0.4266993
16	0xbe88b3b3	-0.266996
17	0xbf0f2aaf	-0.55924505
18	0xbf23817a	-0.6386944
19	0xbf0f728e	-0.5603417
20	0xbea91b92	-0.33028847
21	0xbebac841	-0.36480907
22	0xbeda62fc	-0.42653644
23	0xbbf163a4	-0.0073666144
24	0xbf0501d8	-0.5195594
25	0xbf1bbff3	-0.60839766
26	0xbf6afe03	-0.9179384
27	0xbe789cf3	-0.24278621
28	0xbeb696e0	-0.35661983
29	0xbeb5cc0b	-0.35507235
30	0xbec27853	-0.37982425
31	0xbf809713	-1.0046104
32	0xbf0bc19c	-0.545923
33	0xbf213873	-0.6297676
34	0xbe9c1255	-0.30482736
35	0xbf1942f0	-0.59867764
36	0xbebfc049	-0.3745139
37	0x3c8b3368	0.016992286
38	0xbf25d14e	-0.647725
39	0xbf010837	-0.5040316
40	0xbf18d696	-0.5970243
41	0xbebcc166	-0.368663
42	0xbe974eea	-0.29552394
43	0xbe7f70bf	-0.24945353
44	0xbf283e41	-0.6571999
45	0xbee01b2d	-0.43770733
46	0xbf5c41a4	-0.8603766
47	0x3e67fd51	0.22655226
48	0xbee3ad89	-0.44468334
49	0xbf4772d8	-0.7790961
50	0xbef62a7d	-0.4807929
51	0xbf164e38	-0.587131
52	0xbf4aac66	-0.7916931
53	0xbd8fca60	-0.07021022
54	0xbec949f9	-0.3931425
55	0xbf52d1f5	-0.8235162
56	0x3d6d5937	0.05794641
57	0xbf0afe59	-0.54294354
58	0xbf33bf83	-0.702141
59	0xbe90123a	-0.28138906
60	0xbf1e572f	-0.6185178
61	0xbe9b46e7	-0.30327532
62	0xbea8d897	-0.32977745
63	0xbeb64c47	-0.3560507
64	0xbe0589c5	-0.13040836
65	0x3dc8e11c	0.09808561
66	0xbe836aa5	-0.256673
67	0xbe457336	-0.1928223
68	0xbeb2f94c	-0.34955823
69	0xbf227c7a	-0.63471186
70	0xbe052a6a	-0.13004461
71	0xbd3c158e	-0.045918994
72	0xbe31397c	-0.17307085
73	0xbee1b0e3	-0.44080266
74	0xbe8bbf45	-0.27294365
75	0xbeab0e7a	-0.33409482
76	0xbe465442	-0.1936808
77	0xbe847693	-0.25871715
78	0xbe9bb554	-0.3041178
79	0xbd029f14	-0.03188999
80	0xbeade483	-0.33963403
81	0xbe371129	-0.1787764
82	0xbdfb8ed1	-0.122830994
83	0xbdb41d61	-0.08794666
84	0xbf213f6a	-0.6298739
85	0xbe7d86cc	-0.24758452
86	0xbe250f6c	-0.16119164
87	0xbd1cb581	-0.038259033
88	0xbea1867f	-0.31547925
89	0xbe98bd8e	-0.2983212
90	0xbf1d9acb	-0.6156432
91	0x3d4f0dd9	0.050550316
92	0xbefed243	-0.49769792
93	0xbe87591c	-0.26435173
94	0xbe8d305c	-0.27575958
95	0xbe87fe5b	-0.26561245
96	0xbe555423	-0.20832877
97	0xbf11bf46	-0.56932485
98	0x3eaed366	0.3414566
99	0xbe7ffa62	-0.24997857
100	0xbea3946b	-0.3194917
101	0xbe60ab85	-0.2194043
102	0xbee7e22a	-0.45289737
103	0xbddb00a4	-0.106934816
104	0xbed7946c	-0.42105424
105	0xbd0f4983	-0.034982216
106	0xbe24e6c4	-0.16103655
107	0xbcf0f6de	-0.02941459
108	0xbf27a9c5	-0.6549342
109	0x3e1f8398	0.15577543
110	0xbeee663b	-0.4656237
111	0x3da9c46b	0.08289417
112	0xbf41dbff	-0.7572631
113	0xbe9da21d	-0.30787745
114	0xbe485bd4	-0.1956628
115	0xbef8077d	-0.48443213
116	0xbedba660	-0.42900372
117	0xbe6d3597	-0.23164974
118	0xbedcec71	-0.4314914
119	0xbf2b645a	-0.6695
120	0xbe844e68	-0.2584107
121	0xbe4726f0	-0.19448447
122	0xbf0a7aa8	-0.5409341
123	0xbdb62fce	-0.08895837
124	0xbea5f51f	-0.32413575
125	0xbe5fa6d6	-0.21840987
126	0xbc468360	-0.012116283
127	0xbc997b91	-0.018735679
128	0xbaf18581	-0.0018426628
129	0x3d640ab5	0.055674274
130	0x3c61672b	0.013757507
131	0x3d5e9716	0.054343306
132	0xbcbbb749	-0.022914546
133	0xbd8f009b	-0.06982537
134	0x3d4a4ea9	0.049391422
135	0x3d167dc4	0.036741033
136	0x3dc954d5	0.098306336
137	0x3d293958	0.041314453
138	0x3d88767f	0.06663226
139	0xbda00851	-0.07814086
140	0xbd34b278	-0.044115514
141	0xbbe0815a	-0.0068513574
142	0x3c9a8e46	0.01886667
143	0xbe007173	-0.12543277
144	0xbd9fd34d	-0.07803974
145	0x3e71fb9c	0.23631138
146	0xbde540b6	-0.11193983
147	0xbd8cc697	-0.068738155
148	0x3c7cf4d0	0.015439227
149	0x3db93c3e	0.090446934
150	0xbe646ed3	-0.22307901
151	0xbd81a7d0	-0.06330836
152	0xbbeba636	-0.0071914447
153	0xbb8261a3	-0.0039789244
154	0xbd2d0038	-0.042236537
155	0xbe03802e	-0.12841865
156	0x3cbb40ca	0.022858042
157	0xbd70c8d9	-0.058785293
158	0xbd15f1be	-0.036607496
159	0x3c28ed5f	0.0103105
160	0x3d1b2427	0.037876274
161	0xbcf92f6e	-0.030418124
162	0x3da871fb	0.08224865
163	0x3d7cf755	0.06175931
164	0xbc8cccae	-0.017187443
165	0x3de88a35	0.11354486
166	0x3ca147b1	0.019687505
167	0x3da221e4	0.079166204
168	0xbcff4c2f	-0.031164257
169	0xbcec7db5	-0.028868536
170	0x3e064673	0.13112812
171	0xbd93ed98	-0.07223052
172	0xbda4c5fd	-0.08045576
173	0xbe929a22	-0.2863322
174	0xbd1161d8	-0.0354937
175	0xbd8d23c7	-0.068915896
176	0x3d885061	0.06655956
177	0x3e310fa4	0.17291123
178	0xbd9c758d	-0.076396085
179	0xbcba472b	-0.022739014
180	0x3e3169d5	0.17325528
181	0xbb8d5bc1	-0.0043139164
182	0xbcadf8f6	-0.021236878
183	0xbd0b530f	-0.034014758
184	0xbc5634c2	-0.013074102
185	0xbd943a1c	-0.07237646
186	0xbe91b60d	-0.28459206
187	0x3dd22fb5	0.10263006
188	0xbe0e4c61	-0.13896324
189	0x3ca58708	0.02020599
190	0x3d6658d4	0.056237057
191	0xbc77dd6f	-0.0151284775
192	0xbeadd309	-0.3395007
193	0xbedf5e08	-0.43626428
194	0xbeee0bfc	-0.46493518
195	0xbf00efba	-0.50365794
196	0xbf3ab6b6	-0.72935045
197	0xbed9c6c7	-0.42534468
198	0xbe97bfa5	-0.296384
199	0xbeaa250d	-0.33231393
200	0xbf512729	-0.8170038
201	0xbf34ae4d	-0.7057846
202	0xbef01230	-0.46888876
203	0xbf08629c	-0.53275466
204	0xbf238735	-0.63878185
205	0xbe951087	-0.29114172
206	0xbf47f20b	-0.78103703
207	0xbf118a8d	-0.56852037
208	0xbee0252b	-0.43778357
209	0xbf8ed5b1	-1.1158963
210	0xbf2282f8	-0.6348109
211	0xbf0aa4d9	-0.5415779
212	0xbebdc965	-0.37067714
213	0xbe48c79a	-0.19607392
214	0xbf840975	-1.0315386
215	0xbdba931e	-0.091100916
216	0xbf1f3850	-0.621953
217	0xbf008e2b	-0.5021693
218	0xbf4dd9a1	-0.804102
219	0xbd953d1e	-0.07287048
220	0xbf117617	-0.56820816
221	0xbecfc18b	-0.4057735
222	0xbf39e7fe	-0.72619617
223	0xbf7f94c7	-0.9983639
224	0xbf21ac98	-0.6315398
225	0xbf44268b	-0.7662131
226	0xbb622692	-0.0034507853
227	0xbf2f057a	-0.6836773
228	0xbe59d6da	-0.21273366
229	0xbd45ef4e	-0.04832392
230	0xbefe1fce	-0.4963364
231	0xbee24ad0	-0.44197702
232	0xbf108134	-0.5644715
233	0xbec96194	-0.3933226
234	0xbe951e88	-0.29124856
235	0xbed08c5f	-0.40732095
236	0xbf3f7bf9	-0.7479854
237	0xbf1ad6dd	-0.60484105
238	0xbf2a8ef9	-0.6662441
239	0x3dc941e7	0.09827023
240	0xbecd2c10	-0.4007268
241	0xbf615fe8	-0.88036966
242	0xbf0b15f6	-0.54330385
243	0xbe937ae1	-0.28804687
244	0xbf2cd388	-0.6751027
245	0xbe4a632b	-0.19764392
246	0xbe854357	-0.2602794
247	0xbf47e1ea	-0.7807909
248	0xbd05f183	-0.032701027
249	0xbf0ca172	-0.54933846
250	0xbf1a87b6	-0.6036333
251	0xbef59bfe	-0.47970575
252	0xbf335e6f	-0.7006597
253	0xbee80467	-0.4531586
254	0xbf102c5c	-0.5631769
255	0xbebffa39	-0.37495592

Encoder.encoder_lstm.bias_hh_l0 f4 [256]
0	0xbe7c59e7	-0.2464367
1	0xbea77557	-0.3270671
2	0xbeb2715d	-0.34852114
3	0xbf20fe93	-0.6288845
4	0xbf50a8a9	-0.81507355
5	0xbee0e336	-0.43923348
6	0xbeed2efe	-0.46324915
7	0xbeb6b444	-0.35684407
8	0xbef62060	-0.48071575
9	0xbf5d9dfe	-0.865692
10	0xbef2fa30	-0.47456503
11	0xbf3705e5	-0.7149337
12	0xbef3dd16	-0.47629613
13	0xbe9dceaf	-0.3082175
14	0xbec3f49b	-0.38272557
15	0xbeb3427c	-0.3501166
16	0xbe4c6d21	-0.19963504
17	0xbf0a5adf	-0.5404491
18	0xbf2e7af2	-0.6815635
19	0xbee69add	-0.45040026
20	0xbe418351	-0.1889775
21	0xbec85ae7	-0.39131853
22	0xbeeb4f8b	-0.45959124
23	0xbdf2aee2	-0.118497625
24	0xbec022c7	-0.37526533
25	0xbf1dad9f	-0.6159305
26	0xbf86f81b	-1.0544466
27	0xbe8332fa	-0.2562483
28	0xbefc8272	-0.49318272
29	0xbef5bc61	-0.47995284
30	0xbee743e5	-0.45168987
31	0xbf7d87e1	-0.9903546
32	0xbf1a8e44	-0.6037333
33	0xbf1a53d3	-0.60284156
34	0xbe4e60d6	-0.20154127
35	0xbf2b6d6f	-0.6696386
36	0xbe19abd0	-0.15006948
37	0xbe29dfbf	-0.16589259
38	0xbf4cb8da	-0.7996956
39	0xbf104c7b	-0.563667
40	0xbf01c83e	-0.5069617
41	0xbea6ce0d	-0.3257908
42	0xbe5973b7	-0.21235548
43	0xbe8c3e00	-0.27391052
44	0xbf1ec3f6	-0.6201776
45	0xbee2242c	-0.44168222
46	0xbf355103	-0.7082674
47	0x3cb0716b	0.021538457
48	0xbeb740bc	-0.35791576
49	0xbf35fec5	-0.7109187
50	0xbefc9fc8	-0.49340653
51	0xbef95c22	-0.48703104
52	0xbf30e944	-0.69105935
53	0xbe84264b	-0.25810465
54	0xbec53042	-0.3851338
55	0xbf3bf90a	-0.7342688
56	0x3dada370	0.08478439
57	0xbefd3544	-0.494547
58	0xbf1fbc8c	-0.62397075
59	0xbe6d87af	-0.2319629
60	0xbf0e725f	-0.55643266
61	0xbe95a3e2	-0.29226595
62	0xbeb15357	-0.34633896
63	0xbe7ba0dc	-0.24573082
64	0xbe6aaa54	-0.22916538
65	0xbdce094f	-0.10060369
66	0xbebda70e	-0.37041515
67	0xbe4fd311	-0.20295359
68	0xbedf220d	-0.43580666
69	0xbf178c91	-0.5919886
70	0xbdfef828	-0.12449676
71	0xbe2dd741	-0.16976644
72	0xbe4aeb5a	-0.19816342
73	0xbf27c670	-0.65537167
74	0xbeb55d90	-0.35422945
75	0xbec90019	-0.39257887
76	0xbe5bf8d8	-0.21481645
77	0xbe842583	-0.2580987
78	0xbe41f77f	-0.18942069
79	0xbd5715ec	-0.05251114
80	0xbe960198	-0.2929809
81	0xbe6396a9	-0.22225441
82	0xbe407527	-0.1879469
83	0xbe6f3ed3	-0.2336381
84	0xbf502a16	-0.8131422
85	0xbde556f7	-0.11198228
86	0xbda48700	-0.08033562
87	0x3de6a91e	0.11262725
88	0xbea3fb68	-0.32027745
89	0xbe9ee046	-0.31030482
90	0xbf06cbb0	-0.5265455
91	0xbda35f22	-0.079771295
92	0xbef22de6	-0.47300643
93	0xbe9357e6	-0.28778
94	0xbee8b069	-0.4544709
95	0xbe8f9283	-0.28041467
96	0xbdd59c15	-0.10430161
97	0xbf000cbb	-0.50019425
98	0x3ececc4f	0.4039025
99	0xbdbb1e58	-0.09136647
100	0xbe71142e	-0.23542854
101	0xbe9713a8	-0.29507184
102	0xbf0e0336	-0.5547365
103	0xbd9057fe	-0.07048033
104	0xbedb73c0	-0.42861748
105	0xbdff900d	-0.124786474
106	0xbe923018	-0.28552318
107	0xbe60a774	-0.21938878
108	0xbf1a3d6a	-0.6024996
109	0x3d2c952f	0.04213446
110	0xbf0609c9	-0.5235868
111	0xbe0d3df1	-0.1379316
112	0xbf311e2a	-0.6918665
113	0xbea60803	-0.32427987
114	0xbe4bd094	-0.19903785
115	0xbeef9eef	-0.46800944
116	0xbebf4dba	-0.37363988
117	0xbd30599a	-0.0430542
118	0xbee20310	-0.44142962
119	0xbf00228e	-0.50052726
120	0xbda834ef	-0.08213221
121	0xbd571381	-0.052508835
122	0xbf1ad79b	-0.6048524
123	0xbd8f498a	-0.06996448
124	0xbe9175a8	-0.28410077
125	0xbe207bb6	-0.15672192
126	0xbdac2033	-0.08404579
127	0xbde29c92	-0.1106502
128	0x3d444d65	0.04792537
129	0x3a936105	0.0011244124
130	0xbd44a7d7	-0.048011627
131	0x3c8ab05b	0.016929796
132	0xbc42727c	-0.0118681155
133	0x3d42ad52	0.047528572
134	0xbd2298be	-0.039696448
135	0xbd75288d	-0.059853125
136	0x3ddcef07	0.10787778
137	0x3e1d3d4b	0.15355413
138	0xbdc03c5a	-0.09386511
139	0x3cf37314	0.02971796
140	0xbd9b8119	-0.07592983
141	0x3e0e2dd0	0.13884664
142	0x3df138ab	0.11778387
143	0x3be56ca1	0.007001475
144	0xbd282082	-0.041046627
145	0x3e3f1b4c	0.18662757
146	0xbd08e157	-0.033418026
147	0x3cac9691	0.02106789
148	0x3dfdc407	0.12390905
149	0xbca0cbff	-0.019628523
150	0xbe8659b3	-0.2624031
151	0x3d625fbe	0.055267088
152	0x3e12e117	0.14343677
153	0x3e374001	0.1789551
154	0xbe16e6cc	-0.1473648
155	0xbe26bb1f	-0.16282319
156	0xbdccf3ae	-0.10007416
157	0x3d0dc28f	0.034609374
158	0x3da8777e	0.08225916
159	0x3d7d1485	0.061787147
160	0xbb43b54a	-0.0029862695
161	0xba61f4dd	-0.00086195563
162	0x3c196277	0.009361855
163	0x3d0615e2	0.032735713
164	0xbdbfb43a	-0.09360547
165	0x3e38f720	0.1806302
166	0x3e155c13	0.14585905
167	0xbdd5c75c	-0.104384154
168	0xbcd23e5c	-0.0256645
169	0x3e13f0d7	0.14447342
170	0xbc5c7e3f	-0.013457834
171	0x3d02dc27	0.031948235
172	0x3cb33144	0.021874078
173	0xbe801be4	-0.2502128
174	0x3dbff133	0.09372177
175	0xbc086e43	-0.00832707
176	0xbda8b28c	-0.0823718
177	0x3db9c241	0.09070254
178	0x3da14f74	0.078764826
179	0x3b0b7226	0.0021277755
180	0x3e19d225	0.1502157
181	0xbd8e51e6	-0.06949215
182	0x3ddec9d4	0.108783394
183	0x3d6d1e6a	0.057890333
184	0xbcd844cf	-0.026399998
185	0xbe2b0564	-0.16701275
186	0xbe75549d	-0.23958059
187	0xbc644f17	-0.013934872
188	0xbca8df0f	-0.020614175
189	0xbe026e3a	-0.1273736
190	0x3db1af5e	0.08676027
191	0xbce274df	-0.02764362
192	0xbeb5fa5f	-0.3554258
193	0xbeaf6a00	-0.3426056
194	0xbec1d7db	-0.37859997
195	0xbedcadc2	-0.43101317
196	0xbf3633f2	-0.7117301
197	0xbee96f7c	-0.45592868
198	0xbe908142	-0.28223616
199	0xbed2701a	-0.41101152
200	0xbf340c8d	-0.7033165
201	0xbf38eafc	-0.7223356
202	0xbeea64ae	-0.45779938
203	0xbf2d4d27	-0.6769585
204	0xbeff8b6b	-0.49911055
205	0xbe4ef597	-0.20210873
206	0xbf30dcb1	-0.6908675
207	0xbf005db2	-0.5014297
208	0xbe8b324d	-0.27186814
209	0xbf90b4fe	-1.1305234
210	0xbf3f710d	-0.74781877
211	0xbf2a42ac	-0.66507983
212	0xbe397509	-0.18111052
213	0xbe67caaf	-0.22635911
214	0xbf703159	-0.938253
215	0x3dac9cdd	0.08428357
216	0xbee4ad12	-0.44663292
217	0xbeb7fab8	-0.3593347
218	0xbf53d9dc	-0.827543
219	0xbd463e70	-0.04839939
220	0xbf04ac6d	-0.518256
221	0xbe856791	-0.26055577
222	0xbf2d465f	-0.676855
223	0xbf77518f	-0.96608824
224	0xbf06c600	-0.52645874
225	0xbf52d184	-0.82350945
226	0xbccbfb36	-0.02490006
227	0xbf11a4cc	-0.56892085
228	0xbdd66cd0	-0.10469973
229	0xbd417e91	-0.047239844
230	0xbf172289	-0.5903707
231	0xbed953bc	-0.42446697
232	0xbf204e5c	-0.62619567
233	0xbe7dd890	-0.24789643
234	0xbe064d5a	-0.13115445
235	0xbe997f04	-0.29979718
236	0xbf5276ee	-0.8221272
237	0xbf1e3e71	-0.6181403
238	0xbef95282	-0.4869576
239	0x3e579c68	0.21055758
240	0xbed2cf5a	-0.41173822
241	0xbf42344b	-0.7586104
242	0xbf1b3a4b	-0.60635823
243	0xbec5407e	-0.38525766
244	0xbf1fb18e	-0.623803
245	0xbe207ab1	-0.15671803
246	0xbea37759	-0.31926993
247	0xbf22e979	-0.636375
248	0x3dae1ba5	0.085013665
249	0xbf367dc4	-0.71285653
250	0xbf4cf50e	-0.80061424
251	0xbee461af	-0.44605777
252	0xbf383927	-0.7196221
253	0xbede5241	-0.4342213
254	0xbf160bd6	-0.5861181
255	0xbe302291	-0.17200686

Encoder.encoder_attn.0.weight f4 [20, 148]
0	0xbee7c8a1	-0.45270255
1	0xbec9aaa5	-0.39388004
2	0xbe22ce88	-0.15899098
3	0x3f061ea0	0.5239048
4	0xbd9d0807	-0.07667547
5	0xbf3fb592	-0.7488643
6	0xbf6c0109	-0.9218908
7	0xbec3a130	-0.38208914
8	0xbef19ffd	-0.47192374
9	0x3eb63124	0.35584366
10	0x3d3db949	0.04631928
11	0xbe517ed3	-0.20458536
12	0x3f0fc8e1	0.5616589
13	0x3f5d5e63	0.8647215
14	0xbf81dca6	-1.0145462
15	0x3e2bd0cc	0.16778868
16	0x3fd7b66a	1.6852543
17	0xbf03f4ba	-0.515453
18	0x3ed8658e	0.4226498
19	0xbf1d3dae	-0.6142224
20	0x3e96a2ab	0.2942098
21	0x3f898d24	1.0746198
22	0x3f632ffe	0.88745105
23	0x3e1471af	0.14496492
24	0x3e68ea42	0.22745612
25	0xbf002ea2	-0.50071156
26	0xbf218ccb	-0.6310546
27	0xbd019883	-0.031639587
28	0xbf1365a0	-0.5757694
29	0xbf8158c4	-1.0105214
30	0xbf0b06cf	-0.54307264
31	0x3f1aef0e	0.6052102
32	0x3dc69434	0.09696236
33	0xbee58028	-0.44824338
34	0xbefb4961	-0.4907942
35	0x3f09e9c3	0.5387232
36	0xbf9b6064	-1.2138791
37	0xbe16ec80	-0.14738655
38	0x3eb9c56e	0.3628344
39	0x3da7dac9	0.08196027
40	0x3f8900cd	1.0703369
41	0xbd8c7eae	-0.068601
42	0x3edb3c13	0.4281927
43	0x3f1da0b5	0.61573344
44	0x3f51704b	0.8181197
45	0x3f29ede6	0.6637863
46	0xbf35b228	-0.7097497
47	0xbf8c7536	-1.097327
48	0xbabe1a13	-0.001450362
49	0xbed25b4f	-0.41085288
50	0x3ea32dc9	0.3187087
51	0xbea8599f	-0.32880875
52	0xbf4cb184	-0.7995837
53	0xbdae549d	-0.085122325
54	0x3dfced8c	0.12349996
55	0x3ecb2c0f	0.39682052
56	0x3efc19d1	0.49238446
57	0x3f87cecf	1.0609988
58	0xbe9490f5	-0.29016843
59	0xbf49c3fb	-0.7881467
60	0xbf0c62bd	-0.5483816
61	0x3ef1aef9	0.47203806
62	0x3e20cf48	0.15704072
63	0xbe979bfc	-0.29611194
64	0xbf0e1991	-0.5550776
65	0xbeec9c47	-0.4621298
66	0xbe9bb1f6	-0.3040921
67	0x3f1dfbae	0.6171216
68	0x3dc6e620	0.097118616
69	0xbf4a7b13	-0.79094046
70	0xbf3e652e	-0.7437314
71	0xbdc3b62e	-0.095562324
72	0xbf1056c0	-0.5638237
73	0x3e385185	0.17999847
74	0xbe2eba97	-0.17063366
75	0xbe0c8728	-0.13723433
76	0x3ede42a3	0.43410215
77	0x3f8d3ddd	1.1034504
78	0xbf91a335	-1.1377932
79	0x3e120843	0.14260964
80	0x3fdb7730	1.7145748
81	0xbee30646	-0.44340724
82	0x3f134eec	0.575423
83	0xbf417ff3	-0.7558586
84	0x3e39d6af	0.18148302
85	0x3f8da57b	1.1066126
86	0x3f87123f	1.0552443
87	0x3e8978ee	0.26850075
88	0x3e3f6d3d	0.18694015
89	0xbef08670	-0.46977568
90	0xbf26d022	-0.65161335
91	0xbe0e6c43	-0.13908486
92	0xbeded533	-0.43522033
93	0xbf926852	-1.1438086
94	0xbef9505c	-0.48694122
95	0x3f41deed	0.7573078
96	0x3db6a7ea	0.08918746
97	0xbdb186a4	-0.08668259
98	0xbe8c81d5	-0.27442804
99	0x3f5694af	0.83820623
100	0xbfa5e6cd	-1.296106
101	0xbe8c1f32	-0.2736755
102	0x3ed6470e	0.41851085
103	0x3da2b45a	0.079445556
104	0x3f937112	1.1518881
105	0xbe1847ce	-0.14871141
106	0x3f0672ce	0.5251893
107	0x3f07bc7d	0.53021985
108	0x3f61c019	0.8818374
109	0x3f44d465	0.7688659
110	0xbf1c1f76	-0.60985506
111	0xbfa93b2b	-1.3221182
112	0x3d562298	0.052279085
113	0xbefae450	-0.49002314
114	0x3ec2f032	0.3807388
115	0xbec4fdd8	-0.38474917
116	0xbf6bf7a5	-0.9217475
117	0xbacc36b6	-0.001558027
118	0x3e0bb9d9	0.13645114
119	0x3e8b0185	0.27149597
120	0x3e8fbd77	0.28074238
121	0x3f70094f	0.93764204
122	0xbec6b688	-0.38811135
123	0xbf651ccd	-0.8949707
124	0xbedda643	-0.4329091
125	0x3f007eaa	0.50193274
126	0x3dc29324	0.09500721
127	0xbea3c90a	-0.31989318
128	0x3cebd53c	0.028788202
129	0xbef147cf	-0.47125098
130	0x3ee3cc79	0.44491938
131	0xbf5300ae	-0.8242291
132	0xbef76772	-0.4832111
133	0x3bd5abf5	0.006520743
134	0x3e44a283	0.19202618
135	0x3eba8e22	0.36436564
136	0x3e0b60b4	0.13611108
137	0xbd7a6833	-0.06113453
138	0x3ed18d7b	0.40928254
139	0x3f46b683	0.7762224
140	0x3db9bbe5	0.09069041
141	0x3f1b7201	0.6072083
142	0x3d2066e0	0.03916061
143	0xbeaa088b	-0.33209643
144	0x3e811bd8	0.25216556
145	0xbeed4716	-0.46343297
146	0xbe54602b	-0.2073981
147	0xbf02c859	-0.51086956
148	0xbf2e90a0	-0.6818943
149	0x3ef33c9a	0.47507173
150	0xbf176dad	-0.59151727
151	0xbee34e3f	-0.44395635
152	0x3e83ea68	0.25764775
153	0xbe5f0067	-0.21777497
154	0xbd64ef11	-0.055892054
155	0xbecff8d5	-0.4061953
156	0xbd921bbf	-0.071341984
157	0xbeb470c2	-0.35242277
158	0x3e06cec6	0.13164815
159	0x3d887aaa	0.06664021
160	0x3f389817	0.7210707
161	0x3ecf86eb	0.40532622
162	0xbdc0b297	-0.09409063
163	0x3d852bcf	0.065024965
164	0x3f6aefda	0.91772234
165	0xbeac88c2	-0.33698088
166	0xbd92c469	-0.071663685
167	0xbe8d48c7	-0.27594587
168	0xbdb7b169	-0.08969385
169	0x3d55b456	0.052173935
170	0x3ec327f6	0.38116425
171	0x3f1743dd	0.59087926
172	0xbeede080	-0.46460342
173	0xbf29a38e	-0.6626519
174	0xbf1a30d5	-0.6023076
175	0xbebac363	-0.36477193
176	0x3d472347	0.048617627
177	0xbe9a2abc	-0.3011073
178	0xbee76b85	-0.45199218
179	0x3ef6477a	0.48101407
180	0x3f19b709	0.60044914
181	0x3f035dfa	0.5131527
182	0x3e1a4b62	0.15067819
183	0xbd5651a5	-0.052323956
184	0xbea97599	-0.33097532
185	0x3e20f886	0.15719804
186	0x3f08c991	0.53432566
187	0x3f07bb16	0.53019845
188	0xbe008170	-0.12549376
189	0xbf2cf089	-0.6755453
190	0xbe3c2d48	-0.18376648
191	0x3e7ad70f	0.24496101
192	0xbee42324	-0.4455806
193	0x3f4e22db	0.80521935
194	0xbeb421ff	-0.35182187
195	0xbf229353	-0.6350605
196	0xbbe40b21	-0.0069593345
197	0xbe49470b	-0.19656007
198	0xbf350144	-0.70705056
199	0xbe5fed15	-0.21867783
200	0xbeeb6d1f	-0.4598169
201	0x3bbec4c5	0.0058217966
202	0xbef711fd	-0.4825591
203	0x3e3f21f7	0.186653
204	0x3f0ea88c	0.5572593
205	0x3ec1b7c5	0.37835518
206	0xbd95ac1c	-0.07308218
207	0xbecc396f	-0.39887568
208	0x3c454b03	0.01204181
209	0xbf17518b	-0.591088
210	0xbd532d1e	-0.0515567
211	0xbb97b9c5	-0.0046302998
212	0xbf3b87b2	-0.7325393
213	0x3e6e1ca9	0.2325312
214	0xbf3917e8	-0.72302103
215	0xbe523e5a	-0.20531598
216	0x3e5b6d0a	0.21428314
217	0xbe42acdf	-0.19011258
218	0xbe02c4cb	-0.12770383
219	0xbeff8e14	-0.49913085
220	0xba908f1d	-0.0011028979
221	0xbef41311	-0.47670797
222	0x3ecf02dd	0.40431872
223	0x3d95975f	0.07304262
224	0x3f56680e	0.83752525
225	0x3e7a9266	0.24469909
226	0xbe39f96f	-0.18161558
227	0x3d9534bd	0.0728545
228	0x3f5883d6	0.84576166
229	0xbf4f5692	-0.8099147
230	0x3d27abd2	0.040935345
231	0xbe3064ea	-0.17225996
232	0xbe928d22	-0.286233
233	0x3e06dbad	0.13169737
234	0x3f3a3042	0.72729886
235	0x3dc26d3d	0.09493492
236	0xbe53a4e9	-0.20668377
237	0xbf3aeab6	-0.7301439
238	0xbec65ca7	-0.38742563
239	0xbecca4f5	-0.39969602
240	0x3eb03694	0.3441664
241	0xbe272d16	-0.16325793
242	0xbf19e0a5	-0.60108405
243	0x3f137835	0.57605296
244	0x3f167407	0.58770794
245	0x3edf769a	0.43645173
246	0x3decfa25	0.11571149
247	0xbe0c4f46	-0.13702115
248	0xbeb2c894	-0.34918654
249	0xbd9a5769	-0.075362034
250	0x3d9f4157	0.077761345
251	0x3efe6cf9	0.49692515
252	0xbe88df60	-0.26732922
253	0xbf13d274	-0.57743
254	0xbdf2c62d	-0.11854205
255	0xbe1ccbc6	-0.15312108

Encoder.encoder_attn.0.bias f4 [20]
0	0xbf818b81	-1.0120698
1	0xbf33bd81	-0.70211035
2	0x3f7e94c3	0.9944574
3	0x3fa5e2bf	1.2959822
4	0x3f829113	1.0200523
5	0xbf730e03	-0.94943255
6	0x3ec0d35c	0.37661254
7	0xbed20390	-0.41018343
8	0x3f0f252a	0.5591608
9	0xbf3861c5	-0.72024184
10	0x3f848f37	1.0356206
11	0x3e6c4a4e	0.2307522
12	0xbf5e230d	-0.86772233
13	0xbf15e7b5	-0.5855668
14	0xbe512b31	-0.20426632
15	0xbec95f1c	-0.39330375
16	0x3f89646b	1.073377
17	0xbf94e3cd	-1.1632019
18	0x3f105143	0.56373996
19	0xbf075c85	-0.5287555

Encoder.encoder_attn.2.weight f4 [1, 20]
0	0x3ee3943a	0.44449025
1	0x3f4a94e3	0.79133433
2	0xbf9a447f	-1.2052153
3	0x3fe4e1b0	1.7881374
4	0xbf2fe104	-0.6870272
5	0x3f5ec584	0.87020135
6	0xbf1ad02f	-0.6047391
7	0x3ed05316	0.4068839
8	0x3ee640c8	0.449713
9	0x3f44b462	0.7683774
10	0xbfa74780	-1.3068695
11	0xbef8522d	-0.48500195
12	0xbf9f0cf4	-1.2425828
13	0x3f36f30e	0.7146462
14	0xbf25c415	-0.6475232
15	0x3f1c78db	0.6112191
16	0xbf80b94f	-1.0056552
17	0x3f3fbe9f	0.7490024
18	0xbf1a3b41	-0.60246664
19	0x3f6181b8	0.8808856

Decoder.attn_layer.0.weight f4 [64, 192]
0	0x3e338ec5	0.17534931
1	0xbf0a3ed4	-0.5400212
2	0x3e9c9b35	0.30587164
3	0xbf1a4161	-0.6025601
4	0x3eb8be4f	0.36082694
5	0xbd07d7d7	-0.033164825
6	0xbdee565f	-0.11637568
7	0x3de7b2aa	0.11313374
8	0xbe9e98d8	-0.30975986
9	0x3dbd8df9	0.09255595
10	0xbf329aca	-0.6976744
11	0x3edd5a69	0.4323304
12	0xbe1939f5	-0.14963515
13	0x3fa431d7	1.282771
14	0xbabfc35f	-0.0014630369
15	0x3eaf8ecf	0.34288642
16	0xbf4bfe87	-0.7968525
17	0xbe833384	-0.2562524
18	0xbf0f11f3	-0.55886763
19	0xbf76f979	-0.96474415
20	0xbe4ff104	-0.20306784
21	0xbef08bcb	-0.46981654
22	0xbef5c1cd	-0.4799942
23	0x3d6dad06	0.058026336
24	0xbe15c754	-0.14626819
25	0x3d3ebdb8	0.04656765
26	0xbcc70b1d	-0.024297291
27	0x3e813a2c	0.25239694
28	0x3f70a14f	0.9399614
29	0x3e6612c5	0.22468098
30	0x3e426b56	0.18986258
31	0x3ceac7e1	0.028659763
32	0xbd8a827b	-0.067631684
33	0xbe6ccebc	-0.23125738
34	0xbf4f7dd9	-0.81051403
35	0x3e285e98	0.16442335
36	0xbef7b199	-0.48377684
37	0x3f4c65ac	0.7984264
38	0x3f1ce7b1	0.61291033
39	0xbf49c827	-0.78821033
40	0xbf682243	-0.9067728
41	0xbe272db5	-0.1632603
42	0xbf6c17c1	-0.92223746
43	0x3ee71d76	0.45139664
44	0xbedcc39e	-0.43117994
45	0xbe449132	-0.19196013
46	0x3d81558d	0.06315146
47	0xbedc0314	-0.42971098
48	0x3e0bf201	0.13666536
49	0xbf583b9a	-0.84465945
50	0xbe15aef0	-0.14617515
51	0x3eef5c88	0.46750283
52	0xbf983535	-1.1891237
53	0x3e893e16	0.2680518
54	0x3d337d87	0.043820884
55	0xbe5b348b	-0.21406762
56	0xbf4ac66f	-0.79209036
57	0x3de2411c	0.11047575
58	0xbdab6ad9	-0.08369989
59	0x3f364f12	0.712144
60	0x3d8868c9	0.06660611
61	0x3f2336c5	0.63755447
62	0x3d87a4d4	0.06623235
63	0x3f2c1c2b	0.6723048
64	0x3e787507	0.24263392
65	0xbef3ede3	-0.4764243
66	0x3df38e6b	0.118923984
67	0xbef56067	-0.47925112
68	0x3e63fcc6	0.22264394
69	0xbd049ab6	-0.032374106
70	0x3e613513	0.21992902
71	0x3d9b1e11	0.07574094
72	0xbe9a23f6	-0.3010556
73	0x3ec15617	0.37760994
74	0xbe97af41	-0.29625896
75	0x3f0665c6	0.52499044
76	0x3c2cbfa5	0.0105437385
77	0x3f9e75ac	1.2379661
78	0x3e9c2134	0.30494082
79	0x3e9bb26e	0.3040957
80	0xbf3193a3	-0.693659
81	0xbed56371	-0.4167743
82	0xbf48aa4c	-0.7838485
83	0xbeccdfd3	-0.40014514
84	0x3d4b15c4	0.049581304
85	0xbec06359	-0.37575796
86	0xbedbd1dd	-0.4293355
87	0xbda3aa51	-0.0799147
88	0xbed0d106	-0.40784472
89	0x3dd000d2	0.101564065
90	0xbe925359	-0.28579214
91	0x3eb2bfc7	0.3491194
92	0x3f2c5dd5	0.67330676
93	0x3e8dd67a	0.27702695
94	0x3f28417b	0.65724915
95	0x3e11908a	0.14215294
96	0xbeae62d8	-0.34059787
97	0xbec5f17b	-0.38660797
98	0xbf82a5d7	-1.020686
99	0x3f04c66c	0.5186527
100	0xbf457dfc	-0.7714536
101	0x3f570e05	0.8400577
102	0x3f4b42e5	0.7939895
103	0xbf5f356e	-0.871909
104	0xbf9a7109	-1.2065746
105	0x3e316a2e	0.1732566
106	0xbf6b3c0a	-0.9188849
107	0x3f3cf91f	0.7381763
108	0xbe5c0cd6	-0.21489272
109	0xbe3b358c	-0.18282145
110	0xbe0973eb	-0.13423125
111	0xbe42b0fa	-0.19012824
112	0xbe856bf5	-0.26058927
113	0xbf80ec7e	-1.0072172
114	0x3c2b7e50	0.010467127
115	0x3ed388cc	0.41315305
116	0xbf3d26ad	-0.7388714
117	0x3e552f17	0.20818745
118	0xbe561092	-0.20904759
119	0xbde97dbe	-0.114009365
120	0xbf319ad0	-0.6937685
121	0x3e23eb85	0.16007812
122	0x3d2f01d8	0.042726368
123	0x3f50b125	0.815203
124	0x3df0aa74	0.11751261
125	0x3f9aa61e	1.2081945
126	0x3d89ddcd	0.06731758
127	0x3f21445a	0.6299492
128	0xbe5ccdd1	-0.21562888
129	0x3ed378b2	0.4130302
130	0xbd3bf597	-0.04588851
131	0xbf10bcde	-0.5653819
132	0x3c82cbce	0.015966322
133	0x3f29fc5a	0.6640068
134	0xbe43426e	-0.1906831
135	0xbdc6007e	-0.096680626
136	0xbdf41e0c	-0.119197935
137	0x3f0a724b	0.5408065
138	0xbe6584a3	-0.22413878
139	0xbe349cc3	-0.17637925
140	0x3ecdb897	0.40179893
141	0x3e8559f0	0.2604518
142	0x3d91963f	0.07108735
143	0x3e88db13	0.2672964
144	0xbe59af64	-0.21258312
145	0x3e6a2f77	0.22869669
146	0x3bd0987c	0.006365834
147	0xbe93ccee	-0.28867286
148	0x3e0f9059	0.14019908
149	0x3e40cd70	0.18828368
150	0xbe36ac3c	-0.1783914
151	0xbda1bff7	-0.078979425
152	0xbf3a800b	-0.7285163
153	0x3f0bc7b0	0.54601574
154	0xbc99acae	-0.018759098
155	0xbe6ade6a	-0.22936407
156	0x3dbed97f	0.09318828
157	0xbe0c17be	-0.13680932
158	0xbd4e50c8	-0.050370008
159	0x3cab29d2	0.020893965
160	0xbbe0ec77	-0.0068641263
161	0xbe8e1fc8	-0.27758622
162	0x3e0ef3b6	0.13960156
163	0xbe223563	-0.15840678
164	0xbd66fa35	-0.05639096
165	0xbe1cb145	-0.15301998
166	0xbd4541f6	-0.04815861
167	0xbe5599da	-0.20859471
168	0xbc513e8b	-0.012771259
169	0xbe91e720	-0.28496647
170	0x3d401550	0.046895325
171	0x3eaa9768	0.3331864
172	0x3db78443	0.08960774
173	0xbe6c2360	-0.2306037
174	0xbdb414c3	-0.087930225
175	0x3de6797a	0.112536386
176	0xbc5b8bc0	-0.013400018
177	0xbf1172b9	-0.5681568
178	0xbe8c06c5	-0.27348915
179	0x3eb74a0a	0.35798675
180	0xbb2a0574	-0.0025943192
181	0x3d30d387	0.04317048
182	0xbe63b44a	-0.22236744
183	0xbea4d6ce	-0.32195133
184	0xbe4d0400	-0.20021057
185	0xbe7ae5ef	-0.24501775
186	0xbe80901d	-0.2510995
187	0xbeec6b24	-0.46175492
188	0xbe03272d	-0.12807913
189	0xbed43148	-0.4144385
190	0x3e28763e	0.16451356
191	0x3ec31d3a	0.38108236
192	0xbf1cf613	-0.6131298
193	0x3d9ec3f9	0.077522226
194	0x3f35558d	0.70833665
195	0x3ebeff39	0.37304094
196	0x3f12284d	0.57092744
197	0x3e18dc37	0.14927755
198	0x3f0b52cd	0.5442322
199	0x3cbd4b3a	0.02310716
200	0x3ee89e93	0.45433483
201	0xbf04d499	-0.518869
202	0x3ea30b90	0.3184476
203	0xbf09afeb	-0.53784055
204	0xbea53b83	-0.32271966
205	0xbf588127	-0.8457207
206	0xbe018a5f	-0.1265044
207	0x3eb727cf	0.3577256
208	0xbd6d1dda	-0.057889797
209	0x3e8e48ea	0.27790004
210	0x3e3cf278	0.1845187
211	0x3f0c698f	0.5484857
212	0xbcb75693	-0.022380149
213	0x3f4f72ef	0.8103475
214	0xbe401093	-0.18756323
215	0xbe920583	-0.2851983
216	0xbdf86597	-0.12128752
217	0xbf312ed2	-0.6921207
218	0xbe7cfc90	-0.2470572
219	0xbe62ce7e	-0.22149083
220	0xbe98bfbd	-0.29833785
221	0x3ee10e7d	0.43956366
222	0xbf47e7a9	-0.7808786
223	0x3e581d3f	0.21104906
224	0x3e8e391a	0.2777794
225	0x3e951e1f	0.29124543
226	0xbea336f6	-0.3187787
227	0x3e0bbdf0	0.13646674
228	0xbed93fbc	-0.42431438
229	0xbf42f25b	-0.76151055
230	0xbf9bba82	-1.2166293
231	0x3dfb00df	0.122560255
232	0x3f130dac	0.57442737
233	0xbe450394	-0.19239646
234	0xbec7201e	-0.3889169
235	0x3ecb9712	0.39763695
236	0x3c884201	0.016633036
237	0xbf0e400f	-0.55566496
238	0xbc42b9af	-0.011885091
239	0xbd29c64e	-0.041448884
240	0xbeafa7e4	-0.34307778
241	0x3f04f35b	0.5193383
242	0x3dbb71bb	0.09152552
243	0xbeafaa90	-0.34309816
244	0x3ed70d1d	0.42002192
245	0xbdc5ec44	-0.09664205
246	0xbde915be	-0.113811
247	0x3f5b303e	0.85620487
248	0x3ef749c9	0.4829848
249	0xbeab178d	-0.33416405
250	0x3e1d89bf	0.15384577
251	0xbf08dd2d	-0.5346249
252	0xbd337b08	-0.043818504
253	0xbe9beece	-0.3045563
254	0xbdbd9100	-0.09256172
255	0x3ebbd1ea	0.3668359

Decoder.attn_layer.0.bias f4 [64]
0	0x3ec9a2e9	0.39382103
1	0xbee75258	-0.4518001
2	0xbf5dca0a	-0.8663641
3	0x3f4637ca	0.7742888
4	0xbef353ae	-0.4752478
5	0x3e436fe6	0.19085655
6	0x3f342acc	0.703778
7	0xbeae7594	-0.3407408
8	0xbf08c288	-0.5342183
9	0x3ec4392e	0.38324875
10	0x3ec83b7a	0.39107877
11	0x3eaa4251	0.3325372
12	0xbf3946b9	-0.7237354
13	0xbf2e6788	-0.68126726
14	0x3ed435e4	0.41447365
15	0xbe1f421e	-0.15552565
16	0xbed49b2d	-0.4152464
17	0x3f41bb3f	0.7567634
18	0x3ee2dc7b	0.44308838
19	0xbedd22b7	-0.43190548
20	0x3eb0b870	0.34515715
21	0xbe9f1a99	-0.3107498
22	0x3ee52cc7	0.44760725
23	0xbf03e47d	-0.5152052
24	0xbe5ef84a	-0.21774402
25	0xbea8b90c	-0.3295368
26	0x3e5aabdb	0.2135462
27	0x3cf2b10c	0.029625438
28	0xbf26f243	-0.6521341
29	0x3eb382db	0.35060772
30	0x3db52883	0.088456176
31	0xbc7ed307	-0.0155532425
32	0x3ef6e5a2	0.4822207
33	0xbf0eeeb0	-0.5583296
34	0xbe32573e	-0.17416093
35	0x3ea2b42f	0.31778094
36	0x3e84bee7	0.25926897
37	0x3f337adf	0.7010936
38	0xbcef10e0	-0.029182851
39	0x3f00fda0	0.50387
40	0x3f1b22a8	0.60599756
41	0xbeaba2fd	-0.33522788
42	0xbec804b7	-0.39066097
43	0xbd647041	-0.055771116
44	0x3d3e2652	0.046423264
45	0xbc61cead	-0.0137821855
46	0x3ebc575c	0.367854
47	0xbd41eb8b	-0.047343772
48	0xbeeeaee6	-0.46617812
49	0xbeab1b09	-0.33419064
50	0x3ed384fb	0.41312394
51	0xbf2b92fe	-0.6702117
52	0xbeaaadcb	-0.3333572
53	0xbea0b2e6	-0.3138649
54	0x3ef14ab3	0.47127303
55	0xbea83134	-0.3285004
56	0xbdd5e29f	-0.10443615
57	0xbe8b617e	-0.27222818
58	0x3f4aee57	0.7926993
59	0xbe285500	-0.16438675
60	0x3e6ec6e4	0.23318058
61	0xbd271b9d	-0.04079782
62	0xbe025578	-0.12727916
63	0xbf1206ea	-0.570418

Decoder.attn_layer.2.weight f4 [1, 64]
0	0x3e1b0e8c	0.15142268
1	0xbeb249ec	-0.34822023
2	0x3eb65328	0.35610318
3	0xbece685d	-0.40313998
4	0x3def7903	0.11693003
5	0xbdd66b46	-0.104696795
6	0xbe2b9236	-0.16754994
7	0xbe67b768	-0.22628558
8	0xbe48eb6d	-0.19621058
9	0xbedb77f6	-0.4286496
10	0xbe6e2971	-0.23257996
11	0xbdf3844d	-0.11890469
12	0xbe8c000e	-0.27343792
13	0x3e9d9451	0.3077722
14	0xbe8c25c0	-0.2737255
15	0xbe5b9ef4	-0.21447355
16	0x3eb053e8	0.34439015
17	0xbdaf6be5	-0.08565501
18	0xbea25b72	-0.31710392
19	0x3e87fa3d	0.26558104
20	0x3e02d874	0.12777883
21	0xbe7570c7	-0.23968802
22	0x3e8610fd	0.26184836
23	0xbe7f2d1e	-0.24919555
24	0x3ea07640	0.31340218
25	0xbe0d482d	-0.13797064
26	0xbe0d3c9c	-0.13792652
27	0xbe8f578d	-0.27996483
28	0x3ea7f62b	0.32805
29	0xbe3719d1	-0.17880942
30	0x3e493ded	0.19652529
31	0x3ed8cb19	0.4234245
32	0xbd7c512b	-0.061600845
33	0xbe8de074	-0.27710307
34	0x3e9b16fd	0.30290976
35	0xbe4b4ba0	-0.19853067
36	0x3e1f5f3c	0.15563673
37	0x3e7cdccb	0.24693601
38	0x3ea48c9e	0.32138532
39	0xbe1f295f	-0.15543126
40	0xbea6a4d5	-0.32547632
41	0x3e91889a	0.2842453
42	0xbe55a60a	-0.2086412
43	0x3e5a73bb	0.2133321
44	0xbdd0b8a0	-0.101914644
45	0x3e5f7551	0.21822096
46	0xbdea9d22	-0.11455752
47	0xbef21975	-0.47285047
48	0x3e0d08b7	0.13772856
49	0x3ce8923b	0.02839004
50	0xbe938355	-0.28811136
51	0xbee65b89	-0.4499171
52	0xbe0a5d99	-0.13512267
53	0xbea8a690	-0.32939577
54	0xbe2f987b	-0.1714801
55	0x3ee91e64	0.45531
56	0x3e8239eb	0.25434813
57	0xbe8ce983	-0.27521905
58	0x3d9ce437	0.07660716
59	0xbeb827f0	-0.3596797
60	0xbed41858	-0.41424823
61	0x3ed0fe1a	0.40818864
62	0xbe649381	-0.22321893
63	0x3dab9f5f	0.08380007
