result/ver5_1/last.pt (torch, 633685 bytes, 48 tensors)

Encoder.encoder_lstm.weight_ih_l0 f4 [256, 6]
-0.47386646 -0.4789447 0.5093572 1.168542 1.194505 0.75602496 0.34885135 -1.3433479
-2.0174098 -1.1033776 -0.7775962 -1.6029584 -0.3667627 -0.829394 -0.9999562 0.65361184
-0.18617257 -1.3936106 0.15732397 -0.746712 0.25021487 -2.521778 -1.1732398 -1.3080198
1.0879241 0.07671911 -0.76618826 -1.7181408 -1.1273432 -1.1849399 -1.472839 -1.3651359
0.2451772 0.07635596 -0.10878233 -0.6396078 0.52645713 -0.7621341 -0.6931865 0.28744352
1.5319904 -0.5497719 0.81846553 0.78216505 0.25609493 1.0489212 1.0605738 -0.86532325
-0.6723661 -0.7376699 -0.061722767 -0.79499686 -0.8737608 0.7580284 -1.1192024 -2.2878568
-0.46972066 -1.4461085 -2.0051465 0.16548829 0.0374429 -0.35144514 -1.0700138 -2.7117457
-1.7853334 -1.8700527 1.0502688 -1.5164217 0.37745374 -0.43088815 -0.6137351 -1.4568977
0.8635452 0.422873 0.36944747 1.3389881 0.80590445 -0.4078787 0.9595599 -0.23002702
0.505621 2.2049267 1.0201116 -0.11650068 -1.6606821 -1.2161872 -1.5366896 1.1204907
1.6469578 0.5541718 0.63618284 -0.2792803 0.84341174 -0.6601389 -0.7518127 -0.14544603
-0.9379335 -1.9958664 -1.2572572 -1.7048446 -0.7789908 -0.50475967 -0.4367583 0.607727
0.22721256 0.9510513 0.47359574 1.2943375 -0.6522816 1.2914736 0.3748652 1.4134189
0.68336946 0.23435143 -0.33736593 -2.035119 0.351132 -0.16950303 -0.11841957 0.15755239
0.91090983 -1.55691 2.1054673 0.3840437 0.62751085 0.15981108 1.1274337 0.78855205
0.042578906 0.894228 0.5768029 0.39183238 -0.39479998 -0.18565547 -0.7965925 -0.7600012
-1.0135075 0.6276231 -0.21580862 -1.1133145 -0.47928816 -1.2563325 -1.3863491 -2.2285125
0.07033917 -0.08274754 0.9067866 -0.091703385 -0.07948219 0.86706537 -0.78998625 -0.037867717
-0.29427186 -0.16191 0.398322 1.2493937 -0.015093349 -0.25159836 0.21464269 0.04786756
1.0492351 0.8833921 0.2031375 -1.6111754 -0.1647881 -0.50295836 -0.1526056 -0.64894605
2.4959493 1.4973445 1.9166545 0.52144265 0.55323565 0.28479886 -0.24240243 -1.1482478
-1.0911466 0.8993921 1.1820476 -0.2807699 -0.968119 -0.6170779 -0.48851526 0.46570712
0.49848458 0.65177417 0.03687326 -0.02423746 0.9540605 -0.065987565 -0.03121421 -0.39918917
0.89878774 1.8053887 0.9356556 -0.21901287 -0.97232467 1.4899994 0.11855397 -1.0708364
-0.8096284 -1.0349785 -1.1041858 -0.780427 -0.7922127 -0.075494885 -0.66561466 -0.8668849
-0.12659177 -0.88888913 0.4306747 -0.4875004 -0.24545592 0.70765245 0.93594116 0.37000427
1.2665076 0.69439596 1.216495 -0.7309935 -0.2529697 -0.057481743 -0.43611556 -0.997864
-0.04535091 0.97182953 1.9768867 -2.0014606 0.75543743 -0.7181229 0.7336644 0.41664964
0.4763429 1.3739119 0.36243063 0.6393232 0.094630726 -0.16296636 0.07806069 -0.36939585
-1.1394267 -0.14447497 -2.2509375 1.6376628 1.0293483 -0.10652303 1.1100016 -0.016591433
-0.104329586 -1.7430956 -1.4238459 -0.1574252 0.05497133 0.5485425 0.609589 -2.0750535
00000000: a09e f2be 3d38 f5be 3c65 023f c992 953f
00000010: 8ae5 983f da8a 413f a59c b23e d3f2 abbf
00000020: 3e1d 01c0 7a3b 8dbf 8b10 47bf be2d cdbf
00000030: 52c8 bbbe 2a53 54bf 21fd 7fbf 1b53 273f
00000040: 06a4 3ebe d561 b2bf 8919 213e 8528 3fbf
00000050: 2a1c 803e d064 21c0 b92c 96bf 316d a7bf
00000060: 1941 8b3f e91e 9d3d ea24 44bf 0aec dbbf
00000070: c84c 90bf 1cac 97bf fd85 bcbf c6bc aebf
00000080: bb0f 7b3e 8360 9c3d 45c9 debd 56bd 23bf
00000090: e5c5 063f 381b 43bf ac74 31bf cc2b 933e
000000a0: 4318 c43f dabd 0cbf f586 513f f83b 483f
000000b0: e01e 833e 0d43 863f e2c0 873f d385 5dbf
000000c0: 2f20 2cbf efd7 3cbf 03d1 7cbd ea84 4bbf
000000d0: caae 5fbf 260e 423f 0642 8fbf 3f6c 12c0
000000e0: 3a7f f0be 151a b9bf 5254 00c0 c375 293e
000000f0: ba5d 193d 9ef0 b3be 36f6 88bf 3e8d 2dc0
00000100: ce85 e4bf e35d efbf 356f 863f 1b1a c2bf
00000110: 9e41 c13e 5f9d dcbe be1d 1dbf a07b babf
00000120: 4c11 5d3f cf82 d83e 3828 bd3e f663 ab3f
00000130: c14f 4e3f 7ad5 d0be b8a5 753f 348c 6bbe
00000140: 6170 013f 851d 0d40 0493 823f e997 eebd
00000150: 3b91 d4bf 06ac 9bbf 3fb2 c4bf 3d6c 8f3f
00000160: 83cf d23f 34de 0d3f e1dc 223f d4fd 8ebe
00000170: d5e9 573f ddfe 28bf cc76 40bf ceef 14be
00000180: 691c 70bf 8d78 ffbf ceed a0bf 5938 dabf
00000190: f16b 47bf ee37 01bf c99e dfbe ff93 1b3f
000001a0: 69aa 683e 1978 733f 247b f23e daac a53f
000001b0: edfb 26bf 024f a53f 55ee bf3e e9ea b43f
000001c0: 4df1 2e3f d2f9 6f3e 3abb acbe 643f 02c0
000001d0: 93c7 b33e 3492 2dbe f685 f2bd 6a55 213e
000001e0: 6331 693f d448 c7bf fabf 0640 60a1 c43e
000001f0: 8da4 203f 84a5 233e bf4f 903f 8cde 493f
00000200: 3867 2e3d 20ec 643f 5ba9 133f 419e c83e
00000210: 3923 cabe 781c 3ebe 7ced 4bbf 708f 42bf
00000220: 9dba 81bf e8ab 203f effc 5cbe 1781 8ebf
00000230: 4265 f5be 81cf a0bf e373 b1bf f39f 0ec0
00000240: fc0d 903d 8b77 a9bd 2b23 683f fcce bbbd
00000250: 8fc7 a2bd fff7 5d3f 8a3c 4abf 2e1b 1bbd
00000260: cdaa 96be bccb 25be dcf0 cb3e 22ec 9f3f
00000270: 184a 77bc 80d1 80be 4bcb 5b3e c610 443d
00000280: 564d 863f fc25 623f 4703 503e ff3a cebf
00000290: 36be 28be e1c1 00bf a444 1cbe 5421 26bf
000002a0: a2bd 1f40 fca8 bf3f ef54 f53f 447d 053f
000002b0: daa0 0d3f 28d1 913e 5838 78be c9f9 92bf
000002c0: b1aa 8bbf 903e 663f 564d 973f 13c1 8fbe
000002d0: a6d6 77bf d1f8 1dbf ac1e fabe 2a71 ee3e
000002e0: 5f39 ff3e acda 263f 6a08 173d a38d c6bc
000002f0: 4f3d 743f 7d24 87bd f1b4 ffbc 8662 ccbe
00000300: f416 663f fa16 e73f 2087 6f3f e944 60be
00000310: 45ea 78bf 4db8 be3f 6ccc f23d 2b11 89bf
00000320: cf43 4fbf 2d7a 84bf f655 8dbf 10ca 47bf
00000330: 74ce 4abf 109d 9abd b965 2abf 2bec 5dbf
00000340: 46a1 01be 3d8e 63bf 6581 dc3e a799 f9be
00000350: cc58 7bbe b628 353f d799 6f3f 3371 bd3e
00000360: ec1c a23f efc3 313f 1cb6 9b3f 6422 3bbf
00000370: 3f85 81be fa71 6bbd 8a4a dfbe 0474 7fbf
00000380: e0c1 39bd d2c9 783f a00a fd3f ee17 00c0
00000390: 5964 413f e7d6 37bf 6ed1 3b3f 1a53 d53e
000003a0: 37e3 f33e 58dc af3f 8290 b93e afaa 233f
000003b0: c1cd c13d a7e0 26be 48de 9f3d 7421 bdbe
000003c0: bcd8 91bf 3ff1 13be 5c0f 10c0 ef9e d13f
000003d0: afc1 833f bf28 dabd 8814 8e3f c2ea 87bc
000003e0: c0aa d5bd c21d dfbf 9540 b6bf 1234 21be
000003f0: 9e29 613d 486d 0c3f 060e 1c3f adcd 04c0

Encoder.encoder_lstm.weight_hh_l0 f4 [256, 64]
-0.30213735 0.9432875 -0.026586073 -0.30399156 -0.28547528 -0.7679055 1.0253282 1.3443463
-0.22906657 0.097889245 0.39454207 -0.23315406 -1.8844646 0.19904153 -0.15211138 -0.085995786
0.62395376 0.33172178 1.3379806 -0.5005496 -0.16638257 -0.862098 1.2850412 0.103071555
0.3621421 0.25528786 0.089135826 -0.11379878 -0.15003994 0.26980978 -1.1567318 0.117639385
0.15280896 0.07610736 -1.6990552 0.290725 0.021277705 -0.6898515 0.1902279 1.0149977
0.61546284 -0.72684896 -1.2834319 0.64720607 -0.26982433 0.5637195 -0.8564004 0.24377728
0.64041513 -1.1401346 -0.058772117 -0.24771732 -0.80315137 0.28549796 -0.45669815 0.17439865
0.08981469 0.24152191 -0.15402818 -0.18952164 0.7957628 -0.16081272 0.030650515 0.24359533
-0.6936538 0.763973 0.54870206 -0.67635465 -1.1799241 0.2891798 0.73791414 -0.12730773
0.23923211 1.6473658 -0.3309494 -0.16712305 -0.305012 -0.3426426 0.35524443 0.18306865
0.47870815 -0.0019207504 -0.08786439 0.24560918 -0.23699498 0.9201522 -0.023669548 -0.25885266
0.17032422 -0.14233047 -0.37301555 0.59630895 0.020863982 -0.15480605 1.0561086 0.711106
0.031199517 -0.0632404 0.09120099 0.054879826 0.3432443 -0.5709878 -0.15634057 -0.33108062
-0.3563251 0.17129123 0.038015462 -0.041083947 0.2372029 0.64527774 -0.7577631 0.13033275
0.33537805 -0.83587897 0.079627946 -0.026783403 -0.52911043 0.42577335 0.17001708 -0.60044944
-0.41557294 0.064705074 0.40571675 0.5405258 -0.47468668 -0.9908964 0.77369183 0.33211282
0.039145395 -1.2170123 0.70779693 1.0884112 -0.12915482 -1.9129419 0.48022553 0.049159072
-0.5611029 0.65397036 0.8810924 1.0269011 -0.50182986 -0.8074263 -0.10539168 -0.24848753
1.758132 1.6720761 1.9301757 -0.77388656 0.67958325 -0.3081766 1.6110997 -1.3525132
0.8733613 -1.0000991 -0.023265969 -0.94374985 -0.59171826 0.36028603 -0.5134639 -0.13438658
-0.48977822 -0.10349242 -1.2873496 1.6707196 -0.29166654 -0.7404054 0.747428 0.9599384
1.9740939 -0.16675247 0.27733293 -1.4987975 0.68394905 1.7462837 0.36525396 0.27152967
-0.25775436 -0.6186732 -0.44305658 -0.6945672 -0.6819845 0.076028794 0.52070934 -0.1564761
-0.82359606 1.9029312 -0.3567687 1.0953349 1.168125 0.5798634 -0.4090672 -0.763861
0.6167493 -0.39699125 1.2479119 0.44812676 0.023933329 -0.9832911 -0.3921978 0.6950716
-1.342228 0.27972224 0.06955888 0.024696048 -0.14792268 -0.75613046 0.6780944 0.32651183
-1.0893326 1.8405222 0.8559071 -1.0446143 0.85362554 -1.2484106 1.2280821 0.09556572
0.20145945 0.13086498 -0.7735169 0.19053745 0.40888005 -0.1845346 -0.14512913 -0.8752412
-0.12019867 1.0187596 -0.6221226 1.6120781 -0.06134197 -0.8868285 1.3104529 0.5354811
1.7161788 0.7385208 0.1707433 -1.1978309 0.97029567 0.0040039304 -0.1331072 1.1434593
0.31426919 -0.87605774 -0.35048345 0.065124005 0.33413664 0.60749584 0.5804499 -0.026023695
-0.84576315 0.49097374 -0.5843105 0.63775176 1.2008555 1.1073973 -0.53486353 -1.2744972
00000000: bfb1 9abe 4a7b 713f 09cb d9bc c8a4 9bbe
00000010: d129 92be 7495 44bf f43d 833f 8a13 ac3f
00000020: 6d90 6abe 287a c83d 6b01 ca3e f0bf 6ebe
00000030: 2336 f1bf 8bd1 4b3e 16c3 1bbe 8f1e b0bd
00000040: 6fbb 1f3f 70d7 a93e f342 ab3f 0524 00bf
00000050: 3160 2abe 74b2 5cbf 3b7c a43f 2e17 d33d
00000060: b06a b93e 17b5 823e d88c b63d 560f e9bd
00000070: 12a4 19be 8224 8a3e ca0f 94bf ebec f03d
00000080: f479 1c3e 2dde 9b3d a47a d9bf e8d9 943e
00000090: 954e ae3c 1c9a 30bf 1acb 423e 72eb 813f
000000a0: f98e 1d3f c612 3abf 7f47 a4bf 4caf 253f
000000b0: 6a26 8abe ec4f 103f 0e3d 5bbf c0a0 793e
000000c0: 3ff2 233f eeef 91bf 08bb 70bd 9ca9 7dbe
000000d0: 549b 4dbf ca2c 923e 57d4 e9be 8f95 323e
000000e0: c4f0 b73d 8551 773e 90b9 1dbe f611 42be
000000f0: 1cb7 4b3f 17ac 24be ca16 fb3c 0e71 793e
00000100: 4c93 31bf bc93 433f bd77 0c3f 9425 2dbf
00000110: c107 97bf 600f 943e f1e7 3c3f f55c 02be
00000120: 43f9 743e e2dc d23f 3372 a9be 4e22 2bbe
00000130: 882a 9cbe da6e afbe 99e2 b53e 5976 3b3e
00000140: 3c19 f53e b0c1 fbba 3ff2 b3bd f980 7b3e
00000150: d0ae 72be 188f 6b3f a4e6 c1bc 5688 84be
00000160: 7969 2e3e 14bf 11be e5fb bebe b4a7 183f
00000170: f1ea aa3c 7a85 1ebe 912e 873f 0b0b 363f
00000180: 2196 ff3c 2f84 81bd 96c7 ba3d abc9 603d
00000190: b8bd af3e 422c 12bf be17 20be 6683 a9be
000001a0: 3e70 b6be f866 2f3e 1ab6 1b3d a447 28bd
000001b0: 51e5 723e ec30 253f c3fc 41bf f375 053e
000001c0: acb6 ab3e 2afc 55bf fa13 a33d de68 dbbc
000001d0: c873 07bf f7fe d93e f518 2e3e 0eb7 19bf
000001e0: fac5 d4be 1884 843d 1bba cf3e e65f 0a3f
000001f0: 220a f3be 63ab 7dbf ab10 463f b10a aa3e
00000200: ec56 203d 0fc7 9bbf 2e32 353f 0f51 8b3f
00000210: 2941 04be 48db f4bf 1fe0 f53e 065b 493d
00000220: 71a4 0fbf 9a6a 273f 468f 613f 7f71 833f
00000230: ec77 00bf 7db3 4ebf 98d7 d7bd 8473 7ebe
00000240: 780a e13f 9706 d63f ff0f f73f 6e1d 46bf
00000250: 2bf9 2d3f 53c9 9dbe 8438 ce3f 271f adbf
00000260: 9b94 5f3f 3f03 80bf 4698 bebc 9799 71bf
00000270: d97a 17bf 6977 b83e 5f72 03bf a39c 09be
00000280: 36c4 fabe d5f3 d3bd dfc7 a4bf 24da d53f
00000290: 5155 95be 358b 3dbf 7157 3f3f 86be 753f
000002a0: 1caf fc3f 29c1 2abe 95fe 8d3e 99d8 bfbf
000002b0: 4917 2f3f 3986 df3f 9102 bb3e f005 8b3e
000002c0: 61f8 83be 5e61 1ebf 50d8 e2be 28cf 31bf
000002d0: 8996 2ebf fcb4 9b3d 354d 053f 453b 20be
000002e0: 31d7 52bf 4093 f33f 63aa b6be ef33 8c3f
000002f0: 1f85 953f ee71 143f 4271 d1be 658c 43bf
00000300: 48e3 1d3f 7042 cbbe 94bb 9f3f df70 e53e
00000310: d40f c43c f7b8 7bbf 26ce c8be 36f0 313f
00000320: 21ce abbf c137 8f3e e374 8e3d 5e4f ca3c
00000330: 0b79 17be c491 41bf 9897 2d3f 8f2c a73e
00000340: 406f 8bbf 3b96 eb3f ba1c 5b3f ecb5 85bf
00000350: 3487 5a3f ebcb 9fbf cb31 9d3f f6b7 c33d
00000360: 634b 4e3e 7801 063e 3405 46bf 401c 433e
00000370: ba58 d13e a3f6 3cbe bb9c 14be cf0f 60bf
00000380: b82a f6bd b766 823f 6d43 1fbf 9358 ce3f
00000390: b841 7bbd 3107 63bf ecbc a73f 4a15 093f
000003a0: bfab db3f b30f 3d3f 55d7 2e3e 8652 99bf
000003b0: 4c65 783f 6733 833b 414d 08be e05c 923f
000003c0: e4e7 a03e 5245 60bf 9172 b3be bc5f 853d
000003d0: f513 ab3e d984 1b3f 5d98 143f a52f d5bc
000003e0: ef83 58bf e960 fb3e 5f95 15bf b343 233f
000003f0: a2b5 993f 32bf 8d3f d1ec 08bf b922 a3bf

Encoder.encoder_lstm.bias_ih_l0 f4 [256]
-0.30759948 -0.7566696 -0.92280674 -1.3242587 -0.38006923 -0.7446246 -0.32745808 -0.1863042
-0.06750654 -1.3783139 -0.5418368 -0.69796914 -0.9169623 -0.6784483 -0.8513433 -0.8106223
-0.38931772 -0.8924293 -0.037238583 -0.6208974 0.079723634 -0.9122736 -0.48380065 -0.7073381
-1.2695147 -1.3882146 -0.46054414 -1.1312569 0.11719686 -0.38575777 -0.8814082 -0.7269998
-0.4857524 -0.8609069 0.010260482 -0.4702961 -1.1821773 -0.30415884 -0.5176549 -0.39039382
-1.2837843 -1.5396832 0.6751942 -0.81183535 -0.26736805 -0.67490405 -1.0145642 -0.13293518
-0.030368868 0.089845285 -0.94194037 -0.8974808 -0.5212215 -0.30550793 -0.9432486 -1.0717009
-0.42238328 -0.4217115 -0.03437774 -0.161208 -0.63779026 -0.82269746 -1.0489849 -0.43178874
-0.17201392 -0.19850954 -0.83387613 -0.54631287 0.58991814 -1.2146572 0.1674739 -0.49242258
-0.74968004 -0.9984297 0.65491164 0.34966192 0.24261513 -0.7219812 -1.317791 -0.67056555
-0.6671352 0.040481962 0.8287788 -0.3734008 -1.0174779 -0.40785718 0.6097696 0.8108992
-1.390678 -0.74211174 -0.30098376 0.43655184 -0.7774433 -0.6574705 -0.42222336 -0.17989491
-0.7998613 0.16128321 1.2958283 -0.037988912 -0.7062507 -0.20557795 0.05955025 -0.2632699
-0.9474953 0.063621834 -0.5496717 -0.5901701 -1.0061935 0.1550613 -0.6800974 -0.9711948
-0.28185537 0.4032654 -0.5270049 -1.1773404 -0.8085483 0.03551199 -1.1092464 -0.78934735
-0.7233048 -0.0056606648 -0.24021047 -0.91088915 0.2773257 -0.6721915 0.26974913 -0.4159973
-0.5686505 0.10565187 0.17350377 -0.1021338 0.60992575 -0.023224138 0.3124613 -0.18299541
-0.49558562 0.08451263 0.27735177 -0.06224531 0.43583077 0.05441257 -0.3925657 -0.21572144
0.2762185 -0.30844608 0.19908066 -0.025831735 0.089119904 -0.05173348 0.376447 -0.14263853
-0.052442424 -0.14497797 -0.31207594 -0.31236005 -0.13732627 0.10729424 0.5661217 0.3885347
0.18605703 -0.10094231 0.77920717 -0.015702814 0.23838262 -0.024612263 0.56901526 0.5886486
-0.084196396 -0.23844671 -0.26270694 0.050257612 0.4816427 0.3817019 -0.43088996 -0.09361603
-0.41932547 0.075112 -0.22840728 0.09043584 -0.50132006 0.29496694 -0.55188656 0.08118169
-0.02421811 0.48889023 -0.77853125 -0.31738362 -0.05194127 -0.32373518 -0.013812682 0.22599107
-0.06162623 -1.2596775 -1.0914352 -1.2360901 -0.4957054 -0.87045413 -0.061568126 -0.3294786
-0.9711947 -0.97792375 -0.4831901 -0.83089167 -0.39410368 -0.7634637 -1.2971698 -0.7005539
-0.086241 -1.672981 -0.5686532 -1.362752 -0.50227803 -0.38233885 0.058743134 -0.4449943
-1.6352818 -0.8851805 -0.7200796 -0.8235995 -0.3905416 -0.1901748 -1.6488255 -1.5424995
-0.7878751 -0.8808438 0.70690423 -1.9229332 -0.78606373 -0.48677987 -0.6479217 -0.2637977
-1.1126777 -0.7601071 0.64920866 -0.7682156 -0.8432242 -1.3405938 -0.25209072 -0.75769436
-0.21147366 -0.596297 -1.0462873 -0.64448184 -0.8081827 -0.13548826 -0.28441522 -0.86132133
-0.43191501 -0.311115 -0.21028307 -1.3050138 -1.1185904 -0.6934265 -0.7899455 -0.47482124
00000000: ae7d 9dbe 19b5 41bf 103d 6cbf 4f81 a9bf
00000010: 6f98 c2be b89f 3ebf 96a8 a7be 87c6 3ebe
00000020: de40 8abd 976c b0bf d1b5 0abf 1bae 32bf
00000030: 0bbe 6abf caae 2dbf a2f1 59bf f184 4fbf
00000040: a754 c7be 3f76 64bf 7c87 18bd 22f3 1ebf
00000050: 2546 a33d c38a 69bf b8b4 f7be 1c14 35bf
00000060: 757f a2bf 04b1 b1bf 71cc ebbe 07cd 90bf
00000070: e804 f03d 0b82 c5be f8a3 61bf a91c 3abf
00000080: 8ab4 f8be 6564 5cbf 951b 283c a7ca f0be
00000090: 9651 97bf b5ba 9bbe 0885 04bf b3e1 c7be
000000a0: 0b53 a4bf 5714 c5bf 87d9 2c3f 71d4 4fbf
000000b0: 77e4 88be 83c6 2cbf 3ddd 81bf 2920 08be
000000c0: 22c8 f8bc ce00 b83d 0123 71bf 4dc1 65bf
000000d0: c66e 05bf 896b 9cbe be78 71bf 7f2d 89bf
000000e0: 9f42 d8be 92ea d7be accf 0cbd b613 25be
000000f0: 3946 23bf 4d9c 52bf 2345 86bf 6a13 ddbe
00000100: 6b24 30be 1646 4bbe e878 55bf 29db 0bbf
00000110: e004 173f e379 9bbf 477e 2b3e d01e fcbe
00000120: 08eb 3fbf 1799 7fbf 4aa8 273f e306 b33e
00000130: 1a70 783e c3d3 38bf 60ad a8bf 2faa 2bbf
00000140: 5fc9 2abf 6ad0 253d d92a 543f 642e bfbe
00000150: b73c 82bf a8d2 d0be dc19 1c3f 1797 4f3f
00000160: bd01 b2bf 09fb 3dbf 8b1a 9abe b983 df3e
00000170: 8606 47bf fd4f 28bf a92d d8be 5f36 38be
00000180: b6c3 4cbf 6d27 253e b4dd a53f 439a 1bbd
00000190: d9cc 34bf 0783 52be f7ea 733d 50cb 86be
000001a0: 0d8f 72bf 2a4c 823d 49b7 0cbf 6315 17bf
000001b0: f3ca 80bf 64c8 1e3e dd1a 2ebf 39a0 78bf
000001c0: 594f 90be cd78 ce3e cbe9 06bf 17b3 96bf
000001d0: 05fd 4ebf 0575 113d c9fb 8dbf ab12 4abf
000001e0: 812a 39bf 197d b9bb bcf9 75be 0830 69bf
000001f0: a2fd 8d3e be14 2cbf 8f1c 8a3e 99fd d4be
00000200: 1493 11bf 0260 d83d f9aa 313e 872b d1bd
00000210: 1824 1c3f 8c40 bebc edfa 9f3e 2663 3bbe
00000220: 66bd fdbe f514 ad3d 0d01 8e3e f0f4 7ebd
00000230: 3625 df3e b7df 5e3d 5ffe c8be 15e6 5cbe
00000240: 836c 8d3e a5ec 9dbe cddb 4b3e 139d d3bc
00000250: 7f84 b63d 7ce6 53bd a9bd c03e d60f 12be
00000260: decd 56bd 1b75 14be 6bc8 9fbe a8ed 9fbe
00000270: 429f 0cbe 15bd db3d 5aed 103f 05ee c63e
00000280: bc85 3e3e d8ba cebd 1f7a 473f 30a3 80bc
00000290: 931a 743e a89f c9bc fcaa 113f adb1 163f
000002a0: 296f acbd 602b 74be 8681 86be edda 4d3d
000002b0: df99 f63e 6e6e c33e 9c9d dcbe c3b9 bfbd
000002c0: d4b1 d6be 52d4 993d 99e3 69be 6d36 b93d
000002d0: 8356 00bf e805 973e 7048 0dbf 9642 a63d
000002e0: 0f65 c6bc d24f fa3e d34d 47bf 1b80 a2be
000002f0: 5ec0 54bd 9ec0 a5be 964e 62bc 346a 673e
00000300: c96b 7cbd 1d3d a1bf 26b4 8bbf 3338 9ebf
00000310: 19cd fdbe 15d6 5ebf dc2e 7cbd 6bb1 a8be
00000320: 37a0 78bf 3659 7abf b164 f7be 51b5 54bf
00000330: f5c7 c9be 5b72 43bf a909 a6bf 8057 33bf
00000340: 1f9f b0bd 3e24 d6bf 4293 11bf a86e aebf
00000350: 4b95 00bf ebc1 c3be a49c 703d 4bd6 e3be
00000360: ea50 d1bf 309b 62bf 2357 38bf 6bd7 52bf
00000370: 12f5 c7be 2fbd 42be b70c d3bf a070 c5bf
00000380: 2fb2 49bf fb7e 61bf adf7 343f ad22 f6bf
00000390: 793b 49bf 363b f9be 32de 25bf 7e10 87be
000003a0: 396c 8ebf 6196 42bf 8a32 263f c7a9 44bf
000003b0: 8bdd 57bf 9498 abbf 0912 81be 42f8 41bf
000003c0: 8d8c 58be eca6 18bf beec 85bf c3fc 24bf
000003d0: 10e5 4ebf 6fbd 0abe df9e 91be 8e7f 5cbf
000003e0: f723 ddbe 774a 9fbe 7254 57be b10a a7bf
000003f0: f82d 8fbf 6684 31bf de39 4abf c51b f3be

Encoder.encoder_lstm.bias_hh_l0 f4 [256]
-0.13614076 -0.81251013 -0.88946664 -1.320088 -0.38193533 -0.7262497 -0.36581805 -0.09634338
-0.006976527 -1.3745486 -0.668517 -0.7590644 -0.8856553 -0.5802327 -1.021957 -0.7340478
-0.32197377 -0.87362933 -0.080104806 -0.51096505 0.22104833 -0.9387731 -0.51685905 -0.8184676
-1.1252409 -1.3957535 -0.5970351 -1.1447186 -0.019363925 -0.5106394 -0.9532636 -0.7127429
-0.5435582 -0.8339853 0.11355126 -0.54125583 -0.95772064 -0.48704937 -0.66963685 -0.45003188
-1.1936946 -1.4967917 0.75835824 -0.8362936 -0.2303474 -0.67887974 -0.8624356 -0.33795726
0.056402694 0.15802793 -0.95455533 -0.7973736 -0.42059276 -0.4934035 -0.93524235 -0.9824771
-0.39553958 -0.37332278 0.043783434 -0.11178165 -0.5756979 -0.811684 -1.065548 -0.32149205
-0.27077112 -0.3972141 -0.9476272 -0.55644965 0.50366265 -1.171923 0.17302303 -0.6162756
-0.774771 -1.2130289 0.5736423 0.29117146 0.2214758 -0.7213627 -1.2030979 -0.6911885
-0.62047744 -0.0029984016 0.76366425 -0.5190929 -1.2007366 -0.2722615 0.6906309 0.9617984
-1.3954753 -0.7540866 -0.21188457 0.30622515 -0.7527433 -0.6809011 -0.6009274 -0.19469863
-0.6958346 0.23042051 1.3582718 0.120620474 -0.6221998 -0.2812495 -0.04228285 -0.22681287
-0.9550554 -0.026184158 -0.67415607 -0.78014255 -0.9537621 0.041417688 -0.7380477 -1.1919997
-0.21645978 0.3868643 -0.5303803 -1.1609228 -0.75320435 0.22410725 -1.1191835 -0.6203746
-0.54701596 0.13630418 -0.3041243 -0.891898 0.31735712 -0.6105119 0.1978238 -0.50791276
-0.51887566 0.051099163 0.11173754 -0.13953876 0.62097275 0.09413251 0.22337252 -0.27958217
-0.48601273 0.19673517 0.11686327 0.04562394 0.40402156 0.20010923 -0.29364747 -0.083286576
0.31321415 -0.35812885 0.2776095 0.063970335 0.19758621 -0.16181207 0.33712634 -0.024055745
0.09819019 0.037944246 -0.41720736 -0.34676433 -0.2602723 0.20069197 0.6849861 0.44001538
0.14519177 -0.07138347 0.70630616 -0.044728503 0.16196665 0.04246656 0.695185 0.40508837
-0.07869752 -0.065100916 -0.40730846 0.15444283 0.5839693 0.4178182 -0.301657 -0.033022974
-0.56827074 -0.007088157 -0.07327099 0.11530143 -0.5243633 0.22978476 -0.42186612 0.17309256
-0.03754409 0.3942516 -0.7335188 -0.43394136 0.06640549 -0.47132316 0.016710617 0.21347539
-0.077551514 -1.1660249 -1.0050966 -1.1634398 -0.4780838 -0.9010513 -0.047420543 -0.40816408
-0.857511 -0.99447286 -0.4721087 -0.975083 -0.25443217 -0.67443514 -1.2070044 -0.6334465
0.079654485 -1.6876081 -0.68165153 -1.4862505 -0.31269398 -0.412625 0.15202124 -0.26962346
-1.4599612 -0.742349 -0.74351805 -0.79912674 -0.34058994 -0.04495707 -1.5994865 -1.5102341
-0.6827709 -0.93812793 0.6854596 -1.8081853 -0.6780198 -0.48569566 -0.74194604 -0.24628583
-1.174407 -0.614676 0.80930305 -0.66068995 -0.9173607 -1.3538929 -0.07280043 -0.6454152
-0.22249022 -0.47454682 -1.1093491 -0.7416891 -0.756887 -0.09456746 -0.34340692 -0.7168983
-0.31419796 -0.4746407 -0.4072584 -1.2713563 -1.1375515 -0.6744814 -0.81288666 -0.2718568
00000000: 7c68 0bbe aa00 50bf 16b4 63bf a5f8 a8bf
00000010: 078d c3be 80eb 39bf 814c bbbe ae4f c5bd
00000020: 5a9b e4bb 35f1 afbf ee23 2bbf 0b52 42bf
00000030: 4eba 62bf 218a 14bf 7dcf 82bf 8eea 3bbf
00000040: bfd9 a4be 2ca6 5fbf fd0d a4bd 9bce 02bf
00000050: 7e5a 623e 6f53 70bf e050 04bf 1887 51bf
00000060: e507 90bf 0da8 b2bf 4bd7 18bf 2486 92bf
00000070: 18a1 9ebc 44b9 02bf 1509 74bf 5276 36bf
00000080: a126 0bbf 1080 55bf 908d e83d be8f 0abf
00000090: 2e2d 75bf 895e f9be 526d 2bbf 946a e6be
000000a0: fcca 98bf df96 bfbf c423 423f 5617 56bf
000000b0: 30e0 6bbe 10cb 2dbf 94c8 5cbf bc08 adbe
000000c0: 8306 673d 13d2 213e bd5d 74bf ad20 4cbf
000000d0: ef57 d7be 629f fcbe 0b6c 6fbf 9f83 7bbf
000000e0: 2a84 cabe 2a24 bfbe 4256 333d c7ed e4bd
000000f0: f060 13bf 86ca 4fbf e063 88bf 9b9a a4be
00000100: 83a2 8abe a65f cbbe b297 72bf 7c73 0ebf
00000110: 09f0 003f 9301 96bf f32c 313e 3dc4 1dbf
00000120: 6457 46bf 8844 9bbf 39da 123f 6d14 953e
00000130: 8dca 623e 3aab 38bf 1dff 99bf bbf1 30bf
00000140: 9cd7 1ebf d580 44bb 807f 433f 46e3 04bf
00000150: bdb1 99bf dc65 8bbe 30cd 303f 6c38 763f
00000160: ef9e b2bf d20b 41bf 45f8 58be 8bc9 9c3e
00000170: c9b3 40bf 894f 2ebf 61d6 19bf 145f 47be
00000180: 3722 32bf 5bf3 6b3e dadb ad3f de07 f73d
00000190: 7c48 1fbf efff 8fbe c830 2dbd a241 68be
000001a0: 837e 74bf 2980 d6bc 7e95 2cbf 6cb7 47bf
000001b0: c129 74bf 98a5 293d b2f0 3cbf 7293 98bf
000001c0: a2a7 5dbe 1413 c63e 01c7 07bf 1e99 94bf
000001d0: 00d2 40bf 5f7c 653e 6841 8fbf dfd0 1ebf
000001e0: 3d09 0cbf 5393 0b3e 2eb6 9bbe 6d53 64bf
000001f0: a27c a23e 824a 1cbf 5292 4a3e 9206 02bf
00000200: 09d5 04bf 5b4d 513d a7d6 e43d 40e3 0ebe
00000210: 12f8 1e3f 8cc8 c03d c4bb 643e 6525 8fbe
00000220: a9d6 f8be f274 493e 0356 ef3d 2be0 3a3d
00000230: eadb ce3e 6fe9 4c3e f658 96be 2792 aabd
00000240: 9b5d a03e aa5c b7be d522 8e3e e102 833d
00000250: 0a54 4a3e 10b2 25be d39b ac3e 8e10 c5bc
00000260: f017 c93d 6d6b 1b3d 349c d5be 188b b1be
00000270: 6942 85be 3282 4d3e 405b 2f3f b249 e13e
00000280: 27ad 143e 7f31 92bd 7bd0 343f 3c35 37bd
00000290: 96da 253e 6af1 2d3d a5f7 313f be67 cf3e
000002a0: 2a2c a1bd a153 85bd bc8a d0be 4326 1e3e
000002b0: 037f 153f 44ec d53e c972 9abe 1943 07bd
000002c0: 317a 11bf c543 e8bb 1a0f 96bd 2823 ec3d
000002d0: ac3c 06bf b24c 6b3e d6fe d7be 2d3f 313e
000002e0: d5c7 19bd 59db c93e e3c7 3bbf 902d debe
000002f0: 9aff 873d 4551 f1be b4e4 883c 4b99 5a3e
00000300: 54d3 9ebd 4e40 95bf 01a7 80bf 98eb 94bf
00000310: 66c7 f4be 4cab 66bf 0b3c 42bd e2fa d0be
00000320: d785 5bbf c695 7ebf 3bb8 f1be 0a9f 79bf
00000330: ef44 82be c8a7 2cbf 1f7f 9abf 8d29 22bf
00000340: e421 a33d 8b03 d8bf b780 2ebf 753d bebf
00000350: 6d19 a0be 9643 d3be 75ab 1b3e 160c 8abe
00000360: 02e0 babf 960a 3ebf 3357 3ebf 9293 4cbf
00000370: ce61 aebe e824 38bd f9bb ccbf 5a4f c1bf
00000380: 13ca 2ebf 2729 70bf 487a 2f3f 9e72 e7bf
00000390: b592 2dbf 1aad f8be 2df0 3dbf 5a32 7cbe
000003a0: f852 96bf 685b 1dbf 7c2e 4f3f fa22 29bf
000003b0: 27d8 6abf 5d4c adbf 6418 95bd ee39 25bf
000003c0: 7ad4 63be cdf7 f2be 27ff 8dbf 56df 3dbf
000003d0: 59c3 41bf 96ac c1bd 08d3 afbe a686 37bf
000003e0: 8ede a0be 1b04 f3be 2c84 d0be cebb a2bf
000003f0: 4a9b 91bf d0aa 2cbf 5719 50bf d130 8bbe

Encoder.encoder_attn.0.weight f4 [20, 148]
-0.60558707 0.65271074 -0.2032914 0.87245375 0.29531187 -0.9891267 -1.4102592 -1.2745866
-0.5710283 0.2684686 -0.32261568 0.60206693 0.72776943 1.0359967 -0.95519656 0.9536189
0.80545485 -1.5622139 0.52382267 -0.28985608 0.048210237 0.33229536 0.3240604 0.3079876
-0.059057333 -1.0310333 -1.153401 -0.85385334 -0.16942953 0.012445 -0.91922915 1.2045414
0.5312177 -0.7681317 0.7017881 -0.119828545 -0.7408635 0.52377486 0.84975165 0.90200716
0.68701315 0.30206114 -0.3974756 0.5717622 0.3404491 -0.09213045 -1.4017929 0.049213473
-0.28894272 0.3115964 -0.7173144 0.29829046 -0.44812918 0.75841653 -0.51903176 0.8351841
1.7276276 1.8993458 -0.30565476 -1.2401956 -1.2248003 -0.45699853 0.9289202 -0.18623193
-0.96203005 0.99366355 -0.14535896 0.5850782 0.4630403 -1.0320301 -1.1946743 -0.8641127
-0.059703425 -0.008042379 -0.03275727 1.2016256 0.72217757 0.69573975 -0.59893036 1.4157758
0.62118196 -1.7435569 -0.046220545 -0.099371225 0.08760042 0.32057998 0.6585753 0.63363594
-0.13556436 -1.0426497 -1.1158729 -0.1978085 0.122092366 -0.15248701 0.05161495 1.557766
0.5903499 -0.8887868 0.51795197 -0.021561114 -0.85984826 0.26036587 0.9357677 0.96497744
0.8298673 0.40955198 -0.5065624 0.74067515 0.40025833 0.27201247 -1.5039288 -0.5689743
-0.029216705 -0.23238213 -0.7463592 0.8656402 -0.48728257 0.60936475 -0.38214558 1.1794449
0.90041035 1.0966725 -0.18683816 -1.2588577 -1.2650775 -0.62880397 0.22144635 -0.46837074
1.4581105 0.7023098 1.0956922 -0.64455897 -0.14891103 0.44813693 -0.102458626 0.41146508
-0.16108853 -0.79148084 0.30943048 0.30456004 -0.3931919 0.47157535 -0.53081465 -0.959644
-0.2320457 -1.79795 -1.4189475 -2.1653721 -0.74972004 1.6000079 0.022449976 0.6559606
0.5385693 0.48684573 -1.235921 -1.1460251 -0.4093663 -0.06336576 -0.7202174 0.32658002
0.80557686 0.7492108 1.1898994 0.37734297 0.81462616 0.18416758 -0.6190856 -1.3735173
0.55174774 -0.04250177 0.43288556 1.2759941 -0.19843659 -0.7956446 -1.5862089 -0.77724135
-0.58471876 0.39275348 -0.09504243 0.5555085 0.49694982 0.1771104 -0.14338097 0.49893096
-0.28851923 -0.15704057 0.12181976 1.2673546 -0.011538143 0.42061985 0.039602533 -0.5176258
-0.4743778 0.546972 -1.2910596 -0.12073438 0.040630087 -0.46977258 -0.84093755 1.3714105
0.1973535 0.4230838 -0.28956386 -0.74046904 0.1694866 0.2802285 -1.222982 -0.021994721
0.13439429 0.35938418 -0.55138737 -0.35550866 -0.29673457 0.7079841 0.028614558 0.11400322
0.6058588 0.6901447 -1.3366318 -1.2282366 -0.56831795 -0.37899345 0.08510393 0.3110459
0.8860191 0.4968073 1.1670218 0.015621178 0.48424363 -0.81465757 0.04920549 -0.9734752
0.39002153 0.21831982 1.5966011 -0.5243066 -0.40307528 -0.45582268 -1.5067005 -0.49211913
-0.31635654 0.46647957 -0.544974 0.67763036 0.46168503 -0.26667586 0.15482801 -0.044279486
-0.49106216 -0.17171934 -0.15487832 1.119501 0.16262344 0.17820571 0.10770594 -0.7003036
00000000: c107 1bbf 0d18 273f 9f2b 50be 2159 5f3f
00000010: 1e33 973e 6837 7dbf 6083 b4bf a725 a3bf
00000020: e92e 12bf b774 893e e22d a5be 0f21 1a3f
00000030: 194f 3a3f 8a9b 843f c387 74bf 5e20 743f
00000040: 4a32 4e3f a0f6 c7bf 3e19 063f 0468 94be
00000050: 1978 453d 9e22 aa3e 3feb a53e 8db0 9d3e
00000060: 1ae6 71bd e6f8 83bf a5a2 93bf 2296 5abf
00000070: ef7e 2dbe 1de6 4b3c 9a52 6bbf 6a2e 9a3f
00000080: e2fd 073f 47a4 44bf 63a8 333f ab68 f5bd
00000090: 3ba9 3dbf 1c16 063f 5389 593f f1e9 663f
000000a0: 18e0 2f3f c2a7 9a3e ec81 cbbe 025f 123f
000000b0: 584f ae3e e4ae bcbd f36d b3bf 1194 493d
000000c0: 4df0 93be 9089 9f3e eba1 37bf 87b9 983e
000000d0: 3071 e5be 9627 423f 44df 04bf a0ce 553f
000000e0: e722 dd3f c31d f33f c87e 9cbe bbbe 9ebf
000000f0: 42c6 9cbf b6fb e9be b7cd 6d3f 95b3 3ebe
00000100: 9a47 76bf bc60 7e3f fbd8 14be afc7 153f
00000110: 9e13 ed3e 9019 84bf 16eb 98bf 7d36 5dbf
00000120: 948b 74bd 2fc4 03bc 7d2c 06bd dece 993f
00000130: a1e0 383f 001c 323f 8053 19bf 2438 b53f
00000140: c805 1f3f df2c dfbf c151 3dbd 2483 cbbd
00000150: d967 b33d 0f23 a43e 6498 283f f735 223f
00000160: 62d1 0abe 8c75 85bf ecd4 8ebf 508e 4abe
00000170: 900b fa3d 8e25 1cbe 336a 533d e064 c73f
00000180: 2c21 173f 8887 63bf 8098 043f efa0 b0bc
00000190: 041f 5cbf ad4e 853e 798e 6f3f c308 773f
000001a0: 2f72 543f ccb0 d13e 13ae 01bf e39c 3d3f
000001b0: a9ee cc3e 3845 8b3e bd80 c0bf 4da8 11bf
000001c0: df57 efbc 95f5 6dbe 6611 3fbf 999a 5d3f
000001d0: 1a7d f9be 54ff 1b3f 96a8 c3be 0df8 963f
000001e0: 4b81 663f c45f 8c3f 8152 3fbe 4022 a1bf
000001f0: 0fee a1bf 4cf9 20bf d5c2 623e 4ace efbe
00000200: 5da3 ba3f 93ca 333f a43f 8c3f d101 25bf
00000210: 227c 18be 3472 e53e d4d5 d1bd 8dab d23e
00000220: 64f4 24be 7d9e 4abf ac6d 9e3e 4bef 9b3e
00000230: 7350 c9be 5372 f13e 78e3 07bf 3bab 75bf
00000240: 639d 6dbe 3a23 e6bf 12a0 b5bf 7595 0ac0
00000250: a7ed 3fbf 0fcd cc3f 03e9 b73c 09ed 273f
00000260: addf 093f d843 f93e a932 9ebf f3b0 92bf
00000270: 7698 d1be e8c5 81bd 2b60 38bf 7f35 a73e
00000280: 493a 4e3f 47cc 3f3f a04e 983f 1933 c13e
00000290: 578b 503f 6d96 3c3e 657c 1ebf 6acf afbf
000002a0: 573f 0d3f 5616 2ebd 2da3 dd3e c653 a33f
000002b0: f632 4bbe 5daf 4bbf e508 cbbf 4af9 46bf
000002c0: 21b0 15bf fc16 c93e 9ba5 c2bd ce35 0e3f
000002d0: 3570 fe3e 6e5c 353e 76d2 12be e173 ff3e
000002e0: cbb8 93be 3ecf 20be a37c f93d ad38 a23f
000002f0: 7b0a 3dbc 7c5b d73e 4436 223d 2083 04bf
00000300: a6e1 f2be 5b06 0c3f 7141 a5bf 9643 f7bd
00000310: bc6b 263d 0886 f0be af47 57bf 618a af3f
00000320: 0917 4a3e 719e d83e b741 94be 618f 3dbf
00000330: e58d 2d3e 1c7a 8f3e ad8a 9cbf 462e b4bc
00000340: a89e 093e 3401 b83e b927 0dbf 3b05 b6be
00000350: 98ed 97be 723e 353f 1469 ea3c 857a e93d
00000360: 9019 1b3f 53ad 303f c016 abbf db36 9dbf
00000370: 497d 11bf 6e0b c2be f84a ae3d 6941 9f3e
00000380: 26d2 623f 875d fe3e f860 953f f8ef 7f3c
00000390: c8ee f73e 668d 50bf b28b 493d ac35 79bf
000003a0: e7b0 c73e 3b8f 5f3e 6d5d cc3f f538 06bf
000003b0: e25f cebe 9761 e9be 90db c0bf 0af7 fbbe
000003c0: 7cf9 a1be 69d6 ee3e 6b83 0bbf 2f79 2d3f
000003d0: fb61 ec3e bd89 88be 3c8b 1e3e 685e 35bd
000003e0: 806c fbbe 32d7 2fbe 6c98 1ebe cf4b 8f3f
000003f0: c286 263e 8f7b 363e ef94 dc3d 1947 33bf

Encoder.encoder_attn.0.bias f4 [20]
0.26356983 -0.3477258 0.9504711 2.0152204 0.21490088 -0.64752245 0.28225484 -0.12622258
0.09944703 -0.62700653 0.66215825 0.056933377 -0.9596426 -0.67676085 0.23854488 -1.1599761
-0.4010071 -0.5650367 0.3171482 0.12374574
00000000: a0f2 863e 1e09 b2be 1352 733f 5ff9 0040
00000010: fa0e 5c3e 08c4 25bf b583 903e 7e40 01be
00000020: e2aa cb3d 8083 20bf 3483 293f f932 693d
00000030: 23ab 75bf 3340 2dbf 1c45 743e 197a 94bf
00000040: cd50 cdbe 3fa6 10bf 4061 a23e 686e fd3d

Encoder.encoder_attn.2.weight f4 [1, 20]
0.1842274 0.40457577 -0.84176064 2.7954009 -1.1634165 1.0163807 -0.7569832 0.7280404
0.0024302008 0.77255255 -1.6899892 -0.5718994 -1.3496486 0.41640264 -0.39236176 0.2002709
-0.80991244 0.289447 -0.28801954 1.1247094
00000000: 1ca6 3c3e 8e24 cf3e a07d 57bf d9e7 3240
00000010: d5ea 94bf c318 823f a7c9 41bf db60 3a3f
00000020: 0144 1f3b 01c6 453f 9151 d8bf 0068 12bf
00000030: 49c1 acbf ba32 d53e a4e3 c8be d113 4d3e
00000040: 6c56 4fbf 6632 943e 4c77 93be 7af6 8f3f

Decoder.attn_layer.0.weight f4 [64, 192]
-0.45844856 -0.5884792 -0.11464879 -1.0168626 0.6980988 0.5129665 -0.1872085 -0.37462997
-0.55749863 0.30880934 -1.6050385 1.2893388 -0.08566703 0.8534133 -0.7922212 0.19966029
-1.1890156 -0.84215295 0.092989184 -1.395889 -0.99649197 -0.47877133 -0.42883134 -0.33294603
-0.4438918 -0.5765684 -1.2323552 0.7443292 0.44541234 0.2222904 0.93212944 0.89364684
-0.8751679 -0.2594379 -0.12273549 0.8996804 -0.6236382 0.95097125 1.326396 -1.0298512
-1.4693803 0.010352593 -1.0911189 0.8945071 -0.6999895 -0.3492803 0.33576775 -0.2806765
0.39852694 -0.5285104 -0.34198657 1.2639695 -1.3694648 0.8498322 0.004982556 -0.29311043
-0.7352627 -0.3976883 -0.90776604 0.8846665 0.4949802 1.4749496 0.71608835 1.6580611
-0.34690616 -0.5778441 -0.4816009 -0.7666825 0.712696 0.4887693 0.39994916 -0.97964865
-0.6779412 0.58984804 -1.0656557 0.31467456 -0.14456673 1.084111 -0.18857114 0.50258154
-0.89486605 -0.027188733 -0.32263544 -0.5869378 -1.333153 -1.0106606 -0.38518637 -0.090469934
-0.67291343 -0.72895306 -0.8097747 1.163518 -0.12466135 0.341642 1.9219799 0.32967016
-0.28272912 -0.830938 -0.6825944 1.2299567 -1.0046455 1.618908 1.3304973 -0.66565734
-1.4382721 0.040710606 -1.1428891 1.2123361 -0.16762191 0.20579632 -0.68299645 -0.20553605
0.02135235 -0.79625916 -0.11816931 1.079676 -0.30020377 0.8589277 0.31505322 -0.30356398
-0.6496303 -0.11468971 -0.6682142 0.867313 0.49818894 0.9350294 0.46001074 1.5894314
0.7495055 0.1348255 1.3367343 0.31800896 0.503761 0.798705 -0.9796532 0.6681878
0.0067801964 2.068968 -0.33619648 0.7439733 0.6549778 0.09814092 0.18418151 0.48785973
-0.4520763 0.15961413 0.78308696 -0.45006213 0.682946 -0.5267972 -0.8890727 -0.5012688
-0.9758907 0.827601 -1.3485037 -0.11206949 -0.21343364 0.7527129 0.08141174 -1.1717246
0.85456586 -0.52323836 0.66694885 0.63828605 0.59583575 0.34928167 0.25361156 0.07719325
-0.27901617 0.42281488 0.52392894 0.2993301 -0.8654688 -0.7238317 0.40378293 -0.25780442
-1.0838504 -0.49429372 -0.6745243 0.2985449 0.41107947 0.079822324 -0.2579509 -2.154008
-0.28082636 -0.23871282 -0.5959333 0.3955441 -0.71687645 -0.8566021 -0.7711302 1.141137
-1.0829797 0.27819026 1.0185103 -0.06494293 0.13150077 -0.020386528 1.6736931 0.23866054
1.3869324 -0.18171868 0.81326884 -1.0050396 -0.48678154 -0.3839385 -0.68165636 0.26865432
0.14123496 1.1374271 0.20191836 -0.24195667 -0.7768638 0.028961448 -0.12392326 0.6247684
0.090128675 -0.2631195 0.51152515 0.9153441 -0.19423169 1.1534357 -0.06479665 0.23726754
0.40250957 -1.6913575 1.0656036 -0.49521214 0.22063552 -1.8147031 -0.7174788 0.931708
1.0543898 -0.06982429 -0.19421859 -0.18394908 1.1623098 0.0034406835 0.03199333 -1.5440795
-0.80417305 0.120583616 0.012079809 -0.9718404 2.2552633 0.13331936 0.35203117 0.9526124
1.2218068 -0.98723525 0.9588884 -0.5479262 -0.49254322 -0.59359217 0.17378429 0.07853606
00000000: c5b9 eabe 93a6 16bf fccc eabd 8e28 82bf
00000010: 9ab6 323f c651 033f 96b3 3fbe 80cf bfbe
00000020: 3bb8 0ebf 421c 9e3e e771 cdbf 0e09 a53f
00000030: 3272 afbd 4b79 5a3f 02cf 4abf bf73 4c3e
00000040: aa31 98bf 5697 57bf 1d71 be3d 7eac b2bf
00000050: 191a 7fbf 8421 f5be c88f dbbe e777 aabe
00000060: c945 e3be fd99 13bf d1bd 9dbf 5c8c 3e3f
00000070: 160d e43e 18a0 633e 09a0 6e3f 0ac6 643f
00000080: 010b 60bf 0bd5 84be bf5c fbbd 7451 663f
00000090: c1a6 1fbf da72 733f 58c7 a93f 2ad2 83bf
000000a0: a714 bcbf ec9d 293c c9a9 8bbf 6bfe 643f
000000b0: 8332 33bf ded4 b2be c0e9 ab3e d5b4 8fbe
000000c0: b90b cc3e 754c 07bf dd18 afbe c1c9 a13f
000000d0: 9f4a afbf 9a8e 593f b644 a33b 9212 96be
000000e0: 2d3a 3cbf cd9d cbbe 5b63 68bf 8179 623f
000000f0: 0b6e fd3e 26cb bc3f 9151 373f 593b d43f
00000100: af9d b1be 97ed 13bf 6594 f6be 4e45 44bf
00000110: 3f73 363f f83f fa3e 23c6 cc3e 41ca 7abf
00000120: 8e8d 2dbf 4800 173f 6867 88bf 061d a13e
00000130: 4d09 14be 26c4 8a3f cb18 41be 2fa9 003f
00000140: f115 65bf e8ba debc 7930 a5be 8e41 16bf
00000150: c2a4 aabf 545d 81bf 2637 c5be 4d48 b9bd
00000160: 0e44 2cbf ab9c 3abf 654d 4fbf 28ee 943f
00000170: 734e ffbd b3eb ae3e 7003 f63f 87ca a83e
00000180: dfc1 90be 5ab8 54bf 82be 2ebf 396f 9d3f
00000190: 3998 80bf 6138 cf3f bc4d aa3f 8568 2abf
000001a0: 4d19 b8bf 2ac0 263d 314a 92bf d42d 9b3f
000001b0: 14a5 2bbe 45bc 523e dbd8 2ebf 0b78 52be
000001c0: 20eb ae3c a4d7 4bbf c002 f2bd d332 8a3f
000001d0: 4fb4 99be b0e2 5b3f a84e a13e bd6c 9bbe
000001e0: 2c4e 26bf 70e2 eabd 1610 2bbf 3a08 5e3f
000001f0: 9f12 ff3e 165e 6f3f 8786 eb3e 7d72 cb3f
00000200: 98df 3f3f b20f 0a3e 1c1a ab3f 12d2 a23e
00000210: 7bf6 003f ee77 4c3f 8dca 7abf 5b0e 2b3f
00000220: 692c de3b f969 0440 f221 acbe 0975 3e3f
00000230: a0ac 273f 1bfe c83d 149a 3c3e c0c8 f93e
00000240: 8b76 e7be e371 233e 6378 483f 8b6e e6be
00000250: 8dd5 2e3f 2edc 06bf 459a 63bf 2753 00bf
00000260: f9d3 79bf a9dd 533f c59b acbf b084 e5bd
00000270: 598e 5abe cbb1 403f 33bb a63d 12fb 95bf
00000280: d4c4 5a3f f3f2 05bf 29bd 2a3f b766 233f
00000290: b188 183f 0cd5 b23e 60d9 813e 7f17 9e3d
000002a0: 35db 8ebe 317b d83e 3520 063f cb41 993e
000002b0: 5d8f 5dbf 094d 39bf a3bc ce3e f1fe 83be
000002c0: 9cbb 8abf 1114 fdbe a0ad 2cbf e1da 983e
000002d0: 0279 d23e e379 a33d 2412 84be 44db 09c0
000002e0: 79c8 8fbe 2271 74be 168f 18bf c284 ca3e
000002f0: 3785 37bf 464a 5bbf ca68 45bf c710 923f
00000300: 149f 8abf f46e 8e3e 8c5e 823f cd00 85bd
00000310: 23a8 063e a601 a7bc 933b d63f 6e63 743e
00000320: 0087 b13f 7614 3abe 6332 503f 23a5 80bf
00000330: 6e3b f9be 9693 c4be 0881 2ebf 0f8d 893e
00000340: e69f 103e 3697 913f b0c3 4e3e 7dc3 77be
00000350: 8ce0 46bf 8f40 ed3c 7acb fdbd d2f0 1f3f
00000360: 6295 b83d 99b7 86be 50f3 023f fe53 6a3f
00000370: ace4 46be c8a3 933f 1bb4 84bd 43f6 723e
00000380: bc15 ce3e 677e d8bf b365 883f 728c fdbe
00000390: 47ee 613e 3148 e8bf b1ac 37bf 6a84 6e3f
000003a0: 3ff6 863f 0a00 8fbd 3de1 46be 265d 3cbe
000003b0: 91c6 943f 177d 613b 700b 033d 66a4 c5bf
000003c0: 49de 4dbf 8bf4 f63d 64ea 453c 88ca 78bf
000003d0: 3c56 1040 df84 083e 6e3d b43e 68de 733f
000003e0: 2a64 9c3f 73bb 7cbf b679 753f e444 0cbf
000003f0: a02e fcbe a8f5 17bf 82f4 313e 84d7 a03d

Decoder.attn_layer.0.bias f4 [64]
0.300003 -1.3543988 -0.18324976 0.63873976 -0.19464517 0.38877413 0.7042392 1.2392738
0.025738006 1.7139034 -0.31567892 1.1100608 -0.5082832 -1.3899177 1.0722057 1.3472487
-1.9336908 1.5133996 0.005386853 -1.4693626 1.0158137 0.86936295 -0.6067068 -0.4514866
0.32957646 -0.4074591 0.5665955 -0.48476198 -0.09026981 0.041676313 0.25614768 0.20975348
1.7058015 -0.8766897 0.67307234 0.43175194 0.54053783 -0.19324642 -0.7225389 0.015728628
1.1008751 -0.3768672 -1.1592832 0.6965234 -0.662675 0.31611001 0.22393861 -0.41068122
0.07146705 -1.7844132 0.1446547 -0.67586285 -0.14168504 0.16328824 0.07059892 -0.5649886
0.25934416 -1.098305 0.9475656 -0.34559044 -0.058623284 -0.6949858 -0.1556086 -1.1780297
00000000: fe99 993e f15c adbf d3a5 3bbe 7384 233f
00000010: 1051 47be 670d c73e 0549 343f 86a0 9e3f
00000020: 83d8 d23c 3061 db3f aba0 a1be 7916 8e3f
00000030: d91e 02bf d3e8 b1bf 093e 893f a572 ac3f
00000040: 2e83 f7bf 14b7 c13f 3384 b03b 1314 bcbf
00000050: 2f06 823f 928e 5e3f 2351 1bbf 4029 e7be
00000060: 3fbe a83e 7b9e d0be 670c 113f b932 f8be
00000070: 61df b8bd c8b4 2a3d ca25 833e 9ec9 563e
00000080: b457 da3f bc6e 60bf 784e 2c3f 970e dd3e
00000090: b060 0a3f 64e2 45be 4ff8 38bf 53d9 803c
000000a0: 7ae9 8c3f bdf4 c0be 6463 94bf 5c4f 323f
000000b0: 12a5 29bf 2cd9 a13e 2a50 653e cf44 d2be
000000c0: 515d 923d a767 e4bf 5d20 143e 5905 2dbf
000000d0: e215 11be 0835 273e 2b96 903d 18a3 10bf
000000e0: c2c8 843e 4295 8cbf a993 723f 3bf1 b0be
000000f0: f81e 70bd 97ea 31bf dc57 1fbe adc9 96bf

Decoder.attn_layer.2.weight f4 [1, 64]
0.35050687 -0.4966951 0.53558195 -0.22596599 0.24774684 0.19645207 -0.070816 0.75434875
0.1707003 -0.5263374 -0.39435518 -0.39728168 -1.0400063 0.10100634 0.5516951 -0.07325532
-0.680347 0.09240561 -0.9530388 0.28569162 0.079120055 -0.2576463 0.66119826 -0.5980275
-0.06940791 -0.19530188 0.37885907 -0.7272785 0.83192664 -0.49671373 -0.16487318 -0.6833056
-0.6371378 -0.4306606 -0.051345084 -0.2938854 0.49395257 0.22760454 -0.46954438 -0.51031286
-0.93532413 -0.16047631 -0.2689548 0.9823041 -0.09376768 0.68636644 1.126771 -1.0599947
-0.03518011 0.12618989 -0.3311143 0.15589742 0.2820407 -1.619902 -0.38169995 0.51920056
0.4279993 -0.70819557 -0.20479405 -0.055657946 -0.54515487 0.32245174 0.19090597 -0.27922988
00000000: a375 b33e d24e febe e61b 093f a163 67be
00000010: 59b1 7d3e bb2a 493e fb07 91bd 001d 413f
00000020: 0fcc 2e3e 0cbe 06bf ece8 c9be 8168 cbbe
00000030: ed1e 85bf 69dc ce3d e43b 0d3f e306 96bd
00000040: 392b 2ebf 273f bd3d 5afa 73bf 2c46 923e
00000050: b209 a23d 37ea 83be 4a44 293f 5518 19bf
00000060: bc25 8ebd 37fd 47be d1f9 c13e ec2e 3abf
00000070: 25f9 543f 4351 febe 84d4 28be 1eed 2ebf
00000080: 761b 23bf 8c7f dcbe 394f 52bd 2678 96be
00000090: 5ae7 fc3e 2a11 693e 1f68 f0be dda3 02bf
000000a0: 6771 6fbf e753 24be 72b4 89be 4878 7b3f
000000b0: 4509 c0bd b6b5 2f3f 083a 903f e8ad 87bf
000000c0: 0519 10bd ec37 013e d087 a9be 93a3 1f3e
000000d0: a367 903e f358 cfbf 2d6e c3be 54ea 043f
000000e0: b922 db3e 4e4c 35bf 88b5 51be 96f9 63bd
000000f0: 458f 0bbf 6518 a53e db7c 433e 38f7 8ebe

Decoder.lstm_layer.weight_ih_l0 f4 [256, 1]
0.5540419 1.0660926 0.42857978 0.70972997 -0.5248571 0.40523842 -0.11731169 -1.1553771
0.62223893 -1.2985868 -0.5964915 0.9359287 0.9166742 1.6891034 0.7305588 1.5454677
-0.037969414 0.12678446 0.97493434 1.4062921 1.0944788 -0.6511677 0.4147539 -0.123317845
0.4751412 -0.5497371 2.3855648 -0.9415897 1.1599447 -0.34523112 -0.8202259 0.5960002
-0.97376597 0.84397036 -2.1908822 -0.7076798 -0.9292685 -0.25030097 1.053614 -0.18139383
0.94119585 0.30521414 0.9466161 -2.0781364 0.33193007 1.39856 -0.33958757 -0.2510348
0.5871102 -1.024789 -0.6259474 0.22718406 0.6354813 -0.13480952 0.65339166 -1.1944283
0.539266 -0.21458526 0.7051309 0.19928853 1.4472865 0.57979697 0.1333441 1.9393258
0.95584446 0.98904586 0.9603533 1.0199722 0.27608314 0.57535934 0.5375839 0.53811496
1.5379057 -0.51250887 2.825523 -0.65449715 0.9797227 -0.52207375 0.8046384 1.4462744
0.25019097 0.76967746 0.31926018 0.028624713 0.7857789 0.26717973 0.22480834 2.314359
0.90110296 1.1500192 -0.07027014 1.0171219 0.96157545 -1.0034692 -1.0309621 2.132636
-0.6748565 -0.7101452 0.40777585 -0.07688723 1.7186114 -0.74525744 0.100932516 1.7323377
-0.1105819 0.38157514 -0.40825585 1.4903989 0.8279655 0.3150958 0.35769635 1.7978506
0.5254673 -0.22630212 0.05310664 2.5456083 0.41630676 0.42523068 0.9613661 1.6597073
-0.72087175 0.34645408 2.833483 0.75456333 0.8803365 1.069329 1.1620376 1.0838732
0.90115464 -0.013571208 0.030042117 0.45380932 -1.7891603 -0.9431906 0.047442943 1.6006223
-0.76556015 -1.3375463 1.4709607 0.10700169 -0.4873043 0.47700924 1.7779737 -1.028415
-0.16088983 -1.4636132 -0.8594399 0.14836119 0.11350522 0.24463205 0.60792935 1.0152798
0.31423512 1.394124 -0.65427285 -2.3002322 -0.5010062 0.07607649 -0.27788812 0.22733516
-0.4756707 -0.50389326 0.20829497 -1.2932738 0.95633113 -0.01680903 0.7491727 -0.06724446
-0.705441 -0.20561838 0.17340745 -0.18016097 0.7607639 -0.48349053 0.44993076 1.1240233
-1.058722 0.5590032 -1.0235935 -1.2296427 -0.7941219 -0.673398 -0.13993815 0.274
-0.4979002 -0.64286613 -0.44807768 -0.11474954 0.9705185 1.4847924 0.80966985 0.3942669
0.33605406 1.1066842 0.17073971 -0.13881245 -0.6778499 -0.3811195 -0.18205135 -0.6955842
1.4820194 0.08183031 -1.1249794 0.70866865 0.4580345 0.59969735 -0.35040575 1.6231858
-0.069696255 -0.18088411 0.6454961 1.7390461 0.32237887 -0.08958661 -0.680855 1.1815056
1.0783129 0.815051 1.0811279 1.0653208 1.1736133 -1.1971061 0.1362181 0.9681005
-0.12375939 0.32389233 -0.6382715 -1.0389417 -1.2793785 0.03715071 0.104041494 -0.057645395
-0.06516125 -0.111710764 0.6887219 -0.7152325 0.98978233 0.96275854 -0.86431926 1.1196315
0.4344364 0.4250567 -0.36283723 1.5867256 1.8029671 -0.10019137 1.3453857 -0.8631644
0.09411454 -0.31805238 0.41923892 -0.015974024 1.1761943 0.31236818 0.07528469 0.37318075
00000000: b1d5 0d3f b975 883f cf6e db3e ddb0 353f
00000010: 095d 06bf 697b cf3e 1c41 f0bd 66e3 93bf
00000020: 0d4b 1f3f 1838 a6bf abb3 18bf 0699 6f3f
00000030: 29ab 6a3f 8a34 d83f e705 3b3f e3d1 c53f
00000040: d185 1bbd c9d3 013e 4c95 793f 6101 b43f
00000050: e217 8c3f edb2 26bf a05a d43e 118e fcbd
00000060: b545 f33e 92bb 0cbf 18ad 1840 060c 71bf
00000070: 1179 943f 22c2 b0be 53fa 51bf 7893 183f
00000080: ba48 79bf 710e 583f 6a37 0cc0 812a 35bf
00000090: 8ae4 6dbf 7327 80be d3dc 863f 4ebf 39be
000000a0: 36f2 703f 0745 9c3e 6f55 723f 3000 05c0
000000b0: bdf2 a93e 0404 b33f 6cde adbe a287 80be
000000c0: db4c 163f 492c 83bf 173e 20bf f0a2 683e
000000d0: e7ae 223f 820b 0abe ad44 273f 07e3 98bf
000000e0: 560d 0a3f 3dbc 5bbe 7583 343f 4b12 4c3e
000000f0: af40 b93f 936d 143f 5b8b 083e d43b f83f
00000100: 39b2 743f 1c32 7d3f b7d9 753f 738e 823f
00000110: c55a 8d3e c04a 133f 199f 093f e7c1 093f
00000120: 18da c43f c833 03bf 5ed5 3440 208d 27bf
00000130: 1bcf 7a3f a0a6 05bf c8fc 4d3f 851f b93f
00000140: 0819 803e 9509 453f 1276 a33e 607e ea3c
00000150: ce28 493f c8cb 883e 2834 663e 751e 1440
00000160: afae 663f d433 933f cbe9 8fbd 0d31 823f
00000170: cf29 763f ae71 80bf 91f6 83bf 1c7d 0840
00000180: 65c3 2cbf 13cc 35bf ffc7 d03e 0d77 9dbd
00000190: 75fb db3f 31c9 3ebf b5b5 ce3d 3ebd dd3f
000001a0: c378 e2bd d15d c33e e906 d1be 64c5 be3f
000001b0: 8cf5 533f 3d54 a13e fa23 b73e f81f e63f
000001c0: 0685 063f bebb 67be 5986 593d 3feb 2240
000001d0: 2926 d53e d6b7 d93e 171c 763f 4a71 d43f
000001e0: 0d8b 38bf 6e62 b13e c957 3540 102b 413f
000001f0: bc5d 613f c6df 883f a6bd 943f 5bbc 8a3f
00000200: 12b2 663f c659 5ebc e31a f63c b259 e83e
00000210: 3403 e5bf f074 71bf 8853 423d 31e1 cc3f
00000220: c0fb 43bf b834 abbf 7148 bc3f b423 db3d
00000230: f37f f9be 8e3a f43e a494 e33f 1aa3 83bf
00000240: 4ec0 24be ad57 bbbf 4104 5cbf ffeb 173e
00000250: 6d75 e83d d380 7a3e 42a1 1b3f b0f4 813f
00000260: 6de3 a03e a872 b23f 6d7e 27bf 0137 13c0
00000270: f141 00bf fecd 9b3d 5a47 8ebe 8cca 683e
00000280: 1c8b f3be 26ff 00bf 474b 553e ff89 a5bf
00000290: 1ed2 743f 17b3 89bc c8c9 3f3f 77b7 89bd
000002a0: c897 34bf a08d 52be b991 313e 1e7c 38be
000002b0: 6cc1 423f 128c f7be 535d e63e ffdf 8f3f
000002c0: 3484 87bf d51a 0f3f 1d05 83bf ef64 9dbf
000002d0: 934b 4bbf d063 2cbf f24b 0fbe ba49 8c3e
000002e0: c6ec febe e092 24bf 706a e5be cf01 ebbd
000002f0: e773 783f ad0d be3f 8646 4f3f 5add c93e
00000300: 470f ac3e d4a7 8d3f 64d6 2e3e da24 0ebe
00000310: 9287 2dbf 1822 c3be ab6b 3abe ce11 32bf
00000320: d0b2 bd3f a696 a73d 53ff 8fbf 4f6b 353f
00000330: 7f83 ea3e c485 193f 6268 b3be 8dc4 cf3f
00000340: e9bc 8ebd af39 39be 3b3f 253f 1099 de3f
00000350: d80e a53e 2f79 b7bd 834c 2ebf 933b 973f
00000360: 2806 8a3f 2fa7 503f 6662 8a3f 6f5c 883f
00000370: f638 963f c63a 99bf c27c 0b3e 6fd5 773f
00000380: 9075 fdbd 37d5 a53e c365 23bf 0bfc 84bf
00000390: adc2 a3bf 582b 183d b513 d53d 941d 6cbd
000003a0: 4373 85bd 9dc8 e4bd 1450 303f 7a19 37bf
000003b0: 6062 7d3f 5877 763f 0744 5dbf 1650 8f3f
000003c0: 736e de3e 08a1 d93e cdc5 b9be d319 cb3f
000003d0: a0c7 e63f 2231 cdbd 9935 ac3f 58f8 5cbf
000003e0: 20bf c03d c3d7 a2be 7ca6 d63e f5db 82bc
000003f0: 898d 963f b9ee 9f3e dc2e 9a3d 8c11 bf3e
