result/ver7_6/last.pt (torch, 308751 bytes, 81 tensors)

Encoder.encoder_lstm.weight_ih_l0 f4 [128, 6]
000000 4a 9d a0 bd ab 1b e8 bd f9 15 1d be 7f 2c a9 bd
       -0.078425005 -0.11333402 -0.15340413 -0.0826044
000010 e9 90 53 be 3a 76 0c 3f 47 18 12 bf 2f c5 92 bc
       -0.20660748 0.548679 -0.57068294 -0.01791629
000020 69 25 83 be 45 64 c6 3d 48 4f 2d bf 41 17 c0 be
       -0.2561448 0.09687094 -0.676991 -0.3751774
000030 df 1a 1f bf 56 0b 55 be 53 d4 d7 be cd 1b 2b 3d
       -0.6215038 -0.20805106 -0.42154178 0.04177456
000040 ae f0 b9 3d 52 5c 6a bd 6b 25 b6 bd 04 92 16 3f
       0.09079109 -0.05721695 -0.08893856 0.5881655
000050 75 5b cd be ea a5 cb bb 6d e4 32 3e 71 61 58 3f
       -0.4010884 -0.006214847 0.1746995 0.84523684
000060 6f d4 42 bc eb ba 5c 3f f3 6c d9 b9 ea d0 c7 3e
       -0.011891468 0.86222714 -0.0004147064 0.39026576
000070 48 89 98 3c 83 76 e9 3c 4f 84 44 be 10 61 25 bf
       0.018620148 0.028498894 -0.19191097 -0.6460123
000080 83 7e 58 bf fd 93 9a be d1 ae c5 3e f8 cc 80 bd
       -0.8456804 -0.3019103 0.38609937 -0.06289095
000090 f4 ec 1d bf 3b 00 3e be d8 12 fa be 53 9b d2 3e
       -0.61689687 -0.18554775 -0.48842502 0.41134128
0000a0 49 ca 1a 3e a4 95 3c 3e 5c ac 01 be 89 1c 24 3f
       0.15116228 0.18416458 -0.12663406 0.6410604
0000b0 0f 9d ca be 41 e6 aa 3e 49 f7 74 3e 55 47 90 be
       -0.3957295 0.33378795 0.23922457 -0.28179422
0000c0 64 38 c7 3d be 00 55 be 16 65 45 be 86 34 9e 3e
       0.097275525 -0.20801064 -0.19276842 0.30899447
0000d0 73 17 9e 3e 3f b1 c2 be 70 9d ce be fb 16 07 3e
       0.30877265 -0.38025853 -0.4035449 0.1319236
0000e0 8d b8 9c be e5 3d 80 3e 54 b2 b9 bd 60 6c 85 3f
       -0.3060955 0.25047222 -0.090672165 1.0423698
0000f0 42 9a 07 bd eb 60 d7 be b4 c4 69 be 55 7b 0e 3e
       -0.033106096 -0.4206613 -0.22828943 0.13914235
000100 8d 3f a1 3e 63 25 03 3f b3 ee de 3d 6e 42 3b 3f
       0.31493798 0.5122892 0.10885372 0.7314824
000110 59 99 a6 be 39 e0 49 3e 01 4e 9a bd be 98 ac 3f
       -0.3253887 0.1971444 -0.07534409 1.3484113
000120 d7 2f f3 3e d8 c5 39 39 fe 81 32 3f 34 1a 08 3d
       0.47497436 0.00017716677 0.697296 0.033228114
000130 f3 81 3a be d9 1e 3a 3f 5f e3 aa 3e 37 63 ad 3d
       -0.18213634 0.7270332 0.33376595 0.08466189
000140 f9 d3 0f 3e ed 1e 73 be 41 43 a9 be 5f 36 d9 3e
       0.14045705 -0.23742266 -0.33059123 0.42424294
000150 4f 9a f4 bd 3c f7 6d 3d d7 2f 6b 3f 3a 5c cf be
       -0.119434945 0.05809711 0.9186987 -0.4050005
000160 77 44 98 be f0 05 78 3f 87 8c 3b bf c3 c3 2c be
       -0.29739735 0.9688406 -0.732613 -0.16871552
000170 27 30 a9 be de 9e aa be e3 bc 9e 3a 70 ed 02 3e
       -0.3304455 -0.3332433 0.0012110736 0.12785888
000180 9d 62 2d bf bc e4 b1 bd 8f e2 34 be 30 89 15 3e
       -0.67728597 -0.08686206 -0.1766455 0.14603114
000190 c4 6c 94 3e 14 cd 33 3e 4a 2a a3 3e 50 87 a6 3e
       0.28989232 0.175587 0.31868201 0.3252511
0001a0 5b 0c 2e be e3 b7 1f 3d 6e b9 57 3b 39 27 14 3f
       -0.169969 0.038993727 0.0032916921 0.5787235
0001b0 de fb a3 3e 10 6b bf be 1a 68 38 3e ef 4c 82 bd
       0.32028097 -0.3738637 0.18008462 -0.0636233
0001c0 21 d4 de bd 69 18 04 3f c4 49 05 bc 30 dc d6 be
       -0.10880304 0.51599747 -0.008135263 -0.41964865
0001d0 20 d8 a9 bc 49 df 0c bd 08 50 4c 3e ec 0c db 3e
       -0.02073294 -0.03439263 0.19952404 0.42783296
0001e0 a5 53 03 3f 86 cc 64 3d 0d f3 86 3f 00 bc d1 3e
       0.51299506 0.05585911 1.0542923 0.40963745
0001f0 36 c6 0b 3e 60 d3 89 3f 7e 3d 47 3f dc 00 9f bd
       0.1364983 1.0767632 0.77828205 -0.07763836
000200 38 5c 9d 3e bc cf 85 be 76 26 9f be 60 3e 72 3f
       0.3073442 -0.2613505 -0.3108403 0.94626427
000210 05 ad a5 be fb 61 de be 6f 7d d4 be a1 99 b0 bb
       -0.32358566 -0.43434128 -0.41501948 -0.0053894077
000220 f9 be 4e 3e 78 99 91 3f 3d 0f 58 3e 67 8a 7e 3f
       0.20190038 1.137496 0.21099563 0.99429935
000230 4f 42 06 3e 4c e5 1a 3e 6a f8 bc 3e 5c a2 55 3e
       0.13111232 0.15126532 0.36908275 0.20862716
000240 5c 6b 7c be df 69 11 3f 90 80 13 3f 8b 9b 32 3e
       -0.2465033 0.5680217 0.57618046 0.17442147
000250 15 7e 63 bd d1 d4 6b 3d 6f cc 3f be eb 1b 2d bf
       -0.055540163 0.057576004 -0.18730329 -0.67620724
000260 18 b8 0a be 3b 64 12 be 18 07 37 be 62 b4 9a 3e
       -0.13546789 -0.14296047 -0.178738 0.30215746
000270 d0 49 c8 bd 31 45 09 bf 94 fa 0d be 89 6a 61 bf
       -0.097797036 -0.536212 -0.13865119 -0.88053185
000280 a5 b3 04 bf da 1c ed 3e 1e d8 81 be 0d cb 49 bf
       -0.51836616 0.46311074 -0.25360197 -0.78825456
000290 31 32 4c bf 7a bf db be 87 62 0b bf bd 5b ac be
       -0.79764086 -0.42919523 -0.54447216 -0.3366374
0002a0 6e 5a 96 3c e4 4c 0e bf 7d c6 da 3b db 00 16 3d
       0.018353667 -0.55586076 0.0066764937 0.03662191
0002b0 f2 f4 ac 3d a8 84 f7 3c f6 65 c6 3e 7d 68 d5 3d
       0.08445157 0.030214623 0.38749665 0.1042032
0002c0 b4 d7 1b 3f 7f 2b 4c 3e 06 b7 10 3e 7f 6b 6a 3f
       0.6087601 0.19938467 0.14132318 0.91570276
0002d0 40 4f 39 3f 68 08 02 3d fd be f8 bd 57 cb 7e be
       0.7238655 0.031746298 -0.12145803 -0.24882255
0002e0 97 b4 38 3d 6e 7b 44 bd 21 38 98 3d 41 4a 34 bf
       0.0450941 -0.047969274 0.07432581 -0.704258
0002f0 73 6c 94 3d d5 14 59 3e 63 f9 80 3d 25 b6 16 be
       0.072472475 0.21199353 0.06297567 -0.1471792
000300 68 bf 87 be 3e 0e b9 be 2e f2 71 be 4d 09 d9 be
       -0.2651322 -0.36143678 -0.2362754 -0.42389908
000310 09 e4 0e bf e2 4f 40 3f 85 b5 3f 3e 62 83 35 3c
       -0.55816704 0.7512189 0.18721588 0.011078687
000320 5f e4 ce 3e 35 6e ee 3c fc be 63 bf 26 72 36 be
       0.40408608 0.029105285 -0.88963294 -0.17816982
000330 e9 be 1f bf d2 58 cf be be 00 6f bf 81 d1 56 3e
       -0.6240068 -0.40497452 -0.9336051 0.20978357
000340 8f 5c e6 3d ec 23 01 bd b2 27 28 3f 9d 5f 00 3e
       0.11248123 -0.0315284 0.6568557 0.12536474
000350 f1 55 8a be 65 23 69 3e 76 0f e1 3e 18 36 f2 3e
       -0.27018693 0.22767408 0.43957108 0.47306895
000360 a6 85 b3 3e 65 70 57 3f 35 0d 5d be 12 4e c6 3e
       0.35062903 0.84155875 -0.2158707 0.38731438
000370 3d b4 db 3e 61 cd 5a be 97 f2 04 3f 0b 1b 68 3d
       0.42910948 -0.21367408 0.5193266 0.056666415
000380 15 03 25 3d d5 cb a8 bf 3b 17 f3 be da 31 e8 3e
       0.040286142 -1.3187205 -0.4747866 0.45350534
000390 44 1b ca 3e 50 57 12 3d d2 c1 be bc 51 4d ec bd
       0.39473927 0.0357278 -0.02328578 -0.115381844
0003a0 7c 66 d6 be 01 70 3f 3d 6d 86 64 be 00 7e be be
       -0.41875064 0.046737675 -0.22316904 -0.37205505
0003b0 16 df 50 bf e4 1e 35 bf 1f 56 29 bf a4 d5 2b bf
       -0.815904 -0.7075026 -0.66147035 -0.67122865
0003c0 a5 ee be be ff 18 f8 be 13 9f 57 3e 40 b4 68 be
       -0.37291446 -0.4845657 0.21056776 -0.2272501
0003d0 16 48 a3 be a9 0c e4 be 6e 71 05 bf 0e 7c ea be
       -0.31890935 -0.4454091 -0.52126205 -0.4579777
0003e0 97 eb ec be b5 2d 6c bf 15 35 02 bf c5 1b 24 be
       -0.4627349 -0.92257243 -0.50862247 -0.16026218
0003f0 ed 57 df bb 56 8f 28 bf 6e 0c af bd 1c ef 68 3e
       -0.0068159015 -0.65843713 -0.08547293 0.22747463

Encoder.encoder_lstm.weight_hh_l0 f4 [128, 32]
000000 ef ff 36 3e be d4 40 3d 34 24 86 bd 95 40 11 3e
       0.17871068 0.047077887 -0.06549874 0.14184792
000010 b4 b3 e2 3d dd 49 8e bd 4b ca 85 bd 4d 81 55 bf
       0.11069432 -0.06947682 -0.06532725 -0.8340042
000020 17 d3 1f be 0b 00 34 3f e9 59 73 3d f3 5e d9 3e
       -0.15607868 0.70312566 0.059411917 0.42455253
000030 ed f6 66 3b cc aa 82 3b 93 34 d1 3e 8a c9 47 3e
       0.0035242394 0.0039876457 0.40860423 0.19510475
000040 c9 7f 6e 3d b6 8b 49 bf 6f 23 01 be de 72 ab bd
       0.058227334 -0.78728807 -0.12611173 -0.083715186
000050 09 2d 45 3f 7c 93 25 3f 71 d9 37 be 2a 3e 6d 3c
       0.77021843 0.6467817 -0.17954041 0.014480153
000060 94 48 02 bd 40 ca 38 bc b8 e6 9d 3e 23 a9 c1 3e
       -0.031807497 -0.011278689 0.30840087 0.37824354
000070 64 44 81 be 78 1f 7d 3f b4 06 14 3f 3d b3 e9 be
       -0.2524749 0.9887614 0.5782273 -0.4564456
000080 75 c5 92 3e e3 58 24 3e 15 8c b4 be 82 9e 35 be
       0.28666273 0.16049533 -0.35263124 -0.17736247
000090 2a 77 8b be 2c dc b0 be 6a dc 5a 3e 38 6e c6 be
       -0.27239352 -0.34542978 0.21373144 -0.38755965
0000a0 8a ec 2c 3e 3c 36 2e 3e d2 53 b8 bd fb 85 d5 be
       0.16887107 0.17012876 -0.090003625 -0.4170378
0000b0 52 a0 b2 3e 12 c5 1d 3e 2c 61 bc bf 19 cb 1f 3f
       0.3488794 0.15407208 -1.4717155 0.6241928
0000c0 25 dc 15 3d 0d 2c 67 3f 2a 03 06 3d eb b6 fc 3b
       0.0365869 0.9030159 0.03271786 0.007712235
0000d0 6f 3c 83 bf 3f 96 63 3e d6 a2 91 be 8f 9b 8a be
       -1.0252818 0.22225283 -0.28444546 -0.27071807
0000e0 78 40 c6 be 43 93 19 bd fb a9 01 be db 7c a5 be
       -0.3872106 -0.037493955 -0.12662499 -0.3232182
0000f0 37 00 76 3e bf b5 14 bf fa 08 93 bd 50 6a 85 be
       0.2402352 -0.5808982 -0.071794465 -0.26057673
000100 fd 73 0d 3f ca 15 20 bf f9 ed 6e be 5f 72 15 3f
       0.5525511 -0.6253325 -0.23332967 0.5837764
000110 8a 03 2b bf 9d e8 04 be 14 43 5a 3f f1 1c 82 bf
       -0.66802275 -0.1297936 0.85258603 -1.0165082
000120 93 64 63 3d 22 31 c7 3e a6 bb 24 3f c8 58 1d 3f
       0.055515837 0.38904673 0.6434883 0.61463594
000130 da 11 33 3f 3a 89 20 be aa 64 34 bf dc 68 bf be
       0.69949114 -0.15677348 -0.704661 -0.3738469
000140 00 0c 21 bf f5 89 87 be e6 84 09 3f 0e 2e bf 3c
       -0.62908936 -0.2647244 0.5371841 0.02333739
000150 7f 9a 91 bc 8e 66 0e bf 7c e6 f5 3e 84 19 ae be
       -0.017773865 -0.55625236 0.48027408 -0.34003842
000160 15 8f f8 be 8c c4 39 bf 8d 76 db 3d ef 98 85 3d
       -0.48546663 -0.7256553 0.10715971 0.065233104
000170 24 a6 33 bf ea 36 fc 3e 50 34 62 3e 63 5a 3b 3d
       -0.70175385 0.49260646 0.22090268 0.045740496
000180 8c bf 09 3e 17 a7 00 bd 59 b9 33 bd c4 9a ca 3d
       0.13451976 -0.03140935 -0.043877933 0.098928005
000190 de f4 34 bd 51 75 80 be 6e 76 b7 3e e6 75 a6 be
       -0.044178836 -0.25089505 0.35832542 -0.32511824
0001a0 81 69 8d 3f 18 b7 de 3e 5d 1b bc bd b1 3c c0 3e
       1.1047822 0.43499064 -0.09184907 0.37546304
0001b0 fe 8d e8 3e 39 80 16 bf 35 06 72 bf 0d 7d b6 be
       0.4542083 -0.587894 -0.9454072 -0.3564228
0001c0 df 3a ed be 4d 44 08 bd 9b 8a f4 3c f3 d7 8d 3e
       -0.46333978 -0.03326826 0.029851248 0.2770382
0001d0 fc b8 9c be 2e b7 6e 3e 5d ba 37 be 77 da c5 be
       -0.30609882 0.23312065 -0.17942186 -0.38643238
0001e0 ed d8 d5 be 74 6b 86 3c 65 dc e2 be 1c 77 8e bd
       -0.41767064 0.01640866 -0.44308773 -0.06956312
0001f0 3d 66 b1 bd d8 df d5 3e e6 5e 9c 3e 10 27 4d bd
       -0.086620785 0.41772342 0.30541152 -0.05008608
000200 ec f5 c2 3e 93 88 68 3c d4 fa 49 be b0 8a df be
       0.38078249 0.014192718 -0.1972459 -0.43660498
000210 8a 25 f6 3d 92 08 95 3e f3 f2 b4 3c 8c 8a 02 bf
       0.12018879 0.291081 0.022088503 -0.50992656
000220 ab 6b 21 3f dc 53 05 3f d1 32 46 3c 8c 66 b6 3e
       0.63054913 0.52081084 0.0120970765 0.35625112
000230 df 79 05 3f e1 ea 31 be 9e fa 69 be 7f 12 0b 3f
       0.52139086 -0.17374755 -0.22849509 0.543251
000240 dc 1d a4 3e 99 e1 6e be 04 7f bd 3d 06 bc 67 bd
       0.3205403 -0.23328246 0.09252742 -0.056575797
000250 4a b2 2c 3d 65 ee a2 be 64 72 94 be 8d 3f 6c 3e
       0.042162217 -0.31822506 -0.28993523 0.23071118
000260 02 c2 de 3c 73 c5 12 bd 9e 03 44 be 10 a2 23 3c
       0.02719212 -0.035832833 -0.19142005 0.009987369
000270 37 4a a1 bd c9 70 38 bc 48 d1 41 3e e9 6e f6 3d
       -0.078754835 -0.011257359 0.1892749 0.12032873
000280 6a 90 26 bf b9 50 66 3e e0 2f c3 bd 48 49 14 bf
       -0.6506411 0.22491731 -0.09530616 -0.5792432
000290 fb fc 0b 3e ac 5a 68 3e 7e e3 81 be 39 3d cd 3e
       0.13670723 0.22690839 -0.25368875 0.40085772
0002a0 01 d2 b3 3e 0d 7f 2a bf 1c 4f 36 bf 6f 46 40 bf
       0.35121158 -0.66600114 -0.7121446 -0.75107473
0002b0 9e f0 8f 3e 46 fd 8e 3e 57 1e 6f 3e 82 9c b4 3e
       0.28113264 0.27927607 0.23351417 0.35275656
0002c0 e0 2f a4 3e 06 18 48 3f a0 e6 2c be 63 d2 a5 be
       0.32067776 0.78161657 -0.16884851 -0.32387075
0002d0 7f 8d cb be 0c ca 60 3e d7 ce e3 be 85 68 33 3e
       -0.3975639 0.21952075 -0.44493744 0.1752034
0002e0 f9 c5 d2 3e e3 55 61 3f f2 85 09 be bc d0 bf be
       0.41166666 0.8802168 -0.13430002 -0.3746394
0002f0 ca 82 7c 3f d7 a8 1c 3d ff 89 6d bf 73 3f 4b be
       0.9863707 0.038246956 -0.9278869 -0.19848423
000300 4d 57 cc 3e 37 ed 94 be e9 e8 5c 3e 40 1d 06 3f
       0.39910355 -0.2908723 0.21573223 0.5238838
000310 6e 09 05 3e 31 3c fe be 0d 8b a6 3e 2e 0b 0d bf
       0.12991878 -0.49655297 0.32527962 -0.55095184
000320 29 25 a5 3f ab f0 23 3f 5d 35 0a 3e f5 92 b6 3e
       1.2901965 0.64039105 0.13496919 0.35658994
000330 9f 4e 28 3f a8 34 80 bf 3b 96 17 bf 8c 0e d2 be
       0.65744966 -1.001607 -0.5921361 -0.41026723
000340 c8 20 58 bf ef 88 a8 3e 1c 69 0a 3f fe ab 55 3e
       -0.8442502 0.32916972 0.54066634 0.20866391
000350 fd 87 33 bf e3 11 96 be 0a b9 37 3e 17 3d 24 bf
       -0.70129377 -0.2931052 0.1794168 -0.64155716
000360 36 b6 93 3e c1 e7 8e be 35 12 4c bf 1c 78 68 bd
       0.28849953 -0.2791119 -0.7971528 -0.05675517
000370 54 de ac be 4a 29 1e 3e cd e7 03 3e 8f 4d b2 be
       -0.33763373 0.15445438 0.12881394 -0.34824798
000380 ff b5 30 3f b2 48 71 3e c7 71 d4 3c 8a fe d2 3e
       0.69027704 0.23562887 0.02593316 0.41209823
000390 94 5c 80 be d7 06 14 bf bc 0c 3f 3f 0e 3a 4a bf
       -0.25070632 -0.57822937 0.74628806 -0.78994834
0003a0 00 74 23 3f 3a 09 b7 3e 8a 32 6f 3e 2d ec 08 3f
       0.63848877 0.35749227 0.23359123 0.53485376
0003b0 f9 a7 40 3f bb 28 84 bf 1b cc 41 be 63 94 de be
       0.75256306 -1.032493 -0.18925516 -0.43472585
0003c0 e0 25 b2 be 99 ce 4b 3e cc 84 78 3f bc 7c 8d 3e
       -0.3479452 0.1990303 0.9707763 0.27634227
0003d0 07 c7 ae be da e6 93 bf 83 76 16 3f 9b 29 a2 be
       -0.3413622 -1.1554825 0.58774585 -0.31672367
0003e0 c2 ee 5c be 22 ed 21 be c0 c7 1d bf 9d 37 41 3e
       -0.21575454 -0.15813115 -0.6163292 0.18868871
0003f0 18 f3 60 be 28 67 2a 3f d1 65 ef 3e 50 eb 28 be
       -0.21967733 0.66563654 0.46757367 -0.16496015

Encoder.encoder_lstm.bias_ih_l0 f4 [128]
000000 48 41 12 3d f1 b9 8f be 4d c3 1d bf 90 3f bd be
       0.03570679 -0.2807155 -0.6162613 -0.36962557
000010 42 5d 24 3e 6c 69 03 bf 35 07 66 bf 2b c2 84 be
       0.160512 -0.51332736 -0.8985475 -0.25929388
000020 cf e3 87 3d dc ac 9b be 8f 06 2b 3e 41 9a a1 be
       0.06635248 -0.3040532 0.1670172 -0.31563
000030 2a 8e c1 3d e0 95 88 be 1a 3f b5 bc 27 44 42 be
       0.09450944 -0.26676846 -0.022124816 -0.1897131
000040 9c 77 25 bf 57 2a e1 be af 30 7d be 18 50 c3 be
       -0.64635634 -0.43977615 -0.24725603 -0.38147044
000050 32 e0 9f be 38 30 44 be 96 69 03 bf 7c 81 bc be
       -0.31225735 -0.19159019 -0.51332986 -0.3681754
000060 dd 26 7b bd b3 ef 39 bd 5b ce a7 be 23 a7 d6 bd
       -0.06131636 -0.04539461 -0.32774624 -0.104810975
000070 ab 2b 6b bd a2 31 4c be 73 24 f5 bd 3a 3c ad be
       -0.057414692 -0.19940808 -0.11969843 -0.33835012
000080 fc 77 76 be 2d e8 fd bd be 9f 48 bf 6b 22 1f be
       -0.24069208 -0.123978 -0.7836875 -0.15540473
000090 f5 f8 e2 3e 3c b5 f4 3d 91 fa 13 bf aa 73 c4 be
       0.44330564 0.1194863 -0.5780421 -0.38369495
0000a0 02 6b ba be ba aa b3 be c5 58 d2 be 04 19 14 be
       -0.36409765 -0.35091192 -0.4108335 -0.14462668
0000b0 e7 e2 95 be 1d 87 36 bf 59 3b e6 be 30 36 8a bd
       -0.29274675 -0.71299917 -0.44967154 -0.06748617
0000c0 76 0a d2 be 9f e8 d2 be a8 a1 08 be eb a7 9e be
       -0.41023606 -0.411931 -0.13342917 -0.30987486
0000d0 07 e3 e8 be 2f 3f 64 3d 38 6a d6 be ba 7d 5f be
       -0.45485708 0.05572432 -0.41877913 -0.21825305
0000e0 78 c0 8a 3e 12 0e d4 be 23 71 f9 be ec 6f cc be
       0.27099967 -0.41416985 -0.4871913 -0.3992914
0000f0 78 23 61 be be be cd be 22 85 08 3d d0 77 19 bf
       -0.21986187 -0.40184587 0.03333009 -0.59948444
000100 d3 ae 2f 3e a6 69 50 3d 90 75 48 3c b1 f5 3f 3d
       0.17156534 0.050882004 0.01223506 0.04686517
000110 88 17 21 3e 3e 87 c5 bd 8e 41 40 3b 9b 43 ef bc
       0.15731633 -0.09644936 0.0029335949 -0.029207041
000120 fd 4c 61 3c 91 58 00 be 97 96 0d 3d 7d d0 75 be
       0.013751266 -0.12533785 0.03456744 -0.24005313
000130 55 72 a4 bd af a0 44 3e b5 51 c0 3c 1f 12 7a bd
       -0.080296196 0.19201921 0.023476461 -0.061052438
000140 8e fa e5 bd 2a 7c da 3d b0 56 5a bd c3 be b9 bc
       -0.1122943 0.10668214 -0.053305328 -0.02267397
000150 99 04 8e bd e2 e5 30 3e 5d c4 00 3e 53 91 0a be
       -0.06934471 0.17275193 0.12574907 -0.13532
000160 7a 50 49 3e 86 cd e6 bd ac 6e 8b bd b3 8d 64 3d
       0.19659606 -0.11269669 -0.06808218 0.055799197
000170 4c 59 83 bd ca 04 da 3c 8e 49 ec bd b1 f8 72 bd
       -0.064135164 0.026613612 -0.11537467 -0.0593192
000180 69 a0 75 be c4 21 3f bf 0e 93 2b bf ce 92 79 be
       -0.23986973 -0.746609 -0.6702126 -0.24372408
000190 86 11 13 be fe bd 1f bf ef d5 29 bf 37 2c 79 be
       -0.14362153 -0.6239928 -0.6634206 -0.24333273
0001a0 21 8d 8d be 6f 25 1c bf 03 67 0c 3e a7 82 16 bf
       -0.27646735 -0.6099462 0.13711171 -0.5879311
0001b0 cd 5c 5d be c9 2b a6 be 9b 28 a2 be fd 16 16 bf
       -0.21617432 -0.3245528 -0.31671605 -0.5862883
0001c0 84 8a 90 bf 7d ab 3e bf a4 31 9b be 0c 28 24 be
       -1.1292272 -0.7448042 -0.3031131 -0.16030902
0001d0 c0 25 31 bf 8b 00 2e bd d7 16 62 be 98 6a a3 be
       -0.69198227 -0.042480987 -0.22079025 -0.31917262
0001e0 54 c9 74 be 8b ed 47 be 32 a6 82 be b0 51 b3 be
       -0.23904926 -0.19524209 -0.25517422 -0.3502326
0001f0 66 f4 18 bd 3e 98 bf bd 5f 25 de be bc 9e 4e bf
       -0.03734245 -0.0935521 -0.43387887 -0.8071096

Encoder.encoder_lstm.bias_hh_l0 f4 [128]
000000 85 cb 6f 3d 80 cc d8 bd 08 70 19 bf fe e4 bd be
       0.0585437 -0.1058588 -0.5993657 -0.3708877
000010 cc b6 7c 3d f5 9d c4 be ce bd 27 bf 70 52 fa be
       0.061697766 -0.38401762 -0.65523994 -0.4889102
000020 5c 6c 30 3d 32 c3 9c be c9 4c 95 bc aa 59 76 be
       0.04307209 -0.30617672 -0.01822509 -0.24057642
000030 00 8d 17 3d 49 3d ad be 58 94 4c be e2 99 d4 be
       0.036999702 -0.3383582 -0.19978464 -0.41523653
000040 32 bb 2c bf 7b 79 1c bf f0 3b 18 be 05 92 df bd
       -0.6747314 -0.61122864 -0.14866614 -0.10916523
000050 77 88 58 be f4 b2 44 3d fb a4 f1 be 82 a2 89 be
       -0.21145807 0.048022225 -0.47196183 -0.26881796
000060 43 f8 1a be c8 ce 94 be ca 01 01 bf b1 ec 5a be
       -0.15133767 -0.29064012 -0.50393355 -0.21379353
000070 1e c6 a8 be 66 ea 1c 3d c4 a0 de 3c 69 d6 c7 be
       -0.3296365 0.038309477 0.027176268 -0.3903077
000080 89 c0 b5 be 22 9a f2 bd 43 74 48 bf 11 48 bc be
       -0.35498455 -0.11845805 -0.783024 -0.36773732
000090 93 7a e9 3e cd e1 1e 3c 40 ce 10 bf 78 4c 00 bf
       0.4560133 0.00969739 -0.5656471 -0.5011668
0000a0 5a 7e 4a be c0 2a ea be e2 9d d1 bd 6c 09 f2 bc
       -0.19774762 -0.4573574 -0.10235192 -0.029545508
0000b0 41 24 34 be cf 9a 2a bf 2f 5c aa be 78 f9 58 bd
       -0.17591955 -0.6664247 -0.33273456 -0.052972287
0000c0 22 8d f9 be 94 93 96 be 3c 5d 0c be 55 aa 13 bf
       -0.48740488 -0.29409468 -0.13707441 -0.5768178
0000d0 f0 5a 73 be 94 77 bc 3d 1d 91 19 bf c1 6a 85 bb
       -0.23765159 0.09202495 -0.5998705 -0.004071564
0000e0 1e a6 69 3e 1c d6 b4 be 88 0d 53 bf c2 38 a8 be
       0.22817275 -0.35319602 -0.8244252 -0.32855803
0000f0 70 b2 f9 be 12 75 85 be b1 2e 33 be 0c fe f0 be
       -0.4876895 -0.2606588 -0.1749828 -0.47068822
000100 b3 0c 12 be cc c2 ab bd c5 4e 51 3e ae e0 a5 3d
       -0.14262657 -0.08386764 0.20440204 0.08099495
000110 a9 77 93 3c cd f7 e7 3d 93 2b ae 3a 3d 1f f4 3d
       0.018001394 0.11326561 0.0013288133 0.11920021
000120 68 30 05 3d ca 5b cd 3d ab 1e a7 3c 09 4e d8 bb
       0.032516867 0.10027273 0.020400366 -0.0066010994
000130 6d 2f fc 3d 16 02 c7 bd ce 24 5e be c8 e2 b4 bd
       0.12313733 -0.09717195 -0.21693727 -0.088323176
000140 0d af 16 3d 03 e0 5c bc 3c d6 db bc ec 56 ea bd
       0.036788035 -0.013481143 -0.026835553 -0.1144236
000150 13 b6 79 bd 4b c1 d5 bd 00 b3 8c 3c 77 e8 c5 3d
       -0.060964655 -0.10437258 0.017175198 0.0966348
000160 ec 6b 63 bc 41 f8 9a bd 59 b2 62 bd 4b 1a db bb
       -0.013880711 -0.07566882 -0.055345867 -0.006686484
000170 fb 5c e6 bd 86 eb 30 3e 0e 6a 52 3c f5 ad 0f bb
       -0.11248203 0.17277345 0.012842668 -0.0021923755
000180 0a e3 2b be 2f 97 2b bf 26 8e 0f bf 84 28 fd be
       -0.16785827 -0.6702756 -0.56076276 -0.49444973
000190 8f 7f 0c bd 17 be 0f bf 06 14 17 bf 37 0e e4 be
       -0.034301337 -0.5614943 -0.5901493 -0.44542095
0001a0 c5 a3 15 bf f6 67 d8 be d4 0f 14 be 4d 69 f3 be
       -0.5845302 -0.42266816 -0.14459163 -0.47541276
0001b0 52 ae 4b be 0e 4c d9 be 2c b3 7c bd 99 a2 e0 be
       -0.19890717 -0.42440838 -0.06169431 -0.43874052
0001c0 87 b3 8a bf 8c e2 21 bf 93 c7 10 be 84 a2 ba be
       -1.0836037 -0.6323631 -0.14138632 -0.36452115
0001d0 83 61 28 bf 83 5f 21 bd fb c9 ae be e8 af c7 be
       -0.6577379 -0.039397728 -0.34138474 -0.39001393
0001e0 98 f2 cb be 03 87 3a be 38 88 82 be 1e bf 13 bf
       -0.39833522 -0.18215565 -0.25494552 -0.57713497
0001f0 9f 3f a7 bd c6 b7 af be 5f 48 de be c0 08 74 bf
       -0.08166432 -0.34319896 -0.4341459 -0.9532585

Encoder.encoder_attn.0.weight f4 [20, 84]
000000 a9 b4 3e be c0 79 a1 be ee 35 3b 3e 4b 76 f8 bd
       -0.18623604 -0.315382 0.18282291 -0.121319376
000010 49 87 e1 bd cd ac 24 3f fc 91 dd 3d 36 e8 30 3f
       -0.11012132 0.64326173 0.1081886 0.69104326
000020 51 59 39 3e eb 04 ee bd 7d 75 90 be 01 4f 3a bf
       0.18100478 -0.11622032 -0.28214636 -0.727768
000030 eb 7e 6e bc 5c 8e fb 3e 3c c3 1d 3e 55 8e d0 be
       -0.014556627 0.4913205 0.15406507 -0.4073359
000040 57 18 f0 be b1 f7 ec 3e 94 6a 35 be 63 35 c5 3d
       -0.4689357 0.46282724 -0.17716438 0.09629323
000050 d2 e9 01 bf 7d d2 bd 3d 9d b3 b5 3e eb 04 0f 3f
       -0.50747406 0.09268663 0.35488597 0.5586688
000060 11 73 d9 bc ad aa 4f 3e 91 c9 b7 bd 38 50 9c be
       -0.026544126 0.20279951 -0.089739926 -0.30529952
000070 f3 0c 83 3e d0 ee c2 be 17 85 15 bf cd 8e 19 bf
       0.25595817 -0.38072824 -0.58406204 -0.5998352
000080 d2 75 91 be e5 20 05 bf 5a ad 3f 3e d8 6e a0 be
       -0.28410202 -0.5200332 0.18718472 -0.31334567
000090 a9 35 04 3e a1 bc 38 3f 95 f8 c7 3d b9 a0 14 3f
       0.12911095 0.72162825 0.0976421 0.58057743
0000a0 93 e2 e8 3e a2 eb d4 be 72 8a 85 bd a2 c4 44 bf
       0.45485362 -0.41586024 -0.06520547 -0.7686254
0000b0 ad 5f d7 be f8 48 b2 3e 70 e8 5e 3e 0b fe 10 bf
       -0.42065182 0.34821296 0.21768355 -0.5663764
0000c0 57 79 dd be dd e4 09 3f f5 0a 3f bd cc c5 10 3e
       -0.43256637 0.5386484 -0.04664131 0.14137954
0000d0 47 ff 5b bf 67 b6 c5 3d 25 90 04 3f 69 e6 07 3f
       -0.859364 0.09653931 0.5178245 0.53085953
0000e0 0d 1d df 3d 8f a7 31 3e 9b 67 20 be 32 d1 21 3d
       0.10894213 0.17349075 -0.15664522 0.039506145
0000f0 d3 0c 84 3e 54 e3 c1 be fa a4 14 bf f0 3b 9b be
       0.25791034 -0.3786875 -0.58064234 -0.30319166
000100 37 31 e3 3d a9 77 56 be b2 02 20 be 5f 75 46 3e
       0.11093371 -0.20944084 -0.15626028 0.19380711
000110 31 53 2c 3e 43 c0 8e be 57 88 dc bd c5 d9 47 bf
       0.1682861 -0.2788106 -0.10768192 -0.78066665
000120 1c 02 15 be d2 89 20 bf d1 1d 0e bc dd b0 7f be
       -0.14551586 -0.627103 -0.008674101 -0.24969812
000130 fc a7 1d 3d dd 26 b5 3d fa 84 ff 3e 2f 11 58 3c
       0.03849028 0.08845303 0.4990614 0.013187691
000140 56 cd 61 be 65 ab 1f 3f 10 49 4d 3f 25 e2 b1 3e
       -0.22050986 0.623709 0.8018961 0.34742847
000150 b5 83 5a be 58 8e 33 3f 45 a9 1f be c1 6f 0d 3f
       -0.21339305 0.70139074 -0.15591915 0.5524865
000160 91 da 2a 3e d8 1d 52 bf 83 8c 6c be c8 b5 cf 3e
       0.16684939 -0.8207679 -0.23100476 0.40568376
000170 6b 90 19 be 76 14 31 3f 81 05 92 3e c2 4c e8 be
       -0.14996497 0.69171846 0.28519824 -0.45371062
000180 e4 ba c5 3e 15 bb 15 be d9 64 0e bf 7a be 98 3d
       0.3861915 -0.14622147 -0.5562263 0.074582055
000190 b6 e7 a0 3d 9f 21 18 3f 4d b1 f5 3d bb 01 1a bd
       0.07856695 0.594263 0.11996708 -0.037599307
0001a0 35 96 f2 be e4 df 13 3d df ee 50 3e af 8f d6 3d
       -0.47380224 0.03610219 0.20403622 0.10476624
0001b0 a8 aa 51 bb 68 7a 41 be a6 58 b3 be cc 27 86 3e
       -0.0031992588 -0.1889435 -0.3502857 0.26202238
0001c0 15 17 19 3d 39 b8 ea be ac 95 9b be 18 f2 af be
       0.03737553 -0.45843676 -0.30387628 -0.3436439
0001d0 c4 15 0b be 59 03 0f 3f 0e a2 d9 bd ab e3 ca 3e
       -0.13582522 0.55864483 -0.106266126 0.39626822
0001e0 b6 93 b9 3e 95 25 5b bf ab 91 4b be 45 54 5d 3e
       0.36245507 -0.8560422 -0.19879787 0.21614178
0001f0 57 e4 c5 bd 5e 00 36 3f 02 16 92 3e 54 a9 c4 be
       -0.09662693 0.7109431 0.28532416 -0.38410437
000200 35 86 b8 3e 56 06 3c be c7 73 f2 be d1 53 c8 3d
       0.36039892 -0.18361792 -0.47353956 0.09781612
000210 22 11 b2 3e 5f 77 f7 3e 1b 28 15 3e 88 22 f6 3d
       0.34778696 0.4833326 0.1456608 0.12018305
000220 ea 6a 9e be b5 1c 5e 3d 55 a8 91 3e 91 63 d1 3d
       -0.30940944 0.054226596 0.2844874 0.10224069
000230 a5 44 b4 3e 75 98 21 be dc d4 06 bf 9a ee 80 3e
       0.35208622 -0.15780814 -0.5266855 0.2518204
000240 55 8e ce bd 91 5c 92 be 1b f9 b8 be 3f b3 a7 bc
       -0.100857414 -0.28586248 -0.36127552 -0.020471213
000250 b8 b7 f1 3e c7 65 75 3e f3 5a 5c be 32 8c 9b be
       0.4721048 0.23964606 -0.2151907 -0.30380398
000260 68 f2 73 be 73 90 8b 3e b1 38 db 3d b4 8a 59 bd
       -0.2382294 0.27258644 0.107041724 -0.053110793
000270 d6 fb 37 3d 56 fe 4a 3f 6d 79 35 bf 86 9f fc 3d
       0.044917904 0.79294336 -0.70888406 0.12335114
000280 87 02 c2 3d af 6d c5 3e 37 13 b8 3d 96 2f d6 3e
       0.09473138 0.38560244 0.0898804 0.4183318
000290 7b 16 89 3e d4 09 2e be bd 1a 0b be 70 64 c6 be
       0.26774964 -0.16995937 -0.13584419 -0.38748503
0002a0 48 37 01 bf 60 d9 cd 3e 91 b7 a0 3e e6 09 48 be
       -0.5047498 0.40204906 0.3139005 -0.19535026
0002b0 89 17 30 be 4e 4d 2f bd a8 e1 34 3d 0c bc dd 3e
       -0.17196478 -0.042798333 0.044160515 0.4330753
0002c0 e2 28 37 bf 86 ae fb 3e 51 de 80 bc 2f 96 54 3e
       -0.7154676 0.49156588 -0.015731009 0.20760415
0002d0 fc 51 22 bf 3b e3 df be 98 54 04 3f 32 8b 04 bf
       -0.6340635 -0.4372805 0.5169158 -0.51774895
0002e0 a5 f1 c2 be 8e a6 a2 be d1 95 ec 3d 32 99 55 3d
       -0.38074985 -0.31767696 0.11552013 0.05214805
0002f0 c4 95 8b 3e 18 68 64 3e 38 f9 04 be 42 2b 2a 3f
       0.272627 0.22305334 -0.12985694 0.66472256
000300 ed 3d 87 3e 91 31 13 3f cf 20 25 3f 67 a4 99 be
       0.26414433 0.5749751 0.64503187 -0.30008242
000310 1d 96 68 3e a9 3e 67 3e 1e db 33 bd 02 0b bd 3c
       0.22713514 0.22582497 -0.04391014 0.023076538
000320 e9 98 b9 be f4 a3 bd 3e 86 cc a8 3e fe 18 99 bd
       -0.36249474 0.3703915 0.3296854 -0.0747547
000330 c4 c2 32 3e 29 d1 87 be 0c 75 2a be ea 80 f5 3e
       0.1745711 -0.26526764 -0.16646212 0.47949916
000340 c1 dd ef be a1 ac 92 3e ed 6c e3 3d 5c 46 2d be
       -0.46848872 0.2864733 0.1110476 -0.16921371
000350 a1 6f 21 bf 3f 55 a1 be 92 c8 c0 3e 1d 3c e2 be
       -0.6306096 -0.3151035 0.37653023 -0.44186488
000360 36 48 28 3d 7c 07 5d bd cd f3 dc bc 40 52 7c be
       0.04108449 -0.053962216 -0.026971722 -0.24640751
000370 b8 13 1c 3f d2 41 a2 3e 3c 1b 46 3d fe 9e 16 3f
       0.6096759 0.31690842 0.048365816 0.5883635
000380 ac d8 2a 3f a0 a5 b3 3e 54 cc 28 3f 8e 45 a1 be
       0.66736865 0.350873 0.6593678 -0.3149838
000390 6b e2 84 3d f7 a2 e1 3e 11 01 f4 be b1 fc 8c be
       0.06488498 0.44069645 -0.47657064 -0.27536538
0003a0 4e df b8 3d 02 81 21 be 6c b3 8f be 7f b5 19 be
       0.09026967 -0.15771869 -0.28066576 -0.15010642
0003b0 a6 72 28 3e 9f f3 6c 3e 63 af 37 3c 0b bc a8 bd
       0.16449985 0.23139809 0.011211249 -0.08238991
0003c0 97 aa b3 3d 7f 5a 7d be 0a db 81 bf ea c9 17 3f
       0.08772772 -0.24741553 -1.014497 0.5929247
0003d0 ff 87 b4 bd 3e e3 d8 3d 3d 32 1c 3d 29 9b d5 3e
       -0.08815002 0.10590218 0.03813385 0.4171994
0003e0 b3 b2 3b be b3 db 65 3e b2 5f 24 be d0 03 d3 3e
       -0.18329887 0.2244709 -0.1605213 0.41213846
0003f0 3e 9f 4f 3f bb 8b 4f 3f 8f 22 35 3f 7c a2 2b 3c
       0.8110236 0.81072587 0.7075586 0.010475751

Encoder.encoder_attn.0.bias f4 [20]
000000 33 20 28 be e7 41 e1 3e cc 7d 87 3f a6 8f 8e bf
       -0.16418533 0.43995592 1.0585265 -1.1137588
000010 80 7f f8 3e 83 ad 5b bf 62 5b 2f 3e aa 9d 2a be
       0.48534775 -0.8581163 0.17124704 -0.16661707
000020 8b e9 34 be a6 a0 07 bf 66 c6 98 3f 5f e4 60 be
       -0.17667215 -0.52979505 1.1935546 -0.21962117
000030 7f 89 b7 be ae 33 a2 3d ab df 19 3f fe 81 a6 3c
       -0.3584709 0.07920013 0.60106915 0.020325657
000040 94 d5 5c 3f 98 c6 f7 3e df e7 a2 3f 0d 61 0d bf
       0.86263394 0.48393703 1.2727011 -0.5522621

Encoder.encoder_attn.2.weight f4 [1, 20]
000000 f0 38 6f be 8f 28 94 3e 50 dd 84 be 00 25 9c be
       -0.23361564 0.28937194 -0.25950098 -0.3049698
000010 91 ec 8a be 39 83 a1 3e 79 c6 89 3e 60 48 04 be
       -0.2713361 0.31545427 0.26909235 -0.12918234
000020 74 b9 ae be 6e 4c cf 3e 94 9f f4 be d0 9a 61 3e
       -0.34125865 0.40488 -0.47777998 0.22031713
000030 39 f5 70 3e f3 0a e4 3e 4e 90 84 be 13 03 70 3e
       0.23531045 0.44539604 -0.25891346 0.23438673
000040 96 7b e6 be be d6 9e be 10 52 88 be 98 43 91 be
       -0.45016164 -0.3102321 -0.2662511 -0.28371882

Encoder.SelfAttention.wq.weight f4 [20, 20]
000000 1a 45 b2 be d5 af 16 3e c1 00 c4 3e 56 e0 d1 be
       -0.34818345 0.14715512 0.38281825 -0.40991467
000010 5c aa 4d 3e 2e 74 00 be 3e b9 52 be 29 a9 7a 3e
       0.20084518 -0.12544319 -0.20578477 0.24478592
000020 bf 56 92 3e 63 d2 cb 3d 2d f2 7e be 62 b1 50 be
       0.28581807 0.099522375 -0.2489707 -0.20380166
000030 90 52 48 3d b9 d0 b7 be 18 6a 02 3d e0 b6 14 3e
       0.048906863 -0.3590143 0.03183946 0.14522886
000040 a3 bd 86 3e 85 48 23 3e 5c cf 86 3e 9f 49 eb bd
       0.26316556 0.15945633 0.26330078 -0.114886515
000050 84 73 8e be a2 3b dd 3e d1 f7 b2 be 22 4e 33 3e
       -0.27822506 0.4320956 -0.34954694 0.17510274
000060 2c 67 fb bd 02 78 f9 3d 77 33 c2 be ab 37 a6 3e
       -0.12275538 0.12181093 -0.3792989 0.32464346
000070 67 f2 13 be 6e 4c af be 92 ed b9 3e 70 16 b5 bc
       -0.14447938 -0.34238 0.36314064 -0.022105426
000080 1d ee 20 bd 62 13 95 3c 1b 6c a9 bd 10 a2 94 bd
       -0.039289583 0.018197719 -0.082725726 -0.072574735
000090 b2 47 55 bc 49 92 0c 3f 25 4d 15 bd bc fa ef be
       -0.013017582 0.54910713 -0.036450524 -0.46870983
0000a0 7b d9 26 be 75 4c 1e 3e d7 b2 74 3e 5c a2 9c be
       -0.162939 0.15458854 0.23896347 -0.3059262
0000b0 0e 90 1d bf 40 35 07 3f 6d 64 7c be 36 8c 5f 3e
       -0.61547935 0.5281563 -0.24647684 0.2183083
0000c0 c8 5b a5 3e f0 2f 02 bd fc 18 f7 be 3b b2 c5 3d
       0.32296586 -0.031783998 -0.4826125 0.096531354
0000d0 54 1b 31 3e 8f c2 12 bf f4 d4 08 3e f2 f7 5c 3d
       0.17295581 -0.5732812 0.13362485 0.053947397
0000e0 21 d6 31 3e 00 0d 48 be 1f d8 fa 3d 73 bb 01 be
       0.1736684 -0.19536209 0.12248253 -0.12669162
0000f0 f2 92 68 bd 68 9c 76 bc b3 cf d4 bd 8f 77 da be
       -0.056780763 -0.015051939 -0.10391178 -0.4266934
000100 92 c5 e1 3e 59 f5 c8 bd 21 63 de 3d 8e 69 40 be
       0.44096047 -0.09812421 0.10858751 -0.18790266
000110 45 a5 4c 3e b1 f6 db 3e 45 7e 2a be 30 26 02 be
       0.1998492 0.42961648 -0.1664973 -0.1270988
000120 f7 f2 05 3f 85 0c 93 3e e0 47 9e be d7 76 a8 3d
       0.5232386 0.2872049 -0.3091421 0.08225792
000130 6c f3 0f 3f 7e 07 9a 3e a8 c1 40 be 16 b1 a6 be
       0.5623081 0.3008384 -0.18823874 -0.3255698
000140 55 ce 80 3e 15 50 be 3d 2a 77 42 3e 6f 57 75 bc
       0.2515742 0.09292618 0.1899077 -0.014974459
000150 9d 3f 96 be 0a 9c c7 be 80 bf cb 3e 5f af 62 3e
       -0.29345408 -0.38986236 0.3979454 0.22137211
000160 28 95 c2 3d 3c 1e 56 3e 46 a0 49 3d 91 6e 11 3e
       0.095011055 0.20909971 0.049225114 0.14202334
000170 9e bf bf be c5 03 e1 3e 87 08 99 3d 3e b0 54 3e
       -0.3745088 0.43948188 0.074723296 0.20770356
000180 6c d4 b6 be e2 53 a9 3e cd ca 37 3e 56 32 12 bf
       -0.3570894 0.3307181 0.17948456 -0.57108057
000190 38 76 63 be 25 54 7f 3e f7 9a 78 3e 05 57 08 be
       -0.22213066 0.24934442 0.24277864 -0.13314445
0001a0 0e dd c9 bc 4e a2 be bd af 48 5c bc 6e 97 17 be
       -0.02464154 -0.09308301 -0.0134450635 -0.1480386
0001b0 3d 20 a7 3d 31 c9 ef 3d 53 2a 88 bd ab 50 e3 bd
       0.08160446 0.11708296 -0.06648698 -0.110993706
0001c0 26 49 32 bf df 2b 06 3f 69 c3 64 bc d0 b9 3f 3e
       -0.69642866 0.5241069 -0.013962605 0.18723226
0001d0 50 f4 98 be 10 88 c9 3d 0d 96 c3 3e 5b 94 0d bf
       -0.29873896 0.09840405 0.38200417 -0.553045
0001e0 7e 3e 51 be 99 ee ab bc 74 0a 94 bd 96 e9 a4 3d
       -0.20433995 -0.020987796 -0.07228556 0.080523655
0001f0 8b 2c 7f 3e e1 a1 c0 be 6b 57 13 3f 9e a4 b2 be
       0.24919336 -0.37623504 0.57555264 -0.34891218
000200 db ad 2f 3d f5 d7 a2 3e 10 58 cb bd 5a e5 13 be
       0.04289041 0.31805387 -0.09928906 -0.1444296
000210 72 6b d2 3d 1e e0 b5 3d 03 17 99 bd 5b 3b 8a be
       0.102744 0.088806376 -0.07475092 -0.2699841
000220 84 f6 e9 be 8f ee 8e 3e 16 9b ef bb fb 73 10 bd
       -0.4569589 0.2791638 -0.007312189 -0.035266858
000230 d9 fd 9f 3e 63 97 0c bf 48 d1 16 be 84 eb b1 3d
       0.31248358 -0.549185 -0.14728272 0.08687499
000240 00 eb 11 3f ab c0 55 bf ed 31 80 be 0c 34 e9 3d
       0.56999207 -0.83497113 -0.2503809 0.1138688
000250 00 c5 1b be da 9d fb 3c d6 10 fb 3d c8 ab 11 bf
       -0.15211868 0.030714918 0.122590706 -0.5690274
000260 63 82 f9 bd a2 c8 6a 3c 6a 11 fd bd 56 c5 da 3d
       -0.121830724 0.014330061 -0.12356837 0.1068217
000270 fe 4b d8 bd dc 37 80 be d3 1b 65 3d db 11 98 3d
       -0.10561369 -0.25042617 0.05593474 0.07425281
000280 9c 69 a3 3e f5 e1 82 be 6a 0c 0f 3e 6f f9 a4 3d
       0.3191651 -0.25563017 0.1396958 0.08055388
000290 5d 4d fd be 39 d3 b3 3e c2 20 d0 3e 35 61 99 be
       -0.49473086 0.35122088 0.40649992 -0.29956976
0002a0 33 34 aa bb 2e 11 26 3e 02 0f 14 3d f1 7d 9f be
       -0.005194211 0.16217491 0.036147125 -0.31150773
0002b0 9f 9a 00 be a5 41 bc 3e 7c 9a 69 3d 86 27 02 be
       -0.12558983 0.36768833 0.057032093 -0.1271039
0002c0 ad 90 94 3d e0 b4 5a 3c b4 e5 fd bc c9 8d 47 be
       0.07254157 0.013348788 -0.03099332 -0.1948768
0002d0 91 57 3e 3e 09 30 c6 bd 19 5e 1d be 2f b0 39 3e
       0.18588091 -0.09677131 -0.15367927 0.18133615
0002e0 37 6f 11 bf 7a 69 3b be eb 4f d5 3e 21 e2 3e 3f
       -0.56810325 -0.18301955 0.41662535 0.74563795
0002f0 6a 66 da be d1 c7 9e be b6 8e 3e 3f 96 ac 80 be
       -0.4265626 -0.31011823 0.7443651 -0.25131673
000300 33 80 04 be 6d 07 9d be ed 43 b1 bd 09 21 85 bd
       -0.12939529 -0.30669728 -0.08655534 -0.065004416
000310 85 bc 10 be dc d4 ca 3e 72 ba 88 3c 53 e2 29 be
       -0.14134414 0.39615524 0.016690467 -0.16590242
000320 74 5a c1 3e 8a 5f 1a 3f 7e 3f b0 bd 96 65 ab be
       0.37764323 0.6030203 -0.0860586 -0.3347594
000330 d7 c8 84 be 51 f5 d6 bb 4a 13 1d bd c1 d0 b7 3e
       -0.2593448 -0.0065600057 -0.038348474 0.35901454
000340 4d 19 e3 be 08 f9 10 be 51 66 a0 3d c9 fa 8e be
       -0.4435524 -0.14157498 0.07832015 -0.2792571
000350 f3 3b 80 bb d0 2d 58 3e cc bb e3 3d aa 24 5f bd
       -0.0039133965 0.21111226 0.11119804 -0.054478325
000360 3c 67 c6 3d db a8 82 be 23 51 b2 3d 8d 42 91 3e
       0.09687659 -0.25519451 0.08706882 0.28371087
000370 b1 77 42 3e 44 a4 84 be 12 98 ee bd af 60 da 3c
       0.18990971 -0.25906575 -0.11650099 0.02665743
000380 1d ee 05 bf ed 47 a2 bd 72 fb de bc 03 41 7e 3d
       -0.5231646 -0.07923875 -0.027219508 0.06207372
000390 a3 b8 18 be 9d 50 ee 3e 4a e4 1a be 40 82 10 bc
       -0.14914183 0.46545878 -0.15126148 -0.0088201165
0003a0 ea 90 c8 3c 1b bb 18 3f a6 08 49 3d f8 50 2b 3e
       0.024483163 0.596605 0.049080513 0.16730106
0003b0 f2 3d 8c bd 1d 4e 78 3e 94 61 4b bd 6d 0a ae be
       -0.06847753 0.24248548 -0.049653605 -0.3399233
0003c0 fe 0d 12 3d b8 59 d7 3d b2 12 2f be 83 22 ff bd
       0.035657875 0.10515159 -0.17096975 -0.124577545
0003d0 eb 41 85 bc dc ab 0b 3e 0d 71 0b be 65 89 0f bf
       -0.016266784 0.13639778 -0.13617344 -0.5606902
0003e0 f7 af bf 3e 40 b8 d8 3e 34 e0 93 bd 69 36 e5 bd
       0.37438938 0.42328072 -0.07220498 -0.111920185
0003f0 98 a6 9c be c4 3e 01 3f 75 df 66 be 01 76 cf 3c
       -0.3059585 0.504864 -0.2254618 0.025324823

Encoder.SelfAttention.wk.weight f4 [20, 20]
000000 8c 89 03 3e b8 9d 2f be 68 fe ab bd e7 26 2e be
       0.12845439 -0.17150009 -0.083981335 -0.17007028
000010 b2 12 17 3b e3 6f d1 3d 5a 1f 97 be 76 2a 04 3e
       0.0023051915 0.10226419 -0.29516107 0.12906823
000020 e6 a8 51 be 23 2a 82 bc 84 95 e6 3d 91 f4 ee 3e
       -0.20474586 -0.015889233 0.112589866 0.46670964
000030 bc 16 63 be 52 43 d1 3d 6f b0 56 3d 10 02 0d bf
       -0.22176641 0.102179185 0.052414354 -0.5508127
000040 f8 89 a6 be ed 18 d0 bc 5c a3 81 3e 93 00 95 3e
       -0.32527137 -0.02540251 0.25319946 0.29102
000050 6c e4 4d 3e 5b b7 66 3e 76 94 de 3d 20 f8 1c bd
       0.20106667 0.22530882 0.108681604 -0.038322568
000060 bd 74 ac bd fe 00 51 3e 0b 81 f5 be fd a6 9d 3d
       -0.084207036 0.20410535 -0.47950014 0.07697866
000070 f3 b7 71 3e 44 c6 3f be 8b 55 89 3e db 85 d8 be
       0.23605327 -0.18727976 0.26823077 -0.42289624
000080 ed 9a 25 3f 49 79 b4 3e 24 d0 09 3d 67 d4 3a be
       0.64689523 0.35248783 0.033645764 -0.18245088
000090 ee cd d3 3e 11 9c 17 be 6f 90 45 bd f0 6b 79 3e
       0.4136805 -0.14805628 -0.048233446 0.24357581
0000a0 63 23 da bd 29 6c b3 3b a2 7e d8 3c fd 86 d4 be
       -0.10651281 0.00547554 0.02642757 -0.41509238
0000b0 f8 37 f6 3e 98 b5 13 bf 65 e1 60 3e 6b 07 50 bb
       0.48089576 -0.57698965 0.21960981 -0.0031742703
0000c0 e4 5e 9d bd 84 ae ae 3d 38 ea 87 3d c9 4e 09 3e
       -0.076841146 0.0852938 0.066364706 0.1340896
0000d0 22 bc ac 3c b5 3d fa 3e f3 fb ca 3d a3 dc 1c bf
       0.021085802 0.48875204 0.09911337 -0.61274165
0000e0 ea 29 bf be 56 aa 3d 3e c1 b1 90 3e ae a2 de bc
       -0.37336665 0.18522009 0.28260615 -0.027177181
0000f0 3a cf 5f be 80 e5 35 bd f2 8f 08 3d 6c 79 43 3d
       -0.21856394 -0.04440832 0.033340402 0.04772322
000100 1b 58 8d 3e 87 08 10 3e 4e 7c b8 bd f3 76 ee bd
       0.27606282 0.14065753 -0.09008084 -0.116437815
000110 be 03 91 bd f6 73 15 3e b1 c5 f1 bd 20 1b c0 bd
       -0.07080792 0.14595017 -0.11805285 -0.09380174
000120 71 ef 56 bc f3 4a d7 be a4 11 57 be a8 ce d0 3e
       -0.013118611 -0.4204937 -0.21002823 0.40782666
000130 ee 1d d2 3d fa 2a 84 be 07 df c6 3d 05 1a 3f 3f
       0.10259615 -0.2581404 0.09710508 0.7464908
000140 03 84 54 bd 06 9e 87 be 53 f7 60 3e 5b 36 dc be
       -0.05188371 -0.2648775 0.21969347 -0.4301022
000150 d3 64 19 3c d0 53 77 3e 6e c5 25 3e 35 a3 34 be
       0.009362417 0.24153066 0.16188595 -0.17640384
000160 46 1f a5 bc 05 30 ee 3d 2f 37 37 3f d6 f2 07 3d
       -0.020156514 0.11630253 0.7156858 0.03319057
000170 18 fd 6b 3e 7d d6 2d 3d de 9a 56 be 6b c9 41 be
       0.23045766 0.04244088 -0.20957515 -0.18924491
000180 0d 1b 05 3f 89 55 6d 3b 5b e6 a9 be 35 01 3d 3e
       0.519944 0.0036214313 -0.3318356 0.18457492
000190 c0 7e 4c be 73 bc 58 be 18 c2 b8 3e e4 27 95 3d
       -0.19970226 -0.21165638 0.36085582 0.07282999
0001a0 31 95 12 bf 07 37 85 3e 91 53 9b 3d b8 4e fd 3d
       -0.572589 0.26018545 0.075842984 0.1236853
0001b0 7c a5 ac 3c 7d 75 af 3d b8 9b 45 3f 63 66 c4 bb
       0.021075003 0.08567331 0.7719073 -0.0059936508
0001c0 35 47 49 3d c4 e4 cf 3d 27 c1 a8 be bb c8 d4 be
       0.049140174 0.101510555 -0.32959864 -0.41559395
0001d0 4e f0 6a 3e 02 c5 93 bd fb 97 f8 bb 5c b0 39 3d
       0.22943231 -0.07215311 -0.007586477 0.045334205
0001e0 24 3d 95 be c4 1e 87 3e 8d 2f 2e be d2 05 e2 bc
       -0.2914821 0.2639066 -0.17010327 -0.027590666
0001f0 f7 ec ca 3b bd e0 a4 3e da 5b c2 bd 13 98 23 3e
       0.006192799 0.32202712 -0.094901755 0.1597598
000200 24 80 47 3e d5 c3 47 3e fd 63 78 3e 80 a8 42 3e
       0.19482476 0.19508298 0.24256893 0.1900959
000210 c6 30 56 3c 2e cc 02 bf dd 01 01 3d 4c fe cf 3e
       0.013073152 -0.51092803 0.031495918 0.406237
000220 f0 da eb 3c bc b9 83 be 17 08 bc bd f2 9a 54 3e
       0.028790921 -0.25727642 -0.091812305 0.20762232
000230 fe f7 9c 3e 0e 03 f2 be c9 ab 68 3a 8c fb 8d 3e
       0.30657953 -0.47267956 0.00088756956 0.27730978
000240 86 dc ba be ba 71 b2 3e 8f bf ad bd 5f 0d 37 3e
       -0.3649637 0.3485239 -0.084838025 0.17876194
000250 17 9a 6d be aa d8 c3 be 23 ee 08 bf 1d 01 1c 3f
       -0.23203312 -0.3825124 -0.5348837 0.609392
000260 c8 a9 76 be 06 d3 c0 be 0b b6 20 be b2 a0 76 bd
       -0.24088204 -0.37660998 -0.15694444 -0.060211845
000270 12 d4 0e 3e d1 97 67 3e 09 c3 c2 be 9c 30 26 3e
       0.13948086 0.22616507 -0.38039425 0.1622948
000280 66 25 63 be e4 69 89 3e 0e a2 9b 3e b9 b8 13 be
       -0.22182235 0.268386 0.30397075 -0.14425935
000290 e7 83 01 3e cc 34 30 be 94 5b d7 3e 83 23 38 be
       0.12647973 -0.1720764 0.42062056 -0.17982297
0002a0 88 ab 2a bd 37 f8 6f 3e 37 24 03 3e 95 98 a7 bb
       -0.04166749 0.2343453 0.12806784 -0.0051146247
0002b0 44 fc 0b 3e 39 94 f7 3d ce 46 12 bf 58 c3 9c 3d
       0.1367045 0.12088818 -0.5713929 0.07654446
0002c0 ea b4 80 3e a4 d1 49 be 87 fe 34 bd 9e 7a 95 3e
       0.25138026 -0.19708878 -0.04418805 0.29195112
0002d0 8d e5 bc 3e 6f 0c ee 3e 94 81 8f 3e ca e9 48 bf
       0.36893883 0.4649386 0.28028548 -0.78481734
0002e0 0f f9 a9 3e 5d 00 d7 3e d4 82 62 be c5 cc 72 be
       0.3319783 0.41992465 -0.2212022 -0.23710926
0002f0 ff cc 22 be 29 79 6e bd db cf 3d be 71 c7 8d 3e
       -0.15898512 -0.058221016 -0.18536322 0.27691224
000300 8a 4a c6 3e 02 46 59 3e 74 78 24 3e ec b0 82 be
       0.38728744 0.21218112 0.16061574 -0.25525606
000310 95 d7 2c 3f cf e3 07 be 93 df 14 be 97 43 14 be
       0.6751645 -0.13270496 -0.14538412 -0.14478908
000320 38 b6 21 3e 1a 55 02 3e 92 0a 2e 3e a1 e9 ce 3c
       0.15792167 0.12727776 0.1699622 0.025257887
000330 86 98 c4 be 28 a0 80 3e d4 3b 18 3e cb 7c c9 be
       -0.38397616 0.2512219 0.14866573 -0.39353022
000340 5b f1 5b be ae 32 25 3e 5e e4 8d be 65 66 b5 3e
       -0.21478789 0.16132614 -0.27713293 0.35429683
000350 34 76 e9 3d c8 80 fc 3e 7a 34 f5 bd 1e 85 94 bb
       0.113994986 0.49317002 -0.119729 -0.0045324704
000360 dd f2 04 be 65 b2 0e 3f de 44 a0 bd e7 0e 14 bd
       -0.1298327 0.5574096 -0.078256354 -0.036147024
000370 ac 40 8d be 08 7f 4b be 01 97 01 3e 16 4a ba 3d
       -0.27588403 -0.19872677 0.1265526 0.09096162
000380 a6 6e 9b 3e 78 bc c5 3e 6a 7e 2d 3e 30 6f 03 bf
       0.30357856 0.38620353 0.16942754 -0.51341534
000390 1e 60 2f be 2f b0 f4 3d 54 d6 d5 3d b4 71 bc be
       -0.1712651 0.11947667 0.104412705 -0.368055
0003a0 f5 b4 af bd ec e8 33 3e 61 6b 09 be 15 e1 5d be
       -0.08579437 0.17569321 -0.13419868 -0.21667893
0003b0 02 b0 d2 3e 48 3d 45 3d 54 82 a2 be 7f c3 da 3e
       0.41149908 0.048154145 -0.31740057 0.42727277
0003c0 87 ba 1d be 79 c6 cb bd 79 08 09 3f a0 ea 03 3f
       -0.15403186 -0.09949965 0.53528553 0.51529884
0003d0 39 31 ef bd 29 1b 02 bd 60 b1 85 3d 61 b9 3d 3e
       -0.1167931 -0.031764183 0.06527972 0.18527748
0003e0 e3 ae 10 bf b6 a5 0b 3f 6e 46 f4 3c 82 01 68 be
       -0.56516856 0.5454973 0.02981874 -0.22656825
0003f0 06 f5 cf 3c 2c 7d e0 bd c9 e1 5e bd 1b db b0 3d
       0.025385391 -0.10961375 -0.054414544 0.08635541

Encoder.SelfAttention.wv.weight f4 [20, 20]
000000 1b cf 8f 3d 75 ab f8 3d a1 c0 33 bd e7 f1 3a bf
       0.07021924 0.12142078 -0.043884877 -0.73025364
000010 16 9b 6c 3e 02 bd 1d be 64 fe 15 3f 0f 06 5f 3d
       0.23106036 -0.15404132 0.58591294 0.054449137
000020 48 9e 81 3e c8 a0 8c 3e c6 6a 2c 3e 52 d1 bb 3e
       0.25316072 0.27466416 0.16837606 0.36683136
000030 22 42 0e bd 6c 99 c4 3e ec 5f 09 3e 93 6e a0 bc
       -0.034731038 0.38398302 0.13415498 -0.019583976
000040 f8 fc 0b 3f 3d 38 69 3d 9e 7e ef be a7 b1 19 bf
       0.54682875 0.0569384 -0.4677629 -0.600367
000050 0c 06 b5 3e 05 a0 37 3e ae 1f da 3e 33 58 2d 3e
       0.35356176 0.17932136 0.42602295 0.16928177
000060 ee f5 8f 3e 54 41 5c be 20 01 cf 3d 7f 66 6a be
       0.28117317 -0.21509296 0.101076365 -0.22890662
000070 a2 fa 41 3e b4 69 b4 be 57 0b 26 be fd 10 1e bd
       0.18943265 -0.35236895 -0.16215263 -0.03859042
000080 8d 7f f6 bd 71 ad 2a be f8 cd 3d be a9 01 9c be
       -0.12036047 -0.16667725 -0.18535602 -0.30470017
000090 e6 ad c7 3e cf 58 44 bc c4 76 d6 bd d4 f6 7d be
       0.3899986 -0.011984064 -0.104718715 -0.24801189
0000a0 1e 04 e3 3b 78 c3 13 3e f7 53 50 3f 33 c5 f4 bd
       0.006927981 0.14430034 0.8137812 -0.11951675
0000b0 c2 3b d9 bd 9a 2d 35 bc 24 d3 4c 3d e2 f5 0d be
       -0.10607101 -0.011058236 0.050006047 -0.13863328
0000c0 c2 37 40 3e b6 5a 58 3e fd e1 fd 3b 1b fc 49 3f
       0.1877127 0.21128353 0.007747887 0.7890031
0000d0 f5 84 53 3e 17 9b 8e 3e aa 90 d8 be bc 8b 25 3e
       0.20656188 0.278527 -0.4229787 0.16166586
0000e0 b8 de ff 3c b4 18 ba be d1 9b 28 bf 93 7c 31 bf
       0.03123413 -0.36346972 -0.65862757 -0.6933071
0000f0 c2 a3 a6 3d c3 4d 6e 3d 4d a2 23 3f 26 dd 2d 3d
       0.08136703 0.058179628 0.63919526 0.04244723
000100 c9 cb 57 3e 56 13 fc 3e ab ef de 3e dc ec 4b 3d
       0.21073832 0.49233502 0.43542227 0.049786434
000110 9f b2 4a 3e 10 e7 7b be 7a c0 d9 be 07 e7 9e bc
       0.19794701 -0.24599862 -0.4252966 -0.019397272
000120 71 0f 97 be b7 28 20 3e 0b 67 0f be 78 e3 4d be
       -0.29503968 0.15640531 -0.14004152 -0.20106304
000130 4a bc 85 3d cf b2 bd bd 48 26 b6 be e7 2e b1 be
       0.06530054 -0.09262621 -0.3557608 -0.34606096
000140 5c e5 36 be 3b 4b c7 3d fd 69 fd 3e 19 2d 08 bc
       -0.17860931 0.09731146 0.49494925 -0.008311533
000150 57 21 35 3e 30 a7 24 be 19 30 19 3f 6d 98 7f 3d
       0.176885 -0.16079402 0.59839016 0.062401224
000160 03 5e 2e 3a 04 b8 2d bd 80 7a 8a 3d 85 3d e1 3e
       0.0006651582 -0.04241182 0.06761646 0.43992248
000170 c2 30 be 3b bf 7c 9d 3e 11 0f 78 be 10 ed 87 3d
       0.005804152 0.30759236 -0.24224497 0.06637013
000180 0b 71 f0 3d 45 93 84 3e fe f6 5f bf 46 be fc be
       0.11740311 0.25893608 -0.87486255 -0.49363917
000190 02 b7 87 3d dc 65 24 bc 90 12 d0 3d 03 3d 80 3e
       0.06626703 -0.010034051 0.101597905 0.25046548
0001a0 7f a0 18 3f 30 7e 33 3e 29 85 05 be 1d 1d 65 be
       0.596199 0.17528605 -0.13039078 -0.22374387
0001b0 d0 e4 87 bd 12 40 e2 bc 09 ff c2 3e af f5 74 3e
       -0.066354394 -0.027618442 0.380852 0.23921846
0001c0 23 09 c8 bd 99 b3 89 3e 59 61 19 bf eb 86 a6 bd
       -0.09767368 0.26894835 -0.59914166 -0.08131202
0001d0 f5 49 c8 3e b5 02 65 3d ba 4f 35 bf 39 80 eb be
       0.39118925 0.055910785 -0.7082478 -0.45996264
0001e0 88 a5 d2 3c 5a 2a d1 bd 7f 3d 02 3c 3b 9b 76 3e
       0.025713697 -0.10213156 0.007949232 0.24082653
0001f0 8a 30 1f 3d 99 10 9c 3d 4a 23 bf be 80 7c 3f be
       0.03886465 0.07620353 -0.3733161 -0.18699837
000200 15 45 28 3f 28 77 a0 3e 67 2f 54 3e f7 d9 6d be
       0.6573041 0.3134091 0.20721208 -0.23227678
000210 78 9b 30 3a fd c2 dc 3e 8d 5d da be 6a 7e a8 3e
       0.0006737034 0.43117514 -0.426495 0.32908946
000220 6a 41 ab be f3 8a 90 bd 0f 99 10 be d2 59 df 3d
       -0.33448344 -0.070577525 -0.14120887 0.10905804
000230 f2 d4 1d 3f f6 b4 51 bd 91 29 d9 bd 3a 93 0b be
       0.61653054 -0.05119797 -0.10603631 -0.13630381
000240 bc 02 a4 3e 1f a0 84 be 0a a5 76 3e 82 be 08 3f
       0.32033336 -0.25903413 0.24086395 0.5341569
000250 87 31 c8 3e 1a d0 fe 39 c1 c6 00 3f af 21 fe be
       0.39100286 0.00048601703 0.50303274 -0.49635074
000260 8a a5 e5 3d 0b c9 a7 3e 4a 2a 66 be d5 31 5a 3e
       0.11213215 0.3277057 -0.2247707 0.21308072
000270 1f 9a 45 be 8c 35 74 be c0 a5 92 be 64 8f 68 3d
       -0.19297074 -0.23848552 -0.28642082 0.056777373
000280 4c 2b 03 3e ae 60 af 3b b7 6c 00 be e7 28 01 bf
       0.12809485 0.0053521013 -0.12541471 -0.5045304
000290 5e c9 37 3e f6 09 5a 3c 9c 26 21 3d fe e2 e1 3e
       0.17947909 0.013308039 0.03934346 0.44118494
0002a0 57 d5 0f 3e f5 4d a8 3d 19 85 1b 3f b4 b4 23 bf
       0.14046226 0.08217994 0.60749966 -0.63947606
0002b0 9a 38 ef bd d6 a0 1d 3e 79 36 13 bf 83 4a ba 3e
       -0.11680718 0.15393385 -0.57504994 0.36384973
0002c0 75 8d 48 3e a7 ca b0 be fa c9 45 be ea 78 a6 be
       0.19585212 -0.3452961 -0.19315329 -0.32514125
0002d0 99 47 c0 be 01 40 ac 3d 94 b3 c7 bc a9 dc c5 3c
       -0.37554625 0.08410645 -0.024377622 0.02415307
0002e0 f5 18 4d 3e bf 4f f8 bd 20 cc 94 bd 37 d4 7d 3e
       0.20029052 -0.12124585 -0.07265496 0.24787985
0002f0 e1 92 0a 3e 8f 93 6e 3e 9e d1 a4 3e 2c ee 00 3c
       0.13532592 0.23298477 0.32191175 0.007869285
000300 91 fc dd 3d f8 30 b0 3e 7f 24 d5 3d 51 d3 2d 3f
       0.10839189 0.3441236 0.10407352 0.6790057
000310 23 10 2f 3e ff b9 2a 3d f8 19 47 bf 75 27 2c bf
       0.17096 0.041681286 -0.77774 -0.67247707
000320 2a 3c 61 be 37 70 eb 3d 80 29 33 be 8e a2 f8 bd
       -0.21995607 0.11496013 -0.174963 -0.1214038
000330 77 42 82 bb fb 3d 9f 3d 17 8e ba 3d 88 5a 01 3e
       -0.0039752084 0.07775494 0.09109133 0.12632191
000340 23 21 69 3e 4f 38 78 3e cb 91 09 bd a3 20 92 3d
       0.22766547 0.2424023 -0.033586305 0.07135131
000350 99 90 39 3e c6 22 e4 bd 7d 7e 2e be 65 3e c4 3e
       0.18121566 -0.11139445 -0.17040439 0.38328853
000360 19 17 10 bd af 81 90 be 38 f9 ec bd f7 02 fb 3c
       -0.035178278 -0.2822394 -0.11570972 0.030641062
000370 44 36 50 3e 1b ea ad 3e 6f bc 54 3e fb d4 8d be
       0.203332 0.3396767 0.20775007 -0.27701554
000380 16 ae 84 3e f3 06 a9 bd fb d9 1c bf 82 9c e9 3e
       0.25914067 -0.082532786 -0.6127011 0.45627218
000390 bf a2 17 3b 21 97 20 3e 08 9b 23 3e fa 82 95 3e
       0.0023137776 0.15682651 0.15977108 0.2920149
0003a0 af 91 d9 bd 9b bb 11 3d 36 3f 38 be da 8a 18 3f
       -0.1062349 0.035579305 -0.17992863 0.5958687
0003b0 43 ed a3 3d 66 55 73 be 11 10 45 bf 21 ca 5c 3d
       0.080042385 -0.23763046 -0.7697764 0.053903703
0003c0 07 15 ee be 56 25 3f 3c 0f 0b 48 be 75 5a 27 3e
       -0.46500418 0.011666616 -0.19535469 0.163431
0003d0 9f 9c bb 3e 13 b0 92 3b c5 ea 9a bd bd c9 7d be
       0.3664293 0.004476556 -0.0756431 -0.24783988
0003e0 0e e9 34 be 10 ed 74 3e 61 f9 1c 3e 9c 34 c8 3e
       -0.17667028 0.23918557 0.15329506 0.39102638
0003f0 41 48 a3 3e 3e cc ff 3c 3f b5 bd be 89 45 1f 3f
       0.31891063 0.03122532 -0.37052342 0.6221548
