result/ver7_6/last.pt (torch, 308751 bytes, 81 tensors)

Encoder.encoder_lstm.weight_ih_l0 f4 [128, 6]
000000 78 22 c3 3e ee 38 c6 be 96 f9 d0 3e d3 cf 8f be
       0.38112235 -0.3871531 0.4081542 -0.28088245
000010 9d 23 19 bf 0f 35 a3 3f 9e f4 00 3e 0b e5 af bf
       -0.59819967 1.2750567 0.12593314 -1.3741773
000020 e2 9a 16 bf 61 82 12 c0 54 2f 24 c0 9c 66 1b bf
       -0.5883008 -2.2892077 -2.5653887 -0.60703444
000030 40 ea 0a be 7e 43 ac bf ef fe e7 bc 17 be 7a be
       -0.13565922 -1.3458097 -0.028319804 -0.24486576
000040 d9 4f 89 be 54 9e 32 3e d3 cc 9e bf af ec 0f 40
       -0.2681873 0.1744321 -1.2406257 2.248821
000050 7f bd 95 bf db be 22 3f 4b 64 41 3e 00 d8 a4 3e
       -1.1698455 0.6357247 0.18885915 0.32196045
000060 43 8c 68 bd 0d 1c 7c 3f ac 89 ec be 53 e5 6a 3f
       -0.05677439 0.984803 -0.46198785 0.9175617
000070 e8 42 f8 be 34 db d6 bd f8 18 d6 be 3e 31 ef 3e
       -0.48488545 -0.104910284 -0.41815925 0.46717256
000080 d5 be dc bf 34 19 ab be 95 1d 28 3f 05 d3 29 be
       -1.7245737 -0.33417666 0.6567014 -0.16584404
000090 58 6d 1a c0 49 a3 54 3c e1 52 b1 bf 26 04 2f 3f
       -2.4129238 0.012978383 -1.3853418 0.68365705
0000a0 03 85 ef 3b b5 03 3e 3f ce 07 29 bf 43 d7 0c 3f
       0.0073095574 0.74224406 -0.66027534 0.55015963
0000b0 33 90 2c 3f 9e d2 50 be df 40 f6 3e 1f 50 61 bf
       0.6740753 -0.20392844 0.48096368 -0.8801288
0000c0 26 34 1e 3f 80 a6 85 be dc d6 b0 3e 15 a5 8c 3f
       0.6179832 -0.26103592 0.34538925 1.0987879
0000d0 7f 68 92 3f 18 a5 fe 3c a6 0e 7d bf c4 ba 8d 3e
       1.143814 0.031084582 -0.98850477 0.27681553
0000e0 96 a9 06 bf de fe 40 bd 40 c3 da be 0a 96 24 3f
       -0.5260252 -0.04711806 -0.4272709 0.6429144
0000f0 43 6f 9e 3f ac 9b 88 bf c7 02 89 be cb 37 c8 3e
       1.2377704 -1.0672507 -0.2675993 0.39105067
000100 60 b1 d6 3e ef 8a 75 3e 14 32 81 bf 21 f6 3a 3f
       0.419322 0.2397878 -1.0093408 0.7303181
000110 1d 78 2a bf 7f e0 19 3f dd 30 d0 bd fa af 9e 3f
       -0.6658953 0.6010818 -0.1016557 1.2397454
000120 f9 51 d4 3f b7 49 9c bf c7 76 ed 3f bb 3a 77 3e
       1.6587516 -1.2209996 1.8551873 0.24143498
000130 65 46 a8 be b3 4d 3c be 29 9e 5f bf 2f 51 0e 3f
       -0.32866207 -0.18389015 -0.8735071 0.55592626
000140 ea 11 49 3c c7 2b 2b be 71 c8 d5 be c0 c1 3d 3f
       0.012272337 -0.16715918 -0.41754487 0.74123764
000150 0a 7f 04 3e 94 aa c1 bf cc 3b 9d 3f fc 08 83 bf
       0.12939087 -1.5130181 1.2283874 -1.0237117
000160 2c 96 8c be f2 da f9 3f f9 d3 d2 be ef 75 71 3f
       -0.27458322 1.9519942 -0.41177347 0.9432058
000170 79 e0 db be b3 43 2e bf 07 76 93 3e 10 54 62 bf
       -0.42944697 -0.6807205 0.28800985 -0.8840952
000180 c8 b5 d7 bf 2a d3 a6 bf c8 ed d7 be 27 48 e0 3f
       -1.685235 -1.3033192 -0.421736 1.7522019
000190 82 85 e5 3f 92 72 50 3f 4c a7 33 3f 52 27 00 3e
       1.7931368 0.8142482 0.7017715 0.12515
0001a0 ed ed 12 bf 6a ab af 3e 95 6c de be e3 5e 18 3f
       -0.57394296 0.34310466 -0.43442217 0.59519786
0001b0 ac ac 25 3f 40 80 ff 3e 0a 28 88 3e a8 e1 5c 3f
       0.647166 0.49902534 0.26593047 0.86281824
0001c0 e3 46 bc 3e f2 ad 03 bf 38 4c 0a 40 02 1b 08 3e
       0.36772832 -0.51437294 2.160902 0.13291553
0001d0 e5 ca 0a 3f b7 e9 2a bf 50 0b 22 3e ff cc 61 3e
       0.5421584 -0.6676287 0.15824628 0.22050856
0001e0 1b f3 eb 3e 55 a8 b7 3f a1 51 7f 40 be 51 df bd
       0.46083912 1.4348246 3.9893572 -0.10904263
0001f0 3b 1b 47 3e f5 3a 30 40 01 41 b9 3f 45 69 87 3e
       0.19443981 2.7535985 1.4472963 0.26447502
000200 32 cb 2f 3f 32 83 63 be 9e 07 42 bf b5 f8 bc 3d
       0.68669426 -0.22218016 -0.7579287 0.092271246
000210 89 1f 2d 3e c8 4b 86 bf d7 e0 31 bf 36 5a fe be
       0.16906561 -1.0491877 -0.69483703 -0.496782
000220 ef fd d0 3d a0 42 92 3f 42 8b 87 3d 1b f0 9a 3f
       0.10204684 1.1426582 0.06618358 1.2104524
000230 5c 92 14 3f 28 b2 a0 3f 55 ca f0 3f 50 27 aa be
       0.58035827 1.2554369 1.8811747 -0.33233118
000240 93 f3 de be e1 8d d8 3e 60 83 08 3f 25 7d 07 bc
       -0.43545207 0.42295745 0.5332546 -0.008269583
000250 5a 30 e8 bc da e2 1e bf e6 19 f6 3c 3e be 00 bf
       -0.028343368 -0.620649 0.030041646 -0.50290287
000260 02 12 dd bc 73 47 7f bd 7c 7e 3c 3c 5c d2 c7 bd
       -0.026986126 -0.062324 0.011504766 -0.0975692
000270 4e 48 5d be 7e a4 b1 be d9 65 30 3f c8 9a 7d bf
       -0.21609613 -0.3469581 0.6890541 -0.990643
000280 8f 1c 80 bf 78 53 c6 be c9 af 8c bf ae c1 82 bd
       -1.0008715 -0.38735557 -1.0991145 -0.06384598
000290 c3 37 bd bf ca 8d 5e 3e ba 51 47 bf 1b ff c5 bf
       -1.4782642 0.21733776 -0.7785908 -1.5468477
0002a0 9c c8 f5 bc f5 8a 7d bf a5 be 42 3b 80 0e 84 3d
       -0.030002885 -0.99040157 0.0029715684 0.06448078
0002b0 84 0d b0 be ff 3d ab be 19 64 31 40 11 bd e8 bd
       -0.34385312 -0.33445737 2.7717345 -0.113641866
0002c0 b7 3d 3c 3f 8b 26 75 3e 4e ed 79 3d 32 d6 9b 3e
       0.7353167 0.23940484 0.061017327 0.30436856
0002d0 7a a3 32 40 00 72 bd be a8 c0 de bc 96 4f d9 3d
       2.7912278 -0.37001038 -0.027191475 0.10610883
0002e0 10 fa ac 3e b8 a8 c0 be fd 8a 5d 3e 41 c3 5f bf
       0.33784533 -0.37628722 0.21635051 -0.8740731
0002f0 69 7d a9 bd 69 ba b0 3f 9a e9 4c 3f 8a ec d1 be
       -0.08275873 1.3806888 0.8004395 -0.41000777
000300 42 21 84 be fa 7c 26 bf 64 00 73 3e 57 cf 22 bf
       -0.25806624 -0.6503445 0.23730618 -0.63597625
000310 64 51 c6 3d 63 be 06 3f 61 b8 f9 3f 34 ac 9d 3e
       0.09683493 0.5263426 1.9509393 0.30795443
000320 d6 8e b5 3f 88 b7 84 3e 65 0f d0 be 22 09 5b bf
       1.4184215 0.25921273 -0.40636745 -0.8556081
000330 b1 9e bf bf 53 e7 2b 3e 35 c4 ee be 3b 89 38 3f
       -1.4970304 0.16787462 -0.4663407 0.720844
000340 60 59 eb 3e 37 18 82 3f 96 87 f2 3e e0 db c3 3f
       0.45966625 1.016364 0.4736907 1.5301476
000350 43 b5 6d bf 0b fe 20 3f 3e 51 c8 3f bf b4 96 3e
       -0.9285471 0.6288764 1.5649793 0.29434773
000360 f1 fd 62 3d c2 40 bc 3f b9 0e 85 3f fc ea 50 3f
       0.05541796 1.4707263 1.0395118 0.8160856
000370 6d e6 80 3f 47 11 f7 be 4f 1f 7c 3f 52 1f 43 bf
       1.007032 -0.4825537 0.98485273 -0.76219666
000380 87 51 17 3f d7 58 b6 bf 47 71 67 bf cd db 59 3f
       0.59108776 -1.4245862 -0.9040722 0.85101014
000390 22 a3 73 3f 3a 01 95 bf b5 a0 08 bf 09 66 f0 be
       0.95170796 -1.1640999 -0.5337022 -0.46952847
0003a0 92 b9 ec bd 17 96 d6 3e 73 c5 8f bf ae 47 e4 be
       -0.11558832 0.41911384 -1.1232132 -0.44585937
0003b0 ae ec 4a 3e e8 70 1e bf 09 b5 de bf 69 40 c6 3e
       0.19816849 -0.6189103 -1.7398998 0.38721016
0003c0 ec 16 b7 bf c7 1c 8b bf 43 56 83 bf 84 68 5c be
       -1.430387 -1.0868157 -1.02607 -0.21524245
0003d0 78 b6 1e bf a8 a9 25 c0 b8 de 07 c0 98 22 93 bf
       -0.61997175 -2.58848 -2.1229687 -1.1494932
0003e0 69 88 34 bf e1 fe 55 3e 7c 36 9d bf d8 a7 ab 3d
       -0.70520645 0.2089801 -1.2282252 0.08381623
0003f0 80 07 6c 3f 0b 7d 53 3e 84 51 f3 be 6f 16 53 3f
       0.92198944 0.20653169 -0.4752313 0.82456106

Encoder.encoder_lstm.weight_hh_l0 f4 [128, 32]
000000 ae 14 ac 3d 7f 33 30 40 88 77 5a 3f aa 3a 3a 3e
       0.08402382 2.753143 0.8533864 0.18186441
000010 28 f8 81 3f 39 41 44 bf ae f4 73 be 27 a0 c9 bf
       1.0153856 -0.7666202 -0.23823807 -1.5752
000020 c9 b1 83 bf 0a 5d 86 3f 06 06 a9 be d2 1f be bd
       -1.0288631 1.0497143 -0.33012408 -0.09283413
000030 9b bb e5 bf 71 29 f0 3c 68 da a4 be df c8 e5 bf
       -1.7947878 0.029316636 -0.3219788 -1.7951926
000040 f2 eb 10 c0 c0 53 b2 bf a8 f5 3b 3d 70 65 b3 3d
       -2.264401 -1.3931808 0.045888573 0.08759582
000050 48 7c 86 be 96 d9 cb 3e e7 ac 21 c0 6c 6b a8 bf
       -0.26266694 0.39814442 -2.5261781 -1.3157783
000060 ea e6 15 bf fb b2 dd 3f c7 57 97 3f 6a 7e ae 3f
       -0.5855547 1.7320246 1.1823663 1.3632329
000070 c3 fc 05 c0 e5 61 07 3f e4 de 0e 40 94 05 18 bf
       -2.0935524 0.5288375 2.2323542 -0.5938351
000080 7c ce 2c be 60 0f a2 be 27 c6 19 bf b1 30 0b 3e
       -0.16875643 -0.31652355 -0.6006798 0.13592793
000090 d9 64 8c bf d1 6d 3b 3f 5a 1b 20 3f 0d 9b 15 c0
       -1.0968276 0.7321444 0.62541735 -2.3375885
0000a0 a4 c4 cf 3f 95 fc 02 bf 22 93 72 3f e9 05 0c bf
       1.6231885 -0.5116666 0.94755757 -0.5469652
0000b0 7f 46 2b c0 53 1f c9 bf 1f 76 11 3f 61 d0 bb 3f
       -2.6761777 -1.5712684 0.56820863 1.4672967
0000c0 c0 4b d7 be 14 a0 92 3f 33 ef a2 c0 9c 7f 73 3f
       -0.4204998 1.1455102 -5.091699 0.9511659
0000d0 6e 4e 0b 3f 43 89 39 40 af 5b 29 bf 92 a8 d5 bf
       0.5441655 2.8990028 -0.66155523 -1.6692069
0000e0 e2 59 05 bf c7 33 22 c0 f9 e8 bf bf b5 d5 c9 3e
       -0.52090275 -2.5344102 -1.4992973 0.39420858
0000f0 b7 8c 33 c0 d9 c7 20 3f 75 b2 7a 3f 79 d9 33 bd
       -2.8054636 0.62804943 0.97928554 -0.04390857
000100 ae fe fd 3f 06 da 03 c0 7a e9 79 3f 68 f2 8f bd
       1.9843347 -2.060182 0.9762188 -0.07028657
000110 47 eb ad be 75 ee 01 bf 41 bf c9 3f 77 ee f6 be
       -0.33968565 -0.5075448 1.5761491 -0.4822881
000120 33 28 a2 bd 69 90 91 3f b6 1f b4 3f ab 3b 82 be
       -0.07917824 1.1372195 1.4072177 -0.25436148
000130 c7 01 76 3f a1 ea e3 3f 0e 3b af bc a0 ed 0f c0
       0.9609646 1.7805978 -0.021390464 -2.2488785
000140 e3 2e 57 bf 0e e8 99 bf 5a bd 07 40 8c 01 b4 bf
       -0.8405592 -1.2023942 2.120932 -1.4062972
000150 a6 bd 02 40 d9 74 fb bf fc cc 02 3f 78 72 08 bf
       2.0428252 -1.9645034 0.5109403 -0.53299665
000160 16 8b 14 3c 11 5a 85 bf ec a1 1e be ab bc db bf
       0.009066364 -1.0418111 -0.15491456 -1.7166952
000170 94 9c 1e c0 19 c4 39 3f 12 1f 2b 3e f9 a3 04 c0
       -2.4783068 0.72564846 0.16711071 -2.072508
000180 03 6e 11 3f 3a 22 18 3f e2 2e 20 3f c8 f6 26 bf
       0.5680849 0.59427226 0.6257154 -0.6522031
000190 0a e0 90 be 01 d9 9c 3f ac f9 c2 3e 69 6d 0e bf
       -0.28295928 1.2253724 0.3808111 -0.55635697
0001a0 c9 83 25 40 99 10 cf be b6 ca 5b bf de d2 7c be
       2.5861685 -0.4044235 -0.8585619 -0.24689814
0001b0 c4 d6 f8 3c 62 9c b6 bf f0 3e e8 be 2a 62 ed 3e
       0.030375846 -1.4266474 -0.45360518 0.46363956
0001c0 b1 d6 d7 3e 07 b1 a4 3f 2b c3 89 3e bc 66 3d 3f
       0.42155984 1.2866524 0.26906714 0.73984885
0001d0 3e 7a e1 3e bd fb f8 3f 5c 11 16 bf 16 68 78 3f
       0.44038576 1.9451824 -0.5862024 0.9703382
0001e0 55 1a c8 be 79 ce 9d 3f 92 6a 5f bf 3e da 19 c0
       -0.3908259 1.2328635 -0.8727199 -2.4039454
0001f0 03 0d b0 be 5a f1 bb 3c 76 d0 55 3e ec 78 99 be
       -0.34384927 0.022942234 0.20880303 -0.2997507
000200 da 73 f4 3e 73 1d 0b c0 99 ba 98 3f 18 4f c9 3d
       0.47744638 -2.1736724 1.1931945 0.09829539
000210 2f 84 80 bf ac a6 c3 3f dd cf c0 be a4 a3 8f 3f
       -1.0040339 1.5285239 -0.37658587 1.1221814
000220 fd b3 8e 3f 38 f6 9f 3f da cb 01 3d 34 5f cc 3f
       1.1148678 1.2497015 0.03168855 1.5966554
000230 d8 a4 25 3f e5 6c 03 3c d3 66 cf 3d be fd 06 40
       0.64704657 0.008021568 0.10127034 2.1092372
000240 91 5a cd 3f 93 81 ac bf a7 c0 e4 3e 2b 68 0e bf
       1.6043264 -1.3477043 0.44678232 -0.556277
000250 6c 2a ae be 05 f1 b9 3f 67 27 cc bf 37 bf 52 3f
       -0.3401674 1.4526678 -1.5949525 0.8232302
000260 b3 f8 0e 3f 51 46 b8 3f a9 df 1d 3f 44 fc ba 3f
       0.55848235 1.4396459 0.61669403 1.4608235
000270 b0 11 5e 3f 6f 1d d7 3f 75 6a 90 3e 86 cd 46 3e
       0.8674574 1.6805857 0.2820622 0.19414338
000280 a3 61 80 bf 81 78 52 c0 14 95 e7 be 99 dd f3 be
       -1.0029796 -3.288605 -0.45230925 -0.47630003
000290 7e 68 10 bd 7c 99 3b 3f 62 55 95 bf 18 b1 bf 3f
       -0.0352559 0.73281074 -1.1666682 1.497592
0002a0 e6 44 ea 3d e1 d8 df be 57 d5 19 bf 2b 2b c9 bf
       0.114389226 -0.43720153 -0.60091156 -1.5716299
0002b0 41 51 2a 3f bd fd 6c 3e 37 77 01 bf 44 57 a7 3f
       0.66530234 0.23143668 -0.5057253 1.3073506
0002c0 40 bc 21 3f bd fd 6b bd 60 ea 4c bf 63 b3 17 c0
       0.6317787 -0.05761503 -0.8004513 -2.370324
0002d0 7d d0 85 3f 79 68 c2 bf f5 55 26 be 5e 5c 8d 3f
       1.045425 -1.5188133 -0.16243728 1.1043813
0002e0 4e 2c d2 be d3 e4 3a 3f fc 92 34 c0 f4 fe 64 be
       -0.41049427 0.7300541 -2.8214712 -0.22362882
0002f0 75 16 d3 3e 2a bf 11 c0 51 31 2e 3e 8e e3 f2 3f
       0.4122807 -2.2772927 0.17011 1.8975694
000300 e2 58 5a 3f e4 1a 13 40 9b 30 82 be ef d4 58 3f
       0.85291874 2.2985163 -0.25427708 0.8469991
000310 c5 6a 18 bf a0 cb 13 c0 2f a0 07 bf c9 2f 8d 3e
       -0.5953792 -2.3093033 -0.52978796 0.2757552
000320 35 bf e6 3f 65 c8 09 bf 5f 9a ee bf 8c 6b 89 bf
       1.8027102 -0.538214 -1.864086 -1.0735946
000330 47 4e 03 40 70 46 57 bf 07 e0 7d be eb a5 9d be
       2.0516527 -0.84091854 -0.24792491 -0.30790648
000340 e6 b4 00 c0 75 b2 1a c0 97 2a 2e 40 a3 7f bb 3e
       -2.0110412 -2.4171422 2.7213495 0.36620817
000350 0a ae 88 bf 42 81 6e c0 55 d0 a2 be de 72 69 bf
       -1.0678113 -3.7266393 -0.3179957 -0.911909
000360 ea 1f d9 3e 17 3c 86 bd 56 c5 14 bf 85 11 f3 be
       0.4240716 -0.0655443 -0.5811361 -0.47474304
000370 9a 67 42 3f bf 5c aa bf 92 7e ad be 55 d9 2c 3f
       0.75939333 -1.3309554 -0.33885628 0.6751912
000380 b7 4f ba 3f 44 90 05 40 e3 a0 66 bf 72 e6 96 bf
       1.4555577 2.0869303 -0.90089244 -1.1789076
000390 29 57 66 3f 8e 74 2d bf 17 1f c8 3f 09 72 21 bd
       0.89976746 -0.67755973 1.5634488 -0.039415393
0003a0 c4 38 75 40 b9 e7 fc 3d bb c2 23 bf 1d 18 39 bd
       3.8315897 0.12348885 -0.6396901 -0.04518901
0003b0 98 c5 99 3f 77 11 0f c0 3b 76 99 3e 3a 66 c1 bf
       1.2013426 -2.235441 0.29973015 -1.5109322
0003c0 61 b8 c3 3e 84 51 00 40 bb 78 a9 3f 27 f9 ee 3f
       0.38226607 2.0049753 1.3239969 1.8669785
0003d0 80 c6 68 bf 00 5a 38 c0 a5 27 0a bf a1 76 34 bd
       -0.90927887 -2.8804932 -0.5396674 -0.044058446
0003e0 bc 09 20 3f 96 90 6d 3f dd 38 7a c0 8b 9b 33 40
       0.62514853 0.92798746 -3.9097207 2.8063686
0003f0 d6 75 42 bf 0f 61 67 3f 1f de ae 3e af f4 84 3e
       -0.75961053 0.90382475 0.3415384 0.2596793

Encoder.encoder_lstm.bias_ih_l0 f4 [128]
000000 6f 79 01 be 94 81 81 bf b7 27 c5 be e5 3c 23 bf
       -0.1264398 -1.0117669 -0.38506863 -0.6376479
000010 92 1e 6b be e8 8d 1f bf da 3a 91 bf 59 2d b2 bf
       -0.2296088 -0.62325907 -1.1346085 -1.3920089
000020 46 8c 07 3e 2d c1 25 bf 8d 87 54 3e 67 33 ec be
       0.13237104 -0.6474789 0.20754834 -0.46132967
000030 19 ca 9b 3d 12 9a f0 bd db 02 dc be 04 88 e8 be
       0.076069064 -0.117481366 -0.4297093 -0.45416272
000040 a3 d3 09 bf 32 27 38 bf 3e ff 3b bf 09 8a 8a bf
       -0.53838557 -0.7193481 -0.73436344 -1.0823375
000050 4f 7e 99 be 1e 15 23 bf 4e 35 30 bf 60 c7 8f bf
       -0.29979178 -0.637041 -0.68831336 -1.123272
000060 be 5c 75 bf 87 e0 80 bf fd bf a9 be 19 bb df be
       -0.9584464 -1.006852 -0.33154288 -0.43697432
000070 c0 77 0d bf 94 a2 7c be e7 8d 42 bd be 10 e2 be
       -0.5526085 -0.24671394 -0.04749861 -0.44153398
000080 18 3d 3d bf b9 8a 31 be b6 65 65 bf e3 78 f2 b9
       -0.73921347 -0.17338075 -0.89608324 -0.00046247905
000090 3f 9d ae 3f 8d 10 2a 3f 18 8c b9 be 59 80 c8 be
       1.3641738 0.66431504 -0.36239696 -0.39160421
0000a0 ee bd 53 bf da 4a 57 bf e2 17 cc be 03 64 2d 3e
       -0.82711685 -0.8409859 -0.3986197 0.16932683
0000b0 5d 84 3c bf dd ce 3a bf b1 0d b0 3c 5a 40 64 3f
       -0.7363947 -0.729719 0.021490904 0.8916069
0000c0 56 ac 2b bf 8c dc 9b 3d 8c be d3 bd ea 8f a0 bf
       -0.6705984 0.07610425 -0.10339078 -1.2543919
0000d0 e7 87 04 bf 5b 9a 67 3e 11 23 dc 3b 76 a4 0c 3e
       -0.5176987 0.22617476 0.0067180474 0.13734612
0000e0 e3 2b bb 3f 36 ee 29 be cd 86 8b bf 3b 31 25 3e
       1.4622768 -0.16594777 -1.0900513 0.16132061
0000f0 a3 dc 89 be f9 53 00 bf a1 af d6 3c 9c 0c ae bf
       -0.26926145 -0.5012813 0.026206793 -1.3597598
000100 17 d1 e6 3d 84 9d 72 be 38 77 2b 3e 59 7e e4 bd
       0.112703495 -0.236929 0.16744697 -0.111569114
000110 db 49 d8 3b 3a 88 61 be 81 33 09 be 74 cd 6d 3e
       0.006600601 -0.22024623 -0.13398553 0.23222905
000120 01 fe 27 bd 83 08 49 be 04 5a 8d 3c 87 2d e7 be
       -0.04101372 -0.19632153 0.017254837 -0.45151922
000130 0a 99 e2 3c 58 7d 8f 3e eb 06 79 be e5 80 90 be
       0.027660865 0.28025317 -0.24319045 -0.2822334
000140 8c 74 d0 be 77 7b c5 3c d9 80 f7 bd 22 69 15 bf
       -0.40713918 0.024106724 -0.120851226 -0.58363545
000150 13 91 97 be 35 ed 77 3e 79 f9 3c 3f 89 cf dc be
       -0.2960287 0.24211581 0.73818165 -0.43127087
000160 3d 48 d3 3e 20 2d fc be 83 f5 a2 bd a3 52 58 3e
       0.4126605 -0.49253178 -0.07956984 0.21125273
000170 bd 69 a7 be 60 14 96 bd d4 19 30 3d 89 64 64 bd
       -0.3269786 -0.07328105 0.04299338 -0.05575994
000180 ae fa 0e bf 7c 32 11 c0 ce a0 31 bf 07 1d 56 bf
       -0.55851257 -2.2687063 -0.69385993 -0.8363804
000190 18 b9 54 bf a6 03 78 bf a0 0a ee be c1 16 10 bf
       -0.8309493 -0.9688057 -0.4649248 -0.5628472
0001a0 1b 77 69 bf ac ea 74 bf 96 76 15 be b7 00 56 bf
       -0.91197366 -0.9567058 -0.14596018 -0.8359484
0001b0 be 17 e5 be 8d 26 1f 3d 6e 64 1b bf 92 c3 9e bf
       -0.44744676 0.038855124 -0.6070012 -1.2403433
0001c0 26 43 9e bf 42 1c 0c bf 50 90 53 bf c0 9d 20 bf
       -1.2364242 -0.5473062 -0.8264208 -0.6274071
0001d0 4f a2 ea be b9 ef 0a bf 59 22 65 bf 3c 76 82 bf
       -0.45826957 -0.5427204 -0.89505535 -1.0192332
0001e0 08 4d e2 be c4 08 e8 be 72 74 bc be 49 fb 18 bf
       -0.44199395 -0.45319188 -0.3680759 -0.5975843
0001f0 ac 16 7a bf 8a b7 b9 be ab 7c 44 bf 19 57 06 bf
       -0.97690845 -0.36272842 -0.7675273 -0.5247665

Encoder.encoder_lstm.bias_hh_l0 f4 [128]
000000 a6 2e d4 bd 04 41 56 bf a6 81 bc be 68 8f 23 bf
       -0.1036046 -0.83692956 -0.36817664 -0.63890696
000010 0b 28 a8 be 5f e9 fc be 38 2a 64 bf d1 90 cf bf
       -0.3284305 -0.49396798 -0.8912692 -1.621607
000020 02 6c df 3d 5f 4c 26 bf c8 b1 b6 3c 01 c7 c5 be
       0.10909273 -0.64960283 0.02230157 -0.3862839
000030 ad 1c 98 3c 05 9b 41 be 83 7a 1b bf 7c 02 2e bf
       0.018568361 -0.18906792 -0.60733813 -0.6797254
000040 96 16 11 bf 1c 0c 64 bf 2c c2 22 bf 5f 5d 4f bf
       -0.5667509 -0.8908098 -0.6357753 -0.8100185
000050 0c c5 4b be 0c 7f cb be f6 9d 25 bf e9 0e 83 bf
       -0.19899386 -0.39745367 -0.64694154 -1.0238925
000060 41 35 86 bf 0d 44 a0 bf 72 fa 01 bf 56 c3 0b bf
       -1.0485002 -1.2520767 -0.50772774 -0.54594934
000070 a3 28 53 bf c7 43 13 bc 1b 82 cb 3d 0b ab fc be
       -0.8248388 -0.008988327 0.09936925 -0.49349245
000080 6a 7e 5a bf 80 e3 2b be 3a 3a 65 bf 70 e7 59 be
       -0.8534914 -0.16786003 -0.8954197 -0.21279693
000090 47 3d b0 3f 6e f4 0d 3f dc 32 b3 be 40 54 02 bf
       1.37687 0.55451095 -0.3499974 -0.50909805
0000a0 a3 27 29 bf 8b 8a 72 bf 6b 98 b8 bd ac 9e 91 3e
       -0.66076106 -0.9474265 -0.090134464 0.2844137
0000b0 bf 9b 1e bf 3c e3 2e bf 13 bf 0d 3e 9d f7 67 3f
       -0.619564 -0.6831548 0.1384242 0.906122
0000c0 92 6d 3f bf 07 98 46 3e d3 36 db bd 57 ba c2 bf
       -0.74776566 0.19393931 -0.10703816 -1.5213116
0000d0 e7 da 99 be db 62 86 3e e4 91 32 be 3d fb b3 3e
       -0.30049822 0.26247296 -0.17438465 0.35152617
0000e0 95 b0 b5 3f 52 fa d6 bd 55 b2 b6 bf 38 9f 6d 3e
       1.4194514 -0.104969636 -1.4273173 0.23205268
0000f0 2c 7f 09 bf a0 5e b8 be 4a 78 3a be 9e 90 9d bf
       -0.53709674 -0.36009693 -0.18209949 -1.2309759
000100 b2 4f 4e be 0e 4b be be c2 1f b8 3e 05 98 9e bd
       -0.20147589 -0.37166637 0.3596173 -0.07743839
000110 fd e7 07 be 01 98 2c bc 6f d8 0a be d0 e3 c2 3e
       -0.1327209 -0.010534287 -0.13559125 0.38064432
000120 14 3d b6 bc 68 eb ef 3c 75 83 4a 3b f9 49 5f be
       -0.022245921 0.029287055 0.0030901108 -0.21805562
000130 9d a3 6c 3e 6c 85 12 bc 26 9a f7 be 54 77 9e be
       0.23109289 -0.008942943 -0.48359793 -0.30950415
000140 80 21 84 be fa b4 c4 bd ce 4d c1 bd e9 e6 2c bf
       -0.25806808 -0.09604831 -0.09438668 -0.6753984
000150 25 47 93 be a3 67 0f bd 7d 2f 21 3f f0 17 4c be
       -0.28765216 -0.035010945 0.62963086 -0.19931006
000160 aa 06 4f 3e 91 39 e9 be cd df 88 bd 4b 5a 18 3e
       0.20217386 -0.45551732 -0.066833116 0.14878194
000170 88 2b c0 be bc 42 95 3d 8d 51 2f 3e ae e0 b2 3a
       -0.37533212 0.07288119 0.17120953 0.0013647282
000180 76 15 f9 be 40 50 0c c0 f0 9b 15 bf df 25 8b bf
       -0.48649186 -2.192398 -0.58441067 -1.0870932
000190 c7 bc 38 bf f1 03 68 bf 22 86 c8 be 33 d3 43 bf
       -0.7216305 -0.90631014 -0.39164835 -0.7649414
0001a0 59 29 9c bf 01 fa 44 bf 4f f7 da be 86 33 39 bf
       -1.2200118 -0.76943976 -0.42766806 -0.72344244
0001b0 0d 41 dc be b5 e0 79 bd b8 36 b4 be c9 df 8b bf
       -0.4301838 -0.061005313 -0.35197997 -1.0927669
0001c0 25 6c 98 bf cb a4 de be af 29 2a bf d3 e5 54 bf
       -1.1908003 -0.43485102 -0.66469854 -0.83163184
0001d0 de 1b d9 be 9c 25 0a bf 23 02 82 bf 92 87 8b bf
       -0.42404073 -0.5396364 -1.0156902 -1.0900748
0001e0 04 ec 19 bf 0b 55 e1 be 68 56 bc be 45 12 53 bf
       -0.60125756 -0.44010195 -0.36784673 -0.8244975
0001f0 ef b7 82 bf 46 c4 1c bf 32 8e 44 bf 08 c0 2b bf
       -1.0212382 -0.6123699 -0.7677947 -0.6708989

Encoder.encoder_attn.0.weight f4 [20, 84]
000000 aa 25 c6 bf 09 87 8d be 52 4b 75 3e b9 72 36 3f
       -1.5480244 -0.27642086 0.23954514 0.712688
000010 19 b4 b9 be 64 5d 3b 3f dc 38 3c bd 2d eb 16 3f
       -0.36270216 0.7318938 -0.045952663 0.589526
000020 2b 06 8e 3f c7 96 ca 3e cc a6 83 bf 56 22 e4 bf
       1.1095632 0.3956816 -1.0285277 -1.7822978
000030 b1 30 41 bf a4 ac aa be 33 95 e4 be 17 b2 16 3d
       -0.7546492 -0.3333484 -0.4464508 0.036790933
000040 d3 61 55 c0 e4 cb 83 3f e9 a9 1c c0 58 e6 48 bd
       -3.3340957 1.0296597 -2.4478705 -0.049047798
000050 36 9c 1a c0 1e 26 95 3f c6 1b 91 bf 2d 65 fb bc
       -2.4157844 1.1652257 -1.1336601 -0.030687893
000060 48 4e 14 c0 54 21 7f 3f 53 29 f3 3f 07 55 0c bf
       -2.317278 0.9966023 1.8996986 -0.5481724
000070 4b f1 93 3f fe a0 9d bf db 50 ad bf 16 2f df bf
       1.1558012 -1.2314756 -1.35403 -1.7436244
000080 23 48 ad bf b2 b6 a3 be 96 1c d7 bf 62 65 10 40
       -1.3537639 -0.31975323 -1.6805599 2.256188
000090 d7 aa 18 bf f0 22 21 40 af 76 0c bd 44 81 85 3f
       -0.5963568 2.5177574 -0.034292873 1.0430074
0000a0 fb 3d e1 3f 23 8f ac 3f 42 d8 2c bf 8a 41 29 bf
       1.759704 1.3481182 -0.67517483 -0.6611563
0000b0 ef 76 30 be 90 8a 94 3e 8b 74 88 be 82 0f c7 3f
       -0.1723287 0.29011965 -0.26651415 1.5551608
0000c0 2c cb 5f bf ca 62 b7 3f 3e db 24 c0 a4 4b 6f bf
       -0.8741939 1.4327023 -2.5758815 -0.93474793
0000d0 f7 42 a9 bf bf 16 53 3f ab c6 55 bf 23 e6 21 be
       -1.3223561 0.8245658 -0.8350627 -0.15810446
0000e0 53 6c 26 bf 34 1b 81 3e b7 b0 b7 3f 1a d4 23 bf
       -0.6500904 0.25216067 1.4350804 -0.63995516
0000f0 73 dd 9a 3f 09 aa 84 bf 12 f8 09 c0 5a 67 bc bf
       1.2098831 -1.0364391 -2.155766 -1.471904
000100 42 d3 24 bf e3 af 08 bf ea a4 67 be 76 87 cf 3e
       -0.64384854 -0.5339338 -0.22621503 0.40533036
000110 23 66 f3 be 0c 1a 7d 3e 86 16 0b 3f 8b 81 00 c0
       -0.47538862 0.24716967 0.54331243 -2.0079067
000120 04 dd cf bf 38 ff 3a bf ba f7 a1 be 53 40 c2 3e
       -1.6239324 -0.7304568 -0.31634313 0.379397
000130 b4 1c 3b bd e7 62 94 3e 8d c5 f3 bb 42 77 7c bf
       -0.04568167 0.28981707 -0.0074393214 -0.98619473
000140 59 0f 1f bf ac 96 91 3f b4 41 00 40 7b f8 4d 3f
       -0.62132794 1.1374106 2.0040102 0.80457276
000150 38 2b b7 3e e8 6b c4 3f f1 86 cf be c8 2b a0 3e
       0.3577516 1.534543 -0.4053264 0.31283402
000160 bf 78 3e 3e d3 64 1b c0 b5 39 09 bf 30 3c 32 3f
       0.18600748 -2.4280288 -0.5360368 0.6962309
000170 33 3a b0 3f f4 2a 56 3f ea e1 cc be 45 d1 b4 bf
       1.3767761 0.8365929 -0.4001611 -1.4126364
000180 c0 53 02 3f d9 d0 43 3f 79 3a 08 40 7e 7e 8d bf
       0.5090904 0.7649055 2.128569 -1.1054227
000190 36 89 d9 3f d9 8c 31 be 55 e9 87 3f fc 75 51 3d
       1.6994998 -0.17338885 1.0618082 0.05113791
0001a0 a1 26 69 be 0b 51 54 3f 25 58 68 3f 62 1f 59 3f
       -0.22768642 0.8293616 0.907595 0.8481351
0001b0 5f 67 36 3f 00 d1 2d 3e b1 d5 aa 3f 3b c1 69 be
       0.7125148 0.16974258 1.3346463 -0.22827618
0001c0 a2 e7 7e 3e 0e 36 13 40 3f 57 d8 bf 5b da d4 3f
       0.24893048 2.3001742 -1.6901625 1.6629137
0001d0 89 9c d8 3e 05 4b 0d 40 1e b3 3a 3f ef dc 15 3e
       0.42306927 2.2077038 0.7292956 0.1463506
0001e0 6c 20 a5 3e 15 dd cc bf c3 d6 92 bf 0e 3a dc 3e
       0.32251298 -1.6004969 -1.147179 0.43013042
0001f0 51 97 62 3f 4a 8d a1 be b0 f6 c9 bd 83 92 d5 3d
       0.8851214 -0.31553108 -0.09861505 0.104283355
000200 c6 a3 90 3f 53 e1 cd 3f e7 09 00 40 63 70 ea bf
       1.129998 1.6084388 2.0006044 -1.8315548
000210 b6 29 1c 40 e6 c7 05 bf 01 ab 62 3f 7b 3f 11 3f
       2.4400458 -0.52258146 0.8854218 0.5673749
000220 dd 85 2b bf 27 3e e8 be 2a 37 83 3f 76 61 0b 3e
       -0.67001134 -0.45359918 1.025121 0.13611397
000230 7a 1d f8 bd fc 35 44 3f d1 3b de 3f 2b 5d 20 3f
       -0.12114997 0.76644874 1.7362005 0.62642163
000240 6a e5 97 3d 85 66 e3 3f b8 af c8 bf c6 a3 56 bd
       0.07416804 1.7765661 -1.5678625 -0.05240228
000250 b8 a9 62 3f c2 99 db 3f 2d 2e 03 3f 2a a6 49 bf
       0.8854022 1.7156298 0.51242334 -0.7876917
000260 69 f0 34 be e1 df a3 3f 7b f1 be 3e a3 f0 12 be
       -0.17669834 1.2802697 0.3729361 -0.14349608
000270 0d e2 a4 be 9d 86 50 3f 75 16 f7 be 31 6f 1f be
       -0.32203713 0.81455404 -0.4825932 -0.1556976
000280 38 10 49 3f 44 44 e4 3f 47 d3 8f 3f 12 f9 a9 3f
       0.7854037 1.7833333 1.1236352 1.3279135
000290 07 e9 24 bf 37 82 ce be 6a d2 e8 3e 76 8b aa bf
       -0.6441807 -0.4033372 0.45473033 -1.332381
0002a0 27 23 e0 be 77 44 8b 3d 08 78 50 bf a3 56 99 be
       -0.4377682 0.06800168 -0.81433153 -0.2994891
0002b0 62 c9 d9 be 46 b7 bb be 64 71 16 40 3e b4 f3 bf
       -0.42536455 -0.36663264 2.3506708 -1.903938
0002c0 c1 e9 8d 3f be ab 04 3f 5b e3 c8 3f 41 b8 57 3f
       1.1086961 0.5182456 1.5694383 0.84265524
0002d0 51 62 1a 3f 07 f4 09 c0 75 a7 9e bf 9c 67 6f be
       0.6030627 -2.1555192 -1.2394854 -0.23379368
0002e0 8c 19 b7 bf 31 56 e9 bf c8 5a 1c bf 80 86 e4 3f
       -1.4304671 -1.8229429 -0.6107602 1.7853546
0002f0 f7 7a 90 3f d0 03 b6 bf f8 86 05 c0 2b f9 78 3f
       1.1287526 -1.4219913 -2.0863628 0.972552
000300 60 1e 25 c0 9b 07 04 40 65 25 3f bd c2 5c 80 3e
       -2.579979 2.0629642 -0.04666652 0.2507077
000310 16 69 ef 3f 59 41 8c be 05 4d 6f 3f b0 f8 22 3f
       1.8703945 -0.27393606 0.934769 0.63660717
000320 d9 d6 c1 bd 03 8d 18 40 99 49 af be 29 b7 ae bf
       -0.09464807 2.3836067 -0.34235838 -1.3649646
000330 65 bc d6 bd a6 49 9e bf 03 8e 19 40 64 fc dd bf
       -0.10485152 -1.2366226 2.3992927 -1.7342649
000340 6a e2 79 bf e3 1f ca 3d 0c 24 af 3f 8f 69 e3 be
       -0.97611105 0.09869363 1.3682876 -0.44416472
000350 24 37 32 3f b5 f3 1d c0 ef c9 ab bf ad c5 88 3f
       0.6961539 -2.4679997 -1.3421 1.0685326
000360 58 54 9f 3f b2 ef 95 bf 9a 84 31 bf 94 17 8b 3f
       1.2447615 -1.1713774 -0.6934296 1.086657
000370 c4 69 10 3f 65 70 66 bf 06 37 d5 3e a4 ee 32 3f
       0.56411386 -0.9001525 0.41643542 0.69895387
000380 8f ca 3a 3f b5 09 d4 3f 4d 1c 66 be 7e d2 b9 bf
       0.7296533 1.6565462 -0.22471733 -1.4517362
000390 8d eb 1b 3f 90 17 85 3f 1b 17 c4 bf 4c 8a ee bf
       0.60906297 1.0397816 -1.5319551 -1.8635955
0003a0 83 92 d4 3e 7f 32 23 bf 3f ea 98 bf 77 a7 ab 3e
       0.4151803 -0.63748926 -1.1946486 0.33526203
0003b0 a4 af 94 bd 58 18 39 3e 7c c8 06 bf 09 12 28 3e
       -0.07260063 0.18075693 -0.52649665 0.1641313
0003c0 4d ee bd be 7f 0e 94 bf f8 37 11 c0 1a 73 c3 3f
       -0.37095872 -1.1566924 -2.269041 1.5269501
0003d0 ab bf 36 bf 17 bf b5 3e 07 42 e4 be 47 45 08 40
       -0.7138621 0.35497352 -0.44581625 2.1292284
0003e0 4a 8e 21 bf d0 5f c8 3e 0c a3 c8 3b bc 21 f7 3e
       -0.6310774 0.391356 0.0061229523 0.48267925
0003f0 1e e3 fe 3e 1d dc 73 40 00 4d 90 3f ce fd 9e bf
       0.49782652 3.8103096 1.1273499 -1.2421205

Encoder.encoder_attn.0.bias f4 [20]
000000 f1 9d 87 bf 6b e6 ee 3f e3 f4 2a 40 f4 e0 b4 bf
       -1.0595075 1.8664068 2.6711967 -1.413115
000010 9f 36 7d 3f 59 6b cb bf 29 ca 6c 3f c5 a2 5e 3d
       0.9891147 -1.5892135 0.9249597 0.054354448
000020 2b 06 f2 3d e8 1f 70 bf 76 d8 2c 40 89 7d 80 3d
       0.11817583 -0.93798685 2.7007117 0.06273944
000030 85 ab 7f bf f8 c8 07 bf 56 be 28 40 33 c2 c9 bf
       -0.99871093 -0.5304103 2.6366172 -1.576239
000040 d2 1d 01 40 1b 44 22 bf 13 e6 4d 40 54 3d 1e c0
       2.017445 -0.6338517 3.2171676 -2.4724932

Encoder.encoder_attn.2.weight f4 [1, 20]
000000 50 78 f3 bd b7 fd c1 3d 54 fa a0 bd d8 8e b3 bd
       -0.11888182 0.094722204 -0.07860246 -0.0876748
000010 4c 7a ae bd 65 4d 13 3d 57 e1 cd 3d e4 99 c4 bd
       -0.0851942 0.03596248 0.10052746 -0.09599665
000020 f2 40 dc bd c7 66 ed 3d 00 4e e1 bd 5d d8 c3 3d
       -0.10754575 0.11591869 -0.110012054 0.095627524
000030 95 60 b6 3d 41 2b d5 3d 31 29 84 bd d9 fd bb 3d
       0.0890514 0.10408641 -0.06453169 0.09179277
000040 36 80 d9 bd 42 7a d2 bd 25 eb 03 bd 40 41 c7 bd
       -0.106201574 -0.10277225 -0.032206673 -0.09729242

Encoder.SelfAttention.wq.weight f4 [20, 20]
000000 a5 ec 6b 3d 8f 3f 03 bc ce c8 8d 3d c9 2d 2a be
       0.05759873 -0.008010759 0.06923066 -0.16619028
000010 a4 a8 f8 3d 56 31 f5 3d 40 4f 38 3d 4b f9 40 3e
       0.12141541 0.11972301 0.044997454 0.18845098
000020 05 65 6e 3b a0 50 4d 3e a9 63 97 3e 68 ec 1b 3d
       0.003637613 0.20050287 0.29568222 0.03806725
000030 f5 8b 59 bb 4a a7 aa 3c 3b 36 22 3e 7d af 49 3e
       -0.0033194993 0.020831723 0.15841 0.1969585
000040 7f e5 16 3d b2 0a c4 3d 2d 7f 72 ba 31 70 06 3b
       0.03683996 0.095723525 -0.0009250518 0.0020513649
000050 01 c5 48 bf f2 b2 9d 3a dc 6d 06 bf 8a 74 2c 3f
       -0.78425604 0.0012031479 -0.5251138 0.67365324
000060 83 f1 06 be ed 44 6a 3e d1 5f 97 be 37 aa 88 be
       -0.13178067 0.22877856 -0.2956529 -0.26692364
000070 2d de 8c be ad 86 b3 be 14 12 c4 3d e1 06 3c bd
       -0.27513257 -0.35063687 0.09573761 -0.045904998
000080 ee b3 81 3e 21 0e 4f bf bf f9 86 3f 67 58 b1 be
       0.25332588 -0.80880934 1.0544966 -0.34637758
000090 39 5e 5f bd 9d de 67 3e bd 24 22 3e b7 6d e0 be
       -0.054533217 0.22643514 0.15834327 -0.43833706
0000a0 e8 64 47 be b8 8c 52 be 69 42 27 3d fa d0 ca 3e
       -0.19472086 -0.20561492 0.040834818 0.3961256
0000b0 11 99 8b bf f4 4b 50 3f c9 ed 04 bf e5 5e 98 3d
       -1.0906087 0.81365895 -0.5192533 0.07439975
0000c0 4e 2e 8a bd 9f 6d 14 be 01 79 87 3d b4 44 92 bc
       -0.06747113 -0.14494942 0.066148765 -0.017855026
0000d0 6b 6e 94 3e 9e ac 28 bf 85 e1 80 bc 8b 4e 47 3f
       0.28990492 -0.6588839 -0.015732536 0.7785422
0000e0 59 30 74 be 1d b0 95 3d 50 1d 44 3e 1c f6 80 be
       -0.23846568 0.073089816 0.19151807 -0.25187767
0000f0 1d 2a 8f bd 39 85 03 3e 86 ce fa bd cd 36 a1 3e
       -0.06990454 0.12843789 -0.122464225 0.31487122
000100 1b e3 06 3f c3 48 7d be 1c 00 a6 3e 57 f3 1e bf
       0.52690285 -0.24734788 0.32421958 -0.6209006
000110 9b d4 a1 3e f4 09 5f 3d 76 a6 05 bf 3a 86 09 be
       0.31607518 0.05445285 -0.52207124 -0.1343011
000120 ff fd 1e 3f 31 00 8e 3f 4b 05 8a be a7 ff d7 be
       0.6210632 1.1093808 -0.26957163 -0.42187235
000130 1d 47 a3 3e 28 6a 1d 3f 84 cc 75 3e b2 15 51 be
       0.31890193 0.61490107 0.24003798 -0.20418432
000140 51 53 ef 3c 52 98 97 3e f6 f3 8a be 9f 53 3b 3e
       0.029214533 0.296084 -0.27139252 0.18293618
000150 8e 20 eb be 49 a4 6b 3e a0 e8 2c bf fc 8f 39 be
       -0.45923275 0.23011889 -0.6754246 -0.18121332
000160 87 cc 27 3f 7d 71 20 3e 61 d5 6b bf 25 50 27 be
       0.6554646 0.15668292 -0.92122465 -0.16339166
000170 6b d3 5e bb 81 99 71 3a 47 b2 ee 3d 30 0c 8d 3e
       -0.0034000527 0.0009216294 0.116550975 0.2754836
000180 27 14 c0 be 31 bb 90 3e 44 08 f1 3d a9 d2 b5 be
       -0.37515375 0.28267816 0.11769155 -0.35512283
000190 dd 8f 89 bd 75 3c cd bc f4 20 ab be 61 1d 2e be
       -0.06716893 -0.025053242 -0.3342358 -0.17003395
0001a0 e3 c2 e8 bb c3 d4 a4 bd 0c b7 a3 bd de 0c 1f 3d
       -0.0071033104 -0.080483936 -0.07993898 0.03883063
0001b0 f1 98 c2 be 76 d9 a4 bd 5f 54 50 bd cb 97 5d 3c
       -0.3800731 -0.0804929 -0.050861713 0.01352496
0001c0 11 05 9e be ef 0c 6d bd 26 7d bd bd 72 22 75 3c
       -0.3086324 -0.057873663 -0.09252386 0.014961826
0001d0 02 aa 90 bc f5 35 66 bb b2 f8 f4 bd f6 85 13 be
       -0.017659191 -0.0035127376 -0.11961497 -0.14406571
0001e0 45 1f 2b be 10 a7 02 3e a8 eb 8d bd 93 f6 6b bc
       -0.16711147 0.12759042 -0.069297135 -0.01440205
0001f0 76 27 c8 be 9c 03 c2 bd de 61 ce 3c 80 8a d8 be
       -0.39092606 -0.09473345 0.025193151 -0.42293167
000200 13 d6 28 3e 27 6d c5 3b 8b a3 a3 be 77 c3 d1 be
       0.16487913 0.006024975 -0.3196071 -0.4096944
000210 99 be af 3e a3 6c 89 be 03 95 3b 3d 0c e8 eb bd
       0.34325102 -0.26840696 0.045796406 -0.11518869
000220 84 86 fe be bf 66 0d be 61 fe 19 be f2 51 ad 3d
       -0.49712002 -0.13808726 -0.15038444 0.084628955
000230 29 7b ef 3c 43 20 b1 3d 5a cb 0b bf ee d7 80 be
       0.029233532 0.086487316 -0.54607165 -0.2516474
000240 25 30 1d 3f 3a 1f 73 bf d9 96 fc 3e ec 7c f5 bd
       0.6140159 -0.9496952 0.49333838 -0.119867176
000250 7c 4f 7c be 6c 38 80 3d 63 53 17 bf 39 a7 19 bf
       -0.24639696 0.062607616 -0.59111613 -0.60020787
000260 8b 74 c1 3e 4f 1c be be 2e 3f 64 be e6 05 4c 3f
       0.37784228 -0.37130973 -0.22289726 0.796965
000270 90 6f 25 be 77 b8 b4 be f8 e8 32 bd 9b 7c 82 be
       -0.16155839 -0.35296986 -0.043679208 -0.2548569
000280 d1 9e 0e 3f 08 29 b7 be c2 5c 96 be 0f 3d d2 bd
       0.55711085 -0.35773492 -0.29367644 -0.10265552
000290 3f 15 2f bf 4a cb fd 3e 79 d4 1d bf a0 7b d7 be
       -0.68391794 0.4956916 -0.6165233 -0.42086506
0002a0 35 1b a0 3d 7f d2 6d be 42 04 5b bd f4 cd e6 be
       0.07817689 -0.23224829 -0.053470857 -0.45079005
0002b0 e5 bb c2 be 4b 77 79 be ba f7 66 3f 2c 7d 79 bf
       -0.38033977 -0.24361913 0.9022175 -0.9745662
0002c0 a7 95 ce 3e 9a 68 db 3e c8 7b a9 3d 13 8c 5d bf
       0.4034855 0.42853242 0.082755625 -0.8654186
0002d0 4b 1e 64 3d 69 a8 22 3e d9 c4 41 be 5e 8e 1e 3e
       0.055692952 0.15884556 -0.18922748 0.15483996
0002e0 a6 61 71 bd dc a8 1f 3e 29 74 99 be 6a c8 b9 3d
       -0.058931015 0.15591758 -0.29971436 0.09071429
0002f0 53 6f b4 3d ee 0f e5 be 61 c5 53 3f e3 49 31 bf
       0.08810296 -0.44738716 0.8272305 -0.6925337
000300 0c 89 6e 3d c5 c1 97 3e 19 26 1f bf a8 92 b0 3e
       0.058236167 0.29640022 -0.6216751 0.3448689
000310 e6 b3 89 be d7 c7 aa 3e 0c 6a ad be ee bd 7d 3e
       -0.26895064 0.3335559 -0.3386997 0.24779484
000320 e4 9a 3e 3e 42 6f e4 3e 2a 24 a3 be 6f 2e b9 be
       0.18613774 0.44616133 -0.31863528 -0.3616824
000330 b5 72 0b be 59 5e 5a bd b3 cd 51 bd db f6 a1 3e
       -0.13617976 -0.053312633 -0.05122156 0.31633648
000340 9f e5 bc be 18 f4 9c 3e a2 1d cf 3e c3 0a 36 bf
       -0.36893937 0.3065498 0.40452296 -0.7111017
000350 b1 c8 cf bb e8 b8 ca bd ef 25 0e 3e b1 8f 0d bc
       -0.006341063 -0.09898549 0.13881658 -0.008640216
000360 55 59 ee 3e a9 44 12 be 84 41 af 3e 46 9f f6 3d
       0.4655253 -0.14284004 0.34229672 0.12042098
000370 4d 61 d1 3d 66 7f 6d bf f1 35 ac be 6d 21 91 3e
       0.10223637 -0.9277252 -0.33634904 0.28345814
000380 4a 90 ed 3d 78 8b 1f 3f 4d e3 fc be 5b 70 0e 3e
       0.115997866 0.6232219 -0.49392167 0.13910048
000390 5e 26 35 3e ca 59 4d 3e 0d 46 e8 be b3 7a 58 be
       0.17690417 0.20053783 -0.45365945 -0.21140556
0003a0 54 69 b5 be 6d b5 08 bd 71 20 9d 3f 1c 19 58 bf
       -0.3543192 -0.033376146 1.2275525 -0.84413314
0003b0 1b 37 8b bc 03 7b 46 3e 9d 7e 21 3e 07 8e 80 bf
       -0.01699405 0.19382863 0.15770955 -1.0043343
0003c0 96 80 46 3d 23 4f ba 3d 89 1f 04 bf a2 44 0d 3e
       0.048462473 0.090971254 -0.5161062 0.13795713
0003d0 b0 0e c9 3e f0 dd 40 be a1 c6 3a be 37 f8 1e bd
       0.39269018 -0.18834662 -0.18239833 -0.038810935
0003e0 b5 d8 39 3f 81 27 c5 be d7 8c 98 3d a0 53 c7 be
       0.72596294 -0.38506702 0.07448738 -0.38930988
0003f0 f4 2c 04 be a5 ce 96 3e fa 22 bd bd f6 8f 6a bf
       -0.12907773 0.29454532 -0.09235187 -0.91625917

Encoder.SelfAttention.wk.weight f4 [20, 20]
000000 53 3c 23 3e 7d 19 c2 bd 8a e6 a8 3c e8 f6 ae bb
       0.1594098 -0.09477518 0.020617742 -0.005339492
000010 b8 4a 8a be 60 21 4f bd bd 8a 32 be c8 2e b5 3d
       -0.2701013 -0.05056894 -0.17435737 0.088468134
000020 02 69 bd bd fd f9 91 3d ae 6c 8a bd db cd 42 be
       -0.09248544 0.071277596 -0.0675901 -0.1902384
000030 85 66 a9 3d 83 6b cf bd 1d e0 39 bd 01 64 02 bc
       0.08271507 -0.10127928 -0.045379747 -0.007958413
000040 df 76 99 3c 99 8c e9 bd b8 86 59 bd a8 ea 3f bd
       0.01873344 -0.1140377 -0.053106993 -0.046854645
000050 a0 ed 93 be c1 ca 46 3e 18 c0 14 3e 17 67 e1 3e
       -0.2889223 0.19413282 0.14526403 0.44023964
000060 e8 19 1d 3e 6c 39 20 bf be 29 f3 3d 7d 2c 68 3c
       0.15341914 -0.6258762 0.11873196 0.014170763
000070 ce 18 0f 3f 28 3d a2 be c4 a3 9f 3e 7f c7 fa be
       0.55897224 -0.31687284 0.3117963 -0.48980328
000080 53 98 2b 3e 1b c9 3a 3e 4d 49 ee bd d2 f5 a0 be
       0.16757326 0.18240778 -0.11635075 -0.31437546
000090 29 e5 7b 3f ab bb 0a 3f be a0 9e be ea 44 c0 3e
       0.98396546 0.5419261 -0.30982012 0.37552577
0000a0 75 a1 97 3e 97 6e 55 bd e8 06 01 be a1 fe 11 bf
       0.2961537 -0.05210742 -0.12600291 -0.5702916
0000b0 db e0 07 3f 97 cf 30 bf 3b 2b 17 bd f3 ef 1e be
       0.5307748 -0.69066757 -0.036906462 -0.15521221
0000c0 ed ed c2 3d 9c 00 a0 be d8 bd 04 3e 6d 3d bb be
       0.09518037 -0.31250465 0.12963045 -0.36570302
0000d0 d8 14 73 3d a9 8f b7 3e 80 64 df bd 6d aa f1 be
       0.05934605 0.35851792 -0.10907841 -0.47200337
0000e0 29 70 9f be 08 ce 06 3f 0b 96 85 be fa e9 db 3d
       -0.3114026 0.5265813 -0.26091036 0.10737987
0000f0 7a 8b fe be 75 a8 aa 3c 58 1f 97 3e fe 97 39 be
       -0.49715787 0.02083228 0.295161 -0.18124387
000100 d5 f5 4b 3e 5f d2 a5 3e e4 3c 7f 3e 75 c1 26 3e
       0.19917996 0.32387063 0.24925572 0.16284736
000110 e0 6c c1 bd 35 0d 84 bc a2 bb 30 3e bf 89 89 3e
       -0.094445944 -0.016119579 0.17259076 0.26862904
000120 12 8d db 3d 00 c1 41 bf bd 98 10 3e d8 83 05 3e
       0.107202664 -0.7568512 0.14120765 0.13038576
000130 5e 51 c0 3e e3 cb a0 bc 99 4e 28 3d 07 99 82 3f
       0.37562078 -0.01962847 0.04109058 1.020295
000140 8c f8 7c be 3e 71 89 3e ef 82 9d 3e a1 b1 05 bf
       -0.24704188 0.2684421 0.30763957 -0.52224165
000150 f2 bc 66 3e 03 02 dc 3e 95 24 2a be 3e 0a 04 3f
       0.22533014 0.42970285 -0.16615517 0.5157813
000160 2f f5 ea be f8 72 c4 be 33 09 1f 3f 55 81 97 bd
       -0.45890185 -0.38368964 0.6212341 -0.07397715
000170 9a 4a dc bc 25 93 b6 3e 6c ae 5d 3d 34 8b e6 be
       -0.026891042 0.35659137 0.05412142 -0.4502808
000180 23 d7 d3 3d 7b 3a 9c 3d 56 03 e1 bd 49 90 a9 3e
       0.103437684 0.07628342 -0.109869644 0.33117893
000190 70 0a eb 3d a3 0f c3 3d c4 6e 7d 3e dc b0 c2 3d
       0.114766 0.09524467 0.24749285 0.095063895
0001a0 c5 4a d0 bd 0b c0 66 3e 18 13 ca bb ba cd 9c 3d
       -0.10170511 0.22534196 -0.006166827 0.07656427
0001b0 47 b0 a7 3d 5a 0b 4a 3d 4a e8 dc 3d 8e 30 27 bd
       0.08187919 0.049327232 0.10786493 -0.04081779
0001c0 1a 11 bb 3e ad d4 d6 3d 18 be 48 3d 5c 03 0f bd
       0.36536485 0.104897834 0.049009413 -0.034915313
0001d0 82 02 18 3e f0 c6 2d 3e 6a 94 29 3e a4 bc 80 3d
       0.14844707 0.1697042 0.16560522 0.0628598
0001e0 c2 5f ea 3b 06 d7 5c 3e a2 1e 9c be 19 83 1a 3e
       0.0071525285 0.215664 -0.3049212 0.15089072
0001f0 47 86 26 3e 25 f5 33 3e 7b eb 7c be 28 f5 a6 3e
       0.1626216 0.17573984 -0.24699204 0.32608914
000200 46 ee ee 3d 39 c4 0b 3e ff f1 c1 bc 41 70 ca 3e
       0.11666541 0.13649072 -0.023674963 0.39538768
000210 58 a0 80 be af 8f 3e 3e 4d c5 35 3e 5d ed a0 bd
       -0.25122333 0.18609498 0.17751046 -0.078577735
000220 22 e8 af 3d f1 3d a8 bd 42 73 0e 3d 32 e2 31 3e
       0.08589198 -0.082149394 0.034777887 0.17371443
000230 e2 02 bc bc c3 a4 0f bf 45 c1 a3 bc 55 0c 76 bc
       -0.022950593 -0.5611078 -0.019989619 -0.015017589
000240 54 69 d6 be e6 94 9e 3e e9 14 cb be 32 2e 45 bd
       -0.41877234 0.30972975 -0.3966439 -0.04813976
000250 78 53 3c be 03 9e 39 be 16 c5 d8 3d 7b 53 1c 3f
       -0.18391216 -0.18126683 0.10584466 0.6106488
000260 12 b5 b2 be d1 73 0b bf a7 d8 6c 3e c3 c4 b2 be
       -0.3490377 -0.54473597 0.23129521 -0.34915742
000270 c0 cd 47 be 98 f2 15 3f 65 de c1 be f1 37 06 be
       -0.19512081 0.58573294 -0.37864986 -0.13107277
000280 65 4e da be 33 a5 39 3e 44 b5 33 3f 6c 1f fb be
       -0.42637935 0.18129425 0.70198464 -0.4904741
000290 bb b9 f4 bd fa a4 9e be 3f f5 91 3f cb 85 4f 3d
       -0.11949488 -0.30985242 1.1402968 0.050664704
0002a0 08 f6 23 bf 73 ff 77 3d 4d 14 e7 3e 68 96 18 be
       -0.6404729 0.06054635 0.45132676 -0.14901125
0002b0 88 03 c7 3e bd cc 37 3f d4 3f 27 bf 1e f1 0c 3f
       0.38869882 0.7179678 -0.6533177 0.55055416
0002c0 7c f5 de be 4f 61 bb bd 03 48 c8 be c5 58 46 3f
       -0.43546665 -0.091494195 -0.3911744 0.774792
0002d0 ae 0b 13 3e e9 39 40 be 5d 10 04 3f 84 89 2c be
       0.14359924 -0.18772091 0.5158747 -0.16849333
0002e0 24 a0 93 bd f8 c5 f6 be 3f d8 f5 3d e9 6d 42 be
       -0.07208279 -0.48197913 0.12004136 -0.1898724
0002f0 72 3c 8b 3e 4e 13 36 be 96 21 90 be ad 19 81 3e
       0.27194554 -0.17780802 -0.28150624 0.25214902
000300 e5 17 c3 bc 1a ec ba bc 8d a1 15 3f 12 49 93 be
       -0.023815105 -0.02281766 0.5844963 -0.28766686
000310 7f a7 22 3e 78 14 c5 be 8d 49 03 3e 97 cf 2b bd
       0.15884207 -0.3849218 0.12821026 -0.04194602
000320 e1 eb 0e 3f cb 27 b6 3d 1b 09 94 3e a7 5a c6 3c
       0.5582867 0.08894309 0.28913197 0.024213148
000330 e4 f1 47 bf 56 5a a2 3e b2 65 d3 3e 99 87 bb 3d
       -0.7810347 0.31709546 0.41288525 0.091567226
000340 ad 7b 2b be c6 d7 d6 3d 3d 56 b6 be 3c ac d4 3e
       -0.16746397 0.10490374 -0.3561267 0.41537654
000350 df 2a 7a be f5 ba 9f 3e e2 6b bb 3d fd 4b 41 bd
       -0.24430417 0.31197324 0.091514364 -0.04719161
000360 08 7a fd be 18 ab a0 3e 3d 7e 8b 3d b5 27 a6 3e
       -0.49507165 0.31380534 0.068111874 0.3245217
000370 7e 7d fe be 4f e1 04 be 4e 52 0c 3f 84 4c 9c 3c
       -0.49705118 -0.12976573 0.54813087 0.019079454
000380 b2 1e 09 3e c9 6c e3 be 19 97 82 3e 4a c7 86 be
       0.13390616 -0.44418934 0.25505903 -0.2632392
000390 63 01 b9 be 97 52 7b 3e 9b bd 96 3f 20 16 98 bf
       -0.3613387 0.24543224 1.1776613 -1.1881752
0003a0 b6 e8 9b bd bb fe 5b 3e 11 e8 ac be 83 87 f1 3e
       -0.076127455 0.2148389 -0.33770803 0.471737
0003b0 41 6b 82 3e 5c da ba be 12 f7 2e bf 0a 5b 15 3f
       0.25472453 -0.3649472 -0.6834575 0.5834204
0003c0 3f 73 bc be 54 2e 7f 3d 50 8d e4 3e 98 27 19 3f
       -0.36806676 0.06230004 0.44639063 0.5982604
0003d0 bf 20 35 be e7 94 25 3d a5 42 c5 3e ea 30 4e 3c
       -0.17688273 0.040425207 0.38527408 0.012584904
0003e0 8e 0a 43 bf 47 ed 9b 3e 6c 24 34 be 11 04 f1 bd
       -0.7618798 0.30454466 -0.17592019 -0.11768354
0003f0 aa 6a 97 bc d9 07 ba bd 5b 4f bd 3e c6 4c 93 be
       -0.018483479 -0.09083528 0.36974606 -0.2876951

Encoder.SelfAttention.wv.weight f4 [20, 20]
000000 90 dd 2a 3f c8 51 0e 3f c0 d4 28 3e 48 02 9a bf
       0.6674433 0.5559354 0.16487408 -1.2031946
000010 f2 f5 a1 be e1 02 38 be 89 8d 2b 3f 92 79 f2 be
       -0.31632954 -0.17969848 0.6701284 -0.47358376
000020 77 5f 53 be ae db 54 3e 11 46 05 3e 39 51 db 3e
       -0.20641886 0.20786926 0.1301501 0.42835405
000030 a7 99 64 3d 41 c3 1f 3e 02 b5 3a 3f 08 c2 c6 3b
       0.055810597 0.15601827 0.72932446 0.006065611
000040 0a ae b5 3d 39 5e 04 3f 37 01 8d be c8 f8 20 bf
       0.08871086 0.5170627 -0.2753999 -0.6287961
000050 1a 6c 0e 3f 61 72 2b 3e 82 30 b4 3e 85 f6 16 3f
       0.556337 0.16742851 0.3519326 0.5896991
000060 ca 0d 21 be 76 43 13 be fd dc 97 3e f9 0b 3c bf
       -0.15727916 -0.14381203 0.29660788 -0.7345577
000070 51 b1 67 3c 38 92 0c bf d3 e8 20 be 14 7b 3e bf
       0.014141397 -0.5491061 -0.15713815 -0.7440655
000080 f6 45 f6 3c 24 de 96 3e 10 41 08 bf fc 0c 02 be
       0.030062657 0.29466355 -0.5322428 -0.12700266
000090 17 69 5f 3d bc 52 76 be c8 a1 0f be a5 c0 76 be
       0.05454358 -0.24054998 -0.14026558 -0.24096926
0000a0 4b d1 e2 be a5 fe 20 3f 7f 19 14 3f ab bb 69 3f
       -0.44300303 0.62888557 0.57851404 0.91301984
0000b0 6b 90 7b bd bd c4 0e 3d 01 a5 7c be 16 88 bc 3b
       -0.061417025 0.034855593 -0.24672319 0.0057535274
0000c0 bd 57 f3 be 03 d4 18 3f 89 1f e4 be 71 4b dd 3e
       -0.47527876 0.59698504 -0.4455531 0.4322162
0000d0 6a 84 ca 3d 02 a3 e1 3d f7 88 80 bd 4a 96 e2 3e
       0.09888537 0.110174194 -0.06276124 0.44255286
0000e0 48 51 88 3e dc d4 90 3d bd e4 15 bf cc 66 18 bf
       0.26624513 0.0707185 -0.5855215 -0.59531856
0000f0 fb bf 21 3c ea ea 5e bb dc 69 53 3e 22 a6 2f 3e
       0.009872432 -0.0034014531 0.20645851 0.17153218
000100 19 66 81 be 93 13 c1 3f 64 46 ee 3e 4c f0 1f bf
       -0.25273207 1.5084099 0.4653808 -0.6247604
000110 e7 c1 4c 3f c2 13 2c be e4 08 a1 3e 33 2e f3 3e
       0.7998337 -0.16804412 0.31452096 0.47496185
000120 73 2a c4 bf 96 2b 90 3f 33 48 cb bd 11 83 40 bf
       -1.5325454 1.1263301 -0.0992588 -0.7519999
000130 54 e5 a8 be e6 58 a3 3e 5d 1d 69 bf 42 7e 8f 3d
       -0.32987463 0.31903762 -0.9106043 0.07006504
000140 05 fe e6 bd 5f 15 97 be dc 1f 1c 3f 61 4e f9 bd
       -0.11278919 -0.29508492 0.60986114 -0.12173153
000150 f5 99 ee 3e a6 09 22 3e 47 4b 2a 3c ce 90 74 be
       0.46601835 0.15823993 0.010393924 -0.23883364
000160 58 0d 10 3f e7 7b 20 bf 92 d5 0c 3e 7e 30 a1 3e
       0.5627036 -0.6268906 0.13753346 0.3148231
000170 1e 31 52 be 9d e5 6d 3c 67 ad 12 be f6 b8 0c 3d
       -0.20526549 0.014520076 -0.1432396 0.03435608
000180 92 50 0a 3c cc a5 8a 3f ea e8 a9 bf f6 9d 11 3d
       0.008442061 1.0831847 -1.3274205 0.035551034
000190 6f 30 80 3e 10 99 00 3d 03 bf 20 be ba 16 fd 3d
       0.25036952 0.03139597 -0.15697865 0.123578504
0001a0 fa 29 a8 3e d8 1e fb 3e 2c b6 b8 3c ae 2d 14 bf
       0.32844526 0.4904697 0.022547804 -0.578822
0001b0 e0 ea f7 3e 97 7d 6c bd 72 cb f4 be d9 8e ae 3d
       0.48421383 -0.05773696 -0.47811466 0.0852334
0001c0 14 3e 15 3e 41 10 a9 be 2f 2f c3 be 7a c9 91 3d
       0.14574462 -0.33020213 -0.38121936 0.07118507
0001d0 7d e5 8a be a6 68 ac 3e 01 dc 9b bf 9b 42 ae 3c
       -0.2712821 0.3367359 -1.2176515 0.021271994
0001e0 d0 59 28 be 25 14 10 bf e0 d1 d5 bd 53 08 1f 3f
       -0.16440511 -0.5628074 -0.10440421 0.62122077
0001f0 e5 5e 15 be 40 c5 81 be ec 52 57 be 1f c8 e5 be
       -0.1458698 -0.25345802 -0.21027726 -0.44879243
000200 5d 98 94 3f ad 74 b5 3e e3 9b cd 3c 09 8c 28 be
       1.1608998 0.3544058 0.025098747 -0.16459669
000210 73 2b 8b 3d f8 18 79 be 3f 94 03 bf a2 eb 05 3d
       0.06795397 -0.24325931 -0.5139808 0.03269542
000220 f9 be 30 bf cc 94 3d 3e 87 62 e8 3e f8 5f 4d bd
       -0.690414 0.18513793 0.4538767 -0.05014035
000230 3a 14 10 3f 88 c3 7b be 8c bd ee 3d 60 01 f2 bd
       0.56280863 -0.24586308 0.11657247 -0.118166685
000240 62 6b f7 be 78 ff 81 be e4 ad 0b 3f d4 ea 9b 3f
       -0.48324114 -0.2539022 0.5456221 1.2181039
000250 2b b1 08 be 64 ae 89 3e b9 6c 69 be 95 e8 47 bf
       -0.13348834 0.26890862 -0.2279538 -0.78089267
000260 5b a5 7e 3e 86 46 c6 3d 15 f4 a2 be e9 d9 10 3f
       0.24867766 0.0968142 -0.31826845 0.56582505
000270 c9 46 2f bf 1a f2 d4 3d a3 55 8a 3b e6 b2 2d be
       -0.68467385 0.1039774 0.0042216345 -0.16962776
000280 4f 53 ed 3e 5c 23 5e 3e 71 4d f3 3c 5f f3 34 bf
       0.46352622 0.21693176 0.029700013 -0.70683855
000290 7c 89 d5 3e 14 c2 75 3e 6e 6d d6 bc 11 d8 f2 3c
       0.41706455 0.23999816 -0.026175227 0.029644044
0002a0 01 99 23 3f 63 3f 87 3c 8a 85 73 3c 4f 91 40 3f
       0.6390534 0.016509717 0.014863381 0.75221723
0002b0 8a aa 2b bf 22 d8 b0 be d5 ea 8d bd 42 91 a8 3e
       -0.67057097 -0.34539896 -0.06929556 0.32923323
0002c0 13 75 87 bd a1 27 5e 3e e9 7e a8 be ef e2 12 bf
       -0.06614127 0.21694805 -0.32909325 -0.57377523
0002d0 15 b7 c7 be ad 89 a0 be ee 0e 44 be 6a 94 1a 3f
       -0.39006868 -0.31355038 -0.1914632 0.6038271
0002e0 d3 90 88 be 4f f9 75 3d 18 78 51 be d0 42 ed be
       -0.26672992 0.060052212 -0.20455968 -0.46340036
0002f0 97 0a 80 3f c9 74 3c 3f 2b f1 e6 3e f0 2f a7 be
       1.0003232 0.736157 0.45105872 -0.3265376
000300 41 49 80 3e 9e bd c9 3e b4 b7 13 bf 16 cf 12 3f
       0.25055888 0.3940248 -0.57702184 0.5734724
000310 83 36 28 3e 66 08 81 3e 97 38 1d bf 36 4e 97 bf
       0.16427045 0.2520172 -0.61414474 -1.1820743
000320 e9 3e ff be 1d ca e6 3e 27 8a d2 bd 8d 4b 4d be
       -0.49852684 0.45076075 -0.10280257 -0.20048352
000330 32 52 99 3e 86 68 4e be b8 49 8d 3e 36 23 01 3f
       0.29945523 -0.2015706 0.27595305 0.5044435
000340 18 d9 75 be a9 a8 64 3f 93 a8 98 be 58 20 84 bc
       -0.24008596 0.89319855 -0.29816112 -0.016128704
000350 7d d4 8d 3e 89 8a 95 be 77 39 08 3e 24 ee c5 3c
       0.27701178 -0.29207256 0.13303171 0.024161406
000360 92 41 99 3e a1 c2 9f 3e d5 2f 4b bf 46 57 10 3f
       0.2993284 0.31203178 -0.7936986 0.5638317
000370 5c f7 03 3f 03 93 8a 3e b3 f7 23 bf 0b 98 bb 3d
       0.51549315 0.27065286 -0.64049834 0.09159859
000380 91 da 04 3f 47 c4 03 bd f4 ec 61 bf 14 37 ea 3e
       0.51896006 -0.032169607 -0.88252187 0.45745146
000390 ef f5 c7 3d 57 d7 0e 3e 96 e8 5c 3e 64 16 f2 3e
       0.09763705 0.13949333 0.215731 0.47282708
0003a0 f7 68 10 3e 3f fd 5f be 8a bc 41 3e 07 2b 57 3e
       0.14102541 -0.2187395 0.18919578 0.21012507
0003b0 0f 9d d3 3e 78 54 22 bd ec a3 63 bf f7 20 91 be
       0.41330764 -0.039631337 -0.88922 -0.28345463
0003c0 5a d3 14 bd d2 32 f6 3d e1 2f 53 bf fe 88 0d 3f
       -0.036334373 0.12021412 -0.8249493 0.5528716
0003d0 5a e0 b0 3e ac 4f 83 3e ec f1 23 3f a6 32 65 be
       0.34546167 0.25646722 0.6404102 -0.22382602
0003e0 ff 01 e6 3b a9 06 37 3e 15 1b d9 be ce 6e 13 3f
       0.007019281 0.17873634 -0.42403474 0.5759095
0003f0 92 14 a8 3e 9d 3c 8b 3e 39 8f 90 3d c3 73 15 3f
       0.32828194 0.27194682 0.070585676 0.58379763
