result/ver7_2_6/last.pt (torch, 305982 bytes, 81 tensors)

Encoder.encoder_lstm.weight_ih_l0 f4 [128, 6]
0	0x3d9c24ff	0.07624244
1	0x3f221e8c	0.6332786
2	0xbf1ebed2	-0.6200992
3	0x3f32abff	0.69793695
4	0x3f37ba96	0.7176908
5	0x3f7ae3eb	0.98004025
6	0xbf3ac03a	-0.72949564
7	0x3fd3a585	1.6534888
8	0x3f24cb6e	0.6437291
9	0x3fed7460	1.855114
10	0x3feab53c	1.8336558
11	0x4019645f	2.3967512
12	0xbfeb5e61	-1.8388177
13	0xbfa28a34	-1.2698426
14	0xbfdd9531	-1.7311155
15	0xbf1ae0ed	-0.6049946
16	0x3e2c7cac	0.16844434
17	0xc067893e	-3.6177516
18	0x3fa92cb0	1.3216763
19	0x3f335b14	0.7006085
20	0x3f789edc	0.971174
21	0x40001f65	2.0019162
22	0x3febee1c	1.843204
23	0x3f84b84b	1.0368742
24	0x3fab31a6	1.3374527
25	0x3fd31490	1.649065
26	0xbf0b0c13	-0.543153
27	0x3fa3e107	1.2803048
28	0x3f3b816e	0.7324437
29	0xbe9b9c19	-0.3039253
30	0xbe213c7f	-0.15745734
31	0x3eee8c7c	0.46591556
32	0xbe5a9aed	-0.21348162
33	0xbf0aba12	-0.5419017
34	0xc0830cc6	-4.0953093
35	0xbe3defa3	-0.18548445
36	0xbee2fbc2	-0.443327
37	0xbf705902	-0.93885815
38	0xbf127acf	-0.5721864
39	0x3e7fda39	0.24985589
40	0xbe9558d9	-0.29169348
41	0x3c2dce0f	0.01060821
42	0x3eb69ecd	0.3566803
43	0x3f51c569	0.8194185
44	0x3fb34846	1.4006431
45	0xbf38ffcf	-0.7226533
46	0xbebb8b1b	-0.36629567
47	0x3ecb4fde	0.3970937
48	0xbfa3ab2c	-1.2786613
49	0xc008d53e	-2.1380153
50	0xbe05aa6b	-0.1305329
51	0xbefb3259	-0.4906185
52	0xbf2b90b8	-0.670177
53	0x3e68b3ab	0.22724788
54	0xbd9f1a81	-0.07768727
55	0x3f991530	1.1959591
56	0x3eeef101	0.46668246
57	0x39b9916e	0.00035394303
58	0x3eef768d	0.46770135
59	0x3f17bc7a	0.5927197
60	0xbdffa692	-0.12482943
61	0xbe5207b5	-0.20510752
62	0xbfbf7cde	-1.4959981
63	0xbf788ee7	-0.9709305
64	0xbea897c0	-0.32928276
65	0xbf51127c	-0.8166883
66	0x3db502e0	0.08838439
67	0x3eaef2ff	0.34169766
68	0xbd25d22f	-0.04048365
69	0x3f545b4b	0.829518
70	0x3ffa1dce	1.9540346
71	0x3c0ef05b	0.008724297
72	0xbfe4c2a2	-1.7871897
73	0xbdb84b6d	-0.08998761
74	0xbdbe030c	-0.09277925
75	0x3f446574	0.76717305
76	0x3e3140a7	0.17309819
77	0xbf958c11	-1.168337
78	0xbe361535	-0.17781527
79	0x3f573087	0.8405842
80	0xbd58bb2f	-0.052912887
81	0x3e141fc1	0.14465238
82	0xbc934aa0	-0.01797992
83	0x3e36ceca	0.17852321
84	0x3efefa9e	0.4980058
85	0x3ee20646	0.4414541
86	0x3ef5d8b0	0.48016882
87	0xbf9852ee	-1.1900308
88	0xbc86212b	-0.016373238
89	0x3edc84e1	0.4307013
90	0x3ed45be7	0.41476366
91	0x3f8e2a73	1.1106704
92	0x402a3faf	2.660137
93	0x3fb856f7	1.440154
94	0x3f9a9293	1.2075981
95	0x3f46ff03	0.77732867
96	0xbfa078ea	-1.25369
97	0xbfce4a30	-1.611639
98	0xbfa2af12	-1.2709677
99	0x3f042335	0.5161622
100	0xbe0d96b3	-0.13827018
101	0xbf8d9f25	-1.1064192
102	0xc0507544	-3.2571573
103	0xc0261839	-2.5952284
104	0xc00b49e5	-2.1763852
105	0x3f33422a	0.70022833
106	0x3e8774c6	0.2645628
107	0xbfbe45bd	-1.4865032
108	0xbf74b340	-0.95586014
109	0xbf99d170	-1.201704
110	0xbdbb1895	-0.09135548
111	0xbfc31062	-1.5239375
112	0xbfd28f80	-1.6450043
113	0xbf2da7ed	-0.6783436
114	0xbd968386	-0.07349305
115	0xbfb4df74	-1.4130692
116	0xbf960429	-1.172002
117	0xbef6fb62	-0.48238665
118	0xbf92fafb	-1.1482843
119	0xbffde72f	-1.9836177
120	0xbe2c8fa8	-0.16851676
121	0x3e2fbc26	0.17161617
122	0x3db7ded3	0.08978047
123	0x3f2dc3ae	0.6787671
124	0x3d753b1f	0.059870835
125	0x3ec0f335	0.37685552
126	0x3f315a24	0.6927817
127	0xbfacc8d4	-1.3498788
128	0x3f798d71	0.9748145
129	0xbe6382c7	-0.22217856
130	0x3e5401c3	0.20703797
131	0x3e88bd4e	0.26706928
132	0xbfea62d0	-1.8311405
133	0xbee819a8	-0.45332074
134	0xc04eea1b	-3.2330387
135	0xc00ee1df	-2.232536
136	0xbfb8e3a9	-1.4444476
137	0x3e32235c	0.17396301
138	0xbf980aa1	-1.1878244
139	0xbf45eda2	-0.77315724
140	0xbf251c4d	-0.6449631
141	0xbf7f85bd	-0.99813443
142	0xbf3fd932	-0.7494079
143	0xc039adcc	-2.9012327
144	0x3ed2debd	0.4118556
145	0xbf40dc27	-0.75335926
146	0x3f204388	0.62603045
147	0x3fc00f64	1.5004697
148	0x3f905d8a	1.1278546
149	0xbf051404	-0.51983666
150	0xbeb242f8	-0.34816718
151	0xbfa3cbe1	-1.2796594
152	0x3e8a9e51	0.2707391
153	0xbff4bf2b	-1.912084
154	0xc001b896	-2.0268912
155	0xbf1edfed	-0.62060434
156	0x3f3c9bec	0.7367542
157	0x3fb9ff2e	1.4531
158	0xbea1afc3	-0.31579408
159	0x3f0540e6	0.5205215
160	0x3e7f72c9	0.24946131
161	0x3f2bc997	0.67104477
162	0x3eb1735a	0.3465832
163	0x3cdacc03	0.026708608
164	0x3e9a29d6	0.30110043
165	0xbfa520b9	-1.2900611
166	0xbfd563bb	-1.667106
167	0xbf55295e	-0.83266246
168	0x3dd2f841	0.10301257
169	0xbf0d5e62	-0.5522214
170	0xbf01a7b6	-0.5064653
171	0xbf5ccb98	-0.8624816
172	0xbd5f7747	-0.05455711
173	0x3ed91234	0.423967
174	0xbca1cb4c	-0.01975026
175	0x3f46ae1e	0.7760943
176	0x3f896575	1.0734087
177	0xbe437eea	-0.19091383
178	0xbf4ec48d	-0.8076866
179	0x3f3e809d	0.74415
180	0x3f58d45f	0.8469905
181	0x3f72d6a4	0.94858766
182	0x3f47d93f	0.78065866
183	0xbfa9a90b	-1.3254713
184	0xbf9a5404	-1.205689
185	0x3fe234c2	1.767235
186	0x3e250228	0.16114104
187	0xbe9dc78f	-0.30816314
188	0xbe60b0d4	-0.21942455
189	0x3f5106b8	0.81650877
190	0x3d7a30e1	0.06108177
191	0xbee58b02	-0.44832617
192	0xbfc3b2c9	-1.5288936
193	0x3eaed1c1	0.34144405
194	0xbfbd8145	-1.4805075
195	0xbe4d5fba	-0.20056048
196	0xbcff14e5	-0.031137893
197	0xbfa8f224	-1.3198895
198	0xbf2981fd	-0.6621397
199	0xbf4fb4bd	-0.8113516
200	0xbf591289	-0.8479391
201	0x3f1bd8d5	0.60877734
202	0xbcae1700	-0.021251202
203	0xbfbfcfff	-1.498535
204	0x3ec225d5	0.3791949
205	0x3f58f9d8	0.8475623
206	0xbec9ce78	-0.39415336
207	0xc0027d0a	-2.0388818
208	0xbfde9aef	-1.7391032
209	0x3fc940a0	1.5722847
210	0xc0b6621c	-5.6994762
211	0x3d4bf5ae	0.049794845
212	0xc02c400a	-2.6914086
213	0xbf73c7f3	-0.95226973
214	0xbd9a97f2	-0.075485125
215	0x3e69aeae	0.22820541
216	0xbfac991e	-1.3484228
217	0xc03d7eb9	-2.9608595
218	0xbf968449	-1.175912
219	0x3f93159e	1.1490972
220	0xbc16ecd9	-0.009211742
221	0xc03faad2	-2.994801
222	0xbfa2103f	-1.2661208
223	0x3efaf160	0.4901228
224	0x3edcf0bc	0.43152416
225	0x3d18f804	0.0373459
226	0x3efdf4bd	0.49600783
227	0x3eaa20bd	0.33228102
228	0x3e6d19a7	0.23154317
229	0xbebf50e6	-0.37366408
230	0xbf3497d3	-0.70544165
231	0xbf511896	-0.8167814
232	0x3e9d2696	0.306935
233	0xbfad8523	-1.3556255
234	0xbf0a4a17	-0.540193
235	0xbe429f9b	-0.19006197
236	0x3e9ac0e7	0.30225298
237	0xbef75fa2	-0.4831515
238	0xbf116e70	-0.5680914
239	0x3f26596a	0.64980185
240	0x3fa1124c	1.2583709
241	0x3fab5625	1.3385664
242	0x4036f20d	2.8585236
243	0x4006aaa1	2.1041644
244	0x4023a971	2.557217
245	0x3f79235d	0.97319585
246	0xbff9ba12	-1.9509909
247	0xbe2b5519	-0.16731681
248	0xbfeaf8a2	-1.8357127
249	0x3fbea782	1.4894869
250	0x3ff4d7a1	1.9128305
251	0xbf28b185	-0.65895873
252	0xc028a44b	-2.6350276
253	0xc014561e	-2.3177562
254	0xc02cfcf0	-2.702938
255	0x3e21d4c9	0.15803827

Encoder.encoder_lstm.weight_hh_l0 f4 [128, 32]
0	0x3fe0b1cd	1.755426
1	0x405af324	3.4210901
2	0xbfb7ce5d	-1.4359852
3	0x3f0825de	0.5318278
4	0x3f9372ab	1.1519369
5	0xc06b52ab	-3.6769207
6	0xbf9ce878	-1.2258444
7	0xbfbbeb6b	-1.4681219
8	0x3f988439	1.1915351
9	0xc0354cf9	-2.832823
10	0x3f42da65	0.76114494
11	0xc00e0aa7	-2.2194002
12	0xbf67c7e2	-0.9053937
13	0x3fbb86cb	1.465051
14	0xbf932756	-1.1496379
15	0x3fc7f47c	1.5621486
16	0x404fb8fd	3.2456658
17	0x3f8cf56a	1.1012394
18	0x404907a5	3.1410916
19	0x40071578	2.1106853
20	0xbffd645e	-1.9796255
21	0x3f86e1cf	1.0537661
22	0x3e9b4c25	0.3033153
23	0x3f80d30b	1.0064405
24	0xbf5590fb	-0.8342435
25	0xc0051b63	-2.0797966
26	0x3dc691ff	0.09695815
27	0xbfa7c0a1	-1.3105661
28	0xc03a7ca7	-2.9138582
29	0xbf7a875f	-0.9786281
30	0xc0175b6b	-2.3649547
31	0x3fbe3ada	1.486171
32	0x4012f264	2.2960443
33	0xbfc60083	-1.5468906
34	0x40211c47	2.517351
35	0x3f86e00e	1.0537126
36	0xc012f4f6	-2.2962012
37	0xbeacdf9d	-0.33764353
38	0x403307c8	2.79735
39	0x3fa3ac34	1.2786927
40	0x3f2c0e4c	0.67209315
41	0xbf169071	-0.5881415
42	0xbefe07ec	-0.4961542
43	0x3fe21924	1.7663922
44	0xbebec31f	-0.3725824
45	0x3f7060fe	0.93898
46	0xc0036aa4	-2.0533838
47	0xc05f89bf	-3.4927824
48	0xc02854f1	-2.6301844
49	0x3ebe975e	0.3722486
50	0x4046d02a	3.1064553
51	0xc0b3a00c	-5.613287
52	0xbf2594df	-0.64680284
53	0x3fded4c1	1.7408677
54	0xbf1b802f	-0.6074247
55	0xc08b7374	-4.3578434
56	0x405dcabb	3.4654987
57	0x404e8064	3.2265863
58	0x3f063591	0.52425486
59	0x401f99d0	2.493763
60	0x3f1fb7c0	0.62389755
61	0xbfb37129	-1.4018909
62	0xc00f927b	-2.2433155
63	0x3fafab22	1.37241
64	0xbf5decbc	-0.86689353
65	0xbf0ecebb	-0.55784196
66	0xc05f947e	-3.4934382
67	0x3fcb00fb	1.5859674
68	0x40264e1f	2.5985181
69	0xc03df29a	-2.9679322
70	0xc03a91c5	-2.915147
71	0xbeecc0f2	-0.46240956
72	0xbfd1f795	-1.6403681
73	0x3fb7b4d7	1.4352063
74	0x3c4da67a	0.012551898
75	0xbf1084e4	-0.56452775
76	0xc0392f39	-2.8935072
77	0xbf84b218	-1.036685
78	0xbe844b62	-0.25838763
79	0x3f25bab8	0.64738035
80	0x3fec769c	1.8473697
81	0x3ea770de	0.32703298
82	0x4007fa85	2.1246655
83	0xc016365e	-2.3470683
84	0x408b6b11	4.3568196
85	0x3f839af6	1.0281665
86	0xbff98c91	-1.9496022
87	0x402b5756	2.6772056
88	0xbf9e63cd	-1.2374207
89	0xc012fb1d	-2.2965767
90	0x4014f97a	2.3277268
91	0x4081df16	4.058482
92	0xbf682716	-0.9068464
93	0x3f903788	1.1266947
94	0xbf74a2b5	-0.9556077
95	0x3f719352	0.9436542
96	0xbeb17830	-0.34662008
97	0x3f410489	0.75397545
98	0x3f936315	1.1514612
99	0x3fd72169	1.6807071
100	0x3e633943	0.22189812
101	0x3e00ed89	0.12590612
102	0xbfa5296b	-1.2903265
103	0xbf7b12f7	-0.98075813
104	0x3e70d978	0.23520458
105	0xc06f2f2f	-3.7372549
106	0xbf966017	-1.1748074
107	0x400f8cdc	2.2429724
108	0xbfb19c29	-1.3875781
109	0x3eb5d9ea	0.35517818
110	0x3fbe1973	1.4851516
111	0x4004da62	2.075829
112	0x400cd440	2.2004547
113	0x3f29e416	0.66363657
114	0x3ff80f96	1.9379756
115	0xc0291f18	-2.6425228
116	0xc03682c3	-2.851731
117	0x40672ec6	3.6122298
118	0xbf812ca4	-1.0091748
119	0xbfb73ae6	-1.4314849
120	0xc048fca9	-3.1404212
121	0xc06b4645	-3.676164
122	0x3d23fc0c	0.040035293
123	0x3f97c1c4	1.1856008
124	0xbf1eb87e	-0.6200026
125	0x409dd73d	4.932524
126	0xbfee0479	-1.8595115
127	0x3fda61b6	1.7061069
128	0x3fc4938e	1.535753
129	0x3f74df86	0.9565357
130	0x3f0458c6	0.5169796
131	0x400739f7	2.112913
132	0xbf941f95	-1.1572138
133	0x3fe813b7	1.8131016
134	0x3f3fd885	0.7493976
135	0x3fe8c962	1.8186457
136	0x3f8aa01f	1.0830115
137	0xc0940df5	-4.6267037
138	0x3f760403	0.9609987
139	0x40421919	3.0327818
140	0x3fb3a2d9	1.4034072
141	0xc096de56	-4.7146406
142	0xbfd22b85	-1.6419531
143	0x3d3b6b86	0.04575684
144	0xbea38dab	-0.31944022
145	0x3f2a85a9	0.666102
146	0x3f939247	1.1529015
147	0xc01b7d28	-2.429514
148	0xbe1080ed	-0.14111681
149	0xbf97066c	-1.1798835
150	0xc0f76838	-7.731472
151	0x402d8bf4	2.711667
152	0xbffae19a	-1.9600098
153	0x401f228c	2.4864836
154	0xbfda1d8c	-1.7040267
155	0x404f23b3	3.236554
156	0xbf21dfb6	-0.6323198
157	0x3fbc254c	1.4698882
158	0x3fa5571a	1.2917206
159	0x3fc60bf7	1.5472401
160	0x401b678b	2.4281948
161	0x400c363d	2.1908104
162	0xbfae4fe3	-1.361813
163	0x3febcdfc	1.8422236
164	0x3ff3a4f2	1.9034712
165	0xc011cdeb	-2.2781932
166	0xbfe549f7	-1.7913197
167	0xbfdb4969	-1.7131778
168	0x3fdf0c7a	1.7425683
169	0xbf97082e	-1.1799371
170	0x3e567f40	0.2094698
171	0x3fa29526	1.2701766
172	0xbf4811a1	-0.781519
173	0xbfc1cdc1	-1.5140916
174	0xbfdf9681	-1.7467805
175	0xbffab881	-1.9587556
176	0x3fe60afd	1.7972103
177	0xc00ec29d	-2.2306283
178	0xbe2e23a9	-0.17005791
179	0xbff129f3	-1.8840927
180	0xbf6aabc4	-0.91668344
181	0x4028e579	2.639006
182	0x3f6840f4	0.9072411
183	0x4015ad1b	2.3386905
184	0x3efd3732	0.49456173
185	0xbeef75d5	-0.46769586
186	0xbf214aa6	-0.6300453
187	0x3f675cdf	0.90376085
188	0xbf96e56b	-1.1788763
189	0x3f3962b5	0.7241624
190	0x3f6456c9	0.89194924
191	0x3f945b20	1.1590309
192	0xc00e5b31	-2.224316
193	0xc01312bd	-2.2980187
194	0x3f87c260	1.0606194
195	0xc080986d	-4.0186067
196	0xc07e413a	-3.972731
197	0xbfcc0925	-1.5940291
198	0xbeb810a3	-0.35950193
199	0x4007168c	2.1107512
200	0x3e80f8ad	0.25189725
201	0x3ea03e7c	0.31297672
202	0x402c6a9b	2.6940067
203	0x3fe78eed	1.8090492
204	0xc029b7e1	-2.651848
205	0xc0638704	-3.5551157
206	0xc0b9f392	-5.8109827
207	0x40309fe1	2.7597582
208	0x400a2a76	2.1588416
209	0x4049c3b9	3.152571
210	0xbe595902	-0.2122536
211	0xbff4426a	-1.9082768
212	0xc004b862	-2.0737538
213	0x3e94a6c4	0.29033482
214	0x40932cdd	4.5992265
215	0x3fd0c886	1.6311195
216	0x4002c3b3	2.0431945
217	0xbfcde22c	-1.6084647
218	0xbfbaae18	-1.4584379
219	0x3fb25fb7	1.393546
220	0xbdeaeb4a	-0.11470659
221	0xbfed2979	-1.8528281
222	0xbe8f46d4	-0.27983725
223	0xbf95b99e	-1.1697271
224	0x407fd174	3.997159
225	0x402ad84b	2.6694515
226	0x4049c52b	3.1526592
227	0x4014d484	2.325471
228	0xbf866266	-1.0498779
229	0x3f2358ff	0.6380767
230	0xbfbd9012	-1.4809592
231	0xbffdda27	-1.98322
232	0x3f216b4d	0.63054353
233	0xbd671ccb	-0.056423943
234	0xbf8a6c12	-1.081423
235	0xbf9597d0	-1.1686954
236	0x3fb9fffd	1.4531246
237	0xbe3f5772	-0.18685701
238	0x3f83e1fb	1.0303339
239	0xbf90a0f8	-1.1299124
240	0x408ca95d	4.395674
241	0xc0072ecb	-2.112231
242	0x3ee667e6	0.45001143
243	0x3fe6ca71	1.803053
244	0xbfce8d43	-1.613686
245	0xbe8ac01b	-0.2709969
246	0xc05ee874	-3.4829378
247	0xc03cc378	-2.9494305
248	0xbe30b045	-0.17254741
249	0x402ef315	2.7335865
250	0x3f16c4b3	0.5889389
251	0xc032e653	-2.7953079
252	0xbeb66f16	-0.35631627
253	0x3e6b7e3d	0.22997375
254	0x3fa73495	1.3062922
255	0xbf48c03e	-0.7841834

Encoder.encoder_lstm.bias_ih_l0 f4 [128]
0	0xbf9950c1	-1.1977769
1	0xc0040244	-2.0626383
2	0xbf68b7a4	-0.90905213
3	0xc00cf895	-2.2026722
4	0x3f3d01e7	0.7383103
5	0x3e8dfbaa	0.27731067
6	0xbe60d609	-0.21956648
7	0xbf43c2ff	-0.76469415
8	0xbfcf1a99	-1.6179992
9	0xbf6b3577	-0.91878456
10	0x3dcbba87	0.09947687
11	0xbdd413cf	-0.10355341
12	0xbea448be	-0.32086748
13	0x3f9870fa	1.1909478
14	0xbf94bfd1	-1.1621038
15	0xbf6e9556	-0.9319662
16	0xbef18eb8	-0.47179198
17	0xbfed2139	-1.8525764
18	0x3a12b239	0.0005596015
19	0x3e4ff7af	0.20309328
20	0x3eb6c81e	0.35699552
21	0xbea7d079	-0.3277624
22	0xbf962cbe	-1.1732404
23	0xbee06687	-0.43828222
24	0xbeffd563	-0.4996749
25	0xbf0d1c00	-0.5512085
26	0xbfd28254	-1.6446023
27	0xbf96cbeb	-1.1780981
28	0x3de723dd	0.11286137
29	0xbfad06f1	-1.3517743
30	0xc01ba3cf	-2.431873
31	0xbe761c3e	-0.24034211
32	0x3f0f6f86	0.56029546
33	0xc02fb2b4	-2.7452822
34	0xbf8c1049	-1.094247
35	0xbd5f0c18	-0.054454893
36	0xc017023f	-2.359512
37	0xc0002762	-2.0024037
38	0x3e30fc47	0.17283736
39	0xbe5113a3	-0.20417647
40	0xbf93a16b	-1.1533636
41	0xbf138f19	-0.57640225
42	0x3f9033fd	1.1265866
43	0xc03a2ef2	-2.9091153
44	0xc00e708a	-2.2256188
45	0xbec9071f	-0.39263245
46	0xbfbfc9a1	-1.4983407
47	0xc021bfe6	-2.5273376
48	0x3d57e9ed	0.052713323
49	0xbfd1f929	-1.6404163
50	0x3e7ee5bc	0.24892324
51	0xc0066e4d	-2.1004822
52	0xbf77a96f	-0.9674291
53	0xbea0a008	-0.31372094
54	0xc0821240	-4.064728
55	0xbfd6d4cc	-1.678369
56	0xbfa24761	-1.2678033
57	0xbfb1de52	-1.3895972
58	0x3f221ed3	0.63328284
59	0xc0146668	-2.3187504
60	0xbfe7cde4	-1.8109708
61	0x3f483540	0.78206253
62	0xbfc2c466	-1.5216186
63	0xbf668c0a	-0.9005743
64	0x3e4f5871	0.20248581
65	0xbf47e880	-0.7808914
66	0xbf59a479	-0.8501659
67	0xbf2c90f3	-0.67408675
68	0xbe6481e6	-0.22315177
69	0x3ef8339e	0.4847688
70	0x3d38b106	0.045090698
71	0x3e6717e8	0.22567713
72	0xbfc03729	-1.5016834
73	0x3f2e8475	0.68170863
74	0xbfd9dbc3	-1.7020191
75	0xbeaa6ec3	-0.3328763
76	0xbeab77fd	-0.3348998
77	0xbe6151f7	-0.22003923
78	0xbfb8cd03	-1.4437565
79	0xbe698b17	-0.22806965
80	0xbef4426d	-0.4770693
81	0xbe711353	-0.23542528
82	0x3f0821b1	0.5317641
83	0xbedec3df	-0.43508813
84	0x3f8f6759	1.1203414
85	0xbf23e0c5	-0.64014846
86	0xbe9adf6c	-0.30248582
87	0xbf05d2b3	-0.52274626
88	0xbef63081	-0.4808388
89	0xbf62802f	-0.8847684
90	0xbf1672b3	-0.5876877
91	0xbebd4339	-0.3696535
92	0xbe108cb0	-0.14116168
93	0x3f2e86d5	0.6817449
94	0xbf0789b8	-0.5294452
95	0x3ef111c4	0.47083867
96	0xbfa5ccc7	-1.2953118
97	0xc00c7780	-2.1947937
98	0xbf9a71f3	-1.2066025
99	0xc00cff33	-2.2030761
100	0xbf9a6283	-1.2061313
101	0xbf827154	-1.0190835
102	0xbffe5a74	-1.9871354
103	0xbf7da816	-0.99084604
104	0xc0298b6e	-2.649135
105	0xbfec738f	-1.8472766
106	0xbfc0dac3	-1.5066761
107	0xbf9051a0	-1.127491
108	0xbfcc1d12	-1.5946372
109	0x3e08e838	0.13369834
110	0xc00cb7b7	-2.198713
111	0xc03d1e22	-2.9549642
112	0xbfcc4240	-1.5957718
113	0xc031d443	-2.7785804
114	0xc02e331f	-2.7218702
115	0xbfb52d2a	-1.4154408
116	0xbf866b2e	-1.0501459
117	0xc04fff96	-3.2499747
118	0xc05d8e5d	-3.4618142
119	0xbf8fc718	-1.1232634
120	0xc06350e1	-3.5518115
121	0xbfed7f7c	-1.855453
122	0xbfce36f2	-1.6110518
123	0xbfb9b64d	-1.4508759
124	0xbfcc1fb7	-1.5947179
125	0xbfdd4eac	-1.7289634
126	0xc06b1054	-3.6728716
127	0xbeb73210	-0.35780382

Encoder.encoder_lstm.bias_hh_l0 f4 [128]
0	0xbf6d573e	-0.92711246
1	0xc006f0b7	-2.108442
2	0xbf4b89e1	-0.7950726
3	0xc00fbbfd	-2.245849
4	0x3f2c8e2d	0.67404443
5	0x3eaa3823	0.33245954
6	0xbe988af9	-0.29793528
7	0xbf2b5f16	-0.66941965
8	0xbfbaa8fa	-1.4582818
9	0xbf960df2	-1.1723006
10	0x3d8e24c9	0.0694061
11	0xbdd4480f	-0.103653066
12	0x3c74a0c0	0.014930904
13	0x3f9a66a0	1.2062569
14	0xbfb6c118	-1.4277678
15	0xbf9129e1	-1.1340905
16	0xbe5a5d64	-0.21324688
17	0xbfdaf2bf	-1.710533
18	0xbe2a95fa	-0.16658774
19	0x3e5693dc	0.20954841
20	0x3dd63a2d	0.10460315
21	0xbee1b3a3	-0.44082364
22	0xbf970375	-1.179793
23	0xbeed53f3	-0.4635311
24	0xbf1908bb	-0.59778947
25	0xbee0c77d	-0.43902197
26	0xbfd0d6fa	-1.6315606
27	0xbf923b07	-1.1424264
28	0xbe014f84	-0.12627989
29	0xbfb69261	-1.4263421
30	0xc0203281	-2.5030825
31	0xbec98338	-0.39357924
32	0x3f335f54	0.70067334
33	0xc0364bbf	-2.8483732
34	0xbf61f759	-0.8826805
35	0xbea6821d	-0.32521144
36	0xc01ba2f3	-2.4318206
37	0xbfdaf7ce	-1.7106874
38	0x3ec18804	0.37799084
39	0xbd9eb315	-0.07749001
40	0xbf7d7dea	-0.99020255
41	0xbf4ae5e5	-0.7925704
42	0x3fb26592	1.3937247
43	0xc027e236	-2.6231818
44	0xc0109b21	-2.2594683
45	0xbf0540e9	-0.5205217
46	0xbfe20ba4	-1.7659802
47	0xc02330a8	-2.5498447
48	0xbe07c71b	-0.13259546
49	0xbfde3ec0	-1.73629
50	0x3e60ee8e	0.21966001
51	0xc0159e67	-2.337793
52	0xbf6e0d7b	-0.9298932
53	0xbea9c6de	-0.33159536
54	0xc080afe4	-4.021471
55	0xbfce0007	-1.6093758
56	0xbfb196c9	-1.3874141
57	0xbfa97b5c	-1.3240771
58	0x3ef5fbac	0.48043573
59	0xc00e1e9d	-2.2206185
60	0xbfd1c111	-1.6387044
61	0x3f1b8388	0.60747576
62	0xbfdf06a3	-1.74239
63	0xbf23b66c	-0.6395023
64	0x3e8ff7d2	0.2811876
65	0xbf8513fb	-1.0396723
66	0xbf45278d	-0.77013475
67	0xbf24c591	-0.6436396
68	0xbd77357e	-0.06035375
69	0x3e6b259d	0.22963567
70	0xbe5d5332	-0.21613768
71	0x3d5b036d	0.053470064
72	0xbfc390e4	-1.5278592
73	0x3f372201	0.7153626
74	0xbfae20ce	-1.3603761
75	0xbe79fcba	-0.24412814
76	0xbee1402d	-0.43994275
77	0x3daa33a0	0.08310628
78	0xbfce8c44	-1.6136556
79	0x3d59ae5f	0.05314481
80	0xbea8e88e	-0.32989925
81	0xbe847e42	-0.25877577
82	0x3ec9e5aa	0.39433032
83	0xbf07a3e1	-0.52984434
84	0x3f87710b	1.0581373
85	0xbef0de89	-0.4704478
86	0xbeb357b1	-0.3502784
87	0xbf2d296a	-0.6764132
88	0xbe811c88	-0.2521708
89	0xbf5c6f3e	-0.8610724
90	0xbea0feab	-0.31444296
91	0xbea7fde9	-0.32810906
92	0xbed8e704	-0.4236375
93	0x3f743323	0.9539053
94	0xbf2213be	-0.63311374
95	0x3e22e1de	0.15906474
96	0xbfbdda02	-1.4832156
97	0xc00268d9	-2.0376494
98	0xbfa94a94	-1.3225884
99	0xc017dbef	-2.3727987
100	0xbfa47aed	-1.2850014
101	0xbf9950bd	-1.1977764
102	0xbffeef00	-1.9916687
103	0xbfa1cfc2	-1.2641528
104	0xc02e1f17	-2.7206476
105	0xbff805e5	-1.9376799
106	0xbfd5e920	-1.6711769
107	0xbf863363	-1.0484432
108	0xbfc9d3f6	-1.576781
109	0x3ea009f3	0.3125759
110	0xc0089f6c	-2.1347303
111	0xc047a61c	-3.1195135
112	0xbfdcf7e9	-1.7263156
113	0xc02c4e90	-2.692295
114	0xc032c36f	-2.7931783
115	0xbfb9c69b	-1.4513735
116	0xbf8eb289	-1.1148235
117	0xc04fae49	-3.2450125
118	0xc063906a	-3.5556893
119	0xbf7867f7	-0.9703364
120	0xc06111cf	-3.516712
121	0xbfe25354	-1.768168
122	0xbfc10f04	-1.5082707
123	0xbfab2ef8	-1.3373709
124	0xbfc03d5e	-1.5018728
125	0xbfc487ac	-1.5353904
126	0xc063e6d8	-3.5609646
127	0xbf051d69	-0.51998

Encoder.encoder_attn.0.weight f4 [20, 84]
0	0x3fe3eaaa	1.7805989
1	0xc030aef4	-2.7606783
2	0xbed36e6e	-0.4129519
3	0xc00f09e1	-2.234978
4	0xbf284b01	-0.65739447
5	0xbfbbfb15	-1.4685999
6	0xbfca09fe	-1.5784299
7	0x3f396191	0.724145
8	0x3e27fff3	0.1640623
9	0xbf62542d	-0.8840969
10	0xbeea5c87	-0.45773718
11	0xbe7a1fc4	-0.2442618
12	0x40735bfe	3.8024898
13	0x3f0c2f9e	0.5476016
14	0x406fd4e1	3.747368
15	0x4034bbab	2.8239543
16	0xc02e1193	-2.7198226
17	0xc08551f8	-4.166256
18	0xc03fdfe9	-2.9980414
19	0x3f8480d9	1.0351821
20	0x3f1fa764	0.6236479
21	0xbf50aace	-0.8151063
22	0xc06355ce	-3.552112
23	0xc0297f0b	-2.648379
24	0x3ecbb637	0.39787456
25	0x3da05ecf	0.07830583
26	0xc088335d	-4.25627
27	0xbf8bbe12	-1.091738
28	0x4001078c	2.0160856
29	0x3fc45e9b	1.5341371
30	0xbdb60bf3	-0.08888998
31	0xc0036a0f	-2.0533483
32	0xbf4005d0	-0.7500887
33	0xc0b8bd20	-5.7730865
34	0x3f94fe9d	1.1640202
35	0x3f64ca6e	0.89371383
36	0xc090631d	-4.512099
37	0x3f8e160f	1.1100482
38	0x3fe3f14e	1.7808015
39	0xbedd70b3	-0.43250045
40	0xbfbc8c23	-1.4730266
41	0x40821fd4	4.0663853
42	0xbfa468d9	-1.2844497
43	0x3f1a69e3	0.6031782
44	0x400b3cff	2.175598
45	0xbf4e4ca9	-0.80585724
46	0x3fece2c6	1.8506706
47	0x3ff7bcc8	1.9354486
48	0x3f0407fa	0.5157467
49	0xc06f86dd	-3.7426064
50	0xbed93125	-0.42420307
51	0xc01aef2f	-2.4208486
52	0x3f64f9f8	0.8944392
53	0xbf09a0a1	-0.53760725
54	0xc0452625	-3.0804532
55	0x3e72d28e	0.23713133
56	0xbeabbdf8	-0.33543372
57	0x40482673	3.1273468
58	0xc00cfe72	-2.20303
59	0x3f82a72d	1.0207268
60	0x3e8288ae	0.25494903
61	0xbf1ea89b	-0.6197602
62	0xbfb49f44	-1.4111104
63	0xbe4f67ca	-0.20254436
64	0xbf0c59b6	-0.5482439
65	0x3f70f910	0.9413004
66	0xc002eac5	-2.0455792
67	0x3edf95f3	0.4366909
68	0xbdcb2bda	-0.099204734
69	0xbf3f3837	-0.7469515
70	0xbf60e035	-0.8784211
71	0xbf55d7fa	-0.8353268
72	0xbe578403	-0.21046452
73	0x3eadc08c	0.33935964
74	0xbf81f33a	-1.0152352
75	0xbffc298b	-1.9700178
76	0xbe4c3255	-0.19941075
77	0xbf908ca2	-1.1292918
78	0x3ea1ecf6	0.316261
79	0x3f835184	1.0259252
80	0x3ea0d182	0.31409842
81	0xbf3ab17c	-0.7292707
82	0xbc0eaca2	-0.008708151
83	0x3d1b9c4b	0.03799085
84	0xbfb9b787	-1.4509133
85	0x3f9563c7	1.1671075
86	0xbfec9f6f	-1.8486155
87	0xbf87365e	-1.0563467
88	0x407274a9	3.7883704
89	0xbf8dfb91	-1.1092397
90	0xbeacd399	-0.33755186
91	0x3f1fe3e8	0.6245713
92	0xbe78ced4	-0.24297649
93	0xbfa40f3f	-1.2817153
94	0xbe942daa	-0.2894109
95	0xbef4bce0	-0.4780035
96	0x3fa7c906	1.3108222
97	0x3eb34515	0.35013643
98	0xbf263b67	-0.6493439
99	0x3f757953	0.9588825
100	0xbfefbd4d	-1.8729645
101	0xc02322f6	-2.5490088
102	0xc0016cf5	-2.0222752
103	0x404f08d2	3.2349133
104	0x40107560	2.257164
105	0xbf500cbf	-0.8126945
106	0xbfd12ecc	-1.6342406
107	0x40601a1a	3.501593
108	0xc04b838a	-3.1799035
109	0x3e9420a4	0.28931153
110	0x403d765e	2.9603496
111	0xbf72d2ae	-0.9485272
112	0x3fb3509a	1.4008973
113	0xc0ac5a06	-5.385989
114	0xbf96dd8e	-1.1786363
115	0x40579698	3.3685665
116	0x3f8477b7	1.0349034
117	0x4045286f	3.0805929
118	0xbfec8881	-1.8479158
119	0x3fdecb1e	1.7405736
120	0x3edc79a5	0.43061557
121	0xbfc8f58d	-1.5699936
122	0xbf8a3366	-1.0796936
123	0xc0767686	-3.850984
124	0xbf50c2d7	-0.815473
125	0xc00f6cb7	-2.2410104
126	0x3fc42d46	1.5326316
127	0xbf9fcd32	-1.2484496
128	0x4004cb96	2.074926
129	0x3f93b6e9	1.1540195
130	0xbf454387	-0.77056164
131	0xc0a3f53e	-5.123687
132	0xbe2b2ceb	-0.16716354
133	0x3f7b638e	0.98198783
134	0x3f718593	0.94344443
135	0x3f7454f7	0.95442146
136	0x3f012c4a	0.50458205
137	0xbe99cab2	-0.30037457
138	0xbf0f5ac4	-0.5599787
139	0x3f4953d4	0.78643537
140	0xbf88562f	-1.0651301
141	0xbf4d145a	-0.8010918
142	0x3fee0b22	1.8597147
143	0xbf7d62f4	-0.98979115
144	0x3ed46234	0.41481173
145	0xbe6d9e14	-0.23204833
146	0xbf8e0ccd	-1.1097656
147	0x401e76e7	2.4760072
148	0x3fb6554c	1.424478
149	0x3f6904b3	0.91022795
150	0x3f2a5058	0.66528845
151	0x3f2bc6ff	0.6710052
152	0x3f9dfaab	1.2342123
153	0x3edd33ba	0.43203527
154	0x3e122e73	0.14275531
155	0x4002c75d	2.0434182
156	0x3f2d4359	0.6768089
157	0x3e73d36d	0.23811121
158	0xbeb17369	-0.34658363
159	0x3eac27e6	0.3362419
160	0xbed5547e	-0.41666025
161	0xbf46e2ff	-0.7769012
162	0x3f41519e	0.7551516
163	0x402c1e93	2.689366
164	0x40094490	2.1448097
165	0x3e58a266	0.211557
166	0x3f09a58a	0.5376822
167	0x3fc3862e	1.5275323
168	0x3dad648a	0.08466442
169	0xc037a98d	-2.8697236
170	0x408eda81	4.464173
171	0x3fdc69ac	1.7219748
172	0xbf825f87	-1.0185403
173	0x3e26a088	0.16272175
174	0x3e22f312	0.15913036
175	0xbfb2de8e	-1.3974168
176	0xbfb8fe12	-1.4452536
177	0x3f40cd58	0.7531333
178	0x3f2a18a4	0.6644385
179	0x4011651e	2.2717967
180	0x3f59f0f0	0.85133266
181	0xbec40274	-0.38283122
182	0x40057a74	2.085599
183	0x3f061f28	0.5239129
184	0xbfb451ca	-1.408746
185	0xc0338716	-2.80512
186	0xbe149ae2	-0.14512208
187	0xbff17a6a	-1.8865483
188	0x3f934b9f	1.1507453
189	0x3fb24ef0	1.393034
190	0x402a5492	2.6614118
191	0xc012fc24	-2.2966394
192	0xc0619afa	-3.525084
193	0x3ec22925	0.37922016
194	0x3e838e17	0.25694343
195	0xc00af8b3	-2.1714294
196	0x3f048923	0.51771754
197	0x3e506f24	0.20354897
198	0xc05d3043	-3.4560707
199	0xbfdd44a7	-1.7286576
200	0xbe492520	-0.19643068
201	0xc0237177	-2.5538003
202	0x3fb8a83d	1.4426342
203	0xbee55866	-0.44794005
204	0xbee402a3	-0.44533262
205	0x3ffc3096	1.9702327
206	0x404ed411	3.2316935
207	0xbefbea5f	-0.49202248
208	0x3fb2ec62	1.3978388
209	0x3f3d38cf	0.7391481
210	0xc06454a3	-3.5676658
211	0x3fb0ca8f	1.3811816
212	0x4049fcb2	3.1560483
213	0xbf824e1d	-1.0180088
214	0x3f2065a1	0.62655073
215	0xbed71920	-0.42011356
216	0x400105fb	2.01599
217	0x3f1016d1	0.56284815
218	0x40a9b1cd	5.302954
219	0xc046a844	-3.10402
220	0xbd644f9c	-0.055739984
221	0xc017aaf0	-2.3698082
222	0xc021a05c	-2.5254126
223	0x3d6a3243	0.05717684
224	0xc0c0d2f5	-6.0257516
225	0x4014a619	2.3226378
226	0xc0767b2b	-3.8512676
227	0xc0476b7d	-3.1159356
228	0xbe86974a	-0.262873
229	0x3e467ae1	0.19382812
230	0xbf386faf	-0.72045416
231	0xbfb935cd	-1.4469544
232	0x3fd592ce	1.6685426
233	0xbfa3c974	-1.2795854
234	0x3f1ee301	0.6206513
235	0xbeaa0629	-0.33207825
236	0xbfa94ae8	-1.3225985
237	0x3eb37435	0.35049596
238	0xbe6fe095	-0.23425515
239	0x3dad252d	0.08454356
240	0xbf135726	-0.5755485
241	0x3f5187a7	0.81847614
242	0x3ddec2e3	0.108770154
243	0x3eca5abf	0.3952236
244	0x3ec140c7	0.37744734
245	0xbf3f22a5	-0.7466224
246	0xbf9bb6a4	-1.2165112
247	0xbe9b9fe6	-0.3039543
248	0xbf97fdc3	-1.1874317
249	0x3f83e378	1.0303793
250	0xbf5d4d31	-0.8644591
251	0xbd31bb58	-0.043391556
252	0x4021d072	2.5283475
253	0x40a7465e	5.2273397
254	0x3d6343b5	0.055484492
255	0x3fbd4c44	1.47889

Encoder.encoder_attn.0.bias f4 [20]
0	0x401480d4	2.320363
1	0xbf83ae81	-1.0287629
2	0x3d415b2e	0.047206096
3	0x3ed8f261	0.4237242
4	0x3ef48ec1	0.47765163
5	0xbfa76663	-1.3078121
6	0x3ee97c4a	0.45602638
7	0x3fc80a90	1.5628223
8	0x40115f0e	2.2714267
9	0x400875db	2.1321933
10	0xbf2fba6b	-0.68643826
11	0xbf5d5669	-0.86459976
12	0x3ff4a847	1.9113854
13	0x4059ff54	3.406209
14	0x3f35e700	0.71055603
15	0x3e99afad	0.30016842
16	0xc008cf5e	-2.1376567
17	0xbfb56316	-1.4170864
18	0xbf2e84d1	-0.6817141
19	0x406c0a9e	3.688148

Encoder.encoder_attn.2.weight f4 [1, 20]
0	0xbe78c564	-0.24294049
1	0x3e6d3a94	0.23166877
2	0xbe8a3bae	-0.26998657
3	0xbde03651	-0.1094786
4	0x3e384a2f	0.17997049
5	0x3e5313ab	0.20612971
6	0xbd7b573b	-0.061362486
7	0x3e5e102f	0.21685861
8	0xbdf31e19	-0.11870975
9	0xbe0fa358	-0.14027154
10	0x3e235ba0	0.15952921
11	0x3e580c3f	0.21098422
12	0xbe2d4434	-0.16920549
13	0xbe14d0e8	-0.14532816
14	0x3daaf7a4	0.08348015
15	0x3dc3fa41	0.095692165
16	0x3df9ec7c	0.12203309
17	0x3e35f8f1	0.17770745
18	0xbde3da6e	-0.111256465
19	0xbdd25f42	-0.10272075

Encoder.SelfAttention.wq.weight f4 [20, 20]
0	0x3f576288	0.8413472
1	0xbe7003c1	-0.23438932
2	0x3f315cad	0.69282037
3	0xbdb29a81	-0.087208755
4	0xbfc56eba	-1.5424416
5	0x3fbbfbd5	1.4686228
6	0x3e441ba3	0.19151168
7	0xbf0e3d8b	-0.5556266
8	0xbdb6c7ca	-0.089248255
9	0xbfeab916	-1.8337734
10	0x3e8ca9bd	0.2747325
11	0xbe8e5863	-0.2780181
12	0x3f257dbd	0.64644986
13	0x3fa4f948	1.2888575
14	0x3f4eebfd	0.8082884
15	0xbf4a87fc	-0.79113746
16	0xbf470065	-0.77734977
17	0xc043de8d	-3.0604584
18	0xbfc61998	-1.547656
19	0x40030864	2.0473871
20	0x3fb9883f	1.4494704
21	0x3f8c3959	1.0955001
22	0xbf5e25a9	-0.86776215
23	0x3e55e19b	0.20886843
24	0xbe970075	-0.29492536
25	0x3ecf734d	0.40517655
26	0x3f8265c0	1.0187302
27	0xbf6b8ddb	-0.9201333
28	0xbffeaa1d	-1.9895664
29	0x3f8397d4	1.0280709
30	0x3f668d46	0.90059316
31	0xbf4de63e	-0.80429447
32	0x3ed7a049	0.42114475
33	0xbf91c2cd	-1.1387573
34	0x3ff60c73	1.9222549
35	0x3f33d8b0	0.70252514
36	0xbfb6492c	-1.424108
37	0x3dc9cd5e	0.09853624
38	0x3f957338	1.1675787
39	0xc0055bbb	-2.0837238
40	0xbbb7c21e	-0.0056078574
41	0xbe356401	-0.1771393
42	0xbf2c70e8	-0.6735978
43	0x3db0a2f9	0.086248346
44	0x3f89878b	1.074449
45	0xbeee6918	-0.46564555
46	0x3fbadc4a	1.4598477
47	0xbeb900e1	-0.36133483
48	0xbf94b9c0	-1.1619186
49	0xbf310387	-0.6914601
50	0x3ef3ac4e	0.47592396
51	0x3e17d159	0.14825954
52	0x3fae1ee0	1.3603172
53	0xbff436ba	-1.9079201
54	0x402570f1	2.5850184
55	0xbfb6f127	-1.4292344
56	0xbee255d3	-0.44206104
57	0xbf4af00b	-0.79272527
58	0x3e076052	0.13220337
59	0x3fd8958f	1.6920642
60	0xbdbaa6b2	-0.09113826
61	0x3eb4d168	0.35316014
62	0xbf4a49e1	-0.7901898
63	0xbc33afb3	-0.010967183
64	0xbec12645	-0.3772451
65	0x3e93c160	0.2885847
66	0xbf5c334c	-0.8601577
67	0xbf856afc	-1.0423274
68	0xbfb000d6	-1.3750255
69	0xbecdbdf3	-0.40183982
70	0xbf047dcc	-0.5175445
71	0xbff0e42e	-1.8819635
72	0xbf5e003b	-0.867191
73	0xbf6b991f	-0.9203052
74	0x3f0a1f6e	0.5395421
75	0x3fbbc023	1.466801
76	0xbfb49557	-1.4108075
77	0x3fa3cf5c	1.2797656
78	0x3f2997c9	0.6624723
79	0x4026003c	2.5937643
80	0xbf5d042b	-0.86334485
81	0xbe9456ed	-0.2897257
82	0x3f23dd3e	0.64009464
83	0xbf7115b9	-0.9417377
84	0x402f9585	2.743501
85	0xbeb37fcd	-0.35058442
86	0xbe9d9341	-0.30776408
87	0xbf0962aa	-0.53666174
88	0x3fae9fe2	1.3642542
89	0xbff86b69	-1.9407779
90	0xbf0361dc	-0.51321197
91	0x3ce0f50b	0.027460596
92	0x3fbc20f7	1.469756
93	0x3f45adac	0.7721813
94	0x3e6c7731	0.23092343
95	0x3ea79640	0.3273182
96	0x3f348d70	0.70528316
97	0xbca727cf	-0.020404724
98	0xbd6fc7b6	-0.05854007
99	0xbd712440	-0.05887246
100	0xbf0f43a6	-0.559626
101	0xbea1b240	-0.31581306
102	0xbcd8fcc7	-0.026487721
103	0x3fc89b06	1.5672309
104	0x3f1475e3	0.5799238
105	0x3d8858d1	0.066575654
106	0x3f18b932	0.59657586
107	0xbe1bf9c6	-0.15232
108	0xbf057c25	-0.52142555
109	0xbed3fa15	-0.41401735
110	0x3f5c154b	0.8596999
111	0x3fb06e63	1.3783687
112	0xbfaf36ff	-1.3688658
113	0xbf696845	-0.9117473
114	0x3ff4e3be	1.9132001
115	0x3f05d083	0.5227129
116	0xbf5f96ce	-0.87339485
117	0xbef89953	-0.48554477
118	0x3f9322e4	1.1495023
119	0xbf117f56	-0.56834924
120	0x3ed91255	0.423968
121	0xbff43a76	-1.9080341
122	0xbe87c699	-0.26518705
123	0x3e9a14a1	0.30093864
124	0x3f0347d3	0.5128147
125	0x3f2c63cb	0.6733977
126	0xbf80d22f	-1.0064143
127	0x3edaf177	0.42762348
128	0x3fcda61a	1.6066315
129	0xbf3a4fe3	-0.7277815
130	0xbf88525d	-1.0650135
131	0xbfc5f825	-1.5466353
132	0x3f129e2b	0.57272595
133	0x3f184944	0.59486794
134	0x3f10f580	0.56624603
135	0x3f7cb1d1	0.98708826
136	0xc02eb78b	-2.7299526
137	0x40006200	2.0059814
138	0x3f53930a	0.8264624
139	0xbf3f313e	-0.7468451
140	0x3ded2bf6	0.115806505
141	0x3f6aef40	0.91771317
142	0xbf81ce50	-1.0141087
143	0xbe8cc116	-0.27491063
144	0x3f56796b	0.8377902
145	0x3ed8de27	0.4235699
146	0xbfcab56a	-1.5836613
147	0x404c198c	3.1890593
148	0x3e80ef73	0.25182685
149	0xbe73f8aa	-0.23825327
150	0x3d8b02c7	0.06787639
151	0x4002d4a3	2.0442283
152	0xbf51b6d8	-0.8191962
153	0xbcf2a57c	-0.029619925
154	0x3f36ab1a	0.7135483
155	0x3d7b4173	0.061341714
156	0xc00a3815	-2.159673
157	0x3f9bb6cc	1.216516
158	0xc00bdbba	-2.185286
159	0xbeb07b20	-0.34468937
160	0xbf0623de	-0.5239848
161	0xbf811f58	-1.008769
162	0xbf84186b	-1.0319952
163	0xbf276a67	-0.6539673
164	0xbf9b9d7b	-1.2157434
165	0x3f3ea938	0.7447696
166	0x3da26a7a	0.07930465
167	0x3ea50fc7	0.322386
168	0xc0094a95	-2.1451771
169	0x40240ddd	2.5633461
170	0xbe96c24a	-0.29445106
171	0x3f6084c6	0.87702596
172	0x3f57a96b	0.84242886
173	0xbfcfb638	-1.6227484
174	0x3f6a2cf8	0.91474867
175	0x3dd5816a	0.104250744
176	0xbfadfb2e	-1.3592279
177	0x3f751839	0.95740086
178	0x3faecc80	1.3656158
179	0x3f77317f	0.965599
180	0x3de000e2	0.109376684
181	0x3f857e31	1.0429136
182	0xbf403fca	-0.75097334
183	0xbd35dc3a	-0.044399478
184	0x3fa628a9	1.2981158
185	0xbfdc5c59	-1.7215682
186	0x3fc393ab	1.527944
187	0xbf2b08c4	-0.6681025
188	0xbf595efa	-0.8491055
189	0xc0177117	-2.3662775
190	0x3f997840	1.1989822
191	0x3eac98b0	0.3371024
192	0xbf8fea70	-1.124342
193	0x3fb9cb6c	1.4515204
194	0xbf07f7b8	-0.53112364
195	0x3ff2af6f	1.8959788
196	0x3fc08756	1.5041301
197	0xbf1d9d9e	-0.6156863
198	0xbdff23ca	-0.12457998
199	0xbf8bb8fb	-1.0915827
200	0xbec13d09	-0.3774188
201	0x3e8ec26f	0.27882716
202	0xc0026320	-2.0373
203	0xbf888dc9	-1.0668269
204	0xbce56b7f	-0.02800536
205	0xbe7d5bc3	-0.24742036
206	0xbf953e5c	-1.1659656
207	0xbfbab376	-1.4586017
208	0x3f3c22cc	0.73490596
209	0x3fa15642	1.2604449
210	0xbf058b4d	-0.5216568
211	0x3f552704	0.8326266
212	0xbf5be1f9	-0.8589168
213	0x3e9694a0	0.29410267
214	0x3fad0358	1.3516645
215	0x3fab8656	1.3400371
216	0x3f598c49	0.84979683
217	0xbfa7363a	-1.3063424
218	0x3fc2a519	1.5206634
219	0x3fa564ca	1.2921383
220	0xbdf52878	-0.119706094
221	0xbf5ee001	-0.8706055
222	0x3f12ad4e	0.5729569
223	0x3f5119cc	0.8167999
224	0xbf71372f	-0.9422483
225	0x3ff2eaed	1.8977944
226	0xbda9d0f3	-0.08291807
227	0xbfa71ef9	-1.3056327
228	0x3f0a5722	0.54039204
229	0x3ecea16f	0.4035754
230	0xbfdd9831	-1.731207
231	0x3f4c2d3a	0.7975651
232	0x3fe2e617	1.7726468
233	0xbe23e3f5	-0.16004927
234	0xbf387953	-0.72060126
235	0x3fe76168	1.8076601
236	0x3f6f50b7	0.93482536
237	0xbf3f2416	-0.7466444
238	0xbd1e59af	-0.038659748
239	0xbfac4d35	-1.3461062
240	0xbeaa13a3	-0.33218107
241	0x3eb27473	0.3485447
242	0xbf6a6540	-0.91560745
243	0x3ee1c650	0.44096613
244	0xbfa3aebf	-1.2787703
245	0x3f9deffb	1.2338861
246	0xbf2cb444	-0.67462564
247	0x3f2faa16	0.68618906
248	0x3f8194da	1.0123551
249	0x3eccb41e	0.39981169
250	0x3e836027	0.25659296
251	0x3bb2d3ff	0.005457401
252	0xbfda0e70	-1.7035656
253	0x40006d4a	2.0066705
254	0x400d2066	2.2051024
255	0xbfbd4d9f	-1.4789313

Encoder.SelfAttention.wk.weight f4 [20, 20]
0	0x3f99cade	1.2015035
1	0xbe5d0a65	-0.21585996
2	0x3b85c991	0.0040828665
3	0xbf90604b	-1.1279386
4	0x3e29e947	0.16592894
5	0x3f087356	0.5330099
6	0xbf5f4c09	-0.87225395
7	0x3f4a235d	0.7896021
8	0xbeb41865	-0.35174862
9	0xbffd9f99	-1.981433
10	0xbdba261c	-0.090893
11	0x3f94df41	1.1630632
12	0x3f85a9ad	1.0442406
13	0x3f02974d	0.51012117
14	0xbfdd2e61	-1.7279779
15	0xbf8eb965	-1.1150328
16	0xbe907695	-0.2821547
17	0xc04b0bc6	-3.1725936
18	0x3ff121aa	1.8838398
19	0xbc4a2285	-0.012337332
20	0x3efc8d87	0.49326727
21	0x3f839e0a	1.0282605
22	0xbe676e73	-0.22600727
23	0x3ef0cc44	0.47030842
24	0x3f80d0cf	1.0063723
25	0x3f6e2354	0.93022656
26	0xbeea0e0f	-0.4571385
27	0xbfd312f9	-1.6490165
28	0xbf4d0892	-0.800912
29	0x3f7c162f	0.9847135
30	0x3e6212d4	0.22077495
31	0xc00726a3	-2.1117332
32	0x3f65550b	0.8958289
33	0x3fa392aa	1.2779133
34	0x402a169d	2.6576302
35	0xbf8a687c	-1.0813136
36	0xc020cf7d	-2.512664
37	0x3fad2cb6	1.352927
38	0xbe8dfdf1	-0.27732804
39	0xbe66c51d	-0.2253613
40	0x3d25df70	0.04049629
41	0xbf509368	-0.81474924
42	0xbf86a24c	-1.0518279
43	0x3f107583	0.5642931
44	0x3df20c4c	0.11818752
45	0x3f15a0da	0.58448565
46	0x3eca2fa5	0.39489475
47	0xbe94b91d	-0.2904748
48	0xbfdca768	-1.7238588
49	0xbed866dd	-0.42265978
50	0x3e7f46ef	0.24929403
51	0x3fe513e0	1.789669
52	0xbe5e601a	-0.21716347
53	0x3dd4abf1	0.10384358
54	0x3f6f3bdd	0.9345072
55	0xc03a7dd4	-2.91393
56	0xbe477c3e	-0.19480988
57	0xbf5853aa	-0.8450266
58	0x3f956987	1.1672829
59	0x3f3c54a0	0.7356663
60	0x3efa389a	0.4887131
61	0xbe47634f	-0.19471477
62	0xbe64d992	-0.22348621
63	0xbf341780	-0.7034836
64	0x3d56e78a	0.052466907
65	0xbfae67f9	-1.362548
66	0xbf4a2139	-0.78956944
67	0x3f4f0bc7	0.80877346
68	0xbfabed34	-1.3431764
69	0xbfd9fa84	-1.7029576
70	0xbf80b394	-1.0054803
71	0xbf9ec4bf	-1.2403792
72	0xbf3fed3f	-0.74971384
73	0xbf713379	-0.94219166
74	0x3f2c4839	0.67297703
75	0xbf890f2b	-1.0707754
76	0xbeb3ceaa	-0.3511861
77	0x3f9b8f18	1.2153044
78	0x402834b9	2.628218
79	0x3f86f4ff	1.0543517
80	0xbeee5b7f	-0.4655418
81	0xbf1cee3e	-0.6130103
82	0xbf5028b0	-0.81312084
83	0x3ed2315a	0.41053277
84	0x3f465163	0.77467936
85	0xbf0119e4	-0.5043013
86	0x3c8a7b2b	0.016904434
87	0xbec0c07e	-0.3764686
88	0xbf685eda	-0.9076973
89	0xbf3043a3	-0.68853205
90	0xbfe3b678	-1.779006
91	0x3fe9cff0	1.8266582
92	0x3ebe7d24	0.3720485
93	0x3f85f5df	1.0465659
94	0xbf8b0fc1	-1.0864183
95	0xbec397f7	-0.38201877
96	0x401aec8a	2.4206872
97	0x3f0dc60e	0.5538033
98	0xbf0de040	-0.55420303
99	0xbe9b80c5	-0.3037168
100	0xbf88bce3	-1.0682644
101	0xbf0e401d	-0.5556658
102	0x3f324777	0.69640297
103	0x3f7b9573	0.98274916
104	0x3f77f482	0.96857464
105	0xbd49b48d	-0.049244452
106	0xbf0fe5b3	-0.5620987
107	0x3f54ffc1	0.8320275
108	0xbfdef1a4	-1.7417493
109	0x3e9497b3	0.29021987
110	0x3e717e72	0.23583391
111	0x3e736684	0.23769575
112	0xbf1681e2	-0.58791935
113	0x3eb69249	0.35658482
114	0x3fb781e9	1.433652
115	0xbe05f42d	-0.13081427
116	0xbfe08645	-1.7540976
117	0xbeb779ee	-0.35835212
118	0xbe7a71fd	-0.24457546
119	0x3e62d71a	0.22152367
120	0xbe9f0006	-0.31054705
121	0xbfefcd05	-1.8734442
122	0x3f8a3094	1.0796075
123	0xbd419901	-0.047265057
124	0x3faaa92f	1.3332881
125	0xbdb6c3ab	-0.089240395
126	0x3e4f0a52	0.2021878
127	0x3f73baca	0.9520689
128	0x3f8e51e3	1.111874
129	0xbffc8def	-1.9730815
130	0xbf8478fb	-1.034942
131	0xbf7a9c74	-0.9789498
132	0xbefc11fa	-0.49232465
133	0x3ff71a22	1.930485
134	0xbf0f4fca	-0.55981123
135	0xbf0f5eab	-0.56003827
136	0x3dcae83a	0.09907575
137	0x40157da1	2.3357928
138	0xbf3bd8a5	-0.7337745
139	0xbe7dab1c	-0.24772304
140	0x3f40ced7	0.7531561
141	0xbf08cba0	-0.5343571
142	0xbf76ece7	-0.96455234
143	0xbf6ad0a5	-0.91724616
144	0x3ffa96ea	1.9577305
145	0xc00da206	-2.2130141
146	0x3fef3ffd	1.8691403
147	0x401d666d	2.4593766
148	0x3f3274f2	0.69709694
149	0x3f5b9828	0.85779047
150	0x3ee313e0	0.443511
151	0x3f8f578e	1.1198595
152	0xbd62680b	-0.055275004
153	0x3e276dce	0.16350481
154	0x3f05f0cc	0.5232055
155	0xbf5689c3	-0.8380396
156	0xbfd8bf09	-1.6933299
157	0x3f0a407c	0.54004645
158	0xbf80232a	-1.0010731
159	0xbf8ae076	-1.084975
160	0xbfe1961f	-1.7623938
161	0xbf77e9b2	-0.96840966
162	0xbf453797	-0.7703795
163	0xbff17714	-1.8864465
164	0xbdb6442a	-0.0889972
165	0x3f505c30	0.81390667
166	0x3f802220	1.0010414
167	0xbf4a7cfd	-0.79096967
168	0x3f173720	0.5906849
169	0x3f75a095	0.95948154
170	0x3fab10ac	1.3364463
171	0xbdc08fa4	-0.09402397
172	0xbc547475	-0.012967219
173	0xbec14fd5	-0.3775622
174	0x3f5d58df	0.8646373
175	0xbf181d34	-0.5941956
176	0xbffef8c9	-1.9919673
177	0x3fc2c608	1.5216684
178	0x3f0375e4	0.5135176
179	0x3fad1e6b	1.3524908
180	0x3eeaf0af	0.45886752
181	0x3f40b85d	0.75281316
182	0xbf82da2f	-1.0222834
183	0x3f799bf5	0.97503597
184	0xbe24c4fe	-0.16090772
185	0xbf00071e	-0.5001086
186	0x3f63f337	0.8904299
187	0xbf33419c	-0.70021987
188	0xc06da46a	-3.71316
189	0xbebb340f	-0.36563155
190	0xbea9c5e7	-0.331588
191	0xbf692564	-0.9107268
192	0x3fb42e1c	1.4076571
193	0x3f1618b2	0.5863143
194	0x3f8ec2af	1.1153163
195	0x3fef5faa	1.8701069
196	0x3fa01c26	1.250859
197	0x3dd3bae0	0.10338378
198	0xbf7a8396	-0.97857034
199	0xbf034c44	-0.5128825
200	0xbf87e6b2	-1.0617278
201	0xbfc46acb	-1.5345091
202	0xbfbc1e32	-1.4696715
203	0xbf6cf8cb	-0.9256713
204	0xbfb5d9e8	-1.4207125
205	0xbfdba5c9	-1.7159969
206	0xbf8476c9	-1.034875
207	0x3ef353f9	0.47525004
208	0x3e187dd3	0.14891748
209	0x3ec3e1e8	0.3825829
210	0xbe2e461b	-0.1701893
211	0xbe4f597c	-0.2024898
212	0x3f989fca	1.1923764
213	0x3f9b23ad	1.2120262
214	0x3f6b81b9	0.91994816
215	0x3fae880b	1.3635267
216	0x3e92eea1	0.28697684
217	0xbf25e9ef	-0.6481008
218	0x3f69374d	0.9110001
219	0x3f4a7b00	0.79093933
220	0xbfe9a429	-1.8253223
221	0x3f44daec	0.7689655
222	0x3f3c109c	0.73462844
223	0xbf62d647	-0.8860821
224	0x3f87b1d5	1.0601145
225	0x3fa44c9f	1.2835883
226	0x3e07fe8b	0.13280694
227	0xbfe7ea3e	-1.811836
228	0x3fe655ef	1.7994975
229	0xbf03c6e8	-0.5147538
230	0xbf64bc26	-0.8934959
231	0x3eebb0d4	0.46033347
232	0x3fbf297b	1.4934534
233	0x3ef2a6ac	0.47392786
234	0x3efb0631	0.4902816
235	0x3fe9e096	1.8271663
236	0x3f2fb61c	0.6863725
237	0xbf166138	-0.58742094
238	0xbeae989a	-0.341008
239	0xbf44b979	-0.7684551
240	0xbde1bc9d	-0.11022303
241	0xbf3fbf60	-0.7490139
242	0x3f85fdd5	1.0468088
243	0xbf78c975	-0.971824
244	0x3caeb97f	0.021328686
245	0x3f2d1179	0.67604786
246	0xbee2a37a	-0.44265348
247	0x40379c53	2.8689163
248	0x3f096c13	0.53680533
249	0x3f9541e4	1.1660733
250	0x3f827e4c	1.0194793
251	0xbf8e1b6c	-1.1102118
252	0x3c94057d	0.018069023
253	0x40176805	2.3657238
254	0x3e9abb4d	0.30221024
255	0xbf3c3117	-0.73512405

Encoder.SelfAttention.wv.weight f4 [20, 20]
0	0xbe2f1bd7	-0.17100464
1	0xbf82e4d4	-1.0226083
2	0xbeb48504	-0.35257733
3	0xbed5fa70	-0.4179263
4	0x3d0abf26	0.0338737
5	0xbe3e11b1	-0.18561436
6	0x3e501673	0.20321064
7	0xbdfd76a0	-0.123761415
8	0xbdcacb9e	-0.09902118
9	0x3f10bb27	0.5653557
10	0xbfa947b9	-1.3225013
11	0xbf0e792f	-0.5565366
12	0x3f9f928a	1.2466595
13	0x3d1d7659	0.038442943
14	0x3e8a9958	0.27070117
15	0x3f576a7f	0.84146875
16	0xbf9aee83	-1.2104038
17	0x3d00236e	0.03128379
18	0x3fa061d5	1.2529856
19	0xbead3ff9	-0.3383787
20	0x3da25cd2	0.0792786
21	0xbe238a1f	-0.15970658
22	0x3f6619e5	0.8988326
23	0xbf7dbd9a	-0.99117434
24	0xbe6c5799	-0.23080291
25	0xbca82dbe	-0.020529624
26	0xbf4cbe2d	-0.79977685
27	0xbfa42e6a	-1.2826664
28	0x3e9a1891	0.30096868
29	0xbf268501	-0.650467
30	0xbf8209cd	-1.0159241
31	0x3f527fa2	0.82226
32	0xbd754a61	-0.059885386
33	0xbe381723	-0.17977576
34	0x3e2b57f5	0.16732772
35	0x3f0f3f5b	0.5595605
36	0x3ef16749	0.47149113
37	0xbebdd77d	-0.37078467
38	0x3f906671	1.1281263
39	0x3ea85f70	0.32885313
40	0x3f7f8528	0.99812555
41	0x3eae4440	0.34036446
42	0xbe98ac93	-0.29819164
43	0xbf8fc721	-1.1232644
44	0xbe7aa6d5	-0.24477704
45	0x3e4d2992	0.20035389
46	0xbfb71241	-1.4302446
47	0xbeb76a43	-0.3582326
48	0xbf887a4c	-1.0662322
49	0x3ee0b2d1	0.43886426
50	0xbfa47d0f	-1.2850665
51	0xbeba42fd	-0.36379233
52	0xbe488561	-0.1958213
53	0x3f73156a	0.9495455
54	0xbec86298	-0.3913772
55	0xbf356db7	-0.70870537
56	0xbf2dc1b8	-0.67873716
57	0x3cc62162	0.02418584
58	0x3facef4d	1.3510529
59	0x3f93e90e	1.1555498
60	0xbf095fc7	-0.5366177
61	0x3f440863	0.765753
62	0x3e1e560d	0.15462513
63	0xbc199503	-0.009373906
64	0xbec41aed	-0.38301793
65	0xbdb7c891	-0.08973802
66	0xbecb700f	-0.3973393
67	0xbf8222cf	-1.0166873
68	0xbfddd1cc	-1.732965
69	0x3f9421b4	1.1572785
70	0x3e87133b	0.2638186
71	0xbfa8d92d	-1.3191277
72	0x3efe0d2d	0.49619427
73	0xbf77f7b8	-0.96862364
74	0x3eab8ec4	0.3350736
75	0x3f214eb9	0.63010746
76	0x3e174c5d	0.14775224
77	0x3f1b4f12	0.60667527
78	0x3f898c41	1.0745927
79	0x40062a8c	2.0963469
80	0xbfaef097	-1.3667172
81	0xbebcb216	-0.3685462
82	0xbf8268a1	-1.018818
83	0x3ce2bd6f	0.02767822
84	0x3f4a5ab5	0.7904466
85	0x3f6761dd	0.903837
86	0x3f4437e9	0.7664781
87	0xbfa4e096	-1.2881038
88	0x3f03bfe4	0.51464677
89	0x3e70c3ae	0.23512146
90	0x3db5e637	0.088818006
91	0xbf80b819	-1.0056182
92	0xbefc2876	-0.4924962
93	0xbf0d7e78	-0.552711
94	0xbf3409e0	-0.7032757
95	0x3ed4586a	0.41473705
96	0xbeaeb71c	-0.34124076
97	0xbe6505dc	-0.22365516
98	0x3f2eca54	0.6827748
99	0x3f5138fe	0.8172759
100	0xbea54631	-0.32280114
101	0xbe69c3d3	-0.22828607
102	0xbf15e1be	-0.5854758
103	0x3f2a516c	0.6653049
104	0xbc853873	-0.016262269
105	0xbf864775	-1.0490557
106	0x3f0a9fa9	0.5414987
107	0x3f35367c	0.7078626
108	0x3f1a054b	0.60164326
109	0xbecd64ed	-0.40116063
110	0xbeb81d5f	-0.35959908
111	0x3e4e82cd	0.20167084
112	0xbe508a58	-0.20365274
113	0x3e2ce78c	0.16885203
114	0xbf01a7f1	-0.50646883
115	0x3f0ae79c	0.5425966
116	0xbeae14bc	-0.34000194
117	0xbe886b24	-0.26644242
118	0x3f381f00	0.719223
119	0x3fe8127a	1.8130639
120	0xbf40a374	-0.7524941
121	0x3d18ea3d	0.037332762
122	0xbf2a537f	-0.66533655
123	0x3eb84a73	0.359943
124	0xbf2c56f0	-0.67320156
125	0xbedc6d09	-0.43051937
126	0xbe28bad9	-0.16477527
127	0xbaf3f4c1	-0.0018612371
128	0xbf413996	-0.75478494
129	0x3e4536f8	0.1925925
130	0x3f021fdb	0.5082986
131	0xbf768c05	-0.963074
132	0xbc155d89	-0.009116539
133	0x3d689205	0.05677988
134	0x3ea29335	0.31752935
135	0x3e648dc3	0.22319703
136	0x3e98db70	0.29854918
137	0xbeb84d1b	-0.35996327
138	0x3fb9105c	1.4458117
139	0x3f4e3480	0.8054886
140	0x3eba3c4a	0.36374122
141	0xbecc85b2	-0.3994575
142	0x3eaa50bc	0.3326472
143	0x3ef6bf76	0.48192948
144	0xbf2c1ec4	-0.67234445
145	0xbf4402a6	-0.7656654
146	0xbeb1470a	-0.3462451
147	0xbf5379b0	-0.82607555
148	0x3f246263	0.64212626
149	0x3de217a6	0.11039667
150	0x3f144f5b	0.57933587
151	0xbd2266e0	-0.03964889
152	0xbeeea8a7	-0.46613047
153	0xbedfdfea	-0.4372552
154	0x3eeffa7e	0.46870798
155	0xbf9aa841	-1.2082597
156	0xbe567917	-0.2094463
157	0x3fbe1282	1.4849398
158	0x3f86d96e	1.0535104
159	0x3f75d51d	0.9602831
160	0x3edc58dd	0.43036547
161	0x3ee81421	0.45327857
162	0x3d56e4cf	0.052464303
163	0x3f01256d	0.5044773
164	0x3ea6d93d	0.32587615
165	0xbeaa68fd	-0.33283225
166	0xbf39e7ee	-0.7261952
167	0x3f05d59e	0.5227908
168	0xbd034d5d	-0.0320562
169	0xbf3b90ff	-0.7326812
170	0xbf81c989	-1.0139629
171	0xbf00bce9	-0.50288254
172	0xbfb81fab	-1.4384664
173	0xbfe67a9b	-1.8006166
174	0x3dcb5eb8	0.099301755
175	0xbe34a5af	-0.17641328
176	0xbe29bbba	-0.16575518
177	0x3f59d183	0.85085315
178	0x3ed4c320	0.4155512
179	0x4012f770	2.2963524
180	0xbe4c11da	-0.19928685
181	0x3f0be7fe	0.54650867
182	0xbe315776	-0.1731852
183	0x3ec217d2	0.37908798
184	0xbf206aaa	-0.62662756
185	0x3f86f2d1	1.0542852
186	0x3f5cdc1b	0.86273354
187	0x3e1b7bb9	0.15183915
188	0xbf9d5563	-1.2291683
189	0xbefcf0f9	-0.49402598
190	0x3e1b5bc8	0.1517173
191	0x3f2bf901	0.67176825
192	0x3b08ed14	0.0020893263
193	0xbed9debd	-0.42552748
194	0x3edd811a	0.4326256
195	0xbfa73047	-1.3061608
196	0xbdeed8c4	-0.116624385
197	0xbf392064	-0.7231505
198	0x4015d8e0	2.341362
199	0xbfa6f164	-1.3042417
200	0x3e5e014c	0.21680182
201	0xbfc26154	-1.5185952
202	0x3dc6ce65	0.097073354
203	0xbf868946	-1.0510643
204	0xbec44433	-0.38333282
205	0x3f65af87	0.8972096
206	0x3d2a084c	0.04151182
207	0xbfbbdce5	-1.4676787
208	0x3e929790	0.28631258
209	0xbf876b56	-1.0579631
210	0x3f125fe2	0.57177556
211	0x3f5dfc8e	0.8671349
212	0x3f09acf3	0.53779525
213	0x4005bca1	2.089638
214	0xbfb45a72	-1.4090102
215	0x3dafb3cb	0.08579215
216	0xbfc4756b	-1.5348333
217	0xbf65070b	-0.8946387
218	0xbf932383	-1.1495212
219	0x409a2718	4.817272
220	0x3e593528	0.21211684
221	0xbe06dbd8	-0.13169801
222	0xbeef3b32	-0.4672485
223	0xbe6d8faf	-0.23199342
224	0xbfd5bde9	-1.6698581
225	0xbfbbe3ec	-1.4678931
226	0x3e927e00	0.28611755
227	0x3f3a758a	0.728356
228	0x3eb9c94f	0.362864
229	0x3f2bca68	0.6710572
230	0xbf28bb3f	-0.65910715
231	0xbdccc073	-0.09997644
232	0x3e85866c	0.26079118
233	0x3ed03770	0.40667295
234	0x3ee3737d	0.44424048
235	0xbf021e5b	-0.5082757
236	0x3f38cfe7	0.72192234
237	0x3eec31ae	0.46131653
238	0x3fb4ada3	1.411549
239	0xbdab2b69	-0.08357889
240	0x3f414e27	0.75509876
241	0x3f183258	0.5945182
242	0x3f15b41f	0.5847797
243	0x3f0940bf	0.5361442
244	0xbdf6be76	-0.12048046
245	0xbfd2d28f	-1.6470507
246	0x3e6a0367	0.2285286
247	0x3e8459fc	0.25849903
248	0x3e47a593	0.19496755
249	0x3f0b2851	0.5435839
250	0xbf1b6cfb	-0.60713166
251	0xbf6d5316	-0.92704904
252	0xbe2bca81	-0.16776468
253	0xbe1140e2	-0.14184907
254	0xbf3b6abb	-0.7320973
255	0xbfa38124	-1.2773786
