result/ver7_2_6/last.pt (torch, 305982 bytes, 81 tensors)

Encoder.encoder_lstm.weight_ih_l0 f4 [128, 6]
0	0x3e232831	0.159333
1	0x3ea94116	0.3305747
2	0xbf1c74c8	-0.61115694
3	0x3f305b9f	0.688898
4	0x3f5866de	0.8453196
5	0x3f8edc4e	1.1160982
6	0xbf73c690	-0.9522486
7	0x3fcdc211	1.6074849
8	0x3f679cdc	0.90473723
9	0x3fcc5dc9	1.5966121
10	0x40014f47	2.0204637
11	0x4017e18e	2.3731418
12	0xc00dc659	-2.2152312
13	0xbf971efb	-1.180633
14	0xbfd721ac	-1.6807151
15	0xbf688300	-0.9082489
16	0x3e1c03d6	0.15235838
17	0xc08daa2d	-4.4270234
18	0x3f8902bf	1.0703963
19	0x3f0e6f05	0.5563815
20	0x3f772dbc	0.9655416
21	0x3fe4a908	1.7864084
22	0x3fc1e3e3	1.514767
23	0x3f4cfd7f	0.80074304
24	0x3faadef1	1.3349286
25	0x3fd366c2	1.6515734
26	0xbf213835	-0.6297639
27	0x3fbc5c9b	1.4715761
28	0x3f216e0c	0.63058543
29	0xbec3b6b1	-0.3822532
30	0xbe58bd22	-0.21165898
31	0x3e997f6b	0.29980025
32	0xbd8bf6de	-0.068341956
33	0xbf3918ec	-0.7230365
34	0xc081fda1	-4.0622106
35	0xbe8175df	-0.2528524
36	0xbe8081ce	-0.25099033
37	0xbf8dcc6a	-1.1078007
38	0xbeaf376b	-0.34221968
39	0x3ec2b824	0.38031113
40	0xbea04616	-0.3130347
41	0xbd49113e	-0.04908871
42	0x3e2aebfc	0.16691583
43	0x3f33aa50	0.7018175
44	0x3f90a42b	1.13001
45	0xbf2cea62	-0.6754514
46	0xbeaf6924	-0.34259903
47	0x3f502b43	0.8131601
48	0xbfb196e8	-1.3874178
49	0xc015ca7e	-2.3404841
50	0xbebd9074	-0.3702427
51	0xbed9d2e2	-0.42543703
52	0xbeaf5e1c	-0.34251487
53	0xbe04655f	-0.12929295
54	0xbe036207	-0.12830363
55	0x3fa387a4	1.2775769
56	0x3e812606	0.25224322
57	0x3ccc9ecb	0.024978062
58	0x3f0918d0	0.53553486
59	0x3eeec597	0.46635124
60	0xbdf06110	-0.11737263
61	0xbe822e46	-0.2542593
62	0xbfa929f6	-1.321593
63	0xbf8036eb	-1.001676
64	0xbe738273	-0.23780231
65	0xbf7a4853	-0.9776661
66	0x3e0195f1	0.12654854
67	0x3efa0c50	0.4883752
68	0xbe8b3025	-0.2718517
69	0x3f5e58ae	0.86854064
70	0x40029836	2.0405402
71	0x3c225ba5	0.009909545
72	0xbfc8be21	-1.5683023
73	0xbcbd413a	-0.023102392
74	0xbf0aff79	-0.5429607
75	0x3f2134eb	0.6297137
76	0x3e7c7243	0.24652962
77	0xbf84c658	-1.037303
78	0xbe46db8f	-0.19419692
79	0x3f43fa81	0.76554114
80	0xbec4f5f5	-0.384689
81	0x3d8b5b61	0.068045385
82	0xbd56c972	-0.052438207
83	0x3ea510f0	0.32239485
84	0x3f0b1ae3	0.543379
85	0x3eb64720	0.3560114
86	0x3ea9fc4a	0.33200294
87	0xbf717c66	-0.9433044
88	0xbc96bf19	-0.01840167
89	0x3f0acb5c	0.5421655
90	0xbd5d0713	-0.053961825
91	0x3fabb2e9	1.3413974
92	0x403673c6	2.8508162
93	0x3fbbf9c2	1.4685595
94	0x3f94a722	1.1613505
95	0x3f731b06	0.9496311
96	0xbf96c2ca	-1.1778195
97	0xbfb734aa	-1.4312947
98	0xbfe90f57	-1.8207806
99	0x3eadad85	0.33921447
100	0xbe80ad1c	-0.25132072
101	0xbf710ca3	-0.9415991
102	0xc05750fd	-3.3643181
103	0xc01f3f87	-2.4882524
104	0xc0164e0e	-2.348514
105	0x3f7e272e	0.99278533
106	0x3e63676e	0.22207424
107	0xbfc883ec	-1.5665259
108	0xbf4c91fb	-0.7991025
109	0xbfaf4c04	-1.3695073
110	0xbd623fd5	-0.055236656
111	0xbfc16792	-1.5109732
112	0xbfb270dd	-1.3940693
113	0xbf077324	-0.52910066
114	0x3d4cfd3c	0.05004619
115	0xbfbc3fb9	-1.4706947
116	0xbfa7b667	-1.310254
117	0xbf0ffee4	-0.5624831
118	0xbf9a1b61	-1.2039605
119	0xc0123b09	-2.2848532
120	0xbe1b8159	-0.15186061
121	0x3e2bd518	0.16780508
122	0x3da12d77	0.0787
123	0x3f0c0db7	0.5470843
124	0x3dd35b7f	0.10320186
125	0x3e7baca9	0.24577583
126	0x3ef99e98	0.4875381
127	0xbfd875e3	-1.6910976
128	0x3fa71162	1.305218
129	0xbea610cc	-0.3243469
130	0x3ea5b5be	0.3236522
131	0x3f229d8b	0.6352164
132	0xbfc1a701	-1.512909
133	0x3d4aea55	0.049539883
134	0xc084b7ee	-4.1474524
135	0xc027e58a	-2.623385
136	0xbfe9220d	-1.8213516
137	0xbde22a65	-0.11043242
138	0xbfa02d6f	-1.2513865
139	0xbf4ec0a1	-0.8076268
140	0xbea10642	-0.31450087
141	0xbf825393	-1.0181755
142	0xbf1e8715	-0.6192487
143	0xc03cac87	-2.9480302
144	0x3f2e5da0	0.6811161
145	0xbf46af22	-0.7761098
146	0x3e93b2a3	0.28847227
147	0x3ff3d7e5	1.9050261
148	0x3f383434	0.71954656
149	0xbf25859f	-0.64657015
150	0xbea5cba0	-0.32381916
151	0xbf7a0a5b	-0.9767205
152	0xbc93f488	-0.018060938
153	0xc009b8ea	-2.1519113
154	0xc0010601	-2.0159914
155	0xbf41ae65	-0.7565673
156	0x3f435b71	0.76311404
157	0x3fc3a15c	1.5283618
158	0xbe74eb38	-0.23917854
159	0x3e994ee0	0.2994299
160	0x3ef0c78d	0.47027245
161	0x3f23d814	0.64001584
162	0x3e062484	0.13099867
163	0x3ea3edab	0.32017264
164	0x3df6de82	0.12054159
165	0xbf7b9afd	-0.9828337
166	0xbfac9f56	-1.3486125
167	0xbf54ab93	-0.830743
168	0x3e63c4d7	0.22243057
169	0xbf28f9db	-0.6600625
170	0xbf1a62ca	-0.6030699
171	0xbf685753	-0.90758246
172	0x3c8a3e35	0.016875366
173	0x3f3da238	0.7407565
174	0xbe35829b	-0.17725603
175	0x3f213357	0.62968963
176	0x3f97656d	1.1827828
177	0x3ddf5a23	0.10905864
178	0xbf85ca4d	-1.0452362
179	0x3f43649d	0.763254
180	0x3f2fc7f1	0.6866446
181	0x3f46fed8	0.7773261
182	0x3f89ee54	1.0775857
183	0xbfac9972	-1.3484328
184	0xbffa11e6	-1.9536712
185	0x400e574d	2.2240784
186	0x3e128830	0.14309764
187	0xbf056b18	-0.5211654
188	0xbe7d73d3	-0.24751215
189	0x3f71b189	0.9441152
190	0xbc804043	-0.015655642
191	0xbeed6cde	-0.46372122
192	0xbfda55cf	-1.7057437
193	0x3ec23a1e	0.37934965
194	0xbfaa73d9	-1.3316604
195	0xbef5ea5f	-0.48030373
196	0x3e27e60b	0.16396348
197	0xbfab8481	-1.3399812
198	0xbf876efc	-1.0580745
199	0xbf6e7950	-0.9315386
200	0xbf567bc1	-0.83782583
201	0x3f2bd8d1	0.6712771
202	0x3d191043	0.037369024
203	0xbfb85a6c	-1.4402595
204	0x3d05ebdf	0.032695647
205	0x3fbb1d1a	1.4618256
206	0xbf15d94f	-0.5853471
207	0xbff1a611	-1.8878804
208	0xbff4c18e	-1.9121568
209	0x40039827	2.0561616
210	0xc0c64c07	-6.1967807
211	0xbe920a31	-0.285234
212	0xc06b2f17	-3.6747491
213	0xbf9135c5	-1.1344534
214	0x3e4a4d05	0.19755943
215	0x3f8a0c08	1.0784922
216	0xbe00d6aa	-0.12581888
217	0xc05dae8b	-3.4637783
218	0xbf792305	-0.9731906
219	0x3fb761d6	1.4326732
220	0xbe3c2156	-0.18372092
221	0xc0784d6c	-3.8797255
222	0xbfd88108	-1.6914377
223	0x3f6b1ccd	0.9184082
224	0x3f40da2b	0.753329
225	0x3cfb80e6	0.030701112
226	0x3e980364	0.29690087
227	0x3f0bc980	0.5460434
228	0x3f27fc3d	0.6561926
229	0xbe5edc53	-0.21763735
230	0xbf4be38c	-0.79644084
231	0xbf68ff58	-0.91014624
232	0x3e73fe70	0.23827529
233	0xbfc4e8e4	-1.5383573
234	0xbf7b367f	-0.9813003
235	0x3d4a6c61	0.049419764
236	0x3f218661	0.6309567
237	0xbe09f45a	-0.13472119
238	0xbf587f5c	-0.84569335
239	0x3f9e3e94	1.2362847
240	0x3f0c1b9c	0.5472963
241	0x3f0d9696	0.553079
242	0x402772b3	2.6163757
243	0x4012d1dd	2.294059
244	0x404b6330	3.177929
245	0x3f427b33	0.7596924
246	0xbfaa9edd	-1.3329731
247	0x3efdfd50	0.49607325
248	0xbffe8b2f	-1.9886225
249	0x3f9d8573	1.230635
250	0x3fc2b366	1.5210998
251	0xbf8484a2	-1.0352976
252	0xc03a08d2	-2.9067883
253	0xc022921d	-2.540168
254	0xc02ab236	-2.6671271
255	0xbd34d0d7	-0.044144478

Encoder.encoder_lstm.weight_hh_l0 f4 [128, 32]
0	0x3fe583f4	1.7930894
1	0x407ee593	3.982762
2	0xbfd98171	-1.6992627
3	0x3f148959	0.58022076
4	0x3fe2fbd7	1.7733105
5	0xc0524392	-3.2853742
6	0xbf7ddf24	-0.9916861
7	0xbfe526e6	-1.7902496
8	0x3f09ec19	0.5387588
9	0xc058f611	-3.3900187
10	0x3f3965be	0.7242087
11	0xc00aa9d0	-2.1666145
12	0xbf6541db	-0.8955361
13	0x3f8bab13	1.0911583
14	0xbfd70d55	-1.6800944
15	0x3f811b29	1.0086414
16	0x405fd52d	3.4973862
17	0x3fd40dbf	1.6566695
18	0x404e29eb	3.2213085
19	0x401d5f04	2.4589243
20	0xc01aa04a	-2.4160333
21	0x3fe0c5ff	1.7560424
22	0xbf8f071e	-1.1174047
23	0x3f3efafd	0.7460173
24	0x3e8fa5fd	0.28056327
25	0xc038de77	-2.8885782
26	0xbe8918a6	-0.26776618
27	0xbfb3ee32	-1.4057066
28	0xc011bc24	-2.2771082
29	0xbf637cd8	-0.8886237
30	0xc089876b	-4.2977805
31	0x40233d3d	2.5506127
32	0x4048bafa	3.1364121
33	0xbf4b6a96	-0.7945951
34	0x4015824b	2.3360775
35	0x40063907	2.0972307
36	0xbeb361cb	-0.35035548
37	0x3e963e89	0.29344586
38	0x402ec486	2.7307448
39	0x3fa31f5a	1.2743943
40	0xbc6a3052	-0.014293747
41	0xbf5b4be2	-0.85662663
42	0xbf93cf85	-1.1547705
43	0x40308cbd	2.75859
44	0xbe716a50	-0.23575711
45	0x3fafd76e	1.3737619
46	0xc054a8eb	-3.32281
47	0xc056ec62	-3.3581777
48	0xbf3bf48f	-0.7342004
49	0x3fb474af	1.4098109
50	0x40551b2c	3.3297834
51	0xc0ab7fb6	-5.3593397
52	0xbfbb378a	-1.4626324
53	0x403eef96	2.9833732
54	0x3f736db6	0.9508928
55	0xc0838720	-4.1102448
56	0x40450297	3.078283
57	0x406e58bb	3.7241657
58	0x3d8ce6c1	0.0687995
59	0x40460b0d	3.0944245
60	0x3e7d7a72	0.2475374
61	0xbfa2bfbb	-1.2714761
62	0xbf99014f	-1.1953524
63	0x3fc5d92d	1.5456902
64	0xbffb69e6	-1.9641693
65	0x3f5676fe	0.8377532
66	0xc05cc605	-3.4495862
67	0x3ff2d072	1.8969862
68	0x40070da2	2.110207
69	0xc05859d0	-3.3804817
70	0xc02f7d8e	-2.7420382
71	0xbfb4af41	-1.4115983
72	0xc00f8671	-2.2425807
73	0x3fa9d29c	1.3267398
74	0x3fa58d40	1.2933731
75	0xbcb746a6	-0.022372555
76	0xc0877ab6	-4.2337294
77	0xbf958995	-1.1682612
78	0xbf238d86	-0.6388782
79	0x3f4eb95d	0.8075159
80	0x4037eac7	2.8737047
81	0xbe9b7083	-0.30359277
82	0x40360ce8	2.8445377
83	0xbffe72a1	-1.9878732
84	0x405ece11	3.4813273
85	0x3f974fc7	1.1821221
86	0xc04c882a	-3.1958108
87	0x403d35f3	2.9564178
88	0xbf36a339	-0.7134281
89	0xbfc725c7	-1.5558404
90	0x4008592a	2.1304421
91	0x408d3f93	4.4140105
92	0xbfab4af2	-1.3382246
93	0x3f8693b1	1.0513822
94	0xbf7cb54d	-0.98714143
95	0x3f9bbf25	1.2167708
96	0xbf56d07e	-0.83911884
97	0xbf1a4993	-0.60268515
98	0x3ea3d43e	0.31997865
99	0x3fb6aa84	1.4270787
100	0xbf605e03	-0.8764345
101	0xbd8fa1c0	-0.07013273
102	0xbfe6f06b	-1.804212
103	0xbf5ba31b	-0.85795754
104	0x3e94c1af	0.2905402
105	0xc082aa1a	-4.0832644
106	0xbfc2ed73	-1.5228714
107	0x40044b66	2.067102
108	0xbfafd9e6	-1.3738372
109	0x3f2b3d13	0.66890067
110	0x3f7077f7	0.9393305
111	0x3fcf25a3	1.6183361
112	0x400a7cef	2.1638753
113	0xbf053ac3	-0.5204279
114	0x3fc0b2ca	1.5054562
115	0xc038adb5	-2.8856022
116	0xc01d2290	-2.4552345
117	0x40a604a5	5.188067
118	0xbf607ec8	-0.8769345
119	0xbefc7778	-0.49309897
120	0xc012e9b5	-2.2955143
121	0xc090d4e2	-4.5259867
122	0xbedf46e9	-0.43608788
123	0x4002aadd	2.0416787
124	0xbd1c7a4c	-0.03820257
125	0x4099eb43	4.8099685
126	0xbfb8844f	-1.4415377
127	0x40056bb2	2.0846982
128	0x3fd4a1c6	1.6611869
129	0x3f878023	1.0585979
130	0x3d46077a	0.048346974
131	0x403a6670	2.9125023
132	0xbfd52b9a	-1.6653931
133	0x3fcbf7b6	1.593497
134	0x3e95b75f	0.29241464
135	0x3fce678c	1.612535
136	0x3fbc2595	1.4698969
137	0xc0b07bee	-5.515128
138	0x3f1d073f	0.6133918
139	0x40415b84	3.0212107
140	0x3f7bbe68	0.9833741
141	0xc093656e	-4.6061316
142	0xbf302275	-0.6880258
143	0x3ab62283	0.0013895783
144	0xbef48ec4	-0.47765172
145	0x3e8d9b3c	0.27657497
146	0x3f37443b	0.71588486
147	0xc045cc05	-3.0905774
148	0xbdd977b9	-0.106185384
149	0xbf48f26c	-0.78494906
150	0xc0fc040a	-7.875493
151	0x400e188a	2.2202477
152	0xc03b0ccc	-2.922656
153	0x40012665	2.0179684
154	0xbf89c6db	-1.0763811
155	0x402cc867	2.6997316
156	0x3e22d4dc	0.15901512
157	0x3fd4d042	1.6626055
158	0x3f8a22f7	1.079192
159	0x3fde93f0	1.7388897
160	0x400eba1d	2.2301095
161	0x401190a6	2.2744536
162	0xbfe5e5a5	-1.7960707
163	0x40129238	2.2901745
164	0x3fe842c1	1.8145372
165	0xbfd0dcf8	-1.6317434
166	0xbfdf93d9	-1.7466995
167	0xc0001ef6	-2.0018897
168	0x400ce1ae	2.2012744
169	0xbfc03f18	-1.5019255
170	0x3f399af5	0.7250207
171	0x3f9f5ffc	1.2451167
172	0xbff58414	-1.9180932
173	0xbfc4a565	-1.5362974
174	0xbfa78117	-1.308627
175	0xbf3c39fb	-0.7352597
176	0x4012f863	2.2964103
177	0xc023bf08	-2.5585346
178	0xbe5e7f19	-0.21728171
179	0xbfe3afc5	-1.7788016
180	0xbf9798d8	-1.1843519
181	0x4036736e	2.8507953
182	0x40182a6d	2.3775895
183	0x404b04ab	3.17216
184	0x3e2704c1	0.16310407
185	0xbf4dc41c	-0.80377364
186	0xbe80470d	-0.25054207
187	0x3f819698	1.0124083
188	0xbfb0731b	-1.3785127
189	0x3efba65d	0.49150363
190	0x3f084737	0.53233665
191	0x3fb2fba2	1.3983042
192	0xc0437fe4	-3.0546808
193	0xc02a7461	-2.6633532
194	0x3fbe4c1f	1.486698
195	0xc05416ab	-3.3138835
196	0xc09c043d	-4.8755174
197	0xbfaeb2c4	-1.3648305
198	0xbf281d2d	-0.6566952
199	0x3fe2177b	1.7663416
200	0xbf52b511	-0.82307535
201	0xbf26c8ab	-0.65149945
202	0x3fd39317	1.6529263
203	0x3f83867a	1.0275414
204	0xc02e927f	-2.7276914
205	0xc05cede9	-3.452021
206	0xc0a27ad5	-5.077494
207	0x3f7cf3d4	0.9880955
208	0x403ee08a	2.9824548
209	0x4049f6ea	3.1556954
210	0xbf5cf904	-0.8631747
211	0xc0015c9a	-2.021277
212	0xbfde0330	-1.7344723
213	0x3f271145	0.65260726
214	0x408a6abc	4.325529
215	0x3fd269a6	1.6438491
216	0x3fe95056	1.8227642
217	0xbfc02337	-1.5010747
218	0xc017195d	-2.360923
219	0x3f8be897	1.0930356
220	0xbf16dda1	-0.5893193
221	0xc009fd98	-2.1561031
222	0xbf0fe74f	-0.56212324
223	0xbf84402c	-1.0332084
224	0x40785efc	3.8807974
225	0x40130db1	2.2977107
226	0x40779d7f	3.8689878
227	0x405214cb	3.282519
228	0xbf261821	-0.6488057
229	0x3c8b1120	0.01697594
230	0xc003525c	-2.0519018
231	0xbfc81465	-1.5631224
232	0x3f13a201	0.57669073
233	0xbf0ee1dd	-0.5581339
234	0xbfb0e5ea	-1.3820164
235	0xbfb1e173	-1.3896927
236	0x3fb03b66	1.3768127
237	0xbeb22977	-0.3479726
238	0x3f51523f	0.8176612
239	0xc02680eb	-2.6016185
240	0x407395ac	3.8060102
241	0xc0189e18	-2.3846493
242	0xbedafb7d	-0.42769995
243	0x405584aa	3.3362222
244	0xbf8cf2ec	-1.1011634
245	0xbf879748	-1.0593042
246	0xc071d385	-3.7785351
247	0xc0049e0c	-2.0721464
248	0x3ee68ea7	0.4503071
249	0x4032d02c	2.7939558
250	0x3f1e6ac7	0.6188168
251	0xc05e69eb	-3.4752147
252	0xbf748edb	-0.9553048
253	0x3f335202	0.7004701
254	0x401d72a6	2.4601226
255	0xbf882231	-1.0635434

Encoder.encoder_lstm.bias_ih_l0 f4 [128]
0	0xbfa4d8e0	-1.2878685
1	0xc0044175	-2.0664952
2	0xbf719353	-0.94365424
3	0xc0052b00	-2.0807495
4	0x3f3a1b79	0.7269817
5	0x3e766540	0.24062061
6	0xbe5e07b6	-0.21682629
7	0xbf48f423	-0.78497523
8	0xbfdf617d	-1.7451626
9	0xbf457d01	-0.77143866
10	0x3c2d7004	0.010585789
11	0x3d3b1710	0.04567629
12	0xbec452ee	-0.3834452
13	0x3f92be69	1.1464359
14	0xbf8c3676	-1.095412
15	0xbf92096f	-1.1409129
16	0xbec84d21	-0.39121345
17	0xc00396d0	-2.0560799
18	0xbe0dac6f	-0.1383531
19	0x3e3101e7	0.17285882
20	0x3e7afa67	0.24509583
21	0xbec0d83e	-0.3766498
22	0xbf98a43f	-1.1925124
23	0xbeff7e27	-0.49900934
24	0xbea8df8e	-0.3298306
25	0xbf28e3a7	-0.6597237
26	0xbfcefcc3	-1.6170887
27	0xbf8f2fb4	-1.1186433
28	0xbd21a292	-0.03946168
29	0xbfae540f	-1.3619403
30	0xc0387288	-2.8819904
31	0xbe4122eb	-0.18860976
32	0x3eaafc75	0.33395734
33	0xc05cfcce	-3.45293
34	0xbfa236bb	-1.2672952
35	0xbe38ace5	-0.18034704
36	0xc01e78a7	-2.476114
37	0xc0028c1b	-2.0398014
38	0x3df7b1b3	0.1209444
39	0xbc7b6ad2	-0.015345292
40	0xbf90d49a	-1.1314881
41	0xbf62beac	-0.8857219
42	0x3fa59efd	1.2939144
43	0xc03e7109	-2.975649
44	0xc0086a8c	-2.131503
45	0xbeebc36f	-0.46047541
46	0xbfd12fa9	-1.634267
47	0xc0240b06	-2.5631728
48	0x3daf2ec2	0.0855384
49	0xbfe46161	-1.7842218
50	0x3eb90c41	0.3614216
51	0xc001759a	-2.0228028
52	0xbf808abe	-1.0042341
53	0xbefa73b1	-0.4891639
54	0xc08f0e22	-4.470475
55	0xbfe63d3e	-1.798744
56	0xbf9efdd3	-1.2421211
57	0xbfe26ed6	-1.7690074
58	0x3f2105c5	0.6289943
59	0xc026eac4	-2.608079
60	0xbffd4eb2	-1.9789641
61	0x3f654341	0.89555746
62	0xbfe5fa19	-1.7966949
63	0xbf743e65	-0.95407706
64	0x3e5ad4bf	0.21370219
65	0xbf75579f	-0.95836824
66	0xbf4f1487	-0.808907
67	0xbf33f8ac	-0.7030132
68	0xbe87a067	-0.26489565
69	0x3ea558fc	0.32294452
70	0x3ddd1573	0.10795107
71	0x3e360a5d	0.17777391
72	0xbfd15cce	-1.6356447
73	0x3f59e8ba	0.8512074
74	0xbfe654a2	-1.7994578
75	0xbe9e4780	-0.30913925
76	0xbebc9cc8	-0.36838365
77	0xbe6a463e	-0.22878358
78	0xbfbba9c9	-1.4661189
79	0xbebddbf7	-0.37081882
80	0xbf1cb362	-0.61211216
81	0xbe9d8a65	-0.3076965
82	0x3f0281c0	0.5097923
83	0xbedcd4c5	-0.4313108
84	0x3f8a9923	1.0827984
85	0xbf433a7d	-0.7626112
86	0xbe656401	-0.2240143
87	0xbefbd8b8	-0.4918878
88	0xbf34ebaa	-0.70672095
89	0xbf5e786a	-0.8690249
90	0xbf14a1a3	-0.5805914
91	0xbe6f3eb4	-0.23363763
92	0xbd97025c	-0.07373497
93	0x3f300bc4	0.6876795
94	0xbf3b6ec8	-0.73215914
95	0x3efd15ee	0.49430794
96	0xbfa0ae37	-1.2553166
97	0xc00eb377	-2.2297037
98	0xbf8e4ee8	-1.111783
99	0xc00be988	-2.1861286
100	0xbf9ad1b4	-1.2095246
101	0xbf74cb45	-0.95622665
102	0xc00198c9	-2.0249503
103	0xbf5a6523	-0.8531057
104	0xc02ce1be	-2.7012782
105	0xbffdbcf3	-1.9823288
106	0xbfc9867e	-1.5744169
107	0xbf8fd50a	-1.1236889
108	0xbfcf9a7d	-1.6219021
109	0x3e1f4880	0.15555
110	0xc006a9c0	-2.1041107
111	0xc03c1510	-2.9387856
112	0xbfcab270	-1.5835705
113	0xc0492974	-3.143155
114	0xc02e1bd9	-2.7204497
115	0xbf9deab3	-1.233725
116	0xbf802abb	-1.001304
117	0xc0575dbf	-3.3650968
118	0xc072912a	-3.79011
119	0xbf8c7bce	-1.0975282
120	0xc0647654	-3.5697222
121	0xbfe7ccba	-1.8109353
122	0xbfd2afb7	-1.6459874
123	0xbfb33d5d	-1.4003102
124	0xbfcabef9	-1.583953
125	0xbfec4af3	-1.8460373
126	0xc068d1ab	-3.637797
127	0xbebb2a3b	-0.36555657

Encoder.encoder_lstm.bias_hh_l0 f4 [128]
0	0xbf8231b2	-1.0171416
1	0xc0073070	-2.1123314
2	0xbf5463db	-0.8296487
3	0xc007ee5c	-2.1239233
4	0x3f29a7bf	0.66271585
5	0x3e976e80	0.29576492
6	0xbe972516	-0.29520482
7	0xbf309041	-0.68970114
8	0xbfcaefde	-1.5854452
9	0xbf83318c	-1.0249496
10	0xbc9fa368	-0.019487098
11	0x3d3aae97	0.045576658
12	0xbd43262b	-0.04764382
13	0x3f94b40f	1.161745
14	0xbfae37bd	-1.361076
15	0xbfabe87d	-1.3430325
16	0xbe07dc9f	-0.13267754
17	0xbff4ff75	-1.9140459
18	0xbe9c6afd	-0.30550376
19	0x3e379e06	0.17931375
20	0xbbef4daa	-0.0073029594
21	0xbefabb13	-0.4897085
22	0xbf997b08	-1.1990671
23	0xbf0635a6	-0.5242561
24	0xbedb1c06	-0.42794818
25	0xbf0c2acb	-0.54752797
26	0xbfcd5169	-1.604047
27	0xbf8a9eae	-1.0829675
28	0xbe8ea4d8	-0.2786014
29	0xbfb7df7f	-1.436508
30	0xc03d013a	-2.9531999
31	0xbeaf07fa	-0.34185773
32	0x3ef2db3e	0.47432894
33	0xc06395d9	-3.556021
34	0xbf872257	-1.0557355
35	0xbee6f67d	-0.4510993
36	0xc023195b	-2.5484226
37	0xbfdfbf6f	-1.7480296
38	0x3ea6f5fa	0.3260954
39	0x3de40473	0.11133661
40	0xbf77e50f	-0.9683389
41	0xbf8d0a0e	-1.1018693
42	0x3fc7d092	1.5610526
43	0xc02c244d	-2.6897156
44	0xc00a94fe	-2.1653438
45	0xbf16a0d9	-0.58839184
46	0xbff370b8	-1.9018774
47	0xc0257bc8	-2.58568
48	0xbdcc557b	-0.099772416
49	0xbff0a6f8	-1.8800955
50	0x3eaa10f7	0.33216068
51	0xc010a59f	-2.2601087
52	0xbf7779a7	-0.9667
53	0xbf01cd38	-0.50703764
54	0xc08dabc4	-4.4272175
55	0xbfdd6879	-1.7297508
56	0xbfae4d21	-1.3617288
57	0xbfda0be0	-1.7034874
58	0x3ef3c9aa	0.47614795
59	0xc020a2f9	-2.509947
60	0xbfe74267	-1.8067139
61	0x3f38917f	0.7209701
62	0xc0011e6e	-2.0174823
63	0xbf3168c7	-0.693005
64	0x3e95b42b	0.2923902
65	0xbf9bca0a	-1.2171032
66	0xbf3a979b	-0.7288758
67	0xbf2c2d4a	-0.67256606
68	0xbdd1157e	-0.102091774
69	0x3d8adcdd	0.067804076
70	0xbe1cf392	-0.1532729
71	0x3bb63b23	0.005561249
72	0xbfd4b689	-1.6618205
73	0x3f628652	0.88486207
74	0xbfba99ad	-1.4578148
75	0xbe61b0e7	-0.22040139
76	0xbef264a7	-0.47342417
77	0x3d984cc9	0.074365206
78	0xbfd1690a	-1.636018
79	0xbdb784a7	-0.08960848
80	0xbeee08b8	-0.46491027
81	0xbea97f0d	-0.33104745
82	0x3ebea48f	0.37234923
83	0xbf06ad14	-0.52607846
84	0x3f82a2d8	1.0205946
85	0xbf17ca31	-0.59292895
86	0xbe8b2a49	-0.271807
87	0xbf25434a	-0.645558
88	0xbef4c21d	-0.47804347
89	0xbf586779	-0.84532887
90	0xbe9d5b0c	-0.30733526
91	0xbe44b752	-0.19210556
92	0xbeb660a3	-0.35620603
93	0x3f75b84d	0.95984346
94	0xbf55f8d9	-0.83582836
95	0x3e3aea91	0.18253542
96	0xbfb8bb72	-1.4432204
97	0xc004a49d	-2.0725472
98	0xbf9d2789	-1.227769
99	0xc016c644	-2.3558512
100	0xbfa4ea1e	-1.2883947
101	0xbf9144b7	-1.1349095
102	0xc001e2b4	-2.0294619
103	0xbf902d25	-1.1263777
104	0xc0317567	-2.7727907
105	0xc004a6b1	-2.072674
106	0xbfde94db	-1.7389177
107	0xbf85b6cb	-1.0446409
108	0xbfcd5161	-1.604046
109	0x3eab3b5f	0.33443734
110	0xc00291a3	-2.040139
111	0xc0469d0a	-3.103335
112	0xbfdb6819	-1.7141143
113	0xc043a3c1	-3.0568697
114	0xc032ac29	-2.7917578
115	0xbfa28424	-1.2696576
116	0xbf887113	-1.0659508
117	0xc0570c72	-3.3601346
118	0xc0789323	-3.8839805
119	0xbf71d207	-0.944611
120	0xc0623742	-3.5346227
121	0xbfdca092	-1.7236502
122	0xbfc587c9	-1.5432063
123	0xbfa4b608	-1.2868052
124	0xbfbedca0	-1.491108
125	0xbfd383f3	-1.6524643
126	0xc061a82f	-3.52589
127	0xbf071a89	-0.52774864

Encoder.encoder_attn.0.weight f4 [20, 84]
0	0x4035e243	2.841935
1	0xc060b197	-3.5108392
2	0xbfb76201	-1.4326783
3	0xbf9cc7db	-1.2248491
4	0xbeb6ed8a	-0.35728103
5	0xbf9123f3	-1.1339096
6	0xbffc6a18	-1.9719877
7	0x3fab38bd	1.337669
8	0x3f664c04	0.8995974
9	0xbefc0204	-0.49220288
10	0xbff05192	-1.8774893
11	0x3f873fcb	1.0566343
12	0x40501745	3.2514203
13	0x3f46c4d0	0.7764406
14	0x40857efa	4.17175
15	0x402ef0c2	2.7334447
16	0xc0288f01	-2.6337283
17	0xc097a67d	-4.7390733
18	0xc0767350	-3.850788
19	0x3ffe4386	1.9864357
20	0xbf17a834	-0.5924103
21	0xbffea2e9	-1.9893466
22	0xc0385b0f	-2.8805578
23	0xc03e8db1	-2.9773982
24	0xbfd76969	-1.6829044
25	0xbea7f0e7	-0.3280098
26	0xc097ae23	-4.740007
27	0xbfd48bee	-1.6605203
28	0x4043c782	3.059052
29	0x3f326168	0.6967988
30	0x3e9258b8	0.28583312
31	0xc029127f	-2.641754
32	0xbf5aa0f5	-0.8540185
33	0xc0d62d1a	-6.6930056
34	0x3fc3c3ca	1.5294125
35	0x3fa16d3f	1.2611464
36	0xc09c1ef7	-4.87878
37	0x3f8a7654	1.0817361
38	0x3fd0115c	1.6255298
39	0xbf446748	-0.76720095
40	0xbf01d6ce	-0.5071839
41	0x407fd04a	3.997088
42	0xbfd83dbd	-1.6893841
43	0x3f6c10b2	0.92212975
44	0x4025c18a	2.5899377
45	0xbf46b386	-0.7761768
46	0x3fce4b8f	1.6116809
47	0x3fee9163	1.8638119
48	0x3f0a255f	0.53963274
49	0xc06c0644	-3.6878824
50	0xbf1d9417	-0.6155409
51	0xc0722492	-3.783482
52	0x3f2ef5dd	0.6834391
53	0xbf083f5f	-0.53221697
54	0xc06382d7	-3.5548608
55	0xbdfebe44	-0.12438634
56	0xbf2134a8	-0.6297097
57	0x4086271d	4.1922746
58	0xc077789a	-3.866736
59	0x3f37032f	0.7148923
60	0x3e8b3f67	0.2719681
61	0xbf1f35b3	-0.62191314
62	0xbfce036f	-1.6094798
63	0x3f1d3814	0.61413693
64	0xbf242a3f	-0.6412696
65	0x3f5c578e	0.860711
66	0xbfff2a39	-1.993476
67	0x3e302200	0.1720047
68	0xbe3da1ca	-0.18518749
69	0xbf44a6af	-0.7681684
70	0xbf4356f8	-0.7630458
71	0xbf21c9a4	-0.63198304
72	0xbe87f0c4	-0.26550877
73	0x3f018866	0.5059875
74	0xbf9f4e21	-1.2445718
75	0xc00d44f0	-2.2073326
76	0xbec6ae32	-0.38804775
77	0xbf74bbf7	-0.9559931
78	0x3ead4cc5	0.33847633
79	0x3f81be8c	1.0136275
80	0x3ee1a23a	0.44069082
81	0xbf52f282	-0.8240129
82	0x3dc50f24	0.096220285
83	0xbd86a1b6	-0.06573813
84	0xc02b82f6	-2.6798682
85	0x40094cf7	2.1453226
86	0xbf617a50	-0.8807726
87	0xbd6f03b4	-0.05835314
88	0x40a4d137	5.150539
89	0xbf83164b	-1.0241178
90	0xbf0518fe	-0.5199126
91	0x3d7764af	0.060398754
92	0xbc50905e	-0.012729732
93	0xc005c4a4	-2.090127
94	0xbfe308cc	-1.773706
95	0xbf27787e	-0.6541823
96	0x3fb25444	1.3931966
97	0x3dd72558	0.1050517
98	0xbf484790	-0.78234196
99	0x4009ebf8	2.1550274
100	0xc00b4cc3	-2.1765602
101	0xc018c108	-2.3867817
102	0xbf401143	-0.7502634
103	0x40927769	4.5770764
104	0x3feb5bfd	1.8387448
105	0xbf527006	-0.82202184
106	0xbf8036cb	-1.0016721
107	0x40a0f837	5.0302997
108	0xc00c4331	-2.191601
109	0xc015a67f	-2.338287
110	0x407e1e19	3.970587
111	0x3d65cba7	0.05610242
112	0x4038f27f	2.8898008
113	0xc0b3f1f5	-5.623286
114	0xc02bfeaa	-2.6874185
115	0x4083d4b3	4.1197143
116	0x3f8a91cc	1.0825744
117	0x4073aa7b	3.8072803
118	0xc005cd6c	-2.090663
119	0x40242588	2.5647907
120	0x3e8f3d8d	0.27976647
121	0xc01a9530	-2.4153557
122	0xbfa83170	-1.3140087
123	0xc0828a90	-4.0794144
124	0xbe9fa8bf	-0.3118343
125	0xc025d06d	-2.5908463
126	0x3fbf9630	1.4967709
127	0xbff4acbb	-1.9115213
128	0x401477a2	2.3198018
129	0x3f62c70a	0.8858496
130	0xbfa5699e	-1.2922857
131	0xc0b7a5c4	-5.738985
132	0xbe7157d7	-0.23568664
133	0x3f2fdba8	0.68694544
134	0x3f7fdaf6	0.9994348
135	0x3e8e9664	0.27849114
136	0x3f86596c	1.0496039
137	0xbf3fd358	-0.7493186
138	0xbe5cea41	-0.21573736
139	0x3f11fab7	0.57023185
140	0xbe9da7d0	-0.30792093
141	0xbf8e4857	-1.1115826
142	0x4056b791	3.354954
143	0xbfc1b6a5	-1.5133864
144	0xb9ab0fc6	-0.00032627414
145	0x3e911cd5	0.2834231
146	0xbf8d94bc	-1.1061015
147	0x4045728a	3.085116
148	0x3fafbde5	1.3729826
149	0x3f8c7570	1.0973339
150	0x3f0441f4	0.51663136
151	0x3f218200	0.6308899
152	0x3fc9a52f	1.5753535
153	0x3ec25e72	0.3796268
154	0x3d4770f8	0.04869172
155	0x401d2411	2.4553263
156	0x3f31aa4c	0.6940048
157	0x3e95790f	0.29193923
158	0xbf22e10f	-0.6362466
159	0x3ee777b0	0.45208502
160	0xbef6ba89	-0.4818919
161	0xbf95a602	-1.1691287
162	0x3f1b5ea6	0.606913
163	0x404173cf	3.0226934
164	0x3fffddfd	1.998962
165	0x3ebd7224	0.37001145
166	0x3f24ebea	0.64422476
167	0x3fc0cbee	1.5062234
168	0x3f017670	0.50571346
169	0xc008ca2f	-2.1373403
170	0x40ae13da	5.4399233
171	0xbd5d5c86	-0.054043315
172	0xbf5198ec	-0.81873965
173	0xbe7b8aa6	-0.24564609
174	0xbf4d01f0	-0.8008108
175	0xc0352503	-2.830384
176	0xbfd332b0	-1.6499844
177	0x3f3fc5dd	0.7491129
178	0x3fc6a416	1.5518825
179	0x4014ca2e	2.32484
180	0xbe049a89	-0.12949575
181	0xbe7f0148	-0.24902833
182	0x3fdc1b6d	1.719587
183	0x3fb2e8d9	1.397731
184	0xc022e18f	-2.545017
185	0xc02a6d1a	-2.662909
186	0x3df2bb62	0.11852147
187	0xbfe97ab7	-1.8240575
188	0x3e844a12	0.2583776
189	0x3fcdc9a0	1.6077156
190	0x40466a13	3.1002243
191	0xc00fae1d	-2.245002
192	0xc07e00fe	-3.9688106
193	0x3f5339f5	0.8251031
194	0x3f78c116	0.97169626
195	0xc0266c4f	-2.6003606
196	0x3fbd062f	1.4767512
197	0x3fa5543c	1.2916331
198	0xc0994c00	-4.7905273
199	0xc01d3490	-2.4563332
200	0xbd281213	-0.041032862
201	0xc04c7af3	-3.1950042
202	0x40099324	2.1496058
203	0xbf8f5542	-1.1197894
204	0x3e6b5829	0.22982849
205	0x40120722	2.2816854
206	0x407f78b7	3.9917428
207	0xbded6ac4	-0.115926296
208	0x3fd7c51b	1.6857027
209	0x3f5b6189	0.856957
210	0xc0811fdf	-4.0351405
211	0x3fd6606f	1.6748179
212	0x403db9f9	2.9644759
213	0xbf80e1e2	-1.0068934
214	0x3de3953a	0.11112447
215	0xbeea5c51	-0.45773557
216	0x402322d3	2.5490005
217	0xbeadf533	-0.33976135
218	0x40bebf22	5.9608316
219	0xc0582e82	-3.3778386
220	0xbf0c9670	-0.5491705
221	0xc02b5c7d	-2.67752
222	0xc058dafb	-3.3883655
223	0x3f41197d	0.7542952
224	0xc0d6a38d	-6.7074647
225	0x4074ab74	3.8229647
226	0xc0869206	-4.205325
227	0xc0486703	-3.1312873
228	0xbcfbaba4	-0.030721493
229	0x3f05ef20	0.52318
230	0xbefaae8f	-0.48961303
231	0xbf5d1aec	-0.86369205
232	0x3fed650b	1.8546461
233	0xbfb861aa	-1.4404805
234	0x3f049400	0.5178833
235	0xbe5c99ee	-0.21543095
236	0xbfb4b11a	-1.4116547
237	0x3e82b5e4	0.25529397
238	0xbeac5f51	-0.3366647
239	0xbdf8aa99	-0.12141914
240	0xbecb24bd	-0.39676467
241	0x3f66aa55	0.90103656
242	0x3e2312a0	0.15925074
243	0x3ee953e9	0.4557183
244	0x3f1debb8	0.61687803
245	0xbf3b0cf8	-0.73066664
246	0xbfa66c87	-1.300187
247	0xbf034fa9	-0.51293427
248	0xbf9f849e	-1.2462347
249	0x3fa3079d	1.2736698
250	0xbf56992a	-0.8382746
251	0x3e4c40cd	0.19946595
252	0x4042a590	3.0413551
253	0x40beafe0	5.958969
254	0xbf0304b2	-0.5117904
255	0x405bdb05	3.435243

Encoder.encoder_attn.0.bias f4 [20]
0	0x4033e1b2	2.8106503
1	0xbf183f71	-0.59471804
2	0xbe40099a	-0.18753663
3	0x3f50cde7	0.8156418
4	0x3eaf9904	0.3429643
5	0xbfe63ce2	-1.798733
6	0x3dd89b7f	0.105765335
7	0x4003e343	2.060746
8	0x4015efc8	2.34276
9	0x4027ea0e	2.6236606
10	0xbf21750c	-0.63069224
11	0xbf8001a0	-1.0000496
12	0x3fed77a8	1.8552141
13	0x405e0da8	3.4695835
14	0x3e8c8ab4	0.27449572
15	0xbd829318	-0.06375712
16	0xbfff5c99	-1.9950134
17	0xc004e592	-2.0765119
18	0xbf7661e6	-0.9624313
19	0x408109fa	4.032468

Encoder.encoder_attn.2.weight f4 [1, 20]
0	0xbe5c2280	-0.21497536
1	0x3e4c3adf	0.19944333
2	0xbe5bcdd2	-0.21465233
3	0xbdb71fcf	-0.08941614
4	0x3e2964f5	0.16542418
5	0x3e4ad954	0.19809467
6	0xbdba06dc	-0.090833396
7	0x3e2eb867	0.17062531
8	0xbdb433da	-0.087989524
9	0xbe174b1c	-0.14774746
10	0x3e074033	0.13208084
11	0x3e3ac9ee	0.18241093
12	0xbe1e516a	-0.15460745
13	0xbe18081b	-0.14846842
14	0x3d663be9	0.05620948
15	0x3e07faa2	0.13279203
16	0x3e019c13	0.12657194
17	0x3e0b272e	0.13589165
18	0xbde5809c	-0.11206171
19	0xbdbcd543	-0.09220364

Encoder.SelfAttention.wq.weight f4 [20, 20]
0	0x3f29240f	0.66070646
1	0xbe38b302	-0.18037036
2	0x3f49daf9	0.7884975
3	0xbe8a9e3a	-0.27073842
4	0xc00780fd	-2.1172478
5	0x3fb52648	1.4152308
6	0x3ec39ae4	0.3820411
7	0xbe9592db	-0.29213604
8	0xbec2d057	-0.38049576
9	0xbff28c92	-1.8949149
10	0x3ede5b6f	0.43429133
11	0xbe1bc576	-0.15212044
12	0x3f3f60d0	0.747571
13	0x3fbbac55	1.4661967
14	0x3f6473b1	0.8923903
15	0xbf70073f	-0.93761057
16	0xbf46026d	-0.7734745
17	0xc054d8a7	-3.3257234
18	0xbfd40e2c	-1.6566825
19	0x3ffb5597	1.9635495
20	0x3fc3b470	1.528944
21	0x3f895858	1.0730085
22	0xbf7b049c	-0.9805391
23	0x3ee20e48	0.4415152
24	0xbf0070a3	-0.5017187
25	0x3ef828c2	0.48468596
26	0x3f8c329f	1.0952948
27	0xbf951c01	-1.1649171
28	0xbffc035d	-1.9688526
29	0x3fa53267	1.2906007
30	0x3f8870df	1.0659446
31	0xbf45606b	-0.7710025
32	0x3ef97f35	0.48729864
33	0xbfa9ae06	-1.3256233
34	0x4000a446	2.0100265
35	0x3f5f597b	0.8724591
36	0xbfc78115	-1.5586268
37	0xbe05e6d3	-0.13076334
38	0x3fb840f5	1.4394823
39	0xc00d9d42	-2.2127233
40	0xbe2714ee	-0.16316578
41	0xbde96d41	-0.11397792
42	0xbf4dcd51	-0.8039141
43	0x3e851b71	0.259975
44	0x3f95a08f	1.1689624
45	0xbe0bc018	-0.13647497
46	0x3feb7a05	1.8396612
47	0xbef99364	-0.48745263
48	0xbf6f9954	-0.93593335
49	0xbf42e2c0	-0.76127243
50	0x3f01cb02	0.5070039
51	0x3d8ef126	0.06979589
52	0x3fc3cccd	1.5296875
53	0xc0120daa	-2.282084
54	0x4021311a	2.518622
55	0xbfceed67	-1.61662
56	0xbef5ba50	-0.47993708
57	0xbf79eed4	-0.9763005
58	0x3d8fb19b	0.070162974
59	0x3fcc85fd	1.597839
60	0x3e0cb719	0.13741721
61	0xbba68c4a	-0.0050826417
62	0xbf4df82d	-0.8045681
63	0x3d7d2f3d	0.061812628
64	0xbe0bc593	-0.13649587
65	0x3ecfb5ab	0.4056829
66	0xbf82c9e0	-1.0217857
67	0xbf910b5e	-1.1331594
68	0xbfbacf9c	-1.4594607
69	0xbe991c00	-0.29904175
70	0xbf0f8c39	-0.5607334
71	0xc00c553d	-2.1927025
72	0xbf7d48c5	-0.9893916
73	0xbfaa9130	-1.3325558
74	0x3f0143a5	0.5049384
75	0x3fe1d0ff	1.7641906
76	0xbfb73983	-1.4314426
77	0x3fc700ce	1.554712
78	0x3ec67d30	0.38767385
79	0x404f9f2c	3.24409
80	0xbf716f03	-0.94310015
81	0xbe9b898a	-0.3037837
82	0x3f75137f	0.95732874
83	0xbf8eb1d1	-1.1148015
84	0x4037260b	2.861697
85	0xbe96c662	-0.2944823
86	0xbe85d3fd	-0.26138297
87	0xbf037137	-0.5134463
88	0x3fd8a3fc	1.6925044
89	0xc00e4ee8	-2.223566
90	0xbef22390	-0.47292757
91	0xbe0dcf7d	-0.13848682
92	0x3fe45ef7	1.7841481
93	0x3f58d5df	0.8470134
94	0x3e537aae	0.20652267
95	0x3ead7c43	0.33883867
96	0x3f4cf596	0.80062234
97	0xbd06bb89	-0.03289369
98	0x3e8933db	0.26797375
99	0xbeed5fc2	-0.4636212
100	0xbf85ce52	-1.0453589
101	0x3e43e296	0.19129404
102	0xbca6b5ad	-0.020350302
103	0x3fc51b72	1.5399001
104	0x3f812448	1.0089197
105	0x3d96bd16	0.07360284
106	0x3f066055	0.5249074
107	0x3dcd2efb	0.100187264
108	0xbe324a9b	-0.17411272
109	0xbe67e35e	-0.22645327
110	0x3f704b8d	0.9386528
111	0x3fbb5254	1.46345
112	0xbfa9ecbf	-1.3275374
113	0xbf6024dd	-0.8755625
114	0x40001518	2.0012875
115	0x3f3c4bb0	0.7355299
116	0xbf86b930	-1.0525265
117	0xbf0a1262	-0.539343
118	0x3fb8621c	1.4404941
119	0xbf532935	-0.8248475
120	0x3eeb5549	0.45963505
121	0xc0058d36	-2.0867438
122	0xbe1d4c77	-0.153612
123	0x3f2986c3	0.66221255
124	0x3f1b6164	0.6069548
125	0x3f1b16ed	0.60581857
126	0xbf84386a	-1.0329716
127	0x3f159dda	0.5844399
128	0x3ff78105	1.9336249
129	0xbf8408e4	-1.0315213
130	0xbf8aefde	-1.0854452
131	0xbfe0fd06	-1.7577217
132	0x3f67aecb	0.9050109
133	0x3f2fd019	0.68676907
134	0x3f275e77	0.65378517
135	0x3f9ad9ad	1.2097679
136	0xc04558fe	-3.0835567
137	0x4012ef4e	2.295856
138	0x3f8f821e	1.1211584
139	0xbf4d2e0c	-0.80148387
140	0x3d99c0c3	0.075074695
141	0x3f7aef8d	0.98021775
142	0xbf2bae80	-0.6706314
143	0xbe79c3bf	-0.24391077
144	0x3f404760	0.7510891
145	0x3ebbf63b	0.36711296
146	0xbfee233d	-1.8604504
147	0x4069d3aa	3.653544
148	0x3eb453cc	0.35220182
149	0xbeec5e9d	-0.46165934
150	0x3eae7503	0.34073648
151	0x400b68f4	2.1782808
152	0xbf36c710	-0.71397495
153	0xbc164391	-0.0091713825
154	0x3f7b54f1	0.98176485
155	0xbe2f4aed	-0.17118426
156	0xc00dc597	-2.215185
157	0x3f9d0493	1.2267021
158	0xc01168f1	-2.27203
159	0xbe923aa4	-0.28560364
160	0xbedf62d1	-0.43630078
161	0xbfb7a71c	-1.4347873
162	0xbf42d276	-0.7610239
163	0xbf5a3796	-0.8524107
164	0xbfa65d93	-1.2997307
165	0x3f94e33c	1.1631846
166	0xbe2f89fd	-0.17142482
167	0x3e31b9a2	0.1735597
168	0xc01b620b	-2.427859
169	0x403b89bd	2.9302819
170	0xbdd87bf9	-0.10570521
171	0x3f93963c	1.1530223
172	0x3f4b42e9	0.7939897
173	0xbfe8f605	-1.8200079
174	0x3f5d6675	0.8648446
175	0x3e99831c	0.2998284
176	0xbfd758c5	-1.6823965
177	0x3f9ae5b9	1.2101356
178	0x3fa56bfa	1.2923577
179	0x3fa074b7	1.2535619
180	0x3e516819	0.20449866
181	0x3f989365	1.1919981
182	0xbf776199	-0.966333
183	0xbc555842	-0.013021531
184	0x3fbb9b11	1.4656698
185	0xbffeccd9	-1.9906265
186	0x3fe277eb	1.7692846
187	0xbf13f05e	-0.57788646
188	0xbf8c8d01	-1.0980531
189	0xc02276fd	-2.5385125
190	0x3fbc3bba	1.4705727
191	0x3e603ae3	0.21897464
192	0xbfa3e60b	-1.2804579
193	0x3fc9b690	1.5758839
194	0xbeca98f2	-0.39569813
195	0x400ad589	2.1692832
196	0x3fe6ee21	1.8041421
197	0xbf0e524f	-0.5559434
198	0x3c073ae9	0.008253791
199	0xbfcc762b	-1.5973562
200	0xbeb085b7	-0.34477016
201	0x3e8d9517	0.2765281
202	0xc021a1be	-2.525497
203	0xbf73cf53	-0.95238227
204	0x3cd4ebec	0.025991403
205	0xbe24dfe3	-0.16101031
206	0xbfb1153c	-1.3834605
207	0xbfe80727	-1.8127183
208	0x3f87f6d6	1.0622203
209	0x3fc1f85f	1.5153922
210	0xbf16f35c	-0.58965087
211	0x3f763c7b	0.96186036
212	0xbf818401	-1.0118409
213	0x3eb789d5	0.35847345
214	0x3fbdd6ec	1.4831214
215	0x3fb2d02c	1.3969779
216	0x3f993e82	1.1972201
217	0xbf8cf19f	-1.1011237
218	0x3fb0d61a	1.3815339
219	0x3fba48e1	1.4553491
220	0xbd947feb	-0.07250961
221	0xbf6b4821	-0.91906935
222	0x3f5f7898	0.87293386
223	0x3f447f6e	0.7675694
224	0xbf9787b4	-1.1838288
225	0x40089cb4	2.1345644
226	0xbe81de82	-0.25365072
227	0xbfa964b8	-1.3233862
228	0x3f4f57cd	0.8099335
229	0x3e939bd5	0.28829828
230	0xc00307d2	-2.0473523
231	0x3f93dde0	1.1552086
232	0x3fc6869b	1.5509828
233	0xbe24cd4f	-0.16093944
234	0xbf5e3f73	-0.86815566
235	0x40017ca8	2.0232334
236	0x3f915692	1.1354544
237	0xbf2d9616	-0.6780714
238	0x3e44ce28	0.19219267
239	0xbfcee651	-1.6164037
240	0xbee77777	-0.45208332
241	0x3ebff479	0.37491205
242	0xbf6b9c17	-0.9203505
243	0x3f0b75cd	0.54476625
244	0xbfadf230	-1.3589535
245	0x3fb0e529	1.3819934
246	0xbf46291d	-0.77406484
247	0x3f2c83c0	0.67388535
248	0x3f4f1b04	0.809006
249	0x3e530aef	0.2060964
250	0x3ec69c86	0.38791293
251	0xbd9218b5	-0.07133619
252	0xbfe74d45	-1.8070456
253	0x40157325	2.3351529
254	0x40308374	2.7580233
255	0xbfe196ba	-1.7624123

Encoder.SelfAttention.wk.weight f4 [20, 20]
0	0x3fcaa532	1.5831664
1	0xbe8f4b87	-0.2798731
2	0x3c30116c	0.010746341
3	0xbfa55891	-1.2917653
4	0x3d06c654	0.032903984
5	0x3e8d555d	0.2760419
6	0xbf163131	-0.5866881
7	0x3f5fadec	0.8737476
8	0xbee69ac5	-0.45039955
9	0xc0011c99	-2.0173705
10	0x3ccba09d	0.02485686
11	0x3fb1e822	1.3898966
12	0x3fbd8871	1.4807264
13	0x3e847386	0.25869387
14	0xbffe23d7	-1.9854687
15	0xbfbabf8e	-1.4589708
16	0xbe7947bf	-0.24343775
17	0xc05606da	-3.3441682
18	0x400dceb7	2.2157419
19	0xbe50f555	-0.20406087
20	0x3f30b314	0.6902325
21	0x3fa8fd9e	1.3202398
22	0xbedc26cc	-0.4299835
23	0x3e53fae8	0.20701182
24	0x3f63648a	0.88825285
25	0x3f91a77b	1.1379236
26	0xbf467a1b	-0.7753007
27	0xbffe4058	-1.9863386
28	0xbf5eb71b	-0.86998147
29	0x3f4d7f31	0.80272204
30	0xbd787775	-0.060660798
31	0xc01eb494	-2.4797716
32	0x3f106797	0.56408066
33	0x3fd8cb21	1.693699
34	0x40491b46	3.1422896
35	0xbfafcf59	-1.3735152
36	0xc03406e2	-2.81292
37	0x3fa71d1b	1.3055757
38	0xbe9e0306	-0.30861682
39	0xbc6cf19e	-0.014461903
40	0x3e23c33d	0.15992446
41	0xbf68c9bd	-0.9093283
42	0xbf6843f1	-0.9072867
43	0x3f72adac	0.9479625
44	0xbdfe3448	-0.124123156
45	0x3ecc05e7	0.39848253
46	0x3f376956	0.71645105
47	0x3dbdf2de	0.09274839
48	0xbfcfb840	-1.6228104
49	0xbea3b773	-0.31975898
50	0x3e55f893	0.20895605
51	0x3fb7eded	1.4369484
52	0x3b668373	0.0035173565
53	0xbc98b037	-0.018638713
54	0x3f92ba3b	1.1463083
55	0xc05ed0d2	-3.4814954
56	0xbecefebe	-0.40428728
57	0xbf786199	-0.9702392
58	0x3f96a6a7	1.1769608
59	0x3f5d1973	0.8636696
60	0x3f0bcf2e	0.54613006
61	0xbe593661	-0.2121215
62	0x3d97f02a	0.074188545
63	0xbf20c0b3	-0.62794036
64	0x3c4629eb	0.012094955
65	0xbfcc7b77	-1.5975178
66	0xbf23ec9c	-0.6403291
67	0x3efc17e9	0.49236992
68	0xbfb4dcd8	-1.4129896
69	0xbff6ea11	-1.9290181
70	0xbf92874c	-1.1447539
71	0xbfc0278f	-1.5012072
72	0xbf809711	-1.0046102
73	0xbf7b8e21	-0.98263747
74	0x3f544000	0.82910156
75	0xbf85566b	-1.0416998
76	0xbf08261c	-0.5318315
77	0x3f9fb2dc	1.2476459
78	0x4038ee74	2.889554
79	0x3fa44283	1.2832798
80	0xbf48f5f0	-0.7850027
81	0xbef990e8	-0.48743367
82	0xbf2531f4	-0.6452935
83	0x3f1b4867	0.6065735
84	0x3f9758d1	1.182398
85	0xbeb3b9c6	-0.3510267
86	0xbda4dc9b	-0.0804989
87	0xbe99c04e	-0.3002953
88	0xbf388527	-0.72078174
89	0xbf592a3d	-0.84830076
90	0xbfc292f5	-1.5201098
91	0x3ff06c5a	1.8783066
92	0x3ebed7c8	0.37274003
93	0x3f95b9a9	1.1697284
94	0xbf9e7310	-1.2378864
95	0xbe5000eb	-0.2031285
96	0x401e0283	2.4689033
97	0x3f2b657f	0.66951746
98	0xbf65a005	-0.89697295
99	0xbecc4ca7	-0.3990223
100	0xbfc3cfec	-1.5297828
101	0xbdfabdb5	-0.12243215
102	0x3f6f1774	0.9339516
103	0x3ea160de	0.31519216
104	0x3fa299ac	1.2703147
105	0xbe2eb1fa	-0.1706008
106	0xbebb7e23	-0.36619672
107	0x3f89f806	1.0778816
108	0xbfc1d1c8	-1.5142145
109	0x3f0e46fc	0.55577064
110	0x3d8aba06	0.067737624
111	0x3e32b7ba	0.17452899
112	0xbf5b8c2d	-0.85760766
113	0x3f13cb41	0.57732016
114	0x3fd90398	1.6954222
115	0xbe9bff79	-0.30468348
116	0xbfd8d6e5	-1.6940581
117	0xbee1c7fc	-0.44097888
118	0xbf6380b3	-0.88868254
119	0x3f431fdc	0.7622049
120	0xbebf7e8a	-0.3740123
121	0xc006827f	-2.1017148
122	0x3f9a6e0f	1.2064837
123	0x3d0874f9	0.03331468
124	0x3fcd84bf	1.6056136
125	0x3e99ed4a	0.3006385
126	0xbd77d015	-0.060501177
127	0x3f38b11c	0.7214525
128	0x3f9c8516	1.2228115
129	0xc014068f	-2.3129003
130	0xbfaf0995	-1.3674799
131	0xbf8e69d2	-1.1126044
132	0xbf517f82	-0.81835186
133	0x40115149	2.2705863
134	0xbe98caaa	-0.2984212
135	0xbf000831	-0.500125
136	0x3d20b45b	0.0392345
137	0x4037a65f	2.8695295
138	0xbf5a38be	-0.8524283
139	0xbe4f3962	-0.20236734
140	0x3efe6a4b	0.4969047
141	0xbee03949	-0.43793705
142	0xbf17a670	-0.5923834
143	0xbf3ccb4e	-0.7374772
144	0x4011078f	2.2660863
145	0xc01d966a	-2.4623055
146	0x3ff90ad5	1.9456431
147	0x40102a90	2.2525978
148	0x3f811980	1.0085907
149	0x3f8a4693	1.0802788
150	0x3f070414	0.527406
151	0x3f738c03	0.95135516
152	0xbec236b1	-0.3793235
153	0x3f09e5c2	0.5386621
154	0x3eb4d63d	0.353197
155	0xbea4f7b1	-0.32220224
156	0xbffa9d5e	-1.9579275
157	0x3e8dd0cf	0.2769837
158	0xbf6eba80	-0.93253326
159	0xbf863b60	-1.048687
160	0xbfcd8cc2	-1.6058581
161	0xbf90688e	-1.1281908
162	0xbf77dfeb	-0.96826047
163	0xc0127974	-2.288663
164	0x3c81f1fa	0.015862454
165	0x3f9087c9	1.1291438
166	0x3f8a38bc	1.0798564
167	0xbf6797b6	-0.9046587
168	0x3f1960a6	0.599131
169	0x3f90332b	1.1265615
170	0x3fe18db7	1.7621373
171	0xbe12eeac	-0.14348859
172	0xbe32ece5	-0.1747318
173	0xbe6606e5	-0.22463568
174	0x3f340b7b	0.7033002
175	0xbeab9677	-0.33513233
176	0xc019b57b	-2.4017017
177	0x3fcf547c	1.6197658
178	0x3f43afa4	0.7643988
179	0x3fc5a031	1.5439512
180	0x3ef2ebaa	0.47445422
181	0x3f980936	1.1877811
182	0xbf96c2b9	-1.1778175
183	0x3f8bf4c3	1.093407
184	0x3d295d1f	0.041348573
185	0xbef15a9a	-0.47139436
186	0x3f148b5d	0.5802515
187	0xbf5fec83	-0.87470263
188	0xc071d5a3	-3.7786644
189	0xbf0f5d07	-0.56001323
190	0x3d5d931d	0.054095376
191	0xbf8204df	-1.0157737
192	0x3fa600fb	1.2969049
193	0x3f802546	1.0011375
194	0x3fa80cc0	1.3128891
195	0x401a2072	2.4082303
196	0x3fd3fdfa	1.6561882
197	0xbe27822a	-0.16358247
198	0xbf980c02	-1.1878664
199	0xbf69af8d	-0.91283494
200	0xbfaf0acb	-1.3675169
201	0xbfc5f08c	-1.5464034
202	0xbfcb3295	-1.5874811
203	0xbf61c790	-0.88195133
204	0xbfcbf3e9	-1.593381
205	0xbff1be24	-1.8886151
206	0xbfa0c01a	-1.2558625
207	0x3f085fad	0.5327099
208	0x3ecb1c51	0.3967004
209	0x3f12e698	0.5738311
210	0xbe7143d2	-0.23561028
211	0xbeede52f	-0.46463916
212	0x3fba4c02	1.4554446
213	0x3fb82bd6	1.4388378
214	0x3fb342a1	1.4004709
215	0x3fb5f8a8	1.4216509
216	0x3ed11529	0.40836456
217	0xbf4a46a8	-0.7901406
218	0x3f4cf8dd	0.80067235
219	0x3f2f146d	0.6839054
220	0xbffb822b	-1.9649099
221	0x3f62f431	0.88653857
222	0x3f7167df	0.9429912
223	0xbf90cb6c	-1.131208
224	0x3f6d97c2	0.9280969
225	0x3fc2ba80	1.5213165
226	0x3d9a10ba	0.075227216
227	0xc0024436	-2.0354133
228	0x40080d36	2.1258063
229	0xbf31c09f	-0.6943454
230	0xbf9dd366	-1.2330139
231	0x3f37ea09	0.71841484
232	0x3faf8de4	1.3715177
233	0x3f004b62	0.50115025
234	0x3f032a59	0.5123649
235	0x3fd76d3e	1.6830213
236	0x3f421053	0.7580616
237	0xbde1f315	-0.11032692
238	0xbe1e5b76	-0.15464577
239	0xbf2b6347	-0.6694836
240	0xbd58119f	-0.05275118
241	0xbf73555f	-0.9505214
242	0x3f91020d	1.1328751
243	0xbf976936	-1.1828983
244	0x3dd40116	0.103517696
245	0x3f89fccb	1.0780271
246	0xbf0e4b83	-0.5558397
247	0x4038ef4b	2.8896053
248	0x3e7e3d30	0.24828029
249	0x3fb17122	1.386265
250	0x3f834cf6	1.0257862
251	0xbfb17eb1	-1.3866788
252	0xbd9a77f2	-0.07542409
253	0x401c7d28	2.445139
254	0x3ee8651a	0.45389634
255	0xbee66c48	-0.45004487

Encoder.SelfAttention.wv.weight f4 [20, 20]
0	0xbe444181	-0.19165613
1	0xbf6a4e0e	-0.9152535
2	0xbe922243	-0.28541765
3	0xbec1688a	-0.3777507
4	0x3e78be76	0.24291405
5	0xbeb4efc1	-0.35339168
6	0x3e79f4ff	0.24409865
7	0x3b282d72	0.0025661853
8	0xbe04a123	-0.12952094
9	0x3f44b880	0.76844025
10	0xbfa81d7c	-1.3133998
11	0xbf30f4de	-0.6912364
12	0x3f9a8dc6	1.2074516
13	0x3dfa9b34	0.12236634
14	0x3ed4f621	0.4159403
15	0x3f1c9b48	0.6117444
16	0xbf9f5b6c	-1.2449775
17	0xbe07bbe5	-0.1325527
18	0x3faad1bd	1.3345257
19	0xbe09a3cb	-0.13441388
20	0x3dcba1b0	0.09942949
21	0xbdeedf22	-0.11663653
22	0x3f687db8	0.9081683
23	0xbf93238e	-1.1495225
24	0xbe6880de	-0.22705409
25	0xbdb2f01c	-0.087372035
26	0xbf4cf929	-0.8006769
27	0xbf98142c	-1.1881156
28	0x3e2d023b	0.16895382
29	0xbf46d553	-0.77669257
30	0xbf7163d6	-0.9429296
31	0x3f39880e	0.7247323
32	0xbdaf4b7a	-0.08559318
33	0xbe8c6652	-0.27421814
34	0x3d098561	0.033574466
35	0x3f3faf46	0.7487682
36	0x3f000fcb	0.500241
37	0xbe4d853b	-0.20070355
38	0x3f8899a1	1.0671884
39	0x3eff4e84	0.4986459
40	0x3f735959	0.9505821
41	0x3ef64898	0.4810226
42	0xbe8e7797	-0.27825615
43	0xbfa2ac1a	-1.2708771
44	0xbe9c5445	-0.30533043
45	0x3e5b220f	0.21399711
46	0xbfc09f32	-1.5048583
47	0xbeaefb22	-0.34175974
48	0xbf78eb1f	-0.97233766
49	0x3e964e64	0.29356682
50	0xbfa9e552	-1.3273108
51	0xbec5fee5	-0.38671032
52	0xbe4335f8	-0.19063556
53	0x3f43bbb7	0.76458305
54	0xbef25b11	-0.47335103
55	0xbf469536	-0.7757143
56	0xbed9175b	-0.4240063
57	0xbd0a0c7e	-0.03370332
58	0x3fb7c089	1.4355632
59	0x3f8e6f92	1.1127799
60	0xbec722c3	-0.3889371
61	0x3f2b8c34	0.6701081
62	0x3dae190d	0.08500872
63	0x3d833816	0.06407182
64	0xbe6559e9	-0.22397579
65	0xbe8564a8	-0.26053357
66	0xbea16d11	-0.31528524
67	0xbf8cd45b	-1.1002306
68	0xbfe8e4b7	-1.8194798
69	0x3fa93299	1.3218566
70	0x3e8b9111	0.27259114
71	0xbfc21271	-1.5161878
72	0x3ef82106	0.48462695
73	0xbf7b4267	-0.98148197
74	0x3f061b58	0.52385473
75	0x3f15cd6e	0.58516586
76	0x3e0dda58	0.13852823
77	0x3ef7223d	0.4826831
78	0x3f784334	0.96977544
79	0x400bbe31	2.1834834
80	0xbfc34a3e	-1.5257032
81	0xbeadc4a3	-0.33939084
82	0xbf872ec7	-1.056115
83	0xbd32dc0f	-0.043666895
84	0x3f33002a	0.69922125
85	0x3f83cf71	1.0297681
86	0x3f51a389	0.8189016
87	0xbf934a2f	-1.1507014
88	0x3ef2f0ce	0.47449344
89	0x3ee141b1	0.4399543
90	0x3deea4bf	0.116525166
91	0xbf94a8fe	-1.1614072
92	0xbec1af21	-0.37828925
93	0xbf013ead	-0.5048626
94	0xbf50b4f0	-0.8152609
95	0x3f0f2542	0.55916226
96	0xbedb469a	-0.42827302
97	0x3cc357be	0.02384555
98	0x3f20f8ad	0.6287945
99	0x3f34db65	0.7064727
100	0xbe8a714a	-0.27039558
101	0xbd72efb4	-0.05931063
102	0xbf05314c	-0.52028346
103	0x3f039361	0.5139676
104	0xbd70ac86	-0.05875828
105	0xbf6040ac	-0.8759868
106	0x3f24349a	0.64142764
107	0x3f3246a6	0.6963905
108	0x3f086869	0.5328432
109	0xbed9fcca	-0.42575675
110	0xbe9a6c56	-0.3016078
111	0x3e8c07fa	0.27349836
112	0xbdcedc8c	-0.1010066
113	0x3e2a357e	0.16621968
114	0xbf266e5b	-0.6501214
115	0x3f1997eb	0.59997433
116	0xbee03eb0	-0.43797827
117	0xbe678705	-0.226101
118	0x3f5e0531	0.8672667
119	0x3ff06c08	1.8782969
120	0xbf52e2ec	-0.82377505
121	0x3ccceb43	0.025014525
122	0xbf335f98	-0.7006774
123	0x3e2df827	0.16989194
124	0xbf3e7b3f	-0.7440681
125	0xbeb1ce22	-0.3472758
126	0xbd83437a	-0.064093545
127	0xbe0c3557	-0.13692223
128	0xbf25d7b0	-0.6478224
129	0xbca5855e	-0.020205196
130	0x3f08a906	0.5338291
131	0xbf5aa033	-0.85400695
132	0xbe16b493	-0.14717321
133	0x3e9a25f9	0.30107096
134	0x3e874cdf	0.26425835
135	0x3eaf9dac	0.34299982
136	0x3ebb27c7	0.36553785
137	0xbeb652f6	-0.3561017
138	0x3fbc493a	1.4709847
139	0x3f4a2028	0.78955317
140	0x3ea9de21	0.33177283
141	0xbedb7796	-0.42864674
142	0x3ebf0af3	0.3731304
143	0x3eb49ad6	0.3527438
144	0xbf3de9a7	-0.7418465
145	0xbf59155f	-0.84798235
146	0xbec344c3	-0.381384
147	0xbf44a090	-0.768075
148	0x3f1c2ba0	0.61004066
149	0x3db231b9	0.0870089
150	0x3f22121e	0.63308895
151	0xbdb0c7bc	-0.08631846
152	0xbeeb6774	-0.45977366
153	0xbef57796	-0.479428
154	0x3ecda344	0.40163624
155	0xbf8dc95f	-1.1077079
156	0xbe26ba1d	-0.16281934
157	0x3fc672de	1.5503805
158	0x3f81040d	1.0079361
159	0x3f651b5f	0.8949489
160	0x3ec9a344	0.39382374
161	0x3f07719a	0.5290772
162	0x3aa49d75	0.0012559133
163	0x3edf6f08	0.43639398
164	0x3eb003f1	0.34378007
165	0xbea1124c	-0.31459272
166	0xbf32f8a0	-0.6991062
167	0x3ef2b158	0.47400928
168	0x3c739a15	0.014868279
169	0xbf62b909	-0.8856359
170	0xbf66b073	-0.9011299
171	0xbf170c6e	-0.5900334
172	0xbfb3468b	-1.4005903
173	0xbfeaa3ef	-1.8331279
174	0xbc3c2356	-0.011483034
175	0xbe9e5dfc	-0.3093108
176	0xbe0fd421	-0.14045765
177	0x3f6764b8	0.9038806
178	0x3e31dad3	0.17368631
179	0x401faf40	2.4950714
180	0xbe6ffb95	-0.23435815
181	0x3f1d4bd6	0.6144384
182	0xbdfe7304	-0.12424281
183	0x3ef45555	0.47721353
184	0xbf31d378	-0.694633
185	0x3f892ef7	1.0717458
186	0x3f6655ee	0.8997487
187	0x3e59647d	0.2122974
188	0xbfa7afce	-1.3100526
189	0xbeff01a6	-0.49805945
190	0x3e00265e	0.12514636
191	0x3f26152a	0.64876044
192	0x3d6b273e	0.05741047
193	0xbef045d0	-0.46928263
194	0x3eef7f0e	0.46776623
195	0xbfb0c969	-1.3811466
196	0xbdd6cc17	-0.10488146
197	0xbf2fa528	-0.68611383
198	0x401980cd	2.3984864
199	0xbfaeb567	-1.364911
200	0x3e488cf7	0.19585024
201	0xbfcc3dce	-1.5956361
202	0x3e43de3e	0.19127747
203	0xbf83d70a	-1.03
204	0xbf01b703	-0.5066988
205	0x3f6c71d6	0.923612
206	0x3d869b6e	0.065726146
207	0xbfb85fee	-1.4404275
208	0x3e9c9a78	0.305866
209	0xbf864852	-1.049082
210	0x3ee736b0	0.4515891
211	0x3f795d15	0.97407657
212	0x3f241f58	0.64110327
213	0x400e424a	2.222796
214	0xbfbc1b89	-1.4695903
215	0x3dd8e727	0.10590964
216	0xbfde2b95	-1.735705
217	0xbf55dcd4	-0.8354008
218	0xbf9afddf	-1.2108725
219	0x409dc3e9	4.930165
220	0x3e107c5d	0.14109941
221	0xbdbff131	-0.093721755
222	0xbf039777	-0.5140299
223	0xbe8bdacd	-0.2731537
224	0xbff3a249	-1.90339
225	0xbfc3a70e	-1.5285356
226	0x3e8c0928	0.27350736
227	0x3f45e744	0.7730601
228	0x3ed5e464	0.4177581
229	0x3f100219	0.562532
230	0xbf3520c6	-0.70753133
231	0xbdc00a5d	-0.09376977
232	0x3e87f89a	0.26556855
233	0x3ecea27c	0.4035834
234	0x3e9f9ded	0.31175175
235	0xbf146b28	-0.5797601
236	0x3f1f11fe	0.6213683
237	0x3edd8579	0.43265894
238	0x3fb2beb1	1.3964444
239	0xbcaec2f0	-0.021333188
240	0x3f4ce1a3	0.80031794
241	0x3f091446	0.5354656
242	0x3f208332	0.6270019
243	0x3f10c3ee	0.56548965
244	0xbe03710f	-0.12836097
245	0xbfe0d2d6	-1.7564342
246	0x3eb59c88	0.35470986
247	0x3e898b11	0.26863912
248	0x3e0bfa8f	0.136698
249	0x3f13b2c2	0.5769464
250	0xbf084a06	-0.5323795
251	0xbf7db0fb	-0.99098176
252	0xbe421037	-0.18951498
253	0xbdc104b5	-0.09424726
254	0xbf584f15	-0.8449567
255	0xbfa9ac4c	-1.3255706
