result/ver6/best.pt (torch, 233510 bytes, 57 tensors)

Encoder.encoder_lstm.weight_ih_l0 f4 [128, 6]
0	0x3f04ec28	0.51922846
1	0x3f04e641	0.5191384
2	0xbe4bb746	-0.19894132
3	0x3f2a5957	0.6654257
4	0x3f235299	0.6379791
5	0x3ebb7ff4	0.36621058
6	0xbf1e3e5a	-0.6181389
7	0xbf6d7bc0	-0.9276695
8	0xbed4df94	-0.41576827
9	0xbff014a2	-1.8756297
10	0xbf752f29	-0.95775086
11	0xbfa52780	-1.290268
12	0xbf9fc0e2	-1.2480738
13	0x3f3e932a	0.74443305
14	0xbef3448b	-0.47513232
15	0xbfbec437	-1.490363
16	0xc00b9354	-2.1808672
17	0x3f65d0e3	0.8977186
18	0xbfa52d98	-1.2904539
19	0x3fa5658b	1.2921613
20	0x3ef6c4dc	0.48197067
21	0x3f4b6798	0.79454947
22	0xbe570dfd	-0.2100143
23	0x400483f4	2.0705538
24	0xbf71bf92	-0.9443294
25	0xbf339061	-0.7014218
26	0x3db0ef76	0.086394235
27	0x3dd54ad2	0.104146615
28	0xbe2a2de8	-0.16619074
29	0xbf6f72ae	-0.9353436
30	0xbf114f52	-0.5676166
31	0xbf8e8163	-1.1133236
32	0x3f62d292	0.88602555
33	0x3ec51404	0.38491833
34	0xbf4b0752	-0.79308045
35	0x3ed28952	0.41120392
36	0xbe05dc11	-0.1307223
37	0xbf2a78f9	-0.6659084
38	0xbf7aa000	-0.9790039
39	0x3f0fddb3	0.5619766
40	0x3e746c6e	0.23869488
41	0xbf2cd65d	-0.6751459
42	0x3d391fee	0.045196466
43	0x3ece96a0	0.40349293
44	0xbfb0f21a	-1.3823884
45	0xbe4e9ac2	-0.20176223
46	0x3f5721fc	0.8403623
47	0xbfe004ff	-1.7501525
48	0x3f27d4b7	0.6555895
49	0x3ed1123c	0.40834224
50	0x3fd29eb7	1.6454686
51	0xbebf9f94	-0.37426436
52	0x3e39eb64	0.181562
53	0x3fbef4e7	1.4918488
54	0xbff443d7	-1.9083203
55	0xbe2883ba	-0.164565
56	0xbf3777a9	-0.7166696
57	0x3f831319	1.0240203
58	0x3f212aa5	0.62955695
59	0x39684236	0.0002214991
60	0xbf3c2f1f	-0.735094
61	0x3f5cdf93	0.8627865
62	0xbf110874	-0.56653523
63	0xbf4f0a9c	-0.80875564
64	0xbf61746e	-0.8806828
65	0x3e81c701	0.2534714
66	0xbf42dbfd	-0.76116925
67	0x3eeae151	0.45875028
68	0x3f2d364d	0.6766098
69	0x3e44390d	0.19162388
70	0x3f14188b	0.5784995
71	0x3f0d48ad	0.5518902
72	0xc00cbb94	-2.1989489
73	0xbf8118e7	-1.0085725
74	0xbee052e4	-0.4381324
75	0x3edda475	0.43289533
76	0x3f92e6d8	1.1476698
77	0x3f4eb939	0.8075138
78	0xbc3c588c	-0.011495721
79	0x3e217067	0.15765534
80	0x3fb1ab90	1.3880482
81	0x3eee8ee0	0.4659338
82	0xbfa29079	-1.270034
83	0x3fc2dce5	1.5223662
84	0x3f38850b	0.7207801
85	0xbf663a90	-0.8993311
86	0xbf0b27b3	-0.5435745
87	0x3fe6590d	1.7995926
88	0x3f9dd4b4	1.2330537
89	0xbe137202	-0.1439896
90	0x3f3d3367	0.7390656
91	0x3faa517b	1.3306116
92	0x3f306c7b	0.6891553
93	0x3e2776e0	0.16353941
94	0xbf931b5e	-1.1492727
95	0x3f5c60fb	0.8608548
96	0xbf46eaa9	-0.77701813
97	0xbd50d952	-0.050988503
98	0xbe721467	-0.23640595
99	0x3f15ac8d	0.58466417
100	0x3f58f043	0.8474161
101	0xbf62e081	-0.88623816
102	0xbe93dce2	-0.28879458
103	0xbf8e8e44	-1.1137166
104	0x3e42f920	0.19040346
105	0xbf273f35	-0.6533082
106	0xbf5b324d	-0.8562363
107	0x3f0152cf	0.5051698
108	0x3e2f334d	0.17109413
109	0x3d1a7a87	0.037714507
110	0x3f5ee365	0.87065727
111	0x3f8fb3dc	1.1226764
112	0x3f3f53ff	0.7473754
113	0x3fce22e9	1.6104404
114	0xbeb99ab5	-0.36250845
115	0x3f9c08c2	1.2190173
116	0x3e65972c	0.22420949
117	0xbf05193d	-0.51991636
118	0xbfb3c185	-1.4043432
119	0x3fba30f7	1.4546193
120	0x3f315ea5	0.6928504
121	0x3e7e715f	0.24847935
122	0x3f6f720f	0.93533415
123	0x3fac9705	1.3483588
124	0x3fd448bf	1.65847
125	0x3f94baab	1.1619467
126	0xbf0f3cc2	-0.55952084
127	0x3ea71f40	0.3264103
128	0xbe78cd7a	-0.24297133
129	0xbf1aa963	-0.60414714
130	0xbee22ecd	-0.4417633
131	0x3f3ae152	0.7300006
132	0x3f54e438	0.83160734
133	0x3f83cae9	1.0296298
134	0x3f28abd0	0.65887165
135	0x3f679a49	0.90469795
136	0x3fb86207	1.4404916
137	0xbead64fd	-0.3386611
138	0xbfdcb45b	-1.724254
139	0xbfac0f84	-1.3442235
140	0xbe0e8a68	-0.13919985
141	0xbcfbe683	-0.030749565
142	0x3f241517	0.6409468
143	0xbdde97b1	-0.108687766
144	0x3f1b710a	0.6071936
145	0x3f44e512	0.76912034
146	0x3ff45eb3	1.90914
147	0x3fa1165d	1.258495
148	0x3dbf1af5	0.093313135
149	0x3fe1cab4	1.7639985
150	0xbfa75e3b	-1.3075632
151	0xbef2ab06	-0.47396106
152	0xbe9354d3	-0.28775653
153	0xbc91314d	-0.017723704
154	0x3f50fd90	0.81636906
155	0xbf60195c	-0.87538695
156	0xbf39d7a1	-0.7259465
157	0xbee5c603	-0.44877633
158	0x3f4678d3	0.77528113
159	0x3f46c1a8	0.77639246
160	0x3f8308eb	1.0237097
161	0x3f15ed01	0.58564764
162	0xbf831c83	-1.0243076
163	0xbf60c7b6	-0.87804735
164	0xbe467b3f	-0.19382952
165	0xbe91829e	-0.28419966
166	0xbf56ec75	-0.83954555
167	0x3e8952a9	0.26820877
168	0x3c89706d	0.016777242
169	0xbf1c6764	-0.6109526
170	0x3f81a960	1.0129814
171	0xbe82a54a	-0.2551673
172	0xbf795d72	-0.9740821
173	0x3ec2d683	0.38054284
174	0x3f45e612	0.77304184
175	0x3fc6ff41	1.5546647
176	0x3fce2a31	1.6106626
177	0x3f670cb9	0.9025379
178	0x3f81b514	1.0133386
179	0x4009825f	2.1485822
180	0xbfc3e85c	-1.5305285
181	0xbed3fa0d	-0.4140171
182	0xbf630aff	-0.88688654
183	0xbf8fa1f2	-1.1221297
184	0x3d68bb83	0.05681945
185	0xbdf28883	-0.11842444
186	0x3fa6250e	1.2980058
187	0x3f49c1d1	0.78811365
188	0x3fc8d790	1.5690784
189	0xc005dd4e	-2.0916324
190	0xbfb540bb	-1.4160379
191	0xbeb72931	-0.35773614
192	0xbf5e15d8	-0.8675208
193	0xbf90b126	-1.1304061
194	0xbfc06843	-1.5031818
195	0xbfbfac44	-1.4974446
196	0xbf8c90bd	-1.0981671
197	0xbef2ade3	-0.4739829
198	0xbf308a33	-0.68960875
199	0x3f0e4311	0.55571085
200	0xbf072312	-0.5278789
201	0x3f3dde14	0.7416699
202	0x3fab7e47	1.3397912
203	0x3e64c6fd	0.22341533
204	0xbf253084	-0.64527154
205	0xbfdc29c4	-1.7200246
206	0xbf671d64	-0.9027922
207	0xbf4a5576	-0.79036653
208	0xbf039980	-0.514061
209	0xbfa1d976	-1.2644489
210	0xbec93d52	-0.39304596
211	0xbd99bb2e	-0.07506405
212	0x3e926274	0.2859074
213	0xbe8c0dbe	-0.27354234
214	0xbeaa9e0c	-0.33323705
215	0x3f587a7f	0.84561914
216	0xbfe9eb1a	-1.8274872
217	0xbf73bc6e	-0.95209396
218	0xbdd9937f	-0.10623836
219	0xbf476a03	-0.77896136
220	0xbe3daa5d	-0.1852202
221	0xbf2432a0	-0.6413975
222	0xbf2ed6f3	-0.68296736
223	0xbf9fc7ac	-1.248281
224	0xbee61cd2	-0.44943863
225	0xbf2ddc17	-0.67913955
226	0xbe2f402f	-0.17114328
227	0xbfa6be6b	-1.3026861
228	0x3f986a4f	1.1907443
229	0xbfbf5f4d	-1.4950958
230	0xbe522ab3	-0.20524101
231	0xbf6fa768	-0.93614817
232	0xbf89a477	-1.0753316
233	0xbfad96d1	-1.356165
234	0x3e700e00	0.2344284
235	0xbf5196e2	-0.81870854
236	0xbeac8473	-0.336948
237	0xbf26d127	-0.6516289
238	0x3d814394	0.06311718
239	0xbeae7cc5	-0.34079567
240	0x3ff6bb55	1.9275919
241	0x3a6a5d2d	0.0008940276
242	0x40152066	2.3301024
243	0xbe40cf96	-0.18829188
244	0x3f23804f	0.6386766
245	0x3f99f6ee	1.2028482
246	0xbfe649e7	-1.7991303
247	0xbfe88bac	-1.8167624
248	0xbf818a39	-1.0120307
249	0x3ef1d67e	0.47233957
250	0x3f467acd	0.7753113
251	0xbf9efb70	-1.2420483
252	0xbf7c20f7	-0.984878
253	0xbf7884da	-0.97077715
254	0xbf35e99a	-0.7105957
255	0xbf02548e	-0.5091027

Encoder.encoder_lstm.weight_hh_l0 f4 [128, 32]
0	0x3f5571ea	0.83376944
1	0x3e73b3a6	0.23798999
2	0x3f83643c	1.0264964
3	0x3e929cf1	0.28635362
4	0x3f2fd42a	0.6868311
5	0x3fc75e1e	1.5575597
6	0x3f0e12a3	0.5549719
7	0xbfdd79e1	-1.730282
8	0xbf91870d	-1.1369339
9	0xbfd2647f	-1.6436919
10	0x3e15e4b3	0.14638023
11	0x3f44f293	0.7693264
12	0x3fae18f7	1.3601369
13	0xbfb55733	-1.4167236
14	0xbf46d816	-0.7767347
15	0xbea792ae	-0.32729095
16	0x3f9eb044	1.2397542
17	0x3ed5f4ad	0.41788235
18	0x3f58c11c	0.8466966
19	0xbe9e0265	-0.30861202
20	0xbf418039	-0.7558628
21	0x3ecb75e6	0.39738387
22	0xbda512a9	-0.080602
23	0xbfda8de0	-1.7074547
24	0xbf835ef7	-1.0263356
25	0xbf879382	-1.0591891
26	0x3ea5109c	0.32239234
27	0xbf4e2016	-0.8051771
28	0x3e04ac36	0.12956318
29	0x3f91e9e9	1.1399509
30	0x3e8a772a	0.2704404
31	0xbf8e952d	-1.1139275
32	0xbf5e7be9	-0.8690782
33	0x3fe751f0	1.807188
34	0x3ebd1258	0.36928058
35	0x3f7337d8	0.95007086
36	0xbf49e692	-0.7886745
37	0x3f218f10	0.6310892
38	0xbebbd82f	-0.36688372
39	0x3fab5636	1.3385684
40	0xbf75620b	-0.95852727
41	0x3d7aea78	0.061258763
42	0xbfa6c122	-1.302769
43	0xbea068f4	-0.31330073
44	0x3f27537b	0.65361756
45	0x3e9ac689	0.30229595
46	0x3cefffa2	0.0292967
47	0xbfa06d87	-1.2533425
48	0x3e0bd95f	0.13657139
49	0x3ef26550	0.4734292
50	0xbf0e9082	-0.5568925
51	0x3ed8f45a	0.42373925
52	0x3fb52ca9	1.4154254
53	0x3ceb7664	0.028742976
54	0x3e462585	0.1935025
55	0xbfcf5924	-1.6199079
56	0x3e613b27	0.21995221
57	0x3e22e5a9	0.15907921
58	0xbf03980e	-0.5140389
59	0x3eb0cb68	0.34530187
60	0xbf2aa60e	-0.6665963
61	0x3f14f293	0.5818264
62	0x3fded7f8	1.7409658
63	0xbfa17d14	-1.2616296
64	0x3f4ea251	0.80716425
65	0x3e277bed	0.16355868
66	0xbf14b134	-0.5808289
67	0x3eebfc19	0.46090773
68	0xbea559c6	-0.32295054
69	0x3ecc2338	0.3987062
70	0x3f23db0f	0.6400613
71	0xbeafd622	-0.34343058
72	0x3e1477b1	0.14498784
73	0x3f457b25	0.7714103
74	0x3fa35b55	1.2762247
75	0xbfa94116	-1.3222988
76	0x3e565087	0.20929156
77	0x3bf28d89	0.007402126
78	0x3e75abd2	0.23991325
79	0x3f15a247	0.5845074
80	0x3ce8a9ec	0.028401338
81	0xbd1a8ff3	-0.037734937
82	0xbf86be73	-1.052687
83	0x3d460566	0.048344992
84	0x3f119633	0.5686981
85	0xbfa04b51	-1.2522985
86	0xbea4eba5	-0.32211033
87	0xbfa90c54	-1.3206887
88	0x3f3b00d0	0.73048115
89	0x3e352454	0.1768964
90	0x3f29cf03	0.663315
91	0x3f4522d7	0.77006286
92	0xbe8f784a	-0.2802146
93	0x3fdc1e19	1.7196685
94	0x3f33e744	0.7027476
95	0xbf00c0dd	-0.50294286
96	0x3ed417d9	0.41424444
97	0x3f3a6685	0.7281268
98	0xbeff4f71	-0.49865296
99	0xbda3819d	-0.07983706
100	0xbf04e894	-0.51917386
101	0x3e93fdce	0.28904575
102	0xbf35dee7	-0.71043247
103	0x3e13cb95	0.14433129
104	0xbeb9683c	-0.36212337
105	0x3ebaebc6	0.36508006
106	0xbefc4461	-0.4927092
107	0xbf189117	-0.5959639
108	0x3fb30cd5	1.3988291
109	0xbdf2eb65	-0.11861304
110	0x3f55d0a9	0.83521515
111	0x3f11870b	0.56846684
112	0x3eaf0a61	0.34187606
113	0x3ecde745	0.40215507
114	0x3f1a5c71	0.60297304
115	0x3f3d001e	0.73828304
116	0xbecd7128	-0.40125394
117	0x3f70d25a	0.9407097
118	0xbfe6ab30	-1.8020992
119	0xbf82690a	-1.0188305
120	0xbe182440	-0.14857578
121	0xc00175aa	-2.0228066
122	0x3ea5aac9	0.3235686
123	0x3de5d1d4	0.11221662
124	0x3f3a74c3	0.72834414
125	0xbf276b04	-0.6539767
126	0x3f7ae9d4	0.98013043
127	0x3e6bcec9	0.23028101
128	0xbf246701	-0.6421967
129	0x3f08a092	0.5337001
130	0x3f0d812b	0.5527522
131	0xbf952aa1	-1.1653634
132	0x3f28d7db	0.6595437
133	0x3dc9f44c	0.09861049
134	0x3ee84dca	0.45371848
135	0x3ef44650	0.47709894
136	0xbf8b5140	-1.088417
137	0xbe4c0a70	-0.19925857
138	0xbdd7ceb4	-0.10537472
139	0x3f033b3d	0.51262265
140	0x3f4bb234	0.7956879
141	0xbf7885ce	-0.9707917
142	0x3fa3cae3	1.2796291
143	0x3ebc98c8	0.36835313
144	0x3f1efbfa	0.62103236
145	0xbe0b37dc	-0.13595527
146	0xbf4e088f	-0.8048181
147	0x3c381918	0.011236452
148	0xbf325f20	-0.696764
149	0xbf959133	-1.1684936
150	0xbf8c9ba8	-1.0985003
151	0xbf2c20a6	-0.6723732
152	0x3f259bbb	0.6469075
153	0xbfc51c04	-1.5399175
154	0x3f94ad96	1.1615474
155	0x3f93dd75	1.1551958
156	0xbe81c5ce	-0.25346226
157	0x3e816bc9	0.25277546
158	0xbf149b83	-0.5804979
159	0xbff2f714	-1.8981652
160	0x3e7c0932	0.24612883
161	0x3edfe500	0.437294
162	0xbed4a46a	-0.41531688
163	0x3c925c48	0.017866269
164	0xbef0c11e	-0.47022337
165	0xbe1f9aec	-0.15586442
166	0xbdf725e9	-0.12067778
167	0xbe4203af	-0.18946718
168	0x3f4dac6c	0.8034122
169	0x3dacfd2a	0.08446725
170	0xbef94b6a	-0.4869035
171	0xbea48778	-0.32134604
172	0x3e7fef36	0.24993595
173	0xbed62d3d	-0.4183139
174	0xbec4668e	-0.38359493
175	0x3f0d34a4	0.5515845
176	0xbf97608f	-1.1826342
177	0x3e9b9755	0.30388895
178	0x3f8a2228	1.0791674
179	0x3de6d2e8	0.11270696
180	0x3f6492f2	0.8928672
181	0xbe494d68	-0.19658434
182	0xbefc2adc	-0.4925145
183	0xbc87e5d9	-0.016589092
184	0x39a0c7df	0.00030666494
185	0xbd9b3787	-0.075789504
186	0x3ea06331	0.31325677
187	0xbeae821f	-0.3408365
188	0xbf4d0f10	-0.8010111
189	0xbebd5373	-0.3697773
190	0x3eb995e3	0.36247167
191	0x3e23336f	0.15937589
192	0x3f2d1e54	0.676244
193	0x3e9be31b	0.30446705
194	0xbf8b3875	-1.0876604
195	0x3f34baff	0.70597833
196	0xbf18bce3	-0.5966322
197	0xbf484c0e	-0.7824105
198	0xbf1168ed	-0.5680073
199	0xbd79c40e	-0.060977988
200	0x3f63a589	0.8892446
201	0x3f512448	0.81695986
202	0xbf16a496	-0.5884489
203	0xbe2d0b58	-0.16898859
204	0xbec76735	-0.38945928
205	0x3f1ba30c	0.60795665
206	0x3ec55003	0.38537607
207	0x3e3b1f21	0.18273593
208	0xbf3f30fc	-0.7468412
209	0xbf9ef81d	-1.2419468
210	0x3e3db475	0.1852587
211	0x3fb14a8e	1.3850877
212	0x3dac1342	0.08402111
213	0xbfc1cded	-1.5140969
214	0x3e0c1081	0.1367817
215	0xbf12656b	-0.57186
216	0x3f874e6b	1.0570806
217	0xbd394eef	-0.045241293
218	0x3f90d9ea	1.1316502
219	0x3fa58b22	1.2933085
220	0xbf97627b	-1.1826929
221	0xbe3b636f	-0.1829965
222	0xbf3165fc	-0.6929624
223	0xbccc9592	-0.024973664
224	0x3f983312	1.1890585
225	0x3d9df196	0.077120945
226	0x3e094d1b	0.1340832
227	0x3f82d70e	1.022188
228	0xbe2bb030	-0.16766429
229	0xbf9a8e79	-1.2074729
230	0x3e9b8462	0.30374438
231	0xbf71432a	-0.9424311
232	0x3f858230	1.0430355
233	0xbd074db9	-0.033033106
234	0xbf9a10a9	-1.2036334
235	0xbe0b9e32	-0.13634565
236	0xbefc9ff0	-0.49340773
237	0xbe86ed60	-0.26352978
238	0x3e6f3767	0.23360978
239	0x3c99700d	0.018730188
240	0x3d1461be	0.036226027
241	0xbfba87f1	-1.4572736
242	0x3e410068	0.18847811
243	0x3f44912f	0.7678403
244	0xbf9a82d2	-1.2071173
245	0xbf762c3a	-0.96161234
246	0xbe5b27a9	-0.21401848
247	0x3e013407	0.12617503
248	0x402155bc	2.5208578
249	0x3f169d4f	0.58833784
250	0x3da64862	0.08119275
251	0x3f9bdd36	1.2176883
252	0xbe30e49f	-0.17274712
253	0xbddb39ca	-0.10704382
254	0xbee3d7ba	-0.44500524
255	0xbfed0904	-1.8518376

Encoder.encoder_lstm.bias_ih_l0 f4 [128]
0	0x3ded252c	0.115793556
1	0x3e88602b	0.2663587
2	0xbf1ccf2b	-0.61253613
3	0xbeadd6bf	-0.339529
4	0x3e35ae08	0.17742169
5	0xbe5b24a6	-0.21400699
6	0x3db11067	0.086457066
7	0x3dd64043	0.10461476
8	0xbecefe74	-0.40428507
9	0xbf1532aa	-0.5828043
10	0xbf018d47	-0.506062
11	0xbf838eef	-1.0277995
12	0xbf4a68d5	-0.7906621
13	0xbf150558	-0.5821128
14	0xbf4bd166	-0.7961639
15	0xbf36fe21	-0.7148152
16	0x3e52027d	0.20508762
17	0xbeb948c0	-0.36188316
18	0xbebeebd0	-0.37289286
19	0xbee2531d	-0.44204035
20	0xbf156d25	-0.58369666
21	0x3bf2cb9d	0.0074095265
22	0xbeb8c933	-0.36091003
23	0x3b592baf	0.003313761
24	0xbf42ceb7	-0.7609667
25	0xbf2a8168	-0.6660371
26	0xbeaf3177	-0.34217426
27	0xbf7350ed	-0.9504536
28	0x3dfb8230	0.12280691
29	0xbe1af16b	-0.15131156
30	0xbe41ec74	-0.18937856
31	0xbf539d9b	-0.8266236
32	0xbe042edd	-0.12908502
33	0xbf556cbe	-0.8336905
34	0xbd2b247f	-0.041782852
35	0xbeceeb86	-0.40414065
36	0xbf7480a0	-0.95508766
37	0x3f6ff04e	0.9372605
38	0x3ddeb5bd	0.108745076
39	0xbf1dc91b	-0.6163499
40	0xbf0945ee	-0.5362233
41	0xbdf2a96a	-0.118487194
42	0x3ab91291	0.0014119913
43	0x3e399ed4	0.18126994
44	0x3d1d6bc2	0.038432844
45	0xbda40e9c	-0.08010599
46	0x3ec155bf	0.37760732
47	0xbedd9e84	-0.43285
48	0xbfad4299	-1.3535949
49	0x3fc6f94f	1.5544833
50	0xbd6e63fb	-0.058200818
51	0x3ef5a918	0.4798057
52	0xbf5517ca	-0.83239424
53	0x3d1c5a31	0.03817195
54	0xbe829c4a	-0.25509864
55	0x3ecc93e6	0.39956588
56	0x3eb960b0	0.3620658
57	0xbf1cee07	-0.613007
58	0xbeb41b9a	-0.35177308
59	0x3f1feccd	0.62470704
60	0x3f4fbd2d	0.81148034
61	0xbf617c11	-0.88079935
62	0xbf1644cc	-0.58698726
63	0xbdfca66f	-0.12336432
64	0x3ace0905	0.0015719241
65	0xbe933ca1	-0.28757194
66	0x3eb42376	0.35183305
67	0x3c83e175	0.016098717
68	0xbe079373	-0.13239841
69	0xbe115935	-0.14194186
70	0x3e996647	0.29960844
71	0xbe50d725	-0.20394571
72	0x3e2bc480	0.16774178
73	0xbd0bebcb	-0.034160417
74	0x3d4da258	0.05020365
75	0x3e4145a5	0.18874224
76	0x3e65e60d	0.22451039
77	0xbd67e623	-0.05661596
78	0x3e91389b	0.283635
79	0x3e8de536	0.27713937
80	0x3dbc6a5d	0.09199975
81	0xbc994e5f	-0.018714128
82	0xbe30f118	-0.1727947
83	0xbdf76374	-0.12079516
84	0x3e363c22	0.17796376
85	0xbd899684	-0.06718162
86	0x3bd63ff3	0.006538385
87	0x3de89922	0.11357333
88	0x3e16d784	0.1473065
89	0xbe36a584	-0.17836577
90	0x3e54f381	0.20796014
91	0xbe68d926	-0.22739086
92	0xbea15e4d	-0.31517258
93	0x3e1abb09	0.15110411
94	0x3d3d7244	0.04625155
95	0x3e4c9d97	0.19981991
96	0xbea1cb62	-0.3160048
97	0xbe379003	-0.1792603
98	0xbef48daf	-0.47764346
99	0xbe509221	-0.20368244
100	0xbe8d6336	-0.27614754
101	0xbeb166e2	-0.34648806
102	0x3de9beec	0.114133686
103	0xbdb773e3	-0.089576505
104	0xbf689a01	-0.9085999
105	0xbf3b3a92	-0.73136246
106	0xbf11c6c6	-0.5694393
107	0xbecc1b2a	-0.39864475
108	0xbefa2bd6	-0.4886157
109	0xbee451bb	-0.44593605
110	0xbe4241cd	-0.18970414
111	0xbeb8ad84	-0.36069882
112	0x3dcad279	0.09903426
113	0xbdbacbd9	-0.09120912
114	0xbe3524a8	-0.17689764
115	0xbede2ba0	-0.43392658
116	0xbf1d19dc	-0.61367583
117	0xbe73c5e1	-0.23805954
118	0xbe9c7868	-0.30560613
119	0xbf354e6f	-0.70822805
120	0xbf47d4a1	-0.7805882
121	0xbef71ad5	-0.4826266
122	0xbecedd74	-0.4040333
123	0xbd48aaa1	-0.04899085
124	0xbe8585fb	-0.2607878
125	0xbf61c8ed	-0.88197213
126	0xbf10deff	-0.56590265
127	0xbf6f1d90	-0.93404484

Encoder.encoder_lstm.bias_hh_l0 f4 [128]
0	0x3cf33656	0.029688995
1	0x3e4cc9ae	0.1999881
2	0xbf20d840	-0.6282997
3	0xbea8cae4	-0.32967293
4	0xbd772592	-0.060338564
5	0xbd0e52ab	-0.034746807
6	0xbd39a060	-0.04531896
7	0x3e004e0f	0.12529777
8	0xbe01b0d2	-0.12665108
9	0xbf1c897b	-0.6114728
10	0xbf44fd0a	-0.76948607
11	0xbf47c201	-0.780304
12	0xbf49951f	-0.78743166
13	0xbf42d3ec	-0.7610462
14	0xbf5929ac	-0.8482921
15	0xbf0f7157	-0.5603232
16	0x3e55283b	0.20816128
17	0xbf23d848	-0.64001894
18	0xbed7504c	-0.4205345
19	0xbef5061b	-0.4785622
20	0xbf07af30	-0.5300169
21	0xbd37cbc1	-0.04487205
22	0xbddcf09c	-0.1078808
23	0xbe539159	-0.20660914
24	0xbf6ffa05	-0.93740875
25	0xbf00bb80	-0.502861
26	0xbe7e94d3	-0.2486146
27	0xbf6ba1db	-0.92043847
28	0xbd12be39	-0.03582594
29	0xbeb76624	-0.35820115
30	0xbdbd84f7	-0.09253877
31	0xbf4b8b62	-0.79509556
32	0xbe9e9778	-0.30974936
33	0xbf513ccf	-0.8173341
34	0xbe139c18	-0.14415014
35	0xbf184ff6	-0.5949701
36	0xbf741b53	-0.95354193
37	0x3f3eed82	0.7458116
38	0x3d877f51	0.066160806
39	0xbf5c4d18	-0.86055136
40	0xbeba86ea	-0.36431056
41	0xbed86c41	-0.4227009
42	0x3d8dca9a	0.06923409
43	0x3e4b2214	0.19837219
44	0xbe800762	-0.25005633
45	0xbd4f278d	-0.050574828
46	0x3e95f1ab	0.2928594
47	0xbf0ab917	-0.54188675
48	0xbfbe5ffe	-1.4873044
49	0x3fb41126	1.4067733
50	0x3e22bb21	0.15891697
51	0x3f163a14	0.5868237
52	0xbf629e24	-0.88522553
53	0x3e1182a6	0.14209995
54	0xbe9fdd64	-0.31223595
55	0x3e800825	0.25006214
56	0x3eb62acc	0.35579526
57	0xbf474bea	-0.7785021
58	0xbeb4861b	-0.35258564
59	0x3f558c87	0.8341755
60	0x3f35c598	0.7100463
61	0xbf5a9c5d	-0.8539484
62	0xbf08ad40	-0.5338936
63	0xbea6e99e	-0.3260011
64	0x3cad1005	0.021125803
65	0xbe96cc89	-0.29452923
66	0x3dba7e56	0.09106128
67	0x3e76c652	0.2409909
68	0xbe043f5f	-0.12914799
69	0x3d915f38	0.0709824
70	0xbc974642	-0.018466119
71	0xbe4f41d4	-0.20239955
72	0xbe14a30f	-0.14515327
73	0x3dd9969f	0.10624432
74	0x3dcc5fda	0.0997922
75	0x3dacb793	0.084334515
76	0x3dbf45e1	0.093395
77	0xbd926e7f	-0.07149982
78	0x3ea08715	0.3135306
79	0x3e652527	0.22377454
80	0xbd9d2d15	-0.07674614
81	0x3dd240ed	0.1026629
82	0xbd5e7ca0	-0.05431807
83	0xbe032b4c	-0.12809485
84	0x3d734398	0.059390634
85	0xbda59113	-0.08084311
86	0x3e10f954	0.14157611
87	0xbd8ad899	-0.06779594
88	0x3e2d091a	0.16898003
89	0xbeb592a6	-0.35463446
90	0x3db8a08b	0.09014996
91	0xbe535fe0	-0.20642042
92	0xbed32da8	-0.4124577
93	0x3de368ee	0.11103998
94	0xbd9f2377	-0.07770436
95	0x3e33d5bf	0.17562006
96	0xbccaa21c	-0.024735503
97	0x3dae5516	0.085123226
98	0xbeaf9303	-0.3429185
99	0xbe8b3f9c	-0.27196968
100	0xbe9a3a41	-0.3012257
101	0xbe2c7153	-0.16840105
102	0xbba73252	-0.005102434
103	0x3cfbde86	0.030745756
104	0xbf4c865c	-0.79892516
105	0xbf38e737	-0.72227806
106	0xbf22760b	-0.6346137
107	0xbf18c07a	-0.59668696
108	0xbeb9f537	-0.36319897
109	0xbec85779	-0.39129236
110	0xbdeddf04	-0.116148025
111	0xbed07879	-0.40716913
112	0x3de72be7	0.112876706
113	0xbeb31c75	-0.34982648
114	0xbe17c5db	-0.1482157
115	0xbf09b470	-0.5379095
116	0xbf13d515	-0.5774701
117	0xbdf0877b	-0.11744591
118	0xbe8eaa3c	-0.27864254
119	0xbf494b4b	-0.7863051
120	0xbf13e7c3	-0.57775515
121	0xbef8d53f	-0.48600194
122	0xbf23d9e0	-0.64004326
123	0xbcc35cc1	-0.02384794
124	0xbecd509b	-0.4010056
125	0xbf372583	-0.71541613
126	0xbf372528	-0.7154107
127	0xbf23e51b	-0.6402146

Encoder.encoder_attn.0.weight f4 [20, 84]
0	0x3dc64b4f	0.09682333
1	0x3eac0348	0.33596253
2	0xbf2c64bc	-0.6734121
3	0x3ca472bf	0.020074246
4	0x3dc7dcf4	0.0975894
5	0xbedf2916	-0.43586034
6	0xbf821cb0	-1.0165005
7	0x3fc8852e	1.5665643
8	0x3e5e0f27	0.21685468
9	0xbc26fcdb	-0.010192121
10	0xbfc27bbf	-1.5194014
11	0x3e1b1287	0.15143786
12	0x3f1875e9	0.59554917
13	0x3fe5c66e	1.7951181
14	0x3f063889	0.52430016
15	0xbf86097f	-1.0471648
16	0x3ee88291	0.45412114
17	0xbdb3856e	-0.08765684
18	0x3f5d609d	0.86475545
19	0x3f696eed	0.91184884
20	0x3d3b4948	0.045724183
21	0xbf67f3a7	-0.9060616
22	0x3f5491f9	0.83035237
23	0x3eedd0a6	0.4644825
24	0xbe8fe6e9	-0.28105858
25	0xbe84ef1c	-0.25963676
26	0x3f3c62b9	0.7358814
27	0x3f59ec1f	0.8512592
28	0x3f3f7faa	0.74804175
29	0x3f61f9ca	0.8827177
30	0x3ef1c1f7	0.47218296
31	0xbe25ee63	-0.16204219
32	0x3f1198f1	0.56873995
33	0x3f2e3109	0.6804357
34	0xbf50ff07	-0.8163914
35	0x3bde11ba	0.0067770155
36	0xbc831764	-0.016002364
37	0xbf235273	-0.6379768
38	0xbf7791f6	-0.96707094
39	0x3fcb9795	1.5905634
40	0x3c923dd3	0.017851746
41	0x3e8adcf3	0.27121696
42	0xbfda2e9f	-1.7045478
43	0xbe233345	-0.15937527
44	0x3f031535	0.51204234
45	0x3fd9b04a	1.7006924
46	0x3f3aed86	0.7301868
47	0xbf83cc93	-1.0296806
48	0x3eca2831	0.3948379
49	0xbf3714cf	-0.71516126
50	0x3eef66ba	0.46758062
51	0x3fe2e8d9	1.772731
52	0xbe95e729	-0.29277924
53	0xbfa2fff0	-1.2734356
54	0x3f117b7e	0.5682906
55	0xbd8c417b	-0.06848427
56	0xbe4c9b64	-0.19981152
57	0xbd5f9b1f	-0.054591294
58	0x3eed045c	0.46292388
59	0x3f84a1b4	1.0361848
60	0x3f41f968	0.7577119
61	0x3f3153eb	0.69268674
62	0x3e08c604	0.13356787
63	0x3ed5db23	0.4176875
64	0x3d852efb	0.065031014
65	0xbf530a5f	-0.824377
66	0x3e50ddc8	0.20397103
67	0xbe8546f5	-0.26030698
68	0xbf0c2e21	-0.5475789
69	0xbdb3a757	-0.08772152
70	0x3df6650e	0.120309934
71	0xbdde875f	-0.10865664
72	0x3ee4b96a	0.4467271
73	0x3e284c46	0.16435346
74	0xbed257c4	-0.41082585
75	0xbebe46ea	-0.37163478
76	0xbb2e9c90	-0.0026643611
77	0xbf0abcc0	-0.5419426
78	0x3f1a11ca	0.60183394
79	0x3f8fde58	1.1239729
80	0x3f8a7850	1.0817966
81	0x3f3c8fdd	0.7365702
82	0xbe7ce28d	-0.24695797
83	0xbf3e2d7c	-0.74288154
84	0x3f38a444	0.7212565
85	0x3fc62af9	1.5481864
86	0x3f493ad4	0.7860539
87	0xbea93a00	-0.33052063
88	0xbf30a674	-0.6900399
89	0x3ba93140	0.0051633418
90	0x3f24cc53	0.64374274
91	0xbe8ce207	-0.27516195
92	0xbf4e30bd	-0.8054312
93	0xbf03987a	-0.51404536
94	0xbf0066bd	-0.50156766
95	0xbeafe37e	-0.3435325
96	0x3fa8fa78	1.3201437
97	0xbe03ef23	-0.12884192
98	0x3dddad94	0.10824123
99	0xbe7d4a4f	-0.24735378
100	0x3f1163b0	0.56792736
101	0xbea5fb2b	-0.32418188
102	0x3e8fc6ca	0.28081352
103	0xbef6d44d	-0.48208848
104	0xbf907d1a	-1.1288178
105	0xbead4070	-0.33838224
106	0xbe581c2a	-0.21104494
107	0xbf782fe9	-0.96948105
108	0x3e7b4cea	0.24541059
109	0xbfa1b048	-1.2631922
110	0x3fb8d6d7	1.4440564
111	0x3d5c30a0	0.05375731
112	0x3effa688	0.4993174
113	0xbf85d879	-1.0456687
114	0xc00d1cde	-2.204887
115	0xbec804fc	-0.39066303
116	0x3f7ddb51	0.99162775
117	0x3fa332b2	1.2749846
118	0x3ef89c33	0.4855667
119	0xbf2ab9dd	-0.66689855
120	0xbf2a1d85	-0.66451293
121	0x3d19c74e	0.037543587
122	0x3ee492ef	0.4464335
123	0xbe25542d	-0.16145392
124	0xbf3ed75c	-0.7454736
125	0xbe1651d9	-0.1467966
126	0xbf168689	-0.58799034
127	0x3e496715	0.19668229
128	0x3fa9444a	1.3223965
129	0x3e93dd6d	0.28879872
130	0xbe2c71ae	-0.1684024
131	0xbef9b455	-0.48770395
132	0x3f269acf	0.6507997
133	0x3cab1c37	0.020887477
134	0x3f37b24d	0.7175644
135	0xbd4c9be7	-0.049953368
136	0xbfac23d4	-1.3448434
137	0x3e3044cc	0.17213744
138	0xbeb5e6c6	-0.3552763
139	0xbf7f512b	-0.9973323
140	0x3e06a07f	0.13147162
141	0xbf921dc2	-1.1415331
142	0x3fa26ff0	1.2690411
143	0x3e813518	0.2523582
144	0x3f3ab14b	0.7292678
145	0xbfa666ad	-1.3000084
146	0xc0133739	-2.3002455
147	0xbf35c122	-0.7099782
148	0xbe4cdee8	-0.20006907
149	0x3ed7efb1	0.42175058
150	0xbec4f9c8	-0.38471818
151	0x3ed960b1	0.42456582
152	0xbf37b887	-0.7176594
153	0xbf382f47	-0.7194714
154	0xbf6dbe16	-0.92868173
155	0x3d32bdf1	0.043638173
156	0xbf76faa3	-0.9647619
157	0xbf0d70f8	-0.552505
158	0xbe4a6568	-0.19765246
159	0x3f1d013c	0.6133001
160	0x3f434dd9	0.7629066
161	0x3e6eb0e9	0.23309673
162	0x3f6bce3c	0.92111564
163	0x3ea3559c	0.31901252
164	0x3f766bfb	0.96258515
165	0x3eb5e79c	0.35528266
166	0xbc54ebc5	-0.012995665
167	0xbef4e4a0	-0.47830677
168	0x3fc5fdb4	1.5468049
169	0x3d489d58	0.04897818
170	0xbf2c9262	-0.6741086
171	0x3f49741d	0.786928
172	0x3ec2bef7	0.3803632
173	0xbf2856f8	-0.65757704
174	0xbe91bc3f	-0.28463933
175	0x3e60610b	0.21912019
176	0x3fc37d03	1.5272526
177	0xbf0fa406	-0.56109655
178	0xbe947ac1	-0.28999904
179	0xbed68ff4	-0.41906703
180	0xbfc6d7fc	-1.5534663
181	0xbe483a64	-0.19553524
182	0xbf366a07	-0.71255535
183	0xbd981fd4	-0.07427946
184	0xbfb5a31c	-1.4190402
185	0xbe580668	-0.21096194
186	0x3edcec9d	0.43149272
187	0x3f63ef16	0.8903669
188	0xbe7dcdc4	-0.24785525
189	0x3f51ad71	0.81905276
190	0x3ee1df98	0.441159
191	0x3f4bcdab	0.796107
192	0xbe9c5faa	-0.30541736
193	0x3da67f84	0.081297904
194	0x3f810058	1.007823
195	0xbf11cddc	-0.5695474
196	0x3fd16a0c	1.6360488
197	0x3ec7edcd	0.39048615
198	0xbf3576bb	-0.70884293
199	0x3fb907b2	1.4455473
200	0x3f14204c	0.5786178
201	0x3d58d29a	0.05293522
202	0xbf1dfa41	-0.6170998
203	0x3f2b0883	0.6680986
204	0x3ed4be69	0.4155152
205	0xbef7b10e	-0.4837727
206	0xbeac7082	-0.33679587
207	0x3ed824a4	0.42215455
208	0x3f3edff8	0.745605
209	0xbedabe66	-0.42723387
210	0xbeb7c1d5	-0.3589007
211	0xbd06ea47	-0.032938268
212	0xbeb9d0ea	-0.362922
213	0x3e2a17fe	0.16610715
214	0xbf3e24a5	-0.74274665
215	0x3ea0ffcd	0.3144516
216	0xbf9e05a0	-1.2345467
217	0x3d11f8da	0.035637714
218	0x3e842c22	0.2581492
219	0x3f1c89bb	0.6114766
220	0xbee245b1	-0.44193795
221	0x3f20df63	0.6284086
222	0x3efe1cec	0.4963144
223	0xbe7d4654	-0.2473386
224	0x3f16dea8	0.58933496
225	0x3ea68a74	0.32527506
226	0x3eab1e1d	0.33421412
227	0xbeee61ee	-0.4655909
228	0x3fc0bf62	1.5058405
229	0x3e6f0ba8	0.2334429
230	0xbec089fd	-0.37605277
231	0x3f9bd38d	1.2173935
232	0xbd6b7a74	-0.057489827
233	0xbd5fd269	-0.054644022
234	0xbd5d1c20	-0.0539819
235	0x3dd6f01c	0.10495016
236	0x3e9baccc	0.3040527
237	0xbdf46b73	-0.11934557
238	0xbd39c7fa	-0.045356728
239	0x3ea2bfc4	0.3178693
240	0xbd8d29be	-0.06892727
241	0xbf46c252	-0.7764026
242	0xbdaa5a50	-0.08318007
243	0x3f239632	0.63901055
244	0x3f8b6c0a	1.0892346
245	0x3f150cdc	0.58222747
246	0x3e1ad266	0.15119323
247	0x3d3ff000	0.04685974
248	0xbf209224	-0.6272299
249	0xbf0939d7	-0.5360388
250	0xbf961e92	-1.1728079
251	0x3eaf810e	0.34278148
252	0x3f110f06	0.5666355
253	0x3f855390	1.0416126
254	0xbf6dee5f	-0.9294185
255	0x3e1611ce	0.1465523

Encoder.encoder_attn.0.bias f4 [20]
0	0xbc01eaf9	-0.007929557
1	0x3e5d3f91	0.2160628
2	0xbecddc6f	-0.4020724
3	0xbf3ee636	-0.74570024
4	0x3f2a6683	0.6656267
5	0x3de146df	0.10999846
6	0x3f6b7535	0.9197572
7	0x3fa5e3f4	1.2960191
8	0xbf00930e	-0.5022439
9	0xbf949fac	-1.1611228
10	0x3f549113	0.83033866
11	0x3f846470	1.0343151
12	0xbf62b41b	-0.8855607
13	0xbfa383f8	-1.2774649
14	0x3f939685	1.153031
15	0xbfbc79cd	-1.4724671
16	0x3f533287	0.82498974
17	0xbf5dc5d5	-0.8662999
18	0xbf6b6b44	-0.9196055
19	0xbdb8e059	-0.09027166

Encoder.encoder_attn.2.weight f4 [1, 20]
0	0x3e48a1b6	0.19592938
1	0xbe3cc830	-0.1843574
2	0x3e4a8f41	0.1978121
3	0xbe8ba8ea	-0.2727731
4	0xbebe4d07	-0.37168142
5	0x3e85e66d	0.26152363
6	0x3e90b683	0.28264245
7	0xbeb4e217	-0.35328743
8	0xbee10212	-0.43946892
9	0x3ec4ab80	0.38412094
10	0xbe78877b	-0.24270432
11	0xbedd4249	-0.43214634
12	0x3e8bb925	0.27289692
13	0x3ea70865	0.32623592
14	0xbea9cfe1	-0.33166412
15	0xbe6390b6	-0.22223172
16	0xbe96575f	-0.29363534
17	0xbe2fc681	-0.17165567
18	0xbe934fbb	-0.28771767
19	0xbe9b3dca	-0.3032058

Decoder.attn_layer.0.weight f4 [32, 96]
0	0xbf045155	-0.516866
1	0x3e231607	0.15926372
2	0x3ebd55de	0.36979574
3	0xbf05368d	-0.5203636
4	0x3f7e6806	0.9937748
5	0xbef038d2	-0.4691835
6	0xbe240205	-0.16016395
7	0x3e86a3fb	0.26296982
8	0xbefdfd1e	-0.49607176
9	0x3f1fecc9	0.6247068
10	0x3d0ae6c4	0.03391148
11	0xbe33f49a	-0.17573777
12	0xbe053ba8	-0.13011038
13	0xbe54ea1c	-0.2079243
14	0xbe71fb7b	-0.23631088
15	0xbf300786	-0.6876148
16	0x3f2a1e7a	0.66452754
17	0x3f9ba56b	1.2159857
18	0xbe96b91c	-0.29438102
19	0x3e1abd15	0.15111192
20	0xbf5964cd	-0.84919435
21	0xbecb3951	-0.39692166
22	0x3f54ac11	0.8307505
23	0x3da7e5f4	0.08198157
24	0xbe5cec54	-0.21574527
25	0xbf0f3226	-0.55935895
26	0x3f7b45a2	0.98153126
27	0x3f2fb393	0.68633384
28	0xbe34b16d	-0.17645808
29	0x3f0931f9	0.5359188
30	0x3ed3b9ec	0.41352785
31	0x3e1e9b51	0.15488936
32	0xbf313996	-0.69228494
33	0x3e522807	0.20523082
34	0x3f0a378c	0.5399101
35	0xbf499daa	-0.787562
36	0x3f7789ac	0.96694446
37	0xbf2357e3	-0.6380598
38	0xbef801cc	-0.4843887
39	0x3eb9be9a	0.3627823
40	0xbf1d21b7	-0.6137957
41	0x3ee71195	0.45130602
42	0xbe99a730	-0.30010366
43	0xbe1a615f	-0.15076207
44	0xbda8b02b	-0.082367264
45	0xbe3443ac	-0.1760394
46	0xbeddfac0	-0.4335537
47	0xbf800791	-1.0002309
48	0x3f0e050c	0.5547645
49	0x3f6b0092	0.91797745
50	0xbe60d36a	-0.21955648
51	0x3e5afc5a	0.21385327
52	0xbf45e7ee	-0.7730702
53	0xbdc11b93	-0.094290875
54	0x3f9e16d9	1.2350723
55	0xbe55360f	-0.20821403
56	0xbebe4f83	-0.37170038
57	0xbf2ccc86	-0.6749958
58	0x3f9c994b	1.2234281
59	0x3f6fa5ef	0.9361257
60	0x3d5c6097	0.053803053
61	0x3f4663fc	0.77496314
62	0x3f6932f8	0.910934
63	0x3d4e5ea2	0.050383218
64	0x3eb1f9b8	0.34760833
65	0x3f48ff99	0.7851501
66	0x3d2c3bce	0.04204922
67	0x3a0d4f83	0.00053905713
68	0x3efbf280	0.4920845
69	0xbe875fa5	-0.26440158
70	0xbd9e68a5	-0.07734803
71	0xbef71bb9	-0.48263338
72	0xbf0e10f2	-0.55494606
73	0x3e8a2f02	0.2698899
74	0xbe148223	-0.14502768
75	0x3efe0293	0.4961134
76	0xbe9ccfb5	-0.30627218
77	0xbf1ed6f0	-0.6204672
78	0x3e950c82	0.29111105
79	0xbe470eb7	-0.19439207
80	0x3ec770ba	0.3895319
81	0x3e270ace	0.16312715
82	0x3efc9c33	0.4933792
83	0xbf976024	-1.1826215
84	0xbdff7176	-0.12472813
85	0x3e070c8c	0.1318838
86	0x3f11e6fd	0.56993085
87	0xbf5fe23e	-0.87454593
88	0xbbf13ff0	-0.0073623583
89	0x3e8909e7	0.26765367
90	0xbf747971	-0.95497805
91	0x3ea9767e	0.33098215
92	0x3dcb6ced	0.09932885
93	0x3ef44b3d	0.47713652
94	0xbeb71aa0	-0.357625
95	0xbf8b1231	-1.0864927
96	0xbf5a0ed2	-0.85178864
97	0x3f6bc196	0.92092264
98	0xbe1a7e86	-0.15087327
99	0x3d30604b	0.043060582
100	0x3f12170f	0.57066435
101	0xbf546fa1	-0.8298283
102	0x3e9d3be2	0.3070975
103	0xbf39220c	-0.72317576
104	0x3e3d338c	0.18476695
105	0xbf46a03c	-0.7758825
106	0x3fc52f23	1.540501
107	0xbf298dd8	-0.6623206
108	0x3f522d78	0.8210063
109	0xbf667f6e	-0.9003819
110	0x3e91d4aa	0.28482562
111	0xbf58fb7e	-0.84758747
112	0x3e94f917	0.2909629
113	0xb9dfab80	-0.00042661652
114	0xbf95e802	-1.1711428
115	0x3f32517a	0.69655573
116	0xbe5d1e8e	-0.21593687
117	0xbedd1cac	-0.43185937
118	0xbe815a50	-0.25264215
119	0xbe389437	-0.1802529
120	0xbe892a99	-0.26790312
121	0xbd188baa	-0.03724257
122	0xbe0027bf	-0.12515162
123	0x3ee2727a	0.44227964
124	0xbdf8b3bd	-0.12143657
125	0x3ed5ccc7	0.41757795
126	0x3eaa489b	0.3325852
127	0xbec04572	-0.37552983
128	0xbee7c63e	-0.45268434
129	0x3f4e99a0	0.80703163
130	0xbe7e2405	-0.24818428
131	0x3ea8cfb1	0.32970956
132	0x3e108b4b	0.14115636
133	0xbf38366b	-0.71958035
134	0x3ef4004a	0.4765647
135	0xbe8447ce	-0.25836033
136	0x3e56ac67	0.20964204
137	0xbf09e5c5	-0.53866225
138	0x3f9c528c	1.2212691
139	0xbf1a4841	-0.602665
140	0x3fb54daf	1.4164332
141	0xbf36b418	-0.7136855
142	0x3ef50fc3	0.47863588
143	0xbf5528e8	-0.83265543
144	0x3ecd5ed0	0.401114
145	0xbf1180fc	-0.5683744
146	0xbf97b629	-1.1852466
147	0x3f562faa	0.8366648
148	0xbd9a0cce	-0.075219736
149	0xbe224f04	-0.15850455
150	0xbf44e5fe	-0.7691344
151	0xbe7dbf04	-0.24779898
152	0xbef91207	-0.48646566
153	0xbea37d5d	-0.31931582
154	0xbe84d8f9	-0.25946787
155	0x3e806d4a	0.2508338
156	0xbd2c5cdc	-0.042080745
157	0x3ef5ad87	0.47983953
158	0x3e4c6e39	0.19963922
159	0xbeef9617	-0.46794197
160	0x3ea779d3	0.32710132
161	0x3be56517	0.0070005762
162	0x3e590816	0.21194491
163	0x3e97b0af	0.29626986
164	0xbdcbdcd2	-0.099542275
165	0x3c1ce4e5	0.009576057
166	0x3f36c979	0.7140117
167	0x3e9790d7	0.29602692
168	0x3e0047b2	0.1252735
169	0xbf00a4cf	-0.5025148
170	0x3f9170d8	1.1362562
171	0x3eb361a3	0.35035428
172	0x3fb93742	1.4469988
173	0x3f00199a	0.50039065
174	0xbc3dd325	-0.011585985
175	0x3eea09f3	0.45710716
176	0xbe071482	-0.13191417
177	0x3cff98d4	0.031200804
178	0x3f89236c	1.0713935
179	0x3c0706a3	0.008241328
180	0x3eef5351	0.46743253
181	0x3dcf4614	0.10120788
182	0x3e70d0ef	0.23517202
183	0xbf46018f	-0.7734613
184	0xbf0d0f40	-0.55101395
185	0xbd58caa2	-0.05292762
186	0xbf758f4b	-0.9592177
187	0x3c69223f	0.014229356
188	0xbea8d1be	-0.3297252
189	0xbd32e0f5	-0.043671567
190	0xbf9cd838	-1.2253485
191	0xbf1b4e27	-0.60666126
192	0x3d7347d5	0.059394676
193	0x3f13da97	0.57755417
194	0xbe0ddb36	-0.13853154
195	0xbe866a58	-0.2625301
196	0x3e54abb4	0.20768625
197	0x3e3021a3	0.17200331
198	0xbe1a5f4e	-0.15075418
199	0x4020bcf8	2.5115337
200	0x3eafc920	0.34333134
201	0xbdd7500c	-0.105133146
202	0x3e12a549	0.14320864
203	0xbe43a6e5	-0.19106634
204	0x3e15c61f	0.14626358
205	0x3f5d3488	0.8640828
206	0xbda5e61a	-0.08100529
207	0x3e52a57b	0.20570938
208	0xbea09f14	-0.31371367
209	0xbc2874fc	-0.0102817975
210	0xbe82c223	-0.2553874
211	0xbeae1d6b	-0.3400682
212	0xbeb22ecd	-0.3480133
213	0xbe939218	-0.28822398
214	0xbf3a9458	-0.72882605
215	0xbe971318	-0.29506755
216	0xbd557fa0	-0.052123666
217	0x3ea6c6ef	0.3257365
218	0xbe8de739	-0.2771547
219	0x3e5a6560	0.21327734
220	0xbe1d89e6	-0.15384635
221	0x3f0fccda	0.56171954
222	0x3978a2f5	0.00023711829
223	0xbf3e46c7	-0.7432675
224	0xbf02d24a	-0.51102126
225	0xbe9c3673	-0.3051029
226	0xbe8e109e	-0.27747053
227	0xbe1a3333	-0.15058593
228	0xbee5b765	-0.4486648
229	0x3eea2726	0.45732993
230	0x3db84678	0.08997816
231	0x3f8cfbd8	1.1014357
232	0x3e5398ea	0.20663801
233	0x3e8f9249	0.28041294
234	0xbea82949	-0.32843998
235	0x3c2ab580	0.01041925
236	0x3e136a03	0.14395909
237	0x3e638c9a	0.22221604
238	0x3ed6accb	0.41928706
239	0x3d0a0dc1	0.033704523
240	0xbe958e8b	-0.29210314
241	0xbd512848	-0.051063806
242	0xbd863049	-0.065521784
243	0x3e28c872	0.16482714
244	0xbe8bbf56	-0.27294415
245	0xbed1e3a3	-0.40993986
246	0x3e715e26	0.23571071
247	0xbeb3b5a2	-0.35099512
248	0xbebe6cb7	-0.37192318
249	0x3dc801a8	0.09765941
250	0xbf086610	-0.53280735
251	0x3d44e9a9	0.0480744
252	0x3e36fad7	0.17869125
253	0x3f11916d	0.5686253
254	0x3e38d314	0.1804927
255	0xbe80861f	-0.25102326

Decoder.attn_layer.0.bias f4 [32]
0	0xbe882ddf	-0.26597497
1	0x3edca750	0.430964
2	0x3fc9a779	1.5754234
3	0x3f53f59d	0.8279665
4	0x3d94d9d2	0.072681084
5	0xbed7d247	-0.42152616
6	0x3e0d42e3	0.13795047
7	0xbeaad0fd	-0.3336257
8	0xbe3346ba	-0.17507449
9	0xbd85e6d5	-0.06538168
10	0xbf18b926	-0.59657514
11	0x3ee497c4	0.44647038
12	0x3e5a545c	0.21321243
13	0x3ee025d1	0.43778852
14	0xbe0d11f4	-0.1377638
15	0xbed035f6	-0.4066617
16	0x3ea3896b	0.3194078
17	0xbcb917bd	-0.022594327
18	0xbceae937	-0.028675659
19	0xbf4d501d	-0.8020037
20	0xbbe88252	-0.0070956135
21	0x3e2ec18d	0.17066021
22	0xbcc39aca	-0.02387752
23	0xbce6c90b	-0.028172037
24	0x3dc1d71e	0.094648585
25	0xbed06bd5	-0.4070727
26	0x3f0eff6f	0.5585851
27	0xbd4103f5	-0.047122914
28	0xbeb7eb13	-0.35921535
29	0xbf0e95db	-0.5569741
30	0xbd9738e8	-0.07383901
31	0x3e6a7077	0.22894464

Decoder.attn_layer.2.weight f4 [1, 32]
0	0xbd875bab	-0.06609281
1	0xbe351eef	-0.17687581
2	0x3f811030	1.0083065
3	0x3e88d817	0.26727363
4	0x3e4a34ec	0.1974675
5	0xbe02294f	-0.1271107
6	0x3e81d1ac	0.2535528
7	0xbe70141e	-0.23445174
8	0xbde76270	-0.11298072
9	0x3d98eee6	0.07467441
10	0x3e831586	0.2560236
11	0xbe514807	-0.20437633
12	0xbde242a9	-0.11047871
13	0xbdc0905b	-0.094025336
14	0x3dbaca12	0.09120573
15	0xbe3011dc	-0.17194313
16	0xbdad890a	-0.08473404
17	0x3e66d116	0.22540697
18	0xbdc54879	-0.09632964
19	0x3db2f8c0	0.087388515
20	0xbdea6387	-0.114447646
21	0x3e939fd7	0.28832886
22	0xbe2c9f31	-0.16857602
23	0xbdd22647	-0.10261207
24	0x3e06e8a5	0.13174684
25	0xbe1cc463	-0.1530929
26	0xbe00f853	-0.12594728
27	0xbdebbf7f	-0.11511134
28	0xbe28a083	-0.1646748
29	0xbe210b82	-0.15727046
30	0x3d9ecdd6	0.07754104
31	0xbe0acfc2	-0.13555816

Decoder.lstm_layer.weight_ih_l0 f4 [128, 1]
0	0xbcdeb2d5	-0.027184883
1	0x3d2e86b8	0.042608947
2	0xbf03a94e	-0.51430213
3	0xbf8562ed	-1.0420815
4	0xbcd21594	-0.025645055
5	0x3ddad41c	0.10684988
6	0xbe5d8b4c	-0.21635169
7	0x3f51ba90	0.81925297
8	0xbefa9c0c	-0.4894718
9	0xbd1d74cf	-0.038441475
10	0xbe3dbaea	-0.18528333
11	0xbf376c13	-0.71649283
12	0xbc3a7417	-0.011380217
13	0x3b7ebb66	0.0038869022
14	0x3debb563	0.11509206
15	0x3ddf34c8	0.10898739
16	0xbbaf8849	-0.0053568226
17	0xbf9dba31	-1.2322446
18	0xbf0ab933	-0.5418884
19	0x3da8835f	0.08228182
20	0x3e8cdc59	0.27511862
21	0x3edc7db0	0.43064642
22	0xbf840e1b	-1.0316805
23	0x3f1cd8ed	0.612685
24	0x3f101758	0.5628562
25	0x3ac26953	0.0014832414
26	0xbf12e3ee	-0.57379043
27	0xbd992393	-0.07477488
28	0x3d019560	0.031636596
29	0xbe65f086	-0.22455034
30	0x3e289248	0.16462052
31	0xbdefebf0	-0.117149234
32	0xbdb25950	-0.08708441
33	0x3ce9c6fb	0.028537264
34	0xbdb7ad8e	-0.0896865
35	0x3e7b73f4	0.24555951
36	0x3e45a4a4	0.19301087
37	0xbf72255e	-0.9458827
38	0xbebdd2ee	-0.3707499
39	0x3d2568f4	0.040383294
40	0x3e87739a	0.26455384
41	0x3d045c29	0.032314453
42	0xbd817f4f	-0.0632311
43	0xbeced238	-0.4039476
44	0x3e7d0c3a	0.24711695
45	0xbec0881c	-0.37603843
46	0xbe8150bd	-0.2525691
47	0x3e49ccca	0.19707027
48	0xbee6f963	-0.45112142
49	0x3e5b4f92	0.21417072
50	0x3ea96430	0.3308425
51	0x3e3a0d75	0.18169196
52	0xbd3eef03	-0.046614658
53	0x3e9970c1	0.29968837
54	0x3e266a7d	0.1625156
55	0xbf24432d	-0.64165
56	0xbc6e2879	-0.014536017
57	0xbd2ac97d	-0.04169606
58	0x3e417b51	0.18894698
59	0x3cd6ff90	0.026244909
60	0x3dadcb8e	0.084860906
61	0x3c8cd794	0.01719264
62	0x3d8697d4	0.06571928
63	0x3d1b7fcf	0.037963685
64	0x3bfc67e3	0.007702814
65	0xbd837336	-0.06418459
66	0xbf0196ab	-0.50620526
67	0x3f5a8ed3	0.8537418
68	0xbe2eab47	-0.17057525
69	0x3f44b375	0.7683633
70	0x3eecd4a7	0.4625599
71	0x3f055e94	0.5209744
72	0x3f11e483	0.56989306
73	0xbc9196f8	-0.017772183
74	0xbe8f5af9	-0.27999094
75	0x3edf2147	0.43580076
76	0x3e213abe	0.15745065
77	0xbcb040fe	-0.021515366
78	0xbc301503	-0.010747197
79	0xbc66a1d4	-0.014076669
80	0xb9f3b0ec	-0.0004648039
81	0xbf51db6c	-0.81975436
82	0x3ec9f7b4	0.39446795
83	0xbd989186	-0.074496314
84	0x3c08683f	0.008325635
85	0xbe148ffe	-0.14508054
86	0xbf889570	-1.0670605
87	0xbed62389	-0.41823986
88	0x3f60da05	0.8783267
89	0x3db1c518	0.08680171
90	0xc01cba77	-2.448881
91	0xbd86329c	-0.06552622
92	0xbbdb5450	-0.0066934004
93	0x3e1d0233	0.1533287
94	0x3c368718	0.011140607
95	0x3ded08b6	0.11573927
96	0x3e9e259c	0.3088807
97	0x3e0fbf31	0.14037777
98	0xbe6b5722	-0.22982457
99	0xbf8094eb	-1.0045446
100	0x3f4698c0	0.7757683
101	0x3eeeb048	0.46618867
102	0x3ea412dd	0.32045642
103	0x3ef14e63	0.47130117
104	0xbeb3c36b	-0.3511003
105	0x3dffae33	0.12484398
106	0xbe8fecd6	-0.2811038
107	0xbf24f06e	-0.64429367
108	0x3dbea6ff	0.09309196
109	0x3e1fac68	0.15593112
110	0x3dfa6d20	0.12227845
111	0x3da12f36	0.07870333
112	0x3e02253c	0.12709516
113	0xbf8e0c41	-1.109749
114	0x3dd4b55e	0.103861555
115	0x3e0e4ccd	0.13896485
116	0x3d3fb6a5	0.046805043
117	0x3e21c58f	0.15798019
118	0xbf61eb29	-0.8824945
119	0x3eca49cd	0.3950943
120	0x3e9ae065	0.30249324
121	0x3dd8dc39	0.10588879
122	0x3e272f9c	0.16326755
123	0x3d7f4527	0.06232181
124	0x3ec804a0	0.3906603
125	0x3e2b0a24	0.16703087
126	0x3ddddd2d	0.108332016
127	0x3e2c1c12	0.16807583

Decoder.lstm_layer.weight_hh_l0 f4 [128, 32]
0	0xbd5f2bc6	-0.054485105
1	0x3e413443	0.18867593
2	0x3e1faf52	0.15594223
3	0xbe711fbd	-0.23547263
4	0x3f20981d	0.62732106
5	0x3f018f68	0.50609446
6	0x3e4b7211	0.19867732
7	0xbe9f0bd5	-0.31063715
8	0x3e988f5f	0.29796883
9	0x3c0c5659	0.008565509
10	0x3ecbebad	0.39828244
11	0xbe0af50e	-0.13570043
12	0xbdcfa2d9	-0.101384826
13	0xbec1ad87	-0.37827703
14	0xbf2fffc5	-0.6874965
15	0xbdd6c65e	-0.10487054
16	0x3e8df8dd	0.2772893
17	0x3e966365	0.29372707
18	0x3ead506c	0.3385042
19	0xbd7de052	-0.061981507
20	0xbe92d980	-0.28681564
21	0x3dd4445f	0.10364603
22	0xbba3259f	-0.00497885
23	0x3e4339fb	0.19065087
24	0xbebaf1cd	-0.36512604
25	0xbeeaa4c7	-0.4582884
26	0xbcfa0196	-0.030518334
27	0x3e37d892	0.17953709
28	0x3cc9a838	0.024616346
29	0x3ec9786b	0.39349684
30	0x3d9b6545	0.07587675
31	0x3f80f267	1.0073975
32	0xbf658ec6	-0.8967098
33	0x3de6ed44	0.112757236
34	0xbe0c66fd	-0.13711162
35	0x3dd10c3b	0.10207411
36	0xbed4b542	-0.4154454
37	0x3f794092	0.9736415
38	0x3f4a8351	0.7910662
39	0xbdeb4b84	-0.11489013
40	0x3f2fbbe1	0.68646055
41	0xbd8d54f2	-0.06900968
42	0xbf032eeb	-0.51243466
43	0xbea50fcd	-0.32238618
44	0x3f00182d	0.5003689
45	0x3d9b8388	0.07593447
46	0xbf03dbe2	-0.5150739
47	0x3e7defb0	0.24798465
48	0xbe9f77c7	-0.3114607
49	0xbfb5a10a	-1.418977
50	0x3e2350a0	0.15948725
51	0xbf21acb8	-0.6315417
52	0x3f5d7012	0.8649913
53	0xbe96e459	-0.2947109
54	0xbf0f66b9	-0.5601612
55	0x3f1f5d00	0.6225128
56	0xbdab47e8	-0.083633244
57	0x3f43b37e	0.7644576
58	0x3e3db915	0.18527634
59	0x3fbaab39	1.4583503
60	0xbf0d2e41	-0.551487
61	0x3ebaedbf	0.3650951
62	0x3f068b0d	0.52555925
63	0x3eab8b99	0.33504942
64	0xbddda36d	-0.108221866
65	0xbe0a41ad	-0.13501616
66	0xbed24feb	-0.41076598
67	0x3f96e43b	1.17884
68	0x3e4aa98e	0.19791242
69	0x3f35a85f	0.7096004
70	0x3eb633ab	0.35586295
71	0x3e7e23be	0.24818322
72	0xbe0200a1	-0.12695552
73	0x3ed6e559	0.41971853
74	0xbf2d023a	-0.6758152
75	0x3d0200cd	0.031739045
76	0x3f8e9b72	1.1141188
77	0x3e6ae85f	0.22940205
78	0xbdfe29e3	-0.12410333
79	0xbc283f3e	-0.010268984
80	0xbe56dd88	-0.20982945
81	0x3f2df601	0.679535
82	0xbef01bc1	-0.46896175
83	0x3f8301da	1.023494
84	0x3e9182bf	0.28420064
85	0x3e450c97	0.19243084
86	0xbe8f6c92	-0.2801252
87	0xbf5dbfb7	-0.8662066
88	0x3f0de43c	0.55426383
89	0xbd01cdde	-0.03169047
90	0x3dfe45ed	0.12415681
91	0x3ea1bd17	0.31589577
92	0x3ed32ba2	0.41244227
93	0xbe9595fd	-0.29215994
94	0x3ed2fa28	0.4120648
95	0x3ea1198d	0.31464806
96	0xbee6ba0b	-0.45063815
97	0xbed136a3	-0.40861997
98	0xbeca9e48	-0.39573884
99	0x400e3e1b	2.2225406
100	0xbef154b6	-0.47134942
101	0x3fdab622	1.7086833
102	0x3fb9b455	1.4508158
103	0x3f05cd03	0.5226595
104	0x3f4cb94a	0.7997023
105	0xbe6e3101	-0.23260881
106	0xbf71544d	-0.9426926
107	0x3f981d48	1.1883936
108	0x3e2160c2	0.15759566
109	0x3e24180d	0.160248
110	0x3dd5a6ff	0.104322426
111	0xbe849990	-0.2589841
112	0xbc8a643b	-0.016893497
113	0xbf3b777c	-0.73229194
114	0x3f354366	0.70805967
115	0x3e6bd817	0.2303165
116	0x3c41890d	0.011812461
117	0xbe4d89ff	-0.20072173
118	0xbfa1a6ac	-1.2628989
119	0xbfce2c53	-1.6107277
120	0x3f1cdb8b	0.61272496
121	0x3eaff834	0.3436905
122	0xbe6ea580	-0.2330532
123	0xbe96c73e	-0.29448885
124	0x3e0c488b	0.13699548
125	0x3f1d2809	0.61389214
126	0xbe77e791	-0.2420943
127	0x3ebfc239	0.37452868
128	0xbf062467	-0.52399296
129	0x3eaa050b	0.33206972
130	0x3f558e69	0.83420426
131	0xc00910e7	-2.1416566
132	0x3f4dc4e7	0.80378574
133	0x3f0b7c38	0.5448642
134	0xbefaadf1	-0.48960832
135	0xbea3742e	-0.31924576
136	0xbe8432fb	-0.25820145
137	0x3f868203	1.0508426
138	0xbc8ceb29	-0.017201977
139	0xbf687b76	-0.90813386
140	0xbf35326f	-0.7078008
141	0x3ebbff83	0.36718377
142	0x3f4c83a3	0.7988836
143	0xbe9e8ce5	-0.3096687
144	0xbe6a0b64	-0.22855908
145	0x3f6b26d7	0.9185614
146	0xbf0006e4	-0.50010514
147	0x3e96a060	0.2941923
148	0x3e57df23	0.21081214
149	0x3e973a7c	0.29536808
150	0x3f8aab3e	1.0833509
151	0xbefcc0bd	-0.49365798
152	0x3d9bab98	0.07601088
153	0xbcb0bf85	-0.021575699
154	0x3f21b462	0.6316587
155	0x3e9a41b3	0.3012825
156	0x3dad93f7	0.08475488
157	0xbf3dc4aa	-0.7412821
158	0xbd68c2e4	-0.056826487
159	0xbeea0251	-0.45704892
160	0x3e622063	0.22082667
161	0xbe060d88	-0.130911
162	0x3e40377e	0.18771169
163	0x3f602070	0.87549496
164	0xbf0ce4de	-0.55036724
165	0x3e04397d	0.12912555
166	0xbf6fa308	-0.9360814
167	0xbf2ad8f8	-0.6673732
168	0x3f05abbf	0.5221519
169	0xbe0b14f7	-0.13582216
170	0xbe835392	-0.25649697
171	0x3df6b9d7	0.12047165
172	0x3cf8aaf5	0.030354956
173	0x3e2fb1d2	0.17157677
174	0xbd5c97e9	-0.05385581
175	0xbdb77aad	-0.089589454
176	0x3e446c4d	0.19181938
177	0x3f852583	1.0402073
178	0xbe93abca	-0.28842002
179	0x3f44c34a	0.7686049
180	0xbc851d11	-0.016249212
181	0xbed99561	-0.4249678
182	0x3f11e886	0.5699543
183	0xbcaa0d16	-0.020758193
184	0xbead99c6	-0.33906382
185	0xbdb94ba8	-0.090476334
186	0xbca2534a	-0.019815106
187	0xbc8f271e	-0.017474707
188	0xbe258cd0	-0.16166997
189	0xbe77e764	-0.24209362
190	0xbdd88024	-0.10571316
191	0xbf014a46	-0.5050396
192	0x3d8c374a	0.06846483
193	0x3e2ebeb5	0.17064936
194	0x3f9556ee	1.1667154
195	0xbf411791	-0.75426584
196	0xbe7b94d0	-0.24568486
197	0xbdfa7321	-0.1222899
198	0x3d922eed	0.07137857
199	0x3e9f5401	0.31118777
200	0xbe8ef9a1	-0.27924827
201	0xbd612490	-0.05496651
202	0x3e18e97c	0.14932817
203	0x3e094825	0.13406427
204	0x3db3ec6f	0.087853305
205	0x3b6414f7	0.0034802535
206	0xbd1c2688	-0.038122684
207	0xbda6362b	-0.081158005
208	0x3e8b656c	0.27225816
209	0x3b4ac15d	0.0030938007
210	0xbf8a71b0	-1.0815945
211	0x3e876a0d	0.26448098
212	0xbd4bb750	-0.049735367
213	0xbe270af8	-0.16312778
214	0x3f25f165	0.64821464
215	0x3e9d8def	0.3077235
216	0x3e5e9204	0.21735388
217	0x3e34f293	0.1767066
218	0x3e32fe0b	0.17479722
219	0x3eeecf5e	0.46642584
220	0xbdbbc76b	-0.09168895
221	0xbd4bcc1f	-0.049755212
222	0xbd6d6a4f	-0.057962712
223	0x3f34c801	0.7061768
224	0xbeb09b22	-0.34493357
225	0xbdfaafc5	-0.12240557
226	0x3db03a01	0.08604813
227	0xbde0440e	-0.109504804
228	0xbede2beb	-0.43392882
229	0x3e819138	0.25306106
230	0xbecb3181	-0.39686206
231	0xbf734c9f	-0.9503879
232	0xbf02b820	-0.510622
233	0x3dfe507b	0.12417694
234	0xbeeac452	-0.45852906
235	0xbf179a0d	-0.5921944
236	0x3db9d963	0.09074666
237	0xbe81268b	-0.25224718
238	0x3ee85b49	0.45382145
239	0x3cade88a	0.021229047
240	0x3eaf155e	0.3419599
241	0xbfe458c0	-1.7839584
242	0xbd5caf99	-0.0538784
243	0x3e6945f9	0.22780599
244	0xbdea18a7	-0.11430483
245	0x3d572377	0.052524056
246	0xbee8dc04	-0.4548036
247	0x3ed99be4	0.42501748
248	0x3ee8b8e9	0.45453575
249	0xbf0ea944	-0.5572703
250	0xbe20a325	-0.15687235
251	0xbc381c73	-0.011237252
252	0xbd4fa36c	-0.05069296
253	0xbec26cba	-0.37973577
254	0xbe07c693	-0.13259344
255	0xbdce838d	-0.10083685

Decoder.lstm_layer.bias_ih_l0 f4 [128]
0	0x3e47a844	0.19497782
1	0x3ef5ff1c	0.48046196
2	0x3d211b48	0.039332658
3	0xbe9af46c	-0.30264604
4	0xbdcbbcd2	-0.09948124
5	0xbe8537ba	-0.26019078
6	0xbeceb714	-0.40374053
7	0xbf20a8fe	-0.6275786
8	0xbeb24769	-0.34820107
9	0x3eb17974	0.34662974
10	0xbe19ecd9	-0.15031756
11	0xbf3b3bcb	-0.7313811
12	0xbe033f98	-0.12817228
13	0xbc400a01	-0.011721135
14	0x3f1b0e0a	0.60568297
15	0x3f0d72bf	0.55253214
16	0x3f436a31	0.7633391
17	0xbe8c869c	-0.2744645
18	0xbe17078a	-0.1474897
19	0x3e0325ab	0.12807338
20	0x3f109856	0.56482446
21	0xbd76135e	-0.060077064
22	0xbe6ab79d	-0.22921605
23	0xbea1ab88	-0.3157618
24	0x3f0e5c5f	0.556097
25	0xbdd82d01	-0.10555459
26	0x3f3a63f0	0.7280874
27	0xbc96bfe2	-0.018402044
28	0x3f4c5019	0.7980972
29	0xbeb1a862	-0.34698778
30	0x3f53504a	0.82544386
31	0x3e86058e	0.26176113
32	0x3e5d42a0	0.21607447
33	0xbc20824a	-0.009796688
34	0xbca543ac	-0.02017387
35	0x3e1ffeff	0.15624617
36	0x3d807caa	0.06273778
37	0xbd0874b9	-0.03331444
38	0x3e2969a8	0.16544211
39	0x3e841201	0.25794986
40	0x3eeb7a29	0.45991638
41	0xbf16723f	-0.58768076
42	0x3d53587c	0.051598057
43	0x3eae7736	0.34075326
44	0x3e7f7635	0.24947436
45	0xbf8b7199	-1.0894042
46	0xbfb24eab	-1.3930258
47	0xbfaab181	-1.333542
48	0xbfd540d8	-1.6660414
49	0xbf049ec8	-0.5180478
50	0x3e71c57a	0.23610488
51	0x3e5dc57b	0.21657364
52	0xbf5910ff	-0.8479156
53	0xbdeec24d	-0.11658154
54	0xbf48f0d4	-0.78492475
55	0x3f0143e8	0.5049424
56	0xbf1ed61f	-0.6204547
57	0x3f6fc4be	0.9365958
58	0xbf77b86e	-0.9676579
59	0x3ebcf026	0.3690197
60	0xbfa315ce	-1.2741029
61	0x3e9ee120	0.31031132
62	0xbfbade1f	-1.4599036
63	0xbe8b4373	-0.27199897
64	0x3d3ce143	0.046113264
65	0xbe284e02	-0.16436008
66	0xbe5be98b	-0.21475808
67	0x3dfebe5d	0.12438653
68	0x3b8a38d7	0.0042182016
69	0xbea4ab49	-0.3216193
70	0xbd98b276	-0.07455914
71	0x3e618239	0.22022332
72	0x3bf4b42d	0.0074677677
73	0x3e654d37	0.22392736
74	0x3e23ecb9	0.16008271
75	0xbe78c957	-0.24295555
76	0x3e571abe	0.21006295
77	0xbcd1f4bb	-0.025629392
78	0x3e19258e	0.14955732
79	0x3dd15521	0.10221315
80	0xbe43300e	-0.190613
81	0xbe9e6bc1	-0.30941585
82	0xbe2ef713	-0.17086439
83	0xbedb95d1	-0.42887738
84	0xbd276b74	-0.04087396
85	0xbc21de09	-0.009879597
86	0x3de42341	0.11139537
87	0x3e598aea	0.21244398
88	0xbe9ed5f8	-0.3102262
89	0x3e133949	0.14377321
90	0x3dc33e86	0.0953341
91	0xbe114041	-0.14184667
92	0xbdd4f282	-0.10397817
93	0x3e952be5	0.2913505
94	0xbda52004	-0.08062747
95	0xbee064da	-0.43826944
96	0x3f207bd9	0.62688977
97	0x3ef6f63b	0.48234734
98	0x3e8f7604	0.28019726
99	0x3ea0886c	0.31354082
100	0x3f215474	0.6301949
101	0x3e98b4b3	0.29825363
102	0x3f002ed7	0.5007147
103	0xbd97d97b	-0.07414528
104	0x3f68fe28	0.9101281
105	0x3f4d5a13	0.8021557
106	0x3dd0b79a	0.10191269
107	0x3e86a1f6	0.2629544
108	0x3f59f911	0.8514567
109	0x3f2fa8ad	0.68616754
110	0x3f2493c3	0.64287966
111	0x3eb75895	0.3580977
112	0x3f9caaed	1.2239662
113	0xbeaf7c3c	-0.3427447
114	0xbe0343f1	-0.12818886
115	0x3f2b3923	0.6688406
116	0x3f986bb6	1.1907871
117	0x3eaca2d4	0.33717978
118	0xbea34daa	-0.3189519
119	0x3fc5a5c2	1.544121
120	0x3e8a970d	0.27068368
121	0x3f54733d	0.8298834
122	0x3f20d7d1	0.6282931
123	0x3f64dec1	0.89402395
124	0x3f6053e6	0.8762802
125	0x3f882813	1.063723
126	0x3f99bc69	1.2010623
127	0x3d22fd65	0.039792437
