result/ver6/best.pt (torch, 235000 bytes, 59 tensors)

Encoder.encoder_lstm.weight_ih_l0 f4 [128, 6]
000000 ad 17 2e bf e9 3b 14 bf 85 2a 47 3f 88 d8 28 3f
       -0.68004876 -0.57903916 0.77799255 0.659554
000010 f5 f5 f9 3e a7 ef 56 3f c0 47 62 bf 84 70 99 3f
       0.48820463 0.8395943 -0.8839073 1.1987462
000020 b5 39 5a bd 39 af ee bb 2c 61 92 3e f2 48 05 3f
       -0.05327769 -0.0072840718 0.2858976 0.5206443
000030 1b d7 8a be 9b 92 91 3f 46 1b 93 bf 14 de f4 3e
       -0.27117237 1.1372865 -1.1492698 0.47825682
000040 bb 18 44 3f 08 c7 11 be dd 69 14 3f 67 2d 1f 3f
       0.76600236 -0.1423608 0.57974035 0.62178653
000050 26 45 9e 3f 45 5a 69 be 21 0d bb 3e c4 d5 8c be
       1.2364852 -0.22788341 0.36533454 -0.2750684
000060 39 0e d1 3e 67 2b 6f bf 3d dc 08 be b0 30 99 bf
       0.40831164 -0.934256 -0.13365264 -1.1967983
000070 1b 3b 54 3e aa 07 03 bf 4f be 9a 3f 29 f5 68 3f
       0.20725672 -0.5118357 1.2089328 0.90999085
000080 98 08 d2 be 87 58 b2 3e 06 14 5e 3f e5 b4 00 bf
       -0.41022182 0.34833166 0.86749303 -0.50276023
000090 f1 8d 00 bf 18 15 44 bf f7 47 e5 3d b9 c0 a2 3f
       -0.50216585 -0.76594687 0.11195367 1.2715064
0000a0 b5 70 ae 3f ea 19 9f 3e e7 9a e8 3e e7 38 43 3e
       1.3628145 0.31074458 0.4543068 0.19064675
0000b0 d5 23 0f bf 08 bb 0b 3f 3f b6 94 3f 46 75 df 3e
       -0.5591405 0.5458226 1.1618117 0.4364416
0000c0 61 66 81 3d 82 fc 8e bf 47 bd 51 bf 97 4e c0 bf
       0.06318355 -1.1170809 -0.8192944 -1.5023984
0000d0 de 78 61 bf f6 87 11 be 28 da 2b 3f e8 e7 b9 3e
       -0.88075054 -0.14212021 0.67129755 0.36309743
0000e0 16 4a c7 bf 6e ff 1a bf 88 59 fc 3c 56 58 41 bf
       -1.5569484 -0.60546005 0.03080441 -0.75525415
0000f0 1c c0 a7 be 19 c9 0a 40 3f 3a 7d bf b2 01 84 3f
       -0.32763755 2.168524 -0.98917 1.0313017
000100 92 bf 4a 3f 8d be df 3e 57 11 b4 3c c6 c9 b8 3f
       0.79198563 0.43700066 0.021980925 1.4436576
000110 86 6c 54 bf 0b 6b 11 3e 68 a7 27 3e 5f 91 83 3f
       -0.82978094 0.1420099 0.16372454 1.0278739
000120 aa 21 9b 3e 6c 7c 06 40 0a a9 84 be 2e 28 b9 be
       0.3029912 2.101344 -0.25910217 -0.36163467
000130 8e 51 74 be 16 45 f5 3e 2f 51 8f 3f 6e 14 16 40
       -0.23859236 0.4790427 1.119665 2.344997
000140 7f 3d 45 bf 9f d5 a2 3e 27 37 09 3e ba 7b 71 3f
       -0.7704696 0.31803605 0.13399945 0.94329417
000150 4b f7 52 bf 51 ec 86 3f a8 6d 14 bf 1e ad 06 3f
       -0.8240859 1.0540868 -0.5797982 0.52607906
000160 55 9c 44 3f 7b 26 fd be 03 e4 9e 3d 66 3b 90 3e
       0.76801044 -0.4944342 0.077583335 0.28170317
000170 25 e1 e4 bf 2d c0 9b 3b b0 05 f3 3d 65 ac 57 bf
       -1.7881209 0.0047531337 0.11866319 -0.8424743
000180 28 53 bb 3e 3e b8 3f bf 5f 73 d0 bf ff f9 30 bf
       0.3658688 -0.74890506 -1.6285208 -0.69131464
000190 55 54 08 bf 8f bd d5 bf 66 21 c7 be d9 1d 8f bf
       -0.5325368 -1.6698474 -0.38892668 -1.1180984
0001a0 82 10 07 c0 d8 68 df bf 71 0b ca bf ca 1e bf bf
       -2.1103826 -1.7453871 -1.5784742 -1.4931271
0001b0 17 68 61 be 85 fc 1d be e6 7b 14 3e 9c 5f 43 3f
       -0.22012363 -0.1542836 0.14500389 0.76317763
0001c0 d7 3f 92 3f 34 10 0e 3f 24 99 8d 3e 75 81 85 bf
       1.1425732 0.55493474 0.276559 -1.0430132
0001d0 d9 c5 f2 3e d4 58 01 be 77 8e e6 be 71 95 57 3e
       0.4741657 -0.12631541 -0.45030567 0.21053101
0001e0 2b 01 0d 3f ba ef 8f 3f a4 c5 87 bf 01 4e ef bd
       0.5507991 1.1245034 -1.060719 -0.116848
0001f0 26 b5 f4 3e bd f0 2e bf 2a 67 d4 bf 5c 67 d0 3e
       0.47794455 -0.6833609 -1.6593983 0.40703857
000200 b3 1c a1 3e 36 aa 85 3f ce a9 a9 3f e5 e7 4b 3e
       0.31467208 1.0442569 1.3254945 0.1991268
000210 0b e6 3b bf 64 7d 0f c0 63 fc b7 bf c6 d2 e4 be
       -0.7339789 -2.2420282 -1.4373897 -0.44692057
000220 3a 34 09 be 44 25 c8 bf 32 05 71 3e d7 fb d5 3f
       -0.13398829 -1.5636373 0.23537138 1.671748
000230 d7 d9 04 3e dd 8f 14 3e 09 cc 29 be 5f 24 ba 3e
       0.12973724 0.14508004 -0.1658174 0.36355874
000240 08 38 57 be 81 ef 47 3f 03 b4 25 bf 21 e8 07 3f
       -0.21017468 0.7809983 -0.647278 0.53088576
000250 a9 2d b5 3f 3c 07 b3 bd 19 01 4b bf 7c 7a 23 c0
       1.4154559 -0.08741614 -0.7929855 -2.5543509
000260 0b 96 c9 bf 35 eb ec bf 8f b5 a1 bf 86 28 e4 bf
       -1.5748914 -1.850928 -1.2633532 -1.7824867
000270 9b 52 8c bf 3d 98 f5 be d0 68 67 bf 37 b8 88 be
       -1.0962709 -0.4796771 -0.90394306 -0.26703045
000280 a5 95 00 bf 6a 1e 23 be 4c 19 8e 3f ec 86 8e 3f
       -0.5022834 -0.15929571 1.110147 1.1134925
000290 d0 5a 6b bf e2 61 f0 bd 82 7b 57 3e a7 0a cd 3e
       -0.91935444 -0.1173742 0.21043208 0.4004719
0002a0 59 dc 88 3f 66 71 87 3f 81 3c 66 bf e7 cb 11 bf
       1.0692245 1.0581481 -0.8993607 -0.56951755
0002b0 4b 4d 29 bf 5b af bc be e3 c4 99 3e 5b 58 37 40
       -0.66133565 -0.36852536 0.30033025 2.8647678
0002c0 45 4e 53 bf 2f 01 bd 3d fb 55 a9 be c0 8e 98 be
       -0.82541305 0.092287414 -0.3307341 -0.2979641
0002d0 79 d7 95 3e 3e 71 fe 3f 1f 12 db 3f 88 52 99 be
       0.29265955 1.9878309 1.7114905 -0.2994578
0002e0 c4 5e 8e be 75 2c ac 3f e7 56 1b 3f 37 d4 d7 3f
       -0.27806675 1.3451067 0.6067948 1.6861638
0002f0 fd 72 d6 bf 1b 2a 7f 3f 03 c5 38 3f 45 eb 2e bf
       -1.6753842 0.9967362 0.72175616 -0.6832774
000300 6f af f7 be d8 57 af bd f7 e2 fb 3d 34 2a e3 be
       -0.48376033 -0.08561677 0.122991495 -0.44368136
000310 c2 11 99 bd fd 3f 28 3f e0 1a 02 3f c9 be 98 3f
       -0.0747409 0.6572264 0.5082226 1.1933223
000320 9f e9 9e be 29 ae a5 3f 43 26 a4 3f c1 2c 17 3e
       -0.31037614 1.2943774 1.2824177 0.14763166
000330 3e bf 8c 3f 84 80 01 40 43 71 e5 be 5e 89 bd 3f
       1.0995862 2.023469 -0.44812974 1.4807546
000340 3e bb 81 3e ce 16 a0 3f f0 1c 03 40 a7 9b 04 40
       0.25338167 1.250696 2.0486412 2.0720003
000350 06 58 23 40 66 2f 80 3f cd d2 84 3f 5f 95 fc 3f
       2.5522475 1.0014465 1.0376831 1.9733084
000360 2b 5f 46 3e 2f a7 87 3e 12 31 27 3f 6f 6e 7e be
       0.19372241 0.26494738 0.6530925 -0.24846815
000370 e8 d1 dc be 50 03 e9 3f 5b dd e0 3f 4c ab b1 3f
       -0.43128896 1.8204136 1.7567552 1.3880401
000380 6e 39 18 be 2e 29 80 3f e4 00 a1 3f 7d 3c 2c 3f
       -0.14865658 1.0012567 1.2578397 0.672798
000390 4b 4e 92 bf 42 cf b1 bf 10 2e 47 bf 30 f5 18 3e
       -1.1430143 -1.3891375 -0.7780466 0.14937282
0003a0 af ee ea bd e3 68 07 bf 19 76 3d 3e 66 07 51 3f
       -0.114713065 -0.5289442 0.18502082 0.81651914
0003b0 21 8a 6c be 70 77 86 3f 0e 1a 3b 3f 00 ab a5 3f
       -0.23099567 1.05052 0.7308663 1.294281
0003c0 bf 2c f7 be 99 b4 61 bf 2e 50 bc be bb 0d 15 c0
       -0.48276326 -0.88166195 -0.36779922 -2.328963
0003d0 89 0e f9 bf 2c ac 91 3f 9c 88 fe 3c 78 ad 3b 3f
       -1.9457561 1.1380668 0.031071 0.7331157
0003e0 cc 99 96 bf 40 65 d4 bf f4 82 f7 bf b3 7e e1 bd
       -1.1765685 -1.6593399 -1.9336839 -0.11010494
0003f0 29 8e 66 be 45 10 03 bd 2d d8 92 bf 21 fd e4 bf
       -0.22515167 -0.031997938 -1.1472222 -1.7889749

Encoder.encoder_lstm.weight_hh_l0 f4 [128, 32]
000000 95 51 1a bf 28 c3 ba 3f 10 10 84 3f 04 89 25 3e
       -0.60280734 1.4590807 1.0317402 0.16165549
000010 9e 53 7f 3f da dd 01 c0 9a 76 ce 3e 97 be b8 bf
       0.99736965 -2.0291657 0.4032486 -1.4433163
000020 a9 83 f8 bd 94 98 d6 3f 6f b1 a4 3f 3a ef d7 bf
       -0.12134487 1.6765313 1.2866648 -1.6869881
000030 3a 03 a9 be 95 47 84 3f 23 4a 8e 3d 5c ad ab be
       -0.33010274 1.0334345 0.06947734 -0.335307
000040 ec c4 69 3f 54 32 14 3e cc 59 d7 3e 51 c5 9e bf
       0.91316104 0.14472324 0.42060697 -1.2403966
000050 ed 94 54 be 17 18 3a 3e cf e9 31 be 48 ac e7 3e
       -0.20759936 0.18173252 -0.17374347 0.45248628
000060 cd 10 98 be f4 c9 12 bf 24 73 4d 3f 61 f8 69 bd
       -0.29700318 -0.57339406 0.80253816 -0.05712164
000070 bb fe 0a bd 2c ac 87 bf b9 b6 67 be f0 9a 35 3f
       -0.033934336 -1.0599418 -0.22628297 0.7093954
000080 6b bc c0 3f bd 31 11 3e d1 40 93 bf 90 61 7d bf
       1.5057501 0.1417913 -1.1504155 -0.98976994
000090 02 9b f3 be 2e 79 02 3e 91 2c 7a be 73 75 26 be
       -0.475792 0.12741539 -0.24431063 -0.16255741
0000a0 4e 23 a5 bf 0f b1 74 3d 0d 43 92 bc 09 ce 0b 3f
       -1.2901399 0.05973917 -0.017854238 0.5461126
0000b0 88 46 58 bf d8 0e 4f bd 28 c3 0c bf 28 6e a8 3f
       -0.8448262 -0.050551265 -0.54985285 1.3158617
0000c0 f7 e4 2e bf 4a b9 20 bf 17 0e 9f bf 5b eb 7a 3f
       -0.6831812 -0.6278273 -1.2426175 0.98015374
0000d0 91 e8 a3 3f 22 ee 2c bd 89 06 1e bf 95 5c 08 3f
       1.2805349 -0.04221929 -0.6172872 0.5326627
0000e0 9e 5e 4d 3f 04 fb 13 c0 72 4e 9e 3f 38 d5 cf 3f
       0.802225 -2.3121958 1.236769 1.6236944
0000f0 30 24 08 bf 5e 14 4f 3e f9 d4 23 3f 22 78 af bf
       -0.5318022 0.20222613 0.63996845 -1.3708537
000100 65 27 9a 3d 0a 76 86 3d 6d 79 2b be e0 53 15 3f
       0.07527045 0.06565483 -0.16745539 0.5833111
000110 f2 17 65 3f 5c 03 47 bd f9 73 cc 3a 5b 7c 06 be
       0.8948966 -0.048587188 0.0015598527 -0.13133375
000120 50 d1 1c bf 69 46 32 3d 5f 27 a7 be 0b 46 ee 3e
       -0.61256886 0.04352418 -0.32647225 0.46537814
000130 12 0e fd 3d a1 eb 81 bf a4 f9 78 bf 14 05 a0 3f
       0.12356199 -1.0150033 -0.9725592 1.250155
000140 a6 cb d6 bf b5 3b a8 bf 17 a3 29 bf 04 bb 9b bf
       -1.6780899 -1.3143221 -0.6626448 -1.2166448
000150 5e 67 aa 3f 17 89 07 bf 32 fe a1 be 22 60 0e bf
       1.3312795 -0.5294356 -0.31639248 -0.5561544
000160 03 36 eb 3f ce 18 71 bf 3a 31 d1 be d0 7f dc 3f
       1.8375858 -0.94178474 -0.4085787 1.7226505
000170 51 30 fd bf 4b cb 5d 3f 6a e9 d3 3e dd 3e 8d bf
       -1.978037 0.86638325 0.41389018 -1.1034809
000180 5c 83 f2 3e f9 0b 90 3e aa bd 1e bf cd d8 e9 bf
       0.47365844 0.28134134 -0.62008154 -1.8269287
000190 c3 f3 b9 bf 6d ac 57 3f bd 69 45 bf ef 53 72 3f
       -1.4527515 0.84247476 -0.7711447 0.9465932
0001a0 87 66 46 bf 37 75 c9 be 19 8f ad 3e df e8 4f 3f
       -0.77500194 -0.3934724 0.33898237 0.8121471
0001b0 09 4b 1a 3e 96 19 58 bf 9f 54 33 3e c0 eb 58 3f
       0.15067686 -0.8441404 0.17512749 0.84734726
0001c0 c0 fc cc bd ee c1 15 be 15 da c4 bf f7 eb 14 3f
       -0.10009146 -0.1462476 -1.5379053 0.58172554
0001d0 b1 71 bf 3e 2d 1f 8f 3f 87 0e 73 3d 39 57 77 3f
       0.37391427 1.1181389 0.059340026 0.96617466
0001e0 dc 7b a0 3f b9 43 e2 be 6c e3 5b bd 52 87 ab 3f
       1.2537799 -0.44192293 -0.053683683 1.3400671
0001f0 d4 4c d3 be 53 be 5c 3e 5d 28 01 3f fc 84 b4 be
       -0.41269553 0.21556978 0.50452214 -0.3525771
000200 1c 6c 4b 3e 47 2a 0e bf b3 1e ad bf f1 bd 85 bf
       0.19865459 -0.5553326 -1.3524994 -1.044859
000210 0c b2 18 3f 1e 41 87 3e 1a 2c 4a 3e 2b 62 5d 3e
       0.5964668 0.26416868 0.19743386 0.2161948
000220 fb af c0 3e c6 8a 8e bd fe e5 14 be 7a bd 76 3f
       0.37634262 -0.06960063 -0.1454086 0.9638287
000230 89 9f 1c 3e 98 37 fb be fc 47 b5 bf 40 70 40 3d
       0.15295233 -0.49065852 -1.4162593 0.04698205
000240 83 3b d4 3e 25 9d 99 3e fd b6 2a bf 53 5a 85 3e
       0.41451654 0.30002704 -0.6668547 0.26045474
000250 58 95 cf 3e ac d3 69 3f fc 57 e8 3e c0 e9 24 3e
       0.40543628 0.9133861 0.45379627 0.16104794
000260 63 f7 8f 3f 33 9e 30 be 60 a1 98 be d7 03 80 3f
       1.1247371 -0.17247848 -0.2981062 1.0001172
000270 8a d9 5b 3e b0 61 b8 3d b1 cb 1f 3f 37 b9 c1 bf
       0.21469703 0.090030074 0.62420183 -1.5134648
000280 d7 8a 82 3e 1c 42 10 40 f4 14 15 bf 91 7d 6d bf
       0.2549655 2.254035 -0.58235097 -0.92769724
000290 c3 46 15 3f 76 f5 b0 bf b6 16 c9 3e c0 ea 85 bf
       0.583111 -1.3824909 0.3927514 -1.0462265
0002a0 4f 1b b7 3e 44 b0 6d 3f 10 59 c8 3f 13 f5 87 bd
       0.35763022 0.92847085 1.565218 -0.06638541
0002b0 32 d3 07 bf 37 30 74 3f fe f2 40 be 9b a7 af 3f
       -0.53056633 0.9538607 -0.18842694 1.3723024
0002c0 b2 0b 7b bf dc 70 0c bf 19 38 26 bf 25 91 46 bf
       -0.9806472 -0.5485971 -0.6492935 -0.7756522
0002d0 12 04 7f 3f 4f 84 a2 bf 10 d9 61 bf 91 51 b7 3e
       0.99615586 -1.2696627 -0.88221836 0.35804418
0002e0 ef a0 f8 3e d2 d1 69 bf d0 c2 29 3f fd a3 03 3f
       0.48560283 -0.91335785 0.66312885 0.514221
0002f0 be 06 d7 be fd ef dc be 9f 11 c0 3f b1 e6 8b bf
       -0.4199733 -0.43151847 1.5005378 -1.0929776
000300 e6 52 08 bf 84 1e 43 3f 0d 58 11 3f 27 73 61 be
       -0.5325149 0.7621844 0.5677498 -0.22016583
000310 99 2e 22 3f 7f d8 95 bf d7 68 1f 3f b6 36 47 bf
       0.6335235 -1.1706694 0.6226935 -0.7781786
000320 27 f9 5a 3f cf ac 97 3f bc 57 7e 3f 71 65 5a bf
       0.85536426 1.1849612 0.9935262 -0.8531104
000330 10 f5 5e 3e ca eb b4 be b2 86 1e 3c 78 8f 97 bf
       0.21773171 -0.35336143 0.009675669 -1.1840658
000340 e2 07 4b 3f aa b6 d4 3e ec 4e a6 3e 26 57 8a bf
       0.79308903 0.41545612 0.32482088 -1.0807846
000350 13 a6 01 bd 61 59 30 bf eb d8 37 3e f6 02 cf bd
       -0.03165252 -0.6888638 0.17953841 -0.10107987
000360 3b 36 99 bf af 80 07 3f 8f df ef bd 16 2c e6 ba
       -1.1969675 0.5293073 -0.11712562 -0.0017560746
000370 70 c6 cd 3e 60 12 ff be 54 32 e5 bd e0 db 0f 3f
       0.40190458 -0.49818707 -0.1119124 0.5619488
000380 7a a5 b4 3d ef 00 07 3d 82 0a 8e 3e 71 52 e6 be
       0.08820625 0.032959875 0.27742392 -0.44984773
000390 7b 43 79 bf af de 90 bd b3 02 09 3f c2 6e 3b 3e
       -0.9736859 -0.070737235 0.53519744 0.1830397
0003a0 76 d0 b2 be e8 c3 02 bf e1 80 dc bd 96 e7 6c 3e
       -0.34924668 -0.5108018 -0.10766769 0.23135218
0003b0 a6 5e 65 bf 7d 4e 31 3e 8d 5b ef 3e 98 c4 c4 be
       -0.8959755 0.17315097 0.46749535 -0.3843124
0003c0 06 61 da 3e d8 b7 a7 be 08 96 b4 bd a5 d8 80 3c
       0.42652148 -0.3275745 -0.08817679 0.015728304
0003d0 5f fa 4b bf 96 a9 e6 be 97 13 d0 be db da ba 3e
       -0.7967891 -0.4505126 -0.40639946 0.36495098
0003e0 2c 55 7e 3e 3e bc bf 3e c7 4a e7 3e 41 8d a7 3e
       0.24837178 0.37448305 0.45174238 0.32724956
0003f0 fb d1 7d 3f a2 8e 9e bf 6b 05 0d 3f e3 da b0 3e
       0.9914853 -1.2387278 0.5508639 0.34541997

Encoder.encoder_lstm.bias_ih_l0 f4 [128]
000000 8f 93 00 bf 1b fe 58 bf 2c 60 8d bf 2e 02 06 bf
       -0.50225157 -0.84762734 -1.1044974 -0.52347076
000010 75 81 18 bf 9f b5 14 bf a5 cc 5f bf 53 b5 22 bf
       -0.59572536 -0.5808963 -0.8742164 -0.6355793
000020 cf 3f 88 bf 28 5c 72 be 02 53 17 bf 01 28 72 bf
       -1.0644473 -0.23667967 -0.59111035 -0.9459229
000030 da fd 61 bf be 00 86 be f4 79 1e bf 2e 86 1c bf
       -0.8827797 -0.2617244 -0.61904836 -0.6114224
000040 c0 c4 75 bf 22 33 70 bf c2 37 1e 3f 08 9d de bd
       -0.9600334 -0.9382802 0.6180383 -0.10869795
000050 ac 9b 4d bf 4f 70 e8 be fb ed 42 bf f3 97 80 bf
       -0.8031566 -0.45398185 -0.7614438 -1.0046371
000060 e5 1d 81 bf 0e ac 2e bf 7f ed fa be 3b 1d 2a bf
       -1.0087248 -0.68231285 -0.4900932 -0.6645085
000070 d0 9e 67 bf d4 c7 d5 be 36 6c 8d be 6c 33 2d bf
       -0.90476704 -0.4175402 -0.2762162 -0.6765659
000080 3e d5 2f bd 62 6c 80 be 4b 03 2e bd a7 a8 cc 3d
       -0.042927973 -0.2508269 -0.04248361 0.099931054
000090 d9 1a a1 3f a7 9a 99 3e 54 d9 19 3e ef e1 49 3f
       1.2586318 0.30000803 0.1502431 0.7886037
0000a0 8a 0e 64 be 09 48 45 bf 12 8f 44 bf ef 4c 6e 3e
       -0.22271171 -0.7706304 -0.7678081 0.23271535
0000b0 fd 72 3e bf 57 61 d2 be 1d e9 18 bf 5d 19 91 3f
       -0.7439421 -0.4108989 -0.597307 1.1335865
0000c0 e0 81 45 3e 41 b7 6a 3d 4d a3 ea 3c 59 fb 95 3e
       0.19287825 0.05730367 0.028642321 0.29293326
0000d0 b3 80 eb 3e 97 d3 ab be 75 a2 1f bf 77 2a 0c bf
       0.45996627 -0.33559868 -0.62357265 -0.54752296
0000e0 c7 5f 15 bf c9 30 63 3f db 27 b5 3e 87 31 fb 3d
       -0.5834927 0.88746315 0.3538197 0.12265306
0000f0 0a 7e a0 bd da c4 f1 be 3b 80 ae be cf 08 97 bf
       -0.0783654 -0.47220498 -0.34082207 -1.1799563
000100 84 2e 21 3e ff 31 ff bc 6e 90 50 3d 14 2b f8 3d
       0.157404 -0.03115177 0.05091899 0.121175915
000110 e1 28 9f bd 76 1e 24 be e8 be ae be 1d 92 4d 3d
       -0.07771469 -0.16027245 -0.34130025 0.050188173
000120 61 f3 73 bb c8 92 25 3e 5b ab 3b 3e ee 32 e3 3d
       -0.0037223923 0.16169274 0.18327086 0.110936984
000130 17 a4 3a bd 70 8e 8d 3d 66 85 e6 bd 9b a2 d2 bd
       -0.045566645 0.069119334 -0.112559125 -0.10284921
000140 ad c5 46 3c 9b 07 65 3d 99 51 2f 3d 62 3e 4a 3f
       0.0121320905 0.055915456 0.042802427 0.7900144
000150 26 b1 79 be ed 05 61 3e 49 5a ed bc 22 a4 d6 bd
       -0.24383983 0.21974917 -0.028973715 -0.104805246
000160 5f 91 94 bc 42 e3 eb 3e 52 b2 ac bd 72 fa 14 be
       -0.018135725 0.4607182 -0.084324494 -0.14548662
000170 64 a4 97 3e aa 7c 48 bd a7 9e d3 3d 4a 62 45 3e
       0.29617608 -0.048947014 0.10332995 0.19275776
000180 2d 08 e5 bf 1e ba 31 bf 1c 15 62 bf c9 92 0e bf
       -1.789312 -0.6942462 -0.8831346 -0.55692726
000190 17 1b 8a be 10 46 0f bf 1e cd 9a bf 48 f6 b4 bd
       -0.26973793 -0.5596628 -1.2093847 -0.08836037
0001a0 03 b3 a1 bf 31 7f 0c bf 4b fa d9 be bd ed 59 bf
       -1.2632755 -0.5488158 -0.4257377 -0.85128385
0001b0 d6 fd 53 bf 19 75 29 bf 50 b1 ea be 7b 84 14 bf
       -0.828092 -0.661943 -0.45838404 -0.5801465
0001c0 6d 9a 1d bf f4 98 69 bf 74 c7 e4 bf be 1e de bf
       -0.6156376 -0.9124901 -1.7873368 -1.7353132
0001d0 1d e5 86 bf fc db 2f bf fb 6c 59 bf e0 32 9b bf
       -1.053867 -0.68695045 -0.84931916 -1.2124901
0001e0 69 80 30 bf fe 60 60 be 01 be 9a be fb 24 de be
       -0.6894594 -0.21912 -0.30223086 -0.4338759
0001f0 92 cf 96 bf b0 d0 ad be 9d b3 d9 be 92 ba 4b bf
       -1.1782095 -0.33948278 -0.42519847 -0.7958156

Encoder.encoder_lstm.bias_hh_l0 f4 [128]
000000 66 8b d5 be 6b 97 5b bf 5c ee 78 bf a8 c3 1d bf
       -0.41707915 -0.8577792 -0.9723871 -0.6162667
000010 28 e8 5b bf 60 df 24 bf 91 90 59 bf 59 20 fb be
       -0.8590112 -0.64403343 -0.84986216 -0.49048117
000020 61 22 74 bf a0 7c c1 bd 71 33 3b bf 51 62 69 bf
       -0.9536496 -0.094475985 -0.7312537 -0.91165644
000030 32 9b 8a bf 60 79 fd be 94 33 4b bf ae 38 0a bf
       -1.0828612 -0.49506664 -0.79375577 -0.53992736
000040 ff 8c 3b bf 06 ef 4f bf 37 d8 ba 3e 3d 35 89 be
       -0.7326202 -0.81224096 0.36493084 -0.2679843
000050 71 0c 74 bf ab 4f d8 be a6 f6 6a bf e2 bd 9d bf
       -0.95331484 -0.42248282 -0.91782606 -1.2323573
000060 c6 3a 63 bf 68 5b 40 bf b6 4a 2b bf 64 50 4c bf
       -0.88761556 -0.75139475 -0.66910875 -0.79810166
000070 ae ac 68 bf f0 de e7 be a3 7a 3d be c0 82 72 bf
       -0.9088849 -0.45287275 -0.18503813 -0.9473076
000080 9d f1 e5 bd 11 1e 9e be 37 c9 40 be ee 61 8d 3c
       -0.11227725 -0.30882314 -0.18826757 0.01725861
000090 67 96 a1 3f 8b 45 b7 3e 30 72 09 be 62 b3 24 3f
       1.2624024 0.35795245 -0.13422465 0.64336216
0000a0 c4 49 db be 1c c2 51 bf b9 f9 87 bf a5 fa 32 3e
       -0.42829716 -0.8193681 -1.0623084 0.17478426
0000b0 c0 5c 31 bf fd c7 b5 be 3a 4f 17 bf fb f7 5f 3f
       -0.6928215 -0.3550414 -0.59105265 0.87487763
0000c0 98 ce d5 3e 12 ec 99 3e 43 bd 0f 3c 9a b7 0c 3f
       0.4175918 0.3006292 0.008773151 0.54967654
0000d0 42 ca 77 3e 00 01 6a be 67 6d 00 bf 48 5c d1 be
       0.24198249 -0.22851944 -0.50166935 -0.40890718
0000e0 25 06 25 bf 56 b5 1a 3f 36 64 b4 3e e9 7c 80 3e
       -0.644625 0.60432947 0.35232705 0.250953
0000f0 f2 01 46 bd 25 be 1b bf 7e 9b 13 bf 9e b9 7e bf
       -0.0483417 -0.6083701 -0.5765914 -0.9950198
000100 76 2d 44 3e 1b d2 36 be cc 63 5a 3e c5 fa 8f 3d
       0.19157967 -0.17853586 0.21327132 0.07030252
000110 7b 04 e0 bc f4 78 9f bc 9d 23 4e be 36 5f 4b bd
       -0.027345886 -0.019466855 -0.20130773 -0.049651347
000120 9a b1 98 be 88 31 8e 3d 85 8a 8b bd 86 3c ce bd
       -0.29823 0.06943041 -0.0681353 -0.10070138
000130 eb 69 5e 3d ac 6c b6 3d e4 86 91 3c cf 6f 77 3b
       0.05430023 0.08907446 0.017764516 0.0037755852
000140 3d 90 60 be da 3b 33 3e 2b d6 41 bd e5 3c 20 3f
       -0.21930023 0.175033 -0.047323387 0.6259292
000150 8f 8f 16 be 1a 1f 5c 3e 62 08 83 3e 81 4c 14 3e
       -0.14703201 0.2149624 0.25592333 0.14482309
000160 93 bb b6 bd 4d fe d0 3e f9 50 b4 bd 3d 75 a5 3c
       -0.08922496 0.40819016 -0.08804507 0.020197505
000170 aa 0f a6 3e c1 d3 f7 3c 3d 8f a6 3d d6 66 ee 3d
       0.32433826 0.03025234 0.08132789 0.11640708
000180 54 b4 d0 bf 22 5b 12 bf 2a 98 44 bf 5e e5 17 bf
       -1.6305032 -0.5717031 -0.76794684 -0.5933436
000190 c0 ac 62 be 48 32 31 bf 69 68 a2 bf 13 32 a5 bd
       -0.22136211 -0.6921735 -1.2688113 -0.080661915
0001a0 b0 45 c0 bf 90 8c f7 be 0a ca cb be 1f 68 1e bf
       -1.5021267 -0.48349428 -0.3980258 -0.61877626
0001b0 3b 33 42 bf 99 87 b6 be a8 83 df be 8a 46 ef be
       -0.7585942 -0.35650328 -0.43655133 -0.46733505
0001c0 c0 37 69 bf 47 be 3c bf 75 b0 03 c0 01 f3 fa bf
       -0.9110069 -0.7372784 -2.057645 -1.9605409
0001d0 9e f5 54 bf fc ee 13 bf 44 c0 38 bf b2 4d 9c bf
       -0.8318728 -0.57786536 -0.72168374 -1.2211211
0001e0 d8 4f 33 bf 4d fd 35 be 23 2e a1 bd bb 76 a1 be
       -0.70043707 -0.17772408 -0.07870128 -0.31535897
0001f0 e9 21 8e bf 6c c3 9e be e3 11 08 bf 61 3a 36 bf
       -1.1104099 -0.3100847 -0.5315229 -0.7118283

Encoder.encoder_attn.0.weight f4 [20, 84]
000000 1e a5 b1 be f8 fd 2e 3f ff 92 46 3f 5d aa 96 bf
       -0.34696287 0.68356276 0.7756805 -1.1770741
000010 bd 09 49 bf 84 ef a0 be fc 80 9c 3d 42 3b 83 bf
       -0.78530484 -0.31432736 0.07641789 -1.0252459
000020 3c f8 90 be 99 12 d1 3e 8b f7 99 3f 56 3c 67 bf
       -0.28314388 0.408345 1.2028669 -0.9032644
000030 2e ab 5a bf 56 48 f0 3c b2 5b 18 3f 1b a8 01 3b
       -0.8541745 0.029331367 0.59514916 0.0019784037
000040 4b c2 c9 3e 56 bf a6 bd 5d 63 44 bf e1 da 45 be
       0.39406046 -0.08141963 -0.76714116 -0.19321777
000050 6f 2f 5e be 7c 97 9f bd c7 d5 f6 3d ab 59 f4 3f
       -0.21697782 -0.07792565 0.120524935 1.9089864
000060 34 47 ab 3e 44 45 6b bf 78 76 92 3f d2 0f c2 3e
       0.3345276 -0.91902566 1.1442404 0.37902695
000070 13 7a 0d 3e fd 49 c1 bf dc ba 6e 3f 0f c8 e4 3e
       0.13816099 -1.5100704 0.93253875 0.44683883
000080 38 92 27 3e 01 c6 e6 3e bc 79 b6 3e 05 64 ce bf
       0.16364372 0.4507294 0.3563975 -1.6124274
000090 3b 88 73 bf fd cd 7b be 50 09 e3 bc 2f 23 41 bf
       -0.95129746 -0.24590297 -0.027714401 -0.7544431
0000a0 a8 d9 f7 be 67 82 e2 3e 0c 12 b3 3f 43 7d a5 bf
       -0.48408246 0.44240114 1.3989882 -1.2928852
0000b0 9a 78 5c bf 11 e4 db 3c a6 20 82 3f 62 cd 0f bb
       -0.86121523 0.026842149 1.0166214 -0.0021942486
0000c0 67 64 11 3e 5d e6 96 be 35 e4 80 bf 8f 3b 23 be
       0.14198457 -0.29472628 -1.0069643 -0.15940689
0000d0 b7 25 19 be a1 b6 13 3d 18 61 88 bd 08 89 0c 40
       -0.14955793 0.03606284 -0.06659144 2.1958637
0000e0 12 5f b6 3e b1 0f 97 bf a8 67 ae 3f 80 08 fe 3c
       0.35619408 -1.1801664 1.3625383 0.031009912
0000f0 5b 04 81 bd ea 62 8b bf 87 7d 8a 3f 28 8f 2f be
       -0.06299659 -1.0889561 1.0819558 -0.17144454
000100 2e d3 06 3b 2d e1 16 bf da 4c 40 3e 82 58 af be
       0.002057265 -0.5893734 0.18779317 -0.34247214
000110 13 94 c7 3e d9 86 61 3e c4 4b 89 be eb d6 71 3c
       0.3898016 0.22024097 -0.26815617 0.014760713
000120 ab 70 80 3e f1 d5 77 be 6e 40 1c 3f 81 96 32 bf
       0.2508596 -0.24202706 0.6103581 -0.697609
000130 5a ae d6 3d db 2f 77 be 58 d4 86 be d1 ea c6 be
       0.10482474 -0.24139349 -0.2633388 -0.38851026
000140 bc 40 9f be b4 78 fa be ff e0 05 bf 04 fb 7c 3f
       -0.31104076 -0.48920214 -0.5229644 0.9882052
000150 0e 54 14 3f 2b 59 c2 3e 17 19 88 bc d0 8e e1 3f
       0.5794076 0.37958655 -0.016613526 1.7621708
000160 f7 bd 1a 3f ab 6c bf bd 01 66 a8 bf 76 b3 33 3f
       0.60446113 -0.09346899 -1.3156129 0.7019571
000170 ca db 3a bb 7d 16 9a 3f b8 80 d3 3c ee 48 39 bd
       -0.0028512352 1.2038113 0.025818214 -0.045235567
000180 9b 02 2c 3f 95 fa 4d 3f 3b 32 e8 be bc 2a 20 3f
       0.67191476 0.8046048 -0.45350823 0.6256521
000190 2b a7 25 bf d9 5e 06 be c8 d1 ce be 92 a7 de 3d
       -0.64708203 -0.13122119 -0.40394425 0.10871805
0001a0 a3 43 b1 be ff 46 2e bf a7 58 1d bf 59 e5 04 bf
       -0.34621915 -0.6807708 -0.614634 -0.51912457
0001b0 45 d8 1a 3f 84 e6 b2 3e e1 e7 bc 3e 53 5b 22 3e
       0.6048625 0.34941494 0.3689566 0.1585515
0001c0 91 b0 2e 3f af 15 e6 be c0 f1 0f be 4f 30 49 3f
       0.6823817 -0.44938418 -0.14057064 0.7858934
0001d0 ed e9 7a 3f a0 6f 22 bd d5 1d ba 3e 5c 53 aa 3f
       0.9801319 -0.039657235 0.36350885 1.3306689
0001e0 f0 e9 29 3f e2 7c 03 3d dc 12 82 bf fb 87 1b 3f
       0.66372585 0.03210152 -1.0162005 0.60754365
0001f0 0c ac 40 bd bd e3 a1 3f a2 2c 6d bd e1 ab e8 3e
       -0.047039077 1.2647625 -0.057903893 0.45443633
000200 5d 41 b1 3e 3f 4d 1d 3f 28 fa 7a bf 60 b1 11 3e
       0.3462018 0.61445993 -0.9803796 0.1422782
000210 b9 e0 51 bf 60 4c 9e bc a3 ca 51 bf 89 60 20 3e
       -0.81983525 -0.019323528 -0.81949824 0.15661825
000220 8b 9e f4 be be 44 01 bf 10 f0 3c bf 5f c3 e8 be
       -0.4777721 -0.5049552 -0.73803806 -0.45461556
000230 01 2e 09 3f 67 db 2e 3f 5a 87 d3 3e e5 14 cf 3e
       0.5358582 0.6830353 0.41314203 0.4044563
000240 3a 6b 25 3f 5c 8d 88 be e2 6c a8 3e ee 67 06 3f
       0.6461674 -0.2667035 0.3289557 0.52502334
000250 71 78 10 be cf 0d fc 3e 0b 94 2e 3f 64 71 0b 3f
       -0.14108445 0.49229285 0.68194646 0.54469895
000260 b6 f5 c9 be 6e 30 6b 3e 05 36 e7 bd 2b 95 e8 3d
       -0.39445275 0.22967693 -0.112896 0.113565765
000270 10 f9 a1 3d 49 e8 bb 3e 35 d7 1c 3f b6 42 90 3e
       0.07908833 0.36700657 0.6126588 0.28175896
000280 8c ff bd be 6d d2 3a bf 16 a2 8d bf 41 13 34 bf
       -0.3710903 -0.72977334 -1.106509 -0.7034188
000290 95 93 8a be 90 14 d8 3e 02 b8 30 3f 96 8e 6a 3f
       -0.2706572 0.42203188 0.69030774 0.9162382
0002a0 b3 b6 8f bf bc c8 28 3e eb 2d 72 be 7e dc 36 bf
       -1.122763 0.16482824 -0.23650329 -0.71430194
0002b0 af 78 04 3f 75 42 37 bf 64 0a 8f 3f a0 d2 c8 bf
       0.5174665 -0.7158578 1.1175046 -1.5689278
0002c0 3d aa 7f be 08 06 9b bf 9e c6 ab 3e 82 58 46 be
       -0.24967285 -1.2111216 0.3354997 -0.193697
0002d0 bf 9a dc be c1 44 7f be 33 ec 2f 3f be 01 58 3f
       -0.43086812 -0.24928571 0.68719786 0.8437766
0002e0 77 45 84 3d d2 4c 0e bf 29 73 47 3e f5 5e ae bf
       0.06458562 -0.5558597 0.19477524 -1.3622729
0002f0 70 d6 74 3f a0 6f c3 bf 53 58 ad 3d 72 ed bb 3d
       0.95639706 -1.526844 0.08464112 0.091761485
000300 8a 9f 34 bf 8b 54 33 bf 78 e6 8b 3c 3b a1 82 bf
       -0.7055594 -0.7005088 0.01707767 -1.0205454
000310 d2 1e 8a bd c7 e1 cd bd ed 4d 99 3e 34 4e 1f bf
       -0.0674416 -0.10052829 0.29942265 -0.62228703
000320 df 25 94 bf 94 62 cd 3e 3c c7 e7 be ab 8c 44 bf
       -1.1574057 0.40114272 -0.4526919 -0.7677714
000330 4c 44 bd 3e d8 ff 17 bf 82 41 82 3f cf 7a c6 bf
       0.3696617 -0.5937476 1.0176241 -1.5506228
000340 c3 ca 64 be 82 b1 ce bf 6b f5 57 3e b9 c1 ff bd
       -0.22342972 -1.6147921 0.21089713 -0.124881215
000350 9f 88 1e bf 9b b8 1b bf 79 43 7a 3f 77 df 8a 3f
       -0.6192722 -0.6082856 0.97759205 1.0849446
000360 22 a9 70 be 88 e7 86 bf 7d 3a 33 3d c5 4d aa bf
       -0.23502019 -1.0539408 0.04375695 -1.3304983
000370 52 ce aa 3f 2a c2 be bf 3c cf 3e 3d b3 f1 01 3d
       1.3344214 -1.4903004 0.046584353 0.031724643
000380 a6 7a 92 be 31 9c 5e bf ee c3 62 bd 96 36 fd be
       -0.28609198 -0.8695708 -0.055362634 -0.49455708
000390 e4 69 74 bf 60 d0 83 3e 87 77 10 3f af bc b6 bf
       -0.95474076 0.25744915 0.56432384 -1.4276332
0003a0 11 43 aa bd 15 a4 30 be 27 e3 95 3e 5a 8a 10 3f
       -0.08313573 -0.17250092 0.29274866 0.5646111
0003b0 68 c4 fe bd 36 fe a4 3e d1 63 a0 3e ee 7e 88 bc
       -0.12439805 0.32225198 0.31326154 -0.016662087
0003c0 58 6e 2f be 1c 01 07 bf 17 ba 5f 3e cd d3 eb 3d
       -0.17131937 -0.5273607 0.21848331 0.11515007
0003d0 dc 67 0a 3f da e2 e4 3e 18 98 0a bc c9 e4 89 be
       0.54064727 0.44704324 -0.008459114 -0.26932362
0003e0 68 79 87 bf 62 29 9f be a9 01 d8 3e 26 5d ab bf
       -1.0583925 -0.3108626 0.42188767 -1.3387802
0003f0 3f f4 2c bf 87 69 a9 bf 5f d6 8c bf 0f c0 8d 3e
       -0.6756019 -1.3235329 -1.1002921 0.27685592

Encoder.encoder_attn.0.bias f4 [20]
000000 a8 df b2 bf 51 77 be 3d 49 ff 14 bf eb ae 30 be
       -1.3974504 0.093001015 -0.58202034 -0.17254226
000010 4a 71 7a 3e 52 d9 8b 3f 6e d4 1d be 74 af 2b 3f
       0.24457279 1.0925696 -0.15413067 0.67064595
000020 b1 d0 a3 3f f2 08 c9 3b 69 d5 28 bf a2 a4 66 bf
       1.2798063 0.0061350996 -0.6595064 -0.9009496
000030 b5 43 67 be e6 5b e4 bf 12 ed ed 3e f9 43 9a bf
       -0.22584422 -1.7840545 0.46469933 -1.2051994
000040 15 8c 60 bf 62 6d 4b 3e aa 09 b1 3f 42 9a e0 bf
       -0.8771375 0.19865945 1.3831074 -1.7547076

Encoder.encoder_attn.2.weight f4 [1, 20]
000000 cc c3 27 3d b9 94 87 3e 24 63 f6 3d 3d 62 4b 3c
       0.04095821 0.26480654 0.12030628 0.012413559
000010 63 72 86 bc 00 c1 22 3e b4 0c c7 bd 26 4a 93 3e
       -0.016411966 0.15893936 -0.0971922 0.28767508
000020 66 12 5a 3b 39 ec 37 be 81 03 32 3e 7a 82 c6 bd
       0.0033275126 -0.17961206 0.17384149 -0.09692855
000030 c8 c8 20 be f8 7d ce be 45 09 01 3d eb 1b e9 be
       -0.15701592 -0.40330482 0.03150298 -0.45529112
000040 19 72 7a 3e 27 0f 69 3e 40 3b 9c bd d2 b5 0f be
       0.24457587 0.22759686 -0.076284885 -0.14034203

Decoder.attn_layer.0.weight f4 [32, 96]
000000 5b e0 05 bf a8 13 a4 be 5d 03 34 bf 00 4f b5 3e
       -0.52295464 -0.32046247 -0.7031763 0.35411835
000010 13 aa c2 bd 2d 0f 80 be e7 4c 0b bf f8 ee 40 3f
       -0.09505095 -0.25011578 -0.5441422 0.7536464
000020 7b 02 f9 3e 5b 7c 6a 3e 67 2c 10 3f 21 5b bf 3d
       0.48634705 0.22899 0.5631775 0.09343553
000030 0d 1a a7 3b 69 1b 0d 3e ee 84 29 3f bd ec d1 be
       0.005099541 0.13779987 0.6621846 -0.4100093
000040 6f 71 38 3f 21 cc ba be c8 24 69 3e 54 98 79 3f
       0.72048086 -0.36483863 0.22767937 0.9749806
000050 23 00 d3 be e7 3a 0f 3f 48 b4 22 bf 38 4a 77 3f
       -0.41211042 0.5594925 -0.6355634 0.96597624
000060 23 fa 21 bf 27 b5 10 bf 97 74 06 be ef 9e 85 bf
       -0.63272303 -0.56526417 -0.13130413 -1.0439128
000070 e9 58 b7 3d 1f 0e b2 3e 62 d2 05 3e f6 fd 08 be
       0.08952505 0.347764 0.13068536 -0.13378128
000080 e7 34 f8 be f6 2b 0c bf 4a 69 29 bf 8e 39 db 3e
       -0.4847786 -0.5475458 -0.66176283 0.42817348
000090 f5 d6 12 bd 30 3b 33 3d 9d b3 fb be fb 0e 30 3f
       -0.03584953 0.043757617 -0.49160472 0.6877286
0000a0 0c bb c7 3e f9 d4 f5 3d 6a 6e 1c 3e 9f 2e ba 3e
       0.39009893 0.12003512 0.15276495 0.36363694
0000b0 a9 b7 21 be 41 43 e0 3e 11 07 f8 3e 20 27 c0 be
       -0.15792717 0.4380131 0.4844289 -0.3752985
0000c0 89 19 0b 3f 3a e4 22 3d e0 84 5e 3c 88 e5 0f 3f
       0.5433584 0.039768435 0.013581485 0.5620961
0000d0 43 2a d7 be d9 24 23 3f 37 56 28 bf a6 94 5e 3f
       -0.4202443 0.637281 -0.65756553 0.8694557
0000e0 e7 33 b3 bd d9 01 cd be 1e d0 51 bd 1c 59 9c bf
       -0.08750134 -0.40040472 -0.051223867 -1.2214694
0000f0 ea 26 aa 3e d5 b2 1d 3e 76 5b 99 be 11 d1 5b 3c
       0.33232814 0.1540025 -0.29952592 0.0134165445
000100 de ae 90 be 51 cb ec 3c 44 dd 0f bf d2 54 fe be
       -0.28258413 0.028905543 -0.56197 -0.49674088
000110 63 23 f0 be 85 6f 63 bf 0d 60 20 3e 27 46 39 be
       -0.46901998 -0.8884204 0.1566164 -0.18093167
000120 61 86 9d be a9 7c 57 3e d3 09 9f 3f bc a4 db be
       -0.30766585 0.21043648 1.2424873 -0.4289912
000130 88 61 51 bf f6 83 0e 3f e0 b5 9e 3e b8 dd 48 be
       -0.81789446 0.55670106 0.30998135 -0.19615829
000140 d4 8f 75 3d 3a d0 85 3e 3d 02 d8 bb 53 44 04 be
       0.05995162 0.26135427 -0.0065920637 -0.12916689
000150 16 5e bd bc ce 88 8a be 72 de 3b 3f d9 8f f6 3e
       -0.023116153 -0.270575 0.733863 0.48156622
000160 45 c2 ff 3d aa 10 5a be 97 31 cf 3e b6 4d 93 3d
       0.12488226 -0.2129542 0.40467522 0.071925566
000170 11 11 61 3e bb 71 81 3f 60 f0 41 3e 37 af 39 bf
       0.21979167 1.0112833 0.18939352 -0.7253298
000180 2a 06 bb be e7 e0 5b 3f 6f 3b a6 3e 34 f0 1b 3f
       -0.3652814 0.8589005 0.3246722 0.60913396
000190 34 86 42 3f 45 29 c9 be 48 a4 94 3e e0 bd 8c be
       0.7598603 -0.392893 0.29031587 -0.27488613
0001a0 96 c2 f1 be 5c 34 a6 3e 4a 7b 42 be d2 6a 32 3e
       -0.4721877 0.32461822 -0.18992344 0.17423561
0001b0 7e 8d 48 3e 13 38 1e 3e 5b 49 92 be de a6 08 3f
       0.19585225 0.15451078 -0.2857159 0.5337962
0001c0 80 fc 0a 3f 63 2a b4 be 8d 2b 8a bf 10 4d dd be
       0.54291534 -0.35188589 -1.0794541 -0.43222857
0001d0 d0 7a 01 3f 66 9d 8c bd b4 36 cb be 80 58 c3 bf
       0.5057802 -0.06865959 -0.39690173 -1.5261383
0001e0 a8 e2 36 bd d8 08 de 3e 7d 95 33 3e 01 d1 b2 bd
       -0.04464975 0.43366122 0.17537494 -0.087312706
0001f0 32 fd 06 3e ac 01 11 bf 1c f7 18 bf 23 23 1c bf
       0.13182524 -0.56643176 -0.5975206 -0.60991114
000200 dc 1a 33 be eb a4 0e 3f e1 c4 cc 3e 61 38 e6 3e
       -0.17490715 0.55720395 0.39993957 0.4496489
000210 69 61 e0 3e 94 cf 75 be e0 bc f6 3e 28 02 96 3e
       0.43824318 -0.24004966 0.48190975 0.2929852
000220 ca 25 03 bf 12 b7 36 3e df f5 55 be 0d 58 5f 3d
       -0.51229537 0.17843273 -0.20894574 0.05452733
000230 b8 81 1b 3e 17 18 d6 be f6 4f 11 be 7a 80 a9 3e
       0.15186203 -0.41815254 -0.14190659 0.33105832
000240 c0 1b af 3e 67 a9 3e bf 37 aa 31 bf 93 e1 59 be
       0.3420086 -0.7447724 -0.6940035 -0.21277456
000250 f9 e6 58 3f d8 a6 c9 3d b2 a4 34 be 63 58 b0 bf
       0.84727436 0.09846276 -0.17640951 -1.3776973
000260 b0 b8 86 3e 94 db 55 3e 14 eb d0 3d 19 d6 7e bd
       0.2631278 0.20884544 0.102010876 -0.0622159
000270 23 4a 9d bd 85 57 ee bd c3 ef 4b bf 8a a7 9e be
       -0.07680156 -0.11637787 -0.7966272 -0.30987197
000280 1f b7 52 3d af 7c 90 bf 01 4e e1 be ca ef 68 be
       0.05144417 -1.128805 -0.44004825 -0.22747722
000290 9d 76 c8 be f9 8e 31 3f 7f 85 a1 3d ef e5 84 3e
       -0.39152995 0.69358784 0.078867905 0.25956675
0002a0 fe 58 4e bf fc 57 63 bf 04 0b 7a 3e 05 cb 09 3f
       -0.8060454 -0.8880613 0.24418265 0.5382541
0002b0 e8 31 a2 be ee 1d 90 bf c3 92 70 3e a3 7a c6 bd
       -0.316787 -1.1259134 0.23493485 -0.0969136
0002c0 4b 25 e9 3e 42 77 f0 be 8a 49 a6 be 30 93 c4 bd
       0.45536265 -0.46965986 -0.3247798 -0.09598386
0002d0 a4 73 10 3f 80 b9 94 3a 5e 17 b7 3e 31 8c a3 be
       0.56426454 0.0011346787 0.35760015 -0.31942895
0002e0 52 71 e3 3e 8c 0f 59 3e 67 72 93 3e 59 83 0e 3e
       0.44422394 0.21197337 0.2879822 0.13917293
0002f0 29 82 aa be ab 13 03 bf 23 37 4f 3d fb 7f 15 bf
       -0.3330243 -0.51201886 0.05058969 -0.5839841
000300 78 e0 be 3d e5 2d 0d bf 67 a4 5b 3f d0 4d b0 3e
       0.09320158 -0.55148154 0.85797733 0.34434366
000310 cd 25 0c bf fd 25 9e 3e ad 6c 4b 3f eb fa 1f 3f
       -0.5474518 0.30888358 0.794627 0.62492245
000320 9d 83 13 bf cb b7 2f 3e c5 11 fb bd af af 31 3f
       -0.576227 0.17159955 -0.12259249 0.69408697
000330 ae 90 e3 3c df 00 f5 be d1 d1 e4 bd 47 e8 f3 3e
       0.02777895 -0.47852227 -0.11172832 0.4763815
000340 ae 48 18 be 0e 55 91 bf 8c 3e 52 be fe 66 ab 3e
       -0.14871475 -1.1354082 -0.20531672 0.33477014
000350 e2 12 d6 3e 1f 7c a5 3e e0 e7 f1 be ab 6c 77 bf
       0.4181128 0.3232126 -0.4724722 -0.9665019
000360 49 f9 87 3e 16 c0 16 3f 4a c4 8b be 6c ee 5c 3e
       0.26557377 0.5888685 -0.27298194 0.21575326
000370 1d fe ac be 0a e5 06 3e d6 5c 08 bf 27 a8 ad be
       -0.33787623 0.13173309 -0.53266656 -0.33917353
000380 cd ad f4 bc 59 49 3a bf 8c 8a 31 3f a5 f9 95 3e
       -0.02986803 -0.7276817 0.6935203 0.29292026
000390 9e aa 21 bf 40 dc ad 3e 1f b2 00 3f 46 de 41 3f
       -0.63150966 0.339571 0.5027179 0.7572979
0003a0 b4 05 0c bf b5 58 26 3e 12 60 06 3d bb 8c b5 3e
       -0.546962 0.16244777 0.032806464 0.3545893
0003b0 6c b5 91 3d d1 3b 8c bf 24 36 63 be 1c d7 62 3e
       0.071146816 -1.0955755 -0.22188622 0.2215237
0003c0 6f 7d d3 be c9 33 5c bf b9 26 9a be 10 4d ce 3e
       -0.41306636 -0.8601652 -0.30107668 0.4029317
0003d0 e0 5f a7 3e 41 bf 8e 3e 82 65 9f be 33 46 7f bf
       0.32690334 0.2788029 -0.31132132 -0.9971649
0003e0 f2 bd 82 3e 28 e5 e5 3e fb 3c 8c be e9 24 a4 3e
       0.25535542 0.44901395 -0.27390274 0.3205941
0003f0 94 fd c2 be b2 11 c2 3d 8d 2c f5 be ce d6 73 be
       -0.3808409 0.09476031 -0.47885552 -0.2381241

Decoder.attn_layer.0.bias f4 [32]
000000 50 cd 25 be cd 55 1e bf e9 a9 ee be f2 07 a8 be
       -0.16191602 -0.6184967 -0.46614006 -0.32818562
000010 33 09 84 be 3c 3d 1a 3f d6 d5 86 3e f5 8e 26 3f
       -0.25788268 0.60249686 0.2633502 0.65061885
000020 b7 4b 82 bf 55 33 c5 3e 50 2d 9a bf 22 11 82 3f
       -1.0179356 0.38515726 -1.2045078 1.0161479
000030 a2 db b4 be 46 35 b9 be b6 0a 1a 3f 5a 4c cb 3d
       -0.35323817 -0.36173457 0.60172594 0.09926672
000040 c1 07 92 bf 3e 1a 8a be 9b a2 56 3d 74 83 2f 3d
       -1.1408616 -0.26973146 0.052401166 0.042849973
000050 0a 79 3b be 33 89 4e bd 6c 2d 27 3f c1 6e b2 be
       -0.18307891 -0.050423812 0.65303683 -0.34850124
000060 b9 0b 53 3f 41 b7 d4 be 9c bf 88 bf 6e 31 01 3f
       0.8243976 -0.41546062 -1.0683475 0.5046605
000070 ea 40 12 3f d8 20 16 bf 5c 1c 5b 3f 2b a7 9c be
       0.571303 -0.58643866 0.8559015 -0.3059629

Decoder.attn_layer.2.weight f4 [1, 32]
000000 af f8 94 3d 9a 59 1b be 3a 83 2c 3e c4 e9 3b bf
       0.07273995 -0.15170899 0.16846934 -0.73403573
000010 d8 3e a9 bc 03 05 2b be 9c 0b eb bd 63 17 60 3c
       -0.020659849 -0.1670113 -0.11476824 0.013677451
000020 28 31 c1 3e 8f 23 0e be b6 34 87 3e 00 ae 38 be
       0.37732816 -0.13880752 0.26407403 -0.18035126
000030 c2 4d 3b be f9 f5 28 3d 4a b1 67 3e 83 26 8e be
       -0.18291381 0.041250203 0.22626224 -0.27763757
000040 a7 82 87 3f 8f 0e 1a be de 91 21 be 0d 9f 49 bd
       1.0586747 -0.15044616 -0.157783 -0.04922395
000050 63 02 b7 3d e1 04 56 3e 91 b4 4d 3f 8a f7 1d 3d
       0.08936002 0.20900299 0.8035365 0.03856615
000060 b7 0c a2 3c 6c 8e 2b bf 6a da 75 3e 72 0b 50 bc
       0.019781454 -0.67014194 0.240091 -0.012698041
000070 3e 9e 7d bd 09 b3 32 bf 6c bd 33 3d 6b 76 b6 bc
       -0.06191849 -0.69804436 0.04388182 -0.022273263

Decoder.lstm_layer.weight_ih_l0 f4 [128, 1]
000000 e9 0c d4 3d 25 6d 20 3f 8c 5a 24 3d 34 e9 de 3a
       0.10354025 0.6266654 0.040125415 0.0017006756
000010 c8 13 de 3e f2 ad 96 bf 70 84 4e bf f1 25 a6 be
       0.43374467 -1.1771834 -0.80670834 -0.32450822
000020 26 2e 2b 3f cd ff be 3d 94 60 71 3e a8 c5 02 3b
       0.6686729 0.09326134 0.23571998 0.0019954238
000030 53 0c 0c 3d bb 70 22 3f 7b f7 04 be 17 45 88 3f
       0.03419144 0.63453263 -0.12985031 1.0646085
000040 aa 59 6a 3d 8c 00 e9 be c1 f1 21 bf da 89 9e 3c
       0.057214417 -0.4550823 -0.6325951 0.019352842
000050 a2 c5 80 bd 07 53 7f 3e 92 a6 4d bb 8b ae db 3e
       -0.062876955 0.24934016 -0.0031379801 0.42906603
000060 88 f4 17 bd cf d7 1e 3f 59 1a 91 bd b4 88 de 3e
       -0.037098438 0.6204805 -0.070851035 0.4346367
000070 a2 20 07 3d 3b c3 36 3e f0 a5 f6 3e 4e 88 a0 bf
       0.032990105 0.17847912 0.48173475 -1.2541597
000080 e4 bc 55 3e 9d 28 be 3d 14 6d 06 be d2 50 c0 bd
       0.20872837 0.0928509 -0.13127548 -0.09390415
000090 06 d6 0f bf e3 a5 90 3d ab 9c 0a 3e ec e4 bb 3d
       -0.5618595 0.070628904 0.13536327 0.09174523
0000a0 b6 88 2c 3e a1 a1 94 3d ea dc a4 3e 9f ac d1 bc
       0.16849026 0.07257391 0.32199794 -0.025595007
0000b0 3a 70 06 3d 56 2e 91 3e 01 0d 7f 3e 73 a5 b8 be
       0.03282187 0.28355664 0.24907304 -0.36063728
0000c0 50 14 48 3c 82 17 21 3e 9b 97 c6 be b2 d6 45 3c
       0.012211874 0.15731624 -0.3878754 0.012075113
0000d0 88 03 49 3e 31 4b 4c 3f 38 9c 15 be 33 1f dd 3d
       0.19630253 0.79802233 -0.14610374 0.107969664
0000e0 7f 2a 13 bd 18 f5 a0 be a8 a8 96 bd 15 b1 d4 3e
       -0.0359292 -0.31436992 -0.073563874 0.41541353
0000f0 f2 fe bf 3c f1 99 b4 3c ee f6 15 be 3a 53 33 3d
       0.023436997 0.022046061 -0.14644977 0.043780543
000100 32 d5 d7 bc b4 f9 b6 3e 33 65 7d be 21 b3 8c bc
       -0.026346777 0.35737383 -0.24745636 -0.017175259
000110 13 15 b4 3f 47 56 1f bf d3 ae 4d bf 00 9d 00 bf
       1.4068931 -0.62241024 -0.80344886 -0.50239563
000120 6a 05 bc be 07 05 8a bb 32 92 07 3f 10 41 19 3d
       -0.3672288 -0.004212025 0.5295745 0.037415564
000130 28 d9 7e bb bf c0 a5 3b 0b e3 1b be ad 09 30 3f
       -0.003888676 0.0050583775 -0.15223329 0.68764764
000140 52 3f 19 3d a2 eb bc 3e fc c2 e7 3e de 7c c5 be
       0.037413903 0.36898524 0.4526595 -0.3857183
000150 ce b7 39 be 5a ab 06 3f 4b 39 0a bc 47 04 01 3f
       -0.18136522 0.5260521 -0.008436511 0.5039715
000160 05 b2 45 be 4a 2c 18 bf b2 e1 81 bc 67 13 b5 3e
       -0.1930619 -0.5944258 -0.01585469 0.35366365
000170 69 30 55 3e ec 72 c3 bf 62 99 24 be 9b 69 94 3f
       0.20819248 -1.5269446 -0.16074136 1.1594728
000180 18 a0 bc 3d 25 6d 03 be 5c 5e c3 3d 8d 81 3a be
       0.09210223 -0.12834604 0.09539482 -0.18213482
000190 ec bf 6c be 86 cc 66 bf ba ce 24 bf 3f c5 0b be
       -0.23120087 -0.9015583 -0.6437794 -0.13649462
0001a0 40 b0 6d 3e 7d 56 5e bd 48 81 3c 3e 01 94 50 3d
       0.23211765 -0.0542817 0.18408692 0.050922398
0001b0 ca 76 12 be 85 3d f6 3e ac d9 eb bd bb 40 29 3f
       -0.14303127 0.4809381 -0.11516127 0.66114396
0001c0 ee 6b 35 be 02 c9 5c bf 14 43 56 bf 15 ed 4c 3d
       -0.17716953 -0.86244214 -0.83696103 0.050030787
0001d0 18 bd 8d be 7c 97 60 3e 75 c8 12 bc 18 50 41 bc
       -0.2768333 0.21932787 -0.0089589255 -0.011798881
0001e0 a7 df b3 3c 3f 7a 57 3e 04 09 f9 3c 75 d2 97 3e
       0.021957232 0.21042727 0.030399807 0.29652753
0001f0 b1 b9 c6 3a 26 84 15 3d c4 2b ae 3d 0a 79 4f bd
       0.0015161542 0.03650298 0.085044414 -0.05065254

Decoder.lstm_layer.weight_hh_l0 f4 [128, 32]
000000 b8 b4 91 bf c9 66 d2 bf 68 fb ba 3b a1 96 c7 3d
       -1.1383276 -1.6437618 0.0057062395 0.09745527
000010 38 1e f1 3e 7d c5 37 40 55 26 9d be e8 84 4e bf
       0.47093368 2.8714287 -0.30693308 -0.8067155
000020 ee f0 1c 3f cc 17 4a bf 46 01 91 bf fa d6 2f 3f
       0.6130513 -0.7894256 -1.1328514 0.68687403
000030 9d 05 04 be 93 ed e1 3d df 70 7e 3f f4 31 e1 3f
       -0.12892766 0.11031642 0.9939098 1.759337
000040 78 54 f1 3e 12 3c 2c 3d 86 9d 87 3e 5e 83 1a 3f
       0.47134757 0.042049475 0.26487368 0.603567
000050 70 f0 9f bb c7 c2 54 bf 86 2e 07 bf f8 89 4a be
       -0.0048809573 -0.83109707 -0.52805364 -0.19779193
000060 2d 2b 0f bf fe 89 e4 bd 87 ba d9 be 48 e9 0a bf
       -0.55925256 -0.111591324 -0.42525122 -0.5426221
000070 3d 1a dd 3d 16 d1 0c 3f b2 ef 94 3f 6a d8 03 c0
       0.1079602 0.5500654 1.1635649 -2.0600839
000080 86 b9 05 3f 29 c7 f0 bf 5b 76 4b 3f 31 29 20 bf
       0.5223621 -1.8810779 0.7947747 -0.62562853
000090 84 42 d1 3d b3 c7 48 3f d2 f1 4e 3f a0 af 22 3f
       0.10217765 0.78429717 0.8083774 0.6354923
0000a0 d3 b7 a5 3e 1d 1e 6b 3e 6c b6 97 be 81 03 b0 be
       0.3236681 0.22960706 -0.29631364 -0.34377673
0000b0 4f 07 4d be 9e 43 55 be 98 c7 e0 3e 92 07 48 bf
       -0.2002232 -0.20826575 0.43902278 -0.7813655
0000c0 1e 83 2c 3f 61 cf a6 bf e4 2e e2 3e 4d 95 34 3f
       0.6738757 -1.3032037 0.441764 0.70540315
0000d0 39 d0 0c 3e 90 85 f7 be 05 73 df be 0f ef 26 bf
       0.13751306 -0.48344088 -0.4364244 -0.65208524
0000e0 27 e1 67 bf 60 f1 07 bf ce d6 d2 3c 48 19 70 3e
       -0.9057793 -0.53102684 0.025737192 0.23447144
0000f0 3a 53 a8 3c 7a 0b 47 3f 2f 09 cc 3f fe 54 a7 bf
       0.020547498 0.77751887 1.5940303 -1.3072813
000100 5c 1a 51 3e 98 2c cd 3e c6 5b df 3d 6b be 3b bd
       0.20420212 0.40073085 0.10906176 -0.045835894
000110 f2 ff a3 be d9 fc 5f bf 3c 13 d3 3e 61 ad a6 3e
       -0.32031208 -0.8749519 0.41225612 0.32554153
000120 6d 1d 47 bf 5b 50 be be da f4 ea bd 43 2f 08 3e
       -0.77779275 -0.3717068 -0.11472483 0.13299279
000130 20 20 0c be f9 ab bd be 40 7a 7e 3d b2 72 38 3f
       -0.1368413 -0.37045267 0.062128305 0.7205001
000140 69 19 9a be 87 3d c1 3f 2e a6 4a be 47 3d c4 be
       -0.3009751 1.5096902 -0.19789955 -0.38328
000150 01 76 24 3d f9 fa 26 be f8 7c 71 be ea 05 8c 3c
       0.0401516 -0.16306676 -0.23582828 0.017092664
000160 42 35 49 3e e2 2a 46 be 78 99 89 3e b1 28 00 be
       0.19649222 -0.19352296 0.268749 -0.12515523
000170 b3 a5 85 3e 11 b0 86 3d bd cd d3 be 6f 82 d1 be
       0.2610298 0.06576551 -0.41367903 -0.40919825
000180 a2 84 02 be b5 09 9c be ef d0 93 bd 94 84 1a 3d
       -0.12745908 -0.30476156 -0.07217585 0.037724093
000190 64 1f 7d 3e b8 8f 81 bf f1 6a 57 3f d7 d6 1b bf
       0.24719006 -1.0121984 0.84147555 -0.60874695
0001a0 a0 ad b8 bd 4e be 73 3e bd 9e 5a be ff 11 12 bf
       -0.09017491 0.23803064 -0.21349616 -0.5705871
0001b0 87 fd 84 bd 2d 5a f6 bd 71 76 a3 bd ac 75 c5 3c
       -0.06493669 -0.120289184 -0.07981575 0.024103962
0001c0 76 d2 65 b9 5d 0f 03 bf 07 89 4c 3f a7 50 05 3f
       -0.00021917545 -0.5119532 0.7989659 0.5207619
0001d0 c0 14 03 3f 1f d8 a8 3d d8 8d c1 be d3 13 44 3e
       0.51203537 0.08244347 -0.3780353 0.19148187
0001e0 f8 74 28 3f fd 5e de 3f 05 32 c1 3e 57 54 02 3f
       0.6580348 1.7372738 0.37733474 0.5090994
0001f0 fe d6 f0 be f3 e8 37 3e 49 6d 07 bf 47 c6 01 3f
       -0.47039026 0.17959957 -0.5290113 0.5069317
000200 47 bd 83 bc 0a 95 00 3f d5 c0 e7 3e eb e7 12 3f
       -0.016081465 0.50227416 0.45264307 0.5738513
000210 b5 63 4e 3f 3a 9b dc be 40 7e 47 bf ab 02 ac bf
       0.8062089 -0.43087178 -0.7792702 -1.3438314
000220 bc d9 21 3e 3e 43 b1 3e 4f 27 99 be 2e e9 1c be
       0.15805715 0.34621614 -0.29912803 -0.15323326
000230 d2 56 b7 be 27 9b f4 3e 68 a9 f3 bf f5 48 9c bf
       -0.35808426 0.47774622 -1.9036074 -1.2209765
000240 96 a7 e1 bd 7a c8 1a bd 56 b3 f7 be 00 aa 29 bf
       -0.110182926 -0.037788846 -0.4837901 -0.66275024
000250 57 1f ac bf b8 f1 40 bc 90 1d 1e be ff 98 70 bd
       -1.3447064 -0.01177638 -0.15440965 -0.05873966
000260 53 e8 24 3e 6a 18 db 3e 51 5e 6d 3f d9 03 b7 be
       0.1610425 0.42792064 0.9272204 -0.35745123
000270 23 5b 26 3d 66 82 42 3f a6 6e 45 bf 74 dd 97 3f
       0.04061426 0.7598022 -0.7712196 1.1864457
000280 45 82 9b bd 8a 38 13 be f0 bc 8c bf eb ce 03 be
       -0.07593206 -0.14377037 -1.0995159 -0.12871902
000290 a1 37 e7 3e 9d 53 e0 bf 24 9f f8 bf b2 a3 6e bf
       0.4515963 -1.7525517 -1.9423566 -0.9321853
0002a0 bd 57 b9 be 55 64 2e be 6d 1a 16 3f 86 c4 89 3e
       -0.36199751 -0.17030461 0.5863407 0.26907748
0002b0 e7 c1 40 3e 0e 3d 87 3f 77 f4 0d bf 34 29 2d 3f
       0.18823968 1.0565507 -0.5545115 0.67640996
0002c0 e3 f5 48 3b c6 e9 c1 3f 16 3d eb 3f ea db 95 3e
       0.0030664138 1.5149467 1.8378017 0.29269344
0002d0 f2 4d 06 bd 14 25 2f 3f 14 ba f0 be 0d b8 87 3f
       -0.03278918 0.6841595 -0.47016966 1.0603043
0002e0 cc e8 52 be f9 03 04 bf e8 ee b3 3d 07 df 07 3e
       -0.20596617 -0.5156856 0.08785802 0.13268672
0002f0 4e 73 dc 3d 7d cd 20 bf 17 0a 8c 3e 2f 13 1d 3f
       0.1076418 -0.6281355 0.27351448 0.61357397
000300 b7 5f 77 be 08 04 05 bf dc eb 39 be a1 a1 2a 3e
       -0.24157606 -0.51959276 -0.1815638 0.16663219
000310 b4 1c 68 3e ec 30 a5 3d 88 ca 57 bf 57 27 0c bf
       0.226672 0.08065972 -0.84293413 -0.5474753
000320 82 58 50 3f 86 05 65 3b 2d 92 0c 3f fd cc 4f 3d
       0.8138505 0.003494592 0.54910547 0.0507326
000330 67 a0 53 3e 39 c8 db 3e 5d b7 60 3e 4d 16 ab be
       0.20666657 0.42926195 0.21944948 -0.33415452
000340 b2 f7 09 bd 2c 82 69 3f 22 23 56 3f ef 0f 37 3e
       -0.033683486 0.9121425 0.8364736 0.17877172
000350 c4 0b cf be 91 c3 4b 3e 96 f3 07 be d7 b4 99 3f
       -0.40438664 0.19898821 -0.13276514 1.2008313
000360 31 13 3f be 6f b3 54 bf 08 02 36 be d7 a3 e1 be
       -0.18659665 -0.83086294 -0.17774212 -0.44070312
000370 64 f0 f8 3d ea 9b 37 3f 87 14 2e 3f 1d 2c ec 3d
       0.12155226 0.7172228 0.6800007 0.115318514
000380 83 3a 0e bf 71 6f 54 3c e1 66 69 be 17 f2 49 be
       -0.5555803 0.012966023 -0.22793151 -0.19721256
000390 dd 63 3c 3f 52 64 1a be dd a5 26 bf 0c 64 a2 be
       0.7358988 -0.15077332 -0.6509684 -0.31716955
0003a0 72 fe 0d bf 37 c9 03 bc 12 ac 8c 3f a7 59 38 bd
       -0.5546638 -0.008043579 1.0990012 -0.045007374
0003b0 e2 d0 08 bd f7 9f c4 3e 6a e4 cf 3e 60 6b cc bd
       -0.03340233 0.38403293 0.40603954 -0.09981418
0003c0 d4 59 91 3e 3a 00 b1 3e fa 2c 12 3e c4 66 86 3e
       0.28388846 0.34570485 0.1427497 0.2625028
0003d0 b0 34 72 3e 6e d1 d9 3c 5a e7 a7 bd 8b fb 00 3f
       0.23652911 0.026589122 -0.08198424 0.50383824
0003e0 79 79 39 bf 83 e9 4f 3e 6c bd eb be 86 21 ef 3e
       -0.7245098 0.20303921 -0.46042955 0.46705264
0003f0 a9 41 80 bd 74 18 9d be 56 52 ec 3e 35 a0 d0 bd
       -0.06262524 -0.3068272 0.46156567 -0.10186807
