result/ver6/best.pt (torch, 233510 bytes, 57 tensors)

Encoder.encoder_lstm.weight_ih_l0 f4 [128, 6]
00000000: 8fdc f73e 8fa2 0d3f ac6a fb3f 7cd8 f0be
00000010: c16a 8bbf 1187 6c3f 3d2b d7bf 84b7 05c0
00000020: 3565 993f 6e6c e2bf 1b63 ddbe 21ed 12be
00000030: fbcf 2dbf 101a 613f 2c12 56bf 37f7 3f3f
00000040: dc8b d8bf 576b 5f3f c4e4 02bf 92f5 41bf
00000050: 9b64 36c0 849f 92bf d19a 4cbf 8b2c 09c0
00000060: e74c 2a40 924e ed3f e1a6 9b40 1dd1 933f
00000070: 827b 7b3f beec 0440 2c2b da3f 4aa0 dcbd
00000080: 5f10 0d40 c665 bfbf 3a8e b2bf 2c6c 0c3f
00000090: e426 05c0 dc98 d8bf 7829 50c0 a05c 3cbf
000000a0: 7b1c 7dbb 4491 0ac0 d028 623f a662 fdbf
000000b0: 0712 1c3f 0e18 bcbf 948c fcbe 574d 0ac0
000000c0: d60f cfbe a0b8 f4bf 866d 883f a2af f43e
000000d0: f583 bd3f 89b6 283f f455 423e 8598 983f
000000e0: 5dec b23f 9e75 843d ce11 1c3a 32e5 1a40
000000f0: ff07 c8be a4c3 e9bf 94fa 36bf ea11 97be
00000100: 33c2 0f3f 582e 09c0 7346 413f 800b f83f
00000110: 89ed bf3f ec42 23bf 906f acbf a8d8 e93f
00000120: 7b9f ce3f 14ac 9bbf 8650 203f 4a22 453e
00000130: cde4 d93e 806a 5ebf 128d 8c3e 5e4e b3bf
00000140: 31d5 743f a973 29bf ff75 68bf 5675 26bf
00000150: b70b 913e 41cc b23b 4921 873f d90c 4840
00000160: 25f6 0240 b304 7b3f 1b15 0b40 53a4 1ac0
00000170: cc65 06bf 8a7a 86bf 6cf5 d3bf 82e1 21c0
00000180: ae6d 2b3f 9ec5 2cbe 0a2d a8bf 1263 563f
00000190: c973 de3f a205 a6bf 6e76 253f 4887 7abf
000001a0: 75e8 5640 c593 fa3e ce31 ac3f c43d 0ebd
000001b0: 705c 46bf 8832 763d 4eae cc3f 7c7c 5dbf
000001c0: b183 19c0 6f07 e03f 4fce ba3e 9e06 f4be
000001d0: d0ed 1340 6d88 da3f 1dd9 e63f fecf 633f
000001e0: d163 003f 3360 3140 62c1 ac3f 2a45 3cbf
000001f0: 99ab c4be 1b4d 863f 0427 233b 4447 8ebf
00000200: 36cc 123f f9ec a03e dbf3 823f 1692 b5bf
00000210: cca5 ea3d 1267 19bf d959 86bf 0354 34bf
00000220: 1f83 afbf ca1e f6bc 1904 f2bf ce5e a43d
00000230: 3f6e e13e 8cd9 1c40 ed06 0b40 1a46 2b3f
00000240: d990 363f 3c7f 7fbf 807f 173e 3ea6 9c3e
00000250: f104 2a3f 2401 bdbd 0bb7 5abf a898 62bf
00000260: 66df ab3f 1c9e 1c3f fe95 6f3f 46d4 4f3d
00000270: 79dd 0540 7de0 a1bf ade2 ba3f 6352 4e3f
00000280: 054c e33e e953 85be 40de d9be f6af 2c3e
00000290: bc17 313f a9ee bfbe b417 abbf 4a5b f93f
000002a0: dc14 68bf 5247 c93d f3df f53f 4640 5bbf
000002b0: d2f6 c6be 78eb 863f 454c 543f bccd 3bbf
000002c0: 75d2 803f 01ee 9ebf 20f6 3cbf 5c18 fcbe
000002d0: 2699 a4bf 2682 fd3f 29b9 133f 2159 013f
000002e0: 1c3c b2bf 5c7b 3940 f5cb 90bf 3a09 abbf
000002f0: 6a00 eabf b145 cfbf 8f59 a4bf 890f febe
00000300: 721b 123f 1866 1b40 1dac f23f f84b 1fc0
00000310: c1fe 8bbf 6a43 2040 de21 ce3f 5187 a5be
00000320: 9175 233e 66b1 b340 10b6 ec40 883f 98bf
00000330: 5f6b a8bf e795 06c0 3958 a5bf 5e29 5fc0
00000340: 7079 38c0 9c0e 0fc0 dbe8 0dbf 7580 ecbe
00000350: f2a2 bdbf a201 fe3f 8404 8e3f df11 eabf
00000360: 5492 b1be 1bc6 dcbe 5fc0 bbbe a0ab a9bf
00000370: 9ce7 b5bf 9fbc d9bf faeb f33d 92d7 b23e
00000380: ea08 143f 4f0e aabf c8c4 9ebf bf23 2ebe
00000390: 0d71 ce3f 24e6 3bbe 4677 d63f 3f0b 84bd
000003a0: a467 453f 6cae 533e 452a 02c0 0355 28bf
000003b0: 1486 43be 4596 a4bf ff41 8cbf c837 593e
000003c0: a497 bcbf 9f28 483f 602d 353f dd86 d13f
000003d0: 08a7 e43f 6549 3640 222f db3d e942 153f
000003e0: b960 1ebf 6262 343f f3a5 fd3f d435 24bf
000003f0: e387 f6bf d172 f7bf e174 f7bf 64ad 1abf
0.4841046 0.5532617 1.9641929 -0.47040164 -1.0891954 0.92393595 -1.681007 -2.089326
1.1984011 -1.768934 -0.43239674 -0.1434827 -0.6789548 0.87930393 -0.8362148 0.74986595
-1.6917682 0.8727316 -0.5113032 -0.75765336 -2.8498905 -1.145493 -0.7992373 -2.1433437
2.6609437 1.8539603 4.864121 1.1548191 0.9823533 2.0769496 1.7044425 -0.1077276
2.2041242 -1.4952934 -1.3949654 0.5485256 -2.0804987 -1.6921649 -3.252531 -0.73578835
-0.0038621712 -2.1651163 0.88343525 -1.979573 0.6096501 -1.4694841 -0.49326003 -2.1609704
-0.4044177 -1.9118843 1.0658424 0.47790247 1.4805895 0.65903527 0.18978101 1.1921545
1.3978382 0.06467746 0.0005953581 2.420239 -0.390686 -1.826283 -0.714761 -0.29505855
0.561557 -2.1434536 0.7549812 1.937851 1.4994365 -0.6377399 -1.3471546 1.8269243
1.614242 -1.2161889 0.6262287 0.19251361 0.42557374 -0.86881256 0.27451378 -1.4008291
0.95637804 -0.6619211 -0.9080505 -0.6502279 0.2832925 0.005456478 1.0557033 3.1257842
2.0462735 0.98054045 2.1731632 -2.4162796 -0.5249908 -1.0506146 -1.6559272 -2.529389
0.6696423 -0.1687226 -1.3138745 0.8374492 1.7379085 -1.2970469 0.64633834 -0.9786267
3.357938 0.48940864 1.3452699 -0.034726873 -0.774848 0.060106784 1.5990694 -0.86518073
-2.3986628 1.7502269 0.36485526 -0.476613 2.31139 1.7072884 1.8035008 0.88989246
0.5015231 2.7714965 1.3496516 -0.73543036 -0.3841217 1.0492281 0.0024895081 -1.1115499
0.5734285 0.31430796 1.0230669 -1.4185207 0.114574045 -0.599229 -1.0496169 -0.7044069
-1.371189 -0.030043978 -1.89075 0.08025895 0.44029424 2.450778 2.1722977 0.6690384
0.7131477 -0.9980352 0.14794731 0.30595583 0.6641379 -0.09228733 -0.8543555 -0.88514185
1.3427551 0.61178756 0.93588245 0.05073955 2.0916426 -1.2646633 1.4600426 0.8059446
0.44393936 -0.2604058 -0.42552376 0.16863999 0.6917684 -0.3748677 -1.3366609 1.9480984
-0.9065683 0.098280564 1.9208969 -0.8564495 -0.38860184 1.0540609 0.8292888 -0.733608
1.0064226 -1.2416383 -0.73813057 -0.49237335 -1.2859237 1.9805343 0.57704407 0.50526625
-1.3924594 2.8981543 -1.1312243 -1.3362191 -1.8281376 -1.6193143 -1.2839831 -0.49621227
0.5707313 2.4281063 1.8958775 -2.4890118 -1.093712 2.5041146 1.6104085 -0.323298
0.15962817 5.615405 7.3972244 -1.1894388 -1.3157767 -2.1028993 -1.2917548 -3.4868999
-2.882412 -2.2352667 -0.55433434 -0.46191755 -1.4815352 1.9844248 1.1095128 -1.8286704
-0.34681952 -0.43119892 -0.36670205 -1.3255501 -1.4211307 -1.7010688 0.11910243 0.34930092
0.578261 -1.3285617 -1.2403803 -0.17005824 1.612825 -0.1834951 1.6755149 -0.064474575
0.7711127 0.20672005 -2.03383 -0.6575472 -0.19094115 -1.2858359 -1.095764 0.21212685
-1.4733777 0.7818698 0.7077236 1.6369282 1.7863474 2.8482296 0.10702349 0.5830522
-0.6186634 0.7046262 1.9816269 -0.64144635 -1.9260219 -1.9331914 -1.9332544 -0.60420823

Encoder.encoder_lstm.weight_hh_l0 f4 [128, 32]
00000000: 1142 f5bf df80 ad3f dca7 ff3c 5353 dabf
00000010: b88c d9bf dcc3 333f 104d b63f cf27 b0bf
00000020: 6fb6 88be 7568 1a3f f604 d83f e0a3 203e
00000030: 44aa e63f ad67 dbbe d9a5 a2bf ae6d cabe
00000040: 5fd0 f5be 39a6 85bf 71a7 60bd 9115 6fbf
00000050: ce3c 23bc 2c00 1740 659a 09c0 1ddf b93f
00000060: 73c3 b73f 5e16 19bf eff0 2ec0 977e 2bbf
00000070: 6b9b 443d 74b3 b53e 9e09 2fbe 871f 15bf
00000080: 4dbe a1bf 5e77 c23f b323 54bf c6c5 e13e
00000090: 0226 093e 30b2 8dbf aa77 d2bf 216c 03c0
000000a0: 806b a23f 1e94 173f 18d9 ad3f e77f 1640
000000b0: 03c5 abbf 3b3a eabf 6509 8f3f 9a82 e53f
000000c0: 7631 4fbf f8c7 423f cda6 02c0 9d7b 473f
000000d0: b16d 49be 31e0 123e b42d 303f b992 b83f
000000e0: 24c1 0ac0 ff48 963f d992 893f e01c 523f
000000f0: 13ad 1b3e e73a 903f 9aa5 5ec0 cb07 e33e
00000100: a580 173e 8d87 61bf dfd2 803e d9b2 56bf
00000110: 29ae c0be a818 e2be 925c 5ebf 2cf5 23bf
00000120: 4d99 0440 75b0 6ebf bb4b 383e 6d08 1a3e
00000130: a7a5 9d3e f3b9 673f 0f00 2d3f 90f7 a13f
00000140: 1da1 c8be 5a6d 8a3e adb1 2a3f 8273 803f
00000150: 2bea fc3e 03e7 65bf f3da e4bd 32b3 9bbf
00000160: c0ca 9c3f 81a6 b43f 981c f33e b5dd 25bf
00000170: f06b 05be 5a74 babf c66a 3f3f 8edb 8c3f
00000180: a197 f63d b326 44bf 2a68 f9be 73c7 e53f
00000190: a51b 583e cd41 c5bd 137e 6f3f 76fb abbe
000001a0: 7f9e 9e3d 439c a63f ecfd 143f abe2 17bf
000001b0: b810 8b3e 65ff fc3f 88d5 6ebf 9229 e53f
000001c0: 760c a1be 46a4 babe a3ea 5ac0 aa21 0740
000001d0: a508 993f b3e4 e9be 6f38 983f 5516 bc3f
000001e0: 1ae6 20bf 32ec 863e 5987 2a3f 4ed6 aebd
000001f0: 6198 47c0 3366 363f a499 7ebe 78d5 93bf
00000200: 800b 88bf 0b49 44bf 5110 bcbe 705c babf
00000210: 1288 123f f51b d2be 700a cd3f fc21 493f
00000220: b803 2440 f7dc b13f 6ba1 383f 39ec 03bf
00000230: eac4 333e 3985 873f 5980 863e fa06 363f
00000240: b296 a2be 09b6 a6bf dcad 04bf 507c a33f
00000250: 6349 5fbf 8fc8 d93e eac3 29be 3e26 2ebf
00000260: 5fe4 9e3d e620 e3bf f354 c73f 428b 923f
00000270: 038d bebf 7867 c4be 3a7e e7bd 3b7d b53e
00000280: efae babf dd3f 17c0 6147 323f 994a f03b
00000290: 1fbc 32bf e075 06bf 6a65 ff3e ff02 00c0
000002a0: 1492 6f3e c3d3 923e 8f0e 0c40 2c6d a23f
000002b0: c35d ac3e b1ed 633f 5b1d 37c0 6454 1ebe
000002c0: c440 813f 3916 91be e592 d8bf cad6 043f
000002d0: 618a 4440 5ab1 ab3f 6198 7abe 6bd8 933f
000002e0: 9366 5dbd 6905 cbbf 25d4 1140 ec59 f1bf
000002f0: daee 113d 825b 54bf c91c 8f3f cb0e 75bf
00000300: 8f7d 2b3f 4eb9 3b40 8e5c c63f 8723 fe3f
00000310: 70ff af3f 12c1 173f 9ce6 4cbf e069 85bf
00000320: 810d cdbf 37bb e83e f693 5ebe 4a6b a13e
00000330: ce46 903f 1c2f dd3f a6f9 b2bf f9f8 cb3f
00000340: cd8e af3e 0840 1c3f 88c6 85be 48fb a7be
00000350: ee16 c2bf 97fa a53e a8d7 c13e 58f3 973c
00000360: 25f5 8f3f 6460 763f 75e5 edb9 9183 2e3e
00000370: 259d 08bf ae66 1140 bd4c d93f 1cc7 25c0
00000380: bb13 343f 8ab4 8dbe 713a d63f bf38 67bf
00000390: 1302 df3e b547 b4bf ad67 ae3f 80c0 0abf
000003a0: 81db c03f 465e b03f 7c66 5f3e f479 263f
000003b0: 604d d13e b9c5 9a3f f2bd b23f 15be 5b3d
000003c0: a281 083f 6b27 fbbf 18d4 c5bf 0d2c 953f
000003d0: 4e2f 24bd a36c d3bf 4e1d 43bf d4b3 b13f
000003e0: d502 6abe 34f3 b2be 4239 1640 7ab8 bfbe
000003f0: 221f 93bf e124 f9bf 684c 54be db70 1dbf
-1.9160787 1.3554953 0.031207971 -1.7056679 -1.6996069 0.7022073 1.4242268 -1.3762149
-0.26701686 0.6031564 1.6876514 0.15687513 1.8020711 -0.42852536 -1.2706863 -0.39536804
-0.48010537 -1.0441352 -0.054847185 -0.9339228 -0.009963227 2.3593855 -2.1500485 1.4521214
1.4356521 -0.59799755 -2.7334554 -0.66990036 0.04799978 0.35488474 -0.17093512 -0.5825123
-1.26362 1.5192678 -0.8286697 0.44096202 0.13393405 -1.1070004 -1.6442769 -2.0534747
1.2689056 0.59210384 1.3581877 2.3515565 -1.3419498 -1.829902 1.1174742 1.7930481
-0.80934846 0.7608638 -2.0414307 0.77922994 -0.1967075 0.14343335 0.6881974 1.4419776
-2.1680384 1.1741027 1.0747939 0.8207531 0.15202741 1.1267976 -3.4788575 0.44341883
0.14795168 -0.8809746 0.25160882 -0.8386665 -0.37632874 -0.44159436 -0.8686 -0.6404598
2.0718567 -0.93238 0.17997639 0.15042277 0.30790445 0.9051811 0.67578214 1.2653675
-0.3918542 0.27036554 0.6667736 1.003525 0.49397406 -0.8980562 -0.11174574 -1.2164061
1.2249374 1.4113313 0.47482753 -0.64791423 -0.13029456 -1.4566758 0.747723 1.1004503
0.1204064 -0.7662155 -0.48712283 1.7951492 0.21104296 -0.09631691 0.9355175 -0.33590287
0.077450745 1.3016437 0.58199954 -0.5933024 0.27161193 1.976544 -0.9329457 1.7903311
-0.3145482 -0.36453456 -3.420571 2.1114297 1.1955763 -0.45682296 1.1892222 1.4694315
-0.6285111 0.26352078 0.66612774 -0.08536969 -3.1186755 0.71249694 -0.24863297 -1.154952
-1.062851 -0.76673955 -0.36731198 -1.455946 0.57238877 -0.41036955 1.601881 0.7856748
2.562727 1.3895558 0.72121304 -0.5153232 0.17555586 1.0587531 0.26269796 0.71104395
-0.31755596 -1.3024303 -0.5182779 1.2772312 -0.87221354 0.42535827 -0.16578642 -0.680271
0.07758402 -1.7744415 1.55728 1.1448748 -1.4886783 -0.3836019 -0.11303373 0.35447106
-1.4584635 -2.363273 0.69640166 0.0073331115 -0.698183 -0.5252361 0.4988206 -2.0001829
0.23395568 0.28677186 2.1883886 1.2689567 0.33665285 0.89034563 -2.8611667 -0.1546188
1.009789 -0.28337267 -1.6919829 0.5189024 3.070946 1.3413498 -0.2447219 1.155042
-0.0540529 -1.5861026 2.2785733 -1.8855567 0.035628177 -0.8295213 1.118066 -0.957257
0.6698846 2.933185 1.5496995 1.9854592 1.3749828 0.59278977 -0.8003938 -1.0422935
-1.6019746 0.45455334 -0.2173613 0.31527168 1.1271608 1.7280002 -1.3982437 1.5935355
0.34288636 0.61035204 -0.2612803 -0.328089 -1.5163248 0.32417747 0.37859845 0.018548653
1.1246687 0.9624083 -0.0004537512 0.17042376 -0.53364784 2.271892 1.6976544 -2.5902777
0.70342606 -0.27676803 1.6736585 -0.9032096 0.4355627 -1.4084383 1.3625389 -0.5419998
1.5066987 1.377877 0.21816438 0.65029836 0.40879345 1.209159 1.3964217 0.053648073
0.53322804 -1.9621404 -1.5455351 1.1654068 -0.040084176 -1.6517528 -0.7621659 1.3883004
-0.22852643 -0.34951174 2.3472447 -0.37445432 -1.1493876 -1.946438 -0.20732272 -0.6150033

Encoder.encoder_lstm.bias_ih_l0 f4 [128]
00000000: 9808 94bf dc23 76bf a6cf 9bbf 3b6a 7ebf
00000010: 11dc 13bf 854c ddbe df74 12bf 91e6 1b3e
00000020: 4120 1fbf 870f 87bf 74c7 383d 87e4 cdbe
00000030: 7fe0 17bd 3b0e 83bf 9450 e4be 4758 a4be
00000040: fe95 c9bb 3876 09bf dcc4 20bd a8e7 93bd
00000050: f363 42bf 9d20 80be 1220 13bf 3ab1 e2be
00000060: af57 48bf 4cb7 b3bf 0b7c 0abf 75cb 8bbf
00000070: 0a1a 8fbf 4fad 99bf 02bb 71bf f41b 23bf
00000080: acad 34be 2515 b6be 73f8 0ebe 652a 62bf
00000090: f554 d8be cbd4 a03d 6026 46bd e27a 8dbf
000000a0: 2724 cd3d 00d5 0e3f 15ae 36bf 4f2a ba3c
000000b0: 83bf 9bbf 90d8 33bf e657 183f cd80 29bf
000000c0: 9a3c 5ebe 4257 3abf 55c0 04be 9e24 a1be
000000d0: 4351 47bf b909 ccbf 2055 98bd d2e6 cbbd
000000e0: 3f27 003f 0793 b13e beaf a4be 800b f03f
000000f0: c4e4 96bf 801c 9f3f 9389 7c3f 5d00 2fbe
00000100: ffa1 093f 3a96 bf3e b199 2cbe 5541 533f
00000110: 41ac 053e 3abc 80be b50e ea3d 77dc b03d
00000120: a617 1a3f 6516 1a3f 84ce 21bd 9e79 debd
00000130: 8f5d 00be a328 9c3d 4340 813e db59 243f
00000140: 5a53 55bd 77aa 4a3e f2d0 d7bd 5a9c 58bc
00000150: ea10 b6be 008d 85be abb0 fa3e ffe8 f03d
00000160: 4016 a6bd 48aa 87bb c85c 2b3e f61e b7be
00000170: 2df4 86be c63d 293e 3249 8d3e cd9f 823d
00000180: 06f7 8cbf a193 f2be 6df3 2bbf a612 3abf
00000190: 8b2c 7fbe 8ac6 78bf f1dd 8dbd c9c7 d7bd
000001a0: bae7 f8be f2f0 9ebe 4e1e 88be 5cf7 70bf
000001b0: 32e6 51bf 1d19 33bf 7529 6cbf aca3 c4be
000001c0: f134 3bbf 9c1f 68bf 805f 6dbf c136 00bf
000001d0: 9533 c8be 4d56 cebe 68e2 7ebf 6ba9 d7bd
000001e0: 0ba2 213e 9dd1 02bf beb9 13bf a094 a1be
000001f0: 80a6 8cbf b67f 33bf c11e 51be df97 57bf
-1.1565123 -0.9614847 -1.2172744 -0.99380845 -0.5775767 -0.43222442 -0.5720958 0.15224673
-0.6215859 -1.0551614 0.04511209 -0.40213415 -0.03707933 -1.0238718 -0.44592726 -0.320986
-0.0061519137 -0.5369601 -0.03925024 -0.07221919 -0.7593376 -0.25024882 -0.5747081 -0.44275838
-0.78258795 -1.4040313 -0.54095525 -1.0921465 -1.1179821 -1.2006015 -0.94425976 -0.6371453
-0.17644376 -0.35563007 -0.13961963 -0.8834594 -0.42252317 0.07853087 -0.04837644 -1.1053126
0.10016661 0.5579376 -0.7135938 0.022725252 -1.216782 -0.70252323 0.5950912 -0.6621216
-0.21702805 -0.72789395 -0.12963994 -0.3147325 -0.7785837 -1.5940467 -0.07438111 -0.09956135
0.50059885 0.34682485 -0.3216533 1.875351 -1.1788564 1.2430573 0.9864742 -0.17089982
0.5376281 0.374193 -0.16855504 0.82521564 0.13053991 -0.25143605 0.114285864 0.086358
0.60192335 0.6019042 -0.03950359 -0.108630404 -0.1253569 0.07624938 0.2524434 0.6419961
-0.052081443 0.1979159 -0.105379 -0.013220871 -0.3555978 -0.26084137 0.48962912 0.117631905
-0.081097126 -0.004140172 0.16734612 -0.3576581 -0.26358166 0.16527471 0.27594906 0.06378136
-1.1012886 -0.47378257 -0.67168313 -0.72684705 -0.24919336 -0.97177947 -0.069270976 -0.10536153
-0.48614293 -0.31043202 -0.2658562 -0.9412744 -0.81991875 -0.69960195 -0.9225076 -0.38406122
-0.7312766 -0.9067323 -0.92723846 -0.5008355 -0.39101854 -0.40300217 -0.9956422 -0.10530361
0.1578447 -0.51101094 -0.57705295 -0.31558704 -1.0988312 -0.70116746 -0.20421888 -0.8421611

Encoder.encoder_lstm.bias_hh_l0 f4 [128]
00000000: 12e9 91bf da1d 61bf 9c51 83bf 3d7f 7cbf
00000010: b5b9 b2be 7030 3dbe 3913 33bf 79b1 343d
00000020: 6ed4 e7be 7a12 93bf 96aa 84bd 0e07 01bf
00000030: e4f8 24be a428 8dbf 1af1 05bf bfef 9abe
00000040: 71e7 1f3e d712 23bf 2d51 69ba d828 6ebe
00000050: 8dc4 52bf b886 edbe fe5b 07bf bb08 12bf
00000060: bc6b 80bf 8bfc b2bf 9b92 48bf df00 66bf
00000070: 28f2 99bf 8096 87bf 4c72 76bf 5f16 5cbf
00000080: 8796 9f3d 9997 cebe 7441 13be 3663 93bf
00000090: 7b23 c7be 6c96 c73e 5e44 a5be dca7 83bf
000000a0: 4c3b 80bd 514b 4d3f 7139 06bf eba5 aa3d
000000b0: b807 a3bf 49b9 2bbf 9760 623f 7748 04bf
000000c0: 3246 cebc fe5b 39bf e101 273e 5a39 07bf
000000d0: 2c72 2abf f029 babf 67aa e3bd d08b 3b3d
000000e0: a569 393f c750 193f 3264 fabe e13f ee3f
000000f0: 59df 9dbf 81a8 a23f 0967 753f dc27 11be
00000100: c722 c13e bf4c e43e 29b8 9ebe 10df 0f3f
00000110: 7526 113e 6442 87be 4cae 63bd 91cf 52bc
00000120: 399b b33e 5197 a23e 5a72 843e a8cd 4a3d
00000130: df54 7fbe 6983 4ebd 6485 963e 6516 263f
00000140: 344d 70bd 83be 4b3e 0c7f 94bc fe9a 0abe
00000150: d37b eabe 5c47 d0be 70c5 d93e 5a46 9d3e
00000160: 03d0 963c 9bfc 9abe 38cd af3e c6e2 0ebf
00000170: a084 0ebe f92d 493e 8566 ff3d 088c 273d
00000180: 65f9 7abf e062 17bf 1a5d 33bf 50ca 07bf
00000190: 8e71 adbe 6139 4abf 1ef8 90be 8fd1 51be
000001a0: 083d 21bf 32cf 6bbe 55d6 40be 7b53 79bf
000001b0: 7726 21bf e041 55bf fa08 72bf 3c6a ecbe
000001c0: 3c43 50bf 0365 61bf 266e 87bf 0aaa 07bf
000001d0: 6447 62be 3554 a6be 7cca 59bf ba99 aebc
000001e0: b79d be3e d5e9 03bf 34c7 94be 7a93 0abf
000001f0: 67b3 82bf 0444 1ebf de58 9abe c9bb 48bf
-1.1399252 -0.87936175 -1.025928 -0.9863165 -0.34907308 -0.18475509 -0.69951206 0.044114564
-0.45279258 -1.1490014 -0.06477849 -0.5040139 -0.16110569 -1.1028028 -0.52321017 -0.30261037
0.15615632 -0.6370062 -0.0008900341 -0.23257768 -0.8233116 -0.46391845 -0.52874744 -0.5704457
-1.0032878 -1.398332 -0.783487 -0.8984508 -1.2027025 -1.0592804 -0.96268153 -0.85971636
0.07792383 -0.40350035 -0.14380437 -1.1514652 -0.38894257 0.3898195 -0.32278723 -1.0285602
-0.0626131 0.8019305 -0.524314 0.083324276 -1.273673 -0.670796 0.88428634 -0.5167307
-0.025179956 -0.72405994 0.1630931 -0.52821887 -0.6658046 -1.4544048 -0.11116486 0.045787632
0.72426826 0.5988888 -0.48904568 1.8613244 -1.2333785 1.2707673 0.95860344 -0.14175361
0.37721846 0.44589803 -0.30999878 0.5619974 0.14174826 -0.2641784 -0.055586144 -0.0128668705
0.35079363 0.3175607 0.25868493 0.049512535 -0.2493472 -0.05041829 0.29398644 0.6487792
-0.058667377 0.19896893 -0.018126987 -0.13535687 -0.45797595 -0.40679443 0.42533445 0.30717736
0.018409735 -0.30270848 0.34336257 -0.5581478 -0.1391778 0.19646443 0.12470726 0.04090503
-0.98036796 -0.59135246 -0.70063937 -0.5304308 -0.33875698 -0.78993803 -0.28314298 -0.20490097
-0.6298375 -0.23028257 -0.18831761 -0.97393006 -0.6294932 -0.8330364 -0.9454495 -0.461748
-0.8135259 -0.88044757 -1.058049 -0.52993834 -0.22097546 -0.3248612 -0.8507459 -0.021313537
0.37229702 -0.51528674 -0.2905823 -0.5413128 -1.0210999 -0.61822534 -0.30145925 -0.7841154

Encoder.encoder_attn.0.weight f4 [20, 84]
00000000: 8f45 2e3d cc19 033f 04bd 6c3f a083 bbbe
00000010: 70ac 6fbf d1b2 56be d91f d4bf 8c9a 173e
00000020: 38e1 c03e 58d7 c83d 0256 72bd f7af a03e
00000030: c9c2 5d3f 200b b7be f8f2 4d40 733e 8ebf
00000040: 8007 ee3d fd6e 2cbf 04fc 953f d3f2 3e3f
00000050: 0b3c e6be 4c1c a53e 143c eb3d af36 4cbf
00000060: 8590 d5bf 28be cd3e 673e 5f40 3dd6 803f
00000070: 4684 0f40 3a51 00bd 13c1 98bf 75d7 073f
00000080: bead f53d 04bb 753e d532 a93e 30b7 553f
00000090: 4718 b7bf 93bd 91bf 9f43 a0bf 0119 243f
000000a0: 2a8a 223f 6f18 653e db96 cf3e fdcc 20bf
000000b0: 76c8 47be 5e56 16bf 7967 933f ef25 12bf
000000c0: dec1 633e 3236 8c3f 19e7 6bbf 0322 8b3f
000000d0: b372 22bf 5ddf a6bf db44 743f c398 11be
000000e0: 023b 62bf afd5 323e 97e2 0c40 f4ff a03f
000000f0: bf45 1d40 d021 3f3e bea6 10bf adf7 3b3f
00000100: bf2c 843f 4fa1 cb3f dfc2 3bbf 1489 5ebf
00000110: 8bc8 083f 7d90 033f 1a87 bebe aeb1 01bf
00000120: 3c06 d8be 86ca 1d3e 3500 2bbf d7e5 2d3f
00000130: 5c17 a0bf fbd0 35bf 1f1d f73e 4447 01bf
00000140: 667b 2fbd d38e 90be 0386 343f b628 3dbe
00000150: c910 a8bf 90e0 1140 a2a8 403f a641 4bbf
00000160: d888 cc3e 2693 c23f a32f 51be f20e 263f
00000170: 4055 9dbf ef14 df3e fd8e adbe c7fe 4e3f
00000180: b29c bfbf 1935 c9be c629 ba3e ea8b b43f
00000190: 7cca 703f c6c7 55bf da6c 2e3e 07ce 73bf
000001a0: 8c8a 9ebf 9386 7d3e e527 cf3c bd36 ddbf
000001b0: fef7 69bf d449 833f 5a5d 8ebf ba86 bd3f
000001c0: c527 9a3f b494 ca3f cca1 63bf 031b 983f
000001d0: 7c1b e7be 660b ff3f b798 2f3f f717 853e
000001e0: acf7 e63d 7339 d03e 6361 6bbe b9a0 ad3e
000001f0: d320 2bbf 1190 633f c799 24bf af40 5e3f
00000200: a3b3 2fbf 787e 00bf 6c31 763f c83f c13f
00000210: 54aa 8c3f 5836 8abc 39df 03bd 8642 00bf
00000220: faff c9bf eca4 d2be dcf9 243f 04a9 a0bf
00000230: 0c8b 86bf da9d 1340 938a 86bf d32c db3f
00000240: 8b9b 233f c0c3 b93f d5d2 72bf e181 aa3f
00000250: 15f8 17c0 0e29 9dbf d700 e7bf f0bd bcbf
00000260: df4e 88bf 67fa 523d 526e 873f 50c7 283f
00000270: 1c86 213f 8c4e 3a3f 8bd8 703f ee15 02bf
00000280: 8e23 1e3f ce47 6fbe 63a5 53bf d385 1b3f
00000290: fdf8 1f3f c1cc afbb 3be9 0c3f 2af6 d43e
000002a0: 8d17 ac3f cfad 613f 7693 93be ec0c 3f3f
000002b0: c32a 023e 2af6 78bf bf37 6b3f 4e0a 083f
000002c0: 573e 9abf c205 01bf dc83 0abf 339f 553e
000002d0: 2896 a4be bb52 643e 8482 683f 08d7 0940
000002e0: 9de7 153f 3abb 433f 7bc4 203e 253d de3e
000002f0: e2c0 aebe 287f e2bf 8816 91be 42d3 d33f
00000300: d5dc 7d3f 6ef7 adbe 779a c53e 535b acbe
00000310: 3a5f babe 5bea 5d3f 3fc1 1440 df2a d7be
00000320: cd37 6b3f 2f0c 9b3f 58ef ebbd 9ff4 b43d
00000330: 183b 183f ad43 66bf 81a1 2d3f e58a 2a3f
00000340: a91b 9dbf 4425 8f3e 98aa a63d de51 2cbf
00000350: ddbd 87bf 6650 153f 807f dc3e b1da 9a3f
00000360: ddca f83d db9e 2e3f 5f56 22bf 7659 8c3f
00000370: a7d1 74be 9812 f1bf fb49 a3be 9780 b13f
00000380: 5524 403f 34ac 2fbf b8d0 033f c15d 76bf
00000390: fe85 32bf c697 cf3f 6563 f33f a1dd cbbe
000003a0: b663 f4bf f014 86bf 622a ad3f 4581 243f
000003b0: f726 8d3f 45c5 243f 9a25 d33f 0675 1c3f
000003c0: 0d6e 0abf f965 e6bd 43bc f63e c8dd 963e
000003d0: b2d5 1a3f 7189 04bf 334c 65bf 7200 713d
000003e0: 286a 343f 05c7 4fbd bb24 e83e 2222 0dc0
000003f0: c97e 393f 148a e83f f2ca 5c3f 5532 b7bc
0.042546805 0.5121124 0.92475915 -0.3662386 -0.93622494 -0.2096665 -1.6572219 0.14805049
0.37671828 0.098066986 -0.059164055 0.3138425 0.86625344 -0.35750675 3.2179546 -1.1112808
0.11622524 -0.67356855 1.1717534 0.7458927 -0.44967684 0.3224815 0.11486068 -0.7977094
-1.6684729 0.4018414 3.4881837 1.006538 2.2424483 -0.031327464 -1.1933922 0.53063136
0.11996029 0.23997122 0.33046594 0.83482647 -1.4304284 -1.1385978 -1.2520636 0.6410065
0.6349207 0.22372602 0.4054478 -0.6281279 -0.19510064 -0.58725536 1.1515952 -0.5708913
0.22241923 1.0954039 -0.921495 1.0869755 -0.6345627 -1.3036915 0.95417565 -0.1421843
-0.8837129 0.17464326 2.20133 1.2578111 2.457382 0.18665242 -0.5650443 0.734248
1.0326155 1.5908602 -0.73344225 -0.86927915 0.53431004 0.51392347 -0.3721245 -0.5066174
-0.42192256 0.15409288 -0.6679719 0.6792883 -1.2507129 -0.71022004 0.48264405 -0.5049937
-0.04284229 -0.28233966 0.70516986 -0.18472561 -1.3130122 2.2793312 0.75257313 -0.79397047
0.39948153 1.5201156 -0.20428328 0.64866555 -1.2291641 0.4357066 -0.33898154 0.8085751
-1.4969695 -0.39298323 0.36359996 1.4105198 0.94058967 -0.83507955 0.17033711 -0.9523625
-1.2386031 0.24758367 0.025287578 -1.728233 -0.9139403 1.0256906 -1.1122239 1.480674
1.2043387 1.582663 -0.8891876 1.1883243 -0.45138156 1.9925354 0.685924 0.25994846
0.112777084 0.4066883 -0.22986369 0.33911684 -0.6684696 0.888917 -0.64297146 0.8681745
-0.6863348 -0.50192976 0.9616916 1.509759 1.098948 -0.016871616 -0.032195304 -0.50101507
-1.5781243 -0.4114145 0.64443755 -1.255158 -1.0511184 2.3065095 -1.051104 1.7123054
0.63909215 1.4512863 -0.94852954 1.3320886 -2.3745167 -1.2278154 -1.8047131 -1.4745464
-1.064907 0.051508334 1.0580542 0.65929127 0.6309526 0.72776103 0.9408042 -0.5081471
0.61773 -0.23367235 -0.82674235 0.60751075 0.624893 -0.0053649847 0.5504338 0.41594058
1.3444687 0.88155836 -0.2882344 0.7462909 0.12711625 -0.97250617 0.91881937 0.53140724
-1.2050275 -0.5039941 -0.5410745 0.20861511 -0.3214581 0.22297184 0.9082415 2.1537495
0.5855654 0.7645756 0.15699951 0.43406025 -0.34131533 -1.7695055 -0.28337502 1.6548846
0.9916509 -0.33977836 0.3859441 -0.33663425 -0.36400777 0.86685723 2.3242948 -0.42024896
0.9188202 1.2113093 -0.115202606 0.0883572 0.5946517 -0.89947015 0.6782456 0.66618186
-1.2274066 0.2795812 0.08138007 -0.6731242 -1.0604817 0.58325803 0.43066025 1.2097989
0.12148068 0.68211144 -0.6341304 1.0964801 -0.23908101 -1.8833799 -0.3189238 1.3867368
0.7505544 -0.68622136 0.51490355 -0.9623681 -0.69735706 1.6218193 1.9014708 -0.39817527
-1.9092929 -1.047514 1.3528559 0.6425975 1.1027516 0.6436351 1.649585 0.61116064
-0.54074174 -0.112499185 0.48190507 0.2946608 0.60482323 -0.5177222 -0.89569396 0.058838315
0.7047448 -0.05072691 0.45340523 -2.2052083 0.72459084 1.8167138 0.8624717 -0.022362867

Encoder.encoder_attn.0.bias f4 [20]
00000000: a458 d53f 14f0 fbbe f53b 19be 29f9 503f
00000010: 0f13 5540 e5c3 813f 4620 9c3d 87fd db3f
00000020: 9489 fd3e a081 19c0 6258 b0bf 3cb1 74be
00000030: a291 2abf 2199 c5be bd94 1abf ab29 23bf
00000040: 1464 fdbd baa1 7b3e c516 f3be 45b1 b0bf
1.6667676 -0.49206603 -0.14964278 0.8163019 3.3292882 1.0137907 0.07623343 1.7186745
0.49519026 -2.3985367 -1.3776972 -0.23895735 -0.6662847 -0.3859339 -0.60383207 -0.63735455
-0.12372604 0.24573413 -0.4747831 -1.3804098

Encoder.encoder_attn.2.weight f4 [1, 20]
00000000: f032 cbbd 966a 2cbd d033 793e 5093 733e
00000010: bd68 c53e 4c67 b63c ba1a cc3e b06c 833e
00000020: a61a 403c 331b 4f3e 93ea 773e a9f8 03bd
00000030: 6ca2 9d3e 0f03 09be c6d2 173e 290e cf3d
00000040: eb7e 89be 29b5 fabd 8773 11be 8bf4 b0be
-0.09921825 -0.042093836 0.24336171 0.23786664 0.3855647 0.022266053 0.3986414 0.2566886
0.0117251035 0.2022522 0.24210577 -0.032219563 0.3078798 -0.13380073 0.14826497 0.10110123
-0.26854643 -0.12241585 -0.14204226 -0.3456157

Decoder.attn_layer.0.weight f4 [32, 96]
00000000: e23a df3e 875e f63e 1b30 9d3f c62f 3cbf
00000010: ade3 a33f 9bce 2ebf c60d b7bf 0536 723d
00000020: b825 0e3f fe42 25bf 7336 f23e e8da adbf
00000030: 1eb5 ecbe 030a 1b3e 64f7 7dbf 998f e3be
00000040: 5070 3e3f 40db 8f3f 95c1 8d3f 5f31 8cbf
00000050: bc92 07bf ad44 7b3e 16a0 9ebf 3e1a 0b3f
00000060: 52d0 bf3e efe5 f6be 1e30 b4bf dfa0 8b3e
00000070: 7113 2a3f 6077 b73f f7cf 5abe 8c9c c4bf
00000080: e5b4 243e 7c44 dd3e 8dd7 9b3f fecf 62bf
00000090: f4c8 33be c0b9 8abe 7896 9fbf 82b4 34be
000000a0: a70e 9fbe 6cf1 9cbf 0383 a1be 0c79 a4bf
000000b0: c22d 1fbe 0418 913e adf1 8ebf cd1c 97bf
000000c0: 297e 533f bbd1 7a3f 164b 783f 6741 93bf
000000d0: e863 d23e 62cf 5e3f 3f6c 83bf d05c fd3e
000000e0: 6afa 1f3f 519a fcbe 9966 98bf a6fb 0a3f
000000f0: 1749 743e 8031 b83f daee 13bf 6875 58bf
00000100: 7dbb db3e 918d 423f 912a b4be 415c 80bd
00000110: b33a b7bf a087 7d3e ef1e 543e 236f a2bd
00000120: 498c 443f 0263 bc3f 06fb f53e 3761 833f
00000130: cd4c b5be 616f 8abf 2459 cdbf 71ed 813d
00000140: 2d2e 963e 4d9a 803e e3b0 a9bf cbf7 0bbf
00000150: c951 95be bb48 f83e 6e3f 5bbf d9df 4e3f
00000160: 6ca4 443e 2057 5a3f ec68 293f 873b 7dbf
00000170: 1a2a a23f eba9 6bbf b07d 693b 2fc4 8dbe
00000180: 241c 0f3f 0bf8 a53f 1eae 8b3f 6da5 71bf
00000190: 107e 9abe 58fa ac3e 2bc5 9bbe dc66 293f
000001a0: 8d43 5dbf afae 6c3f 2419 8e3f cfdf 37bf
000001b0: abc1 453f 5daf f23f 27d9 373f d27f 2dbe
000001c0: 3496 2e3f 31a7 c63f 02c2 b63f f787 11bf
000001d0: 07a9 57bf 356b 033f d33a c73e 65a9 983e
000001e0: b917 64be fdb5 88bf 59ce 3fbf 2597 43bf
000001f0: b991 093f 550a eabf de63 81bc 2cc8 c53f
00000200: bc6d 9c3f 5502 9e3f 7ef0 c83e 88f7 6dbf
00000210: 1e4d ddbd 2a01 90bd a2c7 68bf 1523 b63e
00000220: 463a 3dbf 0733 373f 0ca5 e23f 8d04 0bbf
00000230: 35ff 663f e85e d73f f1e4 503f 1888 3bbf
00000240: 3678 083f c627 303f 6253 b83f 5578 dd3c
00000250: 4bc8 92bf cfce b2be 0dbf c93e 45bf bc3e
00000260: bb07 43bf c81d 87bf 050f e3be 3ff2 87bf
00000270: d9be f83e 3c31 55bf e042 b1bd 3757 903e
00000280: b800 b1bf 815d f8be 408f 413f 72b0 03bf
00000290: d3c1 66bf 9402 2b3f c921 083d e4fb ec3d
000002a0: 399c 3abf f911 6ebf 4a45 903f 7d5d adbf
000002b0: 1874 7dbd fa48 acbe 7903 8c3f 8dd2 e7be
000002c0: 18ac bc3e 5d91 e73f 135c 93bf 6f3f 3abf
000002d0: ca23 2fbf 1b65 95bf d451 e43e 36bd 69bf
000002e0: 9f6c ac3e e300 943e 7960 c63e 8372 353f
000002f0: ba6f c43f 7719 1cbf ecd4 313f 3fcc 653e
00000300: 495c b7be 1b75 333f 8dd6 10bf a52d c73f
00000310: 9940 6abf af45 093f 5907 74bd b024 e73e
00000320: 6544 1abe 38d7 943e fed1 983f 5f97 283f
00000330: a703 46bf dc34 573f 01ce d6bf ccb8 9a3f
00000340: 89b9 4cbe 419a 283e c519 94bf 2ddf 8b3f
00000350: 6768 033f 3f8d 8abf 828e a23d 23c1 fa3e
00000360: 1a80 05bf e777 87bf e021 d03d fc1d 94bd
00000370: 6285 ecbf 40a8 aabe ecfe 7e3f 279c 813f
00000380: 1a31 4ebf aea8 34bd 2f0b 3cbf b0f2 c93f
00000390: c1a1 79be 052b f33f 8d46 913d e311 e5bd
000003a0: 10a2 0fbf a035 67be 1adf 763f f8db aa3f
000003b0: 8786 803e 14be 603f aab4 eebf 547e ef3e
000003c0: e3e5 493f 2424 133e 462b 35bf f6f2 c73f
000003d0: a001 303f 63b5 0bbf 987d fc3e 8c35 b63c
000003e0: 8364 7aba 63dc 5cbf e0c7 2bbf 153f acbe
000003f0: 2dd8 e8bf 156e 82bd 4f30 4e3f 56df 423f
0.43599612 0.48118994 1.2280306 -0.73510396 1.2803856 -0.68284005 -1.4301078 0.05913355
0.55526304 -0.64555347 0.47307166 -1.358243 -0.4623193 0.15140538 -0.99205613 -0.44445494
0.74390125 1.1238785 1.1074702 -1.0952567 -0.52958274 0.24537916 -1.2392604 0.5433692
0.37463623 -0.482223 -1.4077184 0.27271172 0.66435915 1.4333305 -0.21368395 -1.5360274
0.16084631 0.43216312 1.2175156 -0.8859862 -0.17557126 -0.2709484 -1.2467794 -0.17646983
-0.31065866 -1.2261176 -0.31545267 -1.284944 -0.15544799 0.28338635 -1.1167504 -1.1805664
0.8261438 0.97976273 0.9698957 -1.1504334 0.41091847 0.8703519 -1.0267409 0.49484873
0.62491477 -0.49336484 -1.190631 0.54290235 0.23856007 1.4390106 -0.57786334 -0.8455415
0.4291648 0.75997263 -0.35188726 -0.06267596 -1.4314789 0.24758768 0.20714925 -0.07931354
0.7677656 1.4717715 0.48043078 1.0264043 -0.35410157 -1.081524 -1.6042829 0.063441165
0.29332104 0.25117722 -1.3257107 -0.5467498 -0.2916396 0.4849299 -0.8564366 0.80810314
0.19203347 0.8528919 0.66175723 -0.98918957 1.2669098 -0.9205615 0.0035627894 -0.2768874
0.55902314 1.2966322 1.0912511 -0.94393045 -0.30174303 0.33784747 -0.30423865 0.66172576
-0.864312 0.92454046 1.1101422 -0.7182588 0.7724864 1.8959767 0.71815723 -0.16943291
0.6819794 1.5519773 1.4277956 -0.5684809 -0.8424229 0.5133546 0.38912067 0.29816738
-0.22274674 -1.0680538 -0.74924237 -0.76402503 0.5373798 -1.8284403 -0.01579469 1.5451713
1.2220988 1.2344462 0.3924598 -0.9295583 -0.108057246 -0.07031472 -0.90929615 0.3557364
-0.73917043 0.71562237 1.7706618 -0.5430382 0.90233165 1.6825838 0.81599337 -0.7325454
0.5330843 0.6881069 1.4400446 0.027034918 -1.1467375 -0.34923407 0.39403573 0.36864677
-0.7618367 -1.0555964 -0.44347396 -1.0620803 0.48583105 -0.8327825 -0.086553335 0.2819154
-1.3828344 -0.48508838 0.7560921 -0.5144111 -0.901395 0.6680081 0.033235345 0.11571482
-0.72894627 -0.92996174 1.1271145 -1.3544155 -0.061878294 -0.33649427 1.093856 -0.45277825
0.36850047 1.8091236 -1.1512474 -0.7275304 -0.68413985 -1.167148 0.4459368 -0.9130434
0.3367662 0.28906927 0.38745478 0.70877856 1.5346596 -0.60976356 0.6946552 0.22441195
-0.35812595 0.70100564 -0.5657738 1.5560805 -0.9150482 0.53621954 -0.05957732 0.45145178
-0.15065153 0.2907045 1.1939085 0.65855974 -0.77349323 0.8406503 -1.6781617 1.2087646
-0.19992651 0.16465093 -1.1570364 1.0927483 0.5133118 -1.0824355 0.079373375 0.48975477
-0.5214859 -1.0583466 0.10162711 -0.072322816 -1.8478205 -0.3333149 0.9960773 1.0125779
-0.80543673 -0.044106178 -0.73454565 1.5777187 -0.2437811 1.8997504 0.070935346 -0.11185052
-0.5610666 -0.2257905 0.96434176 1.3348379 0.25102636 0.87790036 -1.8648884 0.46776068
0.78866404 0.14369255 -0.70769155 1.5621021 0.6875248 -0.5457365 0.4931457 0.02224233
-0.00095517206 -0.86273783 -0.6710186 -0.33641878 -1.8190972 -0.06368653 0.80542463 0.76122034

Decoder.attn_layer.0.bias f4 [32]
00000000: 2861 fd3d 1006 3ebc 081f 6dbc 3754 20bf
00000010: 712e 513e d200 2bbe c510 b93d 26fe 033f
00000020: cb62 56bf 2be7 e0be 8452 f6bd 38b0 443e
00000030: a52f cebe 1877 1e3e 6957 093f 7898 05be
00000040: af3c 42be 16fc c03e 7714 15be bcad 62bf
00000050: 698f 053e 0b06 823f c549 2e3f 8920 dfbe
00000060: e8db 4abd 7c90 4ebe 7142 fe3e 22da 39bf
00000070: 5035 b4be 9ed9 803c 31c3 163e b82f b63e
0.12372047 -0.011598125 -0.01447273 -0.626285 0.20427872 -0.16699532 0.09036402 0.51559675
-0.83744496 -0.43926367 -0.12027457 0.19207847 -0.40270725 0.15475118 0.53649 -0.13046443
-0.18968461 0.37692326 -0.14558588 -0.8854635 0.13042988 1.0158094 0.68081313 -0.4357951
-0.049526125 -0.20172304 0.49660066 -0.7259847 -0.35196924 0.015728768 0.14722897 0.35583282

Decoder.attn_layer.2.weight f4 [1, 32]
00000000: 1e7d 613c 343f e03d 2532 313d 2f46 173e
00000010: ee60 d03e b2d6 43bd 216c 693d f8b0 d53d
00000020: 230a 133e 9eba e4bc ab9b 973d 6118 d53e
00000030: 2bc6 183d 92ae bf3d 728f 94bd 1492 963d
00000040: 54c4 ccbd 1e2b abbd 3d66 0ebe e45e a03e
00000050: 5141 e2bc 86c5 babe be69 b5bd b9ea 0d3d
00000060: 270a 993d fbbc a73c 3cc1 a53b 2b60 8a3d
00000070: 67c0 a63c e5de 743d e34e 8dbd ae08 e43d
0.01376274 0.10949555 0.043260712 0.14772867 0.4069895 -0.04781217 0.056987885 0.10434145
0.14359336 -0.027921017 0.07402738 0.41620162 0.037298363 0.093594685 -0.072539225 0.07352081
-0.09998384 -0.08357833 -0.13906188 0.31322396 -0.027619036 -0.36478823 -0.08858059 0.034647677
0.074726395 0.020475855 0.0050584357 0.06756624 0.020355416 0.05978288 -0.06899812 0.11134468

Decoder.lstm_layer.weight_ih_l0 f4 [128, 1]
00000000: 3baa 2e3d 290e ba3d 472f c7bf 8f67 7c3c
00000010: 84ab b4be d12a bf3d dfac bf3d ee8f 803e
00000020: d931 263f 8c5f 91bf b208 a2bf 4f46 d13d
00000030: 9455 b13d a75e 8c3f 6cbc 143e b97e 883f
00000040: f8b3 023e 2a10 b6bb ead4 64bd b9b4 85bb
00000050: 3aee 033c 8b00 87bc 149e 733e aac6 21bf
00000060: e66c fa3d d710 2d3d cb3e 92bf d1bf 153d
00000070: d91d ddbe 1d56 31bf e210 1d3e e742 ef3f
00000080: ad70 59bc 3c86 523e 13a3 953e e323 193d
00000090: 9f77 52bd 8b5b 27bd 3a90 85be 5625 743e
000000a0: 6f7e 213e 852f 02bf b4c7 1f3f e9b5 bd3e
000000b0: bf70 35be f894 c2be 2d02 4a3c d0e6 a3bf
000000c0: 2045 5fbe 54a5 3ebd c6f4 dcbd 5afa 91be
000000d0: 0ccf 5e3e 3fe1 163d 678b 723e 6fc4 603e
000000e0: 5131 02bd f6e1 873d de58 fcbe 7276 643e
000000f0: 19e1 d0be 5401 443f 07d4 6cbc c058 6e3e
00000100: 5bf4 cd3c 5a56 e6bb 2fb5 74bf 2a5c 49bd
00000110: fa6b bd3e 36e2 1d3c d13d e2ba e42d 56be
00000120: 6e37 03bf d87d 86bf 24ed 17c0 07c4 333c
00000130: 68de a63e 54a4 dc3f 0521 343a 832e 783f
00000140: b36c 04bd b6b2 51bd c869 843d 49f3 023e
00000150: df26 bcbb d879 c1bd a843 833e dc55 c23e
00000160: f807 253f 8b45 713a 120b 97bf ca1b 0dbe
00000170: b4fe aabe ddb6 eb3f 6e88 b4bb b792 91c0
00000180: ce93 f43c 97ec 8dbe 001b 433d c30a 06be
00000190: a02d be3e 8336 9e3d f86e 2e3e d449 403d
000001a0: b93b b23e 0d67 4dbf 1b7f 11bf cd3e 41be
000001b0: 32bc fe3e c5b8 303f 260f 373e b1c3 2a3f
000001c0: d60f 1e3d deb7 c13e ee7f cb3d de77 833d
000001d0: 30e7 183e 3c79 9c3d eef9 ec3d 9490 55bd
000001e0: 2208 663f abb4 423e 21b3 73bf f978 9f3e
000001f0: fab3 873e daaa dfbf a411 323d 1f45 b43d
0.042642813 0.09084732 -1.5561303 0.01540555 -0.35287106 0.093343385 0.093591444 0.2510981
0.6491981 -1.1357284 -1.2658904 0.102184884 0.08658901 1.0966386 0.14525002 1.0663673
0.12763965 -0.005556126 -0.055867113 -0.0040803817 0.008052403 -0.016479751 0.23790771 -0.6319376
0.12227802 0.042252388 -1.1425413 0.036559884 -0.43186834 -0.69272023 0.15338472 1.8692292
-0.013271493 0.20559019 0.29225978 0.03738774 -0.05138361 -0.040858787 -0.260866 0.23842368
0.15770887 -0.5085376 0.624141 0.3705285 -0.1771879 -0.3800428 0.01232962 -1.2804813
-0.21803713 -0.046544388 -0.10788874 -0.28511316 0.2175867 0.036835905 0.2368599 0.21949933
-0.031785313 0.066348955 -0.4928655 0.22310808 -0.40796736 0.76564527 -0.014454848 0.23276043
0.025140932 -0.007029337 -0.95588964 -0.04916016 0.36996442 0.009636452 -0.0017260854 -0.20915943
-0.51256454 -1.0507154 -2.373849 0.0109720295 0.32591558 1.7237649 0.00068713754 0.9694597
-0.032330226 -0.051195823 0.06465489 0.12788118 -0.0057419385 -0.09447068 0.25637555 0.3795613
0.64465284 0.0009203783 -1.1800253 -0.13780132 -0.33397448 1.841518 -0.0055094277 -4.5491595
0.029855635 -0.27719566 0.04763317 -0.13090043 0.37144184 0.07725241 0.17034519 0.046945408
0.3481119 -0.8023537 -0.5683457 -0.18871613 0.49752957 0.69031936 0.17876872 0.6670485
0.03858932 0.37835592 0.0993651 0.06419347 0.14931941 0.07640311 0.11571108 -0.052139834
0.8985616 0.19014232 -0.95195204 0.31146982 0.265045 -1.7474015 0.043473855 0.08802246

Decoder.lstm_layer.weight_hh_l0 f4 [128, 32]
00000000: 6f64 75bf 507d 083f d4b0 3abf 055d 443f
00000010: a094 e8be f31b fdbe 3f63 08be dbd6 293e
00000020: 253c 9dbe f8e4 8abf 5245 803e 60be 1dbf
00000030: 77b2 1f3f f90b 22bf d8b2 ee3c 8aa4 0abf
00000040: 8d83 2b3e 6abd 0fbf e781 d53e 8565 aabf
00000050: 5abc 70be d4fb f93e e661 e53f 1241 733e
00000060: dd5c e5bf fb83 093f 95c6 bcbe ec89 cbbf
00000070: 4617 bcbf 90c5 ac3f b3df be3e f759 5fbe
00000080: b4eb c1bd a401 9f3f 6c8d 97bf 0907 38be
00000090: 91b6 8fbe dcea df3e ad74 e0bd e13f 0fbf
000000a0: 4a66 a1be a9d6 87bf 1aaa 6fbe 8e05 753f
000000b0: b1cb ba3e b8e9 10be d7cc dcbe 1c58 edbe
000000c0: 34c2 4abe ffb7 a63d d3fc 9e3e 7a07 0fbe
000000d0: a3a5 3c3f 947d ac3f e4a3 0f3e b46b b23e
000000e0: e4b5 adbe 1fa3 9d3e 7535 78be 2065 4e3f
000000f0: 77d0 58bf 186a 2bbe 859e 7d3e bcaa f43c
00000100: ef0a 183f 1e21 cc3f 7df9 6d40 9945 25bf
00000110: 6f69 9cc0 b2d0 f53d 4363 4c3e 25fe 1f3f
00000120: 163d 013f 73e4 063f ddba bdbe ee51 bdbe
00000130: b02c 0240 2d40 0ac0 ee7f d2be 0523 a13c
00000140: 1409 713f 5461 0e3d a64a 7e3f 339f 30bf
00000150: 59ce 433d ff96 fb3f 7242 1b40 e0a9 6cbf
00000160: d0dc 2740 df6d c03d beb4 82bf bf46 963f
00000170: 99b8 c83f b8b0 cfbf 2ace 4f3f 0751 c1bd
00000180: a51d 873d b96b 80be 7d13 0a3f 48e4 1ebf
00000190: 6bd9 08bf 5535 423e a773 40be 4d54 9d3e
000001a0: a9f2 45be 8db9 853d 3472 823f dd3b 42bf
000001b0: c230 753e 1284 d5be 239a e13d dca6 c3be
000001c0: 4f59 823e 4d5f e2be 84c1 ff3d 0c67 203d
000001d0: 7864 0f3e 49a5 8e3f 5513 cebd ac29 9cbd
000001e0: e628 a93e d1c2 c93e a8a9 083f c294 083c
000001f0: 5ff9 6abb b2d9 67be 60b6 823e dba8 26be
00000200: 303a d73f 5471 c93e 9c05 81be 1b3c 393f
00000210: c861 4cc0 73f0 f7bd 0ed4 b5be bdc8 8d3f
00000220: ed5e e43e 1539 e93e 4509 2fbd 9c73 9e3f
00000230: 16d7 133f 6b7b 40bf c8d1 f53e a21c ea3f
00000240: 7158 d7bf f107 c9be 345b a73d 5ec7 c9bf
00000250: aa75 78bf ec80 70be 99f1 f93d fadb b3bd
00000260: d034 c03f ca33 9abe 3cf6 9cbf f779 f03e
00000270: d304 4bbf 6b01 813f 6cb3 64bf 3903 7abf
00000280: 1869 2c3f 8391 9abe bdfc abbf a7e3 a53e
00000290: 1ccb 86bf 85aa 9cbf af2a 053f 6fb7 443d
000002a0: 627f a8bd 37be 92be 00d8 10bf d326 1a3f
000002b0: 85bb 683c 65d2 0d3f 90e2 6f3f 3755 d9bf
000002c0: 9466 993e 361c 263e fff7 a13e 55da c73d
000002d0: 3842 05be 2114 8e3e 13a3 d5be 745d 91bf
000002e0: b6d0 b3be d7cb 793d 51ac ebbe bedf 7f3f
000002f0: 7a36 443d 7f6d fc3d 913f 9f3e 4a9b db3c
00000300: 4de4 f6bd 8270 ab3f aa2b 82c0 08f8 c6be
00000310: f8cf 1cbe de19 8a3f 8aad 2d3f eaeb 09bf
00000320: 9a1d 06bf e1cf 35bf a8a7 7d3e cceb 12bf
00000330: 70f6 78bf 47f9 a33d 865a d3bf 9247 c0be
00000340: 4a2d 433f d4c3 0d3f 2d1d abbf c710 debe
00000350: a15d 4ebf 5072 88bf df59 28bf 53c3 f3be
00000360: fed5 91bf 6044 d4be 8dc2 cfbe e5c0 7cbe
00000370: fa8a 9b3e 09c9 083f 0431 2ec0 0cf1 6b3d
00000380: 99f1 febe 1d45 003d 6dc5 16c0 dff1 573e
00000390: 06ba fe3e 2c6f 843f 5f2c 833d 327c 5b3f
000003a0: aa44 8dbe afb1 abbf dd89 543c 603e 1cbd
000003b0: 87ab e13c f6c3 43bf 7906 cabc d406 2fbb
000003c0: 55f1 3bbe 457d 5d3f 4115 0e3e e689 5e3e
000003d0: 4f5c a43e 68d0 f9be d522 833e bdbe 833f
000003e0: 7bb2 0cc0 26b0 33be 3c38 abbd f4f1 c43d
000003f0: 7093 fdbc 7239 003f 3c2f f4be 3967 a53f
-0.95856375 0.5331621 -0.7292607 0.76704437 -0.45425892 -0.49435386 -0.1331911 0.16585867
-0.3070995 -1.0851126 0.25052887 -0.61618614 0.6238169 -0.6329952 0.029138014 -0.54157317
0.16749401 -0.561484 0.4170067 -1.3312231 -0.2350935 0.48824942 1.7920501 0.23755291
-1.7918965 0.5371701 -0.36870256 -1.5901465 -1.4694602 1.3497791 0.37280044 -0.21811663
-0.09468785 1.2422376 -1.1840034 -0.17971434 -0.28068975 0.4373387 -0.10959754 -0.55956846
-0.31523353 -1.0612384 -0.23404732 0.957116 0.3648353 -0.14151657 -0.4312503 -0.46356285
-0.19800645 0.08140563 0.31052265 -0.13967696 0.7369024 1.3475823 0.14027363 0.34847796
-0.33927834 0.30788514 -0.24239142 0.80623055 -0.8469309 -0.1673969 0.24767502 0.029866569
0.59391683 1.5947607 3.7183526 -0.6455932 -4.8878703 0.12002696 0.1995974 0.6249717
0.50483835 0.52692336 -0.37056628 -0.3697657 2.0339775 -2.160167 -0.41113228 0.019670019
0.9415448 0.034760788 0.99332654 -0.6899292 0.04780421 1.9655455 2.4259305 -0.9244671
2.6228523 0.09395956 -1.0211408 1.174034 1.5681335 -1.6225805 0.81173956 -0.09439283
0.06597451 -0.25082186 0.53935987 -0.6206708 -0.53456753 0.18965657 -0.18794118 0.3072838
-0.19330849 0.06529532 1.0191102 -0.75872594 0.23944381 -0.41702324 0.11015727 -0.3821324
0.25458762 -0.44213334 0.12488082 0.039160773 0.1400317 1.1144191 -0.10062281 -0.07625136
0.33039016 0.39406446 0.53383875 0.008336248 -0.0035854203 -0.22641638 0.25529766 -0.16275351
1.6814632 0.39344275 -0.25199592 0.7235734 -3.193468 -0.12106409 -0.35513347 1.1076885
0.44603673 0.45551363 -0.04273345 1.2379031 0.5775007 -0.7518832 0.48011613 1.8289988
-1.6823865 -0.3926387 0.081716925 -1.5763967 -0.9705454 -0.2348668 0.12204284 -0.087821916
1.5016117 -0.30117637 -1.2262645 0.46968052 -0.79304236 1.0078558 -0.89336276 -0.9766117
0.6734786 -0.30189142 -1.3436505 0.32400247 -1.0530734 -1.2239538 0.52018255 0.0480265
-0.08227421 -0.28660747 -0.5657959 0.6021549 0.014204864 0.5539916 0.9370508 -1.697913
0.29961073 0.16221699 0.31634519 0.097584404 -0.13013542 0.27749732 -0.41725978 -1.1356645
-0.3512017 0.060985412 -0.46029904 0.9995078 0.047903515 0.12325572 0.31103185 0.026807446
-0.12055264 1.339371 -4.06783 -0.38861108 -0.15313709 1.0789144 0.67842925 -0.538756
-0.5238892 -0.71020323 0.24770987 -0.5739105 -0.97251034 0.0800653 -1.6512 -0.37554604
0.7624098 0.55376935 -1.3368279 -0.43372175 -0.80611616 -1.0659885 -0.6576213 -0.47609958
-1.139343 -0.41458416 -0.40578118 -0.24682958 0.30379468 0.53431755 -2.7217417 0.057602927
-0.497937 0.03131591 -2.3558 0.2108836 0.497513 1.0346427 0.064049475 0.8573638
-0.2759145 -1.34136 0.012972322 -0.038145423 0.02754761 -0.7647089 -0.02466129 -0.002670695
-0.1835378 0.8651927 0.13875295 0.21732292 0.32101676 -0.48791814 0.25612512 1.0292584
-2.1983936 -0.17547664 -0.08360335 0.096164614 -0.030954093 0.50087655 -0.47692287 1.2922126

Decoder.lstm_layer.bias_ih_l0 f4 [128]
00000000: c5c5 833e 6a1f 22bd 1807 7fbf 1e34 10bf
00000010: 6ea8 12bf 9fbb 1d3f f8d5 fb3e 632e 5a3e
00000020: d074 54bf 13f9 74bf 4517 a9be 689a dabe
00000030: ca6c 5dbf 7089 5ebf e149 563f adcb 07bf
00000040: 5807 c33e 108a 3cbf a8cf dabe 445f 423e
00000050: e51c 203e bf07 e7bd 8397 2ebf e971 94be
00000060: 566c a3be fd01 ab3e 43c3 87bf 0f5d debe
00000070: f66e 58bf 5e34 6b3f 415a 363f 074c 613f
00000080: 03e0 45bf dac8 4ebd 89d8 4fbf 7a30 793f
00000090: 3a6d db3e 4873 60bf 4f6c ffbf af59 163d
000000a0: 531c 0a3f f277 1b3e 1728 6f3d dfcf e8bc
000000b0: 0b02 763f dbb9 e03e 5aa6 10c0 b178 ebbe
000000c0: 3cec b0bf a7e1 0c3f d0cd 3f3e 6d1e 9ebf
000000d0: 5029 72be 1d32 34bf 7de0 813f f806 cb3d
000000e0: ce43 cebe 33f6 a1bf 72b0 af3e a57d 653f
000000f0: 76d1 5bbe 5ae0 32bf 5c2a ddbf 0441 27bf
00000100: 2a94 d83d d046 08be 16b9 c03e 1e09 9ebc
00000110: ae1d e63d f67c 40bd d1cb e8bd 58ea 59bf
00000120: af70 99be bcb9 313f 0092 9dbd ae27 14bd
00000130: 244a 233e a9f4 c6be 30ba 2cbe 6a77 d83c
00000140: 4cb7 5f3e 5d5d 273e 3ab7 3ebe 1164 32be
00000150: 8c55 02be 5dac 00bf 16c3 04bf 09b5 9d3d
00000160: 94f4 91be 290e 573c 5b67 ba3e 5f4c a6be
00000170: b4ea a43d b07b a8bb f5de b13d 7267 253e
00000180: d265 1c3f 3550 903f f1da 503f e4bd 863f
00000190: dfee 873e 635e 753f 2f01 6e3f 1381 e0bb
000001a0: 1e12 f73f 2cb2 82bd 6381 a53e 1c39 a2be
000001b0: 2525 6d3f 5a77 823f 9b5b 893f a60d 0abf
000001c0: 9b9c 1b3e 5517 843f 2b46 813e 640b 023f
000001d0: e4a0 193f 43ca 653e 882c 963f 0b7d 853e
000001e0: 24b9 613f 941a 3e3f c1a6 153f 6973 ba3f
000001f0: 681a 3b3e 4594 19bf ca8a 613f 6a57 2b3c
0.25736824 -0.03958074 -0.996202 -0.56329525 -0.57288253 0.6161441 0.49186683 0.21306758
-0.8299074 -0.9569256 -0.33025566 -0.42695928 -0.86494124 -0.86928463 0.8370648 -0.5304516
0.3809154 -0.73648167 -0.42736554 0.18981653 0.15636022 -0.11280774 -0.6819994 -0.28993157
-0.3191859 0.33399954 -1.0606464 -0.43430373 -0.8454431 0.9187678 0.71231467 0.88006634
-0.7729494 -0.050484516 -0.8118978 0.97339594 0.4285677 -0.87675905 -1.9954928 0.036706623
0.5394947 0.15182474 0.058387842 -0.028419433 0.9609687 0.43891796 -2.2601533 -0.45990518
-1.3822093 0.5503182 0.18730855 -1.2353035 -0.23648572 -0.70388967 1.0146633 0.099134386
-0.40286106 -1.2653259 0.34314305 0.89644843 -0.21466622 -0.69873583 -1.7278552 -0.6533358
0.10575135 -0.13308263 0.3764121 -0.019291457 0.1123613 -0.046994172 -0.11367 -0.85123205
-0.29968783 0.69424033 -0.07693863 -0.036170654 0.15946251 -0.38858536 -0.168679 0.026424129
0.21847266 0.16344209 -0.18624583 -0.17420985 -0.12727946 -0.50263005 -0.5186018 0.07700545
-0.2850691 0.013125935 0.3640698 -0.32480142 0.080525786 -0.005141698 0.08685104 0.16152743
0.61092865 1.1274477 0.8158408 1.05267 0.26549432 0.9584715 0.92970556 -0.0068513243
1.9302404 -0.0638164 0.32325277 -0.31684196 0.92634803 1.0192673 1.0731081 -0.53927076
0.15196459 1.031962 0.25248846 0.5079863 0.60011125 0.22440438 1.173234 0.26071963
0.8817313 0.74259305 0.5845757 1.456647 0.18271792 -0.59991866 0.881024 0.010457853

Decoder.lstm_layer.bias_hh_l0 f4 [128]
00000000: 6093 d33e d222 fb3c c798 38bf 1f0d 20bf
00000010: 8779 44bf 6e18 ba3e 8c49 e03e 4859 8cbc
00000020: 58a8 20bf 52e8 65bf 1dbf f5bd f542 00bf
00000030: 3476 68bf f36d 51bf 2ed4 4d3f e42d c5be
00000040: d098 d03d 3049 07bf d3c1 efbd 2671 babd
00000050: 48cc de3d 1b79 15be 4df7 0dbf 77aa b4be
00000060: 7eae 31be 9915 983e b8a8 94bf f21c bfbe
00000070: 6e3b 3bbf 5cc9 463f 84d3 1f3f a881 743f
00000080: ae37 40bf 2add e33c 0bf1 21bf df67 463f
00000090: df9d e23e 63ce 2fbf 6dba fcbf 638c be3d
000000a0: b5fb e63e a438 e3bc 07be e4bd 9f6b 3abe
000000b0: 095b 873f 81af 9d3e 0b09 01c0 5527 22bf
000000c0: 85bb d6bf 1325 3d3f eede b7bc 3b20 96bf
000000d0: 6436 cabe e0cd debe 7624 513f 67ab 973c
000000e0: 9019 c4be a076 a4bf 8be4 c63e 57de 463f
000000f0: bad3 3bbe 1d89 40bf 9df6 f0bf a19a 59bf
00000100: 2a87 5abb 7a20 713c 1c88 193e 5c28 f43d
00000110: 81d2 18bd 6365 243e c62e a73d 4924 5bbf
00000120: 8475 11be 0fd1 363f 8901 513e c4fd 823d
00000130: df95 8ebd e039 9fbe b347 7b3d ccae 8ebd
00000140: 779f 813e ba81 b9bc 27ce b1bc 7c8a 08be
00000150: 7bf9 50bd d819 eebe 61c3 7cbe cff3 1c3e
00000160: b412 4bbe 9d52 113c 6eeb 4d3e b373 dbbe
00000170: 87c6 3dbc 5394 10bc 4712 133e d3a6 e13e
00000180: 6544 2b3f 3ebd 9f3f 0d65 803f 924c a23f
00000190: 17dd 333e b942 7e3f cbdf 583f 0f05 c2bb
000001a0: 69eb fc3f 86f8 a0be 543d a93e 7a45 91be
000001b0: c49f 933f ab8c 863f 7259 8a3f 3ffb 10bf
000001c0: 5ea2 1f3e 87c7 8a3f cd00 4b3e 6acc 043f
000001d0: 6afc aa3e f205 a23d d1c0 6c3f d41b 123f
000001e0: f1c4 633f 5d34 073f d0e1 173f 1d82 b93f
000001f0: 7ade 813e 77da 1ebf ee90 1e3f b182 bc3c
0.41323376 0.030656252 -0.7210812 -0.6252002 -0.76747936 0.36346763 0.43806112 -0.017132416
-0.6275687 -0.8980762 -0.119993426 -0.5010217 -0.90805364 -0.81808394 0.80401886 -0.38511574
0.10185397 -0.5284605 -0.11706891 -0.091036126 0.10878807 -0.1459698 -0.55455476 -0.35286304
-0.1735172 0.29703978 -1.1613989 -0.3732677 -0.7313756 0.77651 0.6243212 0.9551034
-0.7508496 0.02781542 -0.6325843 0.77502245 0.4426107 -0.68674296 -1.9744393 0.093041204
0.45113912 -0.02773697 -0.11169057 -0.18205117 1.0574657 0.3079796 -2.016177 -0.63341266
-1.6775976 0.73884696 -0.022445168 -1.1728586 -0.39494622 -0.43516445 0.8169626 0.018514348
-0.38300753 -1.2848701 0.3884624 0.77683014 -0.18342486 -0.7520922 -1.882526 -0.8500157
-0.0033344724 0.014717216 0.14993328 0.119217604 -0.037310127 0.16054301 0.08163218 -0.8560224
-0.14204985 0.7141275 0.20410742 0.06396058 -0.069621794 -0.31098843 0.061347675 -0.069669336
0.25316975 -0.022644866 -0.021704746 -0.13334078 -0.051019173 -0.46504092 -0.24683906 0.1532738
-0.19831353 0.008869794 0.2010934 -0.4286171 -0.011582977 -0.008824426 0.14362441 0.4407259
0.66901237 1.2479627 1.0030838 1.2679617 0.17564808 0.9932056 0.8471648 -0.005921013
1.9759341 -0.31439608 0.33054602 -0.2837332 1.1533132 1.0511678 1.0808547 -0.5663337
0.15589282 1.0842141 0.19824524 0.5187441 0.33395702 0.0791129 0.92481714 0.5707371
0.88972384 0.52814275 0.5932894 1.4492832 0.2536505 -0.620521 0.61939895 0.023011537

Decoder.fc.weight f4 [1, 33]
00000000: 1816 6b3f e043 c53f 8fd8 b13d 61b6 ce3f
00000010: 20b4 c4be 2fcd 853f 6f9f b3bc 286d 35bf
00000020: bed6 e53e 1d97 1c3d 9a95 cd3e 5333 c53d
00000030: 73dc 5dbf d1b5 ddbf 96c0 593f bd9f e53e
00000040: b764 233f e2c9 2740 b2a0 9bbf f1fd 38bf
00000050: 784f b8be 09f5 4e3e 0655 4c3f 8565 033e
00000060: 3852 92bf 9814 1940 771d c1be a123 a73f
00000070: 14c1 ac3f 2306 a13e fe5f ffbf 0f4f aabd
00000080: 77c9 abbf
0.9183059 1.5411339 0.086838834 1.6149408 -0.38418674 1.0453242 -0.02192661 -0.70869684
0.44890398 0.03823005 0.401532 0.0962893 -0.86664504 -1.7321111 0.8505949 0.44848433
0.63825554 2.621697 -1.2158415 -0.72262484 -0.3599813 0.20210661 0.79817235 0.12831695
-1.1431341 2.391882 -0.37717792 1.3057748 1.3496423 0.31449994 -1.995117 -0.083158605
-1.3420857
