result/ver6/last.pt (torch, 233574 bytes, 57 tensors)

Encoder.encoder_lstm.weight_ih_l0 f4 [128, 6]
00000000: 5c26 f83e f52a 0d3f 9288 90be b8e5 393f
00000010: 2f9d 533f 4a38 a93e 1d14 0abf abc3 41bf
00000020: 2e0f 02bf 8b0d edbf fdeb 5bbf c5f0 a4bf
00000030: 68b7 a5bf faba 393f b1f5 ccbe 8bec b8bf
00000040: 7cc1 07c0 f708 603f 1b64 a4bf 90fa ba3f
00000050: 867c 133f 69ae 473f dbf8 90be 168f 0f40
00000060: 943e 7abf 95f8 2bbf d3f0 713d dcb4 053d
00000070: 4545 a8be ae8b 79bf eea5 19bf 58e7 9abf
00000080: cf35 733f 962c f03e 0787 3ebf cd34 b73e
00000090: 3c0b c3bd c034 1ebf 9acc 74bf 1bcf 113f
000000a0: 4235 733e 17c6 14bf 6014 be3d 1822 023f
000000b0: 8818 9abf 6776 4dbd 29e4 713f aa15 dbbf
000000c0: 71da 2b3f 6787 813e 46d4 d13f 35bc e6be
000000d0: 1e6e 1d3e 22a7 b03f 092d 02c0 a26e bcbe
000000e0: c8c7 46bf 3d4f 7f3f 3ec8 303f 8418 0bbe
000000f0: 0c6b 1cbf 60ea 823f 4a7a 06bf 48b3 7bbf
00000100: 855e 81bf 8ade a53e 46cf 48bf cbe0 f03e
00000110: ce7e 3b3f 9a9b 933e 8008 323f 9e20 163f
00000120: c9b5 1cc0 8763 8bbf a961 27bf e6b6 fe3e
00000130: 1e7f 9b3f 702c 353f e2e9 683d ff10 603e
00000140: 8003 b73f b49d 053f 7bd8 98bf bd89 cb3f
00000150: db52 5c3f 9b9e 3cbf 03b1 ffbe b452 fa3f
00000160: d419 ac3f e9fd 033e f196 3b3f cc2f a73f
00000170: dd83 343f 9951 663e 620c 91bf 6a33 663f
00000180: f507 3abf b36a 103e ec26 42be 9d5c 2b3f
00000190: debc 753f a286 48bf 6d7b a0be 7ff5 96bf
000001a0: ac48 813e 224d 1cbf b0de 4dbf 3f19 f83e
000001b0: 947a 2a3e 7093 5dbd 8696 693f 694a 7d3f
000001c0: fd7c 213f 0be8 d03f 4fb5 afbe 706e b23f
000001d0: cad6 153e 7fb5 c1be 5a1f b1bf 6364 c73f
000001e0: 0f2a 0a3f 4bdd a53d ee57 373f cbb2 aa3f
000001f0: 517c e03f e02c 863f dbae 03bf 770d 093f
00000200: 7abd a7bd 9efa 13bf 569e dbbe b076 653f
00000210: 2edf 4b3f ca7a 9a3f aef8 fa3e e918 623f
00000220: aa37 c33f e3cf dfbe e40a f0bf f0de cbbf
00000230: 6b06 bdbd e784 92bd 35b3 123f e787 c9be
00000240: 39ea 2c3f 8f27 343f e15f ff3f 73a0 ae3f
00000250: 74d1 2c3e 92d5 d93f 490e 9fbf 36ec 19bf
00000260: fa78 80be 38c4 10be 889f 3b3f 6bfb 73bf
00000270: 6ed8 4ebf 8ee5 1bbf 532a 573f be80 2a3f
00000280: 12b0 813f 0865 003f 1a80 88bf 09c8 6bbf
00000290: 3fe6 fabd 370d b9be 06f9 7cbf 41d2 ae3e
000002a0: 2e87 9d3c 96ed 33bf 64aa 883f 57f3 94be
000002b0: 16e7 7cbf 59ba a13e 16ff 433f ad0e ae3f
000002c0: 66f2 b03f fdd8 603f 07be 883f 7904 0040
000002d0: 1928 a8bf bf31 82be d2c0 52bf 0424 a5bf
000002e0: 390c ffbc 0048 a8bd 44e5 9f3f 57e4 223f
000002f0: 2538 c73f ca4d 10c0 217b d5bf e31d c3be
00000300: 32b7 61bf 1d5b 92bf 69a3 c9bf fb1b c3bf
00000310: 1ce1 88bf a94b c8be 0f00 54bf b2d8 0d3f
00000320: ba3e 35bf 5d54 0e3f 609f a33f addf 723e
00000330: 1dd4 11bf ca80 cdbf 3aa5 4fbf 1ec7 5dbf
00000340: b6e8 31bf e915 8fbf 4452 ddbe 1279 89bd
00000350: 09ab 7d3e 4de6 0bbe 58d5 2bbe 2c41 5f3f
00000360: 9946 ecbf d81e 5dbf 8648 e8bc c9bd 2dbf
00000370: 3f01 82bd 058f 1ebf c931 24bf 1823 a8bf
00000380: 9c85 d4be f650 35bf e3b4 f8bd 5fc2 b9bf
00000390: 8886 9b3f 7cfa c0bf 9e5d 57be b398 82bf
000003a0: 98c0 9cbf 1ce2 abbf 84a3 733e 1b08 6fbf
000003b0: 4810 c1be 45fc 10bf 4524 813e ad6a 81be
000003c0: 5c6b f93f 042c e6bc 71ae 1140 cabf 8bbe
000003d0: 6579 1a3f 8c0a 7d3f 5f41 f1bf 85fd e9bf
000003e0: bd84 84bf 6089 d03e 2813 3a3f 347a 93bf
000003f0: fe62 46bf df2e 49bf fd73 1bbf 38f5 c5be
0.48466766 0.5514367 -0.28229195 0.7261615 0.8266172 0.33050758 -0.5393694 -0.7568919
-0.5080441 -1.8519758 -0.85906965 -1.2885977 -1.2946596 0.7255093 -0.40031198 -1.4447187
-2.1211843 0.8751368 -1.284305 1.4607716 0.5761188 0.78000504 -0.28314862 2.2431083
-0.97751737 -0.6717618 0.05906756 0.032643184 -0.32865348 -0.9747876 -0.60018814 -1.210185
0.9500398 0.46909016 -0.74424785 0.3578247 -0.09523627 -0.6179924 -0.956247 0.5695664
0.23750785 -0.5811476 0.0928123 0.5083327 -1.2038736 -0.050161745 0.9448877 -1.7115986
0.6713019 0.25298616 1.6392906 -0.45065466 0.15374038 1.3801005 -2.0339987 -0.36803156
-0.7764859 0.99730283 0.69055545 -0.1358357 -0.6110084 1.0227776 -0.5253035 -0.98320436
-1.010697 0.32396346 -0.78441274 0.47046503 0.73240364 0.28829652 0.6954422 0.5864352
-2.4485953 -1.0889748 -0.6538339 0.49748915 1.2148168 0.7077093 0.056863673 0.21881483
1.4297943 0.5219376 -1.1941065 1.5901409 0.8606393 -0.7367951 -0.49939737 1.9556489
1.3445382 0.12889828 0.73277193 1.3061461 0.7051371 0.22492065 -1.1331904 0.899222
-0.7266839 0.14103203 -0.1896016 0.6693819 0.95991313 -0.78330433 -0.31344166 -1.179367
0.25250757 -0.61055195 -0.8041792 0.4845676 0.16648322 -0.054095685 0.91245306 0.98941666
0.6308134 1.6320814 -0.34318015 1.3939953 0.14632717 -0.37833783 -1.3837693 1.557751
0.53970426 0.08098849 0.71618545 1.3335813 1.7537938 1.0482445 -0.51438683 0.5353617
-0.08190437 -0.57804286 -0.42894238 0.8963423 0.7963742 1.2068722 0.49017853 0.8831926
1.5251362 -0.43713292 -1.8753324 -1.592741 -0.0922974 -0.07154255 0.573047 -0.39361498
0.67544895 0.7037286 1.9951135 1.3642715 0.16876775 1.7018301 -1.2426234 -0.60126054
-0.25092298 -0.14137352 0.732903 -0.9530551 -0.80798995 -0.6089715 0.84048957 0.66602695
1.0131857 0.5015416 -1.0664093 -0.92102104 -0.12250947 -0.36142895 -0.9881748 0.34144786
0.019229498 -0.702844 1.0676999 -0.29091904 -0.9879011 0.31587484 0.76561105 1.3598229
1.3823974 0.878311 1.0682992 2.000273 -1.3137237 -0.25428578 -0.8232547 -1.2901616
-0.031133758 -0.08216858 1.2491841 0.6362967 1.5564009 -2.2547479 -1.6678201 -0.3810874
-0.8817016 -1.1434056 -1.5752994 -1.5242914 -1.0693698 -0.39120224 -0.8281259 0.55408776
-0.7079884 0.5559748 1.2783012 0.23718138 -0.56964284 -1.6054928 -0.8111149 -0.86631954
-0.69495714 -1.1178561 -0.43226826 -0.067125455 0.24772276 -0.13662072 -0.16780603 0.8720882
-1.8459045 -0.8637519 -0.028354894 -0.67867714 -0.06347894 -0.6193698 -0.64138466 -1.313571
-0.41508186 -0.7082666 -0.121438764 -1.4512442 1.2150431 -1.5076442 -0.21031806 -1.020285
-1.2246275 -1.3428378 0.23792845 -0.9337174 -0.37707734 -0.5663493 0.25222984 -0.252767
1.9485888 -0.02809716 2.276272 -0.2729476 0.60341483 0.9884422 -1.8848075 -1.8280493
-1.0353009 0.4072981 0.7268548 -1.1521668 -0.774948 -0.78587145 -0.6072386 -0.3866365

Encoder.encoder_lstm.weight_hh_l0 f4 [128, 32]
00000000: 3576 763f 6912 db3e 86ce 8b3f 5f15 7f3e
00000010: 095a 1b3f 84b2 b73f d210 1d3f 6d1c d6bf
00000020: 73fb 95bf 0281 cebf 5fb1 963e c750 4d3f
00000030: 3e15 9b3f b6aa abbf 5c59 51bf 1c0e e3be
00000040: 0a30 9f3f 62f7 153f 9c77 593f 2aa6 88be
00000050: 76be 61bf 4334 fa3e 0c81 55be 32b0 c2bf
00000060: 17fd 80bf 9b09 92bf 0812 663e 7758 10bf
00000070: d204 5c3e edc6 993f 7bef ba3e 391d 8fbf
00000080: eb51 93bf f5ac dd3f 0f56 223f efbc 863f
00000090: 0cbf 62bf c4b0 013f 5ac0 84be 8560 a63f
000000a0: 94d4 4fbf c1b7 053e 0cfe c6bf 4891 e4be
000000b0: 8276 2b3f acec 6c3e 6e78 9abd 1964 acbf
000000c0: 3db6 48bb de06 d53e 5eb7 41bf 7697 033f
000000d0: 6de5 b73f 58e1 0e3c 8c6a 0dbe d46e c6bf
000000e0: 4f5e 2b3e b550 613e e94b 13bf 9503 fe3e
000000f0: fb4c 03bf 6c86 5b3f 5ad3 e63f ed49 6dbf
00000100: 65ba 583f ee83 7a3e a866 0bbf 5ab0 dc3e
00000110: b734 9ebe bf7b 003f 085c 573f 49b3 90be
00000120: 5daf 383e 5cf0 683f f872 b53f bdb3 a8bf
00000130: d29e b33e 017a f2bd 6f8e 6c3e 8ab9 0e3f
00000140: 81d8 b33d 4c3e e23c 0fe0 a7bf 827e 2a3d
00000150: 8270 df3e a572 abbf 77c7 acbe b9f2 a6bf
00000160: de33 543f fdcc 853e 02b7 263f 1ab2 623f
00000170: 5462 7fbe 914f f93f ed11 403f 6ba0 eebd
00000180: 5b0e df3e 100f 2a3f 9938 1dbf e080 953d
00000190: 547e 07bf 941a 813e cc74 35bf a449 073e
000001a0: d6e3 81be 49ea b13e c933 ebbe 2354 bfbe
000001b0: 9a86 b03f b479 a9bd 8ebc 163f f2f8 203f
000001c0: 635f bb3e ecd1 ba3e ae3c 213f 61ba 2e3f
000001d0: b1e7 01be 06a8 773f 5f00 f3bf 4787 89bf
000001e0: d2f2 6bbe f2f5 fcbf 8c5d ff3e ef5e 6b3e
000001f0: 7e97 383f 582a 24bf 7415 663f 399c 253e
00000200: cfc6 1dbf 57ae 283f 9c87 fd3e 1e4e 83bf
00000210: 48d6 023f e2a2 8c3e 58b1 503e 7415 c33e
00000220: 2554 96bf 9e1e 4fbe 9bb4 76be 929d c33e
00000230: b67a 463f 3276 76bf 242e b03f 0a95 e13e
00000240: 97aa 2e3f a65d a3bd 28c0 46bf fd1d 523e
00000250: 5985 30bf 8b93 a2bf 219c 9abf 1c42 2bbf
00000260: becb 2b3f fd23 bebf 37c1 983f e87f 963f
00000270: b8c4 9fbe 48b8 9d3e 05d9 0cbf 5b31 ffbf
00000280: ea91 ab3e 1aab 0c3f 182a ccbe 88f0 d43d
00000290: 838e e8be 4fc9 48bd 1d1d b6bc 89e0 44be
000002a0: 0d42 623f 21c7 a23d b535 c1be 16c4 60be
000002b0: 6a4a 4b3e 5fc8 debe faaa 97be 7805 183f
000002c0: 83da 8dbf c344 a53e b8f4 913f 1db3 2b3e
000002d0: 3158 6c3f 5bab 10be bc13 f2be 1577 743d
000002e0: abf0 a63d 5f3f 4ebd e533 073f 32b7 c9be
000002f0: eaf7 5fbf 8225 56be 9864 ee3e e930 013e
00000300: a1b0 2b3f d9ff d03e ed45 91bf 9951 143f
00000310: 6ec0 0cbf 3bd1 37bf 82d3 17bf 3b8d dcbd
00000320: 2d8c 863f a530 683f 25fd d5be a0b6 3d3c
00000330: caa7 cdbe a81e 163f 728c ba3e 7015 953e
00000340: 666e 42bf 62c4 9bbf f3e3 c23e a247 a63f
00000350: 7dac 6dbb 64db c7bf 9ce0 b73d 210c 16bf
00000360: cc6b 8d3f 6b17 61be 381a 8a3f ed50 ad3f
00000370: d93d 9abf e315 38be 7085 85bf 9497 513e
00000380: 66aa b43f 8d18 003e 5aa2 343e af04 923f
00000390: e1f4 b5be ea42 a0bf f135 cf3d cc9e 7cbf
000003a0: 7118 833f e6dd 443d 5d8d 99bf eef9 1cbe
000003b0: b93a b2be 4082 acbe 6d68 983e e509 b63d
000003c0: f2b2 1ebc 6075 cebf 9577 223e e60b 433f
000003d0: b680 a0bf e3f2 4cbf d0e0 8ebe 69cf 8b3c
000003e0: aedb 2c40 0995 e33e 0467 7f3e 2569 a93f
000003f0: 0d7b 9cbc eb5d 87bd 9765 edbe e830 febf
0.9627412 0.42787483 1.0922401 0.24910496 0.6068426 1.4351354 0.6135379 -1.6727425
-1.1717361 -1.613312 0.29432198 0.8020138 1.2115858 -1.3411472 -0.81776977 -0.44346702
1.2436535 0.585806 0.84948134 -0.26689273 -0.88181245 0.48867998 -0.20850009 -1.521002
-1.0077237 -1.1409181 0.22467816 -0.56384987 0.21486214 1.2013832 0.36510834 -1.1180793
-1.1509374 1.7318407 0.63412565 1.0526408 -0.88572764 0.5066035 -0.25928003 1.2998205
-0.81183743 0.13058378 -1.5546279 -0.4464209 0.66977704 0.23137158 -0.075425014 -1.3468047
-0.00306262 0.41606802 -0.7567042 0.51402986 1.436689 0.008720718 -0.13810176 -1.5502572
0.16735195 0.22003444 -0.57537705 0.49612108 -0.5128934 0.85751987 1.8033249 -0.92690927
0.84659415 0.2446439 -0.54453516 0.43103296 -0.30899593 0.5018882 0.84124804 -0.28261784
0.18035646 0.9099176 1.4175711 -1.3179852 0.35082108 -0.11839677 0.23101209 0.5575186
0.08781529 0.027617596 -1.3115252 0.041624554 0.43640524 -1.3394362 -0.3374593 -1.3042823
0.82891643 0.26132956 0.65123 0.8855301 -0.24939853 1.9477407 0.7502735 -0.11651691
0.4356564 0.66429234 -0.61414486 0.072999716 -0.52927136 0.2521559 -0.7088134 0.13211685
-0.25369138 0.34749058 -0.45937946 -0.3736888 1.3791077 -0.08275166 0.5888146 0.6287986
0.36596212 0.36488283 0.62983215 0.6825314 -0.1268604 0.9674076 -1.8984488 -1.0744408
-0.23041847 -1.9762557 0.49876058 0.22985433 0.7210616 -0.6412711 0.89876485 0.16172875
-0.6163148 0.6589102 0.49517524 -1.0258214 0.5110822 0.2746802 0.20380151 0.38102305
-1.1744429 -0.20226523 -0.24092333 0.38206154 0.7753099 -0.962741 1.3764081 0.4405902
0.6822905 -0.079768464 -0.7763696 0.20519252 -0.6895347 -1.2701277 -1.2078897 -0.6689775
0.6710776 -1.4854733 1.1933964 1.1757784 -0.31204772 0.30804658 -0.55018646 -1.9936937
0.3350976 0.5494858 -0.39875865 0.1039744 -0.45421228 -0.049020108 -0.02223068 -0.19226278
0.88382035 0.07948137 -0.37736288 -0.21949801 0.19852605 -0.43512246 -0.29622632 0.59383345
-1.108231 0.32279024 1.1402807 0.16767545 0.9232207 -0.14127867 -0.4728068 0.059683878
0.081513725 -0.050353404 0.5281356 -0.3939758 -0.8748766 -0.20912746 0.46561122 0.12616314
0.6706639 0.40820196 -1.1349465 0.5793701 -0.54981124 -0.71803635 -0.5930711 -0.10769125
1.0511528 0.90699226 -0.41794696 0.011579186 -0.40167075 0.5864053 0.36435276 0.29117918
-0.75949705 -1.2169306 0.38064536 1.2990611 -0.003626614 -1.5613828 0.08978388 -0.5861226
1.1048522 -0.2198159 1.0789251 1.3540322 -1.2050124 -0.17977099 -1.0431347 0.20467979
1.4114501 0.12509365 0.17640057 1.1407679 -0.3553839 -1.252042 0.101177104 -0.98679805
1.0241834 0.04806318 -1.1996266 -0.15329716 -0.34810427 -0.33693123 0.2976717 0.08888606
-0.009686219 -1.612957 0.1586593 0.7619003 -1.253928 -0.80058116 -0.27905893 0.017066674
2.7009082 0.44449642 0.24941641 1.3235213 -0.019101644 -0.0660971 -0.4636657 -1.9858675

Encoder.encoder_lstm.bias_ih_l0 f4 [128]
00000000: 68db b13d 7cef 813e 6be5 15bf 9f24 c1be
00000010: 3733 363e 0a7d 6dbe e5dd ae3d 6f7c 2b3e
00000020: c469 a7be 08a6 0abf 0701 1abf 6e38 82bf
00000030: 5332 48bf 921c 12bf c7a0 45bf a787 43bf
00000040: 7080 743e 0819 d9be 5ee5 a1be 5017 02bf
00000050: b454 fcbe 8cdc d03d d14a b8be e553 cc3b
00000060: af33 5abf 2729 2fbf 1a17 93be cfbe 62bf
00000070: 47b3 d53d 6770 20bd efba 47be 49f2 48bf
00000080: 9c8b f9bd ffcf 60bf db98 f1bd fa76 c5be
00000090: ebbc 85bf 1a21 683f f29b fd3d fe73 0ebf
000000a0: d799 f7be cdd6 cdbc 99f5 9cbd e924 9f3d
000000b0: c972 a73d ad2c 6f3d 135a cc3e bda9 aebe
000000c0: 97c2 c0bf 133a c73f 0bbe debc df76 243f
000000d0: 5339 60bf 3775 ddbc 3c53 5dbe c3d1 bb3e
000000e0: e28a 7c3e ccbc 1abf e00c b9be 78df 153f
000000f0: 44a5 513f 19af 72bf fce9 1fbf 8f5f 00be
00000100: 1ce3 c63c d0a6 a3be 91e7 ca3e 77d9 afbb
00000110: e096 04be bcba 24be caa4 a33e 8192 59be
00000120: 47b1 593e b74e 8bbd 3ceb c03d 204b 123e
00000130: e0a8 5d3e 5e2a 3bbd 7f52 8f3e 11be 8e3e
00000140: bf31 883d 953a 17ba 8222 46be 8cb3 f7bd
00000150: 0401 563e 35f3 88bd adc4 cd3b c91c 423e
00000160: dfc6 0b3e 1f87 22be ac47 5f3e 0c9d 9ebe
00000170: 2f8b aabe e0ef 013e a1e3 1ebc da1c 533e
00000180: 2d37 b0be f49f 78be 6528 0dbf 5734 67be
00000190: adf7 96be cad7 a9be 0604 cf3d 8135 b13c
000001a0: bac5 5cbf f10b 2ebf 14cc 07bf 7ba9 ccbe
000001b0: 49b2 01bf 1cfa d9be 9a7c 5ebe f16f dcbe
000001c0: 1e71 b03d 12b8 bfbd 494f 38be 0959 e4be
000001d0: 6773 e6be 3515 55be ee1d babe 652b 32bf
000001e0: b3a8 54bf 9d2c 02bf 575a 98be 1b66 39bc
000001f0: 2ac9 85be a472 63bf 271c edbe a29e 6fbf
0.086844265 0.25378025 -0.5855319 -0.37723252 0.17792974 -0.2319223 0.08538417 0.16746686
-0.3269788 -0.54159594 -0.6015782 -1.0173471 -0.7820179 -0.57074845 -0.7719845 -0.76378864
0.2387712 -0.4240191 -0.31620306 -0.5081682 -0.49283373 0.10198316 -0.3599458 0.006235587
-0.8523511 -0.6842217 -0.28728563 -0.885724 0.10434585 -0.039169695 -0.19504903 -0.784947
-0.121848315 -0.87817377 -0.11796733 -0.38567334 -1.0448278 0.9067551 0.1238326 -0.5564574
-0.48359558 -0.025126839 -0.076640315 0.07770712 0.081761904 0.058392216 0.3991247 -0.34113875
-1.5059384 1.5564598 -0.027190229 0.6424388 -0.8758747 -0.027033431 -0.21613783 0.36683473
0.24662355 -0.6044433 -0.36142635 0.5854411 0.818928 -0.9479843 -0.62466407 -0.12536453
0.024278216 -0.31963205 0.39629796 -0.0053665 -0.12948179 -0.16086859 0.31961662 -0.21247293
0.21259032 -0.06802123 0.094198674 0.1428647 0.21646452 -0.0456947 0.27992627 0.27879384
0.06650113 -0.0005768922 -0.19349101 -0.12094793 0.20898825 -0.06687013 0.006279549 0.18956293
0.13650082 -0.15871857 0.21804684 -0.30979192 -0.33309314 0.12689161 -0.009697826 0.20616475
-0.34417096 -0.24279767 -0.5513976 -0.2257856 -0.29485837 -0.33172446 0.10108189 0.021631958
-0.86239207 -0.6798697 -0.53045774 -0.39973053 -0.50662667 -0.4257363 -0.21727219 -0.43054155
0.086153254 -0.093612805 -0.17998995 -0.44599178 -0.4500992 -0.20808871 -0.3635096 -0.69597465
-0.83069915 -0.50849324 -0.29756424 -0.011315848 -0.26130038 -0.888468 -0.4631054 -0.9360143

Encoder.encoder_lstm.bias_hh_l0 f4 [128]
00000000: c2fe 413a ece7 3f3e 80ee 19bf c418 bcbe
00000010: 6010 75bd 36b5 57bd bd04 3ebd 58aa 403e
00000020: 8a1c 4abd f0fc 11bf df70 5dbf c915 45bf
00000030: 9d5e 47bf 26eb 3fbf 0df9 52bf ddfa 1bbf
00000040: 24a6 773e 9cc0 33bf da49 babe e070 0bbf
00000050: 00d9 e0be c693 4b3d 02f7 dabd ae93 50be
00000060: 79af 83bf 5063 05bf 0860 46be bd0f 5bbf
00000070: 165c 5ebd c2f7 7bbe e221 c9bd 10e0 40bf
00000080: d0e2 9abe 10a0 5cbf 739f 61be b895 13bf
00000090: 468a 85bf 4e1e 373f 3365 a63d fbf7 4cbf
000000a0: c694 9fbe 649f a8be 637a 10bc 5c2b c23d
000000b0: 85b0 53be 2a11 b43d fff5 a03e 4a7d e6be
000000c0: fcdf d1bf ea51 b43f 367c 423e 78dc 3f3f
000000d0: adbf 6dbf d37a 9d3d b9ea 8bbe a28b 5e3e
000000e0: 281f 763e af1a 45bf 6177 b9be 327f 4b3f
000000f0: afad 373f 65cf 6bbf 7252 12bf daef a7be
00000100: 5989 333d b836 a7be aac7 0a3e b4cb 603e
00000110: df42 01be 8637 553d 2142 ca3a 30fd 57be
00000120: a86c cdbd bf3d 943d e73c 133e d285 1d3d
00000130: f2cb ae3d 1d21 78bd f9a0 9e3e 01d7 663e
00000140: 0366 d1bd 2566 f73d faa0 99bd 6d53 03be
00000150: 052c b93d d1ed a4bd 84b5 103e 893e 063c
00000160: 5df8 213e 9d83 abbe 0049 cd3d 50e0 93be
00000170: 8a5a dcbe e0d2 b13d 97dc 08be 1555 3a3e
00000180: d0af 58bd 45d4 b03c 8556 d5be d690 96be
00000190: a1ce a3be bc52 1dbe c0b8 94bc 675c 113e
000001a0: 15b2 40bf 96b8 2bbf 6d7b 18bf 7407 19bf
000001b0: b62d c3be daff bdbe 622a 13be e63a f4be
000001c0: 99ca cc3d 9d57 b4be 84f0 1abe 18cb 0cbf
000001d0: 9be9 d3be 8727 b3bd cf4f acbe 4128 46bf
000001e0: d5bb 20bf d109 03bf 7998 08bf c98a 623c
000001f0: b693 cdbe 3acf 38bf e9d3 1cbf 2a66 24bf
0.00074003276 0.18740815 -0.6012955 -0.36737645 -0.05983007 -0.05266305 -0.046391238 0.18814981
-0.049343623 -0.57026577 -0.8650035 -0.76986367 -0.77878743 -0.74968183 -0.8241127 -0.6092966
0.24184471 -0.70215774 -0.3638447 -0.5446911 -0.43915558 0.049701475 -0.10691644 -0.20368835
-1.0287925 -0.52104664 -0.1937257 -0.8557089 -0.05428704 -0.24606231 -0.09820916 -0.7534189
-0.3025117 -0.86181736 -0.22033481 -0.5765033 -1.0432823 0.71530616 0.08124771 -0.8006589
-0.31168193 -0.32934105 -0.008818242 0.094809264 -0.20672806 0.08792336 0.3143768 -0.45017463
-1.639648 1.4087498 0.18992695 0.74945784 -0.928706 0.076894425 -0.27327517 0.21732953
0.24035323 -0.7699384 -0.3622389 0.7949096 0.71749395 -0.92113334 -0.5715705 -0.3280018
0.043832157 -0.32658935 0.13552728 0.21952707 -0.12623166 0.052054904 0.0015431085 -0.21092677
-0.1003049 0.0723834 0.14378701 0.0384577 0.08534993 -0.060578454 0.30982187 0.22542955
-0.10224535 0.120800294 -0.07501407 -0.12824793 0.09041599 -0.080531724 0.14131743 0.0081936205
0.158174 -0.3349885 0.10023689 -0.28882074 -0.43037826 0.08682799 -0.13365398 0.18196519
-0.052902043 0.021585593 -0.41667572 -0.29407376 -0.31993583 -0.15363592 -0.018154502 0.14195405
-0.7527173 -0.6707853 -0.5956333 -0.59777 -0.38120812 -0.37109262 -0.14371637 -0.47701186
0.0999958 -0.35223094 -0.15130812 -0.54997396 -0.41389164 -0.087477736 -0.3365464 -0.7740517
-0.6278661 -0.51186854 -0.53357655 0.013827034 -0.40151757 -0.721912 -0.6126085 -0.6421839

Encoder.encoder_attn.0.weight f4 [20, 84]
00000000: 28db 0b3a d1e7 9c3e fdb3 2abf e2ee 06be
00000010: 3764 7a3e 2c94 b9be a6fa 82bf 9e5e cb3f
00000020: f394 c13d a130 1bbd 3055 bbbf 20e8 093e
00000030: 5de0 183f acf6 f63f 5117 203f 505c 4dbf
00000040: fed0 1e3f a240 663d 00f4 3d3f ba89 783f
00000050: bfbf 053e 5a93 75bf 87d7 4d3f 94f1 f43e
00000060: 53ae cabe 659d 82be 67b6 5c3f 9079 3b3f
00000070: 6e34 303f 9ed7 613f 95f6 0c3f eaf5 44bd
00000080: d5ec 173f 07dc 383f 5a4c 61bf de4e 2bbe
00000090: e538 f73d 834a 24bf c9c3 6cbf 4785 d13f
000000a0: df6c 1ebd 7cc7 843e a4e5 cabf 042e cabd
000000b0: 3ed3 ea3e 421e ef3f 04b0 483f bccd 52bf
000000c0: 4603 143f f9ba 19bf 8327 d33e 4e9b f03f
000000d0: f823 55be 583b a6bf 74f1 193f 6b10 b5bd
000000e0: e656 b1be d488 d9bd 3eac 0c3f bded 833f
000000f0: c249 433f 60a6 453f 3590 363e 0f90 f23e
00000100: 6cc0 163e 4a3a 41bf bbd7 033e 8882 aabe
00000110: 0410 01bf 7e0d e33c a1c9 e53d 1a9c f6bd
00000120: f0d4 cf3e 9c30 8f3d f8c1 16bf 57ec b4be
00000130: 3dc3 9abc 4994 0bbf 9f75 263f 5e5b 923f
00000140: e82b 8d3f d932 3e3f 0fa9 5abe 950a 3ebf
00000150: 2d6e 403f 8cfc c33f 8ae6 2c3f 7e0f 12bf
00000160: 0e96 34bf d944 473e 52d1 503f 1eec 97be
00000170: e46d 42bf 9382 0dbf 3f4f 38bf 6e96 4fbe
00000180: d431 913f a6f5 4bbe ccad 763d 6ab6 bebe
00000190: 413b 523f ce4a 93be 0547 953e 5c74 a6be
000001a0: 1777 a1bf 874f d6bd ed5d 9cbe c007 44bf
000001b0: 3741 873e d976 adbf eb4c a73f aeba 633e
000001c0: 4647 f63e a250 78bf a56c 13c0 d5cd 05bf
000001d0: f74a 813f db3c 9e3f f803 df3e 5088 66bf
000001e0: 5af9 2bbf 17ba 653e aae5 233f 0f5d 78be
000001f0: d990 57bf a811 13be 3258 4cbf 5494 4d3e
00000200: cf29 aa3f 85d3 5a3e f8b1 79be b603 27bf
00000210: 139b 593f 2aa2 a43d 33a4 473f 2e72 0dbd
00000220: 18e9 babf a475 9b3e 63fc fdbe a1af 61bf
00000230: 8e4f 783e eaa6 a1bf 6ee0 9e3f fb07 a73e
00000240: b479 383f f9b7 a7bf 501e 1ac0 2562 53bf
00000250: f3f1 f4bd 631a 093f f230 6fbe 2e2a 093f
00000260: b6d7 34bf 85bb 38bf 7889 5cbf 25ec b23d
00000270: 99a7 5bbf 765d 0ebf 0c90 9abe 27db 293f
00000280: ca0f 5c3f b3ee 8c3e b3ee 6e3f 5a30 883e
00000290: 332b 3d3f 9e91 6f3e 6625 94bd ace1 16bf
000002a0: bd6b e13f 247e 32bc b73b 57bf ea25 3c3f
000002b0: 327b 993e 8b73 1cbf da5d f2be a900 223e
000002c0: d348 ae3f 394e 2abf 9c7e 9dbe bf17 9abe
000002d0: 1b0b e0bf fb97 a63c 2581 44bf 0abe f83d
000002e0: 9d92 b5bf b476 3abe 5f20 cb3e 2820 7c3f
000002f0: 6efb 83bd e560 3a3f a169 2e3f a0a4 2d3f
00000300: 991e 1dbf 9340 033e 7fdd 5a3f 9d5e 36bf
00000310: 5def b53f 16ba 8f3e 2646 51bf 3056 ac3f
00000320: 9aec 2b3f 947f 173b 4db7 61bf bf4c 2a3f
00000330: 5cce fc3e 531b eabe 0def 08bf 8bb9 bb3e
00000340: 6520 0f3f c010 e2be 45c6 a0be f059 453d
00000350: 4732 c2be 93c9 b23e ed55 3fbf d279 033f
00000360: b6b9 9dbf a8e4 1b3e dfad 273e 6110 183f
00000370: 5145 78be 70c4 113f 4056 3b3f 003a ccbe
00000380: b7e5 a43e 4f1a a23e 3b80 8f3e 755f 20bf
00000390: a4db 9f3f 1981 eb3d 0b6f f8be 0c1f 873f
000003a0: b88b 10bd 1492 bfbd 5a92 0fbe 95fe 5f3e
000003b0: 21c5 fe3e 61d8 2c3d 9b73 be3d 1794 cc3e
000003c0: ee89 28be 2f8c 35bf fd9b e8bd 7342 0a3f
000003d0: f497 883f 6868 303f 70cb 2c3e 55aa 14ba
000003e0: 8424 40bf d147 28bf 9950 99bf 21e6 8d3e
000003f0: c01a 293f cfbc 723f 9830 8cbf 8fda 913e
0.0005335086 0.30645612 -0.6668089 -0.13177064 0.24452291 -0.3624586 -1.0232742 1.588825
0.09452238 -0.037888173 -1.4635372 0.13467455 0.5971735 1.9294028 0.6253558 -0.8021898
0.62037647 0.056213982 0.7420044 0.97085154 0.13061427 -0.95927966 0.80406994 0.4784056
-0.39586124 -0.25510707 0.86215824 0.73232365 0.6883 0.8821963 0.55063754 -0.048086084
0.5934575 0.72210735 -0.8800713 -0.16729304 0.12071399 -0.64176196 -0.92486244 1.6368798
-0.038678046 0.25933444 -1.5851331 -0.09872058 0.4586429 1.8681109 0.7839358 -0.82345176
0.57817495 -0.6005092 0.41241083 1.8797395 -0.20814502 -1.298686 0.60134053 -0.08841022
-0.3463661 -0.10621801 0.5495032 1.0306927 0.7628442 0.77206993 0.17828448 0.47375533
0.1472184 -0.7547957 0.12875263 -0.33302712 -0.5041506 0.027716395 0.11220098 -0.12041493
0.40592146 0.069916934 -0.5888972 -0.35336563 -0.018891925 -0.5452314 0.65023226 1.1434133
1.1029024 0.7429634 -0.21353553 -0.74234897 0.75168115 1.5311446 0.67539275 -0.5705489
-0.70541465 0.19459857 0.815694 -0.2967233 -0.7594893 -0.55277365 -0.7199592 -0.20272228
1.1343331 -0.19917926 0.06022434 -0.37248546 0.82121664 -0.2876801 0.29155746 -0.3251065
-1.2614468 -0.104643874 -0.3054041 -0.76574326 0.26416942 -1.3551894 1.3070349 0.22239181
0.48101252 -0.96998036 -2.3035061 -0.522672 1.0101002 1.2362322 0.43557715 -0.90051746
-0.67177355 0.22434269 0.64022315 -0.24254249 -0.84205395 -0.14362204 -0.79822075 0.20076114
1.3294009 0.21369751 -0.24384296 -0.6524004 0.8500225 0.08038743 0.77984923 -0.03453272
-1.4602385 0.3036319 -0.49606618 -0.88158613 0.24249098 -1.2629063 1.241224 0.32623276
0.72060704 -1.3103019 -2.4081001 -0.8257163 -0.11960211 0.5355589 -0.23358515 0.53579986
-0.7064165 -0.7216113 -0.8614726 0.08736447 -0.8580261 -0.5561136 -0.30188024 0.66350025
0.8596159 0.27525863 0.93332976 0.2659939 0.7389404 0.23395392 -0.07233696 -0.589381
1.7611004 -0.010894332 -0.8407549 0.7349535 0.29976803 -0.61113805 -0.47337228 0.15820564
1.3615974 -0.6652561 -0.30760658 -0.30096242 -1.7503389 0.020336142 -0.7675956 0.12145622
-1.4185368 -0.18209344 0.39673135 0.98486567 -0.06444441 0.728041 0.68129927 0.6782932
-0.61374813 0.12817602 0.85494226 -0.7123812 1.4213673 0.2807166 -0.81747663 1.3463802
0.671579 0.0023116814 -0.8817032 0.66523355 0.4937619 -0.45723972 -0.5348976 0.36664996
0.55908805 -0.44153404 -0.31401268 0.048181474 -0.37928984 0.34919414 -0.7474049 0.5135776
-1.23223 0.15223944 0.1637492 0.5939999 -0.24245192 0.56940365 0.7317848 -0.39888
0.3220651 0.31660697 0.2802752 -0.62645656 1.2488904 0.11499233 -0.4852222 1.055635
-0.035289496 -0.09354034 -0.14020672 0.21874459 0.49759772 0.042198543 0.09299394 0.39956734
-0.16458866 -0.7091703 -0.113578774 0.54007643 1.0671372 0.6890931 0.1687448 -0.00056711334
-0.7505572 -0.65734583 -1.1977721 0.27714637 0.6605644 0.9481935 -1.095233 0.2848706

Encoder.encoder_attn.0.bias f4 [20]
00000000: ffa4 473d 646d 3e3e b9d9 bdbe 6efe 37bf
00000010: 3379 1a3f 647f 6f3d 95b6 573f b969 a03f
00000020: 9691 1ebf dcb6 78bf e47c 533f a75e 833f
00000030: 5762 5cbf c537 a9bf 5119 8f3f 0251 bfbf
00000040: 0d0e 4c3f 26a4 61bf 808c 69bf d547 cbbd
0.048741337 0.18596417 -0.37080172 -0.71872604 0.60341185 0.0584711 0.84262973 1.2532264
-0.61940897 -0.9715402 0.8261244 1.0263261 -0.86087555 -1.3220145 1.1179601 -1.4946597
0.7970894 -0.88141096 -0.9123001 -0.0992581

Encoder.encoder_attn.2.weight f4 [1, 20]
00000000: 1e51 1d3e 9843 4dbe 66ac 5b3e 1827 5bbe
00000010: c22f a4be a92f 4f3e 1766 773e e7a7 a0be
00000020: f3c3 ecbe 9af6 b83e 6fac 5fbe 9f8f b6be
00000030: 9c0a a03e ae37 b83e 4181 7ebe 9ddc 8dbe
00000040: a454 70be f700 e8bd b93d 99be e3f5 61be
0.15362975 -0.20045316 0.21452484 -0.21401632 -0.32067686 0.20233025 0.24160038 -0.313781
-0.46243247 0.36125642 -0.21843122 -0.3565645 0.31258094 0.3597998 -0.24853994 -0.27707377
-0.23469788 -0.11328309 -0.29929903 -0.22066455

Decoder.attn_layer.0.weight f4 [32, 96]
00000000: d290 eabe 4256 a13e 7ec7 083f 03bc 32bf
00000010: 0dcc 7f3f aaec 06bf 5104 21be 8e21 c43e
00000020: c793 fdbe 476c 2e3f f343 8a3d 2bce 8dbe
00000030: 79a2 b3bd ca3d 98bd 74a6 abbe c151 01bf
00000040: 4b4b 043f 99e8 943f 2822 77be 1dbf 6a3d
00000050: 54d4 39bf d90c acbe 47f4 823f 8e6b a5bd
00000060: 5d43 7fbe df91 17bf f631 7e3f ffef 5b3f
00000070: 1dfb b6bd 625d 0d3f 28e2 f53d a93a a63d
00000080: 5e40 20bf 256a d93e dc7a 263f cad6 5fbf
00000090: 77fa 773f ea37 37bf 1850 fdbe 0181 f93e
000000a0: e8c2 1ebf 17cf d23e c9f3 8abe f78f 81be
000000b0: c43a 36bc f2cf 0f3c 65b0 09bf 6bb2 54bf
000000c0: f91b d83e 3b2e 643f 80d7 43be 02df e43d
000000d0: 7ad0 27bf 3831 8f3d c02b ae3f 494c c1be
000000e0: e6f8 e5be 866b 28bf 8388 a43f 369e 8d3f
000000f0: 534f 143e 4a6f 4b3f d521 1b3f d156 bcbd
00000100: 3ce4 9d3e 2c34 2e3f c0d2 963d 71a8 433d
00000110: 0393 0d3f f45b e3be 218f c9bd 01e7 23bf
00000120: 7ffc 13bf b2d6 8a3e d88c 813d 559d c33e
00000130: 3769 a2be 6e63 22bf 22e0 583e ac79 8fbd
00000140: f12d 913e 5f11 24bd 95cb e63e 7263 9fbf
00000150: 38b4 ecbe 0283 9e3e f8af 133f c9b8 69bf
00000160: 070e 5dbd 0696 943e 22c4 63bf 1d75 f13e
00000170: 5687 873e e25a d63e b0e2 0dbf 9519 72bf
00000180: 80e5 78bf 17e4 533f 987e 02be e120 c6bd
00000190: 3101 163f 1475 53bf a405 6c3e 8b56 5cbf
000001a0: d078 7c3c 4284 65bf 8c80 cf3f e14b 2ebf
000001b0: 14f2 493f bd36 72bf 8502 5c3e af3b 3cbf
000001c0: 627c 093e b510 cd3c a284 91bf dc68 363f
000001d0: 6fdb 9abd 4398 f7be c558 20be d07d 14be
000001e0: 1974 adbe 912e 3c3b 3c7b 91bd 821e fc3e
000001f0: 2524 f63c 8209 d03e 8b8f 7d3e 0763 8ebe
00000200: 4ba1 06bf 3e0e 383f 2834 7dbe 848b d13d
00000210: cdd8 433e d8ab 2fbf 465e eb3e 64f2 b6be
00000220: 628e 6c3d ac94 26bf 4346 a83f 7759 10bf
00000230: 14b5 b43f 5352 39bf 1aff d13e 8c82 35bf
00000240: af5b 8f3e f71f 1bbf 989c 99bf 0b39 613f
00000250: d1c3 8a3d 4f3b 18be 24e9 38bf 31e7 65be
00000260: dd81 10bf a9ac 83be 40cd 52be 8434 943e
00000270: 700f ea3d 373a df3e 4789 fc3d e332 ccbe
00000280: e588 833e f926 b43d 1966 a63d c2b2 ca3e
00000290: fc39 64be 832f 5b3d 5b61 3b3f 3fca a73e
000002a0: d0a3 6e3e 9f51 e9be 789c a33f f2ac ed3e
000002b0: 9d26 b43f 3aba 313f 829b 8dbd 9425 f93e
000002c0: c309 293d ae0b ac3d aafc 8d3f 02f8 2fbc
000002d0: 29e7 d33e c6d3 273e b37b 363e f240 55bf
000002e0: 930f 1fbf 3551 c1bb b752 87bf 89bc 51bd
000002f0: 3794 05bf a95b 7ebe 8991 86bf 68b7 0fbf
00000300: 01ac f43d 3300 103f 18bc aebd a813 4cbe
00000310: a016 6e3e 8e19 813d eca4 6bbe 52a0 2040
00000320: ae04 be3e df54 0dbe 3fd4 343e d5a2 83be
00000330: b6af 6a3e 08b6 373f 43af 01be 33fa 143e
00000340: 8f74 89be ae5d dbbd 96dd a3be e956 aabe
00000350: 1d0b c3be 2451 81be 7fc4 46bf 432b 91be
00000360: 3e52 4abe 674c b53e 1594 45be 0d5e 5f3e
00000370: 8a7b 50be 3ae8 0a3f d36d 27bd dfb9 4ebf
00000380: 534d d7be ef5d b5be 7ef5 58be fb07 e0bd
00000390: 16d2 f0be 0bb7 983e 4546 7f3d 0cfe 873f
000003a0: f5b4 403e 8de3 823e 2f4a 91be 7a23 77bd
000003b0: 87bf 4f3e 6921 cf3d 88b9 d63e 7496 723c
000003c0: 08af 7cbe 83d6 05be 63c9 87bc 14d1 2c3e
000003d0: 4eac 87be c19d e4be 7aec 903e 8361 a7be
000003e0: bf31 ebbe 9121 fa3d 6be8 e3be 1032 033d
000003f0: ccf4 073e 4799 093f 8014 b63d 932a 8bbe
-0.45813614 0.31511122 0.534294 -0.69818133 0.9992073 -0.5270487 -0.15724303 0.3830685
-0.49526808 0.6813397 0.067512415 -0.27696356 -0.087712236 -0.0743366 -0.3352543 -0.5051537
0.5167739 1.1633483 -0.24134123 0.057311166 -0.7258961 -0.33603552 1.0230798 -0.08077155
-0.24928041 -0.59206957 0.99294984 0.8591308 -0.08934615 0.55220616 0.120060265 0.08116657
-0.62598217 0.42463794 0.6503122 -0.8743712 0.96866554 -0.71569693 -0.4947517 0.48731235
-0.62016153 0.41173622 -0.27139118 -0.2530515 -0.011122409 0.008777605 -0.5378478 -0.83084744
0.4220884 0.8913304 -0.19125175 0.11175348 -0.65552485 0.069918096 1.3607101 -0.37753513
-0.44916457 -0.6578907 1.285416 1.1063907 0.14483385 0.7946669 0.605985 -0.091962464
0.30838192 0.6804836 0.07364416 0.04776806 0.5530245 -0.44406092 -0.09841753 -0.6402436
-0.57807153 0.27116925 0.06325692 0.38205972 -0.31720898 -0.6343297 0.2117925 -0.07005629
0.28355363 -0.04005563 0.45077196 -1.2452223 -0.46231246 0.30959326 0.5769038 -0.91297585
-0.053968456 0.2902071 -0.8897115 0.47159663 0.2647044 0.41866213 -0.5542402 -0.94570285
-0.9722519 0.8276991 -0.12743604 -0.0967424 0.5859557 -0.8260052 0.23049027 -0.86069554
0.015409663 -0.89654934 1.6211104 -0.6808453 0.78885007 -0.94614774 0.21485336 -0.7352857
0.13426355 0.02503238 -1.1368601 0.7125375 -0.07561385 -0.48358354 -0.15658863 -0.14501119
-0.33877638 0.002871428 -0.07103583 0.49242026 0.030046532 0.40632254 0.24761789 -0.27809927
-0.52589864 0.7189673 -0.24726927 0.102316886 0.19125672 -0.6862159 0.45970362 -0.35731804
0.057752974 -0.65070605 1.3146442 -0.5638651 1.4117761 -0.7239124 0.4101494 -0.70902324
0.27999637 -0.6059565 -1.2000914 0.87977666 0.0677563 -0.14866374 -0.72230744 -0.22451474
-0.56448156 -0.25717667 -0.20586109 0.28946316 0.11428726 0.43599102 0.12330871 -0.39882573
0.2569038 0.08796496 0.08124942 0.39589506 -0.22287744 0.053512108 0.7319543 0.3277149
0.23304677 -0.45570084 1.2782125 0.4642101 1.4074284 0.69424784 -0.069144264 0.48661482
0.041269075 0.08400665 1.1092732 -0.010740282 0.413873 0.16389379 0.17820625 -0.83302224
-0.6213314 -0.005899573 -1.0572118 -0.05120519 -0.5217928 -0.24839653 -1.0513164 -0.5613923
0.1194687 0.56250304 -0.0853197 -0.19929373 0.23250818 0.06303702 -0.23012131 2.5097852
0.37112945 -0.13801907 0.1765909 -0.25710168 0.22918591 0.7176213 -0.12664513 0.14548568
-0.2684674 -0.10711227 -0.32004994 -0.33269432 -0.38094416 -0.25257218 -0.7764358 -0.2835332
-0.19757935 0.35409853 -0.1929477 0.21813221 -0.20359626 0.542606 -0.04087622 -0.80752367
-0.4205118 -0.35423228 -0.21187398 -0.10939022 -0.47035283 0.2982715 0.062322874 1.0624404
0.1881903 0.25564232 -0.2837691 -0.060336567 0.20287906 0.10113794 0.41938424 0.014806379
-0.24676144 -0.13070111 -0.01657552 0.16876632 -0.26498646 -0.44651607 0.28305417 -0.32691583
-0.4593639 0.122134335 -0.44513258 0.032030165 0.13276976 0.5374951 0.08890629 -0.2718092

Decoder.attn_layer.0.bias f4 [32]
00000000: 77e0 77be ef4c d03e 8728 d13f f1c7 533f
00000010: 5da9 8c3d d603 cdbe b662 273e 6dc8 a9be
00000020: a12b 31be 0441 24bd d9aa 16bf 7ffd f13e
00000030: 364a 6f3e 87cb bc3e 2b36 ecbd cf8c debe
00000040: 9e10 a13e c305 00bd 6655 06bd 1476 46bf
00000050: bd9f 543d 9dc7 183e 45a5 afbb bdbf 97bd
00000060: e5b1 803d 4722 d1be cf08 093f 8f0a 3bbd
00000070: 20a1 b4be e747 08bf 6a32 61bd bafb 6c3e
-0.2420672 0.40683696 1.6340493 0.8272696 0.06868241 -0.4004199 0.16346249 -0.33160725
-0.173018 -0.040101066 -0.5885444 0.47263715 0.23368153 0.3687403 -0.11533769 -0.43466803
0.3145799 -0.031255495 -0.032796286 -0.7752392 0.05191015 0.14919896 -0.005360278 -0.07409618
0.06283931 -0.40846464 0.53529066 -0.045664366 -0.3527918 -0.53234714 -0.05497972 0.23142901

Decoder.attn_layer.2.weight f4 [1, 32]
00000000: 309b cebd 97a0 44be 93a4 893f 3961 823e
00000010: 7afa d13d ef98 ddbd e0d0 473e b860 5dbe
00000020: bc08 f4bd 1963 783d d272 913e b985 24be
00000030: d401 f3bd fd9b e4bd 6e92 f73d 2722 24be
00000040: e081 01be bbdb 473e cf99 1abe d9da ff3d
00000050: 9d1d dabd d85b 743e 36c5 febd 0ca9 aebd
00000060: 0f80 ce3d 5a51 c2bd ff0f 02be f92d dcbd
00000070: 7ef7 1bbe d3ee 00be 7a08 023e 3c6d cfbd
-0.100881934 -0.19201885 1.0753349 0.254648 0.10252853 -0.108201854 0.19513273 -0.21618927
-0.119157284 0.060641382 0.28407913 -0.16066636 -0.11865583 -0.11162565 0.12088476 -0.16028653
-0.126472 0.19517414 -0.15097736 0.12492914 -0.106501795 0.2386316 -0.12439959 -0.08528337
0.10083019 -0.09488173 -0.12701415 -0.10750956 -0.1523113 -0.12591104 0.12698546 -0.10128257

Decoder.lstm_layer.weight_ih_l0 f4 [128, 1]
00000000: d768 92bc 3b87 ad3d 6f56 05bf a3b0 82bf
00000010: 799c b23c 7a37 c63d 6a4c 6ebe 30d2 503f
00000020: e89c f3be ba5e 813c 7d53 28be 1d21 49bf
00000030: 37d4 213a ed82 e3bb ea13 e93d 085d c63d
00000040: 62c1 2f3c ce12 a3bf 429c 02bf 9887 9d3d
00000050: 9a09 843e c64f c03e 06c7 82bf 476b 1f3f
00000060: dbc1 093f 62e5 c1bc 1efa 08bf b588 b3bd
00000070: f829 4d3d 36c0 40be f546 343e 686c 1dbe
00000080: 2d39 b2bd ca7b 153d d5f0 2ebd 4f10 7b3e
00000090: 301a 4b3e cacd 7abf 1c3c cdbe be7e 8b3d
000000a0: b55c 843e f9ec d83c 21df 6bbd 9c43 b5be
000000b0: 7acb 523e 1b1d bdbe 5f31 94be 975d f93d
000000c0: 2114 dabe 30f3 793e 50e9 983e a85f 673e
000000d0: e9fd 9b3c d63d a13e 50fe 3e3e 1132 23bf
000000e0: a296 0e3d d558 61bd 5aa5 1c3e b8ec d83c
000000f0: adb1 b73d 8a51 323c f43f 533c 6050 1c3d
00000100: 9022 a23c 2029 3bbd f397 f9be d630 653f
00000110: fbb3 2bbe 7d1a 3f3f 909b ee3e 3c93 143f
00000120: 9303 0f3f 032e 37bc 6973 85be e820 f83e
00000130: 79dd 2f3e 5658 1ebc 17cb 1cbc be85 c2bb
00000140: 8ca3 4f3c 7f8e 60bf dd44 d13e 19fd a3bd
00000150: 4ded 493b ccb1 20be fc30 8cbf 7fd3 ddbe
00000160: 602d 653f 408b aa3d 32a3 23c0 809d 9cbd
00000170: 3ec6 9eba 2785 093e ea89 e33c eb99 a43d
00000180: 161f a33e bf6b ee3d 8c53 81be ec9d 80bf
00000190: d6f1 493f 19f6 023f b48a af3e ee69 063f
000001a0: 9f6e aebe f689 153e 2a10 a5be 8d87 1bbf
000001b0: 2c9f 9e3d 6cef cf3d f4d7 253e d609 403d
000001c0: 0f8f 043e 5934 8fbf 480a d83d 7713 113e
000001d0: bc66 603d 45b8 f53d 4b87 5dbf 9a93 ec3e
000001e0: 82f5 9f3e 049f df3d 2b74 193e 91d9 773d
000001f0: 6909 cb3e 2419 313e 7240 aa3d 277a 3b3e
-0.017872257 0.08473059 -0.5208501 -1.0210155 0.021803128 0.0967855 -0.23271337 0.8157072
-0.47580647 0.01579224 -0.16438098 -0.7856615 0.0006173285 -0.006943098 0.113807514 0.09685713
0.010727258 -1.2740114 -0.5101968 0.07691878 0.25788575 0.37560862 -1.0216987 0.6227307
0.53811425 -0.023668949 -0.5350665 -0.08766309 0.050088853 -0.18823323 0.17605193 -0.15373385
-0.08702312 0.036495008 -0.042710144 0.2451794 0.19834208 -0.9797026 -0.40084922 0.068112835
0.2585198 0.026480185 -0.05758584 -0.35403144 0.20585433 -0.36936268 -0.28943917 0.12176054
-0.42593482 0.24409175 0.29865503 0.22595084 0.019041972 0.3149249 0.186517 -0.6374827
0.034811623 -0.055016357 0.15297452 0.026480064 0.08969436 0.010883698 0.012893666 0.03816259
0.019791871 -0.045693517 -0.4874874 0.8952764 -0.16767876 0.7464979 0.4660306 0.5803716
0.5586483 -0.011180404 -0.26064613 0.48462605 0.17174329 -0.009664616 -0.009569905 -0.0059363535
0.01267327 -0.8771743 0.4087285 -0.08007259 0.0030811608 -0.15692824 -1.0952449 -0.4332542
0.8952236 0.08327341 -2.5568357 -0.07647228 -0.0012113524 0.134297 0.027775723 0.0803717
0.31859654 0.11641645 -0.25259054 -1.0048194 0.7888464 0.51156765 0.3428551 0.52505386
-0.34068772 0.14603409 -0.32238895 -0.6075371 0.077452034 0.10153088 0.16195661 0.04688438
0.12945198 -1.118785 0.10548836 0.14167581 0.054785475 0.11998037 -0.86534566 0.4620636
0.31241995 0.10919002 0.14985721 0.060510222 0.39655617 0.17294747 0.08313073 0.18308316

Decoder.lstm_layer.weight_hh_l0 f4 [128, 32]
00000000: 84ed 113c d578 3c3e 320a 2e3e ddb5 8dbe
00000010: 758c 243f 67c8 fb3e 0797 113e 2b73 c7be
00000020: b44e b93e 7d4b e1bc 016c a13e e715 e7bd
00000030: 5950 1cbe c66c c4be e6d9 32bf b3b8 fcbd
00000040: 336e 9a3e 3fcc 863e 2b8e bc3e b459 85bd
00000050: aedc 66be 757a bf3d 6478 8abd 7314 593e
00000060: 7622 b7be 906b c8be 7ea2 e7bd b4ff a93d
00000070: 470c 4d3d 7b15 d13e 24cd df3d 72a4 823f
00000080: a9f1 4cbf adcf c83d a0f7 4bbe 5bda e23d
00000090: 6cf0 afbe aa4e 6a3f 6da4 4b3f 9110 5bbe
000000a0: d2b3 213f bdd8 96bd 2ee7 14bf 9ffb bebe
000000b0: 090c 003f fa1f 0cbe d1ce 3fbf 82e9 013e
000000c0: c3ba 8dbe 7591 cabf 6eaa 4d3e ef11 12bf
000000d0: e7da 663f f30e c7be 1ab0 09bf f2d2 2f3f
000000e0: c55f 01be 99f6 533f 20fb c33d c97b c83f
000000f0: 66cc fcbe 4208 5d3e 40fc ea3e 845c b73e
00000100: c411 ddbc dfe9 d3bd d915 9dbe b6c8 983f
00000110: d84e b83e 8aa0 443f 76ff 9a3e 9058 cb3e
00000120: 21b1 13be eba0 b93e 52fd 2cbf e52d 183c
00000130: 2d10 8c3f 69ae 193e 133c 05be c051 813d
00000140: 50c3 e2bd b9b8 1c3f 70c5 f7be 5bb7 883f
00000150: 208b 843e a954 053e c355 3ebe c019 60bf
00000160: 0ecf 083f 9996 a73d dcec 953d eb96 b33e
00000170: b17b ba3e 2d4b 5cbe 1763 be3e 600d 853e
00000180: f5c9 c9be f324 bdbe 18d5 cdbe ff32 1140
00000190: 8872 f7be e3c4 e73f 0a5c b83f 5e94 153f
000001a0: 1cfd 493f 05ad 94bd 1384 94bf 08f6 9d3f
000001b0: b06a 353e 4339 403e 321d a23c 4311 aebe
000001c0: 5389 333d 45e2 57bf 5ad4 423f 8b38 7d3e
000001d0: 9594 393d 837e 2cbe e831 adbf 1d66 c9bf
000001e0: 7904 253f a9bf 863e 1634 37be 43f7 86be
000001f0: c782 0c3e c0d9 313f 5429 bcbe 4cd4 ad3e
00000200: 76db 01bf 8882 623e 1d46 683f 25f9 0bc0
00000210: 98fb 593f ac41 013f 6266 fbbe ff0c d0be
00000220: 0d81 3dbe 26a2 8b3f 8678 173c 188d 50bf
00000230: cc77 3abf 172c ee3e f868 393f a1ce 71be
00000240: 8f7e 8dbe ef0f 613f 06cb 0ebf dc1f c23e
00000250: 66e6 803d cde3 d33e 9e44 983f f366 e2be
00000260: d64f 413d e456 3dbe 4c0a 1d3f 4fca 9e3e
00000270: 2c1b 9a3b 890c 39bf 5ef7 3ebe 2968 02bf
00000280: 536a 333e 0c78 38be e753 4e3e 3c86 653f
00000290: f995 1bbf 5b18 ea3d e529 80bf 7355 21bf
000002a0: 35d9 fa3e 51ea f0bd 1b29 a5be da3a ab3d
000002b0: da31 433d f75d 123e 110a 74bb 2e7a d4bd
000002c0: a322 503e 6129 563f a2b6 79be 0112 353f
000002d0: 81e1 ba3d 5c56 b6be b549 113f e000 1bbb
000002e0: 7e29 bdbe 6a8a 70bd faee 9cbc f462 70bb
000002f0: e681 23be 7c3a 7bbe 7a93 e0bd 0bd5 02bf
00000300: be7f 993d 6089 003e 89dc 953f d156 34bf
00000310: 1f41 60be 851b 2fbe 502b dd3c ff50 943e
00000320: a63a 83be 68b8 dbbd f627 4e3e cd7f b93d
00000330: 9ba1 a53d 2663 e53d 7399 683d 3767 33bd
00000340: 1aca 963e 2c6c 273e 1bff 81bf 8081 903e
00000350: 0eff 33bd daed 0ebe dd45 263f e134 9f3e
00000360: 29d0 7d3e 3410 a73d e627 123e 3368 ea3e
00000370: 2a5d 24bd 22e2 88bd 3048 74bc a07b 383f
00000380: 0542 92be 6cd1 8cbd 6fc3 243c 3274 1a3d
00000390: 6f78 e6be e0a4 b63e e26e bfbe f61c 78bf
000003a0: 2291 fbbe 9cf9 a63d b4e6 fcbe 8c7e e9be
000003b0: 9cea 1d3e d25a 8fbe 1096 f53e 350b 913c
000003c0: ec5b b83e 1db0 f7bf 4830 dfbd 603d 623e
000003d0: 9505 00be bc37 edbc a0c4 10bf 0f89 073f
000003e0: dcc4 ca3e 9f7d 13bf ebde 34be 66b4 c03c
000003f0: 80e5 8bbd b4d4 ccbe 404b 0bbe 8391 d1bd
0.008906726 0.18405469 0.16996077 -0.27677813 0.6427682 0.49176332 0.14217769 -0.38955054
0.36192858 -0.027501816 0.31527713 -0.112834744 -0.15265025 -0.38364238 -0.69863737 -0.12339916
0.301622 0.26327702 0.36827216 -0.0651125 -0.2254512 0.09349529 -0.06761244 0.21199207
-0.3576848 -0.39144564 -0.1131029 0.083007246 0.050060537 0.408367 0.10927799 1.0206435
-0.80056244 0.09805236 -0.1991868 0.11076804 -0.34363115 0.9152628 0.7954777 -0.21393038
0.6316501 -0.07365558 -0.5816525 -0.37301347 0.50018364 -0.13684073 -0.7492495 0.12686732
-0.2768155 -1.582564 0.20084545 -0.57058614 0.9017777 -0.38878593 -0.53784335 0.6868125
-0.1263419 0.82798153 0.09569383 1.5662776 -0.49374694 0.21585181 0.45895576 0.3581277
-0.02698601 -0.10347342 -0.3068073 1.1936252 0.35997653 0.76807463 0.30273026 0.39716005
-0.14423038 0.36255583 -0.67574036 0.009288286 1.0942436 0.15007938 -0.13011198 0.06314421
-0.11072409 0.61219364 -0.4839282 1.0680956 0.25887394 0.13020577 -0.18587403 -0.8753929
0.5344094 0.08183021 0.07320568 0.3507608 0.36422494 -0.21513052 0.37184975 0.25986767
-0.39411893 -0.36942253 -0.4020164 2.2687376 -0.48329568 1.810696 1.4403088 0.58429515
0.7890184 -0.07259563 -1.1602806 1.2340708 0.1771648 0.18771844 0.019789312 -0.33997545
0.043832134 -0.84329635 0.7610527 0.247286 0.045307714 -0.16845135 -1.3530855 -1.5734288
0.6445995 0.263181 -0.17890963 -0.2636052 0.13721763 0.69472885 -0.3675028 0.33951032
-0.50725496 0.22120106 0.90731984 -2.1870816 0.85149527 0.5049083 -0.4910155 -0.40634915
-0.1850626 1.0908859 0.009245044 -0.8146529 -0.72839046 0.46518013 0.72425795 -0.23613979
-0.2763562 0.8791494 -0.5577854 0.37914932 0.06293945 0.41384736 1.189594 -0.4421917
0.047195278 -0.18490177 0.61343837 0.31013724 0.004702946 -0.7228475 -0.1864905 -0.50940186
0.17521028 -0.18014544 0.20149194 0.8965795 -0.60775715 0.11430427 -1.0012785 -0.6302101
0.4899384 -0.11763442 -0.32257923 0.083608344 0.047654964 0.14293657 -0.0037237445 -0.103748664
0.20325713 0.8365689 -0.24386075 0.70730597 0.09125043 -0.35612762 0.56753093 -0.0023651645
-0.3694572 -0.058725752 -0.019156922 -0.0036680074 -0.15967521 -0.24534029 -0.10965629 -0.5110633
0.07495068 0.12552404 1.1707927 -0.7044497 -0.21899842 -0.17100342 0.026998192 0.28968045
-0.25630683 -0.10728532 0.20132431 0.09057579 0.080874644 0.11200552 0.056786966 -0.043799605
0.29451066 0.16349858 -1.0155977 0.282238 -0.04394441 -0.1395792 0.6495035 0.3109503
0.24786438 0.081573874 0.14273033 0.45782623 -0.04012791 -0.066837564 -0.014909789 0.72063637
-0.28565994 -0.068758816 0.010056361 0.03770847 -0.4501376 0.35672665 -0.37389284 -0.9691919
-0.49134165 0.08153078 -0.49394763 -0.4560436 0.15421528 -0.27998978 0.4796605 0.01770554
0.3600763 -1.935062 -0.10897881 0.22093725 -0.1250213 -0.02895724 -0.56550026 0.5294351
0.39603317 -0.5761356 -0.17663161 0.02352352 -0.06830883 -0.4000603 -0.13602924 -0.10232832

Decoder.lstm_layer.bias_ih_l0 f4 [128]
00000000: c6ce 2a3e 02a3 e03e bc61 e73c 11ec a4be
00000010: 1fc6 25be 0d9f 89be 17e5 e3be 5c5c 25bf
00000020: bd1f b8be fdd4 b33e 5bb8 23be 193d 3bbf
00000030: 92b6 17be 13b9 cdbc 948a 1e3f eb59 113f
00000040: 7aca 403f 145a a4be bbb9 0cbe a1e6 093e
00000050: 33f6 0e3f c795 90bd 016f 84be 3c01 a8be
00000060: a834 0b3f 725c 02be 5afb 463f 3ece 75bd
00000070: 8ff2 4e3f 067c cebe 4a13 543f f9a6 773e
00000080: 312a 513e 9b4f fb3c f436 a2bc 07ee 0f3e
00000090: d501 e03d ef59 5bbd fc65 3f3e acd0 893e
000000a0: 46aa eb3e 75d2 17bf 586a 643d 0438 b33e
000000b0: ae3e 8e3e 1f2b 87bf 4431 b2bf dd89 afbf
000000c0: 20b5 d0bf 8405 f3be 94ae 8b3e 3ecd 793e
000000d0: 0dad 6fbf 46ab c7bd 1d1e 4bbf 2525 0b3f
000000e0: f37f 26bf 9c81 7a3f 1b98 77bf 5e5d d03e
000000f0: 469f 9dbf cb9e a23e aa78 c0bf b2d6 a6be
00000100: faf0 713d 1897 34be 46d8 5cbe 0063 be3d
00000110: aaf0 dbbc 6a9f 9ebe 25fd 95bd 2d86 7f3e
00000120: b16c fcbb b898 523e 7d16 0f3e 6510 88be
00000130: a6f6 763e 9188 84bc 1309 053e e0e3 aa3d
00000140: f0b9 4cbe 3a09 b2be 0a33 34be 6500 ecbe
00000150: 1a78 9fbc fa6f b3bc 87ed f03d 22e0 633e
00000160: c18e a1be 65a4 0e3e 83a4 e63d fd9b 12be
00000170: 672e e0bd c069 9b3e 0bfd 92bd 4403 ddbe
00000180: bdd6 1f3f aeb9 e73e 7658 7d3e a0e6 943e
00000190: 1868 183f 7dbf 983e 97a0 0a3f 4b3f b8bd
000001a0: 54f4 6a3f 56c5 523f 6d0c bc3d 40cc 903e
000001b0: 5078 603f 3731 2f3f 8ff2 243f 49bb bc3e
000001c0: 6239 9a3f bb7c 99be 9121 0cbe f64c 363f
000001d0: 5c83 993f 1f48 b03e 4f8c adbe ee1b c13f
000001e0: 42c5 843e 4664 583f b8c4 183f b755 623f
000001f0: 9706 643f 01bd 893f 011d 943f 4977 b03d
0.1668044 0.43874365 0.028244846 -0.32211354 -0.16188858 -0.2687916 -0.4451072 -0.64594054
-0.35961714 0.35123435 -0.15988295 -0.731401 -0.14815739 -0.025112664 0.61930203 0.5677783
0.75308955 -0.32099974 -0.13742726 0.13466884 0.5584442 -0.07059818 -0.2586594 -0.32813442
0.5437722 -0.12730578 0.7772728 -0.06001114 0.80838865 -0.40328997 0.8284193 0.24184789
0.20426251 0.030677607 -0.019801594 0.14055644 0.109378494 -0.053552564 0.18691248 0.26917017
0.46028346 -0.59305507 0.05576548 0.35003674 0.27782196 -1.0560035 -1.3921285 -1.3713948
-1.6305275 -0.47465146 0.2728163 0.243947 -0.9362343 -0.09749465 -0.79342824 0.54353553
-0.65038985 0.9785402 -0.9671647 0.40696234 -1.2314231 0.31761774 -1.5036824 -0.32585675
0.059067704 -0.17635763 -0.21566877 0.092962265 -0.026848156 -0.30980998 -0.07323674 0.24953528
-0.0077033867 0.2056607 0.13973422 -0.26575008 0.24117526 -0.016178401 0.12991743 0.08344245
-0.19992805 -0.34772664 -0.17597595 -0.4609405 -0.019466449 -0.02190398 0.11764055 0.22253469
-0.31554225 0.13929899 0.11261847 -0.14317317 -0.109463505 0.30354118 -0.0717717 -0.43166554
0.6243704 0.4525885 0.24740776 0.29082203 0.59533834 0.29833594 0.5415129 -0.08996447
0.91779065 0.8233236 0.091820575 0.2828083 0.8768358 0.6843447 0.64432615 0.36861637
1.2048762 -0.29977974 -0.1368468 0.71211183 1.1993213 0.34430024 -0.3389611 1.5086648
0.25931746 0.84528005 0.5967517 0.8841204 0.89072555 1.0760804 1.1571351 0.08616502

Decoder.lstm_layer.bias_hh_l0 f4 [128]
00000000: 8c19 303d 81d2 003f f428 333e 3a5d bcbe
00000010: 3381 d33d 7a28 39be f78a 83be 82b7 d8be
00000020: 5760 25bf d312 ed3e 636b a9bd 39e5 3bbf
00000030: ca36 a0be 4db5 ea3d 6af3 023f 5d30 193f
00000040: 69f3 2a3f 82ec 0bbf bd60 03bd b95e b83d
00000050: 22e1 0d3f e5be 20be a2e5 3abd d0ab cbbe
00000060: 6c6a 1f3f 8b5d 7dbe 1182 353f e7ec 743e
00000070: 7872 2a3f 5be2 30be a2ba 413f 67b0 883d
00000080: 406d b83e 8b7f 97bd b1e9 6dbe 2659 5c3c
00000090: fdad 26be 5e50 303e 4baa 563d 4e01 fd3c
000000a0: d834 f13e e733 1cbf 4b6e ad3d 4ed4 243e
000000b0: 4bd3 653e af40 56bf 749b c0bf ca1f b1bf
000000c0: ff4d c3bf 5886 61be 19a6 c53d 8f1d a03e
000000d0: cea8 9abf 535f 5fbe 4860 63bf 5546 b63e
000000e0: 233e 4abf c99d 713f 2f6f 97bf 748b b23e
000000f0: 9ae9 bebf 7d87 c03e e313 c1bf 0546 35be
00000100: 2b51 d43d 2058 a63d 0bab 63be da95 e5bd
00000110: e17d 85be bf2a a0be 8d7b 02be 9589 b93e
00000120: 8f98 233e 1311 b73c 9613 d13c bbc0 c7be
00000130: fba8 0f3f e139 923d c18c 893c 7b2c 793d
00000140: e018 16be 555c 57be 586b cebe a79c d6be
00000150: 91a8 f93c 8dbe 2cbd 53ce 6d3e 6f5a 993d
00000160: b007 1ebe 2835 803e fca6 0a3d e579 24be
00000170: 286f f13d 1b11 c53d a195 ba3b 821d 37be
00000180: 6564 2d3f 1ea5 3b3e 7141 393e 5be2 a83e
00000190: cc4d 323f c296 fd3e 7a8b 163f 8e43 08be
000001a0: c476 743f 4902 563f e194 cabd 4801 423e
000001b0: 5e4d 603f 502d 2f3f 32c6 1d3f 8ecd fe3e
000001c0: 43f6 a43f 3861 9cbe d764 b9bd da85 3c3f
000001d0: 30b8 883f f86d 4a3e 9ce9 69be 306d b43f
000001e0: e193 ab3e 2a64 3b3f 222a 0f3f c91d 623f
000001f0: 49f8 393f 74e7 863f 9851 753f 21a5 0c3e
0.042993113 0.50321203 0.17496091 -0.36789876 0.10327377 -0.18081847 -0.2569196 -0.42327505
-0.6460013 0.46303424 -0.082724355 -0.7339664 -0.312918 0.11460362 0.5115267 0.5983942
0.66777664 -0.5465776 -0.03207468 0.09002442 0.5542165 -0.1569782 -0.04562915 -0.3977952
0.6227176 -0.24742715 0.7090159 0.23918496 0.66580915 -0.17273848 0.75675404 0.06674271
0.3602085 -0.07397374 -0.23233677 0.013448989 -0.16277309 0.17218158 0.052408498 0.030884411
0.4711063 -0.61016697 0.08468302 0.16096613 0.22443883 -0.8369245 -1.504744 -1.3837826
-1.5258178 -0.22023904 0.09650821 0.3127255 -1.2082765 -0.21813707 -0.8881879 0.35600534
-0.79001063 0.94381386 -1.1830806 0.3487202 -1.491504 0.3760337 -1.5084194 -0.17702492
0.10367044 0.08122277 -0.22233216 -0.112102225 -0.260726 -0.31282613 -0.12742443 0.3623778
0.15976165 0.022347009 0.025522035 -0.3901423 0.5611722 0.07139946 0.01679075 0.060833436
-0.14657927 -0.21031316 -0.40316272 -0.4191639 0.030475887 -0.04217391 0.23223238 0.07487952
-0.1543262 0.25040555 0.033850655 -0.16062124 0.117887795 0.09622403 0.0056941067 -0.1788235
0.67731315 0.18324706 0.1809137 0.32985196 0.6964996 0.49529082 0.58806574 -0.1330702
0.9549372 0.83597237 -0.09891678 0.18945801 0.8761805 0.68428516 0.6163055 0.497662
1.2887653 -0.30542922 -0.09052437 0.7364174 1.068121 0.19768512 -0.22843021 1.4095821
0.3351126 0.73199713 0.55923665 0.883267 0.7264448 1.0539384 0.9582763 0.13734867

Decoder.fc.weight f4 [1, 33]
00000000: 48ab ebbd 6e99 f63e 3eb8 563f 9f7b 513f
00000010: e989 b03f e54c 88bf 6925 893f e53a bfbf
00000020: 05d2 c93e 290a 8dbe 6ebb 55bc 2e95 fcbf
00000030: 6f30 91bf 9b48 9d3f 6704 f13d c63f 7cbf
00000040: 609e d93e afab 77bf eb50 4b3e 3fe5 aebe
00000050: 3a67 003f 34dc 99be 374d aebf f43e 1b3f
00000060: a4c1 b93f c519 ccbf ecfa 473f 7771 c63f
00000070: bafa 0d40 958c b4be 43e6 60bf 6479 3c3e
00000080: 351a dfbf
-0.11507279 0.48163933 0.8387488 0.81829256 1.3792087 -1.0648466 1.0714542 -1.4939848
0.39418045 -0.27546814 -0.013045175 -1.9733026 -1.1342906 1.2287782 0.11768418 -0.9853481
0.42503643 -0.96746343 0.19855087 -0.34159276 0.5015751 -0.30050814 -1.3617314 0.60642934
1.451222 -1.5945364 0.7811725 1.5503377 2.2184281 -0.35263506 -0.8785135 0.18405682
-1.7429873
