result/ver4/ver4.pth (torch, 82778 bytes, 21 tensors)

weight_ih_l0 f4 [128, 6]
000000 17 41 76 3e fd d5 15 40 69 0c 06 c0 11 3b 6b 3e
       0.24048267 2.3411858 -2.0945075 0.22971751
000010 db ae f3 3f cb eb f3 3e 04 bd 6a bf d0 3a 0b 40
       1.9037737 0.47640833 -0.91694665 2.1754646
000020 00 cb 89 be fd f9 77 3f e5 f8 2c be 3f ba 19 3f
       -0.2691269 0.96865827 -0.1689182 0.60049814
000030 72 a3 53 3f 4c 63 31 bf c7 26 2c 40 3a f8 c4 bf
       0.8267127 -0.6929214 2.6898668 -1.5388253
000040 24 0f 9d bc 29 ab 0a bf 02 09 c6 3f 64 e8 81 3f
       -0.019172259 -0.5416742 1.5471499 1.0149045
000050 81 a8 1d 3f 11 b6 41 be ce 45 a5 be 7f 82 2f 3f
       0.6158524 -0.18917109 -0.3227982 0.68558496
000060 41 d2 9e 3e 13 ac f8 3f 4b a2 cb 3f af 43 97 be
       0.31019786 1.9427513 1.5908903 -0.29543826
000070 2a 47 80 be ba b0 dc 3f d0 d0 53 40 71 fc 08 40
       -0.25054294 1.7241433 3.30962 2.1404078
000080 95 95 af 3f b2 93 f6 bf 1a bd b0 bf 2a 0c 23 40
       1.3717524 -1.9263823 -1.3807709 2.5476174
000090 bf 60 38 c0 65 ef dc bf b5 34 84 bf 63 db 3d c0
       -2.880905 -1.7260557 -1.0328585 -2.9665153
0000a0 bf a1 33 c0 47 d8 a5 be 4e 9e 28 bd d7 e5 f6 bf
       -2.8067472 -0.3239157 -0.041166596 -1.9288892
0000b0 4e 49 95 bb 2b 1e 13 c0 24 7c e1 be bb 8f 34 c0
       -0.0045558577 -2.2987163 -0.44040024 -2.8212726
0000c0 22 c8 c6 be fe 39 a1 bf ed 3c 9e 3f 70 67 8a 3e
       -0.38824564 -1.2595823 1.2362343 0.27032042
0000d0 31 46 84 3f b7 6e 10 3d d7 0a a1 bf d6 10 c9 3f
       1.0333921 0.035261836 -1.2581433 1.5708263
0000e0 ab 94 65 c0 70 7e a5 3f 40 fb 9d 3f d9 57 10 bf
       -3.587199 1.2929211 1.23423 -0.56384045
0000f0 5d c6 3d be 63 0f 08 40 8d 61 04 40 c7 b6 95 3e
       -0.18532701 2.1259391 2.068454 0.2924101
000100 eb 04 05 bd 59 04 1d 40 10 51 a0 3d 9a c5 9b 3f
       -0.032475393 2.4533904 0.078279614 1.2169678
000110 a7 32 30 3f 11 4e b6 3f e9 21 e2 3f c9 e9 11 bf
       0.6882729 1.4242574 1.7666599 -0.5699735
000120 5e 78 55 bf 8e ab b8 3e 10 7f 38 bd 30 e1 14 be
       -0.8338679 0.36068386 -0.04504305 -0.14539027
000130 13 67 e0 bf 2d f9 8a 3f ca 0c 29 bf 02 0f 81 3d
       -1.7531456 1.0857292 -0.6603514 0.06301691
000140 cf a0 ba bf f0 2f a2 bf 08 2f 64 bf 36 ae 4e bf
       -1.4580325 -1.2670879 -0.89134264 -0.80734575
000150 ab 48 cf 3f a8 22 79 40 c0 a6 e5 bf dc 3c b3 bf
       1.6194052 3.8927402 -1.7941513 -1.4002948
000160 e0 1e b7 bf 1e e2 bf bd 55 c3 65 3e 8f 05 b1 3e
       -1.4306297 -0.093693 0.22437795 0.34574553
000170 ea b8 be bf b8 40 01 3f 74 6c 01 3f 72 2f a7 3e
       -1.4900181 0.5048938 0.5055611 0.32653385
000180 e2 88 c1 3f 64 40 20 bd b9 0f cb 3f d0 55 01 c0
       1.5119898 -0.039123908 1.5864173 -2.0208626
000190 9b 31 d9 bf 37 9e 90 3f ec 92 ac be f9 34 0c c0
       -1.6968263 1.1298283 -0.33705842 -2.1907332
0001a0 af 51 af 3e d7 8f 32 3f e8 0d 30 40 31 84 15 bf
       0.34242007 0.6975073 2.7508488 -0.58404833
0001b0 a6 4a 10 c0 0e 7a 15 bf 73 36 b4 bf 3d 6e 83 bf
       -2.2545562 -0.58389366 -1.4079117 -1.0268017
0001c0 d5 65 95 bf 3d 11 00 c0 cf 7f 33 40 3e c0 eb 3f
       -1.1671702 -2.0010521 2.8046758 1.8418043
0001d0 40 9c b9 3f eb 94 62 bf fe fd 9f bf fe 2f 18 be
       1.4500809 -0.8850848 -1.2499387 -0.14862058
0001e0 58 42 39 bf a4 33 2c bd be 1d 6f bd f9 a0 75 3f
       -0.7236686 -0.042041436 -0.058377974 0.9594875
0001f0 60 d4 3f 40 94 a0 59 3f 9b 47 70 3e 2c 42 69 bc
       2.9973373 0.8501065 0.23464815 -0.014236968
000200 b6 2b 30 3f 49 eb c6 be d0 44 65 bf 9f 93 bd 3e
       0.688167 -0.38851383 -0.89558125 0.37026688
000210 ab 9d 11 3f f0 ca f0 3f de 74 48 3f d4 0f dd 3c
       0.5688121 1.8811932 0.78303325 0.026985087
000220 cd 13 28 3f e6 00 14 40 fa 27 48 bf 2f ac 58 3b
       0.65655214 2.3125548 -0.78186 0.0033061614
000230 1b ab d9 be 8b 08 df bf 65 82 86 bf 29 f4 9a 3f
       -0.42513356 -1.7424482 -1.0508543 1.2105762
000240 8d 93 a1 3e 62 b9 29 40 e2 6a 4f 3f 28 ea 11 3e
       0.31557885 2.6519399 0.81022465 0.1424948
000250 a4 a7 70 be fb c5 4d 40 2e cd 48 3f 9a 1a 35 40
       -0.2350145 3.2152088 0.7843808 2.8297486
000260 84 6b c0 3f 36 eb 0c bf 25 5e c3 bf dc 05 25 40
       1.5032811 -0.55046403 -1.5263106 2.5784826
000270 e9 d1 e6 3f 69 9d 62 3f 02 6c 01 40 d8 a6 f6 bf
       1.803281 0.8852144 2.0222173 -1.9269667
000280 3e ca f7 bf e4 18 95 3f 78 e0 89 be 90 35 3b 40
       -1.9358594 1.1648221 -0.2692907 2.9251442
000290 45 70 8c 3f 9e 1c 6f 3e f9 28 36 bf 60 93 a5 3f
       1.0971762 0.2335076 -0.7115627 1.29356
0002a0 bd fa 9c 3f 83 da 2c 3f 77 07 01 3f 73 32 f6 be
       1.2264019 0.6752092 0.50402015 -0.48085365
0002b0 fa e5 13 40 d8 4e 95 3f e9 d4 15 c0 6a b4 c2 bf
       2.3109117 1.1664686 -2.34112 -1.5211308
0002c0 17 89 c4 bf 8c b7 8e bf 0e 8e 02 be ba cc 41 bf
       -1.5354337 -1.1149764 -0.12749502 -0.7570301
0002d0 66 48 3e 3f 59 2c 06 3f 51 96 0e 40 b1 58 b9 3e
       0.7432922 0.5241142 2.2279246 0.3620048
0002e0 d2 96 0d c0 5d 19 87 3e c2 70 c1 bf 2f 37 b4 bf
       -2.2123303 0.26386538 -1.5112536 -1.4079341
0002f0 75 e9 26 3f 4c bc f7 bf 29 6e db bf 3d 9c 96 be
       0.6519998 -1.9354339 -1.7142993 -0.29416075
000300 1d 8e 87 40 4a 4a 34 40 91 1e e5 3f aa 21 11 bf
       4.236098 2.8170342 1.7899953 -0.5669199
000310 fd cf 7f 3e 57 35 2e 40 e5 a4 01 3f 7e 61 cb bd
       0.24981685 2.7220056 0.50642234 -0.099307045
000320 f6 fa e4 3f ca 0f ce 3f 7a 78 3c 3e 33 0d 46 bf
       1.7889087 1.6098568 0.18405333 -0.7736389
000330 ad fe 2c 3d 6f 2d fc bf 74 f7 e5 3f 96 f2 77 bf
       0.042235065 -1.9701365 1.7966142 -0.9685453
000340 cf c4 76 3e a1 18 b9 bf 77 fe be 3e 83 64 ca be
       0.24098514 -1.4460641 0.37303516 -0.3952981
000350 4d 73 87 be 1c 5e 4c bf 09 60 4a bf 0f 51 17 3f
       -0.26455155 -0.798311 -0.7905279 0.5910806
000360 c5 f7 27 40 08 0f 40 3f 64 ba 1f 40 ec 38 8b 3e
       2.6244977 0.75022936 2.4957514 0.27191865
000370 6b f8 fc bd 1c 8c 02 40 36 7a 4e bf c6 0d 2c bf
       -0.123520695 2.0398016 -0.8065523 -0.67208517
000380 47 34 5d be 02 5c ab bf 88 86 89 bf 5c 4c 42 be
       -0.21601973 -1.3387454 -1.0744181 -0.18974441
000390 13 f8 2b c0 49 84 ad bf 6b 4e 41 bf a6 53 cc be
       -2.6870162 -1.3555995 -0.7551028 -0.3990757
0003a0 65 c5 3c 3e d6 0f 9f 3e ff c6 54 3f 97 c8 a1 be
       0.18434675 0.3106677 0.83116144 -0.3159835
0003b0 0c a7 64 3f 13 eb 37 c0 c6 30 e5 bf 8b 1d 9d be
       0.89317393 -2.8737228 -1.790551 -0.30686602
0003c0 4f 79 36 bf 4f a1 5d c0 82 86 88 3f 97 44 38 bf
       -0.7127885 -3.4629705 1.0666049 -0.7197966
0003d0 59 27 93 be bb 62 9e bf b7 eb 51 3f 68 78 ac 3f
       -0.28740957 -1.237388 0.820003 1.3474245
0003e0 6c 3c 3d 3e 97 d2 6d 3f 61 68 a4 3f 52 f7 05 bf
       0.1848008 0.9289946 1.2844354 -0.52330506
0003f0 b6 1f 41 40 ad 61 17 40 70 b1 d2 3f 7c 54 9d bd
       3.0175605 2.3653367 1.64604 -0.0768213

weight_hh_l0 f4 [128, 32]
000000 b7 3e 13 c0 36 17 17 bf 41 50 13 be d9 e1 b1 3f
       -2.3007028 -0.5901979 -0.14386083 1.3897048
000010 0c ca 86 bf 15 82 56 3f f4 dd c1 3f 38 bd 88 bf
       -1.053041 0.8379224 1.514586 -1.0682745
000020 46 ce c5 bf bd 7f 2f 3f ae b1 8f bf b2 cb 44 3f
       -1.5453575 0.6855429 -1.1226099 0.76873314
000030 28 ca 09 bf 07 a4 65 3f 9c 8c 5d 3f 63 bf e8 bb
       -0.5382409 0.8970341 0.8654268 -0.007102893
000040 e8 51 a6 be 81 64 3d 3e 97 7d a5 3f 84 98 86 bf
       -0.32484365 0.1849537 1.2928952 -1.0515294
000050 77 af 1a bf c4 f5 97 3f e6 b3 b0 be 97 f2 d8 bf
       -0.6042399 1.1871877 -0.34512252 -1.6949033
000060 cd d9 ac bf 8c 86 16 3e 23 a8 2f 3f 9b 58 0f bf
       -1.3503968 0.14699763 0.6861593 -0.55994576
000070 e8 03 59 3f 8d 3d 99 bf 3a 15 a2 3f d8 fa a1 bf
       0.84771585 -1.1971909 1.2662728 -1.2654676
000080 28 a4 c7 bf 0a 62 22 bf cb 53 54 be 1f 66 ce 3f
       -1.5596972 -0.63430846 -0.2073509 1.6124915
000090 49 23 eb bf bc 07 61 3f cb 78 a7 3f 0f cb 5f bf
       -1.8370143 0.87902427 1.3083738 -0.8741922
0000a0 2a 6d fb 3b f9 a1 80 3f be 26 b0 bf 40 f1 bd bf
       0.0076729255 1.004943 -1.3761823 -1.4839249
0000b0 e5 54 64 3e 3f a6 12 3e 00 5f 9d 3d cf 3b c2 3e
       0.2229801 0.1432123 0.076841354 0.37936255
0000c0 b7 d2 dd 3e eb bf 53 bf f6 44 dd 3e 96 3f 8b bd
       0.43324825 -0.8271472 0.43216676 -0.067992374
0000d0 6a e4 43 3f e7 f4 8a 3f de fa ca bf 98 5b 5f bf
       0.7652041 1.0855988 -1.5857809 -0.87249136
0000e0 4d b8 29 bf b3 09 8d 3f e7 ce b4 3e 7e ee a9 3f
       -0.66296846 1.1018585 0.35314104 1.3275907
0000f0 4b 27 c5 3e 8c 80 78 bf dd 0f 5f 3f 0c 30 38 3d
       0.3850654 -0.97071147 0.8713358 0.044967696
000100 59 11 82 3f 63 55 f3 be 14 67 25 3f 32 f5 76 bf
       1.0161544 -0.47526082 0.6461041 -0.9646789
000110 ed 1e 74 3f 7e 84 ce 3e 11 93 3e 3f 1a e9 f1 be
       0.9535969 0.4033546 0.74443156 -0.47248155
000120 00 e2 c8 be 0e 3d b9 3f 71 3e c3 bf b6 f6 a2 bf
       -0.39234924 1.4471757 -1.5253431 -1.273154
000130 e4 4b 35 3f 9e c3 95 bf d9 42 a9 3d 67 02 b9 3f
       0.70818925 -1.1700323 0.08264703 1.4453858
000140 0b 56 8f bf 22 34 00 40 08 dd 5f 3f b4 40 36 40
       -1.1198133 2.003182 0.8744664 2.8476992
000150 e7 9c 9a 3c b3 fc 92 3e a6 b6 81 bf ca c6 1b c0
       0.018873645 0.2870842 -1.0133865 -2.4340081
000160 d2 01 31 bd 4f b3 84 3f 1d 95 c2 3f a6 b3 3c 40
       -0.043214627 1.0367221 1.5201756 2.9484649
000170 f3 b9 1a c0 52 32 18 c0 cf f3 b6 3f ce 68 e6 3e
       -2.4175994 -2.3780713 1.4293154 0.45001835
000180 f2 81 2b bf 2b 4e 79 3f f9 65 3f 3f 77 44 91 3f
       -0.66995156 0.973849 0.7476497 1.1349019
000190 9a 7c c6 3e 8f 02 d6 bf f5 49 11 c0 33 41 91 bf
       0.38766938 -1.6719531 -2.270139 -1.1348022
0001a0 70 c5 05 3f a1 22 0a 3f ec 12 d4 3f 13 07 85 3f
       0.5225439 0.5395909 1.6568274 1.0392784
0001b0 42 ac 6d bf c2 c5 7a bf 79 e0 8b bf a3 49 16 c0
       -0.9284097 -0.97958004 -1.0927879 -2.3482444
0001c0 a6 87 5f 3f e7 9f 6c bf 17 d2 73 be 0a 77 0e 3f
       0.8731636 -0.9243149 -0.23810612 0.5565039
0001d0 12 76 a1 be 92 d0 47 3f 87 0c ad 3f 13 c9 bc 3e
       -0.31535393 0.7805263 1.3519448 0.36872157
0001e0 62 22 37 3e 13 cf 21 be 55 2c 41 3f c5 72 22 bf
       0.1788421 -0.15801649 0.7545827 -0.63456374
0001f0 39 33 a1 3e 74 71 1d bd 5b b6 00 bf d9 98 c6 be
       0.31484392 -0.038438275 -0.5027825 -0.38788489
000200 6f 67 ec 3e 73 52 9d 3f c5 68 87 3e 72 6b 8d bd
       0.46172664 1.2290787 0.2644712 -0.06905259
000210 98 79 bd be 1f b8 52 3e c0 93 d1 3d 4b 6c 84 bf
       -0.3700683 0.20578049 0.10233259 -1.0345548
000220 69 44 ed 3f 73 d5 83 bf b1 ae 6c 3d a7 a6 e2 3c
       1.8536502 -1.0299515 0.057783786 0.027667357
000230 ff e1 ab 3f 94 12 7e bd 3f 37 01 3f 6a 6d 87 be
       1.3428344 -0.062029436 0.50474924 -0.26450664
000240 bb 0c 83 3f c6 82 33 bf 87 d7 33 be 77 f6 49 bf
       1.023826 -0.7012142 -0.17562686 -0.788917
000250 ed 09 01 3f 92 2f 9c be f7 ef 83 3e d8 46 33 3e
       0.5040577 -0.30505043 0.25769016 0.17507493
000260 c1 4a 8e bf 17 40 57 be c8 47 df bf 84 90 29 3c
       -1.1116563 -0.21020542 -1.7443781 0.010349397
000270 44 3b 98 3f 35 4e 6f 3f 3b 44 b0 be 97 65 84 bf
       1.1893086 0.9347871 -0.34427056 -1.0343503
000280 43 68 c2 be ac 17 c3 3f 2a 85 bb 3e 1c b7 81 3e
       -0.3797017 1.5241599 0.36625034 0.25335014
000290 db 85 ef 3f 4e 4b f0 3e b5 de a3 3f 43 15 9c bf
       1.8712724 0.46932453 1.280234 -1.2193989
0002a0 0e e0 91 3f 83 e2 a0 3e 35 fa 98 3f a5 c7 2e 40
       1.1396501 0.31422815 1.1951357 2.7309353
0002b0 33 02 26 c0 3f 0a 6a be 25 8e ff 3d 73 ff 81 bf
       -2.5938842 -0.22855471 0.12478284 -1.0156082
0002c0 1b d3 a4 3e 93 52 0b bf 85 44 5a bf 2a 1f 4e bf
       0.3219231 -0.54422873 -0.852608 -0.805163
0002d0 75 d4 1c c0 ac 88 c5 bf 81 c5 11 40 c0 18 de bf
       -2.4504673 -1.5432334 2.2776797 -1.7351303
0002e0 58 1f 23 3f 7a 33 ab bf ca 1c 23 3f 3c 5e 3f bf
       0.637197 -1.3375084 0.63715804 -0.74753165
0002f0 2a 58 0c 3e 1f e8 3c bf 5d 13 80 3e 85 8d 09 bd
       0.13705507 -0.7379169 0.25014773 -0.03358223
000300 bd 56 19 bd 8e 55 4d 3e ec 11 31 3f 70 42 39 bf
       -0.037436236 0.20052168 0.6916797 -0.72367
000310 ea 65 0c 40 07 29 db 3e 1d dd a3 bf 28 ab 6b 3f
       2.1937203 0.4280474 -1.2801853 0.9205804
000320 65 25 68 3f 3b b2 c3 be 13 37 b5 3f 7b 27 76 3f
       0.9068206 -0.38221917 1.4157432 0.9615399
000330 df 03 71 3e 1e c4 87 3f 1b c1 cd 3f c9 28 4f 3f
       0.23536633 1.0606725 1.6074556 0.8092161
000340 76 89 2b 3f 72 6b da be 6e 0a 07 3f 37 8d 95 bf
       0.67006624 -0.426601 0.5275029 -1.168372
000350 5b 8a 58 be 37 ed 5b 3f 0a b2 ca 3f b5 a7 58 3e
       -0.21146528 0.85908836 1.5835583 0.21157725
000360 1d 5d f1 bf c6 e2 6a 3f 35 f2 52 3f b9 9c 94 3f
       -1.8856541 0.9175228 0.8240083 1.1610328
000370 d5 fd 94 bd 1c c7 87 be 84 bf 02 40 0c 98 75 3f
       -0.07274977 -0.26519096 2.0429392 0.9593513
000380 a4 2f a0 3e 96 90 09 40 9f b7 7a 3f d2 67 26 be
       0.31286347 2.1494498 0.97936434 -0.16250542
000390 08 c0 84 bf 63 6e bd be 99 01 1b c0 af 96 5b 3f
       -1.0371103 -0.3699828 -2.4219725 0.857768
0003a0 9c 33 46 3e a8 44 14 3f 95 f3 6b 3e 7f b5 da 3f
       0.19355625 0.5791726 0.23042138 1.7086638
0003b0 4e dd 31 3f aa 1a 02 3e 94 8f 46 3f 82 61 c2 3e
       0.6947831 0.12705484 0.7756283 0.37965018
0003c0 63 9c ad 3e cd d1 a5 be 37 70 1b bf 7f b9 89 3e
       0.33908376 -0.32386628 -0.607181 0.26899335
0003d0 c0 f9 59 be d1 33 8c 3b 8a 6d 73 bf 35 8f 3e 3f
       -0.21286678 0.004278638 -0.9508902 0.74437267
0003e0 be 3d 02 c0 11 77 f8 3e 73 69 20 be 51 06 ca bf
       -2.0350184 0.4852834 -0.15665226 -1.5783178
0003f0 4b 4c df be 0b c6 a7 3e c4 84 4f c0 f0 0b 18 3f
       -0.43612894 0.32768282 -3.2424784 0.59393215

bias_ih_l0 f4 [128]
000000 db 62 a9 bf ec ba 89 bf 6a be ae bf e4 4d 51 bf
       -1.3233293 -1.0760169 -1.365186 -0.81759477
000010 8a ad a9 bf 6f 1d a1 bf 0f de 91 bf 25 81 77 bf
       -1.3256085 -1.2587107 -1.1395892 -0.96681434
000020 8d a2 4c bf be af c8 bf 5f b6 92 bf 42 99 8a 3f
       -0.7993553 -1.5678632 -1.1461905 1.082802
000030 13 93 cc bf fe ea 65 bf cb 1c 9a bf 43 02 0e bf
       -1.5982383 -0.89811695 -1.2040037 -0.554722
000040 fd e9 b0 bf 9d 58 5d bf 74 73 d1 bf 18 e6 08 bf
       -1.3821408 -0.8646334 -1.6363358 -0.53476095
000050 91 86 9f bf ee 8a 0e 3f 98 fd d2 bf cb e6 27 bf
       -1.2462941 0.5568074 -1.6483641 -0.6558654
000060 93 3a fd be a9 f5 07 c0 5f b3 0b 3f ef aa ba bf
       -0.4945875 -2.124369 0.54570574 -1.4583415
000070 d8 bd db bf 4b 53 e3 bc 6f 31 c2 be 98 0c b7 bf
       -1.7167311 -0.027749678 -0.3792834 -1.4300718
000080 83 0a 37 bf cf 0e b0 3f dc c1 44 be ea 5c a3 3f
       -0.71500415 1.3754519 -0.19214576 1.276273
000090 8c 08 86 3f 8b d8 21 3f 80 b0 c5 bf ba fd 31 bf
       1.0471358 0.63221043 -1.5444489 -0.6952778
0000a0 37 d2 e9 bf af 5e a9 be 64 2d ac 3e fe c7 5d be
       -1.8267277 -0.3308005 0.3362838 -0.21658322
0000b0 03 6e 6f 3f a1 53 bb bf f3 97 52 3f 0d c2 c2 bf
       0.9352724 -1.4634897 0.82263106 -1.521547
0000c0 57 f1 24 bf 24 2f 96 bf 91 bb 64 3f 32 44 bb bd
       -0.64430755 -1.1733136 0.89348704 -0.091438666
0000d0 de 29 b1 3f 3c 8d 0d bf c6 ca 70 3f 19 7e dd bf
       1.3840902 -0.5529363 0.9405941 -1.7304107
0000e0 04 c2 c4 bc 20 dc a2 3f da a4 81 3d a7 b7 77 bf
       -0.024018295 1.2723427 0.06330271 -0.96764606
0000f0 e5 25 e6 3e 28 53 b5 bf 31 a9 a6 3e 58 40 ac bf
       0.44950786 -1.4166002 0.32550958 -1.3457136
000100 ba 7e be bd 42 f9 3a be 8b 03 aa be af ce f5 be
       -0.09301515 -0.18259147 -0.33205828 -0.4800925
000110 58 5d 80 3d 1b ed 79 be c8 0b 88 bc 31 d1 9d be
       0.06267804 -0.24406855 -0.01660718 -0.30823663
000120 98 8a eb 3e be b6 2b 3e 91 4a 5d bf 2d c6 bb bd
       0.46004176 0.1676893 -0.86441904 -0.091686584
000130 be 6c 98 3e b4 88 ed 3e ec fa 88 3e c7 1c 2d be
       0.29770464 0.4639336 0.26753938 -0.16905509
000140 2a 3a 4a 3f 07 ed 1c 3d 93 8a ce 3b 3e bb 87 be
       0.78995 0.038311984 0.0063031404 -0.26510042
000150 d9 54 34 3c e1 ca 59 be ec 60 19 bf 20 59 0f 3f
       0.011006557 -0.21268798 -0.59913516 0.5599537
000160 5f c2 99 be 09 87 01 3f dc de 04 bf aa ea d8 3e
       -0.30031106 0.5059667 -0.51902556 0.42366534
000170 8d 1f ad be 51 02 d1 3d 1b 0c 26 bf 91 db 45 bd
       -0.33813134 0.1020552 -0.6486222 -0.048305098
000180 74 6d ab bf 9f 0e 2d bf 58 90 a6 bf f9 8d 9a bf
       -1.3392777 -0.67600435 -1.30128 -1.2074577
000190 6a 72 0d bf 68 83 a8 bf 40 f8 80 bf ae 01 de bf
       -0.55252707 -1.3165102 -1.007576 -1.7344263
0001a0 9b 2a 35 bf 34 d9 27 bf 93 19 b4 bf 00 fa b7 bf
       -0.70768136 -0.655658 -1.4070305 -1.4373169
0001b0 0e 24 65 bf 13 6e e0 be a7 22 29 be 1f 1c 7c bf
       -0.8950814 -0.4383398 -0.16517125 -0.9848041
0001c0 c5 e3 b8 be 19 8f b2 bd 84 0d 34 be 1d 82 13 be
       -0.36111274 -0.087187 -0.17583281 -0.14405103
0001d0 83 45 a5 bf d3 b2 06 3e 83 48 0b c0 bb 4b ba be
       -1.2911838 0.13154154 -2.1763008 -0.36385903
0001e0 7b f5 5f bf c5 a7 2e bf 8a bd fd be 75 f8 89 bf
       -0.8748395 -0.68224746 -0.4955867 -1.0778948
0001f0 e9 11 c3 be 36 24 fe be cb ea b5 bf ff 53 6e bf
       -0.38099602 -0.49637002 -1.4212278 -0.9309692

bias_hh_l0 f4 [128]
000000 a8 7b 9b bf 27 5c 8a bf 6f 88 a1 bf 6e f5 52 bf
       -1.2147112 -1.0809373 -1.2619761 -0.82405746
000010 2f f5 c7 bf 07 c0 89 bf cc f5 71 bf 27 b6 4e bf
       -1.5621699 -1.0761727 -0.9451568 -0.8074669
000020 f3 8b 1c bf 9d 1b b3 bf a4 96 68 bf 8b 1a 46 3f
       -0.61151046 -1.3992802 -0.9085486 0.7738425
000030 97 80 d4 bf 0a 95 81 bf e5 49 98 bf 42 04 03 bf
       -1.6601743 -1.0123608 -1.1897551 -0.5117837
000040 af df c2 bf 9a 24 5b bf 5d e3 c7 bf 4d e6 1d bf
       -1.5224513 -0.85602725 -1.5616261 -0.61679536
000050 04 77 a8 bf 94 b4 9d 3e 38 43 e2 bf 57 86 4b bf
       -1.3161321 0.30801833 -1.7676764 -0.7950186
000060 4f 92 e3 be 6b 6f 15 c0 4a 0c ff 3e 9d 0f bc bf
       -0.44447562 -2.3349254 0.49814063 -1.4692265
000070 7b 02 ea bf e0 d2 53 3e 9b d5 f6 be 4b 5d ac bf
       -1.8282007 0.20685911 -0.48209843 -1.3465971
000080 66 a8 0a bf 4c 7e a0 3f 0e e4 6e be 4f cb bf 3f
       -0.54163206 1.2538543 -0.23329183 1.498392
000090 c3 fd a3 3f 40 bf 2c 3f 1d af ad bf 42 25 29 bf
       1.2811817 0.67479324 -1.3569065 -0.66072476
0000a0 b5 9b df bf 73 e1 5d be 84 f2 ab 3d 5b 11 89 be
       -1.7469393 -0.21668033 0.083958656 -0.26771054
0000b0 42 8d 58 3f e7 86 d4 bf f7 20 1e 3f d6 9a c5 bf
       0.8459054 -1.6603669 0.6176905 -1.5437877
0000c0 b8 69 bf be 53 76 89 bf 02 7c 70 3f ca 82 a4 bd
       -0.37385345 -1.0739235 0.9393922 -0.080327585
0000d0 50 8a 9f 3f c1 67 28 bf a3 6a 9e 3f 3a 83 eb bf
       1.2464085 -0.65783316 1.2376293 -1.8399422
0000e0 b1 17 17 bd a0 42 92 3f a8 ab 59 be 6b c3 8b bf
       -0.03688783 1.1426582 -0.21256888 -1.0919012
0000f0 19 81 29 3e 98 82 a8 bf a1 0a b4 3e 8f e1 86 bf
       0.16553153 -1.3164854 0.3516436 -1.0537585
000100 a4 07 22 be 97 ad 1a 3d 83 25 c5 bd f9 b3 fe be
       -0.15823227 0.037763204 -0.096262954 -0.49746683
000110 37 25 b4 bb 19 b1 33 be 52 37 1c be 6f 1a 9b be
       -0.0054976004 -0.17548026 -0.15255478 -0.30293605
000120 9d 70 0e 3f c9 1c f9 bb 7f 12 2e bf f8 e6 24 bd
       0.55640584 -0.0076023084 -0.6799697 -0.04025933
000130 93 fb 25 3e 38 1c 4f 3e c0 e5 ae 3e d0 51 04 be
       0.16209249 0.20225608 0.3415966 -0.12921834
000140 5b 0c 31 3f b6 66 83 3d 2f ec 94 3c ab 5c 81 bd
       0.6915948 0.06416075 0.018179027 -0.06316503
000150 eb 07 82 be dc 77 ac be 28 de 2d bf 35 c8 0d 3f
       -0.25396666 -0.33685195 -0.6791711 0.55383617
000160 00 47 84 be 09 36 ec 3e e9 10 e8 be c0 a0 6c 3e
       -0.2583542 0.46134976 -0.453254 0.23108196
000170 c0 c6 11 be ec 4d e9 3c 07 b2 38 bf 00 a8 a5 3d
       -0.14235973 0.028479539 -0.7214665 0.08088684
000180 e3 68 c0 bf 09 7f 48 bf 4a 28 95 bf 44 b1 ab bf
       -1.5032009 -0.7831884 -1.165292 -1.3413472
000190 f0 2a e2 be 60 0b ac bf ee 02 67 bf 96 30 e8 bf
       -0.44173384 -1.3440971 -0.90238845 -1.8139827
0001a0 e7 23 2d bf f3 ca c0 be 9d fb ab bf d2 52 b7 bf
       -0.6763291 -0.37654838 -1.3436161 -1.432215
0001b0 62 77 7e bf c1 56 d5 be 87 c6 5f 3c 58 24 37 bf
       -0.99400914 -0.4166775 0.013658172 -0.7153983
0001c0 bf fb 7e be ad 13 41 be 6f 39 e4 bd 57 ab e8 be
       -0.24900721 -0.18855162 -0.11143767 -0.45443222
0001d0 a6 0e 92 bf eb 52 cc bc f3 d7 0d c0 fa cf fc be
       -1.141072 -0.024941882 -2.2163055 -0.49377424
0001e0 75 86 2e bf f5 fe 1b bf 08 cc 14 bf 98 90 5a bf
       -0.68173915 -0.6093591 -0.58123827 -0.8537688
0001f0 f4 96 13 bf 8e c0 21 bf b1 1d ba bf 27 6f 64 bf
       -0.5765221 -0.6318444 -1.4540311 -0.89232105

weight f4 [20, 84]
000000 a2 22 4c bf f0 62 12 be b0 07 93 3f 24 f2 9a bc
       -0.79740345 -0.14295554 1.1486721 -0.01891429
000010 69 51 8b 3f 79 08 e9 bf 9e 51 66 3d 76 4c a2 bf
       1.088422 -1.8205711 0.05623018 -1.2679584
000020 67 a0 ea bf 75 c5 d1 be 96 86 7d be f8 ce cd 3f
       -1.8330201 -0.4097096 -0.24758372 1.6078787
000030 45 00 3f bf ae 5b 2f be 96 27 ae 3d 0e d1 00 c0
       -0.74609786 -0.17124817 0.08503644 -2.0127597
000040 5b ad 42 3f 00 89 84 bf a3 bd 19 bf cb de b3 be
       0.7604577 -1.0354309 -0.6005499 -0.35130915
000050 4f f1 26 be 0b fe 08 c0 af 3c 9f bf c7 ee 9d bc
       -0.1630299 -2.1405056 -1.2440394 -0.019278897
000060 21 81 24 3e ca 5e 2d be 6a 31 10 c0 6a 51 6e 3f
       0.16064884 -0.1693069 -2.253016 0.9309298
000070 42 b0 c7 3d 17 d2 65 be 00 8d 06 bf 03 a0 d0 be
       0.097504154 -0.22443424 -0.525589 -0.4074708
000080 8e 5b b3 be 5a 93 f5 3e 21 00 64 3f 6a 37 1b bf
       -0.35030788 0.47963983 0.89062697 -0.6063143
000090 1b c2 63 3f e0 02 be bf c6 29 9b be 12 79 a9 bf
       0.88968056 -1.4844627 -0.30305308 -1.3240073
0000a0 b5 eb cc bf be 74 c3 be f5 7a 73 3e 76 37 0f 3f
       -1.6009432 -0.38175005 0.23777373 0.55944
0000b0 46 5f 25 bf 88 5d 33 be bb f2 34 3e a7 a7 bd bf
       -0.645985 -0.17516148 0.1767072 -1.4816788
0000c0 e9 bd 26 3e 1a 5c ac bf 02 7c a5 bf ac c3 31 bf
       0.16283382 -1.3465607 -1.2928469 -0.69439197
0000d0 db 91 39 3e 8c f4 d3 bf 8a 0d 09 3e ec ac a6 bd
       0.18122046 -1.6559005 0.13384071 -0.08138451
0000e0 0d 7e 04 3f 4c 33 93 be a3 9e e4 bf f8 2b af 3e
       0.5175484 -0.28750074 -1.7860912 0.34213233
0000f0 e7 42 54 3f 73 1b cb bd b3 fd 99 bd 77 ca 0e bf
       0.82914585 -0.09917345 -0.075190924 -0.55777687
000100 30 6f 28 3f 92 a0 97 3f 61 41 48 3d 8e 71 88 bf
       0.6579466 1.1845877 0.048890475 -1.0659654
000110 9c 04 4b bf 84 e5 01 3f 5b e1 a4 3f 45 e9 87 3f
       -0.7930391 0.5074084 1.2881273 1.0618063
000120 1c 46 74 3f d0 ff cc 3e db a5 9e 3e 79 5d 13 bf
       0.9541948 0.4003892 0.30985913 -0.575645
000130 82 08 9d be 8e 47 1c 3e 02 29 9b bf 52 0d 76 bf
       -0.30670553 0.15261671 -1.212189 -0.96114075
000140 eb 9c 06 3f 76 bf df be 2f 28 92 bf 31 99 29 c0
       0.5258319 -0.4370076 -1.1418513 -2.649975
000150 5c ba f6 3e 0f 4c 2e 3f 08 9f f6 3e e1 f6 fe bd
       0.48189056 0.68084806 0.48168206 -0.12449432
000160 a6 43 3d bf 7e d3 9f 3f 57 e6 86 bf dc b0 19 bf
       -0.7393135 1.2486417 -1.0539044 -0.6003549
000170 b3 d3 7f 3f 79 c2 d3 3e 43 a4 a9 3f 78 9e b2 3e
       0.999324 0.41359308 1.3253254 0.34886527
000180 02 31 4e bd 41 e9 5c be 40 3c a6 bf cb 6b d6 be
       -0.050339706 -0.21573354 -1.2987137 -0.41879115
000190 9a b5 ad 3f 7e d9 d3 3f af ae ab 3f e8 43 88 3d
       1.3571045 1.6550748 1.3412684 0.06653577
0001a0 80 00 78 be 3d 80 0b bf 08 12 51 bf 41 d5 9d 3f
       -0.2421894 -0.5449255 -0.8166814 1.2330705
0001b0 5d 94 1d c0 9a 62 c8 3e b7 3b 97 bd 04 70 91 3d
       -2.4621804 0.39137727 -0.073844366 0.071014434
0001c0 60 8d 1c bf c5 53 9e 3f 3e 98 85 3f 59 3a 1f 40
       -0.6115322 1.2369314 1.0437086 2.4879363
0001d0 9e 50 1c be 3d 46 a2 3f e1 ab 48 3f bc 66 25 3f
       -0.15265128 1.2677685 0.78387266 0.64609885
0001e0 0d 95 5c bf 3e 62 58 3f d8 ad a3 bf cb cd 8e bf
       -0.86164933 0.84524906 -1.2787428 -1.1156553
0001f0 f6 ff a1 3f 9e 48 69 3f 53 33 82 3f cb a7 b8 3f
       1.2656238 0.9112643 1.0171913 1.4426206
000200 1d 48 9b 3f bd 0b 0d bf b8 51 0e bf 40 0f 70 3f
       1.2131382 -0.55096036 -0.5559344 0.9377327
000210 16 b5 86 3f 17 be a6 3f 54 5b 01 40 ca c8 a1 3e
       1.0524013 1.3026761 2.0211992 0.31598502
000220 6e a5 b9 3e 16 e7 17 be 67 1a 25 bf 0b 85 e2 3f
       0.36259025 -0.14834246 -0.6449341 1.7696851
000230 55 8d 25 c0 b4 46 63 3f d9 29 5e be 6d d2 4e 3e
       -2.5867512 0.8877976 -0.21695651 0.20197459
000240 4a 39 37 bf 51 7f 37 3f 8e f6 3f 3e 9c ec 25 40
       -0.7157179 0.71678644 0.18746397 2.5925665
000250 59 e1 f0 3d f9 63 29 3e 3d 3c 97 3f 5e 8e ac 3c
       0.11761732 0.16542043 1.1815258 0.02106398
000260 23 56 e1 3f d7 d8 fc be 7a 91 5d bd cf 39 a6 3f
       1.7604412 -0.49384186 -0.054093815 1.2986392
000270 f5 28 ca 3f c1 d5 d1 3e 7c b3 ab bd 33 64 fd 3d
       1.5793749 0.40983394 -0.08383843 0.12372627
000280 51 05 3a 3e 45 3c bf bf e4 74 ba bf ef ad db bf
       0.1816609 -1.4940268 -1.4566922 -1.7162455
000290 c4 e6 48 bf 33 57 0d c0 13 e2 a2 bf 24 24 5d 3e
       -0.7847712 -2.2084472 -1.2725242 0.21595818
0002a0 8e 11 01 3f cb 67 c4 3e b5 84 08 40 d0 34 3a 3e
       0.5041741 0.38360438 2.1330998 0.18184209
0002b0 a9 00 41 c0 76 b4 df be 40 fe 43 3c 8b 10 3f 3f
       -3.0156653 -0.43692368 0.011962473 0.7463462
0002c0 1f ac 95 bf b9 43 e1 be 21 6a de bf 33 ae a5 3e
       -1.1693152 -0.4399698 -1.7376138 0.32359466
0002d0 23 67 ac bf ae 22 28 c0 1a c2 95 3e e3 6a cc 3e
       -1.3468975 -2.6271167 0.2924965 0.39925298
0002e0 fa 6e c8 bf cf 3e 65 bf b8 da a2 bf 5c 36 c9 3f
       -1.5658867 -0.89548963 -1.2722998 1.5719714
0002f0 20 a2 91 3e 13 a9 09 c0 a7 54 8d c0 63 bb 05 3f
       0.28444004 -2.1509445 -4.4165835 0.52239054
000300 de cb a6 3f 91 04 63 bf e0 c5 21 3e 01 86 16 bf
       1.3030965 -0.8867884 0.1579814 -0.58798224
000310 67 27 4e bf 6d 3f 34 bf 68 83 a5 3f 17 e6 1a bf
       -0.80528873 -0.7040928 1.2930727 -0.6050734
000320 0a 29 b2 3c 53 c7 22 bf 0a 6e af 3f a1 40 a9 3e
       0.021748085 -0.63585395 1.3705456 0.3305712
000330 f3 e7 15 c0 59 01 4d be 93 f1 6d be 66 03 c2 3f
       -2.342282 -0.20020045 -0.23236685 1.5157287
000340 91 ef 2c bf e9 1f 9b bd 59 19 0b c0 c2 7f 63 be
       -0.6755305 -0.07574446 -2.173422 -0.22216704
000350 d5 d6 08 be 28 93 f2 bf 27 53 16 be 3c f0 0e bd
       -0.13363202 -1.8951159 -0.14680158 -0.034897074
000360 56 00 80 bf cf b6 65 3e 62 cc fe be 1a 1c a0 3f
       -1.0000103 0.22433017 -0.49765307 1.2508576
000370 a4 dd b5 3d 0a f8 eb bf ac de 55 c0 52 35 5d 3f
       0.08880165 -1.843507 -3.3417158 0.86409485
000380 91 3a 3f 3f 0d 7b 7c bf 6c 79 37 bf cd db 97 bf
       0.7469874 -0.9862526 -0.7166965 -1.1863953
000390 d3 4b 2f bf d5 0b 0e bf 1c 01 80 3f fc 62 74 bf
       -0.68475074 -0.55486804 1.0000339 -0.9546354
0003a0 fd c2 71 3e 1c 64 a2 3f ef 5e 19 3f 24 20 25 3f
       0.23609538 1.2686801 0.5991048 0.6450217
0003b0 7f 46 f7 3f 4a 26 89 3e 3c c0 c8 be 5d f1 35 bf
       1.9318389 0.26787025 -0.39209163 -0.71071416
0003c0 8b bc f3 bf 3a 26 18 c0 0f ff f6 be 67 76 0b bf
       -1.9041914 -2.3773332 -0.4824147 -0.5447754
0003d0 11 86 77 bf 7d 03 c2 bc 2f 80 2b 3f 3a e9 80 3f
       -0.96688944 -0.023683304 0.6699247 1.0071175
0003e0 6a b3 dd 3f 8b dc b7 3f 7e f1 cf 3d 21 80 91 be
       1.7320378 1.4364179 0.10153483 -0.28418067
0003f0 c2 ab 09 40 e2 39 a5 3f d7 d4 09 c0 95 91 66 bf
       2.1511083 1.290829 -2.1536157 -0.9006589

bias f4 [20]
000000 7a c7 bf bf 93 7c 65 bf eb 99 8f 3f 44 e2 1b be
       -1.498275 -0.8964321 1.1218847 -0.15223032
000010 cc 6b 51 3f e6 35 82 bf 14 d6 22 c0 c4 69 4f 40
       0.8180511 -1.0172698 -2.5443163 3.2408304
000020 d1 e1 ff 3f 0c af 7e bf a9 98 b4 bf e0 35 eb be
       1.9990789 -0.9948585 -1.4109088 -0.4593954
000030 34 f3 f5 bf 45 29 ad 3e cf 22 1d bf b2 74 7a bf
       -1.9214845 0.3382055 -0.6138124 -0.9783431
000040 ab e0 df bf 10 fa e7 3f 5e c1 39 c0 c8 f7 b8 3f
       -1.7490438 1.8123188 -2.9024272 1.4450617

weight f4 [1, 20]
000000 73 9f 3d 3e 08 3a 58 3e 27 e5 6a bd 1c 3b 84 be
       0.18517856 0.21115887 -0.057347443 -0.25826347
000010 88 1c 18 3e f1 fb b1 3e 84 55 91 3e 31 32 70 be
       0.14854634 0.3476253 0.28385556 -0.23456647
000020 42 6b 2c be 4e 94 19 3e 11 03 60 be b4 37 70 3e
       -0.1683779 0.1499798 -0.2187617 0.23458749
000030 1e 0b 0f 3e 3a 49 5c bd 40 af 92 3e fd a0 14 3e
       0.13969085 -0.05378077 0.2864933 0.14514537
000040 b8 e3 b9 3d c0 e1 71 be 4b 5c 9e 3c ac 5d 86 be
       0.09076637 -0.23621273 0.019331118 -0.2624334

weight f4 [32, 96]
000000 2c 6b d7 3e 1d 99 70 3e f7 56 23 c0 2b 56 cd bf
       0.42073953 0.23495908 -2.552183 -1.6041921
000010 8b b0 bb 3e 1c 0f c3 3e 6a dd 47 bf 44 d6 e6 3f
       0.3665813 0.38097465 -0.78072226 1.8034139
000020 1e ca 87 3f a1 01 9a bf 8a 0b 4e 3f ad 1d 9f 3f
       1.0608556 -1.2031747 0.8048636 1.2430931
000030 b3 72 94 3e f7 bf 29 bf d5 59 98 3e 28 85 5c bf
       0.2899376 -0.6630854 0.29756036 -0.8614068
000040 55 9f 03 be 5e ca 1e 3c c9 6e b7 3e 34 d0 03 40
       -0.12853749 0.009691803 0.3582671 2.0595827
000050 e1 c9 96 bf 5c a7 f7 be 68 c3 62 bf 22 65 7b 3e
       -1.1780359 -0.48369873 -0.88579416 0.24550298
000060 e6 ac 29 be 98 49 df 3d c7 b1 ff 3e 7f f3 36 bc
       -0.16569862 0.10902709 0.4994032 -0.011166452
000070 06 a6 44 be f3 f6 b5 bd 83 56 61 bd 93 86 fd 3e
       -0.19203958 -0.088849925 -0.055014145 0.49516734
000080 5b de 04 3f 75 1d bd be 9e b4 f8 bf ae ca 93 bf
       0.5190179 -0.36936536 -1.943012 -1.1546228
000090 36 72 25 3f c7 c6 77 3e 78 60 85 be cf 19 ee 3f
       0.646274 0.24196921 -0.26050162 1.8601626
0000a0 11 5d 5d 3f c0 ad f6 bf c2 17 98 3e bd c6 b8 3f
       0.86470133 -1.9271774 0.29705626 1.443565
0000b0 dc 81 a7 3e 99 2c d7 be 05 32 ca 3e ba b2 56 bf
       0.32716262 -0.42026213 0.39491287 -0.83866465
0000c0 cc 61 39 bf 7c 14 7d 3e 92 25 87 3e 7e d6 32 40
       -0.7241485 0.24714845 0.2639585 2.7943416
0000d0 e8 6f b4 bf 30 85 32 bf 6b d3 8c bf 00 4f 78 3e
       -1.4096651 -0.6973448 -1.100202 0.24248886
0000e0 c9 b9 12 bf 48 66 77 bd e2 97 4d 3f c9 38 87 be
       -0.57314736 -0.060400277 0.8030988 -0.2641051
0000f0 fc 9b dd bd 4a f3 09 be 2b 26 59 be f4 5c 58 be
       -0.10820767 -0.13471714 -0.21205966 -0.21129209
000100 45 b0 82 3e c6 d2 94 bd b6 cd ee be e8 f3 27 3f
       0.25525108 -0.07266764 -0.4664132 0.65606546
000110 b3 7b 31 bd c8 0f 27 bf 74 95 26 3e 89 ac 82 3e
       -0.04333086 -0.65258455 0.1626795 0.2552226
000120 aa 2a 8e 3f a0 65 77 3f 53 21 80 3e a6 5f e3 be
       1.110677 0.9663944 0.25025424 -0.4440891
000130 1b 0c 09 be b3 93 bf 3e bb 05 ce be 18 fa 31 be
       -0.13383524 0.37417373 -0.40238747 -0.1738056
000140 aa be 5d 3e 59 8f f4 be 16 ab e8 3e 03 e6 cb bf
       0.21654764 -0.47765616 0.45443028 -1.5929569
000150 5f f0 c3 3e 46 0b 2a 3f d8 81 d8 be 2d 3a b1 bf
       0.38269326 0.6642345 -0.42286563 -1.3845879
000160 f9 e3 ca 3d 8f 99 05 40 d0 0d bc 3f 71 19 22 bf
       0.099067636 2.0874975 1.4691715 -0.6332007
000170 30 bb b7 3d 5d c6 c7 3c c1 ee 42 bf 80 c0 54 3f
       0.0897125 0.02438658 -0.7614556 0.8310623
000180 d6 46 d9 bc b5 c3 8f be a8 b7 06 bf f1 1a 4b 3b
       -0.026523035 -0.28079 -0.5262399 0.00309914
000190 0d 3d 1e 3f 28 1a f5 bf 39 05 8c bf fa 22 8e 3e
       0.61811906 -1.9148607 -1.0939094 0.2776106
0001a0 92 d6 0b bf 58 06 0b 3e 51 8a ab 3e e8 8e f3 be
       -0.54624283 0.13576639 0.33503965 -0.47569966
0001b0 c2 79 cd 3e 38 f0 80 3d 47 6e 12 3f 74 96 46 be
       0.40131956 0.06295818 0.5719952 -0.19393331
0001c0 99 8d ac be 9f 26 76 3f 99 24 a9 3b 69 12 6f 3f
       -0.3370178 0.9615268 0.0051618335 0.93387467
0001d0 ed 39 88 bf d5 14 f8 bd e2 79 ff bd 85 ff 5e 3d
       -1.0642678 -0.121133484 -0.12474419 0.0544429
0001e0 d5 fa 1e 3d 96 74 46 bf 0c 43 03 bf f1 06 8f bf
       0.03881343 -0.77521646 -0.5127418 -1.1173993
0001f0 09 90 e4 3f 0b 23 1e bf f9 65 96 bd d0 07 8b 3f
       1.7856456 -0.6177222 -0.073436685 1.0861759
000200 81 d0 e0 bc 00 b2 81 be 26 d1 4c bf 57 dd 01 be
       -0.027443172 -0.25331116 -0.80006635 -0.1268209
000210 b2 20 0a 3f 8a d3 0e c0 a6 a4 ab bf 5b fa 5b 3f
       0.5395614 -2.2316613 -1.3409622 0.8592889
000220 2a a2 02 3e d0 bf 14 bf 21 ba 76 3f 0f bb 4b bf
       0.12757173 -0.5810518 0.9637776 -0.79582304
000230 61 d8 be 3e 0a c0 aa 3e c5 b2 51 3f 9c 11 1f bd
       0.3727446 0.3334964 0.81913406 -0.038835153
000240 d2 65 98 bd 61 f0 8a 3f cb 4c cf bd 9b e2 8f 3f
       -0.07441296 1.0854608 -0.10122069 1.124103
000250 37 82 80 bf a5 58 88 be 00 74 2b bc 5b b0 cc bd
       -1.0039738 -0.2663013 -0.010464668 -0.09994575
000260 ab ab 10 3f ce 9c 17 bf 28 62 ae 3e 32 e5 8c bf
       0.56511945 -0.5922364 0.34059262 -1.1007445
000270 5a da 1b 40 ef 07 08 bf dc 0e 98 be 09 f2 aa 3f
       2.4352021 -0.53137106 -0.29698837 1.3355113
000280 6b 83 1d 3f 4b 65 06 3e b1 96 a8 3f fa cf aa be
       0.6152865 0.13124578 1.3170987 -0.333618
000290 a7 07 52 bf d1 b4 03 c0 ab 2e da be 73 bb bc be
       -0.82042927 -2.0579112 -0.4261373 -0.36861762
0002a0 78 6c 12 bf e6 eb 24 bf 52 79 21 3e 92 a4 19 bf
       -0.5719676 -0.6442245 0.15768936 -0.6001674
0002b0 e4 0e 98 3e 33 c1 31 3f 95 45 81 bf 2a 61 9e be
       0.2969886 0.69435424 -1.009936 -0.30933505
0002c0 a8 09 83 be 6c 86 4c bf ee fa 20 bf 13 59 f1 be
       -0.25593305 -0.7989261 -0.6288289 -0.4713827
0002d0 eb cf e6 3e 24 4f 53 3f 48 d7 58 3f d3 bf da 3d
       0.45080504 0.82542634 0.84703493 0.10681119
0002e0 44 d3 8b 3e 61 fb 30 bf 85 ce 4c bf 50 11 ff be
       0.2730962 -0.69133574 -0.80002624 -0.49817896
0002f0 b2 0b 89 3f 6a 2e 32 bf e6 47 b0 bf 8f e2 36 bf
       1.0706694 -0.6960207 -1.3771942 -0.7143945
000300 2e c8 b2 bf e3 62 9d 3f eb de 13 bf 69 67 e7 3f
       -1.396734 1.2295803 -0.5776202 1.8078433
000310 71 29 b2 bf 05 47 dd 3e 24 18 89 3f fb ff a4 bf
       -1.3918897 0.43218246 1.0710492 -1.2890619
000320 9d 7d d6 bf 81 cf de bf ec 15 d2 be a3 a0 81 bf
       -1.6757084 -1.7407075 -0.4103235 -1.0127147
000330 80 a1 28 3e e1 96 ce bf e7 73 7b be e4 dd 65 3f
       0.16467857 -1.6139795 -0.24555932 0.89791703
000340 e3 89 fa bf d1 05 ed bf 97 d9 38 3e 57 9b 1b bf
       -1.957333 -1.85174 0.18051754 -0.60783905
000350 e1 07 ae 3e 0d 32 1c c0 db 63 3e bf d2 6b 1c c0
       0.33990386 -2.4405549 -0.7437112 -2.4440808
000360 5b 70 8c bd ab ce e2 3e 4d 99 5f 3f 40 c4 5c 3f
       -0.068573676 0.442983 0.87343293 0.86236954
000370 17 0c 93 3e 86 fb e9 3e 11 63 4d bf 45 0f 01 3f
       0.2872016 0.4569971 -0.8022929 0.50413924
000380 59 52 87 bf ea 99 ba 3f 5e e2 c9 be df 89 e9 3f
       -1.0572006 1.4578221 -0.39430517 1.82452
000390 4f d3 e6 bf f7 b4 cd 3e ec b3 81 3f 69 4a 7b bf
       -1.8033236 0.40177128 1.0133033 -0.98160416
0003a0 15 7f fa bf 3e 4b f0 bf 09 07 8c bc b5 7c 32 bf
       -1.9570032 -1.8772962 -0.017093198 -0.6972154
0003b0 2b 33 91 3e 01 c0 be bf 93 71 4f be 08 50 57 3f
       0.2835935 -1.4902345 -0.20258169 0.84106493
0003c0 c5 cc 69 bf c5 a5 c2 bf 11 eb 1c 3e dd 0f 90 be
       -0.9132808 -1.5206839 0.15324046 -0.28137103
0003d0 69 2f d4 bc 1a 5f 00 c0 34 ea d6 bf d3 41 fb bf
       -0.025901513 -2.0058045 -1.6790223 -1.9629463
0003e0 45 43 4a 3b 94 6a 4f bc 90 8d 25 3f d5 1c 93 3f
       0.003086285 -0.012659688 0.6466913 1.1493174
0003f0 a5 e3 21 3f 49 c8 dd 3e 05 f3 4b bf 51 79 35 3f
       0.63237983 0.43316868 -0.79667693 0.7088824

bias f4 [32]
000000 db 33 a9 3e 37 3a ce be ff 3f 07 c0 3a 2f af 3f
       0.33047375 -0.4027879 -2.113281 1.3686287
000010 57 bf 91 be 4a c6 69 3f 5a f8 55 bf 7b 01 92 be
       -0.28466293 0.9131819 -0.8358208 -0.28516755
000020 85 ac 1a c0 8c b6 a2 be ba 13 0e be 42 99 17 bf
       -2.4167798 -0.31779897 -0.13874713 -0.5921823
000030 9e 75 d8 be ab 7d 08 c0 76 93 ad 3f c7 a3 9e be
       -0.42277235 -2.1326702 1.3560627 -0.30984327
000040 de a8 8a bf 0f b9 85 bd a5 1d 9e bf 82 e2 28 3f
       -1.0832784 -0.06529438 -1.2352797 0.65970623
000050 e9 9e 5d 40 51 05 fc 3f a3 fc 83 3e 44 03 89 3f
       3.462824 1.9689122 0.25778684 1.0704122
000060 64 f4 f8 be 59 ef a6 3d b0 af c8 bf 79 c5 6a be
       -0.48623955 0.08151121 -1.5678616 -0.22926892
000070 dd 62 c3 be 09 ae 3d bb 59 06 df 3f e6 1e 25 40
       -0.38161364 -0.0028942844 1.7423812 2.580011

weight f4 [1, 32]
000000 1c 6a b1 3c 08 f3 46 be b9 be f5 3d c4 a8 4c 3c
       0.021657042 -0.19428647 0.11999268 0.012491409
000010 70 47 83 bd f7 93 88 be bc 2f 64 be c5 c9 c8 3e
       -0.0641011 -0.26675388 -0.22283834 0.39216438
000020 72 9e bf bf 73 46 f7 3d 4d 97 a2 be 91 66 8c 3d
       -1.4970229 0.12073984 -0.31756058 0.068555005
000030 bd 49 22 3e 37 5f 6a 3e 69 db 63 3f 39 45 a5 3e
       0.15848441 0.22887884 0.8900667 0.32279375
000040 e7 72 df 3d 18 83 a7 be 9e fd 96 bd 8c b3 2e be
       0.10910588 -0.32717204 -0.073725924 -0.17060679
000050 b9 6f 95 bf ee 4c fa bd f3 c6 05 3f d6 cd 9e 3d
       -1.167472 -0.122217044 0.522567 0.07754104
000060 ac 60 a5 3c f9 d7 2f bf ff 54 bc 3e fe e2 ee bd
       0.020187698 -0.68688923 0.36783597 -0.11664389
000070 44 92 06 3e d2 8f f1 bc 2b f0 de 3e 94 c7 d7 bf
       0.13141733 -0.029487524 0.4354261 -1.6857781

weight_ih_l0 f4 [128, 1]
000000 11 ad 73 bd c7 22 50 bc d6 5e 33 3e 18 1f bc bf
       -0.05949122 -0.012703604 0.17516646 -1.4696989
000010 24 b1 35 bd d3 ad bc 3d 2b 00 9a bb aa 97 c1 3f
       -0.044358388 0.09212842 -0.004699727 1.5124409
000020 f1 99 8e 3f d8 c9 0b bf 21 00 1d 3e 10 30 b8 3b
       1.1140729 -0.54604864 0.1533208 0.005620964
000030 b1 fd 4a bd 23 78 ed bc 9b 5f 22 bc f4 25 86 3c
       -0.049558345 -0.02898795 -0.009910489 0.01637552
000040 31 59 8e c0 ca 12 1a 3d c8 fa d7 3d d0 8f db 3f
       -4.4483876 0.037615575 0.105458796 1.7153263
000050 8b 6f d3 bf 8b e9 03 bd 06 b8 57 3e ac a0 2e bc
       -1.6518415 -0.032205146 0.21066293 -0.010658424
000060 7a 83 12 bc 64 4a 11 be 37 a0 32 bd 0c 93 7f 3b
       -0.008942479 -0.14188534 -0.043609824 0.003899756
000070 a8 19 96 be f6 d4 8a 3b b4 10 d3 3f f4 fe 7e bc
       -0.2931645 0.0042368127 1.6489472 -0.015563715
000080 f1 e6 e6 3f ac 39 cf bd 06 d0 00 3e 2c d9 85 bf
       1.8039228 -0.10118422 0.12579355 -1.0456901
000090 43 a1 1d 3f dd ca b4 3e 6e ce 2c bc 0b 69 11 bf
       0.6157419 0.35311022 -0.010547264 -0.5680091
0000a0 56 ac a1 be ad 66 b9 3e f6 9d 48 3e 79 cb 04 be
       -0.31576794 0.36211148 0.19591507 -0.12968244
0000b0 de 5d 5b be 31 80 c0 be 14 5e b8 bc 38 4e af 3d
       -0.21422526 -0.37597802 -0.022505797 0.08559841
0000c0 6a 0a a4 be 09 8d ec ba 88 dd 31 be bd 3a 22 3f
       -0.32039195 -0.0018047403 -0.17369664 0.6337088
0000d0 bc f4 6a be d6 4d 2b bd 96 a9 f7 3e ff 97 3e 3c
       -0.22944921 -0.041822277 0.4837157 0.011632918
0000e0 1c b1 8b bd dc 09 2c 3d b5 a1 4f bc 43 70 2f 3e
       -0.0682089 0.04200159 -0.012672831 0.17132668
0000f0 ea b9 c3 be 1b ea 89 3c 3c 57 06 bf ea 14 9b 3e
       -0.3822778 0.016835263 -0.5247686 0.30289394
000100 28 c1 19 c0 80 3e f8 bc ab c6 e1 bd 93 8e 96 3f
       -2.4024143 -0.03030324 -0.11024221 1.176226
000110 1e fc 02 3d e2 41 09 bf ea a8 37 3d 29 8d bd 3f
       0.03197872 -0.53616154 0.044838823 1.4808704
000120 e2 3b 65 3f d2 a8 b2 3f b7 fc 90 3d d0 24 43 3d
       0.895445 1.395777 0.070794515 0.04764253
000130 62 63 fb 3c 72 ee 6b be 24 c3 73 3e f8 ac de bb
       0.030687038 -0.23040178 0.23804909 -0.006795522
000140 58 d1 8e 40 fc b1 f0 bc 78 92 c4 3d a6 14 e4 3f
       4.4630547 -0.029381745 0.09598249 1.7818801
000150 20 f1 7a 3f e1 f8 25 3c 6c 33 0f 40 d1 fa 18 bf
       0.9802418 0.010130138 2.2375135 -0.59757715
000160 6e 9a 54 bc a4 10 ea 3c 14 93 06 bd 92 72 17 3d
       -0.012976272 0.028572388 -0.03285511 0.036974497
000170 10 7b 9e 3c 41 4e 96 3b 26 63 ef bf 85 70 6b bb
       0.01934579 0.0045869653 -1.8702133 -0.003592522
000180 a8 76 6c 3f 8b 8c 3c bd f1 3f 78 bd 4f cb c3 bf
       0.92368555 -0.04603247 -0.060607854 -1.529642
000190 ba 7a 80 3d e6 f3 ae be 33 f3 8a bd 97 b2 8e 3f
       0.06273408 -0.34170455 -0.06784668 1.1148251
0001a0 99 74 44 be 72 12 0f 3e 82 26 90 3e fd 59 3b bd
       -0.19185103 0.1397188 0.2815438 -0.045740116
0001b0 65 46 10 bd 0d 07 85 3d 9f 71 61 3c 73 a3 db bd
       -0.035223383 0.064954855 0.01376 -0.10724535
0001c0 06 88 2a 3e 71 25 8c be 15 1f 2a be 3e bf ac 3f
       0.16653451 -0.27372316 -0.1661342 1.3495862
0001d0 7f fc 9a bf f7 e5 29 bc 7c 07 d3 bf 8c 15 b7 be
       -1.2108306 -0.010369769 -1.6486659 -0.35758626
0001e0 75 c0 2e bd 3c 68 ce 3d 0e 69 2f 3a 86 c2 cc 3a
       -0.04266401 0.10078475 0.00066913746 0.0015621937
0001f0 ec 48 50 3e 8c 9a b6 bd 26 84 09 3f 88 41 1e bd
       0.20340317 -0.08916196 0.5371727 -0.038636714

weight_hh_l0 f4 [128, 32]
000000 50 62 00 41 06 78 9f 3e 3c ef 9f 3e aa ff 0d bf
       8.024002 0.31146258 0.3123721 -0.5546824
000010 dc bb 97 bd d7 2f 33 3f ed 7e 1a 3f fb 6b 8c be
       -0.07408878 0.6999487 0.60349923 -0.27426133
000020 af 53 42 bf 72 82 f7 bf cc 98 93 bf f6 5e 38 3f
       -0.7590894 -1.9336684 -1.1531005 0.720199
000030 af 33 cf 3e 9c 59 fc 3e a5 d6 3c bd 4e 18 97 3f
       0.4046912 0.49287117 -0.04610314 1.1804292
000040 8c 84 b4 be 19 8d c9 3e c9 03 b2 3e 00 35 ba bf
       -0.35257375 0.3936546 0.34768513 -1.4547424
000050 cc 84 56 3f 50 d6 76 3e 55 0e 4f 3f db 31 d2 3e
       0.8379638 0.24105191 0.80881244 0.41053662
000060 6c 01 54 bf 5a 4b 07 bf 65 69 4a 3e 51 30 8c 3e
       -0.8281467 -0.5284935 0.19766767 0.27380612
000070 18 88 8d bf 2c 66 b0 3e c4 86 08 40 9f 02 6e bf
       -1.1057158 0.3445295 2.1332254 -0.9297275
000080 a2 34 11 be af 5b 9a bf 06 5b c7 3f 1d bb e0 3e
       -0.14180234 -1.205923 1.5574653 0.43892756
000090 e9 78 7a be 1c f9 68 3e 2a 8f db 3f 12 75 85 3e
       -0.24460186 0.22751278 1.7153065 0.2606588
0000a0 09 ca ac bf 84 47 72 bd 98 8d a9 be 53 ef a4 bb
       -1.3499156 -0.059150234 -0.3311584 -0.0050334125
0000b0 f7 34 1e 3e 57 2a a4 3e 34 b7 2b bf 51 a7 b0 bf
       0.15449892 0.32063553 -0.6707642 -1.3801061
0000c0 86 4c 17 3d f0 ad d7 be ce 02 98 be e5 17 10 bf
       0.036938213 -0.4212489 -0.2968964 -0.5628646
0000d0 80 74 1a 3d 2a 6f 09 3e dd 90 83 3f 17 ef 18 bf
       0.03770876 0.13421312 1.0278584 -0.5973982
0000e0 11 80 6b be 23 bd 88 be 9f b1 1b 3f 73 8b 8a be
       -0.22998072 -0.267068 0.60817903 -0.27059516
0000f0 e1 9a 82 bf 3c 31 4c bf ec 11 40 3e 1a 5f 8f bf
       -1.0203515 -0.79762626 0.18756837 -1.1200898
000100 d7 b5 36 bf 8d 9f 3a bd e9 79 ec 3f 10 e2 85 3f
       -0.71371216 -0.045562316 1.8474704 1.0459614
000110 82 d2 22 be 95 72 bc 3e 26 b0 80 bf 5d e7 5a 3e
       -0.15900615 0.3680617 -1.0053756 0.2137732
000120 57 73 cf be b1 0e ca 3e cd 99 fa 3f d6 73 44 be
       -0.40517685 0.39464334 1.9578186 -0.19184813
000130 c3 27 eb 3e dd 7f 03 bf 49 b9 87 bf 08 35 26 3f
       0.45928773 -0.5136698 -1.060342 0.6492467
000140 08 7e 93 be 43 20 63 3f bd 33 d9 bf 9e 61 69 bf
       -0.28807092 0.887211 -1.6968914 -0.91164577
000150 2e 9d e8 3e 50 7a 2c be 3f c0 9f bf 7f 65 67 bf
       0.4543242 -0.16843534 -1.2480544 -0.90389246
000160 a5 03 62 3f b1 84 3c bf 7a 83 8e 3e 52 90 5a be
       0.8828681 -0.7363997 0.27834684 -0.21344116
000170 0c 44 97 3f 48 d6 1b 3f fe ad cd 3f 2d 7f 74 3e
       1.1817641 0.6087384 1.6068723 0.23876639
000180 0a d7 2d 3e 0c 69 12 3d ae 69 c7 be 62 d9 bc 3f
       0.16976562 0.03574471 -0.38947815 1.475384
000190 37 e9 3a 3d 28 48 84 3e d3 a7 16 be 6d c4 3c bf
       0.045632567 0.258363 -0.14712457 -0.7373722
0001a0 fd bd b8 be e3 81 53 ba c4 34 2d 3f a9 71 d4 bc
       -0.3608245 -0.0008068366 0.6765864 -0.025933104
0001b0 75 01 3b bd 10 8f 5c be 58 83 ef bd 3d 30 f5 3d
       -0.045655686 -0.21538949 -0.11694974 0.11972091
0001c0 bc e8 25 3d 53 26 0f bf 71 18 3a be 29 94 42 3d
       0.040505156 -0.55917853 -0.18173386 0.047504578
0001d0 37 79 c9 3f 3f e6 c0 3d d2 c2 48 bf fc 3c d5 be
       1.5740117 0.09418916 -0.7842227 -0.4164809
0001e0 db 09 01 be 0d fb 05 3f 20 b8 d1 bd 88 1e 1d 3e
       -0.12601416 0.523362 -0.10240197 0.15343678
0001f0 5f 86 04 be 25 ff c5 bd 96 19 bf 3e da 28 5e 3e
       -0.12941884 -0.096678056 0.37324208 0.21695271
000200 0d b7 52 3e 0c d7 86 bd 82 fe 35 3f 3c 7f 91 3c
       0.20577641 -0.06583986 0.71091473 0.017760865
000210 4b c1 a2 be af 53 5c bb e9 17 98 3e cd 3d 70 3f
       -0.31788096 -0.0033619215 0.29705742 0.938443
000220 1a 74 ca be 4a fb 07 3d a0 4a ab be d8 53 f5 3e
       -0.39541703 0.033198632 -0.33455372 0.4791553
000230 95 2d f9 3e 1c 26 4f 3d 57 0c 8f be 8c 4f 92 3f
       0.4866759 0.050573453 -0.27939102 1.1430526
000240 31 6a 92 3d ee 99 09 3f 55 3b 1a be a7 51 ee be
       0.07149161 0.53750503 -0.15061696 -0.4654667
000250 70 b2 c9 be 7c fb 75 3e ab 1e b5 3e d5 1e 18 3e
       -0.3939395 0.24021715 0.3537496 0.14855511
000260 28 39 71 be fb 84 2d 3d ed e2 0d 3f 90 0d 54 bf
       -0.2355696 0.04236315 0.55424386 -0.82833195
000270 5b e8 25 bf 9f fc ae 3e 67 ec df 3e 5c 0f 0d 3f
       -0.6480767 0.3417711 0.43735048 0.5510156
000280 ea 00 d3 3f 25 35 96 3d db 0d e1 bf ca 64 ad bf
       1.6484654 0.07334355 -1.7582353 -1.3546383
000290 a9 7f 0c bd 88 97 c4 40 3d 66 53 3f bd bf 8f bf
       -0.034301434 6.1434975 0.8257788 -1.1230389
0002a0 60 9d 22 3f a5 e9 bf be d9 fe 19 bf 23 0c 62 be
       0.63521385 -0.37482944 -0.6015449 -0.22074942
0002b0 2a 20 3e bf 71 e3 80 bb a2 26 36 bf 28 23 3b 40
       -0.7426783 -0.003933363 -0.711527 2.9240208
0002c0 09 7b f7 3e 76 7e ba bf fb 64 f7 bf f6 f3 e3 be
       0.48336056 -1.4569843 -1.9327692 -0.44522065
0002d0 96 32 63 3d 26 8b 74 3e fa 3d 09 40 66 9d 1b 3d
       0.055468164 0.23881206 2.1444077 0.037991904
0002e0 7f ed 44 3e c9 ba ce 3e 57 71 61 bf 70 02 06 3f
       0.19231223 0.4037688 -0.8806357 0.5234747
0002f0 c3 e2 90 bf ad 4c b0 be 19 19 bf bf 59 17 65 bf
       -1.1319202 -0.344335 -1.4929534 -0.8948875
000300 59 8a 47 3e 60 b9 03 40 e0 f2 8b 3f de ac a0 3f
       0.19486369 2.0581894 1.0933495 1.2552755
000310 47 b6 83 3d 42 5e dd 3e fb 65 0a 40 79 21 c2 3d
       0.06431251 0.43235976 2.1624744 0.09479041
000320 86 e7 ba be b6 81 96 be 7e 26 8c be 50 c3 02 bd
       -0.36504763 -0.29395837 -0.27373117 -0.031924546
000330 bf 52 da bd 0e 6c 15 3f d0 76 01 bf 1c 5a a4 3e
       -0.10660314 0.58368003 -0.5057192 0.32099998
000340 b2 b3 16 3d 35 f5 22 bf 58 0a 81 3b c1 fe ef be
       0.036792465 -0.63655406 0.0039380006 -0.4687405
000350 e9 f6 e8 bd 63 3e c7 3f f9 eb 3b 3f ad 59 ac bb
       -0.113752194 1.5565914 0.7340694 -0.0052597136
000360 ff 64 70 be cf 45 0d 3f c4 c6 a6 3e 4e eb 0b 3f
       -0.23476027 0.55184644 0.3257352 0.5465592
000370 e2 a6 93 bf a8 b6 24 3e c9 64 e6 be ba 64 c5 bd
       -1.1535304 0.16085303 -0.44998768 -0.09638353
000380 b9 63 1d 3e fa e4 0a 3f 4b d6 c4 be 8b a2 4d 3f
       0.15370072 0.5425564 -0.38444743 0.80326146
000390 74 67 1b 3f a8 d9 84 be 9b 91 8a 3d 2e 2a c8 be
       0.6070473 -0.2594731 0.06766053 -0.3909468
0003a0 8e bf e9 3e e5 05 2b bf 44 93 dd be 58 69 3a 3e
       0.45653957 -0.6680587 -0.43276417 0.18204248
0003b0 9f 7b 89 bd 93 2f 94 bf f4 9c 95 3f 74 93 d2 be
       -0.06713032 -1.1577018 1.1688523 -0.41128123
0003c0 79 6f 29 bf af 1c 20 bf 07 c1 9b 3e f2 55 dc 3d
       -0.6618572 -0.6254377 0.30420706 0.1075858
0003d0 a1 e1 05 bf c8 fb b2 3e df 06 43 3f dc 43 82 bf
       -0.5229741 0.3495772 0.7618236 -1.0176959
0003e0 35 0b 42 3f b3 0d 15 c0 bc 88 83 3f 53 ce 2a 3f
       0.7579835 -2.3289611 1.0276103 0.66721076
0003f0 48 6a 58 bf f0 bc 11 be c8 21 13 be 0b f1 7c 3f
       -0.8453717 -0.1423223 -0.14368355 0.988053
