result/ver7_5/last.pt (torch, 308751 bytes, 81 tensors)

Encoder.encoder_lstm.weight_ih_l0 f4 [128, 6]
0	0xbede8299	-0.43459013
1	0xbfb44132	-1.4082396
2	0x3fbbcbf9	1.4671623
3	0xbf8fc14a	-1.1230862
4	0xbf32235b	-0.695852
5	0xc01d0e38	-2.4539928
6	0x3f80fb0f	1.0076617
7	0xbfa1010d	-1.2578446
8	0x3eb7a1c4	0.35865605
9	0xbffa4f4a	-1.9555447
10	0xbf9685d0	-1.1759586
11	0xc0068646	-2.1019454
12	0xbf5f302b	-0.87182873
13	0xbbcefb15	-0.0063165524
14	0x3e2b8ba3	0.16752486
15	0x3fc47cfd	1.5350643
16	0x3fb6fd2c	1.4296012
17	0x3f500340	0.8125496
18	0x3fa45058	1.2837019
19	0x3f4114b4	0.75422215
20	0x402b2149	2.6739066
21	0xbeb25120	-0.34827518
22	0x3e50ffda	0.204101
23	0x3ffd07bf	1.9767989
24	0xbd210751	-0.039313618
25	0xbf094f94	-0.5363705
26	0x3fa1cca6	1.2640579
27	0xc054ae94	-3.3231554
28	0xc01e5162	-2.4737172
29	0x3f0511a6	0.51980054
30	0x3f4ae65f	0.7925777
31	0x3ea7fcb6	0.3280999
32	0x3fcd3cb0	1.6034145
33	0x3e0e6875	0.13907035
34	0x3dfdc57a	0.12391181
35	0x3f70f635	0.9412568
36	0x3f41d571	0.7571631
37	0x409ac68f	4.836738
38	0x3fa17364	1.261334
39	0x4024d9db	2.5757968
40	0x3fee225f	1.8604239
41	0x3fd8bafe	1.6932065
42	0x3f4c7952	0.7987262
43	0x3f9e576c	1.2370429
44	0xbf469b0f	-0.7758035
45	0x3fafd9bb	1.3738321
46	0x3fa460e4	1.2842069
47	0xbf44bde7	-0.7685227
48	0xbf17ecde	-0.59345806
49	0xc0186e7f	-2.3817441
50	0xbde15b21	-0.110037096
51	0x3f148b90	0.58025455
52	0x3fc53785	1.5407568
53	0x3f93e4c2	1.1554186
54	0x3ef8e82e	0.4861464
55	0x3f07728c	0.5290916
56	0x3ef8251e	0.48465818
57	0xbf81fcc8	-1.0155268
58	0x4028a3c1	2.6349947
59	0x3ec1e7a6	0.37872046
60	0xbec3c28d	-0.38234368
61	0x3f0a08aa	0.5391947
62	0x3fafae16	1.3725002
63	0xbf9366ac	-1.1515708
64	0xbfd0c714	-1.6310754
65	0x40072e71	2.1122096
66	0x3d7062dc	0.05868803
67	0x3b7e8154	0.003883441
68	0xbfce6c87	-1.612687
69	0xbe26f236	-0.16303334
70	0x3df207e4	0.11817911
71	0xbd558195	-0.052125532
72	0x3f8febc0	1.124382
73	0x3de7fdc4	0.11327699
74	0x3fb75b17	1.4324673
75	0x3ef7c895	0.4839522
76	0xbf01ddbe	-0.50728977
77	0x3e662991	0.22476794
78	0x3ed67712	0.41887718
79	0x3ec9069e	0.3926286
80	0xbf723682	-0.9461442
81	0x401cf3bd	2.4523766
82	0x3ff8b057	1.9428815
83	0x3ee5b4cf	0.44864509
84	0x3f7d7937	0.99013084
85	0xbf7f97be	-0.99840915
86	0xbd797e7a	-0.060911633
87	0x3fe089a9	1.754201
88	0x3d8a49b9	0.06752343
89	0x3e3ab21a	0.18232003
90	0xbd973d0f	-0.07384693
91	0x3f15876e	0.58409774
92	0xbcd1fa0c	-0.025631927
93	0xbe995105	-0.29944625
94	0xbfbd03ca	-1.4766781
95	0x3d729495	0.05922373
96	0x3fe85d40	1.8153458
97	0xbe960fb5	-0.2930886
98	0x3e22a044	0.15881449
99	0x3ebc5b19	0.36788252
100	0x3fd06f94	1.6284051
101	0xc0091ac5	-2.142259
102	0x3f00a2a8	0.50248194
103	0x3e2d23f6	0.1690825
104	0xbf71e343	-0.944874
105	0x3f720097	0.9453215
106	0x3f8c8c27	1.0980271
107	0xbf5a5d61	-0.85298735
108	0xbed11b36	-0.40841073
109	0x3f9c313a	1.2202523
110	0x3f7af6b1	0.9803267
111	0x3fc56477	1.5421284
112	0x3ee7683b	0.4519671
113	0x3ecf2a3f	0.4046192
114	0x3f79c310	0.97563267
115	0xbfde2177	-1.7353963
116	0xbe705382	-0.23469356
117	0x3feb046e	1.8360727
118	0x3f7f848d	0.9981163
119	0xbfb26a2d	-1.3938652
120	0xc074e537	-3.8264902
121	0xc0736f87	-3.803682
122	0xc08186d8	-4.0477104
123	0xbf27920d	-0.6545723
124	0xbe821d92	-0.25413185
125	0xc01e549c	-2.4739141
126	0x3f95eeea	1.1713536
127	0x3ec98ee5	0.39366832
128	0x3f8076be	1.0036237
129	0x3fa46431	1.2843076
130	0x3f80aa86	1.005204
131	0x3fd4fa86	1.6638954
132	0x3ba0dfaf	0.0049094777
133	0x3ef44f32	0.4771667
134	0x3fd52f70	1.6655102
135	0xbef6431a	-0.4809807
136	0xbf0b560b	-0.54428166
137	0x40014392	2.0197492
138	0xbed21069	-0.41028145
139	0x3f5d7561	0.8650723
140	0x3f239e6d	0.63913614
141	0xbfa95f07	-1.3232125
142	0x3f18ddfa	0.5971371
143	0x3eb5355a	0.35392267
144	0xbf166299	-0.587442
145	0xc02bd7ec	-2.6850538
146	0xbfca82c1	-1.5821153
147	0x402545d4	2.582387
148	0x400882ed	2.132991
149	0xbf7103a8	-0.94146204
150	0x3f82064b	1.015817
151	0xbeadb0ed	-0.33924046
152	0x3fbab108	1.4585276
153	0x3ce1a416	0.027544063
154	0xbeaeb930	-0.34125662
155	0x3e3b8ce0	0.18315458
156	0xbf716c90	-0.9430628
157	0xbfb242f1	-1.3926679
158	0xbfab394d	-1.3376862
159	0xbfbcba5b	-1.4744371
160	0x3ff2e616	1.8976467
161	0xbeb34753	-0.35015354
162	0xbf89d693	-1.0768608
163	0xbfae15d8	-1.3600416
164	0xbf4cd563	-0.800131
165	0x3d75fe65	0.060057063
166	0xbf37261a	-0.71542513
167	0x3f35aba8	0.7096505
168	0x3fffcf8d	1.9985214
169	0x3f0a07a6	0.5391792
170	0x3f9cc128	1.2246447
171	0x3e149466	0.14509735
172	0xbe96a42d	-0.2942213
173	0x3f25b50b	0.64729375
174	0xbfa6b0ea	-1.302274
175	0xc041215b	-3.0176609
176	0xbfe997f7	-1.8249501
177	0x3f8a641a	1.0811799
178	0x3f4e5384	0.80596185
179	0xbfbb8958	-1.4651289
180	0xbdcbc6a3	-0.09949996
181	0xbfaad100	-1.3345032
182	0xbe3bf7b8	-0.18356216
183	0x3f4916ac	0.7855022
184	0x3ed7ffa4	0.42187226
185	0xbf804f46	-1.0024192
186	0xbfc222cf	-1.5166873
187	0xc0336c80	-2.8034973
188	0xbf21f0ed	-0.6325825
189	0x3fc6bb34	1.552588
190	0x4021fbf8	2.531004
191	0xbf358887	-0.7091145
192	0xbe137df8	-0.14403522
193	0xbf167c1a	-0.58783114
194	0xbf9ecf1f	-1.2406958
195	0xbfad997e	-1.3562467
196	0xbee7ecc0	-0.45297813
197	0xbfbc3e61	-1.4706537
198	0xbdd66c07	-0.10469823
199	0xc0076100	-2.1152954
200	0xbde69067	-0.11258011
201	0xc00e6533	-2.2249267
202	0xbff684de	-1.9259298
203	0xbfe6ffd6	-1.8046825
204	0x3f0ae996	0.54262674
205	0x40112d18	2.2683773
206	0x3f70edc8	0.94112825
207	0x3e6e985d	0.2330031
208	0x3eec7842	0.461855
209	0x3ff505ee	1.9142435
210	0x4002b715	2.0424244
211	0x403ba836	2.9321418
212	0x40370564	2.859704
213	0x40588687	3.383211
214	0x3fe901af	1.8203639
215	0x402e8736	2.7270026
216	0xbf39793f	-0.7245063
217	0xbedc1af9	-0.42989329
218	0x3f81dd2f	1.0145625
219	0xc010b6d5	-2.2611592
220	0xbed52cb3	-0.41635665
221	0x3fb04c9e	1.3773382
222	0x3ed81407	0.4220278
223	0xbf75f68a	-0.96079314
224	0x3f059734	0.5218384
225	0xbfa5cd6e	-1.2953317
226	0xbf6fd978	-0.93691206
227	0xbf33e173	-0.70265883
228	0x4024f05c	2.5771704
229	0x40200971	2.5005763
230	0x3feee47d	1.8663479
231	0x3eacbf61	0.3373976
232	0x3efc225f	0.49244973
233	0x40570d9b	3.3602054
234	0x4054bca3	3.3240135
235	0x40007a36	2.0074592
236	0x404db994	3.2144518
237	0xbf5e7c0e	-0.8690804
238	0xbf56e051	-0.8393603
239	0x40065815	2.099126
240	0x3eebccf5	0.46054807
241	0xbf17668f	-0.59140867
242	0x3fa3d54a	1.2799466
243	0xbfc8f67a	-1.5700219
244	0xc0025b91	-2.0368388
245	0x3feb993b	1.8406137
246	0xbeb3677a	-0.35039884
247	0x3edd8184	0.43262875
248	0x3f60414f	0.87599653
249	0x3dd157c0	0.10221815
250	0x3fed18cc	1.8523192
251	0x3eb51ef2	0.35375172
252	0xbf919d9a	-1.1376221
253	0xbfab8c98	-1.3402281
254	0xbe7a9906	-0.24472436
255	0xbf3ff5fd	-0.74984723

Encoder.encoder_lstm.weight_hh_l0 f4 [128, 32]
0	0xbfaaee63	-1.3354
1	0x3fa2d275	1.2720476
2	0x3fe6e73c	1.8039317
3	0x3e47ef4b	0.19524877
4	0x3f96df77	1.1786946
5	0x3f652314	0.8950665
6	0xbf49c1ac	-0.78811145
7	0x3f5a3330	0.85234356
8	0xbfacd825	-1.3503462
9	0xbeee2b30	-0.46517324
10	0x3f4adfb9	0.79247624
11	0x3f1bfbe0	0.60931206
12	0xbde20f4d	-0.11038075
13	0xbfa121b4	-1.258841
14	0x3f1148aa	0.567515
15	0x3ede400c	0.4340824
16	0x3f3f7125	0.7478202
17	0x3f67f764	0.90611863
18	0x3ef71d12	0.48264366
19	0xbfaf68fe	-1.3703916
20	0x3ff80884	1.9377599
21	0x3f04f20a	0.5193182
22	0xbf29989a	-0.66248477
23	0x3ed41cc7	0.41428205
24	0x3eda0caf	0.42587802
25	0x3ea116b7	0.31462643
26	0xbf6f2595	-0.9341672
27	0xbd215936	-0.03939172
28	0xbf939cae	-1.153219
29	0xbf274616	-0.6534132
30	0xbd5a0953	-0.05323155
31	0xbfd4b85f	-1.6618766
32	0xbfb6e538	-1.4288702
33	0x3f1172c6	0.56815755
34	0xbf4487ee	-0.7676991
35	0xbf4a4e94	-0.7902615
36	0x3fe50843	1.7893146
37	0x3fd4253a	1.6573861
38	0x3f8cb805	1.0993658
39	0xbfbf1f10	-1.4931355
40	0x3f46a746	0.7759899
41	0xbe3b398d	-0.18283673
42	0xbfc8b25d	-1.5679432
43	0xbfbe9d99	-1.4891845
44	0xbf1c49e6	-0.6105026
45	0xc004923d	-2.0714257
46	0x402b6345	2.677934
47	0x3f1d1ade	0.6136912
48	0xc03488c2	-2.820847
49	0x4017c2bd	2.371261
50	0x3ea2a5fc	0.3176726
51	0xbf819d2d	-1.0126091
52	0x3f7d8ecc	0.99046016
53	0x3f9436b9	1.15792
54	0xbeb20c88	-0.34775186
55	0xbf04e905	-0.5191806
56	0x3fc91907	1.5710763
57	0xbec0ccce	-0.37656254
58	0xc0173465	-2.362573
59	0x3f163c7d	0.5868605
60	0xbf1ca4ce	-0.6118897
61	0xc0108eda	-2.258719
62	0x40212a3a	2.5182023
63	0xc060f2b5	-3.5148137
64	0xbfa27a3b	-1.2693552
65	0xbe0f1ef9	-0.13976659
66	0xbdda47bf	-0.10658216
67	0xbee35aae	-0.4440512
68	0xbf2d49c3	-0.67690676
69	0xbfa9a871	-1.3254529
70	0x3e8fad3e	0.2806186
71	0xbd366f7f	-0.044539925
72	0x3f7402dd	0.9531687
73	0x3fb7b100	1.4350891
74	0x3f09a8c5	0.53773147
75	0x3f31d0f2	0.6945945
76	0x3f1e1f6c	0.61766696
77	0x3fbbe130	1.4678097
78	0xbfe1a5dd	-1.7628742
79	0x3fb29df9	1.395446
80	0xbea802c5	-0.32814613
81	0xbff6a6a8	-1.926961
82	0xbf9b20b3	-1.2119354
83	0x3dbccf02	0.09219171
84	0x3fbdd3cf	1.4830264
85	0x3f591eef	0.84812826
86	0xbf9e6de3	-1.2377285
87	0xbec40375	-0.38283888
88	0xbf7f1a40	-0.9964943
89	0x3f913e09	1.1347057
90	0x3f5835f4	0.84457326
91	0xbfe32a0b	-1.7747205
92	0x3f06679f	0.52501863
93	0x3f389b43	0.7211191
94	0xc0570d5a	-3.36019
95	0x4035c573	2.8401763
96	0x3ddde65d	0.10834954
97	0xbfa80c93	-1.3128837
98	0x3fbe5b5b	1.487163
99	0x404e6ee5	3.2255185
100	0xbedfaba9	-0.43685654
101	0xbfcf5a24	-1.6199384
102	0xbe1bc9d7	-0.15213715
103	0x3f47a5ee	0.77987564
104	0x3f504b4c	0.81364894
105	0x3f79b5a0	0.9754276
106	0x3f38b47f	0.72150415
107	0xbeb1b72b	-0.3471006
108	0xbf016adb	-0.50553674
109	0x3eb327d2	0.34991318
110	0xbf91ea39	-1.1399604
111	0xbe2aa4d5	-0.16664441
112	0xc007ef65	-2.1239865
113	0xbf1838bb	-0.59461564
114	0xbf8ba110	-1.0908527
115	0x3ed03f02	0.4067307
116	0x3efbae71	0.49156526
117	0xbfe5fae8	-1.7967196
118	0xc0071d08	-2.111147
119	0xc03ffada	-2.9996858
120	0x3cc03948	0.023464814
121	0x4026ca9f	2.606117
122	0xbec1c606	-0.37846392
123	0x3d81ceb4	0.063382536
124	0x3fa82a55	1.3137919
125	0x3fd3d9ab	1.6550802
126	0x3f5c4b32	0.8605224
127	0xc01f5a58	-2.4898891
128	0x3eaca30e	0.3371815
129	0xbf6baa6b	-0.9205691
130	0x40321165	2.7823117
131	0x3f7e4bbd	0.9933432
132	0x3f2d4079	0.676765
133	0xbe61e13b	-0.22058575
134	0xbf6519d7	-0.89492553
135	0xbf911fe0	-1.1337852
136	0x4004ef45	2.0771039
137	0xbf9cfd50	-1.2264805
138	0xbf4ed955	-0.8080037
139	0xbfb6a7d9	-1.4269973
140	0xbeb858c1	-0.36005214
141	0xbf06daed	-0.52677804
142	0x3eed4ab7	0.46346065
143	0x3f909db1	1.1298124
144	0xbf3df468	-0.7420106
145	0x3fa56760	1.2922173
146	0x3f90c80d	1.1311051
147	0x3f7f33fd	0.996887
148	0xbfb66020	-1.4248085
149	0x3fd06007	1.6279305
150	0x400c9bf6	2.197019
151	0xbfadb696	-1.3571346
152	0x3faf12ff	1.3677672
153	0xbfedc3bf	-1.8575362
154	0x3df63f20	0.12023759
155	0x3f2f37e7	0.68444675
156	0xbf28c0a2	-0.65918934
157	0xbf9b3bc8	-1.2127619
158	0x3f813644	1.0094686
159	0xbf92851f	-1.1446875
160	0x3f6478a6	0.89246595
161	0xbf01ff06	-0.5077976
162	0x3f6b3676	0.91879976
163	0xbf383a27	-0.71963733
164	0x4040741f	3.0070875
165	0x400012eb	2.0011547
166	0xbefa567d	-0.4889411
167	0xbf90c43a	-1.1309884
168	0xbfa2e852	-1.2727149
169	0xbfd11338	-1.633399
170	0xbf597676	-0.8494638
171	0xbf71cec2	-0.9445611
172	0xbd7ffcfb	-0.06249712
173	0xbe62b89b	-0.22140734
174	0x3f663477	0.89923805
175	0xbe6ebb50	-0.23313642
176	0xbdb26848	-0.08711296
177	0x3f947785	1.1598974
178	0xbeb75cfa	-0.35813123
179	0xbf41524b	-0.75516194
180	0x3f1f912b	0.62330884
181	0x3f91960e	1.1373918
182	0xbf48d5f2	-0.78451455
183	0x4033d01c	2.809577
184	0x3f610210	0.8789377
185	0xbe8417aa	-0.25799304
186	0xbf6095b3	-0.8772842
187	0x40088cb2	2.1335874
188	0xbf344b58	-0.70427465
189	0xbf8ecb4c	-1.1155791
190	0x4027b749	2.6205618
191	0xc03f355e	-2.9876323
192	0x3df3c178	0.119021356
193	0x3ef059c6	0.46943492
194	0x3fd41d6e	1.6571481
195	0x3f8ae451	1.0850927
196	0xbe082e2b	-0.13298862
197	0x3d9cdf72	0.07659806
198	0x3ff7220d	1.9307266
199	0xbf92fd85	-1.1483618
200	0xbfdc2de0	-1.72015
201	0x3f82cb4c	1.0218291
202	0xbec07f58	-0.37597156
203	0x3edee1ff	0.43531796
204	0x3fa29b40	1.2703629
205	0xbf69206f	-0.91065115
206	0x3f94f06f	1.1635875
207	0xbef6804f	-0.48144767
208	0xbea6b87d	-0.32562628
209	0x3f0de1df	0.55422777
210	0x3f4ba452	0.7954761
211	0xbf0956e8	-0.53648233
212	0xbfd37398	-1.6519651
213	0x3c5f9a58	0.013647638
214	0x3fc49345	1.5357443
215	0xbeb50b3e	-0.3536014
216	0x3f507b51	0.81438166
217	0x3fe62df5	1.7982775
218	0x40386cd8	2.8816433
219	0x3f277065	0.65405875
220	0x3f3aad9c	0.72921157
221	0x3f01459b	0.50496835
222	0xbeaf639d	-0.34255686
223	0xbdf82e4e	-0.12118207
224	0xbf968117	-1.1758145
225	0xbf950f0b	-1.1645216
226	0x3f900d0e	1.1253984
227	0xbf917359	-1.1363326
228	0x3e4bf9ad	0.19919463
229	0x40076998	2.11582
230	0x3f7fb14c	0.9987991
231	0xc04e0063	-3.2187736
232	0x3f8dae4c	1.1068816
233	0xbf285b40	-0.65764236
234	0x3f8d3798	1.1032591
235	0xbfa8b3c8	-1.3179865
236	0x3fb59c29	1.4188281
237	0xbfca7f89	-1.5820171
238	0x3f57cfc9	0.8430143
239	0xbf6fb99e	-0.93642604
240	0xbf5af1c1	-0.8552514
241	0x3fbe962a	1.4889576
242	0x3f3084e7	0.6895279
243	0x3cac6ff3	0.021049475
244	0xbffb5b3b	-1.9637216
245	0x3f059a40	0.5218849
246	0xbeceafd0	-0.4036851
247	0xbec12508	-0.37723565
248	0x3e6bf26a	0.23041692
249	0x3f86263e	1.048042
250	0x3dcc58b6	0.09977858
251	0x3fc0237b	1.5010828
252	0x3c22f194	0.009945292
253	0xbfa93e56	-1.3222148
254	0x3f87ec3f	1.0618972
255	0x3f57275b	0.84044427

Encoder.encoder_lstm.bias_ih_l0 f4 [128]
0	0xbfec4ed8	-1.8461561
1	0xbf178585	-0.5918811
2	0xbf9c166c	-1.2194343
3	0xbdb88214	-0.090091854
4	0xbfb10588	-1.3829813
5	0x3c898a55	0.016789595
6	0xbf0b1c68	-0.5434022
7	0xbeeeb034	-0.46618807
8	0xbfaaa0b2	-1.333029
9	0xc000f52c	-2.014964
10	0xbfb978ab	-1.448995
11	0xbfeb6587	-1.8390359
12	0xbfd9030a	-1.6954052
13	0xbf182ce0	-0.59443474
14	0xbfcab8ae	-1.583761
15	0xbff0baf0	-1.8807049
16	0xbf2a690a	-0.66566527
17	0xbf893b12	-1.0721152
18	0xbd979732	-0.07401885
19	0xbf76497e	-0.9620589
20	0x3e4aa729	0.19790329
21	0xbfde14af	-1.7350062
22	0x3ee73ad2	0.45162064
23	0xbf8bff83	-1.0937351
24	0xbf7354d3	-0.95051306
25	0xc00860b6	-2.1309028
26	0xbed7afc7	-0.42126295
27	0xbf7b3b29	-0.98137146
28	0xbfbd54a4	-1.4791455
29	0xbde109cc	-0.10988197
30	0xc00b620d	-2.1778595
31	0xbe95a916	-0.29230565
32	0xbf2beb8f	-0.6715631
33	0x3ee69298	0.45033717
34	0xbfbed2ee	-1.4908121
35	0x3f5a33ad	0.852351
36	0x3ea43841	0.32074168
37	0x3e9fb0ec	0.31189668
38	0x3f8da545	1.1066061
39	0xbf204fcd	-0.62621766
40	0xbf7c9a3a	-0.9867283
41	0x3e83e5ab	0.2576116
42	0xbf53ae90	-0.82688236
43	0xbf6e34ce	-0.93049324
44	0xbfd77e80	-1.683548
45	0x3dce8491	0.10083879
46	0xbf93f1f9	-1.1558219
47	0xbec5cc64	-0.386325
48	0xbf068969	-0.5255342
49	0x3836beb8	4.3569802e-05
50	0xbe107583	-0.14107327
51	0x3fe19d21	1.7626077
52	0x3f86e788	1.0539408
53	0x400904f7	2.140928
54	0x3f6c6641	0.9234353
55	0x3e9f7aa1	0.31148246
56	0xbf9fbfa2	-1.2480357
57	0xbf295c8e	-0.6615685
58	0xbf4e121a	-0.8049637
59	0xc006c1a1	-2.1055682
60	0xc01fa64d	-2.4945252
61	0x3f8311af	1.0239772
62	0xbee066f3	-0.43828544
63	0xbf382341	-0.71928793
64	0x3d295fe9	0.041351233
65	0xbfa7cc93	-1.3109306
66	0xbde977e4	-0.113998204
67	0x3eac7d13	0.33689174
68	0xbf83f4c7	-1.0309075
69	0xbf8eafb2	-1.1147368
70	0xbd987f7a	-0.07446189
71	0xbebc01b8	-0.3672006
72	0xbe9b74a3	-0.30362424
73	0x3e808f3e	0.25109285
74	0xbec483b8	-0.38381743
75	0xbf7289ff	-0.94741815
76	0x3e7f30ba	0.24920931
77	0xbe2f4a8f	-0.17118286
78	0x3fbb7244	1.4644246
79	0xbebae0d5	-0.36499658
80	0xbf0b1d21	-0.5434132
81	0xbd68b787	-0.05681565
82	0xbc363ba4	-0.011122618
83	0x3e942241	0.28932384
84	0xbf67fbe3	-0.90618724
85	0xbec16112	-0.3776937
86	0x3e467b1a	0.19382897
87	0x3eb52558	0.35380054
88	0xbe8ccf2e	-0.27501816
89	0x3ea81d88	0.3283503
90	0x3f09c233	0.5381195
91	0xbf0c5eb0	-0.5483198
92	0x3f149ebb	0.58054703
93	0x3e8498b7	0.25897762
94	0xbf33b935	-0.7020448
95	0x3f07d24c	0.5305526
96	0xbfdd1dde	-1.727474
97	0xbfc9c4a7	-1.5763139
98	0xbf8f4e44	-1.119576
99	0xc00569ae	-2.0845752
100	0xbfc5a02f	-1.5439509
101	0xc04e24aa	-3.2209878
102	0xbf943369	-1.1578189
103	0xbeb01468	-0.3439057
104	0xbfd59e5b	-1.6688951
105	0xbf4a30ee	-0.7898091
106	0xbfde753d	-1.7379528
107	0xc02e05f2	-2.7191129
108	0xbff5569d	-1.9167057
109	0xbf0fda6c	-0.5619266
110	0xbfe2efe8	-1.7729464
111	0xbede4b4c	-0.43416822
112	0xbfe33999	-1.7751952
113	0xbf833081	-1.0249177
114	0xbf87bf56	-1.0605266
115	0xbe372071	-0.17883469
116	0xbf5b81c1	-0.85744864
117	0xbeca514d	-0.39515153
118	0xbfb29fc8	-1.3955011
119	0xbf0d61c7	-0.5522732
120	0xbf42eaf0	-0.76139736
121	0xbfc6f060	-1.5542107
122	0xbf8f4a1b	-1.119449
123	0xbea6b86b	-0.32562575
124	0xbfae762f	-1.3629817
125	0xbf24fc21	-0.6444722
126	0xbfe71d1b	-1.8055757
127	0xbf9e42dd	-1.2364155

Encoder.encoder_lstm.bias_hh_l0 f4 [128]
0	0xbfe95e78	-1.8231955
1	0xbee255d9	-0.44206122
2	0xbf8bba08	-1.0916147
3	0xbd7e17c8	-0.0620344
4	0xbfa6f217	-1.304263
5	0xbd8798f3	-0.066209696
6	0xbf4a5ab0	-0.7904463
7	0xbf36a2f5	-0.713424
8	0xbfc264d1	-1.5187017
9	0xc00aedb0	-2.1707573
10	0xbfbd7c12	-1.4803488
11	0xbfe3c9e4	-1.7795987
12	0xbfbddfd1	-1.4833928
13	0xbf303733	-0.6883423
14	0xbfb50469	-1.4141971
15	0xbfe6c5f0	-1.8029156
16	0xbf2787b2	-0.6544143
17	0xbf923a5a	-1.1424057
18	0x3e5c231c	0.21497768
19	0xbf619f59	-0.8813377
20	0x3e7b227d	0.24524875
21	0xbfc981c3	-1.5742725
22	0x3f0d0926	0.55092084
23	0xbf9bf5a0	-1.2184334
24	0xbf9169a0	-1.1360359
25	0xc006d6c4	-2.1068583
26	0xbf1998c0	-0.59998703
27	0xbf5af515	-0.85530216
28	0xbfbedc46	-1.4910972
29	0xbe1712e0	-0.14753294
30	0xc003cca7	-2.059366
31	0xbdb64bf1	-0.089012034
32	0xbf2ed2a6	-0.68290174
33	0x3ed8e87e	0.42364877
34	0xbfddb01c	-1.7319369
35	0x3f2552b7	0.6457934
36	0x3f1ba3cd	0.60796815
37	0x3ea98cca	0.33115226
38	0x3f960f21	1.1723367
39	0xbf5113f4	-0.8167107
40	0xbf346353	-0.70464057
41	0x3e48bf9c	0.19604343
42	0xbf364591	-0.711999
43	0xbf62e167	-0.88625187
44	0xbffec33d	-1.9903332
45	0x3e545c21	0.2073827
46	0xbf9235a1	-1.1422616
47	0xbeac2f76	-0.3362996
48	0xbeda1b79	-0.42599085
49	0x3e424812	0.18972805
50	0xbdeb37fc	-0.114852875
51	0x4001a562	2.0257192
52	0x3f8766ad	1.0578209
53	0x3ff8ca61	1.9436761
54	0x3f6b9333	0.92021483
55	0x3e41802f	0.18896554
56	0xbfab708a	-1.3393719
57	0xbf3ae3ba	-0.73003733
58	0xbf224c61	-0.63397795
59	0xbfe520fd	-1.7900692
60	0xc01e7be6	-2.4763122
61	0x3f76d336	0.9641603
62	0xbed0497a	-0.40681058
63	0xbf541d88	-0.8285756
64	0xbbd9aaa4	-0.0066426564
65	0xbfb217ef	-1.3913554
66	0xbe9d3831	-0.30706933
67	0x3eda8029	0.42675903
68	0xbf6c2650	-0.9224596
69	0xbfa6355d	-1.2985035
70	0x3ccc1eaf	0.024916975
71	0xbed69e67	-0.41917726
72	0xbe9b0c77	-0.30282947
73	0x3ebd6b65	0.36995998
74	0xbe12ce74	-0.14336568
75	0xbf5a80ca	-0.85352767
76	0x3e7eb115	0.24872239
77	0x3be2e794	0.006924579
78	0x3f9e32a4	1.2359204
79	0xbeb15bcc	-0.34640348
80	0xbed8af41	-0.42321208
81	0xbe2dbc6f	-0.16966413
82	0xba027ba7	-0.0004977532
83	0x3bb26deb	0.005445232
84	0xbf6fa003	-0.93603534
85	0xbecac4de	-0.39603323
86	0x3eeaf414	0.45889342
87	0x3e5a39b2	0.21311072
88	0xbeacbe25	-0.3373882
89	0x3ea8477f	0.32867047
90	0x3f08e8b7	0.53480095
91	0xbf04ba10	-0.5184641
92	0x3e76791d	0.24069639
93	0x3d907ddd	0.070552565
94	0xbf07b894	-0.5301602
95	0x3eb93d88	0.36179757
96	0xbff0d0ef	-1.8813761
97	0xbfde7da3	-1.7382091
98	0xbf702b4f	-0.93816084
99	0xc00b1cfd	-2.1736443
100	0xbfccb92a	-1.5994008
101	0xc055b866	-3.3393798
102	0xbf854360	-1.0411186
103	0xbea50e55	-0.32237497
104	0xbfee8195	-1.8633295
105	0xbef90f60	-0.48644543
106	0xbfda291c	-1.7043796
107	0xc01e150d	-2.4700348
108	0xbff6bf59	-1.9277145
109	0xbf506761	-0.81407744
110	0xbff96035	-1.9482485
111	0xbebb82be	-0.36623186
112	0xbff40262	-1.9063227
113	0xbf34aa45	-0.7057231
114	0xbf881897	-1.0632504
115	0xbe0ff75c	-0.14059204
116	0xbf8ee5e7	-1.1163911
117	0xbf1536de	-0.58286846
118	0xbfb0619c	-1.3779788
119	0xbec068fc	-0.37580097
120	0xbf837be6	-1.0272186
121	0xbfa51d05	-1.2899481
122	0xbf932f29	-1.1498767
123	0xbeb32a39	-0.3499315
124	0xbf9af009	-1.2104503
125	0xbf6db066	-0.9284729
126	0xbfd7b18e	-1.685106
127	0xbf8fafdd	-1.1225544

Encoder.encoder_attn.0.weight f4 [20, 84]
0	0x3f82ce33	1.0219177
1	0x3e906032	0.2819839
2	0xbef529a0	-0.4788332
3	0x3fbf11a1	1.4927255
4	0x3fc0bdfc	1.5057979
5	0xbe1b3cce	-0.15159914
6	0x3fd882a6	1.6914871
7	0xbf075949	-0.52870613
8	0xbfebc1b8	-1.8418493
9	0xbeb06e28	-0.34459043
10	0x3e0aa586	0.13539705
11	0x3ee2052f	0.4414458
12	0x3e1b39f3	0.15158825
13	0x3e9708ee	0.29499
14	0xbd0b7d00	-0.034054756
15	0x3eaa8433	0.33303985
16	0xbf610c03	-0.87908953
17	0x3f72a4f7	0.94782966
18	0x3f66127f	0.8987197
19	0xbea5128c	-0.32240713
20	0x3f1a36b8	0.60239744
21	0x3f31c47f	0.69440454
22	0xbc010e5f	-0.0078769615
23	0xbc716ea2	-0.01473585
24	0x3ea24d24	0.3169948
25	0xbfc92245	-1.5713583
26	0xbf6db7b5	-0.9285844
27	0xbf8450cf	-1.0337161
28	0x3f077a46	0.5292095
29	0x3e11ad13	0.14226179
30	0x3f74bae8	0.95597696
31	0xbe3be8f4	-0.18350583
32	0x3f208cdf	0.6271495
33	0x3f157cc4	0.583935
34	0xbf55b2bb	-0.83475846
35	0xbe8ca76f	-0.27471492
36	0x3fee4c45	1.8617026
37	0x3faf2003	1.3681644
38	0x3fe9625c	1.8233142
39	0xbf7ddbbb	-0.9916341
40	0xbf578c12	-0.84198105
41	0x3e143973	0.1447504
42	0x3f1e6b6d	0.6188267
43	0x3fd017fd	1.6257321
44	0x3f8d3653	1.1032203
45	0x3f06eff0	0.52709866
46	0x3e3076c2	0.17232803
47	0x3f46ebe4	0.7770369
48	0x3e7e8b5b	0.24857847
49	0x3d198e39	0.03748915
50	0x3f8dc43c	1.1075511
51	0x3e7c7d28	0.24657118
52	0x3e35ba82	0.17746928
53	0x3f9367e2	1.1516078
54	0xbf73fcc8	-0.9530759
55	0x3e4ff34c	0.20307654
56	0x3e9074f5	0.2821423
57	0xbf87528e	-1.0572069
58	0x3f49bbea	0.7880236
59	0xbf6d69aa	-0.92739356
60	0xbb1674c5	-0.0022957784
61	0xbebe4a65	-0.37166134
62	0x3f3d1767	0.73863834
63	0x3eec93c1	0.46206477
64	0x3f531dab	0.82467145
65	0xbe93f666	-0.28898925
66	0xbeb9965f	-0.36247537
67	0xbde6e1af	-0.112735145
68	0x3e05bb05	0.13059624
69	0xbebae831	-0.36505273
70	0x3ded0a99	0.11574287
71	0x3ff7c74d	1.9357697
72	0xbed262b3	-0.41090927
73	0x3e7fdb93	0.24986105
74	0x3f555b0a	0.8334204
75	0x3eb2c93e	0.3491916
76	0x3ec9b572	0.39396244
77	0xbf263234	-0.64920354
78	0xbf1f05b3	-0.6211807
79	0xbfb76824	-1.4328656
80	0xc0654608	-3.5823994
81	0xbfd72fdf	-1.6811484
82	0xc0298757	-2.6488855
83	0xc041f8b1	-3.030804
84	0x3effa676	0.49931687
85	0x3fd0bfb2	1.6308501
86	0x3f1843b3	0.594783
87	0x3fb7d5c5	1.4362112
88	0xbf6b797f	-0.91982263
89	0x3f839bd9	1.0281936
90	0xbd18d33d	-0.037310828
91	0xbe086de6	-0.13323173
92	0x3fb70205	1.4297491
93	0x3e8fd5b6	0.28092736
94	0x400cefa6	2.202127
95	0x3fb2d3a7	1.3970841
96	0xbf5c48bf	-0.860485
97	0xbf046f7b	-0.51732606
98	0x3f343d0b	0.70405644
99	0xbf83e334	-1.0303712
100	0x3fa24eeb	1.2680334
101	0x3f935dd4	1.1513009
102	0x3f2cfb01	0.675705
103	0xbe2c1e86	-0.16808519
104	0x4002d9cf	2.044544
105	0x3f10ce13	0.56564444
106	0xc0373913	-2.8628585
107	0xbf8a1eba	-1.0790627
108	0x3e991af8	0.29903388
109	0xbe26811f	-0.16260193
110	0xbf46f735	-0.7772096
111	0x3faf4c69	1.3695194
112	0xbfd696a2	-1.676472
113	0x3f2a0f0a	0.664292
114	0xbf85be20	-1.0448647
115	0x3eabf6bc	0.3358668
116	0x3fa9aafd	1.3255306
117	0x401634ca	2.346972
118	0x3f462f9c	0.77416396
119	0x3ffc6f51	1.9721471
120	0xbf6bb910	-0.9207926
121	0x3ef18df4	0.47178614
122	0xbf84a349	-1.0362331
123	0x3ec0ba02	0.37641913
124	0xbe2eb365	-0.17060621
125	0x3f23ff74	0.64061666
126	0x3fe83392	1.8140738
127	0x3fdaaf9d	1.7084843
128	0xbf06267a	-0.5240246
129	0x3e6410d4	0.22272044
130	0xbec0caac	-0.37654626
131	0xbeb77c2d	-0.35836926
132	0x3e98d995	0.29853502
133	0x3f1e33cc	0.61797786
134	0x3f277f85	0.65428954
135	0x3f0d06ca	0.55088484
136	0x3fb87677	1.4411153
137	0x3fa6e7dc	1.3039508
138	0xc03d2095	-2.9551136
139	0xbf790fb9	-0.97289616
140	0x3faf467c	1.3693385
141	0xbebdde63	-0.3708373
142	0xbfad6f55	-1.3549601
143	0x3f7322e5	0.9497512
144	0xc01bc762	-2.4340444
145	0x3ca7604b	0.020431658
146	0x3d38e799	0.045142744
147	0x3e71eee4	0.23626286
148	0xbf16a2ca	-0.58842146
149	0xbfb7b286	-1.4351356
150	0xbf1ab7f7	-0.6043696
151	0xbed1cb0e	-0.4097523
152	0xbdbb6176	-0.091494486
153	0xbd333501	-0.04375172
154	0xbf188e81	-0.59592444
155	0xc02fc263	-2.7462394
156	0xbe95292a	-0.29132968
157	0xbf3e6033	-0.7436554
158	0xbf52818d	-0.8222893
159	0x3ed4f592	0.41593605
160	0x3f8cf0b4	1.1010957
161	0x3fa3d2ac	1.2798667
162	0xbf57d6a9	-0.8431192
163	0x3ea284e3	0.3174201
164	0xbf40c325	-0.75297767
165	0x3f891608	1.0709848
166	0xbf169341	-0.5881844
167	0x3f024270	0.50882626
168	0xbff3a386	-1.9034278
169	0xc0175c7d	-2.36502
170	0xbfaa8ffb	-1.3325189
171	0x4001038e	2.015842
172	0x3eb4317c	0.35194004
173	0x3fa7c1c3	1.3106006
174	0x3f6778db	0.90418786
175	0xbf2e5125	-0.68092567
176	0xbfb1d6de	-1.3893697
177	0xbf0f9d52	-0.56099427
178	0x3f9e5444	1.2369466
179	0xbf17a5cf	-0.5923738
180	0x3f8c3f59	1.0956832
181	0x3ffdf3e5	1.9840056
182	0x3df30bb0	0.118674636
183	0xbf518b91	-0.81853586
184	0xbff9736f	-1.9488353
185	0xbe89dbce	-0.2692551
186	0x3f547b8a	0.83001006
187	0xbf3508ea	-0.70716727
188	0xbf9008ca	-1.1252682
189	0xbfa97069	-1.323743
190	0xbf98f584	-1.1949925
191	0xbf372e8c	-0.715554
192	0xbfc4fd72	-1.5389845
193	0xbf35a4ea	-0.70954764
194	0xbe37a2dc	-0.1793322
195	0xbf09b306	-0.53788793
196	0xbeee33f3	-0.4652401
197	0xc0225c74	-2.536893
198	0x3fadb7a8	1.3571672
199	0xbf50d8c0	-0.81580734
200	0xbf90fce8	-1.1327181
201	0xbfdfc249	-1.7481166
202	0xbf70b408	-0.94024706
203	0x3fc1fb3f	1.5154799
204	0xbe80c25a	-0.25148278
205	0xbe6b01db	-0.22949927
206	0x3d22117a	0.03956745
207	0xbf0523da	-0.5200783
208	0xbf8b14a1	-1.086567
209	0xbe87fd2b	-0.2656034
210	0x3ee0d685	0.43913665
211	0xbeab6c1b	-0.33480915
212	0xbe1f4378	-0.15553081
213	0x3f8c23b3	1.0948395
214	0x3ecd5d4d	0.40110245
215	0xbf4eeb86	-0.8082813
216	0xbf8e3647	-1.1110314
217	0xbc1a3140	-0.009411156
218	0xbe65eba1	-0.22453167
219	0xbea7ce58	-0.32774615
220	0xbf010d24	-0.50410676
221	0xc0329a69	-2.7906744
222	0xbf9f7536	-1.2457645
223	0xbf962acf	-1.1731814
224	0xbf8c5dce	-1.0966127
225	0xbe44ac31	-0.19206311
226	0x3b816133	0.0039483546
227	0xbdf2b631	-0.118511565
228	0x3dd2fbf5	0.10301963
229	0xbf3c22c2	-0.73490536
230	0x3ee51340	0.4474125
231	0xbf28585f	-0.65759844
232	0x3f94cebf	1.1625594
233	0xbe2722f8	-0.16321933
234	0x3f85d0ec	1.0454383
235	0x400cc858	2.199728
236	0xbe3494f3	-0.17634945
237	0x3ee18acd	0.4405121
238	0x3f80b3cf	1.0054873
239	0xbf0b5658	-0.54428625
240	0xbf9f5536	-1.2447879
241	0xbf668c65	-0.90057975
242	0xbed47022	-0.414918
243	0xbfc1334d	-1.5093781
244	0xbf439473	-0.7639839
245	0xbe4e2f16	-0.2013515
246	0xbfa7f9e2	-1.3123133
247	0xbf8beebe	-1.0932233
248	0x3eda830c	0.42678106
249	0x3f46777e	0.7752608
250	0x3f7da73b	0.990833
251	0x4056867a	3.3519578
252	0xbf719013	-0.94360465
253	0xbe26194d	-0.16220589
254	0x3f9698c9	1.1765376
255	0xbfe64f1e	-1.7992895

Encoder.encoder_attn.0.bias f4 [20]
0	0xbfca3039	-1.5795966
1	0xc0871362	-4.221116
2	0x3ff9fdc0	1.9530563
3	0xbeb3ec27	-0.35141107
4	0x3f960e26	1.1723068
5	0xc0021f0b	-2.0331447
6	0x3fa1c88b	1.2639326
7	0xbf6f9fee	-0.9360341
8	0x3ede85ee	0.43461555
9	0x3e8061ea	0.25074703
10	0x3e80725b	0.25087246
11	0xbf5d27c7	-0.8638882
12	0x401c84a4	2.4455957
13	0xbe6c5f47	-0.2308322
14	0x3f3c5f3b	0.7358281
15	0xc01d7fea	-2.4609323
16	0xbf261927	-0.6488213
17	0xbf4eb8a4	-0.8075049
18	0xbf953a08	-1.1658335
19	0xbfe581ce	-1.7930238

Encoder.encoder_attn.2.weight f4 [1, 20]
0	0xbeb200ed	-0.3476633
1	0x3d616712	0.055029936
2	0x3eeb5837	0.4596574
3	0x3e2bc6d5	0.16775067
4	0xbea4b473	-0.32168922
5	0x3eab1362	0.33413225
6	0xbd154dfa	-0.036451317
7	0xbded82e3	-0.1159723
8	0xbdf12ff9	-0.11776728
9	0xbf0f7b60	-0.5604763
10	0xbd8a0510	-0.06739247
11	0x3e541390	0.20710588
12	0xbed0dc01	-0.4079285
13	0xbe8e0a07	-0.27742025
14	0xbf08f044	-0.53491616
15	0x3dedcb9a	0.116110995
16	0x3dc23426	0.09482603
17	0x3d81e468	0.06342393
18	0xbe0ccc17	-0.13749729
19	0x3e814a4d	0.25252

Encoder.SelfAttention.wq.weight f4 [20, 20]
0	0x3f2f2ed9	0.6843086
1	0xbeea2d54	-0.45737708
2	0xc018d815	-2.3881886
3	0x3f27d6a3	0.65561885
4	0xbfc26c87	-1.518937
5	0xbeca78d2	-0.39545304
6	0xbfb036f3	-1.3766769
7	0x400a74d7	2.1633813
8	0xbe30f359	-0.1728033
9	0x3f3a9449	0.72882515
10	0x3f746fb6	0.9548296
11	0x3f2e3355	0.68047076
12	0xbed28de3	-0.41123876
13	0x3eeced07	0.46274588
14	0x3f67049e	0.9024142
15	0x3fc72249	1.5557338
16	0x3f918c6d	1.137098
17	0xbf160e47	-0.58615535
18	0x3d567501	0.052357677
19	0xbff029e2	-1.8762782
20	0xbe639464	-0.22224575
21	0xbe6d15b5	-0.23152812
22	0xbfa7024a	-1.3047574
23	0x3e4e8367	0.20167314
24	0xbb9daa6c	-0.0048115756
25	0x3fd7c98d	1.6858383
26	0x3e6687cb	0.22512738
27	0x3fd8c697	1.6935605
28	0xbf81513c	-1.0102916
29	0xbfa82b48	-1.3138208
30	0xbfb45a2b	-1.4090017
31	0x3fc693c5	1.5513846
32	0xbf9a3238	-1.2046576
33	0x3e7990fb	0.24371712
34	0xbe8d0795	-0.27544847
35	0x3f80862e	1.0040948
36	0x3f86f81c	1.0544467
37	0xbf35eb38	-0.7106204
38	0x3f243895	0.6414884
39	0xbf240d36	-0.6408266
40	0xbf004650	-0.5010729
41	0x3f88bdbe	1.0682905
42	0xbf5c7770	-0.8611975
43	0x3f8c9775	1.0983721
44	0xbdaf87a1	-0.08570791
45	0x3ff71cc5	1.9305655
46	0x3f33dcba	0.70258677
47	0x3f1f723f	0.622837
48	0x3ecfa73a	0.4055727
49	0xbf9271a4	-1.144093
50	0xbfc8f35b	-1.5699266
51	0x3ffa17c8	1.9538507
52	0xbf4aea25	-0.79263526
53	0x3fd54792	1.6662467
54	0x3f3a0627	0.7266564
55	0xbe43f086	-0.19134721
56	0x3f705ac0	0.93888474
57	0x3e4ae1ea	0.19812742
58	0x3f74d888	0.956429
59	0xc00efb86	-2.2341018
60	0x3f2ace65	0.66721183
61	0x3ee87dda	0.45408517
62	0xbf4753f3	-0.7786247
63	0x3f7beec3	0.98411196
64	0xbf1302e7	-0.57426304
65	0xbea6025a	-0.3242367
66	0x40033adf	2.0504682
67	0x3dad658f	0.084666364
68	0x3f0b81c9	0.5449491
69	0xbfb70cf7	-1.4300832
70	0x3fb2beab	1.3964437
71	0xbe0c4a3c	-0.13700193
72	0xbf43a806	-0.7642826
73	0xbfa896b2	-1.3170989
74	0x3d067220	0.03282368
75	0x3fd51bf9	1.6649162
76	0xc021e997	-2.5298822
77	0xbe601924	-0.2188459
78	0x3f6b5513	0.9192669
79	0x3f71d817	0.9447035
80	0x3e19c4bc	0.15016454
81	0xbbf22ffc	-0.007390974
82	0xbf19c310	-0.60063267
83	0xbf49c417	-0.78814834
84	0x3fa5ccbc	1.2953105
85	0x3f8e244f	1.110483
86	0x3fe87bb6	1.8162754
87	0x3fadd5ac	1.3580832
88	0xbfa3e2b5	-1.280356
89	0xc009cc66	-2.1531005
90	0x3dfc4e45	0.12319616
91	0x3fa18328	1.2618151
92	0xbf711532	-0.94172966
93	0xbf8b995f	-1.090618
94	0xbf92412d	-1.142614
95	0x3fd288a8	1.6447954
96	0xbe9ce166	-0.30640715
97	0xc04db949	-3.214434
98	0x3e0cb585	0.13741119
99	0xbf06104e	-0.5236863
100	0xbe3aee49	-0.18254961
101	0xbc8eeaf0	-0.017446011
102	0x3ea52d93	0.32261333
103	0xbfa11a3e	-1.2586133
104	0xbf139d38	-0.5766177
105	0xc01bb5b6	-2.4329658
106	0x3f4caaa5	0.7994788
107	0x3f76b758	0.9637351
108	0x3fda19ba	1.7039101
109	0xbf8712cb	-1.055261
110	0xbd7d81a0	-0.0618912
111	0xbef8ba0d	-0.48579445
112	0x3e0b2a31	0.13590313
113	0xbfaf412d	-1.3691765
114	0x3febad10	1.841219
115	0x3fd28187	1.6445779
116	0xbff2bc85	-1.8963782
117	0xbe60a13e	-0.21936509
118	0x3f7c3b91	0.9852839
119	0xbea21e36	-0.31663674
120	0x3e8035d6	0.25041074
121	0x3f4347d6	0.7628149
122	0x3fcbcf33	1.5922607
123	0x3f9fa2ed	1.2471596
124	0xbeac22e5	-0.33620372
125	0xbe550300	-0.20801926
126	0xbe503663	-0.20333247
127	0xc026f89d	-2.6089242
128	0x3e8db711	0.2767873
129	0x3ffb7f7f	1.9648284
130	0x3f8b66a6	1.0890701
131	0xbf8c8183	-1.0977024
132	0x3f7a67f8	0.97814894
133	0x3f8b152d	1.0865837
134	0x3e8003b8	0.25002837
135	0xbff8c22f	-1.943426
136	0x3f9e181d	1.2351109
137	0xbf39f3c0	-0.7263756
138	0xbe24b317	-0.16083942
139	0x3edc30a4	0.4300586
140	0xbf57c80e	-0.84289634
141	0x3f39f5b8	0.7264056
142	0x3e84a523	0.2590724
143	0xbeb831d8	-0.35975528
144	0xbef6f66e	-0.48234886
145	0x3fec0384	1.8438573
146	0x3e3652ab	0.17804973
147	0x3f2fb986	0.6864246
148	0x3eeb02a0	0.4590044
149	0x3f13dec6	0.577618
150	0xbfc4c0ad	-1.53713
151	0x3fa654c4	1.2994618
152	0x3f535a8f	0.82560056
153	0x3ed8a94e	0.4231667
154	0xc0180538	-2.3753185
155	0x3f4e8838	0.80676603
156	0x3facb531	1.3492795
157	0xc002d13a	-2.0440202
158	0xc00a9960	-2.1656113
159	0xbe7bff0a	-0.24609008
160	0x3c4274e6	0.011868691
161	0x3edea119	0.43482283
162	0x3f91e252	1.1397192
163	0x3fdb2f0d	1.7123734
164	0x3f1ae149	0.6050001
165	0x3e1065f5	0.14101394
166	0x3fbada57	1.4597882
167	0xbf8a56c6	-1.0807731
168	0xbe049841	-0.12948705
169	0xbfa81864	-1.3132443
170	0xbe8f6027	-0.28003046
171	0xbf74e8bf	-0.9566764
172	0xbf778c15	-0.96698123
173	0x3fa98c91	1.3246022
174	0x3f803795	1.0016962
175	0x3ebbdf4f	0.36693808
176	0xbfb9f764	-1.4528623
177	0x3e015e1f	0.1263356
178	0xbf6897be	-0.9085654
179	0x3cf9cbfb	0.030492773
180	0x3f0e25aa	0.5552622
181	0xbeb17f69	-0.3466752
182	0xbf75715f	-0.95876116
183	0xbf359591	-0.70931345
184	0xbfda8c4f	-1.7074069
185	0xbf4e69c4	-0.80630136
186	0xbfec7c9f	-1.8475531
187	0x40289c17	2.634527
188	0x3ffea0c8	1.9892817
189	0x3e8bed7c	0.27329624
190	0x3ebef3b0	0.37295294
191	0x3f8d75cc	1.1051574
192	0xbf45e511	-0.7730265
193	0xbedbfffd	-0.4296874
194	0x4014657c	2.318694
195	0x3fc7452e	1.5567987
196	0x3edaea11	0.42756703
197	0x3e76e658	0.24111307
198	0xbf8d79ec	-1.1052833
199	0x3f7944dc	0.97370696
200	0x3d160487	0.03662541
201	0x3f059c52	0.5219165
202	0xbf0ab9fa	-0.5419003
203	0x3fa1e591	1.2648183
204	0x3fa28bbf	1.2698897
205	0x3fdef0c8	1.7417231
206	0xbe90c06c	-0.28271806
207	0x3ef23b98	0.4731109
208	0xbfd091c3	-1.6294483
209	0xbf417afa	-0.7557827
210	0x3f8c696f	1.0969676
211	0xbf085cb3	-0.5326645
212	0x3e530384	0.2060681
213	0x3f8bb1c1	1.0913621
214	0x3f09c4c1	0.5381585
215	0xbe5eae10	-0.21746087
216	0xbed13e98	-0.40868068
217	0x3ec4d1ba	0.3844126
218	0xbf9a4138	-1.2051153
219	0xbe74d95d	-0.23911043
220	0x3effaea7	0.49937937
221	0xbf50262e	-0.8130826
222	0xbf800ef6	-1.0004566
223	0xbee3e0ec	-0.4450754
224	0xbee349e2	-0.44392306
225	0xbfe46dc3	-1.7845997
226	0xbf234177	-0.63771766
227	0x3fd24364	1.6426816
228	0x3e020666	0.12697753
229	0xbf0017a8	-0.50036097
230	0xbd295bd1	-0.04134733
231	0xbf545a00	-0.8294983
232	0xbd7efe30	-0.06225413
233	0xbeaeee45	-0.3416616
234	0x3fe50f14	1.7895226
235	0x3fec1c6e	1.8446176
236	0xbe56495f	-0.20926426
237	0x3f7fa281	0.99857336
238	0xbe3ba04e	-0.1832287
239	0xc036c98f	-2.8560522
240	0xbe6bd8f1	-0.23031975
241	0xbf8c06db	-1.0939592
242	0x3ef10bc1	0.4707928
243	0x3b9c9823	0.0047788783
244	0x3ff1051f	1.8829688
245	0xbe80a322	-0.2512446
246	0x3f0ba653	0.54550666
247	0xbf8db49b	-1.1070741
248	0xbf2b5dba	-0.6693989
249	0xbf8dd1d2	-1.1079657
250	0xbfb627e1	-1.423092
251	0xbf28a1af	-0.6587171
252	0xbebdfc0f	-0.37106368
253	0x3f35996b	0.7093722
254	0xc014ab2b	-2.3229473
255	0xbd864110	-0.065553784

Encoder.SelfAttention.wk.weight f4 [20, 20]
0	0x3d81c497	0.06336325
1	0x3f879b7c	1.0594325
2	0x3fd6c407	1.6778573
3	0xbe0e2b4c	-0.13883704
4	0x3f8dcb1f	1.1077613
5	0x3e036bdd	0.12834115
6	0x400b567c	2.1771536
7	0xbfe7b96d	-1.8103462
8	0x3ededf4f	0.43529746
9	0xbe608fa1	-0.2192979
10	0x3f202cad	0.6256817
11	0xbf4efa21	-0.80850416
12	0x3ffb03b5	1.9610506
13	0xbbca3368	-0.006170679
14	0xbf56dd49	-0.83931404
15	0xbf859ae4	-1.0437894
16	0xbedfe27f	-0.4372749
17	0xbe2e644c	-0.17030448
18	0xbe9c4eae	-0.30528778
19	0x3f7b3bf9	0.98138386
20	0x3f5d04e6	0.863356
21	0x3f37ad5c	0.717489
22	0x3f4b2f74	0.7936928
23	0x3d974403	0.07386019
24	0x3f1e79f9	0.61904866
25	0xbf85d954	-1.0456948
26	0xbecc5970	-0.39911985
27	0xbffc2fc4	-1.9702077
28	0x3f1904e0	0.59773064
29	0x3f8c139e	1.0943487
30	0x400c775b	2.1947849
31	0xbf383b66	-0.71965635
32	0x3ff1d2fd	1.8892514
33	0x3cc480ba	0.023987163
34	0x3f0d927c	0.5530164
35	0xc00c63cc	-2.193591
36	0x3d12b8a7	0.03582063
37	0x3ee86181	0.4538689
38	0xbeef0576	-0.46683854
39	0xbe785d9f	-0.24254464
40	0x3fb825b7	1.438651
41	0xbd03b320	-0.03215325
42	0x3f1dd006	0.61645544
43	0xbf57b434	-0.84259343
44	0x3f36850f	0.7129678
45	0xbf6f8fe3	-0.9357893
46	0x3e208a57	0.15677772
47	0xbf7e1464	-0.99249864
48	0xbd47f919	-0.048821542
49	0x3fbe09a7	1.4846696
50	0x4047c471	3.1213648
51	0xbf8b769d	-1.0895573
52	0x3ef95279	0.48695734
53	0xbfdd339d	-1.7281376
54	0xbec82acf	-0.3909516
55	0xbf015991	-0.5052729
56	0x3e1ea7a1	0.15493633
57	0xbeeba925	-0.46027485
58	0xbef5e8e4	-0.48029244
59	0x3f7fc119	0.9990402
60	0xbefe3ad2	-0.4965425
61	0xbce7232b	-0.028215012
62	0x3f3bcc51	0.7335864
63	0xbdc42ae8	-0.09578496
64	0x3f5ca168	0.86183786
65	0x3ff7f06b	1.9370245
66	0xbf88f5a0	-1.0699959
67	0x3e06b0d2	0.13153389
68	0xbf95cad7	-1.1702527
69	0x3fc23402	1.5172122
70	0x3e1f8c7f	0.15580939
71	0xbea4897b	-0.3213614
72	0x3f3827f8	0.7193599
73	0x4007124d	2.110492
74	0xbf317748	-0.69322634
75	0xc00fb3cb	-2.2453487
76	0x40347d2a	2.8201394
77	0xbed7125e	-0.420062
78	0x3ed51d85	0.41624084
79	0xbfb4ec97	-1.4134701
80	0x3f746a07	0.95474285
81	0x3d4af7ae	0.049552612
82	0x3e42969f	0.1900277
83	0x3f4aff17	0.79295486
84	0xbdb734e8	-0.08945638
85	0x3f3e6336	0.74370134
86	0xbfb8ad9e	-1.4427984
87	0xbfd34ee0	-1.6508446
88	0x3fd63655	1.6735331
89	0x4031df4a	2.7792535
90	0x3e622032	0.22082594
91	0xc00a94a9	-2.1653235
92	0x3e21e420	0.15809679
93	0x3ed13c6d	0.40866414
94	0xbd63bf7b	-0.055602532
95	0xc02507fb	-2.578612
96	0x3eb9bb55	0.36275735
97	0x400793b6	2.1183906
98	0xbf1a24f6	-0.6021265
99	0xbf914fb1	-1.1352445
100	0x3f378457	0.7168631
101	0xbeb22157	-0.3479106
102	0xbfa8f202	-1.3198855
103	0x3ea9f6e2	0.3319617
104	0x3f24af97	0.6433043
105	0x400fbe88	2.246004
106	0x3f22438a	0.63384306
107	0xbb8426d4	-0.004032949
108	0xc01a71b2	-2.4131894
109	0x3f0b3e83	0.5439226
110	0xbf177449	-0.5916181
111	0xbef78682	-0.4834481
112	0x3fb26907	1.3938302
113	0x3fc1348d	1.5094162
114	0xbfcbb308	-1.5914011
115	0xc00034a1	-2.0032122
116	0x3fde967f	1.7389678
117	0xbf134d3e	-0.5753974
118	0xbf0fe3d0	-0.5620699
119	0x3f2b6032	0.6694366
120	0x3ccb4a05	0.024815569
121	0x3e862f7a	0.26208097
122	0x3ebbfa36	0.36714333
123	0xbee7cdff	-0.4527435
124	0x3f924d4e	1.1429842
125	0xbe925a25	-0.285844
126	0x3e965561	0.29362014
127	0x40063cc6	2.0974593
128	0xbe27a1d1	-0.16370322
129	0xbff5870c	-1.9181838
130	0xbf7c1d5c	-0.984823
131	0x3f6373a2	0.88848317
132	0xbfd07720	-1.6286354
133	0xbff51226	-1.9146163
134	0xbe0dc82e	-0.13845894
135	0x405a2391	3.4084208
136	0xbf9c68d9	-1.2219497
137	0x3e307ebb	0.17235844
138	0x3eace1b8	0.3376596
139	0xbe87bbac	-0.2651037
140	0x3f454a38	0.77066374
141	0xbda55e77	-0.08074658
142	0xbd91a966	-0.07112388
143	0x3f2b85cf	0.6700105
144	0x3f822add	1.0169331
145	0xbea618ce	-0.324408
146	0xbee48130	-0.44629812
147	0xbed9c4c5	-0.42532936
148	0x3ee5ea3e	0.44905275
149	0x3f35e29c	0.71048903
150	0x3f0c9ff0	0.54931545
151	0xbfb0ceb6	-1.3813083
152	0xbf9f6a8d	-1.2454392
153	0xbfab8c7f	-1.3402251
154	0x3ffb7f20	1.964817
155	0xbf5a670d	-0.85313493
156	0xc01071ba	-2.2569413
157	0x3fdb9126	1.7153671
158	0x3fd0f155	1.6323649
159	0xbeae97f3	-0.34100303
160	0x3eddecfa	0.4334486
161	0x3e981386	0.29702395
162	0xbe0546c1	-0.13015272
163	0xbf6f5331	-0.93486315
164	0xbe618620	-0.22023821
165	0x3fcbee8c	1.5932174
166	0xbf852289	-1.0401164
167	0x3f5571ff	0.8337707
168	0x3ea32bbc	0.31869304
169	0x3fc4e575	1.5382525
170	0x3f511035	0.81665355
171	0x3f8101e6	1.0078704
172	0x3f193f4e	0.5986222
173	0xbfa3a66d	-1.2785164
174	0xbfde8b4b	-1.7386259
175	0xbc18cbb9	-0.009325915
176	0x3fdf3ead	1.7441002
177	0xbe645241	-0.22297002
178	0x3fe6badb	1.8025774
179	0xbf62fb70	-0.88664913
180	0x3eb18ad4	0.3467623
181	0x3ea977c9	0.330992
182	0xbd558949	-0.05213288
183	0x3eb0cc0e	0.3453068
184	0x3f379dc2	0.71725094
185	0xbd943147	-0.072359614
186	0x40211b8b	2.517306
187	0xbfafd84e	-1.3737886
188	0xbfc1a050	-1.5127048
189	0xbeb342f4	-0.3501202
190	0x3f2d3435	0.67657787
191	0xbf7d84b8	-0.9903064
192	0x4016d0cc	2.356494
193	0x3fb4ea7c	1.4134059
194	0xbf712951	-0.9420367
195	0xbf7ebea5	-0.9950965
196	0x3ebee88a	0.37286788
197	0xbf0435ef	-0.51644796
198	0x3fadddf4	1.358336
199	0xbec71b49	-0.38888004
200	0x3eb79097	0.358525
201	0xbeae8be0	-0.3409109
202	0x3f71df39	0.94481236
203	0xbf8abaa7	-1.0838212
204	0x3dc569ef	0.09639346
205	0xbf8530c7	-1.0405511
206	0xbe0f1719	-0.13973655
207	0xbf2990f3	-0.662368
208	0x401e72af	2.4757497
209	0x3f874ff4	1.0571275
210	0xbf2be942	-0.671528
211	0x3eb7a080	0.3586464
212	0xbee1f18c	-0.44129598
213	0xbf1badc7	-0.6081204
214	0xbf94b13e	-1.161659
215	0x3eb8a61a	0.36064225
216	0x3f2544ce	0.6455811
217	0xbdc1319d	-0.09433291
218	0x3fc87715	1.5661341
219	0xbf041564	-0.5159514
220	0x3f016550	0.50545216
221	0x3f5abc2a	0.85443366
222	0xbf53855f	-0.82625383
223	0xbf1998b5	-0.5999864
224	0xbf2b4db8	-0.66915464
225	0x3f3ec1b8	0.7451434
226	0x3fcc6d48	1.597085
227	0xbfac5f33	-1.3466552
228	0xbe19cb45	-0.15018947
229	0x3f0c46d9	0.54795605
230	0xbf5ae220	-0.8550129
231	0xbf23fba5	-0.64055854
232	0x3f84a468	1.0362673
233	0xbf075776	-0.5286783
234	0xbfdabfba	-1.708976
235	0xbff93978	-1.9470663
236	0x3f3936eb	0.72349423
237	0xbfb27a19	-1.3943511
238	0xbf4ce1b3	-0.8003189
239	0x3fe040c0	1.751976
240	0x3eb10b54	0.34578955
241	0x3f9df791	1.2341176
242	0xbe5bcf6a	-0.21465841
243	0xbeea0324	-0.4570552
244	0xbfdb93d8	-1.7154493
245	0x3e594a41	0.21219732
246	0xc0286cb9	-2.631636
247	0xbe7651a4	-0.24054581
248	0x3f2f4d9a	0.68477786
249	0x3ef48205	0.47755447
250	0x3f68e27f	0.90970606
251	0x3f81c5ee	1.0138528
252	0xbf086c0e	-0.5328988
253	0xbfd9dcd3	-1.7020515
254	0x3f9327ef	1.1496562
255	0x3f16cfd5	0.58910877

Encoder.SelfAttention.wv.weight f4 [20, 20]
0	0xbf58f13b	-0.8474309
1	0xbf172cd7	-0.59052795
2	0xbf926737	-1.1437749
3	0xc025b7cc	-2.589343
4	0xc0657550	-3.5852852
5	0xc003d5f2	-2.0599332
6	0xbfed6cc2	-1.8548815
7	0xbfd24f52	-1.6430457
8	0xc014e027	-2.3261812
9	0xbfcd8610	-1.6056538
10	0xbf94d047	-1.1626061
11	0xbf68a23b	-0.90872544
12	0x3ec30e5a	0.38096887
13	0x3ee80c4a	0.45321876
14	0x3fc2be02	1.5214236
15	0x3f57b6a6	0.84263074
16	0x3e7c0278	0.24610317
17	0x3e7f7fbd	0.24951072
18	0x3f98cf7e	1.1938322
19	0x4048013c	3.1250753
20	0x3d9f187a	0.077683404
21	0xbef04024	-0.46923935
22	0xbfcda46e	-1.6065805
23	0xc0189f74	-2.3847322
24	0xc0849e68	-4.1443367
25	0xc03f4bad	-2.988994
26	0xc010ad74	-2.2605867
27	0xbf13d0e1	-0.577406
28	0xbf32a51f	-0.69783205
29	0x3ca076de	0.01958793
30	0x3edf97e1	0.43670562
31	0x3eed1fc0	0.46313286
32	0x3e2ba981	0.1676388
33	0x3e4e05f2	0.20119455
34	0x3f2520b7	0.64503044
35	0x3ebf5ab3	0.37373886
36	0xbf9205d0	-1.1408024
37	0xbf150332	-0.58208
38	0x3fd333d6	1.6500194
39	0x3f97b275	1.1851336
40	0xbf7b4160	-0.9814663
41	0xbefbc131	-0.4917083
42	0xbeb90658	-0.36137652
43	0xbef06975	-0.46955457
44	0xbfae9780	-1.3639984
45	0xbf0ff19b	-0.56228036
46	0x3ea693b1	0.32534555
47	0x3e9cb360	0.30605602
48	0x3db2c2cc	0.08728561
49	0xbf493f5c	-0.78612304
50	0xbf1bcdf1	-0.60861117
51	0xbea9c90e	-0.33161205
52	0x3d2f10ac	0.04274051
53	0xbec4c09b	-0.38428196
54	0xbed77c58	-0.42087054
55	0xbfc50c52	-1.5394385
56	0xbf1f126e	-0.62137496
57	0xbd36e4cd	-0.044651795
58	0x3fb64e88	1.4242716
59	0xbe000b40	-0.12504292
60	0xbfa65089	-1.2993327
61	0xbe2bd007	-0.16778575
62	0x3e058de7	0.13042413
63	0xbddc680b	-0.10762032
64	0xbec28247	-0.3799002
65	0xbbed3a9d	-0.0072396533
66	0x3f2c69aa	0.6734873
67	0x3ea415a9	0.32047775
68	0xbea6400a	-0.32470733
69	0xbd25a656	-0.040441833
70	0xbf84b16d	-1.0366646
71	0xbf721f13	-0.94578665
72	0xbf70fc79	-0.9413524
73	0xbe88423d	-0.26613036
74	0xbf2090c9	-0.62720925
75	0xbfb10d6d	-1.3832222
76	0xbf6cabe7	-0.924498
77	0x3f3a736e	0.7283238
78	0x3ea805c2	0.32816893
79	0x3f20f1ae	0.62868774
80	0xbf41458e	-0.7549676
81	0xbf9827fd	-1.1887203
82	0xbf503edb	-0.8134591
83	0xbea47577	-0.3212087
84	0xbf2090f9	-0.6272121
85	0xbf9ca321	-1.2237283
86	0xbf27ea98	-0.65592337
87	0xc0105a16	-2.2554984
88	0xbfa4be86	-1.2870643
89	0xbe694922	-0.22781804
90	0xbf858c2a	-1.04334
91	0xbddfdf5d	-0.10931275
92	0xbfcb53f4	-1.5884995
93	0xbe1d7ba4	-0.15379196
94	0xbd9127de	-0.07087682
95	0xbeb3141f	-0.3497629
96	0xbe673093	-0.22577123
97	0x3f478db0	0.7795057
98	0x3f2e05ea	0.67977774
99	0x40127e5f	2.288963
100	0xbf9629c2	-1.1731493
101	0xbed4c2a8	-0.4155476
102	0xbf46da0d	-0.7767647
103	0x3eb6e8cf	0.35724494
104	0xbf435d48	-0.7631421
105	0x3e0204be	0.12697122
106	0xbf33da4f	-0.7025499
107	0xbf2dc6aa	-0.6788126
108	0xbf5463a2	-0.8296453
109	0xbf82b75b	-1.0212206
110	0xbec59bbd	-0.3859538
111	0xbf862411	-1.0479757
112	0xbeb62dd1	-0.3558183
113	0x3efef397	0.4979522
114	0x3ead8a34	0.33894503
115	0xbeb09dbc	-0.34495342
116	0x3e1f57dc	0.1556086
117	0x3f12d752	0.573598
118	0x3f9bd343	1.2173847
119	0x3f4ab8a4	0.7918799
120	0xc00467d3	-2.068837
121	0xbfe264ab	-1.7686971
122	0xbfc4c0b3	-1.5371307
123	0xbfa174ad	-1.2613732
124	0xbe8edc0f	-0.27902266
125	0xbe63b3da	-0.22236577
126	0x3df8dd37	0.121515684
127	0xbf31342c	-0.6922023
128	0xbe8a892d	-0.27057782
129	0xbf4b0212	-0.79300034
130	0xbcc057f3	-0.023479437
131	0xbf8e04c8	-1.1095209
132	0xbe90533a	-0.28188497
133	0xbe77a301	-0.24183275
134	0xbef61878	-0.48065543
135	0x3e73771e	0.23775908
136	0xbf7b763c	-0.98227286
137	0x3ea5371f	0.32268617
138	0x3e426f55	0.18987782
139	0x3fcc71bf	1.5972213
140	0x3f07b670	0.5301275
141	0xbf8e1f57	-1.1103314
142	0xbeb4f695	-0.35344377
143	0xbd985b42	-0.07439281
144	0xbea7bd71	-0.3276172
145	0xbf582422	-0.84430134
146	0xbf33d0c8	-0.7024045
147	0xbf51b478	-0.81916
148	0xc017010e	-2.3594394
149	0xbfb9f864	-1.4528928
150	0xbdaffc37	-0.08593028
151	0xbf5993c4	-0.849911
152	0x3f7e316c	0.9929416
153	0x3ee921df	0.45533654
154	0xbea8db04	-0.32979596
155	0x3f348e11	0.70529276
156	0xbea3d746	-0.32000178
157	0x3e6ebe07	0.23314677
158	0x3ee830ea	0.45349818
159	0x3ed22b9c	0.41048896
160	0xbf348873	-0.70520705
161	0xbfaa11f1	-1.3286725
162	0x3d15ff9a	0.036620714
163	0x3f4b23d7	0.7935156
164	0xbf8db1f6	-1.1069934
165	0xbfd4a1e1	-1.6611902
166	0xbd65c0d4	-0.0560921
167	0xbf4d0c7c	-0.80097175
168	0xc000af1d	-2.010688
169	0xbf991e5e	-1.1962392
170	0x3f51baa3	0.8192541
171	0xbeb5f0de	-0.3553533
172	0xbf140b09	-0.5782934
173	0x3ebc6a0f	0.36799666
174	0x3caaa1eb	0.020829162
175	0xbe8351cb	-0.2564834
176	0x3fa9c8af	1.3264369
177	0xbb44c46f	-0.003002431
178	0x3edb140a	0.42788726
179	0x3f34ef96	0.7067808
180	0xc00bd5c9	-2.1849234
181	0xbfb4cc89	-1.4124919
182	0xbf9cf57c	-1.2262416
183	0xbfe0dcb2	-1.7567351
184	0xc00bd60b	-2.1849391
185	0xc01fa60b	-2.4945095
186	0xbf5f0590	-0.8711786
187	0xbfc7f13d	-1.5620495
188	0xc03b2cdf	-2.9246137
189	0xbf2c214d	-0.6723831
190	0xbfb6ce92	-1.428179
191	0xbf909bf3	-1.1297592
192	0xbf01830b	-0.5059058
193	0xbf9d5816	-1.2292507
194	0xbe5e60d5	-0.21716626
195	0x3f5585f3	0.83407515
196	0x3e03e23d	0.12879272
197	0x3f8f5188	1.1196756
198	0x405c9986	3.4468703
199	0x40859eb2	4.175622
200	0xbfca60e7	-1.5810822
201	0xbf266454	-0.6499684
202	0x3edabb1c	0.42720878
203	0x3e60764f	0.21920131
204	0xbf7b3d08	-0.9814
205	0xbf85e242	-1.0459673
206	0xbfdc6ba5	-1.722035
207	0xbf8c25d8	-1.0949049
208	0xbe2b6e54	-0.16741306
209	0x3f92902d	1.1450249
210	0xbf0847fc	-0.5323484
211	0x3e0aa08d	0.13537808
212	0x3e8b0d5e	0.27158636
213	0xbf96be5c	-1.1776843
214	0x3f2e9bee	0.6820668
215	0x3f5923ae	0.8482007
216	0xbdc883f8	-0.09790796
217	0xbe6e22b2	-0.23255423
218	0x3f190048	0.59766054
219	0x3f5e11be	0.8674582
220	0xbfb11bff	-1.3836669
221	0xbf887831	-1.066168
222	0xbfb3a5ce	-1.4034975
223	0xbeb08300	-0.34474945
224	0xbfa9460b	-1.32245
225	0xbfc6330f	-1.5484332
226	0x3e6299d9	0.22129
227	0x3f59bbf6	0.8505243
228	0xbff2323e	-1.8921583
229	0xbf1e548a	-0.61847746
230	0xbf222ec0	-0.63352585
231	0xbf8a0efa	-1.078582
232	0xbe5bffc2	-0.21484283
233	0xbfddc3d8	-1.7325392
234	0x3f9885fe	1.1915891
235	0xbe5f9482	-0.21833995
236	0x3f6e80ad	0.93165094
237	0xbf0218cb	-0.5081908
238	0x4086059f	4.188186
239	0x3f90c602	1.1310427
240	0xbecec6fa	-0.40386182
241	0xbf97e55a	-1.1866868
242	0xbf78a8bd	-0.97132474
243	0xbfabdd77	-1.3426961
244	0xbfeb9378	-1.8404379
245	0xbdbe95b8	-0.093059
246	0xbf19c699	-0.6006866
247	0xbf9a2130	-1.2041378
248	0xc03a68dd	-2.9126503
249	0xbfe687fe	-1.8010252
250	0xbf029803	-0.510132
251	0xbf8f9ec0	-1.1220322
252	0x3f32b10a	0.6980139
253	0x3e3f725d	0.1869597
254	0xbf293afd	-0.66105634
255	0xbed39391	-0.41323522
