result/ver3/last.pt (torch, 149765 bytes, 36 tensors)

Encoder.encoder_lstm.weight_ih_l0 f4 [128, 6]
0	0xbe8af922	-0.27143198
1	0xbef0ff82	-0.47069937
2	0xbe18d178	-0.14923656
3	0x4012bc7d	2.2927544
4	0x3fbf0fa7	1.4926652
5	0x3efba66f	0.49150416
6	0xbf69d0a8	-0.9133401
7	0xbf3f08d2	-0.74622834
8	0xbed0cf77	-0.40783283
9	0xbe23b50e	-0.15987036
10	0x3dca0760	0.09864688
11	0xbe16b707	-0.14718257
12	0x3e831160	0.25599194
13	0xbf01164a	-0.50424635
14	0xbdbe1b08	-0.092824996
15	0xbee81e78	-0.45335746
16	0x3f0efd28	0.55855036
17	0x3f0657eb	0.524779
18	0x3fd26aa2	1.6438792
19	0x3d74d498	0.059773058
20	0x3e60949c	0.2193169
21	0x3ef29f74	0.47387278
22	0xbf87f9a9	-1.0623065
23	0xbf8cf4a7	-1.1012162
24	0xbf197d1e	-0.5995654
25	0xbee3a855	-0.44464365
26	0x3f203e63	0.62595195
27	0xbf57fa94	-0.84366727
28	0xbece1c82	-0.40256125
29	0x3f4157b0	0.75524426
30	0xbf81b2c7	-1.0132684
31	0x3f25c432	0.64752495
32	0xbe243a64	-0.160379
33	0xbd8451ee	-0.06460939
34	0xbe3bff14	-0.18359023
35	0x3fa2ce6e	1.2719247
36	0xbe8d636c	-0.27614915
37	0x3dc3c840	0.09559679
38	0x3f349e46	0.70554006
39	0x3e335b48	0.1751529
40	0x3d020cac	0.031750366
41	0x3e8f8e80	0.28038406
42	0xbddb7e36	-0.10717432
43	0xbf4576c6	-0.7713436
44	0x3eea03a8	0.45705914
45	0x3da7175b	0.081587516
46	0xbee78582	-0.45219046
47	0x3f2e367d	0.6805189
48	0x3e227db2	0.15868261
49	0x3f656fb4	0.8962357
50	0x3e913546	0.28360957
51	0xbf6b7a95	-0.9198392
52	0xbd8c2f3c	-0.06844947
53	0x3e4957ff	0.19662474
54	0x3f607a46	0.87686574
55	0xbe9ee5d5	-0.31034723
56	0x3e255510	0.1614573
57	0xbf1bc545	-0.60847884
58	0xbd8ad2a0	-0.06778455
59	0xbccdeca5	-0.025137255
60	0x3e91c332	0.28469235
61	0xbe07ce93	-0.13262396
62	0x3f70f02f	0.9411649
63	0xbeffdedd	-0.4997472
64	0x3ea36660	0.31914043
65	0xbb6efad6	-0.0036465428
66	0x3e7fe3fe	0.24989316
67	0x3eab1024	0.33410752
68	0xbf3ad537	-0.7298159
69	0x3eb37790	0.35052156
70	0x3f6ace72	0.9172126
71	0xbf2fb77f	-0.6863937
72	0xbe1a786e	-0.15085003
73	0x3eb91aa3	0.36153135
74	0x3ec4bcdb	0.38425335
75	0xbf95fc3f	-1.1717604
76	0xbeb140b8	-0.3461969
77	0xbfa69c72	-1.3016493
78	0x3de18e24	0.11013439
79	0xbe4c1c5a	-0.1993269
80	0xbfbf0f44	-1.4926534
81	0x3eb8b324	0.36074173
82	0x3f15d5d2	0.5852939
83	0xbf0c89e4	-0.54897904
84	0xbda03f28	-0.07824546
85	0xbfeade30	-1.8349056
86	0x3f9c0a0c	1.2190566
87	0xbc40d080	-0.01176846
88	0xbf1c5a12	-0.61074936
89	0x3ecec841	0.40387157
90	0xbfaadeb0	-1.3349209
91	0x3e10daa3	0.14145903
92	0xbf74b12b	-0.95582837
93	0x3eb1d6c0	0.34734154
94	0xbee5bab2	-0.44869
95	0x3eefa972	0.46808964
96	0x3f231cf7	0.6371607
97	0x3cecaf22	0.028892104
98	0xbe887d0f	-0.26657912
99	0x3e8ee819	0.2791145
100	0x3f112cae	0.567088
101	0xbf75e14b	-0.96046895
102	0x3de29b6d	0.11064801
103	0xbe93503a	-0.28772146
104	0xbe26d52b	-0.16292255
105	0x3f4fc230	0.8115568
106	0x3e74c902	0.23904803
107	0x3bfb991c	0.007678164
108	0x3f296b23	0.661791
109	0xbeccf22e	-0.40028518
110	0xbfb9f22b	-1.4527029
111	0xbe8bf4ed	-0.273353
112	0xbecb65e2	-0.39726168
113	0xbf5ce8e9	-0.8629289
114	0x3e6bd894	0.23031837
115	0xbe15c10d	-0.14624424
116	0x3c7ffb09	0.015623816
117	0xbca68b11	-0.020329984
118	0xbeabc288	-0.33546853
119	0x3e9073ed	0.28213444
120	0x3d4b549c	0.049641237
121	0xbe737155	-0.23773701
122	0xbf50071f	-0.81260866
123	0x3dcb32d7	0.09921806
124	0xbe9e5bfa	-0.30929548
125	0xbea9c1b7	-0.33155605
126	0xbf157ba6	-0.583918
127	0x3ed935f6	0.4242398
128	0xbc66dd53	-0.014090854
129	0x3f63e43a	0.8902012
130	0x3ea311aa	0.31849414
131	0x3ed752e1	0.4205542
132	0xbfca07ce	-1.5783632
133	0x3ec496be	0.38396257
134	0xbe8cb3df	-0.2748098
135	0xbf8003c1	-1.0001146
136	0xbe855251	-0.26039365
137	0x3f54010f	0.82814115
138	0x3f52f98d	0.82412034
139	0x3d8c9390	0.06864083
140	0x3ff9735b	1.9488329
141	0x3f287f13	0.658189
142	0x3eef92f0	0.46791792
143	0x3d88318d	0.06650076
144	0x3ecee4ed	0.40409032
145	0x3f83f2d1	1.0308477
146	0xbf9133bf	-1.1343917
147	0xbfd94171	-1.6973096
148	0x3e229630	0.15877604
149	0x3e9d50b2	0.30725628
150	0x3e9f5c9a	0.31125337
151	0x3ef135ea	0.47111446
152	0x3e958af1	0.29207566
153	0xbe4f7d22	-0.20262578
154	0x3e80e0af	0.2517142
155	0x3f39d169	0.7258516
156	0xbd36e451	-0.044651333
157	0x3f96fb31	1.1795408
158	0x3e789f8c	0.24279612
159	0x3f07cb33	0.5304443
160	0xbd4e4e1e	-0.050367467
161	0xbf6ddc96	-0.9291471
162	0x3ec41274	0.3829533
163	0x3e4b687d	0.19864078
164	0xbf812d9a	-1.0092041
165	0x3f2c2f4f	0.6725969
166	0x3e259dd4	0.16173488
167	0x3f273472	0.653144
168	0x3eff4089	0.49853924
169	0x3f8eb054	1.1147561
170	0xbf7a8d84	-0.97872186
171	0x3ba0de7c	0.0049093347
172	0x3b402349	0.0029317907
173	0x3e39aeca	0.18133083
174	0x3f4857d1	0.78259
175	0xbebd30f1	-0.36951402
176	0x3ead1daa	0.33811694
177	0x3e8157dd	0.25262347
178	0xbebf9c0e	-0.37423748
179	0xbe228b84	-0.15873533
180	0x3f4f328c	0.80936503
181	0x3ea34a4b	0.3189262
182	0xbe13319d	-0.14374395
183	0x3d782a2a	0.060587086
184	0x3e95859f	0.29203507
185	0xbf332f4c	-0.69994044
186	0xbf5d53c8	-0.86455965
187	0x3eadeab8	0.3396814
188	0x3e7821f7	0.24231707
189	0x3edc6688	0.43046975
190	0x3e715766	0.23568496
191	0x3eeb1270	0.45912504
192	0xbf0909ac	-0.53530383
193	0x3e660f25	0.22466715
194	0x3cb8f92f	0.022579757
195	0xbf1cdb32	-0.61271966
196	0xbfd1a295	-1.6377741
197	0xbdf8fd5f	-0.12157702
198	0xbdfc077f	-0.12306117
199	0x3d3954a5	0.04524674
200	0x3f5dfe5f	0.86716264
201	0xbe8371fb	-0.25672898
202	0x3eab2fbd	0.3343486
203	0x3f190652	0.5977527
204	0xbf029085	-0.5100177
205	0xbee6cfdb	-0.45080456
206	0x400f7267	2.2413576
207	0xbe7e0bd7	-0.24809204
208	0xbf1690ad	-0.5881451
209	0x3f5af9a4	0.8553717
210	0xbe94421c	-0.28956687
211	0x3ea32992	0.31867653
212	0x3ed70c1d	0.4200143
213	0x3fd2d4c8	1.6471186
214	0x3f141baf	0.5785474
215	0x3f949bf8	1.1610098
216	0x3dd9d761	0.106367834
217	0x3ead6dfb	0.3387297
218	0x3f27e817	0.65588516
219	0xbe7816f6	-0.24227509
220	0xbfb3bca3	-1.4041942
221	0xbf250e4f	-0.6447496
222	0x3eb0bf9b	0.34521183
223	0xbeda01c3	-0.4257947
224	0x3dded653	0.10880723
225	0x3e761c2c	0.24034184
226	0xbf4acb04	-0.7921603
227	0x3ef38520	0.47562504
228	0xbd2903c7	-0.041263368
229	0xbf9b62be	-1.2139509
230	0x3fabcc71	1.3421766
231	0xbe5f4caa	-0.21806589
232	0xbf6e8d2f	-0.9318418
233	0xbf24fe49	-0.6445051
234	0xbe02fc6a	-0.12791601
235	0x3e2a5a2e	0.16635963
236	0x3e092971	0.13394715
237	0x3d78a636	0.060705386
238	0xbf0a89fb	-0.5411679
239	0xbc242000	-0.010017395
240	0xbfbcd41f	-1.4752234
241	0xbe860a81	-0.2617989
242	0x3ea13619	0.31486586
243	0x3eafd79e	0.3434419
244	0x3ef901e3	0.48634252
245	0xbf82fb5b	-1.0232958
246	0xbdb7aad6	-0.08968131
247	0xbf5df350	-0.8669939
248	0xbf7c4ff1	-0.9855948
249	0x3ed086ad	0.4072775
250	0x3f795c85	0.974068
251	0xbe9902cb	-0.29884943
252	0xbf89eb40	-1.0774918
253	0xbf412693	-0.75449485
254	0xbed5eabe	-0.41780657
255	0x3e8d6f51	0.2762399

Encoder.encoder_lstm.weight_hh_l0 f4 [128, 32]
0	0x3f51c062	0.8193418
1	0x3ff68c51	1.9261571
2	0x403dabd1	2.9636118
3	0x3fbec98f	1.4905261
4	0x3e2f10fd	0.17096324
5	0xbf302591	-0.6880732
6	0xc012b5e7	-2.2923524
7	0x3e5aa284	0.21351057
8	0xc059c1fa	-3.4024644
9	0xbeca8ed1	-0.39562085
10	0x3fc05b01	1.5027772
11	0x3f9b7d8b	1.2147688
12	0x3fac060a	1.3439343
13	0xc02cd591	-2.700535
14	0xbf325b02	-0.69670117
15	0x3e7341c7	0.23755561
16	0xc087ee6c	-4.247854
17	0x3fea1bde	1.8289754
18	0x3f8619db	1.047664
19	0x3f8b5000	1.0883789
20	0xbf643e51	-0.8915759
21	0x3f85f0c6	1.0464103
22	0x3f15932a	0.5842768
23	0xbff46c0f	-1.9095477
24	0x3ff2d146	1.8970115
25	0xbfa7b650	-1.3102512
26	0x3f6ca2ca	0.92435896
27	0x3d0caa49	0.034342084
28	0x3f0f226f	0.55911916
29	0x3e1ba343	0.15198998
30	0xbdf23ca1	-0.1182797
31	0xbe6225d7	-0.22084747
32	0xbf4c01d4	-0.7969029
33	0xbdc9d937	-0.098558836
34	0xbd0cce1f	-0.03437626
35	0xbf32a98a	-0.69789946
36	0xbe1a730d	-0.15082951
37	0x3f21b587	0.63167614
38	0xbee8c991	-0.45466283
39	0xbe157ae1	-0.14597656
40	0x3e983fa4	0.29736054
41	0x3fbf492b	1.4944204
42	0x3f35f401	0.71075445
43	0x3ef1067e	0.47075266
44	0xbe1ae4fd	-0.15126415
45	0x3e73fb4d	0.23826332
46	0xbea4db85	-0.3219873
47	0xbf9b7be3	-1.2147182
48	0xbe3cfeb3	-0.18456535
49	0xbf0d0959	-0.5509239
50	0x3f354b84	0.7081835
51	0x3e8aa2e5	0.27077404
52	0xbda34a59	-0.07973165
53	0xbf712b2b	-0.94206494
54	0x3f81cc5e	1.0140493
55	0x3fc04ed6	1.5024059
56	0xbf3914a3	-0.72297114
57	0x3fe18dca	1.7621396
58	0x3f28342b	0.657046
59	0xbe351e00	-0.17687225
60	0xbe258846	-0.16165265
61	0x3e638495	0.22218545
62	0xbf5ceb7e	-0.8629683
63	0xbf0aa178	-0.5415263
64	0xc0014b05	-2.0202038
65	0xbfb77ed0	-1.4335575
66	0x3fb572b3	1.4175628
67	0x3e676604	0.2259751
68	0x3f64f79c	0.8944032
69	0x3f2d2749	0.6763807
70	0xbff97bce	-1.9490907
71	0x3ee334c9	0.4437621
72	0xbf6abe41	-0.91696554
73	0x3f0440d0	0.51661396
74	0xbea1a073	-0.31567726
75	0x3f3efdee	0.74606216
76	0x3f9bf967	1.2185487
77	0x3dcca0e8	0.09991628
78	0x3e78ecb0	0.24309039
79	0xbf1a2698	-0.6021514
80	0xbf82f100	-1.0229797
81	0xbe8c033d	-0.2734622
82	0xbfa2a27e	-1.2705839
83	0x3f90e790	1.1320667
84	0x3e2ab79d	0.16671605
85	0x3f188090	0.5957117
86	0xbd52ac5a	-0.0514339
87	0x3f443372	0.76641
88	0xbfcd40a7	-1.6035355
89	0x3f99bb55	1.2010294
90	0x3f64dd4c	0.8940017
91	0x3f49af48	0.7878308
92	0xbf268bcb	-0.6505706
93	0xbe7503d0	-0.23927236
94	0x3f470041	0.7773476
95	0x3fdb6723	1.714085
96	0x3f48f5ad	0.7849987
97	0xbea58737	-0.32329723
98	0x40069fa2	2.1034932
99	0x3fa8f8ee	1.3200967
100	0x3f97cd0f	1.1859454
101	0xbf0f3be4	-0.5595076
102	0xbfc53467	-1.5406617
103	0xbe9db136	-0.30799264
104	0xbece68d4	-0.40314353
105	0x3f7dabc0	0.99090195
106	0xbf212d77	-0.6296
107	0xbe30ab04	-0.17252737
108	0x3f0f3e98	0.55954885
109	0x3fb0eba3	1.3821911
110	0x3f63588b	0.8880698
111	0xbf31238a	-0.69194853
112	0x3f90d3b9	1.1314613
113	0x3efc65a2	0.4929629
114	0x3e84c64d	0.2593254
115	0xbe022cd4	-0.12712413
116	0xbf39bb96	-0.7255186
117	0x3f7cd9bd	0.9876974
118	0x3f8c7550	1.0973301
119	0xc038c855	-2.8872273
120	0xbfbaa75c	-1.4582324
121	0xbd107778	-0.035270184
122	0x3f8c35a7	1.0953873
123	0x3e99458a	0.29935867
124	0x3e8bd160	0.27308178
125	0x3fd65425	1.6744429
126	0x3f85731b	1.0425752
127	0x3f6449de	0.8917521
128	0x3ff8e0f5	1.9443651
129	0xbfadb7ab	-1.3571676
130	0x3d60cc98	0.054882616
131	0x3f30d0f9	0.69068867
132	0xbf79d078	-0.97583723
133	0x4010108f	2.2510107
134	0xc02d418f	-2.7071264
135	0x402e2bb6	2.721418
136	0xbe522754	-0.20522815
137	0x3f842f8e	1.0327013
138	0x3fb1d9e8	1.3894625
139	0x3f151efe	0.58250415
140	0x3f4c8e91	0.7990504
141	0xbf47ec6b	-0.7809512
142	0x3f836a32	1.0266783
143	0xbfa0efe1	-1.2573205
144	0xbf64a3c8	-0.8931241
145	0xbe50dc35	-0.20396502
146	0xbf1c55f1	-0.61068636
147	0xbefdc952	-0.49567658
148	0xbf3a4efc	-0.7277677
149	0xbcec8eae	-0.028876629
150	0x3fcff967	1.6247987
151	0xbfba3db1	-1.4550077
152	0x3dafa423	0.085762285
153	0x3e4328f4	0.19058591
154	0xbfd17643	-1.6364216
155	0xbe97dbba	-0.29659826
156	0x3f754b35	0.9581788
157	0xbf62eed0	-0.8864565
158	0xbfaa527c	-1.3306422
159	0xbfbdeac4	-1.483727
160	0x3f78dfa8	0.9721627
161	0xc01a7cba	-2.4138627
162	0xbf7739a3	-0.9657232
163	0xbf42630a	-0.7593237
164	0xbfc49376	-1.5357502
165	0x3e9fbe3f	0.31199834
166	0x3fade9be	1.3586957
167	0xbf146f77	-0.5798258
168	0x3e98f669	0.29875496
169	0x3ec63d6a	0.3871873
170	0xbf6e4625	-0.9307578
171	0x3f0a6c53	0.5407154
172	0xbeaa44bc	-0.33255565
173	0x3ef77af5	0.48335996
174	0x3f9b8d38	1.2152472
175	0xbe13a17a	-0.14417067
176	0x3f98d73f	1.1940688
177	0x3e5ea8e8	0.2174412
178	0x3f2fa903	0.68617266
179	0xbe38ea9c	-0.18058246
180	0xbfab1990	-1.3367176
181	0x3d0257e1	0.03182209
182	0x3e030436	0.12794575
183	0x3f4acc27	0.7921776
184	0x3f49e16d	0.788596
185	0x3f63441e	0.88775814
186	0x3f062cac	0.52411914
187	0xbecb434f	-0.3969979
188	0x3ef9f63a	0.48820668
189	0x3eaefc83	0.34177026
190	0x3e6ed349	0.23322786
191	0xbf870604	-1.0548711
192	0xbd0b814e	-0.03405886
193	0x3fa587b2	1.2932036
194	0xbe15b486	-0.14619645
195	0x3e809407	0.25112936
196	0x3e20e070	0.15710616
197	0x3faaea18	1.335269
198	0x3f9d25bf	1.2277144
199	0xbfa03908	-1.2517405
200	0xbfafd96b	-1.3738226
201	0xbf7d5582	-0.989586
202	0x3fb02786	1.3762062
203	0x3f40497c	0.7511213
204	0x3f00451f	0.5010547
205	0x3ed423c7	0.41433546
206	0x3e07c8fa	0.1326026
207	0xbf2a83a7	-0.66607136
208	0xbf39ed29	-0.726275
209	0x3edd6a38	0.432451
210	0xbf9e2dd4	-1.2357736
211	0x3e8d2485	0.27566925
212	0x3fbaeb69	1.4603091
213	0xbdf073c9	-0.11740834
214	0xbf060b44	-0.5236094
215	0xbea8df05	-0.3298265
216	0xbf14c0ff	-0.5810699
217	0xbf891b98	-1.0711546
218	0x3f78fa97	0.9725737
219	0xbf1c8b12	-0.61149704
220	0xbea1d44e	-0.31607288
221	0x3f6a0b84	0.9142382
222	0x3fb2ca13	1.3967918
223	0xbf031e0f	-0.5121774
224	0xbf886f69	-1.0659
225	0x3fcf742e	1.620733
226	0xbe3334eb	-0.17500655
227	0x3e816631	0.25273278
228	0xbf474849	-0.77844673
229	0x3e1c511d	0.15265317
230	0x3f3b1542	0.7307931
231	0x3ef98c19	0.487397
232	0xbd8db098	-0.06918448
233	0x3f200c3a	0.62518656
234	0x3f2c066b	0.67197293
235	0xbe3ae3a3	-0.18250899
236	0xc00447ef	-2.0668905
237	0x3e9fb4cf	0.31192634
238	0xbeaa154b	-0.3321937
239	0x3c830e2d	0.01599797
240	0xbf4e288e	-0.8053063
241	0xbea95c08	-0.33078027
242	0xbf1ff78e	-0.62487113
243	0xbe7a221f	-0.24427079
244	0x3ee5063c	0.4473132
245	0x3e3155d4	0.17317897
246	0xbf93a624	-1.1535077
247	0x3ee75d0c	0.45188177
248	0xbedbc1d7	-0.42921326
249	0x3d4063de	0.04697024
250	0x3eaa6dda	0.33286935
251	0x3e99da55	0.30049387
252	0x3d94ae28	0.0725978
253	0x3ecb4af1	0.39705613
254	0xbfb27040	-1.3940506
255	0x3e13bc22	0.14427236

Encoder.encoder_lstm.bias_ih_l0 f4 [128]
0	0x3e281e86	0.16417894
1	0xbf4e8794	-0.80675626
2	0x3dce56c1	0.10075141
3	0xbf499da2	-0.78756154
4	0x3e65565b	0.22396223
5	0xbec391d6	-0.38197201
6	0xbe90046d	-0.28128377
7	0x3f61dfcc	0.8823211
8	0x3e6e0fab	0.23248164
9	0x3e7fa63c	0.24965757
10	0xbe91d0af	-0.28479525
11	0xbd45ffec	-0.04833977
12	0x3edaa48a	0.42703658
13	0xbe2c8376	-0.16847023
14	0x3f992813	1.1965355
15	0x3e412c47	0.18864547
16	0xbeaf1aad	-0.3420004
17	0x3dff2fb7	0.12460273
18	0xbedcafff	-0.43103024
19	0xbe8993b5	-0.26870504
20	0xbf3a3b1d	-0.7274645
21	0xbe81a758	-0.25322986
22	0x3edb11df	0.42787072
23	0xbe1fbc87	-0.15599261
24	0xbf0bebc0	-0.546566
25	0xbc9b8720	-0.018985331
26	0xbe88f7b8	-0.26751494
27	0xbf426406	-0.75933874
28	0x3e3a482c	0.18191594
29	0xbe93edbd	-0.28892317
30	0xbed9b588	-0.4252131
31	0xbe9d46e8	-0.3071816
32	0x3f13df96	0.5776304
33	0x3edf4320	0.436059
34	0xbf1110ae	-0.56666076
35	0x3ea576a0	0.32317066
36	0x3d95669f	0.07294964
37	0xbe2e84ea	-0.1704289
38	0x3d5e350a	0.0542498
39	0xbd0843b8	-0.033267707
40	0x3bfcee48	0.007718835
41	0x3ef0b611	0.47013906
42	0x3d12a43a	0.03580115
43	0x3e183f96	0.14868006
44	0xbf199aaf	-0.60001653
45	0xbe9079af	-0.28217837
46	0xbf66f41f	-0.9021625
47	0x3dfcee66	0.123501584
48	0x3ee5ffca	0.44921714
49	0x3f63fc96	0.8905729
50	0xbce02df0	-0.027365655
51	0xbddf0c0b	-0.10890969
52	0x3f40fb79	0.75383717
53	0x3e978f4f	0.29601523
54	0x3e9d7d47	0.30759642
55	0x3ec2d631	0.3805404
56	0x3da81a2e	0.082081184
57	0xbf33baff	-0.7020721
58	0x3e180ba5	0.14848192
59	0xbd892593	-0.0669662
60	0xbeb96813	-0.36212215
61	0x3f77e822	0.9683858
62	0xbeba4e78	-0.36387992
63	0xbf3a2ec6	-0.7272762
64	0xbab7294f	-0.0013974103
65	0xbdd6a1b2	-0.1048006
66	0xbe41f446	-0.18940839
67	0xbcc67991	-0.02422789
68	0x3d557bf7	0.052120175
69	0xbed4eec3	-0.4158841
70	0x3e2ac85c	0.16677994
71	0x3de46fc6	0.111541316
72	0x3d97f1c1	0.07419158
73	0x3ea72cc8	0.32651353
74	0x3cdbe4be	0.026842471
75	0x3f503720	0.81334114
76	0xbe8c5014	-0.27404845
77	0xbe4fc111	-0.20288493
78	0xbd9214ac	-0.07132849
79	0x3d7dca5a	0.061960556
80	0xbe8366d6	-0.25664395
81	0x3ee96798	0.45586848
82	0xbe4b9ab0	-0.19883227
83	0xbe31c32a	-0.17359605
84	0x3eac651d	0.33670893
85	0xbdbe23f7	-0.092842035
86	0x3d2ce57e	0.04221105
87	0x3f0e89df	0.55679125
88	0xbf09dc54	-0.5385182
89	0x3d6ddccd	0.0580719
90	0x3c98047f	0.018556831
91	0x3e02b7f4	0.12765485
92	0x3f1039ed	0.5633839
93	0xbe5d59ce	-0.21616289
94	0xbe306fc2	-0.17230132
95	0x3dae5917	0.08513086
96	0xbe2960f3	-0.1654089
97	0x3f1c146f	0.6096868
98	0x3e99b2b4	0.30019152
99	0x3f0045e5	0.5010665
100	0xbea1c0b5	-0.31592336
101	0x3efa5dd8	0.48899722
102	0xbdde1f5b	-0.10845824
103	0x3f300e55	0.6877187
104	0xbc89fdec	-0.016844712
105	0xbf2b6487	-0.6695027
106	0x3db7979d	0.08964465
107	0x3eb3a770	0.35088682
108	0x3e957f95	0.291989
109	0x3e832aa6	0.25618476
110	0x3f80dd55	1.0067545
111	0xbd959df4	-0.07305518
112	0xbdc1ef23	-0.0946944
113	0xbe9a2d8d	-0.30112877
114	0x3ed29627	0.41130182
115	0x3f8c1599	1.0944091
116	0x3ea9f65b	0.33195767
117	0x3e3b758b	0.18306558
118	0x3e8a512f	0.27015063
119	0xbe8eab80	-0.2786522
120	0xbe9c817b	-0.30567536
121	0xbed3c575	-0.41361585
122	0x3e2b0131	0.16699673
123	0x3f511808	0.81677294
124	0xbbe59886	-0.0070067076
125	0xbe4616d2	-0.19344643
126	0xbe1f07e7	-0.15530358
127	0x3f777dbc	0.9667623

Encoder.encoder_lstm.bias_hh_l0 f4 [128]
0	0x3e098669	0.1343018
1	0xbf5085ce	-0.8145417
2	0x3c993b42	0.018705014
3	0xbf1941e0	-0.5986614
4	0x3e517249	0.20453753
5	0xbeb8103f	-0.35949895
6	0xbe0fe09b	-0.14050524
7	0x3f343ce4	0.7040541
8	0x3e0dc424	0.13844353
9	0x3df64132	0.12024154
10	0xbe8ef0e7	-0.2791817
11	0xbe8e6746	-0.27813166
12	0x3e53cb06	0.20682916
13	0xbe53b36a	-0.2067391
14	0x3f7bfc0b	0.9843146
15	0x3efa535f	0.48891732
16	0xbe8ddb69	-0.2770646
17	0xbdd95b75	-0.10613147
18	0xbf02fd06	-0.51167333
19	0xbe8eaf9b	-0.2786835
20	0xbf168e6e	-0.5881108
21	0xbdc9c669	-0.09852297
22	0x3e82fa95	0.25581804
23	0xbe030a4d	-0.12796898
24	0xbf09612a	-0.53663886
25	0x3dc2dd07	0.09514814
26	0xbe589dae	-0.211539
27	0xbf64dcd9	-0.89399487
28	0x3dadde6d	0.0848969
29	0xbdf95cf0	-0.121759295
30	0xbef9efb3	-0.48815688
31	0xbe927124	-0.28601944
32	0x3e93e966	0.28889006
33	0x3ea4e126	0.32203025
34	0xbeeaa15d	-0.45826235
35	0x3de25d29	0.11052925
36	0x3e04b283	0.12958722
37	0xbefd683f	-0.49493596
38	0x3e25abb0	0.16178775
39	0x3e0d075c	0.13772339
40	0xbda99206	-0.08279805
41	0x3ef4df6d	0.4782671
42	0x3e62eca4	0.22160584
43	0x3e89afb1	0.26891854
44	0xbf23001b	-0.63672036
45	0xbeaf5ea1	-0.34251884
46	0xbf5fedd9	-0.874723
47	0x3e48f721	0.19625522
48	0x3f04b90c	0.5184486
49	0x3f6fcdb6	0.93673265
50	0xbe5c84d3	-0.21535043
51	0xbe2b0548	-0.16701233
52	0x3f7c954c	0.9866531
53	0x3dde6d5a	0.10860701
54	0x3eee21bf	0.4651012
55	0x3e533a61	0.20627739
56	0x3e8f9cdc	0.28049362
57	0xbf29c20b	-0.6631171
58	0x3e5ae8bb	0.21377842
59	0x3d946503	0.07245829
60	0xbeaa4107	-0.33252737
61	0x3f999f0f	1.2001666
62	0xbea65616	-0.32487553
63	0xbf4a5bc0	-0.7904625
64	0xbe921fe8	-0.28539968
65	0xbd9a04d5	-0.07520453
66	0xbe4a5450	-0.19758725
67	0x3d421566	0.04738369
68	0x3dee97af	0.11650025
69	0xbe568279	-0.20948209
70	0x3d1edead	0.03878658
71	0x3dcb10f3	0.09915342
72	0xbb16369c	-0.0022920733
73	0x3e8e712b	0.27820715
74	0x3c4ad2b7	0.01237934
75	0x3f545edd	0.8295725
76	0xbb71cf61	-0.003689729
77	0xbe64f5d6	-0.22359404
78	0xbb9a5fa7	-0.0047111097
79	0x3d9e313c	0.077242345
80	0xbef303f5	-0.47463956
81	0x3eb33b82	0.35006338
82	0xbe80640d	-0.25076333
83	0xbe2ca9b3	-0.1686161
84	0x3e9b399e	0.30317396
85	0xbe2a665c	-0.1664061
86	0x3e5b7a19	0.21433295
87	0x3f297f83	0.6621019
88	0xbeddaa03	-0.4329377
89	0x3c70a506	0.014687782
90	0xbd190811	-0.03736121
91	0xbd68fe3d	-0.056883086
92	0x3efbf9bb	0.49213967
93	0xbde86643	-0.1134763
94	0xbeaea22a	-0.34108096
95	0x3eabe6be	0.3357448
96	0xbdae700d	-0.08517466
97	0x3f080017	0.5312514
98	0x3e129584	0.14314848
99	0x3f1c5917	0.6107344
100	0xbe349f99	-0.17639007
101	0x3f29fd2c	0.66401935
102	0xbe9e7b8c	-0.30953634
103	0x3f186c93	0.5954067
104	0x3d7ac39e	0.06122171
105	0xbf350c28	-0.70721674
106	0x3e85a0ea	0.2609933
107	0x3e50554b	0.20345037
108	0x3ebac941	0.3648167
109	0x3e948ba4	0.29012787
110	0x3f48b356	0.78398645
111	0xbca004ab	-0.019533476
112	0xbd21412f	-0.039368805
113	0xbe236144	-0.15955073
114	0x3e9e53f1	0.30923417
115	0x3f8147a1	1.0099984
116	0x3eed4032	0.4633804
117	0x3ed06a7b	0.40706238
118	0x3dfb337d	0.1226568
119	0xbe6bfa84	-0.23044783
120	0xbf185f20	-0.5952015
121	0xbea2d331	-0.3180175
122	0xbe013c2e	-0.12620613
123	0x3f5aa3cb	0.8540618
124	0xbd8c1d25	-0.068414964
125	0xbd4b6c7e	-0.049664013
126	0xbc5af6ef	-0.013364538
127	0x3f3244ac	0.69636035

Encoder.encoder_attn.0.weight f4 [20, 84]
0	0x3c4cfa0a	0.012510786
1	0x3dd843ce	0.10559808
2	0xbdc6eb98	-0.09712905
3	0x3d557b13	0.052119326
4	0xbdab660c	-0.08369073
5	0xbba768e7	-0.005108941
6	0xbd26b647	-0.040701177
7	0xbd706643	-0.058691274
8	0xbce04a95	-0.027379313
9	0xbd16e910	-0.03684336
10	0xbdc4db00	-0.096120834
11	0xbdc1e1e3	-0.094669126
12	0xbdc3aad7	-0.095540695
13	0xbdc91a65	-0.098194875
14	0xbdd0532e	-0.10172115
15	0x3c4d6ed7	0.012538633
16	0xbd522193	-0.05130155
17	0xbdb52bee	-0.088462695
18	0x3dc036ce	0.09385453
19	0x3d01a912	0.03165538
20	0x3d65a4e2	0.056065448
21	0xbd17d6c9	-0.03707007
22	0xbd65943e	-0.056049578
23	0x3cbc0c0a	0.02295496
24	0xbdae30b4	-0.08505383
25	0xbc499e35	-0.012305786
26	0x3dbf97c9	0.093551226
27	0x3cf9fb5f	0.03051537
28	0x3bfc3087	0.0076962146
29	0xbdb6ba05	-0.08922199
30	0xbdb865d8	-0.090038
31	0x3cdff0bb	0.027336469
32	0x3c47ae08	0.012187488
33	0x3dd65e69	0.10467226
34	0x3d7f613c	0.06234859
35	0xbcd50ac3	-0.026006108
36	0xbdc98262	-0.09839322
37	0xbc6fe856	-0.014642796
38	0x3b84b286	0.004049602
39	0xba903b57	-0.0011004013
40	0x3d8d5dd1	0.0690266
41	0xbd9b8a2f	-0.07594716
42	0x3ba49195	0.0050222375
43	0x3dc20404	0.09473422
44	0xbc79bb14	-0.015242357
45	0x3ca45200	0.020058632
46	0xbdd3cd2b	-0.10341867
47	0xbdc68280	-0.0969286
48	0x3d802963	0.06257894
49	0x3d581848	0.05275753
50	0x3d86a29c	0.06573984
51	0x3d845e0e	0.06463252
52	0x3d1711b9	0.036882136
53	0xbc5d466b	-0.0135055585
54	0xbbd32769	-0.006443907
55	0x3ddeb6a6	0.10874681
56	0xbd058bfe	-0.03260421
57	0xbcc9930d	-0.024606252
58	0xbc6930e3	-0.014232847
59	0x3c12b6bd	0.008954701
60	0xbd6b0eb0	-0.057387054
61	0xbb841489	-0.0040307683
62	0x3d3d6cdc	0.046246395
63	0x3d669a79	0.05629966
64	0x3d60c068	0.054870993
65	0xbdd7fd3d	-0.10546348
66	0x3d2a4d6a	0.041577734
67	0xbdb68393	-0.089118145
68	0x3d96a7cc	0.073562235
69	0xbd23d759	-0.040000293
70	0xbdc50314	-0.09619728
71	0xbd61897f	-0.055062767
72	0xbdbf27e7	-0.09333783
73	0x3cb0acfd	0.021566862
74	0x3d3147b4	0.043281272
75	0xbd2bf14a	-0.041978158
76	0x3d34ed8a	0.044171847
77	0x3db6c4cd	0.089242555
78	0xbc93d9b4	-0.018048145
79	0xbdb0c5ca	-0.08631475
80	0x3d67338a	0.056445636
81	0xbd073b62	-0.033015616
82	0xbd48f8eb	-0.04906551
83	0xbd8a2560	-0.0674541
84	0x3d284b43	0.0410874
85	0xbda6bba3	-0.081412576
86	0x3dc2d1b5	0.09512655
87	0xbddadd23	-0.1068671
88	0x3bf9eafa	0.0076268883
89	0x3cd2a07f	0.025711296
90	0xbddde241	-0.1083417
91	0x3db87f67	0.09008675
92	0x3dae5f33	0.085142516
93	0xbda3d225	-0.07999066
94	0xbcb98f87	-0.022651447
95	0x3d316017	0.04330453
96	0xbd9954ca	-0.07486875
97	0xbdbc3768	-0.091902554
98	0x3da57bf1	0.080802806
99	0x3c802d9e	0.015646752
100	0x3bb70e9f	0.0055864598
101	0x3d75b157	0.059983578
102	0x3d61035c	0.054934844
103	0x3d944321	0.07239366
104	0xbd2cf2f7	-0.042223897
105	0xbdabf987	-0.08397203
106	0x3dc9f23d	0.098606564
107	0x3d25e8e8	0.04050532
108	0xbca9d3d3	-0.020730888
109	0x3db498c5	0.08818201
110	0x3d93495a	0.07191725
111	0x3dc175cd	0.09446297
112	0xbd5ef331	-0.054431144
113	0xbd0896d7	-0.033346977
114	0x3d1c8232	0.0382101
115	0xbcda7977	-0.026669247
116	0x3dac7561	0.08420826
117	0xbda55c80	-0.080742836
118	0x3dbe43ba	0.092902616
119	0xbc29da27	-0.010366953
120	0xbdcef559	-0.1010539
121	0x3dd4e543	0.10395291
122	0x3d63b4e7	0.055592444
123	0xbc7fc6bc	-0.015611347
124	0x3d3ecb51	0.046580616
125	0xbdb2e8d9	-0.087358184
126	0x3d12be8a	0.035826243
127	0x3dd90d00	0.10598183
128	0xbbd98de6	-0.00663923
129	0xbcffe4f5	-0.031237105
130	0xbb5686ae	-0.0032734084
131	0xbdc53d41	-0.09630824
132	0x3d125e0f	0.035734233
133	0x3cde00f1	0.027100058
134	0x3dd747f0	0.10511768
135	0xbd0164e0	-0.031590343
136	0x3dc2e0a6	0.095155045
137	0xbdabc592	-0.08387293
138	0xbd9efe46	-0.077633426
139	0x3dd3a7a2	0.10334708
140	0x3d158de8	0.036512285
141	0xbd590ab9	-0.05298874
142	0xbdce163e	-0.10062836
143	0xbc726888	-0.01479543
144	0x3d081f84	0.03323318
145	0xbd88fd4b	-0.06688937
146	0xbd88f776	-0.066878244
147	0x3dd2846a	0.10279162
148	0xbc073aa2	-0.008253725
149	0x3dc849ea	0.09779723
150	0xbd894a22	-0.06703593
151	0x3dcb3d9b	0.0992386
152	0x3c06c37c	0.008225318
153	0x3d45a51b	0.04825316
154	0xbc34b7ab	-0.011030118
155	0x3cf78e98	0.030219361
156	0x3c413378	0.011792056
157	0xbca0e328	-0.019639567
158	0xbd3909fe	-0.045175545
159	0xbd27f203	-0.041002285
160	0xbd593387	-0.053027656
161	0xbda8ccd8	-0.08242196
162	0xbd0a860b	-0.03381924
163	0x3d42d8c0	0.04756999
164	0xbdc89d09	-0.09795577
165	0xbc94f92d	-0.018185223
166	0xbd4b20f5	-0.049591977
167	0x3da66d9b	0.08126374
168	0x3dc550ce	0.09634553
169	0xbc43288d	-0.0119115235
170	0x3d4d84c9	0.050175462
171	0x3cd4ba05	0.025967607
172	0xbdb40679	-0.08790297
173	0x3c5e4e23	0.013568434
174	0x3dd4cabe	0.103902325
175	0xbb66f6cb	-0.0035242315
176	0xbc593531	-0.013257311
177	0xbd956af0	-0.07295787
178	0x3dae359f	0.08506321
179	0xbcb6a9f8	-0.022297844
180	0x3ca359c7	0.01994027
181	0xbdbda574	-0.09260073
182	0x3d9ea037	0.07745402
183	0xbce5c116	-0.028046172
184	0x3cec5eec	0.028853856
185	0x3cc6dcb5	0.024275163
186	0x3dbe51d4	0.09292951
187	0x3d0ee8a4	0.034889832
188	0x3ce016e5	0.027354667
189	0x3db16a9b	0.086629115
190	0x3db0365d	0.08604119
191	0xbd9be7bf	-0.076125614
192	0x3db89954	0.0901362
193	0xbd370670	-0.044683874
194	0x3d09b745	0.033622045
195	0xbc41169c	-0.011785176
196	0xbdbac3b6	-0.0911936
197	0x3db50c3d	0.08840225
198	0xbdd0c98a	-0.101946905
199	0x3dd80f23	0.10549762
200	0xbd2ecbfe	-0.04267501
201	0x3d2fd1c6	0.042924665
202	0x3c8c7db8	0.017149791
203	0xbd3da67b	-0.046301346
204	0x3bc9c05b	0.0061569638
205	0xbd0d6a87	-0.03452542
206	0xbdd205d0	-0.10255015
207	0xbd55fac6	-0.05224111
208	0x3bcd126d	0.0062583
209	0x3d8d5772	0.069014445
210	0x3d36e7e6	0.04465475
211	0x3dd60a4d	0.104511835
212	0xbd72b323	-0.05925287
213	0x3d0fe69b	0.035132032
214	0xbdb93a00	-0.09044266
215	0x3d92f4c2	0.0717559
216	0xbdc55cf5	-0.09636871
217	0xbdd6e87b	-0.10493561
218	0xbd918c3e	-0.07106827
219	0xbdcfd1d4	-0.101474434
220	0x3d957f1c	0.07299635
221	0xbdb4aaf6	-0.08821671
222	0xbbe9c191	-0.0071336706
223	0x3bca6034	0.006176019
224	0x3d01fc52	0.031734772
225	0x3b083b26	0.0020787208
226	0x3d21e145	0.039521474
227	0x3ca20d59	0.019781755
228	0xbd95d29e	-0.07315563
229	0x3c82d69f	0.01597148
230	0x3dac2272	0.084050074
231	0x3dc3e312	0.095647946
232	0xbd653dd1	-0.055967156
233	0xbd11af2f	-0.03556746
234	0xbb7d6682	-0.0038665836
235	0x3d948287	0.072514586
236	0xbc983194	-0.018578328
237	0xbd0029e1	-0.03128994
238	0x3c027b53	0.007963973
239	0x3dbeaf68	0.093108
240	0x3cf327c6	0.029682051
241	0xbcea1afb	-0.028577318
242	0x3b366872	0.002783325
243	0x3d97715b	0.07394668
244	0xbd4f7170	-0.05064529
245	0xbc4462e5	-0.011986469
246	0xbd9ae6c1	-0.07563544
247	0xbdd0da58	-0.10197896
248	0xbd2eb2db	-0.04265104
249	0xbcb3db59	-0.021955179
250	0x3bfc95c8	0.007708285
251	0xbcab67f0	-0.020923585
252	0xbd641e18	-0.055692762
253	0xbd6c6433	-0.057712745
254	0x3c9c0591	0.019045623
255	0x3daa484a	0.08314569

Encoder.encoder_attn.0.bias f4 [20]
0	0x3d7e720e	0.06212049
1	0x3bbd9a19	0.005786192
2	0x3d5d7b56	0.0540727
3	0xbd59c3de	-0.05316531
4	0xbd865aa2	-0.065602556
5	0xbd9e3a5d	-0.07725976
6	0xbda58234	-0.08081475
7	0x3c9ee099	0.019394206
8	0xbcc1896b	-0.023625096
9	0x3d054f73	0.03254647
10	0xbd6b68f3	-0.057473134
11	0x3d3b70a1	0.04576171
12	0xbdd6988a	-0.10478313
13	0xbdc594a7	-0.09647494
14	0xbc490f1c	-0.012271669
15	0x3dcd0fd0	0.100127816
16	0xbd71038e	-0.05884128
17	0x3d34535b	0.044024806
18	0x3db3d38a	0.08780582
19	0xbdba7acb	-0.09105452

Encoder.encoder_attn.2.weight f4 [1, 20]
0	0xbe0b8ea5	-0.13628633
1	0x3cdbe127	0.02684076
2	0x3c78f8e2	0.015196057
3	0xbc1a4f29	-0.009418287
4	0x3bceeee9	0.0063151014
5	0x3ddaa553	0.10676064
6	0x3dbb6a18	0.09151095
7	0xbcd47fbb	-0.025939813
8	0x3d92bb91	0.07164682
9	0xbdf49f35	-0.11944429
10	0xbdc4a4f6	-0.09601776
11	0xbe228987	-0.15872775
12	0xbe394889	-0.18094076
13	0x3e15c6a2	0.14626554
14	0x3e26ca57	0.16288124
15	0xbcb6c7ae	-0.022312012
16	0x3d753ec7	0.059874322
17	0x3c65def0	0.014030203
18	0xbcfacd81	-0.03061557
19	0x3dfc9a8e	0.123341665

Decoder.attn_layer.0.weight f4 [32, 96]
0	0xbc4cf798	-0.012510203
1	0xbcee116d	-0.029061044
2	0x3cc05df2	0.023482297
3	0x3cc79d3b	0.024366966
4	0xbcbe9d8a	-0.02326848
5	0xbd98aaf0	-0.07454479
6	0xbd9f6fa8	-0.077849686
7	0xbd305456	-0.04304918
8	0xbdc931c4	-0.09823945
9	0x3d8bb765	0.06822089
10	0x3daf56ae	0.08561455
11	0x3c79f920	0.01525715
12	0x3c14ab27	0.009074009
13	0x3b955da9	0.0045582843
14	0x3d945491	0.07242692
15	0xbb8b3a53	-0.004248896
16	0x3d9aef14	0.07565132
17	0x3c11a64a	0.008889744
18	0xbd2a5f8a	-0.04159502
19	0x3c0c3e05	0.0085597085
20	0x3d36d624	0.044637814
21	0xbd8398d7	-0.06425636
22	0xbace199a	-0.0015724183
23	0xbc7a4f78	-0.015277736
24	0x3d627152	0.055283852
25	0xbdbdeef9	-0.09274096
26	0x3cebbeea	0.028777558
27	0x3d03531f	0.032061692
28	0x3d86dc5f	0.06585001
29	0x3cd87c80	0.026426554
30	0x3d6c67d7	0.057716217
31	0x3d58fbc8	0.052974492
32	0x3d9d4d67	0.07680779
33	0x3d3c82b0	0.04602307
34	0xbd563cdb	-0.05230413
35	0x3d82dcd8	0.06389779
36	0xbc9d1581	-0.019175293
37	0x3d83dfc0	0.06439161
38	0xbda86cbb	-0.08223864
39	0x3bb6a8c3	0.005574317
40	0xbd5b5574	-0.05354829
41	0x3da6d003	0.08145144
42	0x3d4ab795	0.049491484
43	0xbdce9ff3	-0.10089102
44	0xbdb67e7d	-0.089108445
45	0x3dce6891	0.10078538
46	0x3d597529	0.05309025
47	0xbd804a4b	-0.0626417
48	0x3d9f6ba7	0.07784205
49	0x3c23ca5e	0.009996979
50	0x3d513c4c	0.051082894
51	0xbdc3e156	-0.09564464
52	0xbd2ab862	-0.041679747
53	0x3d909c07	0.0706101
54	0x3d5673ff	0.052356716
55	0xbd068b63	-0.032847773
56	0xbc17dcc6	-0.009268945
57	0xbd59410f	-0.05304056
58	0x3c28a3bf	0.010292946
59	0x3c3a7c5a	0.011382187
60	0xbd9a3f7e	-0.075316414
61	0xbdc2184c	-0.094772905
62	0xbaf14107	-0.001840622
63	0xbc07423e	-0.008255539
64	0xbc207c94	-0.009795327
65	0xbda8894b	-0.082293116
66	0xbd8b111d	-0.067903735
67	0x3d380c96	0.044933878
68	0xbc701784	-0.014654044
69	0xbd526eac	-0.051375076
70	0x3d8f9a22	0.070118204
71	0xbd055137	-0.032548156
72	0x3d098520	0.033574224
73	0xbd9a5080	-0.075348854
74	0xbc26a760	-0.010171741
75	0xbd99f16a	-0.07516749
76	0xbdbbc3d7	-0.09168213
77	0xbd989e5f	-0.07452082
78	0xbd8fe975	-0.0702695
79	0xbd5d8900	-0.05408573
80	0xbda5ff84	-0.08105376
81	0xbd36132a	-0.04445187
82	0xbc03b7e2	-0.008039447
83	0xbc7bcfc9	-0.015369364
84	0xbd5807bd	-0.052741755
85	0x3cd8f486	0.026483785
86	0xbd13fbe3	-0.03612889
87	0x3dc6490a	0.096819
88	0x3d592caf	0.05302113
89	0x3d64f18b	0.055894416
90	0x3db2ac53	0.087242745
91	0x3d58fe28	0.052976757
92	0x3d26a0be	0.04068064
93	0xbc06d643	-0.008229795
94	0x3d9dd774	0.0770711
95	0x3db390ce	0.08767854
96	0xbd67a558	-0.05655417
97	0xbd95aad0	-0.073079705
98	0x3cf948b6	0.03043018
99	0x3a9d6684	0.0012008701
100	0x3cfc4c9b	0.030798247
101	0xbd003ac6	-0.03130605
102	0x3d00360e	0.03130155
103	0x3c7e05df	0.015504329
104	0xbce1c9c9	-0.027562039
105	0xbda9aeed	-0.082853176
106	0x3d2a2b59	0.041545246
107	0x3dc55b7a	0.096365884
108	0x3d6542af	0.055971798
109	0xbd8ef2bc	-0.06979892
110	0xbd41f3f0	-0.047351778
111	0xbdc0adb4	-0.09408131
112	0x3dc8a691	0.09797395
113	0xbd614f70	-0.055007398
114	0x3d6c84fa	0.057744004
115	0x3cc2d921	0.023785176
116	0xbdadaad1	-0.08479846
117	0x3dc16631	0.094433196
118	0xbdc21494	-0.09476581
119	0xbd73c2cf	-0.059511956
120	0xbcb71d99	-0.02235298
121	0xbd840c50	-0.06447661
122	0xbd15e38d	-0.036593962
123	0x3cba5bec	0.02274891
124	0x3d4e9d5d	0.050443042
125	0x3d84367f	0.06455707
126	0x3da9050f	0.08252918
127	0x3d1ca07d	0.03823899
128	0xbc2bb010	-0.010478988
129	0xbdcccfa1	-0.100005396
130	0xbd5d881f	-0.054084893
131	0x3d126d48	0.03574875
132	0x3d098fce	0.03358441
133	0xbc9e009b	-0.019287398
134	0xbb5e2602	-0.0033897166
135	0xbd9277d7	-0.07151764
136	0xbdce98bd	-0.10087726
137	0xbd3e68f6	-0.046486817
138	0xbcf2212f	-0.029556839
139	0x3dbd4116	0.0924093
140	0xbd2bb82d	-0.04192369
141	0x3d90716c	0.070528835
142	0x3d33eb4a	0.04392556
143	0xbd242d51	-0.04008228
144	0x3d9f11c1	0.07767058
145	0xbd88fdcc	-0.06689033
146	0x3ba0275b	0.004887504
147	0x3dc579ba	0.09642358
148	0x3dae42f0	0.08508861
149	0x3d81f1a1	0.06344915
150	0xbdcc742f	-0.09983098
151	0x3a9b9a03	0.0011871461
152	0x3da7b9c2	0.08189727
153	0x3c72de7b	0.014823551
154	0xbdba8f4c	-0.09109363
155	0xbc885e97	-0.016646666
156	0xbdb156da	-0.08659144
157	0xbd70df65	-0.058806796
158	0xbd74d659	-0.05977473
159	0x3d8f140a	0.06986244
160	0xbd49e178	-0.04928729
161	0x3dadc82f	0.084854476
162	0x3d3dcf79	0.04634044
163	0xbd8c305e	-0.06845163
164	0xbd0be3c2	-0.034152754
165	0x3d4f0997	0.050546255
166	0xbd58d40b	-0.052936595
167	0x3da70f3d	0.08157203
168	0x3c19d37a	0.009388799
169	0x3b8ec77e	0.0043572774
170	0x3c6279f2	0.013823019
171	0x3d487f9b	0.04894982
172	0x3d913fbc	0.070922345
173	0x3dc5c4d3	0.09656682
174	0xbd8ec319	-0.06970806
175	0xbd840976	-0.06447117
176	0xbcf3fd05	-0.029783735
177	0xbc24588a	-0.010030875
178	0xbc1a2a55	-0.009409507
179	0x3ce6ee3c	0.02818977
180	0x3cd03c25	0.025419304
181	0x3af834fe	0.0018936691
182	0x3d16182d	0.03664415
183	0xbd1ad747	-0.03780296
184	0xbd8c472e	-0.06849514
185	0x3d9b02be	0.075688824
186	0xbab743e5	-0.0013982026
187	0xbd99acf3	-0.075036906
188	0xbd1fc82f	-0.03900927
189	0xbd70b695	-0.058767874
190	0xbb0891fa	-0.0020838962
191	0x3d0b190a	0.033959426
192	0x3da3681a	0.0797884
193	0xbd4a239a	-0.04935036
194	0x3db3a05b	0.0877082
195	0x3dbef222	0.09323527
196	0xbc3db2f9	-0.011578315
197	0x3cb31d19	0.02186446
198	0xbcfc123a	-0.03077041
199	0xbd5e02d9	-0.054201934
200	0xbd9de34e	-0.077093706
201	0xbcc10026	-0.023559641
202	0xbd453b28	-0.04815212
203	0xbd0bbee7	-0.034117606
204	0x3d93d8f1	0.07219113
205	0x3d50783c	0.050895914
206	0x3dbdf836	0.09275858
207	0x3d765be5	0.06014623
208	0x3d48d7c0	0.04903388
209	0x3d7ebba5	0.06219067
210	0x3d01773e	0.03160786
211	0x3d0b34e0	0.033985972
212	0xbd43b969	-0.047784243
213	0x3dc5e428	0.09662658
214	0x3d9e0408	0.07715613
215	0x3dafdc70	0.08586967
216	0xbd9ae9e9	-0.07564146
217	0x3d13c079	0.036072228
218	0x3d936dee	0.07198702
219	0xbbe886e4	-0.0070961583
220	0x3d9619c7	0.073291354
221	0x3db16001	0.086608894
222	0xbbb98d53	-0.005662599
223	0x3d6f0dbc	0.058362707
224	0xbda053cb	-0.07828482
225	0x3d856d3b	0.06514975
226	0x3d412fc3	0.04716469
227	0x3c8736bc	0.016505592
228	0xbd9697d8	-0.07353181
229	0x3d82ef0c	0.06393251
230	0x3d0d0afc	0.034434304
231	0x3d81cf44	0.06338361
232	0xbd7c0cbe	-0.06153559
233	0xbd3c44ac	-0.045963928
234	0xbd14adec	-0.036298677
235	0x3c96c9ff	0.018406866
236	0xbc7b35d3	-0.015332657
237	0x3d9dd535	0.07706682
238	0x3d014556	0.031560265
239	0xbc3a2e88	-0.011363633
240	0xbd6947b6	-0.056953155
241	0xbca8440a	-0.020540256
242	0x3d649829	0.055809174
243	0xbd08ab8b	-0.03336672
244	0x3d9e1e63	0.077206396
245	0x3dcdedb1	0.10055102
246	0xbd86ed1e	-0.06588195
247	0x3d8a544d	0.0675436
248	0x3cb31360	0.021859825
249	0xbd5d1d22	-0.05398286
250	0xbdc4cf69	-0.09609873
251	0xb9138b22	-0.00014070843
252	0x3d419b0e	0.047267012
253	0xbda12788	-0.07868868
254	0x3db192ce	0.08670579
255	0x3c20e81a	0.009820962

Decoder.attn_layer.0.bias f4 [32]
0	0xbd97739e	-0.07395099
1	0xbc22a9c9	-0.009928175
2	0xbdb8e886	-0.09028725
3	0xbdcebca7	-0.10094576
4	0xbd9c0b58	-0.07619351
5	0x3d81d8f3	0.06340208
6	0xbd9e766c	-0.07737431
7	0x3d386e40	0.045027018
8	0x3d893929	0.067003556
9	0x3c8ab3b4	0.016931392
10	0xbcc5a49c	-0.024126343
11	0xbb9e5be0	-0.0048327297
12	0xbda4a07d	-0.08038423
13	0x3d26dd6b	0.040738504
14	0x3db80523	0.08985355
15	0x3d7db531	0.061940376
16	0x3ce4f408	0.027948394
17	0x3c11aa6c	0.008890729
18	0xbdca66e8	-0.09882909
19	0x3da347f2	0.07972707
20	0xbd85f79a	-0.06541367
21	0xbd7d01e5	-0.061769385
22	0x3dc262ae	0.09491478
23	0xbdcb889c	-0.099381655
24	0x3c65fc3e	0.01403719
25	0xbd8b0d15	-0.067896046
26	0x3d17bea7	0.037047055
27	0x3dacf085	0.08444313
28	0x3d0e51c3	0.034745943
29	0x3d6ce972	0.05783982
30	0xbdba6a53	-0.09102311
31	0xbcbf2977	-0.023335202

Decoder.attn_layer.2.weight f4 [1, 32]
0	0xbe2210f3	-0.15826778
1	0xbdf5c7ff	-0.12001037
2	0x3e1ceadb	0.15323965
3	0xbe1569bf	-0.1459112
4	0x3e0fe22a	0.14051118
5	0x3dcd527c	0.10025498
6	0x3de1ae3c	0.11019561
7	0x3e0e8e13	0.13921385
8	0x3e2d0fa7	0.16900502
9	0xbdfb5a40	-0.12273073
10	0x3e0cf295	0.13764413
11	0xbc914149	-0.017731326
12	0x3cbe86fd	0.023257727
13	0x3cfb78db	0.030697277
14	0xbd37c9a6	-0.04487004
15	0xbdd0cd8c	-0.10195455
16	0x3def6d57	0.11690777
17	0x3abd23d8	0.0014430238
18	0x3e1a7b8e	0.15086195
19	0xbd022bcc	-0.03178005
20	0x3e014f03	0.12627797
21	0xbbd4d157	-0.006494682
22	0x3c0af154	0.008480389
23	0xbcd45938	-0.025921449
24	0x3d9518bd	0.07280109
25	0x3d4dcc84	0.05024387
26	0xbdbd3d44	-0.09240201
27	0xbdb39daf	-0.0877031
28	0xbcd26d4b	-0.02568688
29	0x3d610260	0.054933906
30	0x3e270b34	0.16312867
31	0xbdb1be09	-0.086788245

Decoder.lstm_layer.weight_ih_l0 f4 [128, 1]
0	0x3e2bc1fe	0.16773221
1	0x3f3af682	0.7303239
2	0x3eaf82f2	0.3427959
3	0xbef82788	-0.4846766
4	0x3eddce44	0.4332143
5	0x3f3b5a65	0.73184806
6	0x3f02400d	0.50878984
7	0x3d36c437	0.04462072
8	0xbf48f1f8	-0.78494215
9	0xbf500c8a	-0.81269133
10	0x3fc42440	1.5323563
11	0xbe5d29fa	-0.21598044
12	0x3f5e51f9	0.8684383
13	0x3e9d067c	0.3066901
14	0x3f1653ea	0.5872179
15	0xbe2d01c9	-0.16895212
16	0x3e7cecef	0.24699758
17	0x3dbf963c	0.09354827
18	0xbe0adc45	-0.13560589
19	0x3f9d00fa	1.2265923
20	0x3e3733fc	0.17890924
21	0x3f12b561	0.5730801
22	0x3e46e30e	0.19422552
23	0xbf837abb	-1.0271829
24	0x3f858868	1.0432253
25	0x3dd1fb06	0.10252957
26	0xbe09f81f	-0.13473557
27	0xbd89c02c	-0.06726107
28	0xbd68f21f	-0.05687153
29	0x3e953852	0.2914453
30	0x3f0525d8	0.5201087
31	0xbec5ae61	-0.38609603
32	0xbe33b709	-0.17550291
33	0x3fc0ad94	1.5052972
34	0x3fad1b65	1.3523985
35	0x3fa5b0c6	1.2944572
36	0x3fce21d3	1.6104072
37	0x4017892e	2.3677478
38	0xbff1b23b	-1.8882517
39	0x3f8a84bb	1.0821756
40	0xbe9297bc	-0.2863139
41	0x3dba439e	0.09094928
42	0x3ec2da1f	0.38057038
43	0x3da66c86	0.08126168
44	0x3ea870b5	0.3289849
45	0xbf2cf68f	-0.6756372
46	0x3eb1137a	0.34585172
47	0x3ed5fbaf	0.41793582
48	0x402821e8	2.6270695
49	0x3f8119d6	1.008601
50	0x3e5841c9	0.21118845
51	0x3ef9fddc	0.48826492
52	0x3f288c5f	0.6583919
53	0x3f22887a	0.63489497
54	0x3f82ba4d	1.0213104
55	0x3f168e6b	0.5881106
56	0x40202346	2.502153
57	0xbebc4165	-0.36768642
58	0xbf27a5d9	-0.6548744
59	0xbe8e83d8	-0.27834964
60	0x3f725bc4	0.94671273
61	0x400239d8	2.0347805
62	0xbf6ea19c	-0.93215346
63	0x3f07fceb	0.531203
64	0xbf31ba00	-0.6942444
65	0x3e2d0ee2	0.16900209
66	0xbee22fcc	-0.4417709
67	0x3f8765a7	1.0577897
68	0x3ee31330	0.44350576
69	0xbf342e97	-0.7038359
70	0x3f2775e3	0.65414256
71	0x3eb9ea76	0.36311692
72	0xbeb81405	-0.35952774
73	0x3f19160e	0.5979928
74	0xbeeacc05	-0.4585878
75	0x3f4f9277	0.8108286
76	0x3df67016	0.120330974
77	0xbf26ec46	-0.65204275
78	0xbf0a258b	-0.53963536
79	0xbda266bc	-0.07929751
80	0x3f00137f	0.5002975
81	0xbf3ed864	-0.74548936
82	0xbf37c55d	-0.7178553
83	0xbe092b6e	-0.13395473
84	0x3e62d7d0	0.22152638
85	0x3dc610b2	0.09671153
86	0xbe35ecd8	-0.1776613
87	0xbf66a436	-0.90094316
88	0x3f3b0d81	0.7306748
89	0x3ebd3e6d	0.3696169
90	0x3f358af4	0.7091515
91	0xbe4aac44	-0.19792277
92	0x3f061df2	0.5238944
93	0xbf2b15be	-0.6683005
94	0xbf708933	-0.9395935
95	0xbd89c3e4	-0.06726816
96	0xbeeeae7f	-0.46617505
97	0x3f685a41	0.90762717
98	0xbfc69757	-1.5514935
99	0x3f936a2e	1.1516778
100	0x3f89982a	1.0749562
101	0x3ef68e86	0.48155612
102	0xbf1291d8	-0.5725379
103	0x3f59f428	0.8513818
104	0xbf8f6345	-1.120217
105	0x3e8dcfe7	0.2769768
106	0x3e07c5e5	0.13259085
107	0x3eecb8d6	0.4623477
108	0x3f93fe44	1.1561971
109	0xbfe51dcc	-1.7899718
110	0xbd419974	-0.047265485
111	0xbf1614f1	-0.58625704
112	0x3fc7181b	1.5554231
113	0x3df8bbcb	0.12145194
114	0xbef11743	-0.4708806
115	0x3f1fba94	0.6239407
116	0x3f682c53	0.90692633
117	0x3f3aae46	0.7292217
118	0x3f79db34	0.976001
119	0x3f0c66d6	0.54844415
120	0x3f621877	0.8831858
121	0x3e2c2abe	0.1681318
122	0x3caa8589	0.020815628
123	0xbf0368c6	-0.51331747
124	0xbebdb339	-0.370508
125	0x3dfe745f	0.1242454
126	0x3e38c45f	0.1804366
127	0xbe956f7f	-0.29186627

Decoder.lstm_layer.weight_hh_l0 f4 [128, 32]
0	0xbe40017d	-0.18750568
1	0x4036d549	2.856768
2	0xbf3cdb2b	-0.73771924
3	0x3fa5b463	1.2945675
4	0x40099f91	2.1503642
5	0x400247cb	2.035632
6	0xbe840ce8	-0.25791097
7	0xbf96e426	-1.1788375
8	0x3e895821	0.2682505
9	0x3ee40b9d	0.4454011
10	0xc033e4f2	-2.8108487
11	0x3f577949	0.8416944
12	0xbf911a5c	-1.1336169
13	0xbfe97277	-1.8238057
14	0xc02d0f68	-2.7040653
15	0xbeb12506	-0.3459856
16	0x3f9ea84e	1.2395113
17	0x401e4b4d	2.473346
18	0x3fff4e45	1.9945761
19	0x3fb129ed	1.384092
20	0x3ec76727	0.38945886
21	0xbfde624a	-1.7373745
22	0x3f15b826	0.58484113
23	0x3ec42968	0.3831284
24	0x4034dd26	2.8259978
25	0xbecbfa54	-0.39839423
26	0xbf9faf08	-1.247529
27	0xbfa7cde6	-1.310971
28	0xbfc6af44	-1.5522237
29	0xbf8d60a7	-1.1045121
30	0xc023195d	-2.548423
31	0xbe6b7624	-0.22994286
32	0x3f1bb286	0.6081928
33	0xbd5aec97	-0.053448286
34	0xbfb1bba0	-1.3885384
35	0xbefd2861	-0.4944487
36	0x3fac96d4	1.3483529
37	0x3bb7c9a9	0.0056087566
38	0x3f56ee9c	0.8395784
39	0xbed315f2	-0.4122768
40	0xbe55c4a8	-0.208758
41	0xbfbcb600	-1.4743042
42	0x3e303565	0.17207868
43	0x3f9a0806	1.2033699
44	0xbf725952	-0.9466754
45	0xbf008e2d	-0.50216943
46	0x3f12ac35	0.5729402
47	0xc0132aba	-2.2994828
48	0x3fdc863f	1.7228469
49	0xbe3035ec	-0.1720807
50	0x3fbd63e8	1.4796114
51	0xbf9dd22c	-1.2329764
52	0x3e02c140	0.12769032
53	0x3fd29ddb	1.6454424
54	0xbf8965e9	-1.0734226
55	0x3e83a636	0.25712746
56	0x3fc15203	1.5103153
57	0x3f83a82e	1.0285699
58	0x3f369e64	0.71335435
59	0x3fafae28	1.3725023
60	0xbecfed32	-0.40610653
61	0xbff7f6ce	-1.9372194
62	0x3f0a6c59	0.54071575
63	0xbf5b0423	-0.8555319
64	0xbf657b7b	-0.8964154
65	0x3ed47962	0.41498858
66	0xc03aa882	-2.916535
67	0x40225c7f	2.5368955
68	0x3e41b6dc	0.18917412
69	0x403b18f4	2.923398
70	0x3ff93b3c	1.9471202
71	0x3e8706ab	0.26372275
72	0x3e18f43c	0.14936918
73	0xbfa790c5	-1.3091055
74	0xbead6c41	-0.33871654
75	0xbf7d5e1c	-0.98971725
76	0x3e677456	0.22602972
77	0x3d37c0fe	0.044861786
78	0x3f49c10c	0.7881019
79	0xc05dbe07	-3.4647233
80	0xc02f7b3c	-2.7418966
81	0x3e633d16	0.22191271
82	0x3ef410cb	0.47669062
83	0xbee358f8	-0.44403815
84	0xbf498fd5	-0.78735095
85	0xbf58529b	-0.84501046
86	0x3ff80992	1.9377921
87	0xbf94be1d	-1.1620518
88	0xbf799b87	-0.9750294
89	0xbf48642c	-0.7827785
90	0xbf8d2f96	-1.1030147
91	0xbe6fb038	-0.23407066
92	0x401955e8	2.3958683
93	0xbf4ebd1d	-0.80757314
94	0x3ea28606	0.31742877
95	0xc0145d87	-2.3182085
96	0x3f01a27f	0.50638574
97	0xbe02feb9	-0.12792481
98	0x3f3ea066	0.744635
99	0x3c045261	0.008076281
100	0xbfa58387	-1.2930764
101	0xc002eeb4	-2.0458193
102	0x40039e4b	2.0565364
103	0xbf7719e1	-0.96523863
104	0x3ecf500d	0.4049076
105	0xbfa2bf9e	-1.2714727
106	0xbf895e90	-1.0731983
107	0xbeef810e	-0.46778148
108	0xbe9d6c59	-0.30746725
109	0x3c66c71d	0.014085558
110	0xbf211e54	-0.629369
111	0xbf921d1a	-1.1415131
112	0xbccdefa2	-0.02513868
113	0x3d93e2dd	0.07221005
114	0x3e3ea748	0.186185
115	0xbf6895a2	-0.9085332
116	0x3ee822d7	0.4533908
117	0xbf51f6cb	-0.820172
118	0x3f31b80d	0.69421464
119	0xbf5a80d0	-0.853528
120	0x3f3c0e48	0.7345929
121	0x400621f8	2.0958233
122	0x3effe287	0.49977514
123	0x4025d2ae	2.5909839
124	0xc01b8c94	-2.4304552
125	0xc042353d	-3.0344994
126	0x3f4453f2	0.7669059
127	0x3ef275ee	0.47355598
128	0x3fb02bc2	1.3763354
129	0xbdbec897	-0.09315603
130	0x3f4628cf	0.7740602
131	0x3f33e46d	0.70270425
132	0xbf1e27e6	-0.6177963
133	0x3ef81e01	0.4846039
134	0xbea5a97d	-0.32355872
135	0xbe069fd9	-0.13146915
136	0x3fa42e43	1.2826618
137	0xc0412a33	-3.0182006
138	0x401c7af4	2.4450045
139	0x3f222d9d	0.6335085
140	0xbec46720	-0.38359928
141	0x3ffc78d3	1.9724373
142	0xbfa8b5de	-1.3180501
143	0xbeea9df8	-0.45823646
144	0x3f8801aa	1.0625508
145	0x3eb3f8af	0.35150668
146	0x3f358feb	0.70922726
147	0xbeb0c216	-0.34523076
148	0x3d9a84d0	0.07544863
149	0x40445416	3.0676322
150	0xbeab8105	-0.33496872
151	0xbf3262f1	-0.6968222
152	0x4008c26a	2.136866
153	0xbd5c764b	-0.05382375
154	0x3f068ac5	0.52555496
155	0x3efbcda4	0.4918033
156	0xbf5667d4	-0.8375218
157	0x3e132da4	0.1437288
158	0x3f2e1af5	0.68009883
159	0x3e8863d8	0.26638675
160	0x3e5cd622	0.2156606
161	0xc0423600	-3.034546
162	0xc08452fe	-4.135131
163	0x3f955c56	1.1668804
164	0x3f9ba495	1.2159601
165	0x3eed7be4	0.46383584
166	0xbfe9f6e1	-1.8278466
167	0xbfcbbdfd	-1.5917355
168	0xbd9e721b	-0.07736608
169	0xc082c8d9	-4.0870175
170	0x3faa30ea	1.3296177
171	0xbfcd3420	-1.6031532
172	0x3ed27492	0.4110456
173	0xbf30bc08	-0.6903691
174	0xbfb94ee3	-1.4477199
175	0xc088516f	-4.2599406
176	0xbed87bf6	-0.42282075
177	0xbe896a04	-0.26838696
178	0x40001b87	2.0016801
179	0xbf14281e	-0.57873714
180	0xbf508d5f	-0.81465715
181	0x3f88eb63	1.0696834
182	0x3fb4874d	1.410379
183	0x3f706c1a	0.9391495
184	0x40208d7f	2.5086362
185	0xbf0d3de3	-0.55172557
186	0x3f737fcf	0.95116895
187	0x3f31d902	0.6947175
188	0x3d63554a	0.05550126
189	0x3fa416e2	1.2819483
190	0xbe1d6057	-0.15368782
191	0x3f12547a	0.5716015
192	0xbe439170	-0.19098449
193	0x3e297227	0.16547452
194	0x3e2569aa	0.16153589
195	0xbf89b5ea	-1.0758641
196	0xbc8abd9b	-0.016936114
197	0xbdce9687	-0.100873046
198	0xbff9f8a7	-1.9529008
199	0xbf7835ed	-0.96957284
200	0xbf0fef86	-0.5622486
201	0x3ee33385	0.44375244
202	0xbe5b54fb	-0.21419136
203	0xbf0561e5	-0.521025
204	0xbf4c8dc3	-0.7990381
205	0xbf89a0ed	-1.0752236
206	0xbfb23979	-1.3923789
207	0x3ef84fcd	0.48498383
208	0x3ec3eb00	0.38265228
209	0xbf6a73b8	-0.9158282
210	0x3f63c204	0.8896792
211	0xbf1a02a4	-0.6016028
212	0xbf459ff8	-0.7719722
213	0xbeb8a93d	-0.3606662
214	0xbf6d27bd	-0.9263876
215	0x3f61b118	0.8816085
216	0xbf2a3c6d	-0.6649845
217	0xbe402b70	-0.1876657
218	0xbfaf343e	-1.3687818
219	0x3f4bacbe	0.7956046
220	0xbf2be330	-0.67143536
221	0x3e3b4a40	0.18290043
222	0x3f525494	0.82160306
223	0xbf84dfdc	-1.0380816
224	0xbf8d4850	-1.1037693
225	0x3d15ffc9	0.03662089
226	0xbf9f8742	-1.2463152
227	0xbf7e82ae	-0.9941815
228	0x3d7968f0	0.06089109
229	0x3f55e721	0.835558
230	0x3fc334b2	1.5250456
231	0x3f65c038	0.8974643
232	0xbe411d86	-0.18858919
233	0xbf351268	-0.7073121
234	0xbedc078e	-0.42974514
235	0x3f33fe2a	0.703097
236	0x3f49ac52	0.78778565
237	0x3daad7a7	0.08341914
238	0x3f0e8d86	0.556847
239	0x3fa5aff3	1.294432
240	0x3e0311d2	0.12799767
241	0xbe83d906	-0.25751513
242	0xbf5978b4	-0.84949803
243	0x3e058ab4	0.13041192
244	0xbf38f4fb	-0.7224881
245	0xbed40e71	-0.41417268
246	0xbf1a2fff	-0.60229486
247	0xbe4eeff8	-0.20208728
248	0xbfe084c0	-1.7540512
249	0x3f87c50c	1.0607009
250	0x3f2ec777	0.6827311
251	0x4077ffb3	3.8749816
252	0xc0068d62	-2.1023793
253	0xbdc1ea8d	-0.09468565
254	0x3e417599	0.18892516
255	0x3f52229a	0.8208405

Decoder.lstm_layer.bias_ih_l0 f4 [128]
0	0xbf397588	-0.72444963
1	0x3e6e7cb6	0.23289761
2	0xbf35fb5f	-0.71086687
3	0xbf306a09	-0.68911797
4	0x3c10b44b	0.008832048
5	0xbfa9e7ac	-1.3273826
6	0xbe769135	-0.2407883
7	0xbefa9a7a	-0.4894598
8	0x3f3619fa	0.7113339
9	0x3ea6dd8b	0.325909
10	0xbf897d35	-1.0741335
11	0x3edfdac1	0.43721583
12	0xbe919398	-0.28432918
13	0xbf84aa53	-1.0364479
14	0xbf36647d	-0.7124708
15	0xbf4f045a	-0.80866015
16	0xbf6fa85c	-0.9361627
17	0xba684061	-0.0008859691
18	0xbd8e3da5	-0.069453515
19	0xc01f0e8c	-2.4852629
20	0xbf48f670	-0.78501034
21	0xbea9b118	-0.33142924
22	0xbea8bb82	-0.32955557
23	0xbe8598d5	-0.26093164
24	0xc00bf8a4	-2.1870508
25	0xbefb795c	-0.49116027
26	0x3e62a56f	0.2213342
27	0xbe6ce60d	-0.23134632
28	0xbf2416b6	-0.64097154
29	0xbf8de35d	-1.1085011
30	0xbe8661ef	-0.26246592
31	0xbe69d509	-0.22835173
32	0x3e74f5cb	0.23921888
33	0x3db958e6	0.09050159
34	0x3de6052b	0.112314545
35	0xbe50a16c	-0.20374078
36	0x3ed4087b	0.4141272
37	0x3fd31990	1.6492176
38	0xbe1aaa44	-0.15104014
39	0xbe91c7dc	-0.28472793
40	0xbf2d9c9a	-0.6781708
41	0xbf180bf7	-0.59393257
42	0xbdac8a0d	-0.084247686
43	0xbeb97621	-0.36222938
44	0x3f1cacdb	0.61201257
45	0x3e621baf	0.22080873
46	0xbe87f363	-0.26552877
47	0x3f71007d	0.9414137
48	0x3dc528cf	0.09626924
49	0xbf47dcf7	-0.7807154
50	0x3f17395e	0.5907191
51	0x3f891e7d	1.0712429
52	0x3f6be623	0.92148036
53	0x3e58e0c3	0.2117949
54	0x3f0edb6e	0.55803573
55	0xbf059f85	-0.5219653
56	0xbf355c4d	-0.70843965
57	0x3f6c1eb5	0.92234355
58	0xbf7df77b	-0.9920575
59	0xbe8f1018	-0.27941966
60	0xbdca5db0	-0.09881151
61	0xbe13865b	-0.14406721
62	0x3f836293	1.0264457
63	0x3ed11d11	0.40842488
64	0xbf049d42	-0.51802456
65	0xbdab8c31	-0.08376349
66	0xbe6ec98e	-0.23319075
67	0x3e9e073b	0.3086489
68	0xbf028715	-0.5098737
69	0x3dd127bc	0.10212657
70	0x3eb934df	0.3617315
71	0x3f2d3ee8	0.6767411
72	0xbe288d70	-0.16460204
73	0x3ebf0f58	0.37316394
74	0x3ea7b89a	0.32758027
75	0xbd19de4a	-0.037565507
76	0xbe7af7f6	-0.24508652
77	0xbe6e1e0d	-0.23253651
78	0x3ca9ab78	0.020711645
79	0xbe195cb0	-0.14976764
80	0xbe6ae2c5	-0.22938068
81	0x3d64af4b	0.055831235
82	0xbe89d066	-0.26916808
83	0x3d91476f	0.07093703
84	0x3d388d4a	0.04505662
85	0xbd4b98b2	-0.04970617
86	0xbd89d1b0	-0.06729448
87	0xbf23bc56	-0.6395925
88	0xbfb44e88	-1.4086466
89	0xbc8fdd76	-0.017561655
90	0x3e4f5ab8	0.2024945
91	0xbe0424a3	-0.12904601
92	0x3f16a075	0.5883859
93	0x3eba87fd	0.36431876
94	0xbcdb759d	-0.02678948
95	0xbc16ea2d	-0.009211105
96	0x3ed0ecf9	0.40805796
97	0xbe81f8ef	-0.25385234
98	0x3eaf8f54	0.34289038
99	0x3dc20efa	0.09475513
100	0xbf0431c4	-0.51638436
101	0xbfd7cbeb	-1.6859106
102	0xbdc5e126	-0.09662084
103	0xbeb17f86	-0.34667605
104	0x3ea4f5dc	0.32218826
105	0xbef63590	-0.4808774
106	0xbe77d8c3	-0.24203782
107	0xbe588175	-0.21143134
108	0x3d841f70	0.06451309
109	0xbec2bb7b	-0.3803366
110	0x3e07755b	0.13228361
111	0xbf2aa944	-0.6666453
112	0xbfbeaefb	-1.489715
113	0x3d83818f	0.06421196
114	0xbf3a2931	-0.72719103
115	0xbfe84d66	-1.814862
116	0x3f0c059c	0.5469606
117	0xbebd798d	-0.37006798
118	0xbf719e0c	-0.94381785
119	0x3ec8772b	0.39153418
120	0xbf86d0f3	-1.0532516
121	0xbe6253d3	-0.22102289
122	0x3e434edf	0.19073056
123	0x3f039f82	0.51415265
124	0xbda205a4	-0.07911232
125	0xbf0cbaab	-0.5497233
126	0x3e8a4e55	0.27012888
127	0xbe16131d	-0.14655729
